models/best_fraud_model_seed_9876.pth (torch, 378242 bytes, 45 tensors)

node_emb.weight f4 [64, 8]
-0.15158531 -0.10171706 -0.16491938 0.028293768 0.33131337 0.045769017 -0.19007526 -0.11172581
-0.13363871 0.13251877 0.12534228 0.23675865 -0.06901672 -0.26568842 0.05316678 -0.27710667
-0.10179308 0.17597178 0.27099308 0.3072246 0.1553658 0.20687877 -0.045656227 -0.18196957
0.19835992 -0.06992375 -0.026254114 -0.042738006 -0.21790886 -0.030340983 0.036636204 0.25697002
-0.111072056 0.16556224 0.33783048 0.17950729 -0.28052783 0.3064481 -0.03545417 0.2821641
-0.15854111 -0.004878942 0.018726952 0.14917907 0.09543634 -0.0055476334 0.119926594 0.27729642
0.24850146 0.34130225 -0.2517126 0.25774014 0.117119 0.037468966 0.19087948 0.029054213
-0.16617976 -0.11142432 0.23471807 0.14045408 -0.24846219 -0.27640128 0.24452075 -0.24230583
-0.060394954 0.1277828 0.014033089 -0.14018546 -0.21534011 -0.29336965 -0.07208004 -0.11297513
-0.2885391 -0.32016078 0.22669688 -0.02820811 0.22936368 0.056261975 -0.119183235 0.24559045
0.02980105 -0.2349785 -0.20680304 0.040370945 0.07755537 -0.08156347 0.18856314 0.098489225
-0.20574872 -0.34696284 -0.121902294 0.14639941 0.2978946 0.28871718 -0.17760462 -0.17840828
0.34886682 0.12887986 0.070756964 0.12287243 -0.25317675 -0.13558769 -0.09162841 0.3144073
0.09296844 0.16976176 -0.17950529 -0.35414585 -0.30352294 -0.21964999 -0.26424405 0.20392221
0.08615332 -0.26555714 0.11024155 0.16411984 -0.054777008 -0.16696884 -0.34682095 0.27307835
0.28960875 -0.26942244 -0.051538397 -0.071387686 -0.047915068 0.17185895 0.03619954 -0.15010796
-0.071816295 0.21158953 0.23712361 0.11088796 0.35162935 0.16556692 0.14161703 -0.1417985
-0.10720144 0.007887069 0.1382848 -0.02321697 0.027296029 0.04071359 0.25201252 0.0445831
-0.01683542 -0.11765397 0.17814611 -0.091943696 0.14846128 -0.07100094 -0.015941782 0.3202552
-0.07164799 -0.13734125 0.23982248 0.11886236 -0.20184422 0.24202023 -0.22939995 -0.28398317
0.21824747 0.27098224 -0.278215 -0.018577464 0.1741192 0.12493983 -0.2149449 0.165078
0.14760156 0.097594045 0.001095849 0.23415916 -0.18461233 -0.04555702 -0.14994593 0.097225375
0.18034741 0.15015121 -0.21343541 -0.32708666 -0.056853447 -0.27069974 0.03993211 -0.020610062
-0.32943365 0.18433984 -0.08823418 -0.11641455 0.35193157 0.12322783 -0.17502958 -0.146346
0.04126615 -0.19543561 0.2481472 0.21478099 0.29300207 0.22420137 -0.3135303 0.18651767
0.06485404 -0.3022808 -0.0343709 -0.22556308 0.21457046 0.17177612 0.26837632 0.013748833
0.25297433 0.33739352 0.23859072 -0.29827115 0.23101355 -0.032223467 -0.21762688 -0.028667789
0.14857373 -0.07135057 -0.23828839 -0.16811338 0.21251252 0.12899409 -0.27000353 -0.29820576
0.23286091 -0.11725839 0.29855913 -0.33042976 -0.30002528 0.15952611 0.22742853 -0.20208348
-0.07802067 -0.3331579 -0.00692874 -0.21878336 0.3378767 0.23626776 -0.04628863 -0.3380459
0.1341085 0.29061043 0.32041708 -0.17172709 0.13919373 -0.01975701 0.031654473 0.29581618
0.22628528 0.16856003 0.33947876 0.16722871 -0.011530723 0.08347425 0.28523803 -0.2026326
00000000: 2e39 1bbe 0951 d0bd a0e0 28be 55c8 e73c
00000010: e8a1 a93e 4b78 3b3d 17a3 42be 80d0 e4bd
00000020: 96d8 08be 00b3 073e ba59 003e dc70 723e
00000030: a358 8dbd 5008 88be 69c5 593d ede0 8dbe
00000040: e478 d0bd f231 343e 9bbf 8a3e 8b4c 9d3e
00000050: 3618 1f3e 07d8 533e 0602 3bbd 3b56 3abe
00000060: dd1e 4b3e 2f34 8fbd de12 d7bc 0c0e 2fbd
00000070: 8023 5fbe a78d f8bc d80f 163d 9391 833e
00000080: bf79 e3bd 2689 293e 1ef8 ac3e c2d0 373e
00000090: 58a1 8fbe c4e6 9c3e 6438 11bd d077 903e
000000a0: 9a58 22be 88df 9fbb 4469 993c 66c2 183e
000000b0: 2174 c33d ecc8 b5bb 139c f53d ccf9 8d3e
000000c0: 2b77 7e3e 2bbf ae3e 79e0 80be 84f6 833e
000000d0: 16dc ef3d 0f79 193d e975 433e 1a03 ee3c
000000e0: 072b 2abe 6f32 e4bd ef59 703e 32d3 0f3e
000000f0: df6c 7ebe 7884 8dbe a663 7a3e 051f 78be
00000100: b360 77bd 7fd9 023e 0beb 653c c78c 0fbe
00000110: 1e82 5cbe 8c34 96be b39e 93bd 815f e7bd
00000120: 66bb 93be 1dec a3be 3a23 683e b214 e7bc
00000130: 50de 6a3e f572 663d 5716 f4bd 107c 7b3e
00000140: 5521 f43c 349e 70be 2dc4 53be 015c 253d
00000150: 5ad5 9e3d c00a a7bd b216 413e b8b4 c93d
00000160: cbaf 52be 1da5 b1be e9a7 f9bd bae9 153e
00000170: a485 983e bdd2 933e fcdd 35be a9b0 36be
00000180: ac9e b23e 15f9 033e 07e9 903d 8aa4 fb3d
00000190: 62a0 81be 80d7 0abe ada7 bbbd fef9 a03e
000001a0: 3d66 be3d 07d6 2d3e 3cd0 37be 9b52 b5be
000001b0: 5c67 9bbe edeb 60be ff4a 87be fcd0 503e
000001c0: 2771 b03d 1bf7 87be 52c6 e13d 080f 283e
000001d0: db5d 60bd e1f9 2abe 8492 b1be edd0 8b3e
000001e0: 9947 943e bdf1 89be ed19 53bd b533 92bd
000001f0: 9742 44bd cbfb 2f3e f845 143d e7b5 19be
00000200: 6c14 93bd edaa 583e 88d0 723e 3a19 e33d
00000210: c308 b43e 608a 293e 0e04 113e a033 11be
00000220: 6e8c dbbd c438 013c 889a 0d3e 8431 bebc
00000230: ec9b df3c 4bc3 263d c907 813e c59c 363d
00000240: 6fea 89bc 91f4 f0bd ef6b 363e fa4c bcbd
00000250: 3c06 183e f168 91bd 5798 82bc 7df8 a33e
00000260: 2ebc 92bd 2fa3 0cbe 0694 753e 1c6e f33d
00000270: 40b0 4ebe 27d4 773e d2e7 6abe 3e66 91be
00000280: 447c 5f3e 2fbe 8a3e 3272 8ebe c42f 98bc
00000290: 4e4c 323e 74e0 ff3d 841a 5cbe 350a 293e
000002a0: dd24 173e 63df c73d 97a2 8f3a 6bc7 6f3e
000002b0: 040b 3dbe ff99 3abd 6d8b 19be 191e c73d
000002c0: feac 383e 3dc1 193e d08e 5abe e777 a7be
000002d0: 29df 68bd 2899 8abe da8f 233d 6fd6 a8bc
000002e0: 87ab a8be 95c3 3c3e 1fb4 b4bd c06a eebd
000002f0: 6030 b43e df5e fc3d f43a 33be badb 15be
00000300: b206 293d 4620 48be 4d1a 7e3e 8cef 5b3e
00000310: 5e04 963e 0b95 653e 0b87 a0be 7dfe 3e3e
00000320: 32d2 843d 8dc4 9abe 80c8 0cbd 02fa 66be
00000330: 5cb8 5b3e 14e6 2f3e 9f68 893e c942 613c
00000340: da85 813e d8be ac3e 2051 743e ffb6 98be
00000350: d18e 6c3e c1fc 03bd 95d9 5ebe b6d8 eabc
00000360: b623 183e 3f20 92bd df01 74be ea25 2cbe
00000370: e29c 593e 0717 043e e73d 8abe 6dae 98be
00000380: 1773 6e3e 2b25 f0bd bedc 983e 172e a9be
00000390: ea9c 99be d05a 233e 06e3 683e f9ee 4ebe
000003a0: 4dc9 9fbd ac93 aabe 7c0a e3bb bf08 60be
000003b0: 2dfe ac3e 2df0 713e 2699 3dbd 5a14 adbe
000003c0: bd53 093e e4ca 943e b50d a43e 3ad9 2fbe
000003d0: cd88 0e3e 74d9 a1bc 1fa8 013d 3875 973e
000003e0: 54b7 673e 009b 2c3e 29d0 ad3e 013e 2b3e
000003f0: 5ceb 3cbc 8cf4 aa3d b80a 923e ec7e 4fbe

node_emb.bias f4 [64]
0.34394446 0.26727185 -0.058722764 0.28854147 -0.07090362 0.2714776 -0.031491876 -0.077820644
0.20282137 -0.23312321 0.269031 -0.14676602 0.17347051 -0.344223 -0.18896158 -0.0784222
0.29849026 0.1263276 0.1920358 0.33626246 -0.1789414 0.10390907 0.20012042 0.14816943
-0.005599621 -0.22743389 0.09549121 -0.009932712 0.08614046 -0.049446274 -0.06507443 -0.051960234
-0.12676089 0.27950078 -0.12204199 -0.1180617 -0.01235313 0.32608387 -0.26591742 -0.29312584
-0.13065134 0.043431167 0.06311216 0.07026721 -0.18021403 -0.3090113 -0.325888 -0.014031988
0.31809145 -0.23312171 -0.16772279 0.12924714 -0.23472293 0.10537736 -0.30181712 0.015264574
-0.33184034 0.20016742 -0.08520524 0.08119673 0.32073513 0.33157688 -0.07904628 -0.26145682
00000000: 7d19 b03e dbd7 883e 4887 70bd b5bb 933e
00000010: eb35 91bd 1dff 8a3e a0fd 00bd 6e60 9fbd
00000020: 68b0 4f3e dab7 6ebe 6ebe 893e d549 16be
00000030: 41a2 313e ff3d b0be 257f 41be d29b a0bd
00000040: b7d3 983e 065c 013e 08a5 443e 982a ac3e
00000050: 6a3c 37be 47ce d43d 5eec 4c3e bab9 173e
00000060: 077d b7bb 6ee4 68be e590 c33d d0bc 22bc
00000070: 696a b03d 2d88 4abd be45 85bd 41d4 54bd
00000080: 9bcd 01be ba1a 8f3e 27f1 f9bd 55ca f1bd
00000090: c864 4abc 77f4 a63e 5426 88be 9714 96be
000000a0: 77c9 05be e1e4 313d f340 813d 41e8 8f3d
000000b0: 078a 38be bb36 9ebe cbda a6be 6ce6 65bc
000000c0: e2dc a23e 75b7 6ebe 86bf 2bbe 5d59 043e
000000d0: 355b 70be 16d0 d73d c687 9abe 4418 7a3c
000000e0: fae6 a9be b0f8 4c3e 1680 aebd 794a a63d
000000f0: 6537 a43e 72c4 a93e 04e3 a1bd abdd 85be

edge_emb.weight f4 [64, 2]
-0.44629914 0.35613194 -0.021873279 -0.07370198 0.59242326 -0.25529143 0.33070615 -0.5163992
0.42883393 0.07097253 -0.47898945 0.69080985 0.116033435 0.5459673 -0.322903 0.64720666
0.10609298 -0.3449359 -0.4161181 0.39863667 0.05395909 -0.48212194 -0.19851984 -0.18755001
-0.6330141 0.34046745 0.09392666 0.53921413 0.59968364 -0.62167937 -0.17703947 0.36914793
-0.40182203 -0.56247956 -0.4284448 0.38180327 0.32370234 0.27154624 -0.18222804 -0.023543831
-0.6271144 0.61672926 0.6001972 -0.60704803 0.4883974 0.43177038 0.640826 0.39193505
-0.7057831 0.22961119 -0.09259764 0.36865532 0.6550527 -0.4578227 0.27385724 0.68394387
0.4990028 0.2714328 0.4009274 0.38825375 -0.41780284 -0.0548552 0.55822414 0.32856748
-0.34555927 0.54792005 -0.35240996 -0.11179256 0.1911498 0.1340029 0.38331312 0.69431776
-0.38290337 0.09640056 0.25995386 0.20686157 -0.51187074 -0.04979868 -0.30780515 -0.24971268
-0.052422326 0.5302532 0.25851876 -0.33564246 0.63665944 -0.36871734 -0.41080984 -0.6716239
0.5949653 0.022954827 -0.074878715 0.42432836 -0.680184 0.34543154 0.6930096 -0.27488598
-0.6703846 -0.13677347 -0.35554928 -0.46468538 0.30883983 0.6746618 -0.5510177 -0.6584744
0.61032873 -0.7055946 0.0027300506 -0.14374305 -0.0824714 0.13560858 -0.1363113 0.32560182
0.60465467 -0.61580217 -0.3374974 -0.091167524 -0.09152099 -0.49602693 0.23212136 0.50525934
0.57005924 0.3301621 0.0024565307 0.1789148 -0.30581397 0.23740704 -0.18538462 0.5813245
00000000: 5281 e4be ed56 b63e 972f b3bc 10f1 96bd
00000010: 0da9 173f 8fb5 82be 5152 a93e bd32 04bf
00000020: 1f90 db3e 0c5a 913d 1b3e f5be ead8 303f
00000030: f0a2 ed3d 83c4 0b3f 8b53 a5be 56af 253f
00000040: 4747 d93d 709b b0be 6e0d d5be 1b1a cc3e
00000050: 3504 5d3d b0d8 f6be c948 4bbe 1c0d 40be
00000060: 360d 22bf c051 ae3e 9f5c c03d f009 0a3f
00000070: de84 193f 6126 1fbf d649 35be f500 bd3e
00000080: 9ebb cdbe a9fe 0fbf 1e5d dbbe b87b c33e
00000090: 50bc a53e 1c08 8b3e fd99 3abe fede c0bc
000000a0: 928a 20bf f8e1 1d3f 86a6 193f 8067 1bbf
000000b0: 390f fa3e 0211 dd3e 2c0d 243f b6ab c83e
000000c0: 34ae 34bf 321f 6b3e d5a3 bdbd 64c0 bc3e
000000d0: 89b1 273f bd67 eabe 0437 8c3e f216 2f3f
000000e0: 4c7d ff3e 3df9 8a3e 5b46 cd3e 32c9 c63e
000000f0: 41ea d5be d9af 60bd c7e7 0e3f ff39 a83e
00000100: 25ed b0be 7d44 0c3f 146f b4be 7ff3 e4bd
00000110: c6bc 433e 0e38 093e 9e41 c43e cfbe 313f
00000120: e90b c4be a86d c53d ac18 853e 85d3 533e
00000130: f609 03bf b3f9 4bbd a398 9dbe aeb4 7fbe
00000140: cbb8 56bd acbe 073f 925c 843e 54d9 abbe
00000150: 1dfc 223f 85c8 bcbe ab55 d2be 8bef 2bbf
00000160: a54f 183f c30b bc3c 035a 99bd 9141 d93e
00000170: 8a20 2ebf 67dc b03e 1469 313f dbbd 8cbe
00000180: 539e 2bbf 580e 0cbe 8e0a b6be 3eeb edbe
00000190: 4120 9e3e a3b6 2c3f 7f0f 0dbf c791 28bf
000001a0: 813e 1c3f d9a1 34bf a6ea 323b 6131 13be
000001b0: c4e6 a8bd fadc 0a3e 3095 0bbe 48b5 a63e
000001c0: a6ca 1a3f 36a5 1dbf 76cc acbe 0ab6 babd
000001d0: 5b6f bbbd 3ef7 fdbe 39b1 6d3e ad58 013f
000001e0: 67ef 113f 020b a93e bffd 203b 7135 373e
000001f0: a693 9cbe d51a 733e 77d5 3dbe afd1 143f

edge_emb.bias f4 [64]
0.29588458 0.36832 -0.29290056 -0.27736208 0.13744079 0.2457566 -0.50912696 -0.45133302
-0.52733934 -0.2833553 0.4594547 -0.07080079 -0.6121075 0.10902606 0.010776355 0.49007776
-0.51415724 0.24383482 -0.6942981 0.4374924 0.5154626 -0.057070136 0.5220356 0.5132232
-0.5928804 0.40395087 -0.5826427 -0.21732005 -0.44792873 -0.42467168 -0.13624057 -0.15235758
-0.25359932 -0.5465776 -0.25539425 -0.40691522 0.5284075 -0.23676471 0.1527361 -0.5098003
0.34582463 -0.55478615 0.37078634 -0.58067536 0.39011478 0.4860867 0.67316043 -0.62396497
0.6055057 0.39791286 0.6403565 -0.43407905 -0.38585016 0.62348783 -0.25114825 0.104373276
0.5159134 -0.41995624 -0.42870677 -0.53853256 -0.24810413 0.20256688 -0.22748199 0.2692831
00000000: 2f7e 973e 7094 bc3e 10f7 95be 6702 8ebe
00000010: 47bd 0c3e 9ea7 7b3e 2556 02bf 1f15 e7be
00000020: b6ff 06bf f213 91be a53d eb3e 0100 91bd
00000030: 14b3 1cbf 0e49 df3d 4f8f 303c 79eb fa3e
00000040: cf9f 03bf d6af 793e 85bd 31bf 01ff df3e
00000050: 5bf5 033f 60c2 69bd 20a4 053f 9862 033f
00000060: 03c7 17bf a6d2 ce3e 1228 15bf 2689 5ebe
00000070: ea56 e5be 916e d9be a682 0bbe a003 1cbe
00000080: c5d7 81be 82ec 0bbf 09c3 82be 3157 d0be
00000090: b745 073f 7372 72be da66 1c3e 4682 02bf
000000a0: ed0f b13e 7706 0ebf b5d7 bd3e 24a7 14bf
000000b0: 20bd c73e 5be0 f83e 3e54 2c3f 2bbc 1fbf
000000c0: 6c02 1b3f 3cbb cb3e 67ee 233f 9c3f debe
000000d0: 278e c5be e69c 1f3f 8196 80be a8c1 d53d
000000e0: e712 043f 8104 d7be 747f dbbe 45dd 09bf
000000f0: 020f 7ebe b16d 4f3e 0af1 68be 79df 893e

gat_layers.0.att_src f4 [1, 4, 16]
-0.2059558 -0.11196307 -0.38013008 0.071088344 0.14805488 -0.12180187 0.50051814 -0.3255837
0.541546 -0.31101704 -0.061966386 -0.050712876 0.19462301 0.049842365 -0.14975686 -0.17364743
0.36010662 0.32706085 -0.07879868 -0.0782181 0.07166378 -0.054262176 0.5420547 0.17199421
0.074639745 -0.5191651 0.092315845 -0.22901155 -0.011411475 -0.30769885 0.29191062 -0.45642212
-0.19837862 -0.17298947 0.27429497 -0.5263136 -0.15716758 0.3921459 0.5280249 0.4631811
-0.30649787 -0.24096514 0.4314944 -0.25634116 0.23088384 0.3822904 -0.0039515584 -0.52763397
0.4755382 0.20882203 0.09585387 0.3991919 0.48702204 0.29042053 0.32789168 0.4955296
-0.42795786 -0.15543048 -0.3551798 -0.18253806 -0.3434655 0.5083302 -0.19703889 -0.3547328
00000000: 14e6 52be e54c e5bd 69a0 c2be c496 913d
00000010: b39b 173e 4273 f9bd f521 003f e8b2 a6be
00000020: c2a2 0a3f a03d 9fbe 77d0 7dbd 4eb8 4fbd
00000030: 414b 473e 8227 4c3d dd59 19be a2d0 31be
00000040: e55f b83e 8574 a73e 3461 a1bd d030 a0bd
00000050: 76c4 923d 0442 5ebd 19c4 0a3f 401f 303e
00000060: b9dc 983d 01e8 04bf 1710 bd3d 0182 6abe
00000070: 32f7 3abc b48a 9dbe 4f75 953e 29b0 e9be
00000080: c423 4bbe 2724 31be 6470 8c3e 7dbc 06bf
00000090: 8af0 20be 59c7 c83e a42c 073f 1326 ed3e
000000a0: 4aed 9cbe 91bf 76be d6ec dc3e 263f 83be
000000b0: d06c 6c3e 91bb c33e 137c 81bb 0513 07bf
000000c0: be79 f33e 71d5 553e 094f c43d e162 cc3e
000000d0: f45a f93e 00b2 943e 6be1 a73e 0eb6 fd3e
000000e0: 4b1d dbbe 2b29 1fbe 20da b5be 42eb 3abe
000000f0: b6da afbe ee21 023f 90c4 49be 8a9f b5be

gat_layers.0.att_dst f4 [1, 4, 16]
-0.1386868 -0.4317382 -0.12299386 0.19958775 -0.3143601 -0.36647725 0.28374535 0.27039072
-0.012328801 0.19933324 0.44544226 -0.3146481 0.09886953 0.4749149 -0.049847994 -0.16916066
0.45046225 -0.20487507 0.113651805 -0.19553612 0.39974445 -0.46258342 -0.40022886 -0.1998846
-0.15128696 -0.16896857 0.21693453 -0.28445506 0.3549418 0.17350975 -0.29263023 0.5150793
0.42406029 -0.040554028 0.14490652 -0.53953797 -0.54021466 0.27265048 -0.3813138 -0.33706626
0.09776212 -0.18453747 0.5058145 -0.117369354 0.0657095 -0.5012018 -0.38311058 0.04784503
-0.48910353 -0.2754016 -0.5393037 0.13212956 0.14446872 -0.11865059 -0.42439443 0.23140356
-0.35196552 0.22223686 -0.08891757 -0.3539518 0.07598762 -0.5022931 0.51929873 0.18561381
00000000: ea03 0ebe ca0c ddbe 34e4 fbbd bb60 4c3e
00000010: cff3 a0be e8a2 bbbe 1247 913e a770 8a3e
00000020: bdfe 49bc 031e 4c3e 0211 e43e 8e19 a1be
00000030: 1c7c ca3d 0c28 f33e 692d 4cbd 7438 2dbe
00000040: fda2 e63e c5ca 51be 47c2 e83d 9f3a 48be
00000050: 4eab cc3e bcd7 ecbe ccea ccbe 8cae 4cbe
00000060: f8ea 1abe 1906 2dbe 1624 5e3e 18a4 91be
00000070: eeba b53e 8aac 313e a1d3 95be 3ddc 033f
00000080: 6e1e d93e fb1b 26bd 6062 143e 291f 0abf
00000090: 824b 0abf d898 8b3e 903b c3be f393 acbe
000000a0: 8237 c83d 64f7 3cbe 0f7d 013f 585f f0bd
000000b0: b492 863d c34e 00bf 1227 c4be 26f9 433d
000000c0: c76b fabe 7001 8dbe cf0f 0abf f94c 073e
000000d0: 9cef 133e 15ff f2bd 3a4a d9be 0ef5 6c3e
000000e0: d334 b4be 0f92 633e 6a1a b6bd 2c39 b5be
000000f0: 669f 9b3d 4896 00bf c3f0 043f 8c11 3e3e

gat_layers.0.att_edge f4 [1, 4, 16]
0.43873465 0.39280117 0.06687727 0.43907002 -0.020693088 0.12196769 0.22402805 0.49819192
-0.26645815 -0.41587794 0.53414136 0.23536628 -0.35738486 -0.08193063 0.111572474 0.31790978
0.06677071 0.11703779 -0.04475455 -0.23707998 -0.38279566 0.34500504 0.059686646 0.08076653
-0.5162313 -0.01289235 -0.15251964 -0.36138883 0.12428015 -0.13404469 -0.05148125 0.3893382
-0.16674596 0.4204129 -0.53686327 0.41375625 -0.43030146 0.20777903 0.24600573 -0.40221998
0.3445267 0.008088742 -0.46520564 -0.43793768 0.004710726 -0.49437428 0.47031757 0.13896681
-0.049628075 -0.2191121 0.30092084 -0.11129289 0.36727828 0.4731161 0.51155865 -0.24382772
0.397433 -0.36163896 0.21818149 0.012394088 -0.07869744 -0.16595015 0.2462661 0.5173617
00000000: d4a1 e03e 3c1d c93e f3f6 883d c9cd e03e
00000010: 8d84 a9bc 32ca f93d 9c67 653e 0313 ff3e
00000020: 346d 88be f4ed d4be 7dbd 083f dc03 713e
00000030: 26fb b6be 3fcb a7bd 1c80 e43d 12c5 a23e
00000040: 15bf 883d 82b1 ef3d 8c50 37bd 18c5 72be
00000050: cbfd c3be 80a4 b03e fc79 743d ec68 a53d
00000060: bc27 04bf 6f3a 53bc 1c2e 1cbe f507 b9be
00000070: 9786 fe3d 0343 09be 01de 52bd 5657 c73e
00000080: 74bf 2abe 5c40 d73e df6f 09bf dcd7 d33e
00000090: 7950 dcbe 07c4 543e ede8 7b3e c7ef cdbe
000000a0: ce65 b03e a586 043c 6f2f eebe 5e39 e0be
000000b0: 6f5c 9a3b a01e fdbe 77cd f03e 514d 0e3e
000000c0: cf46 4bbd ec5e 60be 4c12 9a3e 87ed e3bd
000000d0: e60b bc3e 463c f23e 82f5 023f f9ad 79be
000000e0: 577c cb3e be28 b9be f86a 5f3e 9310 4b3c
000000f0: 202c a1bd d6ee 29be 2e2d 7c3e d171 043f

gat_layers.0.bias f4 [64]
0.004455532 -0.00044661976 0.0036495419 0.0051122354 0.0078044976 0.008122883 0.0018346251 -0.0061094826
-0.0063354815 0.004894887 -0.0063214954 0.006958438 0.0065479116 -0.006345052 -0.0027775667 0.008533693
0.009029567 -0.004656765 -0.0058385846 -0.0062516457 -0.005475326 0.0092230495 -0.0063137924 -0.0063021095
-0.0061890604 0.007841259 -0.0044972105 0.007704858 -0.006138821 -0.006043694 -0.0010207901 -0.0063423864
0.009577666 -0.0045255725 -0.0033961486 -0.0063053644 -0.0062836055 -0.0063118697 -0.0061072563 -0.0062351157
-0.0062834327 -0.002693387 -0.0063005737 -0.0047186175 0.0010725202 -0.0060926187 -0.0061158165 -0.0062820986
-0.006371181 -0.0058938055 -0.005905019 -0.00590222 -0.0059200414 -0.0058975355 -0.005904502 -0.00596993
-0.0047317958 -0.00642364 -0.0058625555 -0.0034804053 -0.005870091 -0.00096322555 -0.0058469 -0.0008379117
00000000: b6ff 913b 4a28 eab9 272d 6f3b 8a84 a73b
00000010: dfbc ff3b d715 053c ce77 f03a 0e32 c8bb
00000020: df99 cfbb 4a65 a03b 8c24 cfbb 9c03 e43b
00000030: dd8f d63b 27ea cfbb d607 36bb e7d0 0b3c
00000040: c0f0 133c c797 98bb 9951 bfbb 9bda ccbb
00000050: 5d6a b3bb 461c 173c eee3 cebb ed81 cebb
00000060: 9acd cabb a078 003c 565d 93bb 0979 fc3b
00000070: 2a28 c9bb 2e0a c6bb 08cc 85ba cbd3 cfbb
00000080: a5eb 1c3c 414b 94bb eb91 5ebb 3b9d cebb
00000090: b4e6 cdbb cdd3 cebb 611f c8bb f14f ccbb
000000a0: 41e5 cdbb 8983 30bb 0b75 cebb a29e 9abb
000000b0: ce93 8c3a 97a4 c7bb 3067 c8bb 10da cdbb
000000c0: 57c5 d0bb d320 c1bb e47e c1bb 6967 c1bb
000000d0: e8fc c1bb 1d40 c1bb 8d7a c1bb 679f c3bb
000000e0: 2e0d 9bbb 667d d2bb ae1a c0bb 8317 64bb
000000f0: e459 c0bb f980 7cba 5a97 bfbb 4da7 5bba

gat_layers.0.lin.weight f4 [64, 64]
0.15187274 -0.09975396 0.0027420467 -0.029306937 0.058327824 0.14265746 0.12464581 -0.1933325
-0.1729071 -0.023165824 0.052237816 -0.1629382 -0.04454261 -0.21489841 0.0871259 -0.084103316
-0.18778157 0.21564464 0.15007761 -0.16661759 -0.10035866 0.019717712 0.06718361 0.19997957
0.040247355 -0.04883754 0.021210784 0.06757677 0.19190551 0.070409365 -0.16338755 0.18610142
0.14716439 0.08756653 0.01890885 0.102476776 -0.0210643 0.16345409 0.12475577 -0.13816392
-7.343227e-05 -0.015617253 -0.12129581 0.025660025 -0.16661635 -0.095791064 -0.119854525 -0.15440652
0.09895087 0.090127796 -0.031692952 -0.15902227 -0.11004174 0.18935198 -0.17214496 -0.14084758
0.20567445 0.13988456 -0.045854244 -0.18420066 -0.12381698 0.21607143 -0.072684474 -0.011434057
0.15875876 0.20115808 -0.14056228 0.02621616 -0.027566062 -0.03200971 -0.17921643 0.18381262
-0.17592132 -0.2104262 -0.105535254 0.16141012 -0.053959098 0.007878796 -0.06780049 0.14045733
0.13773195 0.18756378 0.03918265 0.030776706 0.03278054 -0.09102859 0.13918766 -0.12144082
-0.023101568 0.19079737 -0.048853774 0.016800478 0.1875297 -0.10795621 0.071200356 0.16859826
0.070795335 0.13759461 -0.03864567 -0.15704572 0.07746615 -0.011888017 -0.13613719 0.11529667
-0.2064612 0.12711245 -0.19538248 0.1670875 -0.047172707 -0.092199765 -0.17735672 0.04247154
0.06735681 -0.15542692 0.19439222 0.14002132 -0.058455948 0.1639131 -0.032180455 0.10540315
-0.21373355 0.0834047 -0.0112163015 0.16359742 0.12377192 0.121761546 -0.18408902 0.17807919
-0.07696782 0.15369281 -0.10633691 -0.0039873305 0.13919891 0.1352656 -0.07978139 0.05596373
-0.1272217 -0.11682327 -0.07177484 -0.15321064 0.21550474 -0.11602047 -0.052630376 0.0327834
-0.21053976 0.07513098 0.06709682 0.055803843 -0.1376482 0.21353178 0.10125283 0.10180368
0.091990165 -0.15046044 0.1931821 0.19923495 -0.12435388 0.19159074 0.1057703 -0.15747058
-0.060786918 0.050467014 -0.2027527 -0.19638091 0.039813273 0.10800837 -0.045600265 0.01428227
-0.04186584 0.13769211 -0.11770397 0.038728744 0.09222348 -0.17399794 -0.15875828 -0.2110188
0.17036419 -0.2079578 -0.021625647 0.20364325 0.11392072 -0.17145845 -0.08783809 0.034163192
-0.04543069 0.17467463 -0.086225554 -0.024320591 0.092035085 0.1752036 -0.11370643 0.1857418
0.17985687 -0.07866338 -0.013590369 0.079880714 0.20554638 0.06666176 -0.12279479 -0.045151215
0.16006103 0.04974053 0.08414214 -0.18517324 -0.025353828 0.14601794 -0.04278527 0.12662917
-0.21161358 0.1779154 0.06534554 -0.05259031 -0.045085248 -0.19399859 -0.16694947 0.023269964
-0.11683636 0.03084835 0.18617849 -0.19959979 -0.13424234 0.19564319 0.14786394 0.0651427
0.11836083 -0.12082386 -0.11501893 -0.19254121 0.007224301 -0.21476376 0.025422366 -0.06016651
0.020916859 0.023323217 0.16269527 -0.10665605 0.0019473154 0.05083086 -0.17758547 -0.086581945
0.05712635 -0.1721084 0.0006883629 -0.06076147 0.0068083666 -0.12430825 -0.0186298 -0.057825524
0.027473532 0.123669334 -0.020618428 0.034626205 0.18566851 0.014764789 -0.17261666 -0.08477198
00000000: 8784 1b3e ce4b ccbd e9b3 333b 1a15 f0bc
00000010: 28e9 6e3d cc14 123e 4d46 ff3d f4f8 45be
00000020: 8f0e 31be 41c6 bdbc 52f7 553d 46d9 26be
00000030: 5072 36bd 540e 5cbe 106f b23d 5c3e acbd
00000040: d049 40be f3d1 5c3e f2ad 193e cd9d 2abe
00000050: d788 cdbd 0a87 a13c 8f97 893d 72c7 4c3e
00000060: 69da 243d df09 48bd 3dc2 ad3c b165 8a3d
00000070: e182 443e c932 903d 114f 27be 5f91 3e3e
00000080: 43b2 163e 1556 b33d bce6 9a3c 58df d13d
00000090: 0a8f acbc 8260 273e f47f ff3d d87a 0dbe
000000a0: a6ff 99b8 82df 7fbc f069 f8bd f934 d23c
000000b0: 7a9d 2abe 1b2e c4bd 4a76 f5bd be1c 1ebe
000000c0: c1a6 ca3d ec94 b83d 78d0 01bd bcd6 22be
000000d0: 905d e1bd 7ce5 413e c546 30be 593a 10be
000000e0: 539c 523e e63d 0f3e a9d1 3bbd 199f 3cbe
000000f0: c293 fdbd d441 5d3e 99db 94bd e955 3bbc
00000100: a891 223e 62fc 4d3e 8fef 0fbe 46c3 d63c
00000110: 39d2 e1bc 9d1c 03bd 8384 37be 6039 3c3e
00000120: b824 34be f779 57be de22 d8bd b248 253e
00000130: 3704 5dbd 1116 013c fcda 8abd 0cd4 0f3e
00000140: 9b09 0d3e b810 403e fd7d 203d 6e1f fc3c
00000150: e344 063d 336d babd 3687 0e3e f7b5 f8bd
00000160: 803f bdbc 6360 433e e51a 48bd 28a1 893c
00000170: c907 403e 2518 ddbd 7ed1 913d 06a5 2c3e
00000180: 25fd 903d 9ae5 0c3e ec4a 1ebd 98d0 20be
00000190: 93a6 9e3d f5c5 42bc 8c67 0bbe a920 ec3d
000001a0: 916a 53be c429 023e 5812 48be fc18 2b3e
000001b0: 2b38 41bd 3bd3 bcbd 009d 35be a3f6 2d3d
000001c0: 5ef2 893d 3c28 1fbe c10e 473e c061 0f3e
000001d0: 816f 6fbd d6d8 273e a7cf 03bd 9bdd d73d
000001e0: f8dc 5abe 15d0 aa3d 94c4 37bc 1586 273e
000001f0: 227c fd3d 1e5e f93d d581 3cbe 645a 363e
00000200: 4ea1 9dbd a661 1d3e 2ac7 d9bd 27a8 82bb
00000210: 298a 0e3e 1183 0a3e 6d64 a3bd 393a 653d
00000220: 6846 02be 0a41 efbd b0fe 92bd 40e3 1cbe
00000230: 46ad 5c3e 249c edbd f392 57bd e347 063d
00000240: bc97 57be 45de 993d 0f6a 893d 9292 643d
00000250: a6f3 0cbe 13a8 5a3e a55d cf3d 737e d03d
00000260: 5765 bc3d 4d12 1abe 87d1 453e 3f04 4c3e
00000270: 3fad febd 5d30 443e 199e d83d f83f 21be
00000280: b4fb 78bd 80b6 4e3d 679e 4fbe 1418 49be
00000290: 3e13 233d 7e33 dd3d 58c7 3abd 2f00 6a3c
000002a0: 847b 2bbd 29ff 0c3e c70e f1bd 08a2 1e3d
000002b0: aadf bc3d 842c 32be 8891 22be 5015 58be
000002c0: f373 2e3e e4f2 54be 4528 b1bc db87 503e
000002d0: 444f e93d ce92 2fbe 75e4 b3bd b4ee 0b3d
000002e0: 8815 3abd e8dd 323e 0697 b0bd fa3b c7bc
000002f0: e47c bc3d 9368 333e ebde e8bd 1933 3e3e
00000300: 662c 383e 441a a1bd 24aa 5ebc 8098 a33d
00000310: c07a 523e f685 883d d67b fbbd 7bf0 38bd
00000320: 0ae7 233e babc 4b3d b752 ac3d 0e9e 3dbe
00000330: d5b2 cfbc ba85 153e 9b3f 2fbd 14ab 013e
00000340: 3bb1 58be 742f 363e e2d3 853d f068 57bd
00000350: 4fab 38bd 91a7 46be cdf4 2abe a7a0 be3c
00000360: e747 efbd aeb5 fc3c 93a5 3e3e e363 4cbe
00000370: d376 09be b056 483e a569 173e 8969 853d
00000380: 2a67 f23d 8072 f7bd 0b8f ebbd 8629 45be
00000390: d4b9 ec3b 08eb 5bbe 9142 d03c 2971 76bd
000003a0: d559 ab3c 5510 bf3c 9799 263e 7d6e dabd
000003b0: 103d ff3a 0534 503d f7d8 35be e051 b1bd
000003c0: 52fd 693d 2f3d 30be 4173 343a 05e1 78bd
000003d0: b818 df3b 5395 febd 869d 98bc 75da 6cbd
000003e0: 2c10 e13c 5946 fd3d fae7 a8bc 35d4 0d3d
000003f0: e31f 3e3e 03e8 713c 6cc2 30be ef9c adbd

gat_layers.0.lin_edge.weight f4 [64, 64]
0.030498737 0.03663496 -0.16783865 -0.1543278 0.18764363 -0.023471998 0.17030106 0.13324715
-0.07651387 -0.097570404 -0.12254654 -0.016417695 0.042957965 0.09488652 -0.17612362 -0.07143363
-0.11296271 -0.07406388 -0.13123128 -0.19702257 -0.086818576 0.10401421 0.046225313 -0.009471466
0.07517199 -0.027117092 0.15270774 0.17763574 -0.0637632 0.20693356 -0.10800429 -0.14147954
-0.12978622 -0.055507883 0.07148723 0.05501933 -0.012171699 0.17321607 0.12763561 0.19889742
0.19970226 -0.04661693 -0.020614762 -0.050520185 0.12518473 0.045241565 0.16345611 0.07402275
0.07175836 0.15646298 -0.029126069 -0.072883636 -0.018850049 0.19762379 0.1270498 0.12317035
-0.017507363 0.01984012 -0.04468877 0.15853848 -0.14878918 0.19454381 -0.013679896 0.03266663
0.021822125 -0.070459455 0.087664776 0.12606482 -0.0814637 0.09860109 0.036441687 0.124367036
0.010635259 -0.008082255 -0.12912717 -0.08537009 0.18473196 -0.12265864 -0.21539028 0.04392584
0.036334466 0.18914264 -0.12522076 -0.04749878 -0.13409898 0.15436482 0.07097297 -0.11959027
0.12500153 0.19990833 -0.18254328 0.12498197 0.10270064 -0.1626307 0.01301402 -0.17363387
-0.12827872 0.05690727 -0.08332615 0.073026486 -0.08426492 -0.028274404 0.007982059 -0.0852994
0.0689459 0.171466 0.043071296 0.01768311 0.1990025 -0.0010894965 -0.17915525 0.1532592
0.16389164 -0.17661753 -0.13458559 0.061918914 -0.19593383 -0.20703025 -0.20463009 0.00814783
-0.16794243 -0.2018193 -0.074534096 0.15550895 -0.10184368 0.09450681 0.028644592 -0.18682651
-0.143949 -0.116475426 0.14218816 -0.15533902 0.17713799 0.030406365 0.076252185 -0.03944309
-0.037234787 0.029702105 -0.11466563 0.06834831 -0.1706985 0.084984206 -0.010521361 -0.16633798
0.038987618 0.019675989 -0.09138596 -0.113410845 -0.113216534 0.19764379 -0.031028498 -0.074587636
-0.06408793 0.16349165 -0.09852448 0.067302905 -0.2073976 0.073813185 0.036285073 0.058962695
-0.03985106 -0.082360655 0.052245148 0.006692276 -0.09112174 0.21310836 0.017769802 0.18369967
0.16024573 0.18552627 -0.014172335 -0.17991257 -0.013800331 -0.110599115 0.06783551 0.13096209
0.054154497 -0.06523663 -0.17313167 0.07880956 0.11714002 0.14655387 0.14236617 -0.15335414
0.05657012 0.13403937 -0.08503777 -0.07298058 -0.07815331 -0.1778114 -0.123990305 -0.17669554
0.038354162 0.08939682 -0.014620663 -0.07122267 -0.17509091 -0.048839245 0.035715573 -0.16370213
0.041902617 0.09449457 0.20257132 0.2015069 -0.0791713 0.17008138 0.05703578 -0.21316907
0.19060637 -0.13219106 0.06742788 -0.15138412 0.04805864 -0.16223715 0.08923161 0.20735405
-0.20187622 -0.03582766 0.17736131 0.1645734 0.19985054 0.13161501 -0.122013904 -0.1430592
0.14399877 0.15242225 -0.1684243 -0.04997448 -0.15057717 0.0609106 -0.06325461 -0.18081696
-0.20039763 -0.034929108 0.13180532 -0.009521185 -0.20228226 -0.10824547 -0.17781794 -0.017050924
0.07892786 0.14430912 0.0755691 -0.06686444 -0.20965484 0.108582936 -0.21451597 -0.19042571
-0.027778255 -0.0005147943 0.071714856 -0.12374453 0.15129335 -0.17122842 0.06464945 0.15507822
00000000: 7dd8 f93c 8a0e 163d e5dd 2bbe 1b08 1ebe
00000010: a725 403e 5948 c0bc 6763 2e3e f171 083e
00000020: 4eb3 9cbd fed2 c7bd aef9 fabd 677e 86bc
00000030: b1f4 2f3d dd53 c23d c059 34be cc4b 92bd
00000040: fe58 e7bd ceae 97bd 7e61 06be 49c0 49be
00000050: f0cd b1bd 6705 d53d c156 3d3d 352e 1bbc
00000060: c6f3 993d aa24 debc 6b5f 1c3e 25e6 353e
00000070: 4896 82bd 64e6 533e 5a31 ddbd 03e0 10be
00000080: aee6 04be 3c5c 63bd e667 923d f35b 613d
00000090: ce6b 47bc 8e5f 313e e9b2 023e c4ab 4b3e
000000a0: c07e 4c3e 65f1 3ebd 4ae0 a8bc 41ee 4ebd
000000b0: 6d30 003e 384f 393d 0a61 273e 3d99 973d
000000c0: 0cf6 923d d537 203e cb99 eebc 0444 95bd
000000d0: 6b6b 9abc e45d 4a3e 5819 023e bd40 fc3d
000000e0: 9a6b 8fbc bf87 a23c 920b 37bd e957 223e
000000f0: 315c 18be 7e36 473e a421 60bc 72cd 053d
00000100: 50c4 b23c 0c4d 90bd 9789 b33d 2317 013e
00000110: 71d6 a6bd 5eef c93d e143 153d 25b4 fe3d
00000120: 823f 2e3c 6f6b 04bc ea39 04be 84d6 aebd
00000130: 602a 3d3e 7434 fbbd 458f 5cbe 95eb 333d
00000140: 73d3 143d 9cae 413e df39 00be 158e 42bd
00000150: 3e51 09be d011 1e3e 475a 913d beeb f4bd
00000160: 6700 003e c5b4 4c3e a0ec 3abe 8cf6 ff3d
00000170: b754 d23d aa88 26be c238 553c 14cd 31be
00000180: 7f5b 03be 9917 693d e7a6 aabd e98e 953d
00000190: 1693 acbd b99f e7bc 2fc7 023c 74b1 aebd
000001a0: 8233 8d3d c894 2f3e 876b 303d 2bdc 903c
000001b0: 50c7 4b3e 70cd 8eba 7974 37be fbef 1c3e
000001c0: 36d3 273e 3adb 34be ced0 09be b09e 7d3d
000001d0: e1a2 48be bdff 53be 8d8a 51be 7a7e 053c
000001e0: 1af9 2bbe b8a9 4ebe 55a5 98bd bd3d 1f3e
000001f0: 6b93 d0bd c98c c13d 10a8 ea3c 734f 3fbe
00000200: 5e67 13be ab8a eebd c699 113e 3111 1fbe
00000210: a963 353e c516 f93c 1b2a 9c3d 148f 21bd
00000220: 8183 18bd d451 f33c d0d5 eabd 33fa 8b3d
00000230: 96cb 2ebe 330c ae3d c961 2cbc 8154 2abe
00000240: 7bb1 1f3d 8a2f a13c 9028 bbbd f243 e8bd
00000250: 12de e7bd 2263 4a3e 7a2f febc 67c1 98bd
00000260: 8840 83bd 5b6a 273e 34c7 c9bd 1bd6 893d
00000270: 0960 54be 5e2b 973d a89f 143d de82 713d
00000280: dd3a 23bd b4ac a8bd 02ff 553d e14a db3b
00000290: 099e babd 1439 5a3e fa91 913c c41b 3c3e
000002a0: 7517 243e 99fa 3d3e 1533 68bc 003b 38be
000002b0: c91a 62bc ca81 e2bd 58ed 8a3d ed1a 063e
000002c0: 1bd1 5d3d c89a 85bd 6e49 31be e866 a13d
000002d0: 1be7 ef3d 3812 163e 70c8 113e de08 1dbe
000002e0: 12b6 673d 9e41 093e 4828 aebd d876 95bd
000002f0: d80e a0bd 3114 36be a1ee fdbd adef 34be
00000300: 4119 1d3d ae15 b73d 818b 6fbc 31dd 91bd
00000310: 084b 33be a90b 48bd 7e4a 123d 88a1 27be
00000320: 14a2 2b3d 5e86 c13d db6e 4f3e d357 4e3e
00000330: 9024 a2bd d029 2e3e 5a9e 693d fe48 5abe
00000340: 512e 433e 185d 07be a117 8a3d 7004 1bbe
00000350: 23d9 443d 7f21 26be 10bf b63d 9f54 543e
00000360: a4b8 4ebe 06c0 12bd 349e 353e ee85 283e
00000370: 9fa5 4c3e 16c6 063e 6de2 f9bd 1c7e 12be
00000380: 6a74 133e 9414 1c3e 6b77 2cbe 0ab2 4cbd
00000390: e730 1abe 657d 793d a28b 81bd 1528 39be
000003a0: 0935 4dbe d311 0fbd f9f7 063e bffe 1bbc
000003b0: 1523 4fbe cdaf ddbd e815 36be 61ae 8bbc
000003c0: eea4 a13d c5c5 133e f9c3 9a3d 39f0 88bd
000003d0: c2af 56be bb60 de3d 13aa 5bbe f5fe 42be
000003e0: 398f e3bc 43f3 06ba 3ddf 923d c66d fdbd
000003f0: a5ec 1a3e 8156 2fbe ee66 843d d3cc 1e3e

gat_layers.1.att_src f4 [1, 4, 16]
0.40478313 0.35272375 0.37100342 0.12800667 -0.2216281 -0.1714472 0.10748589 -0.39088365
0.21235459 -0.35639048 0.44356853 0.36423695 0.052951787 0.18672404 -0.22773252 0.53381646
0.09022288 0.21233049 0.18006213 -0.20900741 0.103511386 -0.39782637 0.42244405 0.16009498
-0.28648788 0.34595257 0.022187907 -0.06600675 0.17194057 -0.3443909 -0.25229594 0.005464326
0.31542844 0.13980375 0.42381582 0.45621613 0.26339257 -0.30209953 -0.105805784 0.32308406
0.17162909 -0.37470663 0.4191911 -0.1322857 -0.38816413 -0.2052608 0.53221565 0.18559289
-0.46520108 0.17015158 -0.47927204 -0.2043908 0.3858428 -0.19665067 -0.28689927 0.37525105
-0.20683156 0.04240518 0.09857329 0.4321699 0.39472649 0.470394 0.108539596 -0.02782251
00000000: bc3f cf3e 3598 b43e 29f4 bd3e 2e14 033e
00000010: 7af2 62be db8f 2fbe 9021 dc3d e721 c8be
00000020: 7b73 593e d078 b6be 6a1b e33e 447d ba3e
00000030: f9e3 583d 9634 3f3e b732 69be 32a8 083f
00000040: c6c6 b83d 2a6d 593e 3562 383e 0a06 56be
00000050: c7fd d33d e6af cbbe 964a d83e f0ef 233e
00000060: 8aae 92be b220 b13e 6ac3 b53c 8c2e 87bd
00000070: 3011 303e 0154 b0be ef2c 81be 170e b33b
00000080: d67f a13e b728 0f3e 63fe d83e 2995 e93e
00000090: 64db 863e caac 9abe b4b0 d8bd 466b a53e
000000a0: 89bf 2f3e 8cd9 bfbe 37a0 d63e e775 07be
000000b0: 73bd c6be e32f 52be 493f 083f 100c 3e3e
000000c0: d62e eebe 373c 2e3e 2563 f5be d24b 51be
000000d0: 308d c53e cb5e 49be 76e4 92be e820 c03e
000000e0: a7cb 53be 0eb1 2d3d cbe0 c93d 6045 dd3e
000000f0: 9719 ca3e 7bd7 f03e 024a de3d 08ec e3bc

gat_layers.1.att_dst f4 [1, 4, 16]
-0.15831983 0.5287795 -0.12667568 0.20790783 0.038764857 0.021541335 0.35889295 -0.2683967
0.19506498 0.19479501 0.15465154 -0.38867182 0.06261187 -0.12522577 -0.462539 -0.3588518
0.5300971 0.2053102 0.28238606 -0.10162401 0.31093323 -0.46935898 -0.51373345 -0.049236115
0.49689916 -0.01170601 0.05971809 0.24826376 -0.13638149 0.25038388 -0.16414872 -0.3812417
0.25413334 0.33774042 -0.2644239 0.43781698 -0.029380979 0.060603656 -0.371692 -0.015516821
-0.27051523 0.31654745 0.44270134 0.22306766 -0.09279696 -0.3389872 0.21367168 -0.5194604
0.39492664 0.03059601 -0.1320785 -0.13878013 0.40129146 -0.47296584 -0.07766439 -0.26401535
0.017205352 0.4591413 -0.32953387 -0.13392358 0.504406 -0.004465654 -0.12577558 -0.41158247
00000000: 981e 22be 185e 073f 45b7 01be cae5 543e
00000010: e6c7 1e3d 7477 b03c d1c0 b73e 4b6b 89be
00000020: 1dbf 473e 5878 473e f95c 1e3e feff c6be
00000030: a73a 803d 2f3b 00be e9d1 ecbe 6cbb b7be
00000040: 72b4 073f d63c 523e e894 903e 4020 d0bd
00000050: a432 9f3e d24f f0be 0984 03bf cfab 49bd
00000060: 9169 fe3e 91ca 3fbc f59a 743d db38 7e3e
00000070: 97a7 0bbe 5132 803e 9a16 28be 1d32 c3be
00000080: c41d 823e 50ec ac3e 9262 87be 8c29 e03e
00000090: 61b0 f0bc 8a3b 783d 6a4e bebe 443a 7ebc
000000a0: f980 8abe 8212 a23e c0a9 e23e d96b 643e
000000b0: 550c bebd bb8f adbe c0cc 5a3e 5bfb 04bf
000000c0: d333 ca3e 7ca4 fa3c 963f 07be 611c 0ebe
000000d0: 1376 cd3e 9428 f2be 820e 9fbd 052d 87be
000000e0: 3df2 8c3c 9214 eb3e aab8 a8be 4323 09be
000000f0: c020 013f 9f54 92bb 50cb 00be f0ba d2be

gat_layers.1.att_edge f4 [1, 4, 16]
-0.4527806 -0.010583855 0.20428087 0.534222 0.110436305 0.4106836 -0.27089384 -0.09124511
0.45851085 -0.13539433 0.19587432 -0.14334406 0.014234741 -0.048782304 0.08216904 0.021086143
0.18687947 0.13305594 0.49875522 0.43463466 -0.43152118 -0.100339785 0.5310797 -0.3346001
-0.43175998 0.51568556 -0.19131382 0.29752964 -0.0063218498 0.41064206 0.05597922 0.46300668
0.15629472 0.079669766 0.46913943 0.30560637 0.36916265 0.29543954 -0.54003567 -0.14724033
-0.06547521 0.40328467 -0.388329 0.24037899 0.24136086 -0.13734457 0.42041096 -0.3420872
0.4058144 0.08010712 -0.5229858 0.116530366 0.12801176 -0.52035886 0.410604 -0.21445937
0.09021151 -0.4892874 0.40342635 -0.347832 -0.26057377 0.11583675 0.08885061 0.43018907
00000000: dcd2 e7be e867 2dbc 012f 513e c6c2 083f
00000010: 6e2c e23d 1f45 d23e 99b2 8abe b7de babd
00000020: efc1 ea3e d0a4 0abe 4793 483e c9c8 12be
00000030: d538 693c f4cf 47bd 3e48 a83d d9bc ac3c
00000040: 555d 3f3e d13f 083e d85c ff3e 6f88 de3e
00000050: 58f0 dcbe f27e cdbd d7f4 073f b450 abbe
00000060: a50f ddbe f803 043f c5e7 43be ce55 983e
00000070: 8527 cfbb ad3f d23e 774a 653d 360f ed3e
00000080: b90b 203e e729 a33d 0b33 f03e 7078 9c3e
00000090: e302 bd3e da43 973e c73f 0abf 2bc6 16be
000000a0: de17 86bd 547b ce3e 0fd3 c6be e925 763e
000000b0: 4d27 773e 0ea4 0cbe 1b40 d73e 0e26 afbe
000000c0: e8c6 cf3e 340f a43d 66e2 05bf 79a7 ee3d
000000d0: 8415 033e 3d36 05bf b03a d23e 3d9b 5bbe
000000e0: d0c0 b83d e183 fabe e68d ce3e 0917 b2be
000000f0: ed69 85be d13b ed3d 4ff7 b53d be41 dc3e

gat_layers.1.bias f4 [64]
0.0029586975 6.3719286e-05 0.0012643777 0.0029377744 -0.005734987 0.0069179684 0.0016999242 -0.005863442
-0.005946116 0.0060742153 -0.005828756 0.00685059 0.0053950734 -0.0061409567 -0.005722178 0.0079200845
0.007876562 -0.0059177056 -0.004480605 0.0053964485 -0.0059527247 0.008130717 -0.00471432 -0.0058453116
-0.0058970917 0.004973995 -0.0059227413 0.0070937565 -0.005638338 -0.003702531 -0.0046311305 -0.006160576
0.008475963 -0.005418377 -0.0050460193 -0.006117202 -0.005719334 -0.006001222 -0.005820558 -0.0056981067
0.00589129 -0.005891398 0.0056799324 -0.005927875 -0.0059686657 -0.0050652935 -0.0060328576 -0.0055113537
-0.005699435 -0.00527945 0.0048951735 0.008090226 -0.006551549 -0.0067901267 -0.0067068 -0.0056865676
-0.004785747 -0.006589059 -0.0064731506 -0.004690201 -0.006809273 -0.0043581133 -0.006784511 -0.0060204854
00000000: b5e6 413b 08a1 8538 7ab9 a53a ad87 403b
00000010: 8fec bbbb 20b0 e23b fecf de3a 1e22 c0bb
00000020: a3d7 c2bb 360a c73b 26ff bebb ea7a e03b
00000030: 28c9 b03b 143a c9bb 1c81 bbbb 3ec3 013c
00000040: b20c 013c 50e9 c1bb 0ad2 92bb b1d4 b03b
00000050: 130f c3bb b336 053c 957a 9abb 078a bfbb
00000060: 643c c1bb e5fc a23b 8e13 c2bb be72 e83b
00000070: cfc1 b8bb 2aa6 72bb bdc0 97bb a8de c9bb
00000080: c4de 0a3c a48c b1bb 1459 a5bb cf72 c8bb
00000090: 4069 bbbb e6a5 c4bb 61ba bebb 2fb7 babb
000000a0: b90b c13b a10c c1bb ba1e ba3b 9f3e c2bb
000000b0: cc94 c3bb c3fa a5bb 47af c5bb 9698 b4bb
000000c0: 53c2 babb 3dff acbb b167 a03b de8c 043c
000000d0: 60ae d6bb b67f debb b7c4 dbbb 6356 babb
000000e0: c1d1 9cbb 08e9 d7bb b91c d4bb 42b0 99bb
000000f0: 5220 dfbb 81ce 8ebb 9a50 debb 7e47 c5bb

gat_layers.1.lin.weight f4 [64, 64]
0.18946065 -0.07300875 0.14375435 -0.029413112 -0.11450353 -0.124157004 0.19919528 -0.029837536
0.19768478 0.12129873 0.16543551 0.2029775 -0.14304101 0.13621102 -0.0700735 0.20106426
0.02225483 0.16976681 0.009921113 -0.06765603 0.016704429 -0.112000294 0.042459156 -0.13465598
-0.08819746 -0.13402656 -0.19640921 0.032029238 0.14164457 0.15681987 -0.009012166 -0.047440983
-0.05719563 0.06298504 0.013571425 0.08780205 0.1470225 0.0063191196 0.0029342184 0.0056096273
-0.018825045 -0.007566578 -0.070992716 -0.038428955 -0.006973159 0.15854241 0.04066446 -0.17407805
-0.10451961 0.042744447 -0.115381725 -0.20462744 -0.09243787 0.107150756 -0.05889935 -0.21056357
-0.06746395 -0.12251469 -0.1463861 0.03595352 0.20269115 0.11191801 0.17740345 0.04084434
-0.15810913 0.072245896 -0.039232925 0.07075436 0.037497208 -0.17365363 -0.09009212 -0.06830373
0.2070267 -0.15050206 -0.14395966 -0.124412864 0.1430345 0.13772993 -0.05534998 -0.08198072
-0.07293094 -0.11390426 -0.1838363 0.029025566 -0.06866856 -0.17603211 0.01844727 0.17830351
0.11277209 0.08260437 0.0007315732 0.08904667 0.06649403 0.077993505 -0.077178985 0.04381301
-0.112665944 0.0022806367 0.13241827 -0.065262154 0.09060689 0.12579009 0.18672696 0.11620732
0.117140085 0.108912304 0.15436718 0.09411678 -0.053435802 0.055672497 -0.21144465 -0.13978669
0.17368421 -0.14752243 -0.11006419 0.19823453 0.09071213 0.11989214 -0.118233405 -0.15737927
0.1470709 -0.015380859 0.003787734 0.14121526 0.20157027 -0.1605725 -0.048915487 0.16029707
-0.1844487 -0.15204483 0.19767506 -0.16829148 0.18183182 -0.19855426 -0.15736605 0.12642011
-0.16527912 0.18086728 0.06517825 -0.04583129 -0.08828357 -0.1278188 0.17013367 -0.06784611
0.06553968 -0.20481727 -0.19257787 0.20182744 0.0983888 -0.16360925 0.0472107 -0.20503499
0.054675624 -0.039364852 -0.1679949 -0.10673958 -0.16749662 0.20668538 0.09914717 -0.16257326
0.19736959 -0.13673596 0.12344012 0.10004701 0.2121262 -0.12695588 -0.16185673 -0.093247734
-0.09019194 -0.05349006 0.102687225 -0.05453017 0.12056509 -0.21475963 0.013649745 -0.089087315
0.12756169 0.16881943 0.13356575 -0.03844577 -0.070300035 -0.056827113 0.08089136 -0.06299907
-0.06015154 0.10909343 -0.13354735 -0.13565059 -0.16405056 0.0057940446 0.13200366 0.11028975
-0.09708379 0.21629314 0.02940565 0.11703576 0.07338383 -0.056295782 0.21739754 -0.11917419
-0.07095237 0.10950068 -0.14289136 0.05714218 -0.17605385 -0.12862341 0.13952781 0.20897935
-0.030810108 0.17344762 -0.11820035 -0.10810106 0.016213132 0.09501619 -0.15788762 -0.011304676
0.11971135 -0.20298919 0.15334067 0.19111711 -0.12996991 0.10194604 0.06311263 -0.16934963
-0.17254207 -0.17277737 0.22025482 0.06519995 0.19836095 -0.20960319 0.20416541 -0.004977835
0.16808766 -0.20921038 -0.1848212 0.044478033 -0.04123827 -0.02657209 -0.19265851 -0.06164672
0.13967076 -0.1301757 -0.08968587 -0.15397134 -0.015725978 -0.010192264 -0.16068277 0.10348499
-0.013291204 -0.111663245 -0.14572275 0.13379079 -0.022830902 -0.16468488 0.13300343 -0.08954284
00000000: f901 423e 9d85 95bd 5734 133e c4f3 f0bc
00000010: d480 eabd 0746 febd d9f9 4b3e d96d f4bc
00000020: e16d 4a3e 786b f83d ed67 293e 55d9 4f3e
00000030: 5879 12be e77a 0b3e b282 8fbd cae3 4d3e
00000040: c34f b63c 5ad7 2d3e 2a8c 223c 3f8f 8abd
00000050: bad7 883c 6960 e5bd a7e9 2d3d 42e3 09be
00000060: dfa0 b4bd 423e 09be 7f1f 49be 1731 033d
00000070: 460b 113e 6395 203e c4a7 13bc 7a51 42bd
00000080: f745 6abd 4dfe 803d af5a 5e3c 90d1 b33d
00000090: 118d 163e 9e10 cf3b 044c 403b f7d0 b73b
000000a0: fb36 9abc 0ff1 f7bb a164 91bd ae67 1dbd
000000b0: 197f e4bb f158 223e c78f 263d 8441 32be
000000c0: 610e d6bd cd14 2f3d 414d ecbd db89 51be
000000d0: 1150 bdbd db71 db3d 7240 71bd fa9d 57be
000000e0: 8a2a 8abd fbe8 fabd 3de6 15be 0044 133d
000000f0: 458e 4f3e 4535 e53d 40a9 353e 654c 273d
00000100: 5ce7 21be a8f5 933d b4b2 20bd a9e7 903d
00000110: ac96 193d 42d2 31be 3882 b8bd d3e2 8bbd
00000120: cffe 533e 361d 1abe 296a 13be 2ccc febd
00000130: a377 123e 1309 0d3e a9b6 62bd 82e5 a7bd
00000140: d15c 95bd a346 e9bd 953f 3cbe 06c7 ed3c
00000150: 1aa2 8cbd c341 34be bb1e 973c 3295 363e
00000160: 0ef5 e63d 7b2c a93d 0cc7 3f3a 1a5e b63d
00000170: 062e 883d 0fbb 9f3d 0410 9ebd 4575 333d
00000180: 67bd e6bd bc76 153b a898 073e 2aa8 85bd
00000190: 1b90 b93d 1ecf 003e 5a35 3f3e 1afe ed3d
000001a0: 24e7 ef3d 6a0d df3d 6e12 1e3e 4cc0 c03d
000001b0: 80df 5abd d808 643d f284 58be 3e24 0fbe
000001c0: 46da 313e 1f10 17be 5669 e1bd fefd 4a3e
000001d0: 48c7 b93d 038a f53d 5b24 f2bd 0828 21be
000001e0: c199 163e 0000 7cbc a23b 783b bc9a 103e
000001f0: 7068 4e3e 1e6d 24be 9b5b 48bd ea24 243e
00000200: 1fe0 3cbe a4b1 1bbe 556b 4a3e 9a54 2cbe
00000210: 1f32 3a3e cf51 4bbe 9124 21be 4674 013e
00000220: ee3e 29be 4635 393e 2d7c 853d 97b9 3bbd
00000230: 04ce b4bd eee2 02be 8537 2e3e e7f2 8abd
00000240: ab39 863d 9ebb 51be 2233 45be daab 4e3e
00000250: 1180 c93d 2f89 27be 0260 413d b1f4 51be
00000260: 8cf3 5f3d 0a3d 21bd db06 2cbe 489a dabd
00000270: 3c84 2bbe 55a5 533e ac0d cb3d 9b79 26be
00000280: 411b 4a3e 8304 0cbe 2cce fc3d 72e5 cc3d
00000290: 9c37 593e b900 02be c5bd 25be abf8 bebd
000002a0: 8db6 b8bd 6518 5bbd ae4d d23d 075b 5fbd
000002b0: d4ea f63d f3e9 5bbe 2ea3 5f3c 6973 b6bd
000002c0: 889f 023e 00df 2c3e 76c5 083e 5079 1dbd
000002d0: 77f9 8fbd 8cc3 68bd 5faa a53d a805 81bd
000002e0: 7661 76bd 606c df3d a3c0 08be fde7 0abe
000002f0: dffc 27be f8db bd3b f82b 073e 98df e13d
00000300: ded3 c6bd f37b 5d3e 1ee4 f03c 72b0 ef3d
00000310: 434a 963d 6896 66bd 769d 5e3e 9911 f4bd
00000320: 7a4f 91bd e441 e03d 1d52 12be eb0d 6a3d
00000330: 7647 34be dbb5 03be 61e0 0e3e affe 553e
00000340: 7b65 fcbc 419c 313e 0613 f2bd 1764 ddbd
00000350: 67d1 843c d997 c23d 4bad 21be 3f37 39bc
00000360: 392b f53d 66dc 4fbe 5605 1d3e 34b4 433e
00000370: d516 05be 16c9 d03d 3241 813d fd69 2dbe
00000380: deae 30be 8dec 30be 7b8a 613e 8d87 853d
00000390: 221f 4b3e 38a2 56be bd10 513e 1b1d a3bb
000003a0: 2c1f 2c3e 3f3b 56be c541 3dbe 992e 363d
000003b0: 76e9 28bd b6ad d9bc 4648 45be 4581 7cbd
000003c0: da05 0f3e c74c 05be 3aad b7bd aaaa 1dbe
000003d0: c4d3 80bc 74fd 26bc 068a 24be f0ef d33d
000003e0: 5ac3 59bc b3af e4bd 5838 15be 7400 093e
000003f0: df07 bbbc 27a3 28be 0d32 083e 3d62 b7bd

gat_layers.1.lin_edge.weight f4 [64, 64]
0.13078432 0.10254901 0.11908193 -0.17191848 0.13894835 0.00031077408 -0.14734656 0.117453456
-0.040049832 0.03684647 -0.16311708 -0.06667471 0.045864016 0.11219543 -0.20485258 0.10377493
-0.040398613 -0.093953125 0.18549316 0.18706888 0.11748388 -0.16557825 -0.17623393 -0.16498767
0.19500092 0.19058438 -0.073268674 -0.15726694 0.04016325 0.11383102 -0.13380143 -0.042730972
0.14196715 0.039958883 0.21504754 -0.056990694 0.022840856 -0.21184428 0.090698905 -0.17320581
0.12187405 0.1913524 -0.1792784 0.052986886 0.07854288 0.0313377 -0.044350155 0.08957542
-0.09850666 -0.19949953 0.15569445 0.16002858 -0.1481119 0.18996896 -0.031204088 0.012766089
-0.15735452 -0.04962147 -0.21101044 0.12719885 0.1562225 -0.17656937 0.055412255 -0.13220033
-0.058361582 0.13116515 -0.1578603 0.09346636 0.05547085 0.20906916 -0.03771804 -0.11197425
0.0197848 -0.13681614 0.17762768 0.037779342 -0.08809221 -0.15789467 0.17210577 0.060442608
-0.054578733 0.17289492 -0.19964318 0.16137223 -0.007310457 2.1282429e-05 -0.0067642177 -0.023874298
-0.010127543 -0.06981789 0.21270873 -0.17184149 0.14689255 0.038178004 -0.046286058 0.023756973
0.042979915 -0.024691558 -0.0909116 -0.19124885 -0.033318132 -0.063179836 0.13439445 0.03784081
0.12174375 0.020129465 0.1826963 -0.118449144 0.1080259 0.01622717 0.13476677 -0.030750712
0.204524 0.021841366 0.11752258 -0.1793189 0.13700145 -0.061128225 -0.18070169 0.009706337
0.053929124 0.14443311 0.07050229 0.023606986 0.12775561 0.037548892 -0.21010217 -0.052380078
0.13536425 0.11391106 -0.14582603 0.15731484 -0.11800765 -0.06153283 0.07673804 0.20456712
-0.0140042165 0.052762594 -0.1697934 -0.10028785 -0.15355429 0.19100496 -0.07190514 0.16258787
0.13135804 0.15018067 -0.1964004 -0.046471287 -0.031573527 -0.03657164 0.14854902 0.153808
-0.14508061 0.14262491 -0.18258993 0.057061996 0.046300486 0.03702406 0.20322338 -0.1278739
0.10884769 -0.17663358 0.14337811 -0.10860778 0.12909582 0.067309886 -0.18804689 0.062071603
0.111414246 -0.00771093 0.18297194 -0.04228253 0.19296199 -0.021391667 0.03483424 0.07932585
-0.11815466 -0.16558686 -0.097381234 0.006300003 -0.14817278 -0.06644332 -0.20065708 0.09169851
-0.024359308 -0.17854276 0.08046095 -0.12166681 0.056952864 0.027144367 -0.019274492 -0.20657197
0.14169508 0.022816943 -0.08071112 -0.031265244 -0.15439834 -0.14536408 -0.058116175 -0.06547951
0.14825083 0.10514548 0.12339059 0.040491845 0.1657203 0.08410602 0.12779678 -0.014479988
0.010250816 -0.17064047 0.046313975 0.1266705 0.10570238 0.08750288 0.063995995 -0.19382958
-0.0671686 0.0597031 0.16524188 -0.18528329 0.006624998 0.06682779 -0.074415855 0.06376894
-0.17566115 0.13222866 0.02810235 -0.10258276 0.14410393 -0.21523193 0.03787768 -0.0021185172
0.018100137 -0.10079134 0.07031979 0.17232361 -0.14802144 0.15623216 -0.031152647 -0.1584015
-0.009946866 0.034590293 0.11539878 -0.1846273 0.12654337 -0.06171789 -0.14801274 -0.118475474
0.027331369 -0.046908446 -0.094324514 0.20240243 -0.053868536 0.077717096 -0.20601872 -0.2109874
00000000: 53ec 053e 3705 d23d 3ae1 f33d 660b 30be
00000010: 7a48 0e3e 64ef a239 04e2 16be 708b f03d
00000020: 4b0b 24bd 53ec 163d 2a08 27be c08c 88bd
00000030: e8db 3b3d b8c6 e53d e0c4 51be f387 d43d
00000040: 0479 25bd 7f6a c0bd ebf1 3d3e fc8e 3f3e
00000050: 639b f03d 588d 29be ab76 34be 87f2 28be
00000060: 52ae 473e 8d28 433e e30d 96bd 960a 21be
00000070: 3882 243d 3d20 e93d 3e03 09be ac06 2fbd
00000080: d65f 113e edab 233d 6c35 5c3e 136f 69bd
00000090: bf1c bb3c b5ed 58be 59c0 b93d dd5c 31be
000000a0: 1a99 f93d e2f1 433e c294 37be c708 593d
000000b0: 17db a03d f65b 003d 82a8 35bd 5173 b73d
000000c0: dcbd c9bd 9b49 4cbe 5e6e 1f3e 88de 233e
000000d0: a5aa 17be 3987 423e b79f ffbc dc28 513c
000000e0: 8b21 21be e23f 4bbd 1f13 58be 6a40 023e
000000f0: cbf8 1f3e 9ace 34be f6f7 623d 865f 07be
00000100: 8e0c 6fbd 2850 063e 21a6 21be 4a6b bf3d
00000110: 6735 633d 3a16 563e 3b7e 1abd c152 e5bd
00000120: bc13 a23c 8819 0cbe 08e4 353e 83be 1a3d
00000130: b069 b4bd 24af 21be 7f3c 303e ab92 773d
00000140: f38d 5fbd 5e0b 313e 436f 4cbe c33e 253e
00000150: 8f8c efbb ab87 b237 5fa6 ddbb 0894 c3bc
00000160: feed 25bc affc 8ebd 51d0 593e 37f7 2fbe
00000170: 006b 163e 8a60 1c3d 7396 3dbd fc9d c23c
00000180: b50b 303d f345 cabc dc2f babd bdd6 43be
00000190: 9878 08bd 6e64 81bd b39e 093e f7fe 1a3d
000001a0: ca54 f93d 8ce6 a43c bd14 3b3e 7795 f2bd
000001b0: af3c dd3d d8ee 843c 4d00 0a3e ebe8 fbbc
000001c0: bd6e 513e aaec b23c aeaf f03d 609f 37be
000001d0: 1c4a 0c3e 9761 7abd dd09 39be 5407 1f3c
000001e0: c9e4 5c3d 46e6 133e 8163 903d 7063 c13c
000001f0: 5ed2 023e decc 193d 0625 57be 7e8c 56bd
00000200: ed9c 0a3e 344a e93d 6b53 15be 2417 213e
00000210: ffad f1bd d909 7cbd d528 9d3d 0b7a 513e
00000220: f171 65bc 971d 583d 52de 2dbe b763 cdbd
00000230: 563d 1dbe ce96 433e 0143 93bd 6f7d 263e
00000240: b982 063e f6c8 193e 301d 49be ad58 3ebd
00000250: 3e53 01bd 25cc 15bd 3c1d 183e d87f 1d3e
00000260: 0390 14be 440c 123e dbf8 3abe d7b9 693d
00000270: 94a5 3d3d 8aa6 173d ca19 503e 60f1 02be
00000280: 8aeb de3d 6fdf 34be b6d1 123e c16d debd
00000290: b231 043e c4d9 893d 5d8f 40be cb3e 7e3d
000002a0: 272d e43d f8ab fcbb ff5c 3b3e 7230 2dbd
000002b0: d497 453e 943d afbc 59ae 0e3d 9775 a23d
000002c0: 12fb f1bd 9a8f 29be d06f c7bd 4170 ce3b
000002d0: 9bba 17be 6f13 88bd 0d79 4dbe 6ecc bb3d
000002e0: 2c8d c7bc ead3 36be b6c8 a43d 732c f9bd
000002f0: 6847 693d dd5d de3c 8ae5 9dbc 9a87 53be
00000300: 8418 113e 99ea ba3c df4b a5bd fc0f 00bd
00000310: 991a 1ebe 52da 14be 3a0b 6ebd 1f1a 86bd
00000320: 11cf 173e 8356 d73d 35b4 fc3d c7da 253d
00000330: 95b2 293e c73f ac3d 29dd 023e 793d 6dbc
00000340: 0af3 273c 60bc 2ebe b9b3 3d3d e9b5 013e
00000350: 7d7a d83d b634 b33d 5510 833d 437b 46be
00000360: b18f 89bd 3d8b 743d 2b35 293e e7ba 3dbe
00000370: 8316 d93b 02dd 883d 5767 98bd 4a99 823d
00000380: 84e0 33be f366 073e e636 e63c e916 d2bd
00000390: fb8f 133e c265 5cbe a025 1b3d d2d6 0abb
000003a0: bd46 943c b16b cebd d203 903d 9a75 303e
000003b0: ef92 17be 53fb 1f3e d633 ffbc 0134 22be
000003c0: 2ef8 22bc 8dae 0d3d 3256 ec3d f00e 3dbe
000003d0: 9694 013e e6cb 7cbd a790 17be 45a3 f2bd
000003e0: 09e6 df3c 1223 40bd 362d c1bd 9542 4f3e
000003f0: 41a5 5cbd 242a 9f3d 92f6 52be 150d 58be
