models/best_fraud_model_seed_999.pth (torch, 378192 bytes, 45 tensors)

node_emb.weight f4 [64, 8]
-0.14994377 -0.21815744 -0.124189004 0.14947288 -0.13104478 -0.34802178 0.26661235 -0.27241778
-0.04558014 0.26591486 0.18007098 0.12926984 -0.14797641 -0.014491499 0.3172461 -0.34445933
0.2399996 0.02919494 -0.09320573 -0.023301924 0.28003126 -0.16794883 0.074608006 0.13556308
-0.333634 -0.16944909 -0.09187806 0.2858425 -0.057903673 -0.048744004 -0.10304678 -0.30682558
0.28020808 0.21536393 0.004663432 -0.1641734 0.027711242 0.061738074 0.2807372 -0.087378256
0.31336203 -0.1895329 -0.14604835 -0.1941202 -0.27814066 -0.18994246 -0.098785914 0.3379634
0.36127183 -0.3190251 -0.05013962 0.36390895 0.15639377 -0.039095193 -0.15904441 -0.24953677
-0.04562677 0.058346137 0.2941745 0.25433722 0.28251818 0.0978486 -0.2936579 -0.34657252
-0.16880894 0.18334758 -0.10115139 0.16394424 0.18629745 0.088348836 -0.09167342 -0.116093
0.14961067 -0.11536731 -0.14305793 0.27375504 -0.113723725 -0.15736482 -0.039155856 -0.07243564
-0.19268002 0.23291615 0.08194318 -0.022154048 -0.20558126 0.3439306 0.27402174 0.038122267
0.17160894 -0.07337096 -0.10595382 -0.12522848 -0.10850891 0.04616451 0.024085006 0.07033071
0.31675056 0.13230678 -0.18060578 0.26253715 -0.17597461 -0.21213418 0.082693234 -0.31245053
0.08238295 0.25835508 0.19440922 0.16075249 0.03697799 -0.0028805744 0.32035407 -0.32676715
0.20216477 -0.0052782916 -0.3266518 -0.22083548 -0.14356008 0.11512521 0.20381056 0.17011477
0.33125192 -0.060714614 0.0976802 0.17307746 -0.20032647 0.026563821 -0.21879308 0.25984687
0.036865182 0.194379 -0.1946299 -0.32636568 -0.046225537 0.31163236 -0.2596101 0.21270643
0.0106841205 0.33531317 0.22418478 -0.087888494 0.10930624 0.29063857 -0.08349512 0.089578286
0.294423 -0.01813089 -0.33156478 0.24698474 0.08139673 -0.21740149 0.0476905 -0.19525781
-0.07949182 -0.056418452 0.2921106 -0.12540385 0.250397 0.3218943 -0.12775223 0.1371492
0.34163654 0.18012509 -0.04121694 0.33592394 -0.21492411 0.28967738 0.17097795 -0.20837235
0.21300669 -0.00023218783 0.30692133 0.19234963 0.30427238 -0.21554378 0.08062839 -0.28644437
0.29185972 0.21160439 -0.08021166 -0.11562009 -0.23113905 0.11389759 0.32760572 0.21876754
0.26385 -0.12297352 -0.038049396 0.108982645 0.19910054 0.063869506 -0.3437702 0.062368624
-0.13093948 0.13113534 -0.13487114 0.25403318 0.04548595 -0.14517215 -0.015829772 0.04456639
0.0794432 -0.10665234 0.022012943 -0.05609965 -0.032435574 0.15913412 -0.3284698 -0.014003467
0.08585388 0.1376069 0.27268648 0.3469757 0.23590547 0.2660128 -0.3146742 0.3457479
-0.08565893 0.16013364 -0.3298888 -0.15569793 0.20571278 -0.047575086 0.25888437 0.21103491
-0.01694652 -0.05061115 -0.10544268 -0.27409062 -0.20788284 0.21588334 0.24508648 -0.19539492
-0.070309676 -0.009298284 0.24891786 -0.25722113 -0.16865607 0.12737902 -0.30500597 -0.2168609
0.10158666 -0.26068726 -0.12296952 0.23419029 0.033430487 -0.2854362 -0.2656744 -0.024849152
0.2570395 -0.327887 0.15906079 0.07497981 0.20850845 0.26451895 0.11315578 -0.1422922
00000000: dc8a 19be aa64 5fbe ce56 febd 6b0f 193e
00000010: 9a30 06be e92f b2be 6a81 883e 587a 8bbe
00000020: 3eb2 3abd fe25 883e 8764 383e 505f 043e
00000030: 2187 17be c16d 6dbc 156e a23e f95c b0be
00000040: 75c2 753e 3a2a ef3c a5e2 bebd ade3 bebc
00000050: 4260 8f3e c7fa 2bbe 15cc 983d 0cd1 0a3e
00000060: 13d2 aabe 1084 2dbe 902a bcbd f359 923e
00000070: 672c 6dbd cba7 47bd 310a d3bd 3e18 9dbe
00000080: 6f77 8f3e 5d88 5c3e b4cf 983b 121d 28be
00000090: b002 e33c 10e1 7c3d c9bc 8f3e 5ff3 b2bd
000000a0: fd70 a03e ea14 42be b38d 15be 72c7 46be
000000b0: 7468 8ebe 4780 42be 4550 cabd 8a09 ad3e
000000c0: 9ff8 b83e 4257 a3be 345f 4dbd 4652 ba3e
000000d0: b025 203e 4822 20bd 8adc 22be 9186 7fbe
000000e0: 23e3 3abd 5cfc 6e3d 0a9e 963e 7d38 823e
000000f0: 39a6 903e d964 c83d 545a 96be f471 b1be
00000100: 40dc 2cbe 78bf 3b3e 7628 cfbd 00e1 273e
00000110: c2c4 3e3e 3cf0 b43d 46bf bbbd 2bc2 edbd
00000120: 8a33 193e b245 ecbd c77d 12be 9f29 8c3e
00000130: fce7 e8bd 3e24 21be e461 20bd 2359 94bd
00000140: e94d 45be 9281 6e3e d3d1 a73d 687c b5bc
00000150: e583 52be ac17 b03e 944c 8c3e 1826 1c3d
00000160: 41ba 2f3e 8443 96bd 51fe d8bd e53b 00be
00000170: eb39 debd ff16 3d3d eb4d c53c 8c09 903d
00000180: 212d a23e 6e7b 073e b9f0 38be 456b 863e
00000190: b032 34be b439 59be 125b a93d 84f9 9fbe
000001a0: 64b8 a83d 1e47 843e 3613 473e 4d9c 243e
000001b0: 3c76 173d 05c8 3cbb 7305 a43e 064e a7be
000001c0: 4804 4f3e 85f5 acbb e83e a7be b222 62be
000001d0: 6a01 13be c4c6 eb3d b7b3 503e 9132 2e3e
000001e0: da99 a93e e3af 78bd 8f0c c83d 383b 313e
000001f0: 6222 4dbe 5f9c d93c 4b0b 60be a60a 853e
00000200: f2ff 163d 4a0b 473e 0f4d 47be 6719 a7be
00000210: fd56 3dbd 478e 9f3e 9deb 84be b7cf 593e
00000220: 730c 2f3c 2bae ab3e b290 653e e2fe b3bd
00000230: f3db df3d 94ce 943e 7dff aabd d274 b73d
00000240: 9dbe 963e 3b87 94bc dcc2 a9be 91e9 7c3e
00000250: 54b3 a63d 7f9e 5ebe 1d57 433d aaf1 47be
00000260: 9bcc a2bd 0917 67bd 858f 953e de69 00be
00000270: 0934 803e 54cf a43e 7bd1 02be d770 0c3e
00000280: fcea ae3e b672 383e 18d3 28bd 39fe ab3e
00000290: 1115 5cbe 9850 943e d814 2f3e 905f 55be
000002a0: 6d1e 5a3e 7277 73b9 cb24 9d3e 4df7 443e
000002b0: 97c9 9b3e 82b7 5cbe 7f20 a53d d6a8 92be
000002c0: a36e 953e d2ae 583e 0346 a4bd 3aca ecbd
000002d0: b7af 6cbe 2443 e93d f0bb a73e 9904 603e
000002e0: 5917 873e 8ad9 fbbd afd9 1bbd 4b32 df3d
000002f0: 03e1 4b3e 04ce 823d a602 b0be 3e76 7f3d
00000300: 0015 06be 5848 063e a91b 0abe a310 823e
00000310: 7a4f 3a3d 02a8 14be 70ad 81bc 3f8b 363d
00000320: 1eb3 a23d 8b6c dabd 7d54 b43c bfc8 65bd
00000330: 2adb 04bd 0ef4 223e 322d a8be cc6e 65bc
00000340: 29d4 af3d d3e8 0c3e 909d 8b3e cda6 b13e
00000350: 3491 713e d432 883e fa1c a1be de05 b13e
00000360: f36d afbd 13fa 233e 2fe7 a8be 476f 1fbe
00000370: 5fa6 523e 18de 42bd 7e8c 843e 8919 583e
00000380: 6ed3 8abc a34d 4fbd 55f2 d7bd 9b55 8cbe
00000390: 3ddf 54be 8610 5d3e f3f7 7a3e 9b15 48be
000003a0: 85fe 8fbd d457 18bc 53e4 7e3e 7db2 83be
000003b0: 2db4 2cbe a56f 023e be29 9cbe c910 5ebe
000003c0: ab0c d03d cd78 85be 72d7 fbbd 94cf 6f3e
000003d0: 68ee 083d b224 92be 7a06 88be 7390 cbbc
000003e0: ae9a 833e cee0 a7be d5e0 223e 048f 993d
000003f0: 3d83 553e 076f 873e 38be e73d 0cb5 11be

node_emb.bias f4 [64]
-0.21800093 0.19904807 -0.027620755 -0.09869286 -0.33079052 -0.05404734 0.20177947 0.06270522
-0.33864066 0.1909068 -0.33659136 -0.28031972 0.021976713 0.05098614 -0.22878012 -0.12305602
-0.22753577 0.074281454 -0.14064273 0.044652756 -0.15384357 0.23820597 -0.2436509 0.031171106
0.14640644 -0.15115306 -0.1995777 0.20053537 0.2651963 -0.019535773 0.3481522 -0.2570901
-0.057615098 0.2563661 0.27735966 0.2781962 0.29030627 0.12023109 0.13828826 0.33736616
0.20514554 0.13696016 -0.1708957 0.3426761 0.08578755 -0.08300028 -0.19432566 -0.0017130771
0.23633896 -0.27462384 -0.1311951 -0.092345566 0.05187013 0.2438538 0.19014354 0.2506396
-0.041340172 -0.13843335 -0.3503735 -0.20895681 -0.044404812 0.08482048 0.30798233 -0.013325108
00000000: a33b 5fbe 42d3 4b3e ec44 e2bc 7b1f cabd
00000010: 605d a9be be60 5dbd 479f 4e3e 986b 803d
00000020: 4f62 adbe 127d 433e b455 acbe 1186 8fbe
00000030: 8208 b43c d8d6 503d 5645 6abe cb04 fcbd
00000040: 23ff 68be e020 983d a604 10be cfe5 363d
00000050: 2b89 1dbe 44ec 733e 9f7f 79be 8c5a ff3c
00000060: 92eb 153e dec7 1abe 195e 4cbe 2559 4d3e
00000070: cfc7 873e 7c09 a0bc 0141 b23e 50a1 83be
00000080: cffd 6bbd 6b42 833e 1602 8e3e bb6f 8e3e
00000090: 06a3 943e b83b f63d 709b 0d3e 42bb ac3e
000000a0: ac11 523e 493f 0c3e 48ff 2ebe 3e73 af3e
000000b0: 62b1 af3d 0dfc a9bd 4efd 46be 5489 e0ba
000000c0: d702 723e 7f9b 8cbe 0258 06be ac1f bdbd
000000d0: c675 543d d0b4 793e fdb4 423e d553 803e
000000e0: 5054 29bd 79c1 0dbe 2864 b3be c6f8 55be
000000f0: d2e1 35bd 5cb6 ad3d dcaf 9d3e 8e51 5abc

edge_emb.weight f4 [64, 2]
-0.24651028 0.44923204 -0.41797352 -0.35000256 -0.38918436 0.2864794 -0.33669397 0.017569127
0.042114206 -0.63216317 0.32241952 0.10065334 -0.33669353 -0.4086733 -0.68306184 0.27458414
-0.6545889 0.48152187 0.076397754 0.45245177 0.15704829 -0.6104352 -0.5604669 0.115866646
0.11664925 0.1621325 0.4260424 0.3303247 0.3237362 -0.33138347 0.48236167 0.57240224
0.26327425 -0.030068358 0.23162334 -0.6601791 -0.5093016 0.3655049 -0.074535914 -0.17980058
0.0160416 0.44873473 -0.08325555 0.5831279 -0.3998678 -0.6932863 -0.6937315 0.11732421
0.49804717 0.68199855 0.042180438 0.48592427 -0.6232671 -0.20156662 -0.44151613 0.55246735
0.42077667 -0.048228506 -0.3375762 0.35151058 0.0097274175 -0.3745586 0.40251172 0.371935
-0.38326666 -0.50530505 -0.040725492 -0.34047043 -0.21303588 0.36030963 0.21777476 0.6788653
-0.35097122 -0.3007833 -0.57218874 -0.25294158 0.08949943 0.28272757 -0.004882022 -0.18058486
0.3885322 -0.29323497 -0.39886108 -0.005035089 0.33289638 -0.3465098 0.6716649 -0.06933844
0.5166125 -0.17605244 0.39613324 -0.30798852 0.124284774 -0.17493704 0.36456254 0.13910002
-0.36244863 0.4666269 -0.046429332 -0.19074942 -0.5385499 0.005703303 0.3093434 0.13690473
0.2308405 0.005876321 -0.23742408 -0.33349147 0.6798308 0.5830183 -0.007088837 -0.60157955
-0.28669333 0.6388382 0.28543982 -0.5906643 0.017423034 -0.41540256 -0.5417969 0.18059584
0.19074968 -0.28594524 0.28105003 -0.4538722 0.39791453 0.42128864 -0.02940723 0.67430353
00000000: 316d 7cbe be01 e63e a000 d6be 8933 b3be
00000010: 2c43 c7be 6ead 923e 2763 acbe 21ed 8f3c
00000020: f27f 2c3d 72d5 21bf 2c14 a53e 5723 ce3d
00000030: 1863 acbe a03d d1be 24dd 2ebf 4b96 8c3e
00000040: 2393 27bf 098a f63e 6d76 9c3d c2a7 e73e
00000050: 44d1 203e 7b45 1cbf c27a 0fbf 7e4b ed3d
00000060: cde5 ee3d 1006 263e 3b22 da3e 5220 a93e
00000070: c0c0 a53e 18ab a9be 1cf8 f63e f488 123f
00000080: e2cb 863e eb51 f6bc ab2e 6d3e 7f01 29bf
00000090: 9761 02bf 7523 bb3e 49a6 98bd a51d 38be
000000a0: ac69 833c 8fc0 e53e e381 aabd df47 153f
000000b0: 79bb ccbe 367b 31bf 6398 31bf ad47 f03d
000000c0: 0a00 ff3e 7597 2e3f 65c5 2c3d 11cb f83e
000000d0: 6f8e 1fbf 7b67 4ebe 670e e2be 806e 0d3f
000000e0: 0a70 d73e 418b 45bd cad6 acbe 32f9 b33e
000000f0: bf5f 1f3c 25c6 bfbe 0416 ce3e 446e be3e
00000100: 873b c4be ac5b 01bf c6cf 26bd 2452 aebe
00000110: 1426 5abe 817a b83e 5900 5f3e 1eca 2d3f
00000120: 80b2 b3be 4500 9abe f67a 12bf 8f81 81be
00000130: 7a4b b73d abc1 903e 5ef9 9fbb 3deb 38be
00000140: b1ed c63e e522 96be 8537 ccbe 63fd a4bb
00000150: 6571 aa3e bc69 b1be 3bf2 2b3f 5001 8ebd
00000160: b840 043f 1747 34be fad1 ca3e acb0 9dbe
00000170: 0489 fe3d b222 33be f1a7 ba3e 3c70 0e3e
00000180: de92 b9be b9e9 ee3e af2c 3ebd d153 43be
00000190: 68de 09bf c6e2 ba3b 4262 9e3e c130 0c3e
000001a0: 7461 6c3e 278e c03b 4c1f 73be 65bf aabe
000001b0: 6409 2e3f b040 153f 7a49 e8bb 1e01 1abf
000001c0: 78c9 92be e68a 233f 2b25 923e c735 17bf
000001d0: c0ba 8e3c a5af d4be 34b3 0abf 1eee 383e
000001e0: e253 433e 6a67 92be cae5 8f3e f061 e8be
000001f0: 74bb cb3e 25b3 d73e 6ee7 f0bc 289f 2c3f

edge_emb.bias f4 [64]
0.005849816 -0.683501 0.4214504 0.21313034 0.16872507 0.33631644 -0.3411393 0.61165875
-0.59409505 -0.51221526 -0.59036714 0.59925044 -0.17996438 -0.028417533 -0.5930099 0.28658193
0.3401891 -0.24785733 0.10561473 -0.048557106 -0.710773 0.46860427 -0.35117072 0.063897535
0.31582743 0.012862901 -0.58142006 0.23454416 0.44024062 -0.68524706 -0.021602588 0.082027584
0.20522512 -0.36207393 0.57758975 -0.5958785 0.4307261 0.4785669 -0.1811459 0.32994542
-0.053349305 0.57020843 0.58472115 -0.049482033 0.28190583 0.28642192 0.023737373 -0.40042686
0.17594808 0.08082012 0.083691314 0.43327755 0.052197788 0.12487307 0.4684851 -0.32289574
-0.4334078 -0.22643231 -0.43073088 0.52049744 -0.34145612 -0.07661068 -0.03005759 0.17781791
00000000: d0af bf3b ecf9 2ebf 59c8 d73e d73e 5a3e
00000010: 44c6 2c3e ab31 ac3e cfa9 aebe ab95 1c3f
00000020: 9d16 18bf 8a20 03bf 4d22 17bf 7a68 193f
00000030: 9548 38be e3cb e8bc 7fcf 17bf deba 923e
00000040: 442d ae3e 50ce 7dbe 894c d83d d1e3 46bd
00000050: 38f5 35bf e6ec ef3e a6cc b3be b6dc 823d
00000060: 22b4 a13e ebbe 523c f2d7 14bf 582c 703e
00000070: 3867 e13e 5a6c 2fbf e9f7 b0bc 14fe a73d
00000080: 8926 523e c161 b9be ecdc 133f 7e8b 18bf
00000090: 2288 dc3e b906 f53e 507e 39be 9bee a83e
000000a0: cd84 5abd 2ef9 113f 49b0 153f acad 4abd
000000b0: f655 903e e5a5 923e e174 c23c c004 cdbe
000000c0: bc2b 343e 0585 a53d 5a66 ab3d 8ed6 dd3e
000000d0: 59cd 553d 74bd ff3d 47dd ef3e 9752 a5be
000000e0: a1e7 ddbe dfdd 67be c288 dcbe 523f 053f
000000f0: 56d3 aebe 0fe6 9cbd 563b f6bc e615 363e

gat_layers.0.att_src f4 [1, 4, 16]
-0.2193952 0.48791385 0.2175513 -0.041328765 0.035329677 -0.1069338 0.019988641 0.46318138
-0.38778403 -0.47247475 0.2519991 -0.18645687 -0.24213424 0.21185133 0.17753848 0.13207597
0.04664161 0.26086003 0.01688792 -0.36711857 0.2973723 0.30122393 0.08858208 -0.11602859
-0.327459 -0.37138957 0.0041673947 0.42449495 0.43760115 0.2995169 0.18561232 -0.2885452
-0.44250455 0.40204668 -0.27237016 -0.30817914 -0.28657925 -0.14648603 -0.09870987 -0.3800326
-0.09705715 0.20482077 0.008587077 0.41519704 -0.035975024 0.40053636 0.446791 0.48853663
-0.35880315 -0.36940697 -0.46483052 -0.34927636 0.21610273 0.53117526 -0.5235122 -0.08601435
0.3600374 0.45058355 0.3755032 -0.47222203 0.27666655 0.3303425 0.3036805 -0.45598242
00000000: 23a9 60be d8cf f93e c5c5 5e3e 5a48 29bd
00000010: dab5 103d 1c00 dbbd 38bf a33c 1c26 ed3e
00000020: a18b c6be 36e8 f1be 0706 813e 8dee 3ebe
00000030: 0af2 77be 8eef 583e a6cc 353e ec3e 073e
00000040: 460b 3f3d 728f 853e 8958 8a3c f7f6 bbbe
00000050: 2f41 983e 063a 9a3e 866a b53d 66a0 edbd
00000060: b5a8 a7be c626 bebe a48e 883b 6757 d93e
00000070: 420d e03e 475a 993e 2811 3e3e 32bc 93be
00000080: f58f e2be 10d9 cd3e 1a74 8bbe a8c9 9dbe
00000090: 84ba 92be 6f00 16be 6628 cabd a293 c2be
000000a0: e6c5 c6bd 89bc 513e d0b0 0c3c b594 d43e
000000b0: 8c5a 13bd 1a13 cd3e cac1 e43e 7921 fa3e
000000c0: 0cb5 b7be e922 bdbe 44fe edbe 5ad4 b2be
000000d0: 094a 5d3e 1afb 073f e504 06bf 4b28 b0bd
000000e0: d256 b83e e3b2 e63e f541 c03e 16c7 f1be
000000f0: 3da7 8d3e a722 a93e 037c 9b3e 8776 e9be

gat_layers.0.att_dst f4 [1, 4, 16]
0.27144936 0.5198075 0.392423 -0.17829643 -0.2387075 -0.11729545 0.522939 0.26735294
0.1973191 -0.012816904 0.47746432 0.29761156 -0.25227812 0.5132133 -0.40439138 -0.54503804
-0.26777127 0.36901414 -0.08429566 0.10817152 0.53711605 0.030780613 0.13719432 -0.49526587
-0.025369795 -0.36023453 0.29842114 -0.22088401 -0.43015763 -0.10879669 -0.49336478 0.54650366
0.11412654 0.14414991 -0.058878843 -0.43827462 0.22460416 0.0066794767 0.33482158 -0.50978124
0.12929372 0.3830492 0.31090918 0.4777048 -0.40439764 0.12639214 0.018472027 0.12059625
0.28215095 -0.19179092 0.1574426 0.45001104 0.37434256 -0.18671055 0.34797582 -0.034930594
-0.4691242 0.07405481 -0.065892465 0.44410905 0.031754874 0.05997019 -0.24592935 0.10667806
00000000: 69fb 8a3e 1b12 053f abeb c83e 5793 36be
00000010: bd6f 74be 9938 f0bd 55df 053f 7ce2 883e
00000020: 050e 4a3e fefd 51bc 3476 f43e 8b60 983e
00000030: 992a 81be f261 033f 630c cfbe 9d87 0bbf
00000040: 5119 89be 6cef bc3e 34a3 acbd 0889 dd3d
00000050: 7080 093f a027 fc3c ab7c 0c3e 7d93 fdbe
00000060: 51d4 cfbc a970 b8be a8ca 983e 6b2f 62be
00000070: 9f3d dcbe cdd0 debd 4f9a fcbe aae7 0b3f
00000080: 2dbb e93d 099c 133e f12a 71bd 8865 e0be
00000090: a2fe 653e 83df da3b bc6d ab3e 0681 02bf
000000a0: 9365 043e 061f c43e 7d2f 9f3e b995 f43e
000000b0: 350d cfbe f16c 013e a652 973c 2bfb f63d
000000c0: 1776 903e d764 44be a238 213e d967 e63e
000000d0: d4a9 bf3e 0d31 3fbe e329 b23e 6213 0fbd
000000e0: 0c31 f0be 0caa 973d a1f2 86bd 4362 e33e
000000f0: 6611 023d 4da3 753d e7d4 7bbe 077a da3d

gat_layers.0.att_edge f4 [1, 4, 16]
-0.33958113 0.2926825 0.17447762 -0.22392382 0.05621114 0.50665504 -0.42077532 -0.25800565
0.03432737 -0.30504522 -0.19329955 -0.25294912 0.38696554 0.2752005 0.18989149 0.3104798
0.35345763 0.52427655 -0.2701521 -0.41896468 0.0068316148 -0.02811388 0.23900883 -0.47553164
-0.35648164 -0.13689339 -0.4912748 0.2441593 0.06868377 0.038680866 -0.21544634 -0.21551749
-0.4884016 0.4478571 -0.2799853 0.13574947 -0.0450964 -0.43778175 -0.51613426 0.4431466
-0.44769827 0.15863931 -0.16702135 0.15522614 0.033392344 -0.09417298 -0.02145079 0.36099067
0.14507751 -0.017122393 0.03757985 0.5118244 -0.2965341 -0.18102889 -0.35835937 -0.5333224
0.33001542 0.049412657 0.49909124 0.4479729 0.45787817 -0.3857923 -0.06358796 0.41566718
00000000: 94dd adbe 7bda 953e 43aa 323e 494c 65be
00000010: a73d 663d 25b4 013f dd6f d7be 5119 84be
00000020: db9a 0c3d e32e 9cbe 51f0 45be 8c82 81be
00000030: 5920 c63e 14e7 8c3e ea72 423e 35f7 9e3e
00000040: 66f8 b43e fd36 063f 6051 8abe 8a82 d6be
00000050: bddb df3b 144f e6bc bbbe 743e e278 f3be
00000060: c384 b6be c82d 0cbe 5f88 fbbe e504 7a3e
00000070: 14aa 8c3d d46f 1e3d f79d 5cbe 9eb0 5cbe
00000080: c60f fabe 874d e53e 3c5a 8fbe e901 0b3e
00000090: 01b7 38bd ee24 e0be 6021 04bf 1ce4 e23e
000000a0: b538 e5be 5872 223e a507 2bbe 9af3 1e3e
000000b0: 69c6 083d c3dd c0bd 91b9 afbc c5d3 b83e
000000c0: 338f 143e 4344 8cbc 54ed 193d ed06 033f
000000d0: 51d3 97be a35f 39be e17a b7be d187 08bf
000000e0: c8f7 a83e ed64 4a3d e388 ff3e b45c e53e
000000f0: 026f ea3e 9186 c5be 683a 82bd 54d2 d43e

gat_layers.0.bias f4 [64]
-0.006876938 -0.005737008 0.009370385 -0.0075784586 -0.007846626 -0.007879021 0.006871087 -0.007909464
-0.0077990354 -0.007819718 -0.00783284 -0.007893964 0.007042847 -0.006281509 -0.007168016 -0.0069869566
0.0056040296 -0.005792903 0.010964832 0.006928837 -0.0068908427 0.0031453958 0.011896759 -0.007162203
-0.007026299 -0.006756573 -0.007873891 -0.005756944 -0.007485788 -0.006090025 -0.007179641 0.0053691687
-0.0060969964 -0.007712932 -0.002169836 -0.007188023 -0.00779582 -0.005984585 -0.0068930625 -0.007737406
0.011233293 -0.007791746 0.0020539674 0.0133269075 0.01054025 -0.007820515 -0.007805636 0.011118569
-0.007876389 -0.0070400275 0.0076011 -0.007185465 0.0117110545 0.005992388 -0.0070208055 -0.0077411197
0.007003918 -0.007693468 -0.0069081984 -0.0070326636 0.0007841242 0.00807497 -0.0072063166 -0.0064864163
00000000: f057 e1bb 83fd bbbb 3e86 193c b854 f8bb
00000010: 238f 00bc 0217 01bc db26 e13b b296 01bc
00000020: 0d8f ffbb 461e 00bc 5055 00bc af55 01bc
00000030: afc7 e63b 1ed5 cdbb ade1 eabb d7f2 e4bb
00000040: 02a2 b73b 64d2 bdbb d7a5 333c 4c0b e33b
00000050: 94cc e1bb fc22 4e3b a0ea 423c eab0 eabb
00000060: de3c e6bb 3e66 ddbb 7e01 01bc bfa4 bcbb
00000070: 574b f5bb d58e c7bb 3243 ebbb daef af3b
00000080: 50c9 c7bb c3bc fcbb cf33 0ebb 8289 ebbb
00000090: 1474 ffbb 561a c4bb 33df e1bb 118a fdbb
000000a0: d90b 383c e751 ffbb db9b 063b 1a59 5a3c
000000b0: 03b1 2c3c 9e21 00bc 6cc6 ffbb a92a 363c
000000c0: f80b 01bc 08b0 e6bb a612 f93b 0d74 ebbb
000000d0: b9df 3f3c cb5b c43b c90e e6bb 38a9 fdbb
000000e0: 1f81 e53b 7d19 fcbb 2b5e e2bb 4272 e6bb
000000f0: af8d 4d3a e14c 043c f722 ecbb 018c d4bb

gat_layers.0.lin.weight f4 [64, 64]
0.104167275 -0.10231623 0.06535054 0.08248282 -0.20751555 0.056413796 0.17784238 -0.117649615
-0.18068756 -0.023651809 -0.06258316 -0.17831461 0.009030224 -0.07084322 -0.06257245 0.19932187
0.054342467 0.019403787 -0.17300843 -0.1033811 0.18867797 -0.06638757 -0.17640905 -0.064327665
0.12498154 0.062982604 -0.12104226 0.051916506 -0.19333762 -0.13459326 -0.020010838 -0.11817041
0.1982131 -0.17594528 0.06660667 -0.20239101 0.14554864 -0.13179298 0.13515964 0.15481727
0.03297968 -0.19153194 -0.020043684 -0.004214013 0.08060289 0.18835968 -0.079778574 0.10074858
0.105702296 -0.18531829 -0.19937804 0.2060102 0.00017977375 -0.13088733 0.21100967 0.12516321
0.15817158 -0.101009056 -0.041280005 0.018101437 -0.046657745 -0.17125882 -0.13507658 0.11623472
0.16773343 -0.1015172 0.11747452 0.19131151 0.047025155 0.027302219 -0.087443635 0.11338238
-0.06284247 0.13107325 0.20257287 0.19040036 0.0043077543 0.052317217 -0.20323448 -0.031065892
-0.21408394 0.12632681 -0.1377609 0.020506743 0.14546281 0.18118924 0.12448615 0.12409387
-0.12818542 -0.17695281 -0.18548083 0.142666 -0.047961976 0.049430434 0.21946573 -0.1952765
0.04974592 -0.016434211 -0.13238983 -0.14272813 -0.17458205 0.030671336 -0.016061781 0.13366544
-0.20382483 0.026545689 0.16815987 -0.032343518 -0.043521833 -0.12876542 -0.19697502 -0.17583397
-0.11994649 0.060491998 0.08176961 0.06449518 0.21601821 -0.07563669 -0.015899664 -0.04118034
0.19237196 -0.1772249 0.01026146 -0.06634028 0.15778695 0.109897725 0.02499347 0.19613335
0.0766167 0.16433468 -0.03999393 0.21406515 -0.072955936 -0.057251196 0.06316366 -0.13947593
-0.0038745834 0.10701766 0.111916214 -0.064107955 0.13510081 -0.19977753 0.05734135 -0.090273604
-0.11452162 0.16808052 -0.17718276 -0.17485668 -0.06714716 0.15505333 -0.14800297 -0.057812903
-0.175971 0.12962987 -0.13324547 -0.08841574 -0.13254347 0.07674381 0.021123843 -0.13083526
0.09724639 -0.13498758 0.09357612 -0.15012915 0.21279766 0.07701687 0.09798651 -0.0885183
0.053479865 -0.044095125 0.10415612 0.11965086 0.0037620626 -0.020444747 0.06473241 -0.07403274
-0.0393201 0.026195459 -0.017325677 -0.13383463 0.15765037 -0.18644626 0.12939389 0.06516002
-0.12340773 0.039719213 -0.09508287 0.1779193 -0.00015554353 -0.1033941 -0.14845216 -0.1548997
0.0346935 0.0722935 0.19250156 -0.107986905 0.15367328 -0.011937384 0.08762126 0.21325774
0.06727023 0.02282143 0.083353736 0.04236297 0.12041688 0.18663007 -0.027455179 -0.19472563
-0.1494534 -0.041601297 -0.03562888 0.15447551 0.19254908 -0.07994964 -0.21254529 0.18546313
-0.15256992 0.18168592 0.13411066 -0.18138708 0.16911829 -0.047784742 0.10308592 0.049728718
-0.093646504 -0.20907591 0.18156558 0.09927403 -0.036426216 -0.012391434 -0.14737621 -0.15159194
-0.105507985 0.20205568 0.21599056 0.046046626 -0.19024843 0.1254196 0.010085015 0.14756107
0.21081923 -0.1097754 -0.1167143 -0.13075776 0.09101727 0.20178309 -0.16946168 0.10620363
0.10767692 -0.053206105 0.1617249 0.20945147 -0.14314848 0.030071678 -0.0059249448 0.049438164
00000000: a755 d53d 2c8b d1bd 81d6 853d c1ec a83d
00000010: f57e 54be 2712 673d 501c 363e 48f2 f0bd
00000020: 2906 39be 70c1 c1bc 9a2b 80bd 1b98 36be
00000030: 81f3 133c 4016 91bd fc25 80bd 081b 4c3e
00000040: 3596 5e3d b1f4 9e3c 1f29 31be 78b9 d3bd
00000050: cc34 413e 35f6 87bd 93a4 34be 39be 83bd
00000060: 52f6 ff3d 06fd 803d 01e5 f7bd 67a6 543d
00000070: 4cfa 45be d1d2 09be c5ed a3bc 5403 f2bd
00000080: 60f8 4a3e 002b 34be 1469 883d 973f 4fbe
00000090: b40a 153e bdf4 06be 4a67 0a3e 6b88 1e3e
000000a0: b315 073d f320 44be a732 a4bc b415 8abb
000000b0: 2113 a53d 5ce1 403e f362 a3bd 4655 ce3d
000000c0: 727a d83d 14c4 3dbe c229 4cbe 56f4 523e
000000d0: a681 3c39 5407 06be eb12 583e c92a 003e
000000e0: bbf7 213e d6dd cebd 3915 29bd 7749 943c
000000f0: 311c 3fbd 795e 2fbe 8451 0abe 780c ee3d
00000100: 50c2 2b3e 40e8 cfbd 7b96 f03d 2ae7 433e
00000110: 739d 403d e7a8 df3c a615 b3bd 0535 e83d
00000120: 8eb3 80bd 1138 063e 436f 4f3e 50f8 423e
00000130: 1028 8d3b 944a 563d b31c 50be e67d febc
00000140: d238 5bbe d15b 013e 3211 0dbe c2fd a73c
00000150: 34f4 143e ac89 393e 98f2 fe3d ed24 fe3d
00000160: 0a43 03be 1e33 35be b0ee 3dbe 0917 123e
00000170: c773 44bd 9177 4a3d a0bb 603e 90f6 47be
00000180: 61c2 4b3d 0aa1 86bc 3391 07be 5327 12be
00000190: a3c5 32be 7442 fb3c ff93 83bc 98df 083e
000001a0: 75b7 50be 5876 d93c 1a32 2c3e a37a 04bd
000001b0: f343 32bd 15db 03be d2b3 49be d20d 34be
000001c0: 81a6 f5bd 75c6 773d d376 a73d 0d16 843d
000001d0: e133 5d3e 69e7 9abd 0340 82bc b7ac 28bd
000001e0: 28fd 443e 727a 35be af1f 283c 6add 87bd
000001f0: e792 213e 0f12 e13d 1bbf cc3c 2ed7 483e
00000200: 37e9 9c3d 5a47 283e add0 23bd e533 5b3e
00000210: ec69 95bd 3b80 6abd f35b 813d c7d2 0ebe
00000220: b9ec 7dbb 132c db3d 5434 e53d 084b 83bd
00000230: de57 0a3e 7b92 4cbe c3de 6a3d 5ee1 b8bd
00000240: 508a eabd 4d1d 2c3e 666f 35be a10d 33be
00000250: 7384 89bd 4dc6 1e3e 178e 17be 39cd 6cbd
00000260: be31 34be b1bd 043e 8071 08be 5013 b5bd
00000270: 7ab9 07be dc2b 9d3d e90b ad3c aef9 05be
00000280: 1e29 c73d 2f3a 0abe d6a4 bf3d 75bb 19be
00000290: a1e7 593e 05bb 9d3d 27ad c83d 1549 b5bd
000002a0: b40d 5b3d 179d 34bd ce4f d53d 830b f53d
000002b0: f08c 763b be7b a7bc 6d92 843d 7a9e 97bd
000002c0: 1d0e 21bd dc97 d63c 94ee 8dbc f20b 09be
000002d0: 196f 213e c5eb 3ebe d57f 043e 9e72 853d
000002e0: 31bd fcbd 9db0 223d cfba c2bd 7a30 363e
000002f0: 6619 23b9 49c0 d3bd d803 18be 079e 1ebe
00000300: c51a 0e3d 9d0e 943d 211f 453e 3d28 ddbd
00000310: 875c 1d3e 0495 43bc c672 b33d 3d60 5a3e
00000320: f9c4 893d 02f4 ba3c 5db5 aa3d cb84 2d3d
00000330: 209d f63d f41b 3f3e afe9 e0bc 2866 47be
00000340: 500a 19be 1f66 2abd 97ef 11bd d42e 1e3e
00000350: 962b 453e a3bc a3bd 79a5 59be 0cea 3d3e
00000360: 4a3b 1cbe e00b 3a3e 4e54 093e 89bd 39be
00000370: 582d 2d3e efb9 43bd b61e d33d 57b0 4b3d
00000380: bdc9 bfbd ff17 56be 54ec 393e 2f50 cb3d
00000390: a833 15bd 7105 4bbc cae9 16be eb3a 1bbe
000003a0: 9214 d8bd afe7 4e3e a12c 5d3e 639b 3c3d
000003b0: 7cd0 42be ff6d 003e 9e3b 253c 401a 173e
000003c0: ffe0 573e edd1 e0bd e807 efbd 5de5 05be
000003d0: 4367 ba3d 3aa0 4e3e 5d87 2dbe 4a81 d93d
000003e0: b885 dc3d a5ee 59bd 369b 253e 727a 563e
000003f0: 8495 12be e158 f63c 0a26 c2bb ac7f 4a3d

gat_layers.0.lin_edge.weight f4 [64, 64]
0.16212231 0.14401942 -0.028294291 0.16524501 0.092436284 0.11069577 0.08896067 -0.13002284
-0.17450967 0.010217069 0.076875366 0.21752346 -0.20675057 0.14309935 -0.18505038 -0.017333394
-0.080481924 0.14133778 0.19147399 0.0035034649 -0.08689124 -0.14461696 -0.07084331 -0.10036002
-0.0058468306 0.009256675 -0.048812993 0.014828082 -0.049637906 0.14976692 0.12927994 -0.14354019
-0.18585907 0.21019273 0.011813422 -0.026737686 0.13511927 0.20962964 -0.10417235 0.10328523
-0.09484918 -0.20616147 -0.21509989 0.11698086 0.06840933 0.11073918 0.06740442 0.11625521
0.11483617 0.18144654 0.19717592 -0.069046885 0.13409942 -0.079273954 -0.0568576 -0.11515151
-0.027667262 -0.1660944 -0.07523713 0.18083699 -0.14005642 -0.090020865 -0.10109987 -0.17604469
-0.07892635 -0.218397 0.15032434 0.20058836 -0.034489308 -0.13901344 0.18750742 0.1789943
0.09054817 -0.21406025 0.19611275 -0.21215965 0.027093608 -0.0978776 -0.15170829 -0.14306852
0.12524499 -0.009982447 0.17015067 -0.10745274 0.109649815 -0.018698528 -0.085840024 0.03979754
-0.07995732 0.16222516 0.10602726 -0.06322623 -0.054394882 -0.19829063 -0.11385697 -0.14693284
-0.19625494 0.12565029 -0.16535446 0.10929389 0.027557546 -0.1553922 -0.05449166 0.055619687
0.06268158 0.0903992 0.19916321 0.17421024 -0.20095663 -0.19641256 0.20579527 0.07615439
0.16569695 0.10594751 -0.027867572 -0.1689736 0.15401536 -0.1263335 0.06797843 -0.15562479
-0.16146176 -0.10846378 -0.121059276 0.032240126 -0.09692616 -0.079727404 -0.18794902 -0.039350107
0.12789889 -0.13486542 -0.15602122 0.08203944 0.10226963 0.13586187 -0.11300055 -0.16054977
0.17128327 -0.018184287 -0.08537389 0.15981884 0.17991112 0.07475452 0.06852809 0.17339766
-0.11928711 0.029672362 -0.1418702 -0.13560805 -0.0072445227 -0.00095634046 -0.15296318 0.037022024
0.082225814 -0.0074371817 0.05261594 0.141925 -0.07385126 -0.045633525 0.17312256 0.16512544
-0.03176466 0.10562207 0.16455029 0.13044544 0.12226718 0.16825624 0.06786946 -0.17800081
0.17870295 0.12499196 0.080268875 0.13387659 -0.17116758 0.16324756 -0.0036461907 0.04652066
0.19654927 -0.046982616 0.13560212 0.0060848263 -0.023763614 0.15346909 -0.08055761 0.17295195
0.106041536 0.026199536 0.10481341 0.14473693 0.1314904 0.19136542 0.14239545 -0.0526219
-0.17845418 -0.18419324 -0.023118336 -0.069990985 -0.059959624 -0.094736025 -0.13425365 0.09755016
-0.20099254 0.13199961 0.11759732 0.022043966 0.005910015 -0.05746725 0.1065391 -0.06253542
-0.08975051 -0.059249897 0.20821217 -0.123452894 0.15476239 0.062341113 -0.09868976 -0.13557762
-0.17867245 0.20859785 0.15618987 -0.1849721 -0.11221201 0.035596374 0.15117973 0.12042275
-0.025365794 0.09384468 -0.016492449 -0.17698872 0.20625097 0.04476093 0.06893167 -0.15014306
-0.019506121 -0.08421808 0.21247317 -0.17664115 -0.13349426 0.07915079 0.2026142 0.1112849
-0.16853635 0.21498886 0.21472995 0.17004637 0.06890778 -0.035383172 -0.091583736 0.06798886
0.101935335 0.0034712614 -0.070153065 0.020685086 -0.020999858 -0.19713208 -0.21605578 -0.19311987
00000000: 6403 263e d479 133e 6ec9 e7bc fd35 293e
00000010: 3c4f bd3d 77b4 e23d 0331 b63d b524 05be
00000020: aab2 32be 7e65 273c d570 9d3d 78be 5e3e
00000030: 6cb6 53be a388 123e d97d 3dbe c3fe 8dbc
00000040: b5d3 a4bd daba 103e c211 443e 639a 653b
00000050: 09f4 b1bd 7816 14be 4c16 91bd 8e89 cdbd
00000060: c596 bfbb 4fa9 173c 22f0 47bd 7cf1 723c
00000070: 1e51 4bbd 805c 193e f661 043e 33fc 12be
00000080: d751 3ebe c33c 573e 158d 413c fe08 dbbc
00000090: b55c 0a3e 27a9 563e 5058 d5bd 3587 d33d
000000a0: 4940 c2bd fe1b 53be 2543 5cbe a993 ef3d
000000b0: 311a 8c3d 39cb e23d 540b 8a3d 3617 ee3d
000000c0: 3a2f eb3d 1fcd 393e 7ce8 493e 7468 8dbd
000000d0: 5c51 093e 625a a2bd 84e3 68bd 8ed4 ebbd
000000e0: 74a6 e2bc a714 2abe ed15 9abd 552d 393e
000000f0: f36a 0fbe dc5c b8bd 730d cfbd 0f45 34be
00000100: 23a4 a1bd 77a3 5fbe a0ee 193e 0967 4d3e
00000110: a944 0dbd 8a59 0ebe f201 403e 484a 373e
00000120: 5271 b93d 9c32 5bbe c8d1 483e 6140 59be
00000130: 6af3 dd3c 0d74 c8bd 6b59 1bbe 8e80 12be
00000140: 3940 003e 6b8d 23bc fa3b 2e3e 2f10 dcbd
00000150: 1590 e03d a82d 99bc e5cc afbd bf02 233d
00000160: aac0 a3bd 5a1e 263e d224 d93d c17c 81bd
00000170: 2bcd 5ebd b30c 4bbe d82d e9bd 9075 16be
00000180: 0ef7 48be 78aa 003e ae52 29be 7ad5 df3d
00000190: 5dc0 e13c 221f 1fbe a632 5fbd 78d1 633d
000001a0: 335f 803d 3723 b93d 71f1 4b3e 2b64 323e
000001b0: 93c7 4dbe 6020 49be ffbb 523e d5f6 9b3d
000001c0: 76ac 293e 02fb d83d 894a e4bc 6a07 2dbe
000001d0: 34b6 1d3e 925d 01be 4638 8b3d 1b5c 1fbe
000001e0: 3b56 25be 4222 debd eded f7bd 390e 043d
000001f0: 3981 c6bd 1f48 a3bd b575 40be 942d 21bd
00000200: edf7 023e 291a 0abe 07c4 1fbe 4b04 a83d
00000210: bd72 d13d 601f 0b3e d56c e7bd 2967 24be
00000220: e264 2f3e 37f7 94bc 82d8 aebd 8da7 233e
00000230: 9f3a 383e e618 993d 7558 8c3d 288f 313e
00000240: cd4c f4bd 7413 f33c 6c46 11be d6dc 0abe
00000250: 7663 edbb ecb2 7aba 61a2 1cbe 68a4 173d
00000260: 0266 a83d 9ab3 f3bb d083 573d ca54 113e
00000270: 543f 97bd 38ea 3abd 0a47 313e a516 293e
00000280: a91b 02bd 6250 d83d df7f 283e 7d93 053e
00000290: 3767 fa3d 5d4b 2c3e 25ff 8a3d d845 36be
000002a0: e8fd 363e c9fb ff3d 0264 a43d f216 093e
000002b0: 8e46 2fbe 5e2a 273e eef4 6ebb 738c 3e3d
000002c0: 3644 493e d870 40bd 48db 0a3e 3963 c73b
000002d0: e9ab c2bc 0027 1d3e 63fb a4bd 511a 313e
000002e0: 4e2c d93d 69a0 d63c 6aa8 d63d eb35 143e
000002f0: 6ba5 063e 4cf5 433e 1dd0 113e 108a 57bd
00000300: b1bc 36be 279d 3cbe aa62 bdbc 6f57 8fbd
00000310: 3998 75bd f604 c2bd ca79 09be 61c8 c73d
00000320: fdd0 4dbe e82a 073e ddd6 f03d 8c95 b43c
00000330: cda8 c13b c762 6bbd 2c31 da3d 9212 80bd
00000340: 1ecf b7bd 05b0 72bd 9235 553e dfd4 fcbd
00000350: 087a 1e3e 6559 7f3d db1d cabd dcd4 0abe
00000360: e9f5 36be ad9a 553e 3df0 1f3e 5469 3dbe
00000370: 69cf e5bd 81cd 113d dcce 1a3e 34a0 f63d
00000380: edcb cfbc a431 c03d 2c1b 87bc 883c 35be
00000390: 7433 533e 3d57 373d 0c2c 8d3d 1abf 19be
000003a0: 4dcb 9fbc 877a acbd 9192 593e 6be1 34be
000003b0: b8b2 08be cf19 a23d 197a 4f3e 56e9 e33d
000003c0: cb94 2cbe 0a26 5c3e 2be2 5b3e a320 2e3e
000003d0: 861f 8d3d f2ed 10bd 4190 bbbd be3d 8b3d
000003e0: 79c3 d03d 1a7e 633b 69ac 8fbd c573 a93c
000003f0: e507 acbc fedc 49be ba3d 5dbe 37c1 45be

gat_layers.1.att_src f4 [1, 4, 16]
0.16474321 0.47666666 -0.11659387 -0.007904532 -0.19473092 -0.26739487 -0.41192424 0.41917107
0.52135473 0.22294709 0.21920714 0.31175205 -0.16861196 0.4160414 -0.3687171 -0.54664576
-0.15345211 -0.37781307 -0.16846582 0.09826539 0.54165936 0.38345018 0.3698222 -0.51889557
-0.1240461 0.28423467 -0.39785382 0.10422901 0.24694394 0.18857037 -0.5466712 -0.20883562
0.06841928 0.4573935 0.043889374 0.3156884 -0.1745587 -0.17847443 0.10762875 -0.28349662
-0.30441105 0.21374369 -0.27182314 0.51912713 0.32454643 0.1312342 0.31748423 -0.10125418
0.15488325 -0.4895623 -0.20490025 -0.21482852 0.29058844 -0.43834925 0.44506845 -0.14382589
-0.4076051 -0.5167516 -0.2386369 0.26534617 -0.20738932 -0.52303636 0.029257879 -0.17788284
00000000: 72b2 283e a70d f43e c4c8 eebd 0382 01bc
00000010: 8b67 47be fbe7 88be bce7 d2be 979d d63e
00000020: 8177 053f 3e4c 643e d677 603e f79d 9f3e
00000030: 9da8 2cbe 6103 d53e 7dc8 bcbe faf0 0bbf
00000040: 8d22 1dbe b770 c1be 4e82 2cbe 5d3f c93d
00000050: 30aa 0a3f 9553 c43e 5659 bd3e 57d6 04bf
00000060: e20b febd 3587 913e 7fb3 cbbe 0576 d53d
00000070: dfde 7c3e 9718 413e a5f2 0bbf 01d9 55be
00000080: 681f 8c3d 7b2f ea3e 58c5 333d e9a1 a13e
00000090: 84bf 32be 00c2 36be 766c dc3d 7826 91be
000000a0: c4db 9bbe a0df 5a3e 672c 8bbe 84e5 043f
000000b0: f32a a63e 4262 063e 4b8d a23e 5a5e cfbd
000000c0: b799 1e3e e9a7 fabe 5fd1 51be 02fc 5bbe
000000d0: 02c8 943e 506f e0be 03e0 e33e 1847 13be
000000e0: 9eb1 d0be d549 04bf 3b5d 74be 74db 873e
000000f0: de5d 54be b6e5 05bf 38ae ef3c eb26 36be

gat_layers.1.att_dst f4 [1, 4, 16]
-0.2692724 0.00225298 0.16019987 0.09984074 0.02988776 -0.23158456 0.14616042 0.04655681
0.124210894 0.48219517 0.10892712 -0.2657754 0.24350904 -0.061638355 0.30347756 0.529487
-0.03677869 -0.043328553 0.10668588 -0.28894755 0.033897135 0.13263546 -0.072165236 0.28493047
-0.120409444 0.52433145 0.21077204 0.29530323 -0.19857068 0.0500451 -0.43476915 -0.23337887
0.21169104 -0.047039684 0.46451315 -0.41845104 -0.17970684 0.31894925 0.41045815 -0.42555237
-0.3177842 -0.32678655 -0.49019235 0.39244366 -0.51948106 -0.09537854 0.3005393 0.18537027
-0.15791932 0.4297663 -0.20269981 0.17454518 0.33277988 -0.27117792 0.5470296 -0.21384674
-0.3394813 0.13188048 -0.15482667 0.40269986 0.35962513 -0.18769735 -0.31984612 -0.040921636
00000000: 12de 89be bba6 133b 6f0b 243e 4d79 cc3d
00000010: 2dd7 f43c 8124 6dbe 14ab 153e 5bb2 3e3d
00000020: 4862 fe3d 49e2 f63e 2f15 df3d b713 88be
00000030: 6f5a 793e 8078 7cbd 6961 9b3e 768c 073f
00000040: 40a5 16bd 4879 31bd 207e da3d eff0 93be
00000050: b9d7 0a3d 97d1 073e 5ecb 93bd 68e2 913e
00000060: 3a99 f6bd 963a 063f a0d4 573e fc31 973e
00000070: 1d56 4bbe 17fc 4c3d 109a debe dffa 6ebe
00000080: 89c5 583e afac 40bd abd4 ed3e 373f d6be
00000090: 1205 38be 514d a33e 9227 d23e 00e2 d9be
000000a0: 9cb4 a2be 9150 a7be 7efa fabe 60ee c83e
000000b0: b6fc 04bf d355 c3bd 4ae0 993e b4d1 3d3e
000000c0: 9ab5 21be 540a dc3e 8a90 4fbe f9bb 323e
000000d0: 2062 aa3e d5d7 8abe 220a 0c3f a4fa 5abe
000000e0: 7ed0 adbe ad0b 073e e28a 1ebe ad2e ce3e
000000f0: c920 b83e bc33 40be dfc2 a3be 729d 27bd

gat_layers.1.att_edge f4 [1, 4, 16]
-0.4279304 0.4897362 -0.0102357175 0.48705462 -0.35887516 0.53746367 0.029974252 0.2594998
-0.11024956 -0.20128109 -0.4033757 0.16282831 -0.021128856 0.09635324 -0.32567438 -0.09562321
-0.4054073 -0.06380982 0.12773927 -0.07461459 -0.13476771 0.015024057 -0.17638482 -0.37942612
-0.21403688 0.22038707 0.47001788 -0.3674617 -0.4477478 -0.43143559 0.44300655 -0.13225152
-0.49961126 0.08602394 -0.08204509 -0.35866573 0.4550987 0.11913869 0.009263654 -0.5021887
-0.2514321 0.019500118 0.43189475 -0.3104499 0.0047603073 0.38206097 -0.13399227 -0.085930936
-0.006582086 0.47955456 0.32969478 0.108494826 0.33354816 -0.1292036 0.4378232 -0.00075785257
0.28931636 0.47637925 0.49162954 -0.13900994 0.27308488 -0.32723534 0.0016776375 -0.4979543
00000000: b219 dbbe b4be fa3e b6b3 27bc 395f f93e
00000010: 7cbe b7be 3897 093f 908c f53c 28dd 843e
00000020: 85ca e1bd a11c 4ebe 4287 cebe 77bc 263e
00000030: 6c16 adbc d954 c53d cbbe a6be 1ad6 c3bd
00000040: 8c91 cfbe b9ae 82bd 15ce 023e 89cf 98bd
00000050: 8c00 0abe 7627 763c 399e 34be 2444 c2be
00000060: 7c2c 5bbe 26ad 613e 2fa6 f03e f123 bcbe
00000070: 333f e5be 20e5 dcbe c1d1 e23e f16c 07be
00000080: 0ccd ffbe 522d b03d 4207 a8bd 09a3 b7be
00000090: b202 e93e fcfe f33d 95c6 173c 708f 00bf
000000a0: b5bb 80be b6be 9f3c 4f21 dd3e 4af3 9ebe
000000b0: 5afc 9b3b 7f9d c33e 4535 09be 8ffc afbd
000000c0: 8aae d7bb 2d88 f53e c1cd a83e 8932 de3d
000000d0: d3c6 aa3e f34d 04be 5d2a e03e a0aa 46ba
000000e0: 4621 943e fbe7 f33e deb6 fb3e 9f58 0ebe
000000f0: c8d1 8b3e 648b a7be 2ce4 db3a def3 febe

gat_layers.1.bias f4 [64]
-0.007567934 -0.007594268 0.009287995 -0.0077002784 -0.0077138916 -0.007573984 0.007900284 -0.007576378
-0.007560119 -0.007723084 -0.007695082 -0.0075903838 0.007906367 -0.007558173 -0.0075574196 -0.0075853327
-0.007576497 -0.007558505 -0.0075571467 -0.007565278 -0.0075625405 -0.0075692846 0.0122723505 -0.007561954
-0.007566164 -0.0075693675 -0.007562862 -0.0075661084 -0.0075664227 -0.0075334553 -0.007350499 -0.0075719543
-0.007566137 -0.007572765 -0.0031741173 -0.0071239816 -0.0072795493 -0.005882663 -0.0075922874 -0.0075747482
-0.007556122 -0.0075654183 0.0041686846 -0.0075657163 0.009227041 -0.00757701 -0.0075763324 0.0110225985
-0.007568664 -0.007569197 0.0089469515 -0.0075638522 0.011664937 0.005682729 -0.0034025733 -0.0075653275
0.009098686 -0.0075640148 -0.007566998 -0.0069819866 -0.0018154266 0.007981168 -0.007270175 -0.007562997
00000000: 6ffc f7bb 56d9 f8bb ad2c 183c 9e52 fcbb
00000010: d0c4 fcbb 2f2f f8bb 3170 013c 4443 f8bb
00000020: e0ba f7bb ed11 fdbb 0727 fcbb c1b8 f8bb
00000030: b589 013c 8daa f7bb 3ba4 f7bb 628e f8bb
00000040: 4344 f8bb 56ad f7bb f1a1 f7bb 27e6 f7bb
00000050: 30cf f7bb c307 f8bb f811 493c 45ca f7bb
00000060: 95ed f7bb 7508 f8bb e2d1 f7bb 1eed f7bb
00000070: c1ef f7bb 34db f6bb 74dc f0bb 281e f8bb
00000080: 5bed f7bb f524 f8bb da04 50bb 4a70 e9bb
00000090: 4989 eebb 5bc3 c0bb b9c8 f8bb 9835 f8bb
000000a0: 5899 f7bb 54e7 f7bb 7699 883b d4e9 f7bb
000000b0: 042d 173c 9148 f8bb e242 f8bb 2198 343c
000000c0: 8e02 f8bb 0707 f8bb 3c96 123c 31da f7bb
000000d0: 4b1e 3f3c 3036 ba3b b5fd 5ebb 91e6 f7bb
000000e0: a812 153c 8edb f7bb 94f4 f7bb 26c9 e4bb
000000f0: 9cf3 edba 72c3 023c a63a eebb 04d3 f7bb

gat_layers.1.lin.weight f4 [64, 64]
0.11911832 -0.0070491605 -0.036533944 -0.02342672 -0.0023470032 0.17507766 -0.11354161 -0.17558639
0.022499185 -0.091411605 -0.20986253 -0.15630898 -0.20858584 0.008829457 -0.1543414 0.16665567
-0.035213366 0.17824657 -0.11008411 0.023547243 -0.20517609 -0.14030911 -0.15391494 0.18987137
0.1117568 0.16447254 0.10302481 0.1408907 0.09190453 -0.15730527 -0.16870917 -0.14386775
0.04880965 -0.04027356 0.10069012 -0.013858032 -0.026232116 -0.058036495 -0.16586436 0.024365548
-0.13409285 0.07873384 -0.04323992 0.18962114 0.16704881 -0.06640247 0.03254093 -0.12096788
0.031020144 -0.16672753 0.19257951 -0.06604191 -0.12036501 0.00032962975 0.15292646 0.20493738
-0.16434544 -0.18632326 -0.009064263 0.139426 0.010901341 0.18095826 0.077771634 -0.20954667
0.21786591 -0.19963443 -0.13430363 0.15035026 0.005737984 -0.13698132 -0.0502882 -0.18994804
0.18816443 -0.09338116 -0.043885138 -0.15293069 0.14321388 0.09986608 0.07668306 0.07523253
-0.06893181 -0.13739307 -0.030813571 -0.13273752 0.016724281 -0.073520355 0.16672026 -0.049040183
-0.079428904 -0.18073604 0.12767608 0.028672257 0.19046013 0.11105704 -0.0115927 0.0028016833
-0.17352241 -0.08006936 -0.15404403 -0.16343479 -0.14253116 -0.06324624 -0.195489 -0.026868004
-0.21341202 0.17582136 -0.19741003 0.14352795 0.013538397 -0.20313567 -0.18878348 -0.05511202
0.14393258 0.16137815 0.17773385 -0.15033528 -0.019528529 -0.18567367 0.098348655 0.18158428
-0.146468 0.19976933 0.17015018 -0.1886251 0.0366767 -0.06514578 -0.12285707 0.03916526
-0.14437662 0.09575793 0.07320055 0.08053666 0.013775125 0.012677285 -0.2103598 -0.074057706
-0.16714045 -0.22136165 0.09723382 -0.1927718 -0.10995968 0.024853133 0.09185768 -0.06740904
-0.11041993 -0.16211239 -0.02555963 0.16689537 0.16849513 0.099187925 -0.05328304 -0.21178776
0.10243763 0.09393279 -0.027856916 -0.12125419 -0.073976085 0.158124 0.03044325 -0.16320531
0.14795515 0.18831567 -0.11668175 0.08072955 0.0882145 -0.14417787 0.20266873 -0.057214763
0.12223246 0.0164303 0.16369574 -0.075075455 -0.01859718 0.06596574 0.13540795 0.09324438
0.12738512 0.19494954 0.032178245 -0.019537203 -0.2246251 -0.16584843 -0.016218286 0.061844524
-0.025933718 0.19696365 0.07429625 -0.07712354 -0.07201252 0.025677532 -0.10140359 0.14169069
-0.21133283 0.035151165 0.008205809 0.14071316 0.08797211 0.013540373 0.13499492 -0.13852246
0.19494839 0.16448468 0.16106005 0.05928104 -0.03642626 -0.027125679 -0.07816039 -0.08421543
-0.14393772 -0.2112451 0.13189195 0.062072378 0.14617503 0.19735901 0.20681272 -0.17367348
-0.14889729 -0.17575872 0.10324216 0.20410958 0.15166345 0.14858544 -0.17770858 -0.056455147
0.08040565 -0.12645324 0.060908996 0.17648745 -0.13630866 -0.16540238 -0.18613277 0.0008979995
0.1091131 -0.06960877 -0.119811796 -0.05696239 0.16594133 -0.10807568 -0.18158449 0.14772351
-0.08103048 -0.036471497 -0.077066645 0.053442396 -0.1711862 -0.010626975 -0.010070506 -0.062067144
0.092036635 0.20156759 0.111777484 0.17306589 0.15798819 -0.03748232 -0.10193842 -0.044315554
00000000: 4ef4 f33d a5fc e6bb 9ea4 15bd 65e9 bfbc
00000010: 2ed0 19bb 8f47 333e 8188 e8bd ebcc 33be
00000020: 3650 b83c 0236 bbbd 34e6 56be 760f 20be
00000030: 8797 55be 6da9 103c ac0b 1ebe c9a7 2a3e
00000040: e43b 10bd 4586 363e c773 e1bd 26e6 c03c
00000050: ae19 52be 31ad 0fbe e19b 1dbe a46d 423e
00000060: c0e0 e43d 7d6b 283e acfe d23d a745 103e
00000070: 7138 bc3d a214 21be 19c2 2cbe 1152 13be
00000080: a1ec 473d e3f5 24bd 9f36 ce3d cd0c 63bc
00000090: bce4 d6bc adb7 6dbd 59d8 29be 429a c73c
000000a0: a34f 09be 353f a13d 581c 31bd 0b2c 423e
000000b0: d80e 2b3e 05fe 87bd a349 053d 02be f7bd
000000c0: f51d fe3c 9fba 2abe 9033 453e fb40 87bd
000000d0: ee81 f6bd 28d2 ac39 c198 1c3e 1bdb 513e
000000e0: 2c4a 28be 86cb 3ebe 4682 14bc b0c5 0e3e
000000f0: 8a9b 323c 1f4d 393e bc46 9f3d 6793 56be
00000100: 3e18 5f3e f86c 4cbe e486 09be 6bf5 193e
00000110: b305 bc3b d544 0cbe 00fb 4dbd bd81 42be
00000120: 2dae 403e 9f3e bfbd e7c0 33bd dd99 1cbe
00000130: a9a6 123e 9686 cc3d 020c 9d3d 8313 9a3d
00000140: 1f2c 8dbd c5b0 0cbe be6c fcbc 58ec 07be
00000150: 5c01 893c d791 96bd b7b8 2a3e 5cde 48bd
00000160: 9fab a2bd de12 39be 85bd 023e 15e2 ea3c
00000170: fb07 433e e071 e33d 4fef 3dbc 729c 373b
00000180: dcaf 31be 68fb a3bd b8bd 1dbe 735b 27be
00000190: b0f3 11be 3f87 81bd 452e 48be 4a1a dcbc
000001a0: ae88 5abe 840a 343e db25 4abe fef8 123e
000001b0: 27d0 5d3c cc02 50be 7550 41be 24bd 61bd
000001c0: 1063 133e 5040 253e ddff 353e 7ef1 19be
000001d0: 4bfa 9fbc 3d21 3ebe 056b c93d 3bf1 393e
000001e0: b5fb 15be 5590 4c3e d93b 2e3e f026 41be
000001f0: 4f3a 163d 276b 85bd 7d9c fbbd c06b 203d
00000200: 77d7 13be bc1c c43d 2cea 953d 68f0 a43d
00000210: 10b1 613c 63b4 4f3c 8f68 57be 91ab 97bd
00000220: de26 2bbe a1ac 62be 8622 c73d f965 45be
00000230: 8a32 e1bd cc98 cb3c e11f bc3d c00d 8abd
00000240: d823 e2bd ca00 26be 6e62 d1bc 9fe6 2a3e
00000250: fd89 2c3e 0a23 cb3d 513f 5abd e4de 58be
00000260: d2ca d13d d65f c03d 3034 e4bc 1e54 f8bd
00000270: c680 97bd 42eb 213e 1f64 f93c 4b1f 27be
00000280: 8e81 173e d3d5 403e d7f6 eebd 8955 a53d
00000290: cea9 b43d 5da3 13be 6488 4f3e 075a 6abd
000002a0: 0355 fa3d d698 863c db9f 273e 29c1 99bd
000002b0: 1d59 98bc 0c19 873d 62a8 0a3e e9f6 be3d
000002c0: 3f71 023e daa0 473e 56cd 033d 7c0c a0bc
000002d0: 1f04 66be 2cd4 29be 36dc 84bc af50 7d3d
000002e0: f372 d4bc d7b0 493e a228 983d f2f2 9dbd
000002f0: 4d7b 93bd b059 d23c afac cfbd 5d17 113e
00000300: a267 58be abfa 0f3d a871 063c 1c17 103e
00000310: b92a b43d 71d8 5d3c 1c3c 0a3e d5d8 0dbe
00000320: 8da0 473e ac6e 283e edec 243e add0 723d
00000330: b433 15bd ac36 debc 8e12 a0bd 2479 acbd
00000340: 6964 13be a350 58be af0e 073e 9b3f 7e3d
00000350: e8ae 153e 7b18 4a3e b7c6 533e 76d7 31be
00000360: 8878 18be 18fa 33be a070 d33d 1a02 513e
00000370: aa4d 1b3e c826 183e 3df9 35be 833d 67bd
00000380: b8ab a43d f57c 01be b67b 793d 20b9 343e
00000390: 7f94 0bbe 3e5f 29be 9799 3ebe ba67 6b3a
000003a0: b076 df3d 0b8f 8ebd e35f f5bd 6551 69bd
000003b0: 86ec 293e c856 ddbd 49f1 39be d544 173e
000003c0: 4ff3 a5bd 2363 15bd 1ed5 9dbd 6ae6 5a3d
000003d0: 6f4b 2fbe c41c 2ebc c3fe 24bc 1e3a 7ebd
000003e0: b47d bc3d bc67 4e3e 98eb e43d 2f38 313e
000003f0: a8c7 213e 1087 19bd 17c5 d0bd 3a84 35bd

gat_layers.1.lin_edge.weight f4 [64, 64]
-0.19330822 -0.094874404 -0.011631442 0.13895345 0.061102603 0.13858838 0.12881514 0.010785301
-0.17586315 -0.11281755 -0.07042351 -0.081882834 0.20733482 -0.109797075 -0.1632216 -0.07437357
-0.04442701 0.15594281 0.14013083 -0.14906484 0.14002116 0.2019104 -0.12889731 -0.0028356186
-0.06904226 -0.17185442 -0.14984354 -0.1355996 0.07897228 0.0010380219 0.04468545 0.15167372
-0.08849774 -0.081496194 -0.16286933 0.16480635 0.18335125 0.020727418 -0.1399095 -0.097364716
0.107190445 -0.014365525 0.12368612 0.11867053 0.15241031 0.2089918 0.062417507 -0.14486676
0.057583164 -0.06418785 0.02017064 0.113797456 0.1594488 -0.120702244 0.18951815 0.17145072
-0.090379104 -0.0836991 0.123469815 0.058650304 0.01850769 -0.036851708 0.09094017 -0.10884651
-0.030145545 -0.11454418 -0.028486636 0.1111054 -0.074280575 -0.04345387 -0.15318246 -0.15462123
0.041369654 -0.04579877 -0.17588529 0.20752412 0.08614828 0.1308094 -0.20584275 0.03682431
0.06422787 0.13737229 -0.05174883 0.11881636 -0.11553126 0.116092436 0.1611552 -0.14508905
0.11370836 -0.20687093 0.012551919 0.15042384 -0.11779689 0.19106996 0.053418815 -0.1321462
0.099566445 0.20030373 0.08648421 0.17679638 0.04085363 -0.08625539 0.117975354 -0.042454597
0.036603283 0.029533666 0.00888015 -0.0774429 -0.018651143 -0.06942753 0.038198233 0.0073869214
-0.021651447 -0.19891419 0.024497405 -0.0032627601 -0.025533779 0.005593616 -0.072494596 -0.089239135
0.1116609 -0.12671578 0.20871656 -0.039379895 0.12466562 -0.013164348 0.15884288 -0.043470252
0.1781368 0.18674996 0.028510602 0.065613605 0.19063357 0.0035723723 0.11597151 -0.047395587
-0.026582258 0.13142025 -0.022851786 0.014722507 -0.07434564 -0.08221897 0.035935644 -0.17791408
0.14026383 0.1623178 0.033339716 0.111693956 -0.15405908 -0.015720421 -0.10845673 -0.10624261
-0.109085605 0.061621685 0.07265655 0.07141327 -0.050196275 -0.12301224 -0.032133106 -0.08355854
0.03473558 0.0027107701 0.11489515 0.1058496 0.12085352 -0.046573 -0.19690375 0.014944867
0.060511287 -0.009573568 -0.15300441 -0.05471313 0.08196321 0.029576378 0.14168505 -0.0284807
-0.06510346 -0.008941503 0.12234112 0.13072477 0.20313324 -0.1975135 -0.13457568 -0.0137549825
-0.021697374 0.19950971 -0.047490727 0.110414095 -0.093668595 0.12883772 -0.17928162 -0.06429135
0.18320253 -0.066793054 0.13282862 0.1604998 0.048840415 0.11900579 -0.08722668 0.18333139
-0.14176889 0.13738228 -0.17615905 0.010762712 0.07078429 0.015065417 -0.026561638 -0.1956924
-0.031234268 -0.011135429 0.17418033 0.11691416 -0.021029523 -0.016504131 0.17658848 -0.058908634
0.09115875 0.10242289 0.16819337 0.14328608 -0.11094969 -0.00072256994 -0.023760557 -0.16391468
-0.18183127 0.020801868 -0.081355006 0.11391785 -0.05038199 -0.11670664 -0.20735681 -0.16003814
0.10762915 -0.13818598 0.13695812 0.16065364 0.026065273 -0.17828213 0.19387546 0.1284163
0.14408863 0.014215032 -0.01568578 -0.12945889 -0.13061807 -0.04560358 0.06546129 -0.13464583
0.04015133 -0.11419449 -0.004276945 -0.17966859 -0.07697674 0.20613278 -0.2028689 0.1933599
00000000: 97f2 45be 834d c2bd ce91 3ebc d049 0e3e
00000010: b946 7a3d 1dea 0d3e 1ee8 033e d5b4 303c
00000020: 7815 34be e30c e7bd 343a 90bd 30b2 a7bd
00000030: 944f 543e 4add e0bd 9023 27be 2c51 98bd
00000040: 19f9 35bd 79af 1f3e 757e 0f3e 74a4 18be
00000050: b561 0f3e 9ac1 4e3e a8fd 03be c9d5 39bb
00000060: 0766 8dbd 9bfa 2fbe 9670 19be 9fda 0abe
00000070: 38bc a13d 3c0e 883a 1708 373d 5b50 1b3e
00000080: 4e3e b5bd 7ae7 a6bd 38c7 26be ffc2 283e
00000090: 6ec0 3b3e 8ccc a93c 7044 0fbe 2767 c7bd
000000a0: aa86 db3d 615d 6bbc 264f fd3d 8909 f33d
000000b0: 7311 1c3e f201 563e 80a9 7f3d f457 14be
000000c0: 53dc 6b3d eb74 83bd e63c a53c a40e e93d
000000d0: 8c46 233e bd32 f7bd 0c11 423e c790 2f3e
000000e0: ae18 b9bd 6f6a abbd bedd fc3d 4d3b 703d
000000f0: 709d 973c d1f1 16bd d73e ba3d ebea debd
00000100: caf3 f6bc 2496 eabd ce5c e9bc 3a8b e33d
00000110: 6a20 98bd affc 31bd dddb 1cbe 0755 1ebe
00000120: 3a73 293d 7e97 3bbd 461b 34be 3481 543e
00000130: 826e b03d e6f2 053e 71c8 52be 16d5 163d
00000140: e789 833d 52ab 0c3e 95f6 53bd fe55 f33d
00000150: a79b ecbd dfc1 ed3d de05 253e 3992 14be
00000160: eedf e83d f9d5 53be 90a6 4d3c b508 1a3e
00000170: 7f3f f1bd d8a7 433e b0cd 5a3d 5551 07be
00000180: 7ee9 cb3d 6c1c 4d3e a21e b13d 1c0a 353e
00000190: 2356 273d aaa6 b0bd 109d f13d dfe4 2dbd
000001a0: 53ed 153d 96f0 f13c 0c7e 113c 629a 9ebd
000001b0: 48ca 98bc 0530 8ebd c075 1c3d fd0d f23b
000001c0: 605e b1bc 29b0 4bbe c8ae c83c 08d4 55bb
000001d0: 372c d1bc a74a b73b 0c78 94bd 02c3 b6bd
000001e0: 78ae e43d c8c1 01be cbb9 553e d04c 21bd
000001f0: b050 ff3d 47af 57bc b5a7 223e dd0d 32bd
00000200: 7e69 363e 623b 3f3e 118f e93c 6d60 863d
00000210: 7235 433e 761e 6a3b 7982 ed3d e021 42bd
00000220: 09c3 d9bc 0893 063e ab33 bbbc ac36 713c
00000230: 8742 98bd 6b62 a8bd 4131 133d 1c2f 36be
00000240: 52a1 0f3e a336 263e 3a8f 083d cdbf e43d
00000250: aac1 1dbe 1dc8 80bc 901e debd ba95 d9bd
00000260: 4668 dfbd 0567 7c3d f5cc 943d 1f41 923d
00000270: 9c9a 4dbd d7ed fbbd 019e 03bd bd20 abbd
00000280: e546 0e3d 2da7 313b 264e eb3d adc7 d83d
00000290: 0d82 f73d 54c3 3ebd 23a1 49be 51db 743c
000002a0: afda 773d 74da 1cbc 30ad 1cbe e01a 60bd
000002b0: 54dc a73d 294a f23c e315 113e 5b50 e9bc
000002c0: f654 85bd 627f 12bc fb8d fa3d b7dc 053e
000002d0: 2902 503e fb40 4abe 35ce 09be 945c 61bc
000002e0: b1be b1bc 464c 4c3e a385 42bd c920 e23d
000002f0: 52d5 bfbd 09ee 033e 9a95 37be 2fab 83bd
00000300: 7299 3b3e ccca 88bd 3a04 083e 0f5a 243e
00000310: e30c 483d 4fb9 f33d e7a3 b2bd 39bb 3b3e
00000320: dd2b 11be f1ad 0c3e 0a63 34be 1656 303c
00000330: 5bf7 903d f0d4 763c cb97 d9bc 9763 48be
00000340: 02df ffbc 6071 36bc 545c 323e b170 ef3d
00000350: 1b46 acbc ac33 87bc 9cd3 343e 2e4a 71bd
00000360: 70b1 ba3d 18c3 d13d e23a 2c3e 96b9 123e
00000370: 9739 e3bd d96a 3dba 80a5 c2bc 40d9 27be
00000380: fa31 3abe ae68 aa3c 749d a6bd c34d e93d
00000390: 585d 4ebd e403 efbd 5855 54be 0ae1 23be
000003a0: ac6c dc3d a080 0dbe c03e 0c3e 6382 243e
000003b0: d786 d53c 978f 36be 4a87 463e 907f 033e
000003c0: f88b 133e 2ae6 683c 777f 80bc df90 04be
000003d0: bec0 05be d2ca 3abd 9210 863d 99e0 09be
000003e0: b975 243d cdde e9bd 9d25 8cbb 0bfb 37be
000003f0: fba5 9dbd 7914 533e ddbc 4fbe 2300 463e
