models/best_fraud_model_seed_5432.pth (torch, 378242 bytes, 45 tensors)

node_emb.weight f4 [64, 8]
000000 2e 23 16 3d bb ca 66 be fc 36 64 3e 66 be c6 bd
       0.036654644 -0.22538273 0.222866 -0.09704284
000010 37 33 8e be b6 59 97 be 75 ea 9d be f7 e9 a6 3e
       -0.2777345 -0.29560632 -0.3084294 0.32600376
000020 9c a4 a5 3e c8 a4 00 be fc bb c1 3d d0 bd d6 3c
       0.3235215 -0.12562859 0.09459683 0.026213557
000030 0b 74 5e 3e 20 17 59 3e bb 14 dd 3d 48 3b f7 3c
       0.21723954 0.21200228 0.1079497 0.030179635
000040 02 03 a9 3e 21 93 8e 3d cc 7e 34 3e b3 27 aa 3e
       0.33010107 0.06961656 0.17626494 0.33233413
000050 1d 8b 7e 3e 3b 7a 9c be 9d 26 25 bc fa 6a 1b be
       0.24857755 -0.30562004 -0.010080007 -0.15177527
000060 e3 e0 1a bd 6f b9 e7 3d 4a fb 62 3e 22 e4 0b 3e
       -0.037812125 0.113146655 0.22166172 0.13661245
000070 a3 69 14 be 4a 47 13 be 6b ec 95 3e d2 25 6d bd
       -0.14493422 -0.14382663 0.29281935 -0.057897396
000080 d1 82 b7 bd e7 a7 25 bd 39 a1 b4 3e 91 17 6e be
       -0.08960498 -0.040443327 0.35279253 -0.23251177
000090 fa dd 24 be fa e9 44 be 23 24 a9 bd 00 4d ea bd
       -0.16100302 -0.1922988 -0.08258846 -0.11440468
0000a0 da d2 33 3e 12 2f fa bd a7 a8 51 be 32 6b 3f be
       0.17560902 -0.12216009 -0.20474492 -0.18693236
0000b0 0a 8e 11 3e f2 12 aa 3e 81 3c f0 3d ea ce ad 3e
       0.1421434 0.3321758 0.1173029 0.33946925
0000c0 cf eb b2 3e c0 56 93 3e 8c 4a 03 3e 67 44 54 3e
       0.34945533 0.28777122 0.12821406 0.20729218
0000d0 65 40 63 3e 75 62 f6 3d 49 59 ba bd 7d 0b af ba
       0.22192533 0.12030498 -0.09099061 -0.0013354864
0000e0 f8 39 91 3e 72 5c da bc d4 77 33 be f0 f1 11 bc
       0.2836454 -0.02665541 -0.1752618 -0.00890778
0000f0 ba c7 40 bd fc 5b a9 3e 9c e5 1d 3e b7 d4 06 3d
       -0.047065474 0.3307799 0.1541962 0.032917704
000100 7d 27 f7 bd 04 38 87 be 20 32 9c be 48 ef 8f 3e
       -0.12068079 -0.26409924 -0.30506992 0.28112245
000110 96 66 70 3e 50 f6 08 be 35 2f c0 bb f6 cd ae 3e
       0.23476633 -0.13375211 -0.0058650025 0.3414151
000120 98 f0 0f 3d a9 f2 1e be cb d9 69 3d 70 03 90 3e
       0.035141557 -0.15522255 0.05709247 0.28127623
000130 d6 d5 37 3e 1d d1 88 be c5 c1 65 3e ff a6 84 3e
       0.17952666 -0.2672204 0.22437198 0.25908658
000140 fb 39 af bd f1 5a 16 3d d8 14 57 be d2 27 ab bc
       -0.08555981 0.036707822 -0.21004045 -0.020893011
000150 b8 94 95 be 08 d8 38 bd 1b 72 79 3e 3e 29 93 3e
       -0.29215026 -0.0451279 0.24359934 0.28742403
000160 d5 00 a7 be 99 37 a7 bd 30 24 9a 3e 65 ae 83 bd
       -0.32617822 -0.08164901 0.30105734 -0.064297475
000170 3f 23 ff 3d 8f 37 1e 3e f2 b0 c4 bd 6b fa 22 3d
       0.124578945 0.15450881 -0.09604062 0.0397896
000180 05 0b 41 be ff 67 7e 3e 3c 8c 3f be 6d 7c bf 3c
       -0.1885186 0.24844359 -0.18705839 0.02337476
000190 5f eb 87 bc 80 6f 7a be 19 08 45 be d9 81 3c bd
       -0.016591726 -0.24456596 -0.1924137 -0.04602227
0001a0 e6 e5 a1 3e 7f 18 82 3e 1d e8 68 3e b2 1a ac be
       0.3162071 0.25409314 0.22744794 -0.33614117
0001b0 d1 67 e0 bd 96 c4 34 3e 86 6a 0f bd 28 34 b3 be
       -0.109573014 0.17653117 -0.035013698 -0.3500073
0001c0 77 7c 6f be 93 ca c8 bb 17 4a 7e be 2e dd 6f 3e
       -0.23387323 -0.0061276644 -0.2483295 0.23424217
0001d0 fb 50 13 3e 13 f3 b9 3d 80 57 96 bd 40 b5 46 be
       0.1438636 0.09079566 -0.07340908 -0.19405079
0001e0 4e 38 93 3e b7 5d 93 bd c1 95 60 3d dd 1e ed bd
       0.28753895 -0.07195609 0.054830316 -0.11578152
0001f0 a2 3a 73 3e d9 5e bb 3b 34 91 5f be 8f 97 2f be
       0.23752835 0.005718094 -0.21832734 -0.17147659
000200 1f 19 1e be 7a fd e1 bd 59 62 6a bd 21 66 25 bd
       -0.1543927 -0.11034675 -0.057222698 -0.0403806
000210 ec 4a 13 be 2c 08 1f be ba 4b 7a 3e d9 a4 23 3d
       -0.14384049 -0.15530461 0.2444295 0.039952133
000220 70 ed 50 3e e6 40 93 bc 25 db 47 3e 05 68 92 3c
       0.20403075 -0.017975282 0.19517191 0.017871866
000230 a9 b1 b3 3e a2 a3 80 be d1 ff b1 3e 84 40 58 be
       0.3509648 -0.25124842 0.34765485 -0.21118361
000240 60 1b 9b 3c 2d 85 c5 bd a2 4e 1f be 2e ca b3 bc
       0.018933952 -0.09644542 -0.1555734 -0.021946993
000250 2a a5 2f 3d ec b9 91 be dc 56 3e 3e 14 e3 a0 be
       0.042882122 -0.2846216 0.18587822 -0.31423247
000260 b4 b6 a8 3e f9 7f ed bc b6 10 3a 3d c2 58 cf 3c
       0.3295189 -0.028991686 0.045426093 0.025310878
000270 a2 98 92 3e 3a ae f9 bc 97 0b 92 3e b0 46 81 bc
       0.28632075 -0.030478586 0.28524467 -0.015780777
000280 58 23 f4 3d 86 cf ad 3e 13 98 a9 3e e5 90 f2 bd
       0.11920804 0.3394739 0.33123836 -0.11844043
000290 90 ec 00 be 5f a9 f8 bd 58 ed a1 3e 94 0d 85 be
       -0.12590241 -0.1214168 0.3162639 -0.25986922
0002a0 b7 39 01 be 7a 38 02 bc 87 dd 81 be 67 64 2c be
       -0.12619673 -0.007948035 -0.25364324 -0.16835175
0002b0 d8 cb c2 bc 80 37 a8 be e3 17 96 be 55 07 5c be
       -0.02377884 -0.32854843 -0.293151 -0.21487172
0002c0 3a 88 6f bb 46 53 94 be ca ba 69 3e 24 70 93 be
       -0.0036549703 -0.28969783 0.2282516 -0.28796494
0002d0 21 f4 e1 3d 4e 85 16 bb 5d df 70 bd 9e 17 f9 bd
       0.11032892 -0.002296764 -0.058806766 -0.12162708
0002e0 71 a9 af be ae 75 3b bd 04 6d 1f 3e f9 c0 4f be
       -0.3430896 -0.045766525 0.1556893 -0.20288457
0002f0 f0 62 19 3e d0 fc 28 3d ac 23 3b be 85 1f 63 bd
       0.14979148 0.041256726 -0.18275326 -0.05544998
000300 fd 21 4d 3e 1e c8 29 3d 5f 2f 80 3e 0c 3f dc bd
       0.20032497 0.041450612 0.2503614 -0.10754213
000310 31 32 ce bd 54 5c 20 be 66 9b 8e be 7b 23 96 3e
       -0.10068167 -0.1566022 -0.27852935 0.29323944
000320 93 09 64 3e b8 f3 8c be 94 f7 99 be 35 4f 5e 3e
       0.22269277 -0.27529693 -0.300717 0.21709903
000330 92 3a 23 3e ce dc 19 3e 66 48 65 be 66 70 ff 3d
       0.15940312 0.15025637 -0.22390899 0.1247261
000340 70 65 19 3e db cf 6c 3e 8c c6 84 be fa a4 f5 3d
       0.14980102 0.23126166 -0.2593273 0.119943574
000350 a8 04 a5 3e 77 47 b6 3d 41 56 05 3e f6 7b 1f be
       0.32230115 0.089003496 0.13021185 -0.15574631
000360 9e ff 8e be 37 e8 78 be 32 88 0e 3d ca 88 ae be
       -0.27929395 -0.24307333 0.034797855 -0.34088737
000370 18 a4 8b bd b0 46 9d 3e 46 70 a3 3e 72 5e fc bd
       -0.06818408 0.30717993 0.31921595 -0.123227015
000380 48 40 a6 be 58 c7 cc 3d c9 d4 1d 3d 98 9c b9 be
       -0.32470918 0.09998959 0.038533006 -0.36252284
000390 b4 d2 5d 3e 0a c4 4e be 14 84 69 3c 6f 60 07 3e
       0.21662408 -0.2019197 0.014252681 0.1322038
0003a0 db 44 7e bd d8 27 ae 3e fd 50 c7 bd 0a 85 15 be
       -0.062077384 0.34014773 -0.09732244 -0.14601532
0003b0 4f 34 62 3e 7a df 92 3e 8b eb 3c be 16 72 57 be
       0.22090267 0.28686124 -0.18449228 -0.21039614
0003c0 ae 7b 8d 3e a0 92 ec bd 63 f1 d5 bd 04 bb 86 3e
       0.27633423 -0.11551404 -0.104464315 0.26314557
0003d0 72 34 76 be 9a d4 2a 3e d3 f2 a9 3e a5 aa 3e be
       -0.24043444 0.16682664 0.33193073 -0.18619783
0003e0 6d 1a 2c 3e 50 31 a9 3e ab 58 90 bc b5 67 89 3d
       0.16806956 0.33045435 -0.017620405 0.06709234
0003f0 57 c0 16 3d 5f 5a 76 3e 1e ff 8b 3e 12 07 13 be
       0.036804523 0.24057911 0.27343076 -0.14358166

node_emb.bias f4 [64]
000000 2a 2f d7 3d 99 2c c0 bc 6f 56 44 3e 43 3f 2b 3d
       0.10507043 -0.023458766 0.19173597 0.041808378
000010 d7 56 9e 3e a9 30 45 be 04 4e 06 bd 54 e3 6d be
       0.3092563 -0.19256844 -0.032789245 -0.2323125
000020 2a 50 25 3d d2 0f ee 3c be 2f 01 bd d6 22 7f 3e
       0.040359654 0.029060278 -0.03153967 0.24915633
000030 bd 99 a3 3e 4f 85 c0 bd cb 20 d4 bd 51 bc 91 3e
       0.3195323 -0.094004266 -0.10357817 0.28463987
000040 af c0 b8 be 03 96 86 be e3 0b 31 3d 60 d3 55 be
       -0.36084506 -0.26286325 0.043224227 -0.20881414
000050 93 76 8c 3e 3a 45 0c 3e 14 50 99 3e f1 71 29 3e
       0.27434215 0.13698283 0.29943907 0.16547371
000060 75 ec ef 3c 6a 27 7e 3e 49 b5 f1 bd e8 3e b4 3d
       0.029287556 0.24819723 -0.118021555 0.08801061
000070 bf 26 03 3e ac 90 9f 3e d1 24 13 bd 70 99 98 3d
       0.12807749 0.31165063 -0.035923783 0.07451141
000080 55 6c 22 be 2e dc 9c 3e 7d c0 a0 be f3 92 02 be
       -0.15861638 0.30636734 -0.31396857 -0.12751369
000090 de fe 62 be 4f 22 5c 3d af ac 96 bb 92 ec b6 be
       -0.22167537 0.053743657 -0.004598222 -0.35727364
0000a0 1d 56 56 3e d9 cc e3 bd c2 6b 63 3e 3e 68 05 3e
       0.20931287 -0.11123056 0.22209075 0.13028046
0000b0 8e 02 6a 3e d3 38 55 bc 5b b3 65 be d8 7e a7 3e
       0.22852537 -0.013014036 -0.224317 0.32713962
0000c0 44 b0 34 3d a1 ed 7e be b3 2c ac 3e bc 52 76 be
       0.044113412 -0.24895336 0.33627853 -0.24054998
0000d0 74 b8 63 be 39 83 d7 3b 5d d4 cb 3d bf 31 a8 3d
       -0.22238332 0.0065769223 0.099526145 0.08212613
0000e0 12 dc 43 bb 55 45 1f 3e 38 55 dd bc c7 55 89 be
       -0.002988581 0.15553792 -0.027018175 -0.26823255
0000f0 c2 5d 70 3e 4f 79 95 3c 9b e1 86 3e 69 55 5c 3e
       0.23473266 0.018246321 0.26343998 0.21516956

edge_emb.weight f4 [64, 2]
000000 16 fa 9e 3e 39 79 60 be d5 38 22 3f 22 49 15 be
       0.31050175 -0.21921243 0.6336797 -0.14578679
000010 d9 01 cb 3e c2 eb 00 bf 8a 3e 85 bd 23 73 6c be
       0.39649847 -0.5035974 -0.06506069 -0.23090796
000020 fa 97 07 3f 24 1a 1a 3e d0 07 94 be 26 e0 8f 3d
       0.5296627 0.15049034 -0.2891221 0.07025175
000030 d3 11 8d bd 38 a7 0e 3e 99 cf 10 bf 9b 49 ed 3d
       -0.06888165 0.13930976 -0.5656677 0.11586305
000040 fb 47 ed 3e 42 6b 2f 3f a6 f3 49 be 63 5f cd 3e
       0.4634398 0.6852304 -0.19721851 0.40111837
000050 ba d3 81 bd ff 55 4a be 37 55 71 3e 21 b0 28 3f
       -0.06339212 -0.19759367 0.23567663 0.6589375
000060 96 63 0c 3f cc 2e be 3e cf d7 11 3f 26 95 5e 3e
       0.54839456 0.37145078 0.5696992 0.21736583
000070 33 39 3a be 83 2a 31 3f 4c af a9 be ca 63 62 3e
       -0.18185882 0.6920549 -0.33141553 0.22108379
000080 ff 56 09 bf 8b 1f e2 3e a1 8f 0c 3d df bc 2d bf
       -0.5364837 0.4416469 0.034316663 -0.6786632
000090 11 5c 23 3f f9 2c 32 bf 86 b1 bf be 08 a9 02 bf
       0.6381236 -0.6959987 -0.37440127 -0.5103917
0000a0 79 e0 16 bf 30 b3 65 be cd 10 f3 bd e8 8d 16 bf
       -0.5893627 -0.22431636 -0.11868439 -0.5881028
0000b0 ca 67 07 be 7c 17 18 bf 33 a1 e9 3e 53 2b 2d 3f
       -0.13223186 -0.59410834 0.45630798 0.6764423
0000c0 97 55 9b be 77 bc e4 be 22 cb c1 bd 9e 9e bf be
       -0.30338737 -0.44675037 -0.09462573 -0.37425703
0000d0 ae 42 b4 be bd 1d 12 3e 47 34 e7 be e2 7a 72 bd
       -0.35207123 0.14269157 -0.45157072 -0.05919922
0000e0 30 6d 82 be 16 43 07 bd e4 60 03 bf f2 5c bb 3e
       -0.25473928 -0.033022963 -0.5131972 0.3659435
0000f0 1c e1 69 be 72 f2 9d be 5c 60 68 3e 5c 3e 02 bf
       -0.22839779 -0.30849034 0.22693008 -0.508764
000100 8e bc 6a be c2 d3 04 bf e0 a4 d7 3d 0c 9b 41 3e
       -0.2292349 -0.51885617 0.10529494 0.18906802
000110 0f a6 b9 3e ca 1b 0a 3f 96 1f 16 3e 1f 24 61 3e
       0.36259505 0.5394865 0.14660487 0.21986435
000120 52 87 0f bf ef ce 9b be a4 b3 16 bf 5e 9d 2b bb
       -0.5606586 -0.30431315 -0.5886786 -0.0026186327
000130 ef 7c 24 3f ca 98 e9 3d 41 6c 31 be 87 64 8d 3e
       0.64253134 0.11406095 -0.17326452 0.2761576
000140 3a 78 96 3d a2 67 31 3f b8 4d ae be db 6b 60 3e
       0.0734715 0.69298756 -0.3404367 0.21916144
000150 43 a1 6e be 9a c3 53 be 42 da 2d bd e2 68 0e 3e
       -0.23303704 -0.20680085 -0.042444475 0.13907197
000160 0b a6 92 3d 82 1b 88 3e 7e 43 67 bd 04 28 1b 3f
       0.071605764 0.26583487 -0.05646085 0.60607934
000170 d5 3a 13 bf 0e a1 d7 be 1f 2e f5 3e a8 5b 0f 3f
       -0.57511646 -0.42115062 0.4788675 0.5599923
000180 c1 4c df be 10 27 8f be 74 3a 08 3e 31 70 92 bd
       -0.43613246 -0.2795949 0.13303548 -0.07150305
000190 14 dd 78 be c9 c5 2a bf e9 08 2a 3f b2 00 a6 be
       -0.24303085 -0.66708046 0.66419846 -0.32422405
0001a0 0d 3c 0a 3f fd 00 bc 3d 27 0e 14 bf 66 46 b5 be
       0.5399788 0.09179876 -0.57834095 -0.35405272
0001b0 97 0a 10 bc ff a9 08 3f f5 b9 ad 3d b9 3c 8e be
       -0.008791587 0.53384393 0.08482734 -0.27780703
0001c0 71 5e 01 bf 00 ed aa bc 27 4c 17 3f fc fb 0c 3f
       -0.5053473 -0.020864964 0.59100574 0.55072
0001d0 e2 88 6e be 20 9f 2c 3f b0 a0 28 bf 4f 15 bf be
       -0.23294404 0.67430305 -0.6587019 -0.37320945
0001e0 b9 9d 94 be a6 fe 11 bf fd 34 2d bf cb f3 26 3f
       -0.29026583 -0.5702919 -0.6765898 0.6521575
0001f0 86 21 87 be 8d a7 af 3e ad 9a 0c 3f a6 6c 22 3f
       -0.26392764 0.3430752 0.54923517 0.63447034

edge_emb.bias f4 [64]
000000 40 d1 08 bf 85 7b e2 be 5e 81 0b 3e 2c c7 f8 3e
       -0.5344429 -0.44234863 0.13623568 0.48589456
000010 4b 85 93 3e c7 41 09 3e 31 ce d7 bd c2 00 08 3c
       0.28812632 0.13403998 -0.10537375 0.008300962
000020 fe de 37 bf e3 54 30 be fe f6 04 bd 0a c4 22 3f
       -0.71824634 -0.17219882 -0.032462113 0.6358038
000030 01 53 89 be e0 ef 05 3f 46 19 9a 3e aa 77 1e bd
       -0.2682114 0.52319145 0.30097407 -0.03868834
000040 6e c9 cd 3e 60 b3 14 3f 6a 71 3a 3e 90 8c aa bd
       0.4019274 0.58086205 0.18207327 -0.083275914
000050 ac cc 0b bf cc 88 23 bf 60 d5 80 be 6a f8 ce bd
       -0.5460918 -0.6388061 -0.25162792 -0.10105975
000060 ab 98 c8 be 69 30 81 3e 75 2a 7b bd bb ee 96 be
       -0.39178976 0.25232247 -0.061319787 -0.29479012
000070 c0 fe e6 b6 17 1f d8 be 98 b6 f3 bd 56 71 2f 3f
       -6.884191e-06 -0.4221122 -0.11900061 0.6853231
000080 5a bc d6 be c3 64 32 3f 70 38 55 3e 72 ba b2 be
       -0.41940576 0.69685 0.2082231 -0.3490787
000090 ed 12 60 be d3 c0 fe be e6 3d c4 be d3 42 7f bd
       -0.2188222 -0.49756488 -0.38328475 -0.062319588
0000a0 27 f9 15 bf 90 51 3f bc 83 c7 2b 3f d8 cd 05 3e
       -0.585833 -0.011677161 0.67101306 0.13066804
0000b0 f5 dd e0 3e df 8a 5e 3d 19 8b 8f 3d 4f ab 28 bf
       0.4391934 0.054331657 0.07008953 -0.65886396
0000c0 66 4b 85 3e cb 7f 23 bf 79 e4 73 3e a0 c6 2a 3f
       0.26034087 -0.6386687 0.23817624 0.6670933
0000d0 c4 0b e3 be 73 fc 31 3f 56 cf 03 bf 50 e1 7f bd
       -0.44344914 0.6952583 -0.51488245 -0.062470734
0000e0 f9 90 f7 be aa 5d 6a bd 44 4b 04 bf e4 6f 1a 3f
       -0.48352793 -0.05721823 -0.51677346 0.6032698
0000f0 d9 b3 96 3d fb 65 ae be 2e 93 82 3b 78 e2 d9 3e
       0.07358522 -0.3406218 0.0039848303 0.42555594

gat_layers.0.att_src f4 [1, 4, 16]
000000 b2 8f 30 3e d9 16 00 3f de c3 98 3e 91 7b 0a bf
       0.17242315 0.5003486 0.29836935 -0.540948
000010 aa 8c ad 3e 6f b8 73 bd ee 0f de be aa b4 d8 be
       0.3389638 -0.05950206 -0.43371528 -0.42325336
000020 1f 1c 0e bd d8 ab a3 be 2c 25 2f 3e bb 25 34 3d
       -0.034694787 -0.31967044 0.17104024 0.043981295
000030 ff 5f a1 3c 47 c5 1f 3e 24 0a 84 3e 18 fb fe be
       0.019699095 0.15602599 0.25788987 -0.49800944
000040 28 12 7e 3e e0 41 f6 be 32 d4 0d 3e b7 42 f9 be
       0.24811614 -0.48097134 0.13850477 -0.48683712
000050 85 f9 b3 3e d9 a8 a2 3e 88 58 03 bf 7f 1a af be
       0.35151306 0.31769446 -0.5130696 -0.34199902
000060 44 27 c6 be 0a 61 f5 be fc ab a0 3d a4 86 45 bd
       -0.38701832 -0.47925597 0.078453034 -0.048224106
000070 0d 9b 92 3e f1 85 e9 3e aa 9f e1 be d9 ab 88 be
       0.2863392 0.45610002 -0.44067127 -0.2669361
000080 10 79 ca be 2b 8e 57 be 8a b4 b4 bc de 7f ac be
       -0.39545488 -0.21050327 -0.022058744 -0.33691305
000090 03 72 9a be 4e 86 03 be 86 f7 2d 3e 75 57 92 be
       -0.3016511 -0.12844202 0.16988954 -0.2858235
0000a0 a1 c6 b2 3e 2a 46 5a be 1b 8d c8 be d3 94 61 3e
       0.34917167 -0.21315828 -0.39170155 0.22029428
0000b0 18 eb be 3e 4d 67 48 3e 2a 56 1b 3d d6 5f 86 be
       0.37288737 0.19570656 0.03792397 -0.26244992
0000c0 a4 09 26 3e 0a 64 99 bc 5a 40 f9 3d fe 25 ad be
       0.16214615 -0.01872446 0.12170477 -0.33818048
0000d0 a8 aa 8d 3e 82 8d a0 3e ae ba 9f 3e 45 f6 ec 3e
       0.27669263 0.31357962 0.31197113 0.4628164
0000e0 1e 8d d2 3c b3 e9 ec bd a8 db 17 bd 6d cc a4 3e
       0.025702056 -0.11568012 -0.037074715 0.32187214
0000f0 9e 7f f6 be b8 0a 02 bf d2 05 1f 3e ea 86 05 bf
       -0.4814424 -0.50797606 0.15529564 -0.5215899

gat_layers.0.att_dst f4 [1, 4, 16]
000000 17 1a 5b be f7 d4 db 3c f8 55 de 3e 1b c5 4b 3e
       -0.21396671 0.026834948 0.43424964 0.19899409
000010 43 52 86 be 00 87 0b 3f d1 01 9f 3e 36 54 ad 3e
       -0.26234636 0.5450287 0.31056073 0.3385331
000020 a6 51 55 be 8f 7a 43 be dc 8f 45 3d cb 47 40 3d
       -0.20831928 -0.19089721 0.048232898 0.046943467
000030 8b 76 88 3e fa 52 1b be ef f8 49 3e d1 35 93 be
       0.2665294 -0.15168372 0.19723867 -0.28751996
000040 4d 2a ab 3d f2 6c c0 be 9b ec 01 bf c1 b7 0c 3e
       0.083576776 -0.3758312 -0.50751656 0.13741972
000050 cc 8c de 3e 57 18 f8 3e c3 e9 3b bd 5b a8 db be
       0.43466794 0.4845607 -0.04587723 -0.42901883
000060 98 5c 4f be 3a 9e f9 be 9f 04 c2 bd ad 70 89 be
       -0.20250165 -0.4875353 -0.09473538 -0.26843777
000070 d7 5d 30 3e c9 5c c0 ba 3b e8 cd 3e 9b 03 cd be
       0.17223297 -0.001467609 0.4021624 -0.40041813
000080 e2 fd c1 be 4b c9 c8 3e 82 1b e4 be 1b 88 f1 3e
       -0.3788901 0.39216074 -0.44552237 0.47174153
000090 70 31 5b 3e 0f b2 92 3e 8d 6e 07 bf 47 d3 5d 3e
       0.21405578 0.28651473 -0.5290306 0.21662627
0000a0 d8 80 b3 be df 33 9b bd 87 13 a8 3d 29 8c 8d 3d
       -0.35059237 -0.07578253 0.082068495 0.06911499
0000b0 dd 7c 52 3e 0e a5 a8 3e 54 94 09 bf 64 ac 00 bf
       0.20555444 0.32938427 -0.53741956 -0.5026305
0000c0 56 aa 96 bd be 1a f1 be 8e 72 96 be 68 cf bb be
       -0.07356708 -0.47090715 -0.29384273 -0.36681676
0000d0 87 04 3d 3e f1 33 54 3e 3b 8d 24 be 25 5f fe be
       0.18458758 0.20722939 -0.160695 -0.49681965
0000e0 66 93 0b 3f 0a dc a9 3d 8f 16 95 be 34 0c fa 3d
       0.5452179 0.08293922 -0.29118773 0.12209359
0000f0 df 30 ca bd 85 ba e4 be 4e d3 20 3e 21 98 dd 3e
       -0.09872603 -0.44673553 0.15705606 0.43280128

gat_layers.0.att_edge f4 [1, 4, 16]
000000 b8 a1 c0 be 95 a5 97 3e 7f 90 b7 be 50 6c c6 bd
       -0.37623382 0.29618517 -0.3585243 -0.09688628
000010 94 a5 c1 be 21 f7 6b be b9 4a 65 be fb 6f 4a 3e
       -0.3782164 -0.23043491 -0.22391786 0.1976928
000020 9f 30 cc be 42 15 41 bd 04 38 a5 bd aa f2 a6 be
       -0.39880845 -0.047139414 -0.08067325 -0.32607013
000030 0a 8c 52 3e bf 3d a7 be 44 fb bc 3e b8 53 2d be
       0.20561233 -0.32664296 0.3691045 -0.16926467
000040 40 18 07 3f 5f 67 e9 be 10 35 6f 3e 8a dd 9e be
       0.5277138 -0.45586678 0.23360085 -0.31028396
000050 ad d0 64 bd 19 c5 79 3e 42 6a 55 be b4 f9 bc be
       -0.05586307 0.24391593 -0.20841315 -0.36909258
000060 e6 00 96 3e 4e 90 cf be 3a b6 86 bc 06 bb 06 3e
       0.2929756 -0.40539783 -0.016444314 0.13157281
000070 25 06 2b be 70 07 ca be 29 fe 22 bd dc d5 88 3e
       -0.16701563 -0.394588 -0.039793167 0.26725662
000080 e7 d4 f4 bd 28 9b 70 3d 04 10 36 be 17 65 92 be
       -0.119546704 0.05874172 -0.17779547 -0.2859275
000090 99 d1 04 3f 9a 00 46 bd 6c 1d a6 be 4d 09 23 3e
       0.5188232 -0.048340417 -0.32444322 0.15921517
0000a0 ba 2b 47 3e b5 c0 00 bf 84 e1 0a bf 3e c5 54 3c
       0.19450274 -0.5029405 -0.5425036 0.012986479
0000b0 0a fc 6a 3d 64 b4 c7 3e 83 1e 01 3f 52 0c 90 bd
       0.05736927 0.39004815 0.5043718 -0.070336
0000c0 50 bb be 3e 28 51 17 be ef bd 44 be 65 49 43 3e
       0.37252283 -0.14777052 -0.19213079 0.19070967
0000d0 fc 13 98 bd 62 73 ea be cb 23 0e bf 48 26 b8 be
       -0.07425687 -0.45791155 -0.55523366 -0.35966706
0000e0 01 08 6d 3d 37 f2 76 3d 5b ec 3d bd 9f 3e b3 3e
       0.05786896 0.060289588 -0.046367984 0.35008714
0000f0 9d d5 5c bb 19 b7 00 3e 7f 00 ba 3e c9 7a 89 be
       -0.003369666 0.12569846 0.36328503 -0.2685149

gat_layers.0.bias f4 [64]
000000 82 56 1b 3b 7c 21 01 bc b5 86 fb ba 78 2a c4 3b
       0.0023702686 -0.007881518 -0.0019189926 0.005986508
000010 47 ae 4d 3c 5e 3d 00 bc 89 d4 ff bb 99 5e 03 bc
       0.012553758 -0.007827131 -0.0078073186 -0.008018159
000020 b3 52 00 bc d8 fb 5a 3c f4 99 e5 bb 48 5e 00 bc
       -0.007832217 0.013365708 -0.007006878 -0.007834978
000030 78 0f 03 bc 43 4a 00 bc 65 b2 df bb 08 1e ad 3b
       -0.0079992935 -0.007830205 -0.006826686 0.005283121
000040 6a 6f 01 bc ff 81 6e 3b 93 29 00 bc 4e c1 00 bc
       -0.007900098 0.0036393402 -0.007822412 -0.007858587
000050 92 e7 fe bb ae 71 71 bb 66 63 dc bb 2b e3 00 bc
       -0.00777907 -0.003684144 -0.0067257164 -0.007866661
000060 cf 88 ff bb d3 01 2f 3c eb 3a c6 bb 36 0e 1a 3c
       -0.0077982913 0.010681587 -0.006049504 0.009402802
000070 53 f1 01 bc f0 f2 ff bb 3f d9 25 3c 1b 6c fc bb
       -0.007931071 -0.007810943 0.010122596 -0.007703317
000080 6d 43 00 bc e6 12 00 bc ed 53 1b 3c d3 20 01 bc
       -0.007828576 -0.007817006 0.009480459 -0.007881361
000090 01 6f 18 3c 5f 11 ea bb 3a cc fd bb 21 91 ff bb
       0.009303809 -0.007143184 -0.007745293 -0.007799283
0000a0 48 5e 01 bc cd 99 ff bb 43 91 00 bc 9f 49 de 3b
       -0.007896014 -0.007800317 -0.007847133 0.0067836787
0000b0 e7 97 83 3b 5d f6 00 bc 91 fc 00 bc 4d b0 00 bc
       0.004015911 -0.007871238 -0.0078727165 -0.007854533
0000c0 3f c2 fe bb 19 27 00 bc ce f6 15 3c 2f 2f 5d 3c
       -0.007774621 -0.007821822 0.009153081 0.013500019
0000d0 ce 62 ff bb 1f ea fc bb ef d6 00 bc 50 0d ff bb
       -0.007793761 -0.007718339 -0.007863744 -0.0077835694
0000e0 79 05 ff bb 00 0a 01 bc 9a e9 ff bb b6 96 fb bb
       -0.007782635 -0.007875919 -0.00780983 -0.0076778783
0000f0 2f c6 ff bb 4f aa ff bb a1 c3 01 bc 63 6d ee 3b
       -0.0078056077 -0.007802285 -0.007920177 0.0072762235

gat_layers.0.lin.weight f4 [64, 64]
000000 0b 4d 17 3e 0c 75 f6 bd 6f 6d 00 be 1d 07 63 bd
       0.14775483 -0.12034044 -0.12541746 -0.055426706
000010 57 42 a7 3c ff 25 3f 3d e0 79 36 3e 7a 61 76 3d
       0.020417375 0.046667095 0.17819929 0.060151555
000020 dc 6b ca 3d ce 89 22 3d 35 e8 14 3e 77 be 51 be
       0.09883854 0.039682202 0.14541705 -0.20482813
000030 67 f1 1e 3d d0 15 18 be 06 29 1f 3e 63 cf 5a be
       0.038804438 -0.14852071 0.15542993 -0.21368174
000040 95 66 b9 bd 26 3c a1 bc 9f b7 21 3e 19 fa c7 bd
       -0.09052769 -0.019682001 0.15792702 -0.09764499
000050 ff 44 ce bc 3c d9 a9 bd 72 19 54 3e ab 73 24 bd
       -0.025179384 -0.08293387 0.20712832 -0.040149372
000060 c0 e2 9a 3c b3 9f e4 3d 18 11 17 be 52 0c 11 3e
       0.018906951 0.11163273 -0.14752614 0.14164856
000070 27 37 eb bc a9 6e 49 3e da 72 0e bd 5a 5f 6c bd
       -0.028712822 0.1967112 -0.0347775 -0.05770812
000080 f5 f3 3e 3c 1c 05 f0 bd 7f 41 7c bd 63 18 4d 3e
       0.011654844 -0.117197245 -0.0615859 0.20028834
000090 96 4c a9 bd 09 6a 9d bd a4 da dc 3d a5 6c 37 be
       -0.08266561 -0.0768624 0.1078389 -0.17912538
0000a0 85 40 cd bb db 6a 04 3e 34 58 3c be d4 c1 2e 3a
       -0.006263795 0.12931387 -0.18393022 0.0006666456
0000b0 71 84 56 bd 6c cf 4e be 77 91 94 bd fd 19 04 3e
       -0.0523724 -0.20196313 -0.07254308 0.12900539
0000c0 b9 98 38 3e 91 89 5a 3e c4 50 2d be 8b 46 9c 3d
       0.18027009 0.2134154 -0.16925341 0.076306425
0000d0 3d bc 43 bd a0 92 99 3d f9 5d 4c 3e 10 76 c1 3d
       -0.04778694 0.074986696 0.19957723 0.09446347
0000e0 51 43 52 bd 52 51 41 be 31 aa e8 bd 50 e3 fa 3a
       -0.05133373 -0.18878677 -0.113605864 0.0019141231
0000f0 26 db be bd a6 1f 2d 3e 8d cd 23 be 55 18 0d 3e
       -0.09319143 0.16906604 -0.1599638 0.13778813
000100 a7 71 0e be da 78 0f 3e 08 c1 c6 3d 8d dc cc bd
       -0.13910542 0.14010945 0.097047865 -0.10003004
000110 1c 1d c6 bd 7b 12 1d bd 2b 3a cb bd a3 03 59 bc
       -0.09673521 -0.038347702 -0.09923204 -0.013245496
000120 91 a1 ae 3d c0 31 5c 3c 8e 28 27 be 6c ef 03 3e
       0.0852691 0.013439596 -0.16324064 0.12884301
000130 1d 1a 12 be 3c 64 0f bd 34 04 fd bd 5f 27 35 3e
       -0.14267774 -0.0350077 -0.12354317 0.176908
000140 b1 e9 36 be 2f 36 27 3c c7 f7 c8 bd 26 b5 8b bd
       -0.17862584 0.0102057895 -0.09812885 -0.06821661
000150 a1 6b 49 be d5 3f 65 3e e8 f4 2f be 15 da 1c be
       -0.19669963 0.22387631 -0.17183268 -0.15317567
000160 e1 cf 30 3e d9 65 3a be c5 5f a4 3d c1 45 e9 bd
       0.172668 -0.18202914 0.08026079 -0.113902576
000170 1c 18 ba bd bc ed bc 3d 0a 01 d8 3d 96 43 4f 3b
       -0.0908663 0.09225032 0.10547073 0.0031625978
000180 bc 7d 17 3d 46 13 35 3e 5a 6d 44 3e d6 2e 92 3d
       0.036985144 0.17683133 0.1918234 0.071378395
000190 71 1c 48 3d 97 db ec 3d e0 17 d2 3d 3c 9b 31 3e
       0.04885525 0.11565321 0.1025846 0.17344373
0001a0 29 28 d2 3c 80 34 4b 3e 1b 1d 61 be 5d aa 84 3d
       0.025653915 0.19844246 -0.21983759 0.06477807
0001b0 98 af c7 bd 18 64 06 bd 55 42 28 3d c2 58 9a bd
       -0.09750289 -0.0328103 0.041078884 -0.075364605
0001c0 fc ea 6d 3d d7 ae 3e 3e c2 2c 0f 3d 32 38 bf 3d
       0.058085427 0.18621384 0.034954794 0.0933689
0001d0 dd fc cf 3d 0a 66 46 3e 99 41 a5 bc a9 e0 b9 bc
       0.10155652 0.19374862 -0.020172881 -0.022690134
0001e0 6a 6e 81 bd 27 04 97 bc 4d 7c af 3d e3 e9 8c 3d
       -0.06319888 -0.018434597 0.0856863 0.06880548
0001f0 77 8e 1a be 36 a4 09 bd 67 30 20 3e ee f4 8a bd
       -0.15093409 -0.03360387 0.15643464 -0.06784998
000200 8b 2d e0 bd 27 50 42 3d 4f 04 47 be 71 48 47 3e
       -0.10946187 0.04743972 -0.19435237 0.19461228
000210 cd 5f 52 be 28 de 2c be c4 06 99 3d 16 8d 25 bd
       -0.20544358 -0.16881621 0.074719936 -0.040417753
000220 16 e5 fb bd 95 4b 3b 3e 71 56 09 be b5 63 e1 3d
       -0.12299554 0.18290551 -0.13411881 0.11005346
000230 be 66 3d 3e e8 9a 27 be d5 28 e3 3d cf dc cb 3d
       0.18496224 -0.16367686 0.110917725 0.09954225
000240 e3 62 36 be e5 48 1e 3c 6b eb 2a 3e d1 d3 0c be
       -0.1781116 0.009660934 0.16691367 -0.13752677
000250 82 37 60 bd e9 2b 62 bd 2f 5e 51 bd 11 dc 32 3e
       -0.054740436 -0.055217657 -0.05111521 0.17466761
000260 bc 41 2e be f6 58 43 3e ab dd 09 be 91 22 db bd
       -0.17017263 0.19076905 -0.13463466 -0.106999524
000270 d5 ba 24 3e 55 88 81 bb cc 5c 0b bd a1 85 3b 3e
       0.16086896 -0.0039530196 -0.034024045 0.18312694
000280 14 65 b2 3d 8c ca d9 3d 4e f8 00 3e e9 5c fd bd
       0.08710685 0.10634336 0.1259472 -0.12371237
000290 e4 e5 28 3e e2 a4 50 3e 32 69 d2 3d 1d 8a 30 be
       0.16493946 0.20375398 0.10273971 -0.17240186
0002a0 ab 4a 27 be 19 7b be bd 5d cf 94 bd 88 d1 a1 3d
       -0.16337077 -0.09300823 -0.07266114 0.07901293
0002b0 d5 33 2b 3e 18 64 e9 bd bf 24 58 3e 74 0a 28 3e
       0.16718991 -0.113960445 0.21107768 0.16410238
0002c0 93 26 13 3e a5 e3 39 3e 37 3e 6a bd f0 a2 26 3e
       0.14370184 0.18153246 -0.05718824 0.16273093
0002d0 fa 48 97 3c 42 e1 49 3e 16 0c 26 bc 37 3b 66 3d
       0.018467415 0.19714835 -0.010134717 0.056208815
0002e0 69 d0 d2 bd 21 72 16 bc 9f 1a 10 be 40 33 7f 3c
       -0.10293657 -0.009182484 -0.14072655 0.015576184
0002f0 67 19 4e be 42 0c c1 bd 08 35 4a 3e 0f e6 50 3e
       -0.20126878 -0.09426166 0.19746792 0.2040026
000300 1a 06 51 3d c0 c9 ba bd 80 90 3c be ee c5 96 3d
       0.05103121 -0.09120512 -0.18414497 0.07361971
000310 31 f5 26 be 99 9f f1 bd 54 07 48 bd 50 b7 3d be
       -0.1630447 -0.11798019 -0.048835114 -0.1852696
000320 dc 5b d1 3d 77 61 39 3e 7c 6d 1a 3e 32 84 b2 3c
       0.10222599 0.18103586 0.15080827 0.021791551
000330 a8 13 30 3e e8 75 fb bd e9 15 80 3d 9a b4 55 be
       0.17194998 -0.12278348 0.06254179 -0.20869675
000340 e2 c4 09 3e 9d 29 e2 bd fb 44 09 3d 29 5c 91 bd
       0.13454011 -0.11043093 0.03351305 -0.07097656
000350 71 ff 2a 3e 08 09 43 be 91 04 a7 bd c8 74 4b bd
       0.16699006 -0.19046414 -0.08155168 -0.04967192
000360 46 04 23 3e 7a 13 a5 3d 28 0d bd 3c 23 c4 cd bd
       0.15919599 0.080603555 0.023077562 -0.10047176
000370 00 ca 39 3d e8 b8 82 3d b8 1d a1 3d d8 e7 47 3e
       0.045358658 0.06382924 0.078669965 0.19522035
000380 c4 7f 04 3e 82 77 1c bd 9b cb 2b 3d 1b 10 bf 3d
       0.12939364 -0.03819991 0.04194222 0.09329244
000390 21 da f6 3d 10 a4 0b 3e 01 bd 25 be 18 7c 32 be
       0.120533235 0.13636804 -0.1618538 -0.1743015
0003a0 06 a2 1c 3e f5 18 be 3d 0c b9 32 bc 8d 53 1e be
       0.15296182 0.09282104 -0.010908376 -0.1546156
0003b0 a3 2c d6 3d e6 4b 0d 3e 11 5e 9c bd 4d fc 17 be
       0.104577325 0.13798484 -0.07635129 -0.14842339
0003c0 03 64 96 3c 48 db 8a 3b b3 33 0e be dc 0f f1 bc
       0.018358236 0.004237566 -0.13886909 -0.029426508
0003d0 51 9b 36 3d 43 fc a8 bd 13 a4 58 3e 97 eb 51 be
       0.044581715 -0.0825124 0.2115634 -0.20500027
0003e0 a5 6f 5e 3e 17 e0 52 3e d4 08 a6 3d 71 c6 ee bc
       0.21722277 0.20593296 0.081071526 -0.029147359
0003f0 4e 82 6d bb dc a8 9a bd a2 9e 4c be 16 d6 c9 3d
       -0.0036240998 -0.075517386 -0.19982389 0.09855287

gat_layers.0.lin_edge.weight f4 [64, 64]
000000 54 44 30 3e c6 26 ec 3c 95 9c fd bd e8 89 8f bd
       0.17213565 0.028827082 -0.12383381 -0.070087254
000010 1c e1 06 3c 70 b8 0e be e1 ac 2d 3e 41 af 0f 3e
       0.008232381 -0.13937545 0.1696048 0.14031698
000020 d8 12 59 be e0 68 09 3e a3 eb 22 3e ea 94 57 3e
       -0.21198595 0.13418913 0.15910201 0.210529
000030 bd cb 4a be c5 da 03 be c7 9c 99 3d 6d 22 4b be
       -0.19804282 -0.12876423 0.07500606 -0.19837351
000040 0a 36 40 3d 33 9d 93 3c f1 44 54 be 1d 81 4d be
       0.046926536 0.018019294 -0.20729424 -0.20068784
000050 fe 23 b4 3d 06 5f be 3d f0 b3 7d bd ce cd 0b be
       0.087959275 0.09295468 -0.06193918 -0.13652727
000060 44 5d 58 be 71 e5 e4 3d c5 5c 3b 3e 3e 2e 51 3e
       -0.21129328 0.11176575 0.18297108 0.20427796
000070 04 79 b7 bd 50 39 1c bd 4b 37 0b bd c1 5c 50 be
       -0.08958629 -0.038140595 -0.03398828 -0.20347883
000080 ca 40 89 3c 7e a7 36 be 2d 50 5b bd 5f 72 2e 3e
       0.016754527 -0.1783733 -0.05354326 0.17035817
000090 8d ef 41 3e 06 35 08 be db 88 c1 bd e6 a1 b2 bd
       0.18939038 -0.13301477 -0.09449931 -0.08722286
0000a0 5d 17 52 3e 15 f8 0a 3e fa 85 01 3c 25 f0 f5 3d
       0.20516725 0.13571198 0.007905478 0.120086946
0000b0 eb c8 bf 3c 2e 84 32 be 2b 12 24 3d da 1f 0c 3e
       0.023411235 -0.17433235 0.04005639 0.13684025
0000c0 15 0d 32 bd 75 52 1d bd 5e ab 33 3e b0 91 2e be
       -0.043469507 -0.038408715 0.1754584 -0.17047763
0000d0 95 6a 0b 3e dc 8f dd ba 3e 39 fb bd 6f 26 1f be
       0.13614877 -0.0016903835 -0.122667775 -0.15542005
0000e0 9a 84 8e bd 81 6a 92 3d 43 92 fe 3d cc 02 2f be
       -0.069588855 0.0714922 0.12430241 -0.1709091
0000f0 df 37 99 bd 35 95 4d 3d 41 4d 99 bc 7a f1 f7 bd
       -0.0748136 0.050191123 -0.018713595 -0.12106605
000100 8b 2b 34 3e 36 3f 39 3e 42 0d 23 be 12 27 83 bc
       0.17594735 0.1809052 -0.15923026 -0.016009841
000110 de b9 32 3e c1 2e ea 3d 12 f3 29 be 3a 99 ca 3d
       0.17453715 0.11434699 -0.1659663 0.09892507
000120 c2 c4 52 bd 4c 78 be bb 86 43 3a 3d 6d 5a d5 3d
       -0.051457174 -0.0058126803 0.04547455 0.10417638
000130 0a 3f 80 bd 2f 48 24 3e 09 67 56 3e 7e 53 e7 bd
       -0.06262024 0.16043161 0.20937742 -0.11295222
000140 28 87 1e 3e 0d c0 fe bd 9d 69 4f 3e ee 80 31 be
       0.15481246 -0.124389745 0.20255132 -0.17334339
000150 88 c4 31 be e4 f3 a1 3d 7b ce df bc a8 b4 12 3e
       -0.17360127 0.079078466 -0.027320137 0.14326727
000160 20 36 48 3e ac 74 a7 3d 5a c5 19 be 73 37 03 3e
       0.19551897 0.0817655 -0.1501669 0.12814121
000170 c4 8c 69 3d 98 95 ea 3d b6 07 b9 bd 60 f2 56 3e
       0.05701901 0.11454314 -0.09034674 0.20990896
000180 29 15 c3 bd b7 3a 18 3d e0 73 c0 bd c6 2e 91 bd
       -0.0952552 0.03716537 -0.093971014 -0.070889995
000190 eb 65 a1 3c 3c 1b 4e be c0 02 4f 3e bd b2 13 be
       0.019701919 -0.20127577 0.20215893 -0.14423652
0001a0 b3 f4 d2 bd f6 84 8c 3c 9a 11 98 bd b0 ee 47 be
       -0.10300579 0.017153244 -0.07425232 -0.19524646
0001b0 05 19 31 be c7 3a a0 3d e0 97 8a 3d 36 07 89 3d
       -0.172947 0.07823711 0.06767249 0.066908285
0001c0 c1 eb ef bd 8b 00 4f bd 53 45 ca bd e9 9c 41 3e
       -0.11714888 -0.050537627 -0.09876504 0.18907513
0001d0 52 54 2d bd c1 bc c8 3d 44 74 f3 3d 74 4c 5d 3b
       -0.042316742 0.09801627 0.1188741 0.0033767493
0001e0 a9 93 f1 bd 31 f6 59 3e 33 da 19 3e 8e 0a 07 be
       -0.11795742 0.21285321 0.15024643 -0.1318762
0001f0 f6 e1 0a 3e 11 98 5b be 7b 64 3b be bb d4 5a be
       0.1356276 -0.21444727 -0.18300049 -0.21370213
000200 f1 31 bb 3d 1c 2b 77 3d 52 86 98 bd 6d b3 49 3d
       0.09140385 0.060343847 -0.074474946 0.04924338
000210 1d 7c 3d 3d c3 e0 96 bd 2a 4c 79 bd f4 f6 27 be
       0.04626094 -0.07367089 -0.06086365 -0.16402799
000220 06 72 ed bd 3c ee ac 3d 05 da f9 bd de 5b a8 3d
       -0.11594014 0.08443877 -0.12199787 0.08220647
000230 d7 fc 6c bd 14 e1 30 be c9 d4 2f 3e e4 9f ab bc
       -0.057858314 -0.1727336 0.17171015 -0.020950265
000240 1b 29 0d bd 31 85 4d 3e d8 d1 5b bc 59 77 92 3d
       -0.03446303 0.2007034 -0.01341673 0.0715167
000250 e0 87 9b 3d 28 e5 37 be 8e a9 e4 3d 29 ab 1b 3e
       0.075942755 -0.1795851 0.111651525 0.15202011
000260 8d 4a 44 be 35 0f 57 bd 5d e2 ba 3d 81 c4 19 3e
       -0.19169064 -0.052504737 0.091252066 0.15016367
000270 a0 35 30 be ba 0f 33 3e ad 1e e6 3d 5b b3 47 3e
       -0.17207956 0.17486468 0.1123632 0.19502012
000280 aa 4f 40 3e ee 9f a3 bb 56 da 2e be 8a 41 fe 3d
       0.1878039 -0.0049934303 -0.17075476 0.12414844
000290 45 6b bf bd e5 a3 55 3e 33 f8 a5 3c 4f 50 46 be
       -0.09346632 0.20863302 0.020259952 -0.19366573
0002a0 cb d1 c7 3d e8 d7 31 3e 0b 36 a9 3d 99 41 49 bb
       0.09756812 0.17367518 0.08262261 -0.0030709265
0002b0 34 b7 20 3e 17 5d fd bd 26 d7 f3 3b 83 14 c8 3c
       0.15694886 -0.12371271 0.007441419 0.024423843
0002c0 67 fd ad bd 26 7b 18 be 48 29 8a 3c c5 0a 6c 3d
       -0.08495598 -0.14890727 0.016865388 0.057627458
0002d0 59 6b e7 3d 1b 05 0e be 93 3f 27 3e ac 4f 3a bb
       0.11299772 -0.13869135 0.16332845 -0.0028428836
0002e0 c8 4b 16 3e ca c0 d1 3d f1 b4 0c be 28 57 41 bd
       0.14677346 0.1024185 -0.13740899 -0.04720226
0002f0 4f e9 3e 3d bf 4a a9 bd de 63 13 3e 24 4f e8 3c
       0.04660922 -0.0826621 0.14393565 0.02835805
000300 30 0e aa bc 25 a1 e4 bc 72 65 54 3e 71 0d 03 3e
       -0.020758718 -0.027908871 0.20741823 0.12798096
000310 ef 92 b7 bd ba 97 c6 bd 04 87 36 3e 5a 2d c9 3d
       -0.08963572 -0.09696908 0.17824942 0.09823103
000320 b4 15 36 be 92 19 50 be db 79 0e 3e b6 bd 1a be
       -0.17781717 -0.20322254 0.13913672 -0.15111431
000330 f4 54 93 3d d0 67 e9 bd 49 5c 50 bd e3 59 ee bd
       0.07193938 -0.11396754 -0.05086926 -0.11638238
000340 36 48 84 bd e9 77 57 3e a1 61 26 3e db 8d 4e be
       -0.06459086 0.21041836 0.1624818 -0.20171301
000350 4f a4 ea 3d 51 08 c6 bd 32 2e d6 3d 3b e4 57 be
       0.114571206 -0.09669555 0.1045803 -0.21083157
000360 b6 a4 35 be 3e e3 c1 bd 75 5a df bd a0 2f b8 3d
       -0.17738613 -0.09467171 -0.10905925 0.08993459
000370 76 49 0c be 3b ef b3 3d 1d a3 33 bc 95 a5 5c 3e
       -0.13699898 0.08785864 -0.010964182 0.2154754
000380 4e 77 3e be ba 09 16 3e a2 9e 2f be 65 84 20 be
       -0.18600199 0.14652148 -0.17150357 -0.15675505
000390 d2 54 9a 3d c9 aa 4e be a2 05 18 be ba 54 03 be
       0.075357094 -0.20182337 -0.14845899 -0.1282529
0003a0 5f d6 d4 bd 20 19 0b 3e 66 b7 40 be 78 a4 6f 3d
       -0.103924505 0.13583803 -0.18819961 0.05850646
0003b0 ac 29 01 3e 6b 9f 72 3c eb 76 85 bd 65 0a f2 bc
       0.12613553 0.014808516 -0.065168224 -0.029545972
0003c0 b1 c1 85 3c 5d 9c 99 bc bb 7f f5 bb 94 25 a0 3c
       0.01632771 -0.018751318 -0.0074920333 0.019549169
0003d0 8b 8f 51 3e c5 c8 13 3e 25 16 6a 3d 36 83 b3 3c
       0.20464914 0.14432056 0.057150025 0.021913152
0003e0 14 44 de bd da 74 f3 bd 82 37 30 3d 73 f8 20 bb
       -0.108528286 -0.11887522 0.043021686 -0.002456215
0003f0 fb 50 e4 3d c7 62 45 bc bb de 53 3e b2 3c 27 3e
       0.11148258 -0.012047476 0.20690434 0.16331747

gat_layers.1.att_src f4 [1, 4, 16]
000000 80 0f c1 3e 6c ee c8 be a8 ea ce bd 0e 29 71 be
       0.37707138 -0.392444 -0.10103351 -0.23550817
000010 9c 93 95 be a8 22 89 be b1 0c 29 3e 88 30 93 3e
       -0.2921418 -0.26784253 0.16508748 0.28747964
000020 fc dd d2 3d 1e a4 83 bd 62 9d 85 be 11 8c 18 be
       0.102962464 -0.06427787 -0.26096636 -0.14897181
000030 1f 36 fa 3d d9 a6 04 bf a2 ac f1 be cf fc 1f be
       0.12217354 -0.5181709 -0.4720202 -0.15623783
000040 66 67 9b 3e 8a 0c 5f 3e 0b e7 e1 be 2c 6a fa be
       0.30352324 0.21782127 -0.44121584 -0.48909128
000050 74 c3 c2 be e7 c3 6d be 50 67 9c 3d 4a 68 05 be
       -0.38039744 -0.23219262 0.07636893 -0.13028064
000060 3c 48 a7 be ac 4c 8f 3e 8a 43 12 be 67 df 07 bf
       -0.32672298 0.27988183 -0.14283577 -0.5307526
000070 b0 6f d8 be 5b e4 df be f7 5a d0 3e 4c b0 e9 be
       -0.4227271 -0.4372891 0.406944 -0.45642316
000080 28 c8 b1 3d 58 e2 c6 3e ed 5f c4 3e 9b ff 96 3e
       0.08680755 0.38844562 0.38354436 0.29491886
000090 91 c8 24 3e f5 d4 b9 bd 8d 73 a7 3d 2b 69 9d 3e
       0.16092135 -0.090738215 0.081763364 0.307443
0000a0 f0 f3 8b 3e 5e d2 91 3e 6e 61 85 3e 3e 2c 6e be
       0.27334547 0.2848081 0.26050895 -0.23259065
0000b0 f2 4b 0a be a0 a1 9a bd b7 be af be e2 93 49 3d
       -0.13505533 -0.07550359 -0.3432519 0.049213298
0000c0 f7 95 e5 3e a7 44 91 3e f9 0c 76 3e 52 91 3e 3e
       0.44840977 0.2837269 0.24028386 0.18610123
0000d0 dc 2d 0a 3f 52 8c 93 3c 15 47 2f 3e f2 ed d2 3d
       0.53976226 0.018011246 0.1711696 0.10299291
0000e0 07 e5 41 3d 1c 94 4a 3e 46 a4 8e 3e 39 64 db 3e
       0.047337558 0.19783062 0.27859706 0.428499
0000f0 2d 17 55 3e ee e7 e9 3e 00 b2 65 3e 8d bd 87 3e
       0.20809622 0.4568476 0.22431183 0.26511803

gat_layers.1.att_dst f4 [1, 4, 16]
000000 11 f6 05 3f 7a 82 d8 3e 75 95 04 3f d4 a1 38 3d
       0.5232859 0.42287046 0.51790553 0.045076206
000010 1f 8e e8 3e 1d 46 a1 3e 18 83 e4 bc 4d 91 f9 3e
       0.4542093 0.31498805 -0.027894542 0.48743668
000020 ac 2a 65 3e d9 2e c0 be 99 ae a9 be f6 e6 ff 3e
       0.2237956 -0.37535742 -0.3314102 0.49980897
000030 be 56 d1 3e 29 93 f6 be 93 54 f5 bd 3b 21 de bc
       0.40886492 -0.4815915 -0.11979022 -0.027115455
000040 6e 4b 9f be 18 81 8e be 08 56 64 bb db 25 c4 3e
       -0.31112236 -0.27832866 -0.0034841318 0.3831013
000050 98 04 9f be 62 a1 8b bd 1d d7 d9 3e 79 1c 2f 3e
       -0.31058192 -0.06817891 0.4254693 0.17100705
000060 af 6f 8e 3e 7a 65 b4 be 77 ea 27 be 33 57 9d 3e
       0.27819583 -0.3523367 -0.16398035 0.3073059
000070 d9 21 05 3f 85 7e e2 be ee 9a e5 bd 78 ae 0b 3f
       0.5200477 -0.44237152 -0.11211191 0.54563093
000080 3f e1 3d be 0f 7b 9a be d8 b7 bd 3e 75 4f 12 be
       -0.18542956 -0.3017201 0.37054324 -0.14288123
000090 61 34 45 be c0 63 80 3d e8 35 c3 3e 91 06 c8 bd
       -0.19258262 0.06269026 0.38127065 -0.097668774
0000a0 06 42 c5 bd 33 a7 f5 be c0 23 f4 be 23 eb 95 3e
       -0.096317336 -0.47979125 -0.47683525 0.29280958
0000b0 b5 4d 7a 3e c0 f2 89 be 3d c6 00 bf 5b f0 b2 be
       0.24443705 -0.26943016 -0.5030249 -0.34949002
0000c0 ce ff 97 bd 5c 57 3a 3e ab 04 be 3e 91 84 ba be
       -0.07421838 0.18197387 0.37112936 -0.36429265
0000d0 6f 83 68 bd 31 9a 21 be a8 0e b8 bd 30 a8 0b 3f
       -0.05676597 -0.15781476 -0.089871705 0.5455351
0000e0 6c 1e dd 3b e2 09 1b 3e 53 45 be 3e c1 73 f6 be
       0.0067480113 0.15140489 0.37162265 -0.48135188
0000f0 e0 5a 8a be 3d 3d 9b be 4d a1 27 bd ab e9 01 3e
       -0.27022457 -0.3032016 -0.040925313 0.12686794

gat_layers.1.att_edge f4 [1, 4, 16]
000000 95 55 5e 3e 9a d8 86 bd f9 1f e3 be 27 d3 24 3d
       0.21712334 -0.06584282 -0.4436033 0.040240433
000010 cf 3c fe 3e 0d 06 81 be 80 e5 88 3d 27 82 d2 be
       0.49655768 -0.2519993 0.06684399 -0.41114923
000020 4a 96 fe bd 70 c3 9b bd a7 df dd 3e 25 1d d3 be
       -0.12431009 -0.07605636 0.43334696 -0.41233173
000030 db 7f d9 be f9 96 d8 3e 73 5d 5a 3e b6 27 26 be
       -0.42480358 0.42302683 0.2132471 -0.16226086
000040 e0 df 87 3d 3f 18 f7 3d b1 8d 06 3f d3 9b 8c be
       0.06634498 0.120651715 0.52559954 -0.27462634
000050 8a 8a a1 be 1d f3 cd 3e 38 49 13 3e eb 97 45 be
       -0.3155101 0.40224543 0.143834 -0.19296233
000060 26 e4 76 be c8 31 ba bd 5b c5 98 3e 35 b7 3e 3d
       -0.24110469 -0.09091526 0.2983807 0.04656144
000070 ac 3d 91 3e 41 af 1f be 85 77 47 3e 3d 48 fa 3e
       0.28367364 -0.15594198 0.19479187 0.48883238
000080 12 ab 03 bf 0a a6 03 bf 61 7d e6 3d e2 ce da be
       -0.5143291 -0.5142523 0.11254383 -0.42735964
000090 49 64 53 be de df b8 3c 11 c5 b2 3e 36 1c c5 be
       -0.20643725 0.022567686 0.34915975 -0.38498086
0000a0 33 e7 4c 3e 39 0f 07 3f f9 30 59 3c 9e 50 d4 be
       0.2001007 0.527576 0.013256305 -0.41467756
0000b0 2e cc 68 be e5 8e 9b 3e 94 06 e5 be 32 44 fd be
       -0.22734138 0.30382457 -0.4473158 -0.4946609
0000c0 e4 50 cf 3e f0 1e f5 bd 84 47 8b 3e ec d6 86 3e
       0.40491402 -0.119687915 0.27203 0.26335847
0000d0 e8 10 8e 3e 32 3d 80 bc fb f3 d2 bd 5a a7 04 3f
       0.27747273 -0.01565418 -0.10300442 0.5181786
0000e0 b3 d4 a6 be 0c dd ad 3e 7f 91 0e be ce 20 f5 3c
       -0.32584152 0.33957708 -0.1392269 0.029922869
0000f0 23 78 c0 3d 4e d5 93 3e 2d 17 ea be f8 00 6f 3d
       0.09397914 0.28873676 -0.45720807 0.058350533

gat_layers.1.bias f4 [64]
000000 19 85 8d 3b 2f eb 03 bc 7d 55 02 bc ab 82 cb 3b
       0.004318845 -0.008051678 -0.007954952 0.006210645
000010 0f 98 4c 3c 70 97 03 bc 41 6d 02 bc cf e0 02 bc
       0.0124874255 -0.008031711 -0.0079606185 -0.007988169
000020 a9 08 03 bc 82 d8 59 3c 06 93 02 bc c3 da 03 bc
       -0.00799767 0.013296248 -0.007969623 -0.008047762
000030 8a 07 04 bc 14 31 02 bc 9c 50 02 bc 69 0d cd 3b
       -0.008058438 -0.007946271 -0.007953789 0.006257702
000040 b0 7b 04 bc f9 63 bd 3b a2 51 03 bc f8 d1 02 bc
       -0.00808613 0.00577974 -0.008015068 -0.007984631
000050 ce dc 26 3a d7 f7 83 bb 76 db 02 bc ce 23 03 bc
       0.00063653 -0.0040273475 -0.007986894 -0.008004142
000060 cc 83 03 bc f6 c7 46 3c 5b 6d 01 bc dc 35 21 3c
       -0.008027028 0.012132635 -0.0078996075 0.009839501
000070 29 4e 02 bc 80 11 02 bc b9 72 2a 3c 6c d1 7b bb
       -0.007953205 -0.007938743 0.010403329 -0.0038424386
000080 ad fd fb 39 05 24 eb bb 25 50 18 3c 29 0a 03 bc
       0.00048063454 -0.0071759247 0.009296452 -0.007998028
000090 70 47 02 bc f3 04 ca bb 44 f0 01 bc 53 41 04 bc
       -0.007951602 -0.006165141 -0.007930819 -0.008072215
0000a0 19 82 03 bc be 53 04 bc 17 d0 04 bc e8 99 02 bc
       -0.008026623 -0.008076606 -0.008106253 -0.007971264
0000b0 22 97 7e 3b 0a b7 02 bc 2c 7f 02 bc 81 31 04 bc
       0.0038847406 -0.00797821 -0.00796489 -0.008068443
0000c0 8e 26 c1 3b 08 7c fc bb 47 f8 f5 3b 88 08 5e 3c
       0.0058944887 -0.0077052154 0.0075064036 0.013551839
0000d0 6f 77 03 bc bd 1c 03 bc 7e 85 02 bc f9 2f 03 bc
       -0.008024081 -0.008002457 -0.007966397 -0.008007043
0000e0 62 c0 e0 bb ab eb 03 bc 8f 44 03 bc c4 23 03 bc
       -0.0068588713 -0.008051793 -0.008011951 -0.008004133
0000f0 8a f7 02 bc e0 0d 03 bc aa 7f 03 bc d8 34 d3 3b
       -0.007993588 -0.0079989135 -0.008026043 0.0064455085

gat_layers.1.lin.weight f4 [64, 64]
000000 16 09 fa 3d ed c6 29 bd 23 c4 9f 3d 62 4e 0a 3e
       0.12208764 -0.041449476 0.07801082 0.13506463
000010 ac 1f 3f be 85 b9 0a 3e ce 77 5c bc ae dd 59 bd
       -0.18664426 0.13547333 -0.013456298 -0.053189926
000020 cf f3 fa bd 84 72 24 3e 9a 3d 5b be 33 89 4e 3e
       -0.12253534 0.16059309 -0.21410218 0.20169525
000030 46 a7 21 be a5 d2 59 be fa e3 e1 3d 6b 40 11 3e
       -0.15786466 -0.21271761 0.11029811 0.1418473
000040 d3 7d 3c be 0c 75 3a bc be 22 a8 3d 05 07 05 3e
       -0.18407373 -0.011380445 0.082097515 0.12990959
000050 92 d3 33 3e de ea 09 bc c1 8d 39 be 6b b7 e7 3c
       0.17561176 -0.008417813 -0.18120481 0.028285703
000060 83 24 2f 3d 0b c3 3c 3d b8 bb c4 3d 6d 08 4a 3e
       0.04275943 0.046084445 0.09606117 0.19729777
000070 f9 66 af bc a3 6e e8 3d d9 05 58 3c da 9c b8 3d
       -0.021411406 0.11349227 0.013184988 0.09014292
000080 66 62 b4 bd ff ad b1 bd 2b 26 05 bd 4b b0 d4 bd
       -0.088078305 -0.08675765 -0.032507103 -0.10385188
000090 c1 47 58 3e 48 81 ad 3d c1 2c 10 3c 8b f7 38 3e
       0.21121122 0.08471924 0.008799733 0.1806318
0000a0 59 a2 00 bd 61 82 0e 3d dc a6 5c 3e aa 45 5c 3d
       -0.031404827 0.034792308 0.21548027 0.053777374
0000b0 df 8e 5b 3e ab 91 0a 3e 8b 15 cf bd 92 83 80 3c
       0.2144122 0.1353213 -0.10111531 0.015687738
0000c0 ca 80 01 3c 3f 8b da bd 60 08 b0 bd 47 ea 3a 3d
       0.007904241 -0.1067109 -0.085953474 0.04563358
0000d0 96 82 35 bc a3 40 d6 bd 5e 73 96 bb bb 0c 1d be
       -0.011078497 -0.10461547 -0.0045913896 -0.15336888
0000e0 d8 93 5d 3d 16 cd a6 3d 76 96 26 3d f8 92 d7 3c
       0.054096073 0.08144586 0.040670834 0.026315197
0000f0 60 f7 9b bd 13 b2 54 bd e9 15 e6 3d 55 8f 43 3d
       -0.076155424 -0.051927637 0.11234648 0.047744114
000100 42 c7 a4 3c 39 f8 91 3d 38 f6 0d bc ac 81 1b 3e
       0.020114545 0.07127423 -0.00866466 0.15186185
000110 f9 0a a8 bd ac 7b 17 3e 2f 3d 56 be 1e 3a ee bd
       -0.08205218 0.14793271 -0.20921777 -0.11632179
000120 15 2e 85 3d 90 fd 39 be ee 43 4c bd 41 86 bd bd
       0.0650293 -0.18163133 -0.04986947 -0.092541225
000130 75 4f 6d 3d c8 6d cb bd de f1 f9 3d b9 69 2a be
       0.057937104 -0.099330485 0.12204336 -0.16641892
000140 a3 d6 34 3e 7c f1 5b 3e 63 98 82 3b 21 bc 48 3d
       0.17660002 0.21478838 0.003985451 0.04900754
000150 36 4b 0b 3b 14 f3 ae 3d ea 23 94 bd 75 fe 0f be
       0.0021254546 0.08542457 -0.072334126 -0.14061911
000160 c8 ae 4b 3e 00 d7 c6 3c 86 25 30 3d cd 57 4d 3e
       0.19890893 0.024272442 0.043004535 0.20053025
000170 02 35 ba 3a c9 d6 63 3c 13 e9 2b be 3a 37 46 be
       0.0014206471 0.013906189 -0.1678813 -0.19357005
000180 01 32 21 3e ca 94 28 be 6a 48 56 3e a6 f9 93 bd
       0.15741731 -0.16463009 0.20926061 -0.07225351
000190 de 01 48 3e 81 59 11 be cc 4a 50 be da 51 1d 3e
       0.19531962 -0.141943 -0.20341033 0.15363255
0001a0 c6 da 1c be 90 b1 a9 bc 3e 60 5b 3e 02 91 11 be
       -0.1531783 -0.020714551 0.21423432 -0.14215472
0001b0 d3 3b fd bd d8 7a 55 3e 2e 53 02 3e 62 d0 ce bb
       -0.12364926 0.20847642 0.12727043 -0.0063114623
0001c0 89 8b 4d be 8e ae 2f be 8a f6 78 bc a9 43 8f bb
       -0.2007276 -0.17156431 -0.015195498 -0.0043720794
0001d0 28 83 05 be 71 e2 0c 3c 3c de 34 be ed 0e fe bc
       -0.13038313 0.00859891 -0.176629 -0.031012977
0001e0 be f2 13 bd e5 fb 4d 3e c3 d6 97 3c 51 02 42 be
       -0.03612017 0.20115621 0.018535024 -0.18946196
0001f0 2a 6f c0 3c 3d 6d de bc 61 76 e7 3b 38 29 48 bd
       0.023490507 -0.027151698 0.0070636724 -0.048867434
000200 46 0d ed bc f4 3d 12 3d f5 b6 27 3e 15 02 18 be
       -0.028936993 0.035703614 0.16378386 -0.14844544
000210 ff dc 67 bd 94 d2 42 3e df 9f a3 bd 5e 8a 0d be
       -0.056607243 0.19025642 -0.07989477 -0.13822314
000220 04 ec 03 3e 91 36 35 3e 2e b5 85 3d 44 00 07 3c
       0.12883002 0.17696597 0.06528698 0.008239809
000230 4f f7 ca 3d 90 89 08 be 97 db bc 3c bd 7a 87 bd
       0.099104516 -0.13333726 0.023053927 -0.06615207
000240 81 6b f2 bd 16 b3 50 3e fe 66 fa bc a6 50 c7 3d
       -0.11836911 0.20380816 -0.030566689 0.09732179
000250 11 b2 03 be 1d 0f c6 3d c7 4f 4c be e5 ce ed 3d
       -0.12860896 0.096708514 -0.19952308 0.116117276
000260 8a b1 ac 3c bb de 9c bd 1a d8 da bc 95 41 27 3e
       0.021080751 -0.0765967 -0.026714373 0.16333611
000270 35 3d e0 3c ab fc db 3d cb 35 41 3e 9f db 47 3e
       0.027372936 0.10741552 0.18868177 0.19517373
000280 af a4 f2 3d 9d b8 f7 bd 3c 8b 03 bd 5b 6a 0b 3e
       0.11847817 -0.12095759 -0.032115206 0.1361479
000290 c2 20 fd 3d 6c d2 30 3e 71 26 cf bd c9 d8 3c be
       0.12359764 0.1726777 -0.10114754 -0.18442072
0002a0 59 6a bb 3d 8d 89 37 3e c7 60 80 3c 84 63 54 3c
       0.091511436 0.17923565 0.015671147 0.0129631795
0002b0 a5 c2 13 be bc ff 0c 3e ce 46 46 3e 73 25 fb 3b
       -0.1442972 0.1376943 0.19362947 0.0076643764
0002c0 41 b9 01 be 65 04 34 3e 08 70 58 be a2 b9 30 be
       -0.12668325 0.17579801 -0.21136487 -0.17258313
0002d0 7b 98 ad bc 65 ac 30 3e cb 07 a6 bc 48 e8 69 3d
       -0.021190872 0.17253263 -0.020267388 0.057106286
0002e0 a0 b2 20 be 10 e9 27 3d da 2a df 3b 54 a0 39 3d
       -0.1569314 0.04099375 0.006810528 0.045318916
0002f0 f8 6e 42 3e c6 82 1b 3e 0c 03 68 bd a1 a6 02 be
       0.18987644 0.15186605 -0.05664353 -0.12758876
000300 9c ab 23 be d9 88 dc bc 5b ee 5a 3e 9a 49 06 3d
       -0.15983433 -0.026920723 0.21379988 0.032785036
000310 20 56 56 3e cf c5 b6 3b ae 67 21 be cd 46 02 be
       0.20931292 0.00557778 -0.15762207 -0.12722321
000320 c1 2c a6 bd 46 91 c7 3c 51 73 bc bd e5 e8 22 bd
       -0.08114005 0.024361264 -0.09201682 -0.039772887
000330 cc 72 4c be d3 bd 1c 3e c5 1b 1d 3d ef 85 6d bd
       -0.19965667 0.15306787 0.03835656 -0.057989057
000340 d4 4b f8 bd f3 ed 60 3d a2 b3 28 3e 0e 7b b1 3c
       -0.12123838 0.054914426 0.16474774 0.021665122
000350 04 a2 79 bd 86 82 b4 bc e3 11 15 be cc b1 8f bc
       -0.060945526 -0.022034895 -0.14557604 -0.017540835
000360 a4 d6 f3 bc 4c e7 42 be 8f e4 4b 3c ba bb 24 be
       -0.029765435 -0.19033545 0.012444629 -0.16087237
000370 64 d8 c7 bc 33 c5 07 3d ab ff b7 3d f1 db 9c bd
       -0.024395175 0.03314705 0.08984312 -0.07659138
000380 eb 3f 1d 3e b8 80 09 be 99 c1 29 3e ce 00 b6 3c
       0.15356414 -0.13428009 0.16577758 0.02221718
000390 92 60 af 3c 36 9b 4e 3c 20 53 2c 3e 85 3d c0 3d
       0.021408353 0.012610247 0.16828585 0.09386734
0003a0 1e d2 65 bd 2a 96 da 3d aa 21 0d 3e 52 b0 81 bd
       -0.056108586 0.10673173 0.13782373 -0.063324586
0003b0 36 12 86 bc 9f 9c 57 be 16 1c 25 3e d7 dc 58 bd
       -0.016366106 -0.2105584 0.16123995 -0.052944984
0003c0 36 71 45 3d ca 96 81 bd a1 3f 2f be 8c 0d 7e bc
       0.04820367 -0.06327589 -0.17114116 -0.0155061595
0003d0 fd 6b 3d 3e e7 c2 09 3e e3 35 21 be ee 39 36 3e
       0.18498226 0.13453256 -0.15743212 0.17795536
0003e0 6b 4f 8a bc 1e 56 ee 3d 38 e2 45 3e 35 d8 8a bd
       -0.016883573 0.11637519 0.19324577 -0.067795195
0003f0 21 c5 fa bc 5a 2f 35 3e 7a 25 b7 bd 05 a6 4e 3e
       -0.030611577 0.17693844 -0.08942695 0.20180519
