models/best_fraud_model_seed_1111.pth (torch, 378242 bytes, 45 tensors)

node_emb.weight f4 [64, 8]
0	0xbc5d0280	-0.013489366
1	0x3e48a834	0.19595414
2	0x3d25b002	0.040451057
3	0x3e71d753	0.23617296
4	0xbea03849	-0.31292942
5	0x3e96cb86	0.2945215
6	0xbe4e28a2	-0.20132688
7	0x3d9120ee	0.07086359
8	0x3e3b64af	0.18300126
9	0xbe53a2e9	-0.20667614
10	0xbd1e0b50	-0.038585007
11	0xbd7a2e92	-0.06107957
12	0xbe3f1d4b	-0.18663518
13	0xbe0a2dfe	-0.13494107
14	0xbde0f650	-0.109844804
15	0xbe04ab14	-0.12955886
16	0x3dfec73b	0.12440344
17	0xbe8be7f0	-0.27325392
18	0x3e39d647	0.18148147
19	0xbe8f6f31	-0.2801452
20	0x3e57e5ed	0.21083803
21	0xbe95f07f	-0.29285046
22	0x3e304501	0.17213823
23	0xbe85927d	-0.26088324
24	0xbe2e3d3e	-0.1701555
25	0xbe83716d	-0.25672475
26	0x3e3f181a	0.18661538
27	0xbcd151b1	-0.025551649
28	0xbea46dc5	-0.32114998
29	0x3c9cc636	0.019137483
30	0x3e7cfdb4	0.24706155
31	0x3cea2e4e	0.028586533
32	0x3e9c6a15	0.30549684
33	0x3d3848fc	0.04499148
34	0x3e83982c	0.25702035
35	0xbce5c9f9	-0.02805041
36	0xbcc24dd0	-0.023718745
37	0xbdc6fc72	-0.09716119
38	0xbe7ff65a	-0.2499632
39	0xbe4752cc	-0.19465178
40	0xbeb60f33	-0.3555847
41	0x3e267299	0.16254653
42	0x3e08c457	0.13356148
43	0xbeb76183	-0.35816583
44	0xbe17f173	-0.148382
45	0xbc5bffa6	-0.013427651
46	0xbdf15794	-0.11784282
47	0x3d8ad45f	0.06778788
48	0xbe398bcf	-0.18119739
49	0xbe30116d	-0.17194147
50	0xbd4128aa	-0.04715792
51	0x3e83e00c	0.25756872
52	0x3da508c1	0.0805831
53	0x3e216979	0.15762891
54	0xbd9f8634	-0.07789269
55	0x3c8c95b0	0.01716122
56	0xbe453f86	-0.19262514
57	0xbe049b6b	-0.12949912
58	0xbe8136a4	-0.25237
59	0xbe0eaa7d	-0.13932224
60	0xbe25e740	-0.16201496
61	0x3e057e4e	0.13036463
62	0x3e3e7246	0.1859828
63	0xbe93cbc0	-0.28866386
64	0xbdd99c24	-0.106254846
65	0xbea7647f	-0.3269386
66	0x3ea868c9	0.32892445
67	0xbe846f08	-0.2586596
68	0xbe606d83	-0.21916775
69	0x3e894e32	0.2681747
70	0x3dfaa0ad	0.12237678
71	0x3e03ed34	0.12883455
72	0xbc263ad6	-0.0101458635
73	0x3e914e83	0.28380212
74	0x3e2a07d3	0.16604547
75	0x3e1666dd	0.14687677
76	0x3e022f2a	0.12713304
77	0x3da53c61	0.08068157
78	0xbd06ca28	-0.032907635
79	0xbe85ea6a	-0.26155406
80	0x3df131b4	0.11777058
81	0x3e9b5fa0	0.30346394
82	0x3dad7365	0.084692754
83	0x3e89bbb1	0.2690101
84	0x3ea5bb9f	0.32369706
85	0x3e92681e	0.2859506
86	0xbe27bdf7	-0.1638106
87	0xbea8e289	-0.32985333
88	0xbeab974c	-0.33513868
89	0xbbebba8c	-0.007193869
90	0x3e1cf003	0.15325932
91	0x3e0e9407	0.13923655
92	0xbe50d9f9	-0.2039565
93	0xbe87f8a9	-0.265569
94	0x3eaa68d8	0.33283114
95	0x3d6bdd75	0.057584245
96	0xbe96526e	-0.29359764
97	0xbe8a125c	-0.26967132
98	0x3dc54d49	0.096338816
99	0xbd2b6843	-0.04184748
100	0x3e415f6a	0.18884054
101	0xbd8db024	-0.06918362
102	0x3e78b52d	0.24287863
103	0xbe8dbd70	-0.27683592
104	0x3e480460	0.19532919
105	0x3e0d4f34	0.13799745
106	0x3cc64a17	0.02420525
107	0xbd6a5443	-0.057209264
108	0xbd268bb7	-0.040660586
109	0xbe777bf6	-0.24168381
110	0xbeb0ff6c	-0.3456987
111	0x3d1a85e5	0.037725348
112	0xbe1972d3	-0.14985208
113	0x3e82bf5a	0.25536615
114	0xbe0368b7	-0.12832914
115	0xbe5c32d2	-0.21503761
116	0x3e16d86b	0.14730994
117	0x3e77fd3c	0.24217695
118	0x3defbfd4	0.1170651
119	0xba6e3b90	-0.0009087855
120	0xbe0035e5	-0.12520559
121	0xbcdc3ce3	-0.026884502
122	0x3df416d9	0.1191842
123	0xbd5d8f5c	-0.054091796
124	0xbe06e524	-0.13173348
125	0x3e9f2740	0.31084633
126	0x3ea30797	0.31841728
127	0xbd205907	-0.039147403
128	0x3dc03173	0.09384432
129	0x3dec8e64	0.11550596
130	0x3e74d505	0.23909386
131	0x3e80b767	0.25139925
132	0xbe87f247	-0.2655203
133	0xbe992a7c	-0.29915226
134	0x3e19750e	0.14986059
135	0xbe8db1e0	-0.2767477
136	0x3ea77c63	0.32712087
137	0x3dab15ee	0.08353792
138	0xbd1ef01f	-0.038803216
139	0x3e1bab72	0.1520212
140	0x3e65669f	0.22402428
141	0x3e8b0b91	0.27157262
142	0xbeac8da8	-0.33701825
143	0x3e877804	0.26458752
144	0x3e8069f0	0.25080824
145	0x3eab6710	0.33477068
146	0x3e6a95bb	0.2290868
147	0x3e3ea19a	0.18616334
148	0xbe825217	-0.25453255
149	0x3e93a3d8	0.2883594
150	0xbe581170	-0.21100402
151	0xbdfd0cd6	-0.12355964
152	0x3e69ee4c	0.2284481
153	0xbe618291	-0.22022463
154	0x3dd71245	0.105015315
155	0x3e903848	0.2816794
156	0x3e82e3e2	0.25564486
157	0xbd6c4d8c	-0.057691142
158	0x3de4bc76	0.111687586
159	0xbc79210e	-0.015205635
160	0x3e76a780	0.24087334
161	0x3e80ab3e	0.25130647
162	0x3da89c45	0.08232931
163	0x3d04d08b	0.032425445
164	0x3db898a5	0.0901349
165	0xbe5dd0bf	-0.21661662
166	0x3e2fc05e	0.17163226
167	0x3e7635ff	0.24044035
168	0xbdbe52ec	-0.0929316
169	0x3e08dd8a	0.1336576
170	0x3eaa4714	0.33257353
171	0x3b89072d	0.0041817636
172	0xbe70cf0a	-0.23516479
173	0x3ce23052	0.027610932
174	0x3d969810	0.07353222
175	0xbca41cc6	-0.020033251
176	0x3e283eb6	0.16430172
177	0x3e591dd3	0.21202783
178	0xbe4fe30f	-0.2030146
179	0xbe9067d4	-0.28204215
180	0x3e8dad0e	0.27671093
181	0xbeb24fab	-0.34826407
182	0x3ea94552	0.330607
183	0x3dfda5f9	0.123851724
184	0xbdd52d2f	-0.10409009
185	0x3e76de58	0.24108255
186	0xbe251bab	-0.16123836
187	0x3e5fb15a	0.21844998
188	0x3e3e9340	0.18610859
189	0x3d901fee	0.0703734
190	0x3db96c96	0.09053914
191	0xbe6bd655	-0.2303098
192	0xbd9ccc7a	-0.07656188
193	0xbe7d4cee	-0.24736378
194	0x3d99bece	0.07507096
195	0x3e73f036	0.23822102
196	0x3e92cb75	0.2867085
197	0x3e179653	0.14803438
198	0x3e81ed7f	0.25376508
199	0x3e476f79	0.19476117
200	0xbda86c2b	-0.082237564
201	0x3d683187	0.056687858
202	0x3eaa284f	0.33233878
203	0xbde537c2	-0.111922756
204	0x3e95719a	0.29188234
205	0xbdde7207	-0.10861593
206	0x3eac908e	0.33704036
207	0xbea80e8d	-0.328236
208	0x3e573133	0.21014862
209	0x3e6ba3db	0.23011725
210	0xbe4304cf	-0.19044803
211	0x3eb04271	0.3442569
212	0x3c54f5f9	0.012998098
213	0xbdb3dfe7	-0.0878294
214	0xbe829e05	-0.25511184
215	0xbea095cf	-0.31364295
216	0x3e8c4e71	0.27403596
217	0x3ea489c2	0.3213635
218	0x3eac9731	0.337091
219	0xbe0387ab	-0.12844722
220	0xbeb6347f	-0.35586926
221	0x3ea46490	0.32107973
222	0x3e9cc0b3	0.30615768
223	0x3d996555	0.07490031
224	0x3bd7ca37	0.006585385
225	0xbdd0fe33	-0.10204735
226	0xbc716edb	-0.014735903
227	0x3e835278	0.25648856
228	0x3e54e63f	0.20790957
229	0x3d97002f	0.07373082
230	0xbdd471a9	-0.103732415
231	0xbe9c58ab	-0.30536398
232	0x3dde3865	0.108506
233	0xbcf11276	-0.029427748
234	0x3db81b4e	0.08989583
235	0x3d8e427b	0.06946274
236	0x3e1f092f	0.15530847
237	0xbde9de9b	-0.11419412
238	0xbea1551d	-0.3151025
239	0x3e67a6e1	0.22622253
240	0x3e8eb617	0.278733
241	0x3d118ecf	0.035536584
242	0x3e0099fd	0.12558742
243	0x3dd5a670	0.10432136
244	0x3e57e3b2	0.21082953
245	0xbe752fcd	-0.23944016
246	0xbddb6656	-0.107128784
247	0xbde31ef8	-0.11089891
248	0xbea046df	-0.3130407
249	0x3ddf8a36	0.109150335
250	0xbe1349c7	-0.14383613
251	0x3e9b2589	0.30302075
252	0x3e3021f4	0.17200452
253	0xbd6d2beb	-0.05790321
254	0xbe5aab1b	-0.21354334
255	0xbc0a5902	-0.008444073

node_emb.bias f4 [64]
0	0x3e5d42ca	0.2160751
1	0x3e920b20	0.28524113
2	0xbeb0aa8e	-0.34505123
3	0xbe28ba64	-0.16477352
4	0x3df1b286	0.11801629
5	0x3e1e8e17	0.1548389
6	0x3e8fc089	0.2807658
7	0x3d2c2c1a	0.042034246
8	0x3e9bd7d5	0.30438104
9	0xbd4744d1	-0.048649613
10	0x3e48b66a	0.19600835
11	0x3e3c6d31	0.18401028
12	0x3e9bf65d	0.30461398
13	0xbe4c9112	-0.19977215
14	0x3e5f0540	0.21779346
15	0x3da64473	0.081185244
16	0x3e2632a9	0.16230263
17	0x3de81c2a	0.11333497
18	0xbeaa0e07	-0.33213827
19	0xbe5b9c5d	-0.21446367
20	0x3e0aaed1	0.1354325
21	0xbe9699d6	-0.29414243
22	0x3c87063b	0.016482463
23	0x3e089a77	0.13340174
24	0xbd43687b	-0.047707062
25	0x3e8097c8	0.251158
26	0x3e2219cb	0.15830152
27	0x3c6bfb8f	0.014403238
28	0xbe189f18	-0.1490444
29	0x3d916806	0.07099919
30	0x3db61fd5	0.0889279
31	0xbdc6eaf4	-0.097127825
32	0x3e987f31	0.2978454
33	0xbb280262	-0.0025636186
34	0xbe980cb3	-0.2969719
35	0xbd1f3eeb	-0.038878363
36	0x3e5363bb	0.20643513
37	0x3e08de8e	0.13366148
38	0x3d54e132	0.051972575
39	0xbe34fab9	-0.17673768
40	0xbd677d15	-0.056515772
41	0x3d068e1e	0.032850377
42	0x3dfa1335	0.12210695
43	0x3e827177	0.25477192
44	0x3e1f8248	0.15577042
45	0xbe404e04	-0.1877976
46	0xbe040abb	-0.12894718
47	0x3db7d84e	0.08976804
48	0x3e8885b3	0.26664504
49	0x3cedefef	0.029045073
50	0x3c4881d8	0.012237988
51	0xbeaf8483	-0.34280786
52	0x3e1cd611	0.15316035
53	0xbe967deb	-0.29392943
54	0x3e9d8b82	0.307705
55	0xbe2fc3f5	-0.17164595
56	0xbe8dcb1b	-0.2769402
57	0xbe9e7325	-0.30947223
58	0x3ddb4a15	0.107074894
59	0x3df9051b	0.12159177
60	0xbdf282c8	-0.11841351
61	0xbe90f169	-0.2830918
62	0xbe8adbd9	-0.27120855
63	0x3befa745	0.0073136413

edge_emb.weight f4 [64, 2]
0	0x3d92fc35	0.07177011
1	0x3edaee5e	0.42759985
2	0xbe9e5985	-0.30927673
3	0xbe548358	-0.20753229
4	0x3e4e99ea	0.20175901
5	0x3d87c352	0.06629051
6	0x3d4b1056	0.049576126
7	0xbd924aab	-0.07143148
8	0xbdf21365	-0.118201055
9	0xbd55a150	-0.052155793
10	0xbe87dac9	-0.26534107
11	0x3ea2a63e	0.31767458
12	0xbefc650f	-0.49295852
13	0x3ed5ce9c	0.41759193
14	0xbd8a357a	-0.06748481
15	0x3ef64de4	0.481063
16	0x3ec6635f	0.3874769
17	0xbe861eaf	-0.26195285
18	0x3e72cc79	0.23710813
19	0x3f1e67c0	0.6187706
20	0x3d5c0526	0.053715847
21	0x3d4c3967	0.04985943
22	0x3f0dc014	0.5537121
23	0xbf1c45d7	-0.6104407
24	0x3ef807de	0.48443502
25	0xbec8dda7	-0.39231607
26	0xbeea6a7e	-0.45784372
27	0x3f24c640	0.64365005
28	0x3f19324f	0.5984239
29	0xbf2ead16	-0.6823286
30	0x3e009748	0.12557709
31	0xbf2f3aab	-0.68448895
32	0x3f23b0ce	0.6394166
33	0x3ea0d45e	0.31412023
34	0xbf011c67	-0.50433964
35	0x3e2eb67b	0.17061798
36	0xbf10211c	-0.5630052
37	0x3d0f2d7f	0.034955498
38	0x3efffbab	0.49996695
39	0xbdf4e1e8	-0.11957151
40	0x3f349e03	0.70553607
41	0x3e9d6f86	0.30749148
42	0x3e7d8b1b	0.24760096
43	0x3ee9ad02	0.45639807
44	0xbf2f98ae	-0.68592346
45	0xbe525c1a	-0.20542946
46	0x3f21b45e	0.63165843
47	0xbf296296	-0.66166055
48	0xbe2366ae	-0.15957138
49	0x3f1a1038	0.60181
50	0x3e29d76a	0.1658608
51	0xbcf34b86	-0.029699098
52	0xbec67099	-0.3875778
53	0xbe008606	-0.12551126
54	0xbdce5224	-0.10074261
55	0xbea615a5	-0.32438388
56	0x3d9529e5	0.072833814
57	0x3e4789f6	0.19486222
58	0xbf1b2036	-0.60596025
59	0x3ee39bc4	0.44454777
60	0x3d27c379	0.0409579
61	0xbee4897a	-0.44636136
62	0x3d51c99c	0.05121766
63	0xbf15da1f	-0.5853595
64	0x3f19a6b5	0.6002
65	0x3f1c7a6b	0.61124295
66	0xbed1f1ab	-0.4100469
67	0x3e6c4df4	0.23076612
68	0xbe726629	-0.23671784
69	0xbf144884	-0.5792315
70	0xbdc26fa7	-0.09493952
71	0xbc9750b6	-0.018471103
72	0x3f08780c	0.53308177
73	0x3e73f932	0.23825529
74	0x3e0b9586	0.13631257
75	0x3e672fe9	0.2257687
76	0xbf175c56	-0.5912527
77	0x3e0e04d9	0.13869037
78	0xbf00b7e5	-0.502806
79	0xbf0f008b	-0.55860204
80	0xbf100955	-0.5626424
81	0xbf1ad900	-0.60487366
82	0x3f2dfde4	0.6796553
83	0xbee9bdf0	-0.45652723
84	0x3e3d13ea	0.18464628
85	0xbd14dfb7	-0.036346164
86	0x3f30b4e4	0.6902602
87	0x3f094731	0.53624254
88	0xbf090eb9	-0.5353809
89	0xbf2ef397	-0.6834044
90	0xbee66a6e	-0.45003074
91	0x3f2ffb49	0.68742806
92	0xbe7e2691	-0.248194
93	0xbf29fe55	-0.66403705
94	0xbf2f0006	-0.6835941
95	0x3f1c918c	0.61159587
96	0x3e03f683	0.12887006
97	0xbe3234ac	-0.17402905
98	0xbee68561	-0.45023635
99	0xbf171a7e	-0.590248
100	0xbf1a1e90	-0.60202885
101	0xbf35f32e	-0.7107419
102	0xbdf140e9	-0.11779959
103	0x3d702fea	0.058639444
104	0x3f0d85f0	0.552825
105	0xbec06e02	-0.3758393
106	0xbeedce49	-0.46446446
107	0x3e28866b	0.16457526
108	0xbddf244e	-0.108955964
109	0xbeff78bc	-0.498968
110	0xbef30d2c	-0.47470987
111	0xbc414bdf	-0.011797874
112	0x3f1138c0	0.5672722
113	0xbd503176	-0.05082842
114	0x3e4d8769	0.20071186
115	0x3edbf64e	0.42961353
116	0xbf2b710a	-0.6696936
117	0xbec6f88f	-0.3886151
118	0xbf1722b4	-0.5903733
119	0x3ea5744e	0.32315296
120	0xbf089aa2	-0.5336095
121	0xbd94acbe	-0.072595105
122	0x3cec3e42	0.02883828
123	0x3e1e0f6b	0.15435569
124	0x3e4d554b	0.20052068
125	0xbe24bd83	-0.16087918
126	0xbf33ca51	-0.70230585
127	0xbeb00cbc	-0.34384716

edge_emb.bias f4 [64]
0	0xbe930cf4	-0.2872082
1	0x3de70f1c	0.11282179
2	0xbf022ae9	-0.50846726
3	0xbdff19d3	-0.124560975
4	0x3e9a4035	0.3012711
5	0x3d2bac5d	0.041912425
6	0x3e493540	0.1964922
7	0x3e289e6f	0.16466688
8	0x3e0b16ea	0.1358296
9	0xbdec5e8d	-0.11541472
10	0x3f006d4e	0.50166786
11	0x3e885bdf	0.26632592
12	0xbf0f265b	-0.559179
13	0x3f1d2d12	0.61396897
14	0x3ed3c5ad	0.41361752
15	0x3f3405a8	0.7032113
16	0x3e668c16	0.22514376
17	0xbeccdfe4	-0.40014565
18	0xbce719c4	-0.028210528
19	0x3eecfb49	0.46285465
20	0x3eabf3af	0.33584353
21	0x3eb4b7b9	0.3529642
22	0x3f095a0a	0.53653014
23	0xbf057808	-0.5213628
24	0x3d2e9e03	0.04263116
25	0xbea9b9fd	-0.3314971
26	0x3e2475d0	0.16060567
27	0x3e3410e7	0.17584573
28	0xbf2d16ef	-0.6761312
29	0x3d6cb53e	0.057790034
30	0x3e4e7734	0.2016266
31	0x3dcbbcc2	0.09948112
32	0x3f1966ba	0.59922373
33	0xbe291476	-0.16511711
34	0xbca5ac81	-0.020223858
35	0xbf1b8d72	-0.60762703
36	0x3eea1a2c	0.45723093
37	0xbe1a0629	-0.15041412
38	0xbf2042c5	-0.6260188
39	0x3ee46f7f	0.44616315
40	0x3dbd5177	0.09244054
41	0xbe042ca1	-0.1290765
42	0xbe268ed6	-0.16265425
43	0xbf06969c	-0.5257356
44	0xbecaa291	-0.39577153
45	0x3f1b4142	0.6064645
46	0x3f18f125	0.5974296
47	0x3d91db4a	0.07121904
48	0xbde00e04	-0.10940173
49	0x3ef7674b	0.48320994
50	0x3e87b214	0.2650305
51	0x3f1770cb	0.59156483
52	0x3ea16027	0.3151867
53	0x3dfa60c5	0.122254886
54	0x3e44717d	0.19183917
55	0xbf1cd3f3	-0.6126091
56	0xbf1cea74	-0.6129525
57	0x3eb2f65c	0.34953582
58	0xbf03ed08	-0.51533556
59	0xbf1c8495	-0.61139804
60	0x3e93794e	0.28803486
61	0x3ef9e522	0.48807627
62	0x3ee6ef2e	0.45104355
63	0x3f0c04a5	0.54694587

gat_layers.0.att_src f4 [1, 4, 16]
0	0xbe9117e0	-0.28338528
1	0x3e00208a	0.12512413
2	0x3ed0dd4a	0.4079383
3	0xbda36829	-0.07978851
4	0xbe8b3c65	-0.27194515
5	0xbeef6d94	-0.4676329
6	0x3f0958dd	0.5365122
7	0x3e5c59ac	0.21518582
8	0xbcca0b09	-0.024663465
9	0x3ef1e507	0.47245046
10	0x3ec739f1	0.38911393
11	0xbd658bc5	-0.056041498
12	0x3eadd29e	0.3394975
13	0xbd294329	-0.041323815
14	0x3eb8b836	0.36078042
15	0xbebb9ff1	-0.36645463
16	0xbe2878c9	-0.16452326
17	0xbdd72f20	-0.10507035
18	0xbeaee09a	-0.34155732
19	0x3dadf1a9	0.08493359
20	0x3c83d36a	0.016092021
21	0xbf01b2cd	-0.50663453
22	0x3efc72de	0.49306387
23	0xbe902f8c	-0.28161275
24	0xbdc4f1ac	-0.09616408
25	0x3e7a5328	0.24445784
26	0xbeef604e	-0.46753162
27	0xbe369efc	-0.17834085
28	0xbefc9d34	-0.49338686
29	0xbcdaf91a	-0.026730109
30	0xbd21d84d	-0.03951292
31	0xbedb0f4d	-0.4278511
32	0x3e19d04b	0.15020864
33	0x3e8fcb6f	0.28084895
34	0xbf054466	-0.5205749
35	0x3de1e7e2	0.11030556
36	0xbf081618	-0.5315871
37	0x3cc82aa1	0.02443439
38	0xbee6de3f	-0.45091435
39	0x3de2ea39	0.11079831
40	0xbf000965	-0.50014335
41	0xbe0e7ec4	-0.13915545
42	0x3f05a560	0.5220547
43	0x3eae7386	0.34072512
44	0xbf03167d	-0.5120619
45	0xbe8b1f62	-0.2717238
46	0x3cddf5ed	0.027094806
47	0x3e82aebd	0.2552394
48	0x3ef0b19e	0.4701051
49	0x3dc93431	0.09824408
50	0x3ebdfc90	0.37106752
51	0x3e9ee495	0.3103377
52	0xbe3566aa	-0.17714944
53	0xbe5bda4f	-0.21469997
54	0x3f09f350	0.5388689
55	0xbe540bf2	-0.20707682
56	0x3e467fe8	0.1938473
57	0xbf0ab468	-0.5418153
58	0x3ee5fef7	0.44921085
59	0xbeb91f88	-0.3615687
60	0x3eb2b56e	0.34904045
61	0x3e967dfa	0.29392987
62	0x3ec87308	0.39150262
63	0x3ca81e35	0.020522216

gat_layers.0.att_dst f4 [1, 4, 16]
0	0x3d31a6cf	0.04337197
1	0x3e524333	0.20533447
2	0x3ea4bb5e	0.321742
3	0xbdad3b32	-0.08458556
4	0xbec5c01b	-0.38623127
5	0x3dcbab8d	0.0994483
6	0x3e50ae7c	0.2037906
7	0xbe195867	-0.14975129
8	0xbec24df7	-0.37950107
9	0x3ef061a0	0.46949482
10	0x3ea12485	0.31473175
11	0xbeb93796	-0.3617522
12	0xbe931e92	-0.2873426
13	0xbef96ec4	-0.4871732
14	0x3efd1075	0.49426618
15	0x3e44b45a	0.19209424
16	0xbeafd76d	-0.34344044
17	0xbd3ad901	-0.045617107
18	0xbe52984a	-0.20565906
19	0xbefb1809	-0.49041775
20	0xbeb9ba00	-0.3627472
21	0xbd0f4c7a	-0.034985043
22	0xbdb6a4e4	-0.08918169
23	0xbd8d30ef	-0.06894099
24	0xba8d0b46	-0.0010760806
25	0x3ea182fc	0.31545246
26	0x3eca5443	0.39517412
27	0x3e1a1c7f	0.15049933
28	0xbed9d53d	-0.425455
29	0x3ec908fe	0.39264673
30	0x3e411321	0.18854953
31	0x3f028158	0.5097861
32	0xbe92dcb9	-0.28684023
33	0x3e2bbf92	0.16772297
34	0xbcf9bd76	-0.03048585
35	0xbe3d899c	-0.18509525
36	0xbf0ba79b	-0.5455262
37	0x3e3f0903	0.18655781
38	0xbe23be3e	-0.1599054
39	0xbe49e2c4	-0.1971541
40	0xbe6510a2	-0.22369626
41	0x3d6cc908	0.057808906
42	0xbd242536	-0.04007455
43	0xbbbc899d	-0.0057537095
44	0x3e9ba4e0	0.30399227
45	0xbd98d6e7	-0.07462864
46	0xbead10b7	-0.33801815
47	0xbc11498b	-0.008867632
48	0xbee0d485	-0.4391214
49	0x3e21dcac	0.15806836
50	0x3eed1a8c	0.46309316
51	0x3e6c108b	0.23053186
52	0x3e812dbe	0.2523021
53	0x3e51daaa	0.2049357
54	0xbf006f05	-0.501694
55	0xbe0b462d	-0.13600989
56	0x3eda62f4	0.4265362
57	0x3e732e1e	0.23748061
58	0x3db6ad06	0.0891972
59	0x3eb7b085	0.3587686
60	0x3e247f88	0.16064274
61	0xbd4eefa7	-0.05052152
62	0xbe6ed62c	-0.23323888
63	0x3e020278	0.12696254

gat_layers.0.att_edge f4 [1, 4, 16]
0	0xbe043f79	-0.12914838
1	0x3e04db74	0.1297434
2	0xbd939282	-0.072056785
3	0xbec5e0ff	-0.3864822
4	0xbe84a982	-0.25910574
5	0x3ee68a82	0.45027548
6	0x3eeadf1f	0.45873353
7	0xbe71ce5b	-0.23613875
8	0x3d94f2ad	0.07272849
9	0x3ecb4219	0.39698866
10	0xbe636070	-0.22204757
11	0x3e345676	0.17611107
12	0x3efd1558	0.49430346
13	0xbeb7329d	-0.35780802
14	0xbdc66c55	-0.096886314
15	0xbd7c4c39	-0.06159613
16	0xbec26bcb	-0.37972865
17	0x3edcc346	0.43117732
18	0x3eeac04e	0.45849842
19	0xbd079886	-0.033104442
20	0x3e990dfc	0.29893482
21	0x3eeced45	0.46274772
22	0x3e47b741	0.195035
23	0xbf0874fd	-0.5330351
24	0x3ee9cc6b	0.4566377
25	0xbea08eea	-0.31359035
26	0x3dff9c79	0.12481017
27	0xbef64fd6	-0.48107785
28	0xbde29e7e	-0.11065386
29	0x3e573a54	0.21018344
30	0x3f061c9c	0.52387404
31	0x3ee52bd3	0.44759998
32	0x3e8a652e	0.2703032
33	0x3eb63d2e	0.3559355
34	0xbe937708	-0.2880175
35	0x3e2e42e1	0.170177
36	0xbdde915e	-0.1086757
37	0xbe60a78b	-0.21938913
38	0x3f06bded	0.52633554
39	0x3e81a36a	0.25319988
40	0xbe96d55c	-0.29459655
41	0xbeb11760	-0.34588146
42	0x3e438aa8	0.19095862
43	0x3ed3a65d	0.41337863
44	0xbebba0fc	-0.3664626
45	0x3eecfc20	0.46286106
46	0x3efb86bb	0.4912623
47	0xbe8d84e7	-0.2764046
48	0xbeb7de46	-0.3591177
49	0xbe29fe7b	-0.16600983
50	0x3ebfe7e2	0.374816
51	0x3f0075ba	0.50179636
52	0xbec5377c	-0.38518894
53	0x3f01fcf3	0.50776595
54	0x3ea33f59	0.31884268
55	0xbecd8ef3	-0.40148124
56	0xbe844f49	-0.2584174
57	0x3ed5a0c3	0.41724214
58	0xbea2605c	-0.3171414
59	0x3e7f9e24	0.2496267
60	0xbed5990a	-0.41718322
61	0x3e808b4f	0.25106284
62	0xbf058335	-0.5215333
63	0xbf02685f	-0.5094051

gat_layers.0.bias f4 [64]
0	0xbb33134f	-0.0027324741
1	0xbb0ee0e7	-0.0021801533
2	0xbb5c8374	-0.0033647688
3	0xbaa941a9	-0.0012913245
4	0xbb5a6e77	-0.0033330002
5	0xbb48ce1d	-0.0030640431
6	0xbb1bec3c	-0.002379193
7	0xbb04bf19	-0.0020255505
8	0xbab8eb4a	-0.0014108208
9	0xba97b5be	-0.0011574549
10	0xbb3116e4	-0.00270217
11	0xbb14b513	-0.0022690936
12	0xbb4c22ae	-0.00311486
13	0xbb49f665	-0.0030817029
14	0xbb1778f9	-0.0023112877
15	0xbb522d0c	-0.0032070307
16	0x3c1d3fcb	0.009597729
17	0xbafd715e	-0.0019336154
18	0xbb50f66e	-0.0031885165
19	0xbb4e31f1	-0.0031462873
20	0xbb50d1bb	-0.003186329
21	0x3ba7efdb	0.0051250285
22	0xbb336842	-0.0027375375
23	0xbb4f48b3	-0.0031629025
24	0x3be0f311	0.0068649133
25	0xbb5f4491	-0.0034067968
26	0xbae8d83b	-0.0017764637
27	0xbb35518c	-0.0027667014
28	0xbb54147f	-0.003236085
29	0xbb550600	-0.0032504797
30	0xbb4a12c9	-0.003083395
31	0xbb4ac065	-0.003093743
32	0xba94f8ce	-0.0011365653
33	0xbb3b7351	-0.002860267
34	0xbb2dd288	-0.0026523191
35	0xbb4f9678	-0.003167538
36	0xbb53b7e0	-0.0032305643
37	0xbb59e459	-0.0033247678
38	0x3c00d913	0.0078642545
39	0xbb4d7708	-0.0031351466
40	0xbb4715cb	-0.003037798
41	0x3b88be0c	0.004173046
42	0xbb543f1d	-0.0032386251
43	0xbb4d22d9	-0.0031301288
44	0x3bff18a4	0.00778492
45	0xbb301e3b	-0.0026873488
46	0x3bac6b80	0.0052618384
47	0xbb4dce8b	-0.0031403627
48	0xbb2814eb	-0.0025647234
49	0x3c04a6d6	0.008096417
50	0xbb50f397	-0.0031883472
51	0xbb568e21	-0.0032738524
52	0xbb5a29a8	-0.003328899
53	0xbb387977	-0.002814857
54	0x3b500e7e	0.003174692
55	0xbb58bf3d	-0.0033072971
56	0x3a1573fb	0.00057011814
57	0xbb1adda7	-0.002363065
58	0x3b2a3a44	0.002597467
59	0xbaddabd6	-0.0016912173
60	0xbb5d831c	-0.003380007
61	0x3bce63ea	0.006298532
62	0xbb5bd5e9	-0.0033544248
63	0x3c01e8b2	0.007929014

gat_layers.0.lin.weight f4 [64, 64]
0	0x3e327666	0.17427978
1	0xbc30f514	-0.010800619
2	0xbdc73551	-0.09726966
3	0x3e39e69a	0.18154374
4	0x3d0bf5bd	0.0341699
5	0x3cae3d89	0.021269577
6	0x3e10e705	0.14150627
7	0x3cb2e265	0.021836469
8	0xbcab67fa	-0.020923603
9	0x3d6a3252	0.057176895
10	0xbbadfdb8	-0.0053097866
11	0xbe51005c	-0.20410293
12	0x3d4a8f8f	0.049453314
13	0x3daa069b	0.08302041
14	0x3e22c5ec	0.15895814
15	0x3e3f2104	0.18664938
16	0x3e20089b	0.15628283
17	0x3e38dcb1	0.18052937
18	0x3e079e24	0.1324392
19	0x3e41f34f	0.18940471
20	0xbb26b46e	-0.0025437134
21	0xbd342dcf	-0.043989
22	0x3e18dd21	0.14928104
23	0xbcfe6fde	-0.031059202
24	0x3da094f0	0.078409076
25	0xbdd6c3ba	-0.10486551
26	0xbe584dcd	-0.21123429
27	0x3e1d6a01	0.15372469
28	0x3de8254d	0.113352396
29	0x3df9795c	0.121813506
30	0x3c9b17e7	0.018932296
31	0xbe5420ce	-0.20715639
32	0x3d9b1131	0.075716384
33	0xbe048b46	-0.12943754
34	0xbe19f16f	-0.15033506
35	0x3e1a02c8	0.15040123
36	0x3ddb8af9	0.10719866
37	0x3d337031	0.043808166
38	0x3e44bc31	0.19212414
39	0xbd52f58c	-0.051503703
40	0x3d2c78f5	0.04210754
41	0xbe15ac3c	-0.14616483
42	0xbe345840	-0.1761179
43	0x3d27d157	0.040971126
44	0xbe3856dd	-0.18001886
45	0x3cb14ce3	0.021643108
46	0x3b4ef8d4	0.0031581419
47	0x3c11be5f	0.008895486
48	0x3d995664	0.07487181
49	0x3e0b95c1	0.13631345
50	0xbe3718f1	-0.17880608
51	0xbe02e869	-0.1278397
52	0xbd147784	-0.03624679
53	0x3e2f49c0	0.17117977
54	0xbe4f3bec	-0.20237702
55	0xbe1462ab	-0.14490764
56	0xbcd32439	-0.025774108
57	0xbd89bf59	-0.0672595
58	0x3bd192b7	0.0063956636
59	0x3d61ac17	0.05509576
60	0xbde42fea	-0.111419514
61	0x3e0960db	0.13415854
62	0x3e3c89fc	0.18412012
63	0x3c19b19f	0.009380727
64	0xbd20cd4f	-0.039258298
65	0xbe508b27	-0.20365582
66	0xbe5469f7	-0.20743547
67	0xbaf2c77e	-0.0018522588
68	0xbdbe5b50	-0.0929476
69	0x3d26d61c	0.040731534
70	0x3cd4f260	0.02599448
71	0x3e0ca500	0.13734818
72	0x3ddfe6d7	0.10932701
73	0x3da8a944	0.0823541
74	0x3e308cb7	0.17241178
75	0xbe274a5f	-0.16336964
76	0xbe4f3793	-0.20236044
77	0x3dc21be8	0.09477979
78	0xbe54c205	-0.20777138
79	0xbdc0b3d6	-0.09409301
80	0xbe0af4c8	-0.13569939
81	0xbd6bdf62	-0.05758608
82	0x3dea484f	0.11439573
83	0xbde4cd50	-0.11171973
84	0x3e5f3803	0.2179871
85	0xbdca2de9	-0.09872038
86	0x3d5cdd3a	0.053921916
87	0x3e5288d2	0.20560005
88	0x3c284a27	0.010271586
89	0xbddffb48	-0.109366
90	0xbe28f472	-0.16499498
91	0x3bcba582	0.0062147984
92	0xbd3fde62	-0.04684294
93	0x3e56f6c8	0.20992577
94	0x3e4034af	0.18770097
95	0xbdcad3c7	-0.099036746
96	0x3e20397d	0.1564693
97	0xbe1aebf5	-0.15129073
98	0xbddd4c24	-0.10805538
99	0xbe042c4c	-0.12907523
100	0x3e4e8656	0.20168433
101	0x3c836f71	0.01604435
102	0xbd52b1d8	-0.051439136
103	0x3dcc9466	0.09989242
104	0x3d86fcc4	0.0659118
105	0xbccf7542	-0.025324468
106	0x3e43905a	0.19098035
107	0x3da865ee	0.082225665
108	0xbe43c89f	-0.191195
109	0x3e15056d	0.14552851
110	0xbe4d98e8	-0.2007786
111	0xbdb520ba	-0.08844133
112	0x3e57d754	0.21078235
113	0x3dfc2c16	0.12313096
114	0xbce1bad8	-0.027554914
115	0x3e484f37	0.19561468
116	0x3dcdc04a	0.10046442
117	0x3dcdd9bc	0.10051295
118	0x3d8fc30a	0.070196226
119	0x3d924c7f	0.07143497
120	0x3e2cb72f	0.16866754
121	0xbd25d98b	-0.04049067
122	0x3c043774	0.008069862
123	0x3e29e7c2	0.16592315
124	0x3e2c9658	0.16854227
125	0xbe46b658	-0.19405496
126	0xbe2b3b10	-0.1672175
127	0xbddce01b	-0.10784932
128	0xbe378c4b	-0.17924611
129	0xbe418940	-0.18900013
130	0xbd8cb1ca	-0.06869848
131	0xbe3b1cf3	-0.18272762
132	0x3d973bef	0.07384478
133	0x3df67299	0.120335765
134	0xbde47232	-0.111545935
135	0x3d9ee052	0.077576295
136	0x3e519f78	0.20470989
137	0xbe0d5d19	-0.13805045
138	0x3da9fc04	0.08300021
139	0x3d5526f2	0.052039094
140	0xbd769db7	-0.060209002
141	0xbbf59745	-0.0074948394
142	0x3de62d73	0.112391375
143	0x3e15dbf6	0.1463469
144	0x3e40d218	0.18830144
145	0x3c2bc88a	0.010484824
146	0xbe30e461	-0.1727462
147	0x3e03289e	0.12808463
148	0x3dd9a9a6	0.10628061
149	0x3dbdd595	0.09269253
150	0xbe2b63c1	-0.16737272
151	0xbd5acd89	-0.05341867
152	0xbda2f562	-0.07956959
153	0x3c9138c1	0.017727258
154	0x3e1a30e9	0.1505772
155	0xbc17138c	-0.009220969
156	0xbe0f1025	-0.13971002
157	0x3e2d1cde	0.16905543
158	0xbe4dc982	-0.200964
159	0x3e1252ea	0.14289442
160	0x3d429f0f	0.04751497
161	0xbd610a03	-0.05494119
162	0xbde59aa4	-0.11211136
163	0x3de72de5	0.112880506
164	0x3e4682ac	0.19385785
165	0x3d7ddcad	0.06197803
166	0xbe29f6d3	-0.16598062
167	0x3e08a986	0.13345918
168	0x3c99fcf7	0.01879738
169	0x3e3cd7b0	0.18441653
170	0xbcbac3e8	-0.022798494
171	0xbc1fc234	-0.0097508915
172	0x3d2d1c6e	0.04226344
173	0x3bb4f949	0.005522881
174	0xbdebc404	-0.115119964
175	0x3e15dd43	0.14635186
176	0x3e1596e0	0.14608335
177	0x3cdb15c2	0.026743773
178	0xbe20a46a	-0.15687719
179	0xbdd07c68	-0.101799786
180	0x3decb58a	0.11558063
181	0x3e17c75f	0.14822148
182	0xbe2841f1	-0.16431405
183	0x3dccd659	0.10001821
184	0x3daeaea3	0.08529403
185	0xbdd045f1	-0.1016959
186	0xbe4c7fd2	-0.19970635
187	0x3e041c09	0.1290132
188	0x3e315606	0.17317972
189	0x3deb4184	0.114871055
190	0xbe10bad4	-0.1413377
191	0x3d936a84	0.071980506
192	0xbdef47ec	-0.1168364
193	0xbe13d345	-0.14436062
194	0xbe0e957b	-0.1392421
195	0x3d99e794	0.07514873
196	0xbd8ffd1c	-0.07030699
197	0x3df76141	0.120790966
198	0xbcda4b3b	-0.0266472
199	0xbe5d82a1	-0.21631862
200	0x3c0da13c	0.008644398
201	0xbe35954e	-0.17732736
202	0x3d1e9697	0.038717832
203	0x3e536070	0.20642257
204	0xbe2ef167	-0.17084275
205	0xbe403c03	-0.18772893
206	0x3e3586dd	0.17727228
207	0x3e25be14	0.1618579
208	0xbd0e82e1	-0.034792785
209	0x3dbb6606	0.09150319
210	0x3e3a3128	0.18182814
211	0x3dd50794	0.10401836
212	0xbdcad901	-0.099046715
213	0x3dbfd08f	0.09365951
214	0xbd58f7d7	-0.052970733
215	0x3bd013f8	0.0063500367
216	0xbd35d448	-0.0443919
217	0xbda8b457	-0.08237522
218	0xbe442824	-0.19155937
219	0xbcc7f62f	-0.024409382
220	0x3dc920e2	0.09820725
221	0x3d2b9470	0.041889608
222	0xbe4085ae	-0.18800995
223	0x3caf04fc	0.021364681
224	0xbdfe668d	-0.12421904
225	0xbdbec73d	-0.093153454
226	0x3e17ab55	0.14811452
227	0x3c1157db	0.008871044
228	0x3e07e867	0.13272248
229	0x3b963e2c	0.004585048
230	0xbe1c51cb	-0.15265577
231	0xbe14680a	-0.14492813
232	0xbe54b247	-0.20771132
233	0x3e42f812	0.19039944
234	0x3e3cc13a	0.18433085
235	0xbe45e970	-0.1932733
236	0xbd487184	-0.048936382
237	0x3e0b275c	0.13589233
238	0x3e2310f9	0.15924443
239	0x3e498f98	0.19683683
240	0xbe556076	-0.20837578
241	0xbd514d45	-0.05109908
242	0xbe102120	-0.14075136
243	0x3e6275ad	0.22115202
244	0xbdb71c18	-0.08940905
245	0xbd84f600	-0.06492233
246	0xbdcbcef7	-0.09951585
247	0x3e4e120e	0.20124075
248	0xbe58754b	-0.21138494
249	0xbe2b0aed	-0.16703387
250	0xbd9577c0	-0.07298231
251	0x3e47670b	0.19472902
252	0x3d471e85	0.04861309
253	0x3e377e1c	0.179192
254	0x3cacdd6f	0.021101682
255	0x3dbc4fd9	0.09194917

gat_layers.0.lin_edge.weight f4 [64, 64]
0	0xbd30dcf3	-0.043179464
1	0xbdcd564e	-0.10026227
2	0x3c48e25e	0.012261001
3	0xbd9a1d91	-0.075251706
4	0x3e3097ae	0.17245361
5	0xbdeade4e	-0.114681825
6	0x3cdb826c	0.026795588
7	0xbe06bd43	-0.13158135
8	0xbd6bb927	-0.057549622
9	0xbe233d9d	-0.15941472
10	0x3c84287e	0.01613259
11	0xbe46fa6e	-0.19431469
12	0x3c9360b1	0.017990442
13	0xbdc18d42	-0.09450771
14	0xbe34dfa4	-0.17663437
15	0x3dfc0db8	0.12307304
16	0x3d5a0761	0.053229693
17	0xbe4813b4	-0.19538766
18	0x3ddd76da	0.10813685
19	0xbe3f7744	-0.1869784
20	0xbd29b531	-0.041432563
21	0xbe57ea8c	-0.21085566
22	0x3df4ff50	0.119627595
23	0x3ba92af8	0.005162593
24	0x3e462ef1	0.19353844
25	0xbb4d0e0e	-0.0031288895
26	0x3c9112f9	0.017709242
27	0x3d492154	0.04910405
28	0xbc2b9a81	-0.010473848
29	0x3e0f8b8c	0.14018077
30	0x3d765540	0.060139894
31	0xbc0ce457	-0.008599362
32	0xbdf03422	-0.117286935
33	0xbe478e7e	-0.1948795
34	0x3d5323d2	0.051547833
35	0x3e28d937	0.16489111
36	0x3d7c50dc	0.06160055
37	0x3d09da26	0.03365531
38	0x3e095af8	0.13413608
39	0xbd39bdca	-0.045347013
40	0xbd795c95	-0.06087931
41	0xbd13ba5a	-0.03606639
42	0xbe2d7596	-0.16939387
43	0x3e084781	0.13308527
44	0xbc3ed798	-0.011648081
45	0x3e44f624	0.1923452
46	0xbdc1d8ed	-0.094652034
47	0x3e3f624d	0.18689843
48	0x3c09a1bf	0.00840038
49	0x3e4cae75	0.19988425
50	0xbe5b997f	-0.21445273
51	0xbcd88eb0	-0.026435226
52	0xbc13c82a	-0.009019891
53	0xbc5bb2db	-0.013409342
54	0x3e03c540	0.12868214
55	0x3cb59f9e	0.022170838
56	0xbe015935	-0.12631686
57	0x3e5ab650	0.21358609
58	0x3d08c4b7	0.033390727
59	0xbe179302	-0.14802173
60	0x3d6ee5a2	0.058324464
61	0x3d2ae0d5	0.041718323
62	0xbc3bcc09	-0.01146222
63	0x3de29614	0.110637814
64	0x3c408d83	0.011752489
65	0x3e05140d	0.1299593
66	0xbe2857ce	-0.16439745
67	0xbe0116ce	-0.12606356
68	0x3d2a0ffc	0.04151915
69	0xbd47ade0	-0.048749804
70	0x3dece7d6	0.11567657
71	0xbe5aa745	-0.21352871
72	0x3d85d355	0.06534449
73	0x3e1a0dee	0.15044376
74	0xbdd6efda	-0.10494967
75	0x3e021297	0.12702404
76	0x3cec1c38	0.02882205
77	0xbe506dc7	-0.20354377
78	0xbd886901	-0.06660653
79	0xbe4f2e52	-0.20232514
80	0xbdc36854	-0.095413834
81	0x3dc693f4	0.096961886
82	0x3c916a3d	0.017750854
83	0xbd03b33f	-0.032153364
84	0x3d5cf1a3	0.05394138
85	0x3e42e3aa	0.1903216
86	0xbdd7cc85	-0.10537056
87	0x3d886aca	0.066609934
88	0xbcf6d952	-0.030132923
89	0x3dab8520	0.08375001
90	0xbe160716	-0.1465114
91	0xbd3d75e2	-0.046255
92	0x3e04422f	0.12915872
93	0x3d5bac0d	0.053630877
94	0xbe101941	-0.14072134
95	0x3d2bca96	0.041941248
96	0x3d98da63	0.07463529
97	0xbd582586	-0.05277016
98	0x3dc890f2	0.09793271
99	0xbc1b0c0a	-0.00946332
100	0x3cc16057	0.023605509
101	0xbd56d307	-0.052447345
102	0x3d61fa24	0.055170193
103	0x3bcd07b5	0.0062570223
104	0x3dd92e28	0.10604507
105	0x3e08472f	0.13308404
106	0x3c8fa10e	0.017532852
107	0x3e4a47a8	0.19753897
108	0x3d232413	0.039829325
109	0xbd81cb0e	-0.06337558
110	0xbcd3e4cd	-0.025865937
111	0x3def3201	0.11679459
112	0x3e11b37f	0.14228629
113	0xbe021943	-0.12704949
114	0xbe460044	-0.19336039
115	0xbdc7d70c	-0.09757814
116	0xbce76396	-0.028245728
117	0xbda9a569	-0.082835026
118	0x3c9f4c78	0.019445643
119	0xbba2d9da	-0.0049698176
120	0xbda9667c	-0.082715005
121	0xbdcb6794	-0.09931865
122	0xbd1537e9	-0.036430273
123	0x3d6a6981	0.057229523
124	0xbe520a30	-0.20511699
125	0xbe0297cc	-0.12753218
126	0x3e4aef46	0.19817838
127	0xbe5286df	-0.20559262
128	0x3e2ec8e0	0.17068815
129	0x3d109751	0.035300557
130	0xbdee10b8	-0.116242826
131	0xbe46e029	-0.19421448
132	0x3decb03e	0.11557053
133	0x3dd0aa6a	0.10188754
134	0x3e1e2aaf	0.1544597
135	0xbdedda2d	-0.11613879
136	0x3e33b25c	0.17548507
137	0xbe4453a4	-0.19172531
138	0xbe45661f	-0.19277237
139	0xbdd66d8c	-0.10470113
140	0x3df7b4e9	0.12095053
141	0xbe24dc52	-0.1609967
142	0x3e360f1d	0.17779203
143	0x3d7232aa	0.05913035
144	0x3d567ccd	0.052365113
145	0xbdbb57c1	-0.09147597
146	0x3cbe7556	0.02324931
147	0x3e329807	0.17440806
148	0xbdbea1ff	-0.09308242
149	0xbd8b6a0b	-0.068073355
150	0x3e46082d	0.19339056
151	0xbe09017b	-0.13379471
152	0x3dfa2603	0.122142814
153	0xbda8c4a3	-0.082406305
154	0xbc562a2e	-0.01307158
155	0xbdfa62b8	-0.1222586
156	0xbccaab57	-0.024739904
157	0x3b0dc571	0.0021632577
158	0xbe0a2a2e	-0.13492653
159	0x3e4cb1b2	0.1998966
160	0x3e3043e7	0.17213403
161	0xbe2d9233	-0.16950302
162	0x3cdb37a7	0.026759936
163	0x3d8e076f	0.069350116
164	0xbcaadcec	-0.020857297
165	0x3d99f2de	0.07517026
166	0xbdd517d9	-0.10404939
167	0x3db1c362	0.086798444
168	0xbd97b337	-0.074072294
169	0x3e15040f	0.1455233
170	0xbd30e536	-0.043187343
171	0x3d33527d	0.04377984
172	0xbe2cb9ae	-0.16867706
173	0x3e0e5323	0.13898902
174	0xbe2b13de	-0.16706797
175	0x3db9db57	0.09075039
176	0x3d73a8a6	0.059487008
177	0x3e3390c8	0.17535698
178	0x3e502ab0	0.20328784
179	0x3e4188e3	0.18899874
180	0x3e187344	0.1488772
181	0x3d8057c7	0.06266742
182	0x3e495865	0.19662626
183	0xbe4ce351	-0.2000859
184	0x3d983876	0.07432644
185	0xbce08b17	-0.027410073
186	0x3de6f03d	0.112762906
187	0xbd8f4ea5	-0.06997422
188	0x3d81e4d1	0.063424714
189	0xbe4de0fb	-0.20105354
190	0x3dbb93b7	0.09159034
191	0x3c4a2c31	0.012339638
192	0x3c86dfc9	0.016464131
193	0xbd6f44e2	-0.0584153
194	0xbe4553e7	-0.19270287
195	0xbc394d7c	-0.011309978
196	0xbdf289c2	-0.118426815
197	0x3bba8b5a	0.0056928815
198	0xbe141abb	-0.14463322
199	0x3d75d5a6	0.060018204
200	0xbe46d851	-0.19418456
201	0xbd1b1be4	-0.037868395
202	0x3db0f441	0.08640338
203	0x3e0a81f5	0.13526137
204	0x3e3523d9	0.17689456
205	0x3db117d1	0.08647121
206	0xbe4a9f8d	-0.19787426
207	0xbd858d0f	-0.065210454
208	0x3db21a5f	0.08696436
209	0xbe27dc33	-0.16392593
210	0xbe53ee10	-0.20696282
211	0xbe334ed0	-0.17510533
212	0xbe01922a	-0.12653413
213	0x3e413e98	0.18871534
214	0x3e1dcb2b	0.15409534
215	0xbe1aeb34	-0.15128785
216	0xbda0e086	-0.078553244
217	0x3e09ad43	0.13445
218	0xbe12a2bb	-0.14319889
219	0x3dc23287	0.094822936
220	0xbe216072	-0.15759447
221	0x3e121a26	0.14267787
222	0xbdc4a4d2	-0.096017495
223	0x3e023460	0.12715292
224	0xbcff2b9f	-0.03114873
225	0x3dfd24ce	0.123605356
226	0x3e1d96bc	0.15389532
227	0x3e12a94a	0.14322391
228	0x3e473816	0.19454989
229	0x3dd81097	0.10550039
230	0xbdfd5ae1	-0.123708494
231	0x3d5e1696	0.05422076
232	0xbe4a3a4b	-0.197488
233	0xbe1ce31f	-0.15321015
234	0xbd8a0458	-0.0673911
235	0x3e3ffee6	0.1874958
236	0xbd86d856	-0.065842316
237	0x3dddd1e8	0.10831052
238	0x3c98d7d8	0.01865761
239	0x3dadb3e1	0.08481575
240	0xbe395640	-0.18099308
241	0xbdd5ebe5	-0.10445384
242	0xbe160fb1	-0.14654423
243	0xbdbe0099	-0.09277458
244	0xbcccab4e	-0.024984028
245	0x3cc3a0d9	0.02388041
246	0xbe2f3825	-0.17111261
247	0xbc87ce1a	-0.01657777
248	0x3d92217c	0.07135293
249	0xbd89cfb1	-0.06729067
250	0x3bf25aa8	0.007396061
251	0xbde808d5	-0.113298096
252	0x3e18e911	0.14932658
253	0x3d5b1322	0.053485043
254	0x3e15d6f6	0.14632782
255	0x3ddb335a	0.10703154

gat_layers.1.att_src f4 [1, 4, 16]
0	0xbdc7a515	-0.09748284
1	0xbece02d7	-0.40236542
2	0x3e412056	0.18859991
3	0x3f02f678	0.5115733
4	0xbd7f75d2	-0.06236822
5	0x3eb452eb	0.3521951
6	0x3e771ddd	0.24132486
7	0x3e9b8410	0.30374193
8	0x3d8f3851	0.069931634
9	0x3eff2c2e	0.49838394
10	0x3e0587d8	0.13040102
11	0x3eefcd30	0.46836233
12	0xbe8be3cc	-0.27322233
13	0xbe14da60	-0.14536428
14	0xbeb0eefb	-0.34557328
15	0x3eadae2c	0.33921945
16	0xbe61ff77	-0.22070108
17	0xbe8050f9	-0.25061777
18	0xbebc83f2	-0.36819416
19	0xbe88f5dd	-0.2675008
20	0xbe3e66c0	-0.18593884
21	0xbdfe6426	-0.124214455
22	0x3edc925b	0.4308041
23	0x3e76589c	0.2405724
24	0x3ec4d245	0.38441673
25	0xbecd7b88	-0.4013331
26	0xbe4ad7df	-0.19808911
27	0x3dec13fa	0.11527248
28	0x3e8639b6	0.26215905
29	0xbd975634	-0.07389489
30	0x3e70931a	0.23493615
31	0x3e2df9a6	0.16989765
32	0xbdd63bcd	-0.10460625
33	0xbb8cfd51	-0.0043026586
34	0x3ef9ee89	0.488148
35	0xbeddac3a	-0.4329546
36	0x3eed6ebd	0.4637355
37	0xbead9a34	-0.3390671
38	0xbf022ea6	-0.5085243
39	0xbec519cd	-0.38496247
40	0xbed72417	-0.42019722
41	0x3ee4c15d	0.44678774
42	0x3e8eee5c	0.2791623
43	0x3f02bba0	0.51067543
44	0xbd12d339	-0.03584597
45	0x3e471152	0.19440201
46	0xbe87441f	-0.2641916
47	0xbf0bb065	-0.5456603
48	0x3edccea7	0.43126413
49	0xbe5957e2	-0.21224931
50	0x3ec9a295	0.39381853
51	0xbef581c2	-0.4795056
52	0xbe93bdff	-0.28855893
53	0xbeabc454	-0.33548224
54	0xbe813176	-0.25233048
55	0x3d957439	0.07297558
56	0x3ef49c80	0.4777565
57	0x3de86bd0	0.113486886
58	0x3e541d1d	0.20714231
59	0xbec028cf	-0.37531134
60	0x3e913c20	0.28366184
61	0x3ebeb13b	0.3724459
62	0xbef97459	-0.4872158
63	0x3e445368	0.19172442

gat_layers.1.att_dst f4 [1, 4, 16]
0	0x3e0da489	0.13832296
1	0xbe99407c	-0.2993201
2	0x3e9ba49b	0.30399022
3	0x3f09ce8c	0.5383079
4	0x3e3ed2cc	0.186351
5	0xbed2b16e	-0.41150993
6	0x3ef0c1ac	0.4702276
7	0x3ec9a295	0.39381853
8	0x3e8a0a39	0.26960924
9	0x3efe38ac	0.49652612
10	0xbe274437	-0.16334616
11	0x3e709eb9	0.23498048
12	0x3ea18ce1	0.31552795
13	0xbe81bfbe	-0.253416
14	0x3df8a74f	0.121412866
15	0x3e080099	0.13281478
16	0x3cc3be56	0.02389447
17	0x3e5dec72	0.21672228
18	0xbd8f0c68	-0.06984788
19	0xbee06490	-0.43826723
20	0xbe941be1	-0.2892752
21	0x3db80b81	0.08986569
22	0xbf0a9d45	-0.54146224
23	0xbf09ba10	-0.53799534
24	0xbcd49510	-0.025949985
25	0x3e925e3e	0.28587526
26	0xbed7bde3	-0.4213706
27	0xbecb241a	-0.3967598
28	0x3c8c5231	0.017129036
29	0x3e03bb96	0.12864527
30	0xbcf07c51	-0.029356154
31	0x3e996df1	0.2996669
32	0x3d2b7b3a	0.041865565
33	0xbd6bfc79	-0.057613824
34	0xbebba330	-0.3664794
35	0x3d4ea754	0.050452545
36	0x3f0a023a	0.5390965
37	0x3e9ad910	0.3024373
38	0x3ef3d72f	0.4762511
39	0xbeaaa472	-0.33328587
40	0x3eaa16bf	0.3322048
41	0x3c15f62d	0.009152931
42	0x3d22faba	0.039789893
43	0xbefbf057	-0.49206802
44	0xbf07c3b2	-0.5303298
45	0x3dec36a9	0.11533863
46	0xbe531164	-0.20612103
47	0xbe3c315f	-0.18378209
48	0xbe14fe89	-0.14550222
49	0x3e507add	0.20359369
50	0x3ec3d321	0.38247016
51	0xbec244aa	-0.37943012
52	0x3e55bcd4	0.20872813
53	0x3de55fe6	0.11199932
54	0x3ebfffc3	0.37499818
55	0xbe8d5421	-0.27603248
56	0x3e0dd4a5	0.13850649
57	0xbd321655	-0.04347833
58	0xbe958cf0	-0.2920909
59	0xbd881114	-0.066438824
60	0xbe9f678b	-0.31133685
61	0xbeba915c	-0.36439025
62	0xbd153ed7	-0.036436882
63	0x3e0d1d4c	0.13780707

gat_layers.1.att_edge f4 [1, 4, 16]
0	0xbe8860d5	-0.26636377
1	0x3e919617	0.28434822
2	0xbe5dc26b	-0.21656196
3	0xbe9bffc2	-0.30468565
4	0x3c6f2755	0.01459678
5	0x3d3c22c2	0.045931585
6	0x3c3a4bca	0.011370609
7	0x3e873c70	0.26413298
8	0xbd9e7ed9	-0.07739038
9	0xbef7924e	-0.4835381
10	0xbef92292	-0.48659188
11	0xbdc6d4fa	-0.09708591
12	0xbeab6495	-0.33475175
13	0xbef0c27d	-0.47023383
14	0x3e37f5ab	0.17964809
15	0xbe40d14d	-0.18829842
16	0x3de02f3d	0.1094651
17	0x3d81f1b0	0.06344926
18	0xbb0e7ad3	-0.002174069
19	0x3ed404b4	0.41409838
20	0xbd0c0f34	-0.034194186
21	0xbeca8e78	-0.3956182
22	0xbee2b316	-0.44277257
23	0xbe9c08d9	-0.304755
24	0x3f06f3e0	0.52715874
25	0x3ea3300f	0.31872603
26	0xbba42e2b	-0.0050103865
27	0x3e45bda6	0.19310626
28	0x3dd16818	0.102249324
29	0xbe82029c	-0.25392616
30	0x3d521aeb	0.051295202
31	0x3d53363b	0.05156539
32	0xbdef952f	-0.116983764
33	0x3e4e29c7	0.20133124
34	0xbc9f6e02	-0.019461636
35	0xbda8fcc7	-0.082513385
36	0xbee16567	-0.44022676
37	0xbea5f8a8	-0.32416272
38	0xbec3bec4	-0.3823148
39	0xbf03ee9d	-0.5153597
40	0x3d39cdb0	0.045362175
41	0xbdf70efa	-0.120634034
42	0x3e008ccd	0.12553711
43	0xbe1471a9	-0.14496483
44	0x3ec0eba9	0.37679794
45	0x3ebcd080	0.36877823
46	0x3dc0f799	0.094222255
47	0xbdcec0d9	-0.100953765
48	0x3e969528	0.29410672
49	0xbeae8cd9	-0.34091833
50	0x3e839aac	0.25703943
51	0x3ef96b04	0.4871446
52	0xbe6ff228	-0.23432219
53	0x3ee8f9c3	0.45503053
54	0xbef7a590	-0.48368502
55	0xbe309d72	-0.1724756
56	0xbe9ff09f	-0.31238267
57	0xbe2713bf	-0.16316126
58	0xbf0b5ff2	-0.54443276
59	0xbef83b03	-0.48482522
60	0xbe82dabb	-0.25557503
61	0xbeade280	-0.33961868
62	0xbe7625c5	-0.24037845
63	0xbeb16dbd	-0.34654036

gat_layers.1.bias f4 [64]
0	0xbb9704a9	-0.00460871
1	0xbb87fff1	-0.0041503836
2	0xbb6ca7d2	-0.003611077
3	0xbb465c1c	-0.0030267304
4	0xbb9a6eee	-0.004712931
5	0xbb67f6dd	-0.0035394945
6	0xbb7bda2c	-0.00384296
7	0x3c057320	0.008145124
8	0xbb9b06a1	-0.004731015
9	0xbb12daec	-0.002240832
10	0xbb95cf5a	-0.0045718374
11	0xbb8f1cf8	-0.004367467
12	0xbb826c56	-0.0039802
13	0xbb9ac72b	-0.0047234497
14	0xbb4346d4	-0.0029796856
15	0xbb9c5624	-0.004771011
16	0x3c0f18de	0.008733956
17	0x3bed06ca	0.0072334753
18	0xbb843053	-0.004034081
19	0xbb8049e2	-0.0039150575
20	0xbb80ba64	-0.0039284695
21	0xbb7b820d	-0.0038377077
22	0xbb5f5945	-0.0034080308
23	0xbb9b5041	-0.0047397916
24	0x3bd1d074	0.0064030234
25	0xbb99eb24	-0.0046972204
26	0xbb9261ed	-0.00446724
27	0xbb938297	-0.0045016515
28	0xbb85c028	-0.0040817447
29	0xbb6cc518	-0.003612822
30	0xbb82c3e5	-0.0039906376
31	0xbb9d93a4	-0.00480886
32	0xbb5458f8	-0.0032401662
33	0x3bde27a0	0.006779626
34	0xbb82e7e8	-0.0039949305
35	0xbb6f9f92	-0.0036563617
36	0xbb83be44	-0.004020484
37	0xbb89c98d	-0.004204935
38	0x3bdea282	0.006794275
39	0x3bbe9dd9	0.0058171568
40	0xbb9898cd	-0.004656887
41	0x3b5a85ba	0.0033343867
42	0xbb81eecc	-0.0039652344
43	0xbb989b01	-0.00465715
44	0x3bec99eb	0.007220497
45	0xbb7b9632	-0.0038389084
46	0x3b6d5b93	0.0036217913
47	0xbb7d2dce	-0.0038632038
48	0xbb8fc0fd	-0.0043870197
49	0x3c0cc5e9	0.008592107
50	0xbb7ea758	-0.003885707
51	0xbb7feb08	-0.0039050002
52	0xbb6dfd2b	-0.003631423
53	0xbb8e6e31	-0.004346632
54	0x39aa527d	0.00032486385
55	0xbb6d6a3e	-0.0036226655
56	0x38403750	4.582788e-05
57	0xbb91d0c6	-0.0044499366
58	0x3b52f689	0.0032190403
59	0xbb81ff39	-0.0039671925
60	0xbb717f89	-0.0036849699
61	0x3bd50fa8	0.0065021105
62	0xbb6c81b9	-0.0036088063
63	0x3c0238e5	0.007948135

gat_layers.1.lin.weight f4 [64, 64]
0	0x3e479a26	0.19492397
1	0xbcd8506d	-0.026405538
2	0x3e15135a	0.14558163
3	0xbd9aed3c	-0.0756478
4	0xbdd96683	-0.10615256
5	0x3d8591bd	0.06521938
6	0xbe2db39f	-0.16963051
7	0x3d6e804f	0.058227833
8	0x3e05f6d0	0.13082433
9	0xbe524e36	-0.20537648
10	0xbc94e6d9	-0.018176483
11	0x3e34daa2	0.17661527
12	0xbdbdbd01	-0.09264565
13	0xbd7f4a39	-0.062326644
14	0x3d883ae4	0.066518575
15	0xbd48d060	-0.049026847
16	0x3d317e5f	0.043333407
17	0xbc3ba004	-0.011451725
18	0xbe5ea374	-0.2174204
19	0xbd6e8a27	-0.05823722
20	0x3db06722	0.08613421
21	0xbcf8a203	-0.03035069
22	0x3df17c38	0.11791271
23	0x3c16c6a5	0.009202634
24	0xbde1e0d9	-0.110292144
25	0xbe1677f2	-0.14694193
26	0xba9c02ab	-0.0011902651
27	0x3d108253	0.035280537
28	0xbe42ec2a	-0.19035402
29	0x3dc4dbca	0.09612234
30	0x3bea550b	0.007151251
31	0xbe523d7c	-0.20531267
32	0x3e393f13	0.18090467
33	0xbd1bb2f4	-0.03801246
34	0xbe3ce31b	-0.18446009
35	0x3e0ffa10	0.14060235
36	0xbcea6c70	-0.02861616
37	0xbbf6651b	-0.007519377
38	0x3db32343	0.0874696
39	0xbd8d2bd6	-0.06893127
40	0x3bef047e	0.0072942367
41	0x3ca20aeb	0.019780597
42	0x3c8eec32	0.017446611
43	0xbe3bd5b5	-0.18343242
44	0xbcfbd576	-0.030741435
45	0x3e4bb5dc	0.19893593
46	0x3df13b98	0.11778945
47	0xbd75fae7	-0.060053732
48	0x3c49ab0e	0.012308849
49	0x3c1d366a	0.009595493
50	0x3daa1c73	0.083062075
51	0xbcffb364	-0.03121347
52	0x3d8d76fe	0.069074616
53	0x3e07ddcb	0.13268201
54	0x3d6c061e	0.05762302
55	0x3e58cd4c	0.21172065
56	0xbe44a42a	-0.19203249
57	0x3d911fa6	0.070861146
58	0x3d42cb4f	0.04755717
59	0x3de84ee4	0.11343172
60	0xbded71b7	-0.11593955
61	0x3bc03ee9	0.0058668745
62	0xbe507854	-0.20358402
63	0x3e06a6f4	0.13149625
64	0xbd1cb50a	-0.03825859
65	0xbd31b4b9	-0.04338524
66	0xbd268903	-0.04065801
67	0x3da51c1b	0.08062001
68	0xbe03ff74	-0.12890416
69	0x3dacf96b	0.0844601
70	0xbe11cdc1	-0.14238645
71	0x3de0f7c5	0.10984758
72	0x3caf6d43	0.021414405
73	0x3d85fb43	0.06542065
74	0x3e285dd9	0.1644205
75	0x3dd2cef2	0.10293378
76	0xbdffb410	-0.12485516
77	0xbe420aad	-0.18949385
78	0x3d038416	0.03210839
79	0x3d4c4bc1	0.049876932
80	0x3c50285f	0.012704938
81	0x3dd85ad8	0.10564202
82	0x3d8f0de2	0.0698507
83	0x3e5dcd6a	0.2166039
84	0xbe2c1420	-0.16804552
85	0x3cc49169	0.023995118
86	0xbe5bf289	-0.21479239
87	0x3cb00d3c	0.021490686
88	0x3e558fa4	0.20855576
89	0x3e1696ec	0.1470601
90	0xbe3f0ea4	-0.18657929
91	0x3e5e946f	0.2173631
92	0xbe138426	-0.1440588
93	0x3dcd7a5c	0.10033104
94	0x3e02f485	0.1278859
95	0xbdced281	-0.10098744
96	0xbddb7865	-0.10716323
97	0xbdd5bf1c	-0.10436842
98	0x3e1f72c5	0.15571125
99	0x3d5e97f3	0.05434413
100	0xbda1b77c	-0.07896325
101	0xbe3f2ed8	-0.18670213
102	0x3d11fd0c	0.035641715
103	0xbe1fca85	-0.15604599
104	0x3d16d0eb	0.036820333
105	0x3d844296	0.06458013
106	0x3dfe2d53	0.12410989
107	0x3c0671ce	0.008205844
108	0xbe00e29e	-0.12586448
109	0xbe2e0cc6	-0.1699706
110	0xbe24f755	-0.16109975
111	0x3dd51d35	0.104059614
112	0x3e37699b	0.17911379
113	0xbdf647cf	-0.12025415
114	0x3e5eddd2	0.21764305
115	0x3d0bdfb8	0.0341489
116	0x3db9dca5	0.09075288
117	0x3e0105e9	0.12599911
118	0x3d8fc6ba	0.07020326
119	0xbe40ebe4	-0.18839985
120	0xbe0153a8	-0.12629569
121	0x3e53b381	0.20673944
122	0xbdc587ef	-0.09645068
123	0xbd6c5560	-0.057698607
124	0xbe127851	-0.1430371
125	0x3dfc7a67	0.12328034
126	0xbe278986	-0.16361055
127	0x3d2f3d81	0.042783264
128	0x3c2837af	0.010267182
129	0x3c3c0596	0.011475941
130	0x3d6d5b4b	0.057948392
131	0x3e4cc313	0.1999629
132	0x3d3e296b	0.046426218
133	0x3d946abf	0.07246923
134	0x3d89fe4b	0.06737956
135	0x3e5f01da	0.2177805
136	0xbdfbd019	-0.12295551
137	0x3d9eef82	0.07760526
138	0xbd6abd25	-0.05730929
139	0x3e342d56	0.1759542
140	0x3e4c4ca5	0.19951113
141	0xbdd54425	-0.10413388
142	0xbe24aa1e	-0.1608052
143	0x3d24960c	0.04018216
144	0x3e2c8b39	0.16849984
145	0x3e1ac0fb	0.15112679
146	0x3e462dc2	0.19353393
147	0xbe21f86a	-0.15817419
148	0x3dda2be1	0.106529005
149	0xbd9e2716	-0.07722299
150	0xbcc2a590	-0.023760587
151	0xbdd9fa60	-0.10643458
152	0x3e4b761d	0.19869275
153	0x3e1f58bf	0.15561198
154	0x3d6a31b2	0.0571763
155	0xbe5fa161	-0.21838905
156	0xbd84a9bb	-0.06477686
157	0x3de74634	0.11292687
158	0x3d7cf244	0.06175448
159	0x3dc93503	0.09824564
160	0x3cbf879d	0.023380095
161	0xbdc8dbf7	-0.0980758
162	0xbe5a5900	-0.21323013
163	0x3e59ace7	0.21257363
164	0x3d51548c	0.05110602
165	0xbc9891cf	-0.018624214
166	0x3e19cb7d	0.15019031
167	0x3e114f0c	0.1419031
168	0xbe0a2e65	-0.1349426
169	0x3da66732	0.08125152
170	0x3c766a1d	0.015039948
171	0xbe522cef	-0.20524953
172	0xbd9495f9	-0.072551675
173	0x3e4fad9e	0.20281073
174	0x3c7adc6e	0.015311344
175	0x3dbd434c	0.092413515
176	0x3daee0ba	0.08538957
177	0x3e24476d	0.16042872
178	0xbd88dda8	-0.066829026
179	0xbce91478	-0.028452143
180	0x3ca4a977	0.020100338
181	0xbce5bf6b	-0.028045377
182	0x3d25ec78	0.040508717
183	0x3dc86610	0.09785092
184	0x3e310a12	0.17288998
185	0x3d92a232	0.071598426
186	0xbe22ce8a	-0.15899101
187	0x3e0788d3	0.13235788
188	0xbdb8eaea	-0.09029181
189	0x3d68b31d	0.05681144
190	0xbd22c8f3	-0.03974242
191	0xbe2e0add	-0.16996332
192	0xbdde8bc6	-0.108665034
193	0x3d62f28c	0.055407092
194	0x3e31955e	0.17342135
195	0xbc28fc7a	-0.010314101
196	0xbdb51b68	-0.08843118
197	0x3e2969c3	0.16544251
198	0x3d15fec6	0.036619924
199	0x3e3db643	0.18526559
200	0x3e599f71	0.21252228
201	0xbd0b8a62	-0.03406752
202	0x3de62493	0.11237445
203	0xbd238388	-0.03992036
204	0x3d3ec266	0.04657211
205	0x3e36372b	0.17794482
206	0x3da869c2	0.08223297
207	0xbe598266	-0.2124115
208	0x3d849aab	0.06474813
209	0x3df49501	0.11942483
210	0xbdcfdd94	-0.101496845
211	0x3dcfa397	0.10138624
212	0xbc9e42af	-0.019318907
213	0x3e3e7ac8	0.18601525
214	0xbc905521	-0.017618718
215	0xbe3cc3ac	-0.18434018
216	0xbda0906e	-0.07840048
217	0x3db91a82	0.09038259
218	0x3c474c9f	0.012164264
219	0x3dbda616	0.09260194
220	0xbe2ffe47	-0.17186843
221	0x3e5886cb	0.2114517
222	0x3e1ba84c	0.15200919
223	0xbc9a908c	-0.018867753
224	0xbdce1753	-0.100630425
225	0xbde32649	-0.11091287
226	0x3d3cdf4a	0.046111383
227	0x3e3d5348	0.184888
228	0x3e2ca984	0.1686154
229	0xbcb19969	-0.021679597
230	0x3bce61a7	0.006298262
231	0xbe5c1c5b	-0.21495192
232	0xbe0eb875	-0.13937552
233	0x3e205c0d	0.15660115
234	0x3e3b3d0c	0.18285006
235	0x3e3d8445	0.18507488
236	0xbd47fe5e	-0.048826568
237	0x3dbc387b	0.0919046
238	0x3e2c0c7c	0.16801637
239	0x3e35a84a	0.17739978
240	0x3e2f43de	0.17115733
241	0x3e514cb4	0.20439416
242	0x3d991a35	0.07475702
243	0x3e4c235f	0.19935368
244	0xbd274ef3	-0.040846776
245	0xbe5551c7	-0.20831977
246	0x3d952bc0	0.07283735
247	0x3e3fc367	0.18726884
248	0x3e11e193	0.14246206
249	0x3e03305b	0.12811415
250	0xbe60ee30	-0.21965861
251	0x3de89aed	0.11357675
252	0xbc4796be	-0.012181936
253	0xbe491761	-0.19637825
254	0xbd6454f7	-0.05574509
255	0x3da0bfa6	0.07849054
