models/best_fraud_model_seed_666.pth (torch, 378192 bytes, 45 tensors)

node_emb.weight f4 [64, 8]
000000 af de ad bc 69 9d 8a 3e f8 1d 81 be 5e a0 75 be
       -0.021224348 0.2707322 -0.25218177 -0.23986956
000010 a8 3b fb bd 9e 91 0d bd d2 6a 86 3e 82 8c 6f 3e
       -0.12267238 -0.0345627 0.26253372 0.23393443
000020 dc 9f 9d be 7c 0d 21 bd d2 f4 89 be e7 b5 dc bd
       -0.30786026 -0.0393195 -0.26944596 -0.107768826
000030 bf 62 fe 3b aa 09 b6 bd 5b cd a6 be d0 9c 3c 3e
       0.0077632363 -0.08888562 -0.3257855 0.18419194
000040 56 b6 da bd 4b 18 f2 3d e8 db 89 bd 1a 8c 80 bd
       -0.10679309 0.1182104 -0.06731397 -0.06276722
000050 41 27 06 3e f4 d0 10 3e 75 95 07 3e be 7d 08 3e
       0.13100912 0.1414221 0.13240607 0.13329217
000060 7b 63 82 3e 8f e7 5e 3e 4a 7e d1 bc 53 ae eb 3d
       0.25466523 0.2176802 -0.025572915 0.11507859
000070 d9 f2 52 bd 20 3f 7f be 42 10 5a be 65 4d 5a bd
       -0.05150113 -0.24926424 -0.21295264 -0.053296465
000080 6e 4d 78 bd 46 aa 81 be 58 93 aa be 49 d1 a5 3e
       -0.060620718 -0.2532522 -0.3331554 0.32386234
000090 c4 51 b0 be d9 52 2d 3d 4d 6f 85 be 60 a0 4e 3d
       -0.34437382 0.042315338 -0.26061478 0.050445914
0000a0 b1 08 97 3e d8 2c 1d 3e 99 db b0 bd 2a d8 89 be
       0.2949882 0.15349138 -0.08635635 -0.26922733
0000b0 fc ee 42 3d 11 a2 55 3e 94 e7 01 3e fa ba 1a 3e
       0.047591195 0.20862605 0.12685996 0.15110388
0000c0 e3 b5 78 bd 2d 78 68 be cf 70 6d 3d 96 be 24 3e
       -0.060720336 -0.22702093 0.05796891 0.16088328
0000d0 80 46 13 be 40 56 d3 bd db 20 1a be fe d7 64 be
       -0.14382362 -0.10319185 -0.15051596 -0.2234802
0000e0 42 b2 80 be 8f 08 87 be ed 99 be 3d 3d f0 59 3e
       -0.25136 -0.26373717 0.09306703 0.2128305
0000f0 ae f6 69 3e 92 fc b3 be 86 3c 88 bd fd 02 b5 be
       0.22848007 -0.35153633 -0.06652169 -0.35353842
000100 03 3d b9 bc b7 96 38 be 8d 33 84 3d 8c 92 d3 bc
       -0.0226121 -0.18026243 0.06455145 -0.025826715
000110 79 34 40 be 98 c9 0c 3e df d5 c5 bd 64 50 83 be
       -0.18770017 0.13748777 -0.09659933 -0.2564727
000120 42 e3 ad bd 6d 03 2f 3d 6e bc 16 be c0 47 a4 be
       -0.084906116 0.042727876 -0.14720318 -0.3208599
000130 6d 65 ac 3e d1 ab 68 3e 98 f8 2c be 3c ea 8f be
       0.33671132 0.22721793 -0.16891706 -0.28108394
000140 0c f2 ac 3e 86 e4 0a be d6 41 8a be 29 a9 74 3d
       0.33778417 -0.13563737 -0.27003354 0.059731636
000150 b5 9f 84 be d5 fd 64 3e 11 5e 32 3e eb 36 73 be
       -0.25903097 0.22362454 0.17418696 -0.23751418
000160 34 0e 13 3e 25 78 8f be bb 6f 87 3e a4 3c dc bd
       0.14360887 -0.2802135 0.2645243 -0.10753754
000170 ea 48 8e 3e 3d 4e 56 3e c2 f8 f0 bd 7c e7 8a 3c
       0.27790004 0.20928283 -0.11766197 0.016956083
000180 95 d3 b0 bd 27 99 70 be 74 2b 3f be 64 74 cb 3d
       -0.08634106 -0.23495923 -0.1866892 0.09934309
000190 9d 66 7a be c4 86 3f be c1 87 92 bd ce c8 34 3e
       -0.24453206 -0.18703753 -0.07154799 0.17654726
0001a0 f1 c0 57 3d 5a 54 6f be f2 10 90 be 38 a9 a4 3e
       0.052674238 -0.23372021 -0.28137928 0.32160354
0001b0 0e 1f a8 3e bb 97 96 be 43 bb 0a bd c0 ad a8 be
       0.32836193 -0.29412636 -0.033869993 -0.3294506
0001c0 3a 88 2d 3d f1 60 81 be 63 ca b3 3d 99 1f 28 be
       0.042366244 -0.25269273 0.087788366 -0.16418304
0001d0 f8 21 1b be 00 2f 66 bd 21 64 91 bd bd 33 9e 3e
       -0.15149677 -0.056197166 -0.07099176 0.30898848
0001e0 fb 89 01 bc 54 65 b2 3b b8 ae a0 bd 3b ba a4 be
       -0.007906432 0.005444208 -0.07845825 -0.32173333
0001f0 c2 44 a1 be 30 f9 de bd a4 4e ad be 46 5f aa 3c
       -0.3149777 -0.108873725 -0.3384906 0.020797383
000200 f5 c2 68 3e de ac 95 bb 13 37 64 be 3f b9 5a 3e
       0.2273062 -0.0045677265 -0.22286634 0.21359728
000210 48 19 36 bb ce 2f 82 3e e0 34 ba 3d 06 9c 5f 3e
       -0.0027786065 0.25427097 0.09092116 0.21836862
000220 88 69 0e bd 64 76 18 be bc 1c 8b 3d 3b 34 ed bd
       -0.03476861 -0.14888912 0.0679259 -0.11582228
000230 82 f8 36 3e 09 e6 9c 3e cb a4 51 3d c1 fd 98 3e
       0.17868236 0.30644253 0.05118255 0.298811
000240 ac 49 14 3e 60 f7 3a be 2e 23 10 3c e8 e9 8c 3e
       0.14481229 -0.18258429 0.00879745 0.27522206
000250 27 99 1f 3e 9a 0a 9a be 64 8d 19 be 6c 1b 4c bd
       0.15585767 -0.30086213 -0.14995342 -0.04983084
000260 df d5 6c 3e d9 09 99 3e d7 27 03 3e 3b 40 7b be
       0.2312846 0.29890326 0.12808166 -0.2453622
000270 64 1f 35 3d fc 31 57 be d2 01 54 3e 96 1e 52 bd
       0.04421939 -0.21015161 0.2070382 -0.0512987
000280 a4 2c 17 be cd e6 23 3c bd c4 7e bd 5e 14 91 be
       -0.14763123 0.010003758 -0.062199343 -0.2833585
000290 31 a0 34 3e b2 5a 1a 3e 62 67 92 3d fd bb 1c 3e
       0.17639233 0.1507366 0.07148625 0.15306087
0002a0 b3 35 da 3d 63 99 36 bd 58 fc 8e 3e ca e1 ce bc
       0.106547736 -0.044579875 0.27926898 -0.025254149
0002b0 47 75 71 3e 73 9a 4c 3e 8f f4 a3 be 28 cf 9a 3d
       0.23579894 0.19980793 -0.3202252 0.07559043
0002c0 3a 0f 41 3e 98 91 4e 3e 19 d7 82 3d 58 3f a9 3e
       0.18853465 0.20172727 0.06388683 0.3305614
0002d0 49 1e 03 be 08 95 9a 3e e6 12 a8 be 10 43 0b be
       -0.12804522 0.30191827 -0.32826918 -0.13599801
0002e0 4a 50 55 be a5 12 86 bc c6 1e 33 3e 09 03 25 3e
       -0.20831409 -0.016366312 0.17492208 0.16114439
0002f0 f8 a2 3e be e1 9d 0e 3d 77 fa 25 3e 7b 80 81 3e
       -0.18616855 0.034818534 0.16208826 0.25293335
000300 f1 8e 96 3e a6 b4 13 3d c3 0f 95 be 17 d9 1a be
       0.2940593 0.03606095 -0.29113588 -0.15121876
000310 5c ea ae 3d cc bf 2c 3e ee fd 91 3e 04 c7 b2 bd
       0.08540794 0.1687004 0.28514045 -0.087293655
000320 31 0d a9 be 4d 38 3e be 46 4d 16 3e b5 4a b3 be
       -0.33017877 -0.18576165 0.14677915 -0.35017934
000330 c3 f8 a3 be 96 da 7a 3d a0 37 16 be d4 5e a2 3e
       -0.32025728 0.061243616 -0.14669657 0.31712973
000340 d0 04 89 3e d2 bc b1 bd ba b2 76 3e b3 a9 80 bd
       0.26761484 -0.08678593 0.24091616 -0.062823676
000350 2b 7e f9 bd e7 44 81 3e 9a 10 77 3e 30 7b 5f be
       -0.12182268 0.2524788 0.24127427 -0.21824336
000360 e3 9c b5 3d a0 f1 03 be 48 69 84 3e 2d c5 80 be
       0.088678144 -0.12885141 0.25861573 -0.25150433
000370 56 ab 33 be 09 50 1e 3e 7f d5 84 3e 34 c0 93 bd
       -0.17545828 0.15460218 0.25944135 -0.07214394
000380 5e 82 b3 be 0c 44 8e 3e b7 b5 4b be db 52 00 be
       -0.350604 0.2778629 -0.19893537 -0.12531607
000390 9b 43 a1 be 62 8f df 3d f0 00 3c 3e f9 d1 60 be
       -0.3149689 0.1091602 0.18359733 -0.21955098
0003a0 ef a5 97 3e 88 e3 6d 3e f1 dc 1e 3e a1 05 9f be
       0.29618785 0.23231328 0.1551397 -0.31058982
0003b0 e8 11 b5 3e 77 2b f7 bd 04 45 4e bd 2e 75 a6 be
       0.35365224 -0.12068837 -0.050358787 -0.32511276
0003c0 6f 20 3e be 22 32 94 be 7e 6b ae 3e e0 21 a2 be
       -0.1856706 -0.28944498 0.34066385 -0.3166647
0003d0 47 3a 92 bd 7c 26 a0 be f7 94 b4 3d 24 07 14 be
       -0.07140022 -0.3127936 0.08817475 -0.14455849
0003e0 57 5d af be 90 18 96 3e 5a 69 3b be 2c 52 17 bc
       -0.342509 0.29315615 -0.18301907 -0.0092359
0003f0 ff 54 f7 3d 1b 79 68 be e1 fd c8 3d 12 9c 92 3c
       0.120767586 -0.22702448 0.098140486 0.017896686

node_emb.bias f4 [64]
000000 b2 61 b6 bd d6 73 8f 3e cc 9a 83 be cd ed a5 3e
       -0.08905353 0.28018063 -0.25704038 0.3240799
000010 47 12 38 3e 55 3f 17 bd c9 8e a9 3e a5 f7 8d 3e
       0.17975722 -0.036925633 0.3311675 0.27728
000020 f6 b7 12 be 1b 9d 86 3e 6a 06 ab be 23 e1 4e be
       -0.14327988 0.26291737 -0.3340333 -0.2020307
000030 45 50 70 be 32 e4 18 be 2f 3c 99 be 10 b8 6d 3e
       -0.2346812 -0.149308 -0.2992873 0.23214746
000040 b9 e9 7c 3d 17 d9 8e be b3 48 a9 3e b7 f7 19 3d
       0.061746333 -0.279 0.33063278 0.037589755
000050 2c 97 be 3d 3f f5 81 be d9 a8 d8 bd fe 7d 94 3e
       0.093061775 -0.2538242 -0.1057908 0.29002374
000060 af 54 b4 3e fb 2e 33 3b cf 86 88 3e c9 40 15 3e
       0.35220858 0.0027341235 0.2666535 0.14575495
000070 05 6d 51 be de 61 76 bd 7b b1 a3 3d cd ae 3b 3e
       -0.20451744 -0.060151927 0.07992836 0.183284
000080 df c6 64 3d 57 34 cb 3d c3 0b ae 3d 4c 29 10 be
       0.05585372 0.099220924 0.08498337 -0.14078254
000090 54 67 26 3e c0 1b 39 3e 39 36 89 3c 23 a0 10 3e
       0.16250354 0.18076992 0.016749488 0.14123587
0000a0 cd cc a3 bd e4 46 a6 be d0 ab 82 be 16 28 36 3e
       -0.07998047 -0.3247596 -0.25521708 0.17788729
0000b0 37 12 ef 3d f4 ab 84 3e 3f 00 76 bd 96 2b ae be
       0.11673396 0.2591244 -0.06005883 -0.34017628
0000c0 d5 f8 4c be 8a 5d 32 be 0c 05 44 be 5a 47 b8 bd
       -0.20016797 -0.17418495 -0.1914255 -0.08997984
0000d0 21 37 ba 3d 3f 27 a6 be 28 d2 9c be 45 be 94 be
       0.09092546 -0.32451817 -0.30629086 -0.29051414
0000e0 a7 56 28 be c2 67 04 3e 52 4e 7d 3e b5 24 39 be
       -0.16439305 0.12930205 0.24736908 -0.18080409
0000f0 4c 23 fc 3d c7 11 bb bd 3c f4 8c 3e 9f f5 0d 3e
       0.1231142 -0.0913425 0.27530086 0.13863228

edge_emb.weight f4 [64, 2]
000000 e6 e1 73 3e 16 22 e2 be 87 74 0f bf 58 dd 36 be
       0.23816642 -0.4416663 -0.5603718 -0.17857873
000010 35 e4 62 3e b6 67 13 3f d2 c1 04 bf 09 18 e8 3e
       0.22157367 0.57580125 -0.51858246 0.45330837
000020 67 ca 00 3f 61 fc 28 bf 1b 05 27 bf c9 e9 d6 3e
       0.5030884 -0.660101 -0.65242165 0.4197524
000030 ff 48 55 3d 24 f4 b9 bc fa 71 c3 be 17 02 05 3f
       0.052071568 -0.022699423 -0.38172895 0.51956314
000040 8f 94 a6 be 12 da 98 be 3d df 5d be dd f0 24 3e
       -0.32535216 -0.29853874 -0.2166719 0.16107507
000050 66 b2 bf 3e df 80 56 3e 9e 64 ec bd 95 01 e5 3e
       0.37440795 0.20947598 -0.11542629 0.4472777
000060 55 ad 29 3e de b0 6c 3e 58 7b 86 3e dd af 8f 3c
       0.16570027 0.23114344 0.2626598 0.017539913
000070 51 92 27 bf ad d8 35 3f 42 3d ef 3e 55 da 0b 3f
       -0.65457636 0.71033746 0.46726424 0.54630023
000080 16 d9 0f bf 13 9b b1 be 49 a8 32 3e 9d 94 14 be
       -0.5619062 -0.34688625 0.17447008 -0.14509816
000090 3e fc 0d bf 70 02 10 bf bf 13 df be c6 14 14 bf
       -0.55463016 -0.5625372 -0.43569753 -0.578442
0000a0 6f 97 a3 3e ec 80 f4 3e a0 f3 12 3f 2a 68 c4 3e
       0.31951472 0.4775461 0.5740299 0.3836072
0000b0 3b 5a 4b 3e b3 d6 ef 3e ec 2f 57 3e 63 77 a1 3e
       0.19858639 0.4684349 0.21014374 0.31536397
0000c0 88 ab e3 3e ab ec d5 3e 9e e6 56 be b0 dd 9b be
       0.44466805 0.41782126 -0.20986411 -0.30442572
0000d0 1f 40 54 bd 3f f9 06 3f e8 e7 7b be 6c c5 5d 3e
       -0.051818963 0.5272407 -0.24600184 0.21657342
0000e0 b1 63 90 3c 95 06 11 3f 1e 1a 9b 3e 97 92 ec be
       0.017625662 0.5665067 0.30293363 -0.4620559
0000f0 46 c5 37 3e fe 09 1b bf 55 3c cf be a9 20 03 3e
       0.17946348 -0.6056212 -0.40475717 0.12805428
000100 f6 f0 26 3e 3a 6b 5d 3e 8d 1b 95 be dd 46 28 be
       0.16302857 0.21622935 -0.29122582 -0.16433282
000110 68 36 2b 3f 36 6c 09 bf e3 4d c3 bc fd 4a 8f 3e
       0.6687989 -0.5368074 -0.02384085 0.279869
000120 1c c8 5d be c9 5b d8 be c4 46 58 3d 3e 4a 12 3f
       -0.21658367 -0.42257527 0.052801862 0.57144535
000130 2e 49 bb 3a ed e4 82 3e 96 dc cd be 20 c8 a1 be
       0.0014288777 0.25565282 -0.40207356 -0.31597996
000140 09 64 fc 3e f7 f4 82 bc ee c7 03 bf 65 df 21 3d
       0.4929507 -0.015985949 -0.51476943 0.039519686
000150 60 a8 dc 3e 67 4f fa bd bd 5b 82 be 92 9b d8 be
       0.4309721 -0.12222176 -0.25460616 -0.4230619
000160 7a 4d 17 3f b0 2c 43 3e 73 e1 b9 3e 89 85 24 3e
       0.59102595 0.19060016 0.36304817 0.16066565
000170 34 3b 15 3f d2 6e f0 3e 79 3a 20 3f c2 8c 24 bf
       0.5829346 0.4695955 0.6258922 -0.6427728
000180 04 93 27 bf 75 bc a3 3e 43 20 30 3f 39 2e ec be
       -0.65458703 0.3197972 0.6879923 -0.46129015
000190 c3 13 01 bd d7 1a cf be 30 76 ff bc b9 80 25 3e
       -0.031512987 -0.40450165 -0.031184286 0.16162385
0001a0 b5 27 23 3e 68 64 e6 3e 89 0f 11 3e 90 47 f7 3d
       0.15933116 0.4499848 0.14166082 0.12074196
0001b0 6d 60 f2 3e 7e d9 14 3f 93 e4 92 be 07 60 59 3e
       0.47339192 0.58144367 -0.28690013 0.21228038
0001c0 da b4 02 3f 49 d1 a6 3e bc 55 26 bf 54 19 b7 3e
       0.5105721 0.32581547 -0.6497457 0.3576151
0001d0 15 4b 86 be ed 64 a0 3e d2 c0 f4 3e 33 1a 34 bf
       -0.26229158 0.31327 0.4780336 -0.70352477
0001e0 5a 0a 08 bf 75 d0 92 be 41 b5 cb bd 5b 1a 00 3f
       -0.53140795 -0.28674665 -0.09946681 0.50040215
0001f0 b4 3f bd be 54 5b 98 bd 07 45 28 bf 99 7c 94 be
       -0.36962664 -0.074392945 -0.6573033 -0.2900131

edge_emb.bias f4 [64]
000000 a0 72 3f be 0a c8 7d be 5d ca 05 3f 9b c0 1f 3e
       -0.1869607 -0.2478334 0.52261907 0.15600817
000010 2f 08 47 3d b4 22 fb 3d 53 76 3e 3e da 23 f7 3e
       0.04859179 0.122624785 0.18599825 0.4826954
000020 8e 1a d1 3e 04 b2 d1 3e c2 04 21 bf 62 dc 77 be
       0.40840572 0.40956128 -0.62897885 -0.24205163
000030 14 38 25 bf e5 98 df 3e e6 d3 ac ba 91 c0 7b 3d
       -0.64538693 0.43671337 -0.0013185709 0.061462943
000040 d4 57 04 3f 08 1e 1e bf cd 2d a8 3d 11 2b 9a 3d
       0.51696515 -0.61764574 0.08211861 0.075277455
000050 e1 13 85 3e 20 55 7b 3e a4 08 6a be 04 fa 18 3f
       0.2599173 0.24544191 -0.22854859 0.59756494
000060 97 41 1b 3e 78 e9 96 3e f1 32 25 bf 70 47 07 bf
       0.1516174 0.29474998 -0.64530855 -0.5284338
000070 45 94 bd 3e 82 e9 70 bc 9c bb e1 bb 59 26 52 3d
       0.37027183 -0.01470411 -0.00688882 0.051306102
000080 66 66 2b 3e 59 d6 2d 3e f9 ac 26 3e a3 fe 85 3e
       0.1673828 0.16976298 0.16276921 0.26170835
000090 42 a1 14 3f 21 9e 23 bf 91 51 65 3d b5 b2 26 3f
       0.5805856 -0.6391316 0.05598599 0.65116435
0000a0 c6 91 e6 3e 99 94 f5 bd bd ef b6 3e 35 9c de be
       0.4503309 -0.119912334 0.3572978 -0.43478552
0000b0 bd 4a 0f 3f c1 c5 e2 bd 3a 30 e6 bd 8f 27 7d be
       0.55973417 -0.11072875 -0.11239667 -0.24722122
0000c0 f8 d1 fd 3e 69 77 07 be 5c 67 29 be cd e3 81 be
       0.49574256 -0.13229145 -0.16543335 -0.2536911
0000d0 ee 11 1b 3f fc af 17 3f 66 32 37 3d bd 0b d0 be
       0.60574234 0.59252906 0.044725798 -0.40633956
0000e0 f3 1b 26 3f 39 2c 01 bf 92 24 c2 be 62 a4 03 bf
       0.648864 -0.50458103 -0.37918526 -0.51422703
0000f0 2c 7f 05 bf be ad 20 3e c7 1b fd 3d d8 1c 17 3e
       -0.52147174 0.15691277 0.12358814 0.14757097

gat_layers.0.att_src f4 [1, 4, 16]
000000 13 62 f0 bd d9 54 d2 3d 9a d5 01 3d fa 61 7f be
       -0.11737456 0.1027009 0.031697847 -0.24939719
000010 06 89 2c 3d 81 29 b3 3d 80 26 aa 3e 4e 38 06 bf
       0.042122863 0.087481506 0.33232498 -0.52429664
000020 1d d6 8c 3e 14 91 9b 3e c1 ef 02 3f 90 03 de 3e
       0.27507105 0.30384123 0.51147085 0.43362093
000030 cb 8f fd bd 9f a6 80 3e bb fd 9d be d9 6e fc 3e
       -0.12380942 0.25127122 -0.30857643 0.4930332
000040 fd 28 b6 3e 54 eb dd 3c 79 d4 00 3f d0 62 e1 be
       0.35578147 0.027089752 0.5032421 -0.440207
000050 35 94 da 3e 2a dd cc 3d d7 e6 8d bd a8 7f dc 3e
       0.42691198 0.10003121 -0.06928795 0.43066144
000060 62 29 e1 bc 7c c9 aa 3d 27 0c bc 3e 29 23 a8 3e
       -0.027485553 0.08339211 0.36728022 0.32839325
000070 b4 0a f9 be 3f 26 87 be 9c 2e 63 be c0 cc 9c 3c
       -0.48640978 -0.26396367 -0.22185749 0.019140601
000080 55 47 3a be f6 73 8d bd 39 47 6c 3c 35 90 e6 3e
       -0.18191274 -0.069068834 0.014421278 0.45031896
000090 b9 2d 03 3e db 88 7e 3d 69 27 48 3b 61 d3 d2 3e
       0.1281041 0.062142234 0.0030541068 0.41176894
0000a0 f8 3a 20 3e 3b 10 45 be d0 bd 08 3f 61 3d fb be
       0.15647495 -0.19244473 0.5341463 -0.49070266
0000b0 ff 19 09 3f 3c 2f 8b 3e d6 e1 e8 3e c1 85 7b 3e
       0.5355529 0.27184474 0.454848 0.24562742
0000c0 5a 93 f9 be 94 2b 84 bd 9f e0 fe be c9 45 2a bb
       -0.48745233 -0.06453624 -0.49780747 -0.0025981537
0000d0 30 5b 5f 3e 0b c5 b5 3e a9 e3 ee 3e 82 20 05 bf
       0.21812129 0.35501894 0.46658066 -0.5200273
0000e0 84 3d 02 be 01 1f 75 3e 73 d1 01 bf 32 7e 0c bf
       -0.12718779 0.23937608 -0.5071022 -0.5488006
0000f0 49 bb 97 be 07 eb e6 be 75 b0 6e 3e aa 5c 80 3e
       -0.29635075 -0.45101187 0.233095 0.25070697

gat_layers.0.att_dst f4 [1, 4, 16]
000000 3f 22 dd 3e 97 49 10 3e 0c fd 79 bc 5e 50 09 3f
       0.4319019 0.14090572 -0.015258085 0.53638256
000010 2c 43 09 3f 83 e8 17 be a3 4b f9 bd 48 3b f5 3e
       0.5361812 -0.1483479 -0.1217263 0.4789679
000020 47 87 ac 3e 4d ca c6 be 7d ff a1 3d 03 0e 38 be
       0.33696958 -0.38826218 0.07910059 -0.17974095
000030 ab 27 c0 be 80 ce 02 3f 2b 89 34 3e 4a 9b fd 3d
       -0.37530264 0.51096344 0.1763045 0.12383135
000040 bc de d1 3c 16 02 ce 3e 20 88 0a bf 23 35 c5 3d
       0.025618903 0.40235966 -0.5411396 0.09629276
000050 76 cc 8e be 3a b6 57 be 4a 8a 4a be 89 ad 23 3d
       -0.27890366 -0.21065608 -0.19779316 0.039960418
000060 ce c2 92 3e 38 a0 f9 3e 94 07 a6 be 18 39 09 3f
       0.2866425 0.4875505 -0.32427657 0.53602743
000070 c9 59 ad be 7c 47 92 bd 5e 82 81 be ba ec 77 3e
       -0.33857563 -0.07142541 -0.25294775 0.24211398
000080 2c 34 91 3e a9 4f 36 3e 83 ad e8 be af 4f 0a bf
       0.28360116 0.17803825 -0.4544488 -0.5402784
000090 c0 02 80 3e 42 21 06 bf 41 ac 13 3d 8d 7a e8 be
       0.25002098 -0.523945 0.036052946 -0.45406
0000a0 89 b2 97 bc b4 f9 ed bd 37 40 a7 3e 93 46 9e be
       -0.01851775 -0.11619893 0.3266618 -0.3091322
0000b0 02 6f 54 bc 5e d0 d4 3d b7 19 33 3e 79 81 11 3d
       -0.012965919 0.103913054 0.17490278 0.035523865
0000c0 3e 41 8a be 78 01 88 3e ab 22 4d 3d 11 96 04 3f
       -0.270029 0.2656362 0.05008189 0.51791483
0000d0 29 fd d2 3e 8b 87 5e be 09 e1 a8 3e c5 04 7a be
       0.4120877 -0.21731393 0.32984188 -0.24415882
0000e0 7d 8c 09 be a6 4c 06 3f 25 69 09 bf a7 da c2 3e
       -0.13432498 0.52460706 -0.5367606 0.38057443
0000f0 f9 26 83 3e 13 36 6d be d3 f9 63 3e 67 45 76 3e
       0.2561567 -0.23165159 0.22263269 0.24049912

gat_layers.0.att_edge f4 [1, 4, 16]
000000 2f 0b 9e 3e 7b 05 c3 3e f4 9f b3 3e 3a 03 d9 3e
       0.30867907 0.3809012 0.35082972 0.42385274
000010 54 7c 6c 3d ba 8c fa 3e bd 30 b0 3e b2 9c 9f 3e
       0.057735756 0.4893549 0.34412184 0.31174237
000020 1e d1 96 be a1 d6 b3 bc 87 9b 9c 3e 44 ee 0a bf
       -0.2945642 -0.021952929 0.30587408 -0.54269814
000030 62 e6 56 be 1d ff f4 3e 06 62 9e be 7f b6 8c be
       -0.20986322 0.47850886 -0.3093416 -0.27482983
000040 5d ff ff 3d 7f 55 ed 3e 93 47 c2 3c a4 50 a3 3e
       0.124998786 0.4635429 0.02371577 0.3189746
000050 30 11 a8 be c3 5c f6 3e 77 82 9a 3e 46 b8 35 be
       -0.32825613 0.48117647 0.30177662 -0.17746076
000060 0f f1 89 be 05 01 9b bd 2f f1 72 3e c3 cd 91 39
       -0.26941726 -0.07568554 0.23724817 0.0002780986
000070 71 01 8f 3d cb c3 92 3e 88 d7 8f be 2c 40 9a be
       0.06982697 0.28665003 -0.28094125 -0.30127084
000080 20 6d 2c be f1 a9 7b be fe 38 09 bf a1 3d f7 3e
       -0.16838503 -0.24576546 -0.5360259 0.48289207
000090 fc 1e 03 bf b4 f9 84 3e b1 e7 00 3f f2 ff 04 3d
       -0.51219153 0.25971758 0.50353533 0.03247065
0000a0 68 f7 d4 3e a6 e1 ae bd e8 c3 25 3d 15 ac c2 3e
       0.41595006 -0.08539133 0.040470034 0.38021913
0000b0 15 2c 0d 3e c1 f5 10 3e 1b 6c 6d 3e 8c 37 f8 3e
       0.13786347 0.14156248 0.2318577 0.4847988
0000c0 60 49 9d be 2b 39 d3 3e 05 c4 01 3e a8 a7 01 bf
       -0.30720043 0.41254553 0.12672432 -0.5064645
0000d0 9f 53 c7 3e db f4 fd 3e ec 9c bb be 8e 39 b3 3d
       0.38930985 0.49600872 -0.3664316 0.08751212
0000e0 9b c7 01 3f da f3 f7 3e c9 4a e8 be 43 07 2c be
       0.506952 0.4842823 -0.45369557 -0.16799645
0000f0 68 90 ca 3b fd cc e1 be ac 20 72 3d e0 79 37 3e
       0.0061817653 -0.44101706 0.05911319 0.17917585

gat_layers.0.bias f4 [64]
000000 d7 0f 93 bb 3c 47 92 bb 00 35 93 bb 28 a0 92 bb
       -0.0044879722 -0.004464058 -0.004492402 -0.0044746585
000010 5c 52 95 bb d7 af 93 bb b2 e8 91 bb c6 b2 8c bb
       -0.004556937 -0.0045070457 -0.0044527883 -0.0042937724
000020 68 a9 92 bb 4a 0b 94 bb ed 6e 93 bb fb de 92 bb
       -0.004475761 -0.0045179473 -0.0044993074 -0.0044821477
000030 1e f1 af 3a 38 0b ce 3b d6 b1 94 bb 61 ac 96 bb
       0.0013423299 0.0062879585 -0.0045378013 -0.004598186
000040 3f 14 93 bb 31 1b 92 bb b9 f1 91 bb b7 70 8f bb
       -0.0044884975 -0.004458808 -0.0044538644 -0.0043774503
000050 02 61 93 bb cf 12 92 bb 92 d7 91 bb 68 9b 93 bb
       -0.004497648 -0.0044578086 -0.004450747 -0.00450461
000060 32 ab e5 ba 3f 45 92 bb 91 15 92 bb c1 00 95 bb
       -0.0017522334 -0.004463821 -0.0044581373 -0.004547209
000070 de cf 93 bb 5e d3 82 3b d6 e8 91 bb 28 7d 94 bb
       -0.0045108637 0.003992482 -0.004452805 -0.0045315214
000080 2e 06 92 bb e3 be 92 bb 82 6b 91 bb d7 83 b5 3b
       -0.004456303 -0.004478322 -0.0044378648 0.005539398
000090 49 7a e3 3b d3 03 8e bb 3e 71 81 bb 68 f4 cd 3b
       0.0069420678 -0.004333952 -0.003950267 0.006285239
0000a0 88 b6 81 3b 4d 9b 95 bb 89 02 19 3b 90 26 88 bb
       0.003958527 -0.0045656324 0.0023347458 -0.0041549876
0000b0 e8 d3 8b 3b bc 68 c3 ba e9 17 91 ba 3b 4d 8a 3b
       0.0042672046 -0.0014908533 -0.0011069748 0.0042206324
0000c0 86 1f 87 bb 5b c5 93 bb 13 a5 95 bb 30 93 8d bb
       -0.004123631 -0.0045096106 -0.0045667975 -0.0043205246
0000d0 be 3f 93 bb 88 e3 b9 3b 9d 1d 8c bb 06 78 95 bb
       -0.0044936826 0.005672876 -0.004275991 -0.004561427
0000e0 93 d9 fb b9 55 59 93 bb b8 06 94 bb 8c 2f 95 bb
       -0.00048036556 -0.004496733 -0.0045174025 -0.004552787
0000f0 50 8c 94 bb 6d 47 92 bb 6a e7 ff 3b c3 e2 92 bb
       -0.004533328 -0.004464081 0.007809569 -0.0044825985

gat_layers.0.lin.weight f4 [64, 64]
000000 0d c6 1f be 76 82 8b 3d 13 c2 26 bc 99 1e 61 3d
       -0.15602894 0.06811993 -0.010178107 0.05496082
000010 3b 99 97 3d dc 5e b0 3d f3 bf 99 bd 2b 3a df bc
       0.07402273 0.08611843 -0.075073145 -0.027249416
000020 8a 1e 56 3e 18 ad 40 be 36 05 8d bd 12 e6 3d bc
       0.20910087 -0.1881603 -0.068857595 -0.011590498
000030 58 5c f8 3d 07 50 43 be 78 ba 02 3d 83 d5 5c 3e
       0.12126988 -0.19073497 0.03191611 0.21565823
000040 b5 2d 4b be e3 a4 1f 3d 96 b6 04 be 4a d5 3c 3e
       -0.19841655 0.038975608 -0.12960276 0.18440738
000050 d8 d6 32 be 80 46 20 be cb f0 c3 3d e5 8d d8 bd
       -0.17464769 -0.15651894 0.09567412 -0.10573939
000060 f8 6b 21 3d 5e a3 f7 bd ef db e5 bd a8 d3 02 3c
       0.039409608 -0.12091707 -0.1122359 0.007985033
000070 f9 c1 8c 3d d1 21 28 3e e2 11 d2 bb 9f 7a ec bd
       0.06872935 0.1641915 -0.006410823 -0.115468256
000080 3b eb cb 3d 10 19 0b 3e 2d cb e4 3c 5f 9e d4 3d
       0.09956976 0.1358378 0.027928913 0.103817694
000090 db 87 d9 bc 7e ed 2d 3e c1 87 3e bc ed 3e c4 3c
       -0.026554039 0.16985127 -0.011629046 0.023955787
0000a0 6b cc d7 3c 97 2e 88 bd 2e 1c 14 3d 5e 63 03 3e
       0.026342591 -0.06649511 0.036159687 0.12830874
0000b0 59 4d 28 3e b8 c2 53 3b c3 6e 0d be ef 66 50 be
       0.16435756 0.0032312106 -0.13811783 -0.20351766
0000c0 3d 9f 47 be 1f 6b e1 3d 24 f2 0a be fb 0e 21 3e
       -0.19494338 0.1100676 -0.13568932 0.15728371
0000d0 bb 5d 24 be 76 19 b0 bd c1 6b 04 be 1f 5c 06 be
       -0.1605138 -0.08598606 -0.1293173 -0.13121079
0000e0 c8 b4 45 bd 92 41 a7 3c ea e6 0c be 91 ea e6 3d
       -0.04826811 0.020417009 -0.13759962 0.11275209
0000f0 16 4a 04 3e f7 1b 48 3e a5 e8 b4 3d df 64 d7 3c
       0.12918887 0.19541918 0.08833436 0.026293216
000100 59 93 5e bd f9 a2 2c bd d7 65 0a be a9 52 37 3d
       -0.05433974 -0.04214761 -0.13515411 0.044756565
000110 1f a7 3c be d4 52 17 be d4 96 bb 3a 53 c3 9f 3d
       -0.18423127 -0.1477769 0.0014311918 0.07800927
000120 f0 03 88 bc 7e d9 e7 bd 21 89 e8 3d 38 2d 53 bd
       -0.01660344 -0.1132078 0.1135428 -0.051556796
000130 ec 11 6b bd 2c 66 f3 3d c5 5a 0f be 23 04 5b 3e
       -0.05739014 0.11884722 -0.1399947 0.21388297
000140 ab 21 ae bd d0 e3 13 bd f7 2c 1a 3d 5e 0a 29 be
       -0.085025154 -0.03610593 0.037640538 -0.16507861
000150 88 bc ec bd 8f 86 de 3d 20 4d 94 3d 95 2b 55 be
       -0.11559397 0.10865509 0.07241273 -0.20817406
000160 af 50 5c bc 4c 59 49 3e 13 43 b1 bc 1d 83 36 be
       -0.013446971 0.1966297 -0.021638429 -0.17823453
000170 a0 96 00 be b3 15 f2 bd d9 81 93 bc 76 e2 06 3e
       -0.12557459 -0.11820545 -0.018006252 0.13172325
000180 f0 bb 30 3e 5f 6a c2 3c 31 8f 47 bb c7 41 41 3e
       0.17259192 0.023732362 -0.003045034 0.18872748
000190 1b 6f 4d 3e 98 92 59 3e cf a4 f7 bc b0 c1 4c bc
       0.20061915 0.21247327 -0.030229954 -0.012497351
0001a0 92 33 b7 3d ed 2a 12 be 11 d4 17 be ae 2e 46 bc
       0.08945383 -0.14274187 -0.1482699 -0.01209609
0001b0 c6 e8 4c 3d 35 7c f7 bd 34 19 26 3e 82 59 85 3d
       0.050026678 -0.120842375 0.16220552 0.06511213
0001c0 db d3 34 be 9c fe 3e 3d 5b 3e a9 3d 4c b0 6c bd
       -0.17658941 0.046629533 0.082638465 -0.057785317
0001d0 b4 bb b8 3d d7 c3 35 3e 7e 33 3a 3e ec 3e 0c bd
       0.090201765 0.17750488 0.18183705 -0.034239694
0001e0 60 3e 54 3e 05 cf 41 be dc 5e 98 bd c7 94 5a 3e
       0.20726919 -0.18926628 -0.07439968 0.21345817
0001f0 40 f5 0c 3e 4a 95 19 be 35 f2 3d 3e 91 c3 92 bd
       0.1376543 -0.14998356 0.18549426 -0.071662076
000200 bb e9 24 3e 7c d6 a5 3b df 7b 2e bd 3f c8 49 be
       0.16104786 0.005060969 -0.0425986 -0.19705294
000210 9b ca 16 3e e4 06 6b bc 52 79 3c be 20 30 e3 bd
       0.14725725 -0.014344905 -0.18405655 -0.110931635
000220 57 3f 6d 3d 28 af 99 bd 70 8b 43 3e fc 45 b1 bd
       0.057921734 -0.075041115 0.1909616 -0.086559266
000230 77 8b db 3d 8a 78 45 3e 3b d1 6b bd 3c 4a 39 3e
       0.1071996 0.19284263 -0.057572585 0.18094724
000240 bc 7c d8 bc 52 24 59 3e 60 1f 03 3e 4c a5 ba 3d
       -0.026426665 0.21205261 0.12804937 0.09113559
000250 55 65 35 3e 58 e0 38 be d2 67 10 3e 8d 7d 50 be
       0.17714436 -0.1805433 0.14102104 -0.20360394
000260 07 ee 52 3e 05 19 19 be 0f 18 99 3d 1c 34 30 3e
       0.20598613 -0.1495095 0.07475292 0.17207378
000270 84 46 13 3e 5b e8 e7 3d 22 54 55 be 24 c4 c9 bd
       0.14382368 0.11323615 -0.20832875 -0.09851864
000280 62 35 2e be 69 2c 33 bd 1e 4f b0 bd cd 8c 55 be
       -0.17012551 -0.043743525 -0.086088404 -0.20854492
000290 91 39 98 3d 22 11 36 3e ea 3e df bd 36 dc db 3d
       0.07432855 0.17779973 -0.10900672 0.10735361
0002a0 e9 b3 1b bd cc 6a 51 3e 90 5e 4d 3e 39 f0 d8 3d
       -0.038013373 0.20450896 0.20055604 0.10592694
0002b0 9b 80 f2 bd 16 b2 17 bd 14 6c 85 bd 27 10 1a 3e
       -0.11840936 -0.03703507 -0.06514755 0.15045224
0002c0 70 c0 47 3d 51 fc f5 3d f6 3d 0c 3e 93 f9 91 3c
       0.048767507 0.12011016 0.13695511 0.017819202
0002d0 ed 12 e6 bc 2e 95 ec bc 60 64 aa bd f5 2a d5 3d
       -0.028085196 -0.028879728 -0.08319926 0.10408584
0002e0 3f bb 46 3e 45 cf 07 be a4 ec 4f be 77 13 bf 3d
       0.19407366 -0.13262661 -0.20305115 0.093298845
0002f0 64 2a cb bd 4d d2 49 be 13 56 4a be cd 65 eb 3d
       -0.09920195 -0.1970913 -0.19759397 0.11494026
000300 50 34 17 be 4d 70 20 3d 99 28 a3 3d c5 9b b2 bd
       -0.1476605 0.0391696 0.07966728 -0.08721117
000310 8d f8 56 be 08 69 ce bd 47 da 27 bd d4 5c 1a 3d
       -0.20993252 -0.10078627 -0.04097965 0.037686184
000320 82 43 b9 bb a9 28 8e 3d 68 43 a7 3c 2d 1e ab bc
       -0.0056537995 0.06941349 0.020417884 -0.020888412
000330 1a 2f 6d bd 55 a0 a6 3d 2e 66 09 be 73 b6 fd bd
       -0.057906248 0.0813605 -0.13417885 -0.12388315
000340 4d 35 f8 3d 71 9d b4 3d eb 1a fb bd 67 3e 0f 3e
       0.12119541 0.08819092 -0.122609936 0.13988648
000350 6b 76 49 3e f2 66 0a 3d e6 8d 02 be 21 ce af bd
       0.19674079 0.033789583 -0.12749442 -0.08584238
000360 25 9c 4a be 43 17 93 3c 24 0b 94 bd df 62 fc bd
       -0.19786127 0.017955428 -0.072286874 -0.12323546
000370 4f fc e2 bd a3 07 04 3e 08 a0 3b be 70 ab 99 bd
       -0.1108328 0.12893538 -0.18322766 -0.07503402
000380 84 f7 23 3d 9f f4 15 3d ed 90 b9 bd 39 e8 03 3e
       0.04003097 0.036610242 -0.090608455 0.12881555
000390 77 5e 1a 3e 3d b2 1f 3e f5 a0 c2 bc 92 90 ed 3d
       0.15075098 0.15595336 -0.02375839 0.1159984
0003a0 00 49 11 3c e7 9e 80 3d 2e 77 d1 3d 2c c5 42 bc
       0.008867502 0.06280308 0.1022781 -0.01188783
0003b0 82 e4 4c 3e 38 57 f6 3c d0 73 a2 bc cc 68 f7 bd
       0.20009044 0.030070886 -0.019830614 -0.12080535
0003c0 de da 2a be 3d 66 3e 3d 63 7f f8 bd b4 78 23 3e
       -0.16685054 0.04648422 -0.12133672 0.15964013
0003d0 13 24 86 3d 03 3a 4b be 38 96 4f 3d 63 4d e6 3d
       0.06549849 -0.19846348 0.05068037 0.11245229
0003e0 c4 36 11 be b4 53 ae bc 99 3d 82 3d da dd 3a be
       -0.14181048 -0.021280147 0.06359405 -0.18248692
0003f0 4c 6b e3 3d b8 07 2a bd d1 72 98 3c 5c c2 10 be
       0.1110445 -0.041511267 0.018609436 -0.14136642

gat_layers.0.lin_edge.weight f4 [64, 64]
000000 03 a1 22 3c d7 42 3b 3e a4 d4 40 3e d4 77 e7 39
       0.0099260835 0.18287216 0.18831116 0.00044149032
000010 06 4d 55 3e f4 80 50 3e bc 76 f4 3d 27 0e 96 bc
       0.20830163 0.20361692 0.11936709 -0.018317295
000020 ba e6 43 be 71 91 5b 3c 22 ae 26 3e 6c 53 59 3e
       -0.19130984 0.013401375 0.16277364 0.21223229
000030 89 4c 14 be 3e 6c 13 be 60 10 44 be ba 9b 02 bd
       -0.14482321 -0.1439676 -0.19146872 -0.031886794
000040 b8 78 89 3a 49 50 d6 3d 2e 95 ba 3c b7 2b 43 be
       0.0010488247 0.10464532 0.022776213 -0.19059645
000050 ec 6e 6f 3d 66 4e d7 3d 9d 47 b0 bd 10 72 b8 3c
       0.058455393 0.10513 -0.08607409 0.022515327
000060 1e 94 d4 bd be 29 d9 3c 1e b0 b9 3d bc e8 ab 3d
       -0.103798136 0.026509162 0.09066795 0.08394
000070 94 fa a4 3c cc 67 9e 3c 7c ee 50 be ee 1e a8 3d
       0.020139016 0.019336604 -0.20403475 0.08209024
000080 9e 18 1a be 55 68 a0 bd 34 1e 5a 3e f7 f0 5a 3e
       -0.15048453 -0.078324 0.21300584 0.21380983
000090 38 96 54 3a 1a cd b8 bd 10 59 fc 3d 69 bf 0d be
       0.00081095425 -0.09023495 0.12321675 -0.13842548
0000a0 8d 6a 9e bd 12 79 0c 3e 3c f4 ab bd 3b e6 52 3e
       -0.07735167 0.1371806 -0.083961934 0.20595638
0000b0 cd 9b fd 3c 44 83 21 be 0c 1f 52 be 75 79 4e be
       0.03095808 -0.1577273 -0.20519656 -0.2016352
0000c0 dd d2 54 3e aa 67 79 bd 31 5a 97 3d ad db 56 3d
       0.20783563 -0.060889877 0.073902495 0.052455593
0000d0 1f 07 2c 3e d4 35 c6 3d 9c 51 22 be c5 8a c9 bd
       0.16799591 0.09678236 -0.15851444 -0.09840921
0000e0 86 03 3d 3e ff 70 d4 3d 12 61 99 bd a9 7d da bd
       0.18458375 0.10373115 -0.07489218 -0.10668499
0000f0 03 1d 2a be c4 a7 a7 3c d3 6b 11 bd ed 46 a1 bd
       -0.1661263 0.02046574 -0.03550322 -0.07874856
000100 8c 48 9c 3d 0b 6a 45 be 87 55 53 be 91 8c 27 3e
       0.07631025 -0.19278733 -0.20638095 0.16362216
000110 66 33 40 3e 52 84 42 3e 28 d1 ba 3d ba 79 a2 3c
       0.18769607 0.18995789 0.09121925 0.019833434
000120 bb d0 26 be 56 80 a4 bc cd f3 20 be 68 e3 65 bd
       -0.16290562 -0.020080727 -0.15718003 -0.056125075
000130 73 8e 6d 3c 8f 5d fd 3d 0e fb 2b be 14 c5 1f 3d
       0.014499295 0.123713605 -0.16794989 0.039006308
000140 f5 6a 1f 3d 38 5a 1e be 5c c9 3f 3e fe fa 48 3e
       0.03892036 -0.15464103 0.18729156 0.19626996
000150 f6 12 07 3e f0 4f 00 3e 30 62 2a be 2c 9a 10 be
       0.13190827 0.12530494 -0.16639018 -0.14121312
000160 cf 4a 8a 3d fd b0 5b 3e 9c 03 0c 3e 90 8f 2d 3e
       0.0675255 0.21454234 0.13673252 0.16949296
000170 49 6b 12 3d 79 8d 24 bb 9d 29 0e 3e ec ff 23 be
       0.035746846 -0.0025108738 0.13883062 -0.16015595
000180 12 88 aa 3c de 52 ab bd b3 21 3a 3e 57 3d 30 be
       0.020816837 -0.08365415 0.18176918 -0.172109
000190 8c ba 29 bd 01 8a c8 bc ff 71 21 3c c2 b8 5c bb
       -0.04143767 -0.024479868 0.009853839 -0.003367946
0001a0 c9 08 01 3e 13 22 45 3e bb f6 0a 3e 18 2c 17 3d
       0.12601008 0.1925128 0.13570683 0.036907285
0001b0 72 74 38 bd 8f e9 44 3e 28 6d a8 3d f3 22 f3 3d
       -0.045032926 0.1922972 0.08223945 0.118719004
0001c0 69 0a 10 3d a5 a9 47 3e 8b c7 ef bd d5 d1 63 3d
       0.035166178 0.19498308 -0.11707982 0.055620033
0001d0 3e d2 af 3d 07 0a 12 be df 49 49 3e cb 2a 9d bc
       0.085850224 -0.14261638 0.19657086 -0.019185444
0001e0 f8 be c9 3d 06 b8 e5 3d 72 51 80 3d 76 8b b2 bd
       0.098508775 0.1121674 0.062655345 -0.08718006
0001f0 d3 52 9e bb bb 0b a7 bd 91 23 16 3e c3 f9 09 3d
       -0.0048316508 -0.08156534 0.14662005 0.033685457
000200 25 95 a7 bd 24 fa 52 3e a2 ce 28 3e 30 f2 a8 3c
       -0.08182744 0.20603234 0.16485074 0.020623296
000210 ed d4 ef bd bd ed 1d 3e b7 96 45 3e 72 14 1b be
       -0.11710534 0.15422721 0.19295774 -0.15144518
000220 17 92 77 3d 78 b5 87 bc bd 24 5a 3e 61 18 20 be
       0.060442057 -0.016566023 0.21303077 -0.156343
000230 b0 5b 52 be d1 ef 2b 3e cf ca 1f 3e 98 6d 3d 3e
       -0.20542789 0.16790701 0.15604709 0.18498838
000240 a2 ea 2c 3e cf 39 af 3d 59 c5 35 be c2 8e 52 3c
       0.1688638 0.08555948 -0.17751063 0.012851419
000250 f2 86 37 be d8 a6 c7 bd c0 dc f2 3d 16 33 d6 bc
       -0.17922571 -0.0974862 0.11858511 -0.026147407
000260 2b c8 0d be 66 a6 22 3c 09 a0 5b be b4 78 a6 bd
       -0.1384589 0.009927368 -0.21447767 -0.08128491
000270 74 79 2a bd cf 9a 01 be 92 f6 0b 3e d0 e0 76 3d
       -0.041619733 -0.12656711 0.13668278 0.06027299
000280 7c d5 d5 bd 1c c0 5b be 0e 7c 80 3d cb 9e 34 3e
       -0.104411095 -0.21460003 0.062736616 0.176387
000290 7d 59 4a 3e 27 03 ee 3c 92 97 3f be 10 67 58 bd
       0.197607 0.029054238 -0.18710163 -0.052832663
0002a0 81 46 b2 3d ba 1b 98 bb 83 df 1a be 4a 20 86 bd
       0.08704854 -0.004641977 -0.15124325 -0.065491274
0002b0 bc 0f 4f 3d 5d 3e 49 3e 26 f2 33 be f8 a7 46 3e
       0.050552115 0.19652696 -0.17572841 0.19400012
0002c0 6c be 3b 3e ba 7f 94 3c e8 b8 c4 3d be 02 12 bd
       0.18334359 0.018127311 0.096055806 -0.035647146
0002d0 31 32 26 3e ba c3 c9 3c 22 c7 99 3d 1e fa 1b be
       0.16230084 0.024629463 0.07508685 -0.15232131
0002e0 7e c3 36 bd a3 34 34 3e 1e 6e 3d 3e d0 82 81 3d
       -0.04462003 0.17598204 0.18499038 0.06323779
0002f0 c6 7b 01 be e8 b2 73 bd 46 12 a2 3d 82 4b 37 3e
       -0.12644872 -0.05949679 0.07913642 0.17899898
000300 01 6d 30 3c 98 71 48 bc 9d b5 be 3d a9 7e a3 3d
       0.010768176 -0.012234114 0.09311984 0.07983143
000310 9b 07 57 be 40 bb 79 bd 91 6b 01 be 91 e9 35 be
       -0.20998995 -0.06096959 -0.1263869 -0.1776488
000320 ac 3c 3f 3e 76 56 50 3e 27 fb f0 bd 07 64 5b 3d
       0.18675488 0.20345482 -0.117666535 0.05356219
000330 48 d7 30 be 3e 11 26 be 97 1d c3 3d b9 52 38 be
       -0.17269623 -0.16217515 0.09527128 -0.18000306
000340 b4 40 90 bd d3 90 4c 3e fe dc 58 be 8f e7 66 bd
       -0.07043591 0.19977121 -0.21178052 -0.056373175
000350 f1 48 de bd 68 39 dc 3d ee f4 fe bd d3 a8 b3 3d
       -0.10853756 0.10753137 -0.124490604 0.08772435
000360 87 4d 37 3e 21 2b 54 3e 58 da 78 3d 39 3c ae 3d
       0.17900668 0.20719577 0.060755104 0.0850758
000370 1a 1e 3f be 17 ec 51 3c fe 24 11 3b b7 2a 50 3e
       -0.18663827 0.012812636 0.0022147293 0.20328794
000380 ec da 42 bc 64 ea 21 3e 6d 8d ed 3d 21 2d 06 3e
       -0.011893015 0.15812069 0.115992405 0.13103153
000390 e5 25 44 3e 36 da 20 bd 1d 95 44 be 13 5d ae 3c
       0.1915508 -0.039270602 -0.19197507 0.021284616
0003a0 0f 91 42 3e ed 53 5d 3e 3e 50 59 3e 38 86 6e bd
       0.19000648 0.21614046 0.21222016 -0.05823347
0003b0 ce 41 c6 bd 6a da 16 3e a1 1a 5c 3e 91 aa 08 3e
       -0.0968052 0.14731756 0.21494533 0.13346316
0003c0 37 ef 28 3e 9b 4e d7 3c 26 c8 bd bd 3e 02 23 3e
       0.16497503 0.0262826 -0.09266691 0.15918824
0003d0 b9 c2 b2 bd b4 73 0f be a3 5e 1e 3c f8 1f 22 be
       -0.08728547 -0.14008981 0.009666118 -0.15832508
0003e0 59 65 5a be d3 ed 0c be 32 95 b4 3d ea 95 8b 3d
       -0.21327724 -0.13762598 0.08817519 0.06815703
0003f0 fc 05 35 3e 96 05 3d ba 11 91 ce bd f0 8d 11 3e
       0.17678064 -0.000721061 -0.10086263 0.14214301

gat_layers.1.att_src f4 [1, 4, 16]
000000 7b 5e 07 3f ce b2 cd be 9a 99 ff 3e bc 03 e2 3e
       0.5287854 -0.4017548 0.49921876 0.44143474
000010 a5 16 a4 be f3 c0 51 3e dd 29 c8 be 6c 7a be 3c
       -0.32048526 0.2048376 -0.3909444 0.023251735
000020 c1 fd fd be 01 59 18 3d 36 ec fc 3e 67 44 f7 be
       -0.4960766 0.037194256 0.49398965 -0.48294374
000030 64 ca 3b be 9e 2d 03 bf 5f 54 c4 be 8f 18 0c 3f
       -0.18338925 -0.5124148 -0.3834562 0.54724973
000040 d7 05 42 be cc 98 5e 3d 05 f4 ce 3e 7f 8c 87 be
       -0.1894754 0.054344937 0.40420547 -0.26474378
000050 b4 34 bc bd 42 de 96 3d e5 79 48 3e 6b de 11 3e
       -0.0918974 0.07366611 0.19577749 0.14245002
000060 97 9a f3 3d db 91 d0 3e f9 2e 70 bd 88 b3 d4 bc
       0.1189472 0.4073628 -0.058638547 -0.025964513
000070 4f 77 fa be ee 11 fe 3e 1e e2 c9 3e b2 c8 3c 3e
       -0.4891915 0.49623054 0.39430326 0.18435934
000080 da eb e5 be 84 bc 01 bf 89 90 0b 3e 41 49 93 be
       -0.44906503 -0.50678277 0.13629355 -0.28766826
000090 3f de a3 3d ff ee 93 3e 12 14 cb 3e b8 33 66 be
       0.080013745 0.28893277 0.3966375 -0.22480667
0000a0 d6 3d 01 bf ce 3e 03 bf 3a 4e de 3e 26 9d c1 be
       -0.5048498 -0.5126771 0.43419057 -0.37815207
0000b0 cf 6d ee be b3 84 d6 be 52 2e cb 3e ef 07 a1 be
       -0.46568152 -0.41898116 0.39683777 -0.31451365
0000c0 1b 6b eb bd f9 3d 54 3d 73 6e 51 be c6 09 56 3e
       -0.11495038 0.051816914 -0.2045229 0.20902166
0000d0 91 d0 47 be e0 69 ab be 39 07 06 3f f3 cf a2 3e
       -0.19513156 -0.33479214 0.5235477 0.31799278
0000e0 75 a1 c5 3e 68 6c a0 be 43 b9 04 bf e8 a8 08 3e
       0.38599744 -0.31332707 -0.51845187 0.13345683
0000f0 fd 3f bd 3b 56 5e 29 3e 79 02 df 3e b1 90 fc 3e
       0.0057754503 0.16539893 0.43556574 0.4932914

gat_layers.1.att_dst f4 [1, 4, 16]
000000 61 50 99 be ed 1e 05 bf 58 f5 4e be 8a 42 39 3e
       -0.29944137 -0.52000314 -0.20210779 0.18091789
000010 46 7f 61 be 00 58 b0 be 7e c8 32 bd 50 1a 74 3e
       -0.22021207 -0.3444214 -0.043648235 0.23838162
000020 08 77 b2 be 11 f7 d4 be 92 3c 09 3f 85 fd b3 3e
       -0.3485644 -0.41594747 0.5360805 0.35154358
000030 f9 4a 67 3e f2 bb ab 3e de 88 24 be da bd 25 3e
       0.22587194 0.33541828 -0.16067836 0.16185704
000040 9a 5b b7 3e 24 04 b2 3e 24 e0 0a 3f 94 72 06 bf
       0.35812074 0.34768784 0.5424826 -0.5251858
000050 2d f1 b3 be 2c 96 cc 3d df 3c 5e b9 1c 47 af 3e
       -0.3514494 0.099895805 -0.00021194246 0.3423394
000060 dc 32 ed bd 56 9d e2 bd 80 02 e5 3e d0 82 96 be
       -0.11581966 -0.11065166 0.4472847 -0.29396677
000070 94 a6 2a 3e 0c 34 59 3e c0 d2 4f 3e b8 53 da 3e
       0.16665107 0.2121126 0.20295238 0.42641997
000080 c4 7e 64 3e 7f b9 03 bf 85 15 e7 3e 85 db bc be
       0.22313982 -0.5145492 0.45133606 -0.3688623
000090 d2 57 03 bf dd 61 a5 3e 9c 06 b2 3e eb 37 06 bf
       -0.5130588 0.32301226 0.34770668 -0.52429074
0000a0 4d a3 d5 3e aa 27 59 3e b0 7b 21 3e 63 6e 40 be
       0.4172615 0.21206537 0.1576984 -0.18792109
0000b0 65 7c c2 be 88 ae ed 3e 49 e6 c8 3e b6 c5 9e be
       -0.3798553 0.4642222 0.39238194 -0.31010216
0000c0 2d d8 62 3c 3d c8 51 3e 02 07 64 3e 14 23 b7 3e
       0.013845486 0.20486541 0.22268298 0.3576895
0000d0 34 1f 40 be 32 70 01 3f 9a 8c 00 bf 5d 12 a8 be
       -0.18761903 0.5056182 -0.5021454 -0.3282651
0000e0 0b 5d 04 3d f4 97 d0 be 98 6f 6a 3e f3 cc 8c be
       0.032315295 -0.4074093 0.22894132 -0.27500114
0000f0 d0 4c 45 be a4 2f c6 bd b5 e1 d3 be ca 80 72 bb
       -0.19267583 -0.096770555 -0.41383138 -0.0037003034

gat_layers.1.att_edge f4 [1, 4, 16]
000000 0b 10 e8 be ac a8 04 bf 19 4b 41 be 92 99 f4 3b
       -0.4532474 -0.5181987 -0.18876304 0.007464596
000010 75 38 0b 3f 13 ab 5b be 5e 2d 65 be 76 eb 6f 3e
       0.5438302 -0.21451978 -0.22380587 0.23429665
000020 ea 0a 06 bf 2e 35 8a 3e fa d6 aa be 6c d0 31 3d
       -0.52360404 0.26993698 -0.3336714 0.043411657
000030 23 46 cf be ee 30 33 be 51 4f 7a be 24 d1 87 be
       -0.40483198 -0.17499134 -0.2444432 -0.2652675
000040 fb 80 0a 3f 8b c8 cb be ec f1 07 bf f8 bf b9 3e
       0.5410306 -0.3980144 -0.5310352 0.36279273
000050 48 12 00 3f d3 e9 c4 be 65 19 1e bd e8 19 97 be
       0.50027895 -0.38459644 -0.038598437 -0.29511952
000060 08 48 8f be ab 18 e7 3e 09 fa 78 be c2 fa 04 3e
       -0.27984643 0.45136008 -0.24314131 0.12986282
000070 e1 80 dd be ca 7c a0 be 8d 93 89 bd 8b 33 0a bf
       -0.4326239 -0.31345206 -0.06717596 -0.539849
000080 83 fb 09 bf fa 32 b4 be cf 56 27 3e 34 6b 93 be
       -0.538994 -0.35195142 0.16341709 -0.28792727
000090 ac a3 81 bd ae ac 8b 3e 70 54 f2 be 15 ca 9c be
       -0.06330046 0.27280182 -0.47330046 -0.30622926
0000a0 aa cd 8a 3e 63 4b 84 bd a2 3d 0b bf 28 8e c8 be
       0.27110034 -0.064596914 -0.5439092 -0.39170957
0000b0 d1 d1 ab 3e 44 c4 53 bd bd cc a2 be 76 8d 08 bf
       0.33558515 -0.051700845 -0.31796828 -0.5334085
0000c0 03 ab e9 be 95 dd f6 3d c5 51 06 3f a0 cf 05 3e
       -0.45638284 0.12053982 0.5246852 0.13067484
0000d0 a9 68 b5 be e7 87 ef 3e e7 78 83 3b 41 dd 3d be
       -0.35431412 0.46783373 0.0040122154 -0.18541433
0000e0 6f 39 4d be eb 63 ce 3e d0 40 6d 3e 31 18 96 3e
       -0.2004144 0.40310606 0.23169255 0.29315332
0000f0 c6 d9 d8 3e 17 a7 04 3f 8e ec 30 bd 61 55 30 be
       0.42353648 0.5181746 -0.043194346 -0.1722007

gat_layers.1.bias f4 [64]
000000 95 a3 a5 bb 4d 77 a4 bb 42 28 cb 3a 95 ca a5 bb
       -0.005054901 -0.0050191046 0.0015499669 -0.00505955
000010 63 c5 aa bb 71 a4 a2 bb 0c 32 8c 3b 24 fc 9b bb
       -0.0052115186 -0.0049634506 0.004278427 -0.004760282
000020 e9 32 a4 bb cb 9a 94 bb a4 a4 a3 bb fd 7c b0 3b
       -0.005010952 -0.0045350543 -0.004993992 0.0053859935
000030 82 1b a3 bb b6 a8 d0 3b 3b 2e 89 bb b0 ce b4 bb
       -0.0049776444 0.006367768 -0.0041864193 -0.005517803
000040 87 e3 a9 bb 92 45 9b 3b 9b 0d 98 bb ce a7 ad bb
       -0.005184594 0.004738518 -0.004640294 -0.005299545
000050 c9 e0 a6 bb 8e fa 8d bb c2 c1 a4 bb a7 ec aa bb
       -0.0050927144 -0.004332847 -0.0050279805 -0.0052161994
000060 c2 bc a3 bb 0b be ac bb 4d 0b d9 3b 88 e8 a4 bb
       -0.004996867 -0.0052716783 0.0066236616 -0.0050326027
000070 e8 84 a7 bb b4 51 59 3b 95 42 a6 bb 04 f8 a4 bb
       -0.005112279 0.003316027 -0.005073855 -0.0050344486
000080 d8 fb f7 3b e7 d9 8a bb 37 41 aa bb f6 40 bc 3b
       0.007567864 -0.0042374018 -0.0051957625 0.0057450486
000090 47 6a c9 3b 1b 33 9f bb 5d 00 8b bb f4 04 c9 3b
       0.0061467024 -0.004858387 -0.0042419867 0.0061346237
0000a0 53 80 6a 3b fd 99 ae bb 77 8c e4 3a f5 2d 98 bb
       0.0035782054 -0.0053284154 0.0017436881 -0.0046441504
0000b0 39 a3 89 3b b8 9b a3 ba 76 8d 49 ba d0 5f 88 3b
       0.004200366 -0.0012482321 -0.0007688621 0.0041618124
0000c0 95 76 99 bb a6 df a7 bb 62 f6 b8 bb ef a2 97 bb
       -0.0046833255 -0.0051230965 -0.0056446055 -0.0046275775
0000d0 92 c8 96 bb 6b ab af 3b ea b4 a6 bb e4 6b af bb
       -0.0046015466 0.005361011 -0.0050874846 -0.0053534377
0000e0 ea 94 c9 ba 7e f7 ae bb 08 7d b1 bb 4b 44 b1 bb
       -0.0015379463 -0.005339562 -0.005416516 -0.0054097525
0000f0 20 57 b3 bb 41 11 a5 bb 14 cc 05 3c 43 10 a7 bb
       -0.0054730326 -0.005037457 0.008166332 -0.005098374

gat_layers.1.lin.weight f4 [64, 64]
000000 43 ca 89 3d 23 ca bd bd cf 7f b6 3c 87 80 08 be
       0.067280315 -0.0926707 0.02227774 -0.1333028
000010 ed 1d 17 3e 70 d6 14 be f7 f7 03 3e d6 9f 08 3d
       0.1475751 -0.14534926 0.1288756 0.033355556
000020 0d f1 18 3e 4a d7 1c 3e 06 c0 3b 3e 53 bf 16 3e
       0.14935704 0.15316501 0.1833497 0.14721422
000030 93 de 38 be d3 97 80 3d 53 a3 ba 3d 0b 91 47 3e
       -0.18053655 0.06278958 0.09113183 0.19488923
000040 a6 bb 57 bc ec cc 0e 3e bd 09 ed bd ff af 1f be
       -0.0131672975 0.13945359 -0.11574123 -0.15594481
000050 fb fa 35 be c4 91 a4 bd 93 a8 08 3e 73 37 32 be
       -0.17771523 -0.08035615 0.13345556 -0.17403965
000060 71 c0 2e be 8f cc 23 3e bd b0 d8 bd 14 a6 a4 3d
       -0.17065598 0.15996002 -0.10580585 0.080394894
000070 db 11 16 3d 1f ca d7 bd 05 5f 94 3c 22 b9 8d bd
       0.036638122 -0.105365984 0.018111715 -0.06920077
000080 c8 c6 19 be 96 91 1f 3e ab cf 55 3e a6 9c 9d bd
       -0.15017235 0.1558288 0.2088 -0.07695894
000090 a2 75 06 3e 28 40 07 be ac 04 93 bd e3 bf 45 3e
       0.13130811 -0.13208067 -0.071786255 0.1931148
0000a0 53 f5 cf 3b 2e 46 e8 bd 8d 87 50 be 65 71 3c be
       0.0063463836 -0.11341511 -0.20364209 -0.18402632
0000b0 70 d6 bf bc 26 07 cb 3d 90 02 1e 3e ea c4 ea 3d
       -0.023417681 0.09913473 0.15430665 0.114633396
0000c0 1a 8e c3 3c d9 a6 f2 3d 77 8a 45 be b4 40 3d 3e
       0.02387147 0.1184823 -0.19291101 0.18481714
0000d0 73 2d 20 3e 9b cb 58 3d 76 8f e0 bd 0f 5d 06 be
       0.15642338 0.05292855 -0.10964863 -0.13121437
0000e0 f2 57 a9 3d 68 be 74 3d 8f 40 ae bc ec 39 f8 3d
       0.08268727 0.059751898 -0.021271018 0.12120423
0000f0 20 1f 43 3e 3a 8a 75 3d c9 99 44 3e 82 d4 f2 bd
       0.19054842 0.059946276 0.1919929 -0.11856939
000100 e1 79 3c bd a2 1f 0c 3e 3f 44 ea bd 59 e1 9d bd
       -0.04601467 0.13683942 -0.11438798 -0.07708997
000110 04 45 3b bc 92 7d 0e 3d 14 4f fc bd 57 85 d3 bd
       -0.011430029 0.034787722 -0.123197705 -0.10328167
000120 df e9 58 3d 0f 27 56 be 4a bb 85 bd 40 af 37 3e
       0.05295741 -0.20913337 -0.06529863 0.17937946
000130 c6 b4 f8 3d 41 49 e1 3d a1 b4 ee 3d cd ad 2e 3e
       0.12143855 0.110003 0.11655546 0.17058487
000140 dc d5 e0 3d 1d 87 04 be 5b d7 27 3e b2 7f 55 be
       0.109782904 -0.12942167 0.16390745 -0.20849493
000150 65 4f e0 bd b8 2b 44 be f1 60 f5 3c cb 4f bc 3d
       -0.10952643 -0.19157302 0.029953452 0.09194907
000160 0c 5b ab bd 09 d7 32 be b7 db 44 be d1 84 ff bd
       -0.08366975 -0.17464842 -0.1922444 -0.124765046
000170 07 29 ee 3d f9 4f 08 be bc 47 8b bd 79 55 f2 bd
       0.11628919 -0.13311757 -0.068007916 -0.11832709
000180 f3 bc 19 3e b3 fe d7 bd 4a 09 4c be 00 2c bb bd
       0.15013485 -0.10546627 -0.19925418 -0.09139252
000190 79 8a 10 3d 9d 94 03 3e a8 db 12 3e d1 5f 17 be
       0.035288308 0.1284966 0.14341605 -0.14782645
0001a0 b1 13 25 be e8 80 aa 3c d2 cd 09 3e 23 ef 50 3e
       -0.16120793 0.02081342 0.1345742 0.20403723
0001b0 47 64 47 bb bd 8d 18 bd 18 9a 0c 3e b7 ce 94 bd
       -0.003042476 -0.037244547 0.13730657 -0.0726599
0001c0 c1 bf ab 3d 80 f4 cc bd 9d 14 c5 bd 7a 14 56 be
       0.083861835 -0.10007572 -0.09623072 -0.20906249
0001d0 0f 54 fa 3d 8e 88 cc bd 95 72 03 3e b9 50 cb 3c
       0.12223064 -0.09986983 0.12836678 0.024818765
0001e0 c7 01 47 3e 7a c5 05 bd 26 16 5f bc 1a ee 04 bd
       0.19434272 -0.03265903 -0.01361612 -0.032453634
0001f0 60 23 51 3e 59 2b d3 3d 09 08 ac bd 95 bf 43 be
       0.2042365 0.10311002 -0.0839997 -0.19116051
000200 50 bd 4d 3e a7 af 26 be 1d 86 eb 3d b3 93 e5 bd
       0.20091748 -0.16277944 0.115001895 -0.11209812
000210 8a 87 dc bd 2f aa 03 be 63 bf 35 be cd e3 f4 bc
       -0.107680395 -0.12857889 -0.1774879 -0.02989378
000220 77 ae d5 3c e0 a1 49 3e b7 88 3c be e7 2e 27 3d
       0.026084168 0.19690657 -0.18411528 0.040816214
000230 bc ac db bd a0 0e f1 3d 87 d5 0e 3e 6d 62 dc bd
       -0.10726306 0.117703676 0.13948642 -0.10760961
000240 3e 83 31 bc 84 3e 80 3d 14 19 5e bb 8c 5f d6 bc
       -0.010834513 0.06261924 -0.003388946 -0.026168607
000250 d2 07 12 3d d4 c9 01 3d 1a a2 29 be 6a ea 26 be
       0.03565199 0.03168662 -0.16565743 -0.1630036
000260 3f 61 67 3d 66 39 1f 3e d2 de 2e 3e c5 4b 12 be
       0.056489225 0.1554924 0.17077187 -0.14286716
000270 f4 44 4d 3e 27 d2 8a 3d 63 be db bd d9 4e bf 3d
       0.20045835 0.06778365 -0.10729673 0.09341211
000280 7f 22 57 be 57 c7 6b 3d 1f 37 49 be e4 92 04 be
       -0.21009253 0.057563152 -0.19649933 -0.1294666
000290 ea 7d 16 3e 33 fc 2b 3e 37 86 33 be b4 22 9c bd
       0.1469647 0.16795425 -0.17531668 -0.076238066
0002a0 ca 31 1b 3d 3d 35 2b 3c f5 a9 85 bd 55 24 1e be
       0.03788928 0.010449705 -0.06526557 -0.15443547
0002b0 7f 69 c9 3d 3b 97 a0 bc 1b 9a cf ba 38 f8 fa 3d
       0.09834575 -0.019603362 -0.0015838774 0.12254375
0002c0 22 2f da bd 44 95 b6 3d 0c 55 2b 3e 11 c6 e5 3c
       -0.10653521 0.08915189 0.16731662 0.028048547
0002d0 73 db 4d be e0 4a 17 be 80 e9 be bc 88 31 3a 3d
       -0.20103244 -0.14774656 -0.0233047 0.045457393
0002e0 a9 86 80 bb 45 18 1f 3e e9 3e de 3b eb a3 d6 3d
       -0.0039223027 0.15536602 0.006782402 0.104804836
0002f0 c5 22 21 be cf 19 2c 3e 72 cd 18 be 3a 4e 4c bc
       -0.1573592 0.1680672 -0.14922121 -0.012469823
000300 76 07 ca 3d 78 39 57 3d dd cc 55 bc 75 a3 62 bc
       0.09864704 0.05254504 -0.0130493315 -0.0138329165
000310 60 f2 b8 3d fb 3b 74 3d c0 74 88 bd 1e 79 08 be
       0.09030604 0.059627514 -0.06662893 -0.13327453
000320 ab bd 86 bd 54 0d 1e bc 86 65 1d 3e 0c 4c 0a 3e
       -0.06579145 -0.009646732 0.1537076 0.13505572
000330 45 46 79 3d 53 b3 ce 3c 91 50 e3 3c 4b 2d 3d be
       0.06085803 0.025231993 0.027748378 -0.18474309
000340 2f ee 16 3e a0 e9 ba bd c0 39 24 be 7f bb 21 be
       0.14739297 -0.09126592 -0.16037655 -0.1579418
000350 21 b8 1a be e1 21 48 be 38 a8 eb bd 53 06 fa 3d
       -0.15109302 -0.19544174 -0.115066946 0.122082375
000360 97 32 ce bd 1f 36 08 be 73 b2 00 be 44 78 3f 3e
       -0.10068243 -0.13301896 -0.12568073 0.18698221
000370 a2 82 30 3c 00 70 e0 3d bb 4a 58 be 5e 2b 4e be
       0.010773333 0.10958862 -0.21122257 -0.20133731
000380 5b d1 19 be df 42 b9 bd a4 d7 18 be a3 79 8d bd
       -0.15021269 -0.09045958 -0.1492601 -0.06907966
000390 fa 0c d2 bc 50 6e ac b7 a1 ae 27 bd 83 d2 93 3c
       -0.025640953 -2.0555366e-05 -0.040938023 0.018044716
0003a0 a2 12 00 3e 22 8b d3 3d c1 4d 2a be 70 c5 3d be
       0.12507108 0.10329272 -0.16631223 -0.18532348
0003b0 22 f9 dd bd a8 fd b7 3c b8 e6 31 be d4 25 b2 bd
       -0.10838534 0.02245982 -0.17373168 -0.086986214
0003c0 6a 22 3f be d8 04 30 3d 94 3f b8 bb d0 fe 21 be
       -0.18665472 0.04297337 -0.0056228135 -0.1581986
0003d0 6f a8 9d 3d c6 44 ee 3d 49 1f 49 be 45 d3 d5 bc
       0.07698142 0.11634211 -0.1964084 -0.026101718
0003e0 6e 55 48 bc 2d 5c 35 3e fd cb 95 bb af fc 37 3e
       -0.012227399 0.17710944 -0.0045714364 0.17967485
0003f0 06 ba ac bd 70 74 3d 3d 28 cc d1 bd ac 10 40 3d
       -0.08433919 0.04625362 -0.10244018 0.0468909
