models/best_fraud_model_seed_333.pth (torch, 378192 bytes, 45 tensors)

node_emb.weight f4 [64, 8]
-0.16455358 0.09778391 0.2220643 0.25170273 0.17550267 0.07668226 0.29082894 0.32217723
-0.025730679 0.17184019 -0.12701614 0.21303919 -0.26825303 -0.15380162 -0.009114052 0.33991545
0.008057151 0.17351478 0.1030322 -0.095452085 0.017863967 0.14218321 0.08232465 -0.142438
0.28763154 -0.016734442 0.11634644 0.30265024 -0.106217965 0.22715905 0.32032183 0.3207898
0.3064594 -0.18567175 0.20055851 0.26783833 -0.15178293 -0.08429534 0.082234375 -0.27692854
0.22458753 0.17870873 0.17957617 0.08351614 -0.08182851 -0.062647216 0.09734184 -0.2988888
-0.033757918 -0.045743886 -0.018868782 0.22602604 -0.08079975 0.18333806 0.10647264 -0.28319782
0.19446303 -0.23774382 0.21523534 0.20827177 0.3076694 -0.3191946 0.08136216 -0.14715022
0.21497141 0.24950927 -0.10031538 -0.3072459 -0.22512828 -0.2394379 0.22668457 -0.28998256
-0.012807551 0.30772802 0.030965151 -0.19176388 0.12802356 0.25822794 0.091669254 0.16855666
-0.059787527 -0.20482142 0.21425773 0.15148212 -0.02515101 0.011132076 0.05874246 0.3434291
-0.09216477 -0.045365114 0.028829442 0.31197682 0.17634699 0.056586172 0.22306854 0.020915128
0.16936642 0.024316717 -0.2307735 -0.08181539 -0.12252851 -0.13378051 0.082675315 0.113728724
0.020068692 0.29046643 0.22592089 0.106665425 -0.31968307 0.086866386 -0.16117093 0.22176965
-0.087054946 -0.22776386 0.27263916 0.02180209 0.17355394 -0.18252547 -0.3282699 -0.017448908
0.085554674 0.23487814 0.2035633 -0.08916921 -0.00052174606 0.009146828 0.32644784 -0.34885377
-0.30659392 0.098645344 -0.09915953 0.28935495 0.22315034 0.18967237 0.2197513 0.31060323
-0.045891017 -0.022347385 0.01019918 -0.19214565 0.057848584 -0.13344593 0.33706382 0.22967826
0.21485111 -0.1988615 0.16120312 -0.34724024 -0.3093452 -0.09372712 0.007086943 -0.29180962
-0.02598079 0.030328652 -0.15676385 0.092495516 -0.3025488 -0.18118468 -0.3281558 -0.17490456
0.16539423 -0.1672307 0.035835307 -0.043790616 0.051834594 -0.28867602 0.20430492 -0.23548931
0.044934448 -0.117456175 0.2569969 0.04419206 -0.13507587 -0.08442647 -0.3500381 -0.31204027
0.04913604 -0.15859155 -0.2429104 0.0711083 0.10235483 0.08357665 0.17181714 -0.14184389
0.08191317 -0.0544229 0.29168415 -0.09667116 -0.045224987 0.043292478 -0.03183778 -0.08783511
0.1435197 -0.122753404 -0.21647798 0.16104084 0.31363845 -0.11198619 -0.08918595 0.02926173
-0.30069757 0.008608985 -0.082075104 0.036656793 -0.18768814 0.25920025 -0.047335964 -0.057991747
-0.19455628 -0.21317722 0.092682935 0.03483321 -0.22071376 0.24889477 -0.30351245 -0.105617434
0.016115507 -0.20768513 0.32558495 -0.25231335 0.35857555 0.30754763 -0.22087428 -0.29485828
0.16000298 -0.1165294 0.335621 0.11167489 -0.2689254 -0.18724114 0.18306436 -0.12671329
-0.32221577 0.33258674 -0.12295917 0.19756612 0.0038956674 -0.09733752 -0.11349444 0.30120522
-0.21171044 0.022784151 0.1628722 0.15192564 0.35258475 0.2664031 -0.32816124 0.3020657
-0.14632617 -0.33781344 -0.27456617 -0.032449566 -0.32580668 -0.20985425 -0.16369203 0.15435998
00000000: bc80 28be ee42 c83d d364 633e 2edf 803e
00000010: f9b6 333e 970b 9d3d 88e7 943e 6af4 a43e
00000020: 25c9 d2bc e0f6 2f3e 8510 02be f226 5a3e
00000030: 7658 89be 2c7e 1dbe 1b53 15bc 6609 ae3e
00000040: 2402 043c dcad 313e 8c02 d33d 627c c3bd
00000050: 7457 923c 7a98 113e d399 a83d 44db 11be
00000060: 7144 933e ab16 89bc 0b47 ee3d f9f4 9a3e
00000070: ce88 d9bd 629c 683e 3901 a43e 903e a43e
00000080: 3fe8 9c3e bc20 3ebe 365f 4d3e 1b22 893e
00000090: fc6c 1bbe 09a3 acbd 7f6a a83d 94c9 8dbe
000000a0: 46fa 653e 6cff 363e d1e2 373e 830a ab3d
000000b0: b595 a7bd 2f4d 80bd 295b c73d f407 99be
000000c0: be45 0abd f15d 3bbd b492 9abc 5f73 673e
000000d0: 577a a5bd f9bc 3b3e 540e da3d 4eff 90be
000000e0: 5121 473e 1e73 73be a766 5c3e 3245 553e
000000f0: d886 9d3e 7a6d a3be 34a1 a63d 8cae 16be
00000100: 7721 5c3e 5c7f 7f3e 2672 cdbd 564f 9dbe
00000110: 0788 66be 352f 75be 0020 683e 9878 94be
00000120: c3d6 51bc 878e 9d3e a1aa fd3c c05d 44be
00000130: 9c18 033e 7436 843e 17bd bb3d 1e9a 2c3e
00000140: c4e3 74bd b5bc 51be 6166 5b3e 211e 1b3e
00000150: 7e09 cebc 5063 363c ef9b 703d f0d5 af3e
00000160: e2c0 bcbd c5d0 39bd b92b ec3c 6dbb 9f3e
00000170: 4e94 343e e7c6 673d 146c 643e 3456 ab3c
00000180: 646e 2d3e da33 c73c e34f 6cbe d48e a7bd
00000190: 3af0 fabd c2fd 08be ad51 a93d 9bea e83d
000001a0: 1967 a43c 04b8 943e ce57 673e 6773 da3d
000001b0: 80ad a3be 01e7 b13d fe09 25be 9517 633e
000001c0: dd49 b2bd ee3a 69be 5c97 8b3e 4c9a b23c
000001d0: 20b8 313e f5e7 3abe fe12 a8be 03f1 8ebc
000001e0: 4a37 af3d e583 703e e672 503e 599e b6bd
000001f0: c9c5 08ba 94dc 153c 2c24 a73e f69c b2be
00000200: e1f9 9cbe 9206 ca3d 2714 cbbd 5526 943e
00000210: 8681 643e 7939 423e 7c06 613e 6307 9f3e
00000220: 38f8 3bbd dd11 b7bc 761a 273c d4c1 44be
00000230: a3f2 6c3d 0da6 08be a193 ac3e c730 6b3e
00000240: ee01 5c3e 59a2 4bbe 6e12 253e 79c9 b1be
00000250: 7e62 9ebe 01f4 bfbd 9639 e83b 1268 95be
00000260: aad5 d4bc cb73 f83c b486 20be 4a6e bd3d
00000270: ade7 9abe 7a88 39be 0904 a8be 2e1a 33be
00000280: 1b5d 293e 863e 2bbe 0bc8 123d ca5d 33bd
00000290: 8350 543d 58cd 93be 4f35 513e 1c24 71be
000002a0: 2f0d 383d dd8c f0bd 1995 833e bc02 353d
000002b0: 5451 0abe c9e7 acbd 3238 b3be bec3 9fbe
000002c0: df42 493d d365 22be 81bd 78be 3aa1 913d
000002d0: 699f d13d 3c2a ab3d d5f0 2f3e 863f 11be
000002e0: 18c2 a73d 8cea 5ebd a057 953e 87fb c5bd
000002f0: d63d 39bd 7453 313d 5568 02bd e5e2 b3bd
00000300: d4f6 123e 2366 fbbd 67ac 5dbe e4e7 243e
00000310: 3895 a03e 0459 e5bd 20a7 b6bd 4cb6 ef3c
00000320: 08f5 99be b30c 0d3c fe16 a8bd 6f25 163d
00000330: 5231 40be e5b5 843e 5be3 41bd c188 6dbd
00000340: c339 47be 214b 5abe 8dd0 bd3d 45ad 0e3d
00000350: ca02 62be 45de 7e3e fc65 9bbe f44d d8bd
00000360: ab04 843c 69ab 54be 12b3 a63e 372f 81be
00000370: 3797 b73e e276 9d3e de2c 62be aaf7 96be
00000380: d2d7 233e f7a6 eebd 84d6 ab3e ceb5 e43d
00000390: 97b0 89be 24bc 3fbe 3975 3b3e 21c1 01be
000003a0: 77f9 a4be cf48 aa3e 04d2 fbbd c64e 4a3e
000003b0: 744e 7f3b e558 c7bd c66f e8bd 9237 9a3e
000003c0: 9fca 58be d4a5 ba3c f8c7 263e 6592 1b3e
000003d0: fd85 b43e fd65 883e c004 a8be 5ba8 9a3e
000003e0: 87d6 15be e2f5 acbe f093 8cbe d6e9 04bd
000003f0: 22d0 a6be 08e4 56be e29e 27be 8b10 1e3e

node_emb.bias f4 [64]
-0.08078747 0.06954281 -0.14480634 0.15061057 0.26028934 -0.22601151 0.04640211 -0.22894347
0.16644424 -0.03665053 -0.0067417677 0.25260985 -0.115305014 0.1264777 -0.24189162 0.121509336
-0.23831446 0.22368014 -0.0878807 -0.22983539 -0.090161115 0.16267893 -0.25856528 -0.17459434
0.26011658 0.07485194 0.2724901 -0.30027482 0.13393545 -0.13692164 -0.08944208 -0.26028857
0.041796193 -0.31029335 -0.22864074 -0.15955669 0.06862981 0.1512365 0.29790658 -0.058701
-0.35528633 -0.32340482 0.048317164 -0.07098777 0.34553817 -0.16926825 0.17778148 -0.11748657
-0.025439179 0.24960327 -0.12848243 0.33644328 -0.26349455 -0.24646688 0.20122848 0.3168406
0.23143171 0.08117539 -0.17903231 -0.022358641 0.33572328 0.077493295 -0.28667355 0.082507856
00000000: e773 a5bd 766c 8e3d 1d48 14be a839 1a3e
00000010: a544 853e 906f 67be 2410 3e3d 2870 6abe
00000020: 5c70 2a3e de1e 16bd 0cea dcbb 1456 813e
00000030: 0925 ecbd 5f83 013e 70b2 77be e3d9 f83d
00000040: b508 74be 680c 653e ccfa b3bd f859 6bbe
00000050: 64a6 b8bd 4e95 263e ab62 84be dcc8 32be
00000060: 002e 853e f94b 993d d383 8b3e 9fbd 99be
00000070: 6026 093e 3035 0cbe 692d b7bd 8b44 85be
00000080: 7c32 2b3d c5de 9ebe cc20 6abe d462 23be
00000090: c98d 8c3d bedd 1a3e 3687 983e 7670 70bd
000000a0: 17e8 b5be 5195 a5be 38e8 453d 0962 91bd
000000b0: 61ea b03e a854 2dbe 590c 363e cc9c f0bd
000000c0: d365 d0bc 0098 7f3e e690 03be 4b42 ac3e
000000d0: c2e8 86be d061 7cbe d70e 4e3e ee38 a23e
000000e0: 6ffc 6c3e 483f a63d 3f54 37be 7829 b7bc
000000f0: ece3 ab3e ceb4 9e3d e0c6 92be e1f9 a83d

edge_emb.weight f4 [64, 2]
-0.61456436 0.114571795 0.44432297 0.5642398 -0.2772717 -0.043504544 -0.4245828 -0.48011926
0.6477071 -0.41364625 0.12345359 -0.44242698 0.46522385 0.060273536 0.4408783 0.2610195
-0.2970775 0.37213773 -0.15460451 0.45145866 0.43902245 -0.2197835 -0.5967134 0.588626
0.111432806 -0.08368604 -0.4611402 0.57182807 -0.48293537 -0.640152 -0.38628325 -0.110650375
0.16988027 -0.67649156 0.41456008 0.44013852 0.34071645 -0.030473722 -0.38368618 0.53087664
0.5709905 0.31538618 -0.23998515 -0.19608149 -0.3838774 0.50765693 0.08866237 0.68053526
0.61973137 -0.6794942 0.68934023 -0.023451729 0.13940763 -0.69693744 0.49460784 -0.50362855
0.14776358 0.018451225 0.6577659 -0.19586253 -0.47381046 0.6853526 -0.40665573 0.3991012
0.12513556 -0.077191174 0.71092075 0.122299306 -0.5345038 0.31473982 0.5962968 0.4338857
-0.21759717 -0.24547291 0.5985706 -0.1302413 0.11660789 -0.39299387 0.26295072 0.20806563
-0.44605565 0.52335376 0.50616264 0.24082446 0.49927324 -0.21687017 0.11986866 0.49003038
0.68517673 0.47876397 0.6860653 -0.43675226 0.29017836 -0.046863474 -0.099283874 -0.28378743
-0.324901 0.41735858 -0.29153293 -0.35407546 -0.44805852 -0.021241704 -0.32392547 0.6859332
-0.2869515 0.17923607 0.051196024 0.6374385 0.40400296 -0.3296883 -0.38289723 -0.31245425
0.35621786 0.56241596 -0.57458097 0.052693587 0.04012684 -0.34894016 -0.3067036 0.06816824
0.57123166 0.66194606 0.65125287 -0.10374651 0.22210671 0.006141601 0.20342144 0.29848328
00000000: 1754 1dbf 9ea4 ea3d 4d7e e33e 0572 103f
00000010: 8ef6 8dbe d231 32bd eb62 d9be 31d2 f5be
00000020: 22d0 253f 71c9 d3be 3cd5 fc3d ca85 e2be
00000030: d231 ee3e 62e1 763d cdba e13e 59a4 853e
00000040: 8b1a 98be d688 be3e a550 1ebe 9725 e73e
00000050: 8dc7 e03e ed0e 61be 36c2 18bf 32b0 163f
00000060: e236 e43d 9663 abbd 911a ecbe 5363 123f
00000070: 4e43 f7be 00e1 23bf ebc6 c5be aa9c e2bd
00000080: 18f5 2d3e 8d2e 2dbf 3841 d43e d659 e13e
00000090: 6372 ae3e 07a4 f9bc 8472 c4be 88e7 073f
000000a0: 6f2c 123f 4c7a a13e abbe 75be 96c9 48be
000000b0: 948b c4be cef5 013f 9e94 b53d 8f37 2e3f
000000c0: b7a6 1e3f 55f3 2dbf 9a78 303f d71d c0bc
000000d0: e0c0 0e3e 7e6a 32bf 3d3d fd3e cded 00bf
000000e0: 564f 173e 0627 973c 5963 283f 3090 48be
000000f0: 4997 f2be 4573 2f3f 2e35 d0be fe56 cc3e
00000100: 8923 003e 6816 9ebd e7fe 353f 0f78 fa3d
00000110: 3ed5 08bf 9425 a13e e8a6 183f 4426 de3e
00000120: cbd1 5ebe 405d 7bbe ec3b 193f fa5d 05be
00000130: 1ed0 ee3d 7e36 c9be 7aa1 863e 280f 553e
00000140: 6861 e4be 83fa 053f e093 013f b09a 763e
00000150: bea0 ff3e 3713 5ebe b37d f53d 43e5 fa3e
00000160: be67 2f3f 8d20 f53e faa1 2f3f fe9d dfbe
00000170: 4292 943e eaf3 3fbd 5855 cbbd 964c 91be
00000180: 6d59 a6be 06b0 d53e ce43 95be 6149 b5be
00000190: ed67 e5be 1503 aebc 8fd9 a5be 5199 2f3f
000001a0: 4feb 92be a989 373e ecb2 513d 2b2f 233f
000001b0: 7ad9 ce3e e8cc a8be 1b0b c4be 01fa 9fbe
000001c0: 3062 b63e 7efa 0f3f bd17 13bf 3bd5 573d
000001d0: 0b5c 243d 49a8 b2be 4108 9dbe ca9b 8b3d
000001e0: 3d3c 123f 4c75 293f 82b8 263f 0d79 d4bd
000001f0: f16f 633e 7c3f c93b b64d 503e cdd2 983e

edge_emb.bias f4 [64]
0.46157262 -0.02279756 -0.08256824 0.27049696 -0.06624066 0.2396451 -0.20031203 0.44372275
-0.41313586 0.25481856 0.2162187 -0.026879229 0.16887718 0.43941933 0.19895138 0.3263203
-0.68052405 0.40828064 -0.39049682 -0.21248393 0.6236959 -0.27205485 -0.09902269 -0.5704595
0.4341145 0.087342426 -0.19403347 0.55846757 -0.035292428 -0.58288646 -0.25596663 0.52217317
-0.1808058 -0.20028275 -0.23416919 0.38243434 -0.16776516 -0.091214634 0.3044336 0.19854273
-0.30088353 -0.586776 -0.2601399 0.15346296 -0.035836946 -0.67070264 -0.2522773 -0.349507
0.61467123 -0.030663993 0.017316522 0.13601552 -0.4443746 -0.055103045 0.36024356 -0.040921465
0.08973146 -0.44899538 -0.6670916 0.121283084 0.6123663 -0.4527565 0.11183945 0.6188869
00000000: 3f53 ec3e f3c1 babc 8a19 a9bd 947e 8a3e
00000010: 2fa9 87bd 8665 753e 991e 4dbe a12f e33e
00000020: 8b86 d3be 9477 823e 6f68 5d3e d431 dcbc
00000030: 24ee 2c3e 92fb e03e e9b9 4b3e 7413 a73e
00000040: d336 2ebf 290a d13e 33ef c7be 6395 59be
00000050: 89aa 1f3f c64a 8bbe 68cc cabd a209 12bf
00000060: 4144 de3e 96e0 b23d b6b0 46be bbf7 0e3f
00000070: cb8e 10bd 0c38 15bf 0f0e 83be 24ad 053f
00000080: 2825 39be ec16 4dbe 0cca 6fbe 6fce c33e
00000090: a1ca 2bbe bdce babd b9de 9b3e c94e 4b3e
000000a0: 680d 9abe f436 16bf 0f31 85be 6525 1d3e
000000b0: c3c9 12bd 2bb3 2bbf 7e2a 81be 95f2 b2be
000000c0: 185b 1d3f 0e33 fbbc 61db 8d3c a747 0b3e
000000d0: 1185 e3be bbb3 61bd d871 b83e 449d 27bd
000000e0: 21c5 b73d b9e2 e5be 84c6 2abf 4463 f83d
000000f0: 0ac4 1c3f b3cf e7be 150c e53d 5f6f 1e3f

gat_layers.0.att_src f4 [1, 4, 16]
0.5160572 0.54452205 -0.058998283 0.19922625 0.34327173 -0.54299134 0.54374784 0.20784797
-0.25484002 0.4312206 -0.07662844 -0.0004958591 0.32026172 -0.49213207 0.43475544 -0.16804217
-0.041502953 0.032780446 -0.3518946 -0.39243698 0.41234666 -0.2630298 0.21924973 0.21796487
0.0572965 -0.5090115 0.13814773 0.15997176 -0.44361973 -0.44085425 0.40059063 -0.089041114
-0.4284766 0.20327683 0.44963607 -0.18750097 0.51229787 0.06308514 0.37750039 -0.44338036
0.5133356 0.16145226 0.08886551 0.3022184 -0.15371062 0.0056155464 -0.030334285 -0.00017921212
0.15603483 0.5390947 -0.39365944 -0.51740617 0.31872395 0.37721977 -0.18650585 -0.3391598
0.2918519 -0.31746387 -0.49975717 0.32699636 -0.31648272 -0.40841827 0.3477434 0.29733217
00000000: 531c 043f cc65 0b3f 2fa8 71bd f701 4c3e
00000010: 50c1 af3e 7b01 0bbf 0f33 0b3f 19d6 543e
00000020: 647a 82be f2c8 dc3e 5fef 9cbd 8afc 01ba
00000030: 58f9 a33e bcf8 fbbe 4498 de3e 3f13 2cbe
00000040: 00ff 29bd ca44 063d 872b b4be 80ed c8be
00000050: 1a1f d33e d8ab 86be 0083 603e 2f32 5f3e
00000060: bcaf 6a3d 944e 02bf 9976 0d3e a3cf 233e
00000070: 2022 e3be a6b7 e1be 371a cd3e 305b b6bd
00000080: 4961 dbbe cd27 503e b336 e63e 4100 40be
00000090: f425 033f c832 813d bb47 c13e c002 e3be
000000a0: f669 033f be53 253e 1fff b53d 5fbc 9a3e
000000b0: 5166 1dbe 9e02 b83b 9b7f f8bc e3ea 3bb9
000000c0: 98c7 1f3e 1c02 0a3f bb8d c9be bb74 04bf
000000d0: c92f a33e f322 c13e 64fb 3ebe 5aa6 adbe
000000e0: 9d6d 953e a08a a2be 2ce0 ffbe 116c a73e
000000f0: 060a a2be 331c d1be 6c0b b23e ec3b 983e

gat_layers.0.att_dst f4 [1, 4, 16]
0.0048900815 0.3775447 0.17898154 -0.040053308 0.26609915 -0.49381608 0.095045626 0.4820962
-0.1709657 0.5260793 0.4176373 -0.15389794 0.41922557 -0.4961086 0.39598763 -0.46565875
-0.2667152 -0.32577768 -0.3681033 0.4267584 -0.38218004 0.06947728 -0.5466285 0.17880553
-0.40013963 0.12724751 0.44988084 0.07449681 -0.33279917 0.3988292 -0.26655266 -0.1435482
-0.11960771 0.41118363 0.32962027 0.0015271009 -0.5282303 0.33936992 -0.28132877 0.23210807
-0.5431214 0.50052744 0.25130662 -0.4723583 -0.27655494 -0.25208527 0.5265364 0.5466281
-0.5335385 -0.31563514 0.45125246 0.31573063 -0.47767025 0.5385834 0.32052204 -0.25178963
-0.44505957 -0.31389114 -0.2403292 0.20750077 -0.053984776 0.32312444 -0.16935688 0.21088837
00000000: fa3c a03b 8a4d c13e f046 373e f00e 24bd
00000010: 263e 883e 76d5 fcbe 48a7 c23d 50d5 f63e
00000020: a211 2fbe 22ad 063f 8ed4 d53e 6c97 1dbe
00000030: bca4 d63e f201 febe e4be ca3e d36a eebe
00000040: e58e 88be 55cc a6be 0978 bcbe 1480 da3e
00000050: 1aad c3be 1b4a 8e3d d8ef 0bbf cc18 373e
00000060: 1adf ccbe 2c4d 023e c856 e63e c991 983d
00000070: a764 aabe 5733 cc3e 9779 88be 4dfe 12be
00000080: e3f4 f4bd a986 d23e fdc3 a83e 0129 c83a
00000090: 1a3a 07bf e5c1 ad3e 530a 90be bdad 6d3e
000000a0: 010a 0bbf 9122 003f 43ab 803e f2d8 f1be
000000b0: 9c98 8dbe 5211 81be 17cb 063f d2ef 0b3f
000000c0: fb95 08bf ee9a a1be 900a e73e 72a7 a13e
000000d0: 3291 f4be 9ae0 093f 771b a43e 92ea 80be
000000e0: d9de e3be 57b6 a0be dc18 76be 157b 543e
000000f0: 241f 5dbd 9170 a53e e46b 2dbe 1ff3 573e

gat_layers.0.att_edge f4 [1, 4, 16]
-0.5060547 -0.15325369 -0.20833273 -0.39545703 -0.27926093 -0.4129386 -0.3365397 0.12195181
0.20696615 -0.28571182 0.54265505 0.39926824 0.52486145 -0.05805063 0.5312417 0.34140566
0.4036104 0.20986816 -0.15849985 -0.324088 0.22814003 0.3356147 -0.37923157 0.2523818
-0.37202045 -0.25597468 -0.12099953 0.21081898 -0.21395987 -0.49197456 -0.4230029 -0.47520044
-0.20661707 0.44068468 0.41215736 -0.16715172 0.15752783 -0.101457015 0.1759455 -0.04148405
0.053809687 -0.107817374 -0.5452003 0.20385519 -0.4668792 -0.29705688 -0.30908945 -0.038189784
0.10361906 -0.31075898 0.38220337 -0.2067221 0.085004404 -0.50403637 0.17496452 0.42790923
0.06716564 -0.12461246 0.13866445 -0.2943887 -0.039788257 -0.40267625 0.20621456 -0.5258688
00000000: cd8c 01bf 89ee 1cbe 2d55 55be 5879 cabe
00000010: 4afb 8ebe b06c d3be ee4e acbe dfc1 f93d
00000020: efee 533e d248 92be 71eb 0a3f e36c cc3e
00000030: 525d 063f 7fc6 6dbd 75ff 073f b9cc ae3e
00000040: 06a6 ce3e aee7 563e c94d 22be ddee a5be
00000050: 8a9d 693e b1d5 ab3e a42a c2be 3038 813e
00000060: 7779 bebe 1d0f 83be 9ace f7bd eee0 573e
00000070: 4c18 5bbe 17e4 fbbe d693 d8be 794d f3be
00000080: 6d93 53be 6ca1 e13e 4a06 d33e d229 2bbe
00000090: fa4e 213e b2c8 cfbd 0f2b 343e 2eeb 29bd
000000a0: 8c67 5c3d 5bcf dcbd 3f92 0bbf 6abf 503e
000000b0: ca0a efbe d717 98be f940 9ebe e46c 1cbd
000000c0: 3b36 d43d cd1b 9fbe 29b0 c33e f5ae 53be
000000d0: ca16 ae3d 8708 01bf e629 333e eb16 db3e
000000e0: 248e 893d d134 ffbd 0efe 0d3e 1eba 96be
000000f0: 03f9 22bd 952b cebe e929 533e 569f 06bf

gat_layers.0.bias f4 [64]
-0.0068569845 -0.0067732725 -0.006759551 0.0046613403 -0.006771939 0.012988263 -0.00680254 -0.006813146
-0.006993702 -0.00675647 0.006777248 -0.006786732 -0.0067646177 -0.0068466146 -0.0068446505 -0.0064335256
-0.0067807534 -0.006497791 -0.006778817 0.013030176 -0.0067694704 -0.0067724213 -0.0067626215 -0.0067371186
0.0062086047 -0.006767713 -0.0026664669 -0.006755626 -0.0068021417 -0.006744222 -0.0067660864 -0.0068701576
-0.0067658946 -0.0067886882 -0.0057474556 -0.0068201963 -0.0067653228 -0.0067861266 -0.006737473 -0.006793991
-0.0067618852 -0.006781471 -0.0065687825 -0.0010903928 -0.0068629165 -0.0067570326 0.0145480065 0.0088564055
-0.006771989 -0.0059017395 0.0155627765 -0.006763282 -0.006773243 0.0064533073 -0.0015503743 0.0058250464
-0.006782374 -0.0067850887 0.004336913 -0.0067796907 -0.0028932055 -0.006779915 -0.0067521525 -0.0067887823
00000000: 8eb0 e0bb 54f2 ddbb 397f ddbb 28be 983b
00000010: 24e7 ddbb b9cc 543c d7e7 debb d040 dfbb
00000020: 6d2b e5bb 6165 ddbb ad13 de3b 3c63 debb
00000030: baa9 ddbb 9159 e0bb 1749 e0bb 53d0 d2bb
00000040: 1531 debb 6ceb d4bb d720 debb 857c 553c
00000050: 6fd2 ddbb 30eb ddbb fb98 ddbb 0cc3 dcbb
00000060: 8d71 cb3b b1c3 ddbb e4bf 2ebb 4c5e ddbb
00000070: 80e4 debb a2fe dcbb 0cb6 ddbb 0f1f e1bb
00000080: 70b4 ddbb a573 debb 2755 bcbb f47b dfbb
00000090: a4af ddbb 285e debb 05c6 dcbb 21a0 debb
000000a0: ce92 ddbb 1a37 debb f13e d7bb 83eb 8eba
000000b0: 51e2 e0bb 196a ddbb c35a 6e3c 751a 113c
000000c0: 90e7 ddbb 6163 c1bb 04fb 7e3c 869e ddbb
000000d0: 15f2 ddbb 4476 d33b ee35 cbba 08e0 be3b
000000e0: ad3e debb 7355 debb aa1c 8e3b 2b28 debb
000000f0: ef9b 3dbb 0d2a debb 2941 ddbb 6f74 debb

gat_layers.0.lin.weight f4 [64, 64]
-0.006374157 -0.010413749 0.08850805 0.17059882 -0.128417 0.09683104 0.16007654 -0.09030937
0.13232401 -0.12317792 -0.12058034 0.10449504 0.16287245 -0.09325204 0.04693238 -0.17319047
0.017442496 0.009725169 0.12849808 -0.12287627 -0.012181389 0.089180335 -0.02637172 -0.17413671
-0.09990126 0.19905844 0.1808083 0.122855134 0.116290115 0.20154601 -0.091017075 -0.022291621
-0.16723207 0.18420021 0.21023548 -0.15740375 0.17158322 -0.04213526 -0.1147869 -0.016476883
0.08966835 -0.14712228 0.02887956 -0.15557781 -0.16227801 0.020183139 -0.12464555 -0.041149706
0.12029957 0.1404434 0.08690547 -0.20051934 -0.0524151 -0.21016401 -0.08004841 0.13892376
0.15110396 -0.07013548 0.10332868 -0.19049622 -0.15783016 -0.13044925 -0.13942367 0.089662775
0.21445262 0.106864385 -0.08273604 -0.19221786 0.19168979 -0.03453996 -0.051587097 0.19779849
-0.18487974 0.21060385 0.027358375 0.19033313 0.04549942 0.21033521 0.17777821 -0.0003712353
-0.0976381 -0.05685634 0.15534316 -0.09211256 -0.029409088 0.11802157 0.06104227 -0.10148957
0.17104772 -0.022019764 0.16912979 0.106894895 0.029969305 0.037682377 -0.21315366 0.12784049
-0.13097303 0.06054292 0.1975515 0.11565095 -0.029111601 0.20099667 -0.15389279 0.15728325
-0.06515434 -0.061609235 -0.1826325 0.11252419 0.15384223 0.017734388 0.03813241 -0.14712532
0.1749663 -0.16179565 0.122438475 -0.0020766624 -0.1300171 -0.113798216 0.15160188 0.079369694
-0.12213902 -0.21928704 0.10812646 0.004050426 -0.21017282 0.16542575 -0.21469063 0.16705841
-0.0800733 0.009158967 -0.14404303 -0.15739575 0.16873571 -0.18198718 0.17731094 -0.084908284
-0.13523984 -0.03816889 -0.062084224 0.11964471 0.10659852 -0.021898752 -0.16043578 0.048482712
0.19549555 -0.058918316 0.10811513 -0.21700285 -0.1415438 0.12096004 -0.2059467 -0.010319299
0.16110665 -0.09552329 -0.10726528 -0.1549407 0.13862318 0.15879403 -0.19897991 0.16259018
-0.12035708 -0.05067765 0.08514011 0.0134436935 -0.03825537 -0.20179754 0.006829299 0.08962653
-0.12118967 -0.06893901 -0.065600954 0.16098641 0.18795739 0.2005665 0.015612221 0.080392
-0.19871101 -0.21274258 -0.17864649 0.03160345 0.11079081 -0.080401845 -0.130944 -0.085987374
0.037392512 0.11556216 0.02358291 -0.17975587 -0.155127 0.031139305 -0.14051165 -0.18241896
0.12211042 -0.1738179 0.14665133 0.026823664 0.058734003 -0.14829542 0.14583771 0.14855553
0.052816603 -0.2141201 -0.087362066 0.12114842 -0.046704642 -0.07010882 -0.18158868 0.10731706
-0.13827057 0.11914081 -0.049110048 -0.14701092 -0.08510652 -0.16733196 -0.1819373 -0.15004644
0.060039926 0.13832013 0.19048958 0.021044042 0.10578975 -0.096231274 0.046610188 0.16996054
0.14883156 -0.15020181 -0.15274617 0.0001751857 -0.13474722 0.038708203 0.041267637 0.0011963762
0.20983529 -0.1025939 -0.17120141 -0.16839622 -0.054445274 -0.16526414 0.13749138 -0.17010708
-0.12194687 0.0070239957 0.12336202 -0.11782318 0.061706338 -0.21187815 0.2121969 0.14667082
0.038962554 -0.0820924 0.16435331 0.09061228 -0.034930576 -0.159156 0.1705146 -0.18103987
00000000: 4ede d0bb 6e9e 2abc b543 b53d 75b1 2e3e
00000010: bf7f 03be 5a4f c63d 1beb 233e 1ef4 b8bd
00000020: f27f 073e b544 fcbd d3f2 f6bd 7f01 d63d
00000030: 09c8 263e edfa bebd 2b3c 403d d858 31be
00000040: 91e3 8e3c 5156 1f3c 0095 033e 8ea6 fbbd
00000050: 7394 47bc 2ea4 b63d 8109 d8bc e550 32be
00000060: 0899 ccbd fad5 4b3e d025 393e 799b fb3d
00000070: 8329 ee3d 1462 4e3e 2967 babd eb9c b6bc
00000080: e23e 2bbe fb9e 3c3e f847 573e 732e 21be
00000090: 83b3 2f3e 0696 2cbd 6515 ebbd 87fa 86bc
000000a0: 0aa4 b73d 39a7 16be d494 ec3c ca4f 1fbe
000000b0: 352c 26be 1c57 a53c 2b46 ffbd 988c 28bd
000000c0: 9f5f f63d 65d0 0f3e 7ffb b13d f154 4dbe
000000d0: 37b1 56bd 3c35 57be 6cf0 a3bd 0842 0e3e
000000e0: ffba 1a3e 31a3 8fbd fd9d d33d 7111 43be
000000f0: 3b9e 21be 7d94 05be 14c5 0ebe 1ea1 b73d
00000100: 7899 5b3e b7db da3d 8371 a9bd c2d4 44be
00000110: 544a 443e c679 0dbd fe4c 53bd b08b 4a3e
00000120: 1d51 3dbe 89a8 573e ac1e e03c b0e6 423e
00000130: 9a5d 3a3d 1d62 573e 7e0b 363e 5ca2 c2b9
00000140: 7cf6 c7bd 32e2 68bd 4712 1f3e 83a5 bcbd
00000150: 54eb f0bc 4bb5 f13d 7607 7a3d c4d9 cfbd
00000160: 2227 2f3e cb62 b4bc 5c30 2d3e b6eb da3d
00000170: 3082 f53c d658 1a3d f444 5abe 9ee8 023e
00000180: cb1d 06be dafb 773d f14a 4a3e 68da ec3d
00000190: 747b eebc 12d2 4d3e 1296 1dbe dc0e 213e
000001a0: a36f 85bd f759 7cbd 0404 3bbe 1573 e63d
000001b0: d188 1d3e b547 913c bb30 1c3d 05a8 16be
000001c0: 5e2a 333e c2ad 25be 06c1 fa3d 9d18 08bb
000001d0: 3423 05be 0a0f e9bd 863d 1b3e 948c a23d
000001e0: 0624 fabd c88c 60be 6871 dd3d 70b9 843b
000001f0: 8b37 57be 5e65 293e dcd7 5bbe 5c11 2b3e
00000200: 78fd a3bd 7e0f 163c 0480 13be 5a2c 21be
00000210: 0ec9 2c3e d95a 3abe 0091 353e 65e4 adbd
00000220: 507c 0abe fb56 1cbd 074c 7ebd 4908 f53d
00000230: 5350 da3d 0365 b3bc 4749 24be cf95 463d
00000240: fc2f 483e 5554 71bd 776b dd3d ff35 5ebe
00000250: dcf0 10be e6b9 f73d b1e3 52be 4712 29bc
00000260: 24f9 243e b7a1 c3bd e6ad dbbd c6a8 1ebe
00000270: 3cf3 0d3e e79a 223e 64c1 4bbe 0a7e 263e
00000280: c67d f6bd 5e93 4fbd f05d ae3d f042 5c3c
00000290: aab1 1cbd 04a4 4ebe 50c8 df3b 1d8e b73d
000002a0: 4a32 f8bd e52f 8dbd cb59 86bd 9fd9 243e
000002b0: e777 403e 4e61 4d3e 67ca 7f3c 90a4 a43d
000002c0: e67a 4bbe 31d9 59be 1bef 36be 9f72 013d
000002d0: 4be6 e23d b9a9 a4bd 2f16 06be 261a b0bd
000002e0: e428 193d dbab ec3d f230 c13c ec11 38be
000002f0: 9dd9 1ebe db17 ff3c 49e2 0fbe 09cc 3abe
00000300: 0715 fa3d 52fd 31be c42b 163e 4dbd db3c
00000310: 1193 703d c1da 17be 7b56 153e f11e 183e
00000320: 3956 583d 4d42 5bbe e2ea b2bd aa1c f83d
00000330: 5e4d 3fbd 3795 8fbd 62f2 39be 0cc9 db3d
00000340: cd96 0dbe 1900 f43d 9e27 49bd 088a 16be
00000350: 544c aebd 1259 2bbe c64d 3abe c6a5 19be
00000360: 6dec 753d cba3 0d3e b30f 433e 8e64 ac3c
00000370: 4ca8 d83d e714 c5bd 53ea 3e3d 230a 2e3e
00000380: 4d67 183e 81ce 19be 7e69 1cbe 0eb2 3739
00000390: 2dfb 09be 7e8c 1e3d 4108 293d b9cf 9c3a
000003a0: 10df 563e c01c d2bd 6c4f 2fbe 0f70 2cbe
000003b0: 0202 5fbd 013b 29be 8aca 0c3e 8d30 2ebe
000003c0: 48bf f9bd 8c29 e63b 3aa5 fc3d 484d f1bd
000003d0: c9bf 7c3d 96f6 58be 254a 593e e030 163e
000003e0: 3397 1f3d 0f20 a8bd 3c4c 283e ee92 b93d
000003f0: 5d13 0fbd caf9 22be 619b 2e3e 8462 39be

gat_layers.0.lin_edge.weight f4 [64, 64]
0.0080440845 -0.08150324 0.13256375 -0.013366332 0.093161754 0.040764876 -0.19027868 -0.07004922
-0.18320692 0.093945004 0.018731106 0.20846336 0.09432491 0.10805401 0.10631948 0.21925421
0.1560506 0.17626832 -0.110889874 -0.035072874 0.0061960355 -0.08941691 0.043821905 0.16147245
-0.18163332 -0.1091901 0.009997758 -0.043415762 0.13069947 -0.111245744 0.2102574 -0.07154565
-0.088925 -0.16808201 0.21382582 -0.082324944 -0.12541327 -0.12383544 0.19037178 -0.083648846
-0.16645607 -0.06472921 0.086606644 -0.17258467 -0.10513404 -0.13966443 0.058379646 -0.08866316
0.028325595 -0.085354954 0.2186782 -0.15447234 0.14784087 0.11455161 0.029963452 0.13991837
-0.1715914 0.14424399 -0.07133163 -0.17063503 0.16942503 0.20854692 0.15733546 0.09536272
-0.10860469 0.08538611 -0.026158594 0.21286088 -0.17721836 -0.04319739 -0.18340635 0.08836703
0.04206969 -0.13159409 0.08120981 0.06704671 -0.13629907 -0.18533671 -0.027822351 -0.10014566
-0.025230216 -0.07027717 -0.047025476 -0.006510231 -0.05010675 -0.045698553 -0.20447297 -0.046060752
0.12898178 0.06363266 -0.21555994 0.15301768 -0.19880919 0.13894801 -0.14021975 -0.07865309
0.20777372 -0.11725597 0.13592072 -0.19461478 -0.017551353 0.05340584 -0.122737825 -0.15234129
-0.09870226 0.027334305 -0.0850399 -0.0073530357 0.11265857 -0.10838776 0.09107998 -0.026058918
-0.0048444625 0.050608467 -0.1891139 -0.12379178 0.114819966 0.077377506 -0.07826985 0.12079029
0.054993287 -0.0561407 0.00032760447 -0.17488524 -0.05540978 -0.06769329 0.20668058 -0.07938947
0.09237239 -0.13092765 0.06416932 -0.090116866 0.0052579013 -0.18079883 0.15490244 0.08384466
-0.13829903 0.014099716 0.17046794 -0.14000145 0.0007003448 0.09540688 -0.16092522 -0.11994612
-0.11701393 -0.088964306 -0.088151984 0.09292989 0.07621113 0.1559954 -0.07270384 -0.16190632
0.08183833 0.11373027 0.17926916 0.036642488 0.1120145 -0.0026598817 -0.09007642 0.01154929
0.055858433 -0.08343706 0.16002923 -0.06309812 -0.0684162 0.16818343 -0.1308384 0.17400245
0.12234706 0.031911545 0.17084235 0.054302372 0.0026573779 -0.09208303 0.06303811 0.1287659
0.13700292 0.20535508 0.10094414 0.08087921 0.07736412 0.00266642 0.17280245 0.040071737
0.08076127 -0.20931749 0.17953399 -0.14054275 0.18187019 0.17801923 -0.17973381 0.20438786
-0.011989569 0.18930957 -0.089357294 0.013111201 -0.20830758 -0.13718985 0.10948145 0.05909143
-0.11536433 0.17071943 0.16923542 -0.21231462 0.088300034 -0.13049851 0.16074476 0.1431919
-0.06080707 -0.12294216 -0.21184808 0.1954153 0.19395751 -0.018576456 -0.03154077 0.08016371
-0.0174385 -0.12866937 -0.06959928 -0.0940192 -0.21846882 -0.039735653 -0.012109673 0.10174298
-0.08866188 0.07270781 0.04158835 -0.11258467 -0.20855953 0.18147002 0.0841589 0.08885088
0.10560512 -0.12566143 -0.104372256 0.07362992 0.077047914 -0.029489841 0.15324071 -0.1561956
-0.022027967 -0.12184323 -0.18260023 -0.0034673712 0.18290141 -0.16430748 0.19271113 0.05136841
-0.12403944 0.12687275 0.16303703 0.18894532 -0.05988327 0.06768276 0.17805879 0.1791558
00000000: 56cb 033c 2ceb a6bd cbbe 073e 76fe 5abc
00000010: 97cb be3d 12f9 263d 6ad8 42be f775 8fbd
00000020: 989a 3bbe 3d66 c03d fa71 993c 6b77 553e
00000030: 6b2d c13d 6c4b dd3d 07be d93d 2d84 603e
00000040: bacb 1f3e af7f 343e 3b1a e3bd 93a8 0fbd
00000050: 1d08 cb3b 3720 b7bd 997e 333d 0959 253e
00000060: 16fe 39be 0f9f dfbd a3cd 233c bad4 31bd
00000070: 15d6 053e cfd4 e3bd b74d 573e 8786 92bd
00000080: 4f1e b6bd b11d 2cbe 28f5 5a3e fb99 a8bd
00000090: 566c 00be 6f9d fdbd d2f0 423e 1650 abbd
000000a0: 7673 2abe c090 84bd d35e b13d 09ba 30be
000000b0: 8450 d7bd 3104 0fbe 7f1f 6f3d 0895 b5bd
000000c0: 140b e83c 94ce aebd 2eed 5f3e ff2d 1ebe
000000d0: 9963 173e 099a ea3d ea75 f53c c346 0f3e
000000e0: a8b5 2fbe b2b4 133e 5116 92bd f3ba 2ebe
000000f0: c17d 2d3e 538d 553e 8c1c 213e 884d c33d
00000100: 236c debd eade ae3d 8c4a d6bc 34f8 593e
00000110: bb78 35be bfef 30bd e0ce 3bbe c6f9 b43d
00000120: 4451 2c3d 9ac0 06be 5451 a63d c94f 893d
00000130: fc91 0bbe e8c8 3dbe b3eb e3bc 2b19 cdbd
00000140: 99af cebc 7aed 8fbd c99d 40bd c753 d5bb
00000150: bc3c 4dbd 682e 3bbd 5d61 51be 33aa 3cbd
00000160: cd13 043e d751 823d bfbb 5cbe abb0 1c3e
00000170: a394 4bbe 6348 0e3e c495 0fbe df14 a1bd
00000180: a2c2 543e e623 f0bd cd2e 0b3e 1949 47be
00000190: dbc7 8fbc 15c0 5a3d f85d fbbd 5bff 1bbe
000001a0: 6924 cabd 31ec df3c 6629 aebd bcf1 f0bb
000001b0: 89b9 e63d 67fa ddbd 2488 ba3d 8379 d5bc
000001c0: 4cbe 9ebb d34a 4f3d 13a7 41be 8b86 fdbd
000001d0: bb26 eb3d 1978 9e3d f14b a0bd e660 f73d
000001e0: a440 613d caf3 65bd 54c2 ab39 1e15 33be
000001f0: 5ef5 62bd c8a2 8abd 13a4 533e f296 a2bd
00000200: bc2d bd3d e611 06be 346b 833d 318f b8bd
00000210: 794a ac3b 5423 39be bf9e 1e3e c0b6 ab3d
00000220: 439e 0dbe 7f02 673c 268f 2e3e 8a5c 0fbe
00000230: 5897 373a af64 c33d 95c9 24be 50a6 f5bd
00000240: 00a5 efbd eb32 b6bd 0789 b4bd 0752 be3d
00000250: 9514 9c3d 42bd 1f3e c0e5 94bd c5ca 25be
00000260: db9a a73d 6aeb e83d 5692 373e 6f16 163d
00000270: dc67 e53d 6951 2ebb fc79 b8bd 3c39 3d3c
00000280: d0cb 643d 0de1 aabd b4de 233e 9639 81bd
00000290: cb1d 8cbd 4738 2c3e 80fa 05be b32d 323e
000002a0: 1891 fa3d aeb5 023d 4cf1 2e3e 2a6c 5e3d
000002b0: 6727 2e3b 0796 bcbd 201a 813d 35db 033e
000002c0: 7e4a 0c3e 9a48 523e cdbb ce3d 00a4 a53d
000002d0: 1471 9e3d 1bbf 2e3b 20f3 303e 4322 243d
000002e0: 2a66 a53d 5357 56be c2d7 373e 70ea 0fbe
000002f0: 2e3c 3a3e ac4a 363e 240c 38be 0d4b 513e
00000300: e66f 44bc 5eda 413e f500 b7bd 5dd0 563c
00000310: 954e 55be 7f7b 0cbe cf37 e03d db09 723d
00000320: 2244 ecbd 13d1 2e3e 0d4c 2d3e 0169 59be
00000330: a6d6 b43d 67a1 05be 469a 243e e6a0 123e
00000340: d610 79bd 19c9 fbbd b4ee 58be f31a 483e
00000350: cc9c 463e a72d 98bc e530 01bd df2c a43d
00000360: 2fdb 8ebc e7c1 03be 118a 8ebd 238d c0bd
00000370: 4ab6 5fbe dac1 22bd a667 46bc a05e d03d
00000380: 5c94 b5bd d5e7 943d 8c58 2a3d cb92 e6bd
00000390: a190 55be 47d3 393e 805b ac3d 73f7 b53d
000003a0: 7f47 d83d 64ad 00be 1fc1 d5bd 49cb 963d
000003b0: 4ccb 9d3d ae94 f1bc 22eb 1c3e bdf1 1fbe
000003c0: ff73 b4bc f288 f9bd 8efb 3abe d63c 63bb
000003d0: 824a 3b3e 3840 28be 1156 453e af67 523d
000003e0: 6408 febd eeea 013e 2ef3 263e e27a 413e
000003f0: 2948 75bd 429d 8a3d 0b55 363e 9e74 373e

gat_layers.1.att_src f4 [1, 4, 16]
-0.0683038 0.27356756 0.0015219987 -0.42608693 0.40585393 -0.24165465 -0.20068754 0.013126411
0.20420818 0.43708986 -0.12279662 -0.035879463 -0.16333969 0.3811335 -0.20656866 0.51959956
-0.4321966 0.35459077 0.3038168 -0.15514866 0.39244476 0.0520764 0.30942544 0.35204035
-0.2535856 0.2954822 0.5405839 0.21782751 -0.039020464 0.44211164 0.026128171 -0.3774278
-0.49663353 0.011088864 -0.28996938 0.07637022 0.36343804 0.17534377 0.14730656 0.38067883
0.4836807 -0.19771886 0.21628317 0.069409564 -0.11871693 0.36762127 0.11795369 0.35206127
-0.5038761 0.46604556 -0.0759467 0.25548458 -0.53736115 0.44863483 0.01430941 -0.27968565
0.16453338 0.17465518 -0.2351375 -0.4239438 0.4928491 -0.03708346 -0.09110941 -0.020375496
00000000: dde2 8bbd 0c11 8c3e cd7d c73a 1128 dabe
00000010: 16cc cf3e 5174 77be 0981 4dbe 2810 573c
00000020: f31b 513e 3eca df3e cb7c fbbd 58f6 12bd
00000030: 8542 27be ee23 c33e bc86 53be 7a04 053f
00000040: df48 ddbe ec8c b53e e08d 9b3e 4adf 1ebe
00000050: 85ee c83e 104e 553d 036d 9e3e a23e b43e
00000060: f9d5 81be 7149 973e b563 0a3f 2d0e 5f3e
00000070: ecd3 1fbd 755c e23e bf0a d63c 373e c1be
00000080: c046 febe 11ae 353c de76 94be fd67 9c3d
00000090: 8d14 ba3e 518d 333e 88d7 163e 56e8 c23e
000000a0: ffa4 f73e d076 4abe 5679 5d3e 9a26 8e3d
000000b0: dd21 f3bd db38 bc3e b491 f13d 6041 b43e
000000c0: 06fe 00bf 869d ee3e f289 9bbd e0ce 823e
000000d0: 8090 09bf 77b3 e53e 0472 6a3c f532 8fbe
000000e0: 707b 283e cfd8 323e e3c7 70be 290f d9be
000000f0: b856 fc3e d3e4 17bd 9297 babd 83ea a6bc

gat_layers.1.att_dst f4 [1, 4, 16]
-0.51733726 0.07765602 0.41825566 0.26453623 -0.45656374 -0.43709025 -0.38345814 -0.33926013
-0.3984525 -0.43459016 -0.3062303 0.35716426 0.508891 0.51988584 0.31378877 -0.4369339
-0.42722785 -0.3125648 -0.4336006 0.3208174 -0.09303806 -0.007284797 -0.23501693 0.21818756
-0.00033292774 -0.012054404 -0.020672303 -0.38060665 -0.28001884 -0.38824835 0.45214736 0.11305304
0.23216149 -0.1319352 -0.03857671 -0.21211673 0.10877383 -0.009844123 -0.27531594 0.5276663
-0.40750822 -0.19149266 -0.062034726 -0.5264347 -0.4053952 -0.539132 0.12582254 -0.121804215
-0.397302 -0.27442938 -0.48429015 0.2700458 -0.1960713 0.001499121 -0.074308336 -0.041079402
0.37539598 -0.07016481 -0.33886603 -0.44843644 0.20900296 -0.1482359 0.17460091 -0.18917358
00000000: 3770 04bf 1f0a 9f3d 9b25 d63e 4b71 873e
00000010: b9c2 e9be 4bca dfbe a054 c4be 81b3 adbe
00000020: f701 ccbe 9a82 debe 38ca 9cbe 3cde b63e
00000030: ae46 023f 3d17 053f eca8 a03e cdb5 dfbe
00000040: 9cbd dabe 7e08 a0be e600 debe 2e42 a43e
00000050: bd8a bebd 4eb5 eebb 47a8 70be 8f6c 5f3e
00000060: ce8c aeb9 d67f 45bc f658 a9bc e0de c2be
00000070: a15e 8fbe 7dc8 c6be dc7f e73e 5a88 e73d
00000080: bebb 6d3e 051a 07be 9d02 1ebd 2135 59be
00000090: d0c4 de3d 3f49 21bc 36f6 8cbe 2315 073f
000000a0: eba4 d0be a716 44be 2018 7ebd 6dc4 06bf
000000b0: f68f cfbe 8e04 0abf a0d7 003e 7d74 f9bd
000000c0: 2b6b cbbe 0282 8cbe e1f4 f7be 7143 8a3e
000000d0: eac6 48be 277e c43a f82e 98bd e042 28bd
000000e0: e733 c03e 91b2 8fbd d97f adbe 7699 e5be
000000f0: df04 563e 27cb 17be 95ca 323e b8b6 41be

gat_layers.1.att_edge f4 [1, 4, 16]
0.4393789 -0.24214448 -0.08417831 -0.0015776946 -0.027436553 0.44521827 -0.23628269 0.10266598
0.43605986 0.33857527 -0.42035443 -0.0969721 0.04680955 -0.47175127 -0.5444368 0.1055829
-0.15315942 -0.21318519 0.07974907 -0.497412 0.18351135 -0.3922227 0.28296125 0.15934929
-0.32021916 0.11223151 0.529454 -0.36676195 0.5506755 -0.4330645 -0.118294455 -0.3760757
0.10318904 0.24356487 -0.15818451 0.09232369 -0.49866545 0.26683748 -0.37023556 -0.07075364
-0.37009865 0.29921526 -0.19026038 -0.30982947 -0.42960662 -0.3930135 -0.064283 -0.47147813
-0.25384906 0.13415444 -0.39541563 -0.40953138 0.041030243 -0.51445895 0.09683636 -0.0028348186
0.16455746 0.42704865 -0.12951554 -0.27712825 -0.13409573 0.28982344 0.39921322 0.39309433
00000000: 45f6 e03e b9f4 77be ae65 acbd a5ca ceba
00000010: 9fc2 e0bc a6f3 e33e 17f4 71be 8b42 d23d
00000020: 3d43 df3e bd59 ad3e b238 d7be 4f99 c6bd
00000030: 5fbb 3f3d 6289 f1be 3660 0bbf d93b d83d
00000040: d3d5 1cbe 384d 5abe 7b53 a33d c9ac febe
00000050: 66ea 3b3e 6ad1 c8be 4ce0 903e 762c 233e
00000060: c4f3 a3be a2d9 e53d 4c8a 073f 39c8 bbbe
00000070: 12f9 0c3f a1ba ddbe 5d44 f2bd ff8c c0be
00000080: c754 d33d 1269 793e 1ffb 21be 3414 bd3d
00000090: 1451 ffbe ec9e 883e 848f bdbe 49e7 90bd
000000a0: 927d bdbe be32 993e 9ed3 42be f8a1 9ebe
000000b0: 66f5 dbbe 1139 c9be cea6 83bd 9565 f1be
000000c0: 81f8 81be c85f 093e eb73 cabe 19ae d1be
000000d0: 540f 283d 95b3 03bf 2452 c63d 5dc8 39bb
000000e0: c081 283e 1fa6 da3e b99f 04be c1e3 8dbe
000000f0: 6450 09be bd63 943e ad65 cc3e a943 c93e

gat_layers.1.bias f4 [64]
-0.0066630915 -0.0038485257 0.008212321 0.0118139 -0.006082452 0.010977901 -0.0065408917 -0.0062429565
-0.0060155448 0.0071405317 0.0014347883 -0.0065983348 -0.0065777646 -0.0054024523 -0.005369017 -0.005589319
-0.0065591964 -0.0057899132 -0.005171923 0.012682562 -0.0063799303 -0.0055353483 -0.006634632 -0.006464087
0.0056212544 -0.0054629245 0.00027456402 0.01161895 -0.0029761838 0.007092615 -0.00487106 -0.00649747
-0.0066072256 -0.0061509567 -0.0055693127 -0.0050231647 -0.006458197 0.009424241 -0.0050058234 0.010778905
-0.0063248356 0.0051122475 -0.006553823 -0.005453994 -0.0061187106 -0.0065854737 0.013296877 0.0075035314
-0.0066525657 -0.005910416 0.015492518 -0.0065947315 -0.0066816886 0.006826282 -0.0023740164 0.004329259
-0.006685925 -0.0053140493 -0.004150664 -0.0066586626 -0.004548292 -0.005730729 -0.004867372 -0.006291938
00000000: 1056 dabb 8c37 7cbb f98c 063c 178f 413c
00000010: 4e4f c7bb a7dc 333c fa54 d6bb b791 ccbb
00000020: 0c1e c5bb 1ffb e93b 820f bc3a d836 d8bb
00000030: 4a8a d7bb 0e07 b1bb 94ee afbb 9b26 b7bb
00000040: 87ee d6bb 50b9 bdbb 3c79 a9bb 85ca 4f3c
00000050: bc0e d1bb de61 b5bb 5467 d9bb b1d0 d3bb
00000060: 8032 b83b 5502 b3bb 5cf3 8f39 695d 3e3c
00000070: 140c 43bb 2b69 e83b 6a9d 9fbb bbe8 d4bb
00000080: 6d81 d8bb f78d c9bb c87e b6bb 5c99 a4bb
00000090: 489f d3bb 2268 1a3c e407 a4bb 019a 303c
000000a0: 9140 cfbb a484 a73b 74c1 d6bb 6bb7 b2bb
000000b0: 777f c8bb f5ca d7bb 25db 593c 2fe0 f53b
000000c0: c4fd d9bb 2aac c1bb 55d4 7d3c 9e18 d8bb
000000d0: 11f2 dabb 01af df3b 6395 1bbb 75dc 8d3b
000000e0: 9b15 dbbb 7a21 aebb 4b02 88bb e930 dabb
000000f0: d709 95bb d7c8 bbbb 7a7e 9fbb 9a2c cebb

gat_layers.1.lin.weight f4 [64, 64]
0.075114176 -0.12884119 0.18734345 -0.11857271 0.019908465 0.100974984 0.0054103667 0.09824453
-0.10985597 -0.12742536 0.20414986 0.18095943 -0.15003498 -0.11225589 -0.021264032 0.16015004
-0.020086516 0.09950087 -0.16727412 0.0130059235 -0.13511185 -0.1249125 0.21760048 0.052746348
0.022280077 0.14093259 0.19229119 -0.18972173 -0.12824932 -0.025659118 0.21288125 0.009149546
-0.013826821 0.17979442 -0.07899515 0.009457635 0.078889355 -0.013496058 -0.17463462 -0.15397462
-0.1318582 -0.063340075 -0.1299329 0.12345449 0.05627143 0.17847499 0.027441459 -0.19989225
-0.033645794 0.11601386 -0.08085549 0.07221238 0.044718355 0.04743287 0.1784502 -0.20867842
-0.15564325 -0.07434115 -0.033458598 0.0052893083 -0.18986075 0.045746733 0.058662955 0.13738497
0.18689047 0.14111114 -0.07093649 0.20808949 -0.03265129 -0.118101336 -0.21340482 -0.09257772
-0.2146158 -0.18924882 -0.0766302 -0.20293427 -0.18815033 -0.12122695 0.1824189 -0.13791385
0.18075152 -0.19455245 -0.14634697 0.072812274 0.14126715 0.15095733 0.0570497 -0.11594155
-0.087014005 -0.2160832 0.02172985 0.042497534 -0.004690059 -0.20742393 0.071839444 -0.18414319
0.06344964 0.033854738 0.2115924 -0.052481335 0.15109289 0.19999135 0.017313682 0.050620932
0.02135128 0.19542612 0.04951423 -0.001084669 0.0017567613 -0.16271776 0.1910876 -0.08451891
0.20001353 0.18877023 -0.16806473 -0.11239243 -0.011324254 -0.13605145 0.17327471 0.13693461
-0.14606266 0.09264617 -0.08269808 -0.048754603 0.20597298 -0.1346636 0.17732789 -0.15812023
0.13823462 0.12934703 0.03879391 0.12757327 -0.05502809 -0.13671681 -0.062816046 -0.044725407
-0.05493934 0.11396312 0.16182908 -0.012325392 0.09118016 0.20151292 -0.036135092 0.06961
0.026276046 0.03150698 -0.14997205 0.18272789 -0.20134671 0.1520779 -0.03195041 -0.20000558
0.12437728 -0.15380305 -0.098711334 -0.17164399 -0.14078201 0.035518624 0.16914329 0.10901659
-0.1670382 -0.114768036 0.17960852 0.20290546 0.07575523 0.20301838 0.0077387355 0.110706255
-0.19636224 0.014393119 -0.21105841 0.14024071 0.102010995 0.103724696 0.15362084 0.16786128
-0.06278329 0.020424772 -0.009029345 -0.012650355 0.18895245 0.18418163 -0.07308315 -0.09345739
0.09827532 -0.21417893 -0.0051608863 0.100978196 -0.059078276 -0.19672744 0.08756135 -0.019823853
-0.21174568 -0.016267749 -0.10135841 -0.21027234 0.120401956 -0.11590068 0.13523665 -0.14430107
0.21239963 0.1817936 -0.045041833 0.19331631 -0.2099586 0.017700933 0.0055850716 0.07523475
0.207116 0.1435443 0.1599982 0.06402311 -0.1819656 0.18507734 0.08384769 -0.006303391
-0.025296334 0.04084684 -0.17735578 0.041418884 -0.09419758 0.05656318 -0.17262766 0.19118004
0.12229924 0.13885885 -0.08897487 -0.057055227 0.060563978 0.055920213 -0.13209055 -0.11711601
-0.1629466 0.17808862 0.035120033 0.04314677 0.03747126 -0.17161548 0.19448578 0.11661187
-0.013368496 0.010958512 0.031049142 0.03208514 0.1627921 -0.17018688 0.18284929 -0.1102369
0.19456996 0.0144701395 0.07678082 0.006248783 -0.14837016 -0.09315886 0.20598358 0.1949809
00000000: 76d5 993d f2ee 03be f6d6 3f3e 40d6 f2bd
00000010: 1417 a33c f9cb ce3d 7249 b13b 6e34 c93d
00000020: 2bfc e0bd cb7b 02be a90c 513e 6e4d 393e
00000030: c5a2 19be 6be6 e5bd e831 aebc 5ffe 233e
00000040: 7a8c a4bc 1dc7 cb3d e849 2bbe cc16 553c
00000050: c35a 0abe 20d2 ffbd a9d2 5e3e 8e0c 583d
00000060: b584 b63c a250 103e fbe7 443e 6a46 42be
00000070: ca53 03be 1233 d2bc 8bfd 593e fae7 153c
00000080: e489 62bc 071c 383e 36c8 a1bd 32f4 1a3c
00000090: be90 a13d 921e 5dbc 6bd3 32be 86ab 1dbe
000000a0: d605 07be 71b8 81bd 210d 05be b5d5 fc3d
000000b0: df7c 663d 26c2 363e e9cc e03c 8eb0 4cbe
000000c0: 2cd0 09bd ad98 ed3d 9097 a5bd 16e4 933d
000000d0: 982a 373d f848 423d a6bb 363e ccaf 55be
000000e0: f260 1fbe 2c40 98bd e20b 09bd ef51 ad3b
000000f0: db6a 42be ed60 3b3d 9148 703d a5ae 0c3e
00000100: 3760 3f3e 707f 103e 2747 91bd 6915 553e
00000110: 5cbd 05bd 1ddf f1bd cb86 5abe 6399 bdbd
00000120: 3fc4 5bbe 71ca 41be 4bf0 9cbd 00ce 4fbe
00000130: 7baa 40be d645 f8bd 05cc 3a3e 4a39 0dbe
00000140: ed16 393e c238 47be fbdb 15be 9a1e 953d
00000150: 56a8 103e 8f94 1a3e f2ac 693d c372 edbd
00000160: 6634 b2bd ea44 5dbe cc02 b23c e511 2e3d
00000170: 11af 99bb f066 54be 8f20 933d 0890 3cbe
00000180: e3f1 813d 44ab 0a3d aeab 583e abf6 56bd
00000190: 18b8 1a3e 88ca 4c3e 6cd5 8d3c e557 4f3d
000001a0: e1e8 ae3c c91d 483e 6fcf 4a3d 742b 8eba
000001b0: 2143 e63a 7c9f 26be 78ac 433e 4018 adbd
000001c0: 59d0 4c3e fc4c 413e 2919 2cbe 012e e6bd
000001d0: 5d89 39bc 1251 0bbe ed6e 313e 9638 0c3e
000001e0: 7391 15be 46bd bd3d 9c5d a9bd e8b2 47bd
000001f0: 95ea 523e 41e5 09be 7195 353e 45ea 21be
00000200: 608d 0d3e 8c73 043e 5de6 1e3d 91a2 023e
00000210: 2265 61bd 7eff 0bbe b3a5 80bd fd31 37bd
00000220: 1308 61bd 7f65 e93d 86b6 253e 71f0 49bc
00000230: aabc ba3d 6759 4e3e 6402 14bd b08f 8e3d
00000240: dd40 d73c 770d 013d 4692 19be 051d 3b3e
00000250: d52d 4ebe 4fba 1b3e 6fde 02bd 43ce 4cbe
00000260: 84b9 fe3d 8c7e 1dbe 2b29 cabd 71c3 2fbe
00000270: 2929 10be fa7b 113d e633 2d3e 1744 df3d
00000280: 100c 2bbe 810b ebbd 4ceb 373e 73c6 4f3e
00000290: 8f25 9b3d 0de4 4f3e 3895 fd3b f6b9 e23d
000002a0: 2f13 49be 1ed1 6b3c b21f 58be 439b 0f3e
000002b0: 24eb d03d 9d6d d43d c84e 1d3e d4e3 2b3e
000002c0: 8794 80bd da51 a73c d1ef 13bc 6f43 4fbc
000002d0: c07c 413e 1c9a 3c3e 9eac 95bd 9766 bfbd
000002e0: 9244 c93d b951 5bbe a71c a9bb a8cd ce3d
000002f0: 10fc 71bd eb72 49be 5d53 b33d a265 a2bc
00000300: dcd3 58be f143 85bc 0095 cfbd a251 57be
00000310: 4d95 f63d 565d edbd 7a7b 0a3e a9c3 13be
00000320: 4a7f 593e 1a28 3a3e c97d 38bd b6f4 453e
00000330: 63ff 56be 8c01 913c fa02 b73b ad14 9a3d
00000340: 3716 543e 47fd 123e 91d6 233e 8c1e 833d
00000350: 3155 3abe ea84 3d3e 56b8 ab3d ad8c cebb
00000360: 423a cfbc 044f 273d c19c 35be d9a6 293d
00000370: a9ea c0bd cbae 673d 4ec5 30be b3c4 433e
00000380: 0678 fa3d 0431 0e3e 7538 b6bd beb2 69bd
00000390: ef11 783d 980c 653d bf42 07be 85da efbd
000003a0: 79db 26be dd5c 363e 06da 0f3d abba 303d
000003b0: 777b 193d f8bb 2fbe 4827 473e 34d2 ee3d
000003c0: 8907 5bbc 558b 333c c55a fe3c b56b 033d
000003d0: f9b2 263e 7845 2ebe d83c 3b3e e2c3 e1bd
000003e0: 593d 473e 2a14 6d3c 433f 9d3d 97c2 cc3b
000003f0: 59ee 17be 13ca bebd 5ced 523e 13a9 473e

gat_layers.1.lin_edge.weight f4 [64, 64]
0.19062984 0.0661767 -0.20861492 -0.09253671 -0.01236278 0.04495791 0.0077189794 0.009034177
-0.037434462 0.013560696 0.0452827 -0.16027105 0.19668446 -0.08744085 -0.10091378 -0.17568746
-0.14729965 -0.16126892 -0.09825088 0.19658756 0.18257166 0.0023590387 -0.19925329 -0.1609129
0.030890567 -0.1642727 -0.0051837824 0.047707863 0.043902293 0.17700659 -0.13213506 -0.09099651
-0.07091699 -0.085277274 0.21400335 0.042741325 -0.09250976 -0.1187943 -0.02322046 -0.010700626
0.18081278 -0.024061399 -0.022266172 0.03158454 -0.0021001669 -0.11988774 -0.070689015 0.04600095
0.0613562 -0.12625849 -0.15878007 -0.016140476 0.007777313 0.09325168 0.1501573 -0.022374343
0.07674483 -0.17586711 -0.13613667 -0.1459731 -0.13535413 -0.21014957 0.2073274 0.19552876
-0.15891784 0.07692416 -0.12430647 0.056247957 -0.03580066 -0.030938428 0.18732223 0.21395604
-0.1983123 0.07124323 -0.022459252 -0.075936936 0.050318096 0.19914034 -0.18948713 -0.029539116
0.1907496 -0.06585638 0.038758256 0.21532853 -0.1805813 0.0042581125 -0.046106152 0.201802
-0.15960898 0.098569125 0.024902882 -0.033390377 -0.04124921 -0.09589329 0.057430968 -0.12073258
0.21196902 -0.0837755 -0.10931685 -0.20546067 -0.2034942 0.0027108225 -0.0059767403 0.10809292
-0.14533025 -0.16973877 -0.100489564 -0.19113074 -0.07758054 -0.1155025 -0.08464979 -0.052319463
0.08860987 -0.010102965 0.15375616 -0.044367664 0.03286158 0.017951544 0.0015469943 0.069480434
0.01889654 -0.02735118 -0.09976527 -0.05897192 -0.2063155 0.14536418 -0.13789158 -0.12817103
-0.056326456 0.19001138 -0.014857625 0.06402984 -0.05419319 -0.12854038 -0.03516318 -0.1143895
0.122798026 0.04902828 0.14894333 -1.3314642e-05 0.17707716 -0.17499137 0.21031955 -0.20773937
0.08574697 -0.041334584 0.09174943 -0.031229433 -0.1699454 0.108847 -0.046599373 0.09845939
-0.15867287 -0.04413031 -0.14681773 -0.17379849 -0.0792129 0.0076697078 -0.18370005 0.19187523
0.17538127 0.1783089 -0.20729607 0.06812153 0.2055224 -0.02999074 0.21216269 0.026599428
-0.12872283 -0.14089073 0.17772542 -0.12568958 -0.13722838 -0.064028844 0.08334492 0.092786506
0.071033254 0.06576795 0.13868509 0.20452 -0.11747945 -0.1696785 -0.11070935 0.040456984
-0.19242142 -0.14027742 -0.11454205 0.10389944 0.21250102 -0.20713982 -0.14901918 0.15732066
-0.10784945 -0.06150698 0.09923733 -0.08793694 0.11444658 0.13641843 -0.08396588 0.14605978
-0.12546688 0.17897023 0.19424644 -0.025335833 0.20795786 -0.00525591 -0.18565822 -0.094195105
-0.017885724 0.062154297 0.12818113 0.011477528 0.12329406 0.12689196 0.2121496 -0.10148784
0.13081588 0.21309745 0.17939496 0.02393422 0.2003788 0.16134429 0.09375421 -0.13320392
-0.044173323 -0.069921926 0.17617437 -0.1730914 0.019381689 0.016680343 -0.0062614176 -0.15719502
0.007663736 0.12601994 -0.11027925 0.07160396 0.08117703 0.01325209 0.09698877 0.17323531
0.16880041 0.2094834 0.17817362 -0.0052892016 0.10614403 0.04081195 0.14349554 -0.029934086
0.15569307 0.21429124 0.10624252 -0.19691032 0.18685651 0.13901836 0.07130199 0.007958072
00000000: 7834 433e a687 873d 269f 55be e383 bdbd
00000010: 428d 4abc c925 383d 7eef fc3b 1604 143c
00000020: e154 19bd ae2d 5e3c 5a7a 393d 181e 24be
00000030: a767 493e 3014 b3bd e2ab cebd 6ae7 33be
00000040: b8d5 16be ae23 25be c237 c9bd 404e 493e
00000050: 11f4 3a3e 1a9a 1a3b 0e09 4cbe 5ac6 24be
00000060: 370e fd3c 1a37 28be b8dc a9bb 5269 433d
00000070: e4d2 333d 3741 353e 6a4e 07be 615c babd
00000080: ed3c 91bd daa5 aebd b223 5b3e 8711 2f3d
00000090: c275 bdbd 6d4a f3bd d638 bebc ae51 2fbc
000000a0: fc26 393e 691c c5bc 8c67 b6bc ca5e 013d
000000b0: f4a2 09bb b487 f5bd 67c5 90bd 7e6b 3c3d
000000c0: a450 7b3d e849 01be 3e97 22be 0839 84bc
000000d0: d4d8 fe3b bdfa be3d d6c2 193e 664a b7bc
000000e0: 652c 9d3d 8216 34be 6967 0bbe f979 15be
000000f0: 469a 0abe 7331 57be a24d 543e b138 483e
00000100: 5cbb 22be 6a8a 9d3d 6494 febd 4264 663d
00000110: b6a3 12bd 9672 fdbc 66d1 3f3e 4b17 5b3e
00000120: 6112 4bbe f8e7 913d 77fc b7bc d384 9bbd
00000130: 591a 4e3d 72eb 4b3e ea08 42be 04fc f1bc
00000140: dd53 433e b6df 86bd fac0 1e3d 157f 5c3e
00000150: 4eea 38be a387 8b3b ced9 3cbd 2fa5 4e3e
00000160: 8970 23be 9cde c93d 2101 cc3c 59c4 08bd
00000170: eef4 28bd b463 c4bd bc3c 6b3d a542 f7bd
00000180: 680e 593e 7d92 abbd 83e1 dfbd 4864 52be
00000190: c960 50be 0ea8 313b 88d8 c3bb d25f dd3d
000001a0: 74d1 14be 00d0 2dbe 79cd cdbd c7b7 43be
000001b0: 8ce2 9ebd 938c ecbd de5c adbd ef4c 56bd
000001c0: 1779 b53d e886 25bc 4172 1d3e deba 35bd
000001d0: dd99 063d 1e0f 933c 84c4 ca3a c24b 8e3d
000001e0: ebcc 9a3c 950f e0bc bc51 ccbd 8a8c 71bd
000001f0: 5f44 53be 59da 143e 7333 0dbe 443f 03be
00000200: 92b6 66bd 5892 423e 656d 73bc 1422 833d
00000210: aef9 5dbd 17a0 03be 4407 10bd 0b45 eabd
00000220: 887d fb3d e1d1 483d 9a84 183e f461 5fb7
00000230: b753 353e f030 33be 025e 573e a1b9 54be
00000240: 1b9c af3d 744e 29bd 20e7 bb3d ded4 ffbc
00000250: 2b06 2ebe 2deb de3d fcde 3ebd 14a5 c93d
00000260: 247b 22be fcc1 34bd 6357 16be 3bf8 31be
00000270: 5f3a a2bd 2c52 fb3b de1b 3cbe f17a 443e
00000280: 2697 333e 9c96 363e 6c45 54be 4d83 8b3d
00000290: 7774 523e 24af f5bc 2d41 593e 0be7 d93c
000002a0: ebcf 03be a945 10be a7fd 353e c5b4 00be
000002b0: 9985 0cbe 8e21 83bd beb0 aa3d da06 be3d
000002c0: e279 913d 59b1 863d 7703 0e3e b16d 513e
000002d0: 1199 f0bd 33c0 2dbe 95bb e2bd 39b6 253d
000002e0: 1f0a 45be e2a4 0fbe 0695 eabd 3bc9 d43d
000002f0: de99 593e 761c 54be 7c98 18be ab18 213e
00000300: 2ce0 dcbd beee 7bbd f13c cb3d 4818 b4bd
00000310: f862 ea3d 46b1 0b3e 4ef6 abbd b290 153e
00000320: 647a 00be f943 373e 8ae8 463e 188d cfbc
00000330: e8f2 543e c539 acbb 301d 3ebe 5de9 c0bd
00000340: 1585 92bc 8195 7e3d ea41 033e 3e0c 3c3c
00000350: 9981 fc3d f7ef 013e bf3d 593e dbd8 cfbd
00000360: 99f4 053e 3836 5a3e 50b3 373e b311 c43c
00000370: 1a30 4d3e 7037 253e 3502 c03d 9c66 08be
00000380: 16ef 34bd 3a33 8fbd 0e67 343e df3e 31be
00000390: 59c6 9e3c 37a5 883c 942c cdbb bbf7 20be
000003a0: 1420 fb3b 5f0b 013e 16da e1bd 19a5 923d
000003b0: 2540 a63d 4b1f 593c 0ca2 c63d 9964 313e
000003c0: 04da 2c3e d182 563e 2573 363e 0a51 adbb
000003d0: 0b62 d93d 6e2a 273d 7ff0 123e 5438 f5bc
000003e0: 016e 1f3e 2a6f 5b3e ae95 d93d dca2 49be
000003f0: 5057 3f3e d45a 0e3e c706 923d 9362 023c
