models/best_fraud_model_seed_123.pth (torch, 378192 bytes, 45 tensors)

node_emb.weight f4 [64, 8]
000000 02 ff 40 3e 94 d1 9a be 06 a1 22 3e f3 7c 9d be
       0.18847278 -0.3023802 0.15881738 -0.3075939
000010 be 5e f6 bb e4 cf 9b bd e4 b1 1f 3e b7 49 2e be
       -0.0075186184 -0.07608011 0.15595204 -0.17020307
000020 03 1e a9 be 02 dc 94 3e df 8d 2d 3d 1c 7a 89 3e
       -0.3303071 0.29074103 0.042371627 0.26850975
000030 c6 fc 07 be 39 95 9b 3e 04 9f 7c be 62 47 84 3e
       -0.13280019 0.30387285 -0.24670035 0.2583571
000040 d1 84 03 be 0f c7 70 3e b5 b3 96 be 8a 46 5b 3e
       -0.12843634 0.23513435 -0.2943398 0.21413627
000050 17 3f a3 be a7 59 7b 3d a6 e7 b2 be fa 66 b1 3e
       -0.3188407 0.061364796 -0.3494236 0.34648877
000060 a4 d2 1c 3e 9c 8f 43 3e 5e b1 0a 3c 08 56 84 3e
       0.15314728 0.19097751 0.008465139 0.25846887
000070 0c f4 1b be cc a3 9c 3e e8 7d ae be e5 bd 1e be
       -0.15229815 0.30593717 -0.34080434 -0.15502127
000080 49 de a3 be 59 e3 57 3e 34 05 fa bd dd 0c 6e be
       -0.32005528 0.2108282 -0.12208024 -0.23247094
000090 d6 a3 88 bc ec 88 9a be 3d 6c fa bd f1 00 80 3e
       -0.016679686 -0.30182588 -0.12227676 0.25000718
0000a0 86 b9 99 3d 37 e3 5c 3d 11 6e 56 3e fd 13 8c bd
       0.07506089 0.053927626 0.20940425 -0.0683975
0000b0 68 b8 62 3e 24 7a 89 3e ed 52 3c 3e e7 a5 17 be
       0.22140658 0.26850998 0.18391009 -0.1480938
0000c0 c2 08 1b 3e 73 fd 8a be 4b 87 13 be 5e bf b7 be
       0.1514006 -0.2714649 -0.14407079 -0.3588819
0000d0 fa 0d 3d be f4 c9 ed bd 51 5a dd bd 92 2f 24 be
       -0.18462363 -0.11610785 -0.10808242 -0.16033772
0000e0 98 71 db 3c 2d a1 80 be 9a 80 10 3e 70 ea 9c be
       0.026787564 -0.25122967 0.14111558 -0.30647612
0000f0 4e db 83 be d8 43 d9 bd 46 20 25 be 44 b2 a9 be
       -0.25753254 -0.10608643 -0.16125593 -0.33143818
000100 95 d5 06 be f4 cb 0c 3e 8d b9 8e 3e ac 6f 46 be
       -0.13167413 0.13749677 0.2787594 -0.19378537
000110 3d 87 1e be 4f 0c 11 3e 75 79 8a 3e fe 35 bc bc
       -0.15481277 0.14164852 0.2704579 -0.022974964
000120 a7 d5 85 3e c3 aa a9 be 1c de 0d 3e 1d 0d 87 3e
       0.26139566 -0.33138093 0.13854259 0.26377192
000130 ac 1d 78 be 5c 1b 29 3e ea e9 bb bd b0 0d 32 3e
       -0.24230069 0.16514343 -0.09175475 0.17388034
000140 ba 5e 2b bc 8b 5b 8b be 0d 85 8c be 64 bc 9f bd
       -0.010459596 -0.2721828 -0.2744526 -0.077996045
000150 e9 9c eb bd d6 86 90 be e9 61 cf bd 1a aa ef bd
       -0.115045376 -0.28227872 -0.10126097 -0.11702366
000160 fb b8 a9 be 65 7c a2 3e 81 d6 4f be 58 11 83 3e
       -0.3314894 0.3173553 -0.2029667 0.2559917
000170 b2 ad af be 58 cd b0 3d 83 6c 88 bc 4c 31 9b 3e
       -0.34312207 0.08632916 -0.016653305 0.30311048
000180 9b 5f 63 3e f1 76 b1 be 79 4e 6d be 8d 4f a1 be
       0.2220444 -0.34661058 -0.23174466 -0.31506005
000190 0d e7 a5 3e f3 9d db bd ea 1c 22 be 46 69 93 3e
       0.3240284 -0.10723486 -0.15831342 0.28791255
0001a0 26 b1 3f bd e1 18 78 3c 5d dc 5c 3c 46 b2 92 be
       -0.0467998 0.01514265 0.013480273 -0.28651637
0001b0 26 6e 5b be db e6 95 be f2 b5 1b bd 80 ef b1 be
       -0.21428737 -0.2927769 -0.038015313 -0.34753036
0001c0 c8 69 ac be 46 a6 b0 be 79 2f 9f bd 69 27 d1 bc
       -0.33674455 -0.34501857 -0.077727266 -0.025531488
0001d0 d8 d3 28 be 57 f8 2e 3e 19 18 9a be 18 bc 82 3e
       -0.16487062 0.17086922 -0.3009651 0.2553413
0001e0 04 f5 53 be 74 11 ae be 75 74 12 be 5d 7f a1 be
       -0.20698935 -0.3399769 -0.14302237 -0.31542483
0001f0 70 2b 87 be b0 bb 89 be 2a a2 17 3e 6e b1 69 be
       -0.26400328 -0.26901007 0.14807954 -0.2282159
000200 d4 61 fc bd ab 10 1b be 7c f4 cd bd 6c 0e 62 3e
       -0.12323347 -0.15143077 -0.10056397 0.22075814
000210 dd 1d ab 3d 07 e1 78 be 59 f7 45 3d 52 d2 a4 be
       0.08355305 -0.24304591 0.048331592 -0.32191712
000220 9d 02 89 3e c0 12 ec 3d f2 8e d8 bd ac 9b 93 be
       0.26759806 0.11527014 -0.1057414 -0.28829706
000230 a3 12 a6 bd ed 3f 15 be 32 ba 96 3e e8 92 0e 3c
       -0.081090234 -0.14575167 0.2943893 0.008702017
000240 9f 06 9a bb 0f 89 7e bd 63 dc 8d be cd ac 03 3e
       -0.0047004963 -0.062142428 -0.27707204 0.12858887
000250 c6 49 ad 3d 67 b9 02 bd bf 8b 22 be 8c 33 bf bd
       0.08461337 -0.031915095 -0.15873621 -0.09336004
000260 8f 64 b4 bd 49 a6 ae be 6b 7f 60 bd 70 ee 8f 3e
       -0.088082425 -0.3411124 -0.054809015 0.281116
000270 c7 88 37 3e c4 63 71 3d 57 b5 e2 bd c7 5f 9b 3d
       0.1792327 0.058933035 -0.11069744 0.075866275
000280 d9 9d 81 3e 7d 25 74 be 16 48 72 be e7 78 a6 bc
       0.2531574 -0.23842426 -0.23660311 -0.020321323
000290 13 48 b2 be e2 66 61 3e 63 7b 4e be e0 be 8e 3e
       -0.34820613 0.22011903 -0.20164256 0.2788
0002a0 f8 3c 97 3e 13 05 1d 3e 64 bf 9f 3e e0 cb 5e be
       0.29538703 0.15333967 0.31200707 -0.2175746
0002b0 17 5a 5e 3e 75 09 ae 3e 5c f9 26 3e 7c 9d d9 3d
       0.21714054 0.3399159 0.1630606 0.10625741
0002c0 be fe 41 be 9f 12 38 bc 89 24 9a 3e 95 b0 31 3e
       -0.18944833 -0.011234908 0.30106 0.17352517
0002d0 1a f6 3e be fe 74 51 3e f2 e3 55 ba 0e 28 9a 3c
       -0.18648568 0.20454785 -0.00081592717 0.018817928
0002e0 f9 bc 93 3e f4 af af 3e 99 2b a7 3e b1 5d 18 bd
       0.28855112 0.3431393 0.3265045 -0.037198726
0002f0 77 89 c1 3d f0 30 76 3d e5 cf 99 be d2 7d 7e be
       0.094500475 0.060105264 -0.30041423 -0.24852684
000300 bf 70 01 be d3 36 87 be 3f a3 92 bd c2 e0 a8 be
       -0.12640665 -0.26409015 -0.07160043 -0.32983977
000310 ab 1c 81 be 70 79 ab 3c 5b e7 ad 3d d5 fb 48 3e
       -0.25217184 0.02093193 0.08491393 0.19627316
000320 81 8a bb 3d ee 90 1d 3d 44 8a fd 3c 7b fa 9c 3e
       0.09157277 0.038468294 0.03094972 0.3065985
000330 ac 9d 65 3d c8 b8 09 be 94 e9 d9 3d 0a f1 65 3e
       0.05605857 -0.13449395 0.106402546 0.2245523
000340 f4 18 a5 3e c9 4b f0 bd 83 34 ac be 68 fe ad bd
       0.322456 -0.11733205 -0.33633813 -0.0849579
000350 6d b7 b1 3d b9 29 9b be 82 2a 28 be 48 ea a4 3e
       0.08677564 -0.3030527 -0.16422465 0.32209992
000360 47 96 23 be 3e f3 83 be e3 9b 89 3d e3 40 87 3e
       -0.15975295 -0.25771517 0.06719186 0.26416692
000370 dd 72 9d 3e 5f 30 4c bb 8a 9a 82 bd 48 3a 9b 3e
       0.30751696 -0.003115676 -0.06377132 0.30317903
000380 fb 3e 81 bd 15 b2 b1 3d 1d 66 0a 3e ec cd 97 3d
       -0.06310841 0.086765446 0.13515516 0.07412323
000390 3b 73 90 3e d3 e8 4f be 1a bc 68 be 17 bd a6 bc
       0.28212914 -0.20303659 -0.22728005 -0.020353837
0003a0 a7 59 91 be ab e7 5a be 25 54 95 3e d4 c1 a7 bc
       -0.28388712 -0.21377437 0.2916576 -0.020478167
0003b0 d1 34 44 3e 37 4d a7 bc 25 10 9d 3e 91 7a 8d bd
       0.19160773 -0.020422561 0.3067638 -0.06908143
0003c0 e0 9e 9a be 28 fa a6 3e 63 52 e9 3d b4 1e 35 3e
       -0.30199337 0.3261273 0.11392667 0.17687494
0003d0 e6 b5 28 3e 51 5f 6d 3d 3f 06 45 3e e0 18 6f be
       0.16475639 0.05795223 0.19240664 -0.23349333
0003e0 1e ef a8 3e 05 77 74 3d fc 5a a9 3e 14 7c a4 be
       0.32994932 0.05968382 0.33077228 -0.32125914
0003f0 63 af d5 bd c0 b5 2a 3d 0b c5 84 3e 9f b6 1e 3e
       -0.10433843 0.041677237 0.25931582 0.15499352

node_emb.bias f4 [64]
000000 e4 17 a2 bd 38 81 40 be 68 45 9e be d0 8f 30 be
       -0.07914713 -0.18799293 -0.30912328 -0.1724236
000010 80 4a b1 3e f1 af a8 be b7 54 97 be f7 32 4b be
       0.3462715 -0.32946733 -0.2955682 -0.1984366
000020 6c d7 2e be dd 39 c6 3c 3f d1 26 3e 9e 64 95 be
       -0.17074364 0.024197513 0.16290759 -0.29178327
000030 06 44 7a bd a1 a0 2f 3e fe b2 8c be 48 5a 0d 3e
       -0.06110003 0.17151119 -0.2748031 0.13803971
000040 2d 0d b0 bd 49 10 a2 3e ca ff 4e 3e ea 9c 8e be
       -0.08596263 0.3165305 0.20214763 -0.2785409
000050 a2 58 92 3e a0 ab 30 be 95 c6 e9 bd 3c 23 40 be
       0.28583246 -0.1725297 -0.1141483 -0.18763441
000060 74 d7 c4 3d fb 89 93 be af fb 9c bd 1a 15 99 3e
       0.09611407 -0.28816208 -0.07665192 0.29898912
000070 ad 21 9c 3e 3c 3e 1c bd ab 64 8b be e0 01 65 be
       0.30494443 -0.03814529 -0.2722524 -0.22363997
000080 12 36 8b 3e 76 32 ec 3d 96 3e 84 3e 1e d4 ab be
       0.2718969 0.11533062 0.25829 -0.3356027
000090 37 c8 28 3e be d5 05 be 7d ac 6a 3d 3c 7a 90 3e
       0.16482626 -0.13069817 0.057293404 0.28218257
0000a0 7e 58 6f bd 8e 6f 58 be 58 c7 f4 bd 1a f5 9f bd
       -0.058434002 -0.21136305 -0.11952084 -0.07810421
0000b0 2c b3 13 3e ca 16 60 bc b5 32 31 3e 68 2e 8a 3e
       0.14423817 -0.013677308 0.173045 0.2698853
0000c0 7d 29 8f be ee d7 96 be 6b 78 bb bd 76 04 a7 be
       -0.2796134 -0.29461616 -0.09153827 -0.3262059
0000d0 09 9f 06 be 50 97 f5 3c 76 81 9b bd 81 32 ee bd
       -0.13146605 0.029979378 -0.07593052 -0.116307266
0000e0 c5 59 57 be 29 af 62 be fe 2b 6a be bd 77 82 3e
       -0.21030338 -0.22137131 -0.22868344 0.25481978
0000f0 6f 67 81 3e 30 26 ab bd 49 c2 84 3d 6f a9 78 3e
       0.25274226 -0.08356893 0.064823695 0.24283384

edge_emb.weight f4 [64, 2]
000000 68 3e d5 3e 64 24 21 3f e5 95 bb be 32 08 7f 3e
       0.41649175 0.6294615 -0.36637798 0.2490547
000010 6f d9 5a 3e 60 cb 83 be b6 6d 31 bf ae 2b 3e 3e
       0.21372007 -0.257411 -0.6930803 0.1857135
000020 44 e3 2c bf b3 44 5b be 76 44 0a bf 26 19 19 bf
       -0.6753428 -0.21412925 -0.54010713 -0.59804
000030 dd 19 dc 3d 0a 9a 26 3f 07 ce 36 be 49 0a 20 bf
       0.107471205 0.65078795 -0.1785203 -0.62515694
000040 79 34 2e 3f 99 04 89 3d 9c f4 ff be f4 5a d7 be
       0.68048817 0.0669033 -0.4999131 -0.4206158
000050 f7 a7 2f be d5 f2 19 3f 59 f7 76 3d b5 d8 d4 3d
       -0.17153917 0.6013616 0.060294483 0.10392896
000060 90 c4 66 3e c4 b2 31 bf 72 7f e8 be db f0 a6 be
       0.2253592 -0.694134 -0.45409733 -0.32605633
000070 64 cd ab 3e 7f 10 91 3e 0f 49 50 be f5 ef 25 bf
       0.33555138 0.28332898 -0.2034037 -0.6481927
000080 ee 88 2f 3f 6d 22 8f 3d 45 02 ee be 98 60 0f bf
       0.68568313 0.06988988 -0.46486107 -0.56006765
000090 05 80 83 3d 11 2f 2a 3f 3e 7a d4 be 8f 4e ff 3c
       0.06420902 0.6647807 -0.41499513 0.03116539
0000a0 26 99 21 bf 3e db 61 bd 0b 3e 0b 3e c7 cd 48 be
       -0.6312431 -0.055140726 0.13597886 -0.19609748
0000b0 3d 07 a2 bd 36 42 19 be 01 7a 4f be a9 0a 07 3f
       -0.07911537 -0.14966664 -0.20261385 0.5275064
0000c0 a2 28 b3 3e fe 1b 03 bf 4e 42 38 3d 46 30 14 bf
       0.34991938 -0.5121459 0.044985108 -0.5788616
0000d0 d3 d7 9f be ef fd 24 bd 9d 7a 8b 3e 52 42 86 be
       -0.31219348 -0.040281232 0.27241984 -0.26222473
0000e0 9b 00 e4 be ec 10 3b 3e e2 7c 69 3e 83 13 b1 be
       -0.44531712 0.18268174 0.22801545 -0.345852
0000f0 b8 17 b5 3e bd 43 2f 3d fa 9b ad be 9c 48 5a 3d
       0.35369658 0.04278921 -0.33908063 0.053291902
000100 fa ee a8 be d9 65 89 be 0b 06 9b 3e e1 d4 a7 bd
       -0.32994825 -0.26835516 0.30278048 -0.081949
000110 fb c0 04 3f f6 74 40 3e 47 d1 85 bd e7 ca 11 3f
       0.51856965 0.18794617 -0.06534057 0.5695023
000120 3c c3 16 3e 42 45 93 3e d0 73 ff be 38 6c 44 bd
       0.14722914 0.28763777 -0.49893045 -0.047954768
000130 ab ff 19 3f 22 27 0e 3f 73 db 23 bf 91 b1 09 bf
       0.60155743 0.5552846 -0.6400673 -0.5378657
000140 7c e7 03 be ba 9f 2a bf 09 a4 49 be e4 87 15 bd
       -0.12881273 -0.66649973 -0.1969148 -0.03650655
000150 8a 94 31 bf 22 90 37 3b cc 3f b1 3e 69 06 d1 be
       -0.6936728 0.0028009494 0.34618986 -0.40825203
000160 5e f0 2d bf e6 75 00 3f 92 f6 51 3e f2 6d d3 3e
       -0.67944896 0.501799 0.20504215 0.4129482
000170 08 38 c5 3c bf 84 a4 3d 1c 0a 5d be 2e 3f 35 be
       0.02407457 0.08033132 -0.21585888 -0.17699882
000180 03 70 31 3f 5e 80 12 bf d4 4b 59 be 1e 0e 7d bd
       0.6931154 -0.5722712 -0.21220332 -0.06178104
000190 72 7f 9d be b6 ce 16 bf 9b 57 aa bd 78 ad 96 3e
       -0.30761296 -0.58909166 -0.08317491 0.2942922
0001a0 79 5d a0 3e dc 37 3f 3e d2 45 1e bf 67 be ae 3d
       0.31321314 0.18673652 -0.6182529 0.0853241
0001b0 83 89 8d 3e b3 70 14 3f f3 e7 10 bf a3 9c ba 3e
       0.27643976 0.57984465 -0.56603926 0.3644763
0001c0 0d 9a 2a 3d b1 33 cf be 73 98 05 3f a9 71 fc 3c
       0.04165082 -0.40469125 0.52185744 0.030815916
0001d0 71 3e e5 3e ec a1 31 3f 56 6a 14 be ca 46 81 be
       0.44774202 0.693877 -0.14493689 -0.2524932
0001e0 6b b4 ae be 90 8e ad 3e bc ba 0a bf 21 16 a4 be
       -0.34122023 0.3389783 -0.54191184 -0.32048133
0001f0 bc 28 50 bc 39 9e 2e 3f f9 b8 44 be 13 50 2e be
       -0.012705024 0.6821018 -0.19211186 -0.17022733

edge_emb.bias f4 [64]
000000 94 b5 c8 3e ed 06 91 3e cf 0a 01 3e 61 71 07 bf
       0.39201033 0.28325596 0.1260178 -0.5290738
000010 5e 37 aa 3e f8 a0 50 3e 24 56 46 be d8 14 ad be
       0.33245367 0.20373905 -0.19368798 -0.33804965
000020 ca 80 9e 3b c3 e1 f7 be 3a 27 fe 3e a3 bd 92 bd
       0.00483713 -0.4841443 0.49639302 -0.071650766
000030 81 a5 0e 3f 7f a7 f6 3d d2 36 01 bf c9 ba 20 be
       0.5572129 0.12043666 -0.50474274 -0.15696253
000040 12 58 26 bf 76 56 1f bf 6f 15 69 bd b7 6a ec bd
       -0.64978135 -0.62241304 -0.056905206 -0.11543792
000050 d1 b9 da 3d ec 75 04 bf 6c fe fa 3e 3f c7 44 be
       0.10679973 -0.51742435 0.49022233 -0.19216631
000060 4e 69 2b 3f e4 79 56 3d 6a 7d 1e bf cc 20 29 3f
       0.6695756 0.052362338 -0.61910117 0.6606567
000070 bd d3 10 be 15 d4 20 be f8 2c 25 3e 10 91 23 3f
       -0.14143272 -0.15705903 0.16130435 0.6389322
000080 ff 7b d2 3e 99 4f 9a be 79 06 a6 3d 1c c2 02 3e
       0.41110227 -0.30138853 0.08106703 0.1276936
000090 5e dc d8 be 29 52 c7 3e 86 67 f1 3d b4 b1 f0 3e
       -0.42355627 0.3892987 0.11787324 0.47010577
0000a0 42 fc 30 bf 13 3b 60 bc 4f de 60 be 56 93 02 3f
       -0.69134915 -0.013685959 -0.21959804 0.51006067
0000b0 9d 25 19 3f 38 d9 98 3e 22 b8 f1 3e 92 df 21 3f
       0.5982302 0.29853225 0.47210795 0.63231766
0000c0 01 c6 fa be e9 e8 1d 3f bf 32 43 be ff 48 6a 3d
       -0.4897919 0.6168352 -0.19062327 0.05719852
0000d0 8b 13 1c bf 79 d9 0b 3f 88 3c 01 3e 53 13 03 bf
       -0.6096732 0.5462871 0.12620747 -0.5120136
0000e0 dd a8 9b 3e d0 21 0a 3f 11 ee dc be 88 78 e7 3e
       0.3040227 0.53957844 -0.4315038 0.45209146
0000f0 e4 af 88 3e 63 25 28 bd dd 7d 59 be 4d 81 e6 3e
       0.26696694 -0.04105128 -0.2123942 0.45020524

gat_layers.0.att_src f4 [1, 4, 16]
000000 e8 1b 9f be d0 f8 dd 3e 65 4a ae be 4f 9f 03 bf
       -0.31075978 0.4335389 -0.34041134 -0.5141496
000010 37 0f d6 bc fb b5 06 bf eb 1a f0 3e e5 88 20 3d
       -0.026130302 -0.5262143 0.46895537 0.039193053
000020 dc 11 25 bc 3b 54 f2 3e 84 ec cf bd 1a 1b 80 3d
       -0.010075059 0.47329888 -0.10152534 0.06255169
000030 50 89 6c 3e 0a 5e 0b 3e b3 26 91 3d 92 39 ff 3e
       0.23099256 0.13610092 0.070874594 0.4984861
000040 ad a1 dd be 18 28 8a 3e e3 4f de be cd fc 90 3e
       -0.4328741 0.26983714 -0.43420324 0.28317872
000050 be 91 04 be 5a fa 5e 3e 92 90 09 bd b1 86 a1 be
       -0.12946221 0.21775189 -0.03358514 -0.31548074
000060 5d 68 fe be 7f 9f 8e be d9 26 0b 3f 1a 15 c1 be
       -0.49688998 -0.2785606 0.5435615 -0.37711412
000070 f7 e7 ae 3e 5a d1 9c be 2c 8b 4b 3d 7a 35 cd 3d
       0.3416135 -0.30628473 0.04969327 0.100199655
000080 99 53 05 bf be a6 0b bf 6b 8a 58 be f1 36 45 3d
       -0.52080685 -0.54551303 -0.21146552 0.0481481
000090 01 ae 30 be ca a8 7c be 0b 6f 0b 3f fb df c5 3d
       -0.17253877 -0.24673763 0.54466313 0.096618615
0000a0 d8 19 9b be b3 de 83 3e eb cd b6 3e 01 cb 0b bf
       -0.30293155 0.25755844 0.35703978 -0.54606634
0000b0 4c a0 23 bd 9d 5a 4e 3e 95 28 b9 be 0f c6 00 bf
       -0.039947793 0.20151754 -0.36163774 -0.50302213
0000c0 63 a3 d5 3e e8 17 5a 3e 24 98 44 3e 47 66 04 3f
       0.41726217 0.21298182 0.19198662 0.5171856
0000d0 2e 84 d5 be 7d 21 10 be 75 6d 86 be 7f de dd 3e
       -0.41702408 -0.14075275 -0.26255384 0.43333814
0000e0 a7 b0 10 be 43 92 37 3e 75 83 0d be 8b d7 cb be
       -0.14129888 0.17926888 -0.13819678 -0.39812884
0000f0 e4 39 3e be 51 f0 70 be 93 bc d2 3e 11 50 42 bd
       -0.18576771 -0.23529173 0.41159496 -0.04743964

gat_layers.0.att_dst f4 [1, 4, 16]
000000 85 b5 b4 bd 7c eb fa be 65 94 ab be c0 83 42 3e
       -0.088236846 -0.49007785 -0.33511654 0.18995571
000010 41 c7 87 ba a6 c1 0a bf bd 52 e9 be b3 94 28 3e
       -0.0010359065 -0.54201734 -0.45570937 0.16462974
000020 50 e3 26 be 94 b3 86 3d 2c 08 bf be 3b d4 04 3f
       -0.1629765 0.065772206 -0.37310922 0.5188634
000030 ac 4c 9f 3e 5b 75 0a bf ba cb 8c 3e ac 35 b9 bc
       0.31113183 -0.5408532 0.2749918 -0.0226086
000040 46 bc bb 3e 24 42 cd 3e e9 69 4e be 2e 48 d1 3e
       0.3666708 0.40089524 -0.20157589 0.4087538
000050 ab 4c 2f 3c 66 f3 ae be a7 68 7a 3e e1 44 db 3e
       0.010699431 -0.34170073 0.24453984 0.42825988
000060 69 41 cf be 39 13 c1 3e 75 42 05 be a4 1b ac be
       -0.4047959 0.37709978 -0.13013633 -0.33614838
000070 ca 09 9b be 3d 38 e3 bd 56 97 80 3e a7 07 a4 3d
       -0.30280906 -0.11094711 0.2511546 0.08009272
000080 13 95 99 be 3b 51 07 3f 25 22 45 3e 1f c0 ca be
       -0.29996547 0.5285832 0.19251306 -0.39599702
000090 a6 fb e9 3e 60 c6 70 be b2 54 21 be 87 cc 04 bf
       0.45699805 -0.23513174 -0.15754965 -0.51874584
0000a0 12 6d 45 bd e3 19 08 bf 36 c8 0e bc e7 df bb 3d
       -0.04819972 -0.531645 -0.008714726 0.09173565
0000b0 78 0b f7 be ab 40 c2 3d cf 70 81 3e 53 de b6 be
       -0.48250937 0.09484991 0.2528138 -0.35716495
0000c0 24 a3 9e bd 3a 05 99 be a9 35 ad bd 9f a9 69 3d
       -0.0774596 -0.298868 -0.084575005 0.05704653
0000d0 14 25 8b 3e 59 8a f5 3e 4f a4 52 3e d7 59 b8 3e
       0.27176726 0.47957113 0.20570491 0.36006042
0000e0 57 b8 07 3e 08 88 d4 3e 72 ba 91 3d 0a da 45 be
       0.13253914 0.41510034 0.0711564 -0.19321457
0000f0 74 e5 85 3e 21 7c 84 bd 8a d8 e4 be 5a 9d ed 3e
       0.2615162 -0.06468988 -0.44696456 0.46409112

gat_layers.0.att_edge f4 [1, 4, 16]
000000 fd 40 4e bc 5f 67 aa 3e c4 ae 90 3d 61 41 0a bc
       -0.012588737 0.3328199 0.07064584 -0.008438439
000010 c2 b5 c2 bc e4 6d f7 3e 86 9d 96 be d9 4c 35 3e
       -0.02376831 0.48326027 -0.29417056 0.17705096
000020 c3 26 61 be 48 7b 2f 3d 96 5f a3 be 22 d1 ad be
       -0.21987443 0.04284218 -0.31908864 -0.33948618
000030 ab b5 aa 3e 07 85 0a 3f 65 af 97 bd 6e 2c ce bd
       0.33341727 0.54109234 -0.07406501 -0.10067068
000040 19 b4 30 be 54 94 6f 3e 2e 3e ae be ac 1a ea be
       -0.17256202 0.23396426 -0.34031814 -0.45723474
000050 95 a7 ef 3d a6 03 89 be 5d 07 3b be 11 d6 e2 bd
       0.117018856 -0.26760596 -0.18264528 -0.11075986
000060 44 d7 f4 3e 08 4d ff 3e 4a 7b e9 3e d9 66 ca 3e
       0.47820485 0.49863458 0.45601875 0.39531592
000070 68 ff b6 3e 54 96 55 be b2 80 e0 3e 52 5a 07 bf
       0.35741735 -0.20858127 0.43848187 -0.5287219
000080 30 ec 99 3d 8e 4a ee be da 90 ff 3d 10 64 de 3e
       0.07515752 -0.46541256 0.124788 0.43435717
000090 a9 03 a5 3e f1 be e0 be ee 4f 97 bc 20 e0 96 be
       0.32229355 -0.43895677 -0.01847073 -0.2946787
0000a0 bc 8a 4d 3d 7e c1 de be ab 46 ec be 4f e6 87 3e
       0.050181136 -0.43506998 -0.46147665 0.265429
0000b0 9c 06 8f 3d 9e d0 51 3e 4d a4 c2 3e dc 87 3d bd
       0.069836825 0.20489737 0.38015977 -0.046272144
0000c0 5d d5 95 be 34 fd 9c be 9e 1a f0 be 8b ca 85 3e
       -0.29264346 -0.3066193 -0.46895307 0.2613109
0000d0 c3 9d 39 3e 2e 9b 7a 3e 77 b6 c5 3e d7 8c 19 be
       0.18126588 0.24473259 0.38615772 -0.14995132
0000e0 85 a2 c2 3e b2 b5 a7 3e c7 9e 39 3e 68 ab e6 3e
       0.38014618 0.3275581 0.18126975 0.45052648
0000f0 d7 19 99 3e a6 77 9f 3e 21 80 a5 be d9 2b 64 3d
       0.29902527 0.31145972 -0.32324317 0.05570588

gat_layers.0.bias f4 [64]
000000 6e 84 b2 bb b4 ab d7 38 53 96 b3 bb fc 6d b2 bb
       -0.0054479158 0.00010283981 -0.0054805665 -0.00544524
000010 19 9e b0 bb 11 7d b3 bb 2a 27 b3 bb 0b 9d b2 bb
       -0.0053899405 -0.0054775556 -0.005467315 -0.00545085
000020 f2 58 b2 bb 1f 68 b3 bb 04 f6 b2 bb 9e c4 d4 3b
       -0.005442732 -0.0054750587 -0.0054614563 0.006493165
000030 54 3b b2 bb 62 bc 9c bb 55 38 c1 3a 90 41 b4 bb
       -0.0054392014 -0.004783199 0.001474152 -0.0055009797
000040 f9 53 f6 3b fb 7a cb 3b e1 18 b4 bb 7a 4d b0 bb
       0.0075173345 0.006209729 -0.00549613 -0.0053803297
000050 5b 9b c0 bb d9 62 9a bb 1e ee b4 bb 06 69 b5 bb
       -0.005877895 -0.0047114906 -0.00552155 -0.0055362014
000060 ca 15 c2 3b 0b ec b5 bb 3a e4 c6 3a ee 71 d6 3b
       0.0059230076 -0.00555182 0.0015174218 0.006544343
000070 ee 79 0d 3c 8e 44 b6 bb 68 57 b4 bb b5 92 b2 bb
       0.008635027 -0.0055623716 -0.0055035837 -0.0054496177
000080 49 e5 a8 bb a9 79 b3 bb 5a fb a7 bb 81 64 b2 bb
       -0.005154286 -0.0054771495 -0.005126399 -0.00544411
000090 6a a6 b2 bb a9 96 b2 bb 94 98 b2 bb 0b 7d b2 bb
       -0.005451967 -0.005450089 -0.0054503176 -0.005447035
0000a0 1c 44 b2 bb 69 c9 b3 bb b5 b6 81 3b ff 46 b2 bb
       -0.005440248 -0.0054866564 0.003958548 -0.0054405923
0000b0 2c fc d7 3b 22 85 b2 bb f1 6c b2 bb 60 b8 b2 bb
       0.0065913405 -0.0054479996 -0.0054451157 -0.005454108
0000c0 fe ef b2 bb b6 8c b2 bb cd 49 b3 bb 5a 90 b3 bb
       -0.005460738 -0.005448903 -0.005471444 -0.0054798545
0000d0 3e 86 b4 bb 62 70 eb 3b 38 0f b6 bb 6f a1 8c bb
       -0.005509167 0.007185028 -0.0055560134 -0.0042917053
0000e0 04 0f b5 bb 43 b6 b3 bb 1b 96 96 bb 09 79 ca 3b
       -0.0055254716 -0.005484374 -0.0045955307 0.0061789793
0000f0 c8 cd b4 bb 3f 27 1b 3b 74 99 b2 bb db cd d7 3b
       -0.005517695 0.0023674516 -0.005450422 0.006585819

gat_layers.0.lin.weight f4 [64, 64]
000000 57 72 fd 3d 24 59 12 3e 46 53 3a be 80 0c 33 3d
       0.12375324 0.14291817 -0.18195829 0.043713093
000010 36 1a 18 be 9e 09 2b be 61 6e 0f 3e 72 24 1c be
       -0.14853749 -0.16702887 0.1400695 -0.15248278
000020 75 9c d6 bd ec ae c4 3d f4 88 41 3e d9 b0 23 3e
       -0.104790606 0.09603676 0.188999 0.15985431
000030 4e 87 23 be 4a dc 6f 3c 00 3a 3b 3e 81 f0 58 3e
       -0.15969583 0.014639923 0.18283844 0.21185495
000040 ee 37 cf 3c fa f2 8f 3c b5 b9 e3 3c ba e8 21 be
       0.025295224 0.017571915 0.027798513 -0.15811434
000050 27 01 c4 bc 22 0a 5a bd 0c 23 23 be 37 bb 05 3e
       -0.02392633 -0.05323232 -0.15931338 0.13059698
000060 7a 17 8f 3b 6d 49 b5 3d 32 cc 0e be 3b e0 b8 3d
       0.0043668123 0.088518955 -0.13945082 0.090271436
000070 a5 bc ca bd 68 8d 3f 3d 5a 09 0e 3c 38 0b a2 3d
       -0.09899262 0.046765715 0.008669222 0.07912296
000080 0a 13 fc 3d e1 d6 9c bd d2 1c a4 bd 45 47 83 3d
       0.12308319 -0.076581724 -0.080133095 0.06410078
000090 ec 03 0c be f8 63 d4 3c 4b 9c 1c be da 1a 3f be
       -0.13673371 0.025926575 -0.15293996 -0.18662587
0000a0 78 02 0e 3d b6 87 45 3e fc 51 49 be 6e 7a 19 3d
       0.034670323 0.19290051 -0.19660181 0.037470274
0000b0 95 04 17 be 50 91 34 3e d8 b7 4d bd 57 ac 3f be
       -0.14747842 0.17633557 -0.050224155 -0.18718086
0000c0 ee 7d 28 be 0b ee 75 3d 89 1a cd 3d 87 c8 4d 3e
       -0.16454288 0.06004147 0.10014827 0.20096026
0000d0 e3 29 1a 3e 1c 1c 58 be b2 2f 24 be 05 46 12 be
       0.15055041 -0.21104473 -0.1603382 -0.14284523
0000e0 64 cf 1a 3e 94 d4 d6 3b 96 4f 04 be 33 5a 55 be
       0.15118176 0.006556103 -0.12920985 -0.2083519
0000f0 4d b0 20 3e 78 af 98 bd 3e c3 23 be 54 3b a3 3d
       0.15692253 -0.07455343 -0.15992448 0.079703
000100 bd 16 d1 bd d5 7e 01 be 70 41 8f 3d b5 28 e1 3c
       -0.10209415 -0.12646039 0.06994903 0.027485231
000110 fc d1 31 3e 03 85 af 3c 9a 2d 07 3e 1f e4 50 3e
       0.17365259 0.02142573 0.1320099 0.20399521
000120 90 99 4b be 71 ed 1e 3e 0d 57 96 3c ab 26 22 be
       -0.19882798 0.15520264 0.018352056 -0.15835063
000130 92 9b 5d b9 b4 36 a8 3a f6 5b 2d 3e bf db dd bd
       -0.00021134157 0.0012833686 0.16929612 -0.10832929
000140 98 9f 5d 3e 37 d5 28 be d1 b8 59 be d8 6a 17 be
       0.21642911 -0.16487585 -0.21261908 -0.14786851
000150 05 f4 86 bd 7f b2 56 be 60 66 b0 3d e8 00 a0 3b
       -0.06589512 -0.20966528 0.086132765 0.0048829205
000160 6c a4 0f 3e 63 1c 06 bc 96 de 43 3d 12 96 f9 3b
       0.14027566 -0.008185479 0.047819696 0.0076167667
000170 2b 75 04 3e 87 6d 20 be 48 bc e8 bc 70 08 f7 3d
       0.12935321 -0.15666781 -0.028410092 0.12062156
000180 d2 30 91 3d 95 a1 8e 3d 54 16 99 3c d8 c3 17 be
       0.0708939 0.06964413 0.018687405 -0.14820802
000190 1a 5a e7 3b 60 22 47 3e 31 27 1b be fc 3d 0d 3e
       0.0070603015 0.19446707 -0.15151669 0.13793176
0001a0 30 39 17 3d 27 5c d2 bd b7 7b a2 bd 7a 31 a4 bd
       0.036919773 -0.10271483 -0.07933753 -0.080172494
0001b0 f9 b7 8d 3d df 0a 05 be 11 bc bb bd 6b 61 21 be
       0.069198556 -0.12992428 -0.0916673 -0.15759818
0001c0 57 51 4a be b9 e4 4b 3e db 41 7c 3c c3 8f 11 3d
       -0.19757591 0.1991147 0.015396561 0.035537492
0001d0 8d 3b 8b 3d 28 11 33 be 33 d5 d2 bd bd c9 15 3c
       0.06798468 -0.17487013 -0.10294571 0.009142336
0001e0 fd 1f 32 be 21 e1 ef 3b f9 17 3b 3e 85 8a 1e 3e
       -0.17395015 0.0073205386 0.18270864 0.15482529
0001f0 b8 99 1f 3b c0 2c 1c be 78 82 14 be 73 11 43 3e
       0.0024353098 -0.15251446 -0.14502895 0.19049625
000200 ff 87 20 be 48 e3 ea bd 86 7c 43 3e c4 ad d4 3d
       -0.15676878 -0.11469132 0.1909047 0.10384706
000210 40 a1 9d 3c 03 73 49 3d 43 e8 9e 3d 91 9c 66 bd
       0.019241929 0.04918195 0.07759144 -0.056301657
000220 46 d0 e3 bd 68 b8 35 be 61 8e 89 3d 1d 68 80 3d
       -0.111237094 -0.17746127 0.0671661 0.06269858
000230 7c 38 38 bd b1 07 e6 3d f0 cc b1 bd 8f 93 94 bd
       -0.044975743 0.11231936 -0.08681667 -0.07254707
000240 66 96 99 3d c3 5f c5 bd a2 d8 46 be 4d c3 fd 3d
       0.07499389 -0.09637406 -0.19418576 0.12390766
000250 0a 99 c4 3d 61 fa 31 3d f8 72 d8 3d ad 10 df 3d
       0.095995024 0.04345167 0.105688035 0.108918525
000260 e2 49 4b 3d 71 05 79 3d 30 01 a0 bd f6 c8 74 3d
       0.049631007 0.060796205 -0.078127265 0.059761964
000270 c4 fe e3 bd 0a e4 b9 bd d5 14 1f be 90 ff d9 3d
       -0.11132577 -0.09076698 -0.1553529 0.10644448
000280 ff 9b 15 3e 9e c1 94 3d 36 2d af 3d 03 6c ac bd
       0.14610289 0.07263492 0.08553545 -0.08419039
000290 13 ba b5 bd 60 cf 57 3e 9f 70 da bd 39 67 c2 bd
       -0.088733815 0.21075201 -0.10666012 -0.094923444
0002a0 d1 ea 3a 3e f2 21 08 3e bd 21 bf 3c 90 b5 fe bc
       0.18253638 0.13294199 0.023331517 -0.031092435
0002b0 2c ad 19 3e 9f 12 28 be 10 45 dd bc 21 96 9d bc
       0.15007466 -0.16413353 -0.02701047 -0.019236626
0002c0 f5 1c a8 3c e3 e1 30 3e 6c 31 ac bd ad b5 10 3e
       0.02052162 0.17273669 -0.08407864 0.14131804
0002d0 f2 e4 cf 3d c2 74 aa bd 76 1f 89 bd 7b c1 be bd
       0.1015109 -0.08323051 -0.06695454 -0.09314247
0002e0 36 1e 4b 3e 34 a9 1c be 64 5f de 3c f0 ff e9 bd
       0.19835743 -0.15298921 0.027145095 -0.11425769
0002f0 e7 2c 46 3d f7 d9 eb bc b0 80 ad bd d2 dd 3e 3e
       0.048382666 -0.028790457 -0.08471811 0.18639305
000300 30 bd 4e 3e 00 e2 f3 bd 94 69 94 3d 82 57 e5 3d
       0.20189357 -0.119083405 0.072467 0.111983314
000310 27 fb b2 bd 32 dd 06 3e 2d 27 96 3d 17 9b f9 bd
       -0.0873931 0.13170317 0.07331691 -0.12187784
000320 ec b4 50 3e 03 b1 a6 3d 60 db f7 3d c0 36 09 3e
       0.20381516 0.08139231 0.12102389 0.13399792
000330 d7 ab 1f 3d 1f 4e 25 bd bc 37 30 3e 5f c1 4b be
       0.03898224 -0.040357705 0.17208761 -0.19897984
000340 a1 ad 90 bd 1f d2 09 3e 04 45 be bd 8b f5 c7 bd
       -0.07064367 0.13459061 -0.092905074 -0.097636305
000350 8a d2 a2 bd c7 45 33 be fd 52 47 be fe db f6 bd
       -0.079503134 -0.17507087 -0.19465251 -0.12053679
000360 8e 0a 27 3e d8 f5 45 be e7 73 83 bd ec 91 2f bd
       0.1631262 -0.19332063 -0.06418591 -0.04286377
000370 e3 6b d0 3b 82 40 8a 3d 43 ae 08 bd 9d 87 56 3e
       0.0063605173 0.06750585 -0.033369314 0.2095017
000380 27 0e fd bd 1b 12 a2 3c 7d 88 58 be a2 56 a1 3d
       -0.12356215 0.019784024 -0.21145816 0.07877852
000390 e6 c9 a3 3c 07 e2 24 3d 54 c5 0a bd 3f 46 2e 3e
       0.019993734 0.04025462 -0.033879593 0.17018984
0003a0 07 ed a1 bc 02 b0 50 3b 4c 3e c5 bc 4a 44 8e bd
       -0.019766344 0.003184319 -0.024077557 -0.06946619
0003b0 89 f8 02 be 3f ed 52 be 30 63 ef 3d 48 dd 1c 3e
       -0.12790121 -0.20598315 0.116888404 0.15318787
0003c0 f1 42 3a be 41 03 0d 3e 5b 36 32 be 5f 4d 1c be
       -0.18189599 0.13770773 -0.17403547 -0.1526389
0003d0 d0 87 d9 3d f2 4b 15 be 18 9d 5a 3e aa 81 ca bd
       0.10621607 -0.14579752 0.21348989 -0.09888013
0003e0 f9 9a ef bc 8d 86 98 bd ca fc d6 bc 65 0b 07 3e
       -0.029248701 -0.074475385 -0.026243586 0.1318794
0003f0 0a cd 31 be 74 9c f3 bd ee 82 8e bd 5f 92 f7 bc
       -0.17363372 -0.118950754 -0.069585666 -0.030221162

gat_layers.0.lin_edge.weight f4 [64, 64]
000000 19 2d 06 3e d8 6f ee bd ca 5e f4 bd fe d4 28 bd
       0.13103141 -0.11642426 -0.11932142 -0.04121875
000010 c4 aa 14 be f7 06 c0 3d 4d 3a c8 bd 5a 2f de bd
       -0.14518267 0.093763284 -0.09776745 -0.10848875
000020 28 26 b7 3c bc ab c8 3d 41 3e 0c 3e 77 03 57 3d
       0.022357062 0.09798381 0.13695623 0.05249354
000030 25 40 0b bd eb d5 95 bd f2 1b 1e 39 80 de 56 be
       -0.03399672 -0.07316192 0.00015078465 -0.20983315
000040 cf 6e 9c bd 48 75 7f 3d 7b f3 00 be c5 fd 3e 3d
       -0.076383226 0.062367707 -0.1259288 0.046628732
000050 e2 a8 56 be 20 85 25 3d 82 2c 1c 3e b0 57 24 3e
       -0.20962861 0.04041016 0.15251353 0.16049075
000060 5d 39 33 be 50 e3 18 bd 88 30 e8 bd 64 0c 41 3e
       -0.17502351 -0.037326157 -0.113373816 0.18852383
000070 ad 6b 23 3e fd 00 7e bd 93 85 ff 3d f4 72 4b 3e
       0.15959044 -0.06201266 0.12476649 0.1986807
000080 de be 04 3e 95 19 46 3e 96 17 e9 bd 1b dc 2c 3e
       0.12963435 0.19345696 -0.11381452 0.16880839
000090 1f 79 7a 3d 30 e3 40 be d5 65 53 3e e8 52 39 be
       0.061150666 -0.18836665 0.20644315 -0.18098032
0000a0 e3 38 95 3d ea 1d 3c be 48 9b 55 be c3 9e 23 3d
       0.07286241 -0.18370786 -0.20860016 0.03994633
0000b0 96 70 20 3e 9a ca 65 bd ea 7c c3 bd 02 d5 50 3e
       0.15667948 -0.05610142 -0.0954531 0.20393756
0000c0 63 fd 8a bd 42 a1 06 be 40 0d a6 3d 9b 47 41 be
       -0.06786611 -0.13147452 0.08107996 -0.18874972
0000d0 f9 23 47 3e 7b 35 f3 bd ca 63 3c bc e3 bb 59 3e
       0.19447316 -0.11875435 -0.011498401 0.2126308
0000e0 e6 e9 93 bd f3 b7 18 be 52 55 37 bd b1 85 23 be
       -0.07222347 -0.14913921 -0.044759102 -0.15968968
0000f0 96 b5 c5 3d 1e 09 1e 3e cf 1c 29 be 64 a2 37 3e
       0.096537754 0.15433165 -0.16514896 0.17933041
000100 3b 27 2d 3e 4f 5e 8b bc d9 e7 70 3b cd 68 aa bd
       0.16909496 -0.017012743 0.0036759286 -0.083207704
000110 36 2b 33 3d 20 01 12 bd 1d 57 a6 bd fb a1 b0 bd
       0.04374238 -0.035645604 -0.08122084 -0.08624645
000120 33 d0 a0 3b 0f f3 3c 3e 5b 54 39 be c6 08 c2 3d
       0.004907632 0.18452094 -0.18098585 0.0947433
000130 d1 fb d8 3d 40 03 af bd 36 c5 29 bc 6e ae 33 be
       0.10594905 -0.08545542 -0.01036196 -0.17547008
000140 87 fd 42 3d 08 90 38 3e 53 21 48 be 9a 06 10 3e
       0.047605064 0.18023694 -0.19543962 0.14065018
000150 87 9c 4f 3d 24 7f 1b be 11 59 ca bd 73 9c 4c bd
       0.050686385 -0.15185219 -0.09880269 -0.04995389
000160 d9 4a 37 be 62 6e 4d be e0 df 6a bd e3 0d 1b be
       -0.17899646 -0.20061639 -0.05734241 -0.15142016
000170 af ba 78 3d 25 75 ac 3d 65 36 b5 3d 65 ed 3b be
       0.06072491 0.08420781 0.088482656 -0.18352278
000180 51 84 fb bd 89 4f c1 3d 9e b7 a2 bd f7 20 0c be
       -0.12281097 0.09438998 -0.079451784 -0.1368445
000190 fa 80 cd 3c 42 ab 44 3e 31 d9 93 3d c9 60 42 3d
       0.025085915 0.19205955 0.0721916 0.047455583
0001a0 f5 1f 2b be 43 72 59 3d 3a 20 ed 3d 1f 98 12 b9
       -0.1671141 0.053087484 0.11578412 -0.00013980315
0001b0 3e 02 08 be 22 f9 14 bd 2f 55 12 3e 3d 30 a8 3d
       -0.13282105 -0.036370404 0.14290307 0.08212326
0001c0 ca 9a 12 be dd a7 d8 bd 48 04 1d 3e 13 55 45 3e
       -0.1431686 -0.105788924 0.15333664 0.19270734
0001d0 1e 88 1c 3e 3e f4 76 3d 22 84 86 bd ac 4d 68 3d
       0.152863 0.06029152 -0.06568171 0.0567147
0001e0 bc 82 2f be 0f ab 91 3d bc 21 64 bd a3 2c 3e bc
       -0.17139715 0.07112705 -0.055696234 -0.011607322
0001f0 4f f2 dc 3c f1 99 bc 3a d6 f2 be bd cb 42 c6 bc
       0.02697101 0.001438914 -0.09323661 -0.024201771
000200 45 a0 0b 3d be a5 cb 3d ef 71 46 3e 14 db 8a 3d
       0.03408839 0.09943722 0.193794 0.06780067
000210 55 3c 3f bc c9 ec ce bd 99 85 e9 3c 54 4f 88 bd
       -0.011672099 -0.10103757 0.028506087 -0.06655756
000220 9c 60 4e be a2 e5 34 3e 73 31 6d 3c 8a 8b 58 3e
       -0.20154041 0.17665723 0.014477122 0.2114698
000230 1a b5 5b be 62 9e 37 bd 21 dd 52 be 4a ae 05 3e
       -0.21455804 -0.04482878 -0.20592166 0.13054767
000240 7b 64 58 3e 72 05 9b bd ca 31 3b bd c8 96 bf 3d
       0.2113208 -0.07569398 -0.04570178 0.09354931
000250 92 59 5a 3e d4 df eb bc d9 04 19 3e 9d 52 26 3e
       0.21323231 -0.028793253 0.14943255 0.16242452
000260 6a 4a a9 3c f1 13 f0 3b d4 d2 0d 3d 3e 0e ee 3d
       0.020665366 0.007326596 0.03462489 0.1162381
000270 65 87 40 be b2 ab e5 bd b6 ca 05 3e 8c 55 e6 3d
       -0.18801649 -0.11214389 0.1306561 0.112467855
000280 3c d7 dd 3b f3 ab 09 3e a1 70 05 bd 51 aa bc 3d
       0.0067700427 0.134445 -0.032578114 0.09212173
000290 ee a1 b0 bd d3 d9 29 3e 90 b7 4f be 1a 7c 7e 3d
       -0.08624636 0.16587 -0.20284867 0.06213007
0002a0 a0 d7 56 be f5 cb aa bd 7e 28 2f 3e 16 da b6 3d
       -0.20980692 -0.08339683 0.1710529 0.08928315
0002b0 2f 3a 3c 3d be db 1a bd 37 6b 2a 3e 7d 0b 27 be
       0.045953926 -0.03780722 0.16642462 -0.16312976
0002c0 a6 8d 38 be 50 82 ee bd 15 22 95 3d d9 cd e0 3d
       -0.18022785 -0.11645949 0.07281891 0.10976762
0002d0 5f f3 bc 3c 2e d1 9e bc 2c 52 16 be 37 2f a4 bd
       0.023065267 -0.019386854 -0.14679784 -0.08016818
0002e0 3c 79 eb bd d3 f0 a1 bd 9d e9 e9 3d 65 1a f7 bd
       -0.11497733 -0.07907262 0.11421511 -0.12065581
0002f0 1d 32 ea 3a 2d a4 54 be e4 01 4d 3e bd 9d 2c be
       0.0017867718 -0.20765753 0.20020252 -0.16857047
000300 9c 7c 39 3e 42 c2 18 be 6c 5e 14 3e d4 fb 38 3e
       0.18113941 -0.14917853 0.14489144 0.18064815
000310 4a 36 2d bd 96 ea 0e be 5e 7d a8 bd fe 0f a7 bd
       -0.042288102 -0.13956675 -0.08227037 -0.08157347
000320 af b2 07 bd 20 8e 8d bd 9b 96 01 3e d2 34 fc ba
       -0.03312939 -0.06911874 0.12655108 -0.0019241816
000330 2d 74 2f 3e e9 75 bf bd f1 a5 de 3d 13 9e cd 3d
       0.17134161 -0.093486615 0.108714946 0.10039916
000340 63 3a 4c 3e 71 c7 ce 3d 0b ef 50 3e 1a 44 b4 3c
       0.19944148 0.10096634 0.20403688 0.02200513
000350 b0 87 2d be 31 21 33 3e 92 cd 79 3d ce 33 48 be
       -0.16946292 0.1749313 0.060987063 -0.19551012
000360 8a 9a a0 3d 3d b9 16 3e 3a 99 3e be 3c e4 4b be
       0.07841976 0.147191 -0.18613139 -0.19911283
000370 52 33 4a bc f1 aa ee bd 28 a0 17 3e 8c 78 8a 3d
       -0.012341337 -0.11653698 0.14807189 0.06761274
000380 6c 41 bd bd ed 55 fe 3c 94 8b 8e 3d f1 0f 3c 3e
       -0.09240994 0.031046832 0.06960216 0.18365456
000390 6b be c3 3d 55 3f 84 bd 1d 2c 0c be 5b 6b fa bd
       0.09557804 -0.06457392 -0.13688703 -0.12227508
0003a0 1d fc 15 3e e0 78 20 3e ed cf bb bd da 18 26 be
       0.14646955 0.1567111 -0.09170518 -0.16220418
0003b0 6f 58 72 bd 2f 9b 7f bd a8 77 37 3e 07 50 58 3e
       -0.059166368 -0.062403854 0.17916739 0.21124278
0003c0 e8 c8 a0 bd ed 3e b8 bd af 0e 20 be 0f 00 2c 3e
       -0.0785082 -0.08996377 -0.15630601 0.16796897
0003d0 93 98 1f be ac 48 31 3e 6d 8c 39 3d 6b c2 22 be
       -0.15585546 0.17312878 0.045299936 -0.15894477
0003e0 5d d4 ee bd 91 4b 02 be a8 11 b8 3d b2 42 8a bd
       -0.11661599 -0.12724139 0.08987743 -0.06751002
0003f0 7a c5 ef bd 1f 19 14 3e 5d c1 66 bd ee 41 96 bd
       -0.117075875 0.14462708 -0.05633675 -0.07336794

gat_layers.1.att_src f4 [1, 4, 16]
000000 8f 7d 25 be 29 19 f4 be 8f 5a d1 3d ad 9b cd 3c
       -0.16161178 -0.47675446 0.10222351 0.025098646
000010 a6 f4 8f 3e 09 26 f0 bd 8e 1a d8 3e 15 49 82 3e
       0.2811634 -0.11726005 0.4220776 0.25446382
000020 23 03 aa be 96 83 9f 3e 4a 7e 83 be 3b 2b dc be
       -0.33205518 0.3115508 -0.25682288 -0.43001732
000030 0a 4b 9d be e7 fa 0b bf 2a 55 d7 be 22 23 6a 3e
       -0.30721313 -0.5467972 -0.42057163 0.22864965
000040 02 0a 23 be 9e aa e9 be c6 d5 dd be b7 18 04 3e
       -0.15921786 -0.45637983 -0.4332716 0.12900053
000050 b4 a7 03 bf 83 a9 bc be 60 fb 14 3e 68 51 94 3d
       -0.5142777 -0.36848077 0.14549017 0.072420895
000060 3b 07 ae be 88 a5 db be 9d b7 cc be de ac de be
       -0.3398989 -0.42899728 -0.39983836 -0.43491262
000070 4b 9a d1 be 4e 90 99 3e 97 a7 a8 3e 79 20 03 3e
       -0.4093803 0.29992908 0.3294036 0.12805356
000080 68 5f 6a be 83 a1 a2 3e 3f 4b ac 3e 62 0f db be
       -0.22887957 0.3176385 0.33651158 -0.42785174
000090 e5 28 ea 3e c4 00 07 bf 9c 78 0c 3f 47 b8 92 3e
       0.45734325 -0.52735543 0.54871535 0.28656217
0000a0 11 1d 58 3e 71 dc a3 be 53 fb 98 3e 9e 67 c1 bd
       0.21104838 -0.3200412 0.29879245 -0.094435915
0000b0 df 83 68 3e 1a 1f b9 3e a9 02 94 be e8 c3 f5 3d
       0.22706555 0.3615654 -0.2890828 0.12000257
0000c0 50 5a 0a 3f 41 86 e9 be 50 96 5f 3e 7d d9 c3 3e
       0.54044056 -0.4561024 0.21834683 0.38251868
0000d0 de 7e 88 3e 55 fd 5a be 2b 30 ab 3d 7c 24 28 bd
       0.26659292 -0.21385701 0.08358797 -0.04105042
0000e0 ff bd c8 be 74 0a d4 be ed 08 2c 3e 51 98 d6 be
       -0.39207456 -0.41414225 0.1680028 -0.41913083
0000f0 79 3b 1f be 49 b7 d4 be 5b 63 5d 3d af e6 07 3c
       -0.15550031 -0.41546085 0.05404983 0.008294745

gat_layers.1.att_dst f4 [1, 4, 16]
000000 35 54 c0 3d 5f ad bb bc 3e 0e ae 3d 96 d7 2d be
       0.09391061 -0.022909818 0.0849881 -0.16976771
000010 d3 0e ff 3e b8 75 1e 3e 1d 5b 9c be b0 d4 b4 be
       0.49815997 0.15474594 -0.30538264 -0.35318518
000020 6d 5d c3 3e d7 f5 10 3e 3d 4a 3d be 00 f5 9e 3d
       0.38157216 0.1415628 -0.18485351 0.07761574
000030 95 8c d0 3e b2 14 02 bf 56 98 8f 3e 7d 3a 22 be
       0.40732256 -0.5081283 0.2804591 -0.15842624
000040 50 c8 d5 bd bf ba be 3e c7 21 b9 bb 6e 21 2e 3e
       -0.10438597 0.3725185 -0.0056497785 0.1700494
000050 14 b4 9b 3e d8 31 a4 be 47 8d 7e 3e 2c 09 0c 3e
       0.30410826 -0.32069278 0.2485858 0.13675374
000060 d0 25 08 bf de 52 d0 be 18 c8 d2 3e e3 75 97 3e
       -0.531827 -0.40688223 0.41168284 0.29582128
000070 ab 37 60 be 74 ec 79 3d 78 29 09 3f 52 34 a2 3d
       -0.21896236 0.061016515 0.535789 0.079201356
000080 ca 7b 36 3e f2 bf f3 bd e9 50 c0 be 32 9e e2 3e
       0.1782066 -0.11901845 -0.3756173 0.44261318
000090 ab 2e 19 be 88 2c 24 bd 86 e4 84 be 9b 71 a3 be
       -0.14959209 -0.04008153 -0.259556 -0.31922612
0000a0 9a 10 e4 3e 26 12 65 bd b7 79 07 3f 35 7c b7 3e
       0.44543916 -0.05592551 0.529201 0.3583695
0000b0 b4 96 b8 be 96 0a 9c 3e 00 8f 1b be 44 b5 ed be
       -0.36052477 0.30476826 -0.15191269 -0.46427357
0000c0 2f eb 09 3f 10 93 da 3e 73 04 d6 be ec 4a 33 be
       0.53874487 0.42690325 -0.4180027 -0.17509049
0000d0 84 ee 5b 3e 99 ed 9e 3d 0d a8 6e be 26 de b2 3e
       0.21477705 0.07760162 -0.23306294 0.3493511
0000e0 4b c4 c9 be 48 15 62 3e f4 9f 07 3d 7b 0a 06 bf
       -0.39407572 0.2207843 0.033111528 -0.5235974
0000f0 a1 53 cf 3e ec 9d 08 bd e2 5e e9 be ba 79 af 3e
       0.4049349 -0.03335373 -0.45580202 0.34272557

gat_layers.1.att_edge f4 [1, 4, 16]
000000 33 fd 8a 3e a3 ec fe 3e 04 e9 c5 be 59 56 12 be
       0.271463 0.49789914 -0.3865434 -0.14290752
000010 46 08 00 3e 53 5a b7 3e f6 f6 81 3e cb 68 6a 3e
       0.12503156 0.358111 0.2538373 0.22891538
000020 39 b4 ed 3e 61 0b a2 3e de 8b 07 bf 78 43 89 3e
       0.4642656 0.31649306 -0.52947795 0.26809287
000030 10 50 82 bd f1 47 b2 be 8a 21 ad bb 9e 3e 46 3e
       -0.06362927 -0.34820512 -0.005283539 0.19359824
000040 05 7b 05 3f 5f d6 15 3e ca 90 d5 3e 68 00 ec bd
       0.5214084 0.14632557 0.41712028 -0.11523515
000050 ba f4 2e bd 70 2f 12 be e9 24 83 3e cf 0b 5e 3e
       -0.04271386 -0.14275908 0.25614098 0.21684192
000060 63 ba 6c be be 4c 89 3e 4f d8 d4 be 50 6e 2f 3d
       -0.23117976 0.26816362 -0.4157128 0.04282981
000070 23 1e 05 3f 6f 96 41 3e 14 13 b2 3e c5 cc fb 3d
       0.5199911 0.18905042 0.3478018 0.12294916
000080 31 ab 48 bd b2 02 5c 3e 16 cb b9 be e0 e6 ec be
       -0.048991386 0.21485403 -0.36287755 -0.46269894
000090 b3 0a e8 3e 4f 59 d8 be 16 f0 fd be 1a 90 8a be
       0.45320663 -0.42255637 -0.49597234 -0.27063066
0000a0 df 57 04 3f 0e cf 02 3f f0 f4 aa be fe be e0 3d
       0.5169658 0.5109719 -0.33389997 0.10973929
0000b0 32 6a 03 bf f8 41 04 bf 40 66 f1 3e 2b cf ae bd
       -0.51333916 -0.5166316 0.47148323 -0.08535608
0000c0 a4 91 ec be 64 48 61 3e 29 3d 2d 3e 0f 92 9a be
       -0.46204865 0.22000271 0.16917862 -0.3018956
0000d0 57 4f e2 3e 84 bc 93 be 92 96 4c 3e 8d 39 de be
       0.44201156 -0.28854764 0.19979313 -0.43403283
0000e0 e0 4f f2 3e 9c 65 45 be 5c 8f d4 bd bd 83 51 be
       0.47326565 -0.19277042 -0.10378906 -0.2046041
0000f0 3a 71 bf be dc 7c 06 3f 47 2b f0 3d 4c 32 78 3e
       -0.37391073 0.5253427 0.117270045 0.24237937

gat_layers.1.bias f4 [64]
000000 ab c9 a5 bb 67 1e b4 bb 9d ed b9 bb 3a 84 b5 bb
       -0.005059441 -0.0054967883 -0.0056740777 -0.0055394443
000010 95 69 b9 bb 49 2a b6 bb e5 8a b4 bb 9f 39 b6 bb
       -0.0056583383 -0.00555924 -0.0055097216 -0.005561068
000020 33 c8 02 3c 8c 86 b5 bb c9 81 b5 bb 7a 6a bb 3b
       0.0079823015 -0.005539721 -0.0055391532 0.00571948
000030 1f 86 b4 bb 38 84 ab bb d8 95 6b 3a d6 75 b4 bb
       -0.0055091525 -0.0052342676 0.0008986867 -0.005507211
000040 11 0a e6 3b 10 84 cb 3b 43 69 b2 bb 8a cf b9 bb
       0.007020243 0.0062108114 -0.005444677 -0.0056704925
000050 06 3f 98 bb 2c 77 b5 bb 1e 21 9d bb 82 b3 b7 bb
       -0.004646185 -0.005537888 -0.0047952076 -0.005606116
000060 41 4e ac 3b b6 79 b6 bb e6 9d ac bb b3 83 d2 3b
       0.005258352 -0.0055687083 -0.0052678464 0.006424391
000070 5d 0b 07 3c fb fa 70 3b 20 5f 96 bb d6 94 b8 bb
       0.008242455 0.003677069 -0.0045889765 -0.005632977
000080 5c 1b b8 bb 40 0b b5 bb e3 bf b9 bb 69 86 b4 bb
       -0.005618496 -0.0055250227 -0.0056686266 -0.005509187
000090 7b e8 2a 3b 72 55 b4 bb c9 d9 b2 bb 82 21 ac bb
       0.002607851 -0.00550335 -0.005458091 -0.005253018
0000a0 1c 62 b3 bb 9b 20 b8 bb 51 52 6a 3b 2a ce b2 bb
       -0.005474342 -0.0056191212 0.003575463 -0.0054567056
0000b0 c3 d2 d5 3b 99 2a b8 bb 84 3b b5 bb f2 40 de 3b
       0.006525369 -0.0056203124 -0.0055307765 0.0067826444
0000c0 da 43 af bb e1 bb b6 bb 42 f9 e3 3b 90 9e ff 3b
       -0.0053486647 -0.005576596 0.006957204 0.0078008845
0000d0 f3 c4 b5 bb d7 1b f9 3b 48 34 b4 bb 04 3d b8 bb
       -0.00554716 0.0076021957 -0.0054993965 -0.005622508
0000e0 88 21 cf bb f0 24 b9 bb 83 ed b4 bb 3d b7 ba bb
       -0.006321136 -0.0056501552 -0.0055214777 -0.0056981132
0000f0 18 86 a5 bb 59 32 0c 3b 71 df b8 bb 09 03 b4 bb
       -0.0050513856 0.0021392314 -0.0056418707 -0.005493526

gat_layers.1.lin.weight f4 [64, 64]
000000 7d 84 53 3d 1a 89 d8 3d 3d f0 d7 3d 7c 0d c3 3c
       0.051640023 0.10573025 0.10543869 0.02381014
000010 a3 77 42 3e 67 08 e8 bc 84 0a 40 3d eb f7 19 be
       0.1899095 -0.028324319 0.04688503 -0.1503598
000020 e3 a4 50 3e 44 9b 2c 3e cf 10 c2 bd 5f b3 d3 bd
       0.203754 0.16856104 -0.09475862 -0.10336947
000030 32 f4 98 3d 30 08 2e be 6a 22 1c 3e e1 6f e9 bd
       0.074684516 -0.16995311 0.15247503 -0.11398292
000040 e6 57 16 be af 3d 51 be 41 3d fe 3c 01 15 ac bd
       -0.14681968 -0.20433687 0.031035068 -0.08402444
000050 13 b1 32 be 22 bf fd bd 7c 7f da bd 21 59 ab 3d
       -0.17450361 -0.12389971 -0.10668847 0.08366609
000060 e0 6d fd 3d 99 ea c3 bd 6f 9f 4c 3e 21 af 12 be
       0.123744726 -0.0956623 0.19982694 -0.14324619
000070 e1 12 22 be 23 ff 0a be 52 e1 3f 3e de 30 b5 bd
       -0.15827514 -0.1357389 0.18738297 -0.08847211
000080 a9 87 5b 3e c1 88 b0 bc cb 9f 88 3c 0e 00 a1 bd
       0.21438469 -0.021549584 0.016677758 -0.078613386
000090 80 bc 2c be 12 03 83 bd 27 0b f1 bd 33 3e 9a 3d
       -0.16868782 -0.0639707 -0.11769705 0.07531395
0000a0 2e 2e e3 3d 66 ab ef bd 32 51 44 3d 59 c8 26 3d
       0.110927925 -0.117026135 0.047928996 0.04071841
0000b0 c0 03 24 3d 55 d3 ad 3d b3 f1 16 3d 27 77 2e be
       0.04004264 0.08487574 0.036851596 -0.1703764
0000c0 10 af f4 38 b6 ea 33 bd 1f 86 42 be 9b 73 b8 3d
       0.000116674346 -0.04392501 -0.18996476 0.09006425
0000d0 03 8a 3c bd 29 a8 8d 3d cc 2e 60 3e dd 4e 56 3d
       -0.046030056 0.0691684 0.21892852 0.052321304
0000e0 ae b9 37 bd 3d df 67 bd 13 19 31 be 50 3d 17 3c
       -0.044854812 -0.05660938 -0.17294721 0.009230927
0000f0 fd 9f 4b 3e 8e 04 12 be 88 52 56 3e c2 0b cb 3c
       0.1988525 -0.1425955 0.2092992 0.02478588
000100 dd 88 3d be 8f 02 02 be 69 17 8c 3d 34 6e 40 3e
       -0.1850924 -0.12696289 0.06840403 0.18792039
000110 53 5a 5c be 35 86 84 3d a0 73 3f bd f4 2d 2a 3e
       -0.21518831 0.064709105 -0.046741128 0.16619092
000120 a9 2e 08 3e c1 33 11 be ce a3 c9 3a 4d f0 3d be
       0.1329905 -0.14179899 0.0015383901 -0.18548699
000130 ad 19 3f be 1f cd 18 3e 28 fd 4e be 22 99 ad 3d
       -0.18662138 0.14921997 -0.20213759 0.084764734
000140 fe b7 e3 3c fe 94 38 be f0 d8 29 3e 0e 99 45 be
       0.027797695 -0.18025586 0.16586661 -0.19296667
000150 7e 30 1b be a6 9f 9c bd 5c e1 fe 3c df 53 d4 bd
       -0.15155217 -0.07647638 0.03111332 -0.1036756
000160 6f d9 1d bd ab 50 84 bd 50 f2 12 be 69 aa 12 3d
       -0.03853744 -0.06460699 -0.14350247 0.035807047
000170 70 b1 ef 3d f2 ac 43 be 5a 85 1b be 69 69 b8 3d
       0.117037654 -0.19108942 -0.15187588 0.090044804
000180 92 78 46 bd 4f 01 28 be 60 34 31 3e c1 b4 bd bd
       -0.04845483 -0.16406749 0.17305136 -0.09262992
000190 2a 17 99 3c 45 df 37 be 0e 29 c4 3d bd dc 5d bd
       0.018687803 -0.17956264 0.09578143 -0.05416559
0001a0 df b1 d3 3d ae 08 35 3e 16 36 1a bd ca cc c7 3d
       0.103366606 0.17679092 -0.037649237 0.09755857
0001b0 ba 36 a0 3c 15 e8 f9 3d bd 84 34 be b1 50 1b 3e
       0.019557346 0.12202469 -0.1762876 0.151675
0001c0 41 a7 e1 bc aa b2 a3 3d cb 42 9f bd 7e be 87 3d
       -0.027545573 0.07993062 -0.077764116 0.066281304
0001d0 b4 bd bc 3d e5 19 18 3d 1a d4 51 be 58 b1 45 3d
       0.092158705 0.03713407 -0.20491067 0.04826483
0001e0 07 0a 10 be 5f bf eb bd 8c 56 4e 3d 26 a4 25 3e
       -0.14066325 -0.115111105 0.050375506 0.16175899
0001f0 40 e2 50 3d 59 1a 5a bd 4a 5c 8c bd d3 67 ad 3d
       0.05099702 -0.053247783 -0.0685354 0.084670685
000200 fe a0 1e 3e c3 0a 3d 3e 16 bc cb 3d a1 af 2c be
       0.15491101 0.18461137 0.09947984 -0.16863872
000210 95 db 47 be d7 0c 03 bd 8f ab 80 bd b2 4a 86 bd
       -0.19517358 -0.031994667 -0.06282722 -0.06557216
000220 71 03 2c be 37 3a 42 3a 01 37 3b be 99 22 2e 3e
       -0.16798188 0.00074091874 -0.18282701 0.17005385
000230 67 fe 60 3e f2 c9 8a bd d1 6b 32 3d f9 23 30 3e
       0.21972047 -0.06776799 0.043559853 0.17201222
000240 08 14 a0 3d 6e 78 40 be e9 0b 46 be 53 1c 51 3e
       0.07816321 -0.1879594 -0.19340481 0.20420961
000250 34 68 82 3d 6e 30 00 3e 0d ff 6f bc 9b 24 54 be
       0.063675314 0.12518474 -0.014648211 -0.20717089
000260 39 aa 98 3d 49 9f dc bd fe be 03 be 89 9e e0 bc
       0.074543424 -0.10772569 -0.12865826 -0.027419345
000270 73 37 4c be 14 87 00 3e 65 40 7a 3c ea fd 6a 3c
       -0.19943027 0.12551528 0.015274142 0.014342764
000280 7c bc d9 3d 27 e6 56 bd de d8 fe bd 4f 3b 28 be
       0.10631654 -0.052465584 -0.12443708 -0.16428874
000290 df 0c d7 bd c4 5c eb bd 51 23 43 3e a0 0f af b9
       -0.10500502 -0.11492303 0.19056441 -0.00033390243
0002a0 3b 43 7a 3d 5b 57 29 3e 07 45 3c bd e1 87 7c 3d
       0.061099272 0.1653723 -0.045964267 0.06165302
0002b0 f4 01 42 3e bc 33 d6 3d 1b 33 12 3e 55 e0 23 be
       0.18946058 0.10459086 0.14277308 -0.16003545
0002c0 7a 2f c0 bc 47 f3 a7 bc 39 c7 44 be 2f 29 f7 3d
       -0.023460139 -0.020501746 -0.19216622 0.12068402
0002d0 25 13 84 bc 11 3c d3 bd 97 bc a8 bd 2b a0 1f 3e
       -0.01612241 -0.10314191 -0.08239096 0.15588443
0002e0 8c f3 60 bd a9 ad b2 bd 10 90 35 be e2 3d ab 3d
       -0.054919764 -0.08724529 -0.17730737 0.083614126
0002f0 2b 9e 46 be 39 33 49 be 54 a6 d8 bd b7 c0 78 3c
       -0.19396274 -0.19648446 -0.105785996 0.015182666
000300 ea 60 49 3e 38 c7 c4 3d 93 72 04 be 33 74 29 3d
       0.19665876 0.096083105 -0.12934332 0.04137058
000310 e5 58 fe bd ed 90 b6 bd 9d b0 12 be 2c b1 03 be
       -0.12419299 -0.08914361 -0.14325185 -0.12860554
000320 10 8f 3b be ef aa 40 3e 46 fd 26 3e 13 95 bf 3c
       -0.18316293 0.18815206 0.16307554 0.023386514
000330 cf 5c 1d bd be a6 d4 3d 92 fd 51 be d7 e7 d5 bd
       -0.038418587 0.10383366 -0.20506886 -0.104446106
000340 f0 68 f8 bd c1 4f 6c 3c d5 ba 42 be 1b 03 f6 3d
       -0.1212939 0.014423312 -0.19016583 0.12012311
000350 a9 56 52 3e ea b1 e9 3d 2e d7 c0 bd f9 18 b1 3d
       0.2054087 0.114108875 -0.09416042 0.08647341
000360 31 7d 36 be 25 75 c3 bd ca 96 06 3e 78 53 50 be
       -0.17821194 -0.09543828 0.13143459 -0.20344341
000370 e1 4a 4e 3e ad d4 1d bd e0 87 3b 3d ca 11 5d 3c
       0.20145752 -0.0385329 0.045783877 0.013493011
000380 e5 12 51 be 9e c0 c9 3c 8d c6 41 3e ca e8 d5 bc
       -0.20417364 0.02462798 0.18923397 -0.026111979
000390 78 7e 07 3e b1 e5 5c be 88 42 41 be 34 7e f0 bd
       0.13231838 -0.21571995 -0.18873036 -0.11742821
0003a0 b6 5f 15 3e 0f ec 2e be f3 b1 1d be b5 a6 3a 3e
       0.14587292 -0.17082237 -0.15399913 0.18227656
0003b0 4f e9 31 3d a5 08 19 be b7 34 ae 3c a4 08 c4 3d
       0.04343539 -0.14944704 0.02126537 0.095719606
0003c0 bc 4a fd bd de f5 2f 3e 07 19 9c 3d 8f 73 2a be
       -0.1236777 0.17183635 0.07621961 -0.16645645
0003d0 31 20 92 bd 92 22 2a 3e 23 2b 74 3d bf 15 2b be
       -0.07135046 0.1661475 0.05961145 -0.16707514
0003e0 cb 67 93 bd f8 09 03 3e 35 b3 1d 3e 6c 8f 0f 3e
       -0.07197531 0.12796772 0.15400393 0.14019555
0003f0 89 be 3b 3e 82 2d 51 be 7b a4 dc bd 0d ca 03 3e
       0.18334402 -0.20427516 -0.1077356 0.12870045
