models/best_fraud_model_seed_789.pth (torch, 378192 bytes, 45 tensors)

node_emb.weight f4 [64, 8]
00000000: a63f 5b3e 130d 97be d3d8 0bbe 8472 b4bc
00000010: 3de6 a3be 8618 883e 1e23 953e 9b39 523e
00000020: 841a 8bbe 0362 92be f52a 05be 3911 74be
00000030: bf9e 86be c37d d23d 6489 a53e ee3d 53bd
00000040: dd8b 3cbe 71c5 353e a56c d13d d4b8 60be
00000050: 71e7 26be 7bba c8bd 27b4 9d3c 86f8 5e3e
00000060: ef9d afbe 916c f63d 9855 16b9 7edd 06be
00000070: 6606 b83d a645 f73b a107 b6be 3e56 0b3d
00000080: 6f13 333d 5936 f23c 8352 17be 1171 a2be
00000090: 2f4a 253d bee7 29bd 12b9 a1be b7b5 a3be
000000a0: 4c00 cf3d ce2f 31bd 9d3a 9cbd 86c2 d03d
000000b0: 9b51 403e 2227 993e 2cb3 6fbe fc31 433e
000000c0: f4fc 83bd 9779 b13e 73ad 583d bd9d a1be
000000d0: d655 243d 5864 373d 2192 4a3e 41e6 6cbd
000000e0: 319c d23d 4e1a 0bbc 7086 f5bd 2f5d d7bd
000000f0: fe9b 5d3e e345 77bd da5b 8f3e 2d7a eabd
00000100: 8b53 f2bd ac50 a5be af6e 4abc 85c3 95bd
00000110: 02ba 77be ff8e 773d 7056 6f3d 000a 23be
00000120: 0e8c f93d 2c6d aabe 7ee6 5ebe 26c0 153e
00000130: e5a6 ee3d 3b7c 8f3d ef58 4abe ac96 88be
00000140: 7efc 18be 1505 da3c 3416 f4bd 8f6d 51be
00000150: 64a2 ebbd 1dbe 9bbe e5f0 a13d c103 203e
00000160: 72f8 a7be 8b28 26be 21e0 57be c86b 5ebe
00000170: 5c2f b13e fc71 19be b136 9c3e 749d a8be
00000180: 8f8c a4be 36a3 db3c ed61 16be 731f 95be
00000190: 31e1 a13e cbdd 7b3d 2917 88bd abbc a13e
000001a0: cb06 1dbe a13f 6abc a224 653e 73fb 28be
000001b0: 428a 603e 86ad 42be 528b b7be f78a f93d
000001c0: f67b 87bc 0b26 bb3d d25b 9cbe 505f 5b3e
000001d0: f60f 9abe 41ff 8bbe b8c1 183d fdeb adbe
000001e0: 64ff f1bd 4bdc 6fbe eb97 45be 8efa 4c3e
000001f0: 779e 5cbd 1cd8 0cbd a421 4438 6ec4 83be
00000200: def4 433e 5ef3 aa3e e2c2 173e f037 38be
00000210: eb4e b8be 8681 643e 3b8e 5ebe 46e1 833e
00000220: 29d9 da3d 493b 3d3e c584 883b 3cf7 2dbe
00000230: e316 db3d 02cc 64be 02c5 6a3e 4461 b6be
00000240: 0139 213e 3c69 30be d965 5ebe 8d9e 8a3e
00000250: 730a ff3d f052 3e3e 0303 87be a53e 39be
00000260: 0d5d 01be 44e1 9cbe 73b8 86bc 4e45 793e
00000270: 14a8 03be 3b7e debd 6e1d 573e 879e abbe
00000280: 27d0 abbc b0d2 493e d389 1cbe eb8a dbbd
00000290: 337e aa3e d4ce 5c3e 34d6 0ebe 5203 cbbc
000002a0: f830 783d 1349 be3d efc6 0bbe c277 68be
000002b0: bca2 a0bd c381 993e fccc 4d3e 76fe 903e
000002c0: f53c aebe 0b41 a93e 64b6 64bd e32c be3d
000002d0: 30dd 47bb 7aee 303d 1109 debd 29ea 7cbe
000002e0: 1f66 98be 16b8 0ebe dd61 88bc 9106 1ebe
000002f0: 387d 0d3e fc8b b53d bba5 1f3d 380c 153e
00000300: 8ed8 933e b03c adbe 5e43 023e c831 ebbd
00000310: 2134 9abd 8da8 9c3e cf3a 7fbd 5200 9c3e
00000320: bb23 843e 036a a43e a95e 17be 61e9 033e
00000330: c2e1 dabd 6774 01be 6bf9 863e 6677 2cbe
00000340: e3f3 b43e 8f99 d33d 1887 8bbe 1dfa ae3e
00000350: ef8b 863d 8a14 2cbe c08a 503d 2d35 8abe
00000360: d108 283e 6321 3fbe 676f b43d 1def 9ebe
00000370: 96a3 9b3e ff96 283b c310 a5bd 1539 8cbe
00000380: a4a3 1abe c760 64be 1a2b 95be c72d 043e
00000390: 1cfc 8ebe da43 a83e c8b9 a0be 43c0 803e
000003a0: 8ea8 0cbe c8f7 923e 9c5b 9e3e ac1b 50be
000003b0: 1b20 26be 50a7 b0be 37f3 2c3e b0d8 423e
000003c0: 09b5 803e a601 83be 828a 923e d766 9abe
000003d0: 0368 93be 8937 6e3e 1be1 a33d 80b6 803e
000003e0: a826 563e cdac a23d 4d77 f1bd e487 e23d
000003f0: 5958 82be 5c2e 623e dc9d 683e b0df 613e
0.21410999 -0.29502162 -0.1365693 -0.022027262 -0.32011595 0.2658121 0.29128355 0.20529787
-0.27168667 -0.28590402 -0.13004668 -0.23834695 -0.2629299 0.102778934 0.32331383 -0.051572733
-0.18412729 0.17751099 0.102258004 -0.21945506 -0.16299225 -0.09801193 0.019250942 0.21774492
-0.3430018 0.12032426 -0.00014337001 -0.1317043 0.089855954 0.0075461445 -0.35552695 0.034017794
0.043719705 0.02956693 -0.1477757 -0.31726888 0.04035395 -0.041480772 -0.3158651 -0.31974575
0.101074785 -0.04325848 -0.07628367 0.101933524 0.1878113 0.29912668 -0.23408192 0.19062036
-0.06444731 0.34663078 0.05289979 -0.31565657 0.040120922 0.04477343 0.19782306 -0.057836775
0.102836974 -0.008490158 -0.119885325 -0.1051582 0.21641538 -0.060369384 0.27999765 -0.114490844
-0.11832341 -0.3228811 -0.012355491 -0.07312683 -0.2419205 0.060439106 0.058432043 -0.15921783
0.121849164 -0.33286417 -0.21767613 0.1462408 0.11652926 0.07006117 -0.19760488 -0.26677454
-0.14940068 0.026613751 -0.119182974 -0.2045195 -0.11505583 -0.30418482 0.07907275 0.15626432
-0.32806736 -0.16226403 -0.21081592 -0.21720803 0.34606445 -0.14984888 0.30510476 -0.32932627
-0.32138488 0.026811223 -0.14685793 -0.29125556 0.3161712 0.061490815 -0.066450424 0.31589255
-0.15334623 -0.014297397 0.22377256 -0.1650217 0.21927741 -0.19011506 -0.3584848 0.121847086
-0.016538601 0.091381155 -0.30538803 0.21423078 -0.30090302 -0.2734318 0.03729412 -0.33969107
-0.1181629 -0.23423879 -0.19296233 0.20017454 -0.05386206 -0.034385785 4.676137e-05 -0.257358
0.19136378 0.333888 0.14820436 -0.17990088 -0.3599771 0.22315034 -0.21733944 0.25757807
0.10685951 0.18479647 0.004166218 -0.16988844 0.10697725 -0.22343448 0.22926715 -0.35621083
0.15744402 -0.17227644 -0.2171854 0.2707409 0.12453165 0.18586326 -0.26369485 -0.18090303
-0.12633152 -0.30640614 -0.016445374 0.24342844 -0.12857085 -0.1086392 0.2100732 -0.33519384
-0.020973278 0.19709277 -0.15286951 -0.10719856 0.33299407 0.21563274 -0.139489 -0.024781857
0.060593575 0.092912816 -0.13650106 -0.22701934 -0.07843539 0.29981813 0.20097727 0.28319138
-0.34030882 0.33057436 -0.055838004 0.09285905 -0.0030496828 0.04319618 -0.10841573 -0.246987
-0.29765412 -0.1393741 -0.016648227 -0.15432192 0.13817298 0.088645905 0.038976412 0.14555442
0.28876156 -0.33835363 0.12721011 -0.114841044 -0.07529474 0.30597344 -0.062311944 0.30468994
0.2580851 0.3211213 -0.14782204 0.12881996 -0.10687591 -0.1264206 0.26362166 -0.16842422
0.3534232 0.10332023 -0.27251506 0.34175196 0.06569659 -0.1680471 0.050913572 -0.26993695
0.16409613 -0.1866508 0.08810311 -0.31041804 0.30398244 0.0025724766 -0.08059838 -0.273873
-0.15101486 -0.22302543 -0.29134446 0.12908088 -0.2792672 0.32864267 -0.3139174 0.25146684
-0.13736174 0.28704667 0.30929267 -0.20323056 -0.16223185 -0.3450265 0.16889654 0.19027972
0.2513812 -0.25587195 0.28621298 -0.30156586 -0.28790292 0.23263372 0.0800192 0.25139236
0.20913184 0.079431154 -0.11790333 0.11061075 -0.2545803 0.22087997 0.22716469 0.22057986

node_emb.bias f4 [64]
00000000: 7cdb 57be db17 86be 41a2 863e 59c6 56be
00000010: 6876 54be 6c83 8b3e 3b5b ab3d d538 a6be
00000020: 3922 9ebd ccf7 5dbd 4bcb 23bd 600d 3f3e
00000030: 6a9d 82bc 0fde e43d a9c5 a1bd 0127 e1bd
00000040: 81c7 a7be 591d ba3d 5d5d 7bbe 16dd 74be
00000050: 4667 943e 2e76 a43d 17b4 f43d ba8b debd
00000060: 5908 9abd ae1b 6fbd ee65 523e 7941 ac3e
00000070: f78a cf3d 7f56 76bd 228f 29be fbfd 4c3b
00000080: 02d8 a4be 32e1 e3bd 4f00 883e 8b36 9a3e
00000090: b856 553e a70d 24bd f8d3 cc3c c64f 1d3e
000000a0: 1a20 3a3d 6dfa dc3d 4600 dfbb 453b 24be
000000b0: bbae 5ebd 5822 a9be 8dcf 96be a474 55be
000000c0: 8506 833e a144 203c cb1a cb3d 0fea 28be
000000d0: 182a 09be 4e97 85bc bb3f a53e 0df0 af3e
000000e0: 994e ccbc 767e 29be 6cb4 83be da96 6c3e
000000f0: c212 01be ae0b f93d b2df 14be 19a8 213d
-0.2107982 -0.26190075 0.26295665 -0.20974101 -0.20748293 0.27248704 0.0836701 -0.32465234
-0.07721371 -0.054191396 -0.039988797 0.18657446 -0.015944201 0.11175167 -0.07899029 -0.109937675
-0.32769397 0.09087629 -0.24547334 -0.23912463 0.2898504 0.080303535 0.11948412 -0.108664945
-0.075211234 -0.058376007 0.20546696 0.33643702 0.10133927 -0.060141083 -0.16558507 0.0031279314
-0.3219605 -0.11126937 0.26562735 0.30119738 0.20833862 -0.040052082 0.025003418 0.15362462
0.04544077 0.107899524 -0.0068054525 -0.16038235 -0.054365855 -0.33034015 -0.29455224 -0.20845276
0.25590912 0.009781987 0.0991722 -0.16495536 -0.13394964 -0.0163075 0.32275185 0.34362832
-0.024939822 -0.16552147 -0.25723588 0.2310442 -0.12604812 0.12160431 -0.14538458 0.03946695

edge_emb.weight f4 [64, 2]
00000000: baec f2be 3850 19bf f7f6 6dbe ff2f 03bf
00000010: 28fa 97be 9546 323f c89e 2d3d 048e b7be
00000020: 37bd e73e 2deb 13bf 283b d23e 380d 213f
00000030: e85a f7be ff6c 8e3e 1485 c33e 4306 24bf
00000040: 9a67 29bf 6069 f8be b10c d5be 7f57 a63e
00000050: bf21 a23e d358 c9be 26b3 1d3f f7cd 34bf
00000060: 2aed f13e c63f 443e ddd9 0fbf 4068 283f
00000070: 19fa 1ebf 659c d73d 7056 263e d92e 3a3e
00000080: 989e 7bbe 8be7 053f beaf f53d 3033 023f
00000090: 1c0f ef3e bf93 293f f51c 9b3e d727 b3be
000000a0: 4df9 903e 4967 0ebe eb79 c4be 28e5 9dbe
000000b0: d9dd 4c3e 5e53 08bf 7c07 85be 89c1 09bf
000000c0: 0a3b 2bbf 85a8 273f 82ff 113f f641 323e
000000d0: 3363 48be 7280 ff3e de61 f7be e183 2cbf
000000e0: bc3d 1cbf 91cc cabd 1dbf 46be 5ead 343f
000000f0: ad54 16bf a85a b13e 148c 2c3e 2c21 353e
00000100: 9efb 0dbf 8de9 ffbe 5fe4 c63e 47e6 393e
00000110: 01fb 05bf 091b 9fbe f599 af3d 0fa6 123f
00000120: c2b6 c83e 2b1b 103e f1d5 163f 8a7c ac3d
00000130: c961 62be dce2 043f b759 98be b81f dc3e
00000140: 3e71 723e 2ced 72bc ed82 adbe ae30 183f
00000150: 80e4 003f b126 d7be 6bfb 0f3f 6318 a43d
00000160: 43a1 a13e 8a0c 07bf f781 133e c543 cfbd
00000170: f0bb 083f 658f 173e f588 313f 265d d63d
00000180: 7925 3b3e e3cd de3e a648 213f afcb 00bf
00000190: f331 433e 2ea0 113f 4a7f 273d 5186 343f
000001a0: 6704 25bf a4ee c0be 7a4c 2cbf 0dc7 cabe
000001b0: 1c32 04be 9621 d33e 7671 1c3e 80af 8f3e
000001c0: 9913 4a3d 7a76 bb3d 3923 a4be 94b6 583e
000001d0: 0ae8 f9be 8c7a aebe fbe7 40be 02f0 2e3f
000001e0: d29b 1a3f e3f1 333e 174c 23bf c58c c2be
000001f0: cf9a b93d b6f4 1e3f 2ada 29be d06b 223f
-0.47446233 -0.5988803 -0.23238741 -0.5124511 -0.29683042 0.6963895 0.042387754 -0.35850537
0.45261547 -0.57780725 0.41060758 0.62910795 -0.48311543 0.27817532 0.38187468 -0.64072055
-0.6617371 -0.48517895 -0.41611245 0.3248863 0.3166637 -0.3932558 0.61601484 -0.7062678
0.47251254 0.19164953 -0.5619181 0.6578407 -0.6210037 0.10527877 0.16243911 0.18181933
-0.24572217 0.5230643 0.11996411 0.50859356 0.46691215 0.6624107 0.3029553 -0.34991333
0.283152 -0.13906588 -0.38374266 -0.30838895 0.20006503 -0.5325221 -0.25982273 -0.53810936
-0.6688696 0.65491515 0.570305 0.17407975 -0.19569091 0.49902683 -0.48316854 -0.6738873
-0.610317 -0.09902299 -0.19408841 0.7057704 -0.58722955 0.34639478 0.1685031 0.17688435
-0.5546206 -0.49982873 0.38846108 0.1815425 -0.52336127 -0.31075314 0.08574287 0.57284635
0.39201933 0.14072864 0.589202 0.084221914 -0.22107615 0.5190866 -0.29755947 0.4299295
0.23676011 -0.014827054 -0.3388895 0.5944928 0.50348663 -0.42021707 0.5624301 0.08012464
0.31568345 -0.5275351 0.14405046 -0.10120348 0.5341177 0.14800794 0.69349605 0.104669854
0.18276013 0.43516454 0.6300148 -0.50310796 0.19062023 0.5688504 0.040892877 0.7051745
-0.6445984 -0.37682068 -0.67304194 -0.3960499 -0.1290974 0.41236562 0.15277657 0.28063583
0.049335096 0.09153457 -0.32058123 0.21163398 -0.48809844 -0.3407787 -0.18838494 0.6833497
0.6039401 0.17572741 -0.6378798 -0.37998024 0.090627305 0.6209215 -0.16587129 0.6344576

edge_emb.bias f4 [64]
00000000: cbd8 21be d47e 15bf 9d9c 413e 1610 ae3e
00000010: cfd2 b8be d93f 21bf 6a81 23bf d4e8 19bf
00000020: 3bbe 67be ee2b 0f3f 15d0 1bbe 775b cebc
00000030: 62f6 cc3e 15b3 f33e 17e0 da3b 5d15 1f3e
00000040: d5df 13bf 0a16 5e3e ec91 5cbe 1264 27bf
00000050: 80f4 103e 017c b6be c1d5 ca3e 8cbc a0be
00000060: 283a e9be 5ded a0bc f243 513d 1c00 a3be
00000070: a7d7 613e 8ded 5c3d 1b40 2ebe 87d6 e73e
00000080: 22b1 7bbe 9612 173f aeda 673e ad3e a0be
00000090: d42b 803d c449 2c3f 9fba a13e cf3f 0cbf
000000a0: 7a27 ab3e d102 bc3e 671e 88be ed93 84be
000000b0: ef4e dbbe 95c6 c23e ca90 313f 980d 293f
000000c0: 4aa7 773e b865 07bf 1e12 6b3e 123f 3b3e
000000d0: 051e 953e 5044 2cbf 6754 65be c63c 0dbf
000000e0: 5bce 2bbf 7477 29bf 806d b83e 9897 11bf
000000f0: 1d74 2bbf e2ee c4be dcf1 de3d cba9 94be
-0.15805356 -0.5839665 0.189074 0.33996648 -0.36098334 -0.6298805 -0.63869345 -0.6012089
-0.22631161 0.55926406 -0.15216096 -0.025190098 0.40031725 0.47597566 0.0066795456 0.15535493
-0.57763416 0.21688095 -0.2154004 -0.6538707 0.1415577 -0.35641482 0.39616206 -0.3139385
-0.45552182 -0.019644434 0.05109019 -0.3183602 0.22054921 0.053937484 -0.17016642 0.4528086
-0.2457929 0.59012735 0.22642013 -0.31297818 0.062583596 0.6730006 0.31587693 -0.54784864
0.33428556 0.367209 -0.26585695 -0.25894108 -0.4283366 0.3804213 0.69361556 0.6603637
0.2418491 -0.52889585 0.2295613 0.18285778 0.29124466 -0.67291737 -0.22395478 -0.5517086
-0.6711175 -0.66197896 0.36021042 -0.5687194 -0.6697405 -0.38463503 0.10885975 -0.29035792

gat_layers.0.att_src f4 [1, 4, 16]
00000000: 442d 81bd 8255 f7bd 2fc6 b3bc 844d 4f3e
00000010: 10e0 babe 439f 933e 237a 3fbe a5da a93d
00000020: 34a5 c3be b6d7 bd3e 63ab 7cbe e15d e73e
00000030: 6b73 903e a780 a9be 5fb4 07bd f8e4 d6be
00000040: f0a6 d23e 5da6 adbe 4a31 833e 63a4 ebbe
00000050: 3c54 933e c3eb 7b3d c452 67be 8352 163e
00000060: 8416 cfbe 649a 02be f179 fbbe d701 053e
00000070: 8c52 a23e 2933 86be 40b4 8b3d aa14 10be
00000080: 98a1 3d3e e7a7 813e 3114 ce3e 6eca 94bd
00000090: 9524 0c3f 3e40 85be 3344 02bf 85b8 833e
000000a0: 1705 a83e b415 d83e 63b6 8abe c0e8 f4be
000000b0: 58d5 bd3c 4fbd b4be 2947 52be 7893 f73e
000000c0: c394 fb3e 10b4 b5be cbd2 abbc 5f1e 8f3e
000000d0: dd14 d7be c005 02bf 74d5 ec3e 9f70 48be
000000e0: 2232 38be e596 03be f871 a83c 0d3f c7bd
000000f0: bc09 91be 0313 5e3c 06dd 80be fed6 e9be
-0.06307462 -0.12076856 -0.021945087 0.20244414 -0.3649907 0.28832445 -0.18698935 0.08293656
-0.38211977 0.37078637 -0.24674754 0.4518881 0.28213057 -0.33105966 -0.033131 -0.41971564
0.41142988 -0.33915988 0.25623542 -0.46023855 0.28775203 0.061504137 -0.22590166 0.14679913
-0.40446866 -0.12754208 -0.4911647 0.12988983 0.31703603 -0.26210907 0.06821489 -0.14070383
0.18518674 0.25323412 0.4024978 -0.07265173 0.5474332 -0.26025575 -0.50885314 0.25726715
0.32816383 0.42204058 -0.27092275 -0.47833824 0.02317302 -0.3530068 -0.20534958 0.48354697
0.49136934 -0.3548894 -0.020974537 0.2795286 -0.42008105 -0.50790024 0.46256602 -0.19574212
-0.17987874 -0.1285053 0.020562157 -0.09728823 -0.2832774 0.013554337 -0.25168628 -0.4567184

gat_layers.0.att_dst f4 [1, 4, 16]
00000000: ea6c ea3e 6fa5 8abe 6ecf fbbd a2ce ebbe
00000010: b84c ce3e 0e95 8bbe 9fc1 a03e f124 d43d
00000020: d213 8cbe 4a20 eabe ad80 013f d568 c9be
00000030: 670f 89bd f015 a13e fa8c fe3e b688 e83e
00000040: 3fa0 b5be c51f 2f3e c10b e23e 76b8 5f3d
00000050: c451 f8be f028 e63e 01e2 783e 9918 a93e
00000060: 4fa4 95bd 4af2 423e e79d cabd 3ce5 5ebe
00000070: bbd9 923e 757a 913e 7605 81be 4039 d33e
00000080: b4ef 453e 28ec 88be 7560 21bd 141c 913e
00000090: aba7 973e 909d 983e 122b a6be fad3 2cbe
000000a0: 92d8 863e 3515 f63c 2832 063f 3322 ce3e
000000b0: 7c3c 6abe 2ee3 1e3e 2f8d 803e 8c47 02bf
000000c0: 9e8c cb3e 6896 9abc 50c5 ba3e bb64 d4be
000000d0: 5dc6 afbe aa8e ba3e 719c ad3d 85d6 ec3e
000000e0: 2394 af3d 5a59 373e 8c75 f6be 932b 01bd
000000f0: c7ca ddbe eba2 a2be 0666 f03e 421b e43e
0.4578622 -0.2707934 -0.122954234 -0.46056086 0.40292907 -0.27262157 0.3139772 0.103586085
-0.27358872 -0.4572776 0.5058697 -0.39337793 -0.06692391 0.3146205 0.49716932 0.45416802
-0.3547382 0.17101963 0.44149593 0.054619275 -0.48499882 0.44953108 0.24304964 0.3302658
-0.0730673 0.19037738 -0.09893399 -0.21767133 0.2868174 0.2841374 -0.2519948 0.41254616
0.1932972 -0.26742673 -0.03939863 0.28341734 0.29620108 0.2980771 -0.32454735 -0.16877738
0.26337105 0.03003941 0.5242028 0.40260467 -0.22874635 0.1551635 0.25107715 -0.5089042
0.3975572 -0.018870547 0.36478662 -0.414831 -0.34331027 0.3643697 0.084771045 0.46257415
0.08573177 0.17905179 -0.48136556 -0.031535696 -0.4331877 -0.31764922 0.46952838 0.44552046

gat_layers.0.att_edge f4 [1, 4, 16]
00000000: d83f 8e3e 1b07 a5bd 7e80 efbe c041 853c
00000010: 7701 b33e e398 013f bc8a 923c 891c b43e
00000020: a4aa 7dbe 5657 4bbe 8dc5 9e3e a87d 023f
00000030: d898 e63e 1a8a f43e fca4 4d3e 5545 7f3e
00000040: 392b 86bd eb8b dc3e f784 f23e ce0e c6be
00000050: a732 4dbe 5b60 cdbe c763 b33e b9d0 433e
00000060: b9a8 cfbe f932 5c3e e365 e6be dbd5 40bd
00000070: 14f0 a13e df0f b3be d0b9 d93c 87ff 5dbe
00000080: 2ea3 e9be bced 953e b5c8 9cbe 86fc c0be
00000090: 55f4 c63e 3eaf 193e 4c2d 053f bd80 ecbe
000000a0: bbbb 3cbd 3c6c 9dbe 6e68 0d3e 29bd 9a3d
000000b0: 3b5b 9c3e cfbb 8cbb 19c1 7dbe 1911 0a3f
000000c0: e8c8 b7be 1649 9bbe dc38 833e 6c8e c7be
000000d0: 12fc 0d3d 4ff2 05bf 0425 973e 2ed5 e0be
000000e0: 417d 4d3e 8fe8 f2be 55fd bc3c 7dc4 56be
000000f0: a698 d23e 2fb5 c03e 69e2 06bf f660 b0be
0.27783084 -0.08057996 -0.4677772 0.016266704 0.34962055 0.5062391 0.01788842 0.3517802
-0.24772125 -0.19857535 0.31010094 0.50972986 0.45038486 0.47761613 0.20082468 0.24928792
-0.06551213 0.430755 0.4736707 -0.3868317 -0.20038854 -0.40112576 0.35037062 0.1912259
-0.40558413 0.2150382 -0.44999608 -0.04707895 0.31628478 -0.34973046 0.02657786 -0.21679507
-0.4563231 0.2928294 -0.30621877 -0.3769266 0.38858286 0.15008256 0.5202224 -0.4619197
-0.04607747 -0.3074664 0.13809368 0.07555611 0.30538353 -0.0042948495 -0.24780692 0.5393234
-0.35895467 -0.30329198 0.25629318 -0.38975847 0.03466422 -0.5232286 0.29520428 -0.43912643
0.20067312 -0.47443053 0.023070017 -0.20973392 0.41132087 0.37638232 -0.52689224 -0.34448975

gat_layers.0.bias f4 [64]
00000000: d549 c4bb 222c c5bb 1c68 523c fcb7 c4bb
00000010: e2c4 c5bb 2c4e f8bb 0436 bebb a286 3d3c
00000020: 02e7 c6bb 1496 c4bb cdca 983b 87d4 2e3c
00000030: ad41 c3bb e077 c5bb ea56 b9bb fe3f c5bb
00000040: 30cc c5bb adcd c5bb af96 c4bb 1fab c6bb
00000050: 4578 c6bb 7676 833c 6836 c4bb af1b c6bb
00000060: 0080 513b adb7 c4bb 0139 2d3c 840a c6bb
00000070: 2025 c5bb 2d0b c5bb 1c08 053c 91ed c4bb
00000080: c83e c5bb 79f7 b8bb 83c6 ffbb a396 00bb
00000090: c49a c5bb 0fef c4bb 4c47 c3bb d3ad c5bb
000000a0: 20db 9bb9 60a2 c3bb e8a6 b7bb aa17 eebb
000000b0: e47a c0bb b8b6 c4bb 2b39 c5bb 6b9b c3bb
000000c0: 5721 583c 46a2 e53a 96d8 efbb 74f4 c0bb
000000d0: be3e c8bb 5f50 c8bb 76ee c3bb e6fc 00bb
000000e0: aa66 dbbb 1b56 e63b ffe2 c5bb 05cb bbbb
000000f0: a8f2 c2bb efb6 c4bb de55 173c ae4a ed3a
-0.005990247 -0.006017224 0.012842204 -0.006003378 -0.006035433 -0.007577678 -0.005804779 0.0115677435
-0.0060700187 -0.005999336 0.0046628476 0.010670788 -0.005958757 -0.006026253 -0.005656113 -0.0060195914
-0.006036304 -0.0060364814 -0.005999408 -0.0060628797 -0.0060568177 0.016047698 -0.005987931 -0.0060457806
0.0031967163 -0.006003341 0.010572673 -0.006043734 -0.0060163885 -0.006013295 0.008119609 -0.0060097654
-0.006019447 -0.0056447354 -0.007805647 -0.0019621036 -0.0060304124 -0.0060099433 -0.005959427 -0.0060326844
-0.00029727165 -0.0059702843 -0.0056046136 -0.0072660046 -0.0058740247 -0.006003227 -0.006018778 -0.005969455
0.013191543 0.0017519675 -0.00731952 -0.005888516 -0.006110995 -0.0061130966 -0.0059793545 -0.001968199
-0.006695588 0.0070293075 -0.006039023 -0.005730989 -0.005949337 -0.0060032527 0.009236781 0.0018103921

gat_layers.0.lin.weight f4 [64, 64]
00000000: 1b34 bd3d d815 363e e1de 573e a278 db3d
00000010: 1ba0 42bd 0dd8 3a3e 327b f73d 0b2b fb3d
00000020: e29f 843c 40d0 4abe d9c0 43be d0a9 e13b
00000030: 83d4 8a3d 1b6d 30be 6101 03be 6d24 41be
00000040: 26b0 353e d824 903d 240a 2ebe e31d 03be
00000050: 5adf 06be 3f79 76bd c7a4 153e 9157 b5bd
00000060: 9690 1d3e 4d08 c13d aa1a 313e 47fe 263c
00000070: db13 dbbd 6cda 403e eed3 b43d 1d70 cebd
00000080: 9dfb 0abe 2151 80bd 4f87 bbbc 65a4 4bbe
00000090: b01a f2bd 24b6 353e fb24 643e bb69 3dbe
000000a0: abae d1bd 858c ba3c 5772 34be ad3e f4bd
000000b0: 2a21 f23d 51c3 5d3e bddd 42be ca34 e73d
000000c0: 4bb8 40be 6aa4 a6bd 022c 333e a433 e9bd
000000d0: ed54 5f3d ffd4 4a3e b1bb 3fbe 6795 1a3d
000000e0: 9e66 63bd 6002 403e 871f 9fbd a1b0 d8bc
000000f0: 0c08 72bc 83c7 d7bd bda5 0dbe d379 92bd
00000100: 90ca 303b e0ec 83bd ce94 6abe e28e 8f3d
00000110: 7b8f 8c3d e1b3 f53d 1ce6 bbbd 9d20 eabd
00000120: 90fa 423e 21b5 113d 3c9d 3dbe 1aa0 203e
00000130: 166e 633c 03b1 dabc bd94 443e 243d 48be
00000140: d903 ae3d 8a2b 2a3e 6afa afbd 0d1c 153e
00000150: a907 18be 27c3 1cbe 4368 0f3d e3dc 34be
00000160: be3a bbbd 9d99 98bc 5ec2 1d3e be31 553e
00000170: c414 a43d 06ee 16bd 83ae 41bd 7d29 393e
00000180: e03e 163d c7f6 98bd f27b 4bbe 2326 f2bb
00000190: 8f0c 13bd f5cc ac3c b6e6 8bbd 2e0f 183e
000001a0: f5be 5fbd f0c3 1f3e 5925 18be 1376 083d
000001b0: 2b0b 973d ce09 343e b72c fe3d 35c6 3d3e
000001c0: 0394 783d 54ae 3dbe e783 b0bd 4b70 24be
000001d0: e754 ed3d a0d0 d83c ab54 4dbe 7343 e4bd
000001e0: ccb5 0f3e f30e c3bc 21e9 11be f9e8 043e
000001f0: 2e21 253e fdcb b1bd 65cd debc 62fa 373e
00000200: 0a6d 223d f981 4a3d 6a3f 723d 1546 e8bd
00000210: 7294 b0bd 5fe2 973d f808 423e 6410 c2bd
00000220: 96e5 d6bd e143 443d a6e1 e73d 451e 293d
00000230: 4832 2c3e 7f81 a53d 82f7 4b3e 21b8 ddbd
00000240: b5c8 a5bd ae9e 2dbe f075 86bd 912c 8dbd
00000250: ed9f 173d f098 f53d 7b63 2ebe 338e ec3c
00000260: 2fd1 15be b4a0 8a3d 19a8 c53d 25bf 33bd
00000270: ccfd 95bd faf6 e1bd 0c21 07be cee8 be3d
00000280: ce38 283e 4efa 0bbc 633a 96bd 94e6 01be
00000290: a418 453e cade 9e3d 0f1d 47be 18cd 373e
000002a0: 33d6 8b3c cfc9 0e3e 3ff1 eeba 1481 2d3e
000002b0: 2454 7dbd 49c5 2fbd a2c0 9c3c 8362 8f3c
000002c0: 3143 58be 2532 0abd 6549 243e e506 31be
000002d0: 0d07 60be 4006 533e cff2 0f3e 41a3 b2bd
000002e0: 8acf c6bd 0d7e 0ebe e754 1f3e 6a8d 3bbe
000002f0: 16f1 d43d 902d 0cbd b27a 013d 3a11 42be
00000300: 483e 2ebe 9c6a f9bd 7b39 303d 1be6 073e
00000310: 9681 123e ef47 04bd 11e6 00be d910 27bc
00000320: 4825 9b3d 0c3e 423e f8ac ee3c b61c 1dbe
00000330: ca26 32bd ec1e 8bbd b7f5 c6bd 3178 b9bd
00000340: c9fc 41bd 124f 39be b4ef c63d 519f 103e
00000350: e9c5 c13d 630d 2e3d 17d3 2abe 14de 0b3e
00000360: fa30 0e3e 3d78 81bd a24a 443e 728b 833d
00000370: 5a02 41be 9499 e13d 3f44 363d af6b 0f3b
00000380: 23d4 a6bd d494 3cbc 5edd 0cbd 195a 163e
00000390: 5f60 ea3d fd00 10bd cf04 cebc 2008 d8bd
000003a0: 406f 74bd d311 64bb 3904 283c 3500 5d3e
000003b0: ff0b d43d 5e76 3bbe 2a64 003e fa47 f8bd
000003c0: 8154 efbd f611 28bd c301 f1bd 97f9 3d3d
000003d0: fa92 0f3d 8d53 373e 64e8 03be c647 093e
000003e0: 6d78 38be 4fba 073e 7025 1e3e 55a8 09be
000003f0: 0aaf 30be 69ce 243e d01c 0b3e ed14 35be
0.09238454 0.1778177 0.21081115 0.10716368 -0.04751597 0.1824648 0.120840445 0.12264069
0.01618952 -0.19806004 -0.19116534 0.0068866983 0.06778815 -0.1722912 -0.12793495 -0.18861552
0.17742977 0.070382774 -0.16996056 -0.1280437 -0.1317114 -0.060174223 0.14613639 -0.088545926
0.15387186 0.094254114 0.17295328 0.01019246 -0.106971465 0.18833321 0.08829485 -0.10079978
-0.13572545 -0.06265474 -0.022891669 -0.1988693 -0.118214965 0.17745262 0.22279732 -0.18497364
-0.102383934 0.022772083 -0.17621742 -0.11926017 0.11822732 0.21656539 -0.19029899 0.112893656
-0.18820302 -0.08136828 0.17497256 -0.11386803 0.05452435 0.19807814 -0.18723942 0.037740137
-0.055517785 0.18750906 -0.07769685 -0.02645141 -0.014772426 -0.10536101 -0.13832755 -0.071521424
0.0026976205 -0.06441665 -0.22908327 0.070096746 0.06863304 0.119972 -0.09174749 -0.11432002
0.19040895 0.03557313 -0.18517011 0.15686074 0.013881227 -0.026695734 0.19197364 -0.19554573
0.08496828 0.16618171 -0.085926846 0.14561482 -0.14846672 -0.1530882 0.03501154 -0.17662387
-0.091420636 -0.018627936 0.15406176 0.20819756 0.08011773 -0.03684809 -0.047285568 0.18082233
0.036681056 -0.07468944 -0.198715 -0.0073898 -0.03590065 0.021093825 -0.06831114 0.1484954
-0.05462547 0.15602088 -0.14857997 0.03331573 0.07375177 0.17581865 0.124108724 0.18532641
0.06068803 -0.18523532 -0.086189084 -0.16058461 0.115884595 0.026466668 -0.2005183 -0.111456774
0.14034194 -0.02381084 -0.14249088 0.12979497 0.16125938 -0.08681486 -0.02719755 0.17966607
0.03965477 0.049440358 0.059142508 -0.11341492 -0.08622064 0.07416224 0.18948734 -0.094757825
-0.10493009 0.047916297 0.11322336 0.041288633 0.16816056 0.0808134 0.19918635 -0.108261354
-0.080949225 -0.16955063 -0.065654635 -0.06893266 0.03701775 0.11992061 -0.17030136 0.0288764
-0.14630578 0.06768933 0.09651203 -0.04388346 -0.073237985 -0.11033435 -0.131962 0.09321748
0.1642792 -0.008543564 -0.07335355 -0.12685615 0.19247681 0.077573374 -0.19444679 0.17949331
0.017069912 0.13944171 -0.0018229856 0.1694377 -0.06184782 -0.042912755 0.019134823 0.017503029
-0.21119381 -0.033739228 0.16043623 -0.17287786 -0.2187769 0.20607853 0.14057468 -0.087225445
-0.09707554 -0.13915272 0.15559731 -0.18315664 0.10397546 -0.03422314 0.031611152 -0.18951884
-0.17015946 -0.12178537 0.043023568 0.13271372 0.14307246 -0.032295164 -0.12587763 -0.010196888
0.0757547 0.18968982 0.029135212 -0.15342984 -0.043494023 -0.06793007 -0.09714835 -0.09056128
-0.047360215 -0.18096569 0.097136885 0.14123274 0.094615765 0.042493235 -0.16682087 0.13658935
0.1388587 -0.06321762 0.19169095 0.064230815 -0.18848553 0.11015621 0.04449868 0.0021884253
-0.081459306 -0.011510093 -0.0343908 0.14682807 0.114441626 -0.035157192 -0.025148777 -0.10548425
-0.05967641 -0.0034800663 0.010254913 0.2158211 0.103538506 -0.18306872 0.1253821 -0.121231034
-0.1168604 -0.041032754 -0.11767914 0.046380606 0.035052277 0.17902966 -0.12881619 0.13406286
-0.18014689 0.13254665 0.15443969 -0.1344312 -0.17254272 0.16094364 0.1358521 -0.17683764

gat_layers.0.lin_edge.weight f4 [64, 64]
00000000: 9654 5cbe 04e5 ceb8 bd17 c4bd 25b9 393d
00000010: b6c4 e23d f4a9 13be 6b61 3b3d 5a5e 733d
00000020: 0e68 cfbd e755 7d3d e69f 29be aa44 7abd
00000030: ea5e 0b3c c534 43be 7973 cb3d 7793 75bd
00000040: 8a77 1ebe fb64 56be bcc6 07be 8951 0f3d
00000050: a03e 06be 1dea 133e 7866 fcbd 6a2d c03d
00000060: 248c 913d d003 5a3e f973 52be 7d77 04bb
00000070: dd49 3e3e ecb8 a73c 84e2 0fbe e633 5bbe
00000080: 17d1 9f3d b326 9cbc f55b 103e 9676 d4bd
00000090: 353f d93d dafd b2bd 23c6 893a 269f 9b3a
000000a0: 91fb 4abe 5363 06be 9420 00be e886 35be
000000b0: 5042 63bd b1f2 a13d 61c0 1dbd 0238 d93d
000000c0: a4d3 09be d09b 723d cbb6 29be db29 343e
000000d0: 83eb 0cbe a1fe e9bc bc9b dbbd 8544 5bbe
000000e0: ad96 4e3e 1a92 a43d f0c8 8cbd 96a8 323d
000000f0: 9ef5 3d3e ca40 29be 5c43 7dbd 079a f0bd
00000100: 3f2b a63d 204c 30be 6104 03bd 2397 47be
00000110: 03f5 253e 1401 823b 1318 3d3e 597c 823c
00000120: e691 353e 91af 74bd 26e2 b33d 1ccc 1d3c
00000130: b843 ffbd f2c5 153e cde4 5bbc 8b18 a83c
00000140: 0212 14be f343 973c cc28 40be 6c12 4c3d
00000150: 9c6d 00be e0c7 55be f971 07be 774f 253e
00000160: 72b3 393e d303 243e cd62 47bd 815e 0d3d
00000170: 50c6 193e 527f 8e3d f856 3ebe 930c ed3d
00000180: ebb2 97bd e691 39be f387 df3d 9832 babd
00000190: a1fa 603d fb50 eebd 151c 893d 0b19 ca3c
000001a0: fcfc e9bd d85f 36be 523e 8c3d 8078 60bd
000001b0: 38c2 353e 3721 813d 8401 3a3e 7d96 adbd
000001c0: 6382 903d b577 183e aef2 6c3d c228 11be
000001d0: e01c 073e 778f c23d 01a3 55be a332 09bb
000001e0: be9b b73d a81e 30be 5402 2d3d f43c 33be
000001f0: 350e 26be e93d 9f3d 6e2a 083e 1976 bd3d
00000200: cc7a 55be ec24 78bd 9f7f 3cbe 7347 31be
00000210: 7883 39be f26a 8fbd 8510 ebbd 77f4 06bd
00000220: c53c 7dbd d261 28be cfb6 2f3e 2abb 38bc
00000230: a028 02be 578b 03be 3e31 c63c 41b7 553e
00000240: ddb9 3abe be2e 12be c7d9 d5bd dd08 4c3d
00000250: f05c 573d da53 2b3d e542 633c 6515 4cbd
00000260: 693e 523e 42cd 38be 3fc2 bc3d b1c2 10be
00000270: c000 7abd af91 143e cf43 58be e281 ea3b
00000280: 1e14 1ebe 9ad2 b0bd 8c7e 3d3d 449f 34be
00000290: b074 efb7 3ae1 4f3e c7a4 1abe fbd0 f13d
000002a0: c8b9 b23d c52a 15be 90be d0bb fcb8 b5bd
000002b0: f314 813b ba3a edbd 87fb 4f3e 544f 14be
000002c0: 4214 d33d e08e 7e3d af96 d63d 0e56 d2bd
000002d0: 33ca bfbd 871a 78bd 2c32 843d 380f 2f3e
000002e0: ef71 d9bd c35c 49be 5c73 603c 94fa a8bd
000002f0: ee65 30bb 3035 683b 5840 6dbd 2407 8cbc
00000300: 2709 0c3d 63de df3d db73 a8bd 2153 2fbe
00000310: 1f58 383e eb36 c6bd c22e aebd 3d51 c0bd
00000320: b3b0 25be 6445 5dbc a822 4ebe a5c5 35be
00000330: 4fdd 793c 3b10 37be e887 f3bb 74a6 f63d
00000340: 642c 983c d602 cc3d 9d3d 033e c00d 07be
00000350: 611d a83d e2ab 88bc c830 86bd 3803 143e
00000360: 6436 caba b72d 32be 2256 db3d fd31 81bb
00000370: a29e 80bd 2771 13be 5179 f83c d2bf 163c
00000380: 4988 9f3d 76be 5b3e daa3 1b3d 9a81 83bd
00000390: a4ac 3c3e ffd5 55be 614a 9ebd d114 b1bd
000003a0: 2888 17be 1af7 7e3d f9d2 11be ab9f 943d
000003b0: 5340 c8bd f85e 183e 1b79 a23d 5261 e13d
000003c0: 9bdf c3bd a221 6abd c7fe 043e 8a21 32bd
000003d0: 1282 eabd 3f40 ebbd 855e d2ba 3097 1c3e
000003e0: b5bb 79bd 7c2e 1abe 7cb6 06be f3bc 4dbc
000003f0: c875 423e c11b 3b3d 914b 62bd 4ba7 e63d
-0.21516642 -9.865503e-05 -0.0957484 0.045342583 0.11072676 -0.144203 0.045747202 0.059416153
-0.10127269 0.0618495 -0.16564903 -0.06110064 0.008506516 -0.19063099 0.09934134 -0.059955087
-0.15475288 -0.20936958 -0.13259405 0.034989867 -0.13109827 0.14444776 -0.12324232 0.09383662
0.07106808 0.21290517 -0.20552053 -0.0020212822 0.18582864 0.02047392 -0.14051253 -0.21406516
0.078035526 -0.019061422 0.14097579 -0.10374181 0.10607759 -0.087398246 0.001051132 0.0011872991
-0.19822527 -0.13123827 -0.12512428 -0.17727244 -0.055483162 0.07907618 -0.038513545 0.10606386
-0.1345964 0.059230626 -0.16573636 0.17594092 -0.13761716 -0.0285638 -0.10723063 -0.21412857
0.20174666 0.08035679 -0.06874263 0.043617807 0.18550727 -0.16528621 -0.061831817 -0.117481284
0.08113717 -0.1721654 -0.031986598 -0.19491248 0.16206746 0.0039674137 0.18466215 0.015928434
0.17731437 -0.059737746 0.08783369 0.009631183 -0.12464088 0.14626291 -0.01342125 0.020519515
-0.14459994 0.018465018 -0.18765563 0.049822256 -0.12541813 -0.20877028 -0.13227071 0.16143595
0.18134859 0.16017084 -0.04867821 0.034513954 0.15017056 0.06957878 -0.18587863 0.11574664
-0.07407173 -0.18122062 0.10914602 -0.09091681 0.05492652 -0.116365395 0.06694809 0.024670145
-0.11425206 -0.17809999 0.06847824 -0.054802418 0.1774987 0.06305163 0.1816464 -0.08475969
0.07056119 0.14889415 0.057848625 -0.14175704 0.13194609 0.0950002 -0.20862962 -0.0020934723
0.08965252 -0.17199194 0.04223855 -0.1750372 -0.16216357 0.0777548 0.13297436 0.09251041
-0.20847625 -0.060582086 -0.18408059 -0.17312412 -0.18116558 -0.0700282 -0.1147776 -0.032947984
-0.061825532 -0.16443565 0.1715958 -0.011275092 -0.1271081 -0.12846123 0.024193402 0.20870687
-0.18234964 -0.14275643 -0.10441928 0.04981314 0.052578866 0.041828014 0.013870929 -0.04982509
0.2053162 -0.1804705 0.09216737 -0.14136769 -0.06103587 0.14508699 -0.21119617 0.0071565965
-0.15437362 -0.08633919 0.046263263 -0.1763888 -2.8545357e-05 0.20300761 -0.1510192 0.11807438
0.08726841 -0.14567097 -0.006370373 -0.088731736 0.003939265 -0.11583467 0.20310794 -0.14483386
0.10306598 0.062147975 0.10477959 -0.1027032 -0.09364738 -0.060572173 0.06454882 0.17095649
-0.10617434 -0.19664292 0.013699379 -0.08250919 -0.0026916224 0.0035432093 -0.05792269 -0.017093249
0.034188416 0.10931089 -0.08225223 -0.17121555 0.18002366 -0.096784435 -0.08505012 -0.09390495
-0.16180687 -0.013505314 -0.20130408 -0.17751177 0.015250518 -0.17877285 -0.007431973 0.12043467
0.018575855 0.099614784 0.12816472 -0.13188839 0.082087286 -0.016683523 -0.06552273 0.14454353
-0.0015427587 -0.17400251 0.10709788 -0.0039427266 -0.06280257 -0.14398633 0.030331286 0.009201007
0.07789666 0.21459374 0.037998058 -0.06421204 0.18425232 -0.20882414 -0.077290304 -0.086465485
-0.14798033 0.062247373 -0.14240636 0.07257017 -0.09777894 0.14879978 0.07933255 0.110048905
-0.09564134 -0.05716098 0.12987815 -0.043489017 -0.1145059 -0.11486863 -0.0016049898 0.15292048
-0.060970027 -0.15056795 -0.1315555 -0.012557256 0.18990242 0.045680765 -0.055247847 0.11262377

gat_layers.1.att_src f4 [1, 4, 16]
00000000: c71d a0bd 862d ccbe 14f7 80be b2f4 d13e
00000010: 7d52 8ebd aa6a 62be 85b5 e7be ddac 71be
00000020: 621a b2be 181e 973b b52c aabe 70b7 a2be
00000030: 94c2 053f 2c5a 88bc 4999 913c c5e2 c5be
00000040: 7534 793d 61ee 613e 9c87 6e3e 2f22 033e
00000050: 3262 b6be c22d 6c3e b42c 7ebe 3a8a b6be
00000060: c2b9 b93e fee8 f73c 762c c6be ee30 133e
00000070: 9356 02bf 2883 9a3e aa6f 34be 837f a2bd
00000080: d4d7 e83e 01bd 33be 7fa9 b7be affd 2fbe
00000090: 869b ec3e b72c b03d a495 fd3e 62b6 a0be
000000a0: 1ac3 c1bd e9c2 cf3e 6433 febe 64b7 8bbe
000000b0: 99e0 1d3e 0b73 52be 5f32 54be 65a5 39be
000000c0: 7b7e 91bd 80ee a0bc baeb b6be 5527 3bbe
000000d0: c7c3 393e 953c c03d 65b2 86be b904 763e
000000e0: ccbc a3be f71c 173d bdd8 bf3e dc6d 76be
000000f0: ac36 00bf 1d57 f13e d28a 093f b2ab d8be
-0.078181796 -0.39878482 -0.25188506 0.41007 -0.06949327 -0.22111002 -0.45255676 -0.23601098
-0.34785753 0.0046117418 -0.33237234 -0.31780577 0.5225003 -0.01664456 0.017773287 -0.38649574
0.060841043 0.2206359 0.23293918 0.12806009 -0.35621792 0.2306433 -0.2482174 -0.35652333
0.36274534 0.030262467 -0.38705796 0.14374134 -0.5091335 0.3017819 -0.17620721 -0.07934477
0.45477164 -0.17552568 -0.35871503 -0.17186616 0.46212405 0.08602279 0.4952823 -0.31389147
-0.09461041 0.40578392 -0.49648583 -0.27288353 0.15417708 -0.20551698 -0.2072234 -0.181295
-0.07104202 -0.019644976 -0.3572672 -0.18276723 0.1814109 0.09386555 -0.2630798 0.24025239
-0.31979978 0.036892857 0.37470046 -0.24065346 -0.5008342 0.47136775 0.5372745 -0.42318493

gat_layers.1.att_dst f4 [1, 4, 16]
00000000: 4710 8d3e ff81 e4be 0020 d1be 90f3 72be
00000010: 071f 423c 8ab8 993e 2ce3 d03e 6c17 053f
00000020: db38 4abe 3522 07be 19b4 9abe 6b8a c6be
00000030: 682c f1be 73c0 d43e 2acf 46be 26c1 cfbe
00000040: 7b5f f13d 3c06 a2be 94db 3dbe b949 fe3e
00000050: 522b 84bd da57 cabd 1bfa 7cbb e56b bfbe
00000060: 86bd b5be 3e4f aebe 71f1 a13e 8411 a13d
00000070: dc58 a6be 8057 a73e ce0d c43a 0b5c e3bb
00000080: a42b bd3e c186 b43d e12a ad3e c33e f7bd
00000090: 7df7 dbbe 69e6 fe3d 502d aabe 47cd 76be
000000a0: 83aa dcbc 0817 a93d d427 26be ae50 e33d
000000b0: 9853 963e 6927 e0be b8e4 bcbe 9500 f7be
000000c0: cd9e a5be a5ac 933e a32c f0be 7c78 253e
000000d0: 45b5 853e 99c9 f63e de54 893e 3996 e3bd
000000e0: 79d5 b6bd e081 413e affc 19be ba31 d3be
000000f0: ac2a ab3d 8827 5cbe ec57 66be 9062 e93e
0.2755148 -0.4463043 -0.40844727 -0.23725724 0.011848218 0.30023605 0.40798318 0.51988864
-0.19748251 -0.13196643 -0.3021553 -0.3877748 -0.47104192 0.41553077 -0.19414964 -0.40577048
0.117857896 -0.3164538 -0.18540794 0.4966562 -0.06453575 -0.098800376 -0.0038601223 -0.37387004
-0.35496157 -0.34044832 0.31629518 0.07864669 -0.3248967 0.32683945 0.0014957727 -0.0069384626
0.36947358 0.08814765 0.33821777 -0.12072518 -0.42962256 0.12446291 -0.33237696 -0.24101745
-0.026936775 0.08256346 -0.1622613 0.11099373 0.29360652 -0.43780068 -0.3689325 -0.48242632
-0.32347718 0.28842655 -0.46909055 0.16159242 0.2611486 0.48200682 0.2682256 -0.11112637
-0.089274354 0.188972 -0.15037797 -0.41248876 0.083577484 -0.21499455 -0.22494477 0.4558301

gat_layers.1.att_edge f4 [1, 4, 16]
00000000: e4fa 09bf eea0 c93d a4eb 043f a850 aabd
00000010: a10d fc3c a56d bfbe 0a25 75be afca b1bd
00000020: 610c 093f 3425 083f d6e2 913e 3c83 213e
00000030: 4137 66be 6d57 66be b676 4dbb 76b6 9b3e
00000040: 6ee5 e73e 9326 8cbd c7cf 023f 60d5 9dbe
00000050: 1e1f 0c3f 5b93 b9be 25f2 e4be 1fa0 863e
00000060: 0faa 873e b4fa b1be 25ab f9be a795 20be
00000070: 72e6 f1be c1b1 ccbe edc1 be3e ed7c abbd
00000080: 1393 ba3d 3243 e6bc 32ca 043f a7c1 1cbe
00000090: 37bb 7dbe b257 053f 87a9 de3e 5efa b4bd
000000a0: 7ba7 823e ca76 843d 4027 a6be b950 96bd
000000b0: 2fbe 193d 1dd9 e73d 75b8 e53d 14ec eebc
000000c0: 6bbb b43e 995d 0bbf 8aab 0cbf 1cba 2bbe
000000d0: 702d 2d3e 7198 a7be 298f 8abd dbb3 38be
000000e0: 561a 0abf c42d 65be 808a f5be 3900 c8be
000000f0: 9c07 02bd 5e6b debe 3032 f639 c003 c3bd
-0.53898454 0.09845148 0.5192206 -0.08316165 0.030768218 -0.3738834 -0.2393991 -0.08681237
0.53534514 0.5318177 0.28493375 0.15772718 -0.22482015 -0.22494288 -0.0031351275 0.30412644
0.45292228 -0.06843295 0.51098293 -0.30826855 0.5473498 -0.36245236 -0.44715992 0.26294038
0.26496932 -0.34761584 -0.48763385 -0.15682088 -0.47246128 -0.39979365 0.3725733 -0.08373437
0.091100834 -0.028108213 0.51871026 -0.15308248 -0.24778448 0.5208694 0.43488714 -0.08836816
0.25518402 0.0646797 -0.3245182 -0.073396154 0.03753489 0.11320708 0.11216823 -0.029165305
0.3529924 -0.54439694 -0.5494925 -0.16770214 0.16911864 -0.3273349 -0.06765587 -0.1803736
-0.53946435 -0.2238074 -0.4795723 -0.3906267 -0.031745538 -0.4344129 0.0004695817 -0.095222

gat_layers.1.bias f4 [64]
00000000: 898d dcbb 9491 cdbb e8cd 463c 93e9 dcbb
00000010: 8347 dcbb ac34 edbb b9d7 cdbb da92 393c
00000020: d30f dcbb d603 dcbb 7818 dcbb c284 dbbb
00000030: a651 243c f9e6 c8bb dedb dbbb 8023 dcbb
00000040: 7c36 dcbb dba7 dbbb 967c dcbb 7cda ddbb
00000050: 43f5 dbbb 1669 823c e81b dcbb e19c dbbb
00000060: cb5c 6fba 3f38 5d3c b7df 3a3c 00d7 ddbb
00000070: 4fcb dbbb ccb8 dbbb d77a dbbb 4e65 d6bb
00000080: e464 1b3c eba8 cebb 40f5 ecbb e5c0 dcbb
00000090: 0290 bebb 824d 203c cf9c ddbb 6d3e dcbb
000000a0: 3732 333b 59f4 343c 281b c3bb c1d7 d9bb
000000b0: b90f dcbb e908 dcbb 2f4a dcbb 0dca dbbb
000000c0: df0e dcbb 2c9d dbbb 4c62 d2bb 06a9 c6bb
000000d0: a28c dcbb 54ef dbbb bcd9 dbbb 2119 ffba
000000e0: 4c4c dbbb 3ead dcbb 88ab dcbb 1ce9 d5bb
000000f0: 3b99 b9bb 07e8 dbbb e75c ce3b 7f29 803b
-0.0067307395 -0.006273458 0.012134053 -0.0067417114 -0.006722392 -0.007238945 -0.0062818197 0.011326516
-0.0067157536 -0.0067143245 -0.006716784 -0.0066991756 0.010029232 -0.0061310497 -0.00670956 -0.006718099
-0.006720362 -0.0067033595 -0.006728719 -0.00677043 -0.006712587 0.01591925 -0.006717194 -0.006702051
-0.00091309537 0.01350218 0.011405877 -0.0067700148 -0.006707586 -0.006705379 -0.0066979933 -0.006542838
0.009484503 -0.0063067577 -0.0072313845 -0.006736862 -0.005815507 0.009784104 -0.006763078 -0.006721309
0.0027343163 0.011044585 -0.005954165 -0.0066480343 -0.0067157415 -0.0067149294 -0.0067227106 -0.006707436
-0.00671564 -0.006702086 -0.0064204093 -0.0060626296 -0.006730632 -0.0067118797 -0.0067093056 -0.0019462445
-0.006692445 -0.0067345193 -0.0067343153 -0.006528033 -0.0056640184 -0.0067110094 0.006297696 0.0039111967

gat_layers.1.lin.weight f4 [64, 64]
00000000: f923 9cbd 7682 3b3e 1b47 63be 101c eebd
00000010: 4551 003d 99a6 8bbd 3f48 89bb a509 683b
00000020: a6ed 0a3e 190e fbbd af98 c23d 331d 303d
00000030: a483 eebd e45e 263e 3f4f 96bd 9b16 85bc
00000040: 0a09 483e 1f53 323c 9261 1b3e c5a6 12bd
00000050: d0d9 fabd 16f6 ea3d de6a 7abd a4b8 ee3d
00000060: 00ce 10be f352 883d 1e65 45be 71a3 143e
00000070: c442 593e 12e9 c63d b1e1 713d 9b26 f33d
00000080: 5391 87bd 1946 d63d d41b 27be c87e 39be
00000090: b743 88bd 7c71 a7bd d708 eb3d 597f 15be
000000a0: 8459 a8bd 9c6c 9c3c 788a a23d 37e9 3cbd
000000b0: 4462 38be e4ae 2dbe 071d 24be c56e 4fbe
000000c0: 94e3 423d 7635 e33d 7832 583e 1b79 153e
000000d0: 75ee 473e ced4 463e 451e 54bd 1612 653e
000000e0: 10ed 993b c2da 0a3e 485e 853d fce7 00bd
000000f0: d18a 5c3e 89e3 ed3d c34c da3d e090 d63d
00000100: 1688 933d 5b51 973d 7ea1 dfbd bc70 e23d
00000110: 092c 323e 1e9e 023e 794a 333e 545d c9bd
00000120: b335 403d 860c 45bd 970d 4f3e 83bd 94bd
00000130: 2005 0c3e f7b4 83bd 040e c13d 4e74 fdbd
00000140: 2d5d 343e b637 493e ee79 80bd 8232 98bd
00000150: 011b 2a3e 9f24 04be 51b1 893d 72bf aa3d
00000160: 839f 933c 6b18 d33d dd62 183e 7827 82bd
00000170: 3cf9 4a3b cf94 e1bc 208b 12be 9633 eabd
00000180: 4407 df3b e40e 113e d2d5 dbbc a26d 3d3e
00000190: 0275 4fbd 5547 a9bd d637 6dbd 9517 34bb
000001a0: 4bfc eebd 8e1d 913c 1919 4bbe bd8c 3bbe
000001b0: 6c87 a23c cba1 aebd f195 ff3b 05fb b93b
000001c0: 134c 523e c046 4a3e 2354 1dbd cf97 1abd
000001d0: 6c8d 9d3c a603 c4bd 98e7 ae3c 7db5 ac3b
000001e0: 3426 553e 3317 df3d 84e9 373e c972 60bd
000001f0: 9ff7 45be 3a9b 54be d193 dc3c a5ab 1d3e
00000200: 9600 ab3d 06aa 043e 73d4 49be 4270 1abe
00000210: 3a1b f5bd bea1 353d cd92 973d 0706 a83d
00000220: 3677 b43d ffc6 ccbd 3810 83bd 0e1c 0d3e
00000230: 6649 64be 16ef 8dbd dcb5 21be fa6c 30be
00000240: 3297 0abe 539e 3dbe df09 873d eafc 6cbd
00000250: 3a33 c3bd 60f3 2cbe 5dc4 98bd 5c81 41bd
00000260: b9ba ef3b d5bb d83d a784 843d 2e1b 8dbd
00000270: d50e a43d ca2e 933d d5ca 013d e5bd 4bbe
00000280: 2526 fcbd ff39 2ebe df75 3c3e 04cb 1abe
00000290: 45f2 b43d 6807 cd3d 9150 7e3c c965 15be
000002a0: efc5 0d3e 74fe 1e3e d66d 553e b583 c9bc
000002b0: 779a 0d3e c4c1 5b3e 4830 8c3c 3954 e93d
000002c0: 4b1e aebd bc56 28be 5b93 113e b5fb e3bc
000002d0: 025d 39be 8476 44be bb10 083e 7a51 60be
000002e0: 41cf 233e a03e 3ebe 1db1 013e 7f96 5abd
000002f0: 0f19 18be a36f 0e3c 18e0 35be b279 633e
00000300: ab3c 25be 60ba 40be 1988 ef3d 0f8e 343e
00000310: baaf 28be c5be b1bc 72c1 59ba 8082 14be
00000320: aa5d 8c3d df15 76bd 63ba 533e ad23 35be
00000330: 2b80 9e3d 19f9 6c3d f77d 2abe 9a38 4cbe
00000340: fc46 23be e50c d23d 084d 22be 441d fc3b
00000350: 1e3a 413e 453a 573e 4c05 debc 4a90 aa3d
00000360: c4e0 cb3d 7167 6fbd 0205 af3d 2fb6 423e
00000370: 1367 2d3e 7f6d 33be 9c6f 15be f73f c63d
00000380: 5d4d d7bd ac9a debd a6b0 88bd 9e1b 37be
00000390: 5bff 2fbe 0b46 bebd b623 b33b f698 db3d
000003a0: a7df 22be c31e b83c 32ad 133e de17 e03b
000003b0: 533f 4cbe 1719 2b3c 8089 c5bc d1d1 20be
000003c0: 63ec 14be ca36 d5bd 3258 a9bd 8f80 37be
000003d0: 067e 723d 5a06 0abe 20ad 4ebd 52f1 513e
000003e0: 2639 6f3d 68b9 5a3e 7540 91bd 928b d2bd
000003f0: 6442 15bd 8834 4f3e 395c d63d 2188 12be
-0.07624049 0.18311486 -0.22195093 -0.11626446 0.031327505 -0.06818885 -0.0041895206 0.003540614
0.13567218 -0.12258548 0.09501778 0.042996597 -0.11646202 0.16247135 -0.07339334 -0.01624613
0.19534698 0.010884075 0.15173939 -0.035803575 -0.12248576 0.114727184 -0.061137073 0.11656311
-0.14141083 0.06656446 -0.19276854 0.14515473 0.21216875 0.097124234 0.059053127 0.11872598
-0.06619515 0.10462589 -0.1631921 -0.1811477 -0.066535406 -0.08175942 0.114762954 -0.1459936
-0.08220199 0.019094758 0.07936567 -0.04612085 -0.18006235 -0.16961247 -0.16026698 -0.20257099
0.047580317 0.11094181 0.21113002 0.1459698 0.19524558 0.19417116 -0.05178668 0.2237018
0.0046974495 0.13560012 0.06512123 -0.031471238 0.2153733 0.116156645 0.106591724 0.104768515
0.07203691 0.07388564 -0.10919474 0.110566586 0.1739961 0.1275563 0.17508878 -0.09832254
0.04692621 -0.048107646 0.20220028 -0.07262709 0.1367383 -0.06431001 0.094265014 -0.12375699
0.17613669 0.19650158 -0.06273256 -0.074315086 0.16611864 -0.12904595 0.067232735 0.083372965
0.018020397 0.10307392 0.14881463 -0.06355184 0.003097131 -0.027536778 -0.14310884 -0.114356205
0.006806286 0.14165837 -0.026835356 0.18498853 -0.050648697 -0.08265559 -0.057914577 -0.0027479876
-0.11669215 0.017714288 -0.19833793 -0.18315406 0.019839965 -0.08526953 0.007799857 0.005675676
0.20536833 0.19753551 -0.038410317 -0.037742432 0.019232474 -0.095710084 0.021350667 0.0052706585
0.20815355 0.10893097 0.17960173 -0.054796968 -0.19332741 -0.20762339 0.026925953 0.15397508
0.08349721 0.12955484 -0.19709949 -0.15081885 -0.11968084 0.044343702 0.07401047 0.082042746
0.088118 -0.09998893 -0.06399578 0.13780233 -0.22293624 -0.06930368 -0.1579203 -0.17229071
-0.13534239 -0.18517427 0.0659368 -0.057858385 -0.09531255 -0.16889715 -0.07459328 -0.047242507
0.0073159602 0.10582701 0.06470614 -0.0688995 0.080106415 0.07186659 0.031687576 -0.19896658
-0.12311963 -0.17014311 0.18404339 -0.15116507 0.08835272 0.10011178 0.015522138 -0.14589609
0.13845037 0.15526754 0.2084268 -0.024598936 0.13828455 0.21460634 0.017112866 0.11393017
-0.08501872 -0.16439337 0.14216368 -0.027829984 -0.18101886 -0.19185835 0.13287632 -0.21906081
0.1599703 -0.18578577 0.1266522 -0.05336618 -0.14853309 0.008693608 -0.17761266 0.22214392
-0.16136424 -0.18821096 0.116958804 0.17632316 -0.16473284 -0.021697411 -0.00083067187 -0.14502907
0.068538025 -0.06007945 0.2067657 -0.1768939 0.0773929 0.057854746 -0.16649614 -0.19943467
-0.15945047 0.10256366 -0.15849698 0.0076939184 0.18869826 0.21018322 -0.027102135 0.08328302
0.0995498 -0.05844826 0.08545877 0.1901481 0.16933851 -0.17522238 -0.14593357 0.09680169
-0.10512803 -0.10869345 -0.06674318 -0.17881629 -0.17187254 -0.092907034 0.0054669036 0.10722534
-0.15905629 0.022475606 0.14421538 0.0068387827 -0.19946031 0.010442994 -0.024113417 -0.15705039
-0.145433 -0.10410841 -0.08268775 -0.17920135 0.059202217 -0.13478985 -0.050458074 0.20502213
0.05840411 0.2135979 -0.07092372 -0.10280527 -0.03644027 0.20234883 0.10466809 -0.14309742

gat_layers.1.lin_edge.weight f4 [64, 64]
00000000: e9bf c23c fabe d3bd 1dae 83bd 8540 413e
00000010: 018f 9d3d c984 eebd cbf7 00bc a05e 2e3d
00000020: fee7 2bbe 542d 5cbe 6dec 4f3b 4782 d3bd
00000030: b8cc d33d 2035 bf3d 75e5 7c3d c4b3 0f3e
00000040: d6e6 17bd 5673 f2bc 2030 10bc adbb 243e
00000050: 5006 9c3d 8344 263e a824 83bd 7c1d b0bd
00000060: fa41 983d b8a3 40be 200d b2bd 7a11 60bd
00000070: 81ce 16be 5e2f f23c 9f67 5dbe 5f82 5bbe
00000080: 534e 84bc 3e10 e43d d23f 66bd 2bd1 9c3d
00000090: f1c4 003e 95ac 183e 9752 343c 610c b0bd
000000a0: f0b1 bbbd f27d 20be f2e8 ce3d 5678 813d
000000b0: 0fd2 cd3d 234d 4cbd e6d1 f63d 39ea d8bd
000000c0: dc05 75bd 065e 153d cbcc 43be 745c 543e
000000d0: 63d0 923a 2f03 18bd 7fdc 2ebe 56e2 f3bd
000000e0: a590 f3bd 9dc0 4b3e 9c7c 4ebe 3c05 573e
000000f0: 2e0b 0fbe 20d9 fcbd d7ae 113d 9876 d8bd
00000100: c848 3ebe b359 23be 4c19 b8bc 5caf 493a
00000110: f612 703d 77c7 ee3c 6cf4 debd b50d 443e
00000120: d5b5 a1bc 7503 5abe a71d 4b3e 7d43 98bd
00000130: 2955 54bd 2276 dd3d db71 45be 6ecf 46be
00000140: db06 a33d 7c3d 3b3e 2e33 b6bd 63c6 0c3e
00000150: b01e b43c fa3b 58be 3dcc 233e 62e3 76bd
00000160: f9fc 473e cd6a 673d 063a 1a3c e82f eabd
00000170: c521 14bc 6717 3e3c b13e aabd 431a 10be
00000180: 4348 5abe 0f5c 1b3e c26a 68bc 1771 a13d
00000190: 7e6d 4f3e 861e 563e 0638 fa3d c434 d23d
000001a0: 7fa6 37be ef9b 123e 7f9d fc3b 0c16 ccbd
000001b0: 4e4a e53d b1e5 2a3c 755d a33d b129 243e
000001c0: c4d3 05be 2ffd 3dbe 787d 553e 9a5e 2a3e
000001d0: d784 dcbd 5b64 0a3b 03fd 86bd 866a 13bd
000001e0: d187 08bd 6c97 243d ea90 a43d d5a0 4bbe
000001f0: d989 cb3c bcb6 90bd 71ff c9bd 4121 a9bd
00000200: fc96 aabd b6f8 2abd aa59 993d 8965 e8bd
00000210: 7dc6 79bd 0568 29be f25a 63bd 03bd 38be
00000220: 4fcd 643b 800c ba3d 986f 64bd e59a e03d
00000230: 03d4 333e 950e c5bd 5195 523e 73b1 b83d
00000240: 6774 2a3e a62b 30be 4095 873d d948 e23d
00000250: 6ced bc3c 195a ce3d 4ec6 0bbe 31d1 473e
00000260: c723 c93d 7992 16be 9e93 973c c019 5b3e
00000270: 1631 c6bc ef4a b7bd 68a1 24be 1019 013e
00000280: 4fcd 59bd 62ec 583d fb59 4abd 3254 4cbe
00000290: 4ac4 26be aadf 473e d5b6 da3d 2abe 27be
000002a0: 4a38 e7bd e554 bfbd 592d 55bb 522f d5bd
000002b0: 3177 27be bb5b d6bd c3e6 55bc 6a40 363d
000002c0: d3c7 403e 7e43 59be 9aa1 5ebd 4ee2 3cbc
000002d0: 5215 fbbc 5994 163e 307d 253d b330 b0bd
000002e0: e896 12be 7e50 9bbd 26b0 15be 7cce 3ebd
000002f0: 63e3 c83d e9f6 bf3d 040c f0bd 6cdb 14be
00000300: 0f88 5b3e 76b4 ed3d 625b 2cbe 5278 623d
00000310: 9cbd 1e3e 4151 53be 1c24 c53c 0617 9f3d
00000320: 5a4b 083e a4ef 333d 4078 cb3d 3a2f debd
00000330: f187 09be c193 9cbd 3fae 353e 2d02 813d
00000340: 8849 2bbe c9b7 453e bd04 d0bd 6d0c 12be
00000350: e884 34be 2410 e8bd 2681 cd3d c8e4 833d
00000360: 38db 423e e8ca 1f3e 1fc7 09be 5fb6 22be
00000370: bd15 3a3d bcba 52bb 4714 1a3e fc4c 323e
00000380: 657d 88bc 3545 c23d 0f9d d2bd 68db 303e
00000390: 209e bebc 05bd 88bd 10c4 533e e336 28be
000003a0: 577e f8bd 5293 2dbe 831d ce3d 5432 153e
000003b0: 8cc4 593e 40e0 0b3e d8f2 533d 7077 3abe
000003c0: 0e10 31be 4b76 4f3e 15c9 4d3e f52c cbbd
000003d0: 89cc 33be 9cfe 853d 9b54 64bd 54b8 56be
000003e0: 5734 81bc 80bd dbbd a076 f83c eaa6 a73d
000003f0: b586 303d c2f5 a5bd fb8b eebd f0fd 803d
0.02377315 -0.1033916 -0.06429694 0.18872268 0.076932915 -0.116464205 -0.007871578 0.04257071
-0.16787717 -0.21501666 0.0031726614 -0.10327583 0.103417814 0.09336305 0.061742265 0.14033419
-0.037085377 -0.029596012 -0.008800536 0.16087218 0.076183915 0.16237073 -0.06403476 -0.08599374
0.07434459 -0.18812454 -0.0869391 -0.054704167 -0.14727212 0.029563602 -0.2162156 -0.21436451
-0.01615063 0.111359105 -0.056213208 0.07657083 0.12575127 0.14909585 0.011006019 -0.08596111
-0.09164798 -0.15673044 0.101030245 0.063217804 0.10049831 -0.04987825 0.12051754 -0.105915494
-0.05982004 0.03646662 -0.19121091 0.20738393 0.001120102 -0.03711241 -0.170763 -0.119084045
-0.11892823 0.19897695 -0.20164722 0.2099809 -0.13969108 -0.12346101 0.03556713 -0.10569495
-0.18582451 -0.15952186 -0.022473 0.0007693672 0.058611833 0.029147847 -0.108864635 0.19145854
-0.019740025 -0.21290381 0.1983553 -0.07434747 -0.051839028 0.10813548 -0.19281714 -0.19415066
0.07960292 0.18285173 -0.088964805 0.13747554 0.02198729 -0.21116629 0.1599588 -0.060275443
0.19530095 0.056498338 0.009413248 -0.11434919 -0.009041254 0.011602259 -0.08312739 -0.14072518
-0.21316628 0.15171836 -0.014185609 0.07882898 0.20256612 0.20910081 0.12217717 0.102639705
-0.17934607 0.14317296 0.0077092047 -0.099651426 0.11195813 0.010430739 0.0797681 0.16031529
-0.13069063 -0.18553613 0.20848644 0.1663765 -0.10767525 0.0021116945 -0.06591227 -0.03599026
-0.03333265 0.04018347 0.08035453 -0.19885571 0.024846004 -0.07066104 -0.09863175 -0.08258296
-0.08329579 -0.041741095 0.07487805 -0.11347491 -0.06098031 -0.16543587 -0.055506654 -0.18040852
0.0034912413 0.090844154 -0.055770487 0.10967044 0.17561345 -0.09621922 0.20564772 0.09018221
0.16645966 -0.1720415 0.06620264 0.11049051 0.02306243 0.100757785 -0.13649866 0.19513394
0.09821277 -0.14704312 0.018503007 0.21396542 -0.024193328 -0.08949839 -0.16077197 0.12607217
-0.053174313 0.052959807 -0.04940222 -0.19953993 -0.16285816 0.19518915 0.10679404 -0.16381136
-0.11290033 -0.09342364 -0.003252825 -0.10409416 -0.16354062 -0.10466715 -0.013055506 0.044495024
0.18826227 -0.21217152 -0.054353334 -0.011528565 -0.030649815 0.14705028 0.04040259 -0.08603039
-0.14315379 -0.07583712 -0.14617977 -0.046583638 0.098089956 0.09373266 -0.11721042 -0.14536828
0.21438621 0.11606686 -0.16831735 0.055290528 0.15502018 -0.20636465 0.02406507 0.07768063
0.13309994 0.04392971 0.09935045 -0.108488515 -0.13430764 -0.07645369 0.17742251 0.06299243
-0.16727269 0.1930839 -0.10157154 -0.14262553 -0.17628825 -0.113312036 0.10034399 0.06440121
0.19028938 0.15604746 -0.13454865 -0.15889882 0.045430887 -0.003215476 0.15046798 0.1741218
-0.016661355 0.094858564 -0.10283863 0.17271197 -0.02326876 -0.066766776 0.2068026 -0.16427188
-0.121334724 -0.1695073 0.10064223 0.1456998 0.21266383 0.13659763 0.051745266 -0.18209624
-0.1729128 0.20259969 0.20096238 -0.09920684 -0.17558493 0.065427035 -0.05574475 -0.20968753
-0.015772028 -0.10729504 0.030330002 0.08186133 0.043097217 -0.08103515 -0.11647793 0.06298435
