models/best_fraud_model_seed_2024.pth (torch, 378242 bytes, 45 tensors)

node_emb.weight f4 [64, 8]
0	0x3c9ed8b0	0.019390434
1	0x3c54556f	0.012959822
2	0x3cc15a34	0.023602583
3	0x3e855e92	0.26048714
4	0x3e4fc3d1	0.20289542
5	0x3e8d0d4a	0.275492
6	0xbdcb4de8	-0.09926969
7	0xbd8a5433	-0.06754341
8	0xbde8b4eb	-0.11362632
9	0x3d98cb71	0.07460678
10	0x3e515c3b	0.2044534
11	0x3e9ebaae	0.310018
12	0x3e5db5cb	0.2165138
13	0x3dd6df42	0.10491802
14	0x3e9a5f08	0.30150628
15	0xbe8f3885	-0.27972808
16	0x3eaf8b19	0.3428581
17	0xbe6c2f94	-0.23065025
18	0x3dc8c648	0.09803444
19	0x3e035593	0.12825613
20	0x3cf08cda	0.029364038
21	0x3ea3ac42	0.3196736
22	0x3e6e5462	0.23274377
23	0x3e35896b	0.17728202
24	0x3ea62268	0.32448125
25	0x3de999a5	0.114062585
26	0x3e3f6344	0.1869021
27	0xbeac82ed	-0.33693638
28	0x3dece4df	0.11567091
29	0x3e6eafc1	0.23309232
30	0xbd7c6f84	-0.061629787
31	0x3e6e771e	0.23287627
32	0xbe71d359	-0.23615779
33	0x3e7f0913	0.24905805
34	0xbd138155	-0.036012013
35	0xbcd0d595	-0.025492469
36	0xbdae94a9	-0.085244484
37	0x3e1e5b02	0.15464404
38	0xbe904f03	-0.2818528
39	0x3cf76fbc	0.030204646
40	0xbe3a32f4	-0.181835
41	0x3deb61e0	0.114932775
42	0xbe7d2692	-0.24721745
43	0x3e9781b5	0.29591146
44	0xbea2bd7e	-0.31785196
45	0x3eae97dc	0.34100235
46	0x3e9d8045	0.30761924
47	0xbde07876	-0.10960476
48	0xbd712901	-0.058876995
49	0xbea65154	-0.32483923
50	0xbe89bf18	-0.26903605
51	0xbd3cfbf1	-0.046138708
52	0x3ea97805	0.3309938
53	0x3d5b97d5	0.053611595
54	0x3cfbfd3e	0.030760404
55	0xbdf62613	-0.12018981
56	0xbdc25aa3	-0.09489944
57	0xbb880eda	-0.004152161
58	0xbdfc07ef	-0.12306201
59	0x3eb4d7f9	0.35321024
60	0x3e001c1e	0.12510726
61	0x3da22d38	0.07918781
62	0xbe97b864	-0.29632866
63	0x3e5316ba	0.20614138
64	0xbe5354f3	-0.20637874
65	0x3ea2381b	0.3168343
66	0xbc7677a6	-0.015043175
67	0x3d3afb78	0.045649976
68	0x3ea7aa6d	0.32747212
69	0xbea5e7f5	-0.32403532
70	0x3d86b4c8	0.0657745
71	0x3e98881f	0.29791352
72	0x3ea395f1	0.31950334
73	0xbe50fb22	-0.204083
74	0x3e093b4d	0.13401528
75	0x3d85ba99	0.06529731
76	0xbe164dd3	-0.14678125
77	0xbdba7afd	-0.091054894
78	0x3e4e4ebb	0.20147221
79	0x3e3980fd	0.18115611
80	0xbe216bfb	-0.15763848
81	0xbe02e811	-0.12783839
82	0x3e998922	0.29987437
83	0x3e9ee031	0.3103042
84	0x3e567007	0.20941173
85	0xbe809c4c	-0.25119245
86	0xbd9f138c	-0.077674
87	0x3c3d14f7	0.011540643
88	0xbdc8d3e9	-0.09806044
89	0xbd4bf25a	-0.04979167
90	0xbce0c6eb	-0.027438601
91	0x3ea07a73	0.3134342
92	0x3e99939e	0.29995435
93	0x3df41e69	0.11919863
94	0xbdea8358	-0.11450833
95	0x3dbc3d38	0.09191364
96	0x3eb54c84	0.3540994
97	0x3e8056a9	0.25066116
98	0xbea0890c	-0.31354558
99	0xbe70445d	-0.23463579
100	0xbe58fc9c	-0.21190113
101	0x3e7da48c	0.24769801
102	0x3e21b037	0.15789877
103	0xbce961b6	-0.028488975
104	0xbd95c1c5	-0.07312349
105	0x3b2a91d3	0.002602686
106	0xbe98dbea	-0.2985528
107	0x3e3cd448	0.18440354
108	0xbe8cf066	-0.2752716
109	0x3b5ada02	0.0033394103
110	0x3d7f84fc	0.062382683
111	0x3df24e83	0.11831381
112	0xbe474a9f	-0.1946206
113	0x3d81f555	0.063456215
114	0x3e45d73f	0.19320391
115	0xbd9e2d35	-0.07723466
116	0xbe041c23	-0.12901358
117	0xbe8a0520	-0.26957035
118	0xbe771cbf	-0.2413206
119	0xbe957cb1	-0.29196694
120	0x3e4eca68	0.201944
121	0xbeb330d2	-0.34998184
122	0xbeaaf24c	-0.33387983
123	0x3cdf39a6	0.027249169
124	0x3dc3c782	0.095595375
125	0x3ea7f199	0.32801512
126	0x3e9768b0	0.29572058
127	0xbdeda11c	-0.11602995
128	0x386ce8b0	5.648349e-05
129	0x3df5a9ef	0.11995303
130	0x3de83ae7	0.1133936
131	0xbe81722a	-0.25282413
132	0xbea06da4	-0.3133365
133	0x3c7863fa	0.015160555
134	0x3e440562	0.19142678
135	0x3e70b2e6	0.23505744
136	0xbdeb4aa6	-0.114888474
137	0xbda44625	-0.080211915
138	0xbc03db10	-0.008047834
139	0xbcee11e2	-0.029061262
140	0x3e90a4f6	0.28250855
141	0xbe614b96	-0.2200149
142	0xbe9a5b36	-0.30147713
143	0xbce5fb35	-0.028073886
144	0xbda5e2cf	-0.08099901
145	0xbe886fd6	-0.26647824
146	0xbd83dc73	-0.06438532
147	0xbe5516f1	-0.20809533
148	0xbe872d8b	-0.26401934
149	0xbe1189f7	-0.14212786
150	0xbe58eab7	-0.21183287
151	0x3e10e130	0.14148402
152	0x3ddd5ce8	0.10808736
153	0x3e90af05	0.2825853
154	0xbc54dbbc	-0.012991842
155	0x3cfb167d	0.030650372
156	0xbdbf5a22	-0.09343363
157	0x3dd1d002	0.102447525
158	0x3e03654c	0.1283161
159	0xbcc38d0c	-0.023870967
160	0xbdae3592	-0.085063115
161	0x3e95edcd	0.2928299
162	0xbe92466b	-0.2856935
163	0xbe7a93e1	-0.24470474
164	0x3d431396	0.0476261
165	0x3db21e55	0.086971916
166	0x3e835a67	0.2565491
167	0xbe877be2	-0.26461703
168	0xbe0218cd	-0.12704773
169	0x3e878f69	0.264766
170	0xbe7398d2	-0.23788765
171	0xbd494268	-0.049135596
172	0xbea38432	-0.31936795
173	0x3e2d50ca	0.1692535
174	0xbe97b946	-0.2963354
175	0xbe803caa	-0.25046283
176	0x3e4bce3d	0.19902892
177	0x3d4c4df0	0.049879014
178	0x3db8f4ca	0.09031065
179	0xbdcff981	-0.10155011
180	0xbdab07f2	-0.08351125
181	0x3e815283	0.25258264
182	0x3e25d149	0.16193117
183	0x3dfa837e	0.122321114
184	0x3e4bd500	0.19905472
185	0x3d444aab	0.04792277
186	0xbe9315a3	-0.28727445
187	0x3ea2f5fb	0.31828293
188	0x3d25fc6d	0.040523935
189	0xbcf3da92	-0.029767308
190	0x3eb55b01	0.35420993
191	0x3ced2333	0.028947448
192	0xbe349f16	-0.17638811
193	0x3d85246a	0.06501086
194	0xbe94e471	-0.29080537
195	0x3de13948	0.10997254
196	0xbdbe9e4f	-0.09307539
197	0xbcaadebf	-0.020858167
198	0xbe697f0f	-0.22802375
199	0x3df522e1	0.11969543
200	0x3e3e4a91	0.18583132
201	0xbdabf0b0	-0.08395517
202	0xbe9eadf4	-0.3099209
203	0xbb3cee00	-0.0028828382
204	0x3e45d053	0.1931775
205	0xbde6d764	-0.11271551
206	0xbea70b79	-0.3262594
207	0x3e2632bd	0.16230293
208	0x3d9fdd14	0.07805839
209	0xbe613e52	-0.2199643
210	0xbe00b97e	-0.1257076
211	0xbe6b41b1	-0.22974278
212	0x3e4b1980	0.19833946
213	0xbe51cffa	-0.20489493
214	0xbe43a6f3	-0.19106655
215	0x3e796037	0.2435311
216	0xbc83c021	-0.016082825
217	0xbdae9c9e	-0.08525966
218	0x3e36d75e	0.17855594
219	0xbe5dd3ed	-0.21662875
220	0x3e7505f3	0.2392805
221	0x3df8e5e5	0.12153224
222	0xbeaf5823	-0.3424693
223	0xbe1c02a9	-0.1523539
224	0xbea6d335	-0.32583013
225	0x3d6f443a	0.058414675
226	0xbe634881	-0.22195627
227	0xbccab7d2	-0.024745855
228	0xbe32f7cd	-0.17477341
229	0x3e30b21c	0.17255443
230	0x3e5ac169	0.21362843
231	0x3c0353dd	0.0080156
232	0x3e7bb3fe	0.2458038
233	0xbe5f4e00	-0.21807098
234	0x3da9c23b	0.08289
235	0x3e36dfa6	0.17858753
236	0x3ea20545	0.31644645
237	0x3e6497d4	0.22323543
238	0x3cf59806	0.029979717
239	0xbe4cddb1	-0.20006444
240	0x3c9cb446	0.01912893
241	0x3db29efa	0.087217286
242	0x3e8d0199	0.2754028
243	0x3e8ac24f	0.2710137
244	0x3e2bfb06	0.16794977
245	0x3e847667	0.25871584
246	0xbe6061ab	-0.21912257
247	0xbea6ba45	-0.32563987
248	0xbe9729ab	-0.29523978
249	0xbe9134da	-0.28360635
250	0xbe8f13fa	-0.27944928
251	0x3e9339f8	0.28755164
252	0x3e9ccd52	0.30625397
253	0x3e024b69	0.12724079
254	0x3e632b0c	0.2218439
255	0xbea789dd	-0.3272237

node_emb.bias f4 [64]
0	0x3d9852cf	0.074376695
1	0x3dc970f1	0.09835995
2	0x3da7bdc9	0.081904955
3	0xbe9256f0	-0.28581953
4	0x3cc94f60	0.024573982
5	0x3ab60f5e	0.0013890078
6	0xbe9bfc94	-0.3046614
7	0x3e632fbf	0.22186182
8	0xbd3e9d9a	-0.04653702
9	0xbe81dd17	-0.2536399
10	0xbe6a1d40	-0.2286272
11	0xbe01752b	-0.12642352
12	0xbd6c73cf	-0.05772763
13	0x3d558cd2	0.05213625
14	0xbda9d8db	-0.08293315
15	0x3e265fcf	0.16247486
16	0x3eaed364	0.34145653
17	0x3e6e749e	0.23286673
18	0xbdefd460	-0.11710429
19	0x3e27b576	0.16377816
20	0xbe9f87b5	-0.31158224
21	0x3c78f262	0.015194507
22	0xbe5aea98	-0.21378553
23	0x3e0ed646	0.13948926
24	0x3e9218c2	0.28534514
25	0xbe30b31e	-0.17255828
26	0x3dab1fdb	0.08355685
27	0xbddda458	-0.10822362
28	0x3ea3a2e3	0.3196021
29	0x3dbdddf4	0.0927085
30	0x3ea882c6	0.32912272
31	0xbe79311c	-0.2433514
32	0x3def5bb1	0.116874106
33	0x3e0dd0cc	0.13849181
34	0xbc87ada8	-0.016562298
35	0xbc6c21dc	-0.01441237
36	0x3c8dd2fd	0.017312521
37	0x3a6af591	0.0008962984
38	0xbe99a810	-0.30011034
39	0x3a36eb24	0.00069777877
40	0xbd63ceab	-0.055617016
41	0xbeaf2981	-0.34211352
42	0x3e924ee7	0.28575823
43	0xbd462d0a	-0.048382796
44	0x3e624e93	0.22100286
45	0xbe5e33d7	-0.21699463
46	0x3d44b0b0	0.048020065
47	0x3e480c7f	0.19536017
48	0x3da4fe0f	0.0805627
49	0xbe04b068	-0.12957919
50	0x3e4ec9d6	0.20194182
51	0x3e89820b	0.26857027
52	0x3e04310d	0.12909336
53	0x3dce0e65	0.10061339
54	0x399f6d22	0.00030408154
55	0xbe3347ca	-0.17507854
56	0x3e6edc2b	0.23326175
57	0xbe402dde	-0.18767497
58	0xbe15cad6	-0.14628157
59	0xbe91ab94	-0.28451216
60	0xbdb70fd2	-0.08938564
61	0x3daa632a	0.08319695
62	0x3e529e52	0.20568207
63	0x3e509e45	0.20372875

edge_emb.weight f4 [64, 2]
0	0xbea19ba8	-0.3156407
1	0x3edfc25d	0.43702975
2	0x3e0806e2	0.13283876
3	0xbea5891c	-0.3233117
4	0x3e780d83	0.24223904
5	0xbde1d3c6	-0.11026721
6	0x3ec39748	0.38201356
7	0xbee7ab3e	-0.45247835
8	0x3ef2e215	0.47438112
9	0xbf2d4c45	-0.67694503
10	0x3ef9a632	0.4875961
11	0xbea49599	-0.32145384
12	0xbf06fc67	-0.52728885
13	0x3ecbe697	0.39824364
14	0x3ed17d92	0.40916115
15	0xbf1060e6	-0.56397855
16	0x3f2735a9	0.65316254
17	0x3f0dbda7	0.5536751
18	0xbe157170	-0.14594054
19	0xbe843f0d	-0.25829354
20	0xbf0a21a2	-0.5395757
21	0x3f10a6ab	0.56504315
22	0x3f2c51b0	0.67312145
23	0xbe0e62eb	-0.13904922
24	0xbf0e1071	-0.5549384
25	0x3f1bb158	0.6081748
26	0xbb30b3d1	-0.0026962648
27	0xbecb207e	-0.39673227
28	0x3eedbceb	0.46433195
29	0xbf27075e	-0.65245616
30	0x3e1ce33e	0.15321061
31	0xbf0fc5cf	-0.56161207
32	0xbe77f93f	-0.24216174
33	0xbec80e27	-0.39073297
34	0x3f259185	0.6467517
35	0xbeef9a4e	-0.46797413
36	0xbec145cb	-0.3774856
37	0xbf315389	-0.6926809
38	0xbe350103	-0.17676167
39	0xbf30e97f	-0.69106287
40	0xbd6edbde	-0.05831515
41	0x3d48fe89	0.04907087
42	0xbf09d793	-0.53844565
43	0xbc807255	-0.015679518
44	0x3c5a7dc6	0.013335651
45	0xbe800c89	-0.25009564
46	0x3e8c109d	0.27356425
47	0xbe5cdc05	-0.21568306
48	0xbd6aaaa3	-0.057291638
49	0x3e7bb846	0.24582013
50	0xbec0b2f6	-0.37636536
51	0x3e8628f2	0.26203114
52	0x3eadccfb	0.3394545
53	0x3f32fb71	0.6991492
54	0xbe775c6c	-0.2415635
55	0xbecc7e16	-0.39939946
56	0xbe0aba38	-0.135476
57	0xbf2c24b6	-0.67243516
58	0x3ee94fca	0.45568687
59	0xbe1f17fb	-0.15536492
60	0x3dfd466e	0.12366949
61	0xbe974ba5	-0.295499
62	0xbe9dc046	-0.30810755
63	0xbd994f41	-0.074858196
64	0x3e8105b2	0.25199658
65	0x3e7ae1e7	0.24500237
66	0x3e9467de	0.28985494
67	0x3c2d9ac1	0.010595978
68	0x3df1c29f	0.11804699
69	0x3e88dd28	0.2673123
70	0xbe060fea	-0.13092008
71	0x3d9b70e6	0.07589893
72	0x3e9e702d	0.30944958
73	0xbe4c0489	-0.19923605
74	0xbda7fe84	-0.08202842
75	0xbe6c4d14	-0.23076278
76	0xbf231d7e	-0.63716877
77	0xbe927113	-0.28601894
78	0xbf0a488b	-0.5401694
79	0x3a99c1ce	0.0011730732
80	0x3f15d194	0.58522916
81	0xbec7966b	-0.38981947
82	0x3f182c8b	0.5944297
83	0xbe6a42d8	-0.22877061
84	0xbec4ceda	-0.38439065
85	0xbb4af002	-0.003096581
86	0x3e13b8e3	0.14425997
87	0x3f1e4d2a	0.61836493
88	0xbee9fbce	-0.45699924
89	0xbd899783	-0.06718352
90	0x3f1a7efd	0.6035002
91	0xbe90f233	-0.28309783
92	0xbdce0b59	-0.10060758
93	0x3e2052fd	0.15656658
94	0x3dda004e	0.10644589
95	0x3f084726	0.53233564
96	0x3f191389	0.59795433
97	0x3e00df74	0.1258524
98	0x3cc0fd05	0.02355815
99	0xbeed8ca2	-0.46396357
100	0xbcbfb955	-0.023403803
101	0xbf1ba2d3	-0.60795325
102	0xbf173652	-0.5906726
103	0x3e31a510	0.17348123
104	0x3eda2710	0.42607927
105	0x3ecc185a	0.3986233
106	0xbee04918	-0.43805766
107	0x3f33ff89	0.7031179
108	0xbdb4a618	-0.08820742
109	0x3bc8d39b	0.006128741
110	0x3e5d0d77	0.21587168
111	0xbe3385f7	-0.17531572
112	0xbf062615	-0.5240186
113	0x3f22ae85	0.63547546
114	0x3e4ea97c	0.2018184
115	0x3e52a9b3	0.20572548
116	0x3e190c54	0.14946109
117	0x3e60d94f	0.21957897
118	0x3f0e9279	0.5569225
119	0x3e0518db	0.12997763
120	0x3d8219b7	0.06352561
121	0x3d00055e	0.03125512
122	0x3e4d6449	0.20057787
123	0xbe9a263e	-0.301073
124	0x3e1470b9	0.14496125
125	0x3f0cad87	0.5495228
126	0xbe513e20	-0.20433855
127	0x3ec496c4	0.38396275

edge_emb.bias f4 [64]
0	0xbe6110da	-0.21979085
1	0x3f2b4793	0.6690609
2	0xbeea345a	-0.45743066
3	0xbf284bf3	-0.6574089
4	0x3e3b8451	0.18312193
5	0xbd8ffaed	-0.07030282
6	0xbe1fa020	-0.15588427
7	0xbe83d462	-0.25747973
8	0xbebfa148	-0.37427735
9	0x3e89ad49	0.2689002
10	0xbe6e136d	-0.23249598
11	0x3ee7fbb5	0.45309225
12	0x3c0a9231	0.008457706
13	0xbc643bdf	-0.01393029
14	0xbf3731f7	-0.71560615
15	0xbe2a6a5b	-0.16642134
16	0x3ef3b263	0.47597036
17	0xbe8ac9f4	-0.27107203
18	0xbeb96177	-0.36207172
19	0x3f028f95	0.5100034
20	0xbe5e2683	-0.21694379
21	0xbdc96ae0	-0.09834838
22	0xbf2f6f4a	-0.6852919
23	0x3da01489	0.07816417
24	0xbebc0661	-0.36723617
25	0xbf021e59	-0.50827557
26	0x3e6b6c86	0.22990617
27	0xbe83a57c	-0.25712192
28	0x3ee9ad87	0.45640203
29	0xbee94635	-0.45561376
30	0x3f0fd251	0.5618029
31	0x3e7705c2	0.2412329
32	0x3ddbb9da	0.10728808
33	0x3f104a05	0.56362945
34	0xbe5188ab	-0.20462291
35	0xbe045bb4	-0.12925607
36	0xbecc6128	-0.39917874
37	0x3f159800	0.5843506
38	0x3e72610c	0.23669833
39	0x3e69c3e1	0.22828628
40	0x3ec94593	0.39310893
41	0xbf2401e8	-0.6406541
42	0x3f2a57b1	0.66540056
43	0x3d493323	0.049121033
44	0x3e9cc68a	0.30620223
45	0x3ef9d5a8	0.4879582
46	0x3d204507	0.03912833
47	0x3e77d3de	0.24201915
48	0xbe61d0ed	-0.22052355
49	0xbf1c893c	-0.61146903
50	0x3f034cff	0.5128936
51	0xbf2d986d	-0.6781071
52	0x3da89a5a	0.08232565
53	0x3d1922bb	0.037386637
54	0x3eaffc30	0.3437209
55	0xbf041baa	-0.5160471
56	0xbeeb96a1	-0.46013358
57	0xbf35fe5b	-0.7109124
58	0x3da6a067	0.08136063
59	0x3eaefeea	0.3417886
60	0x3f1f4692	0.62217057
61	0x3e9f1dd7	0.31077453
62	0xbe8f8305	-0.28029647
63	0x3f02384f	0.5086717

gat_layers.0.att_src f4 [1, 4, 16]
0	0x3e206e02	0.15666965
1	0xbb225bb1	-0.002477389
2	0xbcbefd9a	-0.023314286
3	0x3e3d8dd0	0.18511128
4	0x3e2d56bc	0.16927618
5	0xbed5c1f6	-0.41749543
6	0xbe5ccfd3	-0.21563654
7	0xbc5c8e64	-0.013461683
8	0xbeeef493	-0.4667097
9	0xbe8c0ea7	-0.2735493
10	0x3e928ffc	0.28625476
11	0x3e983c56	0.29733533
12	0x3d880c7e	0.06643008
13	0x3d39c2b4	0.0453517
14	0xbef85749	-0.48504093
15	0xbea13ce7	-0.31491777
16	0xbeae1580	-0.34000778
17	0xbf02fb28	-0.51164484
18	0x3ea074bf	0.3133907
19	0xbc142179	-0.009041184
20	0x3cbdfe18	0.02319245
21	0xbe2415a4	-0.1602388
22	0x3eb5b79b	0.35491642
23	0xba8646b4	-0.001024446
24	0xbf04a578	-0.51814985
25	0xbe419227	-0.18903409
26	0x3d57ef0f	0.05271822
27	0x3ee764ba	0.45194036
28	0x3ee23e82	0.44188315
29	0x3de2ba99	0.11070747
30	0x3e16ee35	0.14739306
31	0x3ea926ad	0.3303732
32	0x3f0381e4	0.5137007
33	0x3e7e6f5a	0.24847165
34	0x3e830f6b	0.255977
35	0xbefd1b1d	-0.49434748
36	0x3ecf78c9	0.4052184
37	0xbead6133	-0.3386322
38	0xbdef8459	-0.11695165
39	0x3e831ac4	0.25606358
40	0xbead0926	-0.33796042
41	0xbe300452	-0.17189148
42	0x3e9f6946	0.31135005
43	0xbe600307	-0.21876155
44	0x3d8ecb64	0.069723874
45	0xbdd39d3d	-0.10332725
46	0x3eb2e70d	0.34941903
47	0xbef17226	-0.471574
48	0xbec09946	-0.37616938
49	0x3efb6ee3	0.49108037
50	0x3ce9c2a5	0.028535197
51	0xbbbf46c8	-0.005837295
52	0x3e45f94c	0.1933338
53	0xbe75f01b	-0.24017374
54	0x3ed9a0c6	0.42505473
55	0x3ea5b087	0.32361242
56	0xbe46481e	-0.19363448
57	0x3ea30dfd	0.3184661
58	0x3ebba939	0.36652544
59	0xbbf26c61	-0.0073981737
60	0x3ecf2bdc	0.4046315
61	0xbe7ea871	-0.24868943
62	0x3e333f6b	0.17504661
63	0x3eb8aade	0.3606786

gat_layers.0.att_dst f4 [1, 4, 16]
0	0xbd4d09b1	-0.05005807
1	0xbeecd4f8	-0.46256232
2	0x3c46b3e1	0.012127847
3	0xbd07873c	-0.033087954
4	0x3cfb1ba4	0.030652829
5	0xbf007238	-0.50174284
6	0xbe4b5b3f	-0.19859026
7	0xbd9f0bbc	-0.0776591
8	0x3d3a77a1	0.045524243
9	0x3e345538	0.17610633
10	0x3f04a272	0.5181037
11	0x3d32cf55	0.04365476
12	0xbe926877	-0.28595325
13	0x3eff4e04	0.4986421
14	0x3ef1c4c0	0.4722042
15	0x3ef8fd98	0.48630977
16	0x3bc3b47e	0.005972444
17	0xbd4c65ac	-0.04990165
18	0x3e594946	0.21219358
19	0x3e9f66fa	0.31133252
20	0xbeb70fa7	-0.3575413
21	0xbe954aee	-0.2915873
22	0xbef64c2b	-0.48104987
23	0x3a8859e9	0.0010402772
24	0xbef9b27f	-0.48768994
25	0xbecd1edf	-0.40062615
26	0x3dc4fa3e	0.096180424
27	0x3f0361b4	0.5132096
28	0x3eb33a4b	0.35005412
29	0x3eeda47e	0.4641456
30	0xbf034f18	-0.5129256
31	0x3f0bb12f	0.54567236
32	0xbe434d8c	-0.1907255
33	0x3d90d5f5	0.07072059
34	0x3cf8e055	0.030380407
35	0xbeaddc91	-0.3395734
36	0x3d315dca	0.043302335
37	0xbecb646d	-0.39725056
38	0xbda840b3	-0.082154654
39	0x3e867850	0.26263666
40	0xbf071c3c	-0.5277746
41	0x3eef1415	0.4669501
42	0x3e95670b	0.29180178
43	0xbefc1052	-0.492312
44	0x3dbd520a	0.09244163
45	0xbeba6da8	-0.36411786
46	0x3eaac15c	0.33350646
47	0xbe08c9bf	-0.1335821
48	0xbea0244c	-0.31277692
49	0xbec7ca20	-0.39021397
50	0xbde44c34	-0.11147347
51	0xbee03dcb	-0.43797144
52	0xbe9811e3	-0.29701146
53	0x3f06c7b0	0.5264845
54	0x3e8a8c41	0.2706013
55	0x3eddbfe1	0.43310454
56	0xbec2c937	-0.3804414
57	0xbf01a99c	-0.5064943
58	0x3ededf5a	0.4352978
59	0x3bf68f78	0.007524427
60	0xbf084fff	-0.53247064
61	0x3ed492b1	0.41518167
62	0xbd94e491	-0.07270158
63	0xbe5ac0ef	-0.21362661

gat_layers.0.att_edge f4 [1, 4, 16]
0	0x3efe5279	0.49672297
1	0xbe224c25	-0.1584936
2	0x3ebcb934	0.3686005
3	0xbe6b5234	-0.22980577
4	0x3e6e06e5	0.23244818
5	0xbe5127ce	-0.2042534
6	0xbe837748	-0.25676942
7	0x3ec87f20	0.3915949
8	0xbd8d4df1	-0.06899632
9	0xbe4f2148	-0.2022754
10	0xbed43b13	-0.4145132
11	0xbec3583f	-0.38153264
12	0xbd7ce3f0	-0.061740816
13	0x3f00e6d8	0.5035224
14	0x3eb6961e	0.35661405
15	0xbf08e070	-0.53467464
16	0x3e84301a	0.2581795
17	0x3ea08286	0.3134958
18	0xbe8aca8d	-0.2710766
19	0x3ebe2b7a	0.37142545
20	0xbf030b3d	-0.51189023
21	0x3eb195e3	0.34684667
22	0x3f0960ec	0.53663516
23	0xbeeeb4de	-0.46622366
24	0xbe6d567a	-0.2317752
25	0xbda5f1c7	-0.08102756
26	0x3e5f3bdc	0.21800178
27	0x3e7a1164	0.24420696
28	0x3f02b6bc	0.5106008
29	0x3ebc098f	0.36726043
30	0x3ec7f0b0	0.39050817
31	0x3efe1894	0.49628127
32	0xbe0adaab	-0.13559978
33	0xbef2e57c	-0.47440708
34	0x3e85e77f	0.2615318
35	0x3f01d991	0.50722605
36	0x3e5ce079	0.21570005
37	0xbef6a09b	-0.48169407
38	0xbe2e50b3	-0.17022972
39	0x3ec7e0e6	0.3903877
40	0xbe78c55d	-0.24294038
41	0x3e48d949	0.19614138
42	0xbe0baa12	-0.13639095
43	0xbd60e445	-0.054905195
44	0x3dde90f7	0.108674936
45	0x3e6171ba	0.2201604
46	0x3cb785fc	0.022402756
47	0x3e89b657	0.26896927
48	0xbe9ad1ec	-0.30238283
49	0x3ebe243a	0.37137014
50	0x3eeeccf3	0.4664074
51	0xbe970314	-0.29494536
52	0x3edad2d9	0.4273899
53	0x3d4bf9ef	0.049798902
54	0xbed6c3e7	-0.41946337
55	0x3eac8d5f	0.33701608
56	0x3de22f7b	0.110442124
57	0x3ed95805	0.42449966
58	0x3ee1f017	0.44128487
59	0x3e6a214d	0.22864266
60	0xbe93876b	-0.28814253
61	0xbc8409e4	-0.016117997
62	0xbe009245	-0.12555797
63	0x3ef15e66	0.47142333

gat_layers.0.bias f4 [64]
0	0xbb5641e0	-0.0032693073
1	0xbb55600d	-0.0032558471
2	0xbb5517bd	-0.003251537
3	0xbb521bb5	-0.0032059972
4	0xbb4fda9f	-0.0031716002
5	0xbb7ed78a	-0.0038885796
6	0xbb526685	-0.0032104563
7	0xbb584eff	-0.003300607
8	0xbb7afa6d	-0.0038296238
9	0xbb4e1f7e	-0.0031451876
10	0xbb8054bc	-0.003916351
11	0xbb570e66	-0.0032814979
12	0xbb4b8c51	-0.0031058977
13	0xbb770ab9	-0.00376956
14	0xbb7e1dc9	-0.0038775078
15	0xbb53bb9b	-0.0032307866
16	0xbb55a3c4	-0.0032598833
17	0xbb546d5b	-0.0032413814
18	0xbad607eb	-0.0016329264
19	0xbb814dbd	-0.0039460347
20	0x3bdad795	0.0066785314
21	0xbb4ad86a	-0.0030951747
22	0x3c061436	0.00818353
23	0xbb4f49f9	-0.0031629784
24	0xbb6299e6	-0.0034576594
25	0xbb55d2cd	-0.0032626868
26	0x3c0be6d3	0.0085389195
27	0xbb56c5d9	-0.0032771735
28	0x3c03c3de	0.008042304
29	0xbb557ca8	-0.0032575522
30	0xbb811e43	-0.003940375
31	0xbb52a7b5	-0.0032143418
32	0xbb633eb8	-0.0034674834
33	0xbb57fc8d	-0.0032956928
34	0xbb5c382f	-0.0033602824
35	0x3b422c64	0.002962851
36	0xbb5bab37	-0.00335188
37	0x3c14a56d	0.009072644
38	0xbb49defe	-0.003080308
39	0x3b6b2bb5	0.0035884206
40	0xbb53193a	-0.003221108
41	0xbb7a4a7f	-0.0038191376
42	0xbb74dc17	-0.003736263
43	0xbb78c023	-0.003795632
44	0x3c07ed87	0.008296377
45	0xbb513a20	-0.0031925514
46	0xbb56e0eb	-0.003278787
47	0xbb543095	-0.003237759
48	0xbb5b2180	-0.0033436716
49	0xbb5385fc	-0.0032275906
50	0xbb5ec63c	-0.0033992669
51	0xbb9f35ba	-0.0048586996
52	0xbb607e55	-0.0034254987
53	0xbb7a8291	-0.0038224796
54	0xbb4f48fb	-0.0031629193
55	0xbb7a1467	-0.0038159133
56	0xbb7400cc	-0.003723192
57	0xbb516e9f	-0.0031956804
58	0xbb74a1c6	-0.003732787
59	0xbb719924	-0.003686496
60	0x3c068895	0.008211275
61	0xbb5c33f3	-0.00336003
62	0xba8a1ee6	-0.0010537773
63	0xbb595dff	-0.0033167598

gat_layers.0.lin.weight f4 [64, 64]
0	0x3d078b97	0.033092108
1	0xbbba5685	-0.0056865835
2	0xbe02062d	-0.12697668
3	0x3cecf11e	0.028923567
4	0x3e531d08	0.20616543
5	0x3c5730d3	0.013134199
6	0x3d123912	0.035698958
7	0xbd09d671	-0.033651773
8	0xbdd37b35	-0.10326234
9	0xbe338d18	-0.17534292
10	0x3e3c4680	0.18386269
11	0x3e1cfe44	0.1533137
12	0xbd89cda8	-0.06728679
13	0xbe3dfee8	-0.1855427
14	0xbd8e4d25	-0.06948308
15	0xbd114320	-0.035464406
16	0x3e204e4a	0.15654865
17	0x3c781bff	0.015143394
18	0x3d646158	0.055756897
19	0xbe06c785	-0.13162048
20	0xbdf93e52	-0.1217009
21	0xbd907a0c	-0.070545286
22	0x3e12cb8b	0.14335458
23	0xbdfde1ea	-0.12396605
24	0xbc70cfeb	-0.014698009
25	0x3d4b5ed6	0.04965099
26	0xbd9f3b15	-0.07774941
27	0x3e30b4a8	0.17256415
28	0xbd4b8579	-0.049687836
29	0x3e030bcf	0.12797473
30	0x3e17bbf3	0.1481779
31	0xbddcda06	-0.10783772
32	0x3e32953c	0.17439741
33	0x3e025130	0.12726283
34	0xbdbd9d8a	-0.09258564
35	0x3e54a3ec	0.20765656
36	0x3d4daa1b	0.050211053
37	0xbd824e7e	-0.063626274
38	0x3cbe446f	0.023225991
39	0xbc28a670	-0.010293588
40	0x3df5d82d	0.12004123
41	0x3dc314e2	0.095254675
42	0x3e5c9912	0.21542767
43	0x3d9d9749	0.07694871
44	0xbe06cc49	-0.13163866
45	0xbdf426e8	-0.11921483
46	0x3e48523d	0.19562621
47	0x3ab4f659	0.0013806327
48	0xbdf2e78b	-0.118605696
49	0x3d8bdede	0.06829618
50	0x3e302b03	0.17203908
51	0xbd9a1ea7	-0.07525378
52	0xbd071f38	-0.032988757
53	0xbcd798de	-0.02631801
54	0x3d921be6	0.071342275
55	0x3d4d122b	0.050066154
56	0x3dfffed3	0.12499776
57	0x3de31832	0.11088599
58	0x3dc1dd62	0.094660535
59	0x3e523432	0.20527723
60	0xbe34bb37	-0.17649542
61	0xbdb7e0b2	-0.08978404
62	0xbbc68c22	-0.0060591856
63	0x3cab1d90	0.02088812
64	0xbe1fbe41	-0.1559992
65	0xbe5db61c	-0.216515
66	0xbd9e60c8	-0.07733303
67	0xbdc947ea	-0.0982817
68	0xbd6e56c4	-0.058188215
69	0x3ddab0db	0.10678264
70	0xbde0a35b	-0.109686576
71	0x3dbda82f	0.09260594
72	0x3e00504a	0.12530628
73	0x3e123bd3	0.14280634
74	0xbe5972d2	-0.21235207
75	0xbdb1c618	-0.086803615
76	0xbd40826b	-0.046999376
77	0x3d85f045	0.065399684
78	0xbe1cc376	-0.15308937
79	0x3db2d81c	0.08732626
80	0xbd7be5c9	-0.061498437
81	0x3e2be618	0.16786993
82	0x3e11e74e	0.14248392
83	0x3e1c9cf5	0.1529425
84	0xbe341640	-0.17586613
85	0x3cd9f767	0.026607228
86	0x3e5430f5	0.207218
87	0xbcf51cf0	-0.029921025
88	0xbe4f8d55	-0.20268758
89	0xbe3c068f	-0.18361877
90	0x3c0009cc	0.007814836
91	0x3cf0ea36	0.029408555
92	0x3dc58906	0.09645276
93	0xbdd1e571	-0.102488406
94	0xbc309fb3	-0.010780263
95	0x3d9a72e7	0.07541447
96	0xbe0a6943	-0.13516717
97	0xbe43083e	-0.19046113
98	0xbd5ffa30	-0.054681957
99	0x3c9fa50a	0.019487876
100	0xbd43a7db	-0.0477675
101	0xbdae403a	-0.08508344
102	0x3e061171	0.13092591
103	0xbd935c1c	-0.07195303
104	0xbe13c4fc	-0.14430612
105	0x3e2b2141	0.16711904
106	0xbe08bdda	-0.13353673
107	0xbdab9850	-0.08378661
108	0x3e384316	0.17994341
109	0xbe3ad2e8	-0.18244517
110	0x3e1eda35	0.15512927
111	0xbd200149	-0.039063726
112	0x3dd961dc	0.10614368
113	0x3e28d343	0.1648684
114	0x3d13050a	0.035893477
115	0x3e26e3e8	0.16297877
116	0xbe2c5036	-0.16827473
117	0xbd4c7a11	-0.0499211
118	0x3e530455	0.20607121
119	0x3e0accff	0.13554762
120	0x3cee26f0	0.029071301
121	0x3cc48942	0.02399123
122	0xbe3baf85	-0.18328674
123	0xbe1026d2	-0.14077309
124	0xbe3de5bf	-0.18544672
125	0x3938f332	0.00017638205
126	0x3ce4f225	0.027947495
127	0xbdec19b9	-0.11528344
128	0x3e328769	0.17434467
129	0xbd4ff6c9	-0.050772462
130	0x3c96e117	0.018417878
131	0xbe4c2157	-0.19934593
132	0xbc7bad0d	-0.015361083
133	0x3e29a51b	0.16566889
134	0xbe522d0c	-0.20524997
135	0x3de08450	0.109627366
136	0x3db40aa4	0.08791092
137	0xbd5b4907	-0.05353644
138	0xbd46ff38	-0.04858324
139	0xbe08492c	-0.13309163
140	0xbe1a2747	-0.15054046
141	0xbdf2235f	-0.11823153
142	0x3d064036	0.03277608
143	0x3e50444f	0.20338558
144	0xbdc4f41c	-0.09616873
145	0x3e2ede7a	0.17077056
146	0xbdd9cb06	-0.10634427
147	0xbe3a0b32	-0.18168333
148	0x3d6323a5	0.055453915
149	0x3dc0b19e	0.09408878
150	0x3e29023f	0.16504763
151	0x3de85ba2	0.113456026
152	0x3e5c4236	0.21509632
153	0x3de142d7	0.10999077
154	0x3cffaebb	0.031211248
155	0xbe4e1cef	-0.20128225
156	0xbd1ea69a	-0.038733102
157	0x3d51c00d	0.051208545
158	0x3deed1a9	0.11661083
159	0x3dd993bc	0.10623881
160	0x3e417daf	0.188956
161	0xbcf0d198	-0.029396817
162	0xbdd8ec7b	-0.1059198
163	0x3e374de0	0.179008
164	0xbde3d410	-0.11124432
165	0xbe01c3f6	-0.1267241
166	0xbe05c6d2	-0.13064125
167	0x3dadc7c5	0.08485369
168	0xbdfc5882	-0.12321569
169	0x3d63fef7	0.055663075
170	0x3e3d2ad2	0.18473366
171	0xbdc4ce04	-0.09609607
172	0x3e47c160	0.1950736
173	0x3d7b6cee	0.06138318
174	0x3c87e9fa	0.01659106
175	0x3d1ee9b0	0.03879708
176	0x3e36d9de	0.17856547
177	0x3e4194d2	0.18904427
178	0x3e4bd230	0.19904399
179	0x3ded9fb5	0.11602727
180	0x3e405b25	0.18784769
181	0xbd23ee9a	-0.04002247
182	0xbe011d29	-0.1260878
183	0xbda23d07	-0.07921796
184	0xbe5c0f19	-0.21490134
185	0xbe44c312	-0.19215038
186	0xbe089ee0	-0.13341856
187	0x3da319fa	0.07963939
188	0xbe3f3e7c	-0.1867618
189	0x3e36c3c8	0.17848122
190	0xbe1b3249	-0.15155901
191	0x3df1d9c7	0.11809116
192	0xbe2c748c	-0.16841334
193	0xbd82bceb	-0.063836895
194	0x3d793343	0.060839903
195	0x3c43a453	0.011941033
196	0x3d9eb009	0.0774842
197	0x3e3ff5e6	0.18746147
198	0xbdb3396e	-0.08751188
199	0xbe154549	-0.14577211
200	0x3db654cb	0.08902892
201	0xbe3fe3b7	-0.1873921
202	0xbda3ef99	-0.08004684
203	0xbe29ae7c	-0.16570467
204	0xbe061bf0	-0.13096595
205	0xbe34dac3	-0.17661576
206	0x3d878fb3	0.06619205
207	0xbdc7bec2	-0.09753181
208	0x3e26122c	0.1621787
209	0xbdbd7da0	-0.09252477
210	0x3e2f6696	0.17128977
211	0xbe13d08c	-0.14435023
212	0xbe5d19ec	-0.2159192
213	0xbe277d41	-0.16356374
214	0x39b77f34	0.00034999254
215	0x3e21c08c	0.15796107
216	0x3dc2ae7f	0.09505939
217	0x3db2c49b	0.08728906
218	0x3e11d715	0.14242204
219	0x3e5d68a6	0.21621951
220	0xbe41797a	-0.18893996
221	0x3e038d79	0.12846936
222	0x3e4ed482	0.20198253
223	0xbb39107a	-0.002823858
224	0xbe232633	-0.1593254
225	0x3e174ed3	0.14776163
226	0xbe18f38c	-0.14936656
227	0xbdcce795	-0.10005108
228	0x3deac944	0.114641696
229	0x3de7f626	0.11326246
230	0x3d18eba5	0.037334103
231	0xbd9353d1	-0.07193721
232	0x3de43110	0.111421704
233	0xbe2ba509	-0.16762175
234	0xbe4e44d1	-0.20143439
235	0xbcbf8e5c	-0.023383312
236	0x3c15cc40	0.009142935
237	0xbd396e8c	-0.04527144
238	0x3cdb6bad	0.026784742
239	0x3c46b30d	0.01212765
240	0xbcea6d22	-0.028616492
241	0x3d49721d	0.049181093
242	0x3e4ac50b	0.19801728
243	0xbd1a4211	-0.037660662
244	0x3dc920b4	0.09820691
245	0x3d4a1cf6	0.049344026
246	0xbe550981	-0.20804407
247	0xbc94efa7	-0.018180681
248	0x3e347b1b	0.17625086
249	0x3d74c2da	0.059756137
250	0x3d355068	0.044266135
251	0x3d8de3c6	0.0692821
252	0xbe44a4f3	-0.19203548
253	0xbca7f35d	-0.020501787
254	0xbd81089f	-0.063004725
255	0xbdedd413	-0.116127156

gat_layers.0.lin_edge.weight f4 [64, 64]
0	0xbe0c357d	-0.13692279
1	0xbe17fb2f	-0.14841913
2	0xbe4a00fd	-0.1972694
3	0xbd4767a1	-0.048682813
4	0xbc40ddc3	-0.011771622
5	0xbe450e6c	-0.19243783
6	0x3e1522da	0.14564076
7	0xbd96837d	-0.07349298
8	0x3c9d6b20	0.01921612
9	0x3dca342a	0.09873231
10	0x3daaef82	0.08346464
11	0xbdc60b30	-0.096701026
12	0x3dea8753	0.11451592
13	0xbd8ef118	-0.06979579
14	0x3e20454b	0.15651433
15	0x3cfb698f	0.030689983
16	0xbd4a0b32	-0.049327083
17	0xbe182001	-0.14855959
18	0x3e0746ef	0.13210653
19	0xbd638f4c	-0.05555658
20	0x3e20799f	0.15671395
21	0xba2c8a24	-0.0006581864
22	0x3e592f06	0.21209344
23	0xbe11dc6c	-0.1424424
24	0xbd4c4391	-0.049869124
25	0xbe34a89a	-0.17642441
26	0xbcff5896	-0.03117017
27	0x3d592588	0.05301431
28	0x3da90ad5	0.08254019
29	0xbe5dcb53	-0.21659593
30	0xbe302119	-0.17200126
31	0x3e1a3162	0.150579
32	0xbe394ad2	-0.18094948
33	0x3cb11bd8	0.021619722
34	0xbdb9f542	-0.09079982
35	0x3b91c7c8	0.0044488646
36	0x3e0db334	0.13837892
37	0xbe3a29ba	-0.1817998
38	0xbe0d6ee5	-0.13811834
39	0xbd30d90c	-0.043175742
40	0xbdc7f610	-0.097637296
41	0xbcc3db8a	-0.023908395
42	0xbe17688a	-0.14785972
43	0xbb8668fd	-0.004101871
44	0x3dabeeab	0.08395132
45	0x3db95f6d	0.09051404
46	0x3bf53a71	0.0074837734
47	0x3e0baceb	0.13640182
48	0x3c00eea8	0.0078694
49	0x3e13590b	0.14389436
50	0x3caef241	0.02135575
51	0xbe07df02	-0.13268664
52	0xbdd2eb82	-0.10298826
53	0x3db2eaa3	0.0873616
54	0x3dedd2f2	0.116125
55	0x3de59c53	0.11211457
56	0xbded0b3f	-0.11574411
57	0x3e1d8202	0.15381625
58	0xbd67076d	-0.056403566
59	0x3e37faf1	0.1796682
60	0xbe36d5c1	-0.17854978
61	0x3d9be616	0.07612245
62	0x3e31ad9b	0.17351381
63	0xbd0fb0b0	-0.03508061
64	0x3df57ed1	0.11987079
65	0xbe0d28e4	-0.1378513
66	0xbc6df5d3	-0.014523941
67	0x3c1b864f	0.009492471
68	0xbd7346a6	-0.059393547
69	0x3dff7db9	0.124751516
70	0x3dcbc3df	0.09949469
71	0x3e54f688	0.20797169
72	0x3df6d924	0.12053135
73	0x3de1c00b	0.110229574
74	0xbccd1602	-0.025034908
75	0xbdbc0494	-0.09180561
76	0xbdd8617a	-0.10565467
77	0x3e37346a	0.17891088
78	0x3e506399	0.20350493
79	0x3cd3552f	0.025797455
80	0xbd2fddf4	-0.04293628
81	0x3e31f158	0.17377222
82	0xbcdf52e4	-0.027261205
83	0x3e01db8b	0.12681405
84	0xbdf15340	-0.11783457
85	0xbe291579	-0.16512097
86	0x3e4ff977	0.20310007
87	0xbe4f2496	-0.202288
88	0x3d31d07a	0.04341171
89	0xbd69af27	-0.057051804
90	0x3d856326	0.06513052
91	0x3dca71ee	0.098850116
92	0xbe0c7cd3	-0.13719492
93	0xbd293fb7	-0.04132053
94	0x3dba445a	0.09095068
95	0x3cb78658	0.022402927
96	0x3e0d81dd	0.1381907
97	0xbe0379f2	-0.12839487
98	0xbd682859	-0.056679104
99	0x3e2a0be1	0.16606094
100	0xbdf24c3a	-0.11830945
101	0x3e314317	0.17310749
102	0xbe42b627	-0.19014798
103	0x3e485248	0.19562638
104	0x3e1cecb3	0.15324669
105	0x3e599878	0.21249568
106	0x3d8e1cf4	0.06939116
107	0xbd6588a5	-0.056038518
108	0xbd55a190	-0.05215603
109	0x3b864529	0.0040976
110	0xbdcc077e	-0.099623665
111	0xbe529fc2	-0.20568755
112	0xbd3b7aaf	-0.045771297
113	0xbe5a6bc3	-0.2133017
114	0xbd733b4e	-0.05938273
115	0x3d8fa573	0.07013979
116	0x3d92d8f4	0.07170287
117	0x3e4398e8	0.19101298
118	0x3da7d510	0.08194935
119	0xbe08863b	-0.13332455
120	0x3c68a50b	0.014199506
121	0xbe262ad8	-0.16227281
122	0xbe1153d5	-0.14192136
123	0x3c620046	0.0137940105
124	0x3e4e2037	0.20129476
125	0xbe1424fc	-0.14467233
126	0x3df4a40b	0.11945351
127	0xbd28f7df	-0.041252013
128	0xbdf501db	-0.119632445
129	0xbe0519cc	-0.12998122
130	0xbe46ac9e	-0.19401786
131	0x3d48bdf2	0.04900927
132	0x3ba22197	0.004947852
133	0xbd59eb2f	-0.053202804
134	0xbdeb1b76	-0.11479847
135	0x3d0bb5f4	0.03410907
136	0x3d448506	0.047978424
137	0x3e31844b	0.17335622
138	0x3db7c5cc	0.08973274
139	0xbdb80609	-0.08985526
140	0x3ce058d2	0.027386103
141	0x3e4aa3e3	0.1978908
142	0x3e3c7765	0.1840492
143	0xbe35a00f	-0.17736839
144	0x3e3bde61	0.1834655
145	0xbaba3767	-0.0014207185
146	0xbd752c12	-0.05985648
147	0x3e1d91b9	0.1538762
148	0x3cbbaf8c	0.022910856
149	0xbd606f56	-0.05479368
150	0xbe3d1a3e	-0.18467042
151	0x3e14deb4	0.1453808
152	0xbd0cd039	-0.034378264
153	0xbdcd4b82	-0.100241676
154	0x3b91afda	0.004446012
155	0x3e0ac2f6	0.13550934
156	0x3e3348eb	0.17508285
157	0xbe4f1735	-0.20223697
158	0xbe18dd56	-0.14928183
159	0xbe2b1ebd	-0.16710944
160	0xbe1cd15b	-0.15314238
161	0xbd08ae50	-0.033369362
162	0xbdd951ad	-0.106112815
163	0xbe078437	-0.1323403
164	0xbdc95c13	-0.09832015
165	0x3e33f42a	0.1757361
166	0x3e44d92e	0.19223472
167	0x3dcb678b	0.09931859
168	0x3df654be	0.12027882
169	0x3da96c9e	0.0827267
170	0xbcdb9278	-0.02680324
171	0x3c7a2452	0.0152674485
172	0xbd9b8bd6	-0.07595031
173	0x3c4e5ce5	0.01259539
174	0x3de3c7e2	0.11122109
175	0xbcef1be5	-0.029188106
176	0xbe376dca	-0.17912975
177	0xbd343886	-0.043999217
178	0x3d95ff4e	0.07324086
179	0xbde9d93a	-0.11418386
180	0xbd4ee6cf	-0.050513085
181	0x3d9401c3	0.072268985
182	0xbdce9b8a	-0.100882605
183	0x3dcb9930	0.099413276
184	0x3e1b454a	0.1516315
185	0xbe2fbb21	-0.17161228
186	0xbdbad766	-0.09123115
187	0x3e1dfd8c	0.15428752
188	0x3e4bd927	0.19907056
189	0xbd977c9a	-0.07396813
190	0x3d550677	0.05200812
191	0xbe05a3dd	-0.1305079
192	0x3de857f2	0.11344899
193	0x3dab94d7	0.08377998
194	0xbba2f889	-0.0049734754
195	0xbdb8fe6d	-0.09032903
196	0x3d54749e	0.051869027
197	0xbe0f3a74	-0.13987142
198	0xbe08b5bf	-0.1335058
199	0xbd6afe56	-0.05737146
200	0xbe35589f	-0.17709588
201	0xbe30cbec	-0.1726529
202	0x3e17e2b6	0.14832577
203	0x3e0313af	0.12800477
204	0xbe578ece	-0.2105057
205	0x3e15250c	0.14564914
206	0x3d682301	0.056674007
207	0xbd2aea65	-0.041727442
208	0xbe41453e	-0.1887407
209	0xbe3275f4	-0.17427808
210	0xbe341b4b	-0.17588536
211	0xbd03d7df	-0.032188293
212	0xbe353fee	-0.17700168
213	0xbdae437b	-0.08508965
214	0xbd1e42e9	-0.03863803
215	0x3d3d7772	0.04625649
216	0xbdb9d61c	-0.09074041
217	0x3d8db432	0.06919135
218	0xbdfb2692	-0.12263216
219	0x3d143db8	0.036191672
220	0xb8640a86	-5.4369237e-05
221	0xbe195ba0	-0.14976358
222	0xbe1ccb9e	-0.15312049
223	0x3e592220	0.21204424
224	0xba086840	-0.0005203523
225	0xbe0506f6	-0.12990937
226	0xbe26a68b	-0.16274469
227	0xbdfc2d3d	-0.12313316
228	0x3a8d73ee	0.0010791996
229	0xbccd0849	-0.025028365
230	0x3e3d0988	0.18460667
231	0x3c171220	0.00922063
232	0xbc8344ac	-0.016023956
233	0xbdf4e582	-0.11957838
234	0x3d65dfbf	0.056121584
235	0xbdfcee69	-0.12350161
236	0xbdc71585	-0.097209014
237	0xbce71560	-0.028208435
238	0xbd24d1cf	-0.04023915
239	0xbdc944d9	-0.09827585
240	0x3c739b9e	0.014868645
241	0x3e2d57da	0.16928044
242	0x3e138b3c	0.14408582
243	0xbe4ce014	-0.20007354
244	0xbe0fdf59	-0.14050044
245	0xbe35b2e2	-0.1774402
246	0x3e1f316b	0.15546195
247	0xbd60852d	-0.054814506
248	0xbe17eb59	-0.14835872
249	0xbc6fbbf2	-0.014632212
250	0x3d694744	0.05695273
251	0xbd8ba253	-0.0681807
252	0x3e08d551	0.13362624
253	0x3e38efea	0.1806027
254	0xbda46da2	-0.08028723
255	0xbe033688	-0.12813771

gat_layers.1.att_src f4 [1, 4, 16]
0	0xbd1f8a7b	-0.038950425
1	0xbcb89076	-0.022529822
2	0xbeafb7c6	-0.34319896
3	0xbece4c74	-0.40292704
4	0xbe986ae0	-0.2976904
5	0xbf0b2280	-0.5434952
6	0x3c081330	0.008305356
7	0x3dabb92b	0.08384927
8	0xbeb84255	-0.35988107
9	0x3e29f819	0.16598548
10	0x3d082f45	0.033248205
11	0xbec58edb	-0.38585553
12	0x3eaa65bf	0.3328075
13	0xbedbbd14	-0.42917693
14	0xbe1936f3	-0.14962368
15	0x3e957a9c	0.29195106
16	0x3e896bb6	0.2683999
17	0xbf080322	-0.5312978
18	0xbecc5929	-0.39911774
19	0x3e184f41	0.14873983
20	0xbe93dc97	-0.28879234
21	0xbcbe3b62	-0.023221675
22	0x3ea7b95e	0.3275861
23	0x3ece0244	0.40236104
24	0x3ed7c170	0.4213977
25	0xbee9f3f9	-0.4569395
26	0xbe730f84	-0.23736387
27	0xbed0a813	-0.4075323
28	0xbf045303	-0.51689166
29	0x3ed4b710	0.41545916
30	0x3f042b42	0.51628506
31	0xbe3d07a8	-0.18459952
32	0x3ef2dc5b	0.47433743
33	0xbed06cff	-0.40708157
34	0x3e807ad1	0.250937
35	0xbe909231	-0.28236535
36	0xbdd085cc	-0.1018177
37	0xbe40173d	-0.18758865
38	0x3ea9592a	0.3307584
39	0xbeea3c88	-0.45749307
40	0xbf00f711	-0.50376993
41	0x3d51a13f	0.051179167
42	0x3e88a594	0.26688826
43	0xbdb8c2d0	-0.090215325
44	0x3ea03a88	0.31294656
45	0xbf0ba03d	-0.5454138
46	0x3d2983d8	0.0413855
47	0xbeafc5ad	-0.34330502
48	0x3e266e20	0.16252947
49	0x3e0971e7	0.13422357
50	0xbe95e8aa	-0.2927907
51	0xbc4e333f	-0.01258546
52	0xbd9d7279	-0.076878496
53	0x3db0f615	0.086406864
54	0x3e4efda0	0.20213938
55	0x3f04b2c2	0.5183526
56	0xbd6f0d4a	-0.058362283
57	0xbeacf5f3	-0.33781394
58	0x3ead3a71	0.3383365
59	0x3f00e0dc	0.5034311
60	0x3e82b321	0.2552729
61	0xbdc9f753	-0.098616265
62	0x3eb33413	0.35000667
63	0xbe591781	-0.21200372

gat_layers.1.att_dst f4 [1, 4, 16]
0	0xbe876642	-0.26445204
1	0x3ed64ef1	0.41857103
2	0xbf0586e0	-0.5215893
3	0xbd8ff898	-0.07029837
4	0x3e82dffe	0.25561517
5	0x3eb49f86	0.35277957
6	0x3ef1f30f	0.47255751
7	0xbea91452	-0.33023316
8	0x3ed58113	0.41700038
9	0x3e97102c	0.29504526
10	0xbd97d882	-0.074143425
11	0xbe251d7a	-0.16124526
12	0xbdf9d809	-0.121994086
13	0xbe4eccec	-0.20195359
14	0x3e3122a4	0.1729837
15	0x3e90303d	0.28161803
16	0xbe8eea49	-0.2791312
17	0xbf03abaa	-0.51433814
18	0x3ef7ea4c	0.48420942
19	0xbf08c04c	-0.5341842
20	0x3e8db084	0.27673733
21	0x3ec7923b	0.38978752
22	0x3d29ec71	0.041485254
23	0xbe16e146	-0.14734372
24	0x3e925565	0.28580776
25	0xbe9f9d93	-0.31174907
26	0xbe53c8df	-0.20682095
27	0x3eeea5f2	0.4661098
28	0x3c9c88ea	0.019108254
29	0x3e00180f	0.12509178
30	0x3ec0c322	0.37648875
31	0xb9c461ec	-0.0003745699
32	0xbf0034dc	-0.50080657
33	0xbee53019	-0.44763258
34	0x3f0628cc	0.52406
35	0xbeecc642	-0.4624501
36	0x3e329849	0.17440905
37	0xbe877cfd	-0.26462546
38	0xbe89e0b3	-0.26929244
39	0x3efa8990	0.48933077
40	0xbdcd1466	-0.10013656
41	0x3dd1e08a	0.102479056
42	0xbe87c4c3	-0.26517305
43	0xbe8a5f44	-0.27025807
44	0x3f030f80	0.51195526
45	0x3cc7b30e	0.024377372
46	0xbe1fef3a	-0.15618601
47	0x3dc5d21c	0.09659216
48	0xbe424197	-0.18970333
49	0xbec099e0	-0.37617397
50	0xbd639399	-0.055560682
51	0x3ebf3d48	0.3735144
52	0x3decd587	0.115641646
53	0xbd3f83a6	-0.04675641
54	0x3ed5d439	0.41763476
55	0x3e3551b4	0.17706949
56	0x3d5033f4	0.050830796
57	0x3e2222b7	0.15833555
58	0x3dec03b5	0.115241446
59	0x3db92c38	0.09041637
60	0x3e06331a	0.13105431
61	0xbec6d658	-0.38835406
62	0xbe687acd	-0.22703095
63	0xbe2af1f4	-0.1669386

gat_layers.1.att_edge f4 [1, 4, 16]
0	0x3cb4bf2a	0.02206381
1	0xbc31b0b2	-0.01084535
2	0xbf0120fc	-0.50440955
3	0xbe25671e	-0.16152617
4	0x3d25cf2f	0.04048079
5	0x3f091654	0.53549695
6	0x3e5d2a3b	0.21598141
7	0xbd0f2c3c	-0.034954295
8	0x3e1d3da1	0.15355541
9	0x3f08c136	0.53419816
10	0x3d2cee57	0.042219486
11	0x3f0719b4	0.52773595
12	0x3e84c139	0.25928667
13	0xbe2603a8	-0.16212332
14	0xbc1dd2a0	-0.009632736
15	0xbdc4f3b4	-0.09616795
16	0x3d5bed20	0.053692937
17	0x3e3d09e1	0.184608
18	0x3f07f1f1	0.5310355
19	0xbeb055a8	-0.3444035
20	0x3e061f87	0.13097964
21	0xbec62d79	-0.38706568
22	0xbef3d13e	-0.47620577
23	0xbed653e6	-0.41860884
24	0x3ed567d2	0.4168077
25	0x3f0ac20a	0.5420233
26	0x3ee0baf4	0.43892634
27	0xbec5739a	-0.3856476
28	0xbe88744a	-0.26651222
29	0xbd8358ed	-0.064134456
30	0x3ebd2a9e	0.36946577
31	0x3e9a70ff	0.30164334
32	0x3e8365c8	0.2566359
33	0x3e55e02b	0.20886295
34	0xbdfbf136	-0.12301867
35	0x3ec24a54	0.37947333
36	0x3c6e9dce	0.014563991
37	0x3f036171	0.5132056
38	0x3f09beb8	0.5380664
39	0x3dad4fcd	0.084624864
40	0xbf087cf0	-0.5331564
41	0x3ebdfaef	0.3710551
42	0xbecadfdc	-0.39623916
43	0xbd5ad905	-0.053429622
44	0x3efbcf67	0.49181673
45	0xbe938939	-0.2881563
46	0xbce5ef59	-0.028068231
47	0x3d347856	0.044060074
48	0x3ece6d97	0.40317985
49	0xbe70a06c	-0.23498696
50	0xbd8c2c85	-0.06844429
51	0x3e3ce447	0.18446456
52	0x3ec7bfd3	0.39013538
53	0x3e8ef368	0.2792008
54	0x3ee5e92c	0.4490446
55	0x3f04f9c3	0.51943606
56	0x3eaaa67f	0.3333015
57	0x3eef1ad6	0.46700162
58	0xbe48244d	-0.19545098
59	0xbed7a974	-0.4212147
60	0x3e79df77	0.24401651
61	0x3e6276bf	0.2211561
62	0xba9c106c	-0.001190675
63	0xbe85f674	-0.2616459

gat_layers.1.bias f4 [64]
0	0xbb85476a	-0.004067351
1	0xbb849f33	-0.0040472983
2	0xbb1d5825	-0.0024008837
3	0xbb8a8f65	-0.0042285197
4	0x3bfa44bd	0.007637589
5	0xbb8d111e	-0.004305019
6	0xbb8e4627	-0.004341859
7	0xbb84bb3c	-0.0040506404
8	0xbb85d837	-0.0040846127
9	0xbb8f1c6e	-0.0043674028
10	0xbb89ccf0	-0.0042053387
11	0x3aff514c	0.0019479184
12	0xbb873e67	-0.004127312
13	0xbb95487b	-0.0045557595
14	0xbb89e71f	-0.00420846
15	0x3b9f20bc	0.004856197
16	0x3bbf3b4d	0.0058359266
17	0xbb74aa06	-0.0037332787
18	0xbb8b7558	-0.004255932
19	0xbb861df6	-0.004092927
20	0xbb8985c2	-0.0041968534
21	0xbb7b7bd7	-0.0038373375
22	0xbb8a5643	-0.004221709
23	0x3bda1fd8	0.006656628
24	0xbb856291	-0.004070588
25	0xbb8b34c5	-0.004248234
26	0xbb85c832	-0.004082703
27	0x3c050e84	0.008121137
28	0x3bf0a3ae	0.007343731
29	0xbb90c5a0	-0.00441809
30	0xbb88216b	-0.0041543744
31	0xbb6e2b44	-0.0036341706
32	0xbb89501d	-0.0041904585
33	0xbb831c6d	-0.0040011914
34	0x3c17869b	0.009248401
35	0x3b8891a0	0.0041677505
36	0xbb8815c3	-0.004152985
37	0x3c12d7fa	0.008962626
38	0xbb828ac7	-0.0039838287
39	0x3b965440	0.00458768
40	0x3c0c6fc2	0.008571567
41	0xbb919c50	-0.0044436827
42	0xbb86d466	-0.0041146753
43	0xbb8adf5a	-0.0042380514
44	0xbb8b72a0	-0.0042556077
45	0xbb86c289	-0.004112546
46	0x3a58c263	0.0008268712
47	0xbb874ad8	-0.004128795
48	0xbb795a55	-0.0038048227
49	0xbb897b72	-0.004195624
50	0x3b1bd383	0.0023777194
51	0xbb95671a	-0.00455941
52	0xbb880a45	-0.004151615
53	0xbb8d518c	-0.0043126997
54	0xbb7d3fbc	-0.0038642725
55	0xbb882f41	-0.0041560237
56	0xbb8ceb4d	-0.004300511
57	0xbb8995f1	-0.0041987826
58	0xbb8797a4	-0.00413795
59	0xbb852a15	-0.0040638545
60	0x3beeb0d2	0.007284262
61	0xbb6c5e22	-0.003606685
62	0xbabfb43c	-0.0014625858
63	0xbb6a93b5	-0.0035793607

gat_layers.1.lin.weight f4 [64, 64]
0	0xbd66581f	-0.056236383
1	0xbe1a30e1	-0.15057708
2	0x3da325b8	0.07966179
3	0x3ce03e83	0.027373558
4	0xbd03e211	-0.032198016
5	0x3db973ad	0.090552665
6	0x3daac027	0.083374314
7	0x3e428658	0.1899656
8	0x3e2916f8	0.16512668
9	0xbe5b0c3d	-0.21391387
10	0x3d8fbd7f	0.070185654
11	0x3dc56226	0.09637861
12	0x3c34cd8a	0.011035332
13	0xbdae747e	-0.08518313
14	0xbe06eec6	-0.13177022
15	0xbe320219	-0.17383613
16	0xbe1dc569	-0.15407337
17	0x3c98ed91	0.018667968
18	0xbb4a41aa	-0.0030861893
19	0xbdfc64a0	-0.1232388
20	0x3d45f672	0.04833073
21	0x3d9feb66	0.078085706
22	0x3de23f7d	0.11047266
23	0xbd425471	-0.04744381
24	0x3d3e3298	0.04643497
25	0x3c94ebf1	0.018178912
26	0x3e2d168c	0.16903132
27	0x3d8529e7	0.06502133
28	0xbdc237b5	-0.094832815
29	0xbe28335a	-0.16425839
30	0x3ded5903	0.11589243
31	0xbddab427	-0.106788926
32	0x3dca116d	0.09866605
33	0xbd5f07c9	-0.054450784
34	0x3e5ae80d	0.21377583
35	0x3db54950	0.08851874
36	0xbdaa946d	-0.08329091
37	0xbe5ab3c5	-0.21357639
38	0x3c9d0e3a	0.019171823
39	0x3e53fc80	0.2070179
40	0xbdb11b63	-0.08647802
41	0x3d2c5d02	0.042080887
42	0xbddd264b	-0.107983194
43	0x3da683e1	0.08130623
44	0x3e2f67bb	0.17129414
45	0x3e56cf02	0.20977405
46	0x3d45045c	0.04809986
47	0x3bdc9206	0.0067312745
48	0xbdb1eb3a	-0.08687444
49	0x3e59fd39	0.21288003
50	0x3e0d2074	0.13781911
51	0x3d160652	0.03662712
52	0xbe5eafce	-0.21746752
53	0x3e2a0812	0.16604641
54	0x3de49c74	0.111626536
55	0x3cfb014b	0.030640265
56	0x3d74a6d6	0.05972942
57	0x3d6db11f	0.058030244
58	0x3e1d7f04	0.15380484
59	0x3e4428ba	0.19156161
60	0x3ada90ec	0.001667527
61	0x3e0d41b2	0.13794592
62	0xbde1141a	-0.10990162
63	0x3e409ce7	0.18809853
64	0xbe216141	-0.15759756
65	0x3e2379e6	0.1596447
66	0xbdc6fc71	-0.09716118
67	0x3dc10ea8	0.094266236
68	0x3e18bda7	0.14916097
69	0xbdac43ec	-0.084113926
70	0x3dac0e20	0.08401132
71	0x3e170bff	0.1475067
72	0x3b18d39f	0.0023319495
73	0xbd2653f5	-0.04060741
74	0xbe5e380c	-0.21701068
75	0x3e340c33	0.17582779
76	0xbe1d2a28	-0.15348113
77	0x3e59be64	0.21264035
78	0xbe326805	-0.17422493
79	0xbe16bfdc	-0.14721626
80	0xbd4cab1f	-0.04996788
81	0x3dada3db	0.084785186
82	0xbc86f83d	-0.016475791
83	0xbdc0e0bb	-0.09417864
84	0x3d532958	0.0515531
85	0xbe23372d	-0.15939017
86	0xbe6254e1	-0.22102691
87	0x3d2079ca	0.039178647
88	0x3e2c2132	0.16809538
89	0x3e11fa7c	0.14255708
90	0x3df022a0	0.11725354
91	0x3e575ba5	0.21031053
92	0x3e3056bd	0.17220588
93	0x3d5e7905	0.054314632
94	0x3e4260fb	0.18982308
95	0xbe3a8bc0	-0.18217373
96	0x3c24fb1b	0.010069634
97	0xbe2aaec2	-0.16668227
98	0xbe107d87	-0.14110385
99	0xbc7b58c7	-0.01534099
100	0x3e565f9b	0.20934908
101	0x3e3f442d	0.18678351
102	0xbe0a75f3	-0.13521557
103	0xbe25e7a6	-0.16201648
104	0x3e241482	0.16023448
105	0x3dcc1f7a	0.09966941
106	0x3e41b33a	0.18916026
107	0xbc877f9b	-0.01654034
108	0xbdba59d6	-0.09099166
109	0xbe0e5950	-0.13901258
110	0x3e548808	0.20755017
111	0x3dc1a58b	0.09455403
112	0xbda57c62	-0.08080365
113	0xbd5708ec	-0.052498743
114	0x3e14d960	0.14536047
115	0x3ddee79f	0.10884022
116	0x3c2a70ac	0.01040284
117	0xbdc2be56	-0.0950896
118	0xbc5fc785	-0.013658409
119	0x3d940229	0.072269745
120	0x3c9abe37	0.01888953
121	0x3e396266	0.18103942
122	0xbcd9b187	-0.02657391
123	0xbcee14f6	-0.02906273
124	0x3e3ea116	0.18616137
125	0x3caa2ea8	0.0207742
126	0x3c94b0ad	0.018150652
127	0x3e1a7161	0.15082313
128	0xbd405659	-0.046957348
129	0xbe09ea0a	-0.13468185
130	0x3dbfa700	0.093580246
131	0xbdc0af0e	-0.09408389
132	0xbe46e265	-0.194223
133	0x3d4c639b	0.04989968
134	0x3cdb6ab7	0.026784284
135	0xbd620a88	-0.055185825
136	0xbe199fbe	-0.15002343
137	0xbe4fa618	-0.20278203
138	0x3e21b6eb	0.15792434
139	0x3d650b3d	0.05591892
140	0x3dc4d102	0.096101776
141	0xbe350d1f	-0.17680787
142	0xbda3e1cb	-0.08002051
143	0xbd501970	-0.05080551
144	0x3d5e2c53	0.05424149
145	0xbdbf39fb	-0.09337231
146	0x3e09c3c7	0.1345359
147	0x3dcc753e	0.099833
148	0x3c649a20	0.013952762
149	0x3d3aaed1	0.045576874
150	0x3d80df68	0.06292611
151	0xbda234b1	-0.07920206
152	0x3e5cf0d0	0.21576238
153	0x3d0d5b78	0.03451106
154	0x3d9437f5	0.072372355
155	0x3e4b3893	0.198458
156	0xbba8fbbc	-0.005156962
157	0x3d0bc2c2	0.034121282
158	0xbcb7b57a	-0.022425402
159	0xbdc33a4c	-0.095326036
160	0x3c20883b	0.009798105
161	0x3e38828d	0.18018551
162	0xbbff283d	-0.007786779
163	0xbe22d5c8	-0.15901864
164	0xbe334fc6	-0.175109
165	0x3dcbac1d	0.099449374
166	0xbe5d9271	-0.21637894
167	0xbe4b93a2	-0.19880536
168	0x3d958afc	0.073019
169	0x3d7831da	0.060594417
170	0x3da13e43	0.078732036
171	0xbe51428c	-0.20435542
172	0x3dc240d3	0.094850205
173	0xbd26ce9d	-0.040724386
174	0xbe340f39	-0.17583932
175	0x3d512a70	0.051065862
176	0x3d84fdd5	0.06493727
177	0x3e0a842a	0.13526979
178	0xbdccde5e	-0.10003351
179	0x3d0b0327	0.033938553
180	0x3dadc711	0.084852345
181	0x3d4dbff0	0.050231874
182	0x3ddf6d8b	0.109095655
183	0x3e1f85d3	0.15578394
184	0x3e49cbba	0.19706622
185	0xbe0fd2d6	-0.14045271
186	0xbd96d574	-0.07364932
187	0xbdfcae5c	-0.12337944
188	0x3d84d4eb	0.064859234
189	0xbcabe6a9	-0.02098401
190	0x3e43603c	0.19079679
191	0xbcc278cd	-0.023739243
192	0xbd8c3579	-0.068461366
193	0xbe208265	-0.15674742
194	0xbdd965f2	-0.10615148
195	0xbdd2774d	-0.10276661
196	0xbd4dbfa1	-0.05023158
197	0x3e0fbffc	0.1403808
198	0xbcc3ba06	-0.023892414
199	0xbe06775b	-0.13131468
200	0x3e1fb083	0.15594678
201	0xbdf4ebe6	-0.119590566
202	0x3e07883a	0.1323556
203	0x3db7f85d	0.089829184
204	0x3e581f2c	0.21105641
205	0x3e493f8a	0.19653144
206	0x3e1f2654	0.15541965
207	0xbe47e042	-0.19519141
208	0xbe0420b4	-0.129031
209	0x3c94290f	0.018085985
210	0xbe3da95d	-0.18521638
211	0xbd7cb5a0	-0.06169665
212	0xbdfdb960	-0.12388873
213	0xbe448d72	-0.19194582
214	0x3d847b97	0.064688854
215	0x3ddce06f	0.10784995
216	0x3e1c5dc1	0.1527014
217	0x3e428bb3	0.18998604
218	0xbdf2dfc8	-0.11859089
219	0xbe422241	-0.1895838
220	0xbd796fc1	-0.060897592
221	0xbdc2c3d1	-0.09510005
222	0xbd3a9a9a	-0.045557596
223	0x3d924941	0.07142878
224	0xbe50d573	-0.20393924
225	0x3ce4cae3	0.027928775
226	0x3e2f6166	0.17126998
227	0xbe0582c7	-0.13038169
228	0xbc2e54b8	-0.010640316
229	0x3dd725cd	0.10505257
230	0x3d4113e6	0.047138117
231	0x3d1a86ed	0.03772633
232	0xbc6f2251	-0.014595584
233	0x3dfd78e5	0.123765744
234	0x3d23f718	0.04003057
235	0x3e43cc99	0.19121017
236	0x3e4ef42c	0.20210332
237	0xbd0f22fb	-0.03494547
238	0xbcf8ae7f	-0.030356644
239	0x3e2a0d2c	0.16606587
240	0x3bb22f62	0.0054377774
241	0x3e00b287	0.12568103
242	0xbb169839	-0.0022978915
243	0x3e54a37e	0.20765492
244	0x3e1bf73e	0.15231034
245	0xbd296c23	-0.041362893
246	0x3d30a670	0.043127477
247	0x3d279c8d	0.040920783
248	0xbe14f0f6	-0.14545044
249	0x3d468d8d	0.048474837
250	0x3ce57cf5	0.028013686
251	0x3d6230ff	0.055222508
252	0xbdbe8607	-0.093029074
253	0xbe008177	-0.12549387
254	0x3d26e2eb	0.04074375
255	0xbda886b8	-0.082288206
