models/best_fraud_model_seed_789.pth (torch, 378192 bytes, 45 tensors)

node_emb.weight f4 [64, 8]
0	0x3e5be670	0.21474624
1	0xbe973d6b	-0.29539046
2	0xbe0bfc43	-0.13670449
3	0xbcaf4d88	-0.021399274
4	0xbea39224	-0.31947434
5	0x3e88419e	0.26612562
6	0x3e956fb6	0.2918679
7	0x3e51f2e0	0.20502806
8	0xbe8ab749	-0.2709296
9	0xbe92560c	-0.28581274
10	0xbe055362	-0.1302009
11	0xbe733610	-0.23751092
12	0xbe86317a	-0.26209623
13	0x3dd31c90	0.10308182
14	0x3ea5ed76	0.3240773
15	0xbd4eea07	-0.050516155
16	0xbe3d5760	-0.18490362
17	0x3e35e8ee	0.17764637
18	0x3dd12389	0.10211856
19	0xbe618f96	-0.2202743
20	0xbe27c6dc	-0.16384453
21	0xbdc97d2c	-0.09838328
22	0x3c9748b7	0.01846729
23	0x3e5e7676	0.21724877
24	0xbeafd2e9	-0.343406
25	0x3df78f6c	0.120879024
26	0xb9f738ab	-0.00047153732
27	0xbe075368	-0.1321541
28	0x3db709de	0.08937429
29	0x3bf0842a	0.007339974
30	0xbeb62836	-0.35577554
31	0x3d087f08	0.03332427
32	0x3d316253	0.04330666
33	0x3cf59963	0.029980367
34	0xbe1867cd	-0.14883347
35	0xbea2792b	-0.3173307
36	0x3d249a4f	0.040186223
37	0xbd2a3d64	-0.041562453
38	0xbea1c559	-0.31595877
39	0xbea3934e	-0.31948322
40	0x3dce1621	0.100628145
41	0xbd352ea1	-0.044233922
42	0xbd9c659d	-0.07636569
43	0x3dd09aac	0.10185751
44	0x3e4038e5	0.18771704
45	0x3e9920a1	0.29907706
46	0xbe6fc1ef	-0.23413824
47	0x3e42d687	0.19027148
48	0xbd8290ac	-0.0637525
49	0x3eb1a317	0.3469474
50	0x3d5a67e5	0.053321738
51	0xbea1413e	-0.31495088
52	0x3d274d73	0.040845346
53	0x3d387856	0.045036636
54	0x3e4b3a1d	0.19846387
55	0xbd693d3b	-0.05694316
56	0x3dd10499	0.10205955
57	0xbbfc1a6a	-0.0076935785
58	0xbdf53c1a	-0.11974354
59	0xbdd8dd94	-0.10589138
60	0x3e5cdc49	0.21568407
61	0xbd78db5a	-0.060756065
62	0x3e8f0147	0.27930662
63	0xbdebd129	-0.115145035
64	0xbdf14ba3	-0.11782005
65	0xbea4a747	-0.32158872
66	0xbc4de46c	-0.012566667
67	0xbd946ced	-0.072473384
68	0xbe7711f2	-0.2412794
69	0x3d785ab4	0.060633376
70	0x3d71da69	0.059046183
71	0xbe22669c	-0.15859455
72	0x3dfabd03	0.122430824
73	0xbeaa9c56	-0.333224
74	0xbe5eb56c	-0.21748894
75	0x3e16536a	0.14680257
76	0x3defd908	0.11711317
77	0x3d8fce13	0.070217274
78	0xbe49c2f0	-0.19703269
79	0xbe88df08	-0.2673266
80	0xbe192967	-0.149572
81	0x3ce22b1b	0.027608445
82	0xbdf45601	-0.119304664
83	0xbe519f69	-0.20470966
84	0xbdebedc8	-0.115199625
85	0xbe9bc565	-0.30424038
86	0x3da1d2c0	0.079015255
87	0x3e1fb328	0.15595686
88	0xbea85e33	-0.32884368
89	0xbe2718cf	-0.16318057
90	0xbe58aad8	-0.21158922
91	0xbe5f93ce	-0.21833727
92	0x3eb097ad	0.3449072
93	0xbe19f9ae	-0.15036651
94	0x3e9baea3	0.30406675
95	0xbea91928	-0.33027005
96	0xbea41a74	-0.32051432
97	0x3cd52af1	0.026021453
98	0xbe165f32	-0.14684752
99	0xbe94bb88	-0.29049325
100	0x3ea24c21	0.31698707
101	0x3d7ce6bc	0.061743483
102	0xbd869c4f	-0.06572782
103	0x3ea1d8e4	0.31610787
104	0xbe1c9166	-0.1528984
105	0xbc6b4610	-0.014359966
106	0x3e655d84	0.22398955
107	0xbe2861a4	-0.16443497
108	0x3e612a24	0.21988732
109	0xbe42693e	-0.18985459
110	0xbeb74e5d	-0.35801974
111	0x3dfa9049	0.122345515
112	0xbc884dac	-0.0166386
113	0x3db9ff89	0.090819426
114	0xbe9ca9ec	-0.3059839
115	0x3e5a99a4	0.21347672
116	0xbe9a79ac	-0.30170953
117	0xbe8c26b9	-0.27373293
118	0x3d155f43	0.0364678
119	0xbead7758	-0.33880115
120	0xbdf0570b	-0.11735352
121	0xbe700311	-0.2343867
122	0xbe459c18	-0.19297826
123	0x3e4dc5ce	0.20094988
124	0xbd595003	-0.05305482
125	0xbd0b32c2	-0.033983953
126	0x3a43c1bf	0.000746753
127	0xbe838677	-0.25688526
128	0x3e44e497	0.19227825
129	0x3eaac769	0.33355263
130	0x3e181b89	0.14854254
131	0xbe3742c6	-0.17896566
132	0xbeb7d3d7	-0.35903808
133	0x3e64fe27	0.22362576
134	0xbe5db0fe	-0.21649548
135	0x3e84117f	0.25794598
136	0x3ddb055d	0.10694382
137	0x3e3d87ca	0.1850883
138	0x3b88744a	0.0041642534
139	0xbe2dfa83	-0.16990094
140	0x3ddb1582	0.10697462
141	0xbe64d2f5	-0.22346099
142	0x3e6a8fcd	0.22906418
143	0xbeb5fe30	-0.35545492
144	0x3e20df0d	0.15710087
145	0xbe306a45	-0.17228039
146	0xbe5f1eee	-0.21789142
147	0x3e8a7287	0.27040502
148	0x3dfe4e80	0.124173164
149	0x3e3e3243	0.18573861
150	0xbe871f76	-0.2639119
151	0xbe3a10bb	-0.18170445
152	0xbe00c986	-0.12576875
153	0xbe9cb739	-0.30608538
154	0xbc897abe	-0.01678216
155	0x3e79f0b3	0.24408226
156	0xbe0301ae	-0.1279361
157	0xbdde0308	-0.10840422
158	0x3e57c011	0.21069361
159	0xbeab8ea4	-0.33507264
160	0xbca6099d	-0.020268256
161	0x3e4a3aaa	0.19748941
162	0xbe1caba0	-0.15299845
163	0xbdd9c360	-0.10632968
164	0x3eaaecb2	0.3338371
165	0x3e5d287a	0.21597472
166	0xbe0e215e	-0.13879916
167	0xbcc50f6c	-0.024055205
168	0x3d75355e	0.059865348
169	0x3dbc39ae	0.09190689
170	0xbe0c2c61	-0.13688804
171	0xbe698a6b	-0.22806709
172	0xbda2d7d4	-0.07951322
173	0x3e993402	0.2992249
174	0x3e4cc43a	0.1999673
175	0x3e908bad	0.28231564
176	0xbeae19f6	-0.34004182
177	0x3ea96821	0.33087257
178	0xbd6443ed	-0.05572884
179	0x3dbf10c2	0.09329368
180	0xbb2f9b0f	-0.0026795303
181	0x3d312f5d	0.04325806
182	0xbddd5745	-0.10807661
183	0xbe7bf16b	-0.24603812
184	0xbe98232e	-0.2971434
185	0xbe0f2197	-0.13977657
186	0xbc87d8c6	-0.016582858
187	0xbe1d4753	-0.1535924
188	0x3e0e43ec	0.13893098
189	0x3db63817	0.08897417
190	0x3d220348	0.03955391
191	0x3e15ce51	0.14629485
192	0x3e93d45c	0.28872955
193	0xbead3070	-0.33826017
194	0x3e023542	0.12715629
195	0xbdec58f0	-0.11540401
196	0xbd9b3f8c	-0.0758048
197	0x3e9c9b07	0.30587026
198	0xbd807273	-0.062718295
199	0x3e9bd331	0.30434564
200	0x3e84148c	0.25796926
201	0x3ea43c46	0.32077235
202	0xbe186365	-0.14881666
203	0x3e03883f	0.12844943
204	0xbddbc618	-0.10731143
205	0xbe019b5a	-0.12656918
206	0x3e86d3b0	0.2633338
207	0xbe2d2d21	-0.16911747
208	0x3eb4e54a	0.35331184
209	0x3dd34aaa	0.103169754
210	0xbe8bf135	-0.27332464
211	0x3eaefe9b	0.34178624
212	0x3d8673dc	0.06565067
213	0xbe2c0c99	-0.1680168
214	0x3d507d2f	0.050900634
215	0xbe8a8018	-0.27050853
216	0x3e283eb9	0.16430177
217	0xbe3ef800	-0.18649292
218	0x3db3b8cc	0.087754816
219	0xbe9ec8bd	-0.31012526
220	0x3e9bc1fd	0.3042144
221	0x3b2f6202	0.0026761298
222	0xbda4cc8f	-0.08046829
223	0xbe8c1e05	-0.27366653
224	0xbe1afc97	-0.15135418
225	0xbe649023	-0.22320609
226	0xbe95a050	-0.2922387
227	0x3e03567a	0.12825957
228	0xbe8f72e1	-0.28017333
229	0x3ea81bd3	0.32833728
230	0xbea12226	-0.31471366
231	0x3e807976	0.25092667
232	0xbe0c139d	-0.13679357
233	0x3e9349ad	0.28767148
234	0x3e9e9e1d	0.30980006
235	0xbe4f2e40	-0.20232487
236	0xbe252857	-0.1612867
237	0xbeb07396	-0.34463185
238	0x3e2dcf4c	0.16973609
239	0x3e43b54e	0.19112131
240	0x3e80711a	0.2508629
241	0xbe835fd9	-0.25659063
242	0x3e927e7b	0.28612122
243	0xbe9acf29	-0.30236176
244	0xbe93d11a	-0.2887047
245	0x3e6dec49	0.23234667
246	0x3da26628	0.07929641
247	0x3e80730f	0.25087783
248	0x3e56429f	0.20923851
249	0x3da2dbea	0.079521015
250	0xbdf0f943	-0.11766293
251	0x3de1ecae	0.11031471
252	0xbe8272c2	-0.25478178
253	0x3e6241e6	0.22095451
254	0x3e684903	0.22684102
255	0x3e61ada1	0.2203889

node_emb.bias f4 [64]
0	0xbe584c22	-0.21122792
1	0xbe858adf	-0.26082513
2	0x3e865a2e	0.26240677
3	0xbe57ba82	-0.21067241
4	0xbe543ecb	-0.20727079
5	0x3e8b5a15	0.27217165
6	0x3dad467d	0.0846071
7	0xbea6833a	-0.32521993
8	0xbd9cbc8c	-0.0765315
9	0xbd60e798	-0.054908365
10	0xbd24a833	-0.04019947
11	0x3e3df617	0.18550907
12	0xbc81ef75	-0.015861252
13	0x3de60da4	0.112330705
14	0xbda03736	-0.07823031
15	0xbde00bdf	-0.10939764
16	0xbea796cc	-0.32732236
17	0x3dbbc6aa	0.091687515
18	0xbe7c5e2f	-0.24645303
19	0xbe74c2e2	-0.23902467
20	0x3e94ccab	0.290624
21	0x3da26d77	0.07931035
22	0x3df68dbe	0.12038754
23	0xbddcc7cf	-0.10780298
24	0xbd9ad1b3	-0.07559528
25	0xbd7320f0	-0.059357584
26	0x3e51b735	0.20480044
27	0x3eac585c	0.33661163
28	0x3dcddbf8	0.10051721
29	0xbd7283ef	-0.059207853
30	0xbe2a2688	-0.16616261
31	0x3b45ea1b	0.0030199352
32	0xbea527d2	-0.32256943
33	0xbde4295c	-0.11140701
34	0x3e883476	0.26602525
35	0x3e9a4cde	0.3013677
36	0x3e561935	0.20908053
37	0xbd2853b7	-0.04109546
38	0x3cd118a5	0.025524447
39	0x3e1d2b9e	0.1534867
40	0x3d39614e	0.045258813
41	0x3ddb558b	0.107096754
42	0xbbe2bf49	-0.0069197756
43	0xbe24a905	-0.16080101
44	0xbd5bff3b	-0.053710204
45	0xbea8ebe6	-0.32992476
46	0xbe963d7f	-0.29343793
47	0xbe55d67b	-0.20882599
48	0x3e82818d	0.25489464
49	0x3c1d194a	0.009588549
50	0x3dc9abcd	0.098472215
51	0xbe29a155	-0.1656545
52	0xbe085148	-0.13312256
53	0xbc8400bf	-0.016113637
54	0x3ea5ba1d	0.32368556
55	0x3eb0311e	0.34412473
56	0xbcca311e	-0.024681624
57	0xbe29af7f	-0.16570853
58	0xbe840124	-0.2578212
59	0x3e6be133	0.23035125
60	0xbe0183a2	-0.1264787
61	0x3dfa3e81	0.12218953
62	0xbe151040	-0.1455698
63	0x3d1fe70e	0.03903871

edge_emb.weight f4 [64, 2]
0	0xbef2ec1b	-0.4744576
1	0xbf18fbcb	-0.59759206
2	0xbe6dfb00	-0.2324028
3	0xbf0382db	-0.51371545
4	0xbe980080	-0.2968788
5	0x3f31ff6f	0.69530386
6	0x3d2a9d4a	0.04165391
7	0xbeb6d244	-0.35707295
8	0x3ee7e770	0.4529376
9	0xbf13fdd4	-0.57809186
10	0x3ed1c380	0.40969467
11	0x3f20cdc9	0.62814003
12	0xbef7832d	-0.48342267
13	0x3e8e30b9	0.27771547
14	0x3ec36b1c	0.38167655
15	0xbf23ad38	-0.63936186
16	0xbf2940de	-0.66114604
17	0xbef86c69	-0.4852021
18	0xbed5825d	-0.41701022
19	0x3ea5c294	0.32375014
20	0x3ea25470	0.31705046
21	0xbec8a939	-0.39191607
22	0x3f1d8250	0.61526966
23	0xbf34e5ea	-0.7066332
24	0x3ef19dee	0.47190803
25	0x3e430eb4	0.19048578
26	0xbf0fd09d	-0.56177694
27	0x3f289caf	0.6586408
28	0xbf1f1c0c	-0.6215217
29	0x3dd5b514	0.104349285
30	0x3e2614f6	0.16218933
31	0x3e38ed76	0.18059334
32	0xbe7bc3db	-0.24586432
33	0x3f05e280	0.52298737
34	0x3df39596	0.11893766
35	0x3f028880	0.5098953
36	0x3eeeef2e	0.46666855
37	0x3f2992d4	0.66239667
38	0x3e9bb288	0.30409646
39	0xbeb353fb	-0.3502501
40	0x3e910d96	0.28330678
41	0xbe0d107c	-0.1377582
42	0xbec4c0fd	-0.38428488
43	0xbe9e53f5	-0.3092343
44	0x3e4d1d62	0.2003074
45	0xbf08a9ce	-0.533841
46	0xbe84d315	-0.25942293
47	0xbf099585	-0.53743774
48	0xbf2b6f01	-0.66966254
49	0x3f274dca	0.6535307
50	0x3f122793	0.57091635
51	0x3e30d706	0.17269525
52	0xbe484f52	-0.19561508
53	0x3eff8b82	0.49911124
54	0xbef7b3f9	-0.48379496
55	0xbf2c5b6f	-0.67327017
56	0xbf1c3d84	-0.61031365
57	0xbdc7b819	-0.09751911
58	0xbe465b12	-0.19370678
59	0x3f34597e	0.70449054
60	0xbf1661a8	-0.5874276
61	0x3eb0c9d5	0.34528986
62	0x3e2b3d46	0.16722593
63	0x3e338cae	0.17534134
64	0xbf0ddd45	-0.55415756
65	0xbf003ee9	-0.50095993
66	0x3ec6b838	0.38812423
67	0x3e387777	0.18014322
68	0xbf062b21	-0.5240956
69	0xbe9e6275	-0.30934492
70	0x3db0c46f	0.08631217
71	0x3f12b61a	0.57309115
72	0x3ec8f914	0.39252532
73	0x3e1146bc	0.1418714
74	0x3f16cb88	0.58904314
75	0x3daeb455	0.08530489
76	0xbe615ff0	-0.22009254
77	0x3f04bc62	0.5184995
78	0xbe97cbf3	-0.29647788
79	0x3edb7364	0.42861474
80	0x3e714f78	0.23565471
81	0xbc67d77d	-0.0141504975
82	0xbead60a2	-0.33862787
83	0x3f183b7d	0.5946577
84	0x3f012c84	0.5045855
85	0xbed7ec5f	-0.42172524
86	0x3f102859	0.56311566
87	0x3da4e9fa	0.0805244
88	0x3ea1bf4d	0.31591263
89	0xbf06b167	-0.52614444
90	0x3e140b1a	0.1445736
91	0xbdcce60a	-0.10004814
92	0x3f08bd7b	0.53414124
93	0x3e1890fc	0.14899057
94	0x3f31a1a3	0.69387263
95	0x3dd4eae1	0.10396362
96	0x3e3ad722	0.18246129
97	0x3ede3194	0.433972
98	0x3f21806d	0.6308659
99	0xbf008469	-0.5020204
100	0x3e42ca5f	0.19022511
101	0x3f11ce31	0.5695525
102	0x3d263eb3	0.04058714
103	0x3f34494f	0.7042436
104	0xbf24f138	-0.6443057
105	0xbec0f820	-0.37689304
106	0xbf2c8517	-0.6739058
107	0xbeca352b	-0.3949369
108	0xbe037f18	-0.12841451
109	0x3ed301b4	0.41212237
110	0x3e1c6817	0.15274082
111	0x3e8fba25	0.28071705
112	0x3d4ac297	0.04950198
113	0x3dbbd2e6	0.09171085
114	0xbea42c54	-0.3206507
115	0x3e582fb2	0.21111944
116	0xbef9e1d5	-0.4880511
117	0xbeadd659	-0.33952597
118	0xbe409761	-0.18807746
119	0x3f2f2b62	0.6842557
120	0x3f1aa01b	0.6040055
121	0x3e355b90	0.1771071
122	0xbf236c53	-0.63837165
123	0xbec353f3	-0.38149986
124	0x3db8fa0c	0.09032068
125	0x3f1e9772	0.6194984
126	0xbe2a9c3b	-0.1666116
127	0x3f22afdb	0.63549584

edge_emb.bias f4 [64]
0	0xbe220326	-0.15821514
1	0xbf153c73	-0.58295363
2	0x3e428871	0.18997361
3	0x3eae93f4	0.34097254
4	0xbeb8b693	-0.36076793
5	0xbf217965	-0.6307586
6	0xbf2355cf	-0.6380281
7	0xbf19da94	-0.6009915
8	0xbe66e10b	-0.22546785
9	0x3f0f3a7f	0.5594863
10	0xbe1ca313	-0.15296583
11	0xbcccf95a	-0.025021244
12	0x3ecd6e72	0.40123326
13	0x3ef37b34	0.47554934
14	0x3bb8b072	0.0056362683
15	0x3e1e09a3	0.15433364
16	0xbf13e494	-0.5777066
17	0x3e5d0c24	0.21586663
18	0xbe5bdd8e	-0.21471235
19	0xbf27698f	-0.65395445
20	0x3e117824	0.14205986
21	0xbeb65899	-0.3561447
22	0x3ecac6b7	0.39604732
23	0xbea0e149	-0.3142188
24	0xbee9758d	-0.45597497
25	0xbc98e648	-0.018664494
26	0x3d5178a4	0.051140442
27	0xbea38c10	-0.31942797
28	0x3e62e58d	0.22157879
29	0x3d5fcbd8	0.05463776
30	0xbe2d5c74	-0.169298
31	0x3ee75347	0.45180723
32	0xbe7a945e	-0.2447066
33	0x3f16cda1	0.58907515
34	0x3e6794eb	0.22615401
35	0xbea077eb	-0.3134149
36	0x3d8088e2	0.06276108
37	0x3f2c2038	0.6723666
38	0x3ea1f6bb	0.31633553
39	0xbf0bf9f5	-0.5467828
40	0x3eaac495	0.33353105
41	0x3ebbd592	0.3668638
42	0xbe881b68	-0.2658341
43	0xbe845d7e	-0.2585258
44	0xbedb4b7f	-0.42831036
45	0x3ec2ab36	0.3802125
46	0x3f319bac	0.6937816
47	0x3f29445b	0.6611993
48	0x3e78110f	0.24225257
49	0xbf078ae2	-0.52946293
50	0x3e6aa0f3	0.2291296
51	0x3e3bc64b	0.18337362
52	0x3e952a9d	0.29134074
53	0xbf2c7559	-0.6736656
54	0xbe64fddf	-0.22362469
55	0xbf0d8453	-0.55280036
56	0xbf2bd21a	-0.67117465
57	0xbf29ad66	-0.6628021
58	0x3eb839e2	0.3598166
59	0xbf118ff3	-0.56860274
60	0xbf2b6f6a	-0.6696688
61	0xbec4aad3	-0.3841158
62	0x3dddad9f	0.10824131
63	0xbe94ae13	-0.29039058

gat_layers.0.att_src f4 [1, 4, 16]
0	0xbd7ea358	-0.062167495
1	0xbdf4dcc1	-0.11956168
2	0xbcaf71b2	-0.021416519
3	0x3e4fe004	0.20300299
4	0xbebaaf90	-0.3646207
5	0x3e9415b9	0.28922823
6	0xbe41a1e2	-0.1890941
7	0x3da827e6	0.08210735
8	0xbec352b0	-0.38149023
9	0x3ebe0cb9	0.37119082
10	0xbe7bc41f	-0.24586533
11	0x3ee84c8a	0.45370895
12	0x3e90b022	0.2825938
13	0xbea92e99	-0.33043364
14	0xbd0c9a4d	-0.03432684
15	0xbed69bc3	-0.41915712
16	0x3ed20674	0.41020548
17	0xbead65fa	-0.33866864
18	0x3e835517	0.25650856
19	0xbeeb0b18	-0.459069
20	0x3e926ce6	0.28598708
21	0x3d740326	0.059573315
22	0xbe65c07b	-0.22436707
23	0x3e14f7ff	0.14547728
24	0xbecfecaf	-0.40610263
25	0xbe014ccb	-0.1262695
26	0xbefc3b95	-0.49264207
27	0x3e040bec	0.12895173
28	0x3ea2ecf5	0.3182141
29	0xbe8759c0	-0.2643566
30	0x3d8a119b	0.06741639
31	0xbe11d924	-0.14242989
32	0x3e3da269	0.18518986
33	0x3e81a85c	0.2532376
34	0x3ece14ed	0.4025034
35	0xbd94cad0	-0.07265246
36	0x3f0c251e	0.54744136
37	0xbe8540c6	-0.2602598
38	0xbf0244bc	-0.5088613
39	0x3e83b911	0.25727132
40	0x3ea805c0	0.32816887
41	0x3ed8168d	0.42204705
42	0xbe8ab6e1	-0.2709265
43	0xbef4e99c	-0.4783448
44	0x3cbdd631	0.023173423
45	0xbeb4be08	-0.35301232
46	0xbe5247d7	-0.20535217
47	0x3ef79468	0.48355412
48	0x3efc9ef5	0.49340025
49	0xbeb567ed	-0.35430852
50	0xbca69ed5	-0.020339409
51	0x3e900269	0.2812684
52	0xbed6eccf	-0.41977546
53	0xbf01d7bc	-0.5071981
54	0x3eeca9ae	0.46223205
55	0xbe47b8f3	-0.19504146
56	0xbe396725	-0.18105753
57	0xbe02d98b	-0.12778299
58	0x3cb1093a	0.021610845
59	0xbdc5bf90	-0.09655678
60	0xbe9111d3	-0.2833391
61	0x3c46a085	0.012123232
62	0xbe811a12	-0.25215203
63	0xbeea6830	-0.45782614

gat_layers.0.att_dst f4 [1, 4, 16]
0	0x3eea7633	0.45793304
1	0xbe8aa729	-0.27080658
2	0xbdfbded6	-0.12298362
3	0xbeebd1a1	-0.46058372
4	0x3ece44c9	0.40286854
5	0xbe8b97d2	-0.27264267
6	0x3ea0be67	0.31395265
7	0x3dd41fb0	0.103576064
8	0xbe8c197c	-0.27363193
9	0xbeea2722	-0.4573298
10	0x3f018201	0.50588995
11	0xbec95c19	-0.39328077
12	0xbd891dbf	-0.06695127
13	0x3ea11144	0.31458485
14	0x3efe8bbd	0.49715987
15	0x3ee887cb	0.45416102
16	0xbeb5a0bd	-0.35474196
17	0x3e2f2066	0.17102203
18	0x3ee20cf2	0.441505
19	0x3d5fb95c	0.05462013
20	0xbef8526e	-0.4850039
21	0x3ee62af4	0.44954646
22	0x3e78e2f7	0.2430533
23	0x3ea9199b	0.33027348
24	0xbd95a71c	-0.07307264
25	0x3e42f46b	0.1903855
26	0xbdcaa09e	-0.098939165
27	0xbe5ee74b	-0.21767919
28	0x3e92d9a5	0.28681675
29	0x3e917bd0	0.28414774
30	0xbe8104da	-0.25199014
31	0x3ed33a3a	0.4125536
32	0x3e45f085	0.19330032
33	0xbe88ecba	-0.26743108
34	0xbd21617f	-0.03939962
35	0x3e911cb0	0.283422
36	0x3e97a842	0.29620558
37	0x3e989e22	0.29808146
38	0xbea62bd5	-0.32455316
39	0xbe2cd485	-0.16877945
40	0x3e86d915	0.26337495
41	0x3cf616a7	0.030040098
42	0x3f0632ac	0.5242107
43	0x3ece231d	0.40261164
44	0xbe6a3d61	-0.22874977
45	0x3e1ee3b8	0.15516555
46	0x3e808db6	0.25108117
47	0xbf02480d	-0.5089119
48	0x3ecb8d7f	0.3975639
49	0xbc9a97f0	-0.018871278
50	0x3ebac5fd	0.36479178
51	0xbed46564	-0.41483605
52	0xbeafc702	-0.34331518
53	0x3eba8f5e	0.36437505
54	0x3dad9cbc	0.0847716
55	0x3eecd76e	0.4625811
56	0x3daf947f	0.08573245
57	0x3e375a00	0.17905426
58	0xbef6768f	-0.48137328
59	0xbd012abb	-0.03153489
60	0xbeddcb9a	-0.43319398
61	0xbea2a38b	-0.31765398
62	0x3ef0670f	0.46953627
63	0x3ee41c23	0.44552717

gat_layers.0.att_edge f4 [1, 4, 16]
0	0x3e903351	0.2816415
1	0xbda3f7e1	-0.080062635
2	0xbeeed6e5	-0.46648327
3	0x3c873f92	0.016509805
4	0x3eb2cf3c	0.34923732
5	0x3f0233bc	0.5086019
6	0x3ca2f206	0.019890796
7	0x3eb43073	0.35193214
8	0xbe7e8e14	-0.24858886
9	0xbe4b834d	-0.19874306
10	0x3e9d4ee9	0.30724266
11	0x3f031c56	0.5121511
12	0x3ee72926	0.4514858
13	0x3ef3e9a8	0.47639203
14	0x3e4cfc11	0.2001803
15	0x3e7e55ae	0.24837372
16	0xbd8791ac	-0.066195816
17	0x3edc32b2	0.43007427
18	0x3ef3287f	0.47491834
19	0xbec6559b	-0.38737187
20	0xbe4da3db	-0.20082037
21	0xbecc773d	-0.39934722
22	0x3eb2b697	0.3490493
23	0x3e43f9f3	0.19138317
24	0xbecec978	-0.40388083
25	0x3e5a4b32	0.21317747
26	0xbee66e4e	-0.4500603
27	0xbd36128e	-0.04445129
28	0x3ea1ab76	0.31576127
29	0xbeb3c51a	-0.35111314
30	0x3cd1cf62	0.025611583
31	0xbe5c2383	-0.21497922
32	0xbee95760	-0.45574474
33	0x3e963c50	0.2934289
34	0xbe9cd288	-0.30629373
35	0xbec0fbc4	-0.37692082
36	0x3ec70664	0.38872063
37	0x3e196cc8	0.14982903
38	0x3f054b8d	0.52068406
39	0xbeec4ff6	-0.46154755
40	0xbd3e3093	-0.046433043
41	0xbe9d5536	-0.30729073
42	0x3e0dec10	0.13859582
43	0x3d9a7b07	0.07542997
44	0x3e9c50e1	0.30530456
45	0xbb911fd2	-0.004428842
46	0xbe7d8ffb	-0.24761955
47	0x3f0a2dd3	0.5397617
48	0xbeb92eb3	-0.3616844
49	0xbe99f79a	-0.30071718
50	0x3e81d103	0.25354776
51	0xbec643e2	-0.38723665
52	0x3d023e04	0.031797424
53	0xbf0545ee	-0.5205983
54	0x3e95c7f3	0.29254112
55	0xbee1ca8b	-0.4409984
56	0x3e4abea1	0.19799282
57	0xbef1f7ce	-0.47259372
58	0x3cac05e7	0.020998908
59	0xbe54069b	-0.20705645
60	0x3ed27c3c	0.41110408
61	0x3ebf6101	0.37378696
62	0xbf0793a5	-0.5295966
63	0xbeb1c5b6	-0.34721154

gat_layers.0.bias f4 [64]
0	0xbbbf3e48	-0.005836282
1	0xbbc0da87	-0.0058854255
2	0x3c4e6682	0.012597682
3	0xbbbf6944	-0.005841406
4	0xbbc0b045	-0.005880388
5	0xbbe8fccd	-0.0071102143
6	0xbbb9c317	-0.0056690085
7	0x3c32ea09	0.010920056
8	0xbbc32603	-0.005955459
9	0xbbbfa6bf	-0.005848735
10	0x3b9ee17d	0.0048486576
11	0x3c1c6ae6	0.009546971
12	0xbbbeb285	-0.005819621
13	0xbbc04c2b	-0.005868455
14	0xbbb51985	-0.005526724
15	0xbbbfec5a	-0.0058570327
16	0xbbc0aafb	-0.0058797575
17	0xbbc1ebcd	-0.005918002
18	0xbbbfc7c1	-0.00585267
19	0xbbc18b0e	-0.005906469
20	0xbbc2d450	-0.00594572
21	0x3c79105f	0.015201657
22	0xbbbf16b9	-0.005831566
23	0xbbc1db28	-0.005916018
24	0x3b3b0a3b	0.0028540033
25	0xbbbf9c83	-0.005847515
26	0x3c2a2b3b	0.0103862835
27	0xbbc0522f	-0.005869172
28	0xbbbfb81a	-0.005850804
29	0xbbc14a81	-0.005898774
30	0x3c035b66	0.008017397
31	0xbbc0ea1f	-0.0058872844
32	0xbbbfe921	-0.0058566486
33	0xbbb4c448	-0.0055165626
34	0xbbf2248f	-0.007389612
35	0xbacc3510	-0.0015579779
36	0xbbc084e6	-0.0058752177
37	0xbbbf7ca2	-0.005843715
38	0xbbbe497b	-0.0058070994
39	0xbbc064b5	-0.00587138
40	0xba28d5f3	-0.00064405723
41	0xbbbea001	-0.005817414
42	0xbbb377f8	-0.005476948
43	0xbbdf462f	-0.0068137865
44	0xbbbc2e61	-0.0057428335
45	0xbbbf9170	-0.005846195
46	0xbbc07c77	-0.0058742124
47	0xbbbec6da	-0.005822045
48	0x3c49a726	0.012307918
49	0x3b1bba1d	0.0023762055
50	0xbbe34d1f	-0.006936684
51	0xbbba6ef4	-0.005689496
52	0xbbc60727	-0.006043333
53	0xbbca7480	-0.0061784387
54	0xbbbf29b5	-0.0058338293
55	0xbab9eb25	-0.0014184458
56	0xbbd34d6c	-0.0064484384
57	0x3bf5238f	0.0074810456
58	0xbbc041f5	-0.0058672377
59	0xbbb6fd73	-0.0055844127
60	0xbbbcb072	-0.0057583386
61	0xbbbfba09	-0.0058510345
62	0x3c1c9407	0.009556777
63	0x3afba60b	0.0019199265

gat_layers.0.lin.weight f4 [64, 64]
0	0x3dbf09ff	0.093280785
1	0x3e37003b	0.17871182
2	0x3e571a1c	0.21006054
3	0x3dd97bf3	0.106193446
4	0xbd469bab	-0.0484883
5	0x3e3a9877	0.18222223
6	0x3df55a44	0.119801074
7	0x3df97add	0.121816374
8	0x3c8d60da	0.017258096
9	0xbe4a04b3	-0.19728355
10	0xbe44ba31	-0.19211651
11	0x3be27c69	0.0069118035
12	0x3d88e430	0.06684148
13	0xbe2f74b9	-0.1713437
14	0xbe04156b	-0.12898795
15	0xbe408a4e	-0.18802759
16	0x3e34c1a8	0.17651999
17	0x3d8e0a4c	0.06935558
18	0xbe2e0336	-0.16993412
19	0xbe0207ae	-0.12698242
20	0xbe08075e	-0.1328406
21	0xbd7ad363	-0.06123675
22	0x3e14804e	0.1450207
23	0xbdb362cb	-0.08759078
24	0x3e1ebc7f	0.15501593
25	0x3dbeb0d6	0.093110725
26	0x3e3003dd	0.17188974
27	0x3c3927a6	0.011300957
28	0xbddb1030	-0.10696447
29	0x3e4086bc	0.18801397
30	0x3db72c07	0.089439444
31	0xbdd09647	-0.10184913
32	0xbe0b9c78	-0.13633907
33	0xbd7cef00	-0.061751366
34	0xbcb28030	-0.02178964
35	0xbe4cbae0	-0.19993162
36	0xbdf4543d	-0.1193013
37	0x3e355e6d	0.17711802
38	0x3e62f848	0.22165024
39	0xbe3c3f9e	-0.18383643
40	0xbdd082a6	-0.10181169
41	0x3cb6a036	0.022293191
42	0xbe3348c0	-0.1750822
43	0xbdf312e9	-0.11868841
44	0x3defc81c	0.1170809
45	0x3e5e1a43	0.21689706
46	0xbe4323d2	-0.19056633
47	0x3de8e856	0.113724396
48	0xbe3fa752	-0.18716171
49	0xbda44e98	-0.08022803
50	0x3e32563d	0.1741571
51	0xbdeaabe1	-0.114585645
52	0x3d63490a	0.055489577
53	0x3e4bf7da	0.19918767
54	0xbe3e95fe	-0.18611905
55	0x3d169cf7	0.036770787
56	0xbd5eb1a6	-0.054368638
57	0x3e3ffed2	0.1874955
58	0xbd9ddb89	-0.07707889
59	0xbcd02675	-0.025408963
60	0xbc81a2bc	-0.015824668
61	0xbdda20c1	-0.106507786
62	0xbe0eb403	-0.13935857
63	0xbd946f25	-0.07247762
64	0x3b09ea60	0.002104424
65	0xbd85241e	-0.065010294
66	0xbe69fb7c	-0.2284984
67	0x3d900d34	0.07033768
68	0x3d8a79f6	0.067615435
69	0x3df4925f	0.119419806
70	0xbdbafbbd	-0.091300465
71	0xbdebc8b4	-0.115128905
72	0x3e429cc7	0.19005118
73	0x3d0ef809	0.034904514
74	0xbe3e90e1	-0.18609954
75	0x3e1fe2ea	0.15613905
76	0x3c53d215	0.012928505
77	0xbcd2518a	-0.025673646
78	0x3e434fb8	0.19073379
79	0xbe48f212	-0.19623592
80	0x3daf405c	0.085571975
81	0x3e2a70ed	0.1664464
82	0xbdb1788e	-0.08665572
83	0x3e14c060	0.1452651
84	0xbe189e5c	-0.1490416
85	0xbe1dc5bc	-0.15407461
86	0x3d100153	0.035157513
87	0xbe353010	-0.17694116
88	0xbdbb08d9	-0.09132547
89	0xbc9a8a0e	-0.018864658
90	0x3e1c7a26	0.15280971
91	0x3e556548	0.20839417
92	0x3da2867c	0.07935807
93	0xbd13e276	-0.03610464
94	0xbd3de2e0	-0.046358943
95	0x3e383f2c	0.17992848
96	0x3d12dc02	0.035854347
97	0xbd9710b9	-0.073762365
98	0xbe4b1564	-0.19832379
99	0xbc0d372c	-0.008619111
100	0xbd11e4e1	-0.035618667
101	0x3ca6c4f4	0.020357586
102	0xbd8c9bc9	-0.06865651
103	0x3e181a54	0.14853793
104	0xbd6252bb	-0.05525468
105	0x3e208998	0.15677488
106	0xbe178864	-0.14798123
107	0x3d0b7315	0.034045298
108	0x3d9670f7	0.07345765
109	0x3e34d7c7	0.17660438
110	0x3dff607b	0.12469574
111	0x3e3d2dda	0.18474522
112	0x3d76fa27	0.060297158
113	0xbe3ca228	-0.18421233
114	0xbdb19171	-0.08670319
115	0xbe2512f6	-0.16120514
116	0x3dec5511	0.11539663
117	0x3cd8533b	0.026406875
118	0xbe4d2908	-0.20035183
119	0xbde6789c	-0.11253473
120	0x3e10151d	0.14070554
121	0xbcbcc721	-0.02304417
122	0xbe127ec2	-0.14306167
123	0x3e04a652	0.12954071
124	0x3e24e317	0.16102253
125	0xbdb3ddfa	-0.08782573
126	0xbcdad4ea	-0.026712853
127	0x3e3873da	0.18012944
128	0x3d1edb15	0.03878315
129	0x3d46f393	0.048572134
130	0x3d75a0ff	0.05996799
131	0xbde6a245	-0.11261419
132	0xbdaf98d9	-0.08574075
133	0x3d96cac7	0.073628955
134	0x3e42f5c5	0.19039066
135	0xbdc23225	-0.094822206
136	0xbdd8c004	-0.10583499
137	0x3d40bb8d	0.047053862
138	0x3de8c09c	0.11364862
139	0x3d25eefb	0.040511113
140	0x3e2c9577	0.16853891
141	0x3da4eecd	0.0805336
142	0x3e4cca24	0.19998986
143	0xbddf6e1d	-0.10909674
144	0xbda3f8e7	-0.08006459
145	0xbe2cbda6	-0.1686922
146	0xbd88102e	-0.06643711
147	0xbd8efe55	-0.06982104
148	0x3d1b4569	0.03790799
149	0x3df72755	0.12068049
150	0xbe2d74f8	-0.16939151
151	0x3ce5e39e	0.028062638
152	0xbe16c59c	-0.1472382
153	0x3d8c8a5a	0.06862326
154	0x3dc752b4	0.09732571
155	0xbd375d3c	-0.04476665
156	0xbd97a875	-0.074051775
157	0xbde04415	-0.109504856
158	0xbe0816a0	-0.13289881
159	0x3dc06456	0.093941376
160	0x3e278714	0.16360122
161	0xbc0e0785	-0.008668785
162	0xbd980bf2	-0.074241534
163	0xbe01209f	-0.126101
164	0x3e4606c9	0.19338526
165	0x3d9d683d	0.076858975
166	0xbe462afb	-0.19352333
167	0x3e36db7e	0.17857167
168	0x3c85191d	0.016247327
169	0x3e0fa9cd	0.14029618
170	0xbb33208d	-0.0027332634
171	0x3e2e176c	0.17001122
172	0xbd798917	-0.060921755
173	0xbd2c9ae9	-0.04213992
174	0x3ca278f6	0.01983307
175	0x3c885c1c	0.016645484
176	0xbe592f36	-0.21209416
177	0xbd0e1344	-0.034686342
178	0x3e24a6dd	0.16079278
179	0xbe311615	-0.1729358
180	0xbe60ed86	-0.21965608
181	0x3e521b68	0.20518267
182	0x3e0f05a4	0.13966995
183	0xbdb1fe25	-0.08691052
184	0xbdc8ba43	-0.098011516
185	0xbe0da81a	-0.13833657
186	0x3e1e88e3	0.15481906
187	0xbe3c718e	-0.18402693
188	0x3dd68d27	0.104761414
189	0xbd084f0a	-0.033278503
190	0x3d0528b4	0.03250952
191	0xbe412d22	-0.18864873
192	0xbe2f6545	-0.17128475
193	0xbdfbb581	-0.122904785
194	0x3d341263	0.043962847
195	0x3e091e15	0.13390382
196	0x3e140a99	0.14457168
197	0xbd059148	-0.032609254
198	0xbdfeecd8	-0.12447518
199	0xbc23fb90	-0.010008708
200	0x3d9812df	0.074254744
201	0x3e413602	0.18868259
202	0x3cf9167c	0.03040623
203	0xbe1db7d0	-0.1540215
204	0xbd2d8137	-0.042359557
205	0xbd8c9e12	-0.06866087
206	0xbdc20cd3	-0.09475102
207	0xbdbb360d	-0.09141169
208	0xbd3d3e2a	-0.046201862
209	0xbe37e80d	-0.17959614
210	0x3dc5c6ef	0.09657084
211	0x3e0f1edd	0.13976617
212	0x3dc5dfd9	0.09661836
213	0x3d35d50b	0.044392627
214	0xbe291ab1	-0.16514088
215	0x3e0aa4f3	0.13539486
216	0x3e0c4308	0.13697445
217	0xbd7adeff	-0.061247822
218	0x3e46c77f	0.19412039
219	0x3d8009c7	0.06251865
220	0xbe41a056	-0.1890882
221	0x3de31bb3	0.110892676
222	0x3d2c906d	0.042129923
223	0x3b811df7	0.0039403397
224	0xbda78746	-0.08180098
225	0xbc42e3e7	-0.011895156
226	0xbd1452d2	-0.036211796
227	0x3e18bc86	0.14915666
228	0x3ded8f7e	0.115996346
229	0xbd11bec4	-0.03558232
230	0xbcbd8e3f	-0.023139117
231	0xbddbcd7e	-0.10732554
232	0xbd77d06d	-0.060501505
233	0xbb2ef211	-0.0026694576
234	0x3c05dd2b	0.008170406
235	0x3e5d3be6	0.2160488
236	0x3dd81e4f	0.10552656
237	0xbe3afb31	-0.18259884
238	0x3e00fbbb	0.12596028
239	0xbdfa65d2	-0.12226452
240	0xbdf2392b	-0.1182731
241	0xbd321329	-0.043475304
242	0xbdef59b8	-0.11687034
243	0x3d3e45b4	0.046453193
244	0x3d0a7a9a	0.03380833
245	0x3e359b2e	0.17734978
246	0xbe05bcae	-0.13060257
247	0x3e09eb0e	0.13468572
248	0xbe3a8c8e	-0.1821768
249	0x3e085566	0.13313827
250	0x3e1d5303	0.15363698
251	0xbe0b14af	-0.13582109
252	0xbe2f2415	-0.17103608
253	0x3e275584	0.16341215
254	0x3e0c86e4	0.13723332
255	0xbe33db99	-0.17564239

gat_layers.0.lin_edge.weight f4 [64, 64]
0	0xbe5c9909	-0.21542753
1	0xb90f8631	-0.00013687533
2	0xbdc858d4	-0.097825676
3	0x3d3fc619	0.04681978
4	0x3de66415	0.11249558
5	0xbe1383b3	-0.14405708
6	0x3d35d1cb	0.044389527
7	0x3d7b278a	0.061317004
8	0xbdd06d3a	-0.10177083
9	0x3d776224	0.06039633
10	0xbe27fd4b	-0.16405217
11	0xbd72f37b	-0.059314232
12	0x3c17f256	0.009274086
13	0xbe4508f5	-0.19241698
14	0x3dc92110	0.09820759
15	0xbd73558b	-0.059407752
16	0xbe206443	-0.15663247
17	0xbe56c110	-0.20972085
18	0xbe07a080	-0.1324482
19	0x3d15bc81	0.036556724
20	0xbe0501b7	-0.12988935
21	0x3e135c61	0.14390709
22	0xbdf86337	-0.12128299
23	0x3dc0095e	0.09376787
24	0x3d8e1629	0.069378205
25	0x3e5adcd4	0.21373302
26	0xbe5463e4	-0.2074123
27	0xbb0ea334	-0.0021764757
28	0x3e3d59ef	0.18491338
29	0x3c958e50	0.018256336
30	0xbe1151a8	-0.14191306
31	0xbe5aa542	-0.21352103
32	0x3d9efbd7	0.077628784
33	0xbc96027e	-0.018311735
34	0x3e0fb47d	0.14033695
35	0xbdd5afc1	-0.10433913
36	0x3ddade05	0.10686878
37	0xbdb11d71	-0.08648194
38	0xba5b543c	-0.0008366739
39	0xb9ff1424	-0.00048652396
40	0xbe4a006d	-0.19726725
41	0xbe0852e0	-0.13312864
42	0xbdfd14bb	-0.1235747
43	0xbe34974e	-0.17635843
44	0xbd5bd87e	-0.05367326
45	0x3da436d1	0.08018268
46	0xbd1a601b	-0.03768931
47	0x3ddb11ea	0.10696776
48	0xbe09c333	-0.13453369
49	0x3d7903db	0.060794692
50	0xbe29e267	-0.16590272
51	0x3e32ea46	0.1747218
52	0xbe0d896e	-0.13821957
53	0xbceed9fb	-0.029156676
54	0xbddf3828	-0.10899383
55	0xbe5af8b3	-0.21383934
56	0x3e4edcdf	0.20201443
57	0x3da1d9cd	0.0790287
58	0xbd8dfab2	-0.06932582
59	0x3d298c73	0.04139371
60	0x3e3ec863	0.18631129
61	0xbe29dc30	-0.16587901
62	0xbd800c40	-0.062523365
63	0xbdf50e56	-0.11965625
64	0x3da73235	0.08163873
65	0xbe300266	-0.17188415
66	0xbcfb7074	-0.03069327
67	0xbe4826f8	-0.19546115
68	0x3e24aa09	0.16080488
69	0x3b684b5e	0.0035445313
70	0x3e3e303c	0.18573087
71	0x3c7006ae	0.01465003
72	0x3e3640e0	0.17798185
73	0xbd7043d2	-0.05865843
74	0x3db1ad0f	0.086755864
75	0x3c079e40	0.008277476
76	0xbe0069b6	-0.12540326
77	0x3e1722ad	0.14759322
78	0xbc4b86de	-0.012422292
79	0x3ca47b7e	0.020078417
80	0xbe12ea05	-0.14347084
81	0x3c974bc5	0.018468747
82	0xbe409cb5	-0.18809779
83	0x3d47c91b	0.048775773
84	0xbe015052	-0.12628296
85	0xbe5526c1	-0.20815565
86	0xbe08962f	-0.1333854
87	0x3e25a355	0.16175587
88	0x3e3b0e38	0.18267143
89	0x3e232cf2	0.15935114
90	0xbd430390	-0.04761082
91	0x3d0f3460	0.034962058
92	0x3e1aadfa	0.1510543
93	0x3d90ff18	0.07079905
94	0xbe3d2f4e	-0.18475077
95	0x3dec26e3	0.115308546
96	0xbd967976	-0.073473856
97	0xbe3a4ebf	-0.18194102
98	0x3de0feeb	0.10986122
99	0xbdb9ea36	-0.09077875
100	0x3d5df5f9	0.054189656
101	0xbdf01c07	-0.11724096
102	0x3d8b5ded	0.06805024
103	0x3cd30423	0.025758808
104	0xbdeb6a45	-0.11494879
105	0xbe351c7e	-0.1768665
106	0x3d89d468	0.067299664
107	0xbd6407f5	-0.05567165
108	0x3e348d9e	0.17632148
109	0x3d7fa11e	0.062409513
110	0x3e392d2d	0.1808364
111	0xbdaf6a6f	-0.085652225
112	0x3d900119	0.07031459
113	0x3e173488	0.14766133
114	0x3d6c581b	0.05770121
115	0xbe10b6be	-0.1413221
116	0x3e07d9cf	0.13266681
117	0x3dc4099b	0.095721446
118	0xbe54bea1	-0.20775844
119	0xbb1e1574	-0.0024121674
120	0x3db75402	0.0895157
121	0xbe2f252c	-0.17104024
122	0x3d2fc18a	0.042909183
123	0xbe320384	-0.17384154
124	0xbe26e536	-0.16298375
125	0x3da0b425	0.0784686
126	0x3e085a85	0.1331578
127	0x3dbfcd77	0.09365361
128	0xbe555fe0	-0.20837355
129	0xbd78dfd2	-0.060760327
130	0xbe3a1153	-0.18170671
131	0xbe3366e6	-0.17519721
132	0xbe3b81b8	-0.18311203
133	0xbd8f5aa1	-0.06999708
134	0xbde81aff	-0.11333274
135	0xbd0fac3e	-0.035076372
136	0xbd7b94dc	-0.06142126
137	0xbe26c580	-0.16286278
138	0x3e2de3ae	0.16981384
139	0xbc5872ed	-0.013210994
140	0xbe02e722	-0.12783483
141	0xbe018f4b	-0.12652318
142	0x3ccfbdc4	0.025359042
143	0x3e5534e7	0.20820962
144	0xbe388171	-0.18018128
145	0xbe1188be	-0.14212319
146	0xbdd5cc25	-0.10439328
147	0x3d44dd0a	0.04806236
148	0x3d51ff66	0.051268958
149	0x3d2d28b2	0.04227514
150	0x3c3d6be0	0.011561364
151	0xbd4ca771	-0.049964372
152	0x3e541b1d	0.20713468
153	0xbe399e15	-0.1812671
154	0x3dc1529f	0.09439587
155	0xbe10c7b6	-0.14138684
156	0xbd764c1e	-0.060131185
157	0x3e1744d9	0.14772357
158	0xbe56c05c	-0.20971817
159	0x3bda2e88	0.006658379
160	0xbe1dc84f	-0.15408443
161	0xbdb24530	-0.08704603
162	0x3d3fd5e5	0.046834845
163	0xbe33ab64	-0.17545849
164	0xba4d954a	-0.0007842375
165	0x3e4ef4a3	0.20210509
166	0xbe186368	-0.1488167
167	0x3df5b10c	0.1199666
168	0x3db0a8ab	0.08625921
169	0xbe12fc84	-0.1435414
170	0xbc03d041	-0.008045257
171	0xbdb793e9	-0.089637585
172	0x3af8242a	0.0018931676
173	0xbdefd48e	-0.117104635
174	0x3e4f2c4a	0.20231739
175	0xbe153837	-0.14572226
176	0x3dd35c71	0.10320366
177	0x3d77b77b	0.060477715
178	0x3dd77465	0.10520247
179	0xbdced31e	-0.10098861
180	0xbdbeb6ba	-0.09312196
181	0xbd75fb93	-0.060054373
182	0x3d88a425	0.06671933
183	0x3e2ee399	0.17079009
184	0xbdda09b0	-0.10646379
185	0xbe47e2aa	-0.19520059
186	0x3c68a123	0.014198574
187	0xbda38913	-0.07985129
188	0xbb62927c	-0.0034572175
189	0x3b84fd2c	0.0040585008
190	0xbd68f1de	-0.056871288
191	0xbc6d25d6	-0.014474353
192	0x3d0aa32f	0.03384703
193	0x3ddf8994	0.10914913
194	0xbda97446	-0.082741305
195	0xbe2f30e8	-0.171085
196	0x3e38ef3c	0.1806001
197	0xbdc5a0dd	-0.09649823
198	0xbdaf424e	-0.085575685
199	0xbdbf3a8f	-0.09337341
200	0xbe262d04	-0.1622811
201	0xbc656434	-0.014000941
202	0xbe4db0a2	-0.20086911
203	0xbe351333	-0.17683105
204	0x3c8063ca	0.015672583
205	0xbe37bb00	-0.17942429
206	0xbc030d83	-0.007998827
207	0x3df7003d	0.12060592
208	0x3c94da2e	0.018170442
209	0x3dcc1302	0.09964563
210	0x3e039149	0.1284839
211	0xbe06a07f	-0.13147162
212	0x3da8d7c9	0.08244283
213	0xbc8b73b6	-0.017022949
214	0xbd856d72	-0.06515016
215	0x3e13d2ef	0.14435934
216	0xbb12c526	-0.0022395342
217	0xbe31ae69	-0.17351688
218	0x3dda9be2	0.106742635
219	0xbb8bec39	-0.0042701033
220	0xbd81b1d0	-0.06332743
221	0xbe13d9d2	-0.1443856
222	0x3cf397a4	0.029735394
223	0x3c19831b	0.009369637
224	0x3d9eb331	0.07749022
225	0x3e5c1ff8	0.2149657
226	0x3d19df71	0.037566606
227	0xbd838a38	-0.064228475
228	0x3e3d100e	0.18463156
229	0xbe555134	-0.20831758
230	0xbd9f1284	-0.077672035
231	0xbdb1f3be	-0.08689068
232	0xbe1740d0	-0.14770818
233	0x3d7cf1cc	0.061754033
234	0xbe113ce8	-0.1418339
235	0x3d95a628	0.073070824
236	0xbdc74cb9	-0.097314306
237	0x3e189702	0.14901355
238	0x3da36fd4	0.07980314
239	0x3de287be	0.11061047
240	0xbdc39ead	-0.095517494
241	0xbd677839	-0.056511138
242	0x3e0519f7	0.12998186
243	0xbd328ca9	-0.043591175
244	0xbdeb8064	-0.11499098
245	0xbdec44e2	-0.11536576
246	0xbaf44513	-0.0018636308
247	0x3e1cba32	0.15305403
248	0xbd7992f5	-0.060931165
249	0xbe1a9917	-0.15097462
250	0xbe071fa9	-0.13195671
251	0xbc54015c	-0.012939777
252	0x3e42f986	0.19040498
253	0x3d3924a5	0.045200963
254	0xbd626841	-0.055275206
255	0x3de5edc9	0.112269945

gat_layers.1.att_src f4 [1, 4, 16]
0	0xbda0c669	-0.07850344
1	0xbecbf914	-0.3983847
2	0xbe813366	-0.25234526
3	0x3ed1fbe8	0.41012502
4	0xbd8ee33c	-0.06976935
5	0xbe63478a	-0.22195259
6	0xbee7787a	-0.45209104
7	0xbe7228c9	-0.23648371
8	0xbeb2680c	-0.34845006
9	0x3ba063b8	0.0048947
10	0xbeaa86a0	-0.33305836
11	0xbea2f827	-0.3182995
12	0x3f05bf14	0.5224469
13	0xbc866263	-0.016404336
14	0x3c909d28	0.017653063
15	0xbec580a9	-0.38574722
16	0x3d79e9bf	0.061013933
17	0x3e631053	0.22174196
18	0x3e6f9707	0.23397456
19	0x3e020d13	0.127003
20	0xbeb5d623	-0.35514936
21	0x3e6d6d8b	0.23186319
22	0xbe7ef131	-0.24896695
23	0xbeb60edf	-0.3555822
24	0x3eb95167	0.36194918
25	0x3cefb4a0	0.029260933
26	0xbec67e95	-0.3876845
27	0x3e1450c3	0.14483933
28	0xbf0286ba	-0.50986826
29	0x3e9b00bd	0.30274
30	0xbe3352c0	-0.17512035
31	0xbda47252	-0.08029617
32	0x3ee84cef	0.45371196
33	0xbe345450	-0.17610288
34	0xbeb73921	-0.35785773
35	0xbe310a77	-0.17289148
36	0x3eece46f	0.4626803
37	0x3db26003	0.08709719
38	0x3efeda1b	0.49775776
39	0xbea1303f	-0.3148212
40	0xbdbfb092	-0.0935985
41	0x3ed042fa	0.406761
42	0xbefdb3ed	-0.49551335
43	0xbe8bfc13	-0.27340755
44	0x3e1e889a	0.15481797
45	0xbe52f592	-0.2060149
46	0xbe53adf6	-0.2067183
47	0xbe38ae8c	-0.18035334
48	0xbd961f17	-0.07330149
49	0xbc91a1be	-0.01777732
50	0xbeb5b15b	-0.35486874
51	0xbe38923d	-0.18024535
52	0x3e38a43b	0.18031399
53	0x3dc18527	0.09449225
54	0xbe879d9a	-0.26487428
55	0x3e737989	0.2377683
56	0xbea5794c	-0.32319105
57	0x3d224cde	0.039624088
58	0x3ebee617	0.3728492
59	0xbe73c2ce	-0.23804781
60	0xbf00fe24	-0.5038779
61	0x3ef18b37	0.47176525
62	0x3f09267e	0.5357436
63	0xbeda1754	-0.42595923

gat_layers.1.att_dst f4 [1, 4, 16]
0	0x3e8d1e6d	0.27562276
1	0xbee48215	-0.44630495
2	0xbed1159a	-0.40836793
3	0xbe72dfc6	-0.23718175
4	0x3c41e076	0.011833301
5	0x3e99b3da	0.30020028
6	0x3ed0e014	0.40795958
7	0x3f0521f0	0.5200491
8	0xbe4a3a52	-0.1974881
9	0xbe07207b	-0.13195984
10	0xbe9aaebe	-0.30211443
11	0xbec685b7	-0.3877389
12	0xbef12fc8	-0.47106767
13	0x3ed4bfb0	0.41552496
14	0xbe46c907	-0.19412623
15	0xbecfda05	-0.40596023
16	0x3df15f60	0.117857695
17	0xbea206ac	-0.31645715
18	0xbe3ddc70	-0.18541121
19	0x3efe4a94	0.49666274
20	0xbd8429bd	-0.064532734
21	0xbdca5852	-0.09880127
22	0xbb7d22b9	-0.0038625433
23	0xbebf6bd9	-0.3738697
24	0xbeb5be2d	-0.35496655
25	0xbeae4ff4	-0.34045374
26	0x3ea1f2dd	0.31630602
27	0x3da1126c	0.07864842
28	0xbea65a74	-0.32490885
29	0x3ea7580f	0.3268437
30	0x3ac38a19	0.0014918476
31	0xbbe392cd	-0.0069449903
32	0x3ebd2c5e	0.36947912
33	0x3db48772	0.08814897
34	0x3ead2b8c	0.33822286
35	0xbdf73fb6	-0.12072699
36	0xbedbf855	-0.429629
37	0x3dfee765	0.12446479
38	0xbeaa2df8	-0.33238196
39	0xbe76ce3a	-0.24102107
40	0xbcdcab5b	-0.026937177
41	0x3da917ad	0.08256469
42	0xbe262879	-0.16226377
43	0x3de3518f	0.110995404
44	0x3e96542b	0.2936109
45	0xbee02847	-0.4378073
46	0xbebce572	-0.36893803
47	0xbef70188	-0.48243356
48	0xbea59f6e	-0.32348198
49	0x3e93ad37	0.2884309
50	0xbef02d8c	-0.4690975
51	0x3e25791a	0.16159478
52	0x3e85b5ca	0.26115257
53	0x3ef6ca8c	0.48201406
54	0x3e89555f	0.26822945
55	0xbde3971b	-0.111128055
56	0xbdb6d623	-0.08927562
57	0x3e418297	0.18897472
58	0xbe19fd53	-0.15038042
59	0xbed33286	-0.41249484
60	0x3dab2b6f	0.08357894
61	0xbe5c285e	-0.21499774
62	0xbe6658cf	-0.22494815
63	0x3ee96377	0.45583698

gat_layers.1.att_edge f4 [1, 4, 16]
0	0xbf09e8b4	-0.538707
1	0x3dc9e08d	0.09857283
2	0x3f050b68	0.5197053
3	0xbda6ae8b	-0.0813876
4	0x3cf803b3	0.030275201
5	0xbebedd90	-0.37278414
6	0xbe758c32	-0.23979262
7	0xbdb1399a	-0.08653565
8	0x3f0924ad	0.5357159
9	0x3f08189c	0.5316255
10	0x3e9260d0	0.28589487
11	0x3e221665	0.15828855
12	0xbe63a0f8	-0.22229373
13	0xbe66a0e8	-0.22522318
14	0xbb26f5a0	-0.0025475994
15	0x3e9c3f00	0.30516815
16	0x3ee8869a	0.45415193
17	0xbd8e623b	-0.0695233
18	0x3f028de6	0.5099777
19	0xbe9d2f7c	-0.3070029
20	0x3f0c61b9	0.5483661
21	0xbeb909e4	-0.36140358
22	0xbee4610f	-0.446053
23	0x3e8759f6	0.26435822
24	0x3e86feeb	0.26366362
25	0xbeb29340	-0.34877968
26	0xbef966c6	-0.48711222
27	0xbe1f2854	-0.15542728
28	0xbef212d9	-0.47280005
29	0xbecc7245	-0.3993093
30	0x3ebe9e6c	0.3723024
31	0xbdaa231c	-0.08307478
32	0x3db95584	0.09049514
33	0xbce19d7b	-0.027540913
34	0x3f04ae5b	0.51828545
35	0xbe1c2b56	-0.15250906
36	0xbe7cfef0	-0.24706626
37	0x3f052abd	0.5201834
38	0x3ede4f4a	0.43419868
39	0xbdb3a599	-0.087718196
40	0x3e82c913	0.25544032
41	0x3d85c66e	0.06531988
42	0xbea642d8	-0.32472873
43	0xbd9587f0	-0.07301319
44	0x3d1ca38c	0.038241908
45	0x3de6d514	0.1127111
46	0x3de44362	0.11145665
47	0xbcec80d1	-0.028870018
48	0x3eb55393	0.35415325
49	0xbf0b8889	-0.5450521
50	0xbf0cc564	-0.54988694
51	0xbe2be61a	-0.16786996
52	0x3e2c2b1d	0.16813321
53	0xbea7f36b	-0.328029
54	0xbd8a05cb	-0.06739386
55	0xbe3a6a57	-0.18204628
56	0xbf0a5e60	-0.54050255
57	0xbe65c18d	-0.22437115
58	0xbef5d21c	-0.48011863
59	0xbec81ce5	-0.39084545
60	0xbd04bd8a	-0.03240732
61	0xbededbae	-0.43526977
62	0x3a6f72c0	0.00091342255
63	0xbdc0b148	-0.09408814

gat_layers.1.bias f4 [64]
0	0xbbd73299	-0.006567311
1	0xbbc8dc30	-0.006129764
2	0x3c46b3d5	0.012127836
3	0xbbd7ab14	-0.0065816734
4	0xbbd6c8ef	-0.006554715
5	0xbbdd2008	-0.006748203
6	0xbbc9199c	-0.006137086
7	0x3c3491e7	0.011021114
8	0xbbd6e815	-0.006558428
9	0xbbd6bc2a	-0.0065531926
10	0xbbd6ed0f	-0.0065590213
11	0xbbd640c6	-0.0065384833
12	0x3c28da37	0.010305933
13	0xbbc40795	-0.005982349
14	0xbbd6a473	-0.0065503656
15	0xbbd9cd4a	-0.006646787
16	0xbbd6a4ff	-0.006550431
17	0xbbd66bc5	-0.006543609
18	0xbbd6d832	-0.006556534
19	0xbbd7a92d	-0.0065814466
20	0xbbd6941a	-0.006548417
21	0x3c7a2835	0.015268375
22	0xbbd6bfd2	-0.0065536285
23	0xbbd646c3	-0.006539197
24	0xb9cc310c	-0.00038946455
25	0x3c4b3f00	0.012405157
26	0x3c33ae58	0.01096686
27	0xbbd807f2	-0.006592744
28	0xbbd62b9d	-0.006535961
29	0xbbd6356c	-0.00653713
30	0xbbd62c1f	-0.0065360214
31	0xbbd228f7	-0.006413575
32	0x3c14a535	0.009072592
33	0xbbc9cec1	-0.00615868
34	0xbbdc1d51	-0.006717362
35	0xbbd70aea	-0.0065625804
36	0xbbba3f25	-0.005683797
37	0x3c10e32b	0.008843224
38	0xbbd8e4f4	-0.00661909
39	0xbbd6ebf8	-0.0065588914
40	0x3b2c6964	0.0026307935
41	0x3c36f159	0.01116594
42	0xbbbe7b80	-0.005813062
43	0xbbd58224	-0.006515758
44	0xbbd6a517	-0.006550442
45	0xbbd6b8d4	-0.006552795
46	0xbbd72502	-0.006565691
47	0xbbd6887a	-0.006547031
48	0xbbd6a76e	-0.006550721
49	0xbbd65086	-0.006540361
50	0xbbca932e	-0.006182096
51	0xbbbf5cd3	-0.005839923
52	0xbbd730d8	-0.006567102
53	0xbbd6a813	-0.0065507977
54	0xbbd6924e	-0.0065482026
55	0xba97ad4e	-0.0011572035
56	0xbbbaf986	-0.005706015
57	0xbbd6b1a1	-0.0065519367
58	0xbbd738f8	-0.0065680705
59	0xbbd11b4c	-0.006381428
60	0xbb813d08	-0.003944043
61	0xbbd742de	-0.0065692505
62	0x3bc53c7e	0.006019174
63	0x3b6473ef	0.003485914

gat_layers.1.lin.weight f4 [64, 64]
0	0xbda4a407	-0.08039098
1	0x3e374bad	0.17899962
2	0xbe602922	-0.21890691
3	0xbdeb94b7	-0.115029745
4	0x3cf96800	0.030445099
5	0xbd8dbb51	-0.069204934
6	0x39519aa4	0.00019989401
7	0x3b35671a	0.0027679862
8	0x3e094bef	0.13407873
9	0xbe010321	-0.1259885
10	0x3dc0f69d	0.09422038
11	0x3d29af96	0.041427217
12	0xbdf04330	-0.11731565
13	0x3e27548d	0.16340847
14	0xbd98819f	-0.07446598
15	0xbc99bc83	-0.018766647
16	0x3e4c7a42	0.19968513
17	0x3c414f08	0.011798628
18	0x3e19c6c9	0.15017237
19	0xbd1b0bad	-0.03785293
20	0xbdfdd24a	-0.12393625
21	0x3de8e7b4	0.11372319
22	0xbd80c88c	-0.06288251
23	0x3de991e9	0.11404783
24	0xbe0ec385	-0.13941772
25	0x3d8472ff	0.06467246
26	0xbe46859a	-0.19386902
27	0x3e162966	0.1466423
28	0x3e579cc6	0.21055898
29	0x3dcb12db	0.09915706
30	0x3d77e3a4	0.06051983
31	0x3df13892	0.11778368
32	0xbd89ded6	-0.06731956
33	0x3dd80c41	0.10549212
34	0xbe25b8c5	-0.16183765
35	0xbe3a9a8b	-0.18223016
36	0xbd88aafc	-0.06673238
37	0xbdaa0b6d	-0.083029605
38	0x3de74fce	0.112945184
39	0xbe1366e1	-0.14394714
40	0xbdad7750	-0.08470023
41	0x3caf4c69	0.02139874
42	0x3da5b345	0.080908336
43	0xbd38e26c	-0.045137808
44	0xbe3a463a	-0.18190852
45	0xbe2c502e	-0.16827461
46	0xbe227e87	-0.15868579
47	0xbe531c69	-0.20616306
48	0x3d34b47c	0.044117436
49	0x3de62254	0.11237016
50	0x3e57ce3c	0.21074766
51	0x3e14c5b3	0.14528541
52	0x3e435431	0.19075085
53	0x3e488ea6	0.19585666
54	0xbd4d56be	-0.050131552
55	0x3e640fc1	0.22271635
56	0x3bd4f4a9	0.0064988923
57	0x3e0c82f5	0.13721831
58	0x3d8049cd	0.062640764
59	0xbd02f07c	-0.031967625
60	0x3e5b7919	0.21432914
61	0x3deae459	0.11469335
62	0x3de43578	0.11143011
63	0x3ddf232d	0.10895381
64	0x3d88e401	0.06684113
65	0x3d8cc76a	0.06873973
66	0xbdd54931	-0.10414351
67	0x3deaf40c	0.114723295
68	0x3e33a83c	0.17544645
69	0x3dfcf31b	0.12351056
70	0x3e3835c5	0.17989261
71	0xbdc8c2e2	-0.09802796
72	0x3d2d588c	0.042320773
73	0xbd5b91b1	-0.05360574
74	0x3e50ba64	0.20383602
75	0xbda0a793	-0.07844462
76	0x3e0d53b3	0.1380146
77	0xbd8536bb	-0.0650458
78	0x3dc4a578	0.09601873
79	0xbe047242	-0.12934211
80	0x3e39b0de	0.18133876
81	0x3e4da7c6	0.20083532
82	0xbd8c8082	-0.068604484
83	0xbda19ffc	-0.07891843
84	0x3e2dacf9	0.16960515
85	0xbe016a6e	-0.12638256
86	0x3d92937f	0.07157039
87	0x3da1f156	0.07907359
88	0x3c646237	0.013939432
89	0x3ddb1e2e	0.10699116
90	0x3e1a7843	0.15084939
91	0xbd89f6d8	-0.06736535
92	0xbb47bf16	-0.0030478886
93	0xbcb00b78	-0.021489844
94	0xbe15dcd5	-0.14635022
95	0xbde4a0ac	-0.11163458
96	0x3a67c232	0.0008840888
97	0x3e10774e	0.14108011
98	0xbcf8f7ee	-0.03039166
99	0x3e3f7a0e	0.18698904
100	0xbd3d143c	-0.046161875
101	0xbdb52a3d	-0.08845947
102	0xbd5d8dc5	-0.05409028
103	0xbbe1c163	-0.0068895086
104	0xbdf9e7b7	-0.12202399
105	0x3cc23a38	0.023709401
106	0xbe4eb3f1	-0.2018583
107	0xbe36eda1	-0.17864086
108	0x3cc23483	0.02370668
109	0xbda1d239	-0.07901425
110	0x3c4de4cc	0.012566756
111	0x3a1463c4	0.0005660618
112	0x3e4d81d3	0.20069055
113	0x3e471011	0.19439723
114	0xbd14e916	-0.0363551
115	0xbd1b8dfd	-0.037977207
116	0x3c6bee75	0.014400114
117	0xbdcc889c	-0.09986994
118	0x3c8eeb9c	0.017446332
119	0x3bc1ae9f	0.005910709
120	0x3e514122	0.20435002
121	0x3debb40f	0.11508953
122	0x3e32c3b9	0.17457475
123	0xbd724382	-0.05914641
124	0xbe425f77	-0.1898173
125	0xbe515a20	-0.20444536
126	0x3d023d45	0.031796712
127	0x3e228617	0.15871464
128	0x3db1caa0	0.08681226
129	0x3e0806bd	0.1328382
130	0xbe4cca16	-0.19998965
131	0xbe1ab498	-0.15107954
132	0xbdef05e4	-0.116710454
133	0x3d3a475c	0.04547821
134	0x3d9369d9	0.07197923
135	0x3dab1880	0.083542824
136	0x3db6457d	0.088999726
137	0xbdc56068	-0.09637529
138	0xbd7a89ea	-0.06116668
139	0x3e0f88f7	0.14017092
140	0xbe61c870	-0.22049117
141	0xbd927844	-0.07151845
142	0xbe1e00a9	-0.1542994
143	0xbe2d2486	-0.16908464
144	0xbe0e1076	-0.13873467
145	0xbe3dfb4f	-0.18552898
146	0x3d8bffa9	0.06835873
147	0xbd68bf51	-0.05682308
148	0xbdbad455	-0.0912253
149	0xbe28cc2e	-0.16484138
150	0xbd96ee62	-0.07369687
151	0xbd3da5e1	-0.046300773
152	0x3b995bfc	0.004680155
153	0x3ddf609b	0.10907098
154	0x3d8c8dcb	0.06862982
155	0xbd932e10	-0.0718652
156	0x3da94aea	0.08266242
157	0x3d8cdca5	0.06878022
158	0x3cdd30ad	0.02700075
159	0xbe47b073	-0.19500904
160	0xbdf93a6b	-0.121693455
161	0xbe301dc3	-0.17198853
162	0x3e38bdb0	0.1804111
163	0xbe16cf7e	-0.1472759
164	0x3db47ad2	0.088124886
165	0x3dd0d8f9	0.10197634
166	0x3c9ca5c9	0.019122021
167	0xbe17b6f1	-0.1481588
168	0x3e10d60e	0.14144155
169	0x3e1b9871	0.1519487
170	0x3e5125ee	0.20424625
171	0xbcd2ae8b	-0.025717994
172	0x3e112934	0.14175874
173	0x3e599ab2	0.21250418
174	0x3c785d3f	0.01515895
175	0x3def9495	0.11698262
176	0xbdaafa8c	-0.08348569
177	0xbe2d34e5	-0.16914709
178	0x3e141969	0.14462818
179	0xbcdc739b	-0.026910594
180	0xbe36ccad	-0.17851515
181	0xbe4601ce	-0.19336626
182	0x3e052a09	0.13004316
183	0xbe5e1345	-0.21687038
184	0x3e20086b	0.15628211
185	0xbe40e50f	-0.18837379
186	0x3e046794	0.12930137
187	0xbd59f879	-0.053215478
188	0xbe1521c6	-0.14563665
189	0x3c5caf36	0.013469508
190	0xbe3853af	-0.18000673
191	0x3e612f43	0.21990685
192	0xbe1ecee3	-0.15508609
193	0xbe3a6303	-0.18201832
194	0x3de3140b	0.11087807
195	0x3e304b95	0.17216332
196	0xbe29c76a	-0.16579977
197	0xbc9003bb	-0.017579904
198	0xbbc7534d	-0.0060829283
199	0xbe149e85	-0.14513595
200	0x3d962472	0.0733117
201	0xbd59e91a	-0.05320082
202	0x3e529564	0.205648
203	0xbe2e45be	-0.17018792
204	0x3d9cd6dc	0.07658169
205	0x3d6f0674	0.058355764
206	0xbe2bc059	-0.16772594
207	0xbe451de0	-0.19249678
208	0xbe29b22c	-0.16571873
209	0x3dc90256	0.09814899
210	0xbe1b5d7f	-0.15172385
211	0x3c4d0a35	0.012514641
212	0x3e3e7812	0.1860049
213	0x3e555834	0.20834428
214	0xbcfffb4e	-0.031247761
215	0x3db3d17f	0.087801926
216	0x3dd32ccc	0.10311279
217	0xbd7ce843	-0.06174494
218	0x3dac27f4	0.08406058
219	0x3e460da6	0.19341144
220	0x3e34ba6b	0.17649238
221	0xbe3b0a64	-0.18265682
222	0xbe1306ca	-0.14358059
223	0x3dc25cb4	0.09490338
224	0xbdcc9f12	-0.09991278
225	0xbdde01e6	-0.10840206
226	0xbd82d2eb	-0.06387886
227	0xbe388ed4	-0.18023235
228	0xbe34a074	-0.17639333
229	0xbdb1dff2	-0.08685292
230	0x3b189958	0.002328476
231	0x3de32d94	0.11092678
232	0xbe1c2b5f	-0.1525092
233	0x3c755910	0.014974847
234	0x3e16776c	0.14693993
235	0x3b3f5554	0.0029195147
236	0xbe4f8752	-0.20266464
237	0x3b785487	0.003789218
238	0xbcf28056	-0.029602211
239	0xbe1a8293	-0.15088873
240	0xbe0fc47c	-0.14039797
241	0xbdd0a222	-0.101871744
242	0xbdac71f3	-0.084201716
243	0xbe36db1d	-0.17857023
244	0x3d847d0a	0.06469162
245	0xbe060e3a	-0.13091365
246	0xbd40fdb9	-0.04711697
247	0x3e518b9c	0.20463413
248	0x3d7bf28c	0.061510608
249	0x3e53645b	0.20643751
250	0xbd84d8a8	-0.064866364
251	0xbdc992df	-0.098424666
252	0xbd216735	-0.039405067
253	0x3e4cdfcb	0.20007245
254	0x3dcb3fc1	0.099242695
255	0xbe17f76a	-0.14840475
