models/best_fraud_model_seed_1111.pth (torch, 378242 bytes, 45 tensors)

node_emb.weight f4 [64, 8]
000000 8e c2 5c bc 14 a8 48 3e d7 ad 25 3d 0b d7 71 3e
       -0.01347412 0.19595367 0.04044899 0.23617189
000010 66 38 a0 be 76 cb 96 3e b7 28 4e be 0b 21 91 3d
       -0.3129303 0.29452103 -0.20132719 0.070863806
000020 10 63 3b 3e e4 a2 53 be 34 0d 1e bd 3b 2f 7a bd
       0.18299508 -0.20667607 -0.03858681 -0.0610802
000030 71 1d 3f be 3f 2e 0a be 5e f6 e0 bd 21 ad 04 be
       -0.18663575 -0.13494204 -0.10984491 -0.12956668
000040 2e c8 fe 3d 0b e8 8b be 8b d6 39 3e 2c 6f 8f be
       0.12440525 -0.27325472 0.18148248 -0.28014505
000050 fa e5 57 3e 7d f0 95 be 12 45 30 3e 88 92 85 be
       0.21083823 -0.2928504 0.17213848 -0.26088357
000060 be 3c 2e be 4d 71 83 be a5 17 3f 3e 21 52 d1 bc
       -0.17015359 -0.2567238 0.18661363 -0.025551857
000070 cd 6d a4 be 63 c5 9c 3c 97 fd 7c 3e 2c 21 ea 3c
       -0.3211502 0.01913709 0.24706112 0.02858027
000080 37 6a 9c 3e da 48 38 3d 13 98 83 3e 94 ca e5 bc
       0.30549785 0.04499135 0.2570196 -0.028050698
000090 e6 4d c2 bc 9e fc c6 bd 5f f6 7f be 96 52 47 be
       -0.023718785 -0.09716152 -0.24996327 -0.19465098
0000a0 d4 0d b6 be 49 72 26 3e 03 c4 08 3e 90 61 b7 be
       -0.35557425 0.16254534 0.13356023 -0.35816622
0000b0 8e f1 17 be a1 00 5c bc e9 57 f1 bd 48 d4 8a 3d
       -0.1483824 -0.013427884 -0.11784346 0.06778771
0000c0 f4 8c 39 be e8 10 30 be d3 29 41 bd f0 df 83 3e
       -0.18120176 -0.17193949 -0.047159027 0.25756788
0000d0 4d 08 a5 3d 53 69 21 3e b5 86 9f bd be 96 8c 3c
       0.08058224 0.15762834 -0.07789365 0.017161723
0000e0 49 3e 45 be 8a 9b 04 be 8f 36 81 be 79 aa 0e be
       -0.19262041 -0.12949958 -0.25236937 -0.13932218
0000f0 4c e7 25 be 5e 7e 05 3e 18 72 3e 3e b6 cb 93 be
       -0.16201514 0.13036487 0.18598211 -0.28866357
000100 b7 98 d9 bd 71 64 a7 be ba 68 a8 3e 0b 6f 84 be
       -0.10624831 -0.32693818 0.328924 -0.2586597
000110 85 6d 60 be 3c 4e 89 3e c1 a0 fa 3d ce ed 03 3e
       -0.21916778 0.268175 0.122376926 0.12883684
000120 9a 38 26 bc 74 4e 91 3e ff 07 2a 3e 54 67 16 3e
       -0.010145331 0.28380167 0.16604613 0.14687854
000130 9f 2f 02 3e f3 3c a5 3d 4f c8 06 bd 8e ea 85 be
       0.12713479 0.08068266 -0.032905873 -0.26155514
000140 19 32 f1 3d c5 5f 9b 3e 3d 73 ad 3d bd bb 89 3e
       0.117771335 0.30346504 0.084692456 0.26901045
000150 ad bb a5 3e 23 68 92 3e e0 bd 27 be be e2 a8 be
       0.32369748 0.28595075 -0.16381025 -0.3298549
000160 9e 96 ab be fd d8 eb bb a4 ef 1c 3e ed 93 0e 3e
       -0.3351335 -0.007197498 0.1532579 0.13923617
000170 1d da 50 be b2 f8 87 be d2 68 aa 3e 69 dd 6b 3d
       -0.20395704 -0.26556927 0.33283097 0.0575842
000180 e5 50 96 be 4c 12 8a be da 4c c5 3d aa 69 2b bd
       -0.29358593 -0.26967084 0.09633799 -0.041848816
000190 01 5f 41 3e 4e b0 8d bd fb b4 78 3e 52 bd 8d be
       0.18883897 -0.06918393 0.24287789 -0.27683502
0001a0 9f 04 48 3e 11 4f 0d 3e 0b 49 c6 3c 79 54 6a bd
       0.19533013 0.13799693 0.024204751 -0.057209466
0001b0 dc 8b 26 bd 02 7c 77 be 70 ff b0 be 27 85 1a 3d
       -0.040660724 -0.24168399 -0.34569883 0.03772464
0001c0 ba 72 19 be 50 bf 82 3e 0b 68 03 be ab 32 5c be
       -0.14985171 0.25536585 -0.12832658 -0.21503703
0001d0 a6 d8 16 3e 49 fd 77 3e 27 c0 ef 3d ac 1c 6e ba
       0.14731082 0.24217714 0.11706572 -0.0009083252
0001e0 0d 36 00 be 38 3c dc bc 76 16 f4 3d 96 8e 5d bd
       -0.12520619 -0.026884183 0.119183466 -0.05409106
0001f0 ec e4 06 be 57 27 9f 3e ba 07 a3 3e 66 58 20 bd
       -0.13173264 0.310847 0.31841832 -0.039146803
000200 db 33 c0 3d 35 90 ec 3d 4a d5 74 3e 81 b7 80 3e
       0.09384891 0.11550943 0.23909488 0.25140002
000210 2f f2 87 be 68 2a 99 be 2e 75 19 3e d6 b1 8d be
       -0.2655196 -0.29915166 0.14986107 -0.2767474
000220 f3 7d a7 3e 80 17 ab 3d bb ef 1e bd 97 ab 1b 3e
       0.3271328 0.08354092 -0.038802844 0.15202175
000230 d3 66 65 3e 9a 0b 8b 3e 9f 8d ac be 1b 78 87 3e
       0.22402506 0.2715729 -0.33701798 0.2645882
000240 cb 69 80 3e 17 67 ab 3e bd 95 6a 3e cf a1 3e 3e
       0.25080714 0.3347709 0.22908683 0.18616413
000250 00 52 82 be e9 a3 93 3e 51 11 58 be ef 0b fd bd
       -0.25453186 0.2883599 -0.21100356 -0.12355792
000260 da ed 69 3e 45 82 61 be 54 12 d7 3d 4a 38 90 3e
       0.2284464 -0.2202235 0.10501543 0.28167945
000270 d8 e3 82 3e 59 4d 6c bd 60 bc e4 3d 3d 1f 79 bc
       0.25564456 -0.057690952 0.11168742 -0.015205202
000280 bf a5 76 3e c9 aa 80 3e 8b 9b a8 3d be cf 04 3d
       0.24086665 0.251303 0.082327925 0.03242468
000290 06 98 b8 3d d0 d0 5d be 21 c0 2f 3e dc 35 76 3e
       0.09013371 -0.21661687 0.17163135 0.24043983
0002a0 e1 57 be bd 2a dd 08 3e 38 47 aa 3e af 07 89 3b
       -0.09294105 0.13365617 0.3325746 0.004181824
0002b0 07 cf 70 be 3b 30 e2 3c 06 98 96 3d 60 1f a4 bc
       -0.23516475 0.027610889 0.07353215 -0.020034492
0002c0 ee 3e 28 3e d3 1d 59 3e 17 e3 4f be ea 67 90 be
       0.16430256 0.21202783 -0.20301472 -0.2820428
0002d0 fb ac 8d 3e c9 4f b2 be 43 45 a9 3e 29 a6 fd 3d
       0.27671036 -0.34826496 0.33060655 0.12385208
0002e0 1f 2f d5 bd 78 de 76 3e 74 1b 25 be 84 b1 5f 3e
       -0.10409378 0.24108303 -0.16123754 0.2184506
0002f0 73 93 3e 3e 21 20 90 3d fe 6c b9 3d 0b d8 6b be
       0.18610935 0.07037378 0.09053992 -0.23031633
000300 79 cf 9c bd d4 4c 7d be 43 bf 99 3d 3e f0 73 3e
       -0.0765676 -0.24736339 0.075071834 0.23822114
000310 75 cb 92 3e 37 96 17 3e 6b ed 81 3e 06 70 47 3e
       0.2867085 0.14803396 0.25376448 0.19476327
000320 81 6b a8 bd 9a 32 68 3d 69 28 aa 3e 1f 37 e5 bd
       -0.0822363 0.056688882 0.33233956 -0.11192154
000330 c3 71 95 3e b3 71 de bd ac 90 ac 3e 7c 0e a8 be
       0.29188356 -0.1086153 0.33704126 -0.3282355
000340 14 32 57 3e cd a3 6b 3e fb 04 43 be 73 42 b0 3e
       0.21015197 0.23011704 -0.19044869 0.34425697
000350 45 f6 54 3c 36 e0 b3 bd ff 9d 82 be d6 95 a0 be
       0.012998168 -0.08782999 -0.25511166 -0.31364316
000360 83 4e 8c 3e fa 89 a4 3e 0f 97 ac 3e 9f 87 03 be
       0.2740365 0.32136518 0.33709 -0.12844704
000370 75 34 b6 be 9a 64 a4 3e c1 c0 9c 3e 8d 65 99 3d
       -0.35586897 0.32108003 0.3061581 0.074900724
000380 6d b8 d7 3b 07 fd d0 bd 15 73 71 bc 88 52 83 3e
       0.0065832646 -0.10204511 -0.01473691 0.25648904
000390 5a e6 54 3e 42 00 97 3d 78 71 d4 bd 9f 58 9c be
       0.20790997 0.07373096 -0.10373205 -0.30536363
0003a0 62 3e de 3d d9 11 f1 bc 76 1b b8 3d 37 42 8e 3d
       0.10851742 -0.029427456 0.08989613 0.06946223
0003b0 07 09 1f 3e 86 de e9 bd 33 55 a1 be 1c a7 67 3e
       0.15530787 -0.11419396 -0.31510314 0.22622341
0003c0 19 b7 8e 3e b5 8e 11 3d 31 9a 00 3e 2c a7 d5 3d
       0.27874067 0.035536487 0.1255882 0.10432276
0003d0 0a e4 57 3e ab 2f 75 be f7 65 db bd 96 20 e3 bd
       0.21083084 -0.23943965 -0.107128076 -0.110902
0003e0 36 47 a0 be 5c 8a df 3d b1 49 13 be 8f 25 9b 3e
       -0.3130433 0.10915062 -0.1438358 0.30302092
0003f0 0a 22 30 3e f8 2b 6d bd 0c ab 5a be 6b 58 0a bc
       0.17200485 -0.05790326 -0.21354312 -0.008443932

node_emb.bias f4 [64]
000000 bf 42 5d 3e fc 09 92 3e 93 aa b0 be f5 bb 28 be
       0.21607493 0.28523242 -0.34505138 -0.1647795
000010 f0 b2 f1 3d 23 8e 1e 3e 8e c0 8f 3e 15 2c 2c 3d
       0.11801708 0.15483908 0.28076595 0.042034227
000020 06 d8 9b 3e ba 45 47 bd 54 b6 48 3e 07 6d 3c 3e
       0.3043825 -0.04865048 0.19600803 0.18400966
000030 6e f6 9b 3e 3d 91 4c be 6b 05 5f 3e ae 44 a6 3d
       0.30461448 -0.19977279 0.2177941 0.08118568
000040 d4 32 26 3e d9 1c e8 3d de 0d aa be 3c 9c 5b be
       0.16230327 0.11333627 -0.33213705 -0.21446317
000050 80 ae 0a 3e fb 99 96 be b6 06 87 3c 59 99 08 3e
       0.13543129 -0.29414353 0.016482692 0.13339747
000060 ce 66 43 bd e2 97 80 3e a5 19 22 3e 5b fd 6b 3c
       -0.047705464 0.25115877 0.15830095 0.014403666
000070 ec 9e 18 be 80 68 91 3d 51 1f b6 3d dd ea c6 bd
       -0.14904374 0.0710001 0.08892692 -0.09712765
000080 48 7f 98 3e e3 ec 27 bb c1 0c 98 be f3 3f 1f bd
       0.29784608 -0.0025623373 -0.2969723 -0.038879346
000090 f6 63 53 3e 8c de 08 3e e9 e1 54 3d fa f9 34 be
       0.20643601 0.13366145 0.051973257 -0.17673483
0000a0 3b 7a 67 bd b8 8b 06 3d ac 13 fa 3d 36 71 82 3e
       -0.056513052 0.03284809 0.12210783 0.25476998
0000b0 85 82 1f 3e bc 4e 40 be da 0a 04 be 0b d8 b7 3d
       0.15577133 -0.18780035 -0.12894765 0.08976754
0000c0 cf 85 88 3e fc ee ed 3c 34 79 48 3c 87 84 af be
       0.26664588 0.02904462 0.012235928 -0.34280798
0000d0 df d5 1c 3e ff 7d 96 be 22 8b 9d 3e fb c3 2f be
       0.1531596 -0.29393002 0.30770212 -0.17164604
0000e0 18 cb 8d be ef 72 9e be 7e 4c db 3d 57 05 f9 3d
       -0.2769401 -0.30947062 0.10707949 0.121592216
0000f0 fc 82 f2 bd 7b f1 90 be 05 dc 8a be b2 ae ef 3b
       -0.118413895 -0.28309235 -0.27120987 0.0073145265

edge_emb.weight f4 [64, 2]
000000 b4 fb 92 3d 5e ee da 3e 70 59 9e be 52 83 54 be
       0.07176915 0.42759985 -0.3092761 -0.2075322
000010 90 99 4e 3e 17 c5 87 3d 85 0e 4b 3d 5f 49 92 bd
       0.20175767 0.06629389 0.049574394 -0.07142901
000020 bf 12 f2 bd 79 a4 55 bd cc da 87 be 5f a6 a2 3e
       -0.11819982 -0.052158806 -0.26534116 0.31767556
000030 14 65 fc be f4 ce d5 3e 65 35 8a bd c9 4d f6 3e
       -0.49295866 0.41759455 -0.067484654 0.4810622
000040 45 63 c6 3e 0b 1e 86 be 2f cc 72 3e a0 67 1e 3f
       0.38747612 -0.26194796 0.23710702 0.6187687
000050 f9 05 5c 3d 93 36 4c 3d fe bf 0d 3f 0a 46 1c bf
       0.053716633 0.049856734 0.5537108 -0.6104437
000060 e4 07 f8 3e b1 dd c8 be b5 6a ea be 2f c6 24 3f
       0.4844352 -0.39231637 -0.45784536 0.64364904
000070 51 32 19 3f 16 ad 2e bf 54 97 00 3e b4 3a 2f bf
       0.598424 -0.6823286 0.12557727 -0.6844895
000080 89 b0 23 3f 65 d4 a0 3e 5b 1c 01 bf 86 b6 2e 3e
       0.63941246 0.31412044 -0.5043389 0.17061815
000090 2d 21 10 bf 39 2d 0f 3d bd fb ff 3e 6a e1 f4 bd
       -0.5630062 0.034955237 0.4999675 -0.11957057
0000a0 03 9e 34 3f 2e 70 9d 3e 44 8b 7d 3e a9 ac e9 3e
       0.70553607 0.3074965 0.24760157 0.45639542
0000b0 ba 98 2f bf 68 5b 52 be 56 b4 21 3f ef 62 29 bf
       -0.6859242 -0.20542681 0.63165796 -0.66166586
0000c0 07 67 23 be 3b 10 1a 3f 51 d7 29 3e 3c 49 f3 bc
       -0.1595727 0.60181016 0.16586043 -0.029698007
0000d0 b5 70 c6 be 61 86 00 be c2 52 ce bd 2c 15 a6 be
       -0.38757864 -0.12551261 -0.100743786 -0.32438028
0000e0 2a 2a 95 3d 05 8a 47 3e 37 20 1b bf 13 9b e3 3e
       0.07283433 0.19486244 -0.6059603 0.4445425
0000f0 ee c2 27 3d 3d 89 e4 be eb cb 51 3d 32 da 15 bf
       0.040957384 -0.44635954 0.051219862 -0.58536065
000100 9d a6 19 3f 84 7a 1c 3f dc f1 d1 be 47 4e 6c 3e
       0.60019857 0.61124444 -0.41004837 0.23076735
000110 19 66 72 be 90 48 14 bf fa 6e c2 bd c8 4e 97 bc
       -0.2367176 -0.5792322 -0.09493823 -0.018470183
000120 11 78 08 3f 63 f9 73 3e c3 94 0b 3e 13 31 67 3e
       0.53308207 0.23825602 0.13630967 0.22577314
000130 47 5c 17 bf e6 04 0e 3e be b7 00 bf 2b 00 0f bf
       -0.5912518 0.13869056 -0.5028037 -0.5585963
000140 60 09 10 bf 07 d9 1a bf f9 fd 2d 3f 2b bd e9 be
       -0.56264305 -0.6048741 0.67965657 -0.45652136
000150 f2 13 3d 3e 26 e2 14 bd f1 b4 30 3f 14 47 09 3f
       0.1846464 -0.036348484 0.69026095 0.5362408
000160 a2 0e 09 bf b0 f3 2e bf 7e 6a e6 be 1a fb 2f 3f
       -0.5353795 -0.6834059 -0.45003122 0.68742526
000170 03 26 7e be 0b ff 29 bf 28 00 2f bf 2b 91 1c 3f
       -0.24819188 -0.6640479 -0.68359613 0.6115901
000180 78 f6 03 3e 24 35 32 be a5 85 e6 be 5d 1a 17 bf
       0.12886989 -0.17403084 -0.45023838 -0.590246
000190 9e 1e 1a bf 8a f3 35 bf d3 40 f1 bd 52 2e 70 3d
       -0.6020297 -0.71074736 -0.11779942 0.058637924
0001a0 00 86 0d 3f cb 6d c0 be 06 ce ed be be 86 28 3e
       0.5528259 -0.37583765 -0.46446246 0.1645765
0001b0 39 24 df bd 75 78 ff be 50 0d f3 be ab 30 41 bc
       -0.10895581 -0.4989659 -0.47471094 -0.0117913885
0001c0 97 38 11 3f 7e 30 50 bd f6 86 4d 3e 68 f6 db 3e
       0.56726974 -0.050827496 0.20071015 0.4296143
0001d0 0f 71 2b bf 95 f8 c6 be b5 22 17 bf 84 74 a5 3e
       -0.6696939 -0.38861528 -0.59037334 0.32315457
0001e0 9a 9a 08 bf 12 ac 94 bd 2a 3a ec 3c 08 0f 1e 3e
       -0.53360903 -0.07259382 0.028836329 0.15435421
0001f0 20 55 4d 3e 6a bc 24 be 4a ca 33 bf 03 0d b0 be
       0.20052004 -0.160875 -0.70230544 -0.34384927

edge_emb.bias f4 [64]
000000 7b 0c 93 be 42 0f e7 3d fc 2a 02 bf 55 1a ff bd
       -0.2872046 0.11282207 -0.5084684 -0.12456194
000010 57 40 9a 3e 15 ac 2b 3d d4 35 49 3e 06 9f 28 3e
       0.30127212 0.041912157 0.1964944 0.16466913
000020 ae 16 0b 3e 6a 5e ec bd 4c 6d 00 3f fa 5b 88 3e
       0.1358287 -0.115414456 0.50166774 0.26632673
000030 67 26 0f bf 33 2d 1d 3f b3 c5 d3 3e b3 05 34 3f
       -0.5591797 0.61397094 0.4136177 0.70321196
000040 08 8c 66 3e e3 df cc be 1e 1a e7 bc 4f fb ec 3e
       0.22514355 -0.40014562 -0.028210696 0.46285483
000050 b1 f3 ab 3e a8 b7 b4 3e 0b 5a 09 3f 06 78 05 bf
       0.3358436 0.3529637 0.5365302 -0.52136266
000060 e0 9e 2e 3d cb b9 a9 be b3 75 24 3e 93 10 34 3e
       0.042631984 -0.3314956 0.16060524 0.17584448
000070 fa 16 2d bf 1a b8 6c 3d 58 76 4e 3e d8 bc cb 3d
       -0.67613184 0.05779276 0.20162332 0.099481285
000080 b1 66 19 3f ee 14 29 be 14 ac a5 bc 77 8d 1b bf
       0.5992232 -0.1651189 -0.020223655 -0.60762733
000090 5c 1a ea 3e 65 06 1a be ec 42 20 bf 81 6f e4 3e
       0.45723236 -0.15041502 -0.62602115 0.4461632
0000a0 19 52 bd 3d 7b 2c 04 be dd 8e 26 be d4 96 06 bf
       0.092441745 -0.12907593 -0.16265436 -0.52573895
0000b0 7f a2 ca be 28 41 1b 3f 37 f1 18 3f a6 da 91 3d
       -0.395771 0.60646296 0.59743065 0.07121782
0000c0 e1 0d e0 bd 26 67 f7 3e 69 b2 87 3e d2 70 17 3f
       -0.10940147 0.48320884 0.26503304 0.59156525
0000d0 20 60 a1 3e 4f 60 fa 3d 82 71 44 3e f3 d3 1c bf
       0.3151865 0.12225401 0.19183925 -0.6126091
0000e0 79 ea 1c bf 4f f6 b2 3e 52 ed 03 bf 98 84 1c bf
       -0.61295277 0.34953544 -0.51534 -0.6113982
0000f0 44 79 93 3e ff e4 f9 3e 20 ef e6 3e 6c 04 0c 3f
       0.28803456 0.48807523 0.45104313 0.5469425

gat_layers.0.att_src f4 [1, 4, 16]
000000 e2 20 91 be 8b d4 ff 3d ef d3 d0 3e 80 d1 a2 bd
       -0.283454 0.12491711 0.40786693 -0.07950115
000010 fe 46 8b be f2 8e ef be c8 43 09 3f 42 2c 5c 3e
       -0.272026 -0.46788746 0.5361905 0.21501258
000020 25 dc c8 bc 29 e2 f1 3e 4c 29 c7 3e ca 7b 66 bd
       -0.024519036 0.4724286 0.38898695 -0.0562704
000030 db cd ad 3e d1 87 2a bd d8 d5 b8 3e 17 a6 bb be
       0.33946118 -0.04163343 0.3610065 -0.36650154
000040 e9 d4 26 be a2 75 d9 bd 5f e9 ad be 6a 3c b1 3d
       -0.16292156 -0.1061814 -0.3396711 0.08654101
000050 bd 50 8a 3c 92 46 01 bf 65 80 fc 3e c6 cb 90 be
       0.016884202 -0.50498307 0.49316707 -0.28280467
000060 d8 3a c4 bd 84 d1 78 3e a0 1e ef be 75 8b 35 be
       -0.09581536 0.24298674 -0.46703053 -0.1772898
000070 f7 36 fd be 99 20 cf bc be 06 20 bd c9 d3 db be
       -0.49455997 -0.025284098 -0.03906893 -0.42935017
000080 a9 ad 19 3e b9 cf 8f 3e 3f 3c 05 bf a7 0a e2 3d
       0.15007652 0.28088167 -0.52045053 0.11037188
000090 00 0e 08 bf e6 02 c9 3c a4 ea e6 be 99 c9 e2 3d
       -0.5314636 0.024537515 -0.45100892 0.11073608
0000a0 aa fe ff be 2a 93 0e be a2 aa 05 3f ee 64 ae 3e
       -0.4999898 -0.13923326 0.5221349 0.34061378
0000b0 41 1c 03 bf fc 04 8b be 42 72 db 3c c1 b4 82 3e
       -0.5121499 -0.2715224 0.02678788 0.2552853
0000c0 c1 b1 f0 3e b1 33 c9 3d 78 fc bd 3e c3 e4 9e 3e
       0.47010615 0.098243125 0.3710668 0.31033906
0000d0 7a 66 35 be 44 da 5b be 4a f3 09 3f 0b 0c 54 be
       -0.17714873 -0.2146998 0.53886855 -0.20707719
0000e0 12 80 46 3e 73 b4 0a bf 09 ff e5 3e 4a 1f b9 be
       0.19384792 -0.54181594 0.4492114 -0.36156684
0000f0 54 b5 b2 3e 4d 7e 96 3e fb 72 c8 3e 7f 1e a8 3c
       0.34903967 0.29393235 0.39150223 0.020522354

gat_layers.0.att_dst f4 [1, 4, 16]
000000 d2 a6 31 3d 34 43 52 3e 61 bb a4 3e 38 3b ad bd
       0.043371983 0.20533448 0.3217421 -0.08458561
000010 1a c0 c5 be 92 ab cb 3d 83 ae 50 3e 64 58 19 be
       -0.38623124 0.09944834 0.20379071 -0.14975125
000020 f8 4d c2 be a1 61 f0 3e 86 24 a1 3e 95 37 b9 be
       -0.3795011 0.46949485 0.31473178 -0.36175218
000030 92 1e 93 be c2 6e f9 be 73 10 fd 3e 5b b4 44 3e
       -0.2873426 -0.48717314 0.49426612 0.19209425
000040 6d d7 af be 00 d9 3a bd 4a 98 52 be 09 18 fb be
       -0.34344044 -0.045617104 -0.20565906 -0.49041775
000050 00 ba b9 be 76 4c 0f bd e4 a4 b6 bd ef 30 8d bd
       -0.3627472 -0.03498503 -0.08918169 -0.06894099
000060 53 0b 8d ba fc 82 a1 3e 43 54 ca 3e 7f 1c 1a 3e
       -0.0010760821 0.31545246 0.39517412 0.15049933
000070 3d d5 d9 be fe 08 c9 3e 21 13 41 3e 58 81 02 3f
       -0.425455 0.39264673 0.18854953 0.5097861
000080 b9 dc 92 be 91 bf 2b 3e a0 bd f9 bc a1 89 3d be
       -0.28684023 0.16772296 -0.030485928 -0.18509533
000090 9d a7 0b bf ff 08 3f 3e 3e be 23 be be e2 49 be
       -0.5455263 0.18655775 -0.1599054 -0.19715402
0000a0 a2 10 65 be 16 c9 6c 3d 40 25 24 bd c2 89 bc bb
       -0.22369626 0.057808958 -0.040074587 -0.0057537267
0000b0 e7 a4 9b 3e e7 d6 98 bd b5 10 ad be 9b 49 11 bc
       0.30399248 -0.07462864 -0.3380181 -0.008867647
0000c0 7e d4 e0 be 87 dc 21 3e 5b 1a ed 3e 67 10 6c 3e
       -0.4391212 0.15806781 0.4630917 0.23053132
0000d0 e3 2d 81 3e 82 da 51 3e 05 6f 00 bf 10 46 0b be
       0.2523032 0.2049351 -0.501694 -0.13600945
0000e0 df 62 da 3e 10 2e 73 3e da ac b6 3d a8 b0 b7 3e
       0.42653558 0.2374804 0.089196876 0.35876966
0000f0 2a 7f 24 3e 9d f0 4e bd b1 d6 6e be 5b 02 02 3e
       0.16064134 -0.050522435 -0.23324086 0.12696211

gat_layers.0.att_edge f4 [1, 4, 16]
000000 f8 85 04 be 43 48 05 3e c4 1c 94 bd cb 52 c5 be
       -0.1294173 0.13015847 -0.07232049 -0.3853973
000010 a2 c8 84 be 15 1c e6 3e 46 59 ea 3e 07 77 71 be
       -0.2593432 0.449433 0.45771235 -0.23580562
000020 35 b9 93 3d 00 85 cb 3e 00 aa 63 be 7f ad 34 3e
       0.0721306 0.39749908 -0.22232819 0.17644309
000030 89 24 fd 3e 4c 54 b7 be ac 87 c6 bd e6 3d 7c bd
       0.49441937 -0.358065 -0.09693846 -0.06158247
000040 fb aa c1 be d5 b1 dd 3e e3 71 eb 3e e8 86 0a bd
       -0.3782576 0.43299738 0.45985326 -0.033820063
000050 a1 e5 99 3e 70 22 ed 3e a5 4f 49 3e 3e 2b 08 bf
       0.30058005 0.46315336 0.19659288 -0.5319098
000060 3c 9c ea 3e 87 f7 9f be d2 a3 fc 3d e8 20 f7 be
       0.45822322 -0.31243536 0.12335934 -0.48267293
000070 0f d2 e3 bd 57 98 56 3e 37 da 05 3f f0 79 e4 3e
       -0.1112405 0.2095655 0.52286094 0.4462428
000080 5b 77 8a 3e 98 38 b6 3e 65 a1 93 be a1 a4 2d 3e
       0.27044186 0.35590053 -0.28834072 0.16957332
000090 38 95 de bd 18 a2 60 be 7d 9e 06 3f 1a c4 81 3e
       -0.10868305 -0.21936834 0.52585584 0.25344926
0000a0 51 b3 96 be 1d 44 b1 be 1d 12 43 3e c0 9e d4 3e
       -0.29433683 -0.3462228 0.19049878 0.41527367
0000b0 e6 b8 bb be b0 0d ed 3e cd 6b fb 3e de 90 8d be
       -0.36664504 0.46299505 0.49105683 -0.27649587
0000c0 b8 b4 b7 be cc 69 2a be ad 00 c0 3e 75 65 00 3f
       -0.35880065 -0.16641921 0.37500516 0.5015481
0000d0 48 78 c5 be 0d e4 01 3f 64 59 a3 3e bb ae cd be
       -0.3856833 0.507386 0.31904137 -0.4017237
0000e0 b5 8f 84 be 4f 65 d5 3e 34 3c a2 be f1 b8 7f 3e
       -0.2589089 0.41678855 -0.31686556 0.24972893
0000f0 a6 c8 d5 be 77 ac 80 3e 25 9b 05 bf df 64 02 bf
       -0.41754645 0.2513158 -0.52189857 -0.5093517

gat_layers.0.bias f4 [64]
000000 ad b2 34 bb bd 0e 11 bb 74 b5 5c bb 09 67 94 ba
       -0.002757232 -0.002213403 -0.003367749 -0.0011322211
000010 3d e9 5a bb d0 2d 49 bb d5 d3 1d bb e3 26 07 bb
       -0.003340318 -0.0030697472 -0.002408256 -0.0020622544
000020 e0 35 bd ba be 83 9c ba f7 67 32 bb 92 d3 16 bb
       -0.0014435612 -0.0011941118 -0.0027222612 -0.002301429
000030 e1 ea 4c bb 93 f1 4a bb e3 af 18 bb af c4 52 bb
       -0.0031267928 -0.0030966743 -0.0023298196 -0.003216069
000040 47 f6 1d 3c 7c 46 01 bb 15 d7 51 bb 3b 1c 4f bb
       0.009641237 -0.001972585 -0.0032019068 -0.003160252
000050 82 8d 51 bb cf e5 a9 3b b3 14 36 bb 3e 20 50 bb
       -0.0031975214 0.005184866 -0.0027783334 -0.00317575
000060 8d 75 e0 3b 2d b2 5f bb 2b 80 ee ba 80 98 36 bb
       0.0068499506 -0.00341333 -0.0018196156 -0.0027861893
000070 68 b5 54 bb 98 1f 56 bb ba e0 4a bb 1a 8d 4b bb
       -0.003245676 -0.003267264 -0.0030956701 -0.0031059445
000080 eb 30 8e ba 1f d1 3c bb cf a7 2e bb 83 43 50 bb
       -0.0010848319 -0.002881117 -0.0026650315 -0.0031778521
000090 e5 7e 54 bb 80 15 5a bb f7 d6 ff 3b aa 2a 4e bb
       -0.0032424268 -0.0033276975 0.007807608 -0.0031458535
0000a0 8c 17 48 bb f2 8e 88 3b 46 b6 54 bb 00 d9 4d bb
       -0.0030531613 0.004167431 -0.0032457276 -0.003140986
0000b0 7f a7 00 3c 22 14 31 bb c7 a0 ae 3b 1f 94 4e bb
       0.007852434 -0.0027020057 0.0053292247 -0.0031521393
0000c0 d8 0d 2a bb f7 1e 05 3c 19 a6 51 bb 4a 11 57 bb
       -0.0025948193 0.008125058 -0.003198987 -0.0032816702
0000d0 04 6e 5a bb c9 ac 39 bb 99 99 50 3b 5d 0d 59 bb
       -0.0033329735 -0.0028331748 0.0031829833 -0.0033119537
0000e0 7e 5a f9 39 c8 c8 1c bb dc f6 29 3b af 58 e2 ba
       0.00047560403 -0.0023923386 0.0025934493 -0.0017268861
0000f0 f4 c8 5d bb 0e bc cd 3b c1 0a 5c bb 9a 5e 02 3c
       -0.0033841701 0.0062785214 -0.0033575746 0.007957125

gat_layers.0.lin.weight f4 [64, 64]
000000 3c 6e 32 3e 45 73 30 bc d5 32 c7 bd 5f e7 39 3e
       0.17424864 -0.01076967 -0.09726492 0.18154667
000010 41 c0 0a 3d 98 be ad 3c e0 ef 10 3e c9 07 b4 3c
       0.033874754 0.021209046 0.14154005 0.021976369
000020 35 6e ab bc 04 fe 69 3d f9 25 af bb 25 23 51 be
       -0.020926574 0.057127014 -0.005345103 -0.20423563
000030 c3 9c 4a 3d 70 f7 a9 3d ac c3 22 3e 3c 10 3f 3e
       0.049465906 0.08299148 0.15894955 0.18658537
000040 f2 e1 1f 3e ee da 38 3e 51 8f 07 3e 9a f5 41 3e
       0.15613535 0.18052265 0.13238265 0.18941346
000050 af 24 29 bb ae f5 34 bd f6 dd 18 3e 0d 79 fe bc
       -0.0025809219 -0.04417961 0.14928421 -0.03106358
000060 53 9c a0 3d f2 7a d7 bd bc 4d 58 be cf 54 1d 3e
       0.078423165 -0.10521497 -0.21123403 0.15364383
000070 f2 32 e8 3d f4 64 f9 3d 21 eb 99 3c a0 1d 54 be
       0.11337842 0.121774584 0.018788876 -0.20714426
000080 93 10 9b 3d 0f 6e 04 be dd e9 19 be c1 03 1a 3e
       0.07571521 -0.12932609 -0.15030618 0.15040495
000090 5f 38 dc 3d 40 5e 33 3d 36 c8 44 3e f3 1a 53 bd
       0.107529394 0.043791056 0.19217 -0.051539373
0000a0 ba 9c 2c 3d 3c ad 15 be 01 51 34 be e9 13 28 3d
       0.042141654 -0.14616865 -0.17609026 0.041034613
0000b0 ba a6 38 be 7a ac b1 3c f0 47 58 3b b4 a9 11 3c
       -0.18032351 0.021688689 0.0033001862 0.008890558
0000c0 80 61 99 3d 76 9d 0b 3e b8 52 37 be aa f2 02 be
       0.074893 0.13634285 -0.17902648 -0.12787881
0000d0 2a 85 13 bd 35 3d 2f 3e e7 49 4f be ff 5a 14 be
       -0.036015667 0.17113192 -0.20243035 -0.14487837
0000e0 ee 7b d2 bc c6 bf 89 bd 51 a2 d2 3b 3f 95 61 3d
       -0.02569386 -0.06726031 0.006428041 0.055073973
0000f0 a0 20 e4 bd 13 5b 09 3e d4 68 3c 3e 88 75 19 3c
       -0.11139035 0.13413648 0.18399364 0.009366401
000100 8b 85 20 bd 0e 9d 50 be 8e 73 54 be f4 20 f7 ba
       -0.039189856 -0.20372412 -0.20747206 -0.0018854425
000110 58 11 be bd 13 33 27 3d ee 63 d4 3c eb 84 0c 3e
       -0.09280652 0.040820193 0.025926556 0.13722579
000120 52 db df 3d 34 d9 a8 3d 68 a1 30 3e 1e 34 27 be
       0.10930504 0.08244553 0.17249072 -0.16328475
000130 82 44 4f be 4e 3b c2 3d d5 b6 54 be 81 9d c0 bd
       -0.20240977 0.09483968 -0.2077287 -0.094050415
000140 da d4 0a be ea be 6b bd c9 7c ea 3d 43 e3 e4 bd
       -0.13557759 -0.057555117 0.11449582 -0.11176159
000150 a3 4c 5f 3e ff e3 c9 bd 90 f4 5c 3d 05 92 52 3e
       0.21806578 -0.0985794 0.05394417 0.20563515
000160 d7 76 27 3c e1 a4 df bd 37 ed 28 be b5 77 cf 3b
       0.010221205 -0.1092012 -0.1649674 0.006331409
000170 c8 14 40 bd 24 fc 56 3e 04 4b 40 3e 96 cf ca bd
       -0.04689482 0.20994622 0.18778616 -0.09902875
000180 f5 32 20 3e b3 06 1b be aa 71 dd bd e9 26 04 be
       0.15644439 -0.15139274 -0.10812695 -0.12905468
000190 44 5c 4e 3e dc d2 83 3c 3f 0a 53 bd fe a3 cc 3d
       0.20152384 0.016091757 -0.051523443 0.099922165
0001a0 bb f2 86 3d 1a 44 cf bc 2b 81 43 3e 3c 50 a8 3d
       0.06589266 -0.025301028 0.19092242 0.082184285
0001b0 7f a2 43 be d2 ee 14 3e 72 b4 4d be 58 2a b5 bd
       -0.19104956 0.14544228 -0.20088366 -0.08845967
0001c0 0b d6 57 3e cd 07 fc 3d 41 ac e0 bc 91 57 48 3e
       0.21077745 0.123061754 -0.027425887 0.19564654
0001d0 4d 86 cd 3d fd 05 ce 3d 0f f6 8f 3d 7a 28 92 3d
       0.100353815 0.10059736 0.07029354 0.071366265
0001e0 5f 9a 2c 3e 91 f5 25 bd 50 5c 03 3c 57 f0 29 3e
       0.16855763 -0.040517393 0.0080176145 0.16595589
0001f0 9f 8f 2c 3e e3 a7 46 be ba 2a 2b be 29 e0 dc bd
       0.16851662 -0.19399981 -0.16715518 -0.10784943
000200 ba 8f 37 be 95 85 41 be 9c 8f 8c bd 8a 0a 3b be
       -0.17925921 -0.18898614 -0.06863329 -0.18265739
000210 59 af 97 3d c9 7e f6 3d ca 6d e4 bd f4 b6 9e 3d
       0.07406492 0.12035901 -0.11153753 0.07749739
000220 24 b6 51 3e 77 5a 0d be 1f f7 a9 3d 2c 06 56 3d
       0.20479637 -0.13804041 0.08299088 0.05225198
000230 8f 6a 76 bd 38 0e f6 bb 70 0f e6 3d 91 01 16 3e
       -0.060160216 -0.007509019 0.11233413 0.14649035
000240 02 e8 40 3e 44 0e 2b 3c fd df 30 be dc 36 03 3e
       0.18838504 0.010440413 -0.17272945 0.12813896
000250 78 a6 d9 3d e6 0b be 3d 07 79 2b be ea 11 5b bd
       0.106274545 0.09279613 -0.16745387 -0.05348388
000260 61 de a2 bd 98 50 93 3c 46 1d 1a 3e a9 6e 16 bc
       -0.07952572 0.017982766 0.1505023 -0.009181657
000270 56 0c 0f be e6 37 2d 3e 5c af 4d be 50 3c 12 3e
       -0.1396955 0.16915855 -0.20086426 0.1428082
000280 e7 f5 42 3d 45 4f 61 bd ea 90 e5 bd 90 01 e7 3d
       0.047597792 -0.055007238 -0.11209281 0.11279595
000290 0b 38 46 3e 6b bb 7d 3d 55 f8 29 be 3f ce 08 3e
       0.19357316 0.061946314 -0.16598637 0.13359927
0002a0 25 04 99 3c 4d cd 3c 3e d5 a4 ba bc bf 8b 20 bc
       0.018678734 0.18437691 -0.022783676 -0.009798943
0002b0 71 20 2e 3d d6 cd b4 3b 22 f0 eb bd a4 f0 15 3e
       0.042511407 0.0055177016 -0.11520411 0.14642578
0002c0 2b 7b 15 3e 73 3a db 3c e0 83 20 be 14 33 d0 bd
       0.14597766 0.02676127 -0.15675306 -0.101659924
0002d0 6d 3a ec 3d 97 c9 17 3e 76 3e 28 be 55 df cc 3d
       0.11534581 0.14822994 -0.16430077 0.10003535
0002e0 d3 99 ae 3d 54 1e d0 bd 0a 7f 4c be 3d 1a 04 3e
       0.085254334 -0.10162035 -0.19970337 0.12900634
0002f0 61 52 31 3e d5 33 eb 3d d3 9c 10 be 03 a4 93 3d
       0.17316581 0.114844956 -0.14122324 0.07209017
000300 b9 49 ef bd a0 d2 13 be 0b 9a 0e be 2b de 99 3d
       -0.11683983 -0.14435816 -0.1392595 0.07513078
000310 88 0b 90 bd 5e 52 f7 3d 68 3d da bc 16 7a 5d be
       -0.070334494 0.12076257 -0.026640609 -0.21628603
000320 1e 4e 0d 3c 74 9b 35 be 60 8f 1e 3d 10 5a 53 3e
       0.008624582 -0.17735082 0.03871095 0.20639825
000330 1c f5 2e be 75 3c 40 be 0c 8b 35 3e 52 b8 25 3e
       -0.1708569 -0.18773063 0.17728823 0.16183594
000340 80 a4 0e bd 8c 6c bb 3d 90 29 3a 3e 88 ff d4 3d
       -0.03482485 0.09151563 0.18179917 0.10400301
000350 fe dd ca bd 9b bf bf 3d ca e3 58 bd dd a4 d0 3b
       -0.09905623 0.09362718 -0.05295161 0.0063673095
000360 b8 e1 35 bd ec c2 a8 bd 46 23 44 be 82 43 c8 bc
       -0.044404715 -0.082403034 -0.19154081 -0.024446253
000370 64 21 c9 3d 96 7f 2b 3d b0 8c 40 be 73 2d af 3c
       0.09820822 0.041869722 -0.18803668 0.021383977
000380 b2 70 fe bd c0 b6 be bd 57 ab 17 3e 76 a9 11 3c
       -0.12423839 -0.093122005 0.14811455 0.0088905
000390 81 ef 07 3e 03 84 96 3b b2 4c 1c be 02 6e 14 be
       0.13274957 0.0045933737 -0.15263632 -0.1449509
0003a0 bd ac 54 be f1 fa 42 3e ae c1 3c 3e 69 e4 45 be
       -0.2076902 0.19041039 0.18433258 -0.19325413
0003b0 1d 8e 48 bd 65 2c 0b 3e bb 18 23 3e d9 8a 49 3e
       -0.048963655 0.13591154 0.15927403 0.19681872
0003c0 11 5b 55 be 15 4d 51 bd b9 28 10 be bc 6f 62 3e
       -0.2083552 -0.0510989 -0.14078034 0.22112936
0003d0 74 0e b7 bd 0a 01 85 bd e2 dc cb bd 22 12 4e 3e
       -0.089383036 -0.06494339 -0.099542394 0.20124105
0003e0 f8 6b 58 be c9 0f 2b be 89 73 95 bd 50 66 47 3e
       -0.21134937 -0.1670524 -0.07297427 0.19472623
0003f0 5d 29 47 3d 94 7f 37 3e 9e ae ac 3c b7 44 bc 3d
       0.04862343 0.17919761 0.021079358 0.09192794

gat_layers.0.lin_edge.weight f4 [64, 64]
000000 7e 74 31 bd 52 04 cd bd 6d 47 47 3c d9 1f 9a bd
       -0.043323986 -0.1001059 0.012163025 -0.07525606
000010 f4 a8 30 3e 65 cc ea bd a1 30 dc 3c 07 d6 06 be
       0.1725195 -0.114647664 0.026878657 -0.13167582
000020 00 11 6c bd 15 79 23 be 1f d9 83 3c df 0a 47 be
       -0.0576334 -0.15964158 0.016094742 -0.1943774
000030 99 af 92 3c 16 7d c1 bd e5 ef 34 be 5e 49 fc 3d
       0.017905997 -0.094476864 -0.17669638 0.12318681
000040 8d 16 59 3d b5 f1 47 be e9 cb dd 3d 26 9b 3f be
       0.05300002 -0.19525798 0.108299084 -0.18711528
000050 1b ad 2a bd a9 1d 58 be 2c 72 f5 3d 17 ba a6 3b
       -0.041668992 -0.21105064 0.11984667 0.0050881016
000060 31 1b 46 3e 6c 33 51 bb f8 5c 92 3c 1c a5 49 3d
       0.1934631 -0.003192152 0.017866597 0.049229726
000070 e6 fa 2c bc 85 a6 0f 3e b5 bc 76 3d 3e cd 0a bc
       -0.010557866 0.14028366 0.06023856 -0.008471785
000080 da c1 f0 bd 7c 75 47 be 09 09 54 3d 84 e6 28 3e
       -0.11755724 -0.1947841 0.05176643 0.16494185
000090 13 7b 7b 3d f0 62 09 3d b9 82 09 3e 1d b5 38 bd
       0.06139667 0.03354162 0.13428773 -0.045094598
0000a0 96 43 78 bd 0a 35 14 bd c2 87 2d be 49 01 08 3e
       -0.06061133 -0.036183394 -0.16946319 0.1328174
0000b0 8d 4c 3a bc 72 fb 44 3e bf 5c c1 bd a6 7a 3f 3e
       -0.01137079 0.19236544 -0.09441518 0.1869913
0000c0 1e 57 09 3c a5 f0 4c 3e 77 4e 5b be f9 3b d8 bc
       0.008382587 0.20013674 -0.2141665 -0.026395785
0000d0 42 78 15 bc 34 b6 59 bc 33 f2 03 3e 82 e5 b6 3c
       -0.00912291 -0.0132880695 0.1288536 0.022326235
0000e0 42 83 01 be 8f 87 5a 3e a0 c5 09 3d 35 73 17 be
       -0.12647727 0.21340774 0.033635736 -0.14790042
0000f0 51 9e 6f 3d 77 a4 2a 3d f3 88 3c bc 24 14 e3 3d
       0.05850059 0.041660752 -0.011507261 0.11087826
000100 c9 ee 42 3c e4 ea 04 3e fe 3d 28 be a8 15 01 be
       0.011897751 0.12980229 -0.16429898 -0.12605917
000110 8d ca 29 3d df d1 47 bd 23 bc ec 3d 61 8e 5a be
       0.041452933 -0.048784133 0.11559322 -0.21343376
000120 6d ff 85 3d a6 49 1a 3e e7 db d6 bd 16 23 02 3e
       0.06542859 0.15067157 -0.10491162 0.12708697
000130 ef cd ec 3c e4 75 50 be 64 48 88 bd 4a 4c 4f be
       0.02890679 -0.20357472 -0.066544324 -0.20243946
000140 89 ef c2 bd ba 4f c6 3d e2 14 90 3c 3a 23 03 bd
       -0.09518344 0.096831754 0.017588083 -0.032016017
000150 4c ea 5d 3d ff 16 43 3e ba 3f d8 bd f6 91 88 3d
       0.05417852 0.19051741 -0.1055903 0.06668465
000160 8f 3a f6 bc 72 a6 ab 3d 80 30 16 be 57 fa 3d bd
       -0.03005722 0.08381356 -0.14666939 -0.04638132
000170 53 58 04 3e d0 3f 5b 3d 43 33 10 be 1c 44 2b 3d
       0.12924318 0.053527653 -0.14082055 0.041813
000180 8e 68 99 3d eb 89 58 bd da 1d c8 3d 04 e2 1b bc
       0.07490645 -0.052865904 0.09771319 -0.009514336
000190 5d 0d c3 3c 3c 5b 56 bd 9b 5a 61 3d fe ba c4 3b
       0.023810083 -0.0523331 0.05501805 0.0060037365
0001a0 32 a1 d8 3d f2 65 08 3e 18 33 90 3c 14 8e 4a 3e
       0.105776206 0.13320139 0.017602488 0.19780761
0001b0 57 00 22 3d b3 d5 81 bd a1 d7 d5 bc 2a 01 ef 3d
       0.039551105 -0.06339588 -0.026103796 0.11670144
0001c0 2e b8 11 3e b1 5b 02 be 87 4b 46 be d6 eb c7 bd
       0.14230415 -0.1273029 -0.19364749 -0.09761779
0001d0 d1 8a e6 bc 38 e5 a9 bd 2a e3 9d 3c 09 f6 a7 bb
       -0.028142365 -0.08295673 0.01927336 -0.005125765
0001e0 1e 12 a9 bd a7 09 cb bd 9e 39 16 bd e0 e9 69 3d
       -0.08255409 -0.099139504 -0.03667604 0.057107806
0001f0 84 38 52 be a0 88 02 be 23 fb 4a 3e 16 c6 52 be
       -0.20529372 -0.12747431 0.19822364 -0.20583376
000200 f5 b2 2e 3e aa ff 10 3d f9 2f ee bd cb e0 46 be
       0.17060454 0.03540007 -0.11630244 -0.19421689
000210 73 c4 ec 3d cd b5 d0 3d 85 39 1e 3e 60 f6 ed bd
       0.11560907 0.10190926 0.1545163 -0.11619258
000220 f7 a3 33 3e b0 78 44 be b7 6b 45 be 73 84 d6 bd
       0.17543016 -0.19186664 -0.19279371 -0.104744814
000230 dc 96 f7 3d b2 d6 24 be 9b 03 36 3e 43 78 72 3d
       0.12089321 -0.16097525 0.17774813 0.05919672
000240 ea d3 55 3d 8e 29 bb bd 99 5f bf 3c c4 7f 32 3e
       0.05220405 -0.09138785 0.023361014 0.17431551
000250 f5 f9 be bd c3 a9 8b bd c9 30 46 3e 59 0f 09 be
       -0.09325019 -0.06819489 0.19354548 -0.13384761
000260 bf 0e fa 3d 78 d8 a8 bd 01 7b 54 bc 73 3c fa bd
       0.12209844 -0.08244413 -0.01296878 -0.12218561
000270 7d 10 cb bc 79 7c 12 3b 98 1b 0a be ad c4 4c 3e
       -0.024788136 0.0022352024 -0.13487089 0.19996901
000280 a9 12 30 3e b7 81 2d be 75 54 dc 3c e1 16 8e 3d
       0.17194618 -0.16944014 0.026895741 0.069379576
000290 5e 00 ac bc a2 cf 99 3d bf e0 d4 bd df 1c b2 3d
       -0.020996269 0.07510306 -0.103944294 0.08696913
0002a0 b0 52 97 bd 42 ee 14 3e 46 11 31 bd 52 8b 32 3d
       -0.07388818 0.14544013 -0.043229364 0.043589897
0002b0 0c 88 2c be eb 56 0e 3e 28 ed 2a be 22 fe b9 3d
       -0.16848773 0.13900344 -0.1669203 0.09081675
0002c0 88 9d 73 3d f2 bc 33 3e de 5e 50 3e ef 8e 41 3e
       0.059476405 0.17552546 0.20348689 0.18902181
0002d0 a2 60 18 3e 73 82 80 3d d0 72 49 3e ed c7 4c be
       0.14880612 0.06274881 0.19672704 -0.1999814
0002e0 a3 fe 97 3d b5 6f e1 bc af 4a e7 3d 6e 22 8f bd
       0.07421615 -0.027519086 0.11293542 -0.06988989
0002f0 b0 23 82 3d 76 e9 4d be 4a 85 bb 3d f2 f7 4c 3c
       0.06354463 -0.2010859 0.09156282 0.012510287
000300 39 00 84 3c 7f 0e 6e bd f0 89 45 be e1 7a 39 bc
       0.016113387 -0.058119293 -0.192909 -0.0113208005
000310 c8 38 f2 bd a3 a1 bc 3b e0 f6 13 be 1e d6 74 3d
       -0.118272364 0.0057565733 -0.14449644 0.05977451
000320 2f ff 46 be 2c f4 1c bd fb bf b0 3d 0d 68 0a 3e
       -0.19433282 -0.038318798 0.08630367 0.13516255
000330 2c ff 34 3e c8 30 b1 3d 78 b8 4a be b7 fe 84 bd
       0.17675465 0.086518824 -0.19796932 -0.064938955
000340 ff 5c b1 3d ca a3 27 be 19 a9 53 be de 8a 33 be
       0.08660316 -0.16371074 -0.20669974 -0.17533442
000350 c2 f1 01 be 28 d9 40 3e 47 24 1e 3e 0b 09 1b be
       -0.1268988 0.18832839 0.15443526 -0.15140168
000360 89 3c a1 bd d4 88 09 3e df 58 12 be aa d0 c2 3d
       -0.07872874 0.13431102 -0.14291714 0.09512456
000370 39 97 21 be a7 44 12 3e 34 1b c4 bd 55 8b 02 3e
       -0.15780343 0.14284001 -0.09575501 0.12748463
000380 5a 5a 01 bd 78 7c fd 3d 3c 09 1e 3e 2d c9 12 3e
       -0.031580307 0.12377256 0.1543321 0.14334555
000390 d0 df 46 3e e6 88 d7 3d 6c db fc bd 2e d2 5f 3d
       0.19421315 0.10524158 -0.12346539 0.054643802
0003a0 dc c7 49 be 27 12 1d be 53 51 8a bd 7f 92 3f 3e
       -0.19705147 -0.15338956 -0.067537926 0.18708228
0003b0 0c e9 85 bd 22 e1 dd 3d 31 b0 9c 3c d9 fd ad 3d
       -0.06538591 0.10833956 0.019126983 0.08495683
0003c0 52 60 39 be 80 08 d5 bd 1b 98 15 be 4d d0 bd bd
       -0.1810315 -0.10402012 -0.14608805 -0.09268246
0003d0 8c 07 ce bc 54 50 c5 3c 42 d0 2e be 43 a6 85 bc
       -0.025150083 0.024086155 -0.17071632 -0.016314631
0003e0 d5 98 91 3d 41 92 8a bd 3c e5 fe 3b 83 a3 e7 bd
       0.071092285 -0.06766177 0.0077787917 -0.11310484
0003f0 74 35 19 3e 2c 71 5a 3d 9b be 15 3e bd f5 db 3d
       0.14961797 0.053330585 0.14623491 0.1074023

gat_layers.1.att_src f4 [1, 4, 16]
000000 98 e5 c7 bd 5f 61 ce be 06 1f 40 3e 59 a5 02 3f
       -0.097605884 -0.40308663 0.18761835 0.5103355
000010 b8 b1 82 bd fc 4e b4 3e a7 21 77 3e 6b fe 9b 3e
       -0.063815534 0.3521651 0.24133931 0.30467543
000020 d5 8b 91 3d e7 b1 fe 3e 9d 3b 06 3e 4e b7 ef 3e
       0.07106749 0.49745104 0.13108678 0.46819538
000030 67 7b 8c be 3c 2c 15 be f4 87 b1 be 49 bc ad 3e
       -0.274379 -0.14567655 -0.34674037 0.33932713
000040 f1 97 60 be c4 c7 80 be b4 42 bd be 03 b4 89 be
       -0.21932961 -0.2515241 -0.36964953 -0.2689515
000050 5a 3b 3e be 44 a7 00 be 3b 3e dd 3e 73 b6 77 3e
       -0.18577328 -0.12563807 0.4321154 0.24190693
000060 e1 73 c5 3e ff b8 cd be 76 40 49 be c0 5e e9 3d
       0.3856497 -0.40180203 -0.19653496 0.11395025
000070 64 81 85 3e c0 46 95 bd bf 26 6f 3e bc 86 2c 3e
       0.2607528 -0.07288885 0.23354624 0.16848272
000080 8b 98 d4 bd dc 0c 4e bb 8c 87 fa 3e ed 8b dd be
       -0.10380658 -0.003144077 0.4893154 -0.43270817
000090 00 4e ed 3e b0 ed ad be d3 3b 02 bf 1a 98 c5 be
       0.46348572 -0.33970404 -0.50872535 -0.38592607
0000a0 3c d7 d6 be 01 58 e4 3e 52 ba 8e 3e 6b 03 03 3f
       -0.41961086 0.44598392 0.27876526 0.5117709
0000b0 44 a6 17 bd 77 7a 46 3e 34 41 87 be 46 a6 0b bf
       -0.037023798 0.19382654 -0.26416934 -0.5455059
0000c0 7a cf dc 3e 18 57 59 be a7 a2 c9 3e cb 81 f5 be
       0.43127042 -0.2122463 0.39381906 -0.47950587
0000d0 37 bc 93 be 83 c6 ab be 03 32 81 be c2 77 95 3d
       -0.28854534 -0.3354989 -0.25233468 0.072982326
0000e0 b4 9c f4 3e 35 64 e8 3d 2d 1e 54 3e 42 29 c0 be
       0.47775805 0.11347238 0.20714636 -0.37531477
0000f0 e7 3c 91 3e a5 b0 be 3e ce 72 f9 be 95 50 44 3e
       0.28366777 0.37244144 -0.48720402 0.19171365

gat_layers.1.att_dst f4 [1, 4, 16]
000000 8a a4 0d 3e 6d 3d 99 be 64 a4 9b 3e e0 ce 09 3f
       0.13832298 -0.29929677 0.30398858 0.5383129
000010 97 d0 3e 3e b6 b1 d2 be 3a c2 f0 3e 92 a0 c9 3e
       0.18634258 -0.41151208 0.47023183 0.39380318
000020 53 07 8a 3e ba 38 fe 3e 4c 44 27 be f2 9c 70 3e
       0.26958713 0.49652654 -0.16334647 0.2349737
000030 28 8f a1 3e 88 bf 81 be 30 a2 f8 3d 0a 03 08 3e
       0.31554532 -0.2534144 0.1214031 0.1328241
000040 10 c1 c3 3c 8e ec 5d 3e 86 0c 8f bd ad 64 e0 be
       0.02389577 0.2167227 -0.069848105 -0.4382681
000050 cc 1b 94 be b3 0a b8 3d 45 9d 0a bf 0e ba 09 bf
       -0.28927457 0.08986416 -0.54146224 -0.5379952
000060 86 93 d4 bc 13 5e 92 3e dc bd d7 be 11 24 cb be
       -0.02594925 0.28587398 -0.4213704 -0.39675954
000070 71 51 8c 3c 87 bb 03 3e b8 7c f0 bc ef 6d 99 3e
       0.017128678 0.12864505 -0.029356346 0.29966685
000080 55 7b 2b 3d 93 fc 6b bd 4d a3 bb be 25 a7 4e 3d
       0.041865665 -0.05761392 -0.36648026 0.05045237
000090 3f 02 0a 3f 21 d9 9a 3e 43 d7 f3 3e 48 a4 aa be
       0.5390968 0.3024378 0.4762517 -0.33328462
0000a0 d3 16 aa 3e 26 f4 15 3c 6e fb 22 3d 80 f0 fb be
       0.33220538 0.009152448 0.039790563 -0.49206924
0000b0 b2 c3 07 bf 75 36 ec 3d 7f 11 53 be 72 31 3c be
       -0.5303298 0.11533824 -0.20612143 -0.18378237
0000c0 94 fe 14 be d0 7a 50 3e 2a d3 c3 3e aa 44 c2 be
       -0.14550239 0.20359349 0.38247043 -0.37943012
0000d0 ad bc 55 3e 29 60 e5 3d cd ff bf 3e 2a 54 8d be
       0.20872755 0.11199982 0.37499848 -0.27603275
0000e0 a2 d4 0d 3e ea 15 32 bd f3 8c 95 be 05 11 88 bd
       0.13850644 -0.04347793 -0.29209098 -0.06643871
0000f0 91 67 9f be 5a 91 ba be 08 3f 15 bd 5e 1d 0d 3e
       -0.31133702 -0.3643902 -0.036437064 0.13780734

gat_layers.1.att_edge f4 [1, 4, 16]
000000 13 9e 88 be e6 69 90 3e ac 7a 5e be e8 6c 9c be
       -0.266831 0.28205794 -0.21726483 -0.3055184
000010 b2 6c 6f 3c 32 21 31 3d 14 c7 11 3c 9c 01 85 3e
       0.014613317 0.04324455 0.008897562 0.2597779
000020 5d b3 9c bd b3 4d f7 be 63 bf fa be b2 dc c9 bd
       -0.07651398 -0.48301467 -0.4897414 -0.098565474
000030 99 9b ab be c1 8d ef be b5 21 34 3e 2b b4 43 be
       -0.3351715 -0.46787837 0.17590983 -0.19111697
000040 35 d8 dd 3d c3 59 84 3d 5d d6 81 bb 0e 2d d3 3e
       0.10832254 0.06462433 -0.0039623217 0.41245311
000050 b2 9b 05 bd 63 bc c9 be c8 4f e2 be 48 28 9d be
       -0.032619186 -0.3940154 -0.44201493 -0.30694795
000060 bc 65 06 3f 2f bf a2 3e 45 ca 32 bb 52 c9 43 3e
       0.52498984 0.31786487 -0.0027281207 0.19119766
000070 12 c0 cc 3d 46 1f 83 be 5d 14 50 3d 11 33 58 3d
       0.09997572 -0.25609797 0.05080067 0.052783076
000080 10 73 ed bd 22 05 4f 3e 15 5e 9e bc 5d 87 aa bd
       -0.11594212 0.20216802 -0.019331971 -0.083266
000090 49 ed e0 be 5b 4c a6 be f8 61 c3 be 28 d1 03 bf
       -0.43931034 -0.3248013 -0.38160682 -0.5149102
0000a0 d7 84 37 3d 5a a6 f7 bd ca a5 00 3e fa e1 14 be
       0.04480442 -0.12092276 0.12563244 -0.14539328
0000b0 91 83 c0 3e 9b ae bc 3e 51 b1 bf 3d 69 eb d0 bd
       0.37600377 0.36851963 0.09359992 -0.10201151
0000c0 da 61 98 3e 43 bf ac be e2 85 84 3e 41 63 fa 3e
       0.29762155 -0.3373967 0.25883394 0.4890385
0000d0 5a bd 6b be e1 19 e7 3e af 1c f6 be 3d 55 34 be
       -0.2302145 0.45136932 -0.4806876 -0.17610641
0000e0 34 14 9e be ea aa 29 be 04 77 0a bf 7f 99 fa be
       -0.3087479 -0.16569105 -0.54087853 -0.48945233
0000f0 b9 17 84 be 49 b2 af be a0 3e 7a be 2e 36 b1 be
       -0.2579935 -0.34315708 -0.24437952 -0.34611648

gat_layers.1.bias f4 [64]
000000 04 6f 96 bb b8 14 87 bb 61 49 6c bb 69 96 45 bb
       -0.004590871 -0.004122343 -0.003605448 -0.0030149466
000010 a4 ef 98 bb f6 7e 67 bb 78 c3 7d bb 44 3e 06 3c
       -0.0046672393 -0.0035323477 -0.0038721245 0.008193556
000020 4d 64 99 bb 12 1b 0f bb dd 18 96 bb be 78 8d bb
       -0.0046811462 -0.0021836204 -0.0045806007 -0.004317372
000030 e5 c9 81 bb d7 20 99 bb 4a c4 47 bb 1a 5f 99 bb
       -0.0039608353 -0.0046731043 -0.0030481988 -0.0046805264
000040 16 12 10 3c bb 35 ec 3b d1 26 83 bb df 03 7f bb
       0.0087933745 0.0072085536 -0.00400243 -0.003891222
000050 39 6c 80 bb 1f c3 7b bb de ff 72 bb 59 8e 99 bb
       -0.003919151 -0.0038415862 -0.0037078778 -0.0046861586
000060 18 cb da 3b 57 42 98 bb ae 86 90 bb 21 85 91 bb
       0.0066770427 -0.00464658 -0.0044105863 -0.004440919
000070 07 d8 84 bb 2f 5f 6b bb 24 ba 81 bb c8 7c 9b bb
       -0.004054073 -0.0035914888 -0.0039589573 -0.0047450997
000080 a0 89 58 bb c2 1f da 3b b4 5d 82 bb 94 e1 6e bb
       -0.0033041015 0.006656618 -0.0039784554 -0.0036450373
000090 0c 1c 82 bb 69 ce 87 bb 7a 01 d6 3b 97 7c c2 3b
       -0.0039706286 -0.004144479 0.0065309377 0.0059352624
0000a0 aa 70 96 bb 5a ee 5e 3b b8 2f 81 bb 1b 08 97 bb
       -0.0045910673 0.003401658 -0.003942456 -0.0046091205
0000b0 e7 d9 f0 3b a8 cd 7b bb c8 d0 81 3b d4 45 7c bb
       0.0073501947 -0.0038422141 0.0039616562 -0.003849377
0000c0 7c 84 8e bb e8 9b 0c 3c 1b a4 7d bb 1c 00 7f bb
       -0.0043492895 0.008582093 -0.003870255 -0.0038909977
0000d0 ae 64 6d bb 64 11 8d bb 4b 57 10 3a 06 bd 6c bb
       -0.003622334 -0.0043050516 0.0005506172 -0.003612341
0000e0 08 c7 7e b9 5b 8c 90 bb c4 43 50 3b 9d 9f 80 bb
       -0.00024297473 -0.004411263 0.0031778673 -0.0039252774
0000f0 e2 c8 70 bb 73 15 d2 3b 00 18 6c bb 11 bb 00 3c
       -0.003674083 0.0064112484 -0.0036025047 0.0078571

gat_layers.1.lin.weight f4 [64, 64]
000000 36 45 48 3e cf 91 dd bc f3 f1 14 3e db 1c 9b bd
       0.19557652 -0.027047066 0.14545421 -0.07573863
000010 eb ab df bd 78 7e 86 3d 5f 64 2e be 5d 7f 76 3d
       -0.109214626 0.06567091 -0.17030476 0.060180057
000020 8f 14 06 3e 6c 98 51 be 17 6f 8f bc 5b 71 33 3e
       0.1309378 -0.204683 -0.017509026 0.1752371
000030 d5 62 be bd c0 a2 7c bd 45 b1 88 3d 32 3c 4b bd
       -0.092961945 -0.061678648 0.066744365 -0.049617954
000040 66 e3 28 3d 42 a1 33 bc f8 f9 5d be 8b ad 6f bd
       0.04123249 -0.01096374 -0.21677387 -0.058515113
000050 20 cf b1 3d b3 6d 07 bd c6 87 f1 3d 51 15 19 3c
       0.08682084 -0.0330636 0.11793475 0.009343461
000060 59 9f e2 bd bb e3 19 be 84 1e 93 ba 70 b2 10 3d
       -0.110655494 -0.15028279 -0.0011224304 0.03532642
000070 df 95 43 be db d6 c3 3d 36 c3 a4 3b f3 1d 52 be
       -0.1910014 0.09562465 0.005028154 -0.20519237
000080 9b 4e 39 3e aa 0a 16 bd 02 83 3d be ac ef 0f 3e
       0.18096392 -0.036631264 -0.18507007 0.14056271
000090 ce 6b d1 bc e7 9b e4 bb 62 b6 b1 3d 8f af 8c bd
       -0.0255641 -0.006976593 0.08677365 -0.06869423
0000a0 01 c6 f4 3b d9 c8 a6 3c f2 8b 89 3c 99 e4 3a be
       0.007469893 0.020359444 0.016790364 -0.18251266
0000b0 61 38 0a bd 89 fd 4a 3e 3e 7c f5 3d 2c b1 76 bd
       -0.033745173 0.19823278 0.11986588 -0.060227558
0000c0 c8 97 4a 3c 1e 25 13 3c 35 3b a4 3d 82 4d fe bc
       0.012365289 0.008981017 0.08019105 -0.031042818
0000d0 62 8e 92 3d cb 8f 08 3e 43 ce 6e 3d 05 2b 58 3e
       0.071560636 0.13336103 0.058302175 0.2111016
0000e0 4a a5 44 be 26 f6 90 3d 48 34 40 3d ae 7c e9 3d
       -0.19203678 0.07078199 0.04692486 0.11400734
0000f0 fd 98 ed bd 7a bd d2 3b f4 60 52 be 6e e4 06 3e
       -0.11601446 0.006431279 -0.20544797 0.13173077
000100 56 e1 15 bd 8c 53 38 bd 57 62 2a bd 48 41 a3 3d
       -0.03659185 -0.04500155 -0.04159769 0.07971436
000110 35 ab 02 be 5a 14 af 3d fc 84 13 be b4 95 e0 3d
       -0.12760623 0.08548804 -0.14406198 0.109660536
000120 43 54 aa 3c c8 50 89 3d 33 07 2a 3e b9 37 d3 3d
       0.020792132 0.06704861 0.16604309 0.10313363
000130 dc 16 01 be 68 55 40 be de f4 07 3d 33 dd 4a 3d
       -0.12606376 -0.1878258 0.033192508 0.04952736
000140 85 e7 54 3c 93 2b db 3d 10 22 92 3d e0 a1 5c 3e
       0.012994652 0.107016705 0.07135403 0.21546125
000150 ab 5b 2a be 9c ab cb 3c 1a 22 5b be 7a d8 b7 3c
       -0.16636531 0.024862103 -0.21399727 0.022442091
000160 c9 47 54 3e 55 4d 18 3e d5 2b 3e be 1a f9 5d 3e
       0.20730509 0.1487325 -0.18571408 0.21677056
000170 6c 36 15 be c9 01 cc 3d 43 ff 02 3e b5 37 cd bd
       -0.14571542 0.09961278 0.12792687 -0.10020391
000180 61 e4 dc bd 76 ef d4 bd 1f d3 1d 3e 19 77 61 3d
       -0.10785747 -0.10397236 0.15412568 0.05504522
000190 b6 ed a4 bd 3b 9f 3d be 09 1e 0b 3d 9c f1 1f be
       -0.08053152 -0.18517773 0.03396419 -0.1561951
0001a0 1a 12 19 3d 86 3b 87 3d d5 a5 fa 3d 2f a9 13 3c
       0.03737078 0.0660315 0.12238661 0.0090125045
0001b0 5b fe fe bd a8 c3 2f be 2a 25 25 be b8 3d d3 3d
       -0.12450858 -0.1716448 -0.16127458 0.10314506
0001c0 e2 0e 38 3e fe 84 f9 bd 73 e0 5f 3e f2 54 0b 3d
       0.17974427 -0.12183569 0.21862964 0.034016557
0001d0 74 72 b8 3d b2 b3 02 3e cf fb 92 3d 58 8e 42 be
       0.09006205 0.12763861 0.07176935 -0.18999612
0001e0 86 9a 00 be 89 cb 52 3e b0 d8 c8 bd 1e 51 66 bd
       -0.12558946 0.20585455 -0.09806955 -0.056229703
0001f0 54 8f 12 be df a3 ff 3d 40 ac 27 be 50 aa 2d 3d
       -0.14312488 0.12482428 -0.16374302 0.04239875
000200 b6 17 1a 3c 08 54 44 3c 0c dd 6b 3d 6e 73 4c 3e
       0.009405067 0.011982925 0.057583854 0.19965908
000210 d3 c6 40 3d a8 17 92 3d be 7b 8c 3d 32 10 5e 3e
       0.047064614 0.07133418 0.068595394 0.21685866
000220 99 88 fc bd 09 8c 9a 3d ae 61 6e bd f1 cc 34 3e
       -0.123307414 0.07546241 -0.058198623 0.17656304
000230 0d df 4b 3e 5a d7 d6 bd ae 50 24 be b4 f0 26 3d
       0.19909306 -0.10490294 -0.16046402 0.040756896
000240 9b 77 2d 3e 41 5d 1a 3e cc 11 44 3e 53 3c 22 be
       0.16940157 0.15074636 0.19147414 -0.15843324
000250 b3 59 d7 3d 84 78 9c bd 0e 26 c1 bc 31 5f d9 bd
       0.10515156 -0.07640174 -0.023577716 -0.106138594
000260 c9 0e 4b 3e cf ef 1f 3e 33 22 6b 3d 0d 54 5f be
       0.19829859 0.15618823 0.05740566 -0.21809407
000270 86 da 82 bd ff 7a e8 3d 91 3d 80 3d 1f ed c8 3d
       -0.06389336 0.11351585 0.06261743 0.09810852
000280 1d e1 bc 3c 78 cc ca bd 8d 32 5a be f6 e3 59 3e
       0.023056561 -0.099022806 -0.21308346 0.21278366
000290 a9 14 4f 3d 8b 53 9a bc 12 e1 1b 3e a3 6f 11 3e
       0.050556812 -0.018838665 0.15222576 0.14202742
0002a0 67 8d 0a be 1e 15 a5 3d ad a5 83 3c f2 fe 52 be
       -0.13530503 0.080606684 0.016070211 -0.20605066
0002b0 10 5a 93 bd 0f c2 51 3e 04 44 6c 3c ff 62 bd 3d
       -0.071949124 0.20484184 0.014420513 0.09247398
0002c0 b9 76 ae 3d 8a 65 24 3e 7d 50 87 bd 9b 94 e7 bc
       0.08518738 0.16054359 -0.06607149 -0.028269103
0002d0 89 3d 9f 3c fd 1e f6 bc 39 fc 1c 3d d3 d1 c8 3d
       0.019438522 -0.030044073 0.038326476 0.09805646
0002e0 e7 ac 30 3e 6b 35 92 3d b3 76 21 be fc 76 06 3e
       0.17253457 0.07139095 -0.15767936 0.13131326
0002f0 51 c6 b8 bd 84 69 68 3d f5 5e 1f bd e0 29 2e be
       -0.09022201 0.056741253 -0.038908917 -0.17008162
000300 68 39 dd bd fb d9 5f 3d 0e d3 2f 3e 24 d1 44 bc
       -0.10801965 0.05465124 0.17170355 -0.012012754
000310 d9 6f b6 bd c3 88 28 3e 45 4b 14 3d 3f 5a 3d 3e
       -0.08908052 0.1645842 0.036204595 0.18491457
000320 41 96 57 3e d8 58 0a bd 9d 2a e8 3d 96 62 25 bd
       0.21053411 -0.033776134 0.11336253 -0.040377222
000330 1c 97 38 3d af 8a 36 3e a7 9f ab 3d c9 f9 59 be
       0.045065984 0.17826341 0.08380061 -0.21286692
000340 4f 31 85 3d a7 86 f5 3d 7e bc cf bd 20 bb cc 3d
       0.065035455 0.119885735 -0.10143374 0.09996629
000350 78 7a 98 bc 0f 52 3e 3e b3 e9 82 bc 14 18 3b be
       -0.018613085 0.1858599 -0.015980577 -0.18270904
000360 95 78 a3 bd 50 3e b7 3d e9 44 62 3c c2 ec bb 3d
       -0.079819836 0.08947432 0.013810375 0.09176017
000370 9a 0f 30 be 46 35 58 3e 15 0c 1c 3e 77 ed 90 bc
       -0.17193452 0.21114072 0.15238984 -0.017691357
000380 1f fb d1 bd 7c ce e4 bd 3e 5e 38 3d c3 1d 3f 3e
       -0.10252976 -0.11172196 0.04501175 0.18663697
000390 9b 9d 2d 3e c6 b3 ac bc 3a 24 c6 3b 8c a3 5d be
       0.16954653 -0.021081816 0.006046799 -0.2164442
0003a0 aa d4 0d be 4f 54 20 3e cc 13 3b 3e 91 81 3c 3e
       -0.13850656 0.15657161 0.1826927 0.184088
0003b0 3d 01 4b bd 1f 7d bb 3d d6 ae 2b 3e 77 6b 34 3e
       -0.049561728 0.09154724 0.16765913 0.1761912
0003c0 92 72 30 3e cd 51 50 3e 27 88 98 3d e2 b9 4a 3e
       0.17231205 0.20343705 0.07447844 0.19797471
0003d0 28 a3 25 bd e0 3e 55 be 8f bd 95 3d 66 db 3e 3e
       -0.0404388 -0.20824766 0.07311546 0.18638381
0003e0 99 83 12 3e 9a 8c 01 3e 04 73 60 be 90 0a e7 3d
       0.14308013 0.12651291 -0.21918875 0.112813115
0003f0 a0 72 3e bc 22 5c 48 be 72 f2 62 bd 4d 07 9d 3d
       -0.011624008 -0.19566396 -0.055406995 0.07667408
