models/best_fraud_model_seed_333.pth (torch, 378192 bytes, 45 tensors)

node_emb.weight f4 [64, 8]
0	0xbe28f895	-0.16501077
1	0x3dc8b843	0.0980077
2	0x3e639000	0.222229
3	0x3e809ddd	0.2512044
4	0x3e3331ce	0.17499468
5	0x3d9c9d1d	0.076471545
6	0x3e94ab9a	0.29037172
7	0x3ea4ba5c	0.3217343
8	0xbcd3efda	-0.025871206
9	0x3e300dcc	0.17192763
10	0xbe022b90	-0.1271193
11	0x3e5a759e	0.2133393
12	0xbe8931a9	-0.267957
13	0xbe1d6a0a	-0.15372482
14	0xbc11dfe5	-0.008903478
15	0x3eae25cf	0.3401322
16	0x3c057950	0.008146599
17	0x3e31ab28	0.17350447
18	0x3dd31546	0.10306792
19	0xbdc3bd76	-0.09557621
20	0x3c915ede	0.017745432
21	0x3e1193c0	0.14216518
22	0x3da87560	0.082255125
23	0xbe12187e	-0.14267156
24	0x3e932838	0.28741622
25	0xbc8756b3	-0.016520834
26	0x3dee463f	0.11634492
27	0x3e9ae10a	0.30249816
28	0xbdd9d5f1	-0.10636509
29	0x3e688f7d	0.22710986
30	0x3ea3f1a0	0.32020283
31	0x3ea4064f	0.32036063
32	0x3e9d05cd	0.30668488
33	0xbe3e34b4	-0.18574792
34	0x3e4da682	0.20083049
35	0x3e894996	0.26813954
36	0xbe1b1d87	-0.15147983
37	0xbdac61e0	-0.08417106
38	0x3da8fd3d	0.08251426
39	0xbe8da5e6	-0.27665633
40	0x3e65a2c8	0.22425377
41	0x3e371c8b	0.17881982
42	0x3e382922	0.17984441
43	0x3daa645d	0.08319924
44	0xbda838c3	-0.082139514
45	0xbd809ca0	-0.06279874
46	0x3dc6d7d5	0.097091354
47	0xbe993a70	-0.29927397
48	0xbd09fd19	-0.03368864
49	0xbd3b5144	-0.045731798
50	0xbc9b0e2f	-0.018927662
51	0x3e6769a4	0.22598892
52	0xbda594e6	-0.08085041
53	0x3e3bb536	0.18330845
54	0x3dd9fe73	0.106442355
55	0xbe91155a	-0.28336602
56	0x3e4753f0	0.19465613
57	0xbe7369d4	-0.23770839
58	0x3e5c45ca	0.21510997
59	0x3e555b61	0.2083564
60	0x3e9d92b8	0.30776
61	0xbea36c8c	-0.31918752
62	0x3da6bbf1	0.08141316
63	0xbe16b92c	-0.14719075
64	0x3e5c042f	0.21485971
65	0x3e7f7ee9	0.24950756
66	0xbdce3fa6	-0.10070734
67	0xbe9d51b7	-0.30726406
68	0xbe668e16	-0.22515139
69	0xbe7533fc	-0.23945612
70	0x3e68171d	0.22665067
71	0xbe9488a8	-0.2901051
72	0xbc4c39ee	-0.012464983
73	0x3e9db16c	0.30799425
74	0x3cfb8768	0.030704215
75	0xbe43e9f2	-0.19132212
76	0x3e03911f	0.12848328
77	0x3e844c01	0.25839236
78	0x3dbc8ebd	0.09206913
79	0x3e2cd726	0.16878948
80	0xbd7479dd	-0.05968653
81	0xbe51caea	-0.20487562
82	0x3e5b44e4	0.21412998
83	0x3e1b2633	0.1515129
84	0xbccdb2cd	-0.025109673
85	0x3c367899	0.011137151
86	0x3d70a4ce	0.05875092
87	0x3eafd985	0.34345642
88	0xbdbc1042	-0.091827884
89	0xbd3a0f54	-0.045424774
90	0x3cec4a4e	0.028844025
91	0x3e9fef88	0.31237435
92	0x3e34fc16	0.17674288
93	0x3d6895cb	0.05678348
94	0x3e64cdea	0.22344175
95	0x3caeeebe	0.021354076
96	0x3e2d3240	0.169137
97	0x3cc6ab9c	0.024251752
98	0xbe6c430d	-0.23072453
99	0xbda7e7bf	-0.08198499
100	0xbdfb565d	-0.12272332
101	0xbe090cdb	-0.1338381
102	0x3da8ebea	0.08248122
103	0x3de8c5be	0.11365841
104	0x3ca79377	0.020456059
105	0x3e94be05	0.29051223
106	0x3e674e14	0.22588378
107	0x3ddb2ab5	0.10701505
108	0xbea37f38	-0.31932998
109	0x3db23ea4	0.08703354
110	0xbe24b72f	-0.16085504
111	0x3e631bd8	0.2217859
112	0xbdb2cd8b	-0.087306105
113	0xbe68e837	-0.22744833
114	0x3e8bac6e	0.2727999
115	0x3cb087b2	0.02154908
116	0x3e3174d1	0.17329718
117	0xbe3b0485	-0.18263443
118	0xbea83116	-0.3284995
119	0xbc8c8d1d	-0.017157132
120	0x3daff322	0.08591296
121	0x3e707dea	0.23485532
122	0x3e509ac3	0.20371537
123	0xbdb5c572	-0.0887555
124	0xb8c39ec8	-9.3279e-05
125	0x3c185e51	0.0092998305
126	0x3ea75598	0.3268249
127	0xbeb26c89	-0.3484843
128	0xbe9cee04	-0.30650342
129	0x3dca2978	0.09871191
130	0xbdcb6ab6	-0.09932463
131	0x3e942d7b	0.2894095
132	0x3e648857	0.22317635
133	0x3e423a09	0.18967451
134	0x3e61068f	0.21975158
135	0x3e9f43d0	0.31106424
136	0xbd3a1474	-0.045429662
137	0xbcb6824b	-0.022278925
138	0x3c29b0eb	0.010357122
139	0xbe443f36	-0.19164738
140	0x3d6f0b91	0.05836064
141	0xbe086d28	-0.1332289
142	0x3eacd082	0.3375283
143	0x3e6b6f50	0.22991681
144	0x3e5c2a17	0.21500431
145	0xbe4b7f2f	-0.19872735
146	0x3e254c68	0.16142428
147	0xbeb1af2b	-0.34703955
148	0xbe9e479b	-0.30914006
149	0xbdbfc939	-0.09364552
150	0x3bee108d	0.0072651566
151	0xbe954547	-0.29154417
152	0xbcd8b47f	-0.026453255
153	0x3cf67e46	0.030089509
154	0xbe20b0a6	-0.15692386
155	0x3dbc751d	0.09202025
156	0xbe9b2735	-0.3030335
157	0xbe39d101	-0.18146135
158	0xbea84009	-0.32861355
159	0xbe33804d	-0.17529412
160	0x3e298922	0.16556218
161	0xbe2b527a	-0.16730681
162	0x3d125a4f	0.035730656
163	0xbd32813a	-0.04358027
164	0x3d552bd3	0.052043747
165	0xbe93c056	-0.28857678
166	0x3e516862	0.20449975
167	0xbe70f692	-0.23531559
168	0x3d3951bb	0.04524396
169	0xbdf144ae	-0.11780678
170	0x3e839b05	0.25704208
171	0x3d35f3b7	0.044421878
172	0xbe0a1519	-0.1348461
173	0xbdacaea8	-0.084317505
174	0xbeb31ce4	-0.3498298
175	0xbe9fc138	-0.31202102
176	0x3d4ad5d1	0.049520317
177	0xbe2244c0	-0.15846539
178	0xbe78ba24	-0.24289757
179	0x3d92aa42	0.0716138
180	0x3dd2aa91	0.10286439
181	0x3dab9111	0.083772786
182	0x3e30671d	0.17226835
183	0xbe10b44a	-0.14131275
184	0x3da6f631	0.08152426
185	0xbd5feab7	-0.0546672
186	0x3e954aa6	0.29158515
187	0xbdc69a30	-0.09697378
188	0xbd3a912a	-0.045548595
189	0x3d30bf36	0.043151103
190	0xbd03aeec	-0.03214924
191	0xbdb45a6d	-0.0880631
192	0x3e1301b1	0.14356114
193	0xbdfba8fe	-0.12288092
194	0xbe5da5d6	-0.21645293
195	0x3e24f899	0.16110457
196	0x3ea09ea7	0.31371042
197	0xbde54eb9	-0.11196656
198	0xbdb6a0ab	-0.08917364
199	0x3cf1bdcf	0.029509453
200	0xbe9a316f	-0.3011584
201	0x3c0a17f1	0.00842856
202	0xbda85da3	-0.08220985
203	0x3d142895	0.036171515
204	0xbe40b313	-0.18818311
205	0x3e84941e	0.25894254
206	0xbd43cf06	-0.047804855
207	0xbd6f2937	-0.058388915
208	0xbe46fcbd	-0.1943235
209	0xbe5a54d6	-0.21321425
210	0x3dbeacde	0.093103155
211	0x3d0fc57d	0.03510045
212	0xbe61bd3d	-0.22044845
213	0x3e7ef8e6	0.24899635
214	0xbe9b49c9	-0.3032973
215	0xbdd771f1	-0.105197795
216	0x3c81233c	0.015763871
217	0xbe54df26	-0.2078825
218	0x3ea6b3b0	0.32558966
219	0xbe81529d	-0.2525834
220	0x3eb7732e	0.35830063
221	0x3e9d691f	0.30744264
222	0xbe626e2e	-0.22112343
223	0xbe9712bd	-0.29506484
224	0x3e23d38e	0.1599867
225	0xbdeee62a	-0.11664994
226	0x3eabe16f	0.3357043
227	0x3de4827f	0.11157703
228	0xbe89be42	-0.26902968
229	0xbe3fc45c	-0.18727249
230	0x3e3b50e8	0.18292582
231	0xbe019b4d	-0.12656899
232	0xbea53543	-0.32267198
233	0x3eaa287d	0.33234015
234	0xbdfbdc24	-0.12297848
235	0x3e49d060	0.19708395
236	0x3b5f473c	0.0034069559
237	0xbdc7d826	-0.09758024
238	0xbde95c4b	-0.113945566
239	0x3e9a00f2	0.30078846
240	0xbe58c980	-0.21170616
241	0x3cbbebc6	0.022939574
242	0x3e26b0e3	0.16278414
243	0x3e1b75db	0.15181677
244	0x3eb476e0	0.35246944
245	0x3e886251	0.2663751
246	0xbea814e2	-0.32828432
247	0x3e9aa930	0.30207205
248	0xbe15641f	-0.14588974
249	0xbead0b3f	-0.33797643
250	0xbe8c9727	-0.2745907
251	0xbd033a2e	-0.032037906
252	0xbea69922	-0.32538706
253	0xbe56b107	-0.20965968
254	0xbe2739d4	-0.16330653
255	0x3e1e75c0	0.15474606

node_emb.bias f4 [64]
0	0xbda65f14	-0.081236035
1	0x3d8efb8f	0.06981575
2	0xbe148ccb	-0.14506833
3	0x3e19c14e	0.15015146
4	0x3e856cbe	0.26059526
5	0xbe67db69	-0.22642292
6	0x3d3d4365	0.04620685
7	0xbe6a8fca	-0.22906414
8	0x3e2a4fcc	0.16632003
9	0xbd150754	-0.03638394
10	0xbbdcef66	-0.0067424057
11	0x3e8190c7	0.2530577
12	0xbdec5b93	-0.11540904
13	0x3e018a22	0.1265035
14	0xbe775570	-0.24153686
15	0x3df9c1c8	0.12195164
16	0xbe738a9d	-0.23783346
17	0x3e6557cf	0.22396778
18	0xbdb35de5	-0.08758143
19	0xbe6bc9ff	-0.23026274
20	0xbdb851f5	-0.09000007
21	0x3e269a60	0.16269827
22	0xbe841bdb	-0.25802502
23	0xbe3300a8	-0.17480719
24	0x3e854bf0	0.26034498
25	0x3d987483	0.07444098
26	0x3e8bbeea	0.27294093
27	0xbe99d612	-0.30046135
28	0x3e094b11	0.13407542
29	0xbe0cac4e	-0.13737604
30	0xbdb71bd1	-0.089408524
31	0xbe85142d	-0.25991955
32	0x3d29e0a0	0.041473985
33	0xbe9ec81b	-0.31012043
34	0xbe69d361	-0.22834541
35	0xbe23b0c7	-0.15985404
36	0x3d8ccb74	0.06874743
37	0x3e1a6c05	0.15080269
38	0x3e9863a8	0.29763532
39	0xbd722a2b	-0.059122246
40	0xbeb5fb0f	-0.35543105
41	0xbea5c120	-0.32373905
42	0x3d443bd6	0.047908626
43	0xbd9212bd	-0.0713248
44	0x3eb0c2f2	0.3452373
45	0xbe2db6c7	-0.16964255
46	0x3e359038	0.17730796
47	0xbdf14105	-0.117799796
48	0xbccc2c9b	-0.024923613
49	0x3e7f43e3	0.2492824
50	0xbe040e72	-0.12896135
51	0x3eac3453	0.3363367
52	0xbe86b183	-0.26307306
53	0xbe7c95fd	-0.24666591
54	0x3e4e85be	0.20168206
55	0x3ea20df0	0.31651258
56	0x3e6ce766	0.23135146
57	0x3da69672	0.08134164
58	0xbe37b23d	-0.17939086
59	0xbcbafdd0	-0.022826105
60	0x3eac2241	0.33619884
61	0x3d9efbdf	0.07762884
62	0xbe9286c1	-0.28618434
63	0x3da8633b	0.08222052

edge_emb.weight f4 [64, 2]
0	0xbf1d565f	-0.61459917
1	0x3deb0375	0.11475269
2	0x3ee37d31	0.4443145
3	0x3f1063f2	0.56402504
4	0xbe8e0a82	-0.27742392
5	0xbd339ca3	-0.043850552
6	0xbed93826	-0.4242565
7	0xbef5e449	-0.4802573
8	0x3f25d96d	0.6478489
9	0xbed3fb29	-0.41402557
10	0x3dfd5e8c	0.12371549
11	0xbee26e81	-0.44224933
12	0x3eee2dd1	0.4651933
13	0x3d78caf6	0.060740434
14	0x3ee1bc0f	0.4408879
15	0x3e85c68e	0.26128048
16	0xbe98340b	-0.29727206
17	0x3ebe44d9	0.37161902
18	0xbe1dedb2	-0.15422705
19	0x3ee71ef7	0.45140812
20	0x3ee0bd96	0.43894643
21	0xbe614504	-0.21998984
22	0xbf18bd2f	-0.5966367
23	0x3f16c7e0	0.58898735
24	0x3de47072	0.1115426
25	0xbdab263d	-0.08356903
26	0xbeec27cf	-0.46124122
27	0x3f12841d	0.5723284
28	0xbef751a0	-0.48304462
29	0xbf23c6fb	-0.63975495
30	0xbec5e38f	-0.38650176
31	0xbde35fc5	-0.11102251
32	0x3e2e2f2d	0.17010184
33	0xbf2d4659	-0.67685467
34	0x3ed439d2	0.41450363
35	0x3ee1890c	0.4404987
36	0x3eae88f4	0.34088862
37	0xbcfa10aa	-0.030525524
38	0xbec46d77	-0.38364765
39	0x3f07fe50	0.53122425
40	0x3f12326d	0.57108194
41	0x3ea17544	0.3153478
42	0xbe75e94c	-0.24014777
43	0xbe48f5d8	-0.19625032
44	0xbec482db	-0.38381085
45	0x3f01e254	0.50735974
46	0x3db5ba44	0.08873418
47	0x3f2e18ea	0.68006766
48	0x3f1eacec	0.6198261
49	0xbf2de212	-0.6792308
50	0x3f307a66	0.68936765
51	0xbcc01484	-0.023447283
52	0x3e0eff72	0.13964632
53	0xbf324c96	-0.6964811
54	0x3efd3202	0.49452215
55	0xbf011069	-0.50415665
56	0x3e171a5e	0.14756152
57	0x3c95dc4d	0.018293524
58	0x3f28676d	0.65782815
59	0xbe4913bf	-0.19636439
60	0xbef2ba56	-0.47407788
61	0x3f2f6ceb	0.6852557
62	0xbed028bd	-0.4065608
63	0x3ecc7762	0.39934832
64	0x3e0005c8	0.12502205
65	0xbd9d091f	-0.07667755
66	0x3f35f29a	0.71073306
67	0x3df9de61	0.122006185
68	0xbf08cb47	-0.53435177
69	0x3ea0faf6	0.31441468
70	0x3f18a930	0.5963316
71	0x3ede3dfd	0.43406668
72	0xbe5eb79a	-0.21749726
73	0xbe7b97a7	-0.2456957
74	0x3f194342	0.5986825
75	0xbe058445	-0.13038738
76	0x3dee7ef2	0.11645307
77	0xbec95cc2	-0.3932858
78	0x3e86b4af	0.26309726
79	0x3e54a5f9	0.20766439
80	0xbee460d7	-0.44605133
81	0x3f05e988	0.52309465
82	0x3f018c38	0.5060458
83	0x3e76c996	0.24100336
84	0x3effa62a	0.4993146
85	0xbe5e1cb8	-0.21690643
86	0x3df5d971	0.12004364
87	0x3efafd22	0.4902125
88	0x3f2f79b0	0.68545055
89	0x3ef53483	0.47891626
90	0x3f2fba77	0.686439
91	0xbedf60ac	-0.43628442
92	0x3e948834	0.29010165
93	0xbd3fcfd2	-0.046829052
94	0xbdcb1df6	-0.09917824
95	0xbe916d17	-0.2840354
96	0xbea66e0d	-0.32505837
97	0x3ed58cca	0.41708976
98	0xbe954d06	-0.29160327
99	0xbeb58ddd	-0.35459796
100	0xbee557c8	-0.44793534
101	0xbcaa1ad2	-0.020764742
102	0xbea5fc14	-0.32418883
103	0x3f2f7b58	0.6854758
104	0xbe9310ec	-0.28723848
105	0x3e377f93	0.1791976
106	0x3d52359a	0.05132065
107	0x3f2353b5	0.637996
108	0x3ecef7ad	0.40423337
109	0xbea8f41e	-0.32998747
110	0xbec3f551	-0.382731
111	0xbe9fdff2	-0.31225544
112	0x3eb66a53	0.35627994
113	0x3f0fec60	0.56220055
114	0xbf131a1c	-0.57461715
115	0x3d5a13e8	0.05324164
116	0x3d256650	0.040380776
117	0xbeb26671	-0.34843782
118	0xbe9d194c	-0.30683362
119	0x3d8b53db	0.068031035
120	0x3f124a4f	0.57144636
121	0x3f297dda	0.6620766
122	0x3f26bc12	0.6513072
123	0xbdd48df7	-0.1037864
124	0x3e635f20	0.22204256
125	0x3bc1c64c	0.0059135314
126	0x3e50240a	0.20326248
127	0x3e98eba8	0.2986729

edge_emb.bias f4 [64]
0	0x3eec1d6a	0.4611619
1	0xbcbb4b4b	-0.02286305
2	0xbda89038	-0.082306325
3	0x3e8a86fa	0.27056104
4	0xbd86cf44	-0.065825015
5	0x3e753dfc	0.23949426
6	0xbe4d9415	-0.2007602
7	0x3ee2f340	0.4432621
8	0xbed37e5d	-0.41307345
9	0x3e82a121	0.25513557
10	0x3e5d4b72	0.21610811
11	0xbcdec29f	-0.027192412
12	0x3e2cd6e8	0.16878855
13	0x3ee0d28d	0.43910637
14	0x3e4b6e26	0.19866237
15	0x3ea71426	0.3263256
16	0xbf2e17d2	-0.68005097
17	0x3ed0ff6e	0.40819877
18	0xbec80261	-0.39064315
19	0xbe5a0189	-0.21289648
20	0x3f1f996c	0.6234348
21	0xbe8b7045	-0.27234092
22	0xbdcb447d	-0.099251725
23	0xbf120f34	-0.5705445
24	0x3ede39ec	0.43403566
25	0x3db25cda	0.08709116
26	0xbe464f85	-0.19366272
27	0x3f0eea90	0.55826664
28	0xbd104c4d	-0.035229016
29	0xbf153f1c	-0.5829942
30	0xbe8301c5	-0.25587288
31	0x3f05ab61	0.5221463
32	0xbe39983f	-0.18124484
33	0xbe4d8444	-0.20069987
34	0xbe6f4886	-0.23367509
35	0x3ec39246	0.38197535
36	0xbe2c341d	-0.16816755
37	0xbdb9db12	-0.090749875
38	0x3e9bc53a	0.3042391
39	0x3e4b9785	0.19882019
40	0xbe99da3c	-0.30049312
41	0xbf16476e	-0.58702743
42	0xbe854889	-0.26031902
43	0x3e1d185f	0.15341328
44	0xbd10c7fd	-0.035346974
45	0xbf2b9741	-0.6702767
46	0xbe8164a9	-0.2527211
47	0xbeb31598	-0.34977412
48	0x3f1d4a7d	0.61441785
49	0xbcf847ae	-0.030307617
50	0x3c8e8dda	0.017401624
51	0x3e0b6a9a	0.13614884
52	0xbee3b397	-0.44472954
53	0xbd60f862	-0.054924376
54	0x3eb8b2bd	0.36073866
55	0xbd27d962	-0.040978797
56	0x3db7a663	0.089672826
57	0xbee5fc88	-0.4491923
58	0xbf2adeb9	-0.667461
59	0x3df75f46	0.12078719
60	0x3f1ca93b	0.61195725
61	0xbee79c7d	-0.4523658
62	0x3de5af70	0.11215103
63	0x3f1e5f0b	0.61863774

gat_layers.0.att_src f4 [1, 4, 16]
0	0x3f03f187	0.51540416
1	0x3f0ba030	0.545413
2	0xbd753e80	-0.059874058
3	0x3e4ad528	0.19807875
4	0x3eaf8638	0.34282088
5	0xbf0b3ca2	-0.54389393
6	0x3f0b0856	0.54309595
7	0x3e54d5ee	0.20784733
8	0xbe81c154	-0.2534281
9	0x3eddd041	0.43322948
10	0xbd9ea293	-0.07745852
11	0x3abe81af	0.0014534498
12	0x3ea4bad1	0.3217378
13	0xbefb971f	-0.49138734
14	0x3ede2332	0.43386227
15	0xbe2bbb52	-0.16770676
16	0xbd29ff7b	-0.04150341
17	0x3d064973	0.03278489
18	0xbeb42c8c	-0.35190237
19	0xbec8e988	-0.3924067
20	0x3ed3248a	0.41238815
21	0xbe86b1c4	-0.263075
22	0x3e608bc8	0.21928322
23	0x3e5f37bb	0.21798603
24	0x3d6abe3b	0.057310324
25	0xbf025140	-0.5090523
26	0x3e0d7312	0.13813427
27	0x3e23dbbc	0.16001791
28	0xbee3200e	-0.44360393
29	0xbee1ba58	-0.44087481
30	0x3ecd23d3	0.40066394
31	0xbdb66058	-0.08905095
32	0xbedadfc9	-0.4274886
33	0x3e4eec6f	0.2020738
34	0x3ee5bb7d	0.44869605
35	0xbe412535	-0.1886185
36	0x3f0368b9	0.5133167
37	0x3d7d84ed	0.061894346
38	0x3ec1a952	0.37824494
39	0xbee2724a	-0.4422782
40	0x3f031ed0	0.5121889
41	0x3e241732	0.16024473
42	0x3db39cfc	0.08770177
43	0x3e9a3677	0.30119678
44	0xbe1e71cb	-0.15473096
45	0x3bda68b0	0.0066653118
46	0xbcfb999d	-0.030712897
47	0xbab0d4c6	-0.0013491146
48	0x3e1e3056	0.15448126
49	0x3f09c62b	0.53818005
50	0xbec8e401	-0.39236453
51	0xbf047ab1	-0.5174971
52	0x3ea2aed5	0.3177401
53	0x3ec0e7ce	0.37676853
54	0xbe40440c	-0.18775958
55	0xbeacfbb2	-0.33785778
56	0x3e9610dd	0.2930974
57	0xbea21463	-0.3165618
58	0xbf0037a6	-0.5008491
59	0x3ea79647	0.3273184
60	0xbea1ee09	-0.3162692
61	0xbed1bac3	-0.409628
62	0x3eb2be14	0.34910643
63	0x3e9877a4	0.2977878

gat_layers.0.att_dst f4 [1, 4, 16]
0	0x3ba03ce1	0.00489007
1	0x3ec14dc9	0.37754658
2	0x3e37472c	0.17898244
3	0xbd240f26	-0.04005351
4	0x3e883e53	0.2661005
5	0xbefcd5c9	-0.49381855
6	0x3dc2a788	0.0950461
7	0x3ef6d5a1	0.4820986
8	0xbe2f11db	-0.17096655
9	0x3f06ad4e	0.5260819
10	0x3ed5d4d4	0.41763937
11	0xbe1d97a0	-0.15389872
12	0x3ed6a502	0.41922766
13	0xbefe0245	-0.49611107
14	0x3ecabf27	0.39598963
15	0xbeee6b21	-0.46566108
16	0xbe888f10	-0.26671648
17	0xbea6cc8b	-0.3257793
18	0xbebc7845	-0.36810508
19	0x3eda805d	0.42676058
20	0xbec3ad59	-0.3821819
21	0x3d8e4a4b	0.06947764
22	0xbf0bf005	-0.54663116
23	0x3e37190a	0.17880645
24	0xbeccdf5d	-0.40014163
25	0x3e024d52	0.12724808
26	0x3ee65715	0.44988313
27	0x3d9891ff	0.074497215
28	0xbeaa64df	-0.33280084
29	0x3ecc339c	0.39883125
30	0xbe8879c3	-0.26655397
31	0xbe12fe7e	-0.14354894
32	0xbdf4f532	-0.1196083
33	0x3ed286ef	0.4111857
34	0x3ea8c431	0.32962182
35	0x3ac827fe	0.0015270708
36	0xbf073a46	-0.52823293
37	0x3eadc21b	0.33937153
38	0xbe900a89	-0.28133038
39	0x3e6dae0e	0.23210928
40	0xbf0b0a32	-0.5431243
41	0x3f0022bc	0.50053
42	0x3e80ab6a	0.2513078
43	0xbef1d948	-0.47236085
44	0xbe8d98c9	-0.27655628
45	0xbe81117a	-0.25208646
46	0x3f06cb42	0.52653897
47	0x3f0bf000	0.54663086
48	0xbf0895fa	-0.53353846
49	0xbea19b02	-0.31563574
50	0x3ee70ac0	0.4512539
51	0x3ea1a799	0.3157318
52	0xbef49165	-0.47767177
53	0x3f09e0bd	0.5385855
54	0x3ea41b7c	0.3205222
55	0xbe80eacc	-0.25179136
56	0xbee3df40	-0.44506264
57	0xbea0b691	-0.31389287
58	0xbe761920	-0.24033022
59	0x3e547bbc	0.20750326
60	0xbd5d1f75	-0.053985078
61	0x3ea570d9	0.32312658
62	0xbe2d6c6e	-0.16935894
63	0x3e57f369	0.21088947

gat_layers.0.att_edge f4 [1, 4, 16]
0	0xbf01c0b3	-0.5068466
1	0xbe1ca770	-0.15298247
2	0xbe54b3db	-0.20771734
3	0xbecb79b4	-0.3974129
4	0xbe8e5087	-0.27795812
5	0xbed37401	-0.4129944
6	0xbeac3e38	-0.3364122
7	0x3df89185	0.12137131
8	0x3e543739	0.20724191
9	0xbe9336a3	-0.28752622
10	0x3f0aee24	0.54269624
11	0x3ecb5f2c	0.39721048
12	0x3f062d00	0.52412415
13	0xbd6f56df	-0.058432456
14	0x3f081db2	0.5317031
15	0x3eaeaa88	0.3411448
16	0x3eceb464	0.40372002
17	0x3e56e379	0.20985211
18	0xbe22621f	-0.15857743
19	0xbea5f3c9	-0.32412556
20	0x3e698c92	0.2280753
21	0x3eabd0db	0.33557782
22	0xbec21e23	-0.37913617
23	0x3e8143d6	0.25247067
24	0xbebe7b04	-0.37203228
25	0xbe830181	-0.25587085
26	0xbdf7ebdb	-0.12105533
27	0x3e57cb4f	0.2107365
28	0xbe5b0043	-0.21386819
29	0xbefbd9ec	-0.491897
30	0xbed89c98	-0.42306972
31	0xbef346bf	-0.47514912
32	0xbe522ab4	-0.20524102
33	0x3ee23747	0.44182798
34	0x3ed2325b	0.41054043
35	0xbe2c81f1	-0.16846444
36	0x3e202c21	0.15641834
37	0xbdd27759	-0.1027667
38	0x3e32cbb2	0.17460516
39	0xbd25dceb	-0.040493887
40	0x3d634149	0.055482183
41	0xbdda95a5	-0.10673074
42	0xbf0bec58	-0.54657507
43	0x3e524b2c	0.20536488
44	0xbeee1a0d	-0.4650425
45	0xbe97c958	-0.296458
46	0xbe9de302	-0.30837256
47	0xbd21350e	-0.039357238
48	0x3dd2a122	0.1028464
49	0xbe9f8759	-0.3115795
50	0x3ec3e3e8	0.38259816
51	0xbe52e1b1	-0.20593907
52	0x3dacc196	0.08435361
53	0xbf00e1d2	-0.50344574
54	0x3e33d78c	0.17562693
55	0x3edb7f10	0.42870378
56	0x3d8b4047	0.06799369
57	0xbdfdea40	-0.12398195
58	0x3e0d36a7	0.1379038
59	0xbe965047	-0.29358122
60	0xbd1fca2f	-0.039011177
61	0xbece9501	-0.40348056
62	0x3e524e93	0.20537786
63	0xbf0689da	-0.52554095

gat_layers.0.bias f4 [64]
0	0xbbe0e462	-0.006863163
1	0xbbdddcbc	-0.0067706984
2	0xbbdd9e62	-0.0067632655
3	0x3b99e2d0	0.0046962276
4	0xbbdddaa5	-0.006770449
5	0x3c4f60c7	0.012657351
6	0xbbdebb3e	-0.0067972234
7	0xbbdf7810	-0.0068197325
8	0xbbe18a85	-0.006882968
9	0xbbdd3a72	-0.006751352
10	0x3be0c83d	0.0068598078
11	0xbbde783b	-0.006789235
12	0xbbddb678	-0.0067661367
13	0xbbe0408d	-0.0068436326
14	0xbbe04534	-0.006844187
15	0xbbd074c0	-0.006361574
16	0xbbde304f	-0.006780661
17	0xbbd2bd93	-0.0064312904
18	0xbbde21f8	-0.0067789517
19	0x3c508113	0.012726086
20	0xbbddbf4e	-0.00676719
21	0xbbddb8aa	-0.0067663984
22	0xbbdd3851	-0.006751098
23	0xbbdca9f1	-0.006734126
24	0x3bd5f54e	0.0065294867
25	0xbbddc9a9	-0.0067684245
26	0xbb1106cc	-0.0022129295
27	0xbbdd3411	-0.0067505916
28	0xbbded7c9	-0.006800626
29	0xbbdcbdbd	-0.0067364858
30	0xbbdda4f0	-0.006764047
31	0xbbe14d81	-0.0068756943
32	0xbbddb43e	-0.0067658713
33	0xbbde6f82	-0.006788195
34	0xbbb9a3e0	-0.0056652874
35	0xbbdf84f3	-0.0068212687
36	0xbbdd90c8	-0.006761644
37	0xbbde5edd	-0.006786211
38	0xbbdcc471	-0.006737285
39	0xbbdecee5	-0.006799566
40	0xbbdd8011	-0.0067596515
41	0xbbde55c9	-0.0067851287
42	0xbbd653a4	-0.0065407325
43	0xbaac42e2	-0.0013142491
44	0xbbe139c8	-0.006873343
45	0xbbdd6b4a	-0.0067571746
46	0x3c68f386	0.014218217
47	0x3c0f67da	0.0087527875
48	0xbbdd70f9	-0.006757852
49	0xbbbfbb4d	-0.0058511854
50	0x3c78ce0c	0.015185844
51	0xbbde602f	-0.0067863683
52	0xbbddd064	-0.006769227
53	0x3bce92c4	0.006304117
54	0xba8838d4	-0.0010392913
55	0x3bbb8b26	0.005723375
56	0xbbde7302	-0.0067886123
57	0xbbde5298	-0.0067847483
58	0x3b87c4a7	0.004143316
59	0xbbddbb18	-0.006766688
60	0xbb1c974b	-0.0023893889
61	0xbbde2721	-0.006779567
62	0xbbdd1e92	-0.006748029
63	0xbbde4c7a	-0.006784019

gat_layers.0.lin.weight f4 [64, 64]
0	0xbbd8ed04	-0.0066200513
1	0xbc321507	-0.010869271
2	0x3db6f32b	0.08933099
3	0x3e2fb982	0.1716061
4	0xbe02ea69	-0.12784733
5	0x3dc388b1	0.09547556
6	0x3e2340d1	0.15942694
7	0xbdb7f7b1	-0.0898279
8	0x3e076ea7	0.13225804
9	0xbdf8fae0	-0.121572256
10	0xbdf5d37f	-0.1200323
11	0x3dd73138	0.105074346
12	0x3e25d717	0.16195332
13	0xbdbf103a	-0.09329267
14	0x3d427a02	0.047479637
15	0xbe31f840	-0.17379856
16	0x3c897f34	0.016784288
17	0x3c2615b4	0.01013701
18	0x3e040f12	0.12896374
19	0xbdfd8e9e	-0.12380718
20	0xbc4d6c17	-0.012537978
21	0x3db8210c	0.08990678
22	0xbcc7c22f	-0.024384586
23	0xbe317b34	-0.17332155
24	0xbdc94182	-0.09826948
25	0x3e4ac243	0.19800667
26	0x3e394d3a	0.18095866
27	0x3dfcde57	0.123470955
28	0x3defa01a	0.11700459
29	0x3e4e7694	0.20162421
30	0xbdb8274f	-0.089918725
31	0xbcb47e8c	-0.022032999
32	0xbe2a087a	-0.16604796
33	0x3e3c051c	0.18361324
34	0x3e58315d	0.2111258
35	0xbe1f2fc8	-0.15545571
36	0x3e30d256	0.17267737
37	0xbd2a60de	-0.041596286
38	0xbdec800a	-0.11547859
39	0xbc7f92b3	-0.015598941
40	0x3db628ee	0.088945255
41	0xbe17e257	-0.14832436
42	0x3ce83106	0.028343689
43	0xbe1f3d27	-0.15550672
44	0xbe27cf52	-0.1638768
45	0x3caa0314	0.02075342
46	0xbdfdd0cf	-0.12393343
47	0xbd230ce2	-0.039807208
48	0x3df588b1	0.119889624
49	0x3e0f9aa0	0.14023829
50	0x3db369ac	0.0876039
51	0xbe4ec963	-0.2019401
52	0xbd58e028	-0.052948147
53	0xbe57f886	-0.21090898
54	0xbda5322d	-0.08066211
55	0x3e0fa3bf	0.14027308
56	0x3e191b06	0.14951715
57	0xbd8c294c	-0.06843814
58	0x3dd4ffe4	0.1040037
59	0xbe427a7f	-0.18992041
60	0xbe22e37b	-0.1590709
61	0xbe050827	-0.12991391
62	0xbe0dd7a0	-0.13851786
63	0x3db7ca08	0.08974081
64	0x3e5ae3bd	0.21375938
65	0x3dd97a6d	0.10619054
66	0xbda4ca10	-0.08046353
67	0xbe439a86	-0.19101915
68	0x3e452bb4	0.19254953
69	0xbd0b5bdb	-0.034023147
70	0xbd583225	-0.052782197
71	0x3e4b59ad	0.19858427
72	0xbe3d9cde	-0.18516871
73	0x3e59a657	0.2125486
74	0x3ce71ae3	0.028211063
75	0x3e43806e	0.19091961
76	0x3d3559ef	0.04427522
77	0x3e59722b	0.21234958
78	0x3e36fb52	0.17869309
79	0x3a8fd14b	0.0010972408
80	0xbdc9ab61	-0.09847141
81	0xbd670b25	-0.056407113
82	0x3e1fd102	0.15607074
83	0xbdbf1715	-0.093305744
84	0xbcf27ffb	-0.029602041
85	0x3df3e7f2	0.119094744
86	0x3d8004ec	0.06250939
87	0xbdcd68f2	-0.10029782
88	0x3e30c418	0.17262304
89	0xbcbe0ab3	-0.023198461
90	0x3e2d8b04	0.16947562
91	0x3ddcf3ec	0.10788712
92	0x3cfeba98	0.031094834
93	0x3d199048	0.037491113
94	0xbe590c23	-0.21196036
95	0x3e00f1ce	0.12592241
96	0xbe07502d	-0.13214178
97	0x3d740526	0.059575222
98	0x3e4b5647	0.19857131
99	0x3df08293	0.11743655
100	0xbce453d6	-0.027872007
101	0x3e4eb526	0.2018629
102	0xbe1ebea3	-0.1550241
103	0x3e224e07	0.15850078
104	0xbd86b6e9	-0.06577856
105	0xbd8205db	-0.06348773
106	0xbe3be4c5	-0.18348987
107	0x3de6f419	0.11277027
108	0x3e1ac670	0.1511476
109	0x3c98cd63	0.018652624
110	0x3d1fa144	0.038972154
111	0xbe17a2de	-0.14808223
112	0x3e3266cc	0.17422026
113	0xbe262a99	-0.16227187
114	0x3dfcf0b5	0.12350599
115	0xbb7b1871	-0.0038314129
116	0xbe060783	-0.13088803
117	0xbde5ca2c	-0.11220202
118	0x3e1ac58c	0.1511442
119	0x3da63f1c	0.08117506
120	0xbdfe0f4f	-0.12405264
121	0xbe5ea1e7	-0.21741448
122	0x3ddf4d6d	0.1090344
123	0x3ba435b8	0.0050112866
124	0xbe59efd5	-0.21282895
125	0x3e2a439c	0.16627353
126	0xbe5a9333	-0.21345215
127	0x3e2b72b3	0.16742973
128	0xbda491c0	-0.08035612
129	0x3c1df6f2	0.009641396
130	0xbe13a714	-0.14419204
131	0xbe21b60b	-0.157921
132	0x3e2c3008	0.16815197
133	0xbe3a0fd3	-0.18170099
134	0x3e359187	0.17731296
135	0xbdaf0140	-0.0854516
136	0xbe0a2c31	-0.1349342
137	0xbd1da869	-0.038490687
138	0xbd8053ae	-0.06265961
139	0x3df48dd9	0.11941118
140	0x3ddbc574	0.107310206
141	0xbcb2adbf	-0.021811364
142	0xbe24e9df	-0.1610484
143	0x3d4763c8	0.048679143
144	0x3e48b22c	0.19599217
145	0xbd71ae01	-0.059003834
146	0x3ddc5b86	0.10759644
147	0xbe5d9958	-0.21640527
148	0xbe111bba	-0.14170733
149	0x3df64bd7	0.12026184
150	0xbe53176e	-0.20614406
151	0xbc358f50	-0.011081532
152	0x3e24e9ba	0.16104785
153	0xbdc2d441	-0.095131405
154	0xbddc61fe	-0.10760878
155	0xbe1f5607	-0.1556016
156	0x3e0d3053	0.13787965
157	0x3e22da23	0.15903525
158	0xbe4c47ec	-0.19949311
159	0x3e2646c0	0.16237926
160	0xbdf7a85d	-0.120926596
161	0xbd4cf1de	-0.05003535
162	0x3dad5207	0.08462911
163	0x3c59ea3e	0.013300477
164	0xbd1f540e	-0.03889852
165	0xbe4f3c2e	-0.202378
166	0x3bf84929	0.0075770807
167	0x3db60b9f	0.08888935
168	0xbdf71fc1	-0.120666035
169	0xbd8d21dd	-0.068912245
170	0xbd852927	-0.0650199
171	0x3e248b69	0.16068806
172	0x3e40c53e	0.18825242
173	0x3e4cbe61	0.19994499
174	0x3c80373f	0.015651343
175	0x3da3635d	0.079779364
176	0xbe4af799	-0.19821014
177	0xbe59744b	-0.21235768
178	0xbe37a76b	-0.17934959
179	0x3d024314	0.031802252
180	0x3de41b78	0.11138052
181	0xbda3da3d	-0.0800061
182	0xbe06280a	-0.13101211
183	0xbdafe220	-0.08588052
184	0x3d1a5719	0.03768072
185	0x3dec9098	0.115510166
186	0x3cbcbde9	0.023039775
187	0xbe38bb96	-0.18040308
188	0xbe1e91c8	-0.15485299
189	0x3cfa551e	0.030558165
190	0xbe10b26c	-0.14130563
191	0xbe3b1cac	-0.18272656
192	0x3dfaa88b	0.12239178
193	0xbe3270c8	-0.17425835
194	0x3e1755e1	0.14778854
195	0x3ce32fbd	0.027732724
196	0x3d73243f	0.05936074
197	0xbe186677	-0.14882837
198	0x3e1500ad	0.14551039
199	0x3e18b028	0.14910948
200	0x3d57f969	0.05272809
201	0xbe59b30e	-0.2125971
202	0xbdb1a741	-0.08674479
203	0x3df8de60	0.1215179
204	0xbd438a71	-0.04773945
205	0xbd8df9a7	-0.06932383
206	0xbe393dd2	-0.18089989
207	0x3ddc2dca	0.10750921
208	0xbe0e2de0	-0.13884687
209	0x3df472a6	0.1193593
210	0xbd47287d	-0.048622597
211	0xbe1781df	-0.14795636
212	0xbdaec2a1	-0.08533216
213	0xbe2a7854	-0.16647464
214	0xbe3942d7	-0.18091904
215	0xbe189cd3	-0.14903574
216	0x3d789e51	0.060697857
217	0x3e0cccb5	0.13749965
218	0x3e4336e4	0.19063908
219	0x3cb2cc67	0.021825982
220	0x3dda935a	0.10672636
221	0xbdc51312	-0.09622778
222	0x3d42f920	0.047600865
223	0x3e2d61d4	0.1693185
224	0x3e18b6e0	0.14913511
225	0xbe1a9594	-0.15096122
226	0xbe1baa7d	-0.15201755
227	0x3a8bbef6	0.0010661769
228	0xbe08e10f	-0.13367103
229	0x3d212a07	0.03934672
230	0x3d25323e	0.040331118
231	0x3b12110e	0.0022287997
232	0x3e55f433	0.20893936
233	0xbdd3d95b	-0.10344192
234	0xbe2ff5f3	-0.17183666
235	0xbe2c5c26	-0.16832027
236	0xbd660c1d	-0.056163896
237	0xbe288498	-0.1645683
238	0x3e0d1ea3	0.13781218
239	0xbe2db210	-0.16962457
240	0xbdfad29c	-0.12247202
241	0x3bdddc42	0.0067706415
242	0x3dfe694d	0.12422428
243	0xbdf3e009	-0.11907966
244	0x3d7a19d1	0.061059777
245	0xbe58ccc9	-0.2117187
246	0x3e58d00a	0.2117311
247	0x3e167ccd	0.14696045
248	0x3d19946e	0.03749507
249	0xbda6cf00	-0.08144951
250	0x3e28f6b3	0.16500358
251	0x3dbb1cd4	0.09136358
252	0xbd15c7c2	-0.036567457
253	0xbe225688	-0.15853322
254	0x3e2fbce1	0.17161895
255	0xbe393a3c	-0.18088621

gat_layers.0.lin_edge.weight f4 [64, 64]
0	0x3c0d8399	0.008637332
1	0xbda39222	-0.07986857
2	0x3e07d375	0.13264258
3	0xbc735d59	-0.014853799
4	0x3dbd8a71	0.09254921
5	0x3d279eb2	0.040922828
6	0xbe432a45	-0.19059093
7	0xbd8e8a76	-0.06960003
8	0xbe3b46e2	-0.18288758
9	0x3dc03cf0	0.09386623
10	0x3c951ed0	0.01820317
11	0x3e56019f	0.20899056
12	0x3dc12ca4	0.09432343
13	0x3dde264c	0.10847148
14	0x3dd64935	0.10463182
15	0x3e6097b7	0.21932875
16	0x3e1ff7a5	0.15621813
17	0x3e35e44f	0.17762874
18	0xbde3db50	-0.11125815
19	0xbd0e3b99	-0.034724806
20	0x3bd540b1	0.006507956
21	0xbdb93a3e	-0.09044312
22	0x3d34fd0b	0.044186633
23	0x3e271eec	0.1632039
24	0xbe3a83c2	-0.18214324
25	0xbde0c69b	-0.10975381
26	0x3c27ea4e	0.010248734
27	0xbd33d06c	-0.04389994
28	0x3e060578	0.13088024
29	0xbde520bb	-0.111878835
30	0x3e57b266	0.21064147
31	0xbd919de6	-0.07110195
32	0xbdb625f6	-0.08893959
33	0xbe2c88a2	-0.16848996
34	0x3e5b8c40	0.2144022
35	0xbda72f5e	-0.081633314
36	0xbe01e965	-0.12686689
37	0xbdfed45d	-0.12442849
38	0x3e431e03	0.19054417
39	0xbda98473	-0.08277216
40	0xbe2a0386	-0.16602907
41	0xbd842f4e	-0.06454335
42	0x3db03600	0.0860405
43	0xbe2eb254	-0.17060214
44	0xbdd61390	-0.1045295
45	0xbe0fa88d	-0.14029141
46	0x3d6dcebd	0.05805849
47	0xbdb99a78	-0.09062666
48	0x3cead0bf	0.028663991
49	0xbdb20de9	-0.086940594
50	0x3e605375	0.21906836
51	0xbe1dfff4	-0.1542967
52	0x3e17c951	0.1482289
53	0x3deda92d	0.11604533
54	0x3cf195b6	0.029490333
55	0x3e0e4c3b	0.13896267
56	0xbe2dc874	-0.16970998
57	0x3e1444e7	0.14479409
58	0xbd917841	-0.07103015
59	0xbe2e5c1c	-0.17027324
60	0x3e2f081b	0.17092936
61	0x3e54f011	0.20794703
62	0x3e21040b	0.15724199
63	0x3dc6f05e	0.09713815
64	0xbdde273e	-0.108473286
65	0x3db20739	0.08692784
66	0xbcda0120	-0.026611865
67	0x3e588283	0.21143536
68	0xbe35b8e4	-0.17746311
69	0xbd3023d8	-0.043002933
70	0xbe3b9966	-0.18320236
71	0x3db67ff7	0.08911126
72	0x3d2c14a5	0.042011876
73	0xbe06f38b	-0.13178842
74	0x3da635f9	0.08115763
75	0x3d89b928	0.06724769
76	0xbe0b38a0	-0.1359582
77	0xbe3db1a2	-0.18524793
78	0xbcf0f598	-0.029413983
79	0xbdcdf44e	-0.10056363
80	0xbcccdd86	-0.025007974
81	0xbd8d31d3	-0.06894269
82	0xbd3fd12c	-0.04683034
83	0xbbd4b39c	-0.0064911377
84	0xbd4ab699	-0.049490545
85	0xbd3f9b2a	-0.046778835
86	0xbe515b50	-0.20444989
87	0xbd368fdc	-0.04457079
88	0x3e03de18	0.12877691
89	0x3d821569	0.0635174
90	0xbe5c7fb8	-0.21533096
91	0x3e1c8e95	0.15288766
92	0xbe4afc9b	-0.19822924
93	0x3e0e129b	0.13874285
94	0xbe0f7ee0	-0.14013243
95	0xbda0faa2	-0.078603044
96	0x3e5524a2	0.20814756
97	0xbdf0146f	-0.117226474
98	0x3e0b56f1	0.13607384
99	0xbe46649b	-0.19374315
100	0xbc9a79dc	-0.018856935
101	0x3d5a37c5	0.053275842
102	0xbdfaf961	-0.122545965
103	0xbe1af761	-0.1513343
104	0xbdc9f991	-0.09862054
105	0x3ce46bea	0.027883489
106	0xbdae5ec9	-0.085141726
107	0xbbbb2527	-0.005711216
108	0x3de85a92	0.113454
109	0xbdde86ea	-0.108655766
110	0x3dbb0842	0.091324344
111	0xbce15541	-0.027506473
112	0xbb9fa4aa	-0.0048719244
113	0x3d495e33	0.0491621
114	0xbe41cd5d	-0.18925996
115	0xbdfdac5c	-0.123863906
116	0x3deaecb3	0.11470928
117	0x3da0efc7	0.07858234
118	0xbda064ec	-0.07831749
119	0x3df530c5	0.11972193
120	0x3d68421f	0.056703683
121	0xbd65b01a	-0.056076147
122	0x39a3fe9e	0.00031279487
123	0xbe334923	-0.17508368
124	0xbd5cfc62	-0.05395163
125	0xbd8af26f	-0.06784522
126	0x3e5417bc	0.20712179
127	0xbd9f8927	-0.077898316
128	0x3dbdbe33	0.09264793
129	0xbe04753c	-0.12935346
130	0x3d82bdf3	0.06383886
131	0xbdbb8801	-0.091568
132	0x3ba05f58	0.0048941784
133	0xbe38edae	-0.18059418
134	0x3e1eae9e	0.15496299
135	0x3dad1422	0.08451106
136	0xbe0d92eb	-0.13825576
137	0x3c6406d7	0.013917646
138	0x3e2e5cdb	0.17027609
139	0xbe0f0c6d	-0.13969584
140	0x3a823c35	0.0009936156
141	0x3dc3c8c8	0.0955978
142	0xbe2673ca	-0.16255108
143	0xbdf63e45	-0.12023596
144	0xbdef2e00	-0.11678696
145	0xbdb3704d	-0.08761654
146	0xbdb47059	-0.08810491
147	0x3dbe8ecc	0.0930458
148	0x3d9d2988	0.07673937
149	0x3e1ea040	0.15490818
150	0xbd94a4fb	-0.0725803
151	0xbe24285a	-0.16031018
152	0x3da6fb14	0.08153358
153	0x3de865a2	0.1134751
154	0x3e37d6a2	0.1795297
155	0x3d1519df	0.036401626
156	0x3de67b55	0.112539925
157	0xbb44b287	-0.0030013637
158	0xbdb81bd7	-0.08989685
159	0x3c3ff4b7	0.011716059
160	0x3d661627	0.05617347
161	0xbdab1859	-0.08354253
162	0x3e24294d	0.1603138
163	0xbd7f18ea	-0.06227962
164	0xbd8eeaf2	-0.06978406
165	0x3e2bf0d7	0.16791092
166	0xbe05c42f	-0.1306312
167	0x3e3331f5	0.17499526
168	0x3dfaf3bc	0.1225352
169	0x3d048aa1	0.03235877
170	0x3e2eb203	0.17060094
171	0x3d65b433	0.056080054
172	0x3b5e5fd1	0.0033931623
173	0xbdbd6030	-0.09246862
174	0x3d81504f	0.06314146
175	0x3e0232c4	0.12714678
176	0x3e0c5e2f	0.13707803
177	0x3e50bf6e	0.20385525
178	0x3dcebecb	0.100949846
179	0x3da5a21c	0.080875605
180	0x3d9e7b30	0.0773834
181	0x3b82340f	0.003973491
182	0x3e30c629	0.17263092
183	0x3d1fd9fa	0.039026238
184	0x3da9081f	0.08253502
185	0xbe561ffd	-0.2091064
186	0x3e37e772	0.17959383
187	0xbe0ff8c9	-0.14059748
188	0x3e3bbe95	0.1833442
189	0x3e35fe3c	0.17772764
190	0xbe37b64e	-0.17940637
191	0x3e52ed21	0.2059827
192	0xbc3be47c	-0.011468049
193	0x3e438366	0.19093093
194	0xbdb71252	-0.08939041
195	0x3c3e994e	0.01163323
196	0xbe55e1bc	-0.20886892
197	0xbe0c4cae	-0.13701126
198	0x3ddfc41b	0.10926076
199	0x3d74195a	0.05959449
200	0xbdebbee0	-0.11511016
201	0x3e2eb3e1	0.17060806
202	0x3e2cd5ff	0.16878508
203	0xbe58eb3e	-0.21183488
204	0x3db508d8	0.088395774
205	0xbe0540f1	-0.13013054
206	0x3e22e408	0.159073
207	0x3e129c3c	0.14317411
208	0xbd784ace	-0.060618214
209	0xbdf90270	-0.12158668
210	0xbe59340e	-0.21211264
211	0x3e486902	0.19571307
212	0x3e46fc1b	0.19432108
213	0xbca0c496	-0.01962499
214	0xbcffd568	-0.03122969
215	0x3da7b3d1	0.08188594
216	0xbc92b02b	-0.017906269
217	0xbe04437a	-0.12916365
218	0xbd8e0015	-0.069336094
219	0xbdc16ff3	-0.09445181
220	0xbe5f6997	-0.21817623
221	0xbd251633	-0.040304374
222	0xbc40d2e4	-0.01176903
223	0x3dd1272e	0.10212551
224	0xbdb5645a	-0.08857031
225	0x3d943710	0.07237065
226	0x3d2c70de	0.042099826
227	0xbde519a6	-0.11186533
228	0xbe5709f0	-0.20999885
229	0x3e394b0c	0.18095034
230	0x3dacbfe6	0.08435039
231	0x3db7d5a7	0.08976298
232	0x3dd90ce4	0.10598162
233	0xbe006c3d	-0.1254129
234	0xbdd6c41a	-0.10486622
235	0x3d9acc7d	0.07558534
236	0x3d9f178f	0.07768165
237	0xbcf64c3e	-0.030065652
238	0x3e1cb3d4	0.15302974
239	0xbe21e309	-0.15809263
240	0xbcb22ec8	-0.021750823
241	0xbdfcbf49	-0.12341172
242	0xbe3aae26	-0.18230495
243	0xbb5a5abb	-0.003331824
244	0x3e3b9858	0.18319833
245	0xbe26c0bd	-0.16284461
246	0x3e44ec1f	0.19230698
247	0x3d4e65ca	0.050390042
248	0xbdfa39c9	-0.12218053
249	0x3e0266d9	0.12734546
250	0x3e273236	0.16327748
251	0x3e41be7b	0.18920319
252	0xbd6f29d5	-0.058389504
253	0x3d8986a4	0.06715134
254	0x3e365c08	0.17808545
255	0x3e393cab	0.18089549

gat_layers.1.att_src f4 [1, 4, 16]
0	0xbd89f9f6	-0.067371294
1	0x3e8ba8bf	0.2727718
2	0x3ab2a4e3	0.0013629462
3	0xbeda77a8	-0.42669415
4	0x3ed045b4	0.4067818
5	0xbe77cdfc	-0.2419967
6	0xbe4ef3e2	-0.20210221
7	0x3c46a604	0.012124542
8	0x3e533047	0.20623885
9	0x3edf6172	0.43629032
10	0xbdfdedf1	-0.12398899
11	0xbd1383d7	-0.036014404
12	0xbe2523bc	-0.16126913
13	0x3ec3c820	0.3823862
14	0xbe528d2a	-0.20561662
15	0x3f0488ed	0.5177143
16	0xbeda51b1	-0.4264045
17	0x3eb6abdf	0.35678002
18	0x3e979b26	0.29610556
19	0xbe228840	-0.15872288
20	0x3ec93d83	0.39304742
21	0x3d6ab001	0.057296757
22	0x3ea0f410	0.31436205
23	0x3eb442d8	0.35207248
24	0xbe82eca0	-0.25571156
25	0x3e97642c	0.29568613
26	0x3f0a2001	0.53955084
27	0x3e5d507d	0.21612735
28	0xbd1093de	-0.035297267
29	0x3edf2e3d	0.43589965
30	0x3ccacff9	0.024757372
31	0xbebd5bf4	-0.36984217
32	0xbeff1ecc	-0.49828184
33	0x3c39494f	0.011308982
34	0xbe9178f9	-0.28412607
35	0x3d9160b4	0.07098523
36	0x3eb8d4f7	0.3609998
37	0x3e372095	0.17883523
38	0x3e11234a	0.14173618
39	0x3ec03141	0.37537578
40	0x3ef60e5b	0.48057827
41	0xbe4fd1e4	-0.2029491
42	0x3e633ed3	0.22191934
43	0x3d972000	0.073791504
44	0xbdeff66b	-0.117169224
45	0x3ebc9cf3	0.36838493
46	0x3dfe1980	0.124072075
47	0x3eb524a0	0.35379505
48	0xbf00fe29	-0.5038782
49	0x3eee9d82	0.46604544
50	0xbd9b8a06	-0.07594685
51	0x3e82cf3f	0.2554874
52	0xbf0990aa	-0.53736365
53	0x3ee5b3ad	0.44863644
54	0x3c6a717f	0.014309286
55	0xbe8f333d	-0.2796878
56	0x3e287b79	0.16453351
57	0x3e32d823	0.17465262
58	0xbe70c87b	-0.23513977
59	0xbed90f76	-0.42394608
60	0x3efc570a	0.49285156
61	0xbd17e64f	-0.037084874
62	0xbdba97b6	-0.09110968
63	0xbca6ea50	-0.0203754

gat_layers.1.att_dst f4 [1, 4, 16]
0	0xbf04705d	-0.5173395
1	0x3d9f0a44	0.0776563
2	0x3ed625ec	0.41825807
3	0x3e877170	0.26453733
4	0xbee9c2fc	-0.45656574
5	0xbedfca8a	-0.43709213
6	0xbec454e0	-0.38346004
7	0xbeadb3c4	-0.33926213
8	0xbecc0246	-0.39845484
9	0xbede82f1	-0.43459275
10	0xbe9cca71	-0.306232
11	0x3eb6de72	0.35716587
12	0x3f0246d8	0.5088935
13	0x3f05176a	0.5198885
14	0x3ea0a92b	0.31379065
15	0xbedfb612	-0.43693596
16	0xbedac0f3	-0.42725334
17	0xbea00917	-0.31256935
18	0xbeddff20	-0.43358707
19	0x3ea44156	0.32081097
20	0xbdbe960a	-0.093059614
21	0xbbeec88f	-0.007287092
22	0xbe70a8e5	-0.23501928
23	0x3e5f6352	0.21815231
24	0xb9b36644	-0.00034217734
25	0xbc45ae4b	-0.01206548
26	0xbca91a7c	-0.020642512
27	0xbec2dc3c	-0.3805865
28	0xbe8f5d37	-0.28000805
29	0xbec6c591	-0.38822606
30	0x3ee783bc	0.45217693
31	0x3de78066	0.11303787
32	0x3e6dbbf6	0.23216233
33	0xbe071a37	-0.13193594
34	0xbd1e020a	-0.038576163
35	0xbe593547	-0.2121173
36	0x3ddec61b	0.10877629
37	0xbc214782	-0.009843709
38	0xbe8cf65b	-0.27531704
39	0x3f071547	0.5276684
40	0xbed0a508	-0.4075091
41	0xbe441722	-0.1914945
42	0xbd7e15f6	-0.062032662
43	0xbf06c47d	-0.5264357
44	0xbecf904a	-0.4053977
45	0xbf0a0497	-0.53913254
46	0x3e00d840	0.12582493
47	0xbdf975bb	-0.121806584
48	0xbecb6b6d	-0.39730397
49	0xbe8c8238	-0.274431
50	0xbef7f536	-0.4842927
51	0x3e8a439f	0.27004716
52	0xbe48c737	-0.19607244
53	0x3ac475bb	0.00149887
54	0xbd982f33	-0.074308775
55	0xbd284306	-0.041079544
56	0x3ec03426	0.37539786
57	0xbd8fb2e3	-0.07016542
58	0xbead8012	-0.33886772
59	0xbee599c4	-0.44843876
60	0x3e560529	0.20900406
61	0xbe17cb61	-0.14823677
62	0x3e32caca	0.1746017
63	0xbe41b6fa	-0.18917456

gat_layers.1.att_edge f4 [1, 4, 16]
0	0x3ee042bf	0.43800923
1	0xbe775c02	-0.24156192
2	0xbda91d0d	-0.08257494
3	0xbb16850e	-0.002296749
4	0xbcd3afcb	-0.02584066
5	0x3ee480b8	0.44629455
6	0xbe734da4	-0.23760086
7	0x3dd25fb3	0.102721594
8	0x3ede56b9	0.4342554
9	0x3eadb731	0.33928826
10	0xbed6db5b	-0.4196423
11	0xbdc45c5b	-0.09587928
12	0x3d44f94e	0.048089318
13	0xbef1f859	-0.47259787
14	0xbf0b0069	-0.542975
15	0x3dd5745f	0.10422587
16	0xbe16667b	-0.1468753
17	0xbe6154d7	-0.2200502
18	0x3d954fa0	0.07290578
19	0xbefb2af9	-0.49056223
20	0x3e426178	0.18982494
21	0xbecbdb5c	-0.39815795
22	0x3e94709e	0.2899217
23	0x3e2a031d	0.1660275
24	0xbea0ff6b	-0.31444868
25	0x3df20157	0.11816662
26	0x3f091609	0.5354925
27	0xbeb8964f	-0.36052176
28	0x3f0b61c9	0.54446083
29	0xbee11c50	-0.43966913
30	0xbe001885	-0.12509353
31	0xbec3f339	-0.38271502
32	0x3dc8777c	0.09788415
33	0x3e7f4fd5	0.24932797
34	0xbe1c527e	-0.15265843
35	0x3dc4dfb9	0.09612984
36	0xbefc70f8	-0.49304938
37	0x3e8aaa03	0.27082834
38	0xbec0853b	-0.37601647
39	0xbd9b761b	-0.07590886
40	0xbebaa9dd	-0.3645772
41	0x3e979be6	0.2961113
42	0xbe3e5238	-0.18586051
43	0xbe9c1baf	-0.3048987
44	0xbedeac13	-0.43490657
45	0xbecbf34f	-0.39834067
46	0xbd7465e9	-0.0596675
47	0xbef3d618	-0.47624278
48	0xbe8135b6	-0.2523629
49	0x3e076372	0.13221529
50	0xbecafc91	-0.39645818
51	0xbed12c23	-0.40853986
52	0x3d21e147	0.03952148
53	0xbf0428ff	-0.51625055
54	0x3dca322e	0.09872852
55	0xbb9d186e	-0.004794172
56	0x3e26c26f	0.16285108
57	0x3ed96849	0.42462376
58	0xbe065989	-0.13120092
59	0xbe8d7984	-0.27631772
60	0xbe0acd41	-0.1355486
61	0x3e951e90	0.2912488
62	0x3ecd78bd	0.40131178
63	0x3ec91810	0.3927617

gat_layers.1.bias f4 [64]
0	0xbbdad02a	-0.006677647
1	0xbb7256d1	-0.0036978016
2	0x3c06fbf3	0.00823878
3	0x3c2fc559	0.010728204
4	0xbbc67395	-0.006056259
5	0x3c312b89	0.010813602
6	0xbbd6c355	-0.006554047
7	0xbbcc4fc4	-0.0062350947
8	0xbbc1b8c2	-0.0059119174
9	0x3bf936eb	0.0076054237
10	0x3a94754e	0.0011326463
11	0xbbd81816	-0.006594668
12	0xbbd764b6	-0.006573285
13	0xbbaf45d1	-0.005348899
14	0xbbaab02f	-0.005208991
15	0xbbb57ac1	-0.005538315
16	0xbbd79892	-0.006579467
17	0xbbbb7cbc	-0.0057216566
18	0xbba74261	-0.0051043485
19	0x3c4c18c5	0.012457077
20	0xbbd1a143	-0.0063973977
21	0xbbb27ba8	-0.00544687
22	0xbbd9fb69	-0.006652285
23	0xbbd48e13	-0.006486663
24	0x3bbb56d9	0.00571714
25	0xbbb1a80b	-0.0054216436
26	0x3a362291	0.00069479
27	0x3c40da0b	0.0117707355
28	0xbb452a42	-0.0030085002
29	0x3bd808fa	0.006592867
30	0xbb9ca549	-0.0047804457
31	0xbbd5fdff	-0.006530523
32	0xbbd893bc	-0.006609408
33	0xbbc8a36a	-0.006122996
34	0xbbb46a99	-0.0055058715
35	0xbba249fe	-0.004952668
36	0xbbd4201f	-0.0064735557
37	0x3c15b36f	0.009137019
38	0xbba1f33d	-0.0049423263
39	0x3c2d313d	0.010570821
40	0xbbcea1b1	-0.006305896
41	0x3ba59376	0.005052979
42	0xbbd7177e	-0.00656408
43	0xbbaf3c7b	-0.005347786
44	0xbbc80ccb	-0.0061050407
45	0xbbd7bcac	-0.0065837707
46	0x3c543070	0.0129510015
47	0x3befd4d9	0.0073190746
48	0xbbda2804	-0.0066576023
49	0xbbc00bd3	-0.0058607846
50	0x3c77539f	0.01509562
51	0xbbd8a47f	-0.0066114063
52	0xbbdb4c13	-0.0066924184
53	0x3be87e7d	0.0070951567
54	0xbb030b65	-0.0019995805
55	0x3b8fbdaa	0.0043866234
56	0xbbdb61b2	-0.006694996
57	0xbbabdb53	-0.0052446513
58	0xbb86357a	-0.0040957304
59	0xbbda645f	-0.006664797
60	0xbb91bc6b	-0.00444751
61	0xbbba5376	-0.005686219
62	0xbb9d5fd0	-0.0048026815
63	0xbbcd6cb7	-0.0062690633

gat_layers.1.lin.weight f4 [64, 64]
0	0x3d985fab	0.07440122
1	0xbe033660	-0.12813711
2	0x3e3f5314	0.18684036
3	0xbdf42746	-0.11921553
4	0x3c9cf8ba	0.01916157
5	0x3dcd7c5a	0.10033484
6	0x3bb990f4	0.0056630317
7	0x3dc7a11c	0.09747526
8	0xbddfe815	-0.10932938
9	0xbe02a199	-0.12756957
10	0x3e50475d	0.20339723
11	0x3e38e8ee	0.18057606
12	0xbe18f206	-0.14936075
13	0xbde72677	-0.112866335
14	0xbcb44379	-0.02200483
15	0x3e235a4b	0.15952413
16	0xbc9f0cb7	-0.019415243
17	0x3dcb5e4d	0.09930096
18	0xbe2c0d29	-0.16801895
19	0x3c5fe206	0.013664728
20	0xbe0a98a0	-0.13534784
21	0xbe0099c0	-0.12558651
22	0x3e5f8bab	0.21830623
23	0x3d555968	0.052087218
24	0x3cbc464b	0.022982737
25	0x3e10ef0b	0.14153688
26	0x3e445af8	0.19175327
27	0xbe42ffb5	-0.19042857
28	0xbe04000c	-0.12890643
29	0xbcce0a87	-0.025151504
30	0x3e594979	0.21219434
31	0x3c203fc8	0.009780832
32	0xbc578c58	-0.013156019
33	0x3e38d8de	0.18051478
34	0xbda31516	-0.07963006
35	0x3c26dc90	0.010184422
36	0x3da027e6	0.0782011
37	0xbc6983b8	-0.014252596
38	0xbe32276c	-0.17397851
39	0xbe1e5bcb	-0.15464704
40	0xbe06473e	-0.13113114
41	0xbd813261	-0.06308437
42	0xbe044434	-0.12916642
43	0x3dfbe70a	0.122999266
44	0x3d67fd00	0.056637764
45	0x3e360017	0.17773472
46	0x3ce05311	0.02738336
47	0xbe4bff8f	-0.19921707
48	0xbd068ac3	-0.032847177
49	0x3deef907	0.11668592
50	0xbda6f8b5	-0.08152906
51	0x3d9420b3	0.072327994
52	0x3d3a4bb3	0.04548235
53	0x3d3f9a2a	0.04677788
54	0x3e368ede	0.17827937
55	0xbe54f03b	-0.20794766
56	0xbe1f3e69	-0.15551151
57	0xbd96bf62	-0.07360722
58	0xbd0bd9eb	-0.03414337
59	0x3b959136	0.0045644296
60	0xbe41ea50	-0.1893704
61	0x3d3839b9	0.044976924
62	0x3d6d7f63	0.057982814
63	0x3e0c0c94	0.13676673
64	0x3e3fdfc7	0.18737708
65	0x3e0f969d	0.14022298
66	0xbd92167b	-0.07133194
67	0x3e55aa2f	0.20865701
68	0xbd01add0	-0.0316599
69	0xbdf21885	-0.11821083
70	0xbe5a570e	-0.21322271
71	0xbdbb7824	-0.091537744
72	0xbe5cbb39	-0.21555795
73	0xbe42a8da	-0.19009724
74	0xbd9ada61	-0.07561184
75	0xbe4f6a97	-0.20255505
76	0xbe4188e9	-0.18899883
77	0xbdf90f10	-0.12161076
78	0x3e3be7b3	0.18350105
79	0xbe0d7e30	-0.13817668
80	0x3e385759	0.1800207
81	0xbe47058d	-0.19435711
82	0xbe14e089	-0.14538778
83	0x3d93aa8c	0.072102636
84	0x3e116987	0.14200412
85	0x3e1b997c	0.15195268
86	0x3d688beb	0.05677406
87	0xbdeb7193	-0.11496272
88	0xbdb2e835	-0.08735696
89	0xbe5db687	-0.2165166
90	0x3cb95991	0.022625716
91	0x3d329ebe	0.04360842
92	0xbb6cf596	-0.0036157123
93	0xbe557496	-0.20845255
94	0x3d945161	0.07242084
95	0xbe3c2bf8	-0.18376148
96	0x3d826a33	0.06367912
97	0x3d06087d	0.03272294
98	0x3e594c6c	0.21220559
99	0xbd58a3df	-0.052890655
100	0x3e1b76f6	0.15182099
101	0x3e4ddf55	0.20104726
102	0x3c850600	0.016238213
103	0x3d530c71	0.051525537
104	0x3ca99df1	0.020705195
105	0x3e488109	0.19580473
106	0x3d465695	0.048422415
107	0xb98ff5da	-0.0002745826
108	0x3b19d7cc	0.0023474572
109	0xbe2583f0	-0.16163611
110	0x3e434db9	0.19072618
111	0xbdacb6ad	-0.0843328
112	0x3e4ba74a	0.19888034
113	0x3e403fd9	0.18774356
114	0xbe2b064a	-0.16701618
115	0xbde4a6eb	-0.111646496
116	0xbc4b87cf	-0.012422516
117	0xbe0ba491	-0.13636996
118	0x3e324cc6	0.17412099
119	0x3e0bacbf	0.13640116
120	0xbe14b7d3	-0.14523248
121	0x3dbcad27	0.09212714
122	0xbda7cbb7	-0.081931524
123	0xbd430af7	-0.04761788
124	0x3e5376dc	0.2065081
125	0xbe08c894	-0.13357764
126	0x3e369966	0.17831954
127	0xbe20d9ef	-0.15708135
128	0x3e0da1a8	0.13831198
129	0x3e040696	0.12893137
130	0x3d1e4e59	0.038648937
131	0x3e02ef39	0.12786569
132	0xbd5f7ed2	-0.054564305
133	0xbe0c1115	-0.13678391
134	0xbd8062a1	-0.06268812
135	0xbd354b00	-0.04426098
136	0xbd629e63	-0.05532683
137	0x3de8d3a5	0.11368493
138	0x3e2631ec	0.16229981
139	0xbc45b2ae	-0.012066526
140	0x3dba03f1	0.09082783
141	0x3e4e3b72	0.20139864
142	0xbd11fb40	-0.03564
143	0x3d8e5eab	0.0695165
144	0x3cd40986	0.025883447
145	0x3d01b569	0.031667147
146	0xbe191f86	-0.14953431
147	0x3e3ac11d	0.1823773
148	0xbe4dd96c	-0.20102471
149	0x3e1c3932	0.15256193
150	0xbd02e98a	-0.031961
151	0xbe4c6007	-0.19958507
152	0x3dfea7d9	0.12434358
153	0xbe1dbf70	-0.15405059
154	0xbdc9602a	-0.09832795
155	0xbe2f3d75	-0.17113288
156	0xbe0fa8dc	-0.14029258
157	0x3d0fde98	0.03512439
158	0x3e2d6768	0.16933978
159	0x3ddf7d1d	0.10912535
160	0xbe2af7af	-0.16696046
161	0xbdec18da	-0.115281776
162	0x3e384b3b	0.17997448
163	0x3e4fbfc2	0.20287994
164	0x3d9babb7	0.076011114
165	0x3e506257	0.20350014
166	0x3bed9402	0.00725031
167	0x3de37f99	0.11108322
168	0xbe4931ec	-0.1964795
169	0x3c6ee41b	0.014580752
170	0xbe589f39	-0.21154489
171	0x3e0ffa1e	0.14060256
172	0x3dd15717	0.10221689
173	0x3dd57108	0.104219496
174	0x3e1d17c9	0.15341105
175	0x3e2bf69d	0.16793294
176	0xbd818e89	-0.063260145
177	0x3ca3e122	0.020004813
178	0xbc0bc1ee	-0.008530123
179	0xbc4ac6ba	-0.012376482
180	0x3e40fcbb	0.18846409
181	0x3e3c820a	0.18408981
182	0xbd95009a	-0.07275505
183	0xbdbf851c	-0.093515605
184	0x3dc9d7c8	0.0985561
185	0xbe5b5f29	-0.2142302
186	0xbb9b987f	-0.0047484036
187	0x3dcfdbb0	0.10149324
188	0xbd714b7f	-0.05890989
189	0xbe48f49c	-0.19624561
190	0x3db40e2a	0.08791764
191	0xbc9f0484	-0.019411333
192	0xbe592ef4	-0.21209317
193	0xbc760363	-0.015015456
194	0xbdcdcb64	-0.10048559
195	0xbe57fef8	-0.21093357
196	0x3df3d49b	0.11905786
197	0xbdec5d1a	-0.11541195
198	0x3e0a21f2	0.13489512
199	0xbe153e0d	-0.14574452
200	0x3e5aedfb	0.21379845
201	0x3e3ba15d	0.18323274
202	0xbd3e2e1c	-0.046430692
203	0x3e4563fa	0.1927642
204	0xbe56053d	-0.20900436
205	0x3c999df9	0.018752085
206	0x3b87251c	0.004124297
207	0x3d9bb6d1	0.07603229
208	0x3e551d84	0.2081204
209	0x3e12b009	0.14324965
210	0x3e227773	0.15865879
211	0x3d84d478	0.06485838
212	0xbe3b7d35	-0.18309481
213	0x3e3c3cce	0.1838257
214	0x3dabcec1	0.083890446
215	0xbbf3c524	-0.0074392725
216	0xbccde7fd	-0.025135035
217	0x3d296779	0.041358445
218	0xbe36f522	-0.17866948
219	0x3d23a980	0.03995657
220	0xbdc39e92	-0.09551729
221	0x3d6decdb	0.05808721
222	0xbe315fb0	-0.17321658
223	0x3e42a369	0.19007649
224	0x3df8aec9	0.121427126
225	0x3e0fbc78	0.14036739
226	0xbdb7d93b	-0.0897698
227	0xbd691f16	-0.05691441
228	0x3d74fee2	0.059813388
229	0x3d5f26a4	0.05448021
230	0xbe05ea14	-0.13077575
231	0xbdf1f33c	-0.118139714
232	0xbe2653ad	-0.16242857
233	0x3e35a99a	0.17740479
234	0x3d15facf	0.036616143
235	0x3d2bd3d5	0.041950066
236	0x3d14e499	0.03635082
237	0xbe313848	-0.17306626
238	0x3e47c536	0.19508824
239	0x3ded3756	0.1158282
240	0xbc40e22e	-0.011772675
241	0x3c4be5ed	0.012444955
242	0x3cf37722	0.029719893
243	0x3cfca40c	0.030839942
244	0x3e283c5d	0.16429277
245	0xbe2d3a54	-0.16916782
246	0x3e39e6d0	0.18154454
247	0xbde1257d	-0.109934784
248	0x3e45d1e0	0.19318342
249	0x3c719b42	0.014746489
250	0x3d9b2102	0.07574655
251	0x3b9aeb7a	0.004727778
252	0xbe19183c	-0.14950651
253	0xbdc1d85e	-0.09465097
254	0x3e51d1fe	0.20490262
255	0x3e4617bb	0.1934499
