models/best_fraud_model_seed_2024.pth (torch, 378242 bytes, 45 tensors)

node_emb.weight f4 [64, 8]
0	0x3c9edd43	0.019392615
1	0x3c5469ef	0.01296471
2	0x3cc15217	0.023598714
3	0x3e855ea1	0.2604876
4	0x3e4fc407	0.20289622
5	0x3e8d0d59	0.27549246
6	0xbdcb4dab	-0.09926923
7	0xbd8a5408	-0.06754309
8	0xbde8b56e	-0.1136273
9	0x3d98ca93	0.07460513
10	0x3e515cdc	0.2044558
11	0x3e9eba8d	0.31001702
12	0x3e5db59e	0.21651313
13	0x3dd6dec4	0.10491708
14	0x3e9a5ef0	0.30150557
15	0xbe8f38bb	-0.2797297
16	0x3eaf8b55	0.3428599
17	0xbe6c2ed4	-0.23064739
18	0x3dc8c552	0.09803261
19	0x3e03546d	0.12825175
20	0x3cf080da	0.029358316
21	0x3ea3ac0c	0.319672
22	0x3e6e5337	0.23273931
23	0x3e3589d1	0.17728354
24	0x3ea62233	0.32447967
25	0x3de9993a	0.11406179
26	0x3e3f61c4	0.18689638
27	0xbeac8308	-0.3369372
28	0x3dece4ba	0.11567064
29	0x3e6eaff7	0.23309313
30	0xbd7c702b	-0.06163041
31	0x3e6e76db	0.23287527
32	0xbe71d395	-0.23615868
33	0x3e7f0a10	0.24906182
34	0xbd138279	-0.0360131
35	0xbcd0d716	-0.025493186
36	0xbdae9540	-0.08524561
37	0x3e1e5aef	0.15464376
38	0xbe904f2b	-0.281854
39	0x3cf77529	0.030207234
40	0xbe3a3362	-0.18183663
41	0x3deb63f7	0.11493676
42	0xbe7d25df	-0.24721478
43	0x3e9781d5	0.2959124
44	0xbea2bd6e	-0.31785148
45	0x3eae97dc	0.34100235
46	0x3e9d804c	0.30761945
47	0xbde07aa7	-0.10960894
48	0xbd712bb0	-0.058879554
49	0xbea650eb	-0.3248361
50	0xbe89c000	-0.26904297
51	0xbd3cff6f	-0.046142038
52	0x3ea97789	0.3309901
53	0x3d5b971e	0.053610913
54	0x3cfbfb3b	0.030759444
55	0xbdf627c5	-0.12019304
56	0xbdc25afd	-0.09490011
57	0xbb880811	-0.004151352
58	0xbdfc072d	-0.12306056
59	0x3eb4d7db	0.35320935
60	0x3e001bd4	0.12510616
61	0x3da22d39	0.07918782
62	0xbe97b858	-0.2963283
63	0x3e5316b2	0.20614126
64	0xbe535590	-0.20638108
65	0x3ea2376f	0.31682917
66	0xbc76830b	-0.0150458915
67	0x3d3afa1d	0.045648683
68	0x3ea7aa36	0.32747048
69	0xbea5e810	-0.32403612
70	0x3d86b434	0.0657734
71	0x3e9887fa	0.29791242
72	0x3ea395e3	0.31950292
73	0xbe50f90d	-0.20407505
74	0x3e093beb	0.13401763
75	0x3d85bb8c	0.06529912
76	0xbe164d74	-0.14677984
77	0xbdba7a2a	-0.09105332
78	0x3e4e4f66	0.20147476
79	0x3e3981cc	0.1811592
80	0xbe216b74	-0.15763646
81	0xbe02e5db	-0.12782995
82	0x3e998943	0.29987535
83	0x3e9ee087	0.31030676
84	0x3e5670e2	0.20941499
85	0xbe809c3e	-0.25119203
86	0xbd9f123d	-0.077671506
87	0x3c3d0d58	0.011538826
88	0xbdc8d4fd	-0.09806249
89	0xbd4bf1d4	-0.049791172
90	0xbce0bfd4	-0.02743522
91	0x3ea07a7b	0.31343445
92	0x3e9993b2	0.29995495
93	0x3df41d4d	0.11919651
94	0xbdea837f	-0.11450862
95	0x3dbc3c2e	0.09191166
96	0x3eb54c61	0.35409835
97	0x3e805678	0.2506597
98	0xbea088fe	-0.31354517
99	0xbe7043ac	-0.23463315
100	0xbe58fbc2	-0.21189788
101	0x3e7da4a4	0.24769837
102	0x3e21b0c1	0.15790083
103	0xbce966fe	-0.028491493
104	0xbd95be4f	-0.07311689
105	0x3b2a1e94	0.0025958167
106	0xbe98dc6a	-0.29855663
107	0x3e3cd4d0	0.18440557
108	0xbe8cf001	-0.27526858
109	0x3b5b043a	0.0033419267
110	0x3d7f89ae	0.06238716
111	0x3df25141	0.11831904
112	0xbe474a12	-0.1946185
113	0x3d81f3b7	0.06345313
114	0x3e45d846	0.19320783
115	0xbd9e2c71	-0.0772332
116	0xbe041b82	-0.12901118
117	0xbe8a04ed	-0.26956883
118	0xbe771cac	-0.24132031
119	0xbe957ca5	-0.2919666
120	0x3e4ecab2	0.2019451
121	0xbeb33017	-0.34997627
122	0xbeaaf1ac	-0.33387506
123	0x3cdf4462	0.027254287
124	0x3dc3cb04	0.095602065
125	0x3ea7f1f2	0.32801777
126	0x3e976958	0.29572558
127	0xbdeda1f5	-0.116031565
128	0x38745590	5.825382e-05
129	0x3df5aad8	0.119954765
130	0x3de83df0	0.11339939
131	0xbe81721b	-0.25282368
132	0xbea06db1	-0.31333688
133	0x3c78647e	0.015160678
134	0x3e4405a1	0.19142772
135	0x3e70b297	0.23505627
136	0xbdeb4e3a	-0.1148953
137	0xbda44a29	-0.080219574
138	0xbc03d384	-0.008046035
139	0xbcee15dd	-0.02906316
140	0x3e90a483	0.28250512
141	0xbe614b72	-0.22001436
142	0xbe9a5bab	-0.30148062
143	0xbce5ff73	-0.02807591
144	0xbda5e568	-0.081003964
145	0xbe8870c2	-0.26648527
146	0xbd83ddb3	-0.0643877
147	0xbe5517b7	-0.20809828
148	0xbe872dd9	-0.26402166
149	0xbe118a7a	-0.14212981
150	0xbe58eb5c	-0.21183532
151	0x3e10e03f	0.14148043
152	0x3ddd5acc	0.10808334
153	0x3e90af5e	0.28258795
154	0xbc54dd34	-0.012992192
155	0x3cfb1397	0.03064899
156	0xbdbf5af6	-0.09343521
157	0x3dd1cf0b	0.102445684
158	0x3e0364d8	0.12831438
159	0xbcc39230	-0.023873419
160	0xbdae34e0	-0.08506179
161	0x3e95ed69	0.29282692
162	0xbe924719	-0.28569868
163	0xbe7a9428	-0.2447058
164	0x3d431252	0.047624893
165	0x3db21e3c	0.08697173
166	0x3e835a63	0.25654897
167	0xbe877be7	-0.26461717
168	0xbe021832	-0.12704542
169	0x3e878f1c	0.2647637
170	0xbe739761	-0.23788215
171	0xbd493f57	-0.04913267
172	0xbea383ca	-0.31936485
173	0x3e2d50f2	0.1692541
174	0xbe97b8eb	-0.2963327
175	0xbe803bfc	-0.25045764
176	0x3e4bd076	0.1990374
177	0x3d4c4639	0.049871657
178	0x3db8f348	0.09030777
179	0xbdcff90f	-0.10154926
180	0xbdab07a7	-0.08351069
181	0x3e815284	0.25258267
182	0x3e25d1a9	0.1619326
183	0x3dfa8539	0.122324415
184	0x3e4bd51c	0.19905514
185	0x3d444142	0.047913797
186	0xbe931583	-0.2872735
187	0x3ea2f609	0.31828335
188	0x3d25fcd9	0.040524337
189	0xbcf3d8e8	-0.029766515
190	0x3eb55b0a	0.3542102
191	0x3ced247d	0.028948063
192	0xbe349ffe	-0.17639157
193	0x3d85274c	0.06501636
194	0xbe94e512	-0.29081017
195	0x3de13868	0.10997087
196	0xbdbe9f82	-0.093077675
197	0xbcaae14c	-0.020859383
198	0xbe697ff1	-0.22802712
199	0x3df521d8	0.11969346
200	0x3e3e4a6f	0.18583082
201	0xbdabf476	-0.083962366
202	0xbe9eae3a	-0.309923
203	0xbb3cd498	-0.002881324
204	0x3e45d12b	0.19318072
205	0xbde6d6f5	-0.112714685
206	0xbea70b38	-0.32625747
207	0x3e26333a	0.16230479
208	0x3d9fdea0	0.07806134
209	0xbe613dec	-0.21996278
210	0xbe00b96f	-0.12570737
211	0xbe6b4100	-0.22974014
212	0x3e4b1a0e	0.19834158
213	0xbe51cf95	-0.20489343
214	0xbe43a62e	-0.19106361
215	0x3e796020	0.24353075
216	0xbc83ba42	-0.016080026
217	0xbdae9f9f	-0.08526539
218	0x3e36db10	0.17857003
219	0xbe5dd349	-0.2166263
220	0x3e7506b4	0.23928338
221	0x3df8e68b	0.121533476
222	0xbeaf57d4	-0.34246695
223	0xbe1c0277	-0.15235315
224	0xbea6d389	-0.32583264
225	0x3d6f45a3	0.05841602
226	0xbe63483a	-0.22195521
227	0xbccabb9f	-0.024747668
228	0xbe32f856	-0.17477545
229	0x3e30b1e1	0.17255355
230	0x3e5ac0a3	0.21362548
231	0x3c033bfe	0.008009909
232	0x3e7bb2f4	0.24579984
233	0xbe5f4fa5	-0.21807726
234	0x3da9c1ac	0.08288893
235	0x3e36df1b	0.17858545
236	0x3ea204ff	0.31644437
237	0x3e649791	0.22323443
238	0x3cf5933e	0.029977437
239	0xbe4cdf40	-0.20007038
240	0x3c9cc3cf	0.019136338
241	0x3db29ae4	0.08720949
242	0x3e8d01de	0.27540487
243	0x3e8ac2eb	0.27101836
244	0x3e2bfc9c	0.16795582
245	0x3e847675	0.25871626
246	0xbe6060e8	-0.21911967
247	0xbea6b78d	-0.32561913
248	0xbe9729a6	-0.29523963
249	0xbe913618	-0.28361583
250	0xbe8f142f	-0.27945086
251	0x3e933a18	0.2875526
252	0x3e9ccd71	0.3062549
253	0x3e024bce	0.1272423
254	0x3e632b4e	0.22184488
255	0xbea78ac6	-0.32723063

node_emb.bias f4 [64]
0	0x3d985357	0.07437771
1	0x3dc97035	0.09835855
2	0x3da7be8a	0.08190639
3	0xbe925719	-0.28582075
4	0x3cc95254	0.02457539
5	0x3ab5dce1	0.0013875031
6	0xbe9bfd06	-0.3046648
7	0x3e633021	0.22186328
8	0xbd3ea0c0	-0.046540022
9	0xbe81dca0	-0.25363636
10	0xbe6a1c81	-0.22862436
11	0xbe017564	-0.12642437
12	0xbd6c7312	-0.057726927
13	0x3d559160	0.052140594
14	0xbda9d84d	-0.08293209
15	0x3e266020	0.16247606
16	0x3eaed357	0.34145615
17	0x3e6e73fb	0.2328643
18	0xbdefd618	-0.11710757
19	0x3e27b47c	0.16377443
20	0xbe9f87e8	-0.31158376
21	0x3c790dc4	0.015201036
22	0xbe5aea0e	-0.21378347
23	0x3e0ed67f	0.13949011
24	0x3e921888	0.2853434
25	0xbe30b2cb	-0.17255704
26	0x3dab1ff2	0.083557025
27	0xbddda39e	-0.10822223
28	0x3ea3a2a7	0.3196003
29	0x3dbddafa	0.09270282
30	0x3ea884d3	0.32913837
31	0xbe79337a	-0.24336043
32	0x3def5c5a	0.116875365
33	0x3e0dd1a4	0.13849503
34	0xbc87ab66	-0.016561221
35	0xbc6c2f2f	-0.014415546
36	0x3c8dd122	0.017311636
37	0x3a6b862d	0.00089845323
38	0xbe99a7ec	-0.30010927
39	0x3a375681	0.0006993786
40	0xbd63ce79	-0.05561683
41	0xbeaf2971	-0.34211305
42	0x3e924e89	0.28575543
43	0xbd463107	-0.0483866
44	0x3e624e0d	0.22100087
45	0xbe5e3444	-0.21699625
46	0x3d44af98	0.04801902
47	0x3e480c49	0.19535936
48	0x3da4fcc9	0.080560274
49	0xbe04b065	-0.12957914
50	0x3e4ec93b	0.20193951
51	0x3e89825c	0.2685727
52	0x3e0430a1	0.12909175
53	0x3dce0e85	0.10061363
54	0x399fcdb6	0.0003048011
55	0xbe33486f	-0.175081
56	0x3e6edc4c	0.23326224
57	0xbe402f45	-0.18768032
58	0xbe15cb07	-0.1462823
59	0xbe91abfa	-0.2845152
60	0xbdb70edd	-0.08938382
61	0x3daa6282	0.0831957
62	0x3e529e57	0.20568214
63	0x3e509ea4	0.20373017

edge_emb.weight f4 [64, 2]
0	0xbea19b4d	-0.31563798
1	0x3edfc42a	0.4370435
2	0x3e0809b2	0.13284948
3	0xbea588bb	-0.3233088
4	0x3e780f52	0.24224594
5	0xbde1d0b8	-0.11026138
6	0x3ec39801	0.38201907
7	0xbee7ab20	-0.45247746
8	0x3ef2e279	0.4743841
9	0xbf2d4c8e	-0.6769494
10	0x3ef9a644	0.48759663
11	0xbea49538	-0.32145095
12	0xbf06fc56	-0.52728784
13	0x3ecbe45d	0.39822665
14	0x3ed17d5c	0.40915954
15	0xbf1060c7	-0.5639767
16	0x3f273563	0.65315837
17	0x3f0dbd48	0.55366945
18	0xbe157319	-0.14594688
19	0xbe843ed5	-0.25829187
20	0xbf0a21ee	-0.5395802
21	0x3f10a698	0.565042
22	0x3f2c5116	0.6731123
23	0xbe0e6426	-0.13905391
24	0xbf0e107c	-0.55493903
25	0x3f1bb175	0.6081765
26	0xbb30dcca	-0.002698707
27	0xbecb1f7b	-0.39672455
28	0x3eedbc85	0.4643289
29	0xbf2707a2	-0.6524602
30	0x3e1ce24a	0.15320697
31	0xbf0fc700	-0.56163025
32	0xbe77f8e8	-0.24216044
33	0xbec80f15	-0.39074007
34	0x3f259158	0.646749
35	0xbeef99ea	-0.46797115
36	0xbec145ca	-0.37748557
37	0xbf315323	-0.6926748
38	0xbe3502f8	-0.17676914
39	0xbf30e8ea	-0.691054
40	0xbd6ed7e8	-0.058311373
41	0x3d48fd66	0.049069785
42	0xbf09d784	-0.53844476
43	0xbc808128	-0.015686586
44	0x3c5a7b24	0.013335023
45	0xbe800969	-0.2500718
46	0x3e8c1024	0.27356064
47	0xbe5cdbee	-0.21568272
48	0xbd6aa8a5	-0.05728974
49	0x3e7bb7f0	0.24581885
50	0xbec0b3f6	-0.376373
51	0x3e862865	0.26202694
52	0x3eadce08	0.33946252
53	0x3f32fc6d	0.6991642
54	0xbe775e3c	-0.24157041
55	0xbecc7e93	-0.39940318
56	0xbe0abaf0	-0.13547873
57	0xbf2c2530	-0.67244244
58	0x3ee95168	0.4556992
59	0xbe1f11c9	-0.15534128
60	0x3dfd49cb	0.123675905
61	0xbe974ae0	-0.29549313
62	0xbe9dc078	-0.30810905
63	0xbd994d5a	-0.07485457
64	0x3e8105a2	0.2519961
65	0x3e7adefb	0.24499123
66	0x3e9467cc	0.2898544
67	0x3c2d9257	0.010593972
68	0x3df1be09	0.118038245
69	0x3e88db3a	0.26729757
70	0xbe060f06	-0.13091668
71	0x3d9b6c8e	0.075890645
72	0x3e9e709d	0.30945292
73	0xbe4c0810	-0.1992495
74	0xbda803e1	-0.08203865
75	0xbe6c4aac	-0.2307536
76	0xbf231d50	-0.637166
77	0xbe927125	-0.28601947
78	0xbf0a47f5	-0.5401605
79	0x3a9b2638	0.0011836952
80	0x3f15d14b	0.5852248
81	0xbec79834	-0.3898331
82	0x3f182c80	0.594429
83	0xbe6a40ee	-0.22876331
84	0xbec4cf55	-0.38439432
85	0xbb49c268	-0.0030786041
86	0x3e13b7a7	0.14425527
87	0x3f1e4b1e	0.6183337
88	0xbee9faa3	-0.45699033
89	0xbd8992dd	-0.06717465
90	0x3f1a7f02	0.6035005
91	0xbe90f395	-0.28310838
92	0xbdce0729	-0.100599594
93	0x3e205684	0.15658003
94	0x3dda0236	0.10644953
95	0x3f0845d9	0.5323158
96	0x3f191379	0.5979534
97	0x3e00da06	0.1258317
98	0x3cc108b2	0.023563717
99	0xbeed8b63	-0.46395406
100	0xbcbfbb14	-0.023404635
101	0xbf1ba264	-0.60794663
102	0xbf17369c	-0.590677
103	0x3e31a3d9	0.17347659
104	0x3eda2728	0.42608
105	0x3ecc196f	0.39863154
106	0xbee048c0	-0.43805504
107	0x3f33ff81	0.70311743
108	0xbdb4a627	-0.088207535
109	0x3bc8fb9a	0.006133509
110	0x3e5d0f32	0.21587828
111	0xbe338751	-0.17532088
112	0xbf062585	-0.52401
113	0x3f22afd0	0.6354952
114	0x3e4eaa11	0.20182063
115	0x3e52aae1	0.20572998
116	0x3e190ca5	0.1494623
117	0x3e60daff	0.2195854
118	0x3f0e924e	0.55691993
119	0x3e051d7a	0.12999526
120	0x3d821aa9	0.06352741
121	0x3d0009cb	0.03125934
122	0x3e4d664e	0.20058557
123	0xbe9a229a	-0.30104524
124	0x3e147163	0.14496379
125	0x3f0cacce	0.5495118
126	0xbe513d69	-0.20433582
127	0x3ec49680	0.38396072

edge_emb.bias f4 [64]
0	0xbe611082	-0.21978953
1	0x3f2b47c8	0.66906404
2	0xbeea33d3	-0.45742664
3	0xbf284c1b	-0.6574113
4	0x3e3b8488	0.18312275
5	0xbd8ff722	-0.07029559
6	0xbe1fa044	-0.1558848
7	0xbe83d492	-0.25748116
8	0xbebfa149	-0.37427738
9	0x3e89ae3f	0.26890752
10	0xbe6e137a	-0.23249617
11	0x3ee7fbd2	0.4530931
12	0x3c0a8f6c	0.008457046
13	0xbc642fc4	-0.013927404
14	0xbf373202	-0.7156068
15	0xbe2a6be2	-0.16642717
16	0x3ef3b275	0.4759709
17	0xbe8ac9bb	-0.27107033
18	0xbeb96080	-0.36206436
19	0x3f028fa0	0.51000404
20	0xbe5e269f	-0.2169442
21	0xbdc96b7c	-0.09834954
22	0xbf2f6ecf	-0.68528455
23	0x3da0144f	0.078163736
24	0xbebc068a	-0.3672374
25	0xbf021ecc	-0.5082824
26	0x3e6b6da4	0.22991043
27	0xbe83a59b	-0.25712284
28	0x3ee9ad88	0.45640206
29	0xbee9460c	-0.45561254
30	0x3f0fd290	0.5618067
31	0x3e77056c	0.24123162
32	0x3ddbb885	0.10728554
33	0x3f104a52	0.56363404
34	0xbe51891b	-0.20462458
35	0xbe045bc0	-0.12925625
36	0xbecc6124	-0.39917862
37	0x3f1597f6	0.58435
38	0x3e726178	0.23669994
39	0x3e69c4b4	0.22828943
40	0x3ec94572	0.39310795
41	0xbf240206	-0.6406559
42	0x3f2a57b5	0.6654008
43	0x3d492f1e	0.0491172
44	0x3e9cc715	0.30620638
45	0x3ef9d5be	0.48795885
46	0x3d2045fd	0.039129246
47	0x3e77d3c3	0.24201874
48	0xbe61d1c6	-0.22052678
49	0xbf1c892c	-0.6114681
50	0x3f034cbf	0.5128898
51	0xbf2d9880	-0.6781082
52	0x3da89bb5	0.08232824
53	0x3d1924c0	0.037388563
54	0x3eaffbcf	0.34371802
55	0xbf041b80	-0.5160446
56	0xbeeb9651	-0.4601312
57	0xbf35fe66	-0.71091306
58	0x3da69fa8	0.08135921
59	0x3eaefefd	0.34178916
60	0x3f1f46bf	0.62217325
61	0x3e9f1e32	0.31077725
62	0xbe8f8385	-0.2803003
63	0x3f02384a	0.5086714

gat_layers.0.att_src f4 [1, 4, 16]
0	0x3e207652	0.15670136
1	0xbb211fc5	-0.0024585587
2	0xbcbec3e9	-0.023286777
3	0x3e3d8acb	0.18509977
4	0x3e2d4c55	0.1692365
5	0xbed5bb1e	-0.41744322
6	0xbe5cd718	-0.21566427
7	0xbc5be6e2	-0.013421746
8	0xbeeef63b	-0.46672234
9	0xbe8c09d8	-0.2735126
10	0x3e928eba	0.28624517
11	0x3e9838de	0.29730886
12	0x3d881c38	0.06646007
13	0x3d39e76d	0.04538672
14	0xbef8522d	-0.48500195
15	0xbea13ee6	-0.314933
16	0xbeae18e5	-0.34003368
17	0xbf02f9cc	-0.5116241
18	0x3ea06e26	0.31334037
19	0xbc149f31	-0.009071157
20	0x3cbdcfcc	0.023170374
21	0xbe240f8c	-0.16021556
22	0x3eb5bb60	0.35494518
23	0xba829ed9	-0.0009965553
24	0xbf04a334	-0.5181153
25	0xbe4191df	-0.18903302
26	0x3d57e8c2	0.05271221
27	0x3ee769d5	0.4519793
28	0x3ee24042	0.4418965
29	0x3de2cea6	0.11074571
30	0x3e16e7f6	0.14736924
31	0x3ea9241b	0.3303536
32	0x3f02e4fd	0.5113066
33	0x3e7c2bbd	0.2462606
34	0x3e846a56	0.25862378
35	0xbefcf4a0	-0.49405384
36	0x3ed04eb9	0.4068506
37	0xbeaeab6d	-0.34115162
38	0xbdea6c6a	-0.114464596
39	0x3e846940	0.2586155
40	0xbeae4975	-0.34040418
41	0xbe3160f5	-0.17322142
42	0x3e9e1f3d	0.30883208
43	0xbe61dba0	-0.22056437
44	0x3d89c4ff	0.06727027
45	0xbdd6a29d	-0.10480235
46	0x3eb41769	0.3517411
47	0xbef2ac5f	-0.47397134
48	0xbec0b374	-0.37636912
49	0x3efb87c3	0.49127015
50	0x3ceb6659	0.028735327
51	0xbbc42b39	-0.005986598
52	0x3e46187d	0.19345279
53	0xbe761eec	-0.24035233
54	0x3ed98aa7	0.42488596
55	0x3ea5a412	0.32351738
56	0xbe46193d	-0.19345565
57	0x3ea2f486	0.31827182
58	0x3ebbad02	0.36655432
59	0xbbf86a20	-0.0075810105
60	0x3ecf1457	0.40445206
61	0xbe7e7be1	-0.24851944
62	0x3e334f88	0.17510808
63	0x3eb88d45	0.3604528

gat_layers.0.att_dst f4 [1, 4, 16]
0	0xbd4d099f	-0.050058004
1	0xbeecd4f8	-0.46256232
2	0x3c46b3b1	0.012127803
3	0xbd07871b	-0.03308783
4	0x3cfb1ba4	0.030652829
5	0xbf007238	-0.50174284
6	0xbe4b5b37	-0.19859014
7	0xbd9f0bbc	-0.0776591
8	0x3d3a77b4	0.045524314
9	0x3e345538	0.17610633
10	0x3f04a272	0.5181037
11	0x3d32cf46	0.043654703
12	0xbe926870	-0.28595304
13	0x3eff4e04	0.4986421
14	0x3ef1c4c0	0.4722042
15	0x3ef8fd98	0.48630977
16	0x3bc3b499	0.0059724567
17	0xbd4c6593	-0.049901556
18	0x3e59495c	0.2121939
19	0x3e9f6706	0.31133288
20	0xbeb70faf	-0.35754153
21	0xbe954af0	-0.29158735
22	0xbef64c39	-0.48105028
23	0x3a8850fc	0.0010400112
24	0xbef9b288	-0.4876902
25	0xbecd1ee4	-0.4006263
26	0x3dc4fa58	0.09618062
27	0x3f0361b0	0.51320934
28	0x3eb33a49	0.35005406
29	0x3eeda472	0.46414524
30	0xbf034f18	-0.5129256
31	0x3f0bb132	0.54567254
32	0xbe434a65	-0.19071348
33	0x3d90d885	0.07072548
34	0x3cf8e1fa	0.030381192
35	0xbeaddc38	-0.33957076
36	0x3d316471	0.04330868
37	0xbecb6430	-0.39724874
38	0xbda8426f	-0.08215796
39	0x3e8678af	0.2626395
40	0xbf071bbe	-0.52776706
41	0x3eef1432	0.46695095
42	0x3e956869	0.2918122
43	0xbefc0fb3	-0.49230728
44	0x3dbd54ca	0.09244688
45	0xbeba6ddb	-0.36411938
46	0x3eaac091	0.33350042
47	0xbe08c955	-0.13358052
48	0xbea0244a	-0.31277686
49	0xbec7ca1f	-0.39021394
50	0xbde44c2e	-0.111473426
51	0xbee03dce	-0.43797153
52	0xbe9811e1	-0.2970114
53	0x3f06c7ae	0.5264844
54	0x3e8a8c40	0.27060127
55	0x3eddbfe1	0.43310454
56	0xbec2c936	-0.38044137
57	0xbf01a99b	-0.5064942
58	0x3ededf5b	0.43529782
59	0x3bf68f9c	0.007524444
60	0xbf085000	-0.5324707
61	0x3ed492b3	0.41518173
62	0xbd94e48e	-0.07270156
63	0xbe5ac0ee	-0.2136266

gat_layers.0.att_edge f4 [1, 4, 16]
0	0x3efe59ea	0.49677974
1	0xbe225a5b	-0.1585478
2	0x3ebcb7b0	0.36858892
3	0xbe6b5bf4	-0.22984296
4	0x3e6df678	0.23238552
5	0xbe513db4	-0.20433694
6	0xbe8383da	-0.25686532
7	0x3ec88427	0.39163324
8	0xbd8d399a	-0.06895752
9	0xbe4f22e4	-0.20228153
10	0xbed44837	-0.41461346
11	0xbec3558f	-0.38151214
12	0xbd7d4065	-0.06182899
13	0x3f00e461	0.5034848
14	0x3eb6931a	0.35659105
15	0xbf08d966	-0.53456724
16	0x3e841543	0.2579747
17	0x3ea0654b	0.3132728
18	0xbe8af241	-0.2713795
19	0x3ebe26cd	0.37138978
20	0xbf030018	-0.5117202
21	0x3eb18e49	0.34678867
22	0x3f0977a9	0.5369821
23	0xbeee8a0f	-0.46589705
24	0xbe6d075a	-0.23147336
25	0xbda54d76	-0.08071415
26	0x3e5efb86	0.21775636
27	0x3e79d050	0.24395871
28	0x3f02c60b	0.5108344
29	0x3ebbe30d	0.36696663
30	0x3ec81d07	0.39084646
31	0x3efe0548	0.49613404
32	0xbe0cdcc0	-0.13756084
33	0xbef16db1	-0.47154
34	0x3e84d15c	0.2594098
35	0x3f0181f5	0.50588924
36	0x3e5f4f70	0.21807647
37	0xbef774b0	-0.48331213
38	0xbe2dbed6	-0.1696733
39	0x3ec6da0d	0.38838235
40	0xbe7ad28a	-0.24494377
41	0x3e4bd6c3	0.19906144
42	0xbe0cf9d3	-0.13767175
43	0xbd5ea0db	-0.054352622
44	0x3de31473	0.11087885
45	0x3e63658e	0.22206709
46	0x3cbe1c99	0.023206996
47	0x3e8ab754	0.27092993
48	0xbe9a9b4f	-0.30196616
49	0x3ebe0896	0.37115926
50	0x3eeeb6e6	0.46623915
51	0xbe971062	-0.29504687
52	0x3edb04b8	0.42777038
53	0x3d4aec79	0.049541924
54	0xbed6c528	-0.41947293
55	0x3eabff23	0.3359309
56	0x3de1b9c4	0.1102176
57	0x3ed8e2ea	0.42360622
58	0x3ee1bf0e	0.44091076
59	0x3e6acae6	0.22928962
60	0xbe93e68d	-0.28886834
61	0xbc8051eb	-0.015664062
62	0xbe01021f	-0.12598465
63	0x3ef1b612	0.4720922

gat_layers.0.bias f4 [64]
0	0xbb53fc7b	-0.0032346535
1	0xbb53283f	-0.0032220033
2	0xbb52cd9e	-0.0032166014
3	0xbb4fd62b	-0.0031713347
4	0xbb4d95b9	-0.003136976
5	0xbb7e058a	-0.0038760626
6	0xbb501700	-0.003175199
7	0xbb55f5a2	-0.003264763
8	0xbb797200	-0.0038062334
9	0xbb4bd1d4	-0.003110041
10	0xbb7f9e80	-0.0039004385
11	0xbb54d1fe	-0.0032473798
12	0xbb49304c	-0.0030698953
13	0xbb76c24d	-0.0037652433
14	0xbb7c9165	-0.003853881
15	0xbb518f64	-0.0031976337
16	0xbb534d2c	-0.0032242043
17	0xbb52207c	-0.003206282
18	0xbadd20f1	-0.0016870779
19	0xbb80ec57	-0.003934424
20	0x3bdbd94e	0.0067092543
21	0xbb484fa9	-0.003056506
22	0x3c062ce6	0.008189416
23	0xbb4b7503	-0.0031045086
24	0xbb62d0ab	-0.003460924
25	0xbb539de8	-0.0032290164
26	0x3c0becae	0.008540316
27	0xbb54579b	-0.003240085
28	0x3c046283	0.008080128
29	0xbb532cd6	-0.003222277
30	0xbb80aaf8	-0.003926631
31	0xbb505a9c	-0.0031792289
32	0xbb5e324b	-0.0033904489
33	0xbb57de70	-0.003293898
34	0xbb5d1f29	-0.0033740497
35	0x3b4195bc	0.0029538712
36	0xbb63650e	-0.0034697684
37	0x3c1486ed	0.009065372
38	0xbb4918cb	-0.0030684944
39	0x3b6a143d	0.003571763
40	0xbb4a9169	-0.0030909425
41	0xbb797f04	-0.0038070092
42	0xbb74b86a	-0.0037341365
43	0xbb754d7d	-0.003743022
44	0x3c06f34d	0.008236718
45	0xbb4f1058	-0.0031595435
46	0xbb54c7bf	-0.003246769
47	0xbb522ede	-0.0032071392
48	0xbb58d14b	-0.0033083733
49	0xbb514f71	-0.003193822
50	0xbb5c89e7	-0.0033651532
51	0xbb9f50a5	-0.0048619085
52	0xbb5f82f7	-0.003410516
53	0xbb784cfa	-0.0037887678
54	0xbb4d1157	-0.0031290853
55	0xbb7920fb	-0.0038014043
56	0xbb73639a	-0.0037138225
57	0xbb4f2cd4	-0.0031612413
58	0xbb72aa3a	-0.0037027732
59	0xbb6f5c62	-0.003652357
60	0x3c062664	0.008187864
61	0xbb59eea8	-0.0033253822
62	0xba975b16	-0.0011547531
63	0xbb5713fc	-0.0032818308

gat_layers.0.lin.weight f4 [64, 64]
0	0x3d0795f5	0.033101995
1	0xbbb88917	-0.0056315768
2	0xbe022ab3	-0.12711601
3	0x3ced99cf	0.029004006
4	0x3e5343ba	0.20631304
5	0x3c588696	0.013215682
6	0x3d117ff8	0.03552243
7	0xbd09d9e5	-0.033655066
8	0xbdd3205f	-0.10308909
9	0xbe33ae60	-0.17546988
10	0x3e3c2f3c	0.18377393
11	0x3e1cf430	0.15327525
12	0xbd897fdc	-0.0671384
13	0xbe3dfe05	-0.18553932
14	0xbd8e33b2	-0.06943454
15	0xbd120508	-0.03564933
16	0x3e206447	0.15663253
17	0x3c771f17	0.015083096
18	0x3d63c010	0.055603087
19	0xbe069d6f	-0.13145994
20	0xbdf8e7b1	-0.12153567
21	0xbd902954	-0.07039133
22	0x3e12d5d4	0.14339381
23	0xbdfdceba	-0.123929456
24	0xbc700021	-0.014648468
25	0x3d4b1e52	0.049589463
26	0xbd9f81e3	-0.07788446
27	0x3e30a401	0.17250063
28	0xbd4b56fb	-0.049643498
29	0x3e02e870	0.1278398
30	0x3e17cc61	0.14824058
31	0xbddd2e7d	-0.107998826
32	0x3e3264b5	0.17421229
33	0x3e0280bc	0.12744421
34	0xbdbd58f7	-0.09245484
35	0x3e549320	0.20759249
36	0x3d4e5026	0.050369404
37	0xbd81f6f9	-0.063459344
38	0x3cbf0ebe	0.02332246
39	0xbc265c81	-0.010153891
40	0x3df57881	0.11985875
41	0x3dc30b7a	0.09523673
42	0x3e5c8bb8	0.21537673
43	0x3d9de482	0.077096
44	0xbe06ed3c	-0.13176435
45	0xbdf44d11	-0.11928762
46	0x3e482cca	0.19548336
47	0x3abfcb9d	0.0014632825
48	0xbdf294bf	-0.11844777
49	0x3d8b9cc1	0.06817008
50	0x3e305b4c	0.17222327
51	0xbd99fd1e	-0.075189814
52	0xbd07bf77	-0.03314158
53	0xbcd8f0fd	-0.0264821
54	0x3d923b3b	0.071402036
55	0x3d4cace6	0.049969576
56	0x3e002209	0.12512983
57	0x3de2c2ac	0.11072287
58	0x3dc2121d	0.09476111
59	0x3e523820	0.20529222
60	0xbe34b3e1	-0.17646743
61	0xbdb78b2d	-0.089620925
62	0xbbca3ed8	-0.0061720423
63	0x3caaa1e6	0.020829152
64	0xbe1fbc28	-0.1559912
65	0xbe5daba0	-0.21647501
66	0xbd9e8fef	-0.07742297
67	0xbdc92abc	-0.09822604
68	0xbd6df3f6	-0.058093987
69	0x3ddace47	0.106838755
70	0xbde0dc8b	-0.10979565
71	0x3dbda727	0.092603974
72	0x3e006c84	0.12541395
73	0x3e1225f1	0.14272286
74	0xbe5982d8	-0.21241319
75	0xbdb1d4cc	-0.08683166
76	0xbd401f50	-0.046904862
77	0x3d85f179	0.06540198
78	0xbe1cba51	-0.15305449
79	0x3db29ce0	0.08721328
80	0xbd7ba8dc	-0.061440334
81	0x3e2bdafb	0.16782753
82	0x3e11cdaa	0.14238611
83	0x3e1cb769	0.1530434
84	0xbe33fb1f	-0.17576264
85	0x3cdac372	0.026704524
86	0x3e543863	0.20724635
87	0xbcf4e3a4	-0.029893704
88	0xbe4f83dc	-0.20265144
89	0xbe3c120d	-0.18366261
90	0x3bfd380b	0.007727628
91	0x3cf08bd0	0.029363543
92	0x3dc59a23	0.0964854
93	0xbdd21349	-0.102575846
94	0xbc2fe20d	-0.010735047
95	0x3d9a3de1	0.07531334
96	0xbe0a86f6	-0.13528046
97	0xbe42eae6	-0.19034919
98	0xbd5fa11f	-0.054597016
99	0x3c9f45c7	0.019442452
100	0xbd433f01	-0.047667507
101	0xbdae0976	-0.08497898
102	0x3e062291	0.13099124
103	0xbd932cd3	-0.07186284
104	0xbe13e254	-0.14441806
105	0x3e2b1d72	0.16710451
106	0xbe08c76e	-0.13357326
107	0xbdab66d1	-0.0836922
108	0x3e382d7f	0.17986105
109	0xbe3ae04d	-0.18249626
110	0x3e1ec220	0.1550374
111	0xbd1fc4af	-0.03900593
112	0x3dd9962a	0.10624345
113	0x3e28bd8b	0.16478555
114	0x3d137b58	0.0360063
115	0x3e26eff2	0.1630247
116	0xbe2c699a	-0.16837159
117	0xbd4ce5ad	-0.050023723
118	0x3e530f64	0.2061134
119	0x3e0abbb6	0.13548169
120	0x3ceedc83	0.029157883
121	0x3cc3b29e	0.023888882
122	0xbe3b9db4	-0.18321878
123	0xbe1023d0	-0.14076161
124	0xbe3de076	-0.18542656
125	0x39921433	0.0002786234
126	0x3ce454e5	0.027872512
127	0xbdec2f8a	-0.11532505
128	0x3e3289f7	0.17435442
129	0xbd4fbf68	-0.05071965
130	0x3c95cfe0	0.0182876
131	0xbe4c0d5b	-0.1992697
132	0xbc796b53	-0.015223342
133	0x3e29b94b	0.1657459
134	0xbe5257fc	-0.20541376
135	0x3de082c9	0.10962445
136	0x3db45f11	0.08807195
137	0xbd5bc63d	-0.05365585
138	0xbd475780	-0.04866743
139	0xbe0852d2	-0.13312843
140	0xbe1a0307	-0.15040217
141	0xbdf221bc	-0.118228406
142	0x3d0670ac	0.032822296
143	0x3e50177c	0.20321459
144	0xbdc4ca46	-0.09608893
145	0x3e2ecf80	0.17071342
146	0xbdda1652	-0.106487885
147	0xbe39e407	-0.18153392
148	0x3d63c47c	0.055607304
149	0x3dc0fcaa	0.09423192
150	0x3e290c0e	0.16508505
151	0x3de86e2b	0.11349138
152	0x3e5c4eb1	0.21514393
153	0x3de1240c	0.109932035
154	0x3cfea641	0.031085135
155	0xbe4e2cce	-0.20134279
156	0xbd1e79ce	-0.03869038
157	0x3d513bb4	0.051082328
158	0x3deef13b	0.11667105
159	0x3dd94518	0.10608882
160	0x3e4150ca	0.18878475
161	0xbcef707e	-0.029228445
162	0xbdd8ac4c	-0.10579738
163	0x3e373de3	0.17894702
164	0xbde386cb	-0.11109694
165	0xbe019b45	-0.12656887
166	0xbe05af01	-0.1305504
167	0x3dae0c4d	0.0849844
168	0xbdfcb112	-0.12338461
169	0x3d63ec3e	0.05564522
170	0x3e3d1e15	0.18468507
171	0xbdc485da	-0.09595843
172	0x3e47a27e	0.1949558
173	0x3d7b243d	0.061313856
174	0x3c86d1d5	0.016457478
175	0x3d1f3c70	0.038875997
176	0x3e37007c	0.17871279
177	0x3e4175bb	0.18892567
178	0x3e4bfee8	0.19921458
179	0x3dedbfd7	0.11608856
180	0x3e4035d8	0.1877054
181	0xbd248e5e	-0.040174834
182	0xbe010e47	-0.12603103
183	0xbda26d10	-0.07930958
184	0xbe5bee7d	-0.21477695
185	0xbe44eae0	-0.19230223
186	0xbe088604	-0.13332373
187	0x3da32190	0.07965386
188	0xbe3f3784	-0.18673521
189	0x3e36eb8b	0.1786329
190	0xbe1b4e13	-0.15166502
191	0x3df1bc79	0.118035264
192	0xbe2c73eb	-0.16841094
193	0xbd82b98e	-0.06383048
194	0x3d792ae0	0.060831904
195	0x3c43c22c	0.01194815
196	0x3d9eb449	0.077492304
197	0x3e3ff7cb	0.1874687
198	0xbdb33dcc	-0.08752021
199	0xbe154579	-0.14577283
200	0x3db65920	0.08903718
201	0xbe3fe5c7	-0.18739997
202	0xbda3f37d	-0.08005426
203	0xbe29b002	-0.16571048
204	0xbe0619d0	-0.13095784
205	0xbe34da63	-0.17661433
206	0x3d8792db	0.06619807
207	0xbdc7c31e	-0.097540125
208	0x3e26141a	0.16218606
209	0xbdbd812b	-0.092531525
210	0x3e2f6476	0.17128167
211	0xbe13ce6c	-0.14434212
212	0xbe5d17bf	-0.2159109
213	0xbe277b21	-0.16355564
214	0x39ba7ef6	0.00035571278
215	0x3e21c214	0.15796691
216	0x3dc2b1dc	0.0950658
217	0x3db2c112	0.087282315
218	0x3e11d505	0.14241417
219	0x3e5d66da	0.21621266
220	0xbe4177d4	-0.18893367
221	0x3e038b58	0.12846124
222	0x3e4ed639	0.20198907
223	0xbb39993e	-0.00283201
224	0xbe23286b	-0.15933387
225	0x3e175103	0.14776997
226	0xbe18f179	-0.14935865
227	0xbdcceb28	-0.1000579
228	0x3deacd91	0.1146499
229	0x3de7fa75	0.11327068
230	0x3d18f3a4	0.03734173
231	0xbd934f8b	-0.07192906
232	0x3de42cb4	0.11141339
233	0xbe2ba5fc	-0.16762537
234	0xbe4e466d	-0.20144053
235	0xbcbf7d5c	-0.023375206
236	0x3c15ab76	0.009135118
237	0xbd397606	-0.04527857
238	0x3cdb5aa9	0.026776629
239	0x3c46d156	0.0121348705
240	0xbcea5c24	-0.02860839
241	0x3d4969e2	0.049173243
242	0x3e4ac73b	0.19802563
243	0xbd1a3b11	-0.037653986
244	0x3dc91c66	0.0981987
245	0x3d4a1451	0.04933578
246	0xbe5507c4	-0.20803744
247	0xbc94ff5c	-0.018188171
248	0x3e347d36	0.17625889
249	0x3d74ba58	0.059748024
250	0x3d355849	0.04427365
251	0x3d8de5a5	0.06928567
252	0xbe44a3b3	-0.19203071
253	0xbca7e23e	-0.020493623
254	0xbd810cbd	-0.06301258
255	0xbdedd795	-0.11613385

gat_layers.0.lin_edge.weight f4 [64, 64]
0	0xbe0c2925	-0.1368757
1	0xbe1802cb	-0.14844815
2	0xbe4a0851	-0.19729735
3	0xbd479daf	-0.048734363
4	0xbc41e891	-0.011835233
5	0xbe451c58	-0.19249094
6	0x3e1531e3	0.14569812
7	0xbd96a14e	-0.07354985
8	0x3c9d2e7f	0.01918721
9	0x3dca3381	0.09873105
10	0x3dab10d9	0.08352823
11	0xbdc62964	-0.096758634
12	0x3deaaa40	0.11458254
13	0xbd8efc80	-0.06981754
14	0x3e2034d2	0.1564515
15	0x3cfb14ed	0.030649627
16	0xbd4a0ae4	-0.049326792
17	0xbe183173	-0.14862613
18	0x3e074616	0.1321033
19	0xbd63a60a	-0.05557827
20	0x3e207bf8	0.1567229
21	0xba212244	-0.00061467686
22	0x3e592add	0.21207757
23	0xbe11e5d0	-0.14247823
24	0xbd4c2ffc	-0.04985045
25	0xbe349d30	-0.17638087
26	0xbcff489e	-0.031162556
27	0x3d59257f	0.053014275
28	0x3da8fe78	0.08251661
29	0xbe5dd703	-0.21664052
30	0xbe302801	-0.1720276
31	0x3e1a37d1	0.15060355
32	0xbe394da8	-0.1809603
33	0x3cb0e49b	0.021593383
34	0xbdb9f39e	-0.090796694
35	0x3b92582c	0.0044660773
36	0x3e0da9b1	0.13834263
37	0xbe3a2af4	-0.18180448
38	0xbe0d64c6	-0.13807973
39	0xbd30aa18	-0.043130964
40	0xbdc815cb	-0.09769782
41	0xbcc44f89	-0.023963707
42	0xbe175fa4	-0.14782578
43	0xbb85bceb	-0.0040813587
44	0x3dac0141	0.08398677
45	0x3db940f1	0.0904559
46	0x3bf5d0b0	0.007501684
47	0x3e0bb208	0.13642132
48	0x3c003bb6	0.007826736
49	0x3e135219	0.14386787
50	0x3caeb30d	0.021325612
51	0xbe07d106	-0.1326333
52	0xbdd2f542	-0.103006855
53	0x3db30bf7	0.087425165
54	0x3dedd737	0.116133146
55	0x3de58d8c	0.112086385
56	0xbdece8a3	-0.115678094
57	0x3e1d7ff6	0.15380844
58	0xbd67094f	-0.05640536
59	0x3e37f05b	0.17962782
60	0xbe36d71f	-0.178555
61	0x3d9bd486	0.07608895
62	0x3e31b23c	0.17353147
63	0xbd0f896f	-0.035043176
64	0x3df57595	0.119853176
65	0xbe0d2639	-0.13784112
66	0xbc6dccc1	-0.014514149
67	0x3c1bd8ba	0.009512121
68	0xbd732bec	-0.05936806
69	0x3dff886e	0.12477194
70	0x3dcbb813	0.09947219
71	0x3e54fc56	0.20799384
72	0x3df6de72	0.12054147
73	0x3de1c042	0.110229984
74	0xbccd4b7c	-0.025060408
75	0xbdbbf8b6	-0.09178297
76	0xbdd86f96	-0.10568158
77	0x3e37365f	0.17891835
78	0x3e506a29	0.20352997
79	0x3cd3742e	0.025812235
80	0xbd2fde12	-0.042936392
81	0x3e31f86f	0.17379926
82	0xbcdf50bf	-0.027260182
83	0x3e01dd7f	0.1268215
84	0xbdf154c9	-0.117837496
85	0xbe2919bb	-0.16513722
86	0x3e4ffadb	0.20310538
87	0xbe4f213a	-0.20227519
88	0x3d31c9d6	0.043405376
89	0xbd69c01c	-0.057067975
90	0x3d8561d5	0.065128006
91	0x3dca71eb	0.098850094
92	0xbe0c7aad	-0.13718672
93	0xbd292e3e	-0.041303866
94	0x3dba492e	0.09095989
95	0x3cb77489	0.022394435
96	0x3e0d82ce	0.1381943
97	0xbe03778a	-0.1283857
98	0xbd682965	-0.056680102
99	0x3e2a0a5c	0.16605514
100	0xbdf24558	-0.118296325
101	0x3e31437b	0.17310898
102	0xbe42b9e5	-0.19016226
103	0x3e484de5	0.19560964
104	0x3e1cf300	0.15327072
105	0x3e599e24	0.21251732
106	0x3d8e1696	0.06937902
107	0xbd659006	-0.056045555
108	0xbd55af0d	-0.052168895
109	0x3b870500	0.004120469
110	0xbdcc0aac	-0.09962973
111	0xbe52a17f	-0.20569418
112	0xbd3b69f2	-0.045755334
113	0xbe5a6957	-0.21329246
114	0xbd733027	-0.059372094
115	0x3d8f9a9b	0.070119105
116	0x3d92dc3b	0.07170912
117	0x3e439246	0.19098768
118	0x3da7d3a7	0.08194666
119	0xbe0883a2	-0.13331464
120	0x3c6835b1	0.014172957
121	0xbe262a2d	-0.16227026
122	0xbe1153ac	-0.14192075
123	0x3c623ecb	0.013808916
124	0x3e4e20a9	0.20129646
125	0xbe1421dc	-0.14466041
126	0x3df4a0e5	0.11944751
127	0xbd29060a	-0.041265525
128	0xbdf4ee70	-0.11959541
129	0xbe051fa7	-0.13000356
130	0xbe46b240	-0.19403934
131	0x3d489326	0.048968457
132	0x3ba07425	0.004896658
133	0xbd5a176e	-0.053245
134	0xbdeb036a	-0.114752606
135	0x3d0b8665	0.034063715
136	0x3d446dbe	0.04795622
137	0x3e318408	0.17335522
138	0x3db7e0a6	0.08978395
139	0xbdb81e38	-0.08990139
140	0x3ce0c998	0.027439877
141	0x3e4a9f89	0.1978742
142	0x3e3c6a28	0.1839987
143	0xbe35a851	-0.17739989
144	0x3e3bde71	0.18346573
145	0xbac144bf	-0.0014745219
146	0xbd752e97	-0.059858885
147	0x3e1d8d60	0.15385962
148	0x3cbbbda3	0.022917574
149	0xbd604b77	-0.05475947
150	0xbe3d1d66	-0.18468246
151	0x3e14d76c	0.14535302
152	0xbd0cc157	-0.03436407
153	0xbdcd3997	-0.1002075
154	0x3b91e008	0.0044517554
155	0x3e0ac2f5	0.13550933
156	0x3e33442f	0.17506479
157	0xbe4f2069	-0.20227207
158	0xbe18e2a6	-0.1493021
159	0xbe2b19d3	-0.1670907
160	0xbe1cd37d	-0.15315051
161	0xbd08c37e	-0.03338956
162	0xbdd95073	-0.106110476
163	0xbe0780c9	-0.13232721
164	0xbdc96adf	-0.09834837
165	0x3e33f33f	0.1757326
166	0x3e44e121	0.19226505
167	0x3dcb7a04	0.09935382
168	0x3df63b45	0.120230235
169	0x3da95573	0.08268251
170	0xbcdb5b58	-0.026776955
171	0x3c7a6601	0.015283109
172	0xbd9b7d5b	-0.07592269
173	0x3c4d99ae	0.012548847
174	0x3de3cf02	0.11123468
175	0xbceefcce	-0.029173281
176	0xbe377696	-0.1791633
177	0xbd344ddc	-0.044019565
178	0x3d95f31d	0.07321761
179	0xbde9c2ef	-0.11414134
180	0xbd4ef593	-0.050527167
181	0x3d941c8b	0.07232007
182	0xbdce9855	-0.10087649
183	0x3dcb8dd1	0.09939159
184	0x3e1b533c	0.1516847
185	0xbe2fbcab	-0.17161815
186	0xbdbad817	-0.09123247
187	0x3e1df542	0.1542559
188	0x3e4bd81f	0.19906662
189	0xbd978a2d	-0.07399402
190	0x3d551491	0.052021567
191	0xbe059c3c	-0.1304788
192	0x3de84afe	0.113424286
193	0x3dab9c6b	0.08379444
194	0xbba283c6	-0.0049595563
195	0xbdb8f012	-0.09030165
196	0x3d549966	0.051904105
197	0xbe0f3301	-0.139843
198	0xbe08bdeb	-0.13353698
199	0xbd6ade27	-0.057340767
200	0xbe3554db	-0.17708151
201	0xbe30cbc5	-0.17265232
202	0x3e17d985	0.14829071
203	0x3e031be5	0.1280361
204	0xbe57987e	-0.21054265
205	0x3e1527d7	0.14565979
206	0x3d68472f	0.05670851
207	0xbd2ad49a	-0.04170666
208	0xbe414549	-0.18874086
209	0xbe326c3d	-0.17424102
210	0xbe341ae9	-0.1758839
211	0xbd03ccb3	-0.03217764
212	0xbe35410b	-0.17700593
213	0xbdae4f6a	-0.08511241
214	0xbd1e3ae8	-0.038630396
215	0x3d3d8a77	0.04627463
216	0xbdb9dadd	-0.09074948
217	0x3d8da84c	0.06916866
218	0xbdfb2878	-0.12263578
219	0x3d143db6	0.036191665
220	0xb83326bb	-4.2712996e-05
221	0xbe195580	-0.14974022
222	0xbe1cc831	-0.15310742
223	0x3e591ef2	0.21203211
224	0xba070f44	-0.0005152116
225	0xbe050388	-0.12989628
226	0xbe26a6eb	-0.16274612
227	0xbdfc3198	-0.12314147
228	0x3a8fe158	0.0010977192
229	0xbccd03ad	-0.025026167
230	0x3e3d0444	0.18458658
231	0x3c16afc7	0.009197182
232	0xbc82ff1e	-0.01599079
233	0xbdf4d5d0	-0.11954844
234	0x3d65cdbc	0.056104407
235	0xbdfcf3ad	-0.12351165
236	0xbdc71f0d	-0.09722719
237	0xbce6d30a	-0.028176803
238	0xbd24daeb	-0.04024784
239	0xbdc949d4	-0.09828535
240	0x3c73f95b	0.014890994
241	0x3e2d5b4b	0.16929357
242	0x3e138f31	0.14410092
243	0xbe4ce79b	-0.20010225
244	0xbe0fdd00	-0.14049149
245	0xbe35bc06	-0.17747506
246	0x3e1f3068	0.1554581
247	0xbd607670	-0.05480045
248	0xbe17f4ec	-0.14839524
249	0xbc6fac78	-0.014628522
250	0x3d694824	0.056953564
251	0xbd8b9759	-0.06815977
252	0x3e08d5f4	0.13362867
253	0x3e38f454	0.18061954
254	0xbda47223	-0.08029582
255	0xbe033b87	-0.12815677

gat_layers.1.att_src f4 [1, 4, 16]
0	0xbd1cae40	-0.038252115
1	0xbcb2df26	-0.021834921
2	0xbeb00f48	-0.3438666
3	0xbecde11b	-0.40210804
4	0xbe98ebf8	-0.2986753
5	0xbf0b0510	-0.543046
6	0x3c0f4822	0.008745225
7	0x3dad92f3	0.08475294
8	0xbeb82d70	-0.35972166
9	0x3e2a7021	0.16644336
10	0x3d0bfba5	0.034175534
11	0xbec611c9	-0.38685444
12	0x3eaacbc7	0.33358595
13	0xbedb5d8c	-0.42844808
14	0xbe18cf31	-0.14922787
15	0x3e95e229	0.2927411
16	0x3e897474	0.2684666
17	0xbf0801dc	-0.5312784
18	0xbecc5da6	-0.39915198
19	0x3e185ed7	0.14879929
20	0xbe93e5aa	-0.28886157
21	0xbcbdf868	-0.023189738
22	0x3ea7b3bf	0.32754323
23	0x3ece0575	0.40238538
24	0x3ed7c2b5	0.42140737
25	0xbee9f6d5	-0.4569613
26	0xbe731edc	-0.2374224
27	0xbed0aa22	-0.407548
28	0xbf0455ed	-0.5169361
29	0x3ed4baab	0.41548666
30	0x3f042a96	0.5162748
31	0xbe3d0af5	-0.18461211
32	0x3ef2dc50	0.4743371
33	0xbed06cf2	-0.4070812
34	0x3e807ae2	0.25093752
35	0xbe909238	-0.28236556
36	0xbdd0861d	-0.1018183
37	0xbe40170f	-0.18758796
38	0x3ea9592b	0.33075842
39	0xbeea3ca2	-0.45749384
40	0xbf00f711	-0.50376993
41	0x3d51a209	0.05117992
42	0x3e88a58a	0.26688796
43	0xbdb8c2ca	-0.09021528
44	0x3ea03a7e	0.31294626
45	0xbf0ba03c	-0.54541373
46	0x3d2983c3	0.041385423
47	0xbeafc595	-0.3433043
48	0x3e271cbf	0.1631956
49	0x3e09fd53	0.13475542
50	0xbe957485	-0.2919046
51	0xbc5c701f	-0.013454466
52	0xbd9f7dcb	-0.07787665
53	0x3db2c6e2	0.0872934
54	0x3e4e04ce	0.2011902
55	0x3f0485f3	0.5176689
56	0xbd710080	-0.058838367
57	0xbeac75e6	-0.336837
58	0x3ead21b2	0.3381477
59	0x3f01080e	0.50402915
60	0x3e82434f	0.25441977
61	0xbdc8acd7	-0.097985916
62	0x3eb33dce	0.3500809
63	0xbe584826	-0.21121272

gat_layers.1.att_dst f4 [1, 4, 16]
0	0xbe876644	-0.2644521
1	0x3ed64eef	0.41857097
2	0xbf0586dd	-0.5215891
3	0xbd8ff8aa	-0.07029851
4	0x3e82e003	0.25561532
5	0x3eb49f8b	0.35277972
6	0x3ef1f315	0.4725577
7	0xbea91456	-0.33023328
8	0x3ed58112	0.41700035
9	0x3e97102b	0.29504523
10	0xbd97d87d	-0.07414339
11	0xbe251d73	-0.16124515
12	0xbdf9d81d	-0.121994235
13	0xbe4ecce8	-0.20195353
14	0x3e3122a4	0.1729837
15	0x3e903044	0.28161824
16	0xbe8eea4a	-0.27913123
17	0xbf03abab	-0.5143382
18	0x3ef7ea4b	0.4842094
19	0xbf08c04c	-0.5341842
20	0x3e8db084	0.27673733
21	0x3ec7923b	0.38978752
22	0x3d29ec5a	0.041485168
23	0xbe16e14b	-0.1473438
24	0x3e92556c	0.28580797
25	0xbe9f9d93	-0.31174907
26	0xbe53c8df	-0.20682095
27	0x3eeea5f3	0.46610984
28	0x3c9c8937	0.019108398
29	0x3e001809	0.12509169
30	0x3ec0c323	0.37648878
31	0xb9c45dbb	-0.00037453868
32	0xbf0034dc	-0.50080657
33	0xbee53019	-0.44763258
34	0x3f0628cc	0.52406
35	0xbeecc642	-0.4624501
36	0x3e329841	0.17440893
37	0xbe877cfb	-0.2646254
38	0xbe89e0b3	-0.26929244
39	0x3efa898b	0.48933062
40	0xbdcd1468	-0.10013658
41	0x3dd1e097	0.10247915
42	0xbe87c4c6	-0.26517314
43	0xbe8a5f43	-0.27025804
44	0x3f030f80	0.51195526
45	0x3cc7b31b	0.024377396
46	0xbe1fef3a	-0.15618601
47	0x3dc5d22f	0.0965923
48	0xbe424196	-0.18970332
49	0xbec099df	-0.37617394
50	0xbd639392	-0.055560656
51	0x3ebf3d49	0.37351444
52	0x3decd585	0.11564163
53	0xbd3f83a0	-0.046756387
54	0x3ed5d437	0.4176347
55	0x3e3551b1	0.17706944
56	0x3d5033f9	0.050830815
57	0x3e2222bc	0.15833563
58	0x3dec03b3	0.11524143
59	0x3db92c37	0.090416364
60	0x3e06331b	0.13105433
61	0xbec6d658	-0.38835406
62	0xbe687acf	-0.22703098
63	0xbe2af1f4	-0.1669386

gat_layers.1.att_edge f4 [1, 4, 16]
0	0x3cabe64f	0.020983843
1	0xbc2c544d	-0.010518146
2	0xbf00dad3	-0.503339
3	0xbe264c05	-0.16239937
4	0x3d290331	0.04126281
5	0x3f08ced6	0.53440607
6	0x3e5e478f	0.21706985
7	0xbd0b0bf9	-0.033946965
8	0x3e1c70a5	0.15277345
9	0x3f08f9ec	0.5350635
10	0x3d2945d9	0.041326378
11	0x3f072ff5	0.5280755
12	0x3e848d75	0.25889173
13	0xbe253885	-0.16134842
14	0xbc0e756a	-0.008694986
15	0xbdc24223	-0.09485271
16	0x3d5b70be	0.053574316
17	0x3e3ce636	0.18447194
18	0x3f07f102	0.53102124
19	0xbeb05a47	-0.34443876
20	0x3e06134a	0.13093296
21	0xbec630b7	-0.3870904
22	0xbef3bb2c	-0.47603738
23	0xbed65d93	-0.41868266
24	0x3ed57519	0.416909
25	0x3f0abc43	0.54193515
26	0x3ee0c6b1	0.4390159
27	0xbec56563	-0.38553914
28	0xbe886365	-0.26638332
29	0xbd8317a8	-0.064009964
30	0x3ebd2290	0.36940432
31	0x3e9a5fd2	0.3015123
32	0x3e82f528	0.25577664
33	0x3e56aeb2	0.20965078
34	0xbdfb6e5d	-0.122769095
35	0x3ec1dca4	0.37863648
36	0x3c65c0ec	0.014023047
37	0x3f03900c	0.51391673
38	0x3f09f2cd	0.5388611
39	0x3dabdfb4	0.08392277
40	0xbf084302	-0.53227246
41	0x3ebd84cc	0.37015378
42	0xbecb48c4	-0.39703953
43	0xbd573092	-0.052536555
44	0x3efc43e2	0.4927054
45	0xbe93213f	-0.28736302
46	0xbce0aeaa	-0.027427036
47	0x3d3121b1	0.04324502
48	0x3ece852b	0.40335974
49	0xbe6fdaec	-0.23423356
50	0xbd8c9ba9	-0.06865627
51	0x3e3dadc4	0.18523318
52	0x3ec74b71	0.38924745
53	0x3e8f4649	0.2798331
54	0x3ee5d284	0.44887173
55	0x3f051ce7	0.51997226
56	0x3eaad1e1	0.3336325
57	0x3eef7343	0.46767625
58	0xbe47a493	-0.19496374
59	0xbed7b1be	-0.42127794
60	0x3e79eaa8	0.2440592
61	0x3e6327ab	0.22183101
62	0xbaa1bbe3	-0.001233932
63	0xbe85c022	-0.26123148

gat_layers.1.bias f4 [64]
0	0xbb850809	-0.0040597958
1	0xbb848bc0	-0.00404498
2	0xbb1de5c8	-0.002409326
3	0xbb8a53c8	-0.0042214133
4	0x3bfadea9	0.0076559377
5	0xbb8cd643	-0.004298003
6	0xbb8e1071	-0.004335456
7	0xbb8491f5	-0.0040457197
8	0xbb859a14	-0.0040772054
9	0xbb8ee8f8	-0.004361268
10	0xbb8993c1	-0.004198522
11	0x3afd4973	0.0019324258
12	0xbb86fe9c	-0.0041197073
13	0xbb9510d2	-0.0045491243
14	0xbb89aa73	-0.0042012273
15	0x3ba00480	0.004883349
16	0x3bbe9dd4	0.0058171544
17	0xbb746c90	-0.0037296154
18	0xbb8b45ed	-0.004250279
19	0xbb8606a9	-0.0040901494
20	0xbb8940fc	-0.004188655
21	0xbb7b10f3	-0.0038309663
22	0xbb8a0360	-0.004211828
23	0x3bda4099	0.0066605327
24	0xbb8525a8	-0.004063327
25	0xbb8b073e	-0.0042428067
26	0xbb858d06	-0.004075649
27	0x3c04e58a	0.008111367
28	0x3bf205f8	0.0073859654
29	0xbb90bed9	-0.004417282
30	0xbb88075b	-0.0041512675
31	0xbb6d82fb	-0.00362414
32	0xbb892877	-0.004185732
33	0xbb82d898	-0.003993105
34	0x3c175f9e	0.0092391055
35	0x3b887a11	0.004164942
36	0xbb87dc39	-0.0041461256
37	0x3c12edfa	0.008967871
38	0xbb82420a	-0.0039751576
39	0x3b959237	0.0045645493
40	0x3c0c88e0	0.008577555
41	0xbb9169e3	-0.0044376715
42	0xbb86bcab	-0.0041118464
43	0xbb8aa8f3	-0.004231566
44	0xbb8b3556	-0.0042483015
45	0xbb86894a	-0.0041057216
46	0x3a56d239	0.0008194778
47	0xbb870717	-0.004120718
48	0xbb790bc4	-0.0038001398
49	0xbb89507a	-0.0041905018
50	0x3b1c144e	0.0023815813
51	0xbb95586d	-0.0045576603
52	0xbb87d3b2	-0.004145109
53	0xbb8d2014	-0.0043068025
54	0xbb7d3998	-0.0038639065
55	0xbb87ee6c	-0.004148295
56	0xbb8caced	-0.0042930753
57	0xbb8929c1	-0.0041858857
58	0xbb876071	-0.0041313698
59	0xbb851628	-0.004061479
60	0x3beef31f	0.007292166
61	0xbb6bb648	-0.0035966802
62	0xbac02e50	-0.001466224
63	0xbb6a1a89	-0.0035721383

gat_layers.1.lin.weight f4 [64, 64]
0	0xbd664593	-0.056218695
1	0xbe1a2b68	-0.1505562
2	0x3da326f0	0.07966411
3	0x3ce0567d	0.02738499
4	0xbd03e224	-0.032198086
5	0x3db962f1	0.09052075
6	0x3daabe00	0.08337021
7	0x3e426c4d	0.18986626
8	0x3e29172d	0.16512747
9	0xbe5b0b03	-0.2139092
10	0x3d8fd121	0.0702231
11	0x3dc55e6d	0.09637151
12	0x3c34a008	0.011024483
13	0xbdaec808	-0.08534247
14	0xbe06e8da	-0.13174763
15	0xbe32032f	-0.17384027
16	0xbe1dc358	-0.15406549
17	0x3c98eac3	0.01866663
18	0xbb4a66fa	-0.0030884133
19	0xbdfc644b	-0.12323817
20	0x3d45ef31	0.048323814
21	0x3d9fe80c	0.07807931
22	0x3de24830	0.11048925
23	0xbd433b76	-0.04766413
24	0x3d3db748	0.04631737
25	0x3c94bd34	0.018156625
26	0x3e2d157c	0.16902727
27	0x3d853bef	0.06505572
28	0xbdc26cfb	-0.094934426
29	0xbe2832d0	-0.16425633
30	0x3ded63da	0.11591311
31	0xbddab6b6	-0.106793806
32	0x3dca12d9	0.09866876
33	0xbd5f0521	-0.05444825
34	0x3e5ae905	0.21377952
35	0x3db54597	0.08851164
36	0xbdaa98ab	-0.083299
37	0xbe5ab312	-0.21357372
38	0x3c9d246b	0.019182405
39	0x3e53f896	0.20700297
40	0xbdb11a1c	-0.08647558
41	0x3d2c2d8b	0.04203562
42	0xbddd335a	-0.1080081
43	0x3da67e92	0.0812961
44	0x3e2f6872	0.17129686
45	0x3e56cc84	0.20976454
46	0x3d4505df	0.048101302
47	0x3bdcd832	0.0067396397
48	0xbdb1e8af	-0.08686959
49	0x3e59fdd1	0.2128823
50	0x3e0d217e	0.13782308
51	0x3d15ef18	0.03660497
52	0xbe5eb008	-0.21746838
53	0x3e2a087f	0.16604804
54	0x3de484d7	0.1115815
55	0x3cfae738	0.030627832
56	0x3d7498fa	0.059716202
57	0x3d6dae3f	0.058027502
58	0x3e1d8039	0.15380944
59	0x3e43efe2	0.19134477
60	0x3ae06ee8	0.0017122896
61	0x3e0d427f	0.13794897
62	0xbde10bda	-0.10988589
63	0x3e40b3db	0.1881861
64	0xbe215f87	-0.15759097
65	0x3e2379f0	0.15964484
66	0xbdc6fbc0	-0.09715986
67	0x3dc10f39	0.094267316
68	0x3e18bc7b	0.1491565
69	0xbdac4315	-0.084112324
70	0x3dac0e15	0.084011234
71	0x3e170b6a	0.14750448
72	0x3b1881e5	0.0023270783
73	0xbd26539f	-0.04060709
74	0xbe5e38b1	-0.21701314
75	0x3e340a53	0.17582063
76	0xbe1d294f	-0.15347789
77	0x3e59bedf	0.21264218
78	0xbe3267ea	-0.17422453
79	0xbe16bfa1	-0.14721538
80	0xbd4ca717	-0.049964037
81	0x3dada220	0.084781885
82	0xbc870750	-0.016482979
83	0xbdc0e372	-0.09418382
84	0x3d532ca0	0.05155623
85	0xbe23368d	-0.15938778
86	0xbe6253a8	-0.22102225
87	0x3d207be1	0.03918064
88	0x3e2c21be	0.16809747
89	0x3e11fae6	0.14255866
90	0x3df020bb	0.11724993
91	0x3e575b9b	0.21031038
92	0x3e3056fe	0.17220685
93	0x3d5e7b70	0.054316938
94	0x3e4260be	0.18982217
95	0xbe3a8bb1	-0.1821735
96	0x3c24f1ba	0.010067398
97	0xbe2aad85	-0.16667755
98	0xbe107c3d	-0.14109893
99	0xbc7b7313	-0.01534726
100	0x3e56606a	0.20935217
101	0x3e3f459a	0.18678895
102	0xbe0a7609	-0.1352159
103	0xbe25e6c4	-0.16201311
104	0x3e241400	0.16023254
105	0x3dcc1e39	0.09966702
106	0x3e41b380	0.1891613
107	0xbc877931	-0.01653728
108	0xbdba58c0	-0.09098959
109	0xbe0e5a53	-0.13901643
110	0x3e5488a5	0.20755251
111	0x3dc1a72d	0.094557144
112	0xbda57c6e	-0.08080374
113	0xbd570666	-0.052496336
114	0x3e14d95e	0.14536044
115	0x3ddee713	0.10883918
116	0x3c2a781d	0.010404614
117	0xbdc2be1c	-0.09508917
118	0xbc5fc439	-0.013657623
119	0x3d940315	0.0722715
120	0x3c9ac3e2	0.018892232
121	0x3e396116	0.18103442
122	0xbcd9a608	-0.026568428
123	0xbcee1203	-0.029061323
124	0x3e3ea0fc	0.18616098
125	0x3caa372a	0.020778257
126	0x3c94acd2	0.018148813
127	0x3e1a70dd	0.15082116
128	0xbd3f81dd	-0.046754707
129	0xbe0964af	-0.13417314
130	0x3dc06ec9	0.093961306
131	0xbdbfaaac	-0.09358725
132	0xbe471eb6	-0.19445309
133	0x3d4a534f	0.049395856
134	0x3cd6e952	0.026234303
135	0xbd63df75	-0.055633027
136	0xbe19b49e	-0.15010306
137	0xbe4f3633	-0.20235519
138	0x3e223ff0	0.15844703
139	0x3d642949	0.055703435
140	0x3dc3c2c3	0.09558632
141	0xbe359848	-0.17733872
142	0xbda2da93	-0.07951846
143	0xbd526757	-0.051368084
144	0x3d60070f	0.05469423
145	0xbdbf570d	-0.093427755
146	0x3e095bc3	0.1341391
147	0x3dcc3b4c	0.099722475
148	0x3c5c4d5c	0.013446178
149	0x3d38adae	0.04508751
150	0x3d81b26d	0.0633286
151	0xbda34915	-0.07972924
152	0x3e5c67c2	0.21523955
153	0x3d0b210b	0.03396706
154	0x3d934007	0.071899466
155	0x3e4bb5c5	0.19893558
156	0xbbb9806b	-0.0056610606
157	0x3d0d3bb8	0.03448078
158	0xbcb354cb	-0.021891018
159	0xbdc45962	-0.09587361
160	0x3c282a44	0.010263983
161	0x3e3901c8	0.18067086
162	0xbbf02141	-0.007328183
163	0xbe233131	-0.15936734
164	0xbe33d494	-0.17561561
165	0x3dcca11c	0.09991667
166	0xbe5d067c	-0.21584505
167	0xbe4c1d26	-0.19932994
168	0x3d9679ad	0.073474266
169	0x3d765759	0.060141895
170	0x3da0298e	0.07820426
171	0xbe51c8d6	-0.20486769
172	0x3dc305ec	0.09522614
173	0xbd289499	-0.04115734
174	0xbe33b269	-0.17548527
175	0x3d530e6f	0.051527437
176	0x3d861c68	0.06548387
177	0x3e0ae1a1	0.13562633
178	0xbdcbba0d	-0.09947596
179	0x3d092d7a	0.033490635
180	0x3dadd4a7	0.08487826
181	0x3d4f6240	0.050630808
182	0x3dde6b66	0.108603284
183	0x3e1ef599	0.15523376
184	0x3e49457b	0.19655411
185	0xbe104c1f	-0.14091538
186	0xbd95fc28	-0.073234856
187	0xbdfdc148	-0.12390381
188	0x3d85e20a	0.06537254
189	0xbca7e548	-0.020495072
190	0x3e43e453	0.19130068
191	0xbcbe2a41	-0.023213508
192	0xbd8bb54a	-0.068216875
193	0xbe1fb878	-0.15597713
194	0xbdd8ed69	-0.105921574
195	0xbdd13ab4	-0.10216275
196	0xbd4e116d	-0.050309587
197	0x3e0f0ce3	0.1396976
198	0xbcc75a6d	-0.02433511
199	0xbe073172	-0.13202456
200	0x3e1fade3	0.15593676
201	0xbdf43924	-0.11924961
202	0x3e0841c8	0.13306344
203	0x3db797e2	0.08964516
204	0x3e57815b	0.21045439
205	0x3e485948	0.19565308
206	0x3e1feb55	0.15617116
207	0xbe48610e	-0.19568273
208	0xbe03b36e	-0.12861416
209	0x3c93ee70	0.018058032
210	0xbe3dcd6e	-0.18535396
211	0xbd7cce23	-0.061720025
212	0xbdfec29f	-0.12439465
213	0xbe45083e	-0.19241425
214	0x3d857f9f	0.065184824
215	0x3ddb5865	0.10710219
216	0x3e1ba555	0.15199788
217	0x3e419fad	0.18908568
218	0xbdf37be3	-0.11888864
219	0xbe417c04	-0.18894964
220	0xbd7c37de	-0.061576717
221	0xbdc2574c	-0.09489307
222	0xbd373324	-0.044726506
223	0x3d914724	0.07093647
224	0xbe508081	-0.2036152
225	0x3ce67bc5	0.02813519
226	0x3e2fa536	0.17152867
227	0xbe05cc98	-0.13066328
228	0xbc371460	-0.011174291
229	0x3dd78bc6	0.105247065
230	0x3d43e9ce	0.047830395
231	0x3d17d324	0.037066594
232	0xbc6a2e88	-0.0142933205
233	0x3dfc0365	0.12305335
234	0x3d207749	0.03917626
235	0x3e433419	0.19062842
236	0x3e4f31d9	0.20233859
237	0xbd10eefa	-0.035384156
238	0xbcf73791	-0.030177863
239	0x3e2a84ba	0.16652194
240	0x3bc23c70	0.005927615
241	0x3e00ea9f	0.12589501
242	0xbaf3f56a	-0.0018612568
243	0x3e540ee3	0.20708804
244	0x3e1bf729	0.15231003
245	0xbd288839	-0.041145537
246	0x3d2de762	0.042456992
247	0x3d24471d	0.04010688
248	0xbe159237	-0.14606558
249	0x3d45b4fd	0.048268307
250	0x3ce7a3dc	0.028276376
251	0x3d5ed9e4	0.054407015
252	0xbdbcc5a4	-0.092173845
253	0xbe00407d	-0.125246
254	0x3d296795	0.04135855
255	0xbda70eed	-0.08157144
