models/best_fraud_model_seed_555.pth (torch, 378192 bytes, 45 tensors)

node_emb.weight f4 [64, 8]
-0.05610162 0.011111321 0.13063595 -0.16469769 -0.29656628 0.2436908 0.041348018 -0.30578095
0.080872305 0.23565076 -0.04527147 0.30879018 0.11721072 -0.22266483 0.01143846 0.26200962
0.28038612 -0.043286532 -0.11187137 0.14180867 0.20464651 -0.33788228 -0.22628787 -0.18593049
-0.018532027 0.07791073 0.077208586 -9.499278e-05 0.17773184 -0.30712813 0.14161953 0.08717115
0.13805526 -0.20571986 0.22885127 0.341363 -0.17128557 -0.056735586 -0.20854437 0.006331711
0.12887694 -0.19362381 -0.13426779 0.35009837 0.17714882 -0.13870737 -0.18264751 0.2647627
0.04003772 -0.035788655 0.049771402 -0.1457271 0.32249698 -0.21314968 0.23068619 -0.10239193
-0.29929778 0.19102956 -0.21923922 -0.1800431 0.028561633 0.03564137 0.09705038 0.05298935
-0.09239753 0.23769882 0.06688054 0.042001143 -0.041666966 -0.2972244 0.07328574 -0.10063569
0.12312633 0.16441162 -0.01832293 0.034382094 0.2821014 0.32865965 0.116131276 0.019734226
0.08724529 0.061151374 0.12044827 0.18165629 -0.17857899 0.0462006 0.27637115 -0.18297878
0.14537674 0.2618047 -0.18741949 -0.23409228 0.15529403 0.15010282 0.028092338 -0.33177012
0.039955024 0.2386586 0.26570025 0.3015841 0.079675466 0.0439056 -0.13151993 -0.29333633
0.050945293 0.30612168 -0.15888609 -0.3206633 0.121779345 -0.2658052 -0.26225162 0.043719057
0.030947998 0.18083055 0.0702874 -0.25145677 0.04131095 0.2189404 -0.047280073 0.19395846
-0.25208342 -0.1020614 -0.29664013 0.3277455 -0.062985905 -0.35530588 -0.23256531 -0.07328951
-0.08838567 -0.010256126 -0.1464156 -0.2646236 -0.00021040368 -0.34846565 -0.070462525 -0.22167109
0.07979653 0.1861993 0.016917396 -0.09256294 0.30288103 -0.2700133 0.3518001 0.24547476
-0.14621794 0.11668585 0.26810032 -0.19484897 0.17851247 0.04111247 -0.104032815 0.23845902
-0.06020239 -0.22810604 0.34456506 0.124495976 0.22160147 -0.22547142 -0.18360338 -0.23422256
0.31474593 -0.19962302 0.348194 0.0030166353 -0.052664634 -0.28790477 -0.3406935 0.1091489
0.060415108 0.0448785 -0.30957055 0.06624058 0.09208274 -0.3078101 0.33988383 0.0253929
0.26981947 -0.04953504 0.18689609 0.01846986 -0.27267736 -0.07716807 0.34819672 -0.0559623
-0.12537752 -0.3081617 -0.3309651 0.017765278 0.3021235 0.00066085055 0.12763476 -0.12945715
0.2361283 -0.07861394 -0.20468539 0.22644308 -0.2288374 -0.20701872 -0.19328012 -0.14655182
-0.26900202 0.25872618 0.09487443 -0.30771995 -0.058507193 -0.21760808 0.061384812 -0.23108718
0.17766885 0.19053529 0.32773483 -0.06771292 0.30657232 -0.19407523 0.21274984 -0.2997349
0.20326129 0.053524517 0.1152641 0.34757075 -0.12287061 0.19805194 0.007182756 0.071732536
0.26115716 -0.32644895 -0.25319627 0.33120877 -0.33820027 0.14605217 0.04341179 0.338258
0.21513571 0.2461571 0.34402978 0.30449992 -0.3225584 0.096662246 -0.048976075 -0.16540435
0.30332613 -0.19234926 0.07271421 0.07730206 -0.2575953 0.2459419 0.22769932 0.01807472
0.18611032 0.10058822 0.0638465 -0.29854122 -0.21586189 0.16455951 -0.022520874 0.1820992
00000000: d0ca 65bd 420c 363c 6ec5 053e 83a6 28be
00000010: 89d7 97be 158a 793e 8a5c 293d 528f 9cbe
00000020: 61a0 a53d 6f4e 713e 946e 39bd bf19 9e3e
00000030: 2d0c f03d 4002 64be 6168 3b3c 2026 863e
00000040: c58e 8f3e 384d 31bd d11c e5bd 4b36 113e
00000050: db8e 513e e8fe acbe 02b8 67be 9064 3ebe
00000060: 7ad0 97bc a98f 9f3d 891f 9e3d dc36 c7b8
00000070: 56ff 353e e63f 9dbe b604 113e ca86 b23d
00000080: 5c5e 0d3e 3aa8 52be fd57 6a3e 22c7 ae3e
00000090: 7c65 2fbe 9363 68bd a88c 55be 3e7a cf3b
000000a0: 51f8 033e 5245 46be 7f7d 09be 1840 b33e
000000b0: 8066 353e 4e09 0ebe f307 3bbe fa8e 873e
000000c0: 98fe 233d 2097 12bd 19dd 4b3d 7c39 15be
000000d0: 531e a53e e943 5abe 0039 6c3e dcb2 d1bd
000000e0: 8f3d 99be 419d 433e 3f80 60be 385d 38be
000000f0: 16fa e93c affc 113d 5ac2 c63d 5c0b 593d
00000100: eb3a bdbd 5267 733e aaf8 883d 6409 2c3d
00000110: fbaa 2abd cc2d 98be d616 963d 161a cebd
00000120: a829 fc3d 855b 283e f819 96bc 3dd4 0c3d
00000130: 986f 903e 1446 a83e 3cd6 ed3d aca9 a13c
00000140: a9ad b23d dd79 7a3d 95ad f63d 1b04 3a3e
00000150: 69dd 36be d73c 3d3d 8580 8d3e ca5e 3bbe
00000160: a4dd 143e 440b 863e e5ea 3fbe e3b5 6fbe
00000170: 6605 1f3e 8eb4 193e e721 e63c c6dd a9be
00000180: e1a7 233d ec62 743e dd09 883e 3b69 9a3e
00000190: e42c a33d 5cd6 333d 29ad 06be 2e30 96be
000001a0: 03ac 503d fbbb 9c3e 09b3 22be fb2d a4be
000001b0: 7367 f93d 9f17 88be d845 86be c112 333d
000001c0: a886 fd3c a52b 393e d7f2 8f3d f1be 80be
000001d0: ac35 293d ea31 603e c0a8 41bd 0c9d 463e
000001e0: 1411 81be 9105 d1bd 37e1 97be 42ce a73e
000001f0: c1fe 80bd a7ea b5be 9a25 6ebe d018 96bd
00000200: 8c03 b5bd 4f09 28bc f9ed 15be bf7c 87be
00000210: cf9f 5cb9 176a b2be a84e 90bd bffd 62be
00000220: 5d6c a33d 08ab 3e3e 5a96 8a3c a491 bdbd
00000230: 3913 9b3e 2f3f 8abe 251f b43e bc5d 7b3e
00000240: 28ba 15be fef8 ee3d 7244 893e 7d86 47be
00000250: f9cb 363e 8d65 283d 280f d5bd 9a2e 743e
00000260: c896 76bd a194 69be d56a b03e bff7 fe3d
00000270: 7feb 623e fbe1 66be 8602 3cbe 0ad8 6fbe
00000280: 6126 a13e fa69 4cbe 7c46 b23e beb2 453b
00000290: dfb6 57bd 4168 93be 616f aebe 7589 df3d
000002a0: d575 773d 85d2 373d 0880 9ebe 24a9 873d
000002b0: e095 bc3d 4999 9dbe 4105 ae3e c504 d03c
000002c0: c725 8a3e 41e5 4abd b061 3f3e 1b4e 973c
000002d0: 5e9c 8bbe 4b0a 9ebd d746 b23e ba38 65bd
000002e0: f762 00be 5fc7 9dbe 4274 a9be 7d88 913c
000002f0: eeaf 9a3e ee3c 2d3a b0b2 023e 6a90 04be
00000300: 9ecb 713e 5800 a1bd 0c99 51be b2e0 673e
00000310: 5a54 6abe b7fc 53be 39eb 45be ae11 16be
00000320: a2ba 89be c277 843e 864d c23d 788d 9dbe
00000330: 3da5 6fbd a7d4 5ebe a46e 7b3d 1ea2 6cbe
00000340: d3ee 353e af1b 433e dccc a73e 12ad 8abd
00000350: 0cf7 9c3e a8bb 46be 18db 593e da76 99be
00000360: ba23 503e 863c 5b3d 960f ec3d cbf4 b13e
00000370: 96a3 fbbd 21ce 4a3e 535d eb3b 82e8 923d
00000380: 64b6 853e 5124 a7be f1a2 81be 3294 a93e
00000390: 9628 adbe b38e 153e 90d0 313d 2730 ad3e
000003a0: 894c 5c3e 9b10 7c3e ac24 b03e 6ae7 9b3e
000003b0: 6026 a5be dbf6 c53d 239b 48bd c25f 29be
000003c0: 904d 9b3e 34f7 44be 30eb 943d 8b50 9e3d
000003d0: 88e3 83be 32d8 7b3e 032a 693e 6f11 943c
000003e0: b493 3e3e 3201 ce3d f4c1 823d 65da 98be
000003f0: e60a 5dbe 4a82 283e b27d b8bc 3678 3a3e

node_emb.bias f4 [64]
-0.27518275 0.051148172 0.1831621 0.083949596 -0.14413048 -0.20686859 -0.26570147 -0.31719977
-0.06024041 -0.07787693 0.18293245 -0.07898076 -0.17586985 -0.0493021 0.037301444 -0.3299821
-0.28684586 -0.23998621 -0.29674578 -0.10200305 -0.34879744 0.009975032 0.10146071 -0.15703805
-0.07981531 -0.15408503 -0.25240046 -0.033127315 -0.10386952 -0.16595247 -0.18385291 0.23952416
-0.12250318 -0.29123104 -0.07771516 0.33901387 -0.19663504 0.1940546 -0.26831147 0.28325653
0.21976773 -0.27470273 -0.29797724 -0.079123035 0.10068062 0.2919129 0.1269692 -0.0012699668
-0.11284691 -0.3556236 -0.14848107 0.24535236 -0.22181965 -0.30092332 0.09985902 -0.32651943
0.31170624 0.04818872 0.042716525 0.064156316 -0.121228665 0.11240673 0.29942197 0.23092036
00000000: c1e4 8cbe bf80 513d d88e 3b3e c4ed ab3d
00000010: f196 13be 5cd5 53be 060a 88be 0268 a2be
00000020: a6be 76bd f17d 9fbd a552 3b3e aac0 a1bd
00000030: 3a17 34be 00f1 49bd 66c9 183d 6af3 a8be
00000040: 76dd 92be f2be 75be 10ef 97be fae6 d0bd
00000050: 9495 b2be 516e 233c a2ca cf3d 95ce 20be
00000060: 3676 a3bd 77c8 1dbe a23a 81be 82b0 07bd
00000070: 8bb9 d4bd 72ef 29be f043 3cbe d245 753e
00000080: f2e2 fabd 3c1c 95be 2029 9fbd 3a93 ad3e
00000090: b25a 49be 40b6 463e 1f60 89be 0007 913e
000000a0: cb0a 613e d6a5 8cbe 7990 98be 420b a2bd
000000b0: a431 ce3d 9c75 953e 3704 023e 0475 a6ba
000000c0: 481c e7bd 4c14 b6be 6c0b 18be a63d 7b3e
000000d0: b124 63be 9f12 9abe e382 cc3d 8e2d a7be
000000e0: f697 9f3e 8961 453d 86f7 2e3d 6364 833d
000000f0: bc46 f8bd 8035 e63d d64d 993e 6376 6c3e

edge_emb.weight f4 [64, 2]
-0.19501543 -0.43399063 -0.27902323 -0.21917436 -0.6577153 -0.016485404 0.211484 0.6419019
-0.37176368 0.13335289 -0.38444045 -0.23912765 0.111972496 0.3543782 -0.14128233 0.23465687
-0.5311085 0.4979862 -0.45617598 0.43926057 0.13889508 0.10708736 0.5635659 -0.6913187
0.6532251 -0.60484993 -0.4524527 0.45049426 -0.44997108 0.23164016 -0.48195365 0.1461274
-0.4914231 -0.6550664 -0.16931085 0.4591338 -0.13479921 -0.5443413 0.24473575 -0.043966677
-0.3211109 -0.37757406 -0.67432326 0.5721163 0.11437886 -0.55128664 -0.22159962 0.29212976
-0.21182738 -0.2641192 -0.5154856 0.22569913 0.31485435 0.66771626 0.6620743 0.059478607
0.53086203 0.5272222 0.0046217903 0.19224489 0.055373356 -0.33542088 -0.4684654 -0.257976
0.16425617 -0.24178007 -0.1079476 -0.5578947 0.068556644 -0.39594376 0.3657045 -0.2280438
0.11072635 0.6675423 0.3319696 -0.5541428 -0.013821985 -0.075290255 -0.44297284 -0.15420142
0.38551635 -0.3191187 -0.24261019 -0.19629952 -0.40222603 -0.25756612 0.38354167 -0.62824875
-0.49218148 -0.6326989 0.26208586 -0.07589263 0.22374332 0.2453808 -0.099027775 -0.058174204
0.4777664 -0.3844785 0.16097128 -0.2964169 -0.04734402 0.4153995 0.17709497 -0.46402144
0.623516 -0.40690872 -0.2238942 -0.58486426 -0.6221212 0.06154018 0.4539382 0.29713824
-0.2322038 0.149877 -0.44788122 0.21019374 -0.054010104 -0.19562009 -0.6934553 -0.0048966766
0.5776062 -0.642213 -0.032026038 0.5165026 -0.29408562 0.39759487 -0.2881051 0.6720997
00000000: 20b2 47be 0534 debe 22dc 8ebe 3e6f 60be
00000010: 0860 28bf 660c 87bc 438f 583e af53 243f
00000020: cf57 bebe a98d 083e 61d5 c4be e1dd 74be
00000030: d651 e53d 0f71 b53e 51ac 10be e449 703e
00000040: baf6 07bf 0cf8 fe3e e68f e9be c3e6 e03e
00000050: 833a 0e3e 9e50 db3d db45 103f 43fa 30bf
00000060: c339 273f 72d7 1abf e1a7 e7be 2fa7 e63e
00000070: 9c62 e6be 1433 6d3e a1c2 f6be 6ca2 153e
00000080: cf9b fbbe 6eb2 27bf d35f 2dbe 9613 eb3e
00000090: ce08 0abe f459 0bbf 029c 7a3e 6716 34bd
000000a0: a668 a4be 6351 c1be 73a0 2cbf 3776 123f
000000b0: 773f ea3d 1f21 0dbf 03eb 62be 0892 953e
000000c0: 47e9 58be a23a 87be ddf6 03bf ac1d 673e
000000d0: 9734 a13e 74ef 2a3f b47d 293f d79f 733d
000000e0: 93e6 073f 09f8 063f 6372 973b d8db 443e
000000f0: 2ccf 623d 49bc abbe b2da efbe 6e15 84be
00000100: c532 283e 3295 77be a213 ddbd 30d2 0ebf
00000110: 6d67 8c3d 24b9 cabe 9f3d bb3e 5084 69be
00000120: 7fc4 e23d 0de4 2a3f ebf7 a93e 4ddc 0dbf
00000130: 9b75 62bc c731 9abd 56cd e2be fae6 1dbe
00000140: 6662 c53e 8763 a3be ce6e 78be be02 49be
00000150: 92f0 cdbe b5df 83be 935f c43e e9d4 20bf
00000160: 36ff fbbe 8ef8 21bf 1e30 863e 986d 9bbd
00000170: f81c 653e 1b45 7b3e 13cf cabd 1348 6ebd
00000180: cc9d f43e 5eda c4be a8d5 243e f5c3 97be
00000190: ceeb 41bd 3eaf d43e 6258 353e 3894 edbe
000001a0: bf9e 1f3f 5756 d0be 8544 65be aab9 15bf
000001b0: 5643 1fbf 8e11 7c3d 966a e83e 8122 983e
000001c0: d5c6 6dbe 5b79 193e b050 e5be 073d 573e
000001d0: b339 5dbd a250 48be 4986 31bf 4d74 a0bb
000001e0: 00de 133f 1268 24bf bc2d 03bd 8439 043f
000001f0: 6492 96be 8e91 cb3e 8382 93be ba0e 2c3f

edge_emb.bias f4 [64]
0.16273691 -0.48724315 -0.60535544 -0.36124218 -0.49497977 -0.42439204 0.1354478 -0.61016095
0.46734342 0.35434818 0.20892166 -0.15518023 0.53206956 0.18318495 0.51399946 -0.50018454
-0.045202166 -0.1684811 -0.6555186 -0.070290506 -0.5776838 0.64748347 -0.64483416 -0.064649455
-0.40362275 0.014865512 0.559716 -0.5632647 0.38152075 0.43023184 0.3616472 0.15109736
0.6803681 -0.34886822 0.054636396 -0.33653244 -0.13911556 0.49474606 0.048306637 0.48134032
0.5079931 -0.040537216 -0.48249295 -0.6170508 0.09785921 -0.15544105 -0.55567145 -0.0027425482
-0.046951413 0.6809378 0.5712343 -0.16499029 -0.5257506 -0.28722572 0.31912965 -0.07563315
-0.12050479 -0.18964992 -0.03243636 -0.29052848 -0.18919326 -0.585483 -0.28656325 0.24825773
00000000: 81a4 263e ef77 f9be 93f8 1abf bcf4 b8be
00000010: fd6d fdbe ea49 d9be d4b2 0a3e 8233 1cbf
00000020: a347 ef3e 206d b53e 8fef 553e 91e7 1ebe
00000030: b635 083f d694 3b3e 7895 033f 180c 00bf
00000040: e825 39bd 4f86 2cbe 11d0 27bf 78f4 8fbd
00000050: 16e3 13bf 7ac1 253f da13 25bf ef66 84bd
00000060: a4a7 cebe 7a8e 733c 8c49 0f3f 1e32 10bf
00000070: b056 c33e 5947 dc3e d229 b93e 44b9 1a3e
00000080: 9b2c 2e3f db9e b2be 6aca 5f3d fb4d acbe
00000090: 4f74 0ebe 5b4f fd3e 2edd 453d 3d72 f63e
000000a0: d60b 023f 5a0a 26bd 5109 f7be 0bf7 1dbf
000000b0: 696a c83d f02b 1fbe 7c40 0ebf 53bc 33bb
000000c0: 2050 40bd f151 2e3f 693c 123f 37f3 28be
000000d0: 9797 06bf 400f 93be f664 a33e 8ee5 9abd
000000e0: 37cb f6bd 9733 42be fddb 04bd 26c0 94be
000000f0: e1bb 41be 37e2 15bf 6bb8 92be 4637 7e3e

gat_layers.0.att_src f4 [1, 4, 16]
0.0055415533 -0.005877734 0.28297234 -0.0106680645 0.53876793 -0.36481065 -0.37450036 -0.30271855
-0.44124702 0.041656554 -0.40349874 -0.46295625 -0.10748966 0.06965018 -0.08779132 0.07569634
-0.17865376 0.2915261 -0.48833612 0.26505643 -0.53000647 0.519455 -0.26977628 0.2532828
-0.4700117 0.16494365 0.2521807 0.2293074 0.14196846 0.21433237 -0.16184655 0.11873452
0.4765474 -0.36355373 0.03433213 0.43555748 -0.29850143 0.48846063 -0.36048612 -0.44655004
-0.21881069 0.35712516 -0.043944776 -0.36267418 -0.1112839 0.016716594 -0.22317252 -0.42468476
0.1013366 0.47373807 -0.0694954 0.5027158 -0.030647768 0.15797791 -0.23044644 -0.106969394
0.24404706 0.011607766 0.2270979 0.5345558 0.44263774 -0.38064623 0.28917348 0.2949678
00000000: eb95 b53b 029a c0bb c0e1 903e 1bc9 2ebc
00000010: b2ec 093f 76c8 babe 83be bfbe edfd 9abe
00000020: 21eb e1be 10a0 2a3d 6397 cebe 9a08 edbe
00000030: 8a23 dcbd c1a4 8e3d f0cb b3bd af06 9b3d
00000040: 03f1 36be e942 953e 3107 fabe 7ab5 873e
00000050: 81ae 07bf 01fb 043f 1e20 8abe 48ae 813e
00000060: 60a5 f0be fde6 283e d41d 813e 8fcf 6a3e
00000070: 2e60 113e f279 5b3e 1abb 25be 162b f33d
00000080: 05fe f33e b723 babe d99f 0c3d 6401 df3e
00000090: 2ed5 98be 8317 fa3e a391 b8be 35a2 e4be
000000a0: e90f 60be 1cd9 b63e 70ff 33bd 6eb0 b9be
000000b0: d0e8 e3bd 3df1 883c 5687 64be 4870 d9be
000000c0: 9089 cf3d cc8d f23e 9b53 8ebd fcb1 003f
000000d0: 0711 fbbc f6c4 213e 27fa 6bbe c512 dbbd
000000e0: 79e7 793e 802e 3e3c 5a8c 683e a6d8 083f
000000f0: 6aa1 e23e 10e4 c2be 8c0e 943e 0506 973e

gat_layers.0.att_dst f4 [1, 4, 16]
-0.024872882 0.053070433 -0.033342876 0.3336268 0.14115682 -0.0069320947 0.32871217 -0.517302
0.39692852 0.10809116 0.20673576 -0.07698051 0.22159976 -0.46046874 -0.10763821 0.44701403
0.272914 0.05480288 -0.5119674 0.2651958 -0.1713551 0.23187643 0.2321645 0.5135441
-0.21822852 -0.08652079 0.37856787 0.08646506 -0.5155446 -0.008531749 0.23402691 0.48412478
0.32267857 -0.12766057 0.036827367 0.16881166 -0.30330336 0.18760182 -0.0013943834 -0.52523136
0.27815875 -0.15372013 0.46338293 -0.06850703 0.33065245 0.17324504 0.10924246 -0.33334967
0.16527767 0.020067563 -0.46927682 0.29481906 -0.0034209203 -0.35625976 0.24668175 -0.36253798
-0.24673434 -0.2616138 -0.5141687 0.19189188 0.16877186 0.20759682 0.20292386 -0.08735078
00000000: 37c2 cbbc 6260 593d 8a92 08bd 22d1 aa3e
00000010: 6a8b 103e a026 e3bb f64c a83e e76d 04bf
00000020: 373a cb3e e65e dd3d 8ab2 533e f5a7 9dbd
00000030: 0ceb 623e 8fc2 ebbe 6c71 dcbd 06df e43e
00000040: 62bb 8b3e fc78 603d 4c10 03bf bec7 873e
00000050: b677 2fbe 0471 6d3e 88bc 6d3e a077 033f
00000060: 4c77 5fbe d031 b1bd a6d3 c13e 9814 b13d
00000070: bbfa 03bf c0c8 0bbc c0a4 6f3e 34df f73e
00000080: 2036 a53e 74b9 02be 4bd8 163d f7dc 2c3e
00000090: 944a 9bbe b11a 403e bec3 b6ba 9075 06bf
000000a0: d36a 8e3e cf68 1dbe 8740 ed3e 6a4d 8cbd
000000b0: 474b a93e 2667 313e 83ba df3d cfac aabe
000000c0: 8d3e 293e bb64 a43c 0d45 f0be 86f2 963e
000000d0: 8531 60bb ae67 b6be 249a 7c3e 949e b9be
000000e0: eda7 7cbe 3ef2 85be 8fa0 03bf 4e7f 443e
000000f0: 88d2 2c3e 4394 543e 46cb 4f3e f7e4 b2bd

gat_layers.0.att_edge f4 [1, 4, 16]
0.30209646 0.19540821 0.5391768 0.14936033 -0.16010678 0.02061569 -0.21361849 0.11805224
0.33598325 -0.5371421 -0.13931896 0.24203013 -0.023370458 -0.36515346 -0.15914628 -0.07756791
-0.10989245 0.5327698 -0.1316587 0.3622236 0.04146938 0.40969458 -0.13492517 -0.08092885
-0.3227704 0.33007416 0.3206962 0.25218534 0.1678459 0.5127106 -0.2612652 0.25729606
-0.06216814 -0.38402143 -0.10735005 -0.0564414 -0.25579086 -0.52777165 0.1709018 -0.42089057
-0.16833004 0.36329597 -0.018184384 0.3962822 -0.4827921 -0.5469068 0.43832022 0.5140131
0.105885915 0.28731963 0.2182272 -0.43903497 -0.17455636 -0.52013314 0.12856153 0.5122863
0.5021211 0.10256408 -0.42000353 -0.2128291 0.37805516 0.39587423 -0.13433401 0.21869974
00000000: 63ac 9a3e 1719 483e 7e07 0a3f eaf1 183e
00000010: 08f3 23be 3ce2 a83c cebe 5abe 5fc5 f13d
00000020: ff05 ac3e 2582 09bf a1a9 0ebe bfd6 773e
00000030: 6773 bfbc 65f5 babe 3ef7 22be eddb 9ebd
00000040: 4b0f e1bd 9a63 083f 8ad1 06be 5f75 b93e
00000050: ccdb 293d 7dc3 d13e d329 0abe 06be a5bd
00000060: 2942 a5be 7bff a83e 4b32 a43e 701e 813e
00000070: ccdf 2b3e 0041 033f 8dc4 85be 4fbc 833e
00000080: 05a4 7ebd 759e c4be 58da dbbd 192f 67bd
00000090: 05f7 82be 0b1c 07bf e200 2f3e f87e d7be
000000a0: b65e 2cbe ee01 ba3e 6bf7 94bc 80e5 ca3e
000000b0: 8730 f7be 1602 0cbf 826b e03e 5d96 033f
000000c0: b7da d83d 8f1b 933e f376 5f3e 31c9 e0be
000000d0: e7be 32be 7227 05bf a2a5 033e 3225 033f
000000e0: 028b 003f 1e0d d23d b40a d7be dfef 59be
000000f0: 7290 c13e 07b0 ca3e db8e 09be d3f2 5f3e

gat_layers.0.bias f4 [64]
-0.0053126314 -0.0046224 -0.0051539987 -0.0052678497 0.003183417 -0.0055606393 0.00045596474 -0.005173391
0.002590302 -0.0053266874 0.0025793693 0.012288987 0.0014764783 0.0032341925 -0.004767155 -0.0052747466
-0.005381999 -0.0050005214 0.008801503 -0.000913114 -0.004481252 -0.0052773 -0.0052180043 -0.0052715503
-0.005321507 -0.0053083035 -0.005175566 0.0116031 -0.0054890076 0.0039647226 -0.005339164 -0.0054124533
0.012605401 -0.004486782 -0.0005478513 -0.0052209883 -0.005172244 -0.0052816095 -0.0052045486 -0.004066674
-0.0054146955 -0.005162026 -0.0050567184 -0.005291569 0.004020519 -0.005168097 -0.005507528 -0.00019182384
-0.005203831 -0.005377512 0.002766142 -0.0053973678 -0.004957865 -0.004744901 -0.0052153165 -0.005377832
-0.005066443 -0.005187512 -0.0053214934 0.010417188 -0.0054040714 -0.0018199859 -0.0052763373 -0.0053843707
00000000: 9515 aebb 8077 97bb e0e2 a8bb ed9d acbb
00000010: e0a0 503b 0636 b6bb 8d0e ef39 8d85 a9bb
00000020: 0ec2 293b 7e8b aebb a30a 293b bf57 493c
00000030: 6486 c13a bff4 533b cb35 9cbb c8d7 acbb
00000040: 7b5b b0bb 6adb a3bb 2e34 103c 0b5e 6fba
00000050: 77d7 92bb 33ed acbb cbfb aabb f8bc acbb
00000060: 0960 aebb 47f1 adbb cb97 a9bb ee1a 3e3c
00000070: 22dd b3bb 81ea 813b 27f4 aebb f35a b1bb
00000080: e286 4e3c db05 93bb ae9d 0fba d314 abbb
00000090: ed7b a9bb 5a11 adbb eb8a aabb bc41 85bb
000000a0: c26d b1bb 3626 a9bb d4b2 a5bb e664 adbb
000000b0: 8fbe 833b 2459 a9bb 7e78 b4bb 5224 49b9
000000c0: e684 aabb d735 b0bb 2948 353b 67dc b0bb
000000d0: 9675 a2bb 1d7b 9bbb 3fe5 aabb 8638 b0bb
000000e0: 6704 a6bb 01fc a9bb ec5f aebb daac 2a3c
000000f0: a314 b1bb 988c eeba 20e5 acbb 606f b0bb

gat_layers.0.lin.weight f4 [64, 64]
0.17020719 -0.06300431 0.035348374 -0.08691689 -0.122650586 0.15641227 0.040023897 0.07614843
0.09192437 -0.02369792 -0.1840422 0.04641027 0.15028356 0.0077390275 0.15563175 0.20281847
0.04655167 0.092172734 -0.073402196 0.19137476 -0.12934369 -0.027500812 0.13170964 0.18437181
-0.07443642 -0.13432458 -0.06428401 0.039572213 -0.09920874 0.00752297 0.020699661 0.19351126
-0.060885206 0.14216061 -0.09110968 -0.14152953 -0.026536033 -0.03700672 -0.11884053 -0.062428456
-0.05756093 -0.20475845 0.16462815 0.10902999 -0.033963665 -0.0323484 0.017864827 0.097055756
0.11474962 0.06896316 -0.17675303 -0.13092119 -0.08673092 -0.12676004 -0.20793857 0.15882306
-0.16562968 0.0665458 -0.14238977 -0.02880708 -0.13745792 0.16372426 0.039394323 -0.025289483
0.017221637 0.07694627 -3.5093002e-05 -0.07662442 0.1698716 -0.13741975 0.07450999 0.123371914
-0.14946707 -0.17956902 -0.1525943 0.16903348 0.14888917 -0.027521608 0.07930948 0.12390045
-0.17019191 0.20489646 -0.14827266 0.15751185 -0.110355906 -0.14961268 -0.16322145 -0.17384689
0.12257989 -0.0013265534 -0.01802869 -0.214861 -0.0014287711 0.17583506 0.2084395 0.20127137
-0.1646882 -0.1320713 0.13289285 -0.06819103 -0.08489142 0.09315382 0.16970368 -0.0626824
-0.1514798 0.04567097 0.11348144 -0.17262717 -0.102293156 0.11583936 -0.15749438 -0.052278876
-0.15458804 0.17153865 0.14404377 -0.17487177 -0.093355075 -0.104305945 -0.024474 0.038211714
-0.0031372276 -0.15021706 0.18848038 -0.019222386 -0.01719196 0.13661294 -0.19356889 -0.1706597
-0.17910753 0.16205394 -0.113681644 -0.043132845 0.19065271 0.01887149 0.16720806 -0.05351334
-0.05794717 0.0741814 -0.089904666 -0.057909753 0.011691262 -0.20247392 -0.17043146 -0.12095671
0.20241718 0.021181466 -0.14336586 0.096571825 -0.17273472 0.08521702 -0.18034604 -0.00017123655
0.13941358 0.055447083 0.1041047 -0.10491412 0.096687 -0.1719415 -0.08622601 -0.1419064
0.037654474 0.1077451 -0.035253413 -0.036861785 -0.00830359 -0.10603762 -0.043016143 0.20563063
-0.07982416 -0.017972551 -0.1793967 0.084049135 -0.20747645 0.1812805 0.029576877 0.035106663
0.05343661 0.21035564 -0.18188618 -0.16781893 -0.15687445 0.053976715 0.06427913 -0.029739501
0.08240881 0.20612901 0.1336792 0.07003632 0.14063677 0.104049295 0.01922456 -0.16518442
0.032501187 -0.1063375 -0.12784897 0.03504316 -0.20778683 -0.19270949 -0.13287161 0.037854403
-0.08105302 0.16947573 0.054288883 -0.19470997 -0.17170101 -0.18935142 -0.1090925 -0.199799
-0.19977227 -0.024783645 -0.12817407 -0.020706687 -0.12440157 -0.2143641 0.059848513 0.166145
-0.16449085 -0.13229446 -0.056949724 -0.21364482 0.1072179 0.081610546 -0.049488146 0.1175662
0.18324512 -0.19360995 0.046709754 0.12289639 0.14587614 0.009237413 -0.011924151 0.20287308
-0.20559026 0.18154842 0.062934615 0.04441201 -0.17975594 0.029855061 0.004009819 -0.17760824
0.10982878 -0.12776169 0.10255305 0.18404822 -0.14117078 -0.20615438 -0.19890034 -0.14834677
0.099486664 -0.030688157 -0.11269262 0.013759838 0.13262473 -0.100668475 -0.17846268 0.02884162
00000000: cb4a 2e3e 6708 81bd 75c9 103d 7c01 b2bd
00000010: 3b30 fbbd 8a2a 203e 19f0 233d b5f3 9b3d
00000020: d842 bc3d 2422 c2bc 8f75 3cbe b218 3e3d
00000030: efe3 193e ab97 fd3b ee5d 1f3e a5af 4f3e
00000040: f7ac 3e3d 0fc5 bc3d e453 96bd bff7 433e
00000050: ac72 04be 6249 e1bc e4de 063e f7cb 3c3e
00000060: 1f72 98bd 628c 09be 56a7 83bd 7916 223d
00000070: f42d cbbd 3f83 f63b 5692 a93c d127 463e
00000080: c462 79bd 8d92 113e b697 babd 1eed 10be
00000090: 1862 d9bc 5c94 17bd aa62 f3bd fbb4 7fbd
000000a0: 02c5 6bbd 33ac 51be 4894 283e 1e4b df3d
000000b0: 7c1d 0bbd c27f 04bd 4259 923c 2bc5 c63d
000000c0: d901 eb3d 8f3c 8d3d bffe 34be 3410 06be
000000d0: fb9f b1bd 62cd 01be d9ed 54be 83a2 223e
000000e0: d49a 29be 2a49 883d a0ce 11be d3fc ebbc
000000f0: c5c1 0cbe 55a7 273e f15b 213d e42b cfbc
00000100: 6414 8d3c 0296 9d3d d330 13b8 44ed 9cbd
00000110: d2f2 2d3e c3b7 0cbe b298 983d 6aaa fc3d
00000120: e50d 19be f1e0 37be ae41 1cbe 1d17 2d3e
00000130: 6776 183e ff74 e1bc 026d a23d 85bf fd3d
00000140: ca46 2ebe 61d0 513e cad4 17be c94a 213e
00000150: 4702 e2bd 1134 19be 8623 27be eb04 32be
00000160: 2a0b fb3d bfdf adba e7b0 93bc 8604 5cbe
00000170: 9a45 bbba 1b0e 343e 2a71 553e 151a 4e3e
00000180: 06a4 28be b33d 07be 1015 083e bda7 8bbd
00000190: 8edb adbd 6ec7 be3d cdc6 2d3e a15f 80bd
000001a0: 851d 1bbe 7c11 3b3d f568 e83d 2dc5 30be
000001b0: 137f d1bd 303d ed3d 3546 21be 6022 56bd
000001c0: 544c 1ebe d4a7 2f3e 3680 133e 9611 33be
000001d0: f230 bfbd 5b9e d5bd b37d c8bc e383 1c3d
000001e0: f299 4dbb 80d2 19be 0001 413e 4478 9dbc
000001f0: 27d6 8cbc 43e4 0b3e ec36 46be 6bc1 2ebe
00000200: f767 37be 78f1 253e ecd1 e8bd 11ac 30bd
00000210: 773a 433e 6298 9a3c 9738 2b3e ce30 5bbd
00000220: 035a 6dbd 6bec 973d f01f b8bd c732 6dbd
00000230: b58c 3f3c 5355 4fbe 9685 2ebe 27b8 f7bd
00000240: 7346 4f3e c184 ad3c 80ce 12be 73c7 c53d
00000250: 5fe1 30be 4386 ae3d a2ac 38be f68d 33b9
00000260: 6fc2 0e3e 7b1c 633d d834 d53d 37dd d6bd
00000270: d503 c63d 6f11 30be 4397 b0bd e94f 11be
00000280: 943b 1a3d 77a9 dc3d e265 10bd 62fc 16bd
00000290: c80b 08bc 402a d9bd b231 30bd d690 523e
000002a0: d97a a3bd 2c3b 93bc c5b3 37be f421 ac3d
000002b0: b574 54be 98a1 393e 354b f23c 01cc 0f3d
000002c0: 59e0 5a3d 7867 573e 5f40 3abe bad8 2bbe
000002d0: b2a3 20be b016 5d3d c7a4 833d 41a0 f3bc
000002e0: f3c5 a83d 7c13 533e 33e3 083e 346f 8f3d
000002f0: 1603 103e cc17 d53d d37c 9d3c 1b26 29be
00000300: f71f 053d 7ac7 d9bd d7ea 02be 6b89 0f3d
00000310: 12c6 54be a355 45be 7f0f 08be 380d 1b3d
00000320: 20ff a5bd 0c8b 2d3e 055e 5e3d 0d62 47be
00000330: 64d2 2fbe 57e5 41be e36b dfbd 1c98 4cbe
00000340: 1a91 4cbe 1207 cbbc 1040 03be 12a1 a9bc
00000350: 40c6 febd 4382 5bbe b723 753d ea21 2a3e
00000360: 4a70 28be 3378 07be 1d44 69bd b5c5 5abe
00000370: 0f95 db3d 6e23 a73d 15b4 4abd 8cc6 f03d
00000380: 9ca4 3b3e b041 46be ba52 3f3d 1ab1 fb3d
00000390: 8e60 153e 8558 173c 845d 43bc f6bd 4f3e
000003a0: 4186 52be d4e7 393e dde3 803d 5ee9 353d
000003b0: f111 38be 9a92 f43c cd64 833b efde 35be
000003c0: e9ed e03d f6d3 02be 5507 d23d 2377 3c3e
000003d0: 138f 10be 221a 53be 88ac 4bbe 37e8 17be
000003e0: aabf cb3d bb65 fbbc 63cb e6bd f270 613c
000003f0: c7ce 073e 462b cebd ecbe 36be 4345 ec3c

gat_layers.0.lin_edge.weight f4 [64, 64]
0.16221105 -0.0708484 0.050868522 0.100121506 -0.19813022 0.12602173 -0.00033613056 -0.19965564
-0.15504216 -0.11097781 -0.18764797 0.1472653 -0.13746427 -0.09010979 0.076531775 0.07936294
0.118663676 -0.021384446 -0.0713904 -0.17605509 -0.110642396 -0.13336544 -0.19239493 -0.11623759
0.029392775 0.12971382 0.03241284 -0.09202855 0.1706921 0.08992594 -0.06270119 0.21592638
-0.21178205 0.047341626 0.079172425 -0.21569836 0.072082296 0.19367687 0.2078235 -0.020799663
-0.18546939 0.0023146684 -0.15251625 0.16597115 -0.097672045 -0.16757391 -0.13049383 -0.09893896
0.14910987 0.12622903 -0.1196297 0.042238638 -0.000900071 0.04495733 0.013224123 0.1497573
0.059758503 0.14296672 -0.12497133 0.18735316 -0.21410753 -0.15604979 -0.20149887 -0.05876723
0.05358704 0.14631085 -0.010886706 -0.033025853 0.1557893 0.18964869 0.14952947 0.0016867891
-0.11608478 0.15895408 -0.13442606 -0.04984299 -0.18399307 0.11244476 0.08359974 -0.21416174
-0.16536681 0.0833009 0.042542063 -0.09088593 0.10470315 -0.16171776 0.0664906 0.08234341
-0.02130215 0.13627663 -0.1539935 -0.14854385 -0.1889709 0.023587557 0.051108886 -0.11488802
0.011835847 -0.13162196 0.1138315 0.12344169 -0.066412106 0.20361379 -0.13813907 -0.19591817
0.11772473 -0.14088714 -0.20899436 -0.08334964 0.20255136 0.17180096 0.008093852 -0.10804535
0.07027413 0.09366417 -0.10816899 -0.09116903 -0.007915532 0.058480233 0.038528573 0.110500984
-0.1298751 -0.1140014 0.21299314 0.1635078 0.16516717 -0.14573526 -0.15969019 -0.19965804
0.0070160935 0.19184127 0.044041496 0.108663775 -0.020609317 0.14011627 -0.060292985 -0.017741352
-0.10334905 0.056993812 -0.14285327 -0.080359064 0.14957267 -0.0062327865 -0.18807726 0.07648146
-0.0854461 -0.1363099 0.013256509 0.019605258 0.008157593 0.07301921 0.026730103 0.04785242
0.12141242 -0.008808319 -0.1575013 -0.08994689 0.052313164 0.039242644 -0.14028919 -0.09798102
0.015688265 0.104432106 0.09442763 0.08253293 -0.036506776 -0.17959438 0.111348085 -0.012690816
0.039709333 -0.0020837425 0.08170473 0.17192954 -0.10387172 -0.13116333 0.20275901 -0.20248263
0.07473799 -0.0756618 0.16519006 -0.11717161 0.016885605 -0.075255364 -0.10752642 -0.21388754
0.019640744 0.022586023 -0.12499546 0.11490192 0.12573718 0.101135425 0.15546675 -0.06448044
-0.01565874 -0.020152658 -0.06892793 0.049855236 0.19271411 -0.059751667 -0.08097974 -0.08497257
-0.15363258 0.16627029 0.11344379 0.21004361 0.19096678 -0.15960132 0.15713723 -0.0018821087
0.19760501 0.10700461 0.06736165 -0.072280265 0.081647 0.1948391 0.15619463 0.022992702
-0.18021601 -0.033209566 0.15685694 0.0515868 -0.1218511 -0.20100783 0.021120759 -0.03981787
-0.023177775 -0.0971496 0.2113346 -0.01421269 0.010713523 -0.029842693 0.19800602 -0.019694371
0.14941637 -0.0384757 -0.100617975 -0.18957156 -0.15613341 0.17129803 0.117057934 -0.17735286
0.19309288 -0.031712566 -0.19764054 -0.11473328 -0.059454452 -0.12594391 0.03597387 0.116480544
-0.091792494 -0.20903325 0.07140213 -0.19636725 0.13579199 -0.055226956 0.05189377 -0.12025522
00000000: a71a 263e f718 91bd 835b 503d 810c cd3d
00000010: a6e2 4abe d70b 013e ae3a b0b9 8772 4cbe
00000020: 5fc3 1ebe 5648 e3bd ca26 40be b7cc 163e
00000030: 6fc3 0cbe 7b8b b8bd b1bc 9c3d 0989 a23d
00000040: f105 f33d 6f2e afbc 2135 92bd c947 34be
00000050: 7b98 e2bd f390 08be 2d03 45be f90d eebd
00000060: 1ec9 f03c b3d3 043e 53c3 043d 7779 bcbd
00000070: e9c9 2e3e 172b b83d 7b69 80bd ce1b 5d3e
00000080: 65dd 58be 4be9 413d 2725 a23d 08e0 5cbe
00000090: e29f 933d 3b53 463e afcf 543e 0e64 aabc
000000a0: b0eb 3dbe b1b1 173b 382d 1cbe 57f4 293e
000000b0: 4808 c8bd 7f98 2bbe 2da0 05be 82a0 cabd
000000c0: 42b0 183e 2f42 013e 6b00 f5bd 6c02 2d3d
000000d0: bef2 6bba 2d25 383d fea9 583c fa59 193e
000000e0: 55c5 743d de65 123e f8f0 ffbd 82d9 3f3e
000000f0: 013f 5bbe 84cb 1fbe b855 4ebe e8b5 70bd
00000100: 167e 5b3d 83d2 153e 285e 32bc 1e46 07bd
00000110: 3b87 1f3e 4433 423e 411e 193e 4017 dd3a
00000120: dbbd edbd dcc4 223e fca6 09be 2a28 4cbd
00000130: ae68 3cbe 7049 e63d 5736 ab3d 374d 5bbe
00000140: eb55 29be aa99 aa3d 9640 2e3d 6722 babd
00000150: 9b6e d63d 5799 25be 392c 883d a9a3 a83d
00000160: d981 aebc 1a8c 0b3e 79b0 1dbe e11b 18be
00000170: 9681 41be b13a c13c 8d57 513d 694a ebbd
00000180: 24eb 413c e8c7 06be 7d20 e93d ffce fc3d
00000190: 1203 88bd 2280 503e 5474 0dbe c69e 48be
000001a0: aa19 f13d b844 10be 9e02 56be 37b3 aabd
000001b0: a069 4f3e 97ec 2f3e 139c 043c e146 ddbd
000001c0: e2eb 8f3d 00d3 bf3d b487 ddbd d4b6 babd
000001d0: 26b0 01bc f888 6f3d 23d0 1d3d 574e e23d
000001e0: fafd 04be 9179 e9bd e01a 5a3e 976e 273e
000001f0: 9521 293e a03b 15be d385 23be 2873 4cbe
00000200: 42e7 e53b 0a72 443e db64 343d 1d8b de3d
00000210: dfd4 a8bc a47a 0f3e c7f5 76bd 5056 91bc
00000220: aba8 d3bd 5872 693d 2148 12be 4b93 a4bd
00000230: 9429 193e 673c ccbb 5397 40be 50a2 9c3d
00000240: 5dfe aebd d394 0bbe d431 593c 359b a03c
00000250: 6da7 053c 188b 953d 17f9 da3c e600 443d
00000260: 13a7 f83d c550 10bc 0548 21be 1336 b8bd
00000270: 5446 563d e5bc 203d f8a7 0fbe 46aa c8bd
00000280: ad84 803c 80e0 d53d 4663 c13d 0607 a93d
00000290: 2188 15bd 97e7 37be 770a e43d 24ed 4fbc
000002a0: 41a6 223d 668f 08bb cf54 a73d 4c0e 303e
000002b0: b2ba d4bd ae4f 06be 0fa0 4f3e 9b57 4fbe
000002c0: 3b10 993d 93f4 9abd 9527 293e abf7 efbd
000002d0: ae53 8a3c 7c1f 9abd d036 dcbd 5605 5bbe
000002e0: a0e5 a03c 5306 b93c 9ffd ffbd b351 eb3d
000002f0: 3fc1 003e 1720 cf3d ad32 1f3e 520e 84bd
00000300: c246 80bc 3017 a5bc 162a 8dbd 0135 4c3d
00000310: d956 453e 2abe 74bd b5d8 a5bd 1906 aebd
00000320: dc51 1dbe c242 2a3e 3855 e83d ac15 573e
00000330: cc8c 433e 876e 23be 95e8 203e 17b1 f6ba
00000340: f858 4a3e 3c25 db3d e8f4 893d ad07 94bd
00000350: 8b36 a73d e783 473e 7cf1 1f3e 315b bc3c
00000360: 8c8a 38be c106 08bd 1b9f 203e ae4c 533d
00000370: 128d f9bd ffd4 4dbe 7105 ad3c 1018 23bd
00000380: 51df bdbc 5ff6 c6bd 1968 583e 58dc 68bc
00000390: c687 2f3c aa78 f4bc 17c2 4a3e 1756 a1bc
000003a0: 9b00 193e b298 1dbd cc10 cebd 0c1f 42be
000003b0: 70e1 1fbe c068 2f3e 12bc ef3d fd9b 35be
000003c0: 24ba 453e 09e5 01bd 4862 4abe 48f9 eabd
000003d0: 8386 73bd 71f7 00be 5659 133d 5a8d ee3d
000003e0: b4fd bbbd d00c 56be 483b 923d 7f14 49be
000003f0: 0e0d 0b3e a935 62bd 908e 543d 5e48 f6bd

gat_layers.1.att_src f4 [1, 4, 16]
0.47793248 0.45040494 0.2615699 -0.30800506 0.1614866 -0.30166736 -0.1772002 0.30651966
0.47239205 -0.21045882 0.41921827 0.32705954 -0.35151836 -0.030933803 -0.19459976 -0.2843997
-0.3379168 0.019974822 -0.3502454 0.39185995 -0.09029814 -0.3271714 -0.13431768 0.49722296
0.063538745 -0.14206134 -0.3092352 -0.3576021 0.4359448 -0.22327766 0.3013006 0.33616996
0.38218126 -0.47811 0.44634244 -0.21532957 -0.10662126 -0.12246115 -0.35853127 -0.107838646
-0.36132365 -0.39528736 0.34546223 0.21481404 -0.4477206 -0.32719323 -0.38818753 0.006944865
-0.33373258 0.48902252 -0.15048596 -0.25155312 0.45913458 0.17864591 -0.06080042 0.24453673
-0.5313297 0.06095783 -0.099097066 -0.29113632 -0.07849489 -0.49044523 -0.30406046 -0.03367668
00000000: 91b3 f43e 7a9b e63e 7dec 853e d7b2 9dbe
00000010: be5c 253e 2574 9abe f873 35be 25f0 9c3e
00000020: 5fdd f13e 8482 57be c7a3 d63e 5974 a73e
00000030: 37fa b3be e368 fdbc 2945 47be d69c 91be
00000040: 6e03 adbe 3da2 a33c 5d53 b3be dea1 c83e
00000050: 3bee b8bd 0283 a7be 938a 09be 0294 fe3e
00000060: 9a20 823d 8778 11be 1354 9ebe 9f17 b7be
00000070: 2834 df3e e6a2 64be 1244 9a3e 781e ac3e
00000080: 43ad c33e d5ca f4be ff86 e43e 5b7f 5cbe
00000090: 3f5c dabd e9cc fabd 6991 b7be 82da dcbd
000000a0: 6aff b8be 1b63 cabe 6de0 b03e 36f8 5b3e
000000b0: a23b e5be df85 a7be 84c0 c6be c091 e33b
000000c0: ffde aabe 2961 fa3e fe18 1abe 92cb 80be
000000d0: b013 eb3e f4ee 363e dc09 79bd d667 7a3e
000000e0: 3905 08bf ebae 793d 67f3 cabd d20f 95be
000000f0: eec1 a0bd a31b fbbe d0ad 9bbe 8ff0 09bd

gat_layers.1.att_dst f4 [1, 4, 16]
0.11192185 0.5129086 0.28813344 0.5235239 -0.13626498 0.11128515 -0.07623583 -0.1766049
0.1775899 0.53923583 0.5113187 0.21508718 -0.25187477 0.056862965 0.28786826 -0.4024714
-0.011860193 0.15197721 0.48125738 -0.19221756 0.5373905 0.2762145 0.16402271 -0.23475166
-0.30490506 -0.03316459 0.058912206 -0.49657953 0.31788465 0.30023783 0.12495206 0.2999734
-0.27605703 0.26836646 0.19954799 -0.49747068 0.27341416 0.4856338 -0.24183375 -0.30348775
0.3575819 -0.1297069 -0.26217315 0.5172168 -0.54594785 0.44776917 0.20355329 -0.35779157
0.14082801 -0.41327202 -0.4527983 0.29937398 -0.20227855 -0.3144281 0.28730845 -0.3461383
0.33275855 -0.15625414 -0.22831333 -0.21739838 0.3883286 0.35187405 -0.45631495 0.16167259
00000000: 4837 e53d fa4d 033f 3a86 933e aa05 063f
00000010: 0c89 0bbe 78e9 e33d 8821 9cbd ead7 34be
00000020: 20da 353e 5c0b 0a3f c8e5 023f d03f 5c3e
00000030: bbf5 80be 24e9 683d 7863 933e bb10 cebe
00000040: 4151 42bc ea9f 1b3e 5e67 f63e aed4 44be
00000050: 6c92 093f fd6b 8d3e 92f5 273e bd62 70be
00000060: 841c 9cbe 98d7 07bd ed4d 713d ac3f febe
00000070: c7c1 a23e c6b8 993e dee6 ff3d 1d96 993e
00000080: 5957 8dbe 5467 893e 4f56 4c3e 7ab4 febe
00000090: f1fc 8b3e fea4 f83e 44a3 77be bf62 9bbe
000000a0: fa14 b73e e3d1 04be 8f3b 86be 5268 043f
000000b0: 3dc3 0bbf 0042 e53e 4670 503e 7530 b7be
000000c0: 3835 103e 6498 d3be 2ed5 e7be 8c47 993e
000000d0: 1c22 4fbe b8fc a0be 181a 933e 0a39 b1be
000000e0: 545f aa3e 1601 20be f8ca 69be ae9d 5ebe
000000f0: 02d3 c63e d628 b43e 1da2 e9be 808d 253e

gat_layers.1.att_edge f4 [1, 4, 16]
-0.32272762 0.13744587 -0.123150304 -0.4299315 -0.38129455 -0.391066 0.3117274 -0.19101968
-0.15178068 -0.26686934 0.164857 -0.5145307 -0.1857509 -0.12637301 0.23498066 -0.42365402
0.19223994 0.5168608 0.25692785 -0.06511102 0.1974955 0.40755817 -0.20096043 0.30745894
-0.10659783 -0.1313865 -0.30720863 -0.016371332 -0.14289029 0.47999078 -0.0039578215 0.5093698
0.3446008 -0.4366286 -0.45953473 -0.05747552 -0.3648277 -0.4913694 -0.53659374 0.3507655
0.45152718 -0.3447601 -0.431957 -0.3721761 -0.41518685 -0.48583516 0.044650584 0.31008112
0.40064397 0.20891538 -0.16104421 0.20132591 0.40894967 -0.47800377 0.15222359 -0.523632
-0.004600321 0.4983432 -0.3763687 -0.2771205 -0.4500148 0.34030288 0.2303211 0.47375542
00000000: 8e3c a5be 9cbe 0c3e 3a36 fcbd fb1f dcbe
00000010: 0a39 c3be ce39 c8be bc9a 9f3e aa9a 43be
00000020: 656c 1bbe 19a3 88be 46d0 283e 49b8 03bf
00000030: 7c35 3ebe ed67 01be c59e 703e 2ee9 d8be
00000040: 8cda 443e fd50 043f 0c8c 833e ed58 85bd
00000050: 433c 4a3e 77ab d03e 92c8 4dbe 426b 9d3e
00000060: f74f dabd 2f8a 06be 734a 9dbe 2c1d 86bc
00000070: d551 12be 5ac1 f53e 9db0 81bb 0f66 023f
00000080: 846f b03e c98d dfbe 2348 ebbe 736b 6bbd
00000090: b2ca babe c594 fbbe 355e 09bf 8997 b33e
000000a0: 922e e73e 6584 b0be 7829 ddbe de8d bebe
000000b0: 5f93 d4be 63bf f8be 88e3 363d f4c2 9e3e
000000c0: 3521 cd3e eaed 553e c6e8 24be 6128 4e3e
000000d0: da61 d13e e9bc f4be 80e0 1b3e bf0c 06bf
000000e0: 4abe 96bb d726 ff3e 66b3 c0be bde2 8dbe
000000f0: 5768 e6be 2e3c ae3e 4bd9 6b3e 1290 f23e

gat_layers.1.bias f4 [64]
-0.005301537 -0.005233463 -0.00521216 0.0010995907 0.0043668286 -0.0047228057 -0.004315047 -0.0035935284
-0.0045581837 -0.0052376427 0.0048665684 0.011732495 -0.003791647 0.00013782165 -0.0051688314 -0.0050436966
-0.0053261044 -0.005223605 -0.0050633154 -0.004392187 -0.004720921 -0.0051664826 -0.0051952726 -0.005447078
-0.005267549 -0.0051376433 -0.004545326 0.011129671 -0.0054998486 0.0038049647 -0.00538661 -0.0054551912
0.011826264 -0.0049489764 -0.0014535786 -0.005071028 -0.0045592086 0.002146651 -0.0050175483 -0.0049917838
-0.0054225973 -0.0050386963 -0.004964727 -0.0044684955 0.0051575913 0.010741289 -0.0050133667 -0.00487523
-0.0053985505 -0.0054023457 0.0036471747 -0.005444541 0.0008646072 -0.0050566695 -0.005071207 -0.005044337
-0.005087797 -0.0047611087 -0.0053856 0.010329953 -0.0053468356 -0.0037196414 -0.004964689 -0.0052891774
00000000: 84b8 adbb 787d abbb c4ca aabb 2420 903a
00000010: 9d17 8f3b c4c1 9abb 3d65 8dbb 6781 6bbb
00000020: d15c 95bb 88a0 abbb bc77 9f3b a739 403c
00000030: 487d 78bb 3884 1039 4d5f a9bb 9845 a5bb
00000040: 9a86 aebb c62a abbb 2bea a5bb 56ec 8fbb
00000050: f5b1 9abb 994b a9bb 1b3d aabb 677d b2bb
00000060: 679b acbb ad59 a8bb f5f0 94bb 3959 363c
00000070: 1338 b4bb b75c 793b 2982 b0bb 76c1 b2bb
00000080: f2c2 413c 062b a2bb 0186 beba de2a a6bb
00000090: 6a65 95bb d4ae 0c3b 3f6a a4bb 1e92 a3bb
000000a0: 0bb0 b1bb a61b a5bb 26af a2bb 756c 92bb
000000b0: 0301 a93b 3bfc 2f3c 2b47 a4bb 65c0 9fbb
000000c0: 53e6 b0bb 2906 b1bb 7005 6f3b 1f68 b2bb
000000d0: cfa6 623a 6bb2 a5bb 5e2c a6bb f74a a5bb
000000e0: 89b7 a6bb 1303 9cbb b079 b0bb f73e 293c
000000f0: 8234 afbb 3ac5 73bb d4ae a2bb d650 adbb

gat_layers.1.lin.weight f4 [64, 64]
0.20592846 0.016118167 0.08713164 0.16492198 0.10182378 -0.03484069 0.14273345 -0.08343353
-0.1053844 -0.052811667 0.06263238 -0.12663592 -0.11911271 0.026590975 -0.014967199 0.068697594
0.18815017 -0.14436734 -0.14436395 0.11252843 -0.17576234 -0.053122338 -0.15403304 -0.1914207
-0.1271139 0.03084143 0.060562797 0.10929336 -0.19169956 -0.192634 0.117435314 -0.16593528
0.023408366 -0.096289165 -0.15338363 0.21814299 0.11605515 -0.13332683 -0.01786933 -0.12350421
-0.0646484 -0.05114936 0.046054307 0.09002549 -0.20840147 0.0040061674 -0.20036475 0.061918207
-0.03543088 0.21956262 0.07328458 0.0067330906 0.018071072 0.12208134 0.041488152 -0.21082608
0.12553404 -0.021519896 -0.13425829 0.12881424 -0.018881857 -0.06873198 0.14354758 0.15053512
-0.07406531 -0.13930015 0.1207372 0.0103161335 -0.14303541 -0.19360623 -0.04975897 -0.09357452
0.07447908 0.15488091 0.11699786 0.026388543 0.07209231 -0.14426483 -0.16071576 0.1810806
-0.017430795 0.1943224 -0.10055795 0.20633918 0.115921356 -0.088195495 -0.0035895747 -0.013034898
-0.15582179 0.12137794 -0.0351769 -0.1003385 -0.07975047 0.19966863 0.104403436 0.059214562
-0.19283491 -0.09986146 0.115970016 -0.046833556 0.13561398 -0.14583918 0.04182726 0.16252409
-0.18367362 0.20240138 0.09129221 -0.08255741 0.024063298 -0.20866896 0.13884366 -0.13419542
-0.017265437 0.032253385 0.06294902 0.2214311 0.072701104 -0.11869733 -0.0276951 -0.06388109
0.16540842 0.090907134 -0.20459954 0.20234007 0.12827119 -0.21308348 0.1379885 -0.07840128
-0.14586532 -0.047761273 -0.16226678 0.010917698 0.1834446 0.10865705 0.1999805 -0.19953531
0.07273971 0.13909301 0.10566427 -0.19455424 0.17269126 -0.15515831 -0.059265897 -0.14326821
-0.18604809 0.20926018 -0.035651434 -0.19193722 0.20257506 -0.087636575 0.12249546 0.2036101
0.18222855 0.18416321 -0.14793675 0.14219764 0.10114589 0.20790428 0.03577731 -0.071572445
-0.13801926 0.14108673 0.09850092 -0.15559043 -0.08015052 0.21320552 -0.11716667 0.21004507
0.19701886 -0.08622886 0.21536613 -0.04336282 -0.07090575 -0.10345376 -0.13255914 0.11190924
-0.090095535 -0.06790642 -0.052079182 -0.05591704 -0.04909397 0.043780647 0.21289991 0.18739155
-0.1332357 -0.15616322 0.09214398 -0.023706684 0.1481903 -0.17985617 0.20646675 0.00036302107
0.16974048 -0.0020061156 0.13925421 0.03794324 -0.02403929 -0.21392952 0.15841663 -0.120612435
-0.08701163 -0.19583291 -0.09252878 0.05716652 -0.12886089 -0.06542131 -0.028587693 -0.1155743
0.12963067 -0.01860201 0.05411379 -0.1604457 0.14006785 -0.006350864 0.19229731 -0.09951824
-0.01296925 -0.0756714 0.10366356 -0.040272597 -0.17122714 -0.10749124 -0.21179841 0.08924805
0.09360149 0.022298127 -0.11185204 -0.07745192 0.09286335 0.02426667 -0.09890995 -0.038122945
-0.020537002 0.01473982 0.11487478 -0.1953763 0.036557212 0.1118295 -0.09630862 -0.15688705
-0.12288668 0.14577644 -0.06947611 0.06775874 0.07685535 -0.19892454 0.037889216 0.049976896
0.045527823 -0.059988577 0.1956816 0.19544902 -0.09362997 0.104347356 0.040754054 0.05831353
00000000: e9de 523e 3f0a 843c 1372 b23d 4fe1 283e
00000010: fc88 d03d 1db5 0ebd b828 123e 33df aabd
00000020: c7d3 d7bd 0c51 58bd 6845 803d d9ac 01be
00000030: 5df1 f3bd 51d5 d93c fc38 75bc 53b1 8c3d
00000040: 70aa 403e 08d5 13be 25d4 13be 4e75 e63d
00000050: 0bfb 33be cf96 59bd d6ba 1dbe ca03 44be
00000060: 252a 02be 2ba7 fc3c b210 783d 32d5 df3d
00000070: e44c 44be d941 45be ed81 f03d f0ea 29be
00000080: e7c2 bf3c 4133 c5bd 9910 1dbe e060 5f3e
00000090: 53ae ed3d d486 08be b362 92bc c6ef fcbd
000000a0: 6166 84bd fe81 51bd 71a3 3c3d 495f b83d
000000b0: 3267 55be 2b46 833b 6b2c 4dbe f29d 7d3d
000000c0: f81f 11bd 06d5 603e 3a16 963d 42a1 dc3b
000000d0: c909 943c c805 fa3d 7bef 293d cbe2 57be
000000e0: ff8b 003e 7e4a b0bc 017b 09be e1e7 033e
000000f0: 20ae 9abc 5ac3 8cbd 23fe 123e e125 1a3e
00000100: 8eaf 97bd b3a4 0ebe 1145 f73d 0005 293c
00000110: e077 12be b640 46be 10d0 4bbd ffa3 bfbd
00000120: 7d88 983d 1a99 1e3e 939c ef3d c92c d83c
00000130: 22a5 933d 29ba 13be ac92 24be 316d 393e
00000140: 07cb 8ebc 74fc 463e 54f1 cdbd 944a 533e
00000150: 2d68 ed3d d79f b4bd 123f 6bbb 5390 55bc
00000160: bf8f 1fbe ff94 f83d a715 10bd 467e cdbd
00000170: 3754 a3bd ef75 4c3e 78d1 d53d f88a 723d
00000180: 8476 45be 2a84 ccbd b081 ed3d 8bd4 3fbd
00000190: 64de 0a3e de56 15be 1053 2b3d b76c 263e
000001a0: f014 3cbe 4f42 4f3e 69f7 ba3d dc13 a9bd
000001b0: 6520 c53c 51ad 55be 082d 0e3e 866a 09be
000001c0: 3f70 8dbc 201c 043d 6aeb 803d d6be 623e
000001d0: 51e4 943d 9617 f3bd d6e0 e2bc 17d4 82bd
000001e0: d360 293e 852d ba3d 8b82 51be 3c32 4f3e
000001f0: 8659 033e 8e32 5abe db4c 0d3e da90 a0bd
00000200: b85d 15be 53a1 43bd 4329 26be 25e0 323c
00000210: e7d8 3b3e 9687 de3d b0c7 4c3e fc52 4cbe
00000220: 8ff8 943d 666e 0e3e 8266 d83d 3a39 47be
00000230: fad5 303e d2e1 1ebe ccc0 72bd e7b4 12be
00000240: 6483 3ebe 4d48 563e 3d07 12bd 318b 44be
00000250: d66f 4f3e ce7a b3bd e6de fa3d 2b7f 503e
00000260: 1f9a 3a3e 4895 3c3e bb7c 17be 429c 113e
00000270: 9425 cf3d dce4 543e 3b8b 123d 9394 92bd
00000280: ec54 0dbe 0a79 103e daba c93d 1953 1fbe
00000290: f525 a4bd 8c52 5a3e 14f5 efbd 0e16 573e
000002a0: 50bf 493e c298 b0bd f088 5c3e 369d 31bd
000002b0: 0937 91bd 91df d3bd 95bd 07be ac30 e53d
000002c0: 0284 b8bd 8512 8bbd fb50 55bd 4409 65bd
000002d0: c216 49bd 5653 333d 6f02 5a3e 92e3 3f3e
000002e0: f06e 08be 40e9 1fbe fcb5 bc3d 8534 c2bc
000002f0: 33bf 173e 372c 38be 056c 533e dd53 be39
00000300: 73d0 2d3e 0979 03bb a898 0e3e 5f6a 1b3d
00000310: 0cee c4bc 5710 5bbe f837 223e a703 f7bd
00000320: 2733 b2bd 6c88 48be bb7f bdbd 7127 6a3d
00000330: 1cf4 03be 9cfb 85bd bd30 eabc 38b2 ecbd
00000340: e7bd 043e 3e63 98bc 6ca6 5d3d e14b 24be
00000350: f26d 0f3e e91a d0bb 96e9 443e 38d0 cbbd
00000360: fa7c 54bc 9bf9 9abd 8f4d d43d e1f4 24bd
00000370: 2b56 2fbe 5e24 dcbd afe1 58be aec7 b63d
00000380: 23b2 bf3d 90aa b63c af12 e5bd 1d9f 9ebd
00000390: 242f be3d e5ca c63c 4d91 cabd ce26 1cbd
000003a0: 373d a8bc 497f 713c 7843 eb3d ba10 48be
000003b0: 04bd 153d dd06 e53d 743d c5bd 00a7 20be
000003c0: 03ac fbbd 6b46 153e 7e49 8ebd 18c5 8a3d
000003d0: 5666 9d3d e0b2 4bbe b931 1b3d 93b4 4c3d
000003e0: 627b 3a3d 95b6 75bd c260 483e ca23 483e
000003f0: 12c1 bfbd 11b4 d53d b9ed 263d 2bda 6e3d

gat_layers.1.lin_edge.weight f4 [64, 64]
0.15349917 0.18294327 -0.10083668 -0.1900294 0.09479914 0.033254273 0.15183336 0.013921245
-0.21577092 -0.04704895 0.013063469 0.18905418 -0.15204303 0.2141907 0.18638723 0.12431137
0.11079474 0.037523445 0.2090077 0.04500924 -0.04473526 0.16241376 -0.17245221 -0.14889506
0.1119532 -0.087744124 -0.056555953 -0.039086252 0.00085471355 -0.19095333 -0.06437765 0.08071241
-0.11340906 0.08340847 -0.060795847 0.053877555 0.10694046 0.12791501 -0.12849468 -0.056185164
-0.18987039 0.10921717 -0.17920458 0.018136691 -0.19479525 -0.04264101 -0.1798805 -0.18700229
0.12407969 -0.18009144 -0.19650817 0.18480784 -0.0375605 -0.009972976 -0.06298342 0.042935237
-0.18279836 -0.2129095 0.19595246 -0.0048901658 -0.19669247 -0.17748235 0.15701602 -0.06477403
-0.14237633 -0.009214236 0.081596136 0.10196312 -0.09857911 0.1197724 0.1435249 0.16193952
-0.08019967 -0.058871705 -0.050533332 -0.13293816 0.17816189 0.20389389 -0.07686362 0.09011194
0.088718385 0.21576 -0.04051071 -0.16045943 0.14966895 -0.117666826 0.17217411 -0.07231496
0.21066651 0.2165148 0.12967695 -0.1266373 0.09574409 -0.09352431 0.08151418 -0.07033616
0.008614793 -0.16653633 0.19546361 -0.044773318 0.02481479 -0.012194574 0.028630618 0.20338127
-0.19986409 -0.13040876 -0.014962055 -0.11297032 -0.14324577 -0.115515575 -0.018546388 -0.14722453
-0.1257826 -0.15323749 0.10834549 0.14964427 -0.04256353 -0.20000738 0.11511032 -0.044332284
0.14591223 -0.08919227 0.13292037 0.029104402 0.050662927 -0.20851882 0.021327779 -0.1479915
-0.06793605 0.19181406 -0.15474933 -0.21110359 0.19912112 -0.12092829 0.0204784 0.1760385
0.14897375 -0.18511309 0.07778283 -0.087341815 0.0392895 -0.12614341 -0.15613003 0.06018649
0.016319068 -0.04729996 -0.15076119 0.17391102 0.20582058 0.16267675 -0.17198247 -0.03196364
0.16080353 -0.1871654 0.1493868 -0.13688044 0.17514586 0.15356514 0.07355009 0.21121266
0.15501393 0.109770186 0.0048046894 0.07839272 -0.1832875 -0.10385433 0.21047013 -0.106800884
0.13202894 0.0806839 0.20463336 0.0805937 0.1594006 -0.17800218 -0.17844386 -0.09588574
0.176266 -0.13551717 0.15785384 -0.13969353 0.119283736 -0.10245493 -0.10213796 -0.13875054
0.043105192 0.035742655 0.0012322403 0.1186708 -0.13487217 -0.008522733 0.0008244177 -0.023172595
0.029356426 -0.06918233 0.2105257 -0.16868743 0.16466957 -0.13441318 -0.19085906 0.06398473
0.01439051 0.20247027 0.040554225 0.028022934 -0.0077059176 0.13506234 -0.02815877 0.04417865
0.10615793 0.12936793 -0.07428482 -0.08489916 0.20533767 0.20822008 -0.12964253 0.14617963
-0.1981632 -0.17056012 -0.11006359 0.0006159356 0.016683282 0.20828754 -0.18589278 -0.19796646
0.15455204 0.0020665939 0.14109232 0.050641406 -0.029996637 0.04259981 0.006433136 0.1967691
0.14213568 -0.016671788 -0.12263621 -0.16868779 -0.14577426 0.16685088 0.21219723 0.10905594
-0.066936165 -0.14229539 0.077490695 -0.03413056 0.123254806 -0.19848901 -0.14424041 -0.050988115
-0.096101396 -0.11885913 0.19833505 -0.19880614 0.008605763 0.11943813 0.19449438 0.082834125
00000000: e32e 1d3e 7b55 3b3e 7683 cebd 1197 42be
00000010: 0d26 c23d a235 083d 347a 1b3e ef15 643c
00000020: 0df3 5cbe 66b6 40bd 2908 563c 6b97 413e
00000030: 2bb1 1bbe cf54 5b3e 4bdc 3e3e f696 fe3d
00000040: 5ae8 e23d 2fb2 193d 1d06 563e 9c5b 383d
00000050: 523c 37bd cb4f 263e 5097 30be f277 18be
00000060: b847 e53d 31b3 b3bd 37a7 67bd e818 20bd
00000070: db0e 603a 4589 43be 6ed8 83bd 8c4c a53d
00000080: 0243 e8bd 0fd2 aa3d 1105 79bd b6ae 5c3d
00000090: 9a03 db3d 27fc 023e 1c94 03be 6a22 66bd
000000a0: 626d 42be 40ad df3d 6881 37be 6693 943c
000000b0: 6878 47be 57a8 2ebd 9832 38be 877d 3fbe
000000c0: 7e1d fe3d e469 38be 7039 49be 443e 3d3e
000000d0: 0ad9 19bd b165 23bc 74fd 80bd dcdc 2f3d
000000e0: 7e2f 3bbe f304 5abe c3a7 483e af3d a0bb
000000f0: c069 49be efbd 35be cfc8 203e 3fa8 84bd
00000100: 1acb 11be 4ff7 16bc e01b a73d 0ad2 d03d
00000110: d8e3 c9bd 3b4b f53d 31f8 123e 79d3 253e
00000120: b93f a4bd 7523 71bd 0afc 4ebd f120 08be
00000130: 1270 363e 8fc9 503e ac6a 9dbd 9c8c b83d
00000140: fcb1 b53d 30f0 5c3e 8fee 25bd 7a4f 24be
00000150: d142 193e 4efb f0bd 694e 303e de19 94bd
00000160: f6b8 573e 0eb6 5d3e 09ca 043e 35ad 01be
00000170: 7a15 c43d ac89 bfbd e8f0 a63d 680c 90bd
00000180: 1025 0d3c 8088 2abe 9d27 483e 3a64 37bd
00000190: 6348 cb3c c0cb 47bc c28a ea3c 2e43 503e
000001a0: 2ca9 4cbe e089 05be 6823 75bc fc5c e7bd
000001b0: 05af 12be 6e93 ecbd 98ee 97bc 07c2 16be
000001c0: 27cd 00be 4aea 1cbe 3ee4 dd3d 593c 193e
000001d0: 1957 2ebd bcce 4cbe f6be eb3d c595 35bd
000001e0: 046a 153e 70aa b6bd 471c 083e 5b6c ee3c
000001f0: ee83 4f3d f585 55be 98b7 ae3c 158b 17be
00000200: 0e22 8bbd e86a 443e 9c76 1ebe 8a2b 58be
00000210: 68e6 4b3e 40a9 f7bd 51c2 a73c 7043 343e
00000220: 938c 183e 498e 3dbe 9b4c 9f3d 44e0 b2bd
00000230: 07ee 203d bd2b 01be 8de0 1fbe 1c86 763d
00000240: 91af 853c 9abd 41bd 2461 1abe bb15 323e
00000250: a1c2 523e bc94 263e 2c1c 30be 4eec 02bd
00000260: aea9 243e 49a8 3fbe daf8 183e 632a 0cbe
00000270: 7059 333e 2e40 1d3e 6ea1 963d 2248 583e
00000280: f9bb 1e3e 31cf e03d a870 9d3b 5d8c a03d
00000290: b8af 3bbe 94b1 d4bd 7b85 573e 6cba dabd
000002a0: 9832 073e 9a3d a53d 688b 513e 4f0e a53d
000002b0: e939 233e 3446 36be fdb9 36be be5f c4bd
000002c0: 137f 343e 03c5 0abe 70a4 213e d20b 0fbe
000002d0: 084b f43d e4d3 d1bd b52d d1bd 9f14 0ebe
000002e0: 128f 303d e466 123d 2083 a13a ad09 f33d
000002f0: ee1b 0abe efa2 0bbc bc1d 583a 74d4 bdbc
00000300: e37c f03c 77af 8dbd 0d94 573e 66bc 2cbe
00000310: 249f 283e 9ca3 09be 8f70 43be 6d0a 833d
00000320: 2cc6 6b3c 5e54 4f3e 301c 263d 5a90 e53c
00000330: ec81 fcbb c84d 0a3e 39ad e6bc acf4 343d
00000340: 5469 d93d 0779 043e a422 98bd 9cdf adbd
00000350: 0a44 523e a537 553e 03c1 04be 1db0 153e
00000360: 4beb 4abe 50a7 2ebe 0569 e1bd bd76 213a
00000370: 61ab 883c 5449 553e ad5a 3ebe b8b7 4abe
00000380: e442 1e3e b16f 073b 817a 103e 5d6d 4f3d
00000390: 82bb f5bc 237d 2e3d 0ecd d23b d77d 493e
000003a0: 048c 113e 4693 88bc b128 fbbd 7ebc 2cbe
000003b0: d945 15be f5da 2a3e 3b4a 593e b858 df3d
000003c0: d415 89bd e2b5 11be 71b3 9e3d 7ccc 0bbd
000003d0: 046d fc3d b440 4bbe c2b3 13be ead8 50bd
000003e0: cfd0 c4bd 6a6c f3bd 5818 4b3e d693 4bbe
000003f0: 30ff 0c3c fa9b f43d 8929 473e f0a4 a93d
