models/best_fraud_model_seed_111.pth (torch, 378192 bytes, 45 tensors)

node_emb.weight f4 [64, 8]
00000000: 3ee9 0abe 4811 32be 600c a8be 2af8 463e
00000010: 7002 dbbd 42bc e53d 3149 a83d 6762 553e
00000020: 1970 8f3e e5e6 9ebe 035b 20bc e4fb ec3d
00000030: 8f83 a7be 9acb a53e fda7 91bd 7579 d8bc
00000040: 4280 eebd 15c6 133e 0824 35be d79a 31be
00000050: 1fdb 3e3e 2564 d73b d028 6f3e 806c f93c
00000060: 1774 933e b4ff 64be dd27 633e b9b9 633e
00000070: e81a 12be b6b9 18be b1f6 993d 9c5d 7cbe
00000080: 2197 af3e 6a8f 973d 4b58 d8bc e24b 073e
00000090: 96a8 a7be a49b abbe 3a3d a1be 89ca 6ebe
000000a0: d629 5abe c2ea 78bd f764 7dbe 9f01 d0bd
000000b0: 8d39 693e c361 8dbe 2171 333c 1c0b aabd
000000c0: 4050 2fbe 861e 4ebe cd89 9abe c434 523e
000000d0: c406 183e 9dc0 123e ca22 15be f6a4 503d
000000e0: eeb6 6cbd ff30 8cbe 1acf ac3d e1ba 5f3e
000000f0: aa6a 4f3e f16c 97be ae7c b2be a4ef 60be
00000100: 15ef 1abd f5a3 6dbe 5176 b7be ff82 8cbe
00000110: 27c4 bc3d b3bd 4abd ac65 ca3d e34f 0fbc
00000120: 9a9d d9bd e50a b1be d114 3fbd 02b1 9dbe
00000130: f80c a73e d3af a83d c6e7 43bd 663e 063d
00000140: cfb0 81be 465d 3dbe e093 a63e 5ccc 863c
00000150: 1dc4 b2be 36c9 6cbe 64b1 9bbe 525a a4be
00000160: 81c7 fe3c 78ea fabb 1613 963e 3bcd 2a3e
00000170: 9a6a 0b3d 5d58 3b3e f1ee 52be 942b 863c
00000180: 35c4 7c3e 7a34 a2be d243 92be 2829 963e
00000190: ca6f 863e 9593 4dbe 53b7 5f3e 0a49 91be
000001a0: 4270 1abe 0248 d53d b595 4c3d 58b1 a53e
000001b0: a16c 2dbe d34b 063e 473c 73bb cb71 753e
000001c0: 72d8 903e 3c64 373e 8b33 45bd aa0c 0c3e
000001d0: 351f 6c3e 29db 12be f930 06be dd1c 823e
000001e0: ed55 363e d1d0 02bd a1db e33c 8f00 25be
000001f0: 3791 42bd 587b 5fbd 707c cfbd c5ff 07bd
00000200: 0f2e 593d 9d1e 2c3d 36f8 5cbd fe1b 363c
00000210: 86b1 143c bb27 d83c 0d8d 9c3e 3781 94be
00000220: 26aa a2be 29c7 ca3d 8e2c e1bd 151e b83e
00000230: 4135 a33e 5176 8abe 8a8a 503e ac2a 4dbe
00000240: 8388 7c3e ed74 86be ae58 dd3b fd27 1bbd
00000250: 6633 273e 2f5d fabc 0309 9c3c eca0 a53d
00000260: 922d 083d c5c7 5dbe 37ca 1bbd 7684 303d
00000270: 79b6 f53d 735b 3f3e a2fc 8f3e f5d3 9fbd
00000280: efc3 5fbd b47d 4e3e 3dfb 7d3e 4307 85be
00000290: 0827 81bd 60e4 1dbe c330 c23d efa6 813e
000002a0: f57c 9f3e 9f37 43be 23a6 89be 9e05 a2be
000002b0: c105 38be c3c0 21be 26b4 60bd bc03 65be
000002c0: 1052 ac3e 80d5 983e bb2b 833e 5a9b 983e
000002d0: f698 90be d442 0e3e 25f1 dd3d 6661 d5bd
000002e0: 18d0 89bd c53f 983d 0bea fbbb fc3e 43be
000002f0: af0f 8d3e 7d98 3c3e a7db 8ebe db37 9ebe
00000300: f1a1 99be f88d cebd e684 81be 469b a0be
00000310: b334 843e f3ea 72be 0c20 ce3b 1554 7b3b
00000320: 0f26 2e3e 7906 193e 50f9 26be 3d97 c13d
00000330: e5cd 9d3e ae64 67be 7377 a63e f6f9 6abe
00000340: 4102 1f3e dacf 0b3e a6e9 683e 0608 aa3d
00000350: 5ed6 653e 683b 89be 13b3 d73c 9c2f 65be
00000360: d707 023e b2a6 b23d d92d 12bd 1215 aa3e
00000370: 24ff 4c3e b7d7 993c 4cac 55bc 6a97 b3be
00000380: 138a b4be b32a 00be 0be5 45bd 1faf 9dbe
00000390: 9eae cb3d 259b 7fbd ed67 8c3e 1e17 c53c
000003a0: 6b2b ca3b 9adb 673c 17bb 843e 5f99 9d3e
000003b0: c6e3 f13d 5821 acbe 2a0f 8c3e 83ad 963e
000003c0: 35a6 a23e 1296 a3be db92 903e ab4a 3b3c
000003d0: 4551 4cbe 7627 5b3e f1fc 8f3e 8e94 dcbc
000003e0: f105 543e 272e 62be 6ebc 93be 358e 3f3e
000003f0: 74e9 673d 2670 b13e 7620 e63c d103 ae3e
-0.13565537 -0.17389405 -0.3282194 0.19430605 -0.10693824 0.11217548 0.08217085 0.20838319
0.2801521 -0.31035534 -0.009787324 0.11571482 -0.3271756 0.32381898 -0.07112119 -0.026425103
-0.11645557 0.14431031 -0.17689526 -0.17344223 0.18638276 0.0065732175 0.23355412 0.030447245
0.28799507 -0.22363168 0.22183175 0.22238816 -0.14268076 -0.14914593 0.07517756 -0.24645084
0.3429499 0.07400401 -0.026409289 0.13212541 -0.32745808 -0.33517182 -0.31492025 -0.23319449
-0.21305022 -0.060770757 -0.24745546 -0.10156559 0.2277586 -0.2761365 0.010952265 -0.083029
-0.17120457 -0.20128831 -0.3018326 0.20527941 0.14846331 0.14331289 -0.14564052 0.05093857
-0.057791643 -0.2738113 0.08437939 0.21848632 0.20255533 -0.29575303 -0.34860748 -0.21966416
-0.037825663 -0.23207076 -0.35832456 -0.27443692 0.092171006 -0.049497318 0.098826736 -0.008747074
-0.10625763 -0.34578624 -0.04665071 -0.3079911 0.32627082 0.08236661 -0.04782846 0.03277435
-0.25330207 -0.18492612 0.32534695 0.016454868 -0.34915248 -0.23123631 -0.30408776 -0.3210016
0.03110099 -0.0076573454 0.29311436 0.16679852 0.03403721 0.18295427 -0.20598961 0.016378202
0.24684222 -0.3168066 -0.28567368 0.29328275 0.26257163 -0.2007583 0.21847276 -0.28376037
-0.15081885 0.10414125 0.04994746 0.32361865 -0.1693597 0.13114862 -0.0037114786 0.2396919
0.28290135 0.1790933 -0.04814486 0.13676706 0.2305878 -0.14341415 -0.13104619 0.25412646
0.17806216 -0.031937424 0.027814688 -0.16113494 -0.04750177 -0.05456099 -0.101311564 -0.033202905
0.05302244 0.042021383 -0.05394765 0.011115072 0.009075528 0.026386132 0.30576363 -0.29004833
-0.31770438 0.09901268 -0.10994826 0.3596045 0.31876567 -0.27043393 0.20365348 -0.2003581
0.2466145 -0.26261082 0.006754956 -0.037879933 0.163282 -0.030562012 0.019047266 0.08087334
0.033246584 -0.21658237 -0.038034644 0.043095075 0.119976945 0.18687229 0.2812243 -0.078040995
-0.054630216 0.2016514 0.24802871 -0.25982103 -0.06306273 -0.1541915 0.09481957 0.25322673
0.31150022 -0.19064187 -0.26884565 -0.3164491 -0.17970945 -0.15796189 -0.054859303 -0.22364706
0.3365636 0.29850388 0.256193 0.29806024 -0.282417 0.1389268 0.1083701 -0.10418968
-0.06729144 0.07434038 -0.007687812 -0.19066995 0.27551028 0.18417545 -0.27901956 -0.3090199
-0.30006364 -0.10085672 -0.25296706 -0.31368464 0.25821456 -0.23722439 0.0062904414 0.0038349677
0.17006706 0.14943875 -0.16306043 0.094526745 0.30821148 -0.22597 0.32513008 -0.22946915
0.15528204 0.13653508 0.2274538 0.083023116 0.22445056 -0.26803136 0.026330506 -0.22381443
0.12698303 0.08723201 -0.035688255 0.332192 0.20019203 0.018779619 -0.013041567 -0.35076457
-0.35261592 -0.12516288 -0.048314136 -0.3079767 0.09945415 -0.062403817 0.2742304 0.024058875
0.0061697266 0.014151478 0.25923988 0.30781075 0.118110225 -0.3361919 0.2735532 0.29429254
0.3176743 -0.31950432 0.28237042 0.011431376 -0.19952877 0.21401772 0.28122666 -0.026926305
0.20705391 -0.22087918 -0.28854698 0.18706591 0.056619123 0.34655875 0.02809165 0.33987287

node_emb.bias f4 [64]
00000000: 0ca8 13bb b225 88be 5c5e c9bd 7a8e 32be
00000010: f747 4b3d b637 253e 4390 d33d 2b88 dcbd
00000020: 3587 523e 6847 34be 194f 75be 31cb 32be
00000030: 0ddc 85bd 867d b23e 8d07 7c3e d138 8a3e
00000040: 3d67 a7bd 7dde 7c3e 5ce7 d1bc ec7e 4fbe
00000050: d373 35bc 842c 243e 423c 913e 262a 673e
00000060: 89f7 813e b78d 55be ce93 6bbe 1a8e 3f3e
00000070: 16cd 373d fc69 a4bd 2572 56be cc21 df3d
00000080: 0647 fdbd d57b a9be b8cc 293e 145f 7ebe
00000090: 2530 173e 5250 a5bd 6b23 ef3d 24bd 113e
000000a0: cf58 80be 8783 3c3e 37b2 8cbe e6d5 25be
000000b0: 0c36 16bd f999 113e ae03 9bbd 06b6 95bb
000000c0: 3c49 a0bd 82a7 5dbd c2a3 083e 2011 a73d
000000d0: aec4 2a3d 7cba 9a3e 3b82 083e 7c37 55be
000000e0: d1e9 dc3d faed 50be ae96 40be 8783 a0be
000000f0: 640b 4d3e 341a d6bd ef5a ac3c 98d5 ac3e
-0.0022530584 -0.2659126 -0.09832451 -0.17437163 0.049629178 0.16134533 0.1033025 -0.107681595
0.2055939 -0.17605364 -0.23955955 -0.17460324 -0.06536112 0.34861392 0.24612255 0.26996472
-0.08173988 0.24694248 -0.025623016 -0.2026326 -0.011074978 0.16032606 0.28366286 0.22574672
0.25384167 -0.20854841 -0.23005602 0.18706551 0.04487332 -0.080280274 -0.2094198 0.10895118
-0.12367062 -0.3310229 0.16582 -0.24840957 0.1476446 -0.080719605 0.11676677 0.14232308
-0.25067756 0.18409549 -0.27479717 -0.16194877 -0.036672637 0.14218892 -0.07569061 -0.004568818
-0.07826468 -0.054114826 0.13343719 0.08157563 0.041691475 0.302204 0.13330929 -0.20821947
0.107867844 -0.20403281 -0.1880748 -0.31350347 0.20023876 -0.104542166 0.021039454 0.3375671

edge_emb.weight f4 [64, 2]
00000000: de98 2fbe 5f06 14bf cdb7 323f 27e0 143f
00000010: 40d5 27be ca37 3cbe 9b92 f23e 204c 483c
00000020: dc6f 2dbf 58c5 09bd b55f e9be 93de 50be
00000030: 03aa 1f3f 3c82 f5be a0b9 b3bd 1e5f 0fbf
00000040: d686 55be d5dd de3e 95ed c2bd 64bf 17bf
00000050: bc82 0abf 97b6 a73e bacb 0d3f 7d4f af3e
00000060: b2e4 1b3e 2360 4dbd 5535 1b3f 83d2 093d
00000070: 967e 283e c86e e13d 6fbe 78bd 53b3 8a3e
00000080: 05c6 8cbe 44eb fe3e 5d92 03bf 4b03 753e
00000090: 6401 85be 5e9e 88be 9da4 323f 9f77 e13e
000000a0: bd39 48be 112a 6e3e 0eb1 cebe 4e7f babe
000000b0: 0bb8 ff3e 5da5 a6be 2c02 193f ff31 27bf
000000c0: d0d8 c43d dc02 fdbe e379 29bf 9f02 103f
000000d0: 9897 113f f68d f8bb 909b 2b3f 8301 14bf
000000e0: 7464 1c3f 619a 60be 13b2 9b3d feae e93e
000000f0: 2664 dc3c 6fd1 213e 8133 523e 36eb eabe
00000100: 434c 82bc 0cae 2e3f 92b7 e7be 6b9a c8be
00000110: 8f47 003c 38b1 993d b6a7 b83d 4ded 26bf
00000120: 013c 223f 2b8f 9e3d fb2c e93e b9da f13d
00000130: 74ca 09bf 7af0 0bbe 3c2f 193e f864 c8be
00000140: 7a34 113f 9efa 95be 6cc8 133f 2c9c 1f3e
00000150: 47f1 003f ed71 3ebe 4937 2c3d 1e4d 5fbe
00000160: 328d d83e 1364 1bbe 78ea 29bf 2494 2a3f
00000170: 5b85 223d dcc7 09bf eb7f 32bf 0083 8e39
00000180: 0de4 b1be d860 883e f679 fe3d 1502 d43e
00000190: b050 48bc de02 dc3e a8a3 23be d4c1 3fbe
000001a0: 9002 dabe 879b 8a3e 4a97 94be 3e31 d6bb
000001b0: 9977 013d 548e ed3e 90f9 b23e 200e 27bf
000001c0: c159 203d f095 543e 4456 7b3d caa1 27be
000001d0: 8995 333f 1296 2d3f 0175 15be 005f 903e
000001e0: 1d8d 273f 3b93 173f f409 323f 6a01 073f
000001f0: 25a8 263f f96b fcbe 942a bebe f13c 0ebe
-0.17148158 -0.5782222 0.6981171 0.5815453 -0.16389942 -0.18380657 0.47377476 0.012225181
-0.6774881 -0.033635467 -0.4558083 -0.20397405 0.6236879 -0.47950923 -0.087756395 -0.5600451
-0.20852217 0.4352862 -0.095179714 -0.59276414 -0.54105735 0.32756492 0.5538899 0.34240332
0.15223959 -0.05014051 0.60628253 0.033648025 0.16454539 0.11007458 -0.060728487 0.2708994
-0.27494827 0.49788868 -0.5139521 0.23927037 -0.25977623 -0.26683325 0.6978243 0.44036576
-0.19553275 0.23258235 -0.40369457 -0.3642525 0.499451 -0.32548037 0.5976894 -0.65310663
0.09611666 -0.49416244 -0.6620161 0.56254 0.5687194 -0.0075852824 0.67034245 -0.57814807
0.6109078 -0.21933891 0.07602324 0.4564132 0.026903223 0.15802549 0.2052746 -0.45882577
-0.015905505 0.68234324 -0.4525724 -0.39180312 0.007829561 0.07504505 0.09016363 -0.6520584
0.6337281 0.07742151 0.4554213 0.11809296 -0.53824544 -0.13665953 0.14959425 -0.39139533
0.567207 -0.29292768 0.57727695 0.15586919 0.5036816 -0.18598147 0.04204491 -0.21806762
0.42295223 -0.15174894 -0.66373396 0.66632295 0.03967796 -0.53820586 -0.6972644 0.00027181953
-0.347443 0.26636386 0.12425606 0.41407838 -0.012226269 0.42970937 -0.15980399 -0.18726283
-0.4258008 0.27071783 -0.29021674 -0.006536632 0.031608198 0.4639765 0.34956026 -0.6525593
0.039148096 0.20760322 0.061361566 -0.16370311 0.7015005 0.67807114 -0.14595415 0.2819748
0.65449697 0.5920903 0.6954644 0.5273653 0.6510032 -0.49301127 -0.3714186 -0.13890435

edge_emb.bias f4 [64]
00000000: b69f 26bf 029b 0dbf 8e3c 67be 97e8 1bbe
00000010: 7262 0a3e f6b2 253f ccb1 6dbe 1d44 ce3e
00000020: 96cc 7d3a 073a 2a3f 3a01 79be bd12 cc3e
00000030: e313 2bbf a525 0dbf 7742 c93e 92b2 283f
00000040: 77de e0be 716f 333f c961 963e 6fd8 1b3d
00000050: e086 b4be c935 213f fdce cabe e540 103f
00000060: 71a9 063f 307d 933e ad45 993e fd3f 58be
00000070: 645e bcbe e4a8 2f3d 7b35 323e e058 1dbe
00000080: 0a88 0a3e 5f76 2abf 112a 16bf 9936 003f
00000090: 1be2 8d3e 1b2a bbbe 2742 f93c be04 19bf
000000a0: b2e3 143f 929c 823d ed81 3cbe 4d18 323f
000000b0: 6aba 8dbd 100b 88bd 7f93 79be f8fe ba3e
000000c0: badb e1be b0d9 e93e a696 08be f6b4 13be
000000d0: f509 b83e 9c5c 1cbf 150e ea3d 2ba7 a5be
000000e0: 992c 06bf c840 26be 504b 2cbf c905 0bbe
000000f0: bdef 4b3c e4e8 023f 2f91 a4be 217b dbbe
-0.6508745 -0.5531465 -0.22581694 -0.15225445 0.13514116 0.647262 -0.23212355 0.4028634
0.000968167 0.6649479 -0.24316874 0.39858046 -0.6682722 -0.55135566 0.3930852 0.65897477
-0.43919727 0.7009192 0.2937148 0.038048204 -0.3525915 0.62972695 -0.39611045 0.5634902
0.526023 0.28806448 0.2993597 -0.2111816 -0.36790764 0.042885676 0.17403214 -0.15365934
0.13528457 -0.6658687 -0.5865794 0.5008331 0.27711567 -0.3655556 0.030427052 -0.5977286
0.58159935 0.0637752 -0.18408938 0.6956833 -0.06920321 -0.06642735 -0.24372672 0.3652265
-0.4411295 0.45673895 -0.13338718 -0.144245 0.35945097 -0.6107881 0.11428467 -0.32354102
-0.524118 -0.1623565 -0.6730242 -0.13576426 0.012447295 0.5113661 -0.32142016 -0.42867377

gat_layers.0.att_src f4 [1, 4, 16]
00000000: dff9 023f 9b5c a4be 7cd4 5d3e c518 cdbe
00000010: 8d85 e23e 5507 8e3e 277d bdbc edfa 923d
00000020: ce77 f3be 88e1 a33e 473a 233e e4a9 d13e
00000030: ad8b febe e099 813e d31b 8bbe e78b 233e
00000040: 3d76 d3be 1eaa e23e 3352 d23e 224b f4bc
00000050: 1be9 d1be 0b4e a6bd 2bfe bb3e ce17 923e
00000060: 7576 703e 5ebb 353e 4cd1 b23e 9bbb d63d
00000070: 68b2 bc3e 0810 ef3e e0ad e7bd 81ad e53e
00000080: e3d8 c23d 27a4 c23e 46f3 623d 3bf7 fbbe
00000090: 0a04 c2be 5dcc 00be b04f ddbe 2fa4 24bb
000000a0: 730d e1be 00fa 16bd edda b23e 160d 1bbd
000000b0: cd28 26be c5c6 8abe 4515 25be 43f0 95be
000000c0: 63db 933e 6af9 9d3d e4b7 9bbe 5061 14be
000000d0: 6ae2 843e 0b2e b63e 0db1 cabe 9727 ce3e
000000e0: 60af ac3d 95a6 0bbd 0aee 73be ed6c 4fbe
000000f0: 92a2 9d3e 2efb cd3e 926d ff3e cb72 25be
0.51162523 -0.32101902 0.21663088 -0.4005796 0.44242516 0.2773997 -0.023130966 0.071767665
-0.4755234 0.32008004 0.159402 0.4094993 -0.4971594 0.2531271 -0.27169666 0.15971337
-0.41301146 0.44270414 0.41078338 -0.029820982 -0.40998158 -0.08120354 0.36717352 0.28533787
0.23482688 0.17747256 0.34925306 0.10485002 0.36854863 0.46691918 -0.11312461 0.44858935
0.09514024 0.38015863 0.055407785 -0.4921206 -0.37893707 -0.12577958 -0.4322486 -0.0025122275
-0.43955573 -0.036859512 0.34932652 -0.037854277 -0.16226502 -0.27104774 -0.16121395 -0.29284868
0.28878316 0.077135876 -0.30413735 -0.14490247 0.2595399 0.35582003 -0.39588204 0.4026458
0.084318876 -0.034094412 -0.23821273 -0.20256396 0.30788094 0.40230697 0.49888283 -0.16157071

gat_layers.0.att_dst f4 [1, 4, 16]
00000000: 2ad3 db3d e3a4 2ebe 86a4 91be 42af 223d
00000010: b4a8 2dbd 45f5 093f 722d 88be c0f7 6cbe
00000020: 1ddf 02bf c252 913e 2153 4e3e 8f3c bc3c
00000030: 3af5 08bf 7303 ffbd 6126 023e a024 8abd
00000040: 64f2 01be d751 48be fe6a a83e 1603 eb3e
00000050: 630f 89bb 2e89 6dbe 8fcf 27be 65bd a2be
00000060: 8a95 a9be 2600 b3be a4b0 e23e 4419 f1be
00000070: 44cd 6fbe e4c1 153e 5fe8 023e 45b0 eebd
00000080: 869a e43e 7eed a3be df26 9abe 4290 843e
00000090: b28e a8be 9937 003e 8653 ce3e 04e2 af3d
000000a0: bf83 c3be 5b63 a1be f419 de3e ffc6 0abf
000000b0: 5a95 003f c7b2 07be 7e04 11be e9f2 1dbc
000000c0: 1ecd fa3e 56ca d93e 49b3 ddbe dc10 bc3e
000000d0: ab86 e2bd 0a5a ce3e de23 babe 6cae fa3d
000000e0: ed1b 653e deb8 0f3e e627 e93d 7aa6 28be
000000f0: 8a8d b83d c873 4c3e 57d9 fe3e 1708 10bc
0.10733636 -0.17055087 -0.28445834 0.03971792 -0.042397216 0.53889877 -0.26597172 -0.23141384
-0.51121694 0.28383452 0.20148899 0.022978095 -0.53499186 -0.1245183 0.12709953 -0.06745267
-0.12690121 -0.1956247 0.3289413 0.45900792 -0.0041827424 -0.23196861 -0.16387771 -0.31785122
-0.33121902 -0.3496105 0.4427539 -0.4708959 -0.23418146 0.14624745 0.12783955 -0.116547145
0.44649142 -0.3201713 -0.3010778 0.2589131 -0.32921368 0.12521209 0.40298098 0.08588031
-0.38186452 -0.31521115 0.43379176 -0.54209894 0.5022789 -0.13251792 -0.1416187 -0.009640434
0.48984617 0.42537183 -0.43300846 0.36731613 -0.11060842 0.4030307 -0.3635549 0.122402996
0.22373934 0.14035365 0.11384563 -0.16469756 0.090113714 0.19966042 0.49775192 -0.008790991

gat_layers.0.att_edge f4 [1, 4, 16]
00000000: c14b 713e ac68 dbbe f605 e43e 9b13 033f
00000010: 454d d13e 737f f73d b58a 023e 9ae3 b5be
00000020: f40c 0abf a029 9b3d 2d88 313e 5713 cdbe
00000030: 2f80 91be fad4 483e 36fa fb3d ecfe b33d
00000040: 8964 88be d3e7 8b3e 1072 d93e dac3 01bf
00000050: a534 eb3e 383f 99be 4c5b 09bf 8ea3 c73e
00000060: 5160 04bf 4afa 41bc e9a7 033f dd32 bbbd
00000070: 18c3 f83d 5f5c 6b3e 2fec bcbe 4397 e8be
00000080: da31 d4be 940b ffbe 1147 643d 4f28 a83e
00000090: 545b 33be d45e a5be a0be 04be 36f9 6c3e
000000a0: cc32 05bf fe84 103e 1e1a 62be 1939 81be
000000b0: aced fa3e 81a5 72bd 4658 f63c 6d6a 59bd
000000c0: d1f4 e3bd f3c4 f7be 5b04 92be 75a4 9fbe
000000d0: e140 843d 5f75 8a3e dc57 d33e eff9 803e
000000e0: 9922 06bf 9c1a ac3e 490c 033f 98e7 f6be
000000f0: e154 ffbe 5963 f7be cfdc bebe 00e1 3ebd
0.23564054 -0.42853296 0.44535798 0.5120179 0.40879264 0.12084856 0.12748225 -0.3552521
-0.53926015 0.07576299 0.17337103 -0.40053818 -0.2841811 0.19612494 0.12303583 0.08788857
-0.26639202 0.27325305 0.42469835 -0.5068947 0.45938602 -0.29931045 -0.5365493 0.3899197
-0.5170947 -0.011839459 0.51428086 -0.09140561 0.12146586 0.22984456 -0.36898944 -0.45427904
-0.41444284 -0.4981352 0.055731837 0.32843253 -0.17515308 -0.3229891 -0.12963343 0.23141941
-0.52030635 0.14113232 -0.22080275 -0.25238875 0.49009454 -0.059239868 0.030071389 -0.05308001
-0.111306794 -0.48392448 -0.28518948 -0.31180158 0.06457687 0.27042672 0.4127797 0.25190684
-0.5239654 0.3361405 0.5119062 -0.48223567 -0.49869445 -0.48317984 -0.3727784 -0.046601295

gat_layers.0.bias f4 [64]
00000000: ce1d dbbb fb76 733b 203d e1bb 33a2 f0bb
00000010: 4136 c7bb 8bf7 0f3c c331 99bb a207 27bb
00000020: 07ba d2bb 71c3 9d3b a972 d1bb 4b6d f0bb
00000030: 0ffa ddbb 1f45 e9bb 4415 c4bb de1a c4bb
00000040: 5e17 033c 3cf2 393c 2006 e0bb 763b acbb
00000050: 3e5a efbb 826f 103b bf9c d9bb f64a 183c
00000060: 1744 c13b af4a a93b 56d6 eebb a202 edbb
00000070: f001 c4bb 4713 f2bb 1ba0 0f3c 748a 4cbb
00000080: 915f eb3b 136f c3bb 21be 00bb aead 293c
00000090: 2e48 bebb ce77 1f3c 3035 3e3b 7491 1c3c
000000a0: 4a06 c7bb 8ad2 273c b48c cabb 6221 f2bb
000000b0: 9707 debb 6a50 113c 0e56 adbb d4e2 edbb
000000c0: 373c f1bb cc84 d1bb 9ad9 cfbb 6c7f b9bb
000000d0: b184 d13b 6987 823a daeb 9cbb 6290 d1bb
000000e0: b700 bbbb cf7c bcbb 240c c6ba d81f d73b
000000f0: 413e ed3b c93e 9f3b 62b8 d3bb 2335 edbb
-0.0066869026 0.0037149775 -0.0068737417 -0.0073435544 -0.0060794656 0.008787046 -0.0046751215 -0.0025486727
-0.0064308676 0.004814558 -0.0063918424 -0.0073372475 -0.006774194 -0.0071188356 -0.0059839804 -0.005984648
0.008001177 0.011349257 -0.0068366677 -0.0052561117 -0.007304459 0.002203912 -0.006641 0.009295216
0.0058980095 0.0051663737 -0.0072887344 -0.00723298 -0.0059816763 -0.007387552 0.008766199 -0.0031210454
0.0071830233 -0.005964169 -0.0019644576 0.01035635 -0.0058069443 0.0097331535 0.0029023401 0.009556163
-0.0060737478 0.0102430675 -0.006181324 -0.0073892334 -0.006775807 0.00886927 -0.0052897995 -0.007259706
-0.0073619145 -0.0063940044 -0.006343079 -0.005660942 0.006393992 0.0009958568 -0.004788858 -0.0063953856
-0.0057068723 -0.005752183 -0.0015109819 0.0065650754 0.0072400873 0.0048597795 -0.006461189 -0.0072390004

gat_layers.0.lin.weight f4 [64, 64]
00000000: d18c 3d3b c206 c33c 5709 5e3d d78c 46be
00000010: bc49 d0bd 8781 a5bd bb9c 21be e461 373e
00000020: 8a3f 10bc 12f9 b6bd 8b76 64bd 8823 40be
00000030: 38fc 2ebe 1087 823c 217e 2fbd a254 3cbe
00000040: 1ecd ac3c ecdf 33be 70cf 30be 38a3 34be
00000050: 9dbc fe3d 0d4e 4bbb a89b 59be 3547 3bbe
00000060: 5849 dfbd 588d 43be be49 7d3c ee4d bcbd
00000070: de92 9a3d f047 083d 4acf aebd 1aa7 49bd
00000080: de2b 603e 39e7 42be 1677 553e b60d 4e3e
00000090: 6c49 1ebd 11fd 4e3e 4a03 ad3d 58f3 283e
000000a0: eb41 0b3e 8755 0d3e 3437 4bbd 8ab3 c63d
000000b0: bb58 4bbe 5915 54be b398 e93d 3601 40be
000000c0: dae2 bfbc 44fb fabc 9c06 5ebe fb87 4e3e
000000d0: acf7 b7bd b2c3 4cbe d6d6 26be d568 46be
000000e0: 89b0 bdbd 7ad9 783c 4efb 5bbe 7b08 e3bd
000000f0: 7faa 873d f18a 423d 48b9 71ba 7bee 50be
00000100: 2c6d e2bd acc4 213e a4b1 2bbc 8d74 98bd
00000110: 9399 773d 70c0 05be aa4c 133e ef0f 503e
00000120: 1cb5 083c 21b1 753d be32 50be f4d8 a43c
00000130: 7047 313c 8241 cfbd e908 053d e3d9 3abc
00000140: 9c2c 2fbe 3ee8 0c3e 1c16 44be abc8 0fbd
00000150: c080 a3bd d4c6 403d 25c5 d33d 2a63 e53d
00000160: 26aa 323e 1718 6fbd 9d15 373e 5f97 2dbe
00000170: f8b9 3bbe d59e efbb 71a0 573e be41 163c
00000180: 2de4 4f3e ce20 e3bb cfdd 5c3e 7687 d23d
00000190: 2494 72bd 42b9 1fbe 9cbc 883c 3c27 4ebd
000001a0: 862b 293e 3d9a 553d 3aba e73d e70d 113e
000001b0: 89a2 37be 0e81 1c3e b224 e83d 2765 e4bd
000001c0: 6611 59bd 4212 753d 98a3 063e 8955 55bd
000001d0: 80b3 453c 55cb 6dbd 6e7d c8bd b2bc 4d3e
000001e0: 0713 463e fdbb 36bd 8212 f4bd b716 263e
000001f0: 5073 073e 799d 42bd c0b1 f0bd 9204 14be
00000200: 84f8 7dbd e7e6 8ebd 284c bcbd 86cb 183e
00000210: 628f 193e 6cc4 5bbb d2e9 013e 900a e83d
00000220: 6108 59be 6742 833d ef73 4e3e a47c c43d
00000230: 2210 17be 44f3 c7bd a2be 003d 9325 d7bd
00000240: 6477 eabc a2c3 313e 94ab 4e3d 490c 1cbe
00000250: e0bc 03be 61ff d43d 1207 46be 2131 5a3e
00000260: 2934 46be 4e22 fe3d e4c2 603d 137b 05be
00000270: 52fa 1fbd 4f99 f13c 1ef5 3fbd 2737 f13d
00000280: c7d4 113e 44c9 44be 3133 4f3e 99f5 31be
00000290: 9d60 82bd 4829 823d c512 5f3e 7075 d7bd
000002a0: 2265 f03d fe93 21be 484c 303e 74e4 c03d
000002b0: e0ad 2abe 21de 733c 8d1b 403e c479 3d3e
000002c0: 45fa 553e 6a40 24be 09b8 2f3e a78f 4c3e
000002d0: da39 b1bd 6b3d c73c 800a e9bd 1157 79bd
000002e0: 03bd f33d d8d1 bc3d d210 1f3e fe2c 913d
000002f0: c256 56be 5b71 2cbe 4d85 40be 5999 183e
00000300: c993 f13c 1154 173d 555f 423e 7312 44bd
00000310: 276c 273e c608 88bd 66b3 d53d ba09 1cbe
00000320: ec06 ed3d 9333 04be e09f 213e 60cc 3abe
00000330: 14f0 36be 32e8 d33d 3320 49be 0eb7 3a3e
00000340: 70aa 093e 63c1 31be 6af5 f8bd 49e7 b33d
00000350: d021 1a3e 07bf 613e aca9 cb3d d87b 4f3e
00000360: 94af e5bd 92a0 bd3c dfa3 923c b20e 2c3e
00000370: b860 dfbd 5387 4d3e 9275 37be 0f3d f73d
00000380: 9f49 fdbd c330 d43d 03b6 243d 06bb 99bb
00000390: 74d6 c63d 4bfd 773c 7b69 4c3e a604 d5bd
000003a0: 3360 533e 01fa 51bd 6bea 243e 036a 80bd
000003b0: ceb2 d93c b680 19bd d509 93bd 7df1 db3d
000003c0: cebd 9a3c 65be 523d 2556 92bd 1cb3 293e
000003d0: 80b6 5dbe e1be 6bbd 2c23 fcbd ce28 b33d
000003e0: 54d5 8bbd de29 bd3c 2e8a 1dbd 0345 04be
000003f0: f66b 49bd da80 bf3d d0ca 59b9 0609 43be
0.0028923044 0.023806933 0.054208126 -0.19389664 -0.10170314 -0.08081346 -0.15782444 0.17908436
-0.008804211 -0.08934225 -0.055777114 -0.18763554 -0.17088401 0.015933543 -0.042844895 -0.1839166
0.021093901 -0.17565888 -0.17266631 -0.17640388 0.12438319 -0.0031021864 -0.21250784 -0.18288882
-0.10902661 -0.19096887 0.015459476 -0.091945514 0.07547544 0.03327173 -0.08535631 -0.049231626
0.21891734 -0.19033517 0.20846209 0.20122418 -0.03864424 0.20213725 0.08447893 0.16499078
0.13599364 0.13802157 -0.049613193 0.09702213 -0.19858067 -0.20711268 0.11406078 -0.18750462
-0.023423601 -0.03063739 -0.21682209 0.2016906 -0.089827865 -0.19996527 -0.16292891 -0.19375928
-0.09262187 0.015188569 -0.21482584 -0.11085602 0.066243164 0.047495786 -0.00092210295 -0.20403473
-0.11055979 0.1579768 -0.010479365 -0.07444105 0.060449194 -0.1306169 0.14384714 0.20318578
0.008343961 0.059983376 -0.20331857 0.020122983 0.010820255 -0.101199165 0.0324792 -0.011404487
-0.17106861 0.13760468 -0.19149059 -0.03510348 -0.079835415 0.047064617 0.10340337 0.11200555
0.17447719 -0.058372583 0.17879339 -0.16952275 -0.1833266 -0.0073126354 0.21057297 0.009170948
0.20301886 -0.006931401 0.21568988 0.102797434 -0.05922331 -0.15598014 0.016691498 -0.050330386
0.16520509 0.052149046 0.11314817 0.1416546 -0.17933096 0.15283605 0.11335124 -0.11152106
-0.052995108 0.059831865 0.13148344 -0.052083526 0.012066722 -0.05805524 -0.09789549 0.20091513
0.19343196 -0.044612873 -0.119175926 0.16219603 0.13227582 -0.04751346 -0.11752653 -0.14454868
-0.06200458 -0.06977635 -0.09194213 0.14921388 0.14996102 -0.0033533825 0.12686852 0.1133014
-0.21194603 0.064091496 0.20161413 0.09594086 -0.14752248 -0.09763196 0.0314318 -0.105052136
-0.028621383 0.17359784 0.0504566 -0.15239061 -0.12865019 0.10400272 -0.19338635 0.21307804
-0.19355835 0.12408887 0.054873362 -0.1303523 -0.039057083 0.029492049 -0.04686462 0.117780976
0.14241324 -0.19217402 0.20234372 -0.17378844 -0.06366084 0.0635553 0.21784504 -0.10520446
0.117380396 -0.15779111 0.17216599 0.09418574 -0.1666789 0.014884503 0.1876051 0.18503481
0.20896251 -0.16040197 0.17160048 0.19976674 -0.086536124 0.024321279 -0.11378956 -0.06087405
0.119012855 0.09219712 0.1553376 0.0708866 -0.20931533 -0.16840117 -0.1880085 0.14902247
0.029489415 0.036945406 0.18981679 -0.047869157 0.1634985 -0.066422984 0.10434608 -0.15238085
0.11573586 -0.12910299 0.15783644 -0.18242025 -0.1786502 0.10347022 -0.1964119 0.18233892
0.13443923 -0.17358927 -0.12156184 0.087843485 0.15051961 0.22045527 0.09944472 0.20262086
-0.112151295 0.023147855 0.017900405 0.16802481 -0.109071195 0.20071153 -0.17915943 0.12072193
-0.12367558 0.10360863 0.040212642 -0.0046914844 0.097088724 0.015136073 0.19962113 -0.10401277
0.20642166 -0.051263813 0.16105048 -0.0627022 0.026574519 -0.037476264 -0.0717961 0.107394196
0.018889334 0.051451106 -0.07145337 0.16572231 -0.2165165 -0.057555083 -0.12311396 0.08748017
-0.068277985 0.023091253 -0.038461857 -0.12916951 -0.049175225 0.09350748 -0.00020770286 -0.19046411

gat_layers.0.lin_edge.weight f4 [64, 64]
00000000: 7bd0 8fbd fe00 4f3e a24b 09bd 21a5 dbbd
00000010: ec9d c73d 3441 c2bc 77a6 edbd 0263 af3d
00000020: db46 3d3e e6ed 8a3c 97d5 20bd 9dcc 6cbd
00000030: 87fd 48bd 9c0b 8ebd 9d25 053d 4796 543d
00000040: 4210 0cbd 3ff7 e63d a79b dfbd 70e6 e33d
00000050: 1dde 473e 7413 4c3e 6232 fd3d 5e80 353d
00000060: d026 ee39 b91e 043e 33cb 05be 6b85 49bc
00000070: 5b00 093d 75fd 1e3e 0527 563d 9b74 ba3d
00000080: 7213 3ebe 445d 8dbb 252b 413e c730 cfbd
00000090: 7043 6f3d 36d8 003c e91e babd 1e2a d3bd
000000a0: 6163 36bd 46e5 34be 120e 42be f63f c8bd
000000b0: 3fc3 303e d22a 103e 0def 79bb 320c 7dbd
000000c0: 91a1 ffbd 9b54 cc3d a38f debd f09b 32bd
000000d0: 0000 893d 4fb4 d33c be7c 60bd 5fd3 fe3d
000000e0: 2b9b 3abc dd82 183e 2649 4c3e 1a21 1ebe
000000f0: 8dd3 24be 1fff 343e a951 873d cc20 e13d
00000100: 4fca 873d a492 2ebe d983 45bc d3ce 3bbe
00000110: b063 50be 720c 1bbd b780 353e 9321 04be
00000120: 1ca9 c2bc 44d2 57be 99b6 103e b6ca 80bb
00000130: ab50 a13d b663 4bbe 7293 403e 8cb0 143c
00000140: 0ba3 1abe 5c24 c93d e7c6 233e 4ec4 2c3e
00000150: d700 13be 3882 25be af85 4bbe 5241 00be
00000160: 99b3 33be d1dc bbbd ee66 febc aa5a 303e
00000170: a279 09be 2a1d a43d ed0d d63d d292 d4bd
00000180: a9f9 4c3e eb75 283e 73e8 0b3e 7061 b2bd
00000190: a0bf c63d ecfd 18be 0de6 3f3e 4ef5 de3d
000001a0: 40fd 343d c28b 343e 4a26 853d ce80 e63d
000001b0: 5bf7 d0bd c532 41be fb38 c73d 92c3 053e
000001c0: e8b6 90bd f95f 15bd 6686 593e d561 f4bb
000001d0: b7c5 8fbc b715 0e3e 13c3 26be 94ad 1ebe
000001e0: 5fe2 5abd 4f3b 403d 202a 013e e5ce 40be
000001f0: 3273 b8bd 8346 e43d 618b 06be 9992 233e
00000200: bc2b f2bd 565f d3bd 52d0 413e c392 07be
00000210: 90e4 9fbd 7544 3b3d 66c2 91bd da31 1dbe
00000220: d5ea 983d eb05 363e d0a7 8c3d 1970 363e
00000230: 9507 00be 2b22 103e a16d ac3d 0395 bebd
00000240: a689 c83d 50de abbc cebf e2bc 5014 01be
00000250: 77c8 86bd 630d 1bbe f6ea 4f3d 9044 45bd
00000260: 64eb ad3d 0cd1 e03d 395d 5f3d 1e3d cdbd
00000270: 8232 48bd a3a3 25be 42e1 9a3d 6f23 243e
00000280: d246 bd3c f5db e13c fc81 81bd a345 4dbe
00000290: 2186 e5bb e017 093e 765e 1ebd 9369 60bc
000002a0: dd93 eebd 2a90 dc3d f140 433e a1fc 283e
000002b0: 38dd e9b9 a93e f5bc 9b6f fd3d c10e 33be
000002c0: acdc 2abe 2358 1d3e 4665 17be d6fc 813c
000002d0: 964a e83c 516e ebbd 4d82 5abe a1e2 cdbc
000002e0: 0c9d 2cbe 61d0 e43c 7fa9 243e 4673 183e
000002f0: ce0f b63d 29f5 adbc 07ec 083e 63e2 9ebd
00000300: 6a2e 23bd d5a2 613c 7ccc 9dbb 36c7 29be
00000310: 382c c33d 3660 46be 40f8 c0bc 6db3 02be
00000320: b377 983d 5334 d63d 1a54 1bbe 4a0e 58be
00000330: cd27 60bc 62e8 b6bc 6bab 06bd 4eb1 d5bd
00000340: a2da c2bc 5a3c d2bd 83e1 183e a989 033e
00000350: b71e 3abe 642b 3d3e 8fb3 febd 777d 873c
00000360: ae56 253e 4ec0 3d3e a22b 023e 3d4a 95bd
00000370: e374 b43c 79e7 03be dc9f 183d c45a 6ebd
00000380: 3271 1a3e 5157 85bd 15ca 343e c097 10bb
00000390: a8ee 9fbd 2a54 563e 7030 fabc a997 3ebe
000003a0: 5eec 83bc c82d f53d 1344 febd 4b9c bbbd
000003b0: 742c 35be 20f7 b9bd 9900 b6bc 41e6 2d3e
000003c0: 3d90 a8bd f755 f13d dc80 f23c 9afc 43be
000003d0: 1eb1 35be 4604 a1bc bf15 e4bc 3029 f8bd
000003e0: e99e 13be 4ae6 7bbd 783d bdbd 6054 26bd
000003f0: 9906 1abe 2897 013e e83c ec3b 9cb3 4cbe
-0.07022186 0.20215222 -0.033519395 -0.10724855 0.09746918 -0.023712732 -0.11604016 0.08563806
0.1848406 0.016959142 -0.039266195 -0.057812322 -0.049069908 -0.06935808 0.032506574 0.05190113
-0.034195192 0.11277627 -0.1091836 0.11127937 0.19518323 0.19929296 0.123631254 0.044311874
0.00045423815 0.12902345 -0.13065796 -0.012299876 0.033447605 0.15526374 0.052283306 0.09104272
-0.18562105 -0.0043140966 0.18864115 -0.101167254 0.058413923 0.007864049 -0.09087927 -0.103107676
-0.04452837 -0.17665586 -0.1895068 -0.097778246 0.1726198 0.14078835 -0.003813687 -0.06177921
-0.12481988 0.09977075 -0.1086724 -0.043605745 0.06689453 0.025842814 -0.054806463 0.124426596
-0.011389534 0.1489367 0.19949779 -0.15442315 -0.16096325 0.17675446 0.06607372 0.10992584
0.06630384 -0.17048126 -0.012055361 -0.18340616 -0.20350528 -0.037853666 0.17724882 -0.12903433
-0.023762278 -0.21076304 0.14132155 -0.003930415 0.07876714 -0.19862255 0.18806246 0.009075295
-0.15101258 0.09821388 0.15993844 0.1687176 -0.14355789 -0.16162956 -0.19875215 -0.12524918
-0.1754898 -0.09172977 -0.03105494 0.17222086 -0.13425305 0.08013375 0.10451875 -0.10379566
0.20017113 0.16451232 0.13662891 -0.08709991 0.09704518 -0.14940614 0.18740101 0.10886632
0.04418683 0.17631438 0.06501444 0.11255036 -0.10203429 -0.18867023 0.09727665 0.13062885
-0.070661366 -0.03646848 0.21242675 -0.0074579515 -0.017550332 0.13875471 -0.16285352 -0.15495902
-0.05343854 0.04693156 0.12613726 -0.18828924 -0.09006347 0.111462615 -0.13139106 0.15973891
-0.11824748 -0.10320918 0.18927124 -0.13239579 -0.07807267 0.045719583 -0.07117157 -0.15351048
0.07466666 0.17775695 0.06867945 0.178162 -0.12502892 0.14075534 0.084193476 -0.093057655
0.09791879 -0.02098003 -0.02767935 -0.12605405 -0.065812044 -0.15141825 0.050761186 -0.04816109
0.08492163 0.109773725 0.054532263 -0.10021423 -0.048876293 -0.16175704 0.07562496 0.16029142
0.023105059 0.027570704 -0.06323621 -0.20046096 -0.007004515 0.13388014 -0.038664304 -0.013697046
-0.116492964 0.107696846 0.19067742 0.1650262 -0.00044606044 -0.029937105 0.12374803 -0.17486097
-0.16685742 0.15365653 -0.14784727 0.015867632 0.028355878 -0.114956506 -0.21338768 -0.02513248
-0.16856784 0.027931394 0.16080283 0.14887723 0.08889733 -0.021235066 0.13371287 -0.077580236
-0.039839186 0.013771732 -0.004815636 -0.16579899 0.095299184 -0.19372639 -0.023555875 -0.12763758
0.07444706 0.10459199 -0.15168801 -0.21099201 -0.013681364 -0.022327606 -0.03287832 -0.10434209
-0.023785893 -0.102654174 0.14929776 0.12845482 -0.1817578 0.18473583 -0.12436592 0.016539318
0.16146347 0.1853039 0.12711957 -0.072895505 0.022028392 -0.12881269 0.03726183 -0.05819203
0.15082243 -0.06510795 0.17655213 -0.0022063106 -0.07809192 0.20930544 -0.030540675 -0.18612541
-0.01610392 0.11971623 -0.12415328 -0.0916067 -0.17692739 -0.090803385 -0.022217082 0.16982366
-0.08230636 0.117839746 0.02960246 -0.19139329 -0.17743346 -0.019655358 -0.0278424 -0.12117231
-0.14416088 -0.061498918 -0.0924024 -0.04060781 -0.1504158 0.12655318 0.007209409 -0.1999039

gat_layers.1.att_src f4 [1, 4, 16]
00000000: e3e9 c2bd d7c6 ebbd e483 b83e 2d4e 94be
00000010: 2ffe d53e 312e 093f dff5 de3e 4fad 293e
00000020: ce38 53bd f153 a83e 9dc0 243e ae19 bd3e
00000030: bbd0 533e 0067 24be ebe7 83be 21d6 d0be
00000040: 92ca f53e 24b2 34be 7441 823e 5ae1 ee3e
00000050: 5160 5a3e d280 4abe 2d38 20be 4b37 063d
00000060: 75f4 da3e 18b9 353d e6ef 0a3f da7f 073f
00000070: 0020 d83b e659 8cbe 663e b23d 9937 d43e
00000080: a394 f93d 2872 013f da7a 5c3e 493c d93d
00000090: cfef acbe 553b 68bd f38f c73b cebc a5be
000000a0: 495d b13e 24ee 5d3d e836 113c 6472 d6be
000000b0: 854f d93e e00b a43e 24c6 87be 0c11 b23e
000000c0: 1878 d4be 4fa2 593e 424a bbbe 72fa 2dbb
000000d0: 5e7d 053f 3089 81be 51c7 e13e a79e 6abe
000000e0: cde2 e0be f92a 753e abbb 11be b348 92bd
000000f0: 1314 d2be fce3 083f 1bc8 64be c519 843e
-0.095172666 -0.11512535 0.36038125 -0.28965893 0.4179549 0.5358611 0.4354696 0.16570018
-0.051567845 0.32876542 0.16089101 0.36933655 0.20685093 -0.16054916 -0.25762877 -0.40788367
0.4800611 -0.1764608 0.25440562 0.46656305 0.21325804 -0.19775704 -0.1564643 0.032767575
0.4276463 0.044365972 0.54272306 0.5292946 0.0065956116 -0.27412337 0.08703308 0.41448668
0.12186553 0.50564814 0.21531239 0.106072016 -0.3377671 -0.05669721 0.006090158 -0.3237061
0.34641483 0.054182187 0.008863188 -0.41884148 0.4244348 0.3204031 -0.26518357 0.3477863
-0.41497874 0.21253322 -0.36580092 -0.0026546982 0.5214442 -0.25299978 0.4409738 -0.22912084
-0.43923035 0.23942174 -0.14231746 -0.071427725 -0.4103094 0.53472877 -0.22341959 0.2580091

gat_layers.1.att_dst f4 [1, 4, 16]
00000000: 0ade 11be a02c 7dbd 4e3d a4be 4fa4 b5be
00000010: ccc0 09be a0fd 643e a098 f5be 8288 abbe
00000020: 87f4 96be 6956 f8be 005d 9e3e b8e9 433e
00000030: 794a f3be 2056 8ebe 4658 4e3e 7259 5d3d
00000040: 1857 fa3e 602d 8fbd dd5b 8bbe baef 933d
00000050: 14ff cbbe 76e0 3a3d bbb6 da3e 1d0a f2be
00000060: 979f c33e b8bb 6c3e 30cb c33d 4b91 ccbe
00000070: 3b4a 62be 2012 6e3e 44a6 0bbf b5a6 ddbe
00000080: ee8c f03e 75da a13e 12ae 1ebe ea17 c53e
00000090: 8ac9 a5be f089 8bbe 81e1 5bbe 118c f1be
000000a0: 0302 ce3e b4c0 ab3c 24f5 583e 13e8 d13e
000000b0: 3238 8c3e 0922 b3be 3056 653e 167a c1be
000000c0: 371e c8bd b3b5 ff3b 80c7 9dbe 0902 df3e
000000d0: 0631 ef3c 7ea3 f13e 4761 f53d aaea e13e
000000e0: 68f4 f8bb 8a55 eebe f86d b6be a9bb 233e
000000f0: 37dc a8be cd93 e53e 6643 d23d 1c78 48be
-0.14244857 -0.061810136 -0.32078022 -0.3547692 -0.13452452 0.22362375 -0.47968006 -0.33502585
-0.29483435 -0.48503426 0.30930328 0.19132125 -0.47517756 -0.27800083 0.20150861 0.05404038
0.48894572 -0.069910765 -0.27218524 0.072234586 -0.39843047 0.04562422 0.42717537 -0.4727334
0.38207695 0.23118484 0.09560239 -0.399546 -0.22098629 0.23249102 -0.54550576 -0.4329125
0.4698252 0.31611982 -0.1549609 0.38494807 -0.32380325 -0.27253675 -0.21472742 -0.47177175
0.4023591 0.020965911 0.21187264 0.4099737 0.27386624 -0.34986904 0.22396159 -0.37788457
-0.09771388 0.0078036427 -0.3081627 0.4355624 0.02919818 0.47195047 0.11981445 0.44124347
-0.007597495 -0.46549636 -0.35630774 0.15989555 -0.3298051 0.44839326 0.102667615 -0.19577068

gat_layers.1.att_edge f4 [1, 4, 16]
00000000: 6c90 9f3e a96d e5be d3a6 d13d 4164 5c3e
00000010: f7bb 8c3e 2d87 fb3e 608d d3be 0e16 bd3d
00000020: 737b 33be c51d f8be 8833 033f 550c 88be
00000030: c615 ae3e 08b1 0abf 26c5 95be 0fb5 563e
00000040: af21 4c3e 5fb4 efbe 535c dcbe 8216 fd3e
00000050: 05a4 9e3e 00c3 a13e f560 ea3e 206e d2be
00000060: 1267 d23e a82b 10be 1aa3 d83e 2fec 99be
00000070: 7a75 853d 2c85 8c3d ab61 073d 6118 d73d
00000080: 3c00 283e 09c5 5bbe 93aa b03e caa8 f13e
00000090: de35 f7be b418 033f 0001 4fbc 7e55 d93e
000000a0: f035 bfbe 181d 57be 6d77 913e 20c1 2b3e
000000b0: f770 0ebd 8d24 96be 83d2 e1be 0f8c 98be
000000c0: 0e32 e4be 3415 cebd cc5c 873e 404c f1be
000000d0: fc0c 013e ae77 dcbe fe8a 0b3e 6308 713d
000000e0: 2ba4 833e 3c00 6b3e 98c3 523e b1b6 3abe
000000f0: b9d7 e63e acbd 8fbe e6c4 acbe 2550 dfbd
0.31164873 -0.44810227 0.10236897 0.21522619 0.27487156 0.49126568 -0.41318798 0.09232722
-0.17527561 -0.48460212 0.51250505 -0.2657191 0.34000987 -0.5417638 -0.29251975 0.20967506
0.19934724 -0.468173 -0.43039188 0.49431235 0.30984512 0.31594086 0.45777097 -0.41099644
0.4109426 -0.14079154 0.42311937 -0.30063006 0.065165475 0.06861338 0.033052128 0.10502697
0.1640634 -0.21461882 0.34505138 0.47199088 -0.48283285 0.5120957 -0.012634516 0.42448038
-0.3734584 -0.21007192 0.28411427 0.1677289 -0.0347757 -0.2932476 -0.4410592 -0.29794356
-0.4456944 -0.10062638 0.26437986 -0.47128487 0.1260261 -0.43060058 0.1362724 0.05884589
0.25711188 0.22949308 0.20582426 -0.18233754 0.45086458 -0.28074396 -0.33743972 -0.10903958

gat_layers.1.bias f4 [64]
00000000: c41d ccbb 06e8 f2bb 3984 d4bb 4f83 f9bb
00000010: 3df8 c6bb 3ab9 0d3c 64a2 c7bb b3c3 f8bb
00000020: ce0a fbbb 90f1 e13b ac73 f9bb 154a f8bb
00000030: 143c f8bb bed9 f8bb 569f f8bb 5751 f9bb
00000040: ee04 143c efdf 3c3c 58cd f6bb e3ba f8bb
00000050: 543e e1bb 2adc 5039 2fca f9bb 907e f8bb
00000060: e9e2 d23b 5437 f9bb 1f86 f9bb 180d f9bb
00000070: d19c f9bb 4e9e f5bb 142d 293c 22ba 01bb
00000080: eb5e 263c f430 c5bb 3f88 f8bb ca05 f8bb
00000090: 8b74 dbbb 2f02 2b3c 3d66 f9bb 77f1 1b3c
000000a0: 4e4b cebb 1bdd 293c c412 f9bb 4a4b e9bb
000000b0: 1834 f9bb 5862 153c 951b fabb 5557 f8bb
000000c0: 2c8f edbb a2d1 f8bb c021 f9bb 2d76 ecbb
000000d0: e9bf f8bb 0ccb 0a3b a6a8 f9bb fa30 f9bb
000000e0: 230b fbbb 8f60 f8bb 2459 15bb 9d6f f8bb
000000f0: 2638 023c be18 a53b be75 f3bb 186d d5ba
-0.0062291343 -0.0074129133 -0.0064854887 -0.00761453 -0.006072073 0.0086501185 -0.0060923565 -0.0075916885
-0.0076612 0.0068952516 -0.007612666 -0.0075771906 -0.0075755212 -0.0075943163 -0.0075873537 -0.0076085734
0.009034378 0.011527999 -0.007531803 -0.007590638 -0.006873885 0.00019918443 -0.007622979 -0.007583447
0.006435741 -0.0076054726 -0.0076148654 -0.007600438 -0.007617571 -0.007495678 0.010325689 -0.0019794782
0.010154466 -0.0060177986 -0.007584601 -0.0075690495 -0.0066972426 0.010437532 -0.0076110647 0.009518019
-0.006295598 0.010367657 -0.007601114 -0.007119571 -0.007605087 0.009117685 -0.0076326826 -0.00757877
-0.0072497334 -0.0075933496 -0.0076029003 -0.007216236 -0.007591237 0.0021178154 -0.0076189814 -0.0076047154
-0.0076612397 -0.00757987 -0.0022788728 -0.0075816647 0.007947957 0.00503835 -0.0074298074 -0.0016283123

gat_layers.1.lin.weight f4 [64, 64]
00000000: 6248 6f3d fb4f 52be ebb0 123e fbde 9b3d
00000010: 6a84 42be 991c b33d 4531 be3d 268d 503d
00000020: 9c59 5ebd 08f1 41be f6eb e1bd c96c b8bb
00000030: 0be6 e9bd d7aa 223e d493 debd fd46 12be
00000040: 616f 513e 0d34 e53d 88ac e7bd 57f3 0b3c
00000050: a8d8 babd 79e0 32be ab44 98bd 3a2c ba3d
00000060: 69bb 433d ce8c 32bd cc8c 2bbe d20a 413e
00000070: e15e f03d 56a9 5b3e cf65 543d 3ca0 263e
00000080: bd15 403d 37b8 fc3a ffe9 23bd 0ced 803d
00000090: d68b fb3d e7ec 923d 115c 09bd 1d9a 453e
000000a0: e793 663d 953a c0bd bb2d 193e 914b a83d
000000b0: 90b5 b73d 4804 5cbe 30f5 11be 3eaa 323c
000000c0: 469c 103e 0490 053e 1fb6 973c 9324 05be
000000d0: 626c 5bbe 9235 3b3e c6a0 16be 52a5 893d
000000e0: b1af 97bd 5dfc 443e c791 9c3b cf98 3d3d
000000f0: d6e6 163e c07c 3f3e a3ab 08be 9427 983d
00000100: 1c85 13be 0070 9a3c ebd4 403d 43c1 54bc
00000110: 19ab 273b 8815 3cbe b37f 4b3e 6589 bd3c
00000120: 8983 ce3d a5e2 403c fe6d 50be 0621 ce3c
00000130: a6bb 5e3e f6ef 04be c03d bebd 3b6c 56be
00000140: 69d5 d93d f284 babd 29e5 ca3d b68b 0dbe
00000150: 5879 8d3d 699d 1ebd 001b 96bd ebde 0ebe
00000160: cfdf 59be a821 ab3b 8b4d c2bd 0306 abbd
00000170: d324 c03d fd94 28be 9e38 913d 63c8 433e
00000180: 39f3 08be 831e 813d 974d e13d 8845 493d
00000190: c442 493e a896 373e 80d6 a03d 995e 23be
000001a0: 945c 38be d103 4fbe 2ca9 e9bd 717c 9c3d
000001b0: 8366 d03b a870 3c3e de16 00be d1e7 b2bc
000001c0: 41be 863c 47ee e23c d424 82bd 8879 cfbc
000001d0: ddc8 00be b9eb 383e 656e 08bd 23ca 1e3e
000001e0: 5f0b 59be 71d0 6c3d b4ab 0a3d 2495 203d
000001f0: 3724 263e a9d3 55be cfe1 aabd dda3 4cbd
00000200: 6e7f eebc 2a9f ed3d 1452 13be ab60 813d
00000210: 7217 3abd 456e 2dbe bef7 2dbe cc7e b43d
00000220: 0f9f b83d 1265 3dbe 7e41 5b3e 5fa0 003e
00000230: 6045 3bbe 133f 3e3e 0aa9 ccbd 7984 fa3d
00000240: 08fd e0ba 6a3a 08be d6c7 4fbe 9214 c9bd
00000250: 1dd2 5dbe 6220 c83d c7e1 3abd 9056 5ebd
00000260: 15d3 bd3d 455e eabd 0544 ae3c 5a04 6dbd
00000270: b75c 633d 86b5 02bd abd5 8bbd 037b 81bd
00000280: dddb f2bd 5716 23bd 67e6 2cbe 1ad3 d4bc
00000290: 45f7 043e bebb 583d 19ff 553e fd3b cfbd
000002a0: 80cc ee3d 2112 4e3e 888b 3bbe 055f 8bbc
000002b0: 0db8 9f3d 52c9 2e3d b50b 9b3c fa79 30bc
000002c0: bca7 dcbd af5c 92bc 596c df3d 53ba 023d
000002d0: 9f83 083e 9a8e 53be a11b 313c 5a95 16be
000002e0: cf55 38be f360 583e 0041 bd3d fee6 eabd
000002f0: 22ab 78bd 8801 29bd d6f6 24be bcef 6f3d
00000300: 9e10 48be 27d2 cebc 6f9f 18be 4b6a 17bd
00000310: 09db 9a3d f637 32be f978 cdbd 64e5 ffbb
00000320: 789e 4fbe db17 e3bc 7d29 4e3e d1df c3bd
00000330: 5fd4 97bc 4d71 ec3d 053d 913d b52a 48be
00000340: d947 2e3e 5195 4a3e a3bc 5e3d 7ee0 2a3e
00000350: 8aa6 9fbd 710b 1e3e 674a f7bd 53de 4fbe
00000360: 98c3 c9bd 2da3 393e a84a dcbd 0e9f 07bd
00000370: 17e2 1a3e c209 0cbe 3553 48bd e63f cd3d
00000380: a3f6 9ebd 8e34 a7bd a2c0 1e3e 7223 f93d
00000390: 801d debd 8499 a93c db8d 7e3c 0ad6 6cbd
000003a0: c981 b3bc e202 473e 5e02 2abd a5ae 63be
000003b0: 2f8b 2ebe 87a2 2f3e 7119 083d b0ce 163e
000003c0: 05c4 b6bd 1795 a0bd 7100 dd3d 3095 a2bd
000003d0: 6059 3d3e bb05 a53b a93a 0b3e 81da 0f3e
000003e0: fe54 09be 5b15 6a3d d935 15be 3395 98bc
000003f0: f888 2bbd f917 14bd cb85 9a3d 56a0 133e
0.05841864 -0.20538323 0.14325301 0.076108895 -0.18995824 0.08745689 0.09286741 0.05091586
-0.054284677 -0.18939602 -0.11031334 -0.0056282026 -0.1142083 0.15885483 -0.1086804 -0.14284892
0.20452644 0.111915685 -0.113122046 0.008541903 -0.09123355 -0.17468442 -0.074349724 0.09090467
0.04778615 -0.043591313 -0.16752928 0.18851784 0.11736847 0.21451315 0.051854905 0.16272062
0.04689573 0.0019280975 -0.040018078 0.06295213 0.12282531 0.07174092 -0.033535067 0.19297071
0.056293394 -0.09386174 0.14958851 0.08217538 0.08970177 -0.21486008 -0.14253688 0.010904847
0.14122114 0.13043219 0.01851946 -0.13002233 -0.21428064 0.18282154 -0.14709768 0.067209855
-0.07406557 0.19236894 0.00477812 0.046288308 0.14736494 0.18699932 -0.13346724 0.07429424
-0.14406246 0.018852234 0.047078054 -0.01298553 0.002558416 -0.18367589 0.19872932 0.023136804
0.10083682 0.011772786 -0.20354459 0.025162231 0.2175127 -0.12982163 -0.09289122 -0.20939724
0.10636408 -0.091073886 0.0990699 -0.13822827 0.0690791 -0.038724337 -0.073293686 -0.13952224
-0.21276782 0.005222518 -0.094874464 -0.08350756 0.09382024 -0.16463085 0.07090877 0.1911941
-0.13374032 0.06304648 0.11001127 0.049138576 0.19654375 0.17928565 0.07853413 -0.15954055
-0.18004066 -0.202163 -0.1140922 0.07640923 0.0063598766 0.1840235 -0.12508723 -0.021839054
0.016448142 0.02770151 -0.06354681 -0.025326505 -0.12576623 0.18058671 -0.033308405 0.15506797
-0.21195744 0.057815973 0.033855155 0.03920473 0.16224752 -0.20881523 -0.08343851 -0.04996096
-0.029113498 0.11602624 -0.14386779 0.06317266 -0.045432515 -0.16936596 -0.16989037 0.08813247
0.09014713 -0.18495587 0.21411702 0.12561177 -0.18288183 0.18578748 -0.09993179 0.122322984
-0.0017165253 -0.13303533 -0.20291075 -0.098183766 -0.21662183 0.097718015 -0.045625474 -0.05428177
0.09268776 -0.11443762 0.021272669 -0.057865478 0.05550834 -0.031911395 -0.06827863 -0.06322291
-0.11858342 -0.039816227 -0.16884767 -0.025979567 0.12984951 0.05291342 0.20898093 -0.10118864
0.11660099 0.20124103 -0.18314946 -0.017013082 0.07798777 0.042672463 0.01892648 -0.010771269
-0.1077418 -0.01786646 0.109093376 0.031915974 0.1333146 -0.20659867 0.01080981 -0.1470541
-0.18001483 0.21130733 0.092409134 -0.114698395 -0.06071008 -0.041261226 -0.16109785 0.058578238
-0.19537589 -0.025246693 -0.14904569 -0.036966603 0.07561309 -0.1740416 -0.10032839 -0.007809328
-0.20275295 -0.027721336 0.20133014 -0.09564174 -0.018533884 0.11545048 0.07091717 -0.19547541
0.17019595 0.19783522 0.054379117 0.166872 -0.07795437 0.15434052 -0.12074738 -0.20299654
-0.0985176 0.18128653 -0.10756427 -0.03311067 0.15125309 -0.13675597 -0.048907477 0.10021953
-0.07761886 -0.08164321 0.15503171 0.12164964 -0.108454704 0.020703085 0.015536751 -0.05782131
-0.021912472 0.19434693 -0.041506164 -0.2223459 -0.17045282 0.17151843 0.033227388 0.14727283
-0.089241065 -0.07840937 0.107911 -0.079386115 0.18491125 0.0050360835 0.13596596 0.14048196
-0.13411328 0.057149272 -0.14571323 -0.018625831 -0.04187867 -0.036155675 0.0754505 0.14416632

gat_layers.1.lin_edge.weight f4 [64, 64]
00000000: 37f8 4abe d329 053e 35f4 3b3d 4bd1 e7bd
00000010: 3318 95bd a709 13be 806c 8e3d 98a7 073e
00000020: 7ea4 bd3d ac60 013e eb53 2f3e d2ab 12bd
00000030: f4c9 4dbe d356 163e b2e4 d93c 315d 4c3e
00000040: 78bd 863d 8d15 ddbd 1dab 9a3c bbf2 b53d
00000050: 9f7a 5abe 2a7a 07bd 1297 ea3d 3f27 613d
00000060: 0c4f 79bd f8cf 5dbe 265b 183e 225d 2ebd
00000070: 916f b93d ca4b 63bd 8339 7b3d d6bc 41be
00000080: 5a7f 3a3e 5603 2b3e 53a3 533d 369f 8b3d
00000090: 8912 0d3e 9415 07be e7bc c13b 6e99 153d
000000a0: c3a2 0fbd 0e8a 4fbe e9fb 1a3e ef7d 0d3e
000000b0: 432e f2bc 4d4a 0b3e fbc7 2b3e c26e 85bc
000000c0: c78c bf3c e2a7 8e3d b9cd ef3d e49d bd3d
000000d0: e94a b23d 7f7c 113c e775 1abe 7a01 00be
000000e0: 7ebc d53b 3be6 503e f5fd 53be 7940 ef3d
000000f0: 32f7 2e3e 9f10 093e 6ae8 35be b9fe a43d
00000100: 948e 1cbe 3d34 a5bd 488a 5cbe eb1c 583d
00000110: 501a 7d3d 5fc3 80bc d5ad f2bd ac6a 443b
00000120: 2359 54be e73c 82bd fa6f 3e3e c3ef 68bd
00000130: 94ec 0ebd 9028 c2bd ee0e 40be 8776 893d
00000140: 28af 01be 0f9a 773c 4359 46bd 5b19 19bd
00000150: 07ed 843d a4bf 843d 3746 dc3d 4c77 573e
00000160: 6036 f5bd 1aab fc3c 77de 03bd cfb8 59be
00000170: 68cf 2dbe e710 9bbd a50d 7bbd 6d08 a8bd
00000180: 4c4a a53c 3741 013e 5422 923c 6ef7 91bd
00000190: b628 9abd 21a6 b0bd 896c 2b3c b2fb 353e
000001a0: 4111 463e c1c4 2c3e e3a5 70bd fa30 e3bd
000001b0: ea10 c63d 886a 463c 36b8 ea3b eddd b43d
000001c0: 7439 003e 328d 48be 7101 b5ba a40d 8bbd
000001d0: c151 8ebc df3d 153e c1d6 6fbd 51e1 03be
000001e0: 3902 1b3e 174a 13be 12ae dabc 7fa6 a53c
000001f0: f044 f63d db48 eb3d 7ca5 f03d 9f56 f73d
00000200: d5db 16be c7d4 73bd 999f b23c 9fc0 e23d
00000210: 0b1d 343e 3616 e93d fa09 413e 8d21 f6bd
00000220: 0912 d73c 7d10 ea3d 47a6 723d 6dc9 cd3d
00000230: 10f2 1dbe 290d 31be 8f8e 54be db0a 48be
00000240: a2a0 1ebe c288 ecbd 2424 593e e40b 31ba
00000250: d929 433e 74ed 403d 9d5e e1bc d5c4 de3d
00000260: 25ac b93d 017e 46bd 9257 3e3e 4cf2 14be
00000270: b408 d93d 6c6d 7f3d a913 d1bd b470 653d
00000280: 5b31 473e c696 44bd 0ec8 ec3c 1a8c 44be
00000290: 0533 063e ba6f 253e 4a7c 15bd 7fe8 4e3e
000002a0: 5949 ec3c 80df 403e 8e63 213d b3db 64bc
000002b0: b04a 1bbe 0a5d 943b eb18 5dbd 6948 513e
000002c0: 0662 533e dbf7 0cbe b14f 35be 76b3 21bc
000002d0: 778b 18bd 843f 30be 26cd 3ebe f380 413e
000002e0: 9d37 353e f666 423e c824 bfbd abb5 5dbc
000002f0: e091 583e 5c6e f33d 8b61 38be c41e 803d
00000300: b2b5 113e 1352 d3bc 7f57 22be 29eb 3dbc
00000310: d33f 243e 01d4 4c3d da5b debc 7184 45be
00000320: 9c19 8c3d d5c3 e3bd 861e d2bc b320 35bc
00000330: ee11 4ebe 9b62 b0bd 4263 de3b 569f 603d
00000340: 7255 0fbe 08ad f03c eb5d 363e 6a4a 1ebe
00000350: e8c3 303e d6a5 ce3d 5aef 513d 30ea f13d
00000360: 4e7d 173e eabc c2bc 809a 5d3e 3eb3 dcbd
00000370: 71fe f6bd 8ba5 3c3d f945 31bd dcef 06be
00000380: 4190 35be ef6e dc3d 86d0 543e 3844 2fbc
00000390: b4db f23d 8bf9 c3bd 4a39 fdbd f8b3 4d3e
000003a0: 9e77 9f3d b41e f5bd 502d 07bd 002b f53d
000003b0: 976a 22bd bd58 133d 85e5 a93d 0c0a 5d3d
000003c0: a0f3 0e3d 0ada 0a3e 6f3f 0f3e 743d 80bc
000003d0: e821 b93d a09a 3e3d 1de9 c3bd 4d50 6abd
000003e0: 3b11 f83c 5c2c 0bbe b060 3d3d 56c2 26be
000003f0: fdda 59be f048 9e3d 2765 5f3d ad7f 12be
-0.19821249 0.13004236 0.04588719 -0.11319216 -0.07280006 -0.14359151 0.069542885 0.13247526
0.0925989 0.12634534 0.17121856 -0.035808392 -0.2009657 0.14681558 0.026598308 0.19957425
0.06579107 -0.10795126 0.018880421 0.08884188 -0.21335839 -0.03307549 0.114545956 0.05496907
-0.0608664 -0.21661365 0.1487852 -0.042569287 0.09054483 -0.0554922 0.061334144 -0.18919691
0.18212643 0.16700491 0.05166943 0.068174765 0.13776602 -0.13191825 0.0059124115 0.036523275
-0.03506733 -0.20267507 0.15135159 0.13817571 -0.029563075 0.13602562 0.16775505 -0.016288165
0.023382558 0.06965615 0.1170916 0.09258631 0.08705694 0.00887978 -0.15084039 -0.12500563
0.006522714 0.20400326 -0.20702346 0.11682219 0.17086485 0.13385247 -0.1776444 0.08056397
-0.15288764 -0.08066604 -0.21537125 0.052761953 0.06179267 -0.01571816 -0.11849562 0.0029970808
-0.20737128 -0.063592725 0.18597403 -0.05686928 -0.034893587 -0.09480393 -0.18755695 0.067120604
-0.12664473 0.015112414 -0.04842497 -0.037377696 0.06490522 0.06481865 0.1075558 0.21041602
-0.11973262 0.030843306 -0.03219458 -0.21261905 -0.1697365 -0.07571583 -0.06129231 -0.08204732
0.02017703 0.12622534 0.017838635 -0.071272716 -0.07527296 -0.086254366 0.0104628885 0.17771795
0.1934252 0.1687193 -0.058751952 -0.11093326 0.09671195 0.01211036 0.007163073 0.088313915
0.12521917 -0.19585112 -0.0013809634 -0.06789711 -0.017372968 0.14574383 -0.058554415 -0.1287892
0.15137567 -0.14383732 -0.026694331 0.020220993 0.120248675 0.114885055 0.11750314 0.120770685
-0.14732297 -0.059529092 0.021804618 0.11071896 0.17589204 0.113811895 0.18851462 -0.12018118
0.026253717 0.11428926 0.059240606 0.100481845 -0.15424371 -0.17290176 -0.20757507 -0.19535391
-0.15490964 -0.11549522 0.21205193 -0.0006753786 0.19058932 0.047101453 -0.027510935 0.108773865
0.09066037 -0.04846001 0.18588093 -0.14545554 0.10597363 0.062360212 -0.10208828 0.056015685
0.19452421 -0.04799535 0.028903987 -0.1919407 0.131054 0.16155902 -0.036495484 0.20205878
0.028843569 0.18835258 0.039401583 -0.013968396 -0.1516521 0.0045276927 -0.05397884 0.20437779
0.20642862 -0.13766424 -0.17706181 -0.009869447 -0.03724238 -0.1721173 -0.18632945 0.18896846
0.17696996 0.18984589 -0.09333187 -0.013532083 0.21149397 0.11886284 -0.1800596 0.06255868
0.14229468 -0.025795972 -0.1585369 -0.011591711 0.16039972 0.05000687 -0.027143408 -0.19288804
0.06840822 -0.11121336 -0.02564932 -0.011055159 -0.20124027 -0.086125575 0.006786735 0.054839455
-0.13997439 0.029379383 0.17809264 -0.15458074 0.17262232 0.100902244 0.051253654 0.11812246
0.14793894 -0.023771722 0.21640968 -0.10776375 -0.120602496 0.04605631 -0.04327962 -0.13177437
-0.1773081 0.107633464 0.2078267 -0.010697417 0.11858311 -0.09569081 -0.12364443 0.20088184
0.07786487 -0.11968747 -0.033002198 0.11971092 -0.039652433 0.0359733 0.082957305 0.05396466
0.034900308 0.13559738 0.13989042 -0.015654303 0.0903967 0.04653418 -0.09565947 -0.057205487
0.030281654 -0.1359114 0.046234787 -0.16285071 -0.21274944 0.077287555 0.054539826 -0.14306517
