models/best_fraud_model_seed_3141.pth (torch, 378242 bytes, 45 tensors)

node_emb.weight f4 [64, 8]
0.2697932 -0.29556823 0.037151225 0.21688703 -0.3116653 0.022592833 0.3604041 0.36129552
-0.121097594 0.33081532 0.050653894 0.021138946 0.082356244 -0.29282597 -0.008791313 -0.09373634
-0.069142014 -0.011143678 0.05129681 0.07402091 -0.07156162 0.06496557 -0.11728259 -0.026414411
-0.024545494 0.2866358 0.20240067 -0.046882827 -0.2343768 -0.03504514 -0.29621482 -0.29386097
0.12756172 -0.18558587 0.34179944 -0.2987397 -0.02258267 -0.229745 -0.33574274 0.26767728
-0.23345372 0.2804887 -0.15235694 -0.07093874 -0.040856246 0.13822305 -0.2658351 0.2799497
-0.12097008 0.32725355 -0.22476068 0.25053433 0.04530684 -0.020790113 0.20356578 0.31250173
0.030464366 0.05672256 0.11334025 -0.139813 -0.06686477 0.3395339 -0.1779393 -0.23495607
-0.29135522 -0.116878204 0.24501711 -0.04880907 0.14874908 0.21546021 -0.18263327 0.29212183
-0.024586163 -0.013235583 -0.12853947 -0.26742652 0.027130207 -0.21886028 -0.0754571 0.23418355
0.028863119 -0.038822137 0.04179504 0.29723334 -0.004146009 -0.044064064 0.10510665 0.06934475
0.18627103 0.23285325 -0.055422306 0.0074422415 -0.18476225 -0.3331476 0.09222884 0.23610048
-0.027427966 0.3414053 -0.066392995 -0.29305395 -0.22859357 0.2476203 -0.19641742 0.2251832
-0.13010554 -0.29821685 -0.25928593 -0.34317857 -0.26909608 -0.330877 -0.17904893 0.2398741
-0.12455997 -0.037980877 0.33245096 0.12962227 0.22875799 -0.14335847 0.05145878 0.2943757
0.25680175 0.27778095 0.13591605 0.18875383 0.13122511 -0.34648433 0.2476043 0.26113883
-0.14645576 -0.21258636 -0.31026652 -0.19153748 -0.34273595 0.11727918 -0.153639 0.26232085
0.03684209 -0.1131017 0.3123407 -0.19635294 0.16933139 0.22953011 -0.14388154 0.30311117
0.16632682 0.051545907 0.17204732 -0.3509423 -0.24916154 -0.2565686 -0.12543929 -0.10015686
0.30888453 0.20784365 0.29425725 -0.15595038 -0.13547269 0.1915764 -0.24145092 -0.043842424
0.252973 0.13330485 -0.31714115 0.08709055 -0.16511957 0.17992719 0.18643172 -0.29390973
0.26162457 -0.32129556 -0.2102813 -0.20422 -0.24712282 0.34775087 -0.06510239 0.28613168
0.06715318 0.2008141 0.25200382 -0.022028353 0.15164731 -0.2533273 -0.28370866 -0.3323958
0.30429193 0.24535021 0.0030631535 -0.32926947 -0.23803705 0.09075209 -0.073726565 -0.081988014
-0.21197832 0.261407 -0.028385099 0.2818616 0.2451288 0.32186428 0.10433257 -0.11797728
0.15173927 -0.07381072 -0.02338205 0.11391797 -0.25594828 0.3502378 0.3294387 -0.33966327
0.10608448 -0.21469405 0.10054134 0.17140338 0.17422448 0.16496612 0.26910222 -0.305607
-0.025385214 0.29102316 -0.3114474 0.116040826 -0.3096789 -0.06264163 -0.11670894 -0.08315077
-0.17335054 0.08863823 0.31143156 0.03000912 0.35168916 -0.07864951 0.11348747 0.22466221
-0.13422163 0.0502889 0.0068732244 0.3451858 -0.315635 -0.11105489 -0.13321647 -0.13869117
-0.018957479 -0.21160313 0.03858174 -0.12544474 0.052177515 -0.2565504 0.24749987 0.052341614
0.22748597 0.10656491 0.02787102 0.09697641 0.12599178 -0.1157283 0.19928057 0.08896603
00000000: 5622 8a3e b854 97be e22b 183d a217 5e3e
00000010: 9892 9fbe 9b14 b93c e386 b83e bafb b83e
00000020: 0402 f8bd a060 a93e 757a 4f3d 952b ad3c
00000030: 64aa a83d 49ed 95be 7009 10bc d7f8 bfbd
00000040: 549a 8dbd f993 36bc 9b1c 523d 4698 973d
00000050: e68e 92bd ab0c 853d db31 f0bd 0963 d8bc
00000060: a213 c9bc edc1 923e 1f42 4f3e 3508 40bd
00000070: 7900 70be 7e8b 0fbd 78a9 97be f274 96be
00000080: 8a9f 023e 390a 3ebe 5600 af3e 69f4 98be
00000090: 4bff b8bc 4642 6bbe 79e6 abbe ff0c 893e
000000a0: 7e0e 6fbe 379c 8f3e 7503 1cbe 5548 91bd
000000b0: e158 27bd 588a 0d3e 8a1b 88be 9155 8f3e
000000c0: 29bf f7bd c78d a73e aa27 66be 0946 803e
000000d0: aa93 393d 0750 aabc 8c73 503e 3a00 a03e
000000e0: 6890 f93c ea55 683d ef1e e83d 242b 0fbe
000000f0: 66f0 88bd 63d7 ad3e b835 36be 5398 70be
00000100: 832c 95be d75d efbd c4e5 7a3e 05ec 47bd
00000110: ae51 183e 9aa1 5c3e 3704 3bbe fe90 953e
00000120: ec68 c9bc 0fda 58bc da9f 03be 21ec 88be
00000130: 2b40 de3c e91c 60be 4189 9abd d0cd 6f3e
00000140: 5972 ec3c f603 1fbd 4731 2b3d f82e 983e
00000150: 3fdb 87bb 857c 34bd 2842 d73d 9f04 8e3d
00000160: d5bd 3e3e 1571 6e3e 8002 63bd 0cde f33b
00000170: 5132 3dbe 5292 aabe 79e2 bc3d 53c4 713e
00000180: 9db0 e0bc adcc ae3e 0df9 87bd 2b0b 96be
00000190: 6f14 6abe 2d90 7d3e a621 49be 6d96 663e
000001a0: 633a 05be e1af 98be 20c1 84be 1ab5 afbe
000001b0: f6c6 89be b668 a9be 9a58 37be 8ea1 753e
000001c0: 4c19 ffbd d691 1bbd 0337 aa3e b3bb 043e
000001d0: 893f 6a3e 90cc 12be 71c6 523d 69b8 963e
000001e0: 857b 833e 4e39 8e3e 942d 0b3e af48 413e
000001f0: e05f 063e 6566 b1be fb8b 7d3e fdb3 853e
00000200: 80f8 15be 3db0 59be 41db 9ebe 6722 44be
00000210: 167b afbe 1130 f03d 8b53 1dbe eb4e 863e
00000220: bbe7 163d dda1 e7bd 1feb 9f3e bf10 49be
00000230: 3565 2d3e f109 6b3e af55 13be 6331 9b3e
00000240: 9451 2a3e cd21 533d 2c2d 303e b6ae b3be
00000250: 3424 7fbe f65c 83be 2873 00be 0a1f cdbd
00000260: 1d26 9e3e f7d4 543e e3a8 963e 75b1 1fbe
00000270: 5ab9 0abe 9b2c 443e e93e 77be 1d94 33bd
00000280: ad85 813e 1181 083e 5360 a2be 885c b23d
00000290: 1b15 29be d53e 383e f5e7 3e3e 567b 96be
000002a0: a8f3 853e da80 a4be fb53 57be 0c1f 51be
000002b0: c40d 7dbe 670c b23e 6754 85bd da7f 923e
000002c0: 9b87 893d 36a2 4d3e a506 813e ce74 b4bc
000002d0: 6f49 1b3e 1eb4 81be 4342 91be c82f aabe
000002e0: 27cc 9b3e 163d 7b3e 30bf 483b 0296 a8be
000002f0: fcbf 73be 3bdc b93d f4fd 96bd 55e9 a7bd
00000300: d810 59be 23d7 853e de87 e8bc 2a50 903e
00000310: 0b03 7b3e 65cb a43e 51ac d53d 129e f1bd
00000320: 8a61 1b3e 132a 97bd b78b bfbc d34d e93d
00000330: a70b 83be 5e52 b33e 30ac a83e 58e8 adbe
00000340: d242 d93d c2d8 5bbe 9ee8 cd3d 5e84 2f3e
00000350: e767 323e e1ec 283e c4c7 893e 8578 9cbe
00000360: a7f4 cfbc fd00 953e 0976 9fbe d0a6 ed3d
00000370: 3c8e 9ebe 414a 80bd 1905 efbd f34a aabd
00000380: ce82 31be f687 b53d f573 9f3e b0d5 f53c
00000390: 9a10 b43e ff12 a1bd 1e6c e83d da0d 663e
000003a0: 6571 09be bcfb 4d3d c938 e13b 31bc b03e
000003b0: e99a a1be bf70 e3bd e669 08be 0f05 0ebe
000003c0: b74c 9bbc 7eae 58be e307 1e3d 9674 00be
000003d0: 17b8 553d 935a 83be 9b70 7d3e 2964 563d
000003e0: 15f2 683e b43e da3d c451 e43c 919b c63d
000003f0: fd03 013e f502 edbd 3510 4c3e d233 b63d

node_emb.bias f4 [64]
-0.088584036 0.19107454 -0.0037417638 -0.26738423 0.16410363 0.14417633 -0.30854163 -0.3464955
-0.33228165 -0.13688876 -0.17305343 0.266616 -0.15361775 0.14249203 -0.21573038 0.022454323
-0.039337136 -0.15305676 0.011979153 -0.048776284 0.08869701 -0.037090205 0.19911686 0.20443945
-0.353024 0.25181663 0.2582074 -0.117717244 0.26369134 -0.15145501 -0.10871943 -0.030619048
0.22725555 -0.010506826 -0.29657942 0.27951914 -0.33556396 -0.24018973 0.0618553 -0.11924756
-0.19233201 -0.3485276 -0.061059617 0.09370221 0.27116996 0.3226138 -0.22771981 0.014131942
-0.061338644 0.013471589 -0.2663958 -0.24163318 0.18052866 0.1537123 -0.21550082 -0.21834774
-0.07352912 0.32932577 0.29752532 -0.0067945137 -0.28289282 -0.0296887 -0.2532838 0.08600708
00000000: 8c6b b5bd 0ba9 433e 6138 75bb 96e6 88be
00000010: c80a 283e f6a2 133e 2bf9 9dbe dc67 b1be
00000020: d220 aabe 912c 0cbe eb34 31be e481 883e
00000030: f94d 1dbe 6ee9 113e 6de8 5cbe 21f2 b73c
00000040: fa1f 21bd e9ba 1cbe 3644 443c a4c9 47bd
00000050: c7a6 b53d e6eb 17bd 4ae5 4b3e 9358 513e
00000060: 90bf b4be 1cee 803e c333 843e bd15 f1bd
00000070: 8d02 873e 0617 1bbe 4ba8 debd ccd4 fabc
00000080: aeb5 683e d324 2cbc 42d9 97be 221d 8f3e
00000090: 0acf abbe 4cf4 75be fc5b 7d3d 1138 f4bd
000000a0: aff2 44be 3672 b2be a619 7abd f2e6 bf3d
000000b0: cad6 8a3e a32d a53e 622f 69be a989 673c
000000c0: 3b3e 7bbd f1b7 5c3c 0865 88be b06e 77be
000000d0: 81dc 383e c266 1d3e 3fac 5cbe 8d96 5fbe
000000e0: 6f96 96bd 639d a83e 3d55 983e 83a4 debb
000000f0: 54d7 90be b735 f3bc 6aae 81be 7b24 b03d

edge_emb.weight f4 [64, 2]
0.01237753 0.2832743 0.32758537 -0.15831716 0.081618875 -0.579931 -0.20290016 0.41409957
0.3295384 0.04686227 0.22228354 0.38737217 0.4086404 0.63774735 0.5394739 0.5208608
-0.46557513 -0.32804957 -0.45064503 0.61744314 -0.34795853 -0.59604985 0.66674244 -0.090592556
-0.6444072 0.6737769 0.3939366 -0.6063964 0.35813522 -0.47294918 0.66459894 -0.46523824
0.48352578 -0.43577304 0.028083723 0.4537873 0.06796506 -0.110816196 -0.44729304 -0.55676794
-0.15341689 0.079904474 -0.16236688 -0.117086634 0.047787767 -0.4776589 0.034081478 0.40542832
0.22596228 -0.0027665903 -0.62647 -0.2122914 0.48835033 0.17859924 -0.5495335 -0.52744085
0.5372529 0.19819704 0.13119166 0.17098537 0.18838753 -0.29301888 -0.012175832 0.5036617
0.55535 0.41591752 -0.09638948 0.27759463 0.49631146 -0.34908408 -0.33407488 0.02026319
-0.53297 -0.12577192 0.4511667 0.15876885 0.051593386 0.3822329 0.2503951 0.20673424
0.12313076 0.047286376 -0.62139606 -0.6479618 -0.6473362 0.32616946 0.02393965 -0.061403412
0.6569239 0.19743188 0.6927296 0.27262798 -0.42688265 0.5866514 -0.44786867 -0.10629889
-0.008581382 -0.035064742 -0.0394979 0.290191 -0.2517399 -0.6268953 -0.04853598 0.44902462
0.34084007 -0.096857466 0.46450707 0.15775222 0.33620763 0.10528394 0.41145298 -0.66078365
-0.02930353 -0.34590206 0.4414411 0.60767126 0.34922546 0.08372414 -0.6793508 -0.5367815
0.041385174 -0.695497 -0.03575794 0.44312477 0.5488268 -0.1454598 0.2910772 -0.21353005
00000000: 20cb 4a3c 5409 913e 45b9 a73e e51d 22be
00000010: cc27 a73d 5c76 14bf 0fc5 4fbe dc04 d43e
00000020: 42b9 a83e a7f2 3f3d 4c9e 633e a555 c63e
00000030: 5139 d13e 6943 233f f61a 0a3f 2257 053f
00000040: dd5f eebe 1df6 a7be f2ba e6be c110 1e3f
00000050: 9f27 b2be b996 18bf a2af 2a3f 9788 b9bd
00000060: dff7 24bf a57c 2c3f 0fb2 c93e cb3c 1bbf
00000070: 805d b73e 6526 f2be 2823 2a3f b533 eebe
00000080: b190 f73e a51d dfbe d60f e63c cf56 e83e
00000090: 4431 8b3d 9af3 e2bd 9803 e5be 5888 0ebf
000000a0: 5119 1dbe f5a4 a33d 8143 26be 1ecb efbd
000000b0: 1bbd 433d b58f f4be 0599 0b3d 4d94 cf3e
000000c0: a862 673e af4f 35bb 5760 20bf eb62 59be
000000d0: 0e09 fa3e b8e2 363e 3aae 0cbf 5d06 07bf
000000e0: 6889 093f 2af4 4a3e 1b57 063e ca16 2f3e
000000f0: a9e8 403e 9206 96be 247d 47bc f9ef 003f
00000100: 6b2b 0e3f 24f3 d43e d967 c5bd e220 8e3e
00000110: 891c fe3e 26bb b2be dd0b abbe fdfe a53c
00000120: b970 08bf 5bca 00be 52ff e63e 4d94 223e
00000130: 9653 533d 08b4 c33e c933 803e 24b2 533e
00000140: fb2b fc3d 5caf 413d d013 1fbf d3e0 25bf
00000150: d3b7 25bf afff a63e 161d c43c 2582 7bbd
00000160: 2a2c 283f 952b 4a3e ba56 313f e595 8b3e
00000170: 5d90 dabe c92e 163f 0b4f e5be 3cb3 d9bd
00000180: ed98 0cbc 0ca0 0fbd 8dc8 21bd ea93 943e
00000190: 0de4 80be 367c 20bf aacd 46bd 8ee6 e53e
000001a0: 9782 ae3e 355d c6bd dfd3 ed3e cc89 213e
000001b0: 6823 ac3e 1b9f d73d f7a9 d23e 1e29 29bf
000001c0: f50d f0bc 131a b1be 9104 e23e 5890 1b3f
000001d0: aecd b23e 9077 ab3d efe9 2dbf 836a 09bf
000001e0: 8083 293d 170c 32bf eb76 12bd 40e1 e23e
000001f0: ea7f 0c3f 6af3 14be 1208 953e 9fa7 5abe

edge_emb.bias f4 [64]
-0.50461257 0.44051725 0.48438144 -0.5970647 0.4046128 0.36720043 0.068087764 0.3517769
-0.61461586 -0.25981697 0.16438589 -0.21311514 0.61584276 0.33624044 -0.5529363 -0.57500005
-0.21240382 -0.58119553 0.028810292 -0.59704286 0.5520492 0.54412854 -0.33454064 -0.44290513
-0.11622697 -0.7105708 0.21426551 -0.08330497 -0.6479161 0.5470408 0.018910766 -0.19154024
-0.652372 0.08796194 -0.08520159 0.44868892 0.70011264 -0.290157 0.6323909 0.47920287
-0.445048 -0.68303126 0.20332098 -0.21995813 -0.17072797 -0.2771625 -0.68060845 0.41874912
0.10882542 0.18354218 -0.049668364 -0.56333375 0.37459466 -0.24391825 -0.09543799 0.16133186
-0.623265 0.09956449 0.18481445 0.5171284 0.53900576 0.4679745 -0.43391863 -0.13342597
00000000: 4a2e 01bf 7a8b e13e d800 f83e 3bd9 18bf
00000010: 6929 cf3e b201 bc3e 9971 8b3d 1a1c b43e
00000020: 7757 1dbf bb06 85be c654 283e db3a 5abe
00000030: dfa7 1d3f b527 ac3e 3c8d 0dbf 3433 13bf
00000040: 6380 59be 3bc9 14bf 9003 ec3c cdd7 18bf
00000050: 1953 0d3f 024c 0b3f e948 abbe 76c4 e2be
00000060: 6808 eebd f8e7 35bf 6b68 5b3e cc9b aabd
00000070: d4dd 25bf de0a 0c3f c0ea 9a3c 2023 44be
00000080: da01 27bf 6425 b43d 2c7e aebd 8eba e53e
00000090: 953a 333f 758f 94be 5fe4 213f 145a f53e
000000a0: 55dd e3be 23db 2ebf 6033 503e b43c 61be
000000b0: 50d3 2ebe 3ee8 8dbe 5b3c 2ebf 4966 d63e
000000c0: dddf de3d 7bf2 3b3e 0e71 4bbd a436 10bf
000000d0: dfca bf3e b5c5 79be fe74 c3bd 2e34 253e
000000e0: 4c8e 1fbf 78e8 cb3d 0040 3d3e 8762 043f
000000f0: 48fc 093f 5b9a ef3e 952a debe d1a0 08be

gat_layers.0.att_src f4 [1, 4, 16]
-0.24651928 0.30172157 0.25179487 0.4210557 -0.003128303 0.00012584377 -0.50575566 0.30051517
-0.14224534 -0.2678574 -0.275932 0.13318208 0.034928627 0.4756823 -0.2330804 -0.0817853
-0.47429162 0.079477556 0.16854735 -0.21365942 -0.52430975 -0.307696 -0.4989533 -0.42740923
-0.4322906 -0.09921849 0.43891543 0.12581062 0.26186746 -0.54578406 -0.34045398 -0.47318813
0.018700918 -0.15586199 0.49231538 0.3315425 -0.06995355 -0.40089753 -0.48015234 0.4674353
-0.50635535 0.24923924 0.237544 -0.19066647 -0.3258801 0.5231267 -0.2774571 -0.13261977
-0.24204677 0.4141467 -0.18412928 -0.2688454 0.13360818 -0.14874958 -0.09493517 0.075565584
-0.29246032 -0.2537041 0.24175654 0.18199128 -0.2164094 -0.46965653 -0.5167085 0.2760958
00000000: 8d6f 7cbe 407b 9a3e 42eb 803e 9d94 d73e
00000010: 3704 4dbb eef4 0339 3479 01bf 20dd 993e
00000020: c3a8 11be 9b24 89be f646 8dbe e260 083e
00000030: 5211 0f3d a18c f33e a1ac 6ebe 0d7f a7bd
00000040: 5ad6 f2be 21c5 a23d ad97 2c3e 89c9 5abe
00000050: 2a39 06bf 558a 9dbe cf76 ffbe 62d5 dabe
00000060: 3255 ddbe 1033 cbbd 86b9 e03e 80d4 003e
00000070: 7e13 863e 81b8 0bbf fc4f aebe b745 f2be
00000080: ab32 993c 499a 1fbe c310 fc3e f0bf a93e
00000090: cf43 8fbd 7142 cdbe 87d6 f5be ae53 ef3e
000000a0: 81a0 01bf 9238 7f3e bc3e 733e 123e 43be
000000b0: c2d9 a6be a2eb 053f db0e 8ebe 7acd 07be
000000c0: 1cdb 77be 090b d43e 638c 3cbe 1ba6 89be
000000d0: 95d0 083e cf51 18be 5f6d c2bd 21c2 9a3d
000000e0: 5cbd 95be 81e5 81be 078f 773e ec5b 3a3e
000000f0: 6d9a 5dbe d276 f0be 0247 04bf 6e5c 8d3e

gat_layers.0.att_dst f4 [1, 4, 16]
0.332977 -0.08130403 0.52010864 -0.25825027 -0.21392274 -0.17902344 0.44043583 -0.11955849
-0.30567673 0.08106779 0.5405414 0.05911604 -0.3136236 0.18191148 0.5229577 -0.32799283
-0.49621257 0.22297093 -0.06538947 0.53055835 -0.21553771 -0.19436634 -0.38953424 -0.116971925
-0.3705614 -0.12403366 -0.37758502 0.4998019 -0.39380947 0.17020918 -0.28272387 -0.30297974
-0.24170437 0.106389485 0.44463676 -0.2488348 0.5338265 0.13475204 -0.34371144 -0.25648266
0.44377524 -0.47368625 -0.19406296 0.44154504 0.020880608 -0.10490772 0.23944418 -0.29325107
0.45443127 0.057368305 0.066825226 -0.3105075 0.3111002 -0.07262351 0.19858497 -0.07193899
-0.36336875 -0.12916861 -0.15764132 0.38720325 0.3244905 0.09632592 -0.33975834 0.02015015
00000000: f67b aa3e ba82 a6bd d725 053f 6139 84be
00000010: 900e 5bbe ec51 37be ce80 e13e 15db f4bd
00000020: a981 9cbe df06 a63d ec60 0a3f a923 723d
00000030: 4693 a0be 0147 3a3e 8ee0 053f adee a7be
00000040: 930f febe 7e52 643e eaea 85bd acd2 073f
00000050: ebb5 5cbe f807 47be 0871 c7be fa8e efbd
00000060: 39ba bdbe 5c05 febd d352 c1be 09e6 ff3e
00000070: 65a1 c9be 514b 2e3e 2fc1 90be 2920 9bbe
00000080: 5a81 77be bbe2 d93d 6ea7 e33e 8dce 7ebe
00000090: daa8 083f 70fc 093e f2fa afbe b251 83be
000000a0: 8236 e33e 0187 f2be 71b8 46be 3112 e23e
000000b0: cf0d ab3c dcd9 d6bd db30 753e 0125 96be
000000c0: 37ab e83e 07fb 6a3d aadb 883d d7fa 9ebe
000000d0: 8748 9f3e a3bb 94bd dc59 4b3e c054 93bd
000000e0: 780b babe c744 04be ba6c 21be 813f c63e
000000f0: 9e23 a63e 8646 c53d cef4 adbe ed11 a53c

gat_layers.0.att_edge f4 [1, 4, 16]
-0.4426401 0.24715795 0.26484516 0.40297616 -0.45304495 0.04296959 -0.028678909 0.1732859
-0.043544766 0.19868726 -0.5232842 0.11031289 -0.47182643 0.092043154 -0.2576713 0.090832755
0.06037633 0.4333215 -0.025385275 -0.5123711 -0.5296234 -0.2308206 0.38211206 0.0893935
-0.23918271 0.476013 0.06441885 0.2707855 0.435711 -0.1752754 0.20893829 0.06045541
0.201768 -0.35697967 0.20193775 -0.4522413 -0.094926134 -0.01576858 -0.3994675 0.06871396
-0.24760231 -0.40435585 -0.16694921 -0.12730582 -0.12532301 0.32629815 0.043672226 0.47979373
0.4106495 -0.39273116 0.2521543 -0.34124652 -0.42017564 0.25344956 0.27052537 -0.21077845
0.050663855 0.48237175 0.20993747 0.102618195 -0.48872063 0.16347511 0.095838144 -0.44561014
00000000: b9a1 e2be f916 7d3e c999 873e e452 ce3e
00000010: 82f5 e7be e100 303d 08f0 eabc dc71 313e
00000020: ff5b 32bd ac74 4b3e f4f5 05bf b9eb e13d
00000030: 3c93 f1be 1f81 bc3d 7eed 83be 8606 ba3d
00000040: 2c4d 773d 51dc dd3e c8f4 cfbc c12a 03bf
00000050: 6695 07bf 3c5c 6cbe 31a4 c33e f013 b73d
00000060: 50ec 74be fab7 f33e 08ee 833d 66a4 8a3e
00000070: 8315 df3e 657b 33be ebf3 553e 18a0 773d
00000080: 459c 4e3e 0ac6 b6be c5c8 4e3e 2c8c e7be
00000090: a268 c2bd 1c2d 81bc 0187 ccbe e8b9 8c3d
000000a0: 768b 7dbe bb07 cfbe bcf4 2abe 755c 02be
000000b0: ad54 00be 8d10 a73e a6e1 323d 86a7 f53e
000000c0: a740 d23e 0f14 c9be 5e1a 813e ddb7 aebe
000000d0: 4321 d7be 24c4 813e 4d82 8a3e 4ed6 57be
000000e0: e784 4f3d 6ef9 f63e d9f9 563e 7d29 d23d
000000f0: 9739 fabe 0566 273e ca46 c43d 0327 e4be

gat_layers.0.bias f4 [64]
-0.0048072087 -0.005393641 -0.00515048 -0.0051405 -0.005189736 0.011120249 -0.00504088 -0.005442277
0.0069355043 -0.0050056805 0.01326033 -0.005185461 -0.0053278427 -0.0050464263 -0.005714485 -0.004994459
-0.005234872 -0.005706176 -0.005378225 -0.004933065 -0.005494587 -0.0053235926 -0.005449084 0.011038727
-0.0051311804 -0.0009411961 -0.0052266098 -0.005201017 -0.0050663226 0.0095852185 -0.0049466128 -0.0050245975
0.014396058 -0.004876959 0.003971066 -0.0053389124 -0.0050762063 -0.0060135513 0.007823815 -0.005020222
-0.0051385555 -0.0049113967 -0.005661327 -0.005070914 -0.0049033654 -0.00563674 -0.0048927823 -0.0053247362
-0.0055530993 -0.005372383 -0.0051407753 -0.004953447 -0.005114769 -0.005003927 -0.0029719681 0.012048992
-0.0052460344 -0.005354033 -0.005092847 -0.005167753 -0.004320425 0.007818147 -0.0054892446 -0.0054598493
00000000: ca85 9dbb 24bd b0bb 5cc5 a8bb a471 a8bb
00000010: a90e aabb b431 363c f72d a5bb 2155 b2bb
00000020: 3a43 e33b b106 a4bb db41 593c cdea a9bb
00000030: 2f95 aebb 7e5c a5bb 9340 bbbb 8fa8 a3bb
00000040: 4a89 abbb e0fa babb d23b b0bb 8ca5 a1bb
00000050: f00b b4bb 8871 aebb 3b8e b2bb c7db 343c
00000060: 7623 a8bb 9aba 76ba fb43 abbb 4b6d aabb
00000070: 6503 a6bb 520b 1d3c 3217 a2bb 61a5 a4bb
00000080: 72dd 6b3c e6ce 9fbb b71f 823b 0bf2 aebb
00000090: 4e56 a6bb 530d c5bb 752f 003c ad80 a4bb
000000a0: 5461 a8bb c8ef a0bb a782 b9bb e929 a6bb
000000b0: 69ac a0bb 67b4 b8bb a253 a0bb 207b aebb
000000c0: c6f6 b5bb d10a b0bb f373 a8bb 8650 a2bb
000000d0: cb99 a7bb fbf7 a3bb 5ac5 42bb 2369 453c
000000e0: ede6 abbb e270 afbb e6e1 a6bb 4156 a9bb
000000f0: 5a92 8dbb af17 003c 1fdf b3bb 89e8 b2bb

gat_layers.0.lin.weight f4 [64, 64]
0.055235635 0.08910666 -0.16364202 0.0578362 -0.20728408 -0.105301246 0.19302271 0.13113599
-0.16512503 -0.14887165 0.065502934 -0.028289959 0.020076133 -0.1894222 -0.18133506 -0.18415317
-0.032873992 -0.13423945 0.06624069 -0.18124802 0.13677369 0.2001133 0.020711273 0.028630571
-0.10486007 -0.1465766 -0.18568462 0.21713609 -0.10850439 0.03443661 -0.21771441 -0.14081044
0.05235094 -0.16347378 0.1953643 -0.025406903 -0.219447 0.2191744 -0.11782621 0.111301415
0.17361762 0.050918717 0.10486208 -0.19191849 -0.14639546 -0.19983293 -0.07039141 -0.009818359
0.19400981 -0.08080475 0.003742971 0.21925093 -0.09673623 0.17303185 0.043796606 0.10171413
-0.034938067 -0.07310619 -0.022662204 0.1438865 -0.18398239 -0.20430385 -0.11265719 -0.112196885
0.1616135 -0.18199757 -0.018805873 -0.10445645 -0.1442077 0.09165437 0.0044697537 0.023015503
-0.20551458 0.1969204 -0.14818473 0.13862681 -0.073558226 -0.09113085 -0.07713823 -0.19952305
0.032980904 -0.20561425 0.2075852 0.18196805 0.10272186 -0.04001604 0.17725097 -0.20528197
0.21123439 -0.18304528 -0.10826938 -0.14570135 0.019693593 -0.20269597 0.17300296 -0.1191188
0.06683535 -0.17848434 0.06615506 0.030314103 0.12234003 0.08096836 -0.012591788 0.004816356
0.2100669 -0.12117081 0.17436866 0.15714638 -0.00119375 0.0008977623 0.119406626 -0.059779335
0.14921337 0.07134133 0.18194458 0.06444898 0.14979506 -0.04735363 -0.06944115 -0.040436976
0.18105556 0.15269789 -0.12744927 -0.09430774 0.027892884 -0.009286402 -0.20834108 0.11928306
0.01767631 0.17108814 -0.2112386 -0.07594784 -0.0045925383 -0.07578193 0.19898085 -0.08907813
0.08212018 -0.007553533 -0.107073255 0.08880921 -0.21423273 -0.14124262 -0.053545535 -0.023904199
-0.19515146 0.14654256 -0.21175501 0.03993035 0.1656916 0.0059801107 -0.18111058 0.09138463
0.1528352 0.18913549 -0.07641144 0.050888028 0.12153958 -0.19761091 -0.13162497 -0.211731
-0.13183703 0.12618642 0.10269621 -0.21751761 0.02021542 0.20654833 -0.16438557 -0.11926533
0.10892964 0.039479908 -0.15276407 -0.06599447 -0.01592387 -0.15734947 -0.15740086 0.119537905
-0.19550182 -0.038130745 0.068137534 0.0038906701 -0.055219855 -0.037575904 -0.04738054 0.08724818
0.085423894 0.12027766 0.09375194 -0.14706028 -0.088868976 -0.2151982 -0.14606169 -0.11169539
0.12715481 0.072473735 0.119389914 0.07601165 -0.18279131 -0.13973558 -0.023185978 0.14856103
0.00879626 -0.018283198 -0.15036952 0.113001235 0.010273224 -0.15783493 0.17863525 0.106051184
0.12623405 0.19390537 0.10029386 -0.038640097 -0.03976272 0.14989501 0.053416792 0.04891909
-0.14237997 -0.06280686 0.008014674 -0.18062048 0.050524194 -0.17265503 -0.034306575 -0.011351453
0.022094753 -0.20972316 -0.016643763 -0.012879938 0.19637462 -0.18257786 -0.14163074 0.21332848
0.060425412 -0.09429911 0.14335401 0.14647058 0.024631275 -0.14508803 -0.067765296 0.09021067
0.108888626 -0.08612271 0.086638734 0.2052786 -0.121192776 0.19152676 -0.14324348 0.20952886
-0.17983222 -0.19035283 0.11499067 0.107807785 -0.042604275 -0.14067917 -0.084762454 -0.15646008
00000000: c33e 623d 8d7d b63d c691 27be a7e5 6c3d
00000010: 4742 54be 2ea8 d7bd bfa7 453e 8348 063e
00000020: 8916 29be cf71 18be 6726 863d 58c0 e7bc
00000030: b476 a43c e5f7 41be e6af 39be a692 3cbe
00000040: e1a6 06bd 1176 09be 33a9 873d 1599 39be
00000050: 670e 0c3e 80ea 4c3e b0aa a93c a98a ea3c
00000060: e0c0 d6bd 2d18 16be 1c24 3ebe ec58 5e3e
00000070: 8d37 debd 670d 0d3d 87f0 5ebe 9d30 10be
00000080: f06d 563d ac65 27be 940d 483e 2322 d0bc
00000090: b7b6 60be 416f 603e de4e f1bd fff1 e33d
000000a0: d1c8 313e 2590 503d eec1 d63d 4886 44be
000000b0: b1e8 15be 01a1 4cbe 5f29 90bd 2fdd 20bc
000000c0: 82aa 463e f67c a5bd a24c 753b 5183 603e
000000d0: a51d c6bd 432f 313e 1264 333d 7f4f d03d
000000e0: 381b 0fbd b3b8 95bd 16a6 b9bc fc56 133e
000000f0: e165 3cbe 0735 51be d0b8 e6bd 7bc7 e5bd
00000100: 027e 253e 925d 3abe c60e 9abc 43ed d5bd
00000110: 2fab 13be 49b5 bb3d 0377 923b 028b bc3c
00000120: 6a72 52be 80a5 493e bdbd 17be 30f4 0d3e
00000130: b2a5 96bd d0a2 babd a6fa 9dbd c54f 4cbe
00000140: fc16 073d 8b8c 52be 3791 543e d555 3a3e
00000150: d75f d23d dce7 23bd 4781 353e 7035 52be
00000160: d44d 583e 3970 3bbe 56bc ddbd bc32 15be
00000170: 7554 a13c 888f 4fbe b027 313e 8ff4 f3bd
00000180: f9e0 883d 99c4 36be 4e7c 873d 4855 f83c
00000190: 698d fa3d bdd2 a53d c94d 4ebc 86d2 9d3b
000001a0: c71b 573e 6728 f8bd b38d 323e fbea 203e
000001b0: 9a77 9cba cf57 6b3a 768b f43d 2ddb 74bd
000001c0: 64cb 183e 671b 923d ae4f 3a3e d4fd 833d
000001d0: e063 193e e1f5 41bd 2937 8ebd 3ea1 25bd
000001e0: a166 393e d65c 1c3e 1082 02be 6b24 c1bd
000001f0: 9e7f e43c fe25 18bc 5d57 55be ad4a f43d
00000200: e9cd 903c bb31 2f3e ee4e 58be 8b8a 9bbd
00000210: 017d 96bb 8e33 9bbd a3c1 4b3e 986e b6bd
00000220: a02e a83d a183 f7bb 3949 dbbd 9ae1 b53d
00000230: d35f 5bbe e8a1 10be 9052 5bbd bdd2 c3bc
00000240: c9d5 47be 410f 163e 4ed6 58be 028e 233d
00000250: 0fab 293e cef4 c33b 0d75 39be dd27 bb3d
00000260: d580 1c3e bcac 413e 9a7d 9cbd f76f 503d
00000270: bee9 f83d 845a 4abe b2c8 06be 03d0 58be
00000280: 4900 07be 0337 013e 6452 d23d f0bc 5ebe
00000290: cf9a a53c 6881 533e b154 28be 6241 f4bd
000002a0: 8116 df3d afb5 213d 2f6e 1cbe 1c28 87bd
000002b0: c772 82bc 3820 21be b12d 21be 4ad0 f43d
000002c0: a131 48be fc2e 1cbd b18b 8b3d 9dfa 7e3b
000002d0: 372e 62bd 31e9 19bd 1912 42bd 2caf b23d
000002e0: b9f2 ae3d 2254 f63d 0401 c03d f896 16be
000002f0: f000 b6bd eb5c 5cbe 3291 15be 8dc0 e4bd
00000300: df34 023e 1c6d 943d b382 f43d ffab 9b3d
00000310: a52d 3bbe d816 0fbe 85f0 bdbc 6220 183e
00000320: 301e 103c a5c6 95bc 78fa 19be 316d e73d
00000330: 0651 283c 7b9f 21be 29ec 363e 5d31 d93d
00000340: 8043 013e 218f 463e de66 cd3d 1445 1ebd
00000350: 3cde 22bd 147e 193e 91cb 5a3d 625f 483d
00000360: 0ecc 11be e2a0 80bd fb4f 033c 93f4 38be
00000370: 75f2 4e3d 7bcc 30be 0d85 0cbd 72fb 39bc
00000380: 0e00 b53c abc1 56be 8058 88bc 6006 53bc
00000390: 6e16 493e b1f5 3abe a607 11be c872 5a3e
000003a0: a380 773d e41f c1bd 65cb 123e 62fc 153e
000003b0: 87c7 c93c f591 14be 88c8 8abd 5fc0 b83d
000003c0: 0001 df3d 1a61 b0bd a66f b13d 8e34 523e
000003d0: eb33 f8bd 971f 443e 6bae 12be bc8e 563e
000003e0: f025 38be daeb 42be 3a80 eb3d 54ca dc3d
000003f0: d281 2ebd 330e 10be f097 adbd 1237 20be

gat_layers.0.lin_edge.weight f4 [64, 64]
-0.09325032 -0.029101392 -0.16867998 -0.098271415 0.17165998 -0.21227627 0.18329711 -0.16867702
0.14482604 0.14087205 -0.058014985 -0.1820656 -0.044746857 -0.17023988 -0.035095263 -0.11234535
0.030252952 0.11111013 0.008266797 0.07559432 -0.003227944 -0.13043657 0.009244695 -0.07027106
0.110722765 -0.14726868 0.13659249 -0.18485941 0.04833505 -0.10290702 0.18403748 -0.15553996
0.12252425 0.019460479 0.008474498 -0.049751893 0.14918512 0.04719685 -0.21511762 0.20633332
-0.06742433 0.08884672 -0.12652837 0.18555124 0.036700863 0.21520586 -0.17550963 -0.1847097
0.09665593 -0.053906865 -0.0569687 0.15051107 -0.10359888 0.17144138 0.11786957 0.054981124
-0.21127091 0.097392485 0.056939855 0.04134235 -0.12191058 0.10842325 -0.1866074 -0.18808039
-0.13419522 0.091135666 -0.110874265 -0.13642967 0.08506823 0.12276492 -0.17458338 0.0048708594
0.103995495 0.19767179 -0.111852735 -0.1362365 -0.10491922 -0.08320223 0.20390761 0.18883488
-0.026440414 -0.17045036 -0.09498603 0.12838909 0.066968404 -0.20949435 0.16809574 -0.11471825
-0.113622114 0.08337223 0.1287903 0.16064003 0.09462952 -0.20680168 0.0902524 -0.0059015923
0.013518345 -0.09656665 -0.18716799 -0.04465981 0.1166492 0.043022417 -0.19963044 -0.083921656
0.18029217 0.19864537 0.15524392 -0.011298332 -0.008140262 0.18720692 0.10080829 -0.13312773
-0.12005792 -0.027808854 -0.17964546 0.06641061 0.13155171 0.05432249 -0.20723218 0.11618926
-0.06767146 0.18681273 -0.17620163 -0.04414807 -0.12589513 -0.0035948465 0.083553396 0.13351
0.08052221 -0.0042451154 0.19251746 -0.056139093 0.16180019 -0.08084376 -0.1846625 0.0045159273
0.21401033 0.09110919 -0.09710945 0.15708868 0.0025992244 -0.17813481 0.1696746 0.100633405
0.10660689 0.104525 0.21521753 0.040466264 -0.08605208 -0.15745336 0.1360006 -0.19907169
-0.12854911 0.13754207 0.18754765 0.18124323 0.016664712 -0.039008312 -0.09892809 -0.1307463
0.16017199 -0.08540462 -0.12185787 0.051306617 -0.12525247 0.11382145 0.19063847 -0.14135236
0.11906247 -0.1761557 -0.016546952 0.026437508 -0.08275139 0.008355183 0.14271918 -0.13499963
0.18000618 0.12958658 0.08353262 -0.0056604226 -0.07431217 0.19253182 -0.0007059453 -0.06287782
-0.054468993 -0.1601239 0.18054418 0.120657355 0.055936046 0.12505227 0.16800928 0.011242728
-0.003479789 -0.045544393 -0.01925292 0.110525064 -0.096663415 -0.06049323 -0.1486533 -0.20203534
0.038772028 -0.06844131 -0.19740604 -0.21290213 -0.025968708 0.0078044035 0.18345363 0.16302133
-0.04687511 -0.108748645 -0.20411092 -0.09469308 -0.15030128 -0.17937404 0.14805569 0.14908338
0.02796841 0.13647395 0.070932426 0.06319807 0.038487755 0.12035775 0.21177591 0.16614702
-0.1978793 -0.0934907 0.055636004 0.0462985 0.18977655 0.15045759 0.049090933 0.02898431
0.04530954 -0.16949093 -0.18786703 0.12450322 -0.09369484 -0.13500182 -0.19223738 -0.06531851
0.13980767 -0.13441293 0.09177319 0.047593184 -0.09927736 0.11450315 -0.06319516 -0.16324659
0.06263076 -0.08923822 0.085466 -0.17962524 0.1793876 0.041046098 -0.09368151 0.17543338
00000000: 06fa bebd 0b66 eebc 72ba 2cbe 8642 c9bd
00000010: a2c7 2f3e f35e 59be 3db2 3b3e abb9 2cbe
00000020: 474d 143e c340 103e 1fa1 6dbd 686f 3abe
00000030: 7b48 37bd 5d53 2ebe 0dc0 0fbd 5215 e6bd
00000040: 0ad5 f73c b58d e33d 7671 073c 32d1 9a3d
00000050: ea8b 53bb 2a91 05be 1077 173c 46ea 8fbd
00000060: 9ec2 e23d 9acd 16be e7de 0b3e c94b 3dbe
00000070: f9fa 453d eac0 d2bd 5274 3c3e de45 1fbe
00000080: feed fa3d 956b 9f3c 9fd8 0a3c a4c8 4bbd
00000090: fcc3 183e 7c51 413d cb47 5cbe 0b49 533e
000000a0: c415 8abd 45f5 b53d a790 01be 2501 3e3e
000000b0: a553 163d ed5e 5c3e ccb8 33be 8a24 3dbe
000000c0: 8bf3 c53d 72cd 5cbd 0358 69bd 931f 1a3e
000000d0: a62b d4bd 548e 2f3e 9a65 f13d e333 613d
000000e0: 6757 58be b675 c73d c439 693d 9956 293d
000000f0: 41ac f9bd 020d de3d 0316 3fbe 2598 40be
00000100: 796a 09be 56a5 ba3d 0c12 e3bd 38b4 0bbe
00000110: 4138 ae3d 2d6c fb3d fcc5 32be bb9b 9f3b
00000120: 97fb d43d 796a 4a3e 0c13 e5bd 9581 0bbe
00000130: e3df d6bd ee65 aabd 28cd 503e ee5d 413e
00000140: 9199 d8bc 8a8a 2ebe 0988 c2bd 6e78 033e
00000150: bb26 893d b085 56be 4a21 2c3e 67f1 eabd
00000160: b6b2 e8bd 0fbf aa3d 9be1 033e d27e 243e
00000170: 1fcd c13d d2c3 53be 40d6 b83d 2562 c1bb
00000180: 0c7c 5d3c bcc4 c5bd f7a8 3fbe 34ed 36bd
00000190: c7e5 ee3d 4638 303d ec6b 4cbe 1edf abbd
000001a0: 839e 383e b169 4b3e 43f8 1e3e a41c 39bc
000001b0: bc5e 05bc 2cb3 3f3e 9474 ce3d a352 08be
000001c0: ede0 f5bd 65cf e3bc fbf4 37be 4902 883d
000001d0: 7eb5 063e 4281 5e3d ac34 54be a2f4 ed3d
000001e0: 5697 8abd d64b 3f3e 336e 34be 9bd4 34bd
000001f0: a7ea 00be 8497 6bbb 0b1e ab3d d8b6 083e
00000200: d4e8 a43d 9c1a 8bbb 4c23 453e 1bf2 65bd
00000210: f3ae 253e 6a91 a5bd 2b18 3dbe 58fa 933b
00000220: 8625 5b3e 7497 ba3d 52e1 c6bd dbdb 203e
00000230: c057 2a3b f968 36be 2ebf 2d3e e318 ce3d
00000240: b754 da3d 3411 d63d fc61 5c3e f4bf 253d
00000250: 133c b0bd 743b 21be be43 0b3e 73d9 4bbe
00000260: 61a2 03be d4d7 0c3e 7e0c 403e d397 393e
00000270: 6f84 883c 2ec7 1fbd cf9a cabd 5ce2 05be
00000280: 2004 243e 9ee8 aebd 9e90 f9bd e326 523d
00000290: 2f42 00be 381b e93d bb36 433e acbe 10be
000002a0: 06d7 f33d 2962 34be 798d 87bc 7993 d83c
000002b0: 9079 a9bd 2de4 083c fa24 123e 583d 0abe
000002c0: 8a53 383e 58b2 043e 2613 ab3d 117b b9bb
000002d0: fb30 98bd 1027 453e 300f 39ba 16c6 80bd
000002e0: e11a 5fbd 85f7 23be 93e0 383e 341b f73d
000002f0: 321d 653d b40d 003e a00a 2c3e 6b33 383c
00000300: 2c0d 64bb c28c 3abd 4db8 9dbc f75a e23d
00000310: 78f7 c5bd c0c7 77bd 9238 18be 5ae2 4ebe
00000320: 6bcf 1e3d f52a 8cbd cf24 4abe 0403 5abe
00000330: 54bc d4bc 15bc ff3b 45db 3b3e 10ef 263e
00000340: 1e00 40bd 9cb7 debd 7402 51be 72ee c1bd
00000350: 94e8 19be d4ad 37be e99b 173e 50a9 183e
00000360: 021e e53c d4bf 0b3e 0545 913d fd6d 813d
00000370: 56a5 1d3d 207e f63d c9db 583e 7222 2a3e
00000380: dfa0 4abe 0d78 bfbd 94e2 633d 7fa3 3d3d
00000390: c954 423e 8e11 1a3e 9313 493d 8170 ed3c
000003a0: 7f96 393d 088f 2dbe 3760 40be 8bfb fe3d
000003b0: 15e3 bfbd eb3d 0abe e0d9 44be b6c5 85bd
000003c0: be29 0f3e 8ba3 09be 95f3 bb3d 12f1 423d
000003d0: ee51 cbbd a180 ea3d 776c 81bd 1d2a 27be
000003e0: 8e44 803d 87c2 b6bd cc08 af3d aeef 37be
000003f0: 62b1 373e f41f 283d 17dc bfbd cfa4 333e

gat_layers.1.att_src f4 [1, 4, 16]
-0.08382203 -0.3909234 -0.092534356 -0.07200048 0.020891525 -0.5265311 -0.056608606 0.114798404
-0.5320542 0.35765415 -0.46899077 0.19493061 -0.23379226 0.13103902 -0.089672364 -0.17877208
0.07381532 0.5368818 0.120449014 -0.40422222 0.4106046 -0.114140645 -0.39609015 0.40768304
-0.5316188 -0.07176573 0.026340235 0.27456146 0.1007333 0.008280162 0.029031912 -0.5219752
-0.094760776 0.20010847 -0.28652668 0.13128923 -0.094494395 0.05403356 0.33710784 -0.11452733
-0.32462692 -0.15384665 0.13731903 -0.53988504 0.38053027 -0.11215702 -0.4631726 0.13799852
-0.011648708 0.42016134 -0.50499046 -0.50715184 0.35070163 -0.4882729 0.3827902 0.24258903
-0.056317583 -0.41183797 0.34969702 0.51513743 0.4718135 0.0722206 -0.2255644 -0.18119709
00000000: e2aa abbd 1d27 c8be a782 bdbd fd74 93bd
00000010: b424 ab3c beca 06bf 6dde 67bd 6d1b eb3d
00000020: b434 08bf 721e b73e 8f1f f0be e49b 473e
00000030: 3d67 6fbe 182f 063e 25a6 b7bd 0710 37be
00000040: 7d2c 973d 1671 093f f9ad f63d 37f6 cebe
00000050: c43a d23e 92c2 e9bd 54cc cabe d5bb d03e
00000060: 2b18 08bf e9f9 92bd 7ac7 d73c 5293 8c3e
00000070: 434d ce3d 84a9 073c 55d4 ed3c 2ba0 05bf
00000080: f011 c2bd 3ce9 4c3e a0b3 92be af70 063e
00000090: 4786 c1bd 4b52 5d3d 6699 ac3e 4e8d eabd
000000a0: 8035 a6be fa89 1dbe 5c9d 0c3e e835 0abf
000000b0: ddd4 c23e 94b2 e5bd f624 edbe 7c4f 0d3e
000000c0: 39da 3ebc 631f d73e 0e47 01bf b4d4 01bf
000000d0: 2a8f b33e e8fe f9be 14fd c33e 4269 783e
000000e0: 44ad 66bd 6ddc d2be 7d0b b33e 0ce0 033f
000000f0: 8a91 f13e 65e8 933d 5bfa 66be bb8b 39be

gat_layers.1.att_dst f4 [1, 4, 16]
0.502675 -0.11791339 0.26552123 -0.12376694 -0.047725152 0.23950586 0.394323 0.35879079
0.13201793 0.5421451 -0.14135212 0.4433117 0.09837035 0.021643354 0.08873345 -0.32365882
-0.29337937 0.25510898 0.0059938044 -0.3454213 0.4877507 0.50334615 -0.49213946 -0.23475344
-0.15568002 0.3116096 0.023499405 0.23973817 -0.30569977 -0.006270839 0.3464052 -0.44674745
0.006303389 0.27350459 0.11508163 -0.5394548 0.2917663 -0.434883 -0.1367905 0.41906348
0.2465229 0.40857273 0.38882178 0.22325464 -0.10243256 -0.18107301 -0.37797862 0.12619327
0.41477937 -0.32979295 0.14992926 0.06227251 0.29451764 0.44790876 0.02862456 -0.11454967
0.38740903 0.5189507 0.39403898 0.35439706 0.41446134 -0.21284409 -0.30459175 0.46533242
00000000: 4faf 003f 937c f1bd 66f2 873e 8579 fdbd
00000010: 737b 43bd 0641 753e b4e4 c93e 6db3 b73e
00000020: b52f 073e 05ca 0a3f 9cbe 10be c0f9 e23e
00000030: 6576 c93d 674d b13c e2b9 b53d 9cb6 a5be
00000040: d235 96be a59d 823e ad67 c43b 10db b0be
00000050: 76ba f93e 4bdb 003f b4f9 fbbe 3563 70be
00000060: 956a 1fbe 4b8b 9f3e d381 c03c ec7d 753e
00000070: ae84 9cbe 9c7b cdbb 065c b13e 15bc e4be
00000080: a98c ce3b cb08 8c3e ebaf eb3d b619 0abf
00000090: 6462 953e fca8 debe cf12 0cbe 7d8f d63e
000000a0: 8070 7c3e 7230 d13e a613 c73e dd9c 643e
000000b0: 29c8 d1bd 346b 39be 6a86 c1be cf38 013e
000000c0: f65d d43e 9fda a8be 0e87 193e 7611 7f3d
000000d0: 04cb 963e 4c54 e53e 0e7e ea3c 0499 eabd
000000e0: 7a5a c63e f4d9 043f 7abf c93e 8873 b53e
000000f0: 4734 d43e cdf3 59be 73f3 9bbe 0d40 ee3e

gat_layers.1.att_edge f4 [1, 4, 16]
0.28280252 -0.3418583 -0.43105796 0.2630472 -0.1323334 0.4110053 -0.17635523 -0.45628288
0.40702066 0.5159647 -0.53904355 0.18752845 -0.298609 0.34274006 -0.18778987 -0.34939802
-0.52634513 -0.060732678 -0.3815095 -0.23753451 -0.5329824 -0.049878616 -0.23718904 0.08338728
0.5317184 0.49367732 -0.16432202 0.51486164 -0.5073576 -0.21761134 0.47890687 -0.5271774
-0.3179339 0.29606473 0.05699839 0.1088642 0.28032783 0.2512256 0.42374715 -0.16190107
-0.0737595 -0.12603593 -0.014165771 0.28542706 0.2583635 0.4626091 0.35733837 -0.3081433
-0.4664268 -0.30943432 -0.35658967 0.13762586 -0.052137136 -0.28301167 -0.07923463 -0.2964662
0.2069579 0.17341651 0.025105068 0.1856108 0.500126 -0.42820483 0.06913211 -0.009712208
00000000: 7ecb 903e 0d08 afbe a1b3 dcbe 1fae 863e
00000010: 6882 07be 496f d23e 7796 34be e99d e9be
00000020: 0365 d03e 4316 043f c2fe 09bf 7507 403e
00000030: 47e3 98be a07b af3e fd4b 40be 4ce4 b2be
00000040: 8ebe 06bf d4c2 78bd 3755 c3be 3f3c 73be
00000050: 8971 08bf 854d 4cbd afe1 72be f3c6 aa3d
00000060: b21e 083f 46c3 fc3e 0844 28be f9cd 033f
00000070: 30e2 01bf 82d5 5ebe 4833 f53e 19f5 06bf
00000080: 3bc8 a2be cc95 973e 2577 693d 32f4 de3d
00000090: 2187 8f3e a4a0 803e 63f5 d83e 65c9 25be
000000a0: 390f 97bd 900f 01be 8d17 68bc 7f23 923e
000000b0: 3848 843e 1adb ec3e 0ef5 b63e f5c4 9dbe
000000c0: 7ecf eebe 2d6e 9ebe ec92 b6be cbed 0c3e
000000d0: c08d 55bd e8e6 90be c445 a2bd 6bca 97be
000000e0: c6ec 533e 1994 313e 25a9 cd3c c210 3e3e
000000f0: 4208 003f aa3d dbbe 2395 8d3d f41f 1fbc

gat_layers.1.bias f4 [64]
-0.004848703 -0.0050636046 -0.004947121 -0.004796813 -0.0049135284 -0.0049792184 -0.0066907806 -0.005325127
0.008019433 -0.0050207954 -0.004874488 -0.0050027124 -0.0049722665 -0.005240828 -0.005804421 -0.0052428045
-0.005141804 -0.0065044123 -0.005194638 -0.000638189 0.00644122 -0.005115357 -0.006497337 0.010796579
-0.0049439585 0.0027039815 -0.005260096 -0.0051649036 -0.005242719 -0.0051324274 -0.005210953 0.0061676055
0.015432751 -0.006132989 0.0025101232 -0.0050082775 -0.0052899453 -0.0050123697 0.009794981 -0.0051865824
0.009244442 -0.0064801155 -0.0033192732 -0.0050051003 -0.005212285 -0.0060840095 -0.0051486273 -0.004877577
-0.005241702 -0.005253985 -0.005149279 -0.0051538805 0.016050097 -0.0049892943 -0.0003899635 0.013318981
0.009956641 -0.005226331 0.012357549 -0.0051162285 -0.00310089 0.009406039 -0.0052018566 -0.005206076
00000000: dee1 9ebb 98ec a5bb 751b a2bb 952e 9dbb
00000010: aa01 a1bb b628 a3bb 563e dbbb 677e aebb
00000020: f163 033c 7c85 a4bb 2bba 9fbb cbed a3bb
00000030: 65ee a2bb 40bb abbb 0333 bebb d5cb abbb
00000040: 947c a8bb f722 d5bb c837 aabb 244c 27ba
00000050: df10 d33b ba9e a7bb 9de7 d4bb 22e4 303c
00000060: ee00 a2bb 4835 313b e25c acbb 5a3e a9bb
00000070: 1dcb abbb ec2d a8bb a4c0 aabb a019 ca3b
00000080: a6d9 7c3c 3ef7 c8bb e180 243b 7a1c a4bb
00000090: 4757 adbb ce3e a4bb 217b 203c 35f4 a9bb
000000a0: 0076 173c 2657 d4bb 2a88 59bb d301 a4bb
000000b0: d1cb aabb 5f5c c7bb d1b5 a8bb 15d4 9fbb
000000c0: 95c2 abbb 9f29 acbb 48bb a8bb e2e1 a8bb
000000d0: 7e7b 833c 3c7d a3bb 0474 ccb9 db37 5a3c
000000e0: 2e21 233c a441 abbb 5177 4a3c 09a6 a7bb
000000f0: 4d38 4bbb c91b 1a3c 5674 aabb bb97 aabb

gat_layers.1.lin.weight f4 [64, 64]
0.16204527 0.017208219 -0.17156632 -0.20447193 0.21076381 0.058876164 0.17203504 0.004478127
-0.14075328 0.08740329 0.15158457 -0.10273678 -0.02185176 0.09552421 -0.1257434 -0.08398106
0.19865553 0.03138591 -0.11537359 -0.19155023 0.08261202 0.052460283 0.20845446 0.18448709
0.087990254 -0.1475253 0.008828555 0.026715338 0.055151384 -0.047796078 0.17007871 0.069551006
0.0034171548 0.15010977 -0.053049807 -0.060046114 -0.023076465 0.20886038 -0.026167125 -0.040150963
-0.13262448 -0.10058976 0.17427567 0.16001345 0.0057495097 0.21578805 0.17129561 0.022172516
-0.045745235 0.004945732 -0.10263168 0.17316592 0.07724667 0.10215026 0.066312395 0.18917868
0.0053260457 0.15686443 -0.10711774 -0.0804735 -0.0047085397 0.20011717 -0.16901454 0.19769806
-0.00962486 0.06264073 0.09349825 0.059203792 -0.0107970135 0.18596365 -0.00831527 0.06873549
0.21058951 0.106339864 0.091460116 0.036606167 0.06140617 0.045857396 0.06604816 -0.14541629
0.14627601 -0.09467441 0.068372525 0.0010680344 -0.1420352 0.12760687 -0.092576735 -0.15374997
-0.04818247 -0.20297673 -0.1670594 0.10269878 0.0029192886 0.17401837 -0.1889992 0.13814387
0.18149465 0.02131789 -0.032298565 0.06284383 0.010136851 0.059334647 0.087841965 -0.0995444
0.09866409 0.0955322 0.03734205 -0.18815951 0.1505965 0.15889788 0.041501958 -0.13940346
0.12387011 0.21348816 0.20420124 0.082706936 0.01668861 0.20948875 -0.020412788 0.12281282
-0.046757296 0.14089067 -0.04903632 0.087908 0.187355 0.10821182 0.12617914 0.12467162
-0.12823099 0.2128037 -0.09548802 -0.101982184 0.123555794 0.061195496 -0.14907694 -0.17888844
0.13455641 -0.19466746 0.11988831 0.038191278 0.09722105 0.11472335 0.03167332 -0.072280735
0.1732505 0.181415 -0.0020010255 0.19980846 -0.01668955 0.12372195 0.2153402 -0.1524382
-0.16015965 -0.15462962 0.033302683 0.12917 0.10742801 -0.21035111 -0.0023332082 0.12885983
-0.04240639 0.20070249 0.1860076 -0.21346362 -0.12997949 -0.21318305 0.20646751 -0.13110106
0.2002459 0.2050812 -0.07998814 -0.1582437 0.20127323 0.14608967 0.031212922 -0.20001474
-0.1913607 -0.030076688 -0.13463584 -0.04877289 -0.2140827 0.13291743 -0.007481794 0.0710762
0.0890773 -0.16034588 -0.09722746 0.09936031 -0.0133206155 0.15446691 -0.012550187 -0.060283687
-0.07308888 -0.12822457 -0.08637305 0.14260425 0.19279023 -0.20606512 0.19141385 -0.10199009
-0.0044470173 0.13565838 0.04554685 0.08141052 -0.0034360862 0.18244125 0.039494578 -0.076664016
0.16015987 0.10298632 -0.19155684 -0.052981336 -0.1907003 0.03507537 -0.077360645 0.06575263
0.21395469 -0.049012285 -0.17851008 -0.14715067 -0.19528785 -0.13611697 0.010446245 0.17992805
0.03828373 -0.003454739 0.14554764 0.09932112 -0.06762746 -0.09843319 -0.008073776 0.044294868
-0.12702271 0.050736487 0.18910235 -0.002902431 -0.113141604 -0.107848264 -0.0606121 -0.12312232
-0.078400955 0.016324073 -0.13178155 0.19515832 0.013177288 0.18693961 0.033196576 0.17779103
-0.0779579 0.011414752 0.17332952 -0.13201247 0.09948494 -0.051855896 -0.07690668 -0.10140143
00000000: 32ef 253e 40f8 8c3c 15af 2fbe 1761 51be
00000010: 78d2 573e 2228 713d f429 303e 41bd 923b
00000020: a121 10be 7f00 b33d fc38 1b3e a967 d2bd
00000030: 7602 b3bc 32a2 c33d e1c2 00be 43fe abbd
00000040: 5b6c 4b3e 838e 003d fd48 ecbd be25 44be
00000050: 7e30 a93d 98e0 563d 1675 553e 2fea 3c3e
00000060: 3c34 b43d df10 17be a5a5 103c 20da da3c
00000070: 6be6 613d d2c5 43bd 1d29 2e3e c270 8e3d
00000080: 58f2 5f3b 60b6 193e c14a 59bd eaf2 75bd
00000090: db0a bdbc 7fdf 553e 705c d6bc 5675 24bd
000000a0: b6ce 07be 0102 cebd 5275 323e 91da 233e
000000b0: 6266 bc3b 8bf7 5c3e 1e68 2f3e 23a3 b53c
000000c0: 5b5f 3bbd cf0f a23b 8f30 d2bd 6852 313e
000000d0: 8133 9e3d 2834 d13d cbce 873d 0eb8 413e
000000e0: 1c86 ae3b 12a1 203e 8c60 dbbd 4acf a4bd
000000f0: 184a 9abb 84eb 4c3e 2612 2dbe 5c71 4a3e
00000100: 97b1 1dbc c849 803d 037c bf3d ad7f 723d
00000110: f5e5 30bc 416d 3e3e c53c 08bc 31c5 8c3d
00000120: c7a4 573e b7c8 d93d 714f bb3d 59f0 153d
00000130: 0985 7b3d f7d4 3b3d 4244 873d 02e8 14be
00000140: 61c9 153e a8e4 c1bd e506 8c3d 4afd 8b3a
00000150: ad71 11be 60ab 023e df98 bdbd a270 1dbe
00000160: fb5a 45bd 22d9 4fbe 9f11 2bbe bd53 d23d
00000170: 8951 3f3b df31 323e 0289 41be 9675 0d3e
00000180: bcd9 393e dba2 ae3c 804b 04bd 44b4 803d
00000190: 0915 263c e308 733d 7de6 b33d efdd cbbd
000001a0: 6610 ca3d 63a6 c33d faf3 183d e3ac 40be
000001b0: f835 1a3e 20b6 223e f5fd 293d c8bf 0ebe
000001c0: 9daf fd3d a49c 5a3e 211a 513e 4162 a93d
000001d0: 8db6 883c 3884 563e b838 a7bc 4a85 fb3d
000001e0: 9484 3fbd a545 103e 4fda 48bd 1c09 b43d
000001f0: fdd9 3f3e 299e dd3d 1b35 013e d653 ff3d
00000200: fc4e 03be 37e9 593e 398f c3bd 09dc d0bd
00000210: d20a fd3d 21a8 7a3d a0a7 18be 882e 37be
00000220: 28c9 093e e856 47be 0188 f53d 756e 1c3d
00000230: d41b c73d 13f4 ea3d e2bb 013d ec07 94bd
00000240: 9468 313e dbc4 393e a323 03bb 979a 4c3e
00000250: 86b8 88bc ef61 fd3d 2482 5c3e c218 1cbe
00000260: e400 24be 3a57 1ebe 6568 083d 2445 043e
00000270: 3703 dc3d 4866 57be bde8 18bb d5f3 033e
00000280: 53b2 2dbd f484 4d3e c778 3e3e 3596 5abe
00000290: 5819 05be a84c 5abe 386c 533e 5b3f 06be
000002a0: 430d 4d3e ce00 523e d2d0 a3bd a30a 22be
000002b0: 921a 4e3e 8898 153e 3eb2 ff3c aad0 4cbe
000002c0: 0ff4 43be 6363 f6bc fadd 09be 15c6 47bd
000002d0: 7f38 5bbe 821b 083e d629 f5bb 6690 913d
000002e0: 296e b63d b631 24be 311f c7bd 6b7d cb3d
000002f0: b63e 5abc 932c 1e3e 4d9f 4dbc 07ec 76bd
00000300: 9faf 95bd 4d4d 03be 5be4 b0bd d906 123e
00000310: cd6a 453e bc02 53be fe01 443e 2ee0 d0bd
00000320: 49b8 91bb 08ea 0a3e 558f 3a3d 8fba a63d
00000330: f62f 61bb e1d1 3a3e 11c5 213d 0602 9dbd
00000340: f300 243e 7eea d23d 7a27 44be f502 59bd
00000350: f046 43be 31ab 0f3d 426f 9ebd 51a9 863d
00000360: f016 5b3e 1bc1 48bd 59cb 36be aaae 16be
00000370: 8af9 47be 3f62 0bbe ba26 2b3c 0f3f 383e
00000380: 67cf 1c3d e768 62bb 710a 153e df68 cb3d
00000390: 4480 8abd 5797 c9bd df47 04bc 896e 353d
000003a0: 3e12 02be 10d1 4f3d 0ca4 413e b636 3ebb
000003b0: c9b6 e7bd 8ddf dcbd 6544 78bd 8e27 fcbd
000003c0: ae90 a0bd 10ba 853c bef1 06be 95d7 473e
000003d0: 8de5 573c 196d 3f3e 22f9 073d da0e 363e
000003e0: 64a8 9fbd f104 3b3c 4b7d 313e 472e 07be
000003f0: c3be cb3d d966 54bd 4081 9dbd 8eab cfbd

gat_layers.1.lin_edge.weight f4 [64, 64]
0.10481274 0.1300715 -0.16741922 0.048576873 0.0806497 0.020891398 0.13342078 -0.13596316
0.04548708 0.062181037 0.05202451 0.10076247 -0.008718535 0.15415643 0.007202681 0.18593961
-0.2147237 -0.09016868 0.19386566 -0.05792317 0.16090108 -0.12501669 0.045735247 -0.11640073
-0.02815933 0.20851637 -0.15898418 -0.018912498 0.13778698 0.18058704 -0.15006968 0.09291891
-0.082276 -0.065506734 -0.19139399 -0.0041087703 0.110276036 0.049495272 0.14980835 -0.07976614
0.0036232853 0.2149984 0.122891866 0.21076076 0.019115312 -0.21479906 -0.029435016 -0.19958006
0.019917363 0.19752881 -0.17358707 0.20703983 0.085061654 0.080884494 0.01208072 0.19824536
-0.18914458 -0.03329733 0.03717915 0.10267504 0.058921475 -0.13104706 -0.1514238 0.19851494
-0.1769388 -0.2012669 0.036075495 -0.13029565 0.062177923 0.035676714 0.06118863 0.010387668
0.008809085 0.09572121 -0.14436415 -0.08277457 -0.19246194 -0.19588825 0.19615841 0.090218075
0.2113199 0.14008386 -0.18693866 0.13110214 -0.19549446 0.033334237 -0.0103269555 -0.059695788
0.051836554 -0.16555129 -0.16720326 0.13382246 -0.10131795 0.19980243 0.056161437 0.11229326
0.01823303 0.06331442 -0.11409015 -0.039879818 -0.049272448 0.039563537 0.145891 -0.012178577
-0.1637296 -0.097918786 0.20963322 -0.05194589 -0.16730776 0.019622065 0.15252103 -0.048071567
-0.0845017 -0.018647732 0.10925946 0.07581231 -0.06367531 -0.14597248 0.014018495 -0.025096165
0.16020112 0.027993375 -0.0011514892 -0.032049734 -0.021703377 -0.09220479 -0.11071158 0.1351807
0.12973121 0.023735527 -0.14532793 -0.08292634 -0.012808617 0.20195484 0.10496427 -0.19014388
-0.19374238 0.1677987 0.06034506 0.14934528 -0.018861685 0.04454142 0.13550279 0.09491343
0.195291 -0.16385749 -0.041271143 -0.03269299 0.047886115 0.16234428 0.09637157 -0.020681966
0.12136014 0.09144717 -0.08001255 -0.08263842 -0.09344821 -0.028276464 -0.12034324 -0.15572236
0.10795189 0.05494876 0.14387381 0.079358414 0.09585483 -0.1845597 0.16439942 -0.029153874
-0.19033025 -0.080779165 -0.18356726 0.18334442 -0.17423047 -0.02826072 -0.12621021 0.17916334
0.16660799 -0.12946144 -0.096866734 -0.039642118 -0.15668207 0.090129845 -0.0047292938 -0.076611616
0.19810109 -0.19857731 -0.14776185 0.11022254 0.009478371 -0.08462175 0.004570315 -0.12401925
0.1853205 0.16371407 -0.011648282 -0.20686984 0.17478782 -0.13932121 0.02330247 -0.18520531
0.040695477 0.024904346 -0.006895353 -0.09105026 -0.14754228 0.04495403 -0.13405949 -0.038979046
0.02128157 -0.050290354 0.1168684 0.18263593 -0.05306812 -0.07375502 -0.10113485 -0.007300752
-0.113527685 -0.012606397 0.08513124 -0.17062835 0.074610196 -0.1647129 0.16659455 -0.06826736
0.16149701 -0.1806257 0.099634744 0.16505821 0.16099574 -0.21914908 -0.008880529 0.14582446
0.20268965 -0.1445764 -0.044022497 0.08050852 0.0747068 0.18015456 -0.04729727 0.18824598
-0.16674763 0.07846528 -0.19858462 0.20414746 -0.20658241 -0.12975055 -0.11251419 0.19969448
-0.049468823 0.061581925 -0.14134692 -0.20899323 -0.1899505 -0.0045890785 -0.042556927 0.10903631
00000000: 10a8 d63d 7731 053e f26f 2bbe 8bf8 463d
00000010: ab2b a53d 7024 ab3c 759f 083e ed39 0bbe
00000020: a950 3a3d 8bb1 7e3d a717 553d 8e5c ce3d
00000030: 30d8 0ebc 2fdb 1d3e 7804 ec3b f466 3e3e
00000040: 88e0 5bbe 5baa b8bd b884 463e d940 6dbd
00000050: 41c3 243e 6004 00be e254 3b3d 8263 eebd
00000060: 65ae e6bc 5185 553e c0cc 22be 62ee 9abc
00000070: 0818 0d3e cfeb 383e deab 19be 454c be3d
00000080: 5280 a8bd 6528 86bd c9fc 43be dda2 86bb
00000090: 67d8 e13d 8ebb 4a3d 5c67 193e 6e5c a3bd
000000a0: a474 6d3b 8a28 5c3e bbae fb3d abd1 573e
000000b0: b797 9c3c 49f4 5bbe b421 f1bc b75e 4cbe
000000c0: bd29 a33c fe44 4a3e cfc0 31be 4002 543e
000000d0: ce34 ae3d c5a6 a53d 36ee 453c d500 4b3e
000000e0: 1eaf 41be c862 08bd 2a49 183d 4b47 d23d
000000f0: a557 713d 3331 06be d70e 1bbe 8047 4b3e
00000100: 722f 35be e918 4ebe e6c3 133d 396c 05be
00000110: 47ae 7e3d bf21 123d eea0 7a3d 0a31 2a3c
00000120: fb53 103c 7b09 c43d 32d4 13be b785 a9bd
00000130: be14 45be ee96 48be c0dd 483e 41c4 b83d
00000140: 3e64 583e 2572 0f3e d96c 3fbe a43f 063e
00000150: b32f 48be 7b89 083d 6432 29bc 9283 74bd
00000160: 9152 543d 4786 29be 5537 2bbe c108 093e
00000170: c97f cfbd 0299 4c3e 8909 663d 02fa e53d
00000180: 6f5d 953c feaa 813d 19a8 e9bd 0559 23bd
00000190: e8d1 49bd 600d 223d 7364 153e a788 47bc
000001a0: bba8 27be a589 c8bd 17aa 563e 37c5 54bd
000001b0: ba52 2bbe 74be a03c 792e 1c3e b1e6 44bd
000001c0: 3a0f adbd 21c3 98bc 6cc3 df3d 7c43 9b3d
000001d0: 3368 82bd cf79 15be d4ad 653c 7996 cdbc
000001e0: c30b 243e 5d52 e53c 91ed 96ba 9546 03bd
000001f0: 48cb b1bc ddd5 bcbd c1bc e2bd cf6c 0a3e
00000200: 42d8 043e 0271 c23c d8d0 14be 49d5 a9bd
00000210: 3cdb 51bc 40cd 4e3e 82f7 d63d 14b5 42be
00000220: 6764 46be 6cd3 2b3e 622c 773d f8ed 183e
00000230: d283 9abc 1071 363d 3ec1 0a3e f961 c23d
00000240: 5dfa 473e 42ca 27be ee0b 29bd 16e9 05bd
00000250: 3b24 443d 943d 263e 755e c53d 3a6d a9bc
00000260: aa8b f83d a748 bb3d 9fdd a3bd 553e a9bd
00000270: c661 bfbd 0ba4 e7bc 8476 f6bd af75 1fbe
00000280: e115 dd3d f311 613d a853 133e aa86 a23d
00000290: 8a4f c43d 38fd 3cbe 5258 283e 1bd4 eebc
000002a0: efe5 42be 8c6f a5bd 0ef9 3bbe a4be 3b3e
000002b0: 7969 32be 0783 e7bc 403d 01be 9876 373e
000002c0: 499b 2a3e 8a91 04be 1162 c6bd c65f 22bd
000002d0: 4471 20be ff95 b83d 31f8 9abb 8de6 9cbd
000002e0: 03db 4a3e da57 4bbe e24e 17be 5bbc e13d
000002f0: 2b4b 1b3c 2b4e adbd 95c2 953b cefd fdbd
00000300: a8c4 3d3e a9a4 273e 70d8 3ebc b0d5 53be
00000310: 94fb 323e 38aa 0ebe d2e4 be3c 76a6 3dbe
00000320: 4db0 263d 3304 cc3c 6af2 e1bb 8f78 babd
00000330: 5315 17be b821 383d e446 09be 7ea8 1fbd
00000340: b056 ae3c 42fd 4dbd b358 ef3d ea04 3b3e
00000350: f55d 59bd df0c 97bd ca1f cfbd 263b efbb
00000360: 3481 e8bd 108b 4ebc 4a59 ae3d 33b9 2ebe
00000370: 3bcd 983d 80aa 28be c397 2a3e c2cf 8bbd
00000380: 795f 253e f2f5 38be 4d0d cc3d 0505 293e
00000390: 11dc 243e 9e68 60be a37f 11bc 0253 153e
000003a0: e08d 4f3e d60b 14be ef50 34bd a7e1 a43d
000003b0: e1ff 983d 707a 383e c8ba 41bd 8ec3 403e
000003c0: e4bf 2abe 68b2 a03d c459 4bbe 080c 513e
000003d0: 578a 53be 54dd 04be d76d e6bd b67c 4c3e
000003e0: d29f 4abd 543d 7c3d 3fbd 10be 5202 56be
000003f0: 6282 42be fb5f 96bb 2c50 2ebd 6e4e df3d
