models/best_fraud_model_seed_5432.pth (torch, 378242 bytes, 45 tensors)

node_emb.weight f4 [64, 8]
0	0x3d1617de	0.036643855
1	0xbe66c10b	-0.22534578
2	0x3e642e40	0.22283268
3	0xbdc6c1f4	-0.097049624
4	0xbe8e33cd	-0.27773896
5	0xbe975a1f	-0.29560944
6	0xbe9deb19	-0.30843428
7	0x3ea6e73c	0.32598293
8	0x3ea5a450	0.32351923
9	0xbe009d25	-0.12559946
10	0x3dc1b4ad	0.09458289
11	0x3cd6b503	0.02620936
12	0x3e5e72fd	0.21723552
13	0x3e591685	0.21199997
14	0x3ddd12af	0.10794579
15	0x3cf73eee	0.030181374
16	0x3ea902a6	0.33009833
17	0x3d8e7ac8	0.069570124
18	0x3e348ebe	0.17632577
19	0x3eaa28f0	0.33234358
20	0x3e7e8dab	0.2485873
21	0xbe9c7978	-0.30561423
22	0xbc2508e0	-0.010072917
23	0xbe1b6a06	-0.15177163
24	0xbd1ae47f	-0.037815567
25	0x3de7a7c7	0.11311298
26	0x3e631388	0.2217542
27	0x3e0be60e	0.13661978
28	0xbe146723	-0.14492469
29	0xbe134670	-0.14382339
30	0x3e95ed9e	0.2928285
31	0xbd6d332e	-0.057910137
32	0xbdb77df0	-0.089595675
33	0xbd259a3a	-0.040430285
34	0x3eb4a088	0.35278726
35	0xbe6e1639	-0.23250665
36	0xbe24dc5f	-0.1609969
37	0xbe44e904	-0.19229513
38	0xbda921c8	-0.082583964
39	0xbdea49eb	-0.1143988
40	0x3e33cc3a	0.17558375
41	0xbdfa29c6	-0.12214999
42	0xbe519c86	-0.20469865
43	0xbe3f6ddf	-0.18694256
44	0x3e118ba0	0.14213419
45	0x3eaa1285	0.33217254
46	0x3df03986	0.11729722
47	0x3eadcca3	0.33945188
48	0x3eb2ed20	0.34946537
49	0x3e9351f2	0.28773457
50	0x3e03487b	0.12820618
51	0x3e5445ce	0.20729753
52	0x3e63418c	0.22192973
53	0x3df66411	0.12030805
54	0xbdba5721	-0.0909865
55	0xbaae8117	-0.0013313618
56	0x3e913c01	0.28366092
57	0xbcda4d0c	-0.026648067
58	0xbe337f15	-0.17528947
59	0xbc11e4d6	-0.008904656
60	0xbd40c448	-0.04706219
61	0x3ea95bbe	0.33077806
62	0x3e1de5a1	0.15419628
63	0x3d06ea97	0.032938566
64	0xbdf7210f	-0.12066852
65	0xbe8736c0	-0.26408958
66	0xbe9c34f1	-0.3050914
67	0x3e8fef3a	0.28112203
68	0x3e70665f	0.23476551
69	0xbe08f70b	-0.1337549
70	0xbbc02b6d	-0.0058645518
71	0x3eaece5e	0.3414182
72	0x3d0ff908	0.035149604
73	0xbe1ee4cc	-0.15516967
74	0x3d69f390	0.057117045
75	0x3e9003fb	0.28128037
76	0x3e37d720	0.17953157
77	0xbe88d0ce	-0.26721805
78	0x3e65c324	0.22437721
79	0x3e84a850	0.25909662
80	0xbdaf3a3b	-0.085560285
81	0x3d166738	0.03671953
82	0xbe5718c9	-0.21005549
83	0xbcab267c	-0.020892374
84	0xbe9594a5	-0.2921497
85	0xbd38d932	-0.04512901
86	0x3e797227	0.24359952
87	0x3e932ac5	0.28743568
88	0xbea7009a	-0.32617646
89	0xbda73e64	-0.08166197
90	0x3e9a1950	0.30097437
91	0xbd83ad53	-0.06429543
92	0x3dff2331	0.12457884
93	0x3e1e379d	0.15450902
94	0xbdc4b223	-0.096042894
95	0x3d230866	0.03980293
96	0xbe410ae6	-0.18851814
97	0x3e7e7553	0.24849443
98	0xbe3f8e58	-0.18706644
99	0x3cbf6dc8	0.023367777
100	0xbc87f4a6	-0.01659615
101	0xbe7a7041	-0.24456884
102	0xbe4508c7	-0.1924163
103	0xbd3c8036	-0.04602071
104	0x3ea1e675	0.31621137
105	0x3e8217dd	0.2540883
106	0x3e68e199	0.22742309
107	0xbeac19a1	-0.33613303
108	0xbde0632a	-0.10956414
109	0x3e34c569	0.17653431
110	0xbd0f63a4	-0.035007134
111	0xbeb33253	-0.34999332
112	0xbe6f809e	-0.23388907
113	0xbbca554e	-0.00617472
114	0xbe7e3bad	-0.24827452
115	0x3e6fdf5e	0.23425052
116	0x3e13522b	0.14386813
117	0x3db9f408	0.090797484
118	0xbd965244	-0.0733991
119	0xbe46b428	-0.19404662
120	0x3e9338ad	0.28754178
121	0xbd9352d8	-0.071935356
122	0x3d60c157	0.054871883
123	0xbded1ce5	-0.11577777
124	0x3e733bb2	0.2375324
125	0x3bbb724c	0.0057204124
126	0xbe5f9032	-0.2183235
127	0xbe2f968c	-0.17147273
128	0xbe1e17cd	-0.15438767
129	0xbde1fb8b	-0.11034306
130	0xbd6a5449	-0.057209287
131	0xbd25572c	-0.040366337
132	0xbe1346ac	-0.14382428
133	0xbe1f06f2	-0.15529993
134	0x3e7a4f19	0.24444236
135	0x3d23a24b	0.039949697
136	0x3e50ec7a	0.20402709
137	0xbc934b70	-0.017980307
138	0x3e47e13d	0.19519515
139	0x3c926881	0.017872097
140	0x3eb3b1c9	0.35096577
141	0xbe80a3b7	-0.25124905
142	0x3eb1ffd1	0.34765485
143	0xbe5841aa	-0.21118799
144	0x3c9b20da	0.018936563
145	0xbdc56987	-0.09639268
146	0xbe1f4cd5	-0.15556653
147	0xbcb3bba9	-0.02194007
148	0x3d2fabc6	0.042888425
149	0xbe91b95e	-0.28461736
150	0x3e3e58f0	0.18588614
151	0xbea0e479	-0.3142431
152	0x3ea8b695	0.329518
153	0xbced8313	-0.028993165
154	0x3d39cf4a	0.045363702
155	0x3ccf51a3	0.025307482
156	0x3e9297eb	0.2863153
157	0xbcf9b202	-0.030480389
158	0x3e920aeb	0.28523955
159	0xbc8140cc	-0.015777968
160	0x3df425e3	0.11921289
161	0x3eadcbcc	0.33944547
162	0x3ea999b7	0.33125088
163	0xbdf2920d	-0.11844263
164	0xbe00ecd3	-0.12590341
165	0xbdf8a9ba	-0.12141748
166	0x3ea1ed48	0.31626344
167	0xbe850b3e	-0.2598514
168	0xbe0139c5	-0.12619694
169	0xbc02cd26	-0.0079834815
170	0xbe81da2e	-0.2536177
171	0xbe2c65b5	-0.16835673
172	0xbcc2d288	-0.02378203
173	0xbea837e8	-0.32855153
174	0xbe961870	-0.2931552
175	0xbe5c0b81	-0.21488763
176	0xbb7026a2	-0.003664412
177	0xbe945a4a	-0.28975135
178	0x3e69c202	0.22827914
179	0xbe937025	-0.28796497
180	0x3de1f4ae	0.11032997
181	0xbb168bac	-0.0022971435
182	0xbd70de5d	-0.058805812
183	0xbdf91c67	-0.121636204
184	0xbeafab5b	-0.3431042
185	0xbd3b34d8	-0.045704693
186	0x3e1f76d7	0.15572678
187	0xbe4fc1af	-0.20288728
188	0x3e1962cc	0.14979094
189	0x3d28fbfd	0.04125594
190	0xbe3b235f	-0.18275212
191	0xbd633387	-0.055469062
192	0x3e4d1fdc	0.20031685
193	0x3d29ef5f	0.041488048
194	0x3e802a88	0.2503245
195	0xbddc4845	-0.10755972
196	0xbdce3d63	-0.10070302
197	0xbe205dcc	-0.1566078
198	0xbe8e9dc1	-0.27854732
199	0x3e96222f	0.29322955
200	0x3e640b1f	0.22269867
201	0xbe8cf095	-0.275273
202	0xbe99f3be	-0.30068773
203	0x3e5e50f6	0.21710572
204	0x3e233c75	0.15941031
205	0x3e19dd58	0.15025842
206	0xbe6546b7	-0.22390257
207	0x3dff71f6	0.12472908
208	0x3e196774	0.1498087
209	0x3e6cd0f9	0.23126592
210	0xbe84bfa2	-0.25927454
211	0x3df5a7f9	0.11994929
212	0x3ea505a8	0.32230878
213	0x3db64935	0.08900682
214	0x3e055828	0.1302191
215	0xbe1f7c52	-0.15574768
216	0xbe8efffb	-0.27929673
217	0xbe78efc8	-0.2431022
218	0x3d0ebbbd	0.03484701
219	0xbeae892d	-0.34089032
220	0xbd8ba5b3	-0.06818714
221	0x3e9d465d	0.30717745
222	0x3ea36ff8	0.31921363
223	0xbdfc5db9	-0.12322564
224	0xbea64071	-0.3247104
225	0x3dcccc8c	0.09999952
226	0x3d1dbfc8	0.038512975
227	0xbeb99cf8	-0.3625257
228	0x3e5dd1c3	0.21662049
229	0xbe4ec428	-0.20192015
230	0x3c69744a	0.014248917
231	0x3e0761b0	0.13220859
232	0xbd7e4842	-0.06208063
233	0x3eae24c0	0.34012413
234	0xbdc74ccd	-0.097314455
235	0xbe1584ca	-0.14601436
236	0x3e623425	0.22090204
237	0x3e92dfcc	0.28686368
238	0xbe3ceb28	-0.1844908
239	0xbe5774ed	-0.21040697
240	0x3e8d7d67	0.27634737
241	0xbdec8626	-0.11549024
242	0xbdd5fb17	-0.10448282
243	0x3e86bb65	0.26314846
244	0xbe763340	-0.24042988
245	0x3e2ad4ab	0.16682689
246	0x3ea9f363	0.33193502
247	0xbe3ea8d2	-0.18619087
248	0x3e2c1b26	0.16807231
249	0x3ea92c9e	0.33041853
250	0xbc901850	-0.017589718
251	0x3d896aeb	0.06709846
252	0x3d16c68f	0.036810454
253	0x3e765b20	0.24058199
254	0x3e8bffe3	0.27343664
255	0xbe13034d	-0.14356728

node_emb.bias f4 [64]
0	0x3dd72830	0.10505712
1	0xbcc02c10	-0.02345851
2	0x3e44569c	0.19173664
3	0x3d2b3bcb	0.04180507
4	0x3e9e57d7	0.3092639
5	0xbe45342d	-0.19258185
6	0xbd06462f	-0.032781776
7	0xbe6ddf44	-0.232297
8	0x3d25506f	0.04035991
9	0x3cee2341	0.029069545
10	0xbd012406	-0.031528495
11	0x3e7f2659	0.24916972
12	0x3ea399c8	0.31953263
13	0xbdc07fdc	-0.09399387
14	0xbdd41f3c	-0.1035752
15	0x3e91bd85	0.28464904
16	0xbeb8c0af	-0.36084506
17	0xbe8695b7	-0.26286098
18	0x3d310ece	0.04322701
19	0xbe55d37d	-0.20881458
20	0x3e8c7873	0.27435645
21	0x3e0c4180	0.13696861
22	0x3e994f21	0.29943183
23	0x3e296f22	0.165463
24	0x3cefd5fc	0.02927684
25	0x3e7e2897	0.24820171
26	0xbdf1b11f	-0.11801361
27	0x3db43f1b	0.08801099
28	0x3e032739	0.12807931
29	0x3e9f8faa	0.31164294
30	0xbd131d96	-0.035916887
31	0x3d989d98	0.074519336
32	0xbe226a3b	-0.15860836
33	0x3e9cdaca	0.30635673
34	0xbea0c077	-0.3139684
35	0xbe0295ba	-0.12752429
36	0xbe62fda5	-0.2216707
37	0x3d5c1e3a	0.053739764
38	0xbb966f25	-0.004590886
39	0xbeb6ed33	-0.35727844
40	0x3e565146	0.20929441
41	0xbde3c822	-0.11122157
42	0x3e636a14	0.22208434
43	0x3e05689c	0.13028187
44	0x3e6a0152	0.22852066
45	0xbc5511e7	-0.0130047565
46	0xbe65b5b7	-0.224326
47	0x3ea77bde	0.3271169
48	0x3d34a98b	0.044107
49	0xbe7eeeff	-0.24895857
50	0x3eac2d96	0.3362853
51	0xbe76515d	-0.24054475
52	0xbe63b6ba	-0.22237673
53	0x3bd77732	0.0065754885
54	0x3dcbd46e	0.09952627
55	0x3da82d8e	0.08211814
56	0xbb44dba3	-0.003003814
57	0x3e1f48a1	0.1555505
58	0xbcdd5f58	-0.027023003
59	0xbe8955c6	-0.26823252
60	0x3e705dd6	0.23473296
61	0x3c958326	0.018251013
62	0x3e86e0ca	0.26343375
63	0x3e5c5769	0.2151772

edge_emb.weight f4 [64, 2]
0	0x3e9ef8cd	0.31049195
1	0xbe607911	-0.21921183
2	0x3f22365f	0.63364214
3	0xbe1547aa	-0.14578119
4	0x3ecb09e9	0.39655998
5	0xbf00de44	-0.5033915
6	0xbd853cad	-0.065057136
7	0xbe6c6f60	-0.23089361
8	0x3f07993c	0.5296819
9	0x3e1a1863	0.15048365
10	0xbe9408f8	-0.28913093
11	0x3d8fe6be	0.070264325
12	0xbd8d22f4	-0.068914324
13	0x3e0e978f	0.13925003
14	0xbf10d035	-0.565677
15	0x3ded5a6e	0.11589514
16	0x3eed4499	0.46341398
17	0x3f2f6451	0.68512446
18	0xbe49fd4b	-0.1972553
19	0x3ecd5dac	0.40110528
20	0xbd81c3a1	-0.063361414
21	0xbe4a5f4a	-0.19762912
22	0x3e715c13	0.2357028
23	0x3f28af04	0.6589205
24	0x3f0c64fd	0.54841596
25	0x3ebe31b0	0.37147284
26	0x3f11d92a	0.5697199
27	0x3e5e96e8	0.21737254
28	0xbe3a440d	-0.18190022
29	0x3f3128fc	0.6920316
30	0xbea9af0d	-0.33141366
31	0x3e626d46	0.22111997
32	0xbf095849	-0.5365034
33	0x3ee22091	0.4416547
34	0x3d0c60a9	0.03427187
35	0xbf2dc1e2	-0.67873967
36	0x3f235f07	0.63816875
37	0xbf32270c	-0.6959083
38	0xbebfb198	-0.3744018
39	0xbf02a94a	-0.51039565
40	0xbf16e054	-0.5893605
41	0xbe65b5c0	-0.22432613
42	0xbdf30673	-0.118664645
43	0xbf168dfb	-0.58810395
44	0xbe076ed2	-0.13225868
45	0xbf18194f	-0.5941362
46	0x3ee99bf3	0.45626792
47	0x3f2d2551	0.67635065
48	0xbe9b59af	-0.3034186
49	0xbee4c917	-0.4468467
50	0xbdc1b842	-0.094589725
51	0xbebf95a7	-0.37418863
52	0xbeb4445b	-0.352084
53	0x3e121a4c	0.14267844
54	0xbee731e4	-0.4515525
55	0xbd72812d	-0.059205223
56	0xbe82672f	-0.25469348
57	0xbd072915	-0.032998163
58	0xbf035f55	-0.5131734
59	0x3ebb5d93	0.3659483
60	0xbe69dafb	-0.2283744
61	0xbe9df23a	-0.30848867
62	0x3e685edb	0.22692434
63	0xbf023eb2	-0.50876915
64	0xbe6ab58d	-0.22920819
65	0xbf04d1a4	-0.51882386
66	0x3dd7a261	0.10529018
67	0x3e418e45	0.18901928
68	0x3eb9a581	0.36259082
69	0x3f0a1aca	0.53947127
70	0x3e162899	0.14663924
71	0x3e6123f7	0.21986376
72	0xbf0f84b0	-0.5606184
73	0xbe9bcb85	-0.3042871
74	0xbf16b583	-0.58870715
75	0xbb2ca3bd	-0.0026342713
76	0x3f247e94	0.6425564
77	0x3de9a2ce	0.11408006
78	0xbe31673c	-0.17324537
79	0x3e8d60de	0.27612966
80	0x3d969467	0.07352524
81	0x3f316836	0.6929964
82	0xbeae4ee2	-0.34044558
83	0x3e606e63	0.21917109
84	0xbe6e9c35	-0.23301776
85	0xbe53c2c3	-0.20679764
86	0xbd2e0233	-0.042482566
87	0x3e0e5485	0.13899429
88	0x3d92b2f1	0.071630366
89	0x3e881b89	0.26583508
90	0xbd672c80	-0.056438923
91	0x3f1b2a5e	0.6061152
92	0xbf133a38	-0.5751071
93	0xbed7a082	-0.42114645
94	0x3ef52f1d	0.47887507
95	0x3f0f5a56	0.55997217
96	0xbedf4af3	-0.4361187
97	0xbe8f2320	-0.27956486
98	0x3e083bfb	0.1330413
99	0xbd92a420	-0.071602106
100	0xbe78ea80	-0.24308205
101	0xbf2ac8aa	-0.6671244
102	0x3f2a0b75	0.6642373
103	0xbea5f11e	-0.3241052
104	0x3f0a3957	0.53993744
105	0x3dbbd794	0.09171978
106	0xbf140c61	-0.5783139
107	0xbeb5457d	-0.35404578
108	0xbc10fb34	-0.008848954
109	0x3f08a5e0	0.53378105
110	0x3dadcead	0.08486686
111	0xbe8e39b4	-0.277784
112	0xbf015c19	-0.50531155
113	0xbcaa4e31	-0.020789238
114	0x3f174a6f	0.5909795
115	0x3f0cfb59	0.55071026
116	0xbe6e9605	-0.23299415
117	0x3f2c9f08	0.6743016
118	0xbf289f50	-0.6586809
119	0xbebf1212	-0.37318474
120	0xbe949d4c	-0.29026258
121	0xbf11ff31	-0.57030016
122	0xbf2d37ce	-0.67663276
123	0x3f26e566	0.65193784
124	0xbe8720cb	-0.26392207
125	0x3eafa69f	0.3430681
126	0x3f0c9814	0.5491955
127	0x3f226ef5	0.63450557

edge_emb.bias f4 [64]
0	0xbf08d0fe	-0.53443897
1	0xbee27bd0	-0.44235086
2	0x3e0b7e33	0.1362236
3	0x3ef8c77a	0.4858969
4	0x3e93846d	0.2881197
5	0x3e094157	0.13403831
6	0xbdd7cab7	-0.10536712
7	0x3c083492	0.008313315
8	0xbf37df3d	-0.7182501
9	0xbe30525d	-0.17218919
10	0xbd050833	-0.032478523
11	0x3f22c35a	0.6357933
12	0xbe8953a7	-0.26821634
13	0x3f05ef89	0.52318627
14	0x3e9a1a1f	0.30098054
15	0xbd1e7c49	-0.038692746
16	0x3ecdca11	0.40193227
17	0x3f14b338	0.58085966
18	0x3e3a71f5	0.18207534
19	0xbdaa8c5a	-0.08327551
20	0xbf0bccdb	-0.5460946
21	0xbf23888b	-0.63880223
22	0xbe80d4ba	-0.25162297
23	0xbdcef72a	-0.101057366
24	0xbec89901	-0.39179233
25	0x3e81312c	0.25232828
26	0xbd7b36db	-0.06133161
27	0xbe96eec3	-0.29479036
28	0xb692c100	-4.373607e-06
29	0xbed82044	-0.42212117
30	0xbdf3baf6	-0.11900894
31	0x3f2f7239	0.68533665
32	0xbed6bdd7	-0.4194171
33	0x3f32653a	0.6968571
34	0x3e553825	0.20822199
35	0xbeb2b972	-0.3490711
36	0xbe6012af	-0.21882127
37	0xbefec0e5	-0.49756542
38	0xbec43cd5	-0.3832766
39	0xbd7f4570	-0.06232208
40	0xbf15f906	-0.58583105
41	0xbc3f3e97	-0.011672637
42	0x3f2bc796	0.6710142
43	0x3e05ce3a	0.1306695
44	0x3ee0dd37	0.43918774
45	0x3d5e8a35	0.054331023
46	0x3d8f8b3c	0.07008979
47	0xbf28aaed	-0.6588581
48	0x3e854c88	0.2603495
49	0xbf237fa1	-0.6386662
50	0x3e73e481	0.23817636
51	0x3f2ac6a7	0.6670937
52	0xbee30be6	-0.44345015
53	0x3f31fc84	0.69525933
54	0xbf03cf61	-0.5148831
55	0xbd7fe4be	-0.062474005
56	0xbef791ce	-0.48353428
57	0xbd6a5f6a	-0.0572199
58	0xbf044a93	-0.5167629
59	0x3f1a7065	0.6032775
60	0x3d96add6	0.07357375
61	0xbeae654d	-0.3406166
62	0x3b829b38	0.0039857887
63	0x3ed9e27f	0.42555615

gat_layers.0.att_src f4 [1, 4, 16]
0	0x3e2ddda2	0.16979077
1	0x3f00e728	0.50352716
2	0x3e973b59	0.29537466
3	0xbf0b3053	-0.5437061
4	0x3eac278b	0.3362392
5	0xbd805ea7	-0.062680535
6	0xbedf6b29	-0.43636444
7	0xbeda56a3	-0.42644224
8	0xbd01645f	-0.031589862
9	0xbea228f4	-0.3167187
10	0x3e2c7f9d	0.16845556
11	0x3d27de05	0.04098322
12	0x3cb61422	0.022226397
13	0x3e233bb9	0.15940751
14	0x3e8288a9	0.25494888
15	0xbefd8f53	-0.4952341
16	0x3e7e2324	0.24818093
17	0xbef63f66	-0.48095244
18	0x3e0de207	0.13855754
19	0xbef95223	-0.48695478
20	0x3eb3f57e	0.35148233
21	0x3ea2a6f2	0.31767994
22	0xbf035c7e	-0.51313007
23	0xbeaf1625	-0.34196582
24	0xbec6170d	-0.3868946
25	0xbef562b8	-0.4792688
26	0x3da0cdc1	0.078517444
27	0xbd4572c0	-0.048205137
28	0x3e929df3	0.2863613
29	0x3ee989cc	0.45612943
30	0xbee19a5c	-0.4406308
31	0xbe88aef4	-0.2669598
32	0xbeca5ceb	-0.39524016
33	0xbe579048	-0.21051133
34	0xbcc0841a	-0.023500491
35	0xbeac6ab0	-0.33675146
36	0xbe9a6678	-0.30156302
37	0xbe0368b8	-0.12832916
38	0x3e2dd5e0	0.16976118
39	0xbe925fb5	-0.28588644
40	0x3eb2b9be	0.34907335
41	0xbe5a86c3	-0.2134047
42	0xbec88d82	-0.39170462
43	0x3e618721	0.22024204
44	0x3ebee0da	0.37280923
45	0x3e4860ed	0.19568224
46	0x3d1baba3	0.038005482
47	0xbe866a09	-0.26252773
48	0x3e2b8443	0.16749673
49	0xbc5e1346	-0.0135544
50	0x3def91d6	0.11697738
51	0xbeb00a58	-0.34382892
52	0x3e8ab94d	0.27094498
53	0x3ea05978	0.3131826
54	0x3e9cf09d	0.30652323
55	0x3eefaceb	0.46811613
56	0x3cac5f7a	0.02104162
57	0xbde1fc31	-0.1103443
58	0xbd010538	-0.031499118
59	0x3ea22165	0.31666103
60	0xbef34ab7	-0.4751794
61	0xbf0338d8	-0.5125861
62	0x3e1ba2d4	0.15198833
63	0xbf06c94a	-0.5265089

gat_layers.0.att_dst f4 [1, 4, 16]
0	0xbe5b1a1c	-0.21396679
1	0x3cdbd4f0	0.026834935
2	0x3ede55f8	0.43424964
3	0x3e4bc516	0.19899401
4	0xbe865245	-0.26234642
5	0x3f0b8700	0.5450287
6	0x3e9f01ce	0.31056064
7	0x3ead5436	0.3385331
8	0xbe5551a6	-0.20831928
9	0xbe437a8a	-0.19089714
10	0x3d458fd5	0.048232872
11	0x3d4047c6	0.04694345
12	0x3e887690	0.26652956
13	0xbe1b52fa	-0.15168372
14	0x3e49f8ef	0.19723867
15	0xbe9335cf	-0.2875199
16	0x3dab2a3b	0.08357664
17	0xbec06ce5	-0.3758308
18	0xbf01eca2	-0.507517
19	0x3e0cb7dc	0.13742012
20	0x3ede8cc6	0.43466777
21	0x3ef8185d	0.48456088
22	0xbd3be959	-0.045876835
23	0xbedba85a	-0.4290188
24	0xbe4f5cc8	-0.20250237
25	0xbef99e38	-0.48753524
26	0xbdc20469	-0.094734974
27	0xbe8970b0	-0.26843786
28	0x3e305dce	0.17223284
29	0xbac05dde	-0.0014676412
30	0x3ecde844	0.40216267
31	0xbecd039e	-0.40041822
32	0xbec1fe61	-0.37889388
33	0x3ec8c928	0.3921597
34	0xbee41b4c	-0.44552076
35	0x3ef18777	0.47173664
36	0x3e5b3162	0.21405557
37	0x3e92b189	0.28651074
38	0xbf076e88	-0.5290303
39	0x3e5dd332	0.21662596
40	0xbeb38080	-0.35058975
41	0xbd9b32ca	-0.075780466
42	0x3da813c7	0.08206897
43	0x3d8d8b93	0.06911387
44	0x3e527d80	0.20555687
45	0x3ea8a4c1	0.32938197
46	0xbf099467	-0.5374207
47	0xbf00ac5b	-0.50262994
48	0xbd96aa63	-0.073567174
49	0xbef11abe	-0.47090715
50	0xbe96728e	-0.29384273
51	0xbebbcf5e	-0.36681646
52	0x3e3d0494	0.18458778
53	0x3e5433f1	0.20722939
54	0xbe248d33	-0.16069488
55	0xbefe5f28	-0.49681973
56	0x3f0b9366	0.5452179
57	0x3da9dc08	0.08293921
58	0xbe951693	-0.29118785
59	0x3dfa0c3f	0.12209367
60	0xbdca310d	-0.09872637
61	0xbee4ba85	-0.44673553
62	0x3e20d34e	0.15705606
63	0x3edd9821	0.43280128

gat_layers.0.att_edge f4 [1, 4, 16]
0	0xbebe6138	-0.37183547
1	0x3e94db2e	0.2907347
2	0xbeb7ff27	-0.35936853
3	0xbdc7d493	-0.09757342
4	0xbec2c640	-0.38041878
5	0xbe6ddcba	-0.23228732
6	0xbe6b5139	-0.22980203
7	0x3e4dc43d	0.2009439
8	0xbec8bbfd	-0.39205924
9	0xbd415c2d	-0.047207046
10	0xbdae1462	-0.084999815
11	0xbea931c4	-0.3304578
12	0x3e5241ef	0.20532964
13	0xbea4b377	-0.3216817
14	0x3ebcfdbc	0.36912334
15	0xbe26ea26	-0.16300258
16	0x3f06c302	0.5264131
17	0xbeea37eb	-0.45745787
18	0x3e709243	0.23493294
19	0xbe9e562f	-0.30925128
20	0xbd5e9b20	-0.054347157
21	0x3e791d45	0.24327572
22	0xbe52cd00	-0.20586014
23	0xbebdac04	-0.370453
24	0x3e9688ff	0.29401395
25	0xbecf0ce7	-0.4043953
26	0xbc879363	-0.016549772
27	0x3e0801d3	0.13281946
28	0xbe29d69f	-0.16585778
29	0xbeca4153	-0.39502963
30	0xbd28645e	-0.041111343
31	0x3e898cb2	0.26865155
32	0xbdf55ace	-0.1198021
33	0x3d70b0c6	0.058762334
34	0xbe361de0	-0.17784834
35	0xbe927a1e	-0.28608793
36	0x3f04c3fd	0.51861554
37	0xbd46bc29	-0.048519287
38	0xbea60177	-0.32422993
39	0x3e2350b5	0.15948756
40	0x3e477d7f	0.19481467
41	0xbf00ebdb	-0.50359887
42	0xbf0adac1	-0.5424004
43	0x3c579735	0.013158609
44	0x3d6b2b2c	0.05741422
45	0x3ec7f867	0.39056703
46	0x3f012bca	0.5045744
47	0xbd90140b	-0.07035073
48	0x3ebd9c20	0.37033176
49	0xbe1a2e37	-0.15056692
50	0xbe47bda4	-0.19505936
51	0x3e45ccf5	0.19316466
52	0xbd9bd697	-0.07609289
53	0xbeeb92e2	-0.460105
54	0xbf0d4518	-0.55183554
55	0xbeb6f4b0	-0.35733557
56	0x3d757530	0.05992621
57	0x3d765558	0.060139984
58	0xbd480ca2	-0.048840173
59	0x3eb244f8	0.34818244
60	0xb9c7f0fb	-0.00038135782
61	0x3dfec722	0.12440325
62	0x3ebb4e01	0.3658295
63	0xbe883fed	-0.26611272

gat_layers.0.bias f4 [64]
0	0x3b12d8dc	0.002240709
1	0xbc01e121	-0.00792721
2	0xbb070764	-0.002060377
3	0x3bc3826b	0.005966475
4	0x3c4ce791	0.012506382
5	0xbc00e710	-0.00786759
6	0xbc00a2ab	-0.007851283
7	0xbc01b4ae	-0.007916613
8	0xbc013b01	-0.007887603
9	0x3c5dcfe9	0.013538339
10	0xbbe805bd	-0.007080762
11	0xbc011ab0	-0.007879898
12	0xbc02913e	-0.007969199
13	0xbc011f0c	-0.007880937
14	0xbbe24f2d	-0.006906411
15	0x3bb42b3d	0.0054983185
16	0xbc02009a	-0.007934714
17	0x3b77a823	0.0037789426
18	0xbc00cf2f	-0.007861896
19	0xbc0156b4	-0.007894207
20	0xbc002eb1	-0.007823632
21	0xbb618904	-0.0034413943
22	0xbbddd316	-0.006769548
23	0xbc0171a6	-0.007900631
24	0xbc006372	-0.00783621
25	0x3c2fbdd0	0.010726407
26	0xbbc8531e	-0.006113424
27	0x3c192113	0.009346264
28	0xbc027c95	-0.007964273
29	0xbc00b4e2	-0.007855626
30	0x3c1f5ef4	0.009727228
31	0xbbfe145c	-0.007753892
32	0xbc00ead8	-0.007868491
33	0xbc00cd06	-0.007861381
34	0x3c2047b2	0.0097827185
35	0xbc018a97	-0.007906578
36	0x3c1761a6	0.00923959
37	0xbbeb4f89	-0.007181112
38	0xbbff97ea	-0.007800092
39	0xbc0090cf	-0.007847025
40	0xbc01ce62	-0.007922741
41	0xbc00822c	-0.007843535
42	0xbc0129b8	-0.007883482
43	0x3be1f32f	0.006895445
44	0x3b842d34	0.004033709
45	0xbc01b1f5	-0.007915963
46	0xbc017f57	-0.007903895
47	0xbc01571c	-0.007894304
48	0xbbfff6be	-0.0078113964
49	0xbc00e767	-0.007867671
50	0x3c133c45	0.008986537
51	0x3c5d4c57	0.01350697
52	0xbc007803	-0.007841113
53	0xbbfedf64	-0.007778095
54	0xbc013a4c	-0.007887434
55	0xbc004948	-0.007829972
56	0xbc0035e1	-0.007825346
57	0xbc017754	-0.007901985
58	0xbc00b50a	-0.007855663
59	0xbbfdd018	-0.007745754
60	0xbc00b487	-0.007855541
61	0xbc008e11	-0.007846371
62	0xbc025559	-0.007954919
63	0x3bee2eb2	0.00726875

gat_layers.0.lin.weight f4 [64, 64]
0	0x3e1bf402	0.152298
1	0xbdee082a	-0.11622651
2	0xbdfd62b7	-0.12372344
3	0xbd5dacc0	-0.054119825
4	0x3cbcb358	0.023034737
5	0x3d3a62b5	0.04550429
6	0x3e3134b1	0.17305256
7	0x3d6d5f56	0.057952248
8	0x3dc98d23	0.09841373
9	0x3d35216d	0.04422133
10	0x3e11f81c	0.14254802
11	0xbe4ea0f8	-0.20178592
12	0x3d0b3643	0.033987295
13	0xbe197e69	-0.14989628
14	0x3e1cbb45	0.15305813
15	0xbe573b42	-0.21018699
16	0xbdb33b8d	-0.08751593
17	0xbc8b4341	-0.016999843
18	0x3e208443	0.15675454
19	0xbdc269be	-0.09492825
20	0xbcd0ae11	-0.025473626
21	0xbdaeb84f	-0.08531248
22	0x3e5922b5	0.21204646
23	0xbd17e37d	-0.037082184
24	0x3cab97a6	0.020946335
25	0x3de3ef79	0.1112966
26	0xbe1b9be0	-0.1519618
27	0x3e1675f9	0.1469344
28	0xbd03a055	-0.032135326
29	0x3e43a55e	0.19106051
30	0xbd0bf788	-0.03417161
31	0xbd8221dd	-0.06354115
32	0x3c0cbc19	0.008589768
33	0xbdf6ea55	-0.12056414
34	0xbd65d745	-0.0561135
35	0x3e4d20e4	0.20032078
36	0xbdae0e7b	-0.08498856
37	0xbd97f5aa	-0.074199036
38	0x3dd75203	0.10513689
39	0xbe32ed8c	-0.1747343
40	0xbbbfc0ab	-0.0058518252
41	0x3e0a08dc	0.13479942
42	0xbe389aba	-0.18027773
43	0x3b315237	0.002705706
44	0xbd428614	-0.047491148
45	0xbe4f45ef	-0.20241521
46	0xbd916d72	-0.07100953
47	0x3e010420	0.1259923
48	0x3e3a85e2	0.18215135
49	0x3e566abf	0.20939158
50	0xbe323967	-0.1740471
51	0x3d935ab6	0.07195036
52	0xbd58bfe5	-0.05291738
53	0x3d9ab30d	0.075536825
54	0x3e478798	0.19485319
55	0x3dc57d52	0.096430436
56	0xbd62ba78	-0.05535361
57	0xbe40499b	-0.18778078
58	0xbdf0bacf	-0.11754381
59	0xbab83665	-0.0014054297
60	0xbdc5eac5	-0.09663919
61	0x3e2bbde8	0.16771662
62	0xbe1ffdc1	-0.15624143
63	0x3e0cb410	0.13740563
64	0xbe0782ca	-0.13233486
65	0x3e15a4ba	0.1461362
66	0x3dd112ff	0.10208701
67	0xbdc31cac	-0.09526953
68	0xbdb7c30b	-0.08972748
69	0xbd2bb46b	-0.041920107
70	0xbdcd864a	-0.10035379
71	0xbc9dd75f	-0.019267736
72	0x3dae8b6d	0.08522687
73	0x3c9a483b	0.01883327
74	0xbe2defde	-0.16986033
75	0x3e0b150d	0.13582249
76	0xbe18dc51	-0.14927794
77	0xbd158831	-0.036506835
78	0xbe053328	-0.13007796
79	0x3e3aa354	0.18226367
80	0xbe350c45	-0.17680462
81	0x3c88c25b	0.016694238
82	0xbdcff191	-0.10153497
83	0xbd81c1f6	-0.06335823
84	0xbe4aedc1	-0.19817258
85	0x3e5e8025	0.21728571
86	0xbe290e39	-0.16509332
87	0xbe165736	-0.14681706
88	0x3e374596	0.17897639
89	0xbe39be58	-0.18139017
90	0x3d963cb0	0.07335794
91	0xbddf1dc7	-0.108943515
92	0xbdbe9c83	-0.09307196
93	0x3db0fc73	0.08641901
94	0x3ddb4274	0.10706034
95	0xbab56c8e	-0.0013841556
96	0x3cf83b81	0.030301811
97	0x3e2e4e75	0.17022116
98	0x3e493751	0.19650008
99	0x3d94deb5	0.072690405
100	0x3d33cd44	0.04389693
101	0x3dfb1376	0.12259571
102	0x3dc3b758	0.095564544
103	0x3e389d0b	0.18028657
104	0x3cdef632	0.027217004
105	0x3e51266d	0.20424815
106	0xbe5ae881	-0.21377756
107	0x3d90fe01	0.070796974
108	0xbdbc41a4	-0.091922075
109	0xbd0cb6ba	-0.03435395
110	0x3d31bb18	0.043391317
111	0xbda8a58b	-0.082347
112	0x3d82275f	0.06355166
113	0x3e3930e4	0.18085057
114	0x3ce69c5a	0.028150726
115	0x3db24f45	0.08706526
116	0x3dc476db	0.095929824
117	0x3e47f455	0.19526799
118	0xbcd818d9	-0.026379036
119	0xbc85b054	-0.016319431
120	0xbd8fbfb3	-0.070189856
121	0xbc889fc6	-0.016677748
122	0x3da10b44	0.07863477
123	0x3d8999d3	0.06718793
124	0xbe210f6c	-0.15728539
125	0xbd0fb5de	-0.03508555
126	0x3e261a65	0.16221006
127	0xbd8b51aa	-0.068026856
128	0xbdd99fea	-0.10626204
129	0x3d4ef54b	0.0505269
130	0xbe42cf08	-0.19024289
131	0x3e4bb76b	0.19894187
132	0xbe4e93c5	-0.20173557
133	0xbe30c86d	-0.17263956
134	0x3d94995b	0.07255813
135	0xbd354bc9	-0.044261727
136	0xbdff7e04	-0.124752074
137	0x3e3e4d29	0.18584122
138	0xbe0cfd29	-0.13768448
139	0x3de891ec	0.113559574
140	0x3e3a2fb7	0.18182264
141	0xbe284acb	-0.16434781
142	0x3ddb6416	0.10712449
143	0x3dd1ded8	0.10247582
144	0xbe348d1b	-0.17631952
145	0x3c598e5c	0.01327857
146	0x3e27411c	0.16333431
147	0xbe09de89	-0.13463797
148	0xbd607c4b	-0.054806035
149	0xbd71cbf1	-0.059032384
150	0xbd4472d1	-0.04796106
151	0x3e3657db	0.17806952
152	0xbe2a10dc	-0.16607994
153	0x3e42351b	0.1896557
154	0xbe0d32af	-0.13788866
155	0xbdd54e79	-0.10415358
156	0x3e2299ec	0.15879029
157	0xbbe27de9	-0.0069119823
158	0xbd09d41f	-0.03364956
159	0x3e38a6a1	0.18032314
160	0x3dab40d3	0.083619736
161	0x3dd2dcb1	0.10296
162	0x3e03dd50	0.12877393
163	0xbdfdb876	-0.12388699
164	0x3e25bdb8	0.16185653
165	0x3e5464d6	0.20741591
166	0x3dcae851	0.09907592
167	0xbe2d3a6a	-0.16916814
168	0xbe2717d1	-0.16317679
169	0xbdb8682e	-0.09004246
170	0xbd8e4ae9	-0.06947882
171	0x3daa1114	0.08304039
172	0x3e2e35d6	0.17012724
173	0xbde9d4e7	-0.11417561
174	0x3e59cb74	0.21269017
175	0x3e246b4e	0.16056558
176	0x3e1737cf	0.14767383
177	0x3e36deeb	0.17858474
178	0xbd7740c0	-0.060364485
179	0x3e237307	0.15961848
180	0x3c7e36f8	0.015516035
181	0x3e4a283c	0.1974191
182	0xbc58bad6	-0.013228139
183	0x3d775d5f	0.06039178
184	0xbdd9973a	-0.10624547
185	0xbc03f2f0	-0.008053526
186	0xbe138468	-0.14405978
187	0x3c61dafb	0.013785119
188	0xbe517a1f	-0.20456742
189	0xbdc27948	-0.09495789
190	0x3e4d5ef2	0.2005575
191	0x3e4ef6bc	0.20211309
192	0x3d4d063f	0.050054785
193	0xbdbd4d41	-0.09243251
194	0xbe425d60	-0.18980932
195	0x3d8b48e7	0.068010144
196	0xbe28e5a4	-0.16493851
197	0xbde8780c	-0.11351022
198	0xbd42831b	-0.047488313
199	0xbe3892c4	-0.18024737
200	0x3dd3d152	0.10342659
201	0x3e381a49	0.17978777
202	0x3e1c5216	0.15265688
203	0x3ca768df	0.020435749
204	0x3e3117df	0.17294262
205	0xbdf9e78a	-0.12202366
206	0x3d88832a	0.066656426
207	0xbe5739de	-0.21018168
208	0x3e085a1e	0.13315627
209	0xbde710b1	-0.112824805
210	0x3d1b2178	0.037873715
211	0xbd953d03	-0.07287028
212	0x3e2b4c7c	0.16728395
213	0xbe3f1f5e	-0.1866431
214	0xbda8f689	-0.08250148
215	0xbd527250	-0.05137855
216	0x3e1d5285	0.1536351
217	0x3da6665c	0.08124992
218	0x3cc4e5b3	0.02403531
219	0xbdd02f00	-0.101652145
220	0x3d3f69b2	0.04673166
221	0x3d84e0a9	0.06488163
222	0x3d9fe0d1	0.07806552
223	0x3e49178b	0.19637887
224	0x3e061847	0.13095199
225	0xbd16e488	-0.036839038
226	0x3d26ecac	0.04075305
227	0x3dbec527	0.093149476
228	0x3dfcbb2b	0.12340387
229	0x3e09a8e3	0.13443331
230	0xbe23f835	-0.16012652
231	0xbe337b0f	-0.17527412
232	0x3e1c37ee	0.1525571
233	0x3dbbe516	0.09174554
234	0xbc491a49	-0.012274333
235	0xbe240af7	-0.16019808
236	0x3dd3cb8e	0.10341559
237	0x3e0dbc7d	0.13841434
238	0xbd9f9683	-0.0779238
239	0xbe16933a	-0.147046
240	0x3c517204	0.012783531
241	0x3bb6f7e9	0.0055837524
242	0xbe0d3ddd	-0.1379313
243	0xbce7ecdc	-0.028311186
244	0x3d3b3fd4	0.045715168
245	0xbda9f87a	-0.08299346
246	0x3e59c5f0	0.21266913
247	0xbe57c2bd	-0.2107038
248	0x3e5f6d7f	0.21819113
249	0x3e517428	0.20454466
250	0x3da801df	0.08203482
251	0xbce3d2f8	-0.027810559
252	0xbb127e74	-0.0022353204
253	0xbd99074d	-0.07472096
254	0xbe4e0acc	-0.20121306
255	0x3dcc81fe	0.099857315

gat_layers.0.lin_edge.weight f4 [64, 64]
0	0x3e320ace	0.17386934
1	0x3d02e47b	0.031956177
2	0xbdfa56e4	-0.12223604
3	0xbd8ff678	-0.07029432
4	0x3c29c1f8	0.010361187
5	0xbe108477	-0.14113031
6	0x3e2d3780	0.16915703
7	0x3e0cb741	0.13741781
8	0xbe5824c4	-0.21107775
9	0x3e08794c	0.13327521
10	0x3e22aa08	0.15885174
11	0x3e57fe1e	0.21093032
12	0xbe4924bc	-0.1964292
13	0xbe01c061	-0.12671043
14	0x3d981ba6	0.074271485
15	0xbe4d086c	-0.20022744
16	0x3d36d091	0.0446325
17	0x3c9652d7	0.018350048
18	0xbe521272	-0.20514849
19	0xbe4e78bb	-0.20163243
20	0x3dafbd45	0.08581022
21	0x3dbe1463	0.09281232
22	0xbd7e5408	-0.062091857
23	0xbe0adeb0	-0.13561511
24	0xbe5936d7	-0.21212326
25	0x3de47d2a	0.11156686
26	0x3e393b14	0.18088943
27	0x3e4ef158	0.20209253
28	0xbdba73fc	-0.091041535
29	0xbd261183	-0.040544044
30	0xbd0e5d46	-0.03475692
31	0xbe4f6005	-0.20251472
32	0x3c85106b	0.01624318
33	0xbe3632db	-0.17792837
34	0xbd57d02f	-0.052688774
35	0x3e2f0b0d	0.1709406
36	0x3e4011cb	0.18756787
37	0xbe0b176d	-0.13583155
38	0xbdbc2891	-0.09187425
39	0xbdb47bd1	-0.088126786
40	0x3e520987	0.20511447
41	0x3e090cdb	0.1338381
42	0x3be3e64c	0.0069549438
43	0x3df550b0	0.119782805
44	0x3cc1a4f1	0.02363822
45	0xbe32e973	-0.17471866
46	0x3d1d8e51	0.0384658
47	0x3e0d4972	0.13797548
48	0xbd385dbb	-0.045011263
49	0xbd19c0ec	-0.0375375
50	0x3e334205	0.17505653
51	0xbe2b5304	-0.16730887
52	0x3e0de83f	0.13858126
53	0xbb62793c	-0.0034557125
54	0xbdfbae64	-0.12289122
55	0xbe1ea284	-0.15491682
56	0xbd93a25e	-0.072087035
57	0x3d954e50	0.072903275
58	0x3dfcc5d5	0.12342421
59	0xbe30fd4f	-0.1728413
60	0xbd9a8353	-0.07544579
61	0x3d43d033	0.047805976
62	0xbca3e356	-0.020005863
63	0xbdf589bb	-0.119891606
64	0x3e32b06e	0.17450115
65	0x3e368651	0.17824675
66	0xbe247d46	-0.16063413
67	0xbc81a36b	-0.015824994
68	0x3e30d333	0.17268066
69	0x3ded2224	0.115787774
70	0xbe299294	-0.16559821
71	0x3dcf9da8	0.101374924
72	0xbd5645e6	-0.052312754
73	0xbba48acc	-0.0050214287
74	0x3d3b28b0	0.0456931
75	0x3dd48f3e	0.10378884
76	0xbd833d7d	-0.06408212
77	0x3e226b80	0.1586132
78	0x3e571189	0.21002783
79	0xbde42778	-0.111403406
80	0x3e20916e	0.15680477
81	0xbdff5389	-0.12467105
82	0x3e4d7214	0.20063049
83	0xbe309ce1	-0.17247345
84	0xbe2fd271	-0.17170121
85	0x3da24172	0.07922639
86	0xbcde83e7	-0.027162505
87	0x3e11d3c7	0.14240943
88	0x3e48fce1	0.19627716
89	0x3da7d701	0.081953056
90	0xbe1801c9	-0.14844431
91	0x3e051d63	0.12999491
92	0x3d6e7ccf	0.058224496
93	0x3deecba9	0.11659939
94	0xbdb7a063	-0.08966138
95	0x3e5614a5	0.20906313
96	0xbdc21a47	-0.09477668
97	0x3d16a8c6	0.03678205
98	0xbdc212d3	-0.09476247
99	0xbd9238b6	-0.07139723
100	0x3caec5f8	0.021334633
101	0xbe4ba649	-0.19887652
102	0x3e4cacd3	0.19987802
103	0xbe12e914	-0.14346725
104	0xbdd2e674	-0.10297862
105	0x3c995e37	0.018721683
106	0xbd96606e	-0.07342611
107	0xbe47ad2f	-0.19499658
108	0xbe314e8c	-0.1731512
109	0x3da0e881	0.078568466
110	0x3d8d9092	0.0691234
111	0x3d86e036	0.065857336
112	0xbded1e50	-0.11578047
113	0xbd51e210	-0.05124098
114	0xbdc979ee	-0.09837709
115	0x3e3ed972	0.18637636
116	0xbd35e1cc	-0.04440479
117	0x3dcc001e	0.0996096
118	0x3df3d4b0	0.11905801
119	0x3b4176ff	0.002952039
120	0xbded3e18	-0.11584109
121	0x3e58a014	0.21154815
122	0x3e1aa66f	0.15102552
123	0xbe053f3f	-0.13012408
124	0x3e0b7d52	0.13622025
125	0xbe596be5	-0.21232565
126	0xbe3a41ae	-0.18189117
127	0xbe5bf46e	-0.21479961
128	0x3dbea42d	0.09308658
129	0x3d81d308	0.06339079
130	0xbd9551d5	-0.07290999
131	0x3d48deee	0.049040727
132	0x3d46024d	0.048342038
133	0xbd9a5b2c	-0.07536921
134	0xbd7b12cb	-0.06129722
135	0xbe2ada4d	-0.16684838
136	0xbdeb9b87	-0.11504274
137	0x3dab1a09	0.08354575
138	0xbdfa5a0a	-0.12224205
139	0x3da92c48	0.08260399
140	0xbd667d2d	-0.05627172
141	0xbe2ed182	-0.17072108
142	0x3e2f17c9	0.17098917
143	0xbcba5e59	-0.022750067
144	0xbd16584f	-0.03670531
145	0x3e4dd9e7	0.20102654
146	0xbc394772	-0.011308538
147	0x3d908f95	0.07058636
148	0x3d9737ec	0.07383713
149	0xbe380a6d	-0.17972727
150	0x3de459aa	0.111499146
151	0x3e1c9762	0.15292123
152	0xbe452094	-0.19250709
153	0xbd57dce5	-0.052700896
154	0x3db6c096	0.089234516
155	0x3e1796fc	0.1480369
156	0xbe31a74e	-0.17348978
157	0x3e30a981	0.1725216
158	0x3de493c1	0.11160994
159	0x3e48aae4	0.1959644
160	0x3e3fcb6b	0.18729942
161	0xbb956bbc	-0.004559962
162	0xbe2dfd8e	-0.16991255
163	0x3dff6b9d	0.124716975
164	0xbdc31548	-0.095255435
165	0x3e52d4b3	0.20588951
166	0x3cbafb42	0.022824887
167	0xbe473723	-0.19454627
168	0x3dc7b7d1	0.09751857
169	0x3e2ffad0	0.17185521
170	0x3da74f81	0.08169461
171	0xbb5c9049	-0.0033655337
172	0x3e20f17e	0.15717122
173	0xbdfe2324	-0.12409046
174	0x3bc08a8a	0.00587589
175	0x3cd13fca	0.025543112
176	0xbdb11597	-0.08646696
177	0xbe179ec8	-0.14806664
178	0x3c86e69d	0.016467387
179	0x3d78afa1	0.060714368
180	0x3dec46e9	0.115369625
181	0xbe0fcbeb	-0.14042632
182	0x3e270691	0.16311099
183	0xbb1a370e	-0.002353135
184	0x3e13ce96	0.14434275
185	0x3dd49a52	0.10380997
186	0xbe0d96e8	-0.13827097
187	0xbd49200e	-0.049102835
188	0x3d3c5afb	0.045985203
189	0xbdae1604	-0.08500293
190	0x3e12195f	0.14267491
191	0x3cf1cee5	0.0295176
192	0xbca55a83	-0.02018476
193	0xbcdb7e15	-0.026793519
194	0x3e551330	0.208081
195	0x3e02f661	0.12789299
196	0xbdb5d667	-0.088787846
197	0xbdc7b48d	-0.09751234
198	0x3e366282	0.17811015
199	0x3dc71c21	0.09722162
200	0xbe358be0	-0.1772914
201	0xbe50766d	-0.20357676
202	0x3e0e6040	0.13903904
203	0xbe1a7bb5	-0.15086253
204	0x3d94e6ad	0.072705604
205	0xbde79d25	-0.1130927
206	0xbd51ac61	-0.051189784
207	0xbdef9e06	-0.117000625
208	0xbd862337	-0.065496854
209	0x3e5796bf	0.21053599
210	0x3e27625d	0.16346116
211	0xbe4f0cbe	-0.20219705
212	0x3de8c73a	0.113661245
213	0xbdc64226	-0.096805856
214	0x3dd5f102	0.10446359
215	0xbe575b2c	-0.21030873
216	0xbe360f5a	-0.17779294
217	0xbdc21aab	-0.09477743
218	0xbde0b7b7	-0.10972541
219	0x3db699b4	0.08916035
220	0xbe0cc3c9	-0.13746561
221	0x3db21ce8	0.0869692
222	0xbc391f5a	-0.011298979
223	0x3e5d0e0e	0.21587393
224	0xbe3ec007	-0.1862794
225	0x3e163531	0.14668728
226	0xbe2f28b9	-0.17105378
227	0xbe2048b1	-0.1565273
228	0x3d98a748	0.07453781
229	0xbe4fb564	-0.20284039
230	0xbe16f5eb	-0.14742248
231	0xbe03a9b4	-0.12857705
232	0xbdd4ca46	-0.10390143
233	0x3e0a7413	0.13520841
234	0xbe411879	-0.18856992
235	0x3d6f4155	0.058411915
236	0x3e0143c8	0.12623513
237	0x3c704181	0.014664055
238	0xbd8710fd	-0.06595037
239	0xbced1e64	-0.028945155
240	0x3c8054b5	0.015665391
241	0xbc978974	-0.01849816
242	0xbbfdc0a6	-0.0077439127
243	0x3ca99595	0.02070121
244	0x3e527dd5	0.20555814
245	0x3e12f0fa	0.14349738
246	0x3d69cf57	0.0570825
247	0x3cb4f180	0.022087812
248	0xbde011e9	-0.10940916
249	0xbdf1edd1	-0.11812938
250	0x3d2ea348	0.042636186
251	0xbb5d6fb8	-0.0033788513
252	0x3de39984	0.11113265
253	0xbc56b152	-0.0131038
254	0x3e53609c	0.20642322
255	0x3e27e86d	0.16397257

gat_layers.1.att_src f4 [1, 4, 16]
0	0x3ec08139	0.3759859
1	0xbec97593	-0.39347515
2	0xbdcfd599	-0.101481624
3	0xbe7218bb	-0.23642246
4	0xbe952a09	-0.29133633
5	0xbe889b54	-0.26681006
6	0x3e27f1ab	0.16400783
7	0x3e93b02f	0.28845355
8	0x3dd4fccc	0.1039978
9	0xbd85f6d6	-0.06541221
10	0xbe85334e	-0.26015705
11	0xbe196e0f	-0.1498339
12	0x3dfb8cd7	0.122827224
13	0xbf04ba82	-0.5184709
14	0xbef1f56d	-0.47257558
15	0xbe1f2b2d	-0.15543814
16	0x3e9d3166	0.3070175
17	0x3e636662	0.22207025
18	0xbee3e897	-0.4451339
19	0xbef8732d	-0.48525372
20	0xbec4f0d2	-0.3846498
21	0xbe73936e	-0.23786709
22	0x3d92074f	0.071303
23	0xbe06162d	-0.13094397
24	0xbea48967	-0.3213608
25	0x3e902f4b	0.28161082
26	0xbe0e6e69	-0.13909306
27	0xbf091df2	-0.5356132
28	0xbed7fd54	-0.42185462
29	0xbee1cfd9	-0.44103888
30	0x3ecd977c	0.40154636
31	0xbeebe13a	-0.46070272
32	0x3db1c4be	0.08680104
33	0x3ec6e1ae	0.38844055
34	0x3ec45f5a	0.38353997
35	0x3e96fe3c	0.2949084
36	0x3e24ce1c	0.1609425
37	0xbdb9d818	-0.0907442
38	0x3da76e07	0.08175283
39	0x3e9d6698	0.30742335
40	0x3e8bf467	0.27334902
41	0x3e91d16c	0.2848009
42	0x3e8560d1	0.26050428
43	0xbe6e2869	-0.23257603
44	0xbe0a4e5e	-0.13506457
45	0xbd9aa197	-0.07550352
46	0xbeafbedb	-0.343253
47	0x3d498668	0.049200445
48	0x3ee597be	0.44842333
49	0x3e914551	0.28373197
50	0x3e760b96	0.24027857
51	0x3e3e8f2b	0.18609302
52	0x3f0a2f90	0.53978825
53	0x3c937f71	0.018005105
54	0x3e2f4b06	0.17118463
55	0x3dd2e4c1	0.102975376
56	0x3d420f77	0.04737803
57	0x3e4a90fe	0.19781873
58	0x3e8ea629	0.27861145
59	0x3edb61af	0.42847964
60	0x3e5519df	0.2081065
61	0x3ee9e5e2	0.456832
62	0x3e65ad97	0.224295
63	0x3e87c09b	0.26514134

gat_layers.1.att_dst f4 [1, 4, 16]
0	0x3f05f60d	0.5232857
1	0x3ed8827a	0.42287046
2	0x3f049575	0.51790553
3	0x3d38a1a5	0.04507603
4	0x3ee88e1f	0.4542093
5	0x3ea14622	0.3149882
6	0xbce483d1	-0.027894886
7	0x3ef99156	0.48743695
8	0x3e652ad0	0.22379613
9	0xbec02ee5	-0.37535778
10	0xbea9ae99	-0.3314102
11	0x3effe6f3	0.49980888
12	0x3ed156ca	0.40886527
13	0xbef6931f	-0.4815912
14	0xbdf55463	-0.11978986
15	0xbcde2121	-0.027115406
16	0xbe9f4b6e	-0.31112236
17	0xbe8e8118	-0.27832866
18	0xbb645621	-0.0034841376
19	0x3ec425db	0.3831013
20	0xbe9f0498	-0.31058192
21	0xbd8ba162	-0.06817891
22	0x3ed9d71d	0.4254693
23	0x3e2f1c79	0.17100705
24	0x3e8e6faf	0.27819583
25	0xbeb4657a	-0.3523367
26	0xbe27ea77	-0.16398035
27	0x3e9d5733	0.3073059
28	0x3f0521d9	0.5200477
29	0xbee27e85	-0.44237152
30	0xbde59aee	-0.11211191
31	0x3f0bae78	0.54563093
32	0xbe3de13b	-0.1854295
33	0xbe9a7b0e	-0.30172008
34	0x3ebdb7db	0.37054333
35	0xbe124f75	-0.14288123
36	0xbe453461	-0.19258262
37	0x3d8063bc	0.06269023
38	0x3ec335e8	0.38127065
39	0xbdc80680	-0.09766865
40	0xbdc54214	-0.09631744
41	0xbef5a737	-0.47979137
42	0xbef423c0	-0.47683525
43	0x3e95eb21	0.29280952
44	0x3e7a4db5	0.24443705
45	0xbe89f2c0	-0.26943016
46	0xbf00c63d	-0.5030249
47	0xbeb2f05b	-0.34949002
48	0xbd97ffd6	-0.07421844
49	0x3e3a5756	0.18197379
50	0x3ebe04ae	0.37112945
51	0xbeba848f	-0.3642926
52	0xbd68836f	-0.05676597
53	0xbe219a2e	-0.15781471
54	0xbdb80e9c	-0.089871615
55	0x3f0ba832	0.5455352
56	0x3bdd1ef3	0.006748074
57	0x3e1b09e2	0.15140489
58	0x3ebe4556	0.37162274
59	0xbef673c2	-0.4813519
60	0xbe8a5ae0	-0.27022457
61	0xbe9b3d41	-0.3032017
62	0xbd27a139	-0.04092524
63	0x3e01e9a4	0.12686783

gat_layers.1.att_edge f4 [1, 4, 16]
0	0x3e5ed73e	0.21761796
1	0xbd883225	-0.06650189
2	0xbee3a97a	-0.44465238
3	0x3d2a8084	0.04162647
4	0x3efeb83f	0.49749944
5	0xbe80f974	-0.25190318
6	0x3d87ef98	0.06637496
7	0xbed3388c	-0.4125408
8	0xbe00d9d9	-0.12583102
9	0xbd9ebcc0	-0.07750845
10	0x3edd5918	0.43232036
11	0xbed29484	-0.41128933
12	0xbed8bf32	-0.4233337
13	0x3ed87b10	0.4228139
14	0x3e58f3b3	0.21186714
15	0xbe255a93	-0.16147833
16	0x3d819571	0.06327332
17	0x3dec09b6	0.1152529
18	0x3f05a9ac	0.52212024
19	0xbe8b28fc	-0.27179706
20	0xbea20094	-0.31641066
21	0x3ece7b3f	0.40328404
22	0x3e171f74	0.14758092
23	0xbe4a1118	-0.19733083
24	0xbe739e03	-0.23790745
25	0xbdafdc56	-0.085869476
26	0x3e9649d3	0.29353198
27	0x3d322c17	0.04349908
28	0x3e93db00	0.2887802
29	0xbe1d98d7	-0.15390335
30	0x3e448b9a	0.19193879
31	0x3ef7e07e	0.4841346
32	0xbf03753f	-0.5135078
33	0xbf03b15a	-0.5144249
34	0x3de35c06	0.111015365
35	0xbedb04f3	-0.42777213
36	0xbe51addb	-0.20476477
37	0x3cae502f	0.021278469
38	0x3eb334d0	0.3500123
39	0xbec621fe	-0.3869781
40	0x3e4d96e5	0.20077093
41	0x3f06e312	0.5269023
42	0x3c3d9dd6	0.011573276
43	0xbed4ec92	-0.4158674
44	0xbe67d1c2	-0.2263861
45	0x3e9b2d18	0.3030784
46	0xbee49cec	-0.44650972
47	0xbefd27b3	-0.4944435
48	0x3ece37b3	0.4027687
49	0xbdf9bf4d	-0.12194691
50	0x3e8b2932	0.27179867
51	0x3e8438a4	0.25824463
52	0x3e90d49f	0.28287217
53	0xbc679ced	-0.014136535
54	0xbdc9c86f	-0.09852683
55	0x3f050109	0.51954705
56	0xbea8baf4	-0.32955134
57	0x3eb0b1aa	0.34510547
58	0xbe099d04	-0.13438803
59	0x3ceedbed	0.029157603
60	0x3db5c124	0.08874729
61	0x3e9322e3	0.28737554
62	0xbee7b7c5	-0.45257393
63	0x3d74e824	0.0597917

gat_layers.1.bias f4 [64]
0	0x3b8f33e4	0.0043701995
1	0xbc03d4e8	-0.008046366
2	0xbc023807	-0.007947928
3	0x3bca3999	0.006171417
4	0x3c4c1abe	0.012457548
5	0xbc038280	-0.008026719
6	0xbc024e04	-0.007953171
7	0xbc02c683	-0.007981899
8	0xbc02eeef	-0.0079915365
9	0x3c5a4525	0.013322149
10	0xbc026896	-0.007959506
11	0xbc03bf7e	-0.008041261
12	0xbc03f2fe	-0.008053539
13	0xbc02158a	-0.007939706
14	0xbc0234d8	-0.007947169
15	0x3bcc9637	0.006243493
16	0xbc046685	-0.008081083
17	0x3bbfc70c	0.0058525857
18	0xbc0333ba	-0.008007938
19	0xbc02b2a2	-0.00797716
20	0x3a2b52b2	0.0006535455
21	0xbb821e72	-0.0039709145
22	0xbc02c002	-0.007980349
23	0xbc030cc0	-0.007998645
24	0xbc036a83	-0.008021
25	0x3c475126	0.012165343
26	0xbc013624	-0.007886443
27	0x3c2113a3	0.009831342
28	0xbc022c82	-0.007945182
29	0xbc01f631	-0.007932232
30	0x3c2ae522	0.010430606
31	0xbb7a0221	-0.0038148242
32	0x3a08fbb7	0.0005225497
33	0xbbeb1a4f	-0.007174767
34	0x3c187a1d	0.009306458
35	0xbc02ff75	-0.007995476
36	0xbc02385f	-0.00794801
37	0xbbc9f85d	-0.0061636404
38	0xbc01eb6e	-0.007929666
39	0xbc03ca86	-0.008043891
40	0xbc036a9b	-0.008021022
41	0xbc03cbb7	-0.008044175
42	0xbc04c0a5	-0.008102571
43	0xbc027a7e	-0.007963775
44	0x3b7d9123	0.0038691245
45	0xbc0296cb	-0.007970522
46	0xbc0271bc	-0.007961687
47	0xbc03f662	-0.008054348
48	0x3bc1b571	0.005911522
49	0xbbfc26ae	-0.0076950407
50	0x3bf34132	0.0074235434
51	0x3c5e8b66	0.01358304
52	0xbc035bf1	-0.008017526
53	0xbc030151	-0.007995919
54	0xbc0266d2	-0.007959085
55	0xbc030fd8	-0.007999383
56	0xbbe09f62	-0.0068549374
57	0xbc03cdb3	-0.008044648
58	0xbc032854	-0.00800522
59	0xbc0300b3	-0.007995772
60	0xbc02e15a	-0.007988298
61	0xbc02ed26	-0.007991111
62	0xbc036506	-0.008019691
63	0x3bd3f075	0.0064678737

gat_layers.1.lin.weight f4 [64, 64]
0	0x3df82b03	0.12117579
1	0xbd2c66cd	-0.042090226
2	0x3d9ea397	0.07746046
3	0x3e09b5e4	0.13448292
4	0xbe400bb4	-0.18754464
5	0x3e0b3ad4	0.1359666
6	0xbc57b565	-0.013165806
7	0xbd57521b	-0.052568536
8	0xbdfa2ec6	-0.122159526
9	0x3e23daf3	0.16001491
10	0xbe5a7aa4	-0.21335846
11	0x3e4d9750	0.20077252
12	0xbe20c513	-0.15700178
13	0xbe59f142	-0.21283439
14	0x3de37330	0.11105955
15	0x3e10c547	0.14137755
16	0xbe3ca263	-0.1842132
17	0xbc45d215	-0.012074013
18	0x3da8f43a	0.082497075
19	0x3e04ad1e	0.12956664
20	0x3e33962f	0.17537759
21	0xbbfab65b	-0.007651133
22	0xbe3a8276	-0.1821383
23	0x3ce2376b	0.027614316
24	0x3d2c09a5	0.042001385
25	0x3d3e199b	0.046411138
26	0x3dc6b3bc	0.0970225
27	0x3e496912	0.19668987
28	0xbcadcda8	-0.021216229
29	0x3de9fcff	0.11425208
30	0x3c594236	0.013260415
31	0x3db9e620	0.09077096
32	0xbdb2c2fd	-0.08728597
33	0xbdb01aa7	-0.085988335
34	0xbd07a95f	-0.03312051
35	0xbdd48121	-0.10376192
36	0x3e58a1b2	0.21155432
37	0x3dabb961	0.083849676
38	0x3c1f0507	0.009705788
39	0x3e3802d2	0.17969826
40	0xbcffa953	-0.03120867
41	0x3d0b74f4	0.034047082
42	0x3e5c0889	0.21487631
43	0x3d597cfb	0.053097706
44	0x3e5ae808	0.21377575
45	0x3e0a670c	0.13515872
46	0xbdcf4dd2	-0.10122265
47	0x3c87f86d	0.01659795
48	0x3bf0ffd8	0.0073547177
49	0xbdd98016	-0.106201336
50	0xbdae153c	-0.08500144
51	0x3d3df361	0.046374682
52	0xbc2a48b1	-0.010393308
53	0xbdd5f639	-0.10447354
54	0xbb7c80c0	-0.003852889
55	0xbe1ddb6e	-0.15415737
56	0x3d6198eb	0.055077475
57	0x3da6a9f2	0.08137883
58	0x3d2ab921	0.04168046
59	0x3cd8c23f	0.026459811
60	0xbd9a9fbc	-0.07549998
61	0xbd550271	-0.05200428
62	0x3de4ea0e	0.11177455
63	0x3d452a64	0.04813613
64	0x3cab4250	0.020905644
65	0x3d9337c6	0.07188372
66	0xbc0516da	-0.008123124
67	0x3e1c18f4	0.15243894
68	0xbda62737	-0.081129484
69	0x3e16f643	0.14742379
70	0xbe5691db	-0.20954077
71	0xbdef7d6d	-0.11693845
72	0x3d843475	0.06455318
73	0xbe3968f6	-0.18106446
74	0xbd4f4d68	-0.05061093
75	0xbdbbbeea	-0.09167273
76	0x3d6a2a46	0.05716922
77	0xbdcb00b5	-0.09912244
78	0x3df85ee2	0.121274725
79	0xbe29f1e3	-0.16596179
80	0x3e34f8f6	0.17673096
81	0x3e5caaf3	0.21549587
82	0x3b69a2b9	0.0035649969
83	0x3d4a23cf	0.049350556
84	0x3b22ee16	0.0024861149
85	0x3dad5b1c	0.08464643
86	0xbd927f42	-0.07153179
87	0xbe0f5344	-0.13996607
88	0x3e4c7045	0.19964702
89	0x3cc34544	0.02383674
90	0x3d2cc98d	0.0421844
91	0x3e4df69c	0.20113605
92	0x3aa0fb55	0.0012281934
93	0x3c57fe79	0.01318323
94	0xbe2c09e2	-0.16800645
95	0xbe46df8e	-0.19421217
96	0x3e2069d9	0.15665378
97	0xbe29520b	-0.16535203
98	0x3e56ead6	0.2098802
99	0xbd9441b8	-0.07239097
100	0x3e47a502	0.19496539
101	0xbe1071ab	-0.14105861
102	0xbe513ad6	-0.204326
103	0x3e1e24fa	0.15443793
104	0xbe1d2c93	-0.15349035
105	0xbca3e452	-0.020006333
106	0x3e5bf7a3	0.21481185
107	0xbe10e2ed	-0.14149065
108	0xbdfbfa3f	-0.1230359
109	0x3e55be67	0.20873414
110	0x3e026ec7	0.1273757
111	0xbbeb3636	-0.0071780933
112	0xbe4cfe4f	-0.20018886
113	0xbe30326a	-0.17206731
114	0xbc832186	-0.016007196
115	0xbba5cda3	-0.005059914
116	0xbe06309e	-0.13104483
117	0x3c093fc9	0.008377024
118	0xbe359334	-0.17731935
119	0xbcf7d1f1	-0.030251475
120	0xbd17623b	-0.036958914
121	0x3e4e0b99	0.20121612
122	0x3c90d063	0.017677492
123	0xbe42248b	-0.18959253
124	0x3cbb3d55	0.022856394
125	0xbcdd43df	-0.027009903
126	0x3bf97d7f	0.0076138373
127	0xbd4a326d	-0.049364496
128	0xbce98d5b	-0.028509786
129	0x3d134913	0.03595836
130	0x3e27e761	0.16396858
131	0xbe17d04a	-0.1482555
132	0xbd65e848	-0.056129724
133	0x3e42a968	0.19009936
134	0xbda3c9b0	-0.07997453
135	0xbe0dc7f5	-0.13845809
136	0x3e03cbfe	0.12870786
137	0x3e356fc2	0.17718413
138	0x3d850344	0.064947635
139	0x3c0ea195	0.008705516
140	0x3dca26e7	0.09870701
141	0xbe087c13	-0.1332858
142	0x3cba1e89	0.022719638
143	0xbd87259d	-0.06598971
144	0xbdf25d07	-0.1183415
145	0x3e5102e3	0.20411257
146	0xbcfb6fd6	-0.030692976
147	0x3dc78b39	0.097433515
148	0xbe039bfd	-0.12852474
149	0x3dc55cf2	0.096368685
150	0xbe4bdbef	-0.19908117
151	0x3dee63bf	0.11640119
152	0x3caf2bb4	0.021383144
153	0xbd9d17c2	-0.07670547
154	0xbcdea6e9	-0.027179198
155	0x3e277ec6	0.16356954
156	0x3cdfdbb9	0.027326452
157	0x3ddb4fe2	0.10708596
158	0x3e412c88	0.18864644
159	0x3e479a55	0.19492467
160	0x3df1e3aa	0.118110016
161	0xbdf86ca8	-0.121300995
162	0xbd028fdc	-0.031875476
163	0x3e0b6040	0.13610935
164	0x3dfce438	0.12348217
165	0x3e314724	0.17312294
166	0xbdd021ea	-0.101627186
167	0xbe3c6415	-0.18397553
168	0x3dbb437d	0.09143732
169	0x3e37dd0d	0.17955418
170	0x3c824dd3	0.01590625
171	0x3c589baa	0.013220707
172	0xbe13825a	-0.14405194
173	0x3e0d106b	0.13775794
174	0x3e464dad	0.19365568
175	0x3bec1bef	0.0072054784
176	0xbe01881c	-0.12649578
177	0x3e33d402	0.17561343
178	0xbe58e818	-0.21182287
179	0xbe310d27	-0.17290173
180	0xbcafeb0c	-0.021474384
181	0x3e309d90	0.17247605
182	0xbca89a78	-0.020581469
183	0x3d6b3140	0.057420015
184	0xbe2130fc	-0.15741342
185	0x3d27f6cc	0.04100685
186	0x3bce8964	0.0063029993
187	0x3d39850f	0.04529291
188	0x3e422657	0.18959938
189	0x3e1b8ce6	0.15190467
190	0xbd671e79	-0.056425545
191	0xbe02c7e7	-0.12771569
192	0xbe22d886	-0.1590291
193	0xbcd83291	-0.0263913
194	0x3e5b5103	0.21417622
195	0x3d07e4f1	0.03317732
196	0x3e572377	0.21009623
197	0x3babf6e9	0.00524794
198	0xbe21a145	-0.15784176
199	0xbe02bcd8	-0.1276735
200	0xbda6b9f1	-0.08140934
201	0x3ccb843f	0.024843333
202	0xbdbdb1b7	-0.09262412
203	0xbd1fb610	-0.038991988
204	0xbe4d3e1b	-0.20043223
205	0x3e1cd90e	0.15317175
206	0x3d1aacb9	0.037762377
207	0xbd6c1082	-0.05763293
208	0xbdf81feb	-0.12115463
209	0x3d633484	0.055470005
210	0x3e286db9	0.16448106
211	0x3cb37b06	0.021909248
212	0xbd78e066	-0.060760878
213	0xbcb9712c	-0.022636972
214	0xbe143452	-0.14473084
215	0xbc8b54c6	-0.017008197
216	0xbcef40bf	-0.029205678
217	0xbe432606	-0.19057474
218	0x3c3df431	0.011593864
219	0xbe24307e	-0.16034123
220	0xbcc8e308	-0.02452232
221	0x3d04df5f	0.032439586
222	0x3db7dc8d	0.089776136
223	0xbd9e08d8	-0.077165306
224	0x3e1c94e3	0.15291171
225	0xbe0a25e4	-0.13491017
226	0x3e2a513a	0.16632548
227	0x3cb56193	0.022141254
228	0x3cad62ef	0.02116534
229	0x3c5ad28e	0.013355864
230	0x3e2b84ad	0.1674983
231	0x3dc1ecc3	0.09468987
232	0xbd66786e	-0.056267194
233	0x3ddbfca9	0.107415505
234	0x3e0d9f4f	0.13830303
235	0xbd80ae5c	-0.062832564
236	0xbc81a4d5	-0.015825668
237	0xbe5779a3	-0.21042494
238	0x3e252d9f	0.16130684
239	0xbd5c051a	-0.053715803
240	0x3d46ff91	0.04858357
241	0xbd826c11	-0.06368268
242	0xbe302159	-0.17200221
243	0xbc8440d6	-0.016144197
244	0x3e3ccb73	0.18436985
245	0x3e09a46a	0.13441625
246	0xbe21df5c	-0.15807861
247	0x3e36d2b3	0.17853813
248	0xbc914918	-0.01773505
249	0x3dee69aa	0.116412476
250	0x3e44fc6d	0.19236918
251	0xbd8b0453	-0.06787934
252	0xbcff21ac	-0.031143986
253	0x3e354278	0.17701137
254	0xbdb6375c	-0.08897278
255	0x3e4e5c4a	0.20152393
