models/best_fraud_model_seed_222.pth (torch, 378192 bytes, 45 tensors)

node_emb.weight f4 [64, 8]
0	0x3e91eb2a	0.28499728
1	0x3cad0755	0.02112166
2	0xbc8fe2dd	-0.017564232
3	0xbd97ac31	-0.0740589
4	0xbe079a91	-0.13242556
5	0xbe6a8a43	-0.22904305
6	0xbe731239	-0.2373742
7	0x3cce0bf9	0.025152193
8	0xbe8bfd2f	-0.273416
9	0xbe99637a	-0.29958707
10	0x3e3d84d3	0.185077
11	0xbe449479	-0.19197263
12	0x3ba517c7	0.005038235
13	0x3e851186	0.25989932
14	0xbeaec0b7	-0.34131405
15	0x3eb8817b	0.36036286
16	0xbe18050e	-0.14845678
17	0xbea7a367	-0.32741854
18	0xbcef9172	-0.029244158
19	0xbe2f661d	-0.17128797
20	0x3e49267a	0.19643584
21	0xbc78b444	-0.015179697
22	0x3e518c34	0.2046364
23	0x3dd4bbc2	0.103873745
24	0x3e1bf76e	0.15231106
25	0x3dc04677	0.0938844
26	0x3ea046ae	0.31303924
27	0xbd734b8d	-0.059398223
28	0x3d884449	0.06653649
29	0x3e06bab1	0.13157155
30	0xbe73a226	-0.23792323
31	0xbe81d3e5	-0.25356975
32	0x3e63e02b	0.22253482
33	0xbe0e4c77	-0.13896357
34	0xbe1c70a3	-0.15277342
35	0x3ddbc386	0.107306525
36	0x3e052bea	0.13005033
37	0x3d9f3124	0.07773045
38	0xbe21df82	-0.15807918
39	0xbe9ac382	-0.30227286
40	0x3e548b10	0.20756173
41	0x3ea68524	0.32523453
42	0xbd625609	-0.05525783
43	0x3d405224	0.046953335
44	0x3de4ef2b	0.1117843
45	0x3e5a1dd8	0.21300447
46	0x3d93f00d	0.072235204
47	0x3db6040b	0.0888749
48	0x3e116672	0.14199236
49	0x3e5da610	0.21645379
50	0xbd1b35e1	-0.03789318
51	0x3e50f581	0.20406152
52	0xbe80fdaa	-0.2519353
53	0x3e06738a	0.13130012
54	0x3d9984f7	0.07496064
55	0xbeb14278	-0.34621024
56	0xbe4d0680	-0.20022011
57	0xbc1460bf	-0.009056269
58	0xbd6c32cf	-0.057665642
59	0xbd6ad416	-0.057331167
60	0xbdd1671e	-0.10224746
61	0x3e458430	0.19288707
62	0xbe8204a0	-0.25394154
63	0xbea68da5	-0.3252994
64	0xbd9e1f86	-0.07720856
65	0xbe4b91e2	-0.19879869
66	0x3e998a1a	0.29988176
67	0x3e50ee94	0.2040351
68	0xbdf0565e	-0.11735223
69	0xbe7089e3	-0.234901
70	0x3cecdee5	0.028914878
71	0xbcbed58e	-0.02329519
72	0x3e4f684f	0.20254634
73	0x3e8f8c0e	0.2803654
74	0x3e04d428	0.12971556
75	0xbe864b02	-0.262291
76	0x3e82b26f	0.2552676
77	0x3e393db6	0.18089947
78	0xbde86684	-0.11347678
79	0xbe0a6aa5	-0.13517244
80	0x3e8d579b	0.276059
81	0xbe75538e	-0.23957655
82	0xbea0789c	-0.31342018
83	0x3e77a9c3	0.24185853
84	0x3ab40428	0.0013734149
85	0xbe224a8b	-0.15848748
86	0x3d040f30	0.032241046
87	0x3e972122	0.29517466
88	0xbd776e1a	-0.060407735
89	0x3d659cf1	0.056057874
90	0x3dc481ed	0.09595094
91	0xbe203002	-0.15643314
92	0xbe40fae8	-0.18845713
93	0xbe89062e	-0.26762527
94	0x3e718fe2	0.23590043
95	0x3d543da4	0.051816598
96	0x3da58b02	0.08083154
97	0x3e8b83a3	0.27248868
98	0x3e9c7d6f	0.30564448
99	0xbea6b6ab	-0.3256124
100	0xbd927ab1	-0.07152308
101	0xbe539b27	-0.20664655
102	0x3e909027	0.2823498
103	0x3da41db4	0.08013478
104	0xbdf6897b	-0.12037941
105	0x3bbea67e	0.0058181873
106	0xbe974d8e	-0.29551357
107	0x3e568866	0.2095047
108	0xbe623e06	-0.22093973
109	0xbb3b76cf	-0.002860475
110	0xbdc20148	-0.09472901
111	0x3e197bb5	0.14988597
112	0x3d20a7be	0.03922247
113	0xbe97be15	-0.2963721
114	0x3c3284cd	0.01089592
115	0xbe276e41	-0.16350652
116	0xbe25778a	-0.16158882
117	0xbdd35528	-0.10318977
118	0xbe90c23f	-0.28273198
119	0x3ea61513	0.32437953
120	0x3bb1e209	0.005428557
121	0x3e9683b4	0.29397357
122	0xbcca24b3	-0.024675703
123	0xbe376757	-0.17910515
124	0xbe9c618e	-0.30543178
125	0xbe8c5b6e	-0.27413505
126	0xbdcae129	-0.09906227
127	0xbe9ef456	-0.3104579
128	0x3e38b809	0.18038954
129	0x3e6dd9d1	0.23227622
130	0x3e7d0381	0.24708368
131	0x3e1b3a20	0.15158892
132	0x3db15982	0.086596504
133	0xbe71307e	-0.23553655
134	0xbde0eb99	-0.10982437
135	0x3d4cb90d	0.049981166
136	0x3e139e3d	0.14415832
137	0x3e8aefba	0.27136022
138	0x3e0fdafe	0.14048383
139	0xbcb5f975	-0.022213677
140	0x3ea43ffa	0.3208006
141	0xbe7be12f	-0.2459762
142	0xbce290c9	-0.02765693
143	0xbdcc8900	-0.09987068
144	0x3e0513aa	0.12995782
145	0xbd3a1a44	-0.045435205
146	0xbe62d70f	-0.22152351
147	0x3c46a7d0	0.012124971
148	0xbe6a1c42	-0.22862342
149	0x3ead3c4d	0.33835068
150	0xbaebe31a	-0.0017996759
151	0x3d3b21b0	0.045686424
152	0x3e36f85a	0.17868176
153	0x3e904f5d	0.2818555
154	0xbe5cf3f5	-0.21577437
155	0x3df85aa3	0.121266626
156	0x3e893cce	0.26804203
157	0x3e86bc0a	0.26315337
158	0x3bc85da5	0.006114679
159	0xbe81184c	-0.2521385
160	0x3e00d06b	0.12579505
161	0xbe9f18e2	-0.31073672
162	0xbe01a01c	-0.12658733
163	0xbdce43b5	-0.10071508
164	0xbd45951d	-0.04823791
165	0xbe4d9b5b	-0.20078795
166	0xbd9bccf2	-0.076074496
167	0xbe673337	-0.2257813
168	0xbe93dff2	-0.28881794
169	0xbd8d1865	-0.068894185
170	0xbeab5ce9	-0.33469322
171	0xbcdcace2	-0.026937906
172	0x3ea6e00c	0.3259281
173	0xbea9d68f	-0.33171508
174	0x3e58187c	0.2110309
175	0xbeb0be95	-0.34520403
176	0xbe8b6e02	-0.27232367
177	0x3d9e6253	0.077335976
178	0xbe9dba40	-0.3080616
179	0xba46ca69	-0.0007583262
180	0x3ddef2be	0.10886143
181	0x3d9adab9	0.07561249
182	0xbe2b897e	-0.16751668
183	0xbe9bd5d5	-0.30436578
184	0xbd5a2266	-0.05325546
185	0xbe89fae2	-0.2694922
186	0x3c313e5d	0.010818091
187	0xbe5a4632	-0.2131584
188	0x3cf45c44	0.029829152
189	0x3e5eaef7	0.21746431
190	0x3d34ad33	0.04411049
191	0xbea50a13	-0.3223425
192	0x3da0eb7a	0.078574136
193	0xbe997675	-0.29973188
194	0xbd951dbe	-0.072810635
195	0x3ea22fc4	0.31677067
196	0xbe4370a9	-0.19085945
197	0x3e211459	0.15730418
198	0x3e1aa383	0.15101437
199	0xbe5aae05	-0.21355446
200	0x3e42d8a9	0.19027962
201	0x3e3fc12e	0.18726036
202	0x3cad5eb4	0.021163322
203	0xbdddb7eb	-0.10826095
204	0xbe4bf44f	-0.19917415
205	0x3e49386a	0.19650427
206	0xbe5edd86	-0.21764192
207	0x3cd21f9e	0.025649842
208	0xbe25d83d	-0.1619577
209	0x3e538751	0.20657088
210	0x3e078efc	0.13238138
211	0x3e416a04	0.18888098
212	0xbe43617a	-0.19080153
213	0xbe99a98a	-0.3001216
214	0xbe4fdd92	-0.20299366
215	0x3e2c16c9	0.16805567
216	0xbdcb851d	-0.09937499
217	0xbe4283dd	-0.18995614
218	0x3d1755f0	0.03694719
219	0xbe0ed5d9	-0.13948764
220	0x3e34bbb6	0.17649731
221	0x3c991436	0.018686395
222	0xbe2f179f	-0.17098854
223	0xbe57cf9d	-0.21075292
224	0xbe5741e4	-0.21021229
225	0x3dedf360	0.11618686
226	0xbb5fc503	-0.0034144528
227	0x3e2d876e	0.16946194
228	0xbd31ae81	-0.04337931
229	0x3d6836cc	0.056692883
230	0x3e1f7a1b	0.15573923
231	0x3eb09f1d	0.34496394
232	0xbd24cbb1	-0.040233318
233	0x3e7e7e23	0.24852805
234	0x3e62f45b	0.22163527
235	0xbda02a5c	-0.078205794
236	0xbc1f7f4b	-0.009734939
237	0xbda6b36f	-0.08139693
238	0xbe2e0862	-0.16995385
239	0xbd0aa296	-0.03384646
240	0x3e9da852	0.3079248
241	0xbdfe6f9d	-0.12423632
242	0x3d39286c	0.045204565
243	0x3e096156	0.13416037
244	0xbdf23128	-0.11825782
245	0x3e8dae6a	0.2767213
246	0x3a9145e8	0.0011083456
247	0xbe838d96	-0.2569396
248	0x3e85e5a6	0.2615177
249	0xbe4c02f3	-0.19923
250	0xbe9808ab	-0.29694113
251	0x3db05ebf	0.086118214
252	0xbe5515c4	-0.20809084
253	0xbcc75b18	-0.02433543
254	0xbe83a4e1	-0.2571173
255	0xbe8a2bc6	-0.2698652

node_emb.bias f4 [64]
0	0xbe8eb2de	-0.2787084
1	0x3e00f664	0.1259399
2	0x3e3740f2	0.17895868
3	0xbe90bbbc	-0.2826823
4	0x3d4afde7	0.049558546
5	0xbe9bdd15	-0.3044211
6	0xbdd83b37	-0.10558169
7	0xbdc7d506	-0.09757428
8	0xbdfd0c68	-0.12355882
9	0x3e4093ee	0.1880643
10	0x3e5616a0	0.20907068
11	0xbbe490d9	-0.006975275
12	0xbcc54fe7	-0.024085952
13	0xbc93dc21	-0.018049302
14	0xbea32739	-0.31865862
15	0xbe5ff1de	-0.21869609
16	0x3e9b2128	0.30298734
17	0x3dc24394	0.09485546
18	0xbe591d59	-0.21202601
19	0x3e3d0a93	0.18461065
20	0xbeaaf1bc	-0.33387554
21	0x3d78d5f6	0.060750924
22	0x3eb1b0ec	0.34705293
23	0x3a8f0e81	0.0010914357
24	0xbdc19dc6	-0.09453921
25	0x3d42aec8	0.047529966
26	0xbe8b1097	-0.27161095
27	0xbd310663	-0.04321898
28	0xbe9b299d	-0.30305186
29	0xbe507fa5	-0.20361193
30	0xbe8dfd40	-0.27732277
31	0xbead8d79	-0.33896998
32	0xbe5b8aee	-0.21439716
33	0x3d89079b	0.06690904
34	0xbe617260	-0.22016287
35	0xbd4ccf7a	-0.050002553
36	0x3d5536e5	0.052054305
37	0x3e591f20	0.2120328
38	0x3e6af84d	0.22946282
39	0xbe674657	-0.22585426
40	0x3e9c3c05	0.3051454
41	0xbe2cf1e6	-0.16889152
42	0x3eafc5f3	0.3433071
43	0xbe8f7e95	-0.28026262
44	0xbea60190	-0.32423067
45	0x3ea6c83e	0.32574648
46	0xbd626eed	-0.05528157
47	0x3bbc178c	0.0057401117
48	0xbc426078	-0.01186382
49	0x3e8a91e1	0.27064422
50	0x3e71e933	0.23624115
51	0xbeae6b6b	-0.34066328
52	0xbdb279b8	-0.08714622
53	0x3e9acefc	0.30236042
54	0xbea74e3b	-0.32676873
55	0xbea55b8b	-0.32296404
56	0x3e6ae682	0.22939494
57	0x3e2d764c	0.16939658
58	0xbe10ed40	-0.14153004
59	0x3e2fa68d	0.17153378
60	0xbe237c69	-0.15965427
61	0x3dd49aab	0.10381063
62	0x3eb17da8	0.3466618
63	0x3e84326f	0.25819728

edge_emb.weight f4 [64, 2]
0	0xbf04d916	-0.51893747
1	0x3e9917a1	0.2990084
2	0xbcc3c44a	-0.023897309
3	0x3f1727a1	0.59044844
4	0x3dfba311	0.12286962
5	0xbf0e54ad	-0.55597955
6	0x3ee06688	0.43828225
7	0xbda7eed5	-0.081998505
8	0x3ea765fc	0.32694995
9	0x3e41bc01	0.18919374
10	0x3d95bf95	0.07311932
11	0xbe36518d	-0.17804547
12	0x3dab596c	0.08366665
13	0x3e8e0095	0.2773482
14	0xbe9e0b96	-0.30868214
15	0x3ea5826e	0.32326072
16	0x3f15e930	0.5855894
17	0x3efabab0	0.48970556
18	0xbcb70884	-0.022342928
19	0xbf13c1ed	-0.5771778
20	0x3f2c76ca	0.6736876
21	0x3e2f8b72	0.17143038
22	0xbf0ff33f	-0.5623054
23	0x3e9b783c	0.3036517
24	0xbe7a59ba	-0.2444829
25	0xbdfe8107	-0.12426954
26	0x3f1013a0	0.56279945
27	0xbeb748db	-0.35797772
28	0x3de45d51	0.11150611
29	0xbcfabd22	-0.030607764
30	0x3eaae5e0	0.33378506
31	0xbeb4c0a1	-0.35303214
32	0xbe743737	-0.23849188
33	0xbe8961d7	-0.26832458
34	0x3e9fef8f	0.31237456
35	0xbf22229d	-0.63334066
36	0xbd576b7e	-0.052592747
37	0xbd816adf	-0.06319212
38	0x3f0c2ee5	0.54759055
39	0xbf165d89	-0.58736473
40	0xbed1d5a2	-0.409833
41	0xbce4d94b	-0.027935645
42	0xbee729b8	-0.45149016
43	0xbebaf8a8	-0.36517835
44	0x3edfdfb0	0.43725348
45	0xbf2b7c9a	-0.66987
46	0xbe87c5d6	-0.26518124
47	0xbec127a3	-0.37725553
48	0x3f23e519	0.6402145
49	0x3e9918a7	0.2990162
50	0xbf0bc533	-0.5459778
51	0xbe739131	-0.23785855
52	0xbee199e4	-0.44062722
53	0xbf151939	-0.5824161
54	0x3ea11881	0.31464007
55	0xbf28aa12	-0.65884507
56	0xbf2b1d52	-0.66841614
57	0x3ed6f10e	0.41980785
58	0xbe85d5bf	-0.26139638
59	0x3d04cede	0.032423846
60	0x3ef9236a	0.4865983
61	0x3b034e33	0.0020035624
62	0xbf0af90a	-0.54286253
63	0x3e2c56fd	0.16830058
64	0x3f2019ab	0.62539166
65	0x3e3b64de	0.18300197
66	0x3e77555b	0.24153654
67	0x3ee78418	0.45217967
68	0xbf2f0ce8	-0.6837907
69	0xbf05b4ae	-0.5222882
70	0xbe61641e	-0.22010848
71	0x3f0c9d8e	0.5492791
72	0x3f02859d	0.5098513
73	0x3f015ffc	0.50537086
74	0x3e9016df	0.2814245
75	0xbf14fc10	-0.58197117
76	0xbd701403	-0.058612835
77	0xbf11da6b	-0.56973904
78	0x3e25dce1	0.1619754
79	0x3be827ee	0.007084838
80	0xbefd5edb	-0.4948643
81	0x3ef4782d	0.47747937
82	0xbef21a77	-0.47285816
83	0xbf048091	-0.51758677
84	0xbe320dc8	-0.1738807
85	0x3f20412b	0.6259944
86	0x3ecd40d2	0.40088516
87	0xbf26629b	-0.6499421
88	0x3f09385d	0.5360163
89	0xbf2278fd	-0.63465863
90	0xbe2e51e0	-0.1702342
91	0x3e4bbb66	0.19895706
92	0xbf2cd0ed	-0.67506295
93	0xbe8524fc	-0.2600478
94	0xbd206fb7	-0.03916904
95	0x3dc6b305	0.09702114
96	0xbf1bf52e	-0.6092099
97	0xbe2d344b	-0.1691448
98	0xbd5b79ae	-0.05358284
99	0x3e2dbd49	0.16966738
100	0x3e6e1d07	0.2325326
101	0x3ef922e1	0.48659423
102	0x3ec5c6b6	0.38628167
103	0xbce5a40f	-0.02803233
104	0xbe7868a9	-0.24258675
105	0xbe8476af	-0.25871798
106	0x3f016788	0.505486
107	0x3f31a620	0.6939411
108	0x3c67a853	0.014139253
109	0xbf1fe566	-0.6245941
110	0x3f11a01e	0.56884944
111	0xbeae0918	-0.33991313
112	0x3eaa834c	0.33303297
113	0x3f22b36b	0.6355502
114	0xbd85513b	-0.06509634
115	0xbf1a5255	-0.6028188
116	0x3ee3b564	0.44474328
117	0x3f2218f8	0.6331935
118	0x3ecda333	0.40163574
119	0xbee47a3c	-0.44624507
120	0x3dd7cec2	0.10537483
121	0xbf07b527	-0.5301079
122	0xbe0ba652	-0.13637665
123	0xbee2f726	-0.44329184
124	0x3f1d118a	0.6135489
125	0xbe734339	-0.23756112
126	0x3f18b125	0.596453
127	0xbc2a284f	-0.010385587

edge_emb.bias f4 [64]
0	0xbd9ba417	-0.07599657
1	0xbf137b54	-0.5761006
2	0xbd751c67	-0.05984154
3	0xbeb742fd	-0.35793296
4	0xbeec97a4	-0.46209443
5	0x3f321564	0.6956389
6	0xbe8677f9	-0.26263407
7	0x3f15c825	0.5850852
8	0x3f066de1	0.5251141
9	0xbe0ee35b	-0.13953917
10	0xbf15e8bb	-0.58558244
11	0xbf1d0ef2	-0.6135093
12	0x3f03aec8	0.5143857
13	0x3ebd58bd	0.36981764
14	0x3f2d53ac	0.677058
15	0xbec09c62	-0.3761931
16	0xbf310f28	-0.6916375
17	0x3c690343	0.014221969
18	0x3da3a0ec	0.07989678
19	0x3d6bd564	0.057576552
20	0x3d33b210	0.043870986
21	0x3e91ed32	0.28501278
22	0xbeac66b3	-0.33672103
23	0x3f297e70	0.66208553
24	0xbe10b7df	-0.14132641
25	0xbdff05ca	-0.12452276
26	0xbe87c77d	-0.26519385
27	0xbf3411bb	-0.70339555
28	0xbd5c016a	-0.053712286
29	0xbf2fecfd	-0.6872099
30	0x3f33b993	0.7020504
31	0xbdaa0cf7	-0.08303254
32	0x3d8bf799	0.06834335
33	0x3ecb8490	0.39749575
34	0x3e8d1ff5	0.27563444
35	0xbf0ea219	-0.5571609
36	0x3deaaae0	0.11458373
37	0xbdc6e83c	-0.09712264
38	0xbef7fc14	-0.48434508
39	0xbd2742b3	-0.040835094
40	0xbe8cb9dc	-0.2748555
41	0xbe99a15a	-0.30005914
42	0xbe612839	-0.21988
43	0xbeeda039	-0.46411303
44	0xbef946db	-0.4868687
45	0x3ef0ac3c	0.47006404
46	0xbec4819f	-0.38380143
47	0xbf0b024b	-0.54300374
48	0x3e5a6eb8	0.21331298
49	0x3f0eefef	0.5583486
50	0x3da2d8d9	0.07951517
51	0xbe954cd3	-0.29160175
52	0xbddff7f9	-0.10935969
53	0x3e926d41	0.2859898
54	0x3f016d15	0.5055707
55	0xbf1c874c	-0.61143947
56	0xbe356984	-0.17716032
57	0x3ef7195a	0.4826153
58	0xbde50915	-0.11183373
59	0x3e26f60d	0.16304798
60	0x3e1f39c6	0.15549383
61	0xbe961efd	-0.29320517
62	0x3e2bd284	0.16779524
63	0x3ec77d1a	0.38962632

gat_layers.0.att_src f4 [1, 4, 16]
0	0x3e39de7e	0.1815128
1	0xbee212a3	-0.44154844
2	0xbe4af7dd	-0.19821115
3	0xbe958088	-0.29199624
4	0x3e374129	0.1789595
5	0xbf09b080	-0.5378494
6	0x3e114b23	0.14188819
7	0x3e4facbe	0.2028074
8	0x3e173552	0.14766434
9	0x3eae9f28	0.34105802
10	0x3ed424d7	0.41434357
11	0xbd2be1f7	-0.041963544
12	0x3ee6d15a	0.45081598
13	0x3e24dd59	0.16100062
14	0xbd251939	-0.040307257
15	0x3ef9af76	0.4876668
16	0xbed834ea	-0.4222787
17	0x3f07f077	0.53101295
18	0xbef91fe5	-0.48657146
19	0xbe99f44c	-0.30069196
20	0xbedbe181	-0.42945483
21	0xbe5b12c0	-0.21393871
22	0xbe91f973	-0.28510627
23	0xbe7aa2e8	-0.24476206
24	0x3e4fc3ef	0.20289586
25	0x3e81fd6e	0.25388664
26	0xbe933e9c	-0.28758705
27	0x3c9606df	0.018313823
28	0xbed3b992	-0.41352516
29	0xbe86443b	-0.2622393
30	0x3db8e17d	0.090273835
31	0x3e37da43	0.17954354
32	0xbc07171d	-0.008245257
33	0x3eaccb98	0.3374908
34	0xbe75e85d	-0.24014421
35	0xbdc0d93a	-0.09416433
36	0x3ebbe60b	0.36698946
37	0x3ee68d44	0.45029652
38	0xbe504fe6	-0.20342979
39	0xbde4df0f	-0.111753576
40	0x3e857abd	0.26070204
41	0xbf027e81	-0.5097428
42	0x3f044f43	0.51683444
43	0xbe1d64e8	-0.15370524
44	0xbed6270a	-0.4182666
45	0x3ef0f15e	0.4705915
46	0xbf03e71e	-0.5152453
47	0x3eb85129	0.3599942
48	0xbe91328b	-0.28358874
49	0x3e63e9b3	0.22257118
50	0x3edc7be4	0.4306327
51	0x3edce0fe	0.43140405
52	0xbe314236	-0.17310414
53	0xbf033115	-0.5124677
54	0x3ed77951	0.42084745
55	0xbd46cec6	-0.04853704
56	0x3ed6936a	0.41909343
57	0x3f08ae0d	0.5339058
58	0xbebcb3dc	-0.36855972
59	0x3eff37b6	0.49847192
60	0xbdc07505	-0.0939732
61	0x3e60be0a	0.21947494
62	0x3e82dfb0	0.25561285
63	0x3eed04a5	0.46292606

gat_layers.0.att_dst f4 [1, 4, 16]
0	0x3e688133	0.22705536
1	0x3f090d89	0.5353628
2	0x3e2737ee	0.16329929
3	0xbef8f8ac	-0.48627222
4	0xbed59880	-0.4171791
5	0xbda7abd3	-0.0818707
6	0x3f04a7a9	0.5181833
7	0xbef630d0	-0.48084116
8	0x3eb6560b	0.3561252
9	0x3e78e7a4	0.24307114
10	0xb9ba3f44	-0.0003552382
11	0x3ed6df35	0.41967168
12	0x3ecd381a	0.40081865
13	0x3e1d60d4	0.15368968
14	0xbefbfda6	-0.49216956
15	0x3e98454f	0.29740378
16	0x3e757ebd	0.23974128
17	0x3e9c5232	0.3053146
18	0x3eae8ae2	0.34090334
19	0x3ea39162	0.31946856
20	0xbebbb094	-0.36658156
21	0x3d621be5	0.055202384
22	0x3e5bfdc0	0.21483517
23	0xbd6127bb	-0.05496953
24	0x3ef329da	0.47492868
25	0xbe99e6bb	-0.30058846
26	0xbe81a973	-0.25324592
27	0xbd1a3837	-0.037651267
28	0xbe503f0a	-0.20336547
29	0xbe2f2a5f	-0.17106007
30	0x3e5e379a	0.21700898
31	0x3f086df5	0.5329278
32	0x3e27546a	0.16340795
33	0x3e9ce10f	0.30640456
34	0xbe105065	-0.14093168
35	0x3d4976aa	0.049185432
36	0x3f01dc8a	0.5072714
37	0xbecac972	-0.39606816
38	0xbed5b085	-0.41736236
39	0x3e59e952	0.21280411
40	0xbec32156	-0.3811137
41	0xbe93e7d9	-0.28887823
42	0x3e9be6d3	0.30449542
43	0x3da048b2	0.078263655
44	0x3e92aeca	0.28648978
45	0x3ed201b3	0.4101692
46	0xbf063b8c	-0.5243461
47	0xbdbb50ad	-0.09146247
48	0x3efc1dbf	0.49241444
49	0xbeae6964	-0.34064782
50	0xbe12b444	-0.14326578
51	0x3d8c9cf1	0.06865872
52	0x3e84d346	0.2594244
53	0x3eaae9bb	0.33381447
54	0x3e37a0e3	0.17932467
55	0xbe305b1d	-0.17222257
56	0x3ef3d79d	0.47625437
57	0x3ebd35c5	0.36955085
58	0xbce89080	-0.028389215
59	0xbc8fd6ba	-0.017558444
60	0x3edc915a	0.43079644
61	0x3e3b5737	0.18294989
62	0x3e41afd3	0.18914728
63	0xbe7c00a1	-0.24609615

gat_layers.0.att_edge f4 [1, 4, 16]
0	0xbef8f7a2	-0.4862643
1	0xbe83683b	-0.2566546
2	0xbe6366bf	-0.22207163
3	0xbe8228b9	-0.25421694
4	0x3e30fd50	0.17284131
5	0x3c098c18	0.008395217
6	0x3e9a18ff	0.30097196
7	0xbd79d7fa	-0.060996987
8	0x3ecf26c9	0.40459278
9	0x3da69c9e	0.08135341
10	0xbcdf4175	-0.027252892
11	0x3ea2d6ff	0.31804654
12	0xbe7f3275	-0.24921592
13	0x3e6a5467	0.2288376
14	0xbdcfbe44	-0.10143712
15	0x3ebfd9b2	0.37470776
16	0x3ef55ed8	0.47923923
17	0x3e26921e	0.16266677
18	0x3e95ad2e	0.29233688
19	0xbe687f35	-0.22704776
20	0x3e1ae246	0.15125379
21	0xbe66b00f	-0.22528099
22	0xbe8544b6	-0.26028985
23	0xbece66bb	-0.40312752
24	0xbdc32c9d	-0.09529994
25	0x3ea6248c	0.32449758
26	0xbf00dd98	-0.50338125
27	0x3ecd9c10	0.4015813
28	0x3edbd982	0.42939383
29	0x3d7a3eb4	0.061094955
30	0xbeb9cba9	-0.36288193
31	0xbeb3686d	-0.35040608
32	0xbd73df7b	-0.0595393
33	0xbe903a8d	-0.2816967
34	0x3f037e03	0.51364154
35	0x3e0d59f1	0.13803841
36	0xbedff6c7	-0.43742964
37	0xbede3d2b	-0.43406042
38	0xbe099c87	-0.13438617
39	0x3eee61eb	0.4655908
40	0x3f004ce7	0.50117344
41	0xbf044861	-0.5167294
42	0x3e2f3e4a	0.17113605
43	0xbe4b62bf	-0.19861887
44	0x3ec1d3e5	0.37856975
45	0xbd2351ce	-0.039872937
46	0xbe485112	-0.19562176
47	0x3e6e6792	0.23281696
48	0x3e8acf0c	0.2711109
49	0x3f0a5427	0.54034656
50	0xbe94a90a	-0.29035217
51	0x3f0b5527	0.5442681
52	0xbebdde6b	-0.37083754
53	0x3eb80d57	0.35947677
54	0xbe142110	-0.14465737
55	0x3efdfa7a	0.4960516
56	0xbec0bdf3	-0.3764492
57	0xbee9379c	-0.4555024
58	0xbeca2f17	-0.39489052
59	0xbea751a4	-0.32679474
60	0x3e3a619d	0.18201299
61	0x3e886e20	0.2664652
62	0xbe751198	-0.23932493
63	0x3eaefda7	0.34177896

gat_layers.0.bias f4 [64]
0	0xbbc3470b	-0.0059593967
1	0x3be245bd	0.006905286
2	0xbbc14dd1	-0.005899169
3	0x3c35642f	0.011071249
4	0x3c280cc8	0.010256954
5	0x3b8bdf69	0.004268576
6	0x3b991b8b	0.004672473
7	0xbbc6fbbe	-0.0060724905
8	0xbbc5596d	-0.0060226233
9	0x3c1e8430	0.009675071
10	0xbbb00a96	-0.0053723557
11	0x3ae09930	0.0017135497
12	0xbbc3213d	-0.00595489
13	0x3c073f44	0.00825483
14	0xbb749ce8	-0.0037324969
15	0x3c1abe93	0.0094448505
16	0x3bd0cdac	0.0063721742
17	0xbbb64a20	-0.0055630356
18	0xbb98523e	-0.004648476
19	0xbba1896c	-0.004929712
20	0xbbc8b2c7	-0.0061248275
21	0xbb90d7bc	-0.004420249
22	0xbbc805c5	-0.0061042034
23	0xbbc5a350	-0.0060314313
24	0xbb9e9099	-0.0048390147
25	0xba442047	-0.00074816163
26	0xbbc35295	-0.0059607723
27	0x3c24cd51	0.010058717
28	0xbbc5ac0e	-0.0060324734
29	0xbbc693bd	-0.0060600922
30	0xbb8d71f7	-0.004316564
31	0x3bfc1db7	0.007693972
32	0xbbc36480	-0.0059629083
33	0xbbbc814c	-0.005752718
34	0xbba6518a	-0.005075638
35	0xbbc19ba1	-0.005908445
36	0xbb92d1ba	-0.0044805678
37	0x3b6702b9	0.0035249426
38	0xbbadc1ed	-0.005302659
39	0xbbbe4fc5	-0.005807849
40	0xba7bf4db	-0.00096113764
41	0xbbc69b07	-0.006060961
42	0xbbbfbc55	-0.0058513083
43	0xba1b6666	-0.00059280393
44	0xbbbba86e	-0.0057268655
45	0xbbbdeb8c	-0.0057959016
46	0xbbb371f7	-0.005476232
47	0x3aae8f0a	0.0013317775
48	0x3b70b40e	0.0036728415
49	0x3c358b02	0.011080505
50	0xbbc6ab15	-0.006062875
51	0xbbc7a52c	-0.006092688
52	0xbb96dc8e	-0.004603929
53	0xbbc2edd3	-0.005948761
54	0xba700eae	-0.0009157461
55	0x3c13144f	0.00897701
56	0xbb955ec7	-0.0045584175
57	0xbbc29aaf	-0.00593885
58	0xbbb379ba	-0.0054771574
59	0xbbc718da	-0.0060759606
60	0xbbb6e96a	-0.0055820243
61	0xbbc9ca73	-0.006158167
62	0xbbc57a01	-0.006026507
63	0x3bb88e75	0.0056322166

gat_layers.0.lin.weight f4 [64, 64]
0	0xbe54f705	-0.20797355
1	0x3d90df4a	0.07073839
2	0xbd6f0dd5	-0.0583628
3	0xbd6ad42e	-0.057331257
4	0xbda0cdb5	-0.078517355
5	0x3d0441c7	0.032289293
6	0xbe16c532	-0.14723662
7	0xbdcebe30	-0.10094869
8	0xbe089b38	-0.13340461
9	0xbc8bca9b	-0.017064383
10	0x3da3617f	0.0797758
11	0x3e12d2a5	0.14338167
12	0x3e4cc68e	0.19997618
13	0x3d0a8714	0.033820227
14	0xbdbacd30	-0.09121168
15	0x3d8780fc	0.06616399
16	0x3de974e0	0.11399245
17	0xbdbe18b2	-0.09282054
18	0x3d8198ee	0.06327997
19	0x3e394537	0.1809281
20	0x3e22895e	0.15872714
21	0x3d030eae	0.03199642
22	0x3e52c8d2	0.2058442
23	0x3c8b44dc	0.017000608
24	0xbe1da338	-0.15394294
25	0x3e2a7eee	0.16649982
26	0xbdf2a2e9	-0.11847479
27	0xbdac9044	-0.08425954
28	0x3e1edcad	0.15513869
29	0xbe3c18e9	-0.18368877
30	0xbd60695d	-0.054787982
31	0xbe204dbf	-0.15654658
32	0xbe174a01	-0.14774324
33	0xbe460c09	-0.19340529
34	0xbd2aeabe	-0.041727774
35	0xbd00fab5	-0.031489093
36	0xbd91d150	-0.07120001
37	0xbc3e17d4	-0.011602361
38	0xbd97338c	-0.07382879
39	0x3e12c701	0.14333726
40	0x3e4e706a	0.2016007
41	0xbe4b4f55	-0.19854482
42	0xbd83807c	-0.06420991
43	0xbda601c9	-0.08105809
44	0xbe018170	-0.12647033
45	0x3e4d0700	0.20022202
46	0x3cbfe4f9	0.023424612
47	0x3d109cfe	0.03530597
48	0xbe4338ec	-0.19064683
49	0xbd50e422	-0.050998814
50	0xbe466e54	-0.19378024
51	0xbda5f319	-0.08103008
52	0xbc2980da	-0.010345662
53	0xbe42e3a9	-0.19032158
54	0x3de7fa18	0.113269985
55	0xbda32d05	-0.07967571
56	0xbc9e34e5	-0.019312331
57	0x3d4b8ad9	0.049692962
58	0xbd8145e8	-0.06312162
59	0x3d9140e5	0.07092456
60	0x3cf55ddf	0.029951988
61	0x3e4791c2	0.19489196
62	0x3da24b3f	0.07924508
63	0xbdfa8f1a	-0.12234326
64	0x3aed9e38	0.0018128818
65	0x3cf783a8	0.030214146
66	0x3dcdeb69	0.100546665
67	0xbd970035	-0.07373086
68	0x3dad4fce	0.08462487
69	0x3bce0931	0.006287717
70	0xbe51d167	-0.20490037
71	0xbe14f995	-0.14548333
72	0x3ce246dd	0.02762168
73	0xbe5d4360	-0.21607733
74	0xbe4ee9b4	-0.20206338
75	0xbe1b3ee1	-0.15160705
76	0xbdc675a2	-0.096904054
77	0xbd310ca2	-0.04322494
78	0x3d1d3919	0.03838453
79	0xbe3ba89f	-0.18326043
80	0x3b83bfed	0.004020682
81	0xbd5ed17b	-0.054398995
82	0xbdae2b6e	-0.08504377
83	0xbdf27c09	-0.11840064
84	0x3e5f52fa	0.21808997
85	0xbddc627a	-0.107609704
86	0xbd926087	-0.071473174
87	0x3e020e2e	0.12700722
88	0x3d4b0921	0.049569253
89	0x3c2461a0	0.010033041
90	0xbe1e4acc	-0.1545822
91	0x3e5ee484	0.2176686
92	0xbda0d781	-0.07853604
93	0xbd730cd2	-0.0593384
94	0xbe44af29	-0.19207443
95	0x3e565488	0.20930684
96	0xbe41a763	-0.18911509
97	0xbdd55e23	-0.10418346
98	0xbdcb5549	-0.09928376
99	0xbe5b94c4	-0.21443468
100	0xbe43acfe	-0.1910896
101	0xbe158b0c	-0.14603823
102	0xbe142aed	-0.144695
103	0x3db8c66c	0.09022221
104	0xbdb48824	-0.08815029
105	0x3d87b264	0.06625822
106	0xbddb0d55	-0.10695902
107	0xbe4a959f	-0.19783638
108	0xbe1a2698	-0.15053785
109	0xbdfb0c80	-0.122582436
110	0xbd9da9b5	-0.07698385
111	0x3e17a6c7	0.14809714
112	0xbc11dd7d	-0.008902905
113	0x3dfba80d	0.122879125
114	0x3e38c156	0.18042502
115	0x3c145252	0.00905283
116	0xbdbe3b09	-0.09288604
117	0x3cb22996	0.021748345
118	0x3e50138a	0.20319954
119	0xbe1fdb4d	-0.15611
120	0xbdf97d7c	-0.12182137
121	0xbdb0d30e	-0.086340055
122	0x3e04a18f	0.12952255
123	0xbe398bcd	-0.18119736
124	0x3e197376	0.14985451
125	0xbb61cb31	-0.0034453387
126	0xbdd6df7f	-0.10491847
127	0xbe15b309	-0.14619078
128	0x3dbc86c5	0.09205393
129	0xbe0b0b0f	-0.13578437
130	0x3a568042	0.0008182564
131	0xbe4d8765	-0.2007118
132	0xbdb760dc	-0.08954021
133	0x3e2d30de	0.16913173
134	0xbd19e405	-0.037570972
135	0x3d366eb2	0.04453916
136	0x3d23cd57	0.03999075
137	0xbcd2c357	-0.02572791
138	0x3a8c5ed5	0.0010709414
139	0xbe541a84	-0.2071324
140	0xbdf8396f	-0.121203296
141	0x3cf130bd	0.029442186
142	0x3d3d8367	0.046267893
143	0xbe0931ba	-0.13397875
144	0xbe2c45ab	-0.16823451
145	0xbe583f5c	-0.2111792
146	0x3e234af2	0.15946558
147	0x3d93d867	0.0721901
148	0xbdb0f56f	-0.08640563
149	0xbe1b5cc8	-0.15172112
150	0xbe42aa89	-0.19010366
151	0x3e4764cd	0.19472046
152	0xbd80ee91	-0.06295503
153	0xbe5f1e08	-0.217888
154	0xbda5a685	-0.08088402
155	0x3d058f4c	0.03260736
156	0xbe5dc22e	-0.21656105
157	0xbe3b94f5	-0.18318541
158	0xbe49dc41	-0.19712926
159	0xbbdca5af	-0.006733618
160	0xbda7a9bf	-0.081866734
161	0xbd7d2502	-0.06180287
162	0xbd2a0a01	-0.041513447
163	0x3bd9f160	0.0066510886
164	0xbe498cbc	-0.19682592
165	0x3e1f1a8c	0.1553747
166	0xbdf07717	-0.117414646
167	0xbd4d4da7	-0.050122883
168	0x3e49af18	0.19695699
169	0xbdb385bf	-0.087657444
170	0x3e0bbe05	0.13646705
171	0x3e24dbed	0.1609952
172	0x3e2791e9	0.16364254
173	0x3d75813e	0.059937708
174	0xbe2338bc	-0.15939611
175	0x3e0ce3c5	0.13758762
176	0xbe538ca8	-0.20659125
177	0xbcb4a081	-0.02204919
178	0x3d7831b0	0.06059426
179	0x3be2d995	0.0069229105
180	0x3e246376	0.16053566
181	0xbe3e06c2	-0.18557265
182	0xbde97084	-0.11398414
183	0x3d9ed6bd	0.07755802
184	0xbd216747	-0.039405134
185	0xbdd9f45a	-0.106423095
186	0x3e3cff2d	0.18456717
187	0xbd5694fe	-0.052388184
188	0xbe40d5cf	-0.18831562
189	0x3d5560ed	0.05209439
190	0xbd1f50cb	-0.03889541
191	0x3e434828	0.19070494
192	0x3cca61a9	0.024704771
193	0x3d747401	0.059680942
194	0xbcb7ff61	-0.022460641
195	0xbe1f4c20	-0.15556383
196	0x3e5113bb	0.20417683
197	0xbdb66c50	-0.08907378
198	0x3caab6c7	0.020839108
199	0x3df8b449	0.12143762
200	0xbdac3eff	-0.08410453
201	0x3e0fae8a	0.14031425
202	0x3cc11b06	0.023572456
203	0x3d9c9310	0.076452374
204	0xbdf5ef32	-0.120085135
205	0xbe1a52d5	-0.1507066
206	0x3e492258	0.19642007
207	0x3e024482	0.12721446
208	0xbe240702	-0.16018298
209	0xbe00a7dd	-0.12564035
210	0xbcb7e3bb	-0.022447458
211	0xbdd3d089	-0.10342509
212	0x3e33af7a	0.17547408
213	0x3dde2698	0.10847205
214	0xbde02445	-0.10944418
215	0x3e5ce711	0.2157252
216	0x3dbc6431	0.091987975
217	0x3db42af5	0.08797256
218	0x3e1dd7d4	0.15414363
219	0x3e15ceaa	0.14629617
220	0xbb168619	-0.0022968112
221	0xbde954b1	-0.11393107
222	0x3e10c22f	0.14136575
223	0xbe091904	-0.13388449
224	0xbe524e3b	-0.20537655
225	0xbe190358	-0.14942682
226	0xbd859cff	-0.06524085
227	0xbe250276	-0.1611422
228	0xbe5826fa	-0.21108618
229	0x3e400ad9	0.18754138
230	0x3de92bc6	0.11385302
231	0xbe464e4a	-0.19365802
232	0xbe592532	-0.21205595
233	0xbe3c01d0	-0.18360066
234	0xbe286e68	-0.16448367
235	0x3e442fd5	0.19158871
236	0x3e137ee9	0.14403881
237	0xbd6e75fd	-0.05821799
238	0x3d7c91aa	0.061662354
239	0x3ce271d9	0.027642177
240	0x3d03fca7	0.03222337
241	0xbc59a959	-0.0132850045
242	0xbcb0ec2a	-0.021596987
243	0xbdffb0ed	-0.12484918
244	0x3c90010f	0.01757863
245	0x3e3cc3e1	0.18434097
246	0xbcc460ae	-0.023971882
247	0xbdfd1538	-0.12357563
248	0x3dfa41c2	0.122195736
249	0xbe25d890	-0.16195893
250	0x3bdb595f	0.0066940035
251	0xbb772662	-0.0037712087
252	0xbe4dd29f	-0.20099877
253	0x3e5eec3e	0.21769807
254	0xbe1eb1db	-0.15497534
255	0x3d032313	0.03201587

gat_layers.0.lin_edge.weight f4 [64, 64]
0	0xbe23a981	-0.1598263
1	0x3e2020ca	0.15637508
2	0xbe3de8f6	-0.18545899
3	0x3cb038a3	0.021511381
4	0x3e1f844c	0.15577811
5	0x3da6800f	0.08129894
6	0x3cff213e	0.03114378
7	0xbdd8e9ca	-0.10591467
8	0xbe2212cd	-0.15827484
9	0x3e5bf5bb	0.21480457
10	0x3e3a3fd1	0.18188407
11	0xbd0a47a7	-0.03375974
12	0x3d903395	0.070410885
13	0xbc7dfd14	-0.015502233
14	0xbde3368e	-0.1109439
15	0x3d0131bf	0.031541582
16	0x3c1ee8fb	0.009699102
17	0x3e0cce0c	0.13750476
18	0xbdcc517d	-0.0997648
19	0x3deab541	0.11460353
20	0xbcb9b08e	-0.022667196
21	0xbe38d7ca	-0.18051067
22	0x3e4d604b	0.20056264
23	0x3e0c093e	0.136754
24	0x3dd84a9e	0.10561107
25	0x3d8892d5	0.06668631
26	0xbda6ae47	-0.081387095
27	0xbd883c9f	-0.066521876
28	0xbdc6d802	-0.09709169
29	0x3d98ff62	0.074705854
30	0x3d50c205	0.05096628
31	0xbd91eda2	-0.07125403
32	0xbe1651f7	-0.14679705
33	0xbe3cd223	-0.18439536
34	0xbd3933cb	-0.04521541
35	0xbd5b66b4	-0.053564742
36	0xbe406e24	-0.18792015
37	0xbd937ca9	-0.072015114
38	0xbe082470	-0.1329515
39	0x3e587acb	0.21140592
40	0xbe0f4573	-0.13991337
41	0x3e537634	0.2065056
42	0x3e329c51	0.17442442
43	0xbcaf0ce9	-0.02136846
44	0x3d057d0d	0.03258996
45	0xbe3e9882	-0.18612865
46	0xbded8e8a	-0.11599453
47	0x3df2f55d	0.118632056
48	0xbe1cbfe7	-0.1530758
49	0x3e064ab3	0.13114433
50	0x3cf9cd6f	0.030493466
51	0x3db8c346	0.090216205
52	0xbbf00b07	-0.0073255333
53	0x3ddfb873	0.10923853
54	0x3cd0613c	0.02543699
55	0x3db007f7	0.08595269
56	0x3de22bfe	0.11043547
57	0x3dfddc81	0.123955734
58	0xbe550a0c	-0.20804614
59	0xbdacd030	-0.08438146
60	0xbe0122d2	-0.12610939
61	0xbc0a5dcc	-0.0084452145
62	0x3e192b0e	0.1495783
63	0xbe2bc1fe	-0.16773221
64	0xbe04c16c	-0.1296441
65	0x3d943eb3	0.072385214
66	0x3d6febe9	0.05857459
67	0x3d35cf75	0.0443873
68	0x3e04eb5f	0.12980412
69	0x3d80ea64	0.062947065
70	0x3da9a3e8	0.08283216
71	0xbe1ffff4	-0.15624982
72	0x3e43dc79	0.19127072
73	0xbd3c15ee	-0.04591935
74	0xbe30abb7	-0.17253004
75	0xbd6bd9de	-0.05758082
76	0xbbfda278	-0.007740315
77	0x3e36183f	0.17782687
78	0xbe283265	-0.16425474
79	0x3e39982d	0.18124457
80	0x3d3b125b	0.045671802
81	0x3e0184fb	0.12648384
82	0xbddfb12a	-0.10922463
83	0x3d097310	0.033556998
84	0xbdc46791	-0.09590066
85	0x3d5b5ba3	0.05355419
86	0xbe198e55	-0.14995702
87	0x3c9da6be	0.019244548
88	0x3e167e0b	0.14696519
89	0x3ca9d132	0.020729635
90	0xbc85d9ca	-0.016339201
91	0x3e3a4d12	0.18193462
92	0x3e2600f9	0.16211309
93	0xbda5e45e	-0.08100198
94	0xbc17242a	-0.009224931
95	0xbe139d60	-0.14415503
96	0xbe3cc5f8	-0.18434894
97	0xbdc1513b	-0.094393216
98	0xbd0e9da0	-0.03481829
99	0x3e030bca	0.12797466
100	0xbd35e026	-0.044403218
101	0x3de12ed6	0.10995261
102	0xbdbc0068	-0.09179765
103	0xbd253f18	-0.040343374
104	0xbe53ad7d	-0.2067165
105	0x3df403e0	0.119148016
106	0xbe5e590c	-0.21713656
107	0xbc4b1af2	-0.012396561
108	0x3d43ec92	0.047833033
109	0x3e20aa04	0.15689856
110	0xbdd5af6e	-0.10433851
111	0x3dfd1057	0.12356632
112	0x3a143ea7	0.0005655088
113	0x3d269cf3	0.040677022
114	0x3e137cee	0.14403126
115	0x3da2668a	0.07929714
116	0xbe1c25d3	-0.15248804
117	0xbe17b404	-0.14814764
118	0x3e463c19	0.19358863
119	0xbdd9691d	-0.10615752
120	0x3c83cf26	0.016089987
121	0x3d0c0c58	0.03419146
122	0xbdd206e4	-0.102552205
123	0xbceed82f	-0.029155819
124	0xbaaef854	-0.0013349154
125	0xbe0d29eb	-0.13785522
126	0xbe134bba	-0.14384356
127	0x3da03a2d	0.07823596
128	0x3ddac5f8	0.10682291
129	0x3d934ace	0.07192002
130	0xbe07c11b	-0.13257258
131	0xbcbd3940	-0.023098588
132	0xbe2f5da5	-0.17125566
133	0xbe3835c2	-0.17989257
134	0xbc9e5558	-0.019327804
135	0xbd93cc57	-0.07216709
136	0xbe4b29d1	-0.1984017
137	0x3e32045c	0.17384475
138	0x3e57c148	0.21069825
139	0xbdbbc068	-0.09167558
140	0xbe34f482	-0.17671397
141	0xbe277292	-0.16352299
142	0xbe10a0f9	-0.14123906
143	0x3db9ae06	0.090663955
144	0x3e1c03e9	0.15235867
145	0xbdf6ab44	-0.12044385
146	0xbc638cb0	-0.013888523
147	0xbe557a1f	-0.20847367
148	0xbd2ccd4b	-0.04218797
149	0x3d178d71	0.037000123
150	0xbe0d1ac9	-0.13779749
151	0x3d067a13	0.032831263
152	0xbbb5c848	-0.005547557
153	0x3d96533d	0.07340095
154	0xbcf3d0f6	-0.029762726
155	0x3e591f0a	0.21203247
156	0xbe33af87	-0.17547427
157	0x3d4a532f	0.049395736
158	0xbe579d0f	-0.21056007
159	0xbe168c18	-0.14701879
160	0x3d896762	0.06709172
161	0x3e3f8e23	0.18706565
162	0x3bdf7772	0.006819659
163	0x3e37fe13	0.17968015
164	0xbe301703	-0.17196278
165	0xbe0299ea	-0.12754026
166	0xbcd8e1ee	-0.02647492
167	0x3b872132	0.0041238302
168	0xbb9b8ede	-0.0047472557
169	0xbd18c348	-0.03729561
170	0xbb81efd4	-0.0039653573
171	0xbe56285b	-0.20913832
172	0xbd192d40	-0.03739667
173	0x3d394c9c	0.045239076
174	0xbdbffd54	-0.093744904
175	0xbdca1661	-0.0986755
176	0x3c013394	0.007885832
177	0xbc9ee9fd	-0.019398684
178	0xbdb734d8	-0.08945626
179	0xbe278e03	-0.16362767
180	0x3e55e332	0.2088745
181	0xbd438a32	-0.047739215
182	0x3e537983	0.20651822
183	0x3dc60e88	0.0967074
184	0xbde0b3c6	-0.10971789
185	0xbe489132	-0.19586638
186	0xbd277217	-0.04088029
187	0xbe22e4d7	-0.15907608
188	0x3e4276da	0.18990651
189	0xbdc49fec	-0.09600815
190	0x3e1227b9	0.14272965
191	0xbe080549	-0.13283266
192	0xbd092ad1	-0.0334881
193	0xbdd4e9b0	-0.10396135
194	0xbe431f33	-0.1905487
195	0xbe314f9e	-0.17315528
196	0xbe38753c	-0.18013471
197	0x3d2f1bd6	0.042751156
198	0x3e13bfc6	0.14428625
199	0x3e4ceefa	0.20013037
200	0xbdbb0927	-0.09132605
201	0x3d553d5c	0.05206047
202	0xbe21fe92	-0.15819767
203	0xbc4811ce	-0.012211276
204	0xbcae36ee	-0.021266427
205	0x3dc08cf0	0.09401882
206	0x3e36cec9	0.1785232
207	0x3e1e7604	0.15474707
208	0x3cf92220	0.03041178
209	0xbe1b5844	-0.1517039
210	0xbd7330e1	-0.059372786
211	0xbdbed00b	-0.09317025
212	0x3e4bc6c9	0.1990005
213	0xbdb4d1a2	-0.08829047
214	0xbd5bb7af	-0.05364197
215	0x3e1fe4e4	0.15614659
216	0xbe26141e	-0.16218612
217	0x3e120d57	0.14262901
218	0xbd016ba8	-0.03159681
219	0xbde9cbc7	-0.114158206
220	0xbdca012e	-0.09863506
221	0xbe0bbec1	-0.13646986
222	0xbc778425	-0.015107189
223	0x3e2a632d	0.16639395
224	0x3e4b4b25	0.19852884
225	0xbbbf28d4	-0.0058337245
226	0xbe1f94b6	-0.15584072
227	0xbe40e064	-0.18835598
228	0x3e33fdda	0.17577305
229	0xbe245e79	-0.16051663
230	0x3c5c3ac0	0.0134417415
231	0xbe150510	-0.14552712
232	0x3dec6834	0.11543313
233	0x3e3c4628	0.18386137
234	0x3ce7c201	0.02829075
235	0x3dbb6c8a	0.091515616
236	0xbe276230	-0.1634605
237	0x3e20b1c4	0.15692812
238	0x3d6dbcd6	0.058041416
239	0x3e2cc73d	0.16872878
240	0x3e5a8ca8	0.21342719
241	0x3da962ba	0.08270784
242	0xbe14fbd0	-0.14549184
243	0xbd9e241b	-0.0772173
244	0xbe30d8b7	-0.1727017
245	0xbe469b4c	-0.19395179
246	0xbd9fd6af	-0.078046195
247	0xbdb82e4b	-0.08993205
248	0xbbf8550b	-0.0075784973
249	0x3e19cc11	0.15019251
250	0x3e439b4f	0.19102214
251	0x3b835f70	0.00400918
252	0x3e5e0f50	0.21685529
253	0xbdef9ba3	-0.11699607
254	0x3d8cd23f	0.06876039
255	0x3d5828da	0.052773334

gat_layers.1.att_src f4 [1, 4, 16]
0	0x3d560f96	0.052260958
1	0xbeeb5650	-0.4596429
2	0xbe8b7935	-0.2724091
3	0x3d8f8a16	0.0700876
4	0xbeb53fe5	-0.3540031
5	0xbf06b78a	-0.5262381
6	0x3eb894aa	0.36050922
7	0x3e6a96ed	0.22909136
8	0x3eb777c5	0.35833564
9	0x3c4c079b	0.012452985
10	0x3e51e3c2	0.20497039
11	0xbe953004	-0.29138196
12	0xb95c329c	-0.00020999688
13	0xbe837ae7	-0.25679705
14	0xbec5660b	-0.38554415
15	0x3e5a79b6	0.21335492
16	0x3f0cec77	0.55048317
17	0xbbadfea6	-0.0053098975
18	0xbedfe096	-0.43726033
19	0x3e6704b1	0.22560383
20	0x3da93ecb	0.0826393
21	0xbe1e0628	-0.15432036
22	0x3e1ad474	0.15120107
23	0xbeae2268	-0.34010625
24	0xbe2044d7	-0.1565126
25	0xbeb212e7	-0.34780046
26	0xbe192beb	-0.1495816
27	0xbe4c7f6a	-0.1997048
28	0xbe537400	-0.20649719
29	0x3eaf2c74	0.34213603
30	0xbecab0d0	-0.39588022
31	0xbb6f986d	-0.0036559359
32	0xbec018ff	-0.3751907
33	0xbda531f7	-0.08066171
34	0x3ea51385	0.32241455
35	0xbde0fae8	-0.109853566
36	0x3ec85674	0.39128458
37	0x3e35daaf	0.17759202
38	0xbe71c685	-0.23610885
39	0xbec52763	-0.38506612
40	0xbdd510eb	-0.104036175
41	0x3eac3594	0.33634627
42	0x3f0b665a	0.5445305
43	0xbdaf838c	-0.085700125
44	0xbeca152e	-0.39469284
45	0xbedc194a	-0.42988044
46	0xbefbc754	-0.49175513
47	0x3e932359	0.28737906
48	0x3e4a605a	0.19763318
49	0x3c649320	0.013951093
50	0x3dfa1718	0.12211436
51	0xbd75cde8	-0.06001082
52	0x3eacef16	0.33776158
53	0x3d257863	0.040398013
54	0x3e02b1a4	0.12763077
55	0xbee305ad	-0.44340268
56	0x3c8a4ee6	0.016883325
57	0x3ed6d7f8	0.41961646
58	0x3de62ab3	0.11238613
59	0xbdf02d51	-0.117273934
60	0xbe6fafb3	-0.23406868
61	0xbe14de88	-0.14538014
62	0x3e47bff6	0.19506821
63	0xbd929c3f	-0.07158708

gat_layers.1.att_dst f4 [1, 4, 16]
0	0xbe0bc7c3	-0.13650422
1	0xbee9e773	-0.45684394
2	0x3e657509	0.22407927
3	0xbe09966a	-0.13436285
4	0xbf0a28da	-0.53968585
5	0x3edead06	0.4349138
6	0x3ea8e850	0.3298974
7	0xbe906e6f	-0.28209254
8	0x3d994b56	0.07485072
9	0x3c15bcb4	0.009139229
10	0xbe6a9a9c	-0.22910541
11	0x3ec2bc27	0.38034174
12	0x3e8b6227	0.27223322
13	0xbe1fe8d8	-0.15616167
14	0xbe856c44	-0.26059163
15	0xbeca8fc3	-0.39562806
16	0xbec5e03b	-0.38647637
17	0xbe99a614	-0.3000952
18	0x3e6270a0	0.22113276
19	0x3ec68df0	0.38780165
20	0x3f054274	0.52054524
21	0xbed6717c	-0.41883457
22	0x3eee6a08	0.4656527
23	0xbedab742	-0.4271794
24	0x3eec55a3	0.46159086
25	0x3ea33ca7	0.31882212
26	0xbe5d89a5	-0.21634538
27	0x3e98fb93	0.29879436
28	0x3e666beb	0.22502105
29	0xbdd71e4a	-0.10503824
30	0xbf03f73c	-0.51549125
31	0x3dcb2cfd	0.0992069
32	0xbf0051c5	-0.5012477
33	0x3ec8fc19	0.39254835
34	0xbef401d9	-0.4765766
35	0xbe550052	-0.20800903
36	0x3ee47669	0.4462159
37	0xbedc5e23	-0.4304057
38	0xbd6366ea	-0.05551807
39	0xbcc4c6bd	-0.024020547
40	0xbe731a10	-0.23740411
41	0x3dda9d88	0.10674578
42	0xbe77adc4	-0.2418738
43	0xbc5fbbcd	-0.013655615
44	0x3d455b7d	0.048182953
45	0xbeb3a9df	-0.3509054
46	0xbec4b2e0	-0.3841772
47	0xbdf0327f	-0.11728381
48	0x3d5b9e3a	0.053617693
49	0x3f067df0	0.52535915
50	0x3ef2d8c9	0.4743102
51	0xbed9db70	-0.4255023
52	0xbec01850	-0.3751855
53	0x3d395a85	0.04525234
54	0x3ec962de	0.39333242
55	0xbee7e09b	-0.45288548
56	0xbe9c31bb	-0.3050669
57	0xbe8bc98c	-0.27302206
58	0x3e075c94	0.1321891
59	0x3dbd2eb9	0.09237427
60	0xbdfb401c	-0.12268087
61	0x3e9bd3bb	0.30434975
62	0x3e94d728	0.290704
63	0xbe89ca14	-0.26911986

gat_layers.1.att_edge f4 [1, 4, 16]
0	0x3ef559e2	0.47920138
1	0xbe5503d6	-0.20802245
2	0x3ebd0d6a	0.36924297
3	0xbe9c39f8	-0.30512977
4	0xbec1a998	-0.37824702
5	0x3ec67068	0.38757634
6	0xbe8c3e5c	-0.27391326
7	0x3cba545b	0.022745302
8	0x3ed316c9	0.4122832
9	0xbe8e8484	-0.27835476
10	0xbe29059e	-0.16506049
11	0x3e09e766	0.13467178
12	0x3d75aac7	0.05997732
13	0x3e275b1b	0.16343348
14	0x3e98cc2f	0.2984328
15	0xbe057729	-0.13033737
16	0x3f06b078	0.5261302
17	0x3d72af6b	0.059249323
18	0x3da955ee	0.08268343
19	0xbee7fc28	-0.45309567
20	0xbdbd1891	-0.09233201
21	0x3ec517d1	0.38494733
22	0x3efcfd86	0.49412173
23	0xbda31d79	-0.07964606
24	0x3e1fbad1	0.15598609
25	0xbf0bbafb	-0.54582185
26	0x3f061a1a	0.5238358
27	0xbf0c544e	-0.5481614
28	0xbed8b6e3	-0.42327031
29	0x3e71413f	0.23560046
30	0xbda530f9	-0.080659814
31	0xbf03a4ed	-0.5142353
32	0xbecb0ac3	-0.39656648
33	0x3ef79383	0.4835473
34	0xbdea2aaf	-0.114339225
35	0xbf0abce4	-0.54194474
36	0x3e9ea218	0.30983043
37	0x3ed29c8d	0.41135064
38	0xbebdbd54	-0.37058508
39	0x3e417cd7	0.18895279
40	0x3e81daa6	0.25362128
41	0xbe032a8b	-0.12809198
42	0x3e3d1082	0.18463328
43	0xbee318e8	-0.4435494
44	0xbe29af81	-0.16570856
45	0x3ed4bbbc	0.4154948
46	0x3952c388	0.00020100002
47	0x3ef477a7	0.47747537
48	0x3e98a9cb	0.29817042
49	0x3d58b0d4	0.05290301
50	0x3ecc01bd	0.39845076
51	0x3e10e3a9	0.14149345
52	0x3e8d1ae6	0.27559584
53	0x3ef0ef13	0.470574
54	0xbe220d88	-0.15825474
55	0x3de6b5b2	0.112651244
56	0x3ebff735	0.37493291
57	0x3eec8a54	0.46199286
58	0x3d22e53c	0.039769396
59	0xbee4ec22	-0.44711405
60	0xbde6bb36	-0.112661764
61	0xbf07b61c	-0.5301225
62	0xbec8e377	-0.39236042
63	0x3e244037	0.16040121

gat_layers.1.bias f4 [64]
0	0xbb8fb842	-0.004385979
1	0xbb911bca	-0.0044283615
2	0xbba235f5	-0.00495028
3	0x3c3adc31	0.011405037
4	0x3c3299dd	0.010900942
5	0xbb8ee682	-0.0043609748
6	0xbb910394	-0.0044254754
7	0xbb90f434	-0.0044236425
8	0xbb8ed922	-0.0043593803
9	0xbb909ef6	-0.004413481
10	0xbb9bb8b6	-0.004752244
11	0xbb9012c0	-0.0043967664
12	0xbba0f472	-0.0049119527
13	0xbb912349	-0.004429255
14	0xbb921f93	-0.0044593303
15	0xbb8e8c4a	-0.00435022
16	0x3beb3214	0.0071776006
17	0xbb9058a4	-0.004405098
18	0xbb98eb61	-0.004666731
19	0xbb91f195	-0.0044538477
20	0xbba56586	-0.005047503
21	0xbb8fcc44	-0.004388364
22	0xbb9bb729	-0.004752059
23	0xbb8ed68b	-0.0043590716
24	0xbb8ab8ba	-0.004233447
25	0xbaf13eb0	-0.0018405523
26	0xbba2ee00	-0.0049722195
27	0xbb907967	-0.0044090035
28	0xbb8e91b1	-0.004350864
29	0x3b09a6f0	0.0021004044
30	0xbb441674	-0.002992061
31	0x3c16d302	0.009205582
32	0xbb9014ff	-0.004397034
33	0xbb92dd77	-0.004481967
34	0xbb962b6c	-0.004582813
35	0xbba3a443	-0.0049939468
36	0xbb8e9c4d	-0.0043521286
37	0xbb90643b	-0.0044064797
38	0xbb9a6396	-0.0047115786
39	0xbb8e7ee7	-0.004348624
40	0xbb8fd20d	-0.0043890537
41	0xbb91af69	-0.0044459593
42	0xbb9484bf	-0.004532426
43	0x3990b57f	0.00027601045
44	0xbb8fa379	-0.004383501
45	0xbb9f5808	-0.004862789
46	0xbb9b6730	-0.0047425255
47	0x3b2b3362	0.0026123156
48	0xbb8c45de	-0.0042807898
49	0xbb8c4b8b	-0.0042814664
50	0x3c3194f9	0.0108387405
51	0xbb9973f8	-0.004683014
52	0xbb8f444b	-0.004372155
53	0xbb9c8646	-0.004776749
54	0xb9f53672	-0.00046770606
55	0x3c28119c	0.010258105
56	0xbb912cfb	-0.004430411
57	0xbb0e291b	-0.0021691981
58	0xbb90e409	-0.004421715
59	0xbb9e5422	-0.0048318068
60	0xbba09c0a	-0.004901414
61	0xba972c38	-0.0011533564
62	0xbb8f57e1	-0.0043744897
63	0x3bd75894	0.0065718386

gat_layers.1.lin.weight f4 [64, 64]
0	0x3df9ca84	0.1219683
1	0x3e0ecf79	0.13946332
2	0x3e432795	0.19058068
3	0xbdcd6e76	-0.100308344
4	0x3dfdcf96	0.123931095
5	0x3d50833e	0.050906412
6	0x3dee208a	0.116273
7	0x3dd8a24c	0.10577831
8	0x3e5c4026	0.21508846
9	0xbe0964ad	-0.13417311
10	0x3e3b7acf	0.18308567
11	0xbde3f251	-0.111302026
12	0xbc8c3366	-0.017114352
13	0x3c632d32	0.013865756
14	0x3e4e0f2e	0.20122978
15	0xbd7307c6	-0.059333585
16	0xbe3def40	-0.18548298
17	0x3e302ba1	0.17204143
18	0x3d64ab97	0.055827703
19	0xbc8da39f	-0.017289935
20	0xbe47a5a3	-0.19496779
21	0x3e178a04	0.14798743
22	0xbd02c797	-0.031928625
23	0xbde1c7ec	-0.1102446
24	0x3e38f6c1	0.18062879
25	0xbdbec18e	-0.093142614
26	0xbb80f479	-0.0039353934
27	0x3cf340e0	0.02969402
28	0x3b6dc58a	0.0036281073
29	0x3de16d45	0.1100717
30	0xbc69b22f	-0.014263674
31	0x3e26be6c	0.16283578
32	0xbdd0032d	-0.10156856
33	0x3e3c5420	0.18391466
34	0xbd5a85f9	-0.053350423
35	0x3c1e3419	0.009655976
36	0xbe0da21a	-0.13831368
37	0xbd87b2fe	-0.06625937
38	0x3dad4927	0.08461218
39	0xbd605b35	-0.05477448
40	0x3cfd5b65	0.03092737
41	0xbe1fb01d	-0.15594526
42	0x3daaef74	0.08346453
43	0xbe00598d	-0.12534161
44	0xbdb1c232	-0.08679618
45	0xbe36d3cc	-0.17854232
46	0xbe2729a2	-0.16324475
47	0x3df8f920	0.12156892
48	0x3e21f847	0.15817367
49	0xbbf64201	-0.0075151925
50	0xbe52fd9e	-0.2060456
51	0xbe22da5e	-0.15903613
52	0x3c999532	0.0187479
53	0x3e24757f	0.16060446
54	0x3e16f970	0.1474359
55	0xbd51b509	-0.05119804
56	0xbb70893d	-0.0036702894
57	0x3c655e75	0.013999571
58	0x3c5306ab	0.012880008
59	0xbc7bb868	-0.01536379
60	0x3bc155f7	0.0059001404
61	0xbd01f9d0	-0.03173238
62	0x3daa15ce	0.0830494
63	0x3c022a8a	0.007944712
64	0x3e44be08	0.19213116
65	0x3e0018bb	0.12509434
66	0xbcf02c0b	-0.029317876
67	0xbe19ab8d	-0.15006848
68	0x3e12e62b	0.14345615
69	0xbca85f59	-0.020553278
70	0xbdf70e5b	-0.12063285
71	0xbca84413	-0.020540273
72	0x3db0231f	0.08600449
73	0xbce5970b	-0.028026124
74	0xbd3d12d1	-0.046160523
75	0x3c48bd89	0.01225222
76	0x3e1ad530	0.15120387
77	0x3dbeb4af	0.093118064
78	0xbca09c9a	-0.019605923
79	0x3e212223	0.15735678
80	0x3e276123	0.16345648
81	0xbe21b5c8	-0.15792
82	0xbe594518	-0.21217763
83	0x3df06d1b	0.1173956
84	0xbd988096	-0.07446401
85	0x3defb7e2	0.11704995
86	0xbe08f905	-0.13376243
87	0xbdfb40eb	-0.122682415
88	0x3d393e78	0.04522559
89	0xbda507b4	-0.0805811
90	0x3e31a62b	0.17348544
91	0xbd997081	-0.074921615
92	0x3e574be8	0.2102505
93	0xbd0bdc66	-0.034145735
94	0xbe0f6f8d	-0.14007397
95	0xbe608700	-0.21926498
96	0x3dfed1ee	0.12442385
97	0xbdabc797	-0.08387678
98	0x3d76e7c6	0.06027963
99	0x3e32fea2	0.17479947
100	0x3c86f6cb	0.016475102
101	0xbe47221d	-0.19446607
102	0x3d6ef4ef	0.058339056
103	0x3e4c9fd7	0.19982849
104	0x3dc5563e	0.0963559
105	0xbe1567c5	-0.14590366
106	0x3e519f41	0.20470907
107	0xbe43e76d	-0.1913125
108	0x3db82040	0.08990526
109	0x3dc1c89c	0.09462091
110	0x3e2514f7	0.16121279
111	0x3e19be12	0.15013912
112	0xbc2e27e2	-0.010629626
113	0x3dbab3df	0.09116339
114	0x3dc7cfa0	0.09756398
115	0x3d197c48	0.03747204
116	0x3d4116a5	0.047140736
117	0x3d1f8e89	0.03895429
118	0x3e3f40d2	0.1867707
119	0xbe0bbb2f	-0.13645624
120	0x3d76ac7d	0.06022309
121	0x3ce05d77	0.027388318
122	0xbbf094b7	-0.007341947
123	0xbcc47a55	-0.023984114
124	0x3cd0cd41	0.025488498
125	0xbda9bc58	-0.08287877
126	0xbde89ff9	-0.11358637
127	0xbe568480	-0.20948982
128	0x3e37ad94	0.17937309
129	0x3d34d586	0.044148944
130	0xbdb9f35a	-0.09079619
131	0xbe57c5ff	-0.21071623
132	0x3ddf7cb6	0.109124586
133	0xbc297a02	-0.01034403
134	0xbd8af4ec	-0.067849964
135	0x3e17bd35	0.1481827
136	0xbe256139	-0.16150369
137	0x3cf95c22	0.03043944
138	0xbe2397a7	-0.1597582
139	0xbe11a640	-0.14223576
140	0x3e2aedd5	0.16692288
141	0x3d87ecab	0.06636938
142	0x3e4dbd9d	0.20091863
143	0x3d96deed	0.073667385
144	0xbdda543d	-0.106605984
145	0x3c8b209d	0.016983325
146	0x3de62b44	0.11238721
147	0x3dd0e15e	0.101992354
148	0xbdb47390	-0.08811104
149	0xbe350f68	-0.17681658
150	0xbba5e4fb	-0.005062697
151	0xbd50ed59	-0.051007602
152	0x3dd6dc92	0.10491289
153	0x3e015c43	0.12632851
154	0x3de664ad	0.11249671
155	0x3d49ec59	0.049297664
156	0xbd1919e9	-0.037378225
157	0x3bc5f781	0.0060414677
158	0x3da492ed	0.08035836
159	0x3e175d9a	0.147818
160	0xbd24dec1	-0.040251497
161	0x3d747268	0.05967942
162	0xbe08a4d4	-0.13344127
163	0xbd03c16c	-0.032166883
164	0x3ce5892a	0.028019506
165	0x3e45af14	0.19305068
166	0xbe3af645	-0.18258007
167	0xbdcb13e9	-0.09915907
168	0x3d68dd3a	0.056851603
169	0xbdfa6b2f	-0.12227475
170	0x3c9759a5	0.018475363
171	0xbe342304	-0.17591482
172	0x3e127f01	0.1430626
173	0x3e428400	0.18995667
174	0x3e39d8e4	0.18149143
175	0xbd73611d	-0.059418786
176	0xbe30524a	-0.17218891
177	0xbd12630e	-0.035738997
178	0xbe1005e7	-0.14064752
179	0x3d51448f	0.051090773
180	0x3e1e66c3	0.15468888
181	0x3d566b5c	0.05234848
182	0x3dc72c70	0.09725273
183	0xbd0c044b	-0.03418378
184	0x3d29d5ec	0.041463777
185	0x3db57317	0.08859842
186	0x3c7cf7ee	0.01543997
187	0xbcb603db	-0.022218635
188	0xbe2ae8ac	-0.1669032
189	0xbdebb5e6	-0.11509304
190	0x3e6593cb	0.2241966
191	0x3e051f11	0.13000132
192	0x3d0229a8	0.031778008
193	0xbd304838	-0.043037623
194	0xbe2afa29	-0.16696991
195	0x3dd62563	0.1045635
196	0x3d92c0a6	0.07165651
197	0x3e4b2f66	0.198423
198	0x3e1a87c3	0.15090851
199	0xbd3d0a2a	-0.04615227
200	0x3bdebbf9	0.0067973104
201	0xbbdc8936	-0.006730224
202	0xbd1d50db	-0.038407188
203	0xbc446954	-0.011988003
204	0xbe35ca7e	-0.17753026
205	0x3e398a34	0.18119127
206	0xbda7351d	-0.081644274
207	0xbe542797	-0.20718227
208	0x3db4746a	0.08811267
209	0xbe2a5248	-0.1663295
210	0x3e4da18b	0.20081155
211	0xbe0d2a2b	-0.13785617
212	0xbde02dd7	-0.10946243
213	0x3db0fd1b	0.08642026
214	0xbe54d0da	-0.20782796
215	0xbd96a4c2	-0.07355644
216	0x3e04c311	0.12965037
217	0x3ccd17fc	0.02503585
218	0x3d05af3f	0.03263783
219	0xbd7c3720	-0.06157601
220	0xbd48f188	-0.049058467
221	0x3c4d8c7e	0.012545703
222	0xbc6bc05f	-0.014389127
223	0x3d936ef6	0.071988985
224	0xbe43adbd	-0.19109245
225	0xbe05db38	-0.13071907
226	0xbe4012ed	-0.1875722
227	0xbddecf10	-0.10879338
228	0x3e399b4b	0.18125646
229	0xbd2d326b	-0.04228441
230	0xbc8df8cf	-0.017330555
231	0x3dcacca2	0.09902312
232	0xbdbc4fea	-0.0919493
233	0x3e480bab	0.19535701
234	0xbe0e88e8	-0.13919413
235	0x3cbc9d8f	0.023024349
236	0xbd3daefd	-0.04630946
237	0x3e3c4986	0.18387422
238	0xbe0647e5	-0.13113363
239	0x3e0ae1db	0.1356272
240	0xbdc27050	-0.09494078
241	0xbc77d0d7	-0.015125475
242	0x3d4483c0	0.04797721
243	0x3df5009f	0.11963009
244	0xbdfe3f93	-0.124144696
245	0x3e08c440	0.13356113
246	0x3cad77d6	0.021175306
247	0xbe0539a2	-0.13010266
248	0x3e3e3d02	0.1857796
249	0x3dc502dd	0.09619687
250	0x3dfd7445	0.12375692
251	0x3cd62984	0.026142843
252	0xbddd082a	-0.10792573
253	0x3e51008c	0.20410365
254	0xbd3817f4	-0.04494472
255	0xbde95b67	-0.11394387
