models/best_fraud_model_seed_2023.pth (torch, 378242 bytes, 45 tensors)

node_emb.weight f4 [64, 8]
00000000: ca0a 42be c777 833e a7e4 1cbe 1f1b ee3c
00000010: 4af8 b6bd 5570 1cbd 7d9b a1be 7b30 34be
00000020: 4f7e 8fbe 72e3 65bd 8e87 9ebe 2c04 3c3e
00000030: f697 cdbd b437 00be aaf0 6c3e 11e2 fd3d
00000040: 22aa d63d af8d 5cbe ed65 c4bd 5850 023e
00000050: 08c9 48be cbff af3e 89f3 85be b85e 8f3d
00000060: 0cf3 9bbe 1c3f 97be ad78 493e d928 30be
00000070: 2a33 90bc f0ce 73be 93ba 09bc 9440 b0be
00000080: 211a 673c a4bc 00be 23aa 26be 496b bd3d
00000090: 5529 633e 7cf0 f13c 119e 15be b8dd 18be
000000a0: 05a5 1ebe 85cf 803d 1449 b2be c1d6 393e
000000b0: 7ac7 b2be c197 14be a681 933d 9c8b ec3d
000000c0: 5c0c 87be 5742 473e 3842 b2be ef64 4abe
000000d0: 8602 9ebe 5be6 6b3e 8f1f 9d3e c348 5fbe
000000e0: aa8a 943d 9e49 a43d cd45 413c 3346 853e
000000f0: 4c81 50be e654 903d 1a5d 073d a30e d83c
00000100: a8b4 913e f414 96bb 0c5a 7cbd 4249 a63d
00000110: a58c 943e 593d fe3d 06b7 6bbe b8b7 3b3e
00000120: 9be1 4b3e ce4c 9ebe e360 2fbe 4ce7 6a3e
00000130: d920 82be f2a6 543d eb3b 393e 7ab0 a43e
00000140: 2ced 8bbe e8dd b5bd ebca 76be e27f 7fbd
00000150: 82e8 a03e 5a30 903e d346 6bbe d78e 36be
00000160: bb46 21be e6e0 9abe 0a7d 9d3e 7c2e 96be
00000170: ea06 13bd 22d1 7cbe c7f8 303e 3361 733e
00000180: c011 ebbd 95c2 35be f41e a73e 4a54 85be
00000190: 402b 433e 4842 3abe 882c 0ebe 440c 41be
000001a0: 0173 4ebe aea6 d93b 84f7 ac3c 6358 9b3e
000001b0: d8e7 073e 80be c4bd f219 72be 311c a03e
000001c0: 46e9 a9bd 7c62 f2bd 8e16 4a3e 148a 373e
000001d0: d63d 92be 3e24 ac3e 11dd 64be 7317 a4be
000001e0: cad0 863d 9597 c1bd 878d 9c3e 9657 3c3e
000001f0: 135b c5bd 46c6 f23d 71f7 a7be 1dc9 743e
00000200: 3a4d 2cbc 695d 1e3d b9fe 94be bb84 29be
00000210: dc9c 6fbe 1dfa 92be 7510 b3be 6f22 82be
00000220: 1ea3 a53d a72f d1bd f3a5 76be 6fe6 54be
00000230: bc1e 4ebe 32b4 053c 7478 a4be 71e8 8f3e
00000240: abdf 863e 47fe 67bd 03a7 5a3e 3e14 98bc
00000250: 050a 2dbd 25a1 7d3e 7597 493e a88a 8cbe
00000260: 5e6e e73d 4733 b1bd 7fdf 22be 4dc5 3e3e
00000270: c95d 17be 4066 bc3a 4451 8bbe f4b8 7ebe
00000280: ecca 903e 357c b3bd 26f1 7e3e c7bf 203e
00000290: 5aae 453d d98b b13e 62e0 9c3e 151a 73be
000002a0: ce61 b7be 9599 5e3e 1495 f8bd c247 973b
000002b0: 9521 ae3e 8ac1 be3d d98e 91bd 737b a2be
000002c0: 39f2 a7be ab42 4cbe 6283 6dbe baf0 02be
000002d0: 7696 99be 01a3 9ebe 36bb 1cbe 08d4 b23e
000002e0: 952f 27be 47cd 943d 6ed6 9fbe e4a2 7f3e
000002f0: f8df 953e 4bbd 213e 3952 443e 5189 02be
00000300: 1bd3 dbbd ef49 21bc 068b 743d c1ee 4cbe
00000310: b528 1a3c 7520 2d3e 168c 2b3c 3485 69be
00000320: 8f7f 3b3d e338 4f3d b260 d1bd 2d3b 82be
00000330: 8e9e 153e 8a18 73be 9f98 063e 346c d1ba
00000340: d68b 123e cd63 38bd b00c 57be 9e61 483d
00000350: 472c 06be 0030 143d a496 31be e3ae 9dbd
00000360: 7c10 a73e 4200 81be ef7f aebe 6d31 c33d
00000370: 20a6 9abe ff26 3f3d 3e20 0a3e 2ae4 663e
00000380: ef3e 93be a634 69be 2b24 8d3e d376 adbe
00000390: eb01 5fbe 9747 cebd ea2f b1be ae16 a63e
000003a0: 62e7 a73e eb0d a1be 8162 c23d f010 ab3e
000003b0: 16bb 13bd 10b6 aeb9 6e5d 4a3e e39c 0bbe
000003c0: 4d02 4abe 0584 283e e309 12be 6e51 8abe
000003d0: 49b6 753e cf98 5dbe 54f8 a43e cea5 ab3e
000003e0: b747 003e e866 47be 657f b2be 2e57 e0bd
000003f0: 8e09 1dbd 9ca2 8bbe 3396 a0be 9b74 8bbe
-0.18949428 0.2567732 -0.15321599 0.029065667 -0.08934076 -0.038193066 -0.3156394 -0.17596619
-0.28026053 -0.056125112 -0.30962795 0.18360966 -0.1003875 -0.12521249 0.23138681 0.12396634
0.10481669 -0.21538423 -0.09589753 0.12725961 -0.19607937 0.34374842 -0.26162365 0.07000488
-0.30458868 -0.29540336 0.1967494 -0.17203082 -0.017602522 -0.23809409 -0.008406299 -0.3442427
0.014105351 -0.1257196 -0.1627584 0.09248979 0.22183736 0.029533617 -0.14611079 -0.14928329
-0.15492637 0.06289581 -0.3482138 0.18148328 -0.34917814 -0.14511015 0.07202463 0.11550066
-0.26376617 0.194589 -0.34816146 -0.19765066 -0.308613 0.23037092 0.3068814 -0.218051
0.072530106 0.08021854 0.011796427 0.2603012 -0.20361823 0.07047443 0.033047773 0.026374167
0.28458142 -0.0045801345 -0.061609313 0.081194416 0.29013553 0.12414045 -0.23019037 0.18331802
0.1991028 -0.30917972 -0.17126803 0.22939795 -0.25415686 0.051917024 0.18089263 0.3216589
-0.27329385 -0.08880216 -0.24100845 -0.062377818 0.3142739 0.2816189 -0.22976236 -0.17827927
-0.15749638 -0.3024971 0.3075946 -0.2933234 -0.035895266 -0.24689153 0.17282401 0.23767547
-0.11477995 -0.17750008 0.32640803 -0.2604087 0.19059467 -0.18189347 -0.13884175 -0.18852335
-0.20161058 0.006642184 0.021114118 0.3034087 0.13272035 -0.096066475 -0.2364271 0.31271508
-0.082964465 -0.11835191 0.19735166 0.17923766 -0.28562802 0.336214 -0.22349955 -0.3204914
0.06582792 -0.0945274 0.30576727 0.18392786 -0.09636512 0.11854224 -0.3280597 0.23904844
-0.010516459 0.0386633 -0.29100588 -0.16554539 -0.23399681 -0.28706446 -0.34973493 -0.25416896
0.08087753 -0.10214167 -0.24086742 -0.20791028 -0.20128912 0.008160638 -0.32123148 0.28107026
0.2634252 -0.056638982 0.21352772 -0.01856434 -0.042245883 0.24768503 0.19686683 -0.27449536
0.11300348 -0.086523585 -0.1590557 0.18629952 -0.1478187 0.0014373735 -0.27210438 -0.24875242
0.28279817 -0.08763925 0.24896678 0.15698157 0.048261978 0.34677008 0.3063994 -0.23740418
-0.35816807 0.21738274 -0.121378094 0.0046167085 0.34009996 0.093142584 -0.07107324 -0.3173481
-0.3280199 -0.19947307 -0.2319465 -0.12787142 -0.29997605 -0.30983737 -0.1530579 0.34927392
-0.16326745 0.07265716 -0.31218284 0.24964482 0.29272437 0.15794866 0.1917199 -0.12747695
-0.107336245 -0.009844287 0.059702896 -0.20012952 0.009409119 0.16906913 0.010470411 -0.22804719
0.045775946 0.05059136 -0.10223521 -0.25435773 0.14611265 -0.2373983 0.13144158 -0.0015977682
0.14311156 -0.045017052 -0.21000934 0.04892122 -0.13102828 0.03617859 -0.17342621 -0.076993726
0.32629764 -0.2519551 -0.3408198 0.095309116 -0.30204868 0.04666805 0.13488862 0.22547975
-0.28758952 -0.2277399 0.27566656 -0.33879718 -0.21778075 -0.100722484 -0.34606868 0.32439178
0.3279372 -0.3145593 0.094914444 0.3341136 -0.03606709 -0.00033323513 0.19762203 -0.13634066
-0.1972744 0.16456611 -0.14261584 -0.2701525 0.23995318 -0.21640323 0.3222071 0.33524936
0.12527357 -0.1947285 -0.3486282 -0.10954128 -0.03833919 -0.272725 -0.31364593 -0.272374

node_emb.bias f4 [64]
00000000: 4986 673e 5db4 6abe e336 ac3e eaf2 b43e
00000010: 31b4 d63c edf6 f63d 42cd 3ebe ecfe 99bd
00000020: 0d69 423e 397c a4bd 73c9 d63d 96a8 a0be
00000030: cc41 91be 7816 1f3e 5f54 a63d 0059 62be
00000040: 72d6 363e 8e45 a7be aa61 4e3e 21fa 0cbe
00000050: 3c0d 94be 8b0e 3ebe 5a39 6abd 1ec7 68ba
00000060: fd18 a7be 32a6 15be 91bb 153e c5fc a2be
00000070: f3d3 053c 626a 12be dbb9 8cbd e93a b5be
00000080: f041 b73d e6da 9b3e 11d5 313e 00ce a9bd
00000090: d1a2 ff3c 9c4b 0ebd 0f7d 333e 50b0 b7be
000000a0: d57d 79be 4ed4 543d 82ae 813c f5a3 89be
000000b0: 0c24 59be a01e 8e3e e84f 63be b06c 2ebe
000000c0: c8d8 ffbd 6fde 6a3b 463d fe3d 76b4 5f3d
000000d0: e211 b0be b2a9 193e c570 18be 2454 18be
000000e0: c198 f9bd cc60 193e a862 aabe c928 2b3e
000000f0: af9d dc3b d604 1dbd a90f b2bc 72ed 89be
0.2260982 -0.22920366 0.33635625 0.3534158 0.026208969 0.12058816 -0.18632987 -0.075193256
0.18985386 -0.08031506 0.10487642 -0.3137862 -0.28370512 0.15535915 0.08121561 -0.22104263
0.17855242 -0.32670254 0.20154443 -0.13767292 -0.28916347 -0.18560235 -0.0571836 -0.00088797684
-0.32636252 -0.1461418 0.14622332 -0.31833473 0.008168208 -0.14298394 -0.068713866 -0.35396507
0.089481235 0.30440444 0.17366435 -0.082912445 0.031205567 -0.034740075 0.17528175 -0.35876703
-0.24364407 0.051960282 0.015830282 -0.26882902 -0.21205157 0.2775774 -0.2219845 -0.17033648
-0.124925196 0.0035838147 0.12414031 0.05461546 -0.34388644 0.1500614 -0.14886768 -0.14875847
-0.121873386 0.14978331 -0.33278394 0.16714777 0.0067326645 -0.03833469 -0.021735983 -0.2693897

edge_emb.weight f4 [64, 2]
00000000: 3dcb 45bd 0a88 ee3e bd4f bd3d a9c9 c03e
00000010: 2f00 acbe 829e 4bbe 9879 b2be 42f4 f3bd
00000020: a072 223f e7ac 8e3e 136d c13e 58f9 98be
00000030: 71dc 18bf ac40 91be 2604 493e c741 97be
00000040: 057b 70bd cb58 693d 5a15 27bf b38c 863e
00000050: 45a8 a13e 7758 193f 5933 033f 20a5 10bf
00000060: 0bb2 953e 4c23 60be 4f12 0abf 8c3e 07bf
00000070: 1ea9 11bd 5345 2cbf be5f dd3c 868e 1f3e
00000080: 9753 13bf 197b cfbe 7975 c3be 934c b4be
00000090: e886 f6be dfb2 6bbe 0d6a 153f 0972 22bf
000000a0: f3ce 173f 3aed 683e 84d6 c9bd cda1 b5bd
000000b0: 3bfe ccbd 212a 3f3e bce5 d13e f6d9 c8be
000000c0: 14aa 1e3f 3771 713e fd9d 37be 5d30 30bf
000000d0: e292 0b3f f40e da3e cbe6 d0be b686 fb3e
000000e0: 3f37 263e 1ed2 ca3e b672 ccbe da90 fe3e
000000f0: 4f49 c7be dda6 24bf 8225 9cbd 17d0 2c3f
00000100: 8ad3 07be 9729 6e3d cad4 c53e 9534 25bf
00000110: 9fb5 443e 07bb b1be be94 47bd 63de 27bf
00000120: 3592 ea3e 7470 96bd 76c0 0d3f 7e28 2cbf
00000130: 9ebe 543e f7c6 40be 887e cebe 2af8 7d3e
00000140: 8617 283f f172 573e 705f 79be 398d 2e3f
00000150: c415 9bbe c39c afbe 5ca1 163f dfd8 ef3e
00000160: e424 d33e 5751 c93e 9a3d e13d 6460 1abf
00000170: 48b7 f93e 0bce 26bf e72e 193e 6fba c63e
00000180: 9949 c43d 4743 e13c c7e6 e4be c3f4 42bc
00000190: 7aa2 f73e c59b 16be 9f20 33be b6b0 0b3e
000001a0: 77ec 103f ece3 febe 16e0 ae3d 055e 42be
000001b0: 6ded 8b3e 7e9b 023f da71 193e 4ed6 5abe
000001c0: f4c2 77be bd12 17bf 053a bfbe a4f0 c93e
000001d0: 1c0c eabe 615d 2a3f ad2d 1abf 1798 1a3f
000001e0: cdf7 ebbe 6bfc 63be 3c10 ea3e c47d 8d3e
000001f0: d530 d03e 2609 893e b7e7 263e 6fb4 97be
-0.048289526 0.46588165 0.092437245 0.37653854 -0.3359389 -0.19884685 -0.34858394 -0.11911823
0.63456154 0.2786629 0.3777853 -0.29877734 -0.59711367 -0.28369653 0.19630489 -0.29542372
-0.05871107 0.056969445 -0.65266955 0.2627922 0.31573692 0.5990061 0.51250225 -0.5650196
0.29237399 -0.21888465 -0.53934187 -0.52829814 -0.035561673 -0.6729328 0.027023192 0.15581712
-0.5754942 -0.40523604 -0.38175562 -0.35214671 -0.481498 -0.23017453 0.58364946 -0.63455254
0.59300154 0.22746745 -0.09855369 -0.08868752 -0.10009428 0.18668415 0.40995586 -0.3922879
0.6197827 0.23578344 -0.17931361 -0.68823797 0.54521 0.42589533 -0.4080108 0.49126214
0.16232012 0.39613432 -0.39931267 0.49719888 -0.38923118 -0.64317113 -0.076243415 0.6750502
-0.1326429 0.058145132 0.38638908 -0.6453336 0.19209908 -0.34713003 -0.048725836 -0.6557371
0.45814672 -0.073456675 0.553718 -0.67249286 0.2077584 -0.18825899 -0.4033091 0.24801698
0.65660894 0.2103994 -0.24352813 0.6818424 -0.30290043 -0.34299287 0.58839965 0.46845147
0.41239083 0.3931987 0.10998078 -0.6030333 0.48772645 -0.65158147 0.14959298 0.38814113
0.0958435 0.0274979 -0.4470732 -0.011899176 0.48366147 -0.14707859 -0.17492913 0.13641629
0.56610817 -0.49783266 0.08538835 -0.18981178 0.2732958 0.5101851 0.14984837 -0.21370813
-0.24195462 -0.5901297 -0.37348953 0.39441407 -0.45712364 0.66548735 -0.60225946 0.6038832
-0.46087494 -0.22264259 0.4571551 0.27635014 0.40662256 0.26764792 0.1629933 -0.29629847

edge_emb.bias f4 [64]
00000000: 9bc8 8f3c 3c09 223d 2681 e8bd 4f2a ac3d
00000010: 1b81 eebc e898 88be 4b54 ee3e 9da8 133f
00000020: 4e41 c7be 427b 253f ff57 00bf 933d 263f
00000030: 5900 2ebf fb11 28bd f7bc 73bc 1708 073e
00000040: 6713 64be c795 533e a3bf 4abe 02ad 0fbf
00000050: 8b4a 2fbf 22fc 86bb e43d 0fbf 372a a53e
00000060: d04a b23c 6671 0fbf 6245 11bf 7ed8 37be
00000070: f521 153f 082a 0ebf de9e c03e b184 b1be
00000080: a1bc 28bf 74f3 993d 91b6 593e 07dc 11bf
00000090: a05a 8c3e 413e 30bf 754e b1be 286f e93e
000000a0: d5e0 283e 9314 103e 0add 283e c7dc 5cbe
000000b0: 1fc7 d3bd be58 aabd c137 08bf 3406 803e
000000c0: e75e 6f3e 8016 39bf 1035 8a3d bb19 0f3f
000000d0: e0ae 183f 396a bc3e b012 123e 7cbc 113f
000000e0: 9857 eabe 4d24 38be 332b b93e c1d1 22bf
000000f0: 38eb 4c3e f6eb 0cbf 2875 29bf a2a0 2fbd
0.01755171 0.039559588 -0.11352758 0.08406507 -0.029114297 -0.26679158 0.46548685 0.5767916
-0.3891701 0.646412 -0.5013427 0.64937705 -0.6796928 -0.041032773 -0.014876596 0.1318668
-0.22273026 0.20662604 -0.19799666 -0.56123364 -0.6847312 -0.004119412 -0.5595381 0.3225877
0.021764189 -0.5603241 -0.56746495 -0.17953679 0.5825494 -0.55532885 0.37621206 -0.34671548
-0.65912825 0.07517138 0.2126105 -0.5697636 0.2741289 -0.6884499 -0.3463017 0.45592618
0.16492017 0.14070348 0.1649057 -0.21568595 -0.10340714 -0.083177075 -0.53210074 0.25004733
0.23376046 -0.7229996 0.06748402 0.55898637 0.5964184 0.3679979 0.14264941 0.5692823
-0.45769954 -0.17982598 0.3616577 -0.6360131 0.20011604 -0.5504755 -0.6619439 -0.0428778

gat_layers.0.att_src f4 [1, 4, 16]
00000000: 200b 0fbd d19a 6fbe ea8f 623e 1587 66be
00000010: 6e6c 5f3e eb5f b2bc 9f1b b03e cd7e 7f3e
00000020: 7296 bb3d d50f d73e 4bfb adbd 01fd e9be
00000030: 9721 dabe c980 08bf af87 c6be 7e14 4d3e
00000040: 029f 32be 1198 fa3e 15c6 cc3c 759d e9be
00000050: f0f6 813e 49c2 f2bd a2ad e13e 5eb9 693e
00000060: 3755 0bbd 8fed 703e 0f7f a5be 35e4 e43c
00000070: 30b8 b3bd 2b8c 05bf 8cf8 03bf b41b fb3c
00000080: 9b14 fa3e 099a a3be 127c 673e c29e 6bbe
00000090: 3bdc 3c3e 6b10 e83d 0f85 3dbd ccae d0be
000000a0: f80f f1be b3ad 07bf 6fa0 e4be 68bf 023f
000000b0: 679e 2f3e 4e65 da3d b61d de3e 7241 9d3d
000000c0: 555c 873e 1a5f 913e 92a8 d63e 16a5 d2bd
000000d0: 6d91 9dbe 396b 71bd 6e6c f93e 499d f1be
000000e0: 39be 33be 10e5 033f a095 a2be 46a2 db3e
000000f0: 6e32 053f c2f6 013d aca1 7abe 7c93 a33d
-0.03492272 -0.23398902 0.22125211 -0.22512467 0.21818706 -0.021774253 0.34396073 0.24950714
0.091595545 0.42004266 -0.08495196 -0.4570084 -0.42603752 -0.5332151 -0.38775393 0.20027348
-0.17443469 0.48944142 0.024996797 -0.45627943 0.2538371 -0.11853463 0.44077784 0.22824618
-0.034016814 0.23528121 -0.323235 0.027940849 -0.08775365 -0.52167004 -0.5155113 0.030652858
0.48843846 -0.31953457 0.22605923 -0.2300978 0.18443386 0.113312565 -0.046269473 -0.4075836
-0.47082496 -0.5299942 -0.4465365 0.5107331 0.1715027 0.106638536 0.43382043 0.07678498
0.2643763 0.2839287 0.41925484 -0.10285394 -0.30775014 -0.058940146 0.48715538 -0.47190312
-0.17553033 0.51521397 -0.3175478 0.42897242 0.52030075 0.031729467 -0.24475735 0.07987115

gat_layers.0.att_dst f4 [1, 4, 16]
00000000: dbe0 e9be 2f0f fc3e 4304 8b3e 8b5b c7be
00000010: 0cfc 9b3d 41cb 493e 4d66 ecbd cd6d dcbe
00000020: f532 543d 04b6 4fbc baa1 88be 5315 66be
00000030: 8235 b83e c9bd e63e b8ae 893d 5ae7 013f
00000040: 3b66 713d 1051 073e a4bb 9f3e f618 8a3d
00000050: 59d7 9a3e 45f0 f9be a10d f9be 4112 debe
00000060: 48ee 663e 9f79 06bf 71d5 aebe 2c46 c0be
00000070: 909f b13e f1c7 783e ce3a a8be 690b 15be
00000080: fdee 953d 2ba7 b0bd d4f5 f5be 8537 4cbc
00000090: 4592 9f3e 55f9 aebe eb09 dcbe 2380 02bf
000000a0: 8b84 9e3e 94db bcbe 98b2 003f 6516 babe
000000b0: 40a8 18be d140 423e 42ef 7e3d 4d26 37bd
000000c0: 05cd 143e d0fd f6bd 8ce6 edbe 26b6 243e
000000d0: e9b8 eebe defa e8bb 1ffe aa3e 9f01 0a3f
000000e0: b78b e6be 05e4 b2bc 4a58 35be a9c9 033b
000000f0: c97b a8be f2ab 343e b191 04bf 2d6b f7be
-0.45679364 0.49230334 0.2715169 -0.3893703 0.076164335 0.19706441 -0.1154295 -0.4305252
0.05180641 -0.012677673 -0.26685888 -0.22469072 0.35978323 0.4506667 0.06722778 0.5074364
0.058935385 0.13214517 0.31197846 0.06743042 0.30242422 -0.48816124 -0.4864321 -0.43373302
0.22551835 -0.5252933 -0.34147218 -0.37553537 0.3469205 0.24295022 -0.32857364 -0.14555134
0.07320974 -0.08625635 -0.48039114 -0.012464409 0.31166282 -0.341746 -0.42976317 -0.5097677
0.30960497 -0.36886275 0.5027251 -0.3634521 -0.14907932 0.18970038 0.062239893 -0.04471426
0.14531334 -0.1206013 -0.46464956 0.16085109 -0.4662545 -0.007109984 0.33397004 0.53908724
-0.4502847 -0.021837244 -0.17709461 0.0020109212 -0.3290694 0.17643717 -0.5178481 -0.48323956

gat_layers.0.att_edge f4 [1, 4, 16]
00000000: 92ef 533e a678 873e c1c9 59be c659 fabe
00000010: 3325 c4be 5d81 483e f246 983e d295 a5bd
00000020: c641 ef3e e563 7a3e 8c60 e03e 8211 5abe
00000030: ab79 a43e c3fb 39be 3fe4 bf3e 41b3 9b3d
00000040: 69a8 f1be f020 f3be 0789 8e3e a747 0cbd
00000050: bb91 8d3c 0d50 56bd dea2 983c fcc5 6a3e
00000060: 0c0d e93d 7070 9e3e e3bc 7bbe 0f86 6c3e
00000070: 4169 923e ac2b bbbe 027b 02bf 17d0 643e
00000080: 8405 f3be ca57 25bd d507 27bc a603 bf3e
00000090: 5c9e 70bd a304 25bb 46ed c6be 1e87 33bd
000000a0: a05d 013f 9d8d c33e 9d40 5e3d 7074 e1be
000000b0: c107 ecbe bc2b b2bd 0d1e cb3e 9726 babe
000000c0: c1d4 dcbd 9bff ec3e 43a8 afbe 3674 043f
000000d0: 6a1b 3a3e 49e1 45be a2b2 c4bc 49c8 f3be
000000e0: 2f99 e83e b8f6 143e 9ad5 c1be 4bed 36be
000000f0: f4a5 6e3e 8f3a a4be d473 0bbf 378d 463e
0.20696858 0.26459235 -0.2126837 -0.48896617 -0.3830963 0.19580598 0.29741627 -0.080852166
0.4672987 0.24452169 0.4382366 -0.21295741 0.32124075 -0.18162446 0.37478825 0.07602549
-0.471988 -0.47486067 0.2783892 -0.03424802 0.017281404 -0.052322436 0.018632349 0.22927088
0.113794416 0.30945158 -0.24583773 0.23098014 0.28595927 -0.36556756 -0.50968945 0.22345005
-0.47465146 -0.040366925 -0.010194738 0.3730747 -0.058744773 -0.0025179766 -0.388529 -0.04383003
0.50533485 0.3819398 0.05426084 -0.44034147 -0.46099666 -0.08699748 0.39671364 -0.36357567
-0.10782767 0.46288761 -0.3430806 0.51739824 0.1817452 -0.1932422 -0.02401096 -0.47613743
0.4542937 0.1454724 -0.37858278 -0.17863958 0.23305494 -0.32075927 -0.54473615 0.19389807

gat_layers.0.bias f4 [64]
00000000: f45b 58bb 4fe3 cdbb 6a24 14bb 99e1 e0bb
00000010: 0125 273b ff93 dabb 3df6 cebb 5056 1e3c
00000020: 62fe 8e3c 3920 edbb a3a8 473c 6402 833b
00000030: 4195 d3bb 97e0 e0bb 0e95 bb3b f28c 4fb9
00000040: 1915 d9bb 6c64 f2ba 361c e1bb 6c6a e1bb
00000050: 185b debb 9f2b e0bb e869 a23c 8c6d ccbb
00000060: 22da dfbb 3a53 dcbb d1b0 5bbb c21c dfbb
00000070: 8be0 debb a0b2 dabb 001f dcbb 1765 e0bb
00000080: 6c47 e6bb 4081 dbbb c8ee debb 811d dabb
00000090: 591d debb 808e 9b3c eb7b cebb 4b13 02bc
000000a0: 54e4 d3bb a900 63bb d530 e0bb 30f1 353c
000000b0: 7bb6 d3bb b312 e3bb adc8 e0bb a88e d3bb
000000c0: 566b 5d3c 00bc cdbb b3b8 ccbb 0ef1 af3b
000000d0: 0590 e0bb 68ef d6bb 80e6 b03c 317d 843c
000000e0: 2abf 443c a6fc e9bb f388 febb da38 d9bb
000000f0: c9e6 dfbb 15da eabb c32c e8bb 46eb e7bb
-0.0033013793 -0.006283201 -0.0022604712 -0.006862831 0.0025504234 -0.0066704745 -0.006315975 0.009664133
0.017455284 -0.0072365073 0.012186202 0.0039980877 -0.0064570014 -0.0068627107 0.005724556 -0.00019793565
-0.0066248295 -0.0018493063 -0.006869818 -0.0068791416 -0.0067857616 -0.0068411375 0.01982589 -0.006238645
-0.0068314234 -0.0067237886 -0.003352214 -0.006808848 -0.00680167 -0.006674126 -0.0067175627 -0.0068479883
-0.007027557 -0.0066987574 -0.0068033673 -0.006656349 -0.006778401 0.018988848 -0.0063013933 -0.00793917
-0.006466428 -0.0034637845 -0.0068417587 0.011104867 -0.0064609624 -0.0069297194 -0.00685986 -0.006456215
0.01351436 -0.006278515 -0.006247604 0.005369312 -0.006853106 -0.006559301 0.021594286 0.016172977
0.012008468 -0.0071407137 -0.0077677905 -0.0066290917 -0.0068329317 -0.0071671107 -0.007085414 -0.0070776073

gat_layers.0.lin.weight f4 [64, 64]
00000000: bfb0 823d 54d6 043d e8ad 0d3e 6be9 a1bd
00000010: ecbf 413d 62b3 56be 9793 a2bd 8ced 41be
00000020: d101 5b3d 060f 5bbd c4cf 84bd 34ae 3abe
00000030: a8c2 24be 6dc6 14bd 3e13 343e 5b24 9a3d
00000040: e779 a9bc 136b 58be dd9b 10bd 4e35 5cbd
00000050: cf9c f5bb 8106 063e f7e3 0abe a0a5 b33d
00000060: 42a9 f7bc 71a0 2d3e 6b54 e13d 4cc9 e23d
00000070: 97d1 3bbe d4ba 6a3d 82af 2f3e f1da 2cbe
00000080: 79cb 42be 7a95 42be f2a1 6b3a b8c8 14be
00000090: 9c77 903d 1582 25bc cf05 373e a338 9e3d
000000a0: f1b9 013d 40c2 133e 2a9d 27bd f956 2f3d
000000b0: 7084 2fbd 5d1d 3d3e 4aa7 f0bd c858 99bc
000000c0: 893a 223d 3c0a 47be 2dbc 193d 1231 1f3c
000000d0: 8f4d a73c 407a 3d3c 9c8a 62bd ec8a 6ebd
000000e0: e8d3 703d 5eed f239 332e 663d 6345 263d
000000f0: b197 37be 5af4 73bc 3221 903d 47f4 d5bd
00000100: 3432 123d 5392 5e3e 177a 843d b434 0fbe
00000110: c366 3abd a95b 8f3d 2244 433e da0d 3f3e
00000120: 1e96 1f3e 6d12 f3bc a283 0f3e 481f 403c
00000130: 4fc2 33be 98c8 443e adba 6ebc 0ae5 b5bb
00000140: ed1c cfbd 4ef0 0dbe d28f 3d3e 8e79 1ebe
00000150: ab7b 08be 91d3 3d3d a853 323e 6d56 d43d
00000160: ad1a 1b3e 19e9 e6bd 435f 3abe 94ff 473d
00000170: 16ae 9dbd 8997 4c3b 69b1 d6bd dbab 823b
00000180: 7aeb 2c3d e32b 3dbe f9af dc3d 0e55 0dbe
00000190: f157 363e ac43 1d3e 133c d13d 23a0 4abb
000001a0: 7205 903d 7688 213e 2d74 4cbe 9a58 093d
000001b0: 9148 0dbe a14a 2e3e aa9f e1bd 6aa0 5ebd
000001c0: be15 5a3d 3e05 a6bb 2d1c b4bd a856 6bbe
000001d0: 64ab 993a cbaf ee3d 83a2 fdbd 7af2 ca39
000001e0: a29f d7bd f4d4 ec3c 9028 b33d e912 15be
000001f0: e121 31bd 9cc0 34be 640b 82bd 9d3e fc3d
00000200: bd5b ccbc d930 273e c734 da3d f8e7 b9bd
00000210: 564c 4cbe 7413 1b3e c439 ba3d 4df4 e13d
00000220: ea3b 09bd c496 8abd e694 2b3e d602 17bd
00000230: 5b69 39be bf63 cf3d 87c0 41be 9416 d1bd
00000240: cf9b 7ebd 21b9 45be ee19 4abe 8c76 d3bc
00000250: 68f1 0b3d 800a 4cbe 7b28 d8bd 1127 3c3e
00000260: 6576 963c dd14 14be 9023 9bbd 3d0d 4f3e
00000270: 1f74 f33d be70 7ebd 27d9 5e3d ea4b 483e
00000280: c76d 133e af75 e43d 060f fc3d 7100 3d3e
00000290: 59a1 0f3e 49f7 463e cadd 5b3e 8fcf 163a
000002a0: ce48 b73d d662 35be 6b83 523e e156 9c3d
000002b0: db48 eb3c 16b5 66bd a775 703d 84a9 263d
000002c0: 3842 853d 239c 06bd 1df4 b9bc fcdf 613d
000002d0: d2e3 0e3e 9ee4 edbd 02cd 433e 3a32 b93d
000002e0: 33ac 193e cb90 323e 853d 21be d34c 17be
000002f0: b253 14be 8132 223d 09bb 503e 676d 813d
00000300: 983a 413e 0fe5 f13d 2495 fd3d d44e 15be
00000310: 9748 57be 4a00 993d 1504 9a3d 5b6c 80bd
00000320: b70d f73d b3c5 1cbe 80f7 64bc f92e 12bd
00000330: 2d83 d6bc 704d 12be 1198 6dbd 5f2c 5e3e
00000340: 105d 4d3e 99f7 1c3e a4bd 013e 6a75 adbc
00000350: 1199 3e3e 5899 27bd 1b55 373e 19ed e4bd
00000360: 145f dfbd 8c2e 3b3e a4aa d83d 4e2c b7bc
00000370: a409 2abe e7a8 1dbe 6135 e1bc 7275 003e
00000380: 05ea 4dbe 8bb8 99bd 6207 d9bd e965 c6bd
00000390: 4f2a b2bc a183 4ebe c2dc adbd 3caa d73d
000003a0: db0d 6bbc 611e eabd 21d5 bd3d c79c 7d3d
000003b0: f95f e83d 2cc0 52be 71e0 35bd 949e b03d
000003c0: f5f6 2f3e cb41 56bd 3d0f 31bd d872 fe3d
000003d0: b288 a23d a8d2 3e3e 109b e9bd 48d2 313e
000003e0: 9bb4 fabd f56b 85bc 29d9 6c3d 8709 19be
000003f0: 0cb7 103e 7762 0ebd 9844 b9bd 81ff fe3d
0.06381368 0.03243096 0.13835871 -0.07905849 0.04730217 -0.20966867 -0.07938307 -0.18938273
0.05346853 -0.053481124 -0.06484941 -0.18230516 -0.1608988 -0.036322046 0.17585465 0.075264655
-0.02068801 -0.21134596 -0.035304893 -0.053761773 -0.0074954997 0.13088419 -0.13563524 0.08771825
-0.030232076 0.16955735 0.110024296 0.110735506 -0.18341671 0.05730708 0.17156795 -0.16880395
-0.19022931 -0.19002333 0.00089886703 -0.14529693 0.07054064 -0.010101815 0.1787331 0.07725646
0.03167147 0.14429569 -0.040921368 0.042807553 -0.04285091 0.18468232 -0.11750658 -0.018719092
0.039606605 -0.19437498 0.037532974 0.009716289 0.020422725 0.011564791 -0.05530797 -0.058237955
0.05879584 0.0004633469 0.056196403 0.040593516 -0.1792896 -0.014889801 0.070375815 -0.10446983
0.03569241 0.21735506 0.06468599 -0.13984948 -0.045508157 0.06999905 0.1906896 0.18657628
0.15584609 -0.029671872 0.14015058 0.011726208 -0.17554592 0.19217145 -0.014570874 -0.005550985
-0.10112939 -0.138612 0.18511894 -0.15476057 -0.13328426 0.046344344 0.17414725 0.10368047
0.15146895 -0.112749286 -0.18200402 0.048827723 -0.0769922 0.0031218252 -0.10483057 0.003987772
0.042216755 -0.18473773 0.107757516 -0.13801977 0.17806984 0.15357846 0.102165364 -0.0030918203
0.070322886 0.15774712 -0.19966193 0.033531763 -0.13797213 0.17020656 -0.11016782 -0.0543522
0.05324339 -0.005066543 -0.087944366 -0.22982275 0.0011724052 0.116546236 -0.12384512 0.00038709101
-0.105284944 0.028910138 0.08747971 -0.14557995 -0.0432452 -0.176516 -0.06349829 0.1231663
-0.024946088 0.16327228 0.10654598 -0.09077448 -0.19950995 0.1514414 0.09093049 0.11032925
-0.033504404 -0.067670375 0.16756019 -0.03686794 -0.18106596 0.10126447 -0.189211 -0.102093846
-0.06216031 -0.19308902 -0.19736454 -0.025813363 0.03416577 -0.1992588 -0.10554596 0.18374278
0.018367002 -0.14461084 -0.075751424 0.20219894 0.11887383 -0.062119238 0.05440631 0.19560209
0.14397345 0.11155259 0.12307553 0.184572 0.14026393 0.1943027 0.21471325 0.00057529745
0.08949433 -0.17713484 0.20557944 0.07633758 0.028721264 -0.05632504 0.058705952 0.040689006
0.06506771 -0.032863747 -0.02269941 0.05514525 0.13954094 -0.11615871 0.19121173 0.09042783
0.15007095 0.17438047 -0.15746124 -0.147754 -0.14485052 0.039598946 0.20383848 0.06319695
0.18870008 0.118112676 0.12381962 -0.14580852 -0.21023785 0.07470758 0.0752031 -0.06270667
0.12063163 -0.15309791 -0.013975024 -0.035689328 -0.026185596 -0.14287353 -0.05800635 0.21696614
0.20055032 0.15328826 0.12669998 -0.021174151 0.18613078 -0.040917724 0.17903559 -0.11178035
-0.109068066 0.18279475 0.10579422 -0.022359993 -0.1660524 -0.15396462 -0.027491273 0.12544802
-0.20108803 -0.07505902 -0.10597111 -0.096874066 -0.02174869 -0.201674 -0.08489372 0.105305165
-0.014346565 -0.114315756 0.09269167 0.061917093 0.1134643 -0.2058112 -0.044403497 0.086239964
0.1718405 -0.05230884 -0.043227423 0.124242485 0.07936229 0.18635046 -0.11406529 0.17365372
-0.12241479 -0.01628683 0.057824288 -0.1494504 0.14132327 -0.034761872 -0.09046286 0.12451077

gat_layers.0.lin_edge.weight f4 [64, 64]
00000000: a636 b1bd 7fc5 543e dcc4 1cbe f9b1 dc3d
00000010: c0b0 e63d b416 4dbe 9e4b a7bd ac63 b63d
00000020: 3f0d d23b 2546 ce3d 0638 33be 9965 a5bc
00000030: 34f4 25be 7344 493d 1a1a 173e 2752 21be
00000040: 4d40 1a3e d294 153d d773 863d 1ea0 0e3d
00000050: 8fce f33c 1f54 dd3d 0fe0 8bbd 50de c13d
00000060: b16a 5d3e 2eca 2cbe 120b afbd 6b0e 3abe
00000070: 0246 db3d e486 553d a548 87bd a1fd 0a3e
00000080: a851 05bc 2c42 fdbd 5dcd 06bd 2f8b 323e
00000090: cac1 14be 1618 fd3c 1436 363c 898c 0b3e
000000a0: e361 f7bd dd60 3cbe f005 0abe fd4f e0bd
000000b0: 2fe4 523e b52e 55be 479d c43d c98c 933c
000000c0: 1bf5 9fbd 0b69 41be 6066 093e ac9f 26be
000000d0: deb9 4a3d b393 9c3d 694a 903d 0fc2 90bd
000000e0: bb3b e6bd add9 733d 9111 cfbd 50ab f3bd
000000f0: aed6 e53c ebf2 03bd 6563 bfbd 75ab 55be
00000100: 633b 6d3d ae78 4e3e 3b79 3e3c 7859 97bb
00000110: 7258 b3bb 1102 e23d e157 a73c 9e02 37bc
00000120: 74e7 15be 274c 13bd bb90 943d 24b4 3ebe
00000130: 14d8 f73c ea62 fcbd bdc9 973d 6dcb c5bd
00000140: 4e01 d6bd eff7 7cbc 989d 5abe 3dab 493e
00000150: a7af be3d ce3d 8ebd 1701 f33b e21f 11be
00000160: 1dca 39be 42e1 ae3d 991f 29be 833e d9bc
00000170: 8f8a 363e 8319 f2bd 5e66 1fbd 9b27 d93d
00000180: bf72 53be c65b b13d 28a2 593c 843c 5cbd
00000190: 4fd7 0b3e ec30 693d ffa4 0d3e 8eb3 923d
000001a0: a9ad 013e 6a23 4f3e d7ba 36be e3ee 183d
000001b0: 724e 15be c7d0 46be cc4d 663c 54ff 2c3d
000001c0: 0e62 34bd b330 4c3c 2475 12be b420 51be
000001d0: 8ca0 0e3e 5c44 24be 214c fc3d 42a1 fd3d
000001e0: d1e7 54be 7859 d1bd c0de 57be a7ca 25bd
000001f0: f70c 59be 2d18 f33d 2653 523e 215c df3d
00000200: 1585 48be 1d46 573e 8e9e e33c 19f2 55be
00000210: 748f f7bd b9dc 53be cada c2bd 828c d93d
00000220: e396 2c3d 0763 483d 1e0d 20be d997 4a3e
00000230: b00c 243e 22ba 253e 27cd ba3d a81b 3d3e
00000240: d485 1c3e ba91 4fbb 272f 8bbd 66c9 0a3e
00000250: 15b5 56be ce12 503d 3df9 d33d e302 4a3c
00000260: 12f2 adbd 7591 3bbe f07a f0bd bacd 17be
00000270: c06b 013e 718f 423e 6f6e 3c3e a2e1 fe3c
00000280: 8039 4a3e ed00 a8bd bef2 f33d fccc 2a3d
00000290: a274 423e 8176 17be edd2 153e 1c78 19be
000002a0: bee6 54be 8eec 01be 7fd4 023e 0ec5 db3d
000002b0: ebbe a3bc 9363 0c3e 8309 44be 3560 51be
000002c0: e0c2 4cbe e06e babd 3bb9 51be 05a8 db3d
000002d0: 07b3 1ebd ab55 353e 8ae1 92bd 6312 403e
000002e0: 3638 0e3e 3223 863b 79ea c6bd eea2 193e
000002f0: c588 1cbe 01bc 173e 2c2e 403e b7ee 90bd
00000300: 4379 81bc 21a7 30be faee 7dbd 8310 98bd
00000310: 949d 143d 5d13 56bc 533b 8abd a978 4e3e
00000320: 4c24 33be 98b2 c43d da5b 093e cfdc 39be
00000330: fd25 52be d0ff 133e dbaa 2e3e b62f 1b3e
00000340: de52 52be c58d 2e3e 783a 27be 89d9 22be
00000350: 6512 04be d3b8 2b3e 5c23 383e b6fe 49be
00000360: 1c40 babd f454 473e 02cf 103e ac24 4abe
00000370: 4a59 d2bd 4a78 8f3d b010 3fbe 8366 3a3e
00000380: ba63 e03c b24a 27bd ff43 173e 4895 b43d
00000390: 6bbe e9bd 3960 e93d a508 c0bd cf98 893d
000003a0: f84a 453e 5f2d e5bd 0e5f dd3a 27a2 c9bc
000003b0: 439e 6a3d 495d c53b e04c 283e 8bfe edbc
000003c0: 78f3 41be e8df 303e c80c b43d 292e 39be
000003d0: b4e4 02be 9c0c f23d 9b22 0fbe 14d5 c5bd
000003e0: c098 a5bd 2741 cb3d ee9d e5bd 7dc8 c43d
000003f0: afaa 543d 6f14 32be 1c2a 4e3e 40f2 1bbe
-0.086530015 0.20778464 -0.15309471 0.10776133 0.11264181 -0.20028192 -0.0816872 0.0890573
0.0064102705 0.10071973 -0.1750184 -0.020190047 -0.16206437 0.049137544 0.1475605 -0.15753995
0.15063591 0.03651888 0.065650634 0.03482067 0.02976158 0.108070605 -0.06829845 0.09466231
0.21622731 -0.16874 -0.08547033 -0.18169563 0.10706712 0.052130595 -0.06605653 0.13573314
-0.008137144 -0.12366137 -0.032910693 0.17435907 -0.1452705 0.030895274 0.011121292 0.13627829
-0.12079217 -0.18396325 -0.13478827 -0.109527566 0.20594858 -0.20818599 0.09600311 0.018011468
-0.07810422 -0.18887727 0.13417959 -0.16271847 0.049493663 0.07645359 0.070454426 -0.07068264
-0.112418614 0.059533764 -0.101107724 -0.1189791 0.028056469 -0.032214087 -0.0934513 -0.20866187
0.057917964 0.20163223 0.011625583 -0.00461882 -0.00547319 0.110355504 0.020427646 -0.011170058
-0.14639074 -0.035961296 0.07254168 -0.18623406 0.030254401 -0.12323554 0.074115254 -0.09657941
-0.104494676 -0.015439971 -0.2134918 0.19694228 0.09310847 -0.06945382 0.0074159014 -0.14172319
-0.18143506 0.08539058 -0.1651596 -0.026519066 0.17826293 -0.11821272 -0.038915984 0.10603257
-0.20649241 0.086600825 0.01328329 -0.05376865 0.13656352 0.05693142 0.13832472 0.071631536
0.12663902 0.20228353 -0.17844711 0.037337195 -0.14580706 -0.1941558 0.014056634 0.042235687
-0.044038825 0.012462783 -0.14302498 -0.20422632 0.13928431 -0.16041702 0.12319208 0.12384273
-0.20791556 -0.10222143 -0.21081066 -0.040476467 -0.21196352 0.118698455 0.20539531 0.10906244
-0.19582017 0.2102284 0.027785566 -0.20893134 -0.120879084 -0.20689668 -0.09514387 0.10622503
0.042136084 0.048922565 -0.15630004 0.19784488 0.16020465 0.16184285 0.09121161 0.18467581
0.15285426 -0.0031672553 -0.06796103 0.1355339 -0.20967515 0.050799184 0.10350273 0.01232979
-0.08493437 -0.18317206 -0.117421985 -0.14824572 0.1263876 0.19000031 0.18401502 0.03111345
0.19748497 -0.082033016 0.11911534 0.041699395 0.18989804 -0.147913 0.14631243 -0.14987224
-0.20791146 -0.12687895 0.12776373 0.107309446 -0.019988498 0.1370986 -0.19144253 -0.20446856
-0.19996214 -0.09103179 -0.20480816 0.107254066 -0.038744953 0.17708461 -0.071719244 0.18757014
0.1388863 0.004093551 -0.09712691 0.15003559 -0.15286548 0.14817812 0.18767613 -0.07076781
-0.015804892 -0.17251255 -0.061995484 -0.07425024 0.03628309 -0.01306614 -0.067495964 0.20163216
-0.17494315 0.096043766 0.13413945 -0.18150638 -0.20522304 0.14453053 0.17057364 0.15154919
-0.20539424 0.17046268 -0.16330898 -0.15903296 -0.12897642 0.16769724 0.17982239 -0.19726071
-0.09094259 0.19466001 0.14141467 -0.19740552 -0.10270937 0.07005365 -0.1865871 0.18203168
0.027391303 -0.04084272 0.14772032 0.08817536 -0.114132725 0.11395306 -0.09376649 0.06718599
0.1926688 -0.111902945 0.001688929 -0.024613453 0.057279836 0.0060230833 0.16435575 -0.02905204
-0.18940532 0.17272913 0.087915 -0.18084015 -0.12782556 0.11818811 -0.13978045 -0.09659782
-0.080857754 0.09924536 -0.11211763 0.096085526 0.05192059 -0.17390607 0.20133251 -0.1522913

gat_layers.1.att_src f4 [1, 4, 16]
00000000: 61af f3be 70d8 00bf 32ca c23d 0172 0bbf
00000010: 7900 873e 6c52 723e f37a 7b3e 8e58 edbe
00000020: dd33 0bbf 7906 353d b2c5 913e 8f18 9fb9
00000030: 1958 49be 9144 3e3e 6baa afbe 276c aa3e
00000040: ccf2 d13b 7745 62be 4944 eebe 5a02 04bf
00000050: e9e2 99be ae08 02be b99b 91be 7af0 c33d
00000060: d498 9fbe fc52 8fbe 619d c7be 1188 c8bd
00000070: bc5e e63e 7523 bbbd 11ad 453e b718 63be
00000080: 3f60 7a3e e900 093f 1ec8 f13e 5c0e 853e
00000090: afb5 85be 8e1f a93e 93c7 b9bd e3a2 ba3e
000000a0: 7cc2 10bd a310 d13c 8b5b 3ebd 0a0d 0f3e
000000b0: dffe 673e a81b 9c3e 3c0a 603d 4439 72be
000000c0: 4f8d bd3e 244f 273e 084a bcbe 0bc1 94be
000000d0: 171b e43e eea5 b1bd 0cd3 563e 0b77 d53e
000000e0: 67cf 333d 4273 d03e e4b6 cb3e f813 a5be
000000f0: 935b a63e eb87 793e b777 adbe e6c4 bf3e
-0.4759474 -0.5033026 0.09511222 -0.5447083 0.26367548 0.23664254 0.2455862 -0.46356624
-0.5437601 0.044195626 0.28471142 -0.0003034514 -0.19662513 0.18580844 -0.34309706 0.3328564
0.0064071175 -0.22096811 -0.46536472 -0.5156609 -0.3005593 -0.12698624 -0.2843912 0.09567352
-0.31171286 -0.27993 -0.38987258 -0.097915776 0.44994152 -0.09137622 0.19304301 -0.22177397
0.24450777 0.53517014 0.4722299 0.25987518 -0.26115176 0.33031887 -0.09071269 0.36452398
-0.035341725 0.025520628 -0.04647402 0.13969818 0.2265582 0.3048985 0.05469726 -0.23654658
0.37021872 0.16338784 -0.3677523 -0.2905353 0.44551918 -0.08674227 0.20978945 0.41692385
0.043898966 0.40712935 0.39787972 -0.32241797 0.3249174 0.24368255 -0.33880398 0.3745491

gat_layers.1.att_dst f4 [1, 4, 16]
00000000: 42d9 57be 63e9 f7be 33ed 2ebe a591 563e
00000010: 08e8 83be dcaa ad3d 768c b73e 0a8d 11be
00000020: 54e1 47be 50a6 27be 1305 a5bd 0126 e93d
00000030: 0003 93be d0d0 143e 0085 3bbe 663e cd3e
00000040: 36bc 063e de93 f6be 8202 84be 8d05 353e
00000050: e614 04bd 1848 f8be a7ab 0abe d56d d5be
00000060: 7208 463e 5568 9d3e 1fb1 9f3d f260 693e
00000070: 8833 4cbe a529 b4be 222e 80be 230a 403d
00000080: 1dcc 393e ff5a 35be bd4f ee3e f9f7 2c3e
00000090: 9458 d33e 8617 79be d148 9ebe 1c45 09be
000000a0: 14a1 4a3c ac4d a2bd 233e 8cbe 9c07 903e
000000b0: 131b 02bf 8dd9 9f3e 424f 8d3e 5610 ff3e
000000c0: 0938 b73d 5aa8 9bbd 2ed5 a9be babf c33e
000000d0: 584f 1c3e 2014 df3d 04c6 acbe bd62 c9bd
000000e0: 3cbd b53e 7e13 85be 5dcf 9b3e 12f3 ab3e
000000f0: 1440 833d 0ebc 3e3e 7d99 d4be 3a70 f03d
-0.21078971 -0.48420247 -0.17082672 0.20953996 -0.25762963 0.084798545 0.3584935 -0.14213958
-0.1951955 -0.16372037 -0.080576085 0.11384202 -0.28713226 0.1453278 -0.18312454 0.4008667
0.13157734 -0.4815969 -0.25783163 0.17677899 -0.032246493 -0.48492503 -0.13542043 -0.41685358
0.19339159 0.30743662 0.07797455 0.22790888 -0.19941533 -0.35188022 -0.25035197 0.046884667
0.1814427 -0.17710494 0.4654521 0.16891469 0.41278517 -0.2432538 -0.3091493 -0.1340527
0.012367506 -0.07924971 -0.27391157 0.28130805 -0.5082256 0.31220666 0.2759953 0.4981715
0.08946235 -0.0760047 -0.33170456 0.38232213 0.15264642 0.108925104 -0.33744824 -0.09833286
0.35495937 -0.25991434 0.30431643 0.33583885 0.06408706 0.18626425 -0.41523352 0.117401555

gat_layers.1.att_edge f4 [1, 4, 16]
00000000: 5755 01be 9115 f2be 0786 e9bd ff2a d2be
00000010: 7aa6 c4be 6fb4 b43d 399f b43d c057 01be
00000020: 0335 063d d1f9 0bbf dde8 7cbe e1e0 c23d
00000030: 2451 d2bd 4de4 bd3e b4aa 21bd a4a8 7dba
00000040: dac2 8e3e 4427 80be 8117 e73e e4be 093e
00000050: 4bb3 cc3c 08d9 4fbe 7fff da3e 65fc c3be
00000060: c4ca a43e cb0e bdbe 1680 333e 81a4 69be
00000070: 986a 2e3c ddd7 983d 6dde cc3e 7d11 003f
00000080: 263a 4ebe 26c6 cabe 2ad2 523e b0b1 49bd
00000090: 5808 9b3e 6e14 033f ce19 a83c 8d76 773e
000000a0: 3990 f53e 793a 723e 05c4 33be 4756 f83e
000000b0: 5b3f ca3e 8b5d a0be 4827 163e 140f 0abf
000000c0: 185d 80be 87aa da3e c585 d33e 587e 953e
000000d0: 81c1 0c3f b069 553d 7cec fb3e fcb4 77bd
000000e0: ad4a c9bd 23d5 b4be 17e9 68be dac1 d73e
000000f0: 0c6c e9be 8502 f23e e7cb 12bd 0891 cbbe
-0.12630211 -0.4728208 -0.11402517 -0.41048428 -0.38408262 0.088234775 0.08819432 -0.1263113
0.0327654 -0.54678065 -0.24698205 0.095155485 -0.102693826 0.37088242 -0.039469436 -0.00096763135
0.27883035 -0.25029957 0.4513512 0.13451725 0.024987837 -0.20297635 0.42773053 -0.382785
0.32185948 -0.3692535 0.1752933 -0.2281666 0.010645531 0.07463048 0.40013447 0.50026685
-0.2013937 -0.396043 0.20587984 -0.04924172 0.30279803 0.5120305 0.020520117 0.24166317
0.47961596 0.23655118 -0.17555244 0.48503324 0.3950146 -0.31321368 0.14663422 -0.5392926
-0.25071025 0.42708227 0.41312996 0.29197955 0.54982764 0.052102745 0.4920386 -0.060475335
-0.098286964 -0.3531886 -0.22745167 0.42140085 -0.45590246 0.47267547 -0.035838988 -0.39759088

gat_layers.1.bias f4 [64]
00000000: d970 67bb dad8 f1bb 215d 56bb 501b f2bb
00000010: 573d f33a 0bdf f1bb 1c03 f3bb 1910 2c3c
00000020: 3c2c 963c 5c5b 59b8 5b31 5d3c a53f f9bb
00000030: a5ad f3bb 5d36 f5bb b0a3 f23b e9ea 9bba
00000040: 0103 e3bb 23af 01bc 2bc5 f8bb 2649 a2bb
00000050: 428e f1bb 54bc f5bb 143a f4bb 7f11 f2bb
00000060: b6f5 fcbb 3f9e f9bb b995 fcbb 1762 f6bb
00000070: 64fb f4bb cdd6 f8bb c16b f6bb 458f f6bb
00000080: 15d2 f8bb fb2d ecbb 1145 f9bb e5e6 ebbb
00000090: e26f f2bb c76e a63c 804f f5bb 7d16 febb
000000a0: ffa0 f3bb 5802 5c3a b2b4 f2bb ed06 3b3c
000000b0: c32a f3bb fc8c 00bc f073 f3bb 94ca f1bb
000000c0: da26 623c fb9e f1bb 323d f6bb 8b5d ca3b
000000d0: 8633 04bc 4b5e fdbb cd81 bb3c ab36 8a3c
000000e0: 3c82 563c b143 02bc ef2f 0bbc 84ae f1bb
000000f0: e221 f4bb 9a13 fbbb 98e8 4d3c fb4b f3bb
-0.0035315065 -0.007380587 -0.0032709318 -0.00738851 0.0018557709 -0.007381325 -0.007416142 0.010501885
0.01833164 -5.1821917e-05 0.013500537 -0.007606464 -0.0074364715 -0.0074832872 0.007404767 -0.001189557
-0.0069278483 -0.007915291 -0.0075918636 -0.0049525676 -0.007371695 -0.007499257 -0.0074532125 -0.0073873396
-0.0077197207 -0.0076177414 -0.007708278 -0.0075190174 -0.007476257 -0.0075939656 -0.0075201695 -0.0075244033
-0.007593403 -0.0072076297 -0.0076071103 -0.0071991556 -0.0073985914 0.020316495 -0.007486284 -0.0077541457
-0.0074349637 0.0008392683 -0.0074067945 0.011415225 -0.007420869 -0.007846113 -0.0074295923 -0.0073788855
0.013803208 -0.0073736883 -0.0075146193 0.006175702 -0.008068925 -0.007732188 0.022889042 0.01687177
0.013092574 -0.007950709 -0.008495315 -0.00737554 -0.007450328 -0.007662249 0.012567662 -0.007424829

gat_layers.1.lin.weight f4 [64, 64]
00000000: 0561 373e 7019 eebc c64f 09bd d9bc 01bd
00000010: 91e5 2b3e 22a3 a4bd ea2c 8d3d d706 09bc
00000020: 6fab 453d dbe2 9f3d f53b 823d e5d4 833d
00000030: 2536 7f3d 3505 53bd d1b7 833c 4beb 0d3e
00000040: f25b abbd bcb4 343e dd0f d1bd 1c2f 90bd
00000050: a754 ae3d b4ce 863d f0bc 2e3e e36e d2bd
00000060: b6bc 13bd 6a54 29be c0e2 d8bd 3cf3 3ebe
00000070: ee15 f83d 931d b03d 8a0b b13c 4f06 39be
00000080: 9913 30be 228b bb3d e20f 3fbd 2341 893d
00000090: 2ace bdbd a0ed 103e c39c e03b a84e 423e
000000a0: 4f93 063e 8799 2f3e 0fef 2dbe 8303 3bbe
000000b0: 018b 3e3c a21d 483e ca04 edbc 223f 76bd
000000c0: 6ad8 3e3d e473 87bd 4643 49bc a92d fc3d
000000d0: c287 3b3c f30f 85bd 7bb1 f03d 12ab a73d
000000e0: 69ba c3b9 7a58 1dbe ee6b 3f3e a652 023e
000000f0: 93ea 7bbd ae1a 1f3e 4514 e23d 7a2c e9b9
00000100: ce08 3c3e ef45 c73c 6a21 53bb 35b1 11be
00000110: a7b9 c63d ffcd dbbd c8ba 62bb 248b 11be
00000120: 245f 3f3e 4dda c8bd 2b1a 0b3c 66e6 fabd
00000130: f792 973c 00e4 e5bd e872 3a3e 2bea 333e
00000140: e766 abbc 61d6 9dbc fd6a 1fbb db7b 8b3c
00000150: 5953 96bd 925e a33d dedc 18be ce87 54bd
00000160: 0c4e 21be 8b17 fbbd 4a5e 4fbe 0e87 083e
00000170: b652 853d e311 f3bd eae4 52bd 8454 443e
00000180: 9fed 1dbe 7f53 33be ae67 1d3d be1e 09be
00000190: ab79 193e b254 54be 1a27 8a3c 1ae9 abbd
000001a0: 9655 3fbe 3a0c cabd e554 27bd e6f2 a4bd
000001b0: 222f 1fbe 34d3 e3bd e64a 10be 5c06 12be
000001c0: 821f 3b3e 9901 98bd 1e07 1f3e c418 593e
000001d0: 9460 a03d 671b dcbd 545a 283e a20d 14be
000001e0: 736d 833d 0f96 8b3c 64e6 20be 6714 f53d
000001f0: bcd5 b13d 3273 4a3e 3d70 75bd 6455 503e
00000200: 4b8b 8dbd 726c a43d 36ff 16bb e835 ea3d
00000210: 5c4d 3dbc fa90 c63c bdfd 443e b67b ff3d
00000220: f1df 16be a843 2fbd c5fd 993d fb0c 143e
00000230: 9ba6 c93d 49db d1bd 4b03 ecbd 973c 7fbd
00000240: c4bf 3ebe 0b76 d7bc 9aaa d93d 36a7 1bbe
00000250: f285 2a3d a5b7 0ebe 22bf a8bc b774 f7bb
00000260: 364f 5cbd a04b 78bd 80f7 003e cba1 4ebe
00000270: f5ec 883c 3017 1cbd 71bf 993c 64f5 36be
00000280: 9831 22be 7f31 723d 5c17 203e ecc2 0e3e
00000290: c9cd e5bd 3779 b2bd 2559 4cbd 88e9 813d
000002a0: eec6 fdbd 7863 0fbe 62e6 c3bc d532 b03d
000002b0: 596b 4abe a59e 023e 9a35 113e dba2 e2bd
000002c0: a777 f43c 8f59 bd3d 4b9a 1b3e b1b7 273c
000002d0: 4300 54bd 81ae 2ebe fc49 113d 10a5 aabd
000002e0: 0da1 cabd d6a4 9b3d 3fcf 30bd 5750 25be
000002f0: c200 293e 17de 703d 0eb0 4cbe f322 883d
00000300: 62de e43d 762c a63d 158c 80bd 3d32 b8bd
00000310: dbf3 d2bd 0233 013e 0f13 6cbb c95d 87bd
00000320: e577 3fbe 0396 62bd 1ab1 213e 7096 c13b
00000330: 0a29 00be 9451 4d3e 828b 383c 65bf 0dbd
00000340: 0c40 d1bd fd84 c1bc d619 5a3e 9ae1 483d
00000350: 1614 32bd 7c0d b8bd 6433 39be d0e0 003e
00000360: cf98 3b3e cd81 99bd 81fb 28be f33b b2bc
00000370: 03d4 013c 3639 3a3e 83cd 193e 0983 003e
00000380: 6c8e 25be 3824 5abd 7b25 b83d 780a ab3d
00000390: 907a 5b3e d9af 8fbd cd93 58be a387 233c
000003a0: 317d 333e 8bb5 b23d e7b1 0b3e c306 b13c
000003b0: 4f20 4ebe 9ebe 2d3e 3b24 2fbc 2017 313e
000003c0: 5eba 9fbc 2caf ecbc 75b0 073e 5b45 2c3d
000003d0: f1d7 43be 9bce ea3d 80e6 553e 1462 fdbd
000003e0: 7b3f 09be 0a1b 253e 1fe0 c03d 8019 a435
000003f0: 7c23 ee3d 4cb2 a3bc 7b7d c4bd 8a23 2cbe
0.17908104 -0.029064864 -0.033523344 -0.03167424 0.16786791 -0.080389276 0.06893332 -0.008363447
0.048259195 0.07806941 0.06359092 0.06437091 0.062307496 -0.051518638 0.016078861 0.13859288
-0.083671466 0.1764707 -0.10208104 -0.070402354 0.0851224 0.06582394 0.17064261 -0.10275056
-0.03606864 -0.16536108 -0.10590124 -0.18647474 0.12113558 0.08599391 0.021611948 -0.18068813
-0.17194976 0.09157397 -0.046646006 0.06701877 -0.09267838 0.14153147 0.006854625 0.18975317
0.13142131 0.1714841 -0.16985725 -0.18263058 0.011629821 0.19542554 -0.028932948 -0.060118802
0.046593107 -0.06613901 -0.012284106 0.123133965 0.011445941 -0.06497183 0.11752602 0.08186926
-0.00037332185 -0.15365782 0.18693516 0.1272684 -0.061503004 0.15537521 0.11039022 -0.0004447436
0.18362734 0.02432534 -0.0032215961 -0.14227755 0.09703379 -0.1073265 -0.0034596194 -0.14213234
0.18688637 -0.098072626 0.008490126 -0.12250976 0.018502695 -0.11225128 0.18207896 0.17569797
-0.020923091 -0.019267263 -0.0024325245 0.017026832 -0.07340116 0.07977022 -0.14928004 -0.051887326
-0.15752429 -0.1226035 -0.20250812 0.1333277 0.065099165 -0.11868646 -0.05148784 0.19172865
-0.15422677 -0.1751232 0.038428955 -0.13390633 0.14987819 -0.20735434 0.016864348 -0.0839407
-0.18684992 -0.09865613 -0.040852446 -0.08054142 -0.15545323 -0.11124268 -0.14091071 -0.14260238
0.18273738 -0.0742218 0.15530059 0.21200854 0.07830921 -0.10747414 0.16440707 -0.14458326
0.0641736 0.017039327 -0.15712887 0.11966782 0.08683345 0.19770506 -0.059921492 0.20345074
-0.06911334 0.08028497 -0.0023040301 0.11436063 -0.011554088 0.024239052 0.19237418 0.12474768
-0.14733864 -0.04278913 0.07519106 0.14458077 0.098462306 -0.102469034 -0.115240656 -0.062313642
-0.1862784 -0.026301404 0.10628243 -0.15200505 0.041631646 -0.13937242 -0.020598952 -0.0075517553
-0.05378648 -0.060618997 0.12594414 -0.20178907 0.016714552 -0.03810805 0.018768044 -0.17867047
-0.15839231 0.059129234 0.15633911 0.13941544 -0.11220891 -0.08714526 -0.049889702 0.06343371
-0.123914585 -0.14002788 -0.023913566 0.086034454 -0.19767512 0.1275583 0.14180604 -0.110662185
0.029842211 0.092455976 0.15195577 0.010236667 -0.051758062 -0.17058755 0.035470948 -0.083322644
-0.09893999 0.07599799 -0.043166395 -0.16143928 0.16504195 0.05880555 -0.19989035 0.06647291
0.11175229 0.08113949 -0.062767185 -0.08993957 -0.10300418 0.12617114 -0.0036022102 -0.06609685
-0.1869808 -0.055318844 0.15790215 0.005907826 -0.12515655 0.20050651 0.01126373 -0.034606356
-0.10217294 -0.023622984 0.21298918 0.049043275 -0.043476187 -0.08986947 -0.1808601 0.12585759
0.1832001 -0.07495461 -0.16502191 -0.021757102 0.007924083 0.18185887 0.15019803 0.12549986
-0.16167611 -0.053257197 0.08991524 0.08351606 0.21433473 -0.07015962 -0.21150132 0.009981069
0.17528225 0.08726033 0.13642083 0.02160967 -0.20129512 0.16967246 -0.01068979 0.17293978
-0.019498046 -0.028892122 0.13250907 0.04205833 -0.19125344 0.11465188 0.2088871 -0.123722225
-0.13403122 0.16123596 0.09417748 1.2226374e-06 0.11627862 -0.01998248 -0.09594246 -0.16810432

gat_layers.1.lin_edge.weight f4 [64, 64]
00000000: 97ee d9bd 03ac 51be 079e 4dbe 2313 e03b
00000010: 2e54 583d f472 b73d 21ba 1d3e fdae e0bd
00000020: f117 94bd ceec 723d 0008 4ebe 798e 923d
00000030: 2ab1 81ba 10c9 383d 3376 aebd 2865 bdbd
00000040: 78cd dfbd acec e03c 6c7f abbd 562f 26bd
00000050: b637 d03d fde6 31be 09e8 28be e5e3 1d3d
00000060: 0153 683d 22b6 30be fb57 13be 50c4 09bc
00000070: ca1d 503e 3ecf 183c 7049 4bbe e54a 2d3e
00000080: 727f 0f3e 60a9 003e 04ce 583e 09f9 d83d
00000090: e26c 1cbe 7708 5dbe 65b4 123e e067 e93d
000000a0: 2f06 853d 2c89 47be b58e 383e 9f7f 133e
000000b0: d6fd 47bd cdec a7bd cd1d 41be 1ac3 b1bd
000000c0: ddeb 3d3e aa91 8fbd cc77 2ebe f78d c7bc
000000d0: 8ccc 47be 7d7a 123e fa31 553e fb8d 213d
000000e0: 81e6 493e d9ae 0e3d 64f1 913c 18bd 0f3e
000000f0: 3329 073e 0664 47be 08d3 3a3e e073 27be
00000100: 9b43 833d a241 183e aa01 44bc f014 b7bd
00000110: c187 0a3e cf0f 9bbc bb4b a73d 7df9 bbbd
00000120: 714b 01be 6add 91bd 2d88 8b3d 6d47 b13c
00000130: e649 5d3e 369b 383a 5b61 e0bd 6c6f 1f3e
00000140: 2407 c1bd 1e28 893b 0f71 49be 8b1d 55be
00000150: 12cc 323e c197 ed3d e78a 85bd c14f 433d
00000160: b556 003d f17a 45be 164f 2bbe f001 ea3d
00000170: 95c7 d53d 3306 d13d e67e 423e 8aa0 1ebe
00000180: 341f 3c3e 32ba 183e 1cda a33c 7225 033d
00000190: 98fa 093e 44a3 3dbd 6a1d 43be 73a2 31be
000001a0: 70da 403d de87 223e e562 3f3e ec60 813d
000001b0: a2dc f13d 2d7d 3cbb 1652 c23d a2e4 623d
000001c0: 8f2f 55be 437a 02be e19a 503e 0748 bc3c
000001d0: 5ff8 443e ff93 373d 9288 063e afe4 ac3d
000001e0: 3f1c 4f3e 4e3a 5abd 6167 adbd ba0a d2bc
000001f0: ead3 5cbe 7964 243e 493d fe3c 64b3 0fbe
00000200: 52a4 9f3d 1ee4 173e c17e 9b3d 6305 d73d
00000210: f0b9 32be 4d8d 32be 1453 23be 2521 8dbc
00000220: 6025 97bd 840e c6bc 8378 b6bc 560c 09bd
00000230: f1a0 413e 5ffb 203d bb31 a4bb 6122 4a3e
00000240: 9e4b 49bd 8a7d a7bd b49a 2dbe 72c8 373e
00000250: 0b28 423d d49b d2bd 9103 4e3e 7e17 94bc
00000260: 4893 0dbe db6e 4abe 750a 4ebe 0c8e e7bd
00000270: 060c 14be ca23 c4bd 7c35 563e 29fb 5cbe
00000280: 237f 2bbe f2ba a73d f11b 243d 3502 00be
00000290: 7ae3 473d 9cb8 12be f5b0 34be 0dec f3bd
000002a0: 0a3c 1a3e 0a85 9fbd 5557 4d3e 3609 24be
000002b0: ef31 b83d 855e 3a3e a8b8 94bc ede5 15be
000002c0: 0a41 bf3d d200 5f3d 7842 1f3d 9c23 d0bd
000002d0: 4d9f 38be dbc0 d43b ea78 063d 5cdd 1cbe
000002e0: c777 2d3e 035d d63a ce3c ce3d 8f53 b8bd
000002f0: 5284 3a3e b1ae 123e 963e 3bbe 94f9 f9bd
00000300: 70ce b0bd 3f27 cfbd 4d86 48be 4ff6 0e3e
00000310: 00fa 44bd a460 3ebe c651 183e 5b16 3e3e
00000320: 5537 163e 72de 443e 0e89 0a3e 5a19 b93d
00000330: e4db 10be aed6 0abe 14cc 4ebe 333b 48be
00000340: 3b82 1e3d 374f b73d 378a ae3c 8fc7 a1bc
00000350: 5ab5 26be ae90 0ebe 169e 383e b8ab 3bbe
00000360: d6d3 19be fbab ccbd 1626 413e d00b debd
00000370: cb41 90bc 3c16 b6bd 7c03 113e 1a42 183e
00000380: 5c76 cebd c15d 44bd 7149 cebd c626 7ebc
00000390: d3e1 a1bd f92b 2e3d c859 4fbe 8936 af3d
000003a0: 7bae cc3c 8247 a53d e6ed bdbb 3cb9 6e3d
000003b0: 9a24 4b3e 9455 09bd 6e16 1b3e b5c4 12be
000003c0: 0972 d03d 36ec 95bd 104e 703d 58a2 1a3e
000003d0: 02b1 f43c b699 123d c1ae 543e ab0c 533e
000003e0: f091 8abd d974 47be 197e 373e 9e13 80bd
000003f0: c09f f53d 6b69 133c f3c0 c3bd 50ea 763d
-0.106412105 -0.20475774 -0.20079814 0.006838219 0.052814655 0.089574724 0.15403034 -0.10970876
-0.07231129 0.059307866 -0.2012024 0.07156081 -0.0009894718 0.045113623 -0.085186385 -0.0924781
-0.10927862 0.027456604 -0.08373913 -0.040572487 0.10166876 -0.17373271 -0.16494764 0.038547415
0.056719784 -0.17256978 -0.1438903 -0.008408621 0.20323864 0.009326754 -0.19852233 0.16923101
0.1401346 0.12564611 0.21172339 0.10594375 -0.1527591 -0.2158526 0.14326628 0.11396766
0.0649532 -0.1948592 0.18023188 0.14404152 -0.04882606 -0.08199463 -0.18859024 -0.08679791
0.18547006 -0.07010205 -0.17037886 -0.024359686 -0.19511622 0.14304538 0.20819846 0.039442044
0.19716837 0.034834716 0.0178153 0.14036977 0.1319931 -0.1947175 0.18244565 -0.16352797
0.06409379 0.14868787 -0.011963287 -0.089395404 0.13528349 -0.018928437 0.08168741 -0.091784455
-0.12626435 -0.071223095 0.06813083 0.021640504 0.21610221 0.0007042171 -0.10956069 0.15569848
-0.0942519 0.0041856905 -0.19672035 -0.20812051 0.17460659 0.116012104 -0.06520634 0.04768348
0.03133269 -0.1928518 -0.16729388 0.11426151 0.10438458 0.102062605 0.1899372 -0.15490928
0.18371278 0.14914778 0.020001464 0.032018133 0.134745 -0.04629828 -0.1905419 -0.17347126
0.04708332 0.15872142 0.18690069 0.063173145 0.118096605 -0.0028761134 0.09488313 0.055393822
-0.20818923 -0.12741952 0.20371582 0.022983564 0.19235371 0.044818874 0.13138035 0.084420554
0.20225619 -0.05327826 -0.084669836 -0.02563988 -0.21565214 0.16053952 0.031035082 -0.14033276
0.077950135 0.14833114 0.07592536 0.10499074 -0.17453742 -0.17436714 -0.1594966 -0.017227719
-0.073801756 -0.024176843 -0.022274261 -0.03345903 0.1890905 0.039302226 -0.005010811 0.19739677
-0.04914438 -0.081782416 -0.16953546 0.17947558 0.04740147 -0.10283628 0.20118548 -0.018077608
-0.13825715 -0.1976885 -0.20121177 -0.1130639 -0.14457712 -0.09577139 0.2091884 -0.21580185
-0.16747718 0.08189954 0.04006571 -0.12500842 0.048800923 -0.14328235 -0.17645629 -0.119102575
0.15061966 -0.07789047 0.20052846 -0.16019139 0.08993899 0.18200119 -0.018154457 -0.14638491
0.09338577 0.05444414 0.03888175 -0.10163042 -0.18029518 0.0064927167 0.032830156 -0.15318817
0.16940223 0.0016354624 0.10070191 -0.090003125 0.18214539 0.14324452 -0.18285593 -0.122058064
-0.08633125 -0.101149075 -0.19582482 0.13961147 -0.04808998 -0.18591553 0.14874944 0.18563215
0.14669545 0.19225481 0.13528845 0.090380386 -0.14146382 -0.13558456 -0.20195037 -0.19553833
0.038698416 0.08950656 0.02130614 -0.019748477 -0.16280118 -0.13922378 0.18029055 -0.18327224
-0.15022215 -0.0999374 0.18862185 -0.10842097 -0.017609498 -0.088909596 0.14161485 0.14868966
-0.10081169 -0.047940973 -0.100726016 -0.015512174 -0.07904401 0.042522404 -0.20249093 0.08555324
0.024985543 0.0807028 -0.005796182 0.058282122 0.19838181 -0.03352888 0.15145275 -0.1433285
0.101780005 -0.07320444 0.058668196 0.15100992 0.02986956 0.03579112 0.20769788 0.20610301
-0.067661166 -0.19478168 0.17919196 -0.06253742 0.119933605 0.008997302 -0.095582865 0.06028205
