models/best_fraud_model_seed_111.pth (torch, 378192 bytes, 45 tensors)

node_emb.weight f4 [64, 8]
0	0xbe0ae929	-0.13565506
1	0xbe3211a8	-0.17389548
2	0xbea80c35	-0.32821813
3	0x3e46f7e4	0.194305
4	0xbddb033d	-0.10693977
5	0x3de5bbf2	0.11217488
6	0x3da84865	0.08216933
7	0x3e55624e	0.20838282
8	0x3e8f6fe7	0.28015062
9	0xbe9ee6bc	-0.3103541
10	0xbc205833	-0.009786653
11	0x3decfafe	0.115713105
12	0xbea783a9	-0.32717636
13	0x3ea5cb89	0.32381848
14	0xbd91a931	-0.07112349
15	0xbcd87dc5	-0.02642716
16	0xbdee7fe4	-0.11645487
17	0x3e13c60c	0.14431018
18	0xbe352359	-0.17689265
19	0xbe319a83	-0.17344098
20	0x3e3edb77	0.18638407
21	0x3bd76adc	0.006574018
22	0x3e6f292c	0.2335555
23	0x3cf96ed1	0.03044835
24	0x3e937415	0.287995
25	0xbe64fe55	-0.22362645
26	0x3e632710	0.2218287
27	0x3e63b9a4	0.22238785
28	0xbe121afc	-0.14268106
29	0xbe18b9e3	-0.1491466
30	0x3d99f676	0.07517712
31	0xbe7c5dd5	-0.24645169
32	0x3eaf9715	0.34294954
33	0x3d978e6a	0.0740021
34	0xbcd85a8b	-0.026410362
35	0x3e074ba0	0.13212442
36	0xbea7a8d8	-0.32746005
37	0xbeab9ba7	-0.3351719
38	0xbea13d4a	-0.31492072
39	0xbe6eca50	-0.23319364
40	0xbe5a29bc	-0.21304983
41	0xbd78e70c	-0.06076722
42	0xbe7d624d	-0.2474453
43	0xbdd00181	-0.10156537
44	0x3e6939ac	0.22775906
45	0xbe8d61af	-0.2761359
46	0x3c337349	0.010952779
47	0xbdaa0b04	-0.08302882
48	0xbe2f503d	-0.17120452
49	0xbe4e1fdd	-0.20129342
50	0xbe9a8986	-0.30183047
51	0x3e5234f4	0.20528013
52	0x3e1806de	0.1484637
53	0x3e12c0c3	0.14331345
54	0xbe15228a	-0.14563957
55	0x3d50a48d	0.050938178
56	0xbd6cb65a	-0.05779109
57	0xbe8c3139	-0.27381304
58	0x3daccf61	0.08437992
59	0x3e5fbaf7	0.21848665
60	0x3e4f6ac6	0.20255575
61	0xbe976cef	-0.29575297
62	0xbeb27c99	-0.34860685
63	0xbe60eff4	-0.21966535
64	0xbd1aef43	-0.037825834
65	0xbe6da325	-0.23206766
66	0xbeb77642	-0.3583241
67	0xbe8c82fd	-0.27443686
68	0x3dbcc432	0.09217109
69	0xbd4abda6	-0.04949727
70	0x3dca65c2	0.0988269
71	0xbc0f543d	-0.008748111
72	0xbdd99dcb	-0.106258
73	0xbeb10acb	-0.34578547
74	0xbd3f0fe4	-0.046646014
75	0xbe9db103	-0.30799112
76	0x3ea70cf6	0.32627076
77	0x3da8afe9	0.08236677
78	0xbd43e7b8	-0.047828406
79	0x3d063e28	0.03277412
80	0xbe81b0fb	-0.25330338
81	0xbe3d5e5e	-0.1849303
82	0x3ea6950a	0.32535583
83	0x3c86caf6	0.016454201
84	0xbeb2c435	-0.3491532
85	0xbe6cc97f	-0.2312374
86	0xbe9bb18f	-0.30408904
87	0xbea45a45	-0.3210012
88	0x3cfec3ec	0.031099282
89	0xbbfb1903	-0.0076628937
90	0x3e961323	0.29311475
91	0x3e2accfd	0.1667976
92	0x3d0b698d	0.034036208
93	0x3e3b5838	0.18295372
94	0xbe52ef5f	-0.20599125
95	0x3c862b1d	0.01637798
96	0x3e7cc428	0.24684203
97	0xbea23448	-0.31680512
98	0xbe9242f2	-0.285667
99	0x3e96292f	0.29328296
100	0x3e866fd0	0.2625718
101	0xbe4d9380	-0.20075798
102	0x3e5fb762	0.21847299
103	0xbe9148f2	-0.28375965
104	0xbe1a700a	-0.15081802
105	0x3dd548c6	0.10414271
106	0x3d4c9836	0.049949847
107	0x3ea5b182	0.3236199
108	0xbe2d6c4c	-0.16935843
109	0x3e064c0c	0.13114947
110	0xbb73230e	-0.0037099752
111	0x3e7571f5	0.23969252
112	0x3e90d8ce	0.2829041
113	0x3e376318	0.17908895
114	0xbd4537de	-0.048148982
115	0x3e0c0d3b	0.13676922
116	0x3e6c1fec	0.23059052
117	0xbe12daf9	-0.14341344
118	0xbe063057	-0.13104378
119	0x3e821d15	0.25412813
120	0x3e36558c	0.17806071
121	0xbd02d087	-0.03193715
122	0x3ce3e570	0.027819365
123	0xbe2500cd	-0.16113587
124	0xbd42923a	-0.047502734
125	0xbd5f7bac	-0.054561302
126	0xbdcf7d44	-0.101313144
127	0xbd0800e9	-0.033203993
128	0x3d592e1c	0.05302249
129	0x3d2c1a9a	0.042017557
130	0xbd5cf253	-0.053942036
131	0x3c361cc6	0.011115259
132	0x3c14b256	0.009075722
133	0x3cd82819	0.026386308
134	0x3e9c8d22	0.30576426
135	0xbe94812c	-0.290048
136	0xbea2aa35	-0.31770483
137	0x3dcac70a	0.09901245
138	0xbde12b6b	-0.109946094
139	0x3eb81e15	0.3596045
140	0x3ea3353e	0.31876558
141	0xbe8a7646	-0.2704336
142	0x3e508aa1	0.20365383
143	0xbe4d2ac7	-0.2003585
144	0x3e7c884d	0.2466137
145	0xbe867491	-0.26260808
146	0x3bdd2fba	0.006750074
147	0xbd1b28a3	-0.03788055
148	0x3e273331	0.16328122
149	0xbcfa5da9	-0.030562239
150	0x3c9c079e	0.0190466
151	0x3da5a08a	0.08087261
152	0x3d082c61	0.033245448
153	0xbe5dc944	-0.21658808
154	0xbd1bcb2e	-0.038035564
155	0x3d3083ae	0.04309433
156	0x3df5b65d	0.11997674
157	0x3e3f5b77	0.18687235
158	0x3e8ffc6c	0.2812227
159	0xbd9fd46b	-0.078041874
160	0xbd5fc363	-0.054629695
161	0x3e4e7f1d	0.20165677
162	0x3e7dfa76	0.24802575
163	0xbe8506cc	-0.25981748
164	0xbd81252a	-0.063059166
165	0xbe1de43b	-0.15419094
166	0x3dc231bf	0.094821446
167	0x3e81a708	0.25322747
168	0x3e9f7d03	0.31150064
169	0xbe43364d	-0.19063683
170	0xbe89a662	-0.26884753
171	0xbea20590	-0.3164487
172	0xbe3805a3	-0.179709
173	0xbe21c0ab	-0.15796153
174	0xbd60b37b	-0.054858666
175	0xbe6503c8	-0.22364724
176	0x3eac5218	0.33656383
177	0x3e98d4dd	0.29849902
178	0x3e832b7b	0.2561911
179	0x3e989b5b	0.29806027
180	0xbe9098f0	-0.28241682
181	0x3e0e42d6	0.13892683
182	0x3dddf13e	0.10837029
183	0xbdd561b4	-0.10419026
184	0xbd89d004	-0.06729129
185	0x3d9840af	0.074342124
186	0xbbfbfd06	-0.007690075
187	0xbe433f10	-0.19067025
188	0x3e8d0fa0	0.27550983
189	0x3e3c9895	0.1841758
190	0xbe8edba3	-0.27901945
191	0xbe9e37d5	-0.3090197
192	0xbe99a1be	-0.30006212
193	0xbdce8e75	-0.10085765
194	0xbe8185ac	-0.25297296
195	0xbea09b3b	-0.3136843
196	0x3e8434b0	0.25821447
197	0xbe72eab6	-0.23722348
198	0x3bce2458	0.0062909536
199	0x3b7b4fff	0.0038347242
200	0x3e2e25cd	0.17006607
201	0x3e190734	0.14944154
202	0xbe26f981	-0.16306116
203	0x3dc196f8	0.09452623
204	0x3e9dcdd7	0.30821106
205	0xbe6764f4	-0.22597104
206	0x3ea67750	0.32512903
207	0xbe6afa5d	-0.22947069
208	0x3e1f0232	0.15528181
209	0x3e0bd0e0	0.13653898
210	0x3e68e988	0.22745335
211	0x3daa07c6	0.08302264
212	0x3e65d643	0.22445016
213	0xbe893b70	-0.2680316
214	0x3cd7b2ad	0.026330316
215	0xbe652f19	-0.22381248
216	0x3e0207b7	0.12698255
217	0x3db2a613	0.087230824
218	0xbd123032	-0.035690494
219	0x3eaa150a	0.33219177
220	0x3e4cff0b	0.20019166
221	0x3c99d72d	0.018779362
222	0xbc55adf9	-0.013041967
223	0xbeb3975a	-0.3507641
224	0xbeb48a1e	-0.35261625
225	0xbe002ae5	-0.12516363
226	0xbd45e4c6	-0.04831388
227	0xbe9daf25	-0.30797687
228	0x3dcbae65	0.099453725
229	0xbd7f9b6b	-0.062404078
230	0x3e8c67f6	0.27423066
231	0x3cc5186e	0.0240595
232	0x3bca29e6	0.0061695455
233	0x3c67ddfc	0.014152046
234	0x3e84bb9f	0.25924394
235	0x3e9d995b	0.30781063
236	0x3df1e3a7	0.11810999
237	0xbeac2143	-0.33619127
238	0x3e8c0f29	0.27355316
239	0x3e96ad7a	0.29429227
240	0x3ea2a63d	0.31767455
241	0xbea39622	-0.3195048
242	0x3e90936e	0.2823748
243	0x3c3b4c63	0.011431786
244	0xbe4c5128	-0.19952834
245	0x3e5b278b	0.21401803
246	0x3e8ffd03	0.2812272
247	0xbcdc93ff	-0.026926039
248	0x3e54061c	0.20705456
249	0xbe622e20	-0.22087908
250	0xbe93bbf1	-0.28854325
251	0x3e3f8e0b	0.18706529
252	0x3d67e892	0.05661828
253	0x3eb1701d	0.34655848
254	0x3ce61ecc	0.028090857
255	0x3eae03c3	0.33987245

node_emb.bias f4 [64]
0	0xbb13aea4	-0.0022534514
1	0xbe8825de	-0.2659139
2	0xbdc95e01	-0.09832383
3	0xbe328ea8	-0.17437232
4	0x3d4b48c8	0.049629956
5	0x3e2537cb	0.16134565
6	0x3dd3904b	0.10330256
7	0xbddc889c	-0.10768244
8	0x3e52870a	0.20559326
9	0xbe344785	-0.17605408
10	0xbe754ef0	-0.23955894
11	0xbe32cb38	-0.17460334
12	0xbd85dbbd	-0.065360524
13	0x3eb27da0	0.3486147
14	0x3e7c081e	0.24612471
15	0x3e8a38af	0.2699637
16	0xbda76710	-0.081739545
17	0x3e7cde71	0.2469423
18	0xbcd1e8c4	-0.025623687
19	0xbe4f7f2a	-0.20263353
20	0xbc356eb7	-0.01107376
21	0x3e242ca8	0.1603266
22	0x3e913c30	0.28366232
23	0x3e672a2e	0.22574684
24	0x3e81f767	0.25384066
25	0xbe558dff	-0.20854948
26	0xbe6b9329	-0.23005356
27	0x3e3f8dee	0.18706486
28	0x3d37ce1c	0.044874296
29	0xbda46a1b	-0.080280505
30	0xbe567208	-0.20941937
31	0x3ddf2186	0.10895066
32	0xbdfd4734	-0.123670965
33	0xbea97bcd	-0.33102265
34	0x3e29cc8d	0.16581936
35	0xbe7e5eef	-0.24840902
36	0x3e173027	0.14764462
37	0xbda54ff2	-0.08071889
38	0x3def2314	0.116766125
39	0x3e11bd12	0.14232281
40	0xbe8058cd	-0.2506775
41	0x3e3c83a0	0.18409586
42	0xbe8cb201	-0.27479556
43	0xbe25d607	-0.16194926
44	0xbd16340d	-0.036670733
45	0x3e119a2d	0.1421897
46	0xbd9b0388	-0.07569033
47	0xbb95b5dc	-0.0045687985
48	0xbda048cd	-0.07826386
49	0xbd5da766	-0.05411472
50	0x3e08a391	0.13343646
51	0x3da710ac	0.08157477
52	0x3d2ac4c5	0.04169156
53	0x3e9aba8d	0.30220452
54	0x3e088236	0.13330922
55	0xbe553719	-0.208218
56	0x3ddceb5b	0.10787078
57	0xbe50eddb	-0.20403235
58	0xbe4096d8	-0.18807542
59	0xbea0837c	-0.31350315
60	0x3e4d0b76	0.20023903
61	0xbdd619c5	-0.10454134
62	0x3cac5867	0.021038247
63	0x3eacd5a1	0.33756736

edge_emb.weight f4 [64, 2]
0	0xbe2f9a43	-0.1714869
1	0xbf14065d	-0.5782221
2	0x3f32b7f1	0.6981192
3	0x3f14dff6	0.5815424
4	0xbe27d5fd	-0.16390224
5	0xbe3c3843	-0.18380837
6	0x3ef292c4	0.47377598
7	0x3c484997	0.012224576
8	0xbf2d7046	-0.6774944
9	0xbd09cbaa	-0.033641495
10	0xbee96030	-0.45581198
11	0xbe50ddff	-0.20397185
12	0x3f1faa27	0.62369007
13	0xbef5826d	-0.4795107
14	0xbdb3b8a0	-0.08775449
15	0xbf0f5f1b	-0.56004494
16	0xbe55887e	-0.20852849
17	0x3edede70	0.4352908
18	0xbdc2f02b	-0.09518465
19	0xbf17bf76	-0.5927652
20	0xbf0a8280	-0.5410538
21	0x3ea7b651	0.32756284
22	0x3f0dcc08	0.5538945
23	0x3eaf4f59	0.34240225
24	0x3e1be44f	0.15223812
25	0xbd4d63eb	-0.050144117
26	0x3f1b34f1	0.6062766
27	0x3d09dc3d	0.0336573
28	0x3e287f0b	0.16454713
29	0x3de16d87	0.11007219
30	0xbd78bf58	-0.060729355
31	0x3e8ab386	0.2709009
32	0xbe8cc5b4	-0.27494586
33	0x3efeeb50	0.49788904
34	0xbf0392c3	-0.51395816
35	0x3e7503de	0.23927256
36	0xbe850121	-0.25977424
37	0xbe889e69	-0.26683357
38	0x3f32a41d	0.69781667
39	0x3ee177b8	0.4403665
40	0xbe483a62	-0.19553521
41	0x3e6e2df9	0.23259725
42	0xbeceb22c	-0.4037031
43	0xbeba7fa0	-0.36425495
44	0x3effb7a8	0.49944806
45	0xbea6a55e	-0.3254804
46	0x3f190206	0.5976871
47	0xbf2731f0	-0.65310574
48	0x3dc4da43	0.096119426
49	0xbefd033c	-0.4941653
50	0xbf2979e3	-0.6620161
51	0x3f1002b2	0.5625411
52	0x3f11975d	0.5687159
53	0xbbf87704	-0.007582547
54	0x3f2b9bd1	0.6703463
55	0xbf140164	-0.5781462
56	0x3f1c6454	0.6109059
57	0xbe609a4d	-0.21933861
58	0x3d9bb258	0.07602376
59	0x3ee9ae89	0.45640972
60	0x3cdc68ed	0.026905501
61	0x3e21d0e2	0.15802339
62	0x3e5233bd	0.20527549
63	0xbeeaeb3c	-0.45882595
64	0xbc825747	-0.015910758
65	0x3f2eaddd	0.68234044
66	0xbee7b776	-0.45257157
67	0xbec89a57	-0.39180252
68	0x3c005793	0.007833379
69	0x3d99af51	0.07504142
70	0x3db8a957	0.09016674
71	0xbf26ed2a	-0.65205634
72	0x3f223c09	0.63372856
73	0x3d9e8ecb	0.07742079
74	0x3ee92c70	0.45541716
75	0x3df1da52	0.118092194
76	0xbf09ca55	-0.5382436
77	0xbe0bf099	-0.13666
78	0x3e192df6	0.14958939
79	0xbec86552	-0.391398
80	0x3f113449	0.56720406
81	0xbe95facd	-0.29292908
82	0x3f13c84c	0.57727504
83	0x3e1f9ca5	0.15587099
84	0x3f00f178	0.5036845
85	0xbe3e71d6	-0.18598112
86	0x3d2c37b4	0.04204531
87	0xbe5f4d04	-0.21806723
88	0x3ed88cc1	0.42294887
89	0xbe1b63b2	-0.1517475
90	0xbf29eacc	-0.66373897
91	0x3f2a93ce	0.6663178
92	0x3d228be4	0.03968419
93	0xbf09c788	-0.53820086
94	0xbf327fd1	-0.6972628
95	0x399024e8	0.00027493318
96	0xbeb1e473	-0.34744605
97	0x3e8860d7	0.26636383
98	0x3dfe77ee	0.124252185
99	0x3ed40236	0.41407937
100	0xbc48510e	-0.012226356
101	0x3edc02ce	0.4297089
102	0xbe23a3ea	-0.15980497
103	0xbe3fc003	-0.1872559
104	0xbeda028a	-0.42580062
105	0x3e8a9b8a	0.27071792
106	0xbe9496f7	-0.29021427
107	0xbbd62eb1	-0.006536328
108	0x3d0176fb	0.03160761
109	0x3eed8fb9	0.46398714
110	0x3eb2fa03	0.3495637
111	0xbf270e0d	-0.65255815
112	0x3d20563e	0.039144747
113	0x3e549612	0.20760372
114	0x3d7b5387	0.061358955
115	0xbe27a179	-0.1637019
116	0x3f339582	0.70150006
117	0x3f2d9610	0.678071
118	0xbe1574cd	-0.14595337
119	0x3e905db5	0.28196493
120	0x3f278d1b	0.65449685
121	0x3f1793c1	0.5920983
122	0x3f3209f9	0.6954647
123	0x3f070176	0.52736604
124	0x3f26a826	0.65100324
125	0xbefc6bfb	-0.49301133
126	0xbebe2a1d	-0.37141505
127	0xbe0e3ce2	-0.13890412

edge_emb.bias f4 [64]
0	0xbf269fb8	-0.6508746
1	0xbf0d9b06	-0.5531467
2	0xbe673c96	-0.22581705
3	0xbe1be8d5	-0.15225537
4	0x3e0a622f	0.13514017
5	0x3f25b2ea	0.64726126
6	0xbe6db1d5	-0.23212369
7	0x3ece440d	0.40286294
8	0x3a7dce1a	0.00096818956
9	0x3f2a39fa	0.66494715
10	0xbe790126	-0.24316844
11	0x3ecc12f8	0.39858222
12	0xbf2b13e3	-0.6682722
13	0xbf0d25a4	-0.5513556
14	0x3ec942c3	0.39308748
15	0x3f28b28d	0.65897447
16	0xbee0de6f	-0.43919703
17	0x3f336f6d	0.700919
18	0x3e9661bf	0.2937145
19	0x3d1bd7c1	0.038047556
20	0xbeb486f9	-0.35259226
21	0x3f2135c7	0.6297268
22	0xbecacef3	-0.39611015
23	0x3f1040de	0.5634898
24	0x3f06a951	0.52602106
25	0x3e937d50	0.28806543
26	0x3e9945a0	0.29935932
27	0xbe583fbc	-0.21118063
28	0xbebc5e09	-0.36790493
29	0x3d2fa7d2	0.042884655
30	0x3e323587	0.17403232
31	0xbe1d590c	-0.15366
32	0x3e0a8792	0.13528278
33	0xbf2a765a	-0.6658684
34	0xbf1629fa	-0.586578
35	0x3f00369e	0.5008334
36	0x3e8de210	0.27711535
37	0xbebb2a1e	-0.3655557
38	0x3cf940a7	0.030426336
39	0xbf1904b6	-0.59772813
40	0x3f14e3ad	0.58159906
41	0x3d829c75	0.06377498
42	0xbe3c81f1	-0.18408944
43	0x3f321858	0.69568396
44	0xbd8dba6a	-0.06920321
45	0xbd880b33	-0.06642761
46	0xbe799367	-0.24372636
47	0x3ebaff04	0.36522686
48	0xbee1dbb4	-0.44112933
49	0x3ee9d98d	0.4567379
50	0xbe089630	-0.13338542
51	0xbe13b49d	-0.14424367
52	0x3eb809ff	0.35945126
53	0xbf1c5c97	-0.6107878
54	0x3dea0e55	0.11428515
55	0xbea5a74d	-0.32354203
56	0xbf062ca5	-0.5241187
57	0xbe264103	-0.16235738
58	0xbf2c4b56	-0.67302454
59	0xbe0b0615	-0.13576539
60	0x3c4bef35	0.012447168
61	0x3f02e8e3	0.51136607
62	0xbea49105	-0.3214189
63	0xbedb7ad8	-0.4286716

gat_layers.0.att_src f4 [1, 4, 16]
0	0x3f02f9dd	0.5116251
1	0xbea45c9b	-0.32101902
2	0x3e5dd474	0.21663076
3	0xbecd18c2	-0.4005795
4	0x3ee28599	0.44242552
5	0x3e8e075b	0.27739987
6	0xbcbd7da8	-0.023131207
7	0x3d92fb0f	0.07176792
8	0xbef377d9	-0.47552374
9	0x3ea3e18e	0.32008022
10	0x3e233a45	0.15940197
11	0x3ed1a9ea	0.40949947
12	0xbefe8bae	-0.49715942
13	0x3e8199db	0.25312695
14	0xbe8b1bd3	-0.27169666
15	0x3e238be1	0.15971328
16	0xbed363b0	-0.41286993
17	0x3ee2a637	0.44267437
18	0x3ed255e0	0.41081142
19	0xbcf45e2a	-0.029830057
20	0xbed1ec66	-0.4100067
21	0xbda62f66	-0.08114509
22	0x3ebbf7aa	0.3671239
23	0x3e921c92	0.28537422
24	0x3e70739f	0.23481606
25	0x3e35b111	0.17743327
26	0x3eb2ccaf	0.34921786
27	0x3dd6ba33	0.104847334
28	0x3ebcb615	0.36857668
29	0x3eef0e7a	0.46690732
30	0xbde7a0e6	-0.11309986
31	0x3ee5b4b1	0.4486442
32	0x3dc2d8f4	0.09514037
33	0x3ec2a424	0.38015854
34	0x3d62f392	0.055408068
35	0xbefbf740	-0.49212074
36	0xbec203ff	-0.37893674
37	0xbe00cc45	-0.12577923
38	0xbedd4fb5	-0.43224874
39	0xbb24af68	-0.0025128964
40	0xbee10d55	-0.43955484
41	0xbd16f9ae	-0.036859207
42	0x3eb2daed	0.34932652
43	0xbd1b0c0e	-0.037853293
44	0xbe2628c7	-0.16226493
45	0xbe8ac6bb	-0.27104744
46	0xbe251542	-0.1612139
47	0xbe95f046	-0.29284877
48	0x3e93e1fc	0.2888335
49	0x3d9e28bb	0.077226125
50	0xbe9bb3e9	-0.30410698
51	0xbe146a4d	-0.14493676
52	0x3e84f0fe	0.25965112
53	0x3eb63542	0.35587507
54	0xbecaab2a	-0.39583713
55	0x3ece1d98	0.40256953
56	0x3daca70f	0.084303014
57	0xbd0b795c	-0.034051284
58	0xbe73fb1e	-0.23826262
59	0xbe4f697f	-0.20255087
60	0x3e9d9a96	0.30782002
61	0x3ecdf0fe	0.40222925
62	0x3eff6c3c	0.49887264
63	0xbe256800	-0.16152954

gat_layers.0.att_dst f4 [1, 4, 16]
0	0x3ddbd310	0.10733616
1	0xbe2ea4e3	-0.17055087
2	0xbe91a49b	-0.28445897
3	0x3d22af71	0.039718095
4	0xbd2da822	-0.042396672
5	0x3f09f549	0.538899
6	0xbe882d78	-0.2659719
7	0xbe6cf7b8	-0.23141372
8	0xbf02df25	-0.5112174
9	0x3e9152cf	0.2838349
10	0x3e4e5328	0.20148909
11	0x3cbc3ce8	0.022978261
12	0xbf08f53b	-0.5349919
13	0xbdff037a	-0.12451835
14	0x3e02265f	0.1270995
15	0xbd8a24c0	-0.06745291
16	0xbe01f0f3	-0.12689571
17	0xbe4851a2	-0.1956239
18	0x3ea86aba	0.32893926
19	0x3eeb031d	0.45900813
20	0xbb88f9c3	-0.0041801645
21	0xbe6d89dc	-0.2319712
22	0xbe27d029	-0.16388
23	0xbea2bde3	-0.31785497
24	0xbea99581	-0.33121875
25	0xbeb30047	-0.3496115
26	0x3ee2aff1	0.44274858
27	0xbef11994	-0.47089827
28	0xbe6fcde6	-0.23418388
29	0x3e15c156	0.14624533
30	0x3e02e7e3	0.1278377
31	0xbdeeb1dc	-0.11655018
32	0x3ee49a7c	0.44649112
33	0xbea3ed67	-0.3201706
34	0xbe9a26ef	-0.3010783
35	0x3e849040	0.25891304
36	0xbea88eab	-0.32921347
37	0x3e003781	0.12521173
38	0x3ece537b	0.40298066
39	0x3dafe1f2	0.085880175
40	0xbec383c0	-0.38186455
41	0xbea16345	-0.3152105
42	0x3ede19dd	0.43379107
43	0xbf0ac6fa	-0.54209864
44	0x3f009551	0.5022784
45	0xbe07b2c7	-0.13251792
46	0xbe110475	-0.14161856
47	0xbc1df42d	-0.009640736
48	0x3efacd1e	0.48984617
49	0x3ed9ca56	0.42537183
50	0xbeddb349	-0.43300846
51	0x3ebc10de	0.3673162
52	0xbde286a8	-0.1106084
53	0x3ece5a0a	0.4030307
54	0xbeba23dc	-0.36355484
55	0x3dfaae6c	0.122402996
56	0x3e651bef	0.22373937
57	0x3e0fb8e1	0.1403537
58	0x3de927e4	0.11384562
59	0xbe28a67c	-0.16469759
60	0x3db88d81	0.09011365
61	0x3e4c73c8	0.19966042
62	0x3efed955	0.49775186
63	0xbc1007fd	-0.008790967

gat_layers.0.att_edge f4 [1, 4, 16]
0	0x3e6fd3e2	0.2342067
1	0xbedc0d6c	-0.4297899
2	0x3ee3b6a4	0.4447528
3	0x3f02da68	0.5111451
4	0x3ed087b9	0.40728548
5	0x3df9bb91	0.121939786
6	0x3e03df78	0.12878215
7	0xbeb5c6cd	-0.35503235
8	0xbf0a99b7	-0.541408
9	0x3d9cad0f	0.07650196
10	0x3e325220	0.1741414
11	0xbecd5128	-0.4010098
12	0xbe90af17	-0.28258583
13	0x3e47ba1a	0.19504586
14	0x3df8f59c	0.12156221
15	0x3db0076e	0.08595167
16	0xbe882a21	-0.26594642
17	0x3e8bf6ea	0.27336818
18	0x3ed95401	0.42446902
19	0xbf01be2f	-0.5068082
20	0x3eeb5afd	0.45967856
21	0xbe99252c	-0.29911172
22	0xbf09a372	-0.5376502
23	0x3ec75f2e	0.38939804
24	0xbf045c15	-0.51703006
25	0xbc3a5eb7	-0.011375121
26	0x3f03cb76	0.5148233
27	0xbdbbdfa2	-0.09173514
28	0x3df7a0ad	0.12091193
29	0x3e6b4e7c	0.22979158
30	0xbebd2ae5	-0.36946788
31	0xbee87248	-0.4539969
32	0xbed47d34	-0.41501772
33	0xbeff0722	-0.4981013
34	0x3d64520b	0.055742305
35	0x3ea85401	0.3287659
36	0xbe32a797	-0.17446743
37	0xbea517b5	-0.3224465
38	0xbe041ef5	-0.12902434
39	0x3e6dc05c	0.2321791
40	0xbf054738	-0.52061796
41	0x3e10f9f5	0.14157851
42	0xbe61a68d	-0.2203619
43	0xbe81507e	-0.25256723
44	0x3efaa775	0.48955885
45	0xbd70c612	-0.058782645
46	0x3cf5f789	0.03002526
47	0xbd587f0f	-0.052855548
48	0xbde1273a	-0.1099381
49	0xbef7c99d	-0.48396006
50	0xbe90e0c6	-0.2829649
51	0xbe9ee9b9	-0.3103769
52	0x3d851ff7	0.065002374
53	0x3e89c291	0.26906255
54	0x3ed3c96d	0.41364613
55	0x3e821411	0.25405934
56	0xbf0592a4	-0.5217688
57	0x3eaba28a	0.33522445
58	0x3f035e79	0.5131603
59	0xbef6c42a	-0.48196536
60	0xbefeef65	-0.4979202
61	0xbef82f4e	-0.4847359
62	0xbec045e7	-0.3755333
63	0xbd36a4a3	-0.044590604

gat_layers.0.bias f4 [64]
0	0xbbdb2422	-0.006687657
1	0x3b78801a	0.0037918151
2	0xbbe1490f	-0.0068751643
3	0xbbf0bce6	-0.007346737
4	0xbbc732d0	-0.0060790554
5	0x3c0fcdbd	0.008777079
6	0xbb992448	-0.0046735145
7	0xbb241373	-0.0025036007
8	0xbbd2bb33	-0.0064310073
9	0x3b9e467e	0.0048301807
10	0xbbd1763c	-0.0063922685
11	0xbbf084e4	-0.0073400605
12	0xbbde042e	-0.0067754006
13	0xbbe9596e	-0.0071212566
14	0xbbc40568	-0.00598209
15	0xbbc417f9	-0.005984303
16	0x3c03e1d7	0.00804945
17	0x3c39ee8a	0.011348376
18	0xbbdff24d	-0.0068343044
19	0xbbac2b74	-0.0052542035
20	0xbbef6dc8	-0.007306788
21	0x3b08827e	0.0020829733
22	0xbbd99550	-0.006640114
23	0x3c181ba6	0.009283936
24	0x3bc230c4	0.0059262235
25	0x3ba9d176	0.0051824404
26	0xbbeede69	-0.007289697
27	0xbbed14d7	-0.0072351503
28	0xbbc3d4d6	-0.0059762998
29	0xbbf22dcc	-0.0073907133
30	0x3c0fa942	0.008768382
31	0xbb47c538	-0.0030482542
32	0x3bea7136	0.007154609
33	0xbbc36ce8	-0.0059639104
34	0xbb00ef54	-0.00196739
35	0x3c292929	0.010324755
36	0xbbbe3000	-0.005804062
37	0x3c1f8283	0.009735706
38	0x3b3f5b08	0.0029198546
39	0x3c1c99db	0.009558166
40	0xbbc70594	-0.006073663
41	0x3c27dec8	0.010245986
42	0xbbca8aed	-0.006181112
43	0xbbf240dd	-0.007392986
44	0xbbde0f51	-0.006776728
45	0x3c10c166	0.008835172
46	0xbbad51e9	-0.0052893055
47	0xbbedf523	-0.0072618886
48	0xbbf0f18a	-0.0073530125
49	0xbbd1266f	-0.0063827555
50	0xbbcfc044	-0.0063400585
51	0xbbb97173	-0.005659276
52	0x3bd56a5e	0.006512924
53	0x3a8b0ae0	0.0010608099
54	0xbb9ced88	-0.004789058
55	0xbbd1b487	-0.0063996944
56	0xbbbaf933	-0.0057059764
57	0xbbbbf5d0	-0.0057360902
58	0xbac628ac	-0.0015118322
59	0x3bd83d32	0.006599092
60	0x3beb2eee	0.0071772253
61	0x3b9d3a3a	0.004798201
62	0xbbd3af78	-0.0064601265
63	0xbbed8140	-0.007248074

gat_layers.0.lin.weight f4 [64, 64]
0	0x3b3d9524	0.0028928006
1	0x3cc307cc	0.023807429
2	0x3d5e08d4	0.054207638
3	0xbe468cb5	-0.19389613
4	0xbdd04a03	-0.101703666
5	0xbda5813f	-0.08081292
6	0xbe219c9b	-0.15782396
7	0x3e376207	0.17908488
8	0xbc103d79	-0.008803719
9	0xbdb6f8d1	-0.08934177
10	0xbd647608	-0.055776626
11	0xbe40236f	-0.18763517
12	0xbe2efc17	-0.17088352
13	0x3c8285fd	0.015933031
14	0xbd2f7ea9	-0.042845402
15	0xbe3c5482	-0.18391612
16	0x3caccbfe	0.021093365
17	0xbe33e00d	-0.17565937
18	0xbe30cf4f	-0.17266582
19	0xbe34a318	-0.1764034
20	0x3dfebc5d	0.12438271
21	0xbb4b45b9	-0.00310169
22	0xbe599bc8	-0.21250832
23	0xbe3b4759	-0.18288936
24	0xbddf4913	-0.1090261
25	0xbe438d78	-0.19096935
26	0x3c7d4794	0.01545896
27	0xbdbc4e30	-0.091946006
28	0x3d9a9324	0.07547596
29	0x3d084767	0.03327122
30	0xbdaecf08	-0.08535582
31	0xbd49a693	-0.049231123
32	0x3e602c01	0.21891786
33	0xbe42e75a	-0.19033566
34	0x3e557738	0.2084626
35	0x3e4e0d95	0.20122369
36	0xbd1e48eb	-0.03864376
37	0x3e4efd32	0.20213774
38	0x3dad0305	0.084478416
39	0x3e28f336	0.16499028
40	0x3e0b420f	0.13599418
41	0x3e0d5567	0.1380211
42	0xbd4b36af	-0.049612697
43	0x3dc6b347	0.09702163
44	0xbe4b58de	-0.19858119
45	0xbe541535	-0.20711215
46	0x3de998f3	0.11406126
47	0xbe400114	-0.18750411
48	0xbcbfe1c1	-0.023423078
49	0xbcfafa17	-0.03063683
50	0xbe5e06be	-0.2168226
51	0x3e4e881d	0.2016911
52	0xbdb7f7f0	-0.08982837
53	0xbe4cc392	-0.19996479
54	0xbe26d6f6	-0.16292939
55	0xbe4668b2	-0.19375876
56	0xbdbdb045	-0.09262136
57	0x3c78db91	0.015189067
58	0xbe5bfb65	-0.21482618
59	0xbde30834	-0.11085549
60	0x3d87aa39	0.06624264
61	0x3d428b73	0.04749627
62	0xba71dba3	-0.0009226149
63	0xbe50ee5a	-0.20403424
64	0xbde26cd1	-0.11055911
65	0x3e21c4e8	0.1579777
66	0xbc2bb49d	-0.010480073
67	0xbd98741b	-0.0744402
68	0x3d77991d	0.060448755
69	0xbe05c05c	-0.1306166
70	0x3e134cdd	0.1438479
71	0x3e50102a	0.20318666
72	0x3c08b85a	0.008344734
73	0x3d75b219	0.0599843
74	0xbe50328b	-0.2033178
75	0x3ca4d948	0.020123139
76	0x3c314b1f	0.010821133
77	0xbdcf41c8	-0.10119969
78	0x3d050829	0.032478485
79	0xbc3ad8bd	-0.0114042135
80	0xbe2f2cb1	-0.17106892
81	0x3e0ce817	0.1376041
82	0xbe4415e3	-0.19148974
83	0xbd0fc7d9	-0.0351027
84	0xbda3811e	-0.079836115
85	0x3d40c796	0.04706534
86	0x3dd3c4b4	0.103402525
87	0x3de562ef	0.11200511
88	0x3e32aa47	0.17447768
89	0xbd6f18d5	-0.05837329
90	0x3e371572	0.17879274
91	0xbe2d9781	-0.16952325
92	0xbe3bb9cf	-0.18332599
93	0xbbef9ee3	-0.007312642
94	0x3e57a0b2	0.21057394
95	0x3c164508	0.009171732
96	0x3e4fe444	0.2030192
97	0xbbe32604	-0.006932022
98	0x3e5cde04	0.21569067
99	0x3dd286fa	0.10279651
100	0xbd729352	-0.059222527
101	0xbe1fb909	-0.15597929
102	0x3c88bb8c	0.016690992
103	0xbd4e2800	-0.050331116
104	0x3e292bb4	0.16520578
105	0x3d559a1b	0.05214892
106	0x3de7bab2	0.11314906
107	0x3e110dde	0.14165446
108	0xbe37a2a7	-0.1793314
109	0x3e1c8117	0.15283619
110	0x3de8252b	0.11335214
111	0xbde464ac	-0.11152014
112	0xbd5910c6	-0.052994512
113	0x3d751266	0.059832
114	0x3e06a365	0.13148268
115	0xbd5554c5	-0.052082796
116	0x3c45b0a9	0.012066045
117	0xbd6dca5c	-0.058054313
118	0xbdc87dda	-0.09789629
119	0x3e4dbcc4	0.2009154
120	0x3e46130d	0.19343205
121	0xbd36bb3b	-0.04461215
122	0xbdf41277	-0.119175844
123	0x3e2616df	0.16219662
124	0x3e07732e	0.13227531
125	0xbd429c8f	-0.047512587
126	0xbdf0b226	-0.11752729
127	0xbe140457	-0.1445478
128	0xbd7df820	-0.06200421
129	0xbd8ee6a8	-0.06977588
130	0xbdbc4c59	-0.0919425
131	0x3e18cba4	0.14921433
132	0x3e198f51	0.14996077
133	0xbb5bc129	-0.003353188
134	0x3e01e9f1	0.12686898
135	0x3de80ace	0.11330186
136	0xbe590844	-0.2119456
137	0x3d8342ad	0.06409202
138	0x3e4e7409	0.20161451
139	0x3dc47cad	0.095940925
140	0xbe171003	-0.14752202
141	0xbdc7f36c	-0.09763226
142	0x3d00be38	0.031431407
143	0xbdd72587	-0.10505205
144	0xbcea77b4	-0.028621532
145	0x3e31c38f	0.17359756
146	0x3d4eac0f	0.050457057
147	0xbe1c0c2e	-0.15239021
148	0xbe03bcfb	-0.12865059
149	0x3dd4ff95	0.10400311
150	0xbe460732	-0.19338682
151	0x3e5a3112	0.21307781
152	0xbe46341a	-0.19355813
153	0x3dfe221e	0.12408851
154	0x3d60c28c	0.054873034
155	0xbe057b25	-0.13035257
156	0xbd1ff9fc	-0.039056763
157	0x3cf1994f	0.029492049
158	0xbd3ff49d	-0.04686414
159	0x3df13760	0.1177814
160	0x3e11d4d2	0.14241341
161	0xbe44c956	-0.19217429
162	0x3e4f334e	0.20234415
163	0xbe31f5ba	-0.17378893
164	0xbd826066	-0.06366043
165	0x3d822984	0.06355575
166	0x3e5f12b1	0.21784474
167	0xbdd775a9	-0.10520489
168	0x3df0654d	0.117380716
169	0xbe2193ff	-0.15779112
170	0x3e304c6a	0.1721665
171	0x3dc0e46e	0.094185695
172	0xbe2aadf0	-0.16667914
173	0x3c73de4d	0.014884544
174	0x3e401bad	0.18760557
175	0x3e3d79e2	0.18503526
176	0x3e55fa5b	0.20896284
177	0xbe244063	-0.16040187
178	0x3e2fb7ec	0.17160004
179	0x3e4c8fc0	0.19976711
180	0xbdb13a0d	-0.086536504
181	0x3cc73e78	0.02432178
182	0xbde90aba	-0.11378999
183	0xbd7956f1	-0.06087393
184	0x3df3bd0a	0.11901291
185	0x3dbcd20c	0.09219751
186	0x3e1f10d3	0.15533762
187	0x3d912d25	0.07088689
188	0xbe5656d2	-0.20931557
189	0xbe2c713d	-0.16840072
190	0xbe408566	-0.18800887
191	0x3e189976	0.1490229
192	0x3cf192c8	0.029488936
193	0x3d17533c	0.036944613
194	0x3e425f6b	0.18981712
195	0xbd44131d	-0.04786979
196	0x3e276c23	0.16349845
197	0xbd8808b0	-0.06642282
198	0x3dd5b31a	0.104345515
199	0xbe1c09ed	-0.15238161
200	0x3ded0695	0.11573521
201	0xbe0433cb	-0.12910382
202	0x3e219fbc	0.1578359
203	0xbe3acc3d	-0.18241973
204	0xbe36f048	-0.17865098
205	0x3dd3e84d	0.10347042
206	0xbe49200f	-0.19641136
207	0x3e3ab739	0.18233956
208	0x3e09aa54	0.13443881
209	0xbe31c15d	-0.17358918
210	0xbdf8f5c7	-0.12156253
211	0x3db3e6f3	0.087842844
212	0x3e1a21f6	0.15052018
213	0x3e61bee2	0.22045472
214	0x3dcbaa15	0.0994455
215	0x3e4f7bd1	0.20262076
216	0xbde5afa3	-0.11215141
217	0x3cbda155	0.023148218
218	0x3c92a487	0.017900718
219	0x3e2c0eb3	0.16802482
220	0xbddf60df	-0.109071486
221	0x3e4d872f	0.200711
222	0xbe3775c9	-0.17916025
223	0x3df73cbd	0.12072132
224	0xbdfd4967	-0.12367516
225	0x3dd430c1	0.103608616
226	0x3d24b56a	0.040212072
227	0xbb99b433	-0.004690671
228	0x3dc6d622	0.09708811
229	0x3c77fa9a	0.015135432
230	0x3e4c698b	0.19962136
231	0xbdd50455	-0.10401217
232	0x3e536020	0.20642138
233	0xbd51faab	-0.051264446
234	0x3e24ea38	0.16104972
235	0xbd806a57	-0.06270283
236	0x3cd9b25b	0.026574304
237	0xbd198018	-0.037475675
238	0xbd930a44	-0.071796924
239	0x3ddbf121	0.10739351
240	0x3c9abd15	0.01888899
241	0x3d52bed1	0.051451508
242	0xbd9255d4	-0.07145277
243	0x3e29b302	0.16572192
244	0xbe5db663	-0.21651606
245	0xbd6bbfbc	-0.0575559
246	0xbdfc22d0	-0.123113275
247	0x3db32919	0.08748073
248	0xbd8bd50d	-0.068277456
249	0x3cbd28de	0.023090776
250	0xbd1d8a7c	-0.038462147
251	0xbe04450c	-0.12916964
252	0xbd496be3	-0.049175154
253	0x3dbf807d	0.09350679
254	0xb95962c0	-0.0002073152
255	0xbe43092d	-0.19046469

gat_layers.0.lin_edge.weight f4 [64, 64]
0	0xbd8e517f	-0.06949138
1	0x3e4e421e	0.20142409
2	0xbd082f70	-0.033248365
3	0xbddba7aa	-0.10725339
4	0x3dc7b5cd	0.097514726
5	0xbcbfe81f	-0.023426114
6	0xbdec5aca	-0.11540754
7	0x3db0d8c5	0.086350955
8	0x3e3cadd4	0.18425685
9	0x3c91096b	0.017704686
10	0xbd22bc0f	-0.039730128
11	0xbd6eadda	-0.058271267
12	0xbd48a31c	-0.04898368
13	0xbd8e241a	-0.069404796
14	0x3d047404	0.032337204
15	0x3d53074e	0.05152064
16	0xbd0ebc40	-0.034847498
17	0x3de640e8	0.11242849
18	0xbdded4ad	-0.108804084
19	0x3de2b7f1	0.1107024
20	0x3e478570	0.19484496
21	0x3e4c9501	0.19978715
22	0x3dfe1e9d	0.12408183
23	0x3d38cb63	0.04511584
24	0x3a8f617c	0.0010939087
25	0x3e036142	0.1283007
26	0xbe05c6e7	-0.13064156
27	0xbc3d8aba	-0.0115687195
28	0x3d0a5a45	0.033777494
29	0x3e1e6116	0.15466723
30	0x3d553638	0.05205366
31	0x3dbbaf51	0.09164298
32	0xbe3eed90	-0.1864531
33	0xbb7829f1	-0.0037866796
34	0x3e410cf7	0.18852602
35	0xbdcd8ce9	-0.10036642
36	0x3d6ed8ef	0.058312353
37	0x3bfc4e77	0.0076997834
38	0xbdb9b68a	-0.0906802
39	0xbdd21481	-0.10257817
40	0xbd34a85f	-0.044105884
41	0xbe351e1b	-0.17687266
42	0xbe41c65e	-0.18923327
43	0xbdc79dc5	-0.09746889
44	0x3e310139	0.17285623
45	0x3e0f540d	0.13996907
46	0xbb4cfd75	-0.0031279002
47	0xbd7d144f	-0.061786946
48	0xbe003632	-0.12520674
49	0x3dcb30e4	0.099214345
50	0xbddfbcf1	-0.109247096
51	0xbd317b7a	-0.043330647
52	0x3d8831c0	0.06650114
53	0x3cd3b0b6	0.025841098
54	0xbd62fa50	-0.055414498
55	0x3e003b61	0.12522651
56	0xbc3f9f0a	-0.011695633
57	0x3e18c0eb	0.14917342
58	0x3e4b7174	0.19867498
59	0xbe1e88e1	-0.15481903
60	0xbe25956a	-0.16170278
61	0x3e344ea2	0.17608121
62	0x3d88a2bd	0.06671665
63	0x3de18db8	0.11013359
64	0x3d856ef6	0.06515305
65	0xbe2d657e	-0.16933247
66	0xbc4d2580	-0.012521148
67	0xbe3bcc84	-0.18339735
68	0xbe50794f	-0.20358776
69	0xbd1d0f85	-0.03834488
70	0x3e347771	0.17623688
71	0xbe0548d2	-0.1301606
72	0xbcbaf019	-0.022819566
73	0xbe590556	-0.21193442
74	0x3e117f40	0.14208698
75	0xbb4fcc7c	-0.0031707576
76	0x3da0ffbd	0.07861278
77	0xbe4b4d87	-0.19853793
78	0x3e40e178	0.1883601
79	0x3c1f2792	0.009714024
80	0xbe199246	-0.14997205
81	0x3dca582f	0.09880101
82	0x3e231fb0	0.15930057
83	0x3e2db949	0.16965212
84	0xbe126ac3	-0.14298539
85	0xbe26572e	-0.16244194
86	0xbe4c4907	-0.19949733
87	0xbe0188ce	-0.12649843
88	0xbe34bfbc	-0.17651266
89	0xbdb987fc	-0.0905914
90	0xbcfea524	-0.031084605
91	0x3e2f2d4d	0.17107125
92	0xbe0a0c1e	-0.13481185
93	0x3da6153f	0.08109521
94	0x3dd6de8f	0.104916684
95	0xbdd68d67	-0.10476189
96	0x3e4e4b82	0.20145991
97	0x3e2793fd	0.16365047
98	0x3e0c1e20	0.13683367
99	0xbdb4eedd	-0.08834622
100	0x3dc71ec3	0.09722664
101	0xbe18b223	-0.14911704
102	0x3e3f8ad9	0.1870531
103	0x3ddd3082	0.10800268
104	0x3d321c9a	0.043484308
105	0x3e34eea3	0.17669158
106	0x3d843086	0.064545676
107	0x3de56c99	0.11202354
108	0xbdd1cd9d	-0.10244296
109	0xbe3fe5d9	-0.18740024
110	0x3dc4fe89	0.09618861
111	0x3e05c739	0.13064279
112	0xbd8f6317	-0.07001322
113	0xbd11ac5d	-0.03556477
114	0x3e5a7a2f	0.21335672
115	0xbc01ee2d	-0.007930321
116	0xbc8a6127	-0.016892029
117	0x3e0e1686	0.1387578
118	0xbe25c2b2	-0.16187552
119	0xbe1ff3d1	-0.15620352
120	0xbd58bf04	-0.05291654
121	0x3d3e8e00	0.04652214
122	0x3e027918	0.12741506
123	0xbe402147	-0.18762694
124	0xbdb610b3	-0.08889904
125	0x3de678a0	0.11253476
126	0xbe07986e	-0.13241741
127	0x3e2333a5	0.1593767
128	0xbdefc11b	-0.11706754
129	0xbdd5c8ee	-0.10438715
130	0x3e424e47	0.18975173
131	0xbe079526	-0.1324049
132	0xbd9fb7c7	-0.077987246
133	0x3d3d57ab	0.046226185
134	0xbd8fa1e3	-0.07013299
135	0xbe1c0315	-0.1523555
136	0x3d96ef3f	0.07369851
137	0x3e3740b6	0.17895779
138	0x3d8b0b14	0.06789222
139	0x3e35a33a	0.17738047
140	0xbdffbb6c	-0.1248692
141	0x3e100b35	0.14066775
142	0x3dabcc5a	0.08388586
143	0xbdbfeddf	-0.09371542
144	0x3dc659da	0.096851066
145	0xbcb0d2e8	-0.021584943
146	0xbcdd5e20	-0.027022421
147	0xbe020ff7	-0.12701403
148	0xbd87fdc1	-0.066401966
149	0xbe1a326a	-0.15058294
150	0x3d530ec7	0.051527765
151	0xbd4006ac	-0.046881363
152	0x3db011cb	0.08597144
153	0x3dde6d1d	0.108606555
154	0x3d5f7d73	0.054562997
155	0xbdcad336	-0.099035665
156	0xbd45d6a6	-0.048300408
157	0xbe26a674	-0.16274434
158	0x3d9a09e7	0.0752142
159	0x3e252787	0.1612836
160	0x3cb276b0	0.02178511
161	0x3ce91db0	0.028456539
162	0xbd81f101	-0.06344796
163	0xbe4bf6e9	-0.19918407
164	0xbbebacdb	-0.007192237
165	0x3e08c98f	0.13358139
166	0xbd1ce5b6	-0.038305007
167	0xbc51de9d	-0.012809423
168	0xbded18ce	-0.11576997
169	0x3ddbc3fb	0.1073074
170	0x3e43bfb1	0.19116093
171	0x3e298b00	0.1655693
172	0xb7cbb8a4	-2.4285466e-05
173	0xbcffe699	-0.031237887
174	0x3dffb8c7	0.12486415
175	0xbe33128b	-0.17487542
176	0xbe2b8b9f	-0.1675248
177	0x3e1c64bb	0.152728
178	0xbe185fad	-0.14880247
179	0x3c85faad	0.016354883
180	0x3ce2bd31	0.027678104
181	0xbdeb7002	-0.11495973
182	0xbe5b898a	-0.21439186
183	0xbcc370c7	-0.023857487
184	0xbe2d2a1e	-0.16910598
185	0x3ce8468d	0.028353954
186	0x3e235263	0.15949397
187	0x3e17c085	0.14819534
188	0x3db39de3	0.08770349
189	0xbcb6f827	-0.022335125
190	0x3e0a0022	0.13476613
191	0xbd9e1e44	-0.077206165
192	0xbd1ddda1	-0.03854144
193	0x3c4c66e2	0.012475701
194	0xbb8c0ed3	-0.004274228
195	0xbe29c9f8	-0.16580951
196	0x3dc35f86	0.09539704
197	0xbe45cab4	-0.19315606
198	0xbcb79336	-0.022409063
199	0xbe01662f	-0.12636636
200	0x3d9645c1	0.07337523
201	0x3dd8e844	0.10591176
202	0xbe1c39eb	-0.15256469
203	0xbe58f2a3	-0.21186309
204	0xbc5d2b3a	-0.013499076
205	0xbcb7bad9	-0.022427963
206	0xbd081964	-0.03322734
207	0xbdd73338	-0.10507816
208	0xbccc8171	-0.024964066
209	0xbdd39fd3	-0.103332184
210	0x3e19a247	0.1500331
211	0x3e0272d5	0.12739117
212	0xbe3acc27	-0.1824194
213	0x3e3e1ef9	0.18566503
214	0xbdfcf3b6	-0.12351172
215	0x3c92fad4	0.01794187
216	0x3e26868b	0.16262262
217	0x3e3c6fcb	0.1840202
218	0x3e0234e0	0.12715483
219	0xbd92a2f5	-0.07159988
220	0x3cb9bff5	0.02267454
221	0xbe0505d9	-0.12990512
222	0x3d16b957	0.036797848
223	0xbd69dc0c	-0.05709462
224	0x3e18f644	0.14937693
225	0xbd835389	-0.064124174
226	0x3e348adb	0.17631094
227	0xba535e05	-0.0008063021
228	0xbda05ee7	-0.07830601
229	0x3e55fb4b	0.20896642
230	0xbcf6db15	-0.030133763
231	0xbe3d955f	-0.18514012
232	0xbc7aa06f	-0.015297039
233	0x3df446d8	0.11927575
234	0xbdfd26b1	-0.123608954
235	0xbdba5c56	-0.09099643
236	0xbe34afa3	-0.17645125
237	0xbdbce21e	-0.09222816
238	0xbcabed89	-0.020987289
239	0x3e2de1e7	0.16980706
240	0xbdaa179d	-0.08305285
241	0x3def3a3e	0.11681031
242	0x3ce9d60d	0.02854445
243	0xbe436cb8	-0.19084442
244	0xbe3677bf	-0.17819117
245	0xbca10c0f	-0.01965907
246	0xbced2e85	-0.028952846
247	0xbdf54c53	-0.11977448
248	0xbe143d81	-0.14476587
249	0xbd79f20f	-0.06102186
250	0xbdc02d7e	-0.09383677
251	0xbd2973b2	-0.0413701
252	0xbe1b5ebe	-0.1517286
253	0x3e00591b	0.12533991
254	0x3c0929f2	0.008371817
255	0xbe4c44a3	-0.19948058

gat_layers.1.att_src f4 [1, 4, 16]
0	0xbdc3a7f7	-0.09553521
1	0xbde9bed9	-0.114133544
2	0x3eb7d3ac	0.3590368
3	0xbe94c6b4	-0.29057848
4	0x3ed65b13	0.4186636
5	0x3f091f12	0.53563035
6	0x3ede4390	0.4341092
7	0x3e2a5129	0.16632523
8	0xbd4f9d36	-0.050687037
9	0x3ea92634	0.3303696
10	0x3e238f89	0.15972723
11	0x3ebc6057	0.3679225
12	0x3e52db65	0.20591505
13	0xbe24a7aa	-0.16079584
14	0xbe841f53	-0.25805148
15	0xbed13c6a	-0.40866405
16	0x3ef57236	0.479387
17	0xbe349ced	-0.17637987
18	0x3e829ee7	0.25511858
19	0x3eee9072	0.46594578
20	0x3e5a5360	0.21320868
21	0xbe4a58f6	-0.19760498
22	0xbe201574	-0.15633184
23	0x3d034491	0.032047812
24	0x3edacb36	0.42733163
25	0x3d380b46	0.044932626
26	0x3f0ac1ea	0.5420214
27	0x3f075860	0.52869225
28	0x3bf3c410	0.007439144
29	0xbe8c9188	-0.27454782
30	0x3db31890	0.08744919
31	0x3ed4061a	0.41410905
32	0x3df78f47	0.12087875
33	0x3f0164b7	0.50544304
34	0x3e5b6c9d	0.21428151
35	0x3ddae4e1	0.106881864
36	0xbead79f6	-0.3388211
37	0xbd6477af	-0.0557782
38	0x3baaa518	0.005207669
39	0xbea62b32	-0.3245483
40	0x3eb0e0d9	0.34546545
41	0x3d62188d	0.055199195
42	0x3c1b41b1	0.009476111
43	0xbed5d115	-0.4176108
44	0x3edabf37	0.4272401
45	0x3ea3a8f6	0.31964844
46	0xbe88502d	-0.2662367
47	0x3eb29467	0.34878847
48	0xbed3dceb	-0.41379485
49	0x3e5ac7c6	0.2136527
50	0xbebb0f96	-0.3653533
51	0xbb2707f4	-0.0025486918
52	0x3f053e46	0.52048147
53	0xbe81fec4	-0.25389683
54	0x3ee24e25	0.44200245
55	0xbe6ba335	-0.23011477
56	0xbee097da	-0.43865854
57	0x3e771d01	0.24132158
58	0xbe10738f	-0.14106582
59	0xbd912535	-0.07087175
60	0xbed2ae25	-0.41148487
61	0x3f089c07	0.5336308
62	0xbe657608	-0.22408307
63	0x3e83c3d6	0.25735348

gat_layers.1.att_dst f4 [1, 4, 16]
0	0xbe11de0a	-0.14244857
1	0xbd7d2c9b	-0.061810117
2	0xbea43d4e	-0.32078022
3	0xbeb5a44f	-0.3547692
4	0xbe09c0cc	-0.13452452
5	0x3e64fda0	0.22362375
6	0xbef598a1	-0.4796801
7	0xbeab8882	-0.33502585
8	0xbe96f487	-0.29483435
9	0xbef85669	-0.48503426
10	0x3e9e5d00	0.30930328
11	0x3e43e9b4	0.1913212
12	0xbef34a79	-0.47517756
13	0xbe8e5620	-0.27800083
14	0x3e4e5846	0.20150861
15	0x3d5d5972	0.05404038
16	0x3efa5c20	0.4889841
17	0xbd8f2f13	-0.069914006
18	0xbe8b64ff	-0.2722549
19	0x3d9400f7	0.072267465
20	0xbecbfef5	-0.39842954
21	0x3d3adc9f	0.045620557
22	0x3edab642	0.42717177
23	0xbef204a4	-0.47269166
24	0x3ec3a0d4	0.3820864
25	0x3e6cb1ea	0.23114744
26	0x3dc3e43c	0.095650166
27	0xbecc8ce6	-0.39951247
28	0xbe625308	-0.22101986
29	0x3e6e1612	0.23250607
30	0xbf0ba86d	-0.5455387
31	0xbedda4e6	-0.4328987
32	0x3ef08cdb	0.46982464
33	0x3ea1d7a5	0.31609836
34	0xbe1eae74	-0.15496236
35	0x3ec518c4	0.38495457
36	0xbea5cc0d	-0.3238224
37	0xbe8b8ba7	-0.27254984
38	0xbe5be0a4	-0.21472412
39	0xbef18bc4	-0.47176945
40	0x3ece013d	0.4023532
41	0x3cabed69	0.02098723
42	0x3e58f588	0.21187413
43	0x3ed1eed1	0.41002515
44	0x3e8c3be9	0.27389458
45	0xbeb322a2	-0.3498736
46	0x3e654f2d	0.22393484
47	0xbec176fc	-0.3778609
48	0xbdc81bcd	-0.097709276
49	0x3bffd980	0.0078079104
50	0xbe9dc776	-0.3081624
51	0x3edf0211	0.43556264
52	0x3cef2f96	0.029197495
53	0x3ef1a355	0.47194925
54	0x3df56203	0.11981585
55	0x3ee1ea85	0.44124237
56	0xbbf8ef98	-0.007596921
57	0xbeee555d	-0.46549502
58	0xbeb66d84	-0.3563043
59	0x3e23bb9b	0.15989535
60	0xbea8dc94	-0.32980788
61	0x3ee593ad	0.4483923
62	0x3dd242ec	0.102666706
63	0xbe487875	-0.195772

gat_layers.1.att_edge f4 [1, 4, 16]
0	0x3e9fa596	0.3118102
1	0xbee5bdcc	-0.44871366
2	0x3dd236c1	0.1026435
3	0x3e5c0d02	0.21489337
4	0x3e8cebf3	0.27523765
5	0x3efbeeb7	0.49205562
6	0xbed3e070	-0.4138217
7	0x3dbf271a	0.0933363
8	0xbe32beab	-0.17455547
9	0xbef811f4	-0.48451197
10	0x3f03013d	0.51173764
11	0xbe880eef	-0.26573893
12	0x3eaea596	0.34110707
13	0xbf0ab53c	-0.5418279
14	0xbe95bd47	-0.2924597
15	0x3e563c31	0.20921399
16	0x3e49ee85	0.19719894
17	0xbef0888a	-0.4697917
18	0xbedcaa78	-0.43098807
19	0x3efdbadf	0.49556634
20	0x3e9de905	0.30841842
21	0x3ea14b43	0.31502733
22	0x3eeb6151	0.45972684
23	0xbed18d04	-0.409279
24	0x3ed2839d	0.41116038
25	0xbe0f10b1	-0.13971211
26	0x3ed85e84	0.4225961
27	0xbe9a8dd2	-0.30186325
28	0x3d878e47	0.06618934
29	0x3d8e7621	0.06956125
30	0x3d0addf4	0.033903077
31	0x3dd48339	0.10376591
32	0x3e27c169	0.16382374
33	0xbe5bfbd5	-0.21482785
34	0x3eb0bbf8	0.3451841
35	0x3ef1cb51	0.4722543
36	0xbef74044	-0.48291218
37	0x3f033643	0.5125467
38	0xbc3e95ed	-0.011632425
39	0x3ed93419	0.4242256
40	0xbebf38d2	-0.37348038
41	0xbe56d0bc	-0.20978063
42	0x3e91849d	0.28421488
43	0x3e2bf9ce	0.16794512
44	0xbd10a407	-0.03531268
45	0xbe964bd4	-0.29354727
46	0xbee1bda7	-0.44090006
47	0xbe9887b2	-0.29791027
48	0xbee4db2a	-0.4469846
49	0xbdcc6ef5	-0.09982101
50	0x3e87fa1d	0.2655801
51	0xbef10f91	-0.4708219
52	0x3e01f486	0.12690935
53	0xbedbe77c	-0.42950046
54	0x3e0b9b40	0.13633442
55	0x3d76c68e	0.06024795
56	0x3e82e7b6	0.25567406
57	0x3e6a50f6	0.22882447
58	0x3e5263a9	0.2054583
59	0xbe3954ec	-0.18098801
60	0x3ee72e55	0.45152536
61	0xbe8efa16	-0.27925175
62	0xbeac9b2b	-0.33712134
63	0xbddbd665	-0.10734252

gat_layers.1.bias f4 [64]
0	0xbbcc1bd4	-0.0062289033
1	0xbbf2e7b4	-0.007412875
2	0xbbd4c467	-0.0064931395
3	0xbbf95f37	-0.0076102274
4	0xbbc6ffe4	-0.006072985
5	0x3c0df584	0.0086644925
6	0xbbc83725	-0.0061100894
7	0xbbf8af39	-0.0075892475
8	0xbbfa6ba5	-0.0076422268
9	0x3be427d4	0.0069627557
10	0xbbf9a7c7	-0.0076188776
11	0xbbf839ce	-0.00757525
12	0xbbf83d31	-0.007575654
13	0xbbf8cc0b	-0.007592683
14	0xbbf8997a	-0.007586655
15	0xbbf94eac	-0.0076082554
16	0x3c13a1fa	0.009010786
17	0x3c3ce532	0.011529254
18	0xbbf691cb	-0.007524704
19	0xbbf90318	-0.0075992458
20	0xbbe0272d	-0.0068406076
21	0x3900f208	0.00012297195
22	0xbbf97fa8	-0.0076140948
23	0xbbf885bb	-0.0075843013
24	0x3bd2b988	0.0064308085
25	0xbbf91c94	-0.0076022837
26	0xbbf9ddd3	-0.0076253205
27	0xbbf9ad51	-0.007619538
28	0xbbf9435c	-0.007606907
29	0xbbf5ddf3	-0.007503265
30	0x3c2928d5	0.0103246765
31	0xbafa3771	-0.0019090009
32	0x3c25866f	0.010102852
33	0xbbc54365	-0.006019997
34	0xbbf8590f	-0.007578976
35	0xbbf7f8f0	-0.0075675175
36	0xbbdb4718	-0.0066918246
37	0x3c2ad63f	0.010427057
38	0xbbf94523	-0.0076071187
39	0x3c1c0823	0.009523424
40	0xbbce349a	-0.0062928917
41	0x3c29f18b	0.01037253
42	0xbbf8ead6	-0.007596354
43	0xbbe94ced	-0.007119766
44	0xbbf91c14	-0.007602224
45	0x3c14e88f	0.009088649
46	0xbbf9c18a	-0.0076219486
47	0xbbf84d7e	-0.007577597
48	0xbbed844a	-0.007248436
49	0xbbf8bc2a	-0.0075907903
50	0xbbf8fb8c	-0.007598346
51	0xbbec6d72	-0.0072151953
52	0xbbf8ae18	-0.007589113
53	0x3b08330a	0.0020782375
54	0xbbf98bf0	-0.007615559
55	0xbbf91169	-0.0076009524
56	0xbbfaff63	-0.007659839
57	0xbbf8584c	-0.007578885
58	0xbb11c3a6	-0.002224186
59	0xbbf8441c	-0.0075764786
60	0x3c02d712	0.007985847
61	0x3ba7f28b	0.005125349
62	0xbbf34684	-0.0074241776
63	0xbadbf228	-0.0016780542

gat_layers.1.lin.weight f4 [64, 64]
0	0x3d6f53f4	0.058429673
1	0xbe5229a5	-0.20523699
2	0x3e126ca0	0.1429925
3	0x3d9c9a07	0.07646566
4	0xbe42957f	-0.1900234
5	0x3db32a41	0.08748294
6	0x3dbe2c88	0.092858374
7	0x3d5177d2	0.05113966
8	0xbd5e61e7	-0.054292586
9	0xbe41d0da	-0.18927327
10	0xbde1157c	-0.10990426
11	0xbbb7c765	-0.0056084865
12	0xbde9eb23	-0.11421802
13	0x3e22a5cc	0.15883559
14	0xbddedede	-0.10882352
15	0xbe123c8e	-0.14280912
16	0x3e515d33	0.20445709
17	0x3de4de06	0.1117516
18	0xbde76405	-0.11298374
19	0x3c0d3eee	0.008620961
20	0xbdbad046	-0.09121756
21	0xbe32e38c	-0.17469615
22	0xbd9841a2	-0.074343935
23	0x3dba1278	0.09085554
24	0x3d43c5ed	0.04779618
25	0xbd339a14	-0.043848112
26	0xbe2b89c4	-0.16751772
27	0x3e40f592	0.18843678
28	0x3df06dca	0.117396906
29	0x3e5ba820	0.21450853
30	0x3d563d21	0.05230439
31	0x3e269c9d	0.1627068
32	0x3d40874c	0.04700403
33	0x3ade50e6	0.0016961365
34	0xbd23eeb8	-0.04002258
35	0x3d80e6e1	0.06294037
36	0x3dfb852a	0.122812584
37	0x3d9319ec	0.071826786
38	0xbd0965ea	-0.03354446
39	0x3e459cf8	0.1929816
40	0x3d67d7a1	0.056602124
41	0xbdc0555d	-0.09391282
42	0x3e19423d	0.14966674
43	0x3da8514f	0.082186334
44	0x3db75fb9	0.089538045
45	0xbe5c0739	-0.2148713
46	0xbe11d809	-0.14242567
47	0x3c3acb3d	0.011400995
48	0x3e10983d	0.14120574
49	0x3e059c69	0.13047947
50	0x3c974957	0.018467588
51	0xbe04cfcb	-0.12969892
52	0xbe5b70a3	-0.21429686
53	0x3e3b3672	0.18282488
54	0xbe169d06	-0.14708337
55	0x3d89cf7e	0.06729029
56	0xbd97ab7f	-0.07405757
57	0x3e452c82	0.1925526
58	0x3b9c753f	0.004774719
59	0x3d3e970b	0.046530765
60	0x3e16dc9f	0.14732598
61	0x3e3fcd45	0.18730648
62	0xbe090bf5	-0.13383467
63	0x3d990e3f	0.0747342
64	0xbe139ca2	-0.1441522
65	0x3c9c2e8b	0.019065162
66	0x3d3f9558	0.046773285
67	0xbc4e1336	-0.012577822
68	0x3b2247af	0.0024761965
69	0xbe3c2b9f	-0.18376015
70	0x3e4b6d24	0.19865853
71	0x3cbfe2fc	0.023423664
72	0x3dce56a5	0.1007512
73	0x3c44142b	0.011967699
74	0xbe4fecdb	-0.20305197
75	0x3ccf6d91	0.0253208
76	0x3e5ebab8	0.21750915
77	0xbe04f913	-0.1298564
78	0xbdbe9ee8	-0.09307653
79	0xbe566011	-0.20935084
80	0x3dd9aaea	0.106283024
81	0xbdbaea4b	-0.09126719
82	0x3dcb4e8d	0.09927092
83	0xbe0d69e7	-0.1380993
84	0x3d8d91e3	0.06912591
85	0xbd1ede0a	-0.03878597
86	0xbd961d2d	-0.073297836
87	0xbe0ef010	-0.13958764
88	0xbe59f636	-0.21285328
89	0x3ba14665	0.0049217218
90	0xbdc22b2d	-0.094808914
91	0xbdab3b42	-0.08360912
92	0x3dc03fba	0.09387155
93	0xbe287807	-0.16452037
94	0x3d923f19	0.07140941
95	0x3e43b963	0.19113688
96	0xbe08b157	-0.133489
97	0x3d80636a	0.06268962
98	0x3de14ef7	0.110013895
99	0x3d49157b	0.04909275
100	0x3e493673	0.19649677
101	0x3e37bb18	0.17942464
102	0x3da1002a	0.078613594
103	0xbe234c8a	-0.15947166
104	0xbe37f581	-0.17964746
105	0xbe4f17cb	-0.2022392
106	0xbde9619b	-0.1139557
107	0x3d9ca0ca	0.076478556
108	0x3bc7aadf	0.0060933675
109	0x3e3c6069	0.18396153
110	0xbdffd096	-0.124909565
111	0xbcae45da	-0.021273542
112	0x3c86399f	0.016384898
113	0x3ce20949	0.027592318
114	0xbd82571c	-0.06364271
115	0xbccc5368	-0.024942115
116	0xbe00d333	-0.12580566
117	0x3e38f394	0.18061668
118	0xbd084c5b	-0.033275943
119	0x3e1ef689	0.15523733
120	0xbe592696	-0.21206126
121	0x3d6dbf39	0.058043692
122	0x3d0b36e1	0.033987883
123	0x3d2202b3	0.039553355
124	0x3e2615cf	0.16219257
125	0xbe557520	-0.20845461
126	0xbdabd50c	-0.08390245
127	0xbd4a82ac	-0.049441025
128	0xbcecce0b	-0.028906843
129	0x3ded74be	0.115945324
130	0xbe133096	-0.14374003
131	0x3d811ee2	0.063047186
132	0xbd39c155	-0.04535039
133	0xbe2d52c3	-0.16926102
134	0xbe2dd40b	-0.16975419
135	0x3db449da	0.088031486
136	0x3db8eeba	0.090299085
137	0xbe3d7886	-0.18503007
138	0x3e5b1c78	0.21397579
139	0x3e007782	0.12545589
140	0xbe3b3f63	-0.18285899
141	0x3e3e478b	0.18581979
142	0xbdcc77d4	-0.09983793
143	0x3dfa5896	0.12223928
144	0xbad3cad6	-0.0016158472
145	0xbe081b8a	-0.13291755
146	0xbe4fde03	-0.20299534
147	0xbdc9372e	-0.09824978
148	0xbe5de811	-0.21670558
149	0x3dc85f05	0.097837485
150	0xbd3af253	-0.045641255
151	0xbd5e0b2c	-0.054209873
152	0x3dbe426c	0.09290013
153	0xbdea1d3a	-0.11431356
154	0x3cad0093	0.021118438
155	0xbd6ca47e	-0.05777406
156	0x3d6330b7	0.05546638
157	0xbd03585f	-0.0320667
158	0xbd8c177a	-0.06840415
159	0xbd814725	-0.06312398
160	0xbdf32bd5	-0.11873595
161	0xbd227afc	-0.03966807
162	0xbe2ce256	-0.16883215
163	0xbcd4b9d1	-0.02596751
164	0x3e050d47	0.12993346
165	0x3d5874d7	0.052845802
166	0x3e55c7f4	0.20877057
167	0xbdcf7e37	-0.101314954
168	0x3dee8218	0.11645907
169	0x3e4e320a	0.20136276
170	0xbe3b9af0	-0.18320823
171	0xbc8c7616	-0.017146152
172	0x3da004b7	0.07813399
173	0x3d2f5721	0.042807702
174	0x3c9a798d	0.018856788
175	0xbc32bc5f	-0.010909169
176	0xbddc5d83	-0.107600234
177	0xbc911a06	-0.017712604
178	0x3ddf87a7	0.109145455
179	0x3d022c96	0.0317808
180	0x3e0889ce	0.13333818
181	0xbe538f30	-0.2066009
182	0x3c303002	0.010753633
183	0xbe16bbb8	-0.14720047
184	0xbe382dfa	-0.17986289
185	0x3e58453a	0.21120158
186	0x3dbcef37	0.09225314
187	0xbdeb3340	-0.114843845
188	0xbd786f40	-0.06065297
189	0xbd297caf	-0.041378673
190	0xbe24d120	-0.160954
191	0x3d6f5db0	0.058438957
192	0xbe4822bb	-0.19544499
193	0xbccb4dc8	-0.024817362
194	0xbe189aa9	-0.14902748
195	0xbd1733bb	-0.03691457
196	0x3d9a7cfe	0.075433716
197	0xbe323914	-0.17404586
198	0xbdcd9ae8	-0.10039312
199	0xbbf35d46	-0.0074268905
200	0xbe4fb0a1	-0.20282222
201	0xbcdff30a	-0.02733757
202	0x3e4df3a9	0.2011248
203	0xbdc45117	-0.09585779
204	0xbc97c586	-0.018526804
205	0x3dec3d04	0.11535075
206	0x3d90888d	0.07057295
207	0xbe481ded	-0.19542666
208	0x3e2e460d	0.1701891
209	0x3e4a9220	0.19782305
210	0x3d60760f	0.05480009
211	0x3e2b3148	0.16718018
212	0xbd9f8dd8	-0.077907264
213	0x3e1dfb89	0.15427984
214	0xbdf750d3	-0.12075963
215	0xbe501327	-0.20319806
216	0xbdc9de16	-0.09856813
217	0x3e39a1b5	0.18128093
218	0xbddc29b0	-0.10750139
219	0xbd0869a3	-0.033303868
220	0x3e1b0731	0.15139462
221	0xbe0c30a2	-0.13690427
222	0xbd47ce35	-0.04878064
223	0x3dcd22cc	0.100164026
224	0xbd9faa32	-0.07796134
225	0xbda670c0	-0.08126974
226	0x3e1ec32d	0.15504141
227	0x3df8f9c2	0.121570125
228	0xbdde37a1	-0.10850454
229	0x3cac3d14	0.021025218
230	0x3c7f7a79	0.015593165
231	0xbd6c9395	-0.057757933
232	0xbcb5ab4c	-0.022176407
233	0x3e472195	0.19446404
234	0xbd28dcc4	-0.041226164
235	0xbe63ba44	-0.22239023
236	0xbe2e31e9	-0.17011227
237	0x3e2faf53	0.17156725
238	0x3d09949c	0.03358899
239	0x3e16b98c	0.14719218
240	0xbdb6e3e9	-0.08930189
241	0xbda066d6	-0.078321144
242	0x3ddc8c1e	0.10768913
243	0xbda2db7d	-0.0795202
244	0x3e3d41d0	0.18482137
245	0x3ba6b848	0.005087886
246	0x3e0b4328	0.13599837
247	0x3e0f97a1	0.14022686
248	0xbe093909	-0.13400663
249	0x3d6b0719	0.057379816
250	0xbe15632e	-0.14588615
251	0xbc9b74d2	-0.018976603
252	0xbd2c4f13	-0.0420676
253	0xbd13526b	-0.03596727
254	0x3d9b11e8	0.07571775
255	0x3e137625	0.14400537
