models/best_fraud_model_seed_666.pth (torch, 378192 bytes, 45 tensors)

node_emb.weight f4 [64, 8]
0	0xbcade07d	-0.021225208
1	0x3e8a9d74	0.27073252
2	0xbe811df5	-0.25218168
3	0xbe75a060	-0.2398696
4	0xbdfb3ba3	-0.12267234
5	0xbd0d918e	-0.03456264
6	0x3e866ad2	0.26253372
7	0x3e6f8c19	0.23393287
8	0xbe9d9fe9	-0.30786064
9	0xbd210bcf	-0.039317902
10	0xbe89f504	-0.26944745
11	0xbddcb5d9	-0.10776872
12	0x3bfe638b	0.0077633313
13	0xbdb609ad	-0.08888564
14	0xbea6cd58	-0.3257854
15	0x3e3c9c96	0.18419108
16	0xbddab5e7	-0.10679226
17	0x3df2182b	0.11821016
18	0xbd89dbdb	-0.06731387
19	0xbd808c2c	-0.06276736
20	0x3e06273b	0.13100903
21	0x3e10d0ef	0.14142202
22	0x3e07956f	0.13240598
23	0x3e087e4a	0.13329425
24	0x3e826324	0.25466263
25	0x3e5ee7a3	0.2176805
26	0xbcd17fdf	-0.025573669
27	0x3debae7b	0.11507889
28	0xbd52f28c	-0.051500842
29	0xbe7f3f17	-0.2492641
30	0xbe5a1036	-0.21295246
31	0xbd5a4f1d	-0.053298105
32	0xbd784bdf	-0.06061923
33	0xbe81aa41	-0.25325206
34	0xbeaa932f	-0.33315417
35	0x3ea5d143	0.32386217
36	0xbeb051ca	-0.344374
37	0x3d2d52c7	0.04231527
38	0xbe856f52	-0.26061493
39	0x3d4ea2d8	0.05044827
40	0x3e97087f	0.2949867
41	0x3e1d2c6b	0.15348975
42	0xbdb0dad5	-0.08635489
43	0xbe89d82a	-0.26922733
44	0x3d42eeee	0.047591142
45	0x3e55a212	0.20862606
46	0x3e01e791	0.12685992
47	0x3e1abaa0	0.15110254
48	0xbd78b4ee	-0.060719423
49	0xbe6877f0	-0.22702003
50	0x3d6d70e0	0.057968974
51	0x3e24be95	0.16088326
52	0xbe134680	-0.14382362
53	0xbdd3563a	-0.10319181
54	0xbe1a20dc	-0.15051597
55	0xbe64d792	-0.22347859
56	0xbe80b28c	-0.2513622
57	0xbe87085c	-0.26373565
58	0x3dbe9ab8	0.09306854
59	0x3e59f02e	0.21283028
60	0x3e69f6a3	0.2284799
61	0xbeb3fc92	-0.35153633
62	0xbd883c92	-0.06652178
63	0xbeb50311	-0.35353902
64	0xbcb93e3c	-0.022612683
65	0xbe389654	-0.18026096
66	0x3d84338f	0.064551465
67	0xbcd3929a	-0.025826741
68	0xbe403479	-0.18770017
69	0x3e0cc999	0.13748778
70	0xbdc5d5df	-0.09659933
71	0xbe835088	-0.25647378
72	0xbdade360	-0.08490634
73	0x3d2f03cb	0.042728227
74	0xbe16bc2f	-0.14720224
75	0xbea447ca	-0.3208602
76	0x3eac6563	0.33671102
77	0x3e68abcc	0.22721785
78	0xbe2cf8a4	-0.16891724
79	0xbe8fea24	-0.28108323
80	0x3eacf25e	0.3377866
81	0xbe0ae4bb	-0.13563816
82	0xbe8a41f0	-0.2700343
83	0x3d74a989	0.059731994
84	0xbe849fac	-0.2590307
85	0x3e64fddb	0.22362463
86	0x3e325e24	0.17418724
87	0xbe733688	-0.23751271
88	0x3e130db6	0.14360699
89	0xbe8f7802	-0.28021246
90	0x3e876fbd	0.26452437
91	0xbddc3cb7	-0.10753768
92	0x3e8e48e6	0.27789992
93	0x3e564e36	0.20928273
94	0xbdf0f8ca	-0.11766203
95	0x3c8ae576	0.016955119
96	0xbdb0d58c	-0.08634481
97	0xbe709901	-0.23495866
98	0xbe3f2b11	-0.18668772
99	0x3dcb7425	0.09934262
100	0xbe7a66b3	-0.24453239
101	0xbe3f86c4	-0.18703753
102	0xbd9287e4	-0.07154825
103	0x3e34c7e5	0.17654379
104	0x3d57c1b9	0.052674983
105	0xbe6f5432	-0.23371962
106	0xbe90111c	-0.28138053
107	0x3ea4a93b	0.32160363
108	0x3ea81f12	0.32836205
109	0xbe9697bc	-0.2941264
110	0xbd0abb2a	-0.0338699
111	0xbea8adb5	-0.32945028
112	0x3d2d8950	0.04236728
113	0xbe8160e8	-0.25269246
114	0x3db3cab9	0.08778901
115	0xbe281f9a	-0.16418305
116	0xbe1b21f9	-0.15149678
117	0xbd662f15	-0.056197245
118	0xbd916426	-0.0709918
119	0x3e9e33bc	0.30898845
120	0xbc0188ae	-0.007906122
121	0x3bb26f6b	0.005445411
122	0xbda0ae5f	-0.07845759
123	0xbea4ba3d	-0.3217334
124	0xbea144c3	-0.31497774
125	0xbddef934	-0.108873755
126	0xbead4ea4	-0.3384906
127	0x3caa60b9	0.020798074
128	0x3e68c273	0.22730426
129	0xbb95ae47	-0.0045678946
130	0xbe64371d	-0.22286649
131	0x3e5ab93d	0.21359725
132	0xbb361a0d	-0.0027786524
133	0x3e822fcb	0.25427088
134	0x3dba34e2	0.09092118
135	0x3e5f9b3b	0.2183656
136	0xbd0e67ed	-0.03476708
137	0xbe187682	-0.14888957
138	0x3d8b1c73	0.06792536
139	0xbded342f	-0.11582219
140	0x3e36f886	0.17868242
141	0x3e9ce60d	0.30644265
142	0x3d51a4e2	0.051182635
143	0x3e98fd90	0.29880953
144	0x3e1449be	0.14481255
145	0xbe3af74f	-0.18258403
146	0x3c102690	0.0087982565
147	0x3e8ce9e8	0.27522206
148	0x3e1f9927	0.15585767
149	0xbe9a0a98	-0.30086207
150	0xbe198d64	-0.14995342
151	0xbd4c17ac	-0.049827263
152	0x3e6cd5e4	0.23128468
153	0x3e9909df	0.29890344
154	0x3e0327c4	0.12808138
155	0xbe7b4039	-0.24536218
156	0x3d351f6d	0.044219423
157	0xbe5731fa	-0.21015158
158	0x3e5401d4	0.20703822
159	0xbd521e55	-0.051298458
160	0xbe172be7	-0.14762841
161	0x3c23e5e2	0.010003539
162	0xbd7ec5a4	-0.062200204
163	0xbe911459	-0.28335837
164	0x3e34a03a	0.17639247
165	0x3e1a5abb	0.15073673
166	0x3d92676b	0.07148632
167	0x3e1cbcb6	0.15306363
168	0x3dda35af	0.106547706
169	0xbd369996	-0.044580065
170	0x3e8efc61	0.27926925
171	0xbccee1d7	-0.025254173
172	0x3e717545	0.23579891
173	0x3e4c9a70	0.19980788
174	0xbea3f48f	-0.3202252
175	0x3d9acf2e	0.07559048
176	0x3e410f69	0.18853535
177	0x3e4e9159	0.20172633
178	0x3d82d6c6	0.06388621
179	0x3ea93f5f	0.3305616
180	0xbe031e3f	-0.12804507
181	0x3e9a950e	0.30191845
182	0xbea812e4	-0.32826912
183	0xbe0b42e4	-0.13599735
184	0xbe5550f8	-0.20831668
185	0xbc861261	-0.016366186
186	0x3e331e8e	0.17492124
187	0x3e250318	0.16114461
188	0xbe3ea2ea	-0.18616834
189	0x3d0e9de6	0.034818552
190	0x3e25fa80	0.1620884
191	0x3e81804c	0.25293195
192	0x3e968f4b	0.294062
193	0x3d13b2fa	0.036059357
194	0xbe950fed	-0.29113713
195	0xbe1ad90b	-0.15121858
196	0x3daeea6e	0.08540808
197	0x3e2cbfd4	0.16870052
198	0x3e91fdf1	0.28514054
199	0xbdb2c6ce	-0.08729325
200	0xbea90d16	-0.33017796
201	0xbe3e3832	-0.18576124
202	0x3e164d31	0.14677884
203	0xbeb34ab4	-0.3501793
204	0xbea3f8c1	-0.32025722
205	0x3d7adaa8	0.061243683
206	0xbe16379b	-0.1466965
207	0x3ea25e77	0.31712696
208	0x3e8904ca	0.26761466
209	0xbdb1bd43	-0.08678677
210	0x3e76b2a9	0.24091591
211	0xbd80a9a9	-0.0628236
212	0xbdf97e23	-0.12182262
213	0x3e8144e9	0.25247887
214	0x3e77109c	0.2412743
215	0xbe5f7b4b	-0.21824376
216	0x3db59cc5	0.08867792
217	0xbe03f1ad	-0.1288516
218	0x3e846944	0.2586156
219	0xbe80c52a	-0.25150424
220	0xbe33ab51	-0.17545821
221	0x3e1e5006	0.15460214
222	0x3e84d57f	0.25944135
223	0xbd93c006	-0.0721436
224	0xbeb38226	-0.35060233
225	0x3e8e4415	0.27786317
226	0xbe4bb61a	-0.19893685
227	0xbe0052d2	-0.12531593
228	0xbea14397	-0.3149688
229	0x3ddf8f61	0.10916019
230	0x3e3c00f5	0.1835974
231	0xbe60d08f	-0.21954559
232	0x3e97a60d	0.29618874
233	0x3e6de34e	0.23231241
234	0x3e1edd01	0.15513994
235	0xbe9f059f	-0.31058976
236	0x3eb511e9	0.35365227
237	0xbdf72b71	-0.12068833
238	0xbd4e4503	-0.050358783
239	0xbea67544	-0.32511342
240	0xbe3e1f70	-0.1856668
241	0xbe943230	-0.2894454
242	0x3eae6b7f	0.34066388
243	0xbea221dd	-0.3166646
244	0xbd923a3f	-0.07140016
245	0xbea0267b	-0.31279358
246	0x3db494f6	0.088174745
247	0xbe1406a1	-0.14455654
248	0xbeaf5d89	-0.3425105
249	0x3e961892	0.2931562
250	0xbe3b691e	-0.18301818
251	0xbc17525c	-0.009235945
252	0x3df754fb	0.120767556
253	0xbe687920	-0.22702456
254	0x3dc8fde1	0.098140486
255	0x3c92971a	0.017894316

node_emb.bias f4 [64]
0	0xbdb66232	-0.08905448
1	0x3e8f73cc	0.28018034
2	0xbe839a8d	-0.2570385
3	0x3ea5eda2	0.32407862
4	0x3e3812a6	0.17975864
5	0xbd174059	-0.0369266
6	0x3ea98eed	0.33116856
7	0x3e8df795	0.27727953
8	0xbe12b826	-0.1432806
9	0x3e869d1e	0.26291746
10	0xbeab064c	-0.33403242
11	0xbe4ee156	-0.20203146
12	0xbe7050e2	-0.23468354
13	0xbe18e42a	-0.14930788
14	0xbe993c2f	-0.2992873
15	0x3e6db81e	0.23214766
16	0x3d7ce784	0.061744228
17	0xbe8ed92c	-0.27900064
18	0x3ea94911	0.33063558
19	0x3d19f7f3	0.03758998
20	0x3dbe97c1	0.093062885
21	0xbe81f53d	-0.25382414
22	0xbdd8a894	-0.10579029
23	0x3e947de1	0.29002288
24	0x3eb454ba	0.3522089
25	0x3b331008	0.0027322788
26	0x3e8886ca	0.26665336
27	0x3e1540da	0.1457552
28	0xbe516c6d	-0.20451517
29	0xbd76622d	-0.06015222
30	0x3da3b204	0.07992938
31	0x3e3bae59	0.18328227
32	0x3d64c6e4	0.05585374
33	0x3dcb344e	0.09922086
34	0x3dae0bc8	0.08498341
35	0xbe10291c	-0.14078182
36	0x3e266734	0.16250306
37	0x3e391bb6	0.18076977
38	0x3c8933b6	0.01674829
39	0x3e10a024	0.14123589
40	0xbda3cc49	-0.07997949
41	0xbea646ae	-0.324758
42	0xbe82abe8	-0.2552178
43	0x3e362832	0.17788771
44	0x3def11bf	0.11673307
45	0x3e84abeb	0.25912413
46	0xbd76011f	-0.060059663
47	0xbeae2b71	-0.34017518
48	0xbe4cf8d2	-0.20016792
49	0xbe325dad	-0.17418547
50	0xbe440545	-0.19142635
51	0xbdb8475b	-0.08997985
52	0x3dba3718	0.090925395
53	0xbea6273e	-0.32451814
54	0xbe9cd226	-0.3062908
55	0xbe94be3f	-0.29051396
56	0xbe2856c2	-0.16439345
57	0x3e0467c7	0.12930213
58	0x3e7d4e45	0.24736889
59	0xbe39244e	-0.18080255
60	0x3dfc2475	0.12311641
61	0xbdbb11d7	-0.09134262
62	0x3e8cf440	0.27530098
63	0x3e0df59b	0.13863222

edge_emb.weight f4 [64, 2]
0	0x3e73e1e1	0.23816635
1	0xbee2221b	-0.44166645
2	0xbf0f748f	-0.5603723
3	0xbe36dd9a	-0.17857972
4	0x3e62e41d	0.22157331
5	0x3f1367a1	0.5758
6	0xbf04c1ec	-0.518584
7	0x3ee81815	0.45330873
8	0x3f00ca80	0.5030899
9	0xbf28fc6d	-0.6601017
10	0xbf270526	-0.6524223
11	0x3ed6e9cf	0.41975257
12	0x3d554810	0.052070677
13	0xbcb9f4dd	-0.022699768
14	0xbec37208	-0.38172936
15	0x3f05022c	0.5195644
16	0xbea694a1	-0.3253527
17	0xbe98da07	-0.29853842
18	0xbe5ddf6c	-0.2166726
19	0x3e24f0d7	0.16107498
20	0x3ebfb24e	0.37440723
21	0x3e5680cd	0.20947571
22	0xbdec6493	-0.115426205
23	0x3ee5016c	0.44727647
24	0x3e29ad2e	0.16569969
25	0x3e6cb0d1	0.23114325
26	0x3e867b39	0.26265886
27	0x3c8faf42	0.017539624
28	0xbf279263	-0.65457743
29	0x3f35d8a2	0.7103368
30	0x3eef3d33	0.4672638
31	0x3f0bda50	0.54629993
32	0xbf0fd91e	-0.5619067
33	0xbeb19b0a	-0.34688598
34	0x3e32a826	0.17446956
35	0xbe149367	-0.14509355
36	0xbf0dfc31	-0.5546294
37	0xbf10026f	-0.56253713
38	0xbedf13b8	-0.43569732
39	0xbf1414b4	-0.5784409
40	0x3ea3977b	0.31951508
41	0x3ef480da	0.47754556
42	0x3f12f3a6	0.5740303
43	0x3ec46816	0.3836066
44	0x3e4b5a2f	0.19858621
45	0x3eefd6bd	0.4684352
46	0x3e573032	0.21014479
47	0x3ea17761	0.3153639
48	0x3ee3ab6a	0.44466716
49	0x3ed5eccb	0.4178222
50	0xbe56e6c8	-0.20986474
51	0xbe9bdda9	-0.3044255
52	0xbd544067	-0.05181923
53	0x3f06f93d	0.5272406
54	0xbe7be7bd	-0.2460012
55	0x3e5dc56f	0.21657346
56	0x3c906199	0.017624663
57	0x3f11068d	0.5665062
58	0x3e9b1a08	0.30293298
59	0xbeec9278	-0.46205497
60	0x3e37c536	0.17946324
61	0xbf1b09ee	-0.60562027
62	0xbecf3c58	-0.40475726
63	0x3e0320b7	0.12805448
64	0x3e26f0bb	0.16302769
65	0x3e5d6b33	0.21622925
66	0xbe951b9a	-0.2912262
67	0xbe284667	-0.16433106
68	0x3f2b365a	0.6687981
69	0xbf096c34	-0.5368073
70	0xbcc34dbf	-0.023840783
71	0x3e8f4b05	0.27986923
72	0xbe5dc831	-0.21658398
73	0xbed85bda	-0.42257577
74	0x3d5845e8	0.052801043
75	0x3f124a53	0.5714466
76	0x3abb4c73	0.0014289751
77	0x3e82e4fd	0.2556533
78	0xbecddc71	-0.40207246
79	0xbea1c7c6	-0.31597728
80	0x3efc6419	0.49295118
81	0xbc82f997	-0.015988154
82	0xbf03c7ee	-0.51476943
83	0x3d21debe	0.039519064
84	0x3edca85b	0.43097195
85	0xbdfa4f9b	-0.12222215
86	0xbe825bdc	-0.25460708
87	0xbed89b96	-0.42306203
88	0x3f174d6a	0.591025
89	0x3e432ccb	0.19060056
90	0x3eb9e184	0.36304867
91	0x3e248588	0.16066563
92	0x3f153b37	0.5829348
93	0x3ef06ed4	0.46959555
94	0x3f203a6d	0.6258915
95	0xbf248cb6	-0.6427721
96	0xbf279309	-0.6545873
97	0x3ea3bc24	0.31979477
98	0x3f302044	0.68799233
99	0xbeec2e23	-0.4612895
100	0xbd011486	-0.031513713
101	0xbecf1acc	-0.40450132
102	0xbcff7705	-0.031184683
103	0x3e25807c	0.16162294
104	0x3e2327a7	0.15933095
105	0x3ee664b0	0.44998693
106	0x3e110fa6	0.14166126
107	0x3df747fe	0.12074278
108	0x3ef2607d	0.4733924
109	0x3f14d97c	0.58144355
110	0xbe92e483	-0.28689966
111	0x3e595fd0	0.21227956
112	0x3f02b4ce	0.51057136
113	0x3ea6d18c	0.32581747
114	0xbf2655c5	-0.64974624
115	0x3eb71964	0.3576156
116	0xbe864b0b	-0.26229128
117	0x3ea064bd	0.31326857
118	0x3ef4c0ea	0.47803432
119	0xbf341a55	-0.7035268
120	0xbf080a60	-0.5314083
121	0xbe92d069	-0.2867463
122	0xbdcbb52e	-0.09946667
123	0x3f001a5a	0.5004021
124	0xbebd3f99	-0.36962584
125	0xbd985b18	-0.0743925
126	0xbf284508	-0.65730333
127	0xbe947c80	-0.29001236

edge_emb.bias f4 [64]
0	0xbe3f7287	-0.18696032
1	0xbe7dc87a	-0.24783507
2	0x3f05ca7f	0.5226211
3	0x3e1fc042	0.15600684
4	0x3d470779	0.04859111
5	0x3dfb2289	0.122624464
6	0x3e3e765d	0.1859984
7	0x3ef723b0	0.48269415
8	0x3ed11a9f	0.40840623
9	0x3ed1b1cf	0.4095597
10	0xbf2104c2	-0.62897885
11	0xbe77dcee	-0.24205372
12	0xbf253816	-0.64538705
13	0x3edf98e4	0.43671334
14	0xbaacc075	-0.0013179915
15	0x3d7bc167	0.06146374
16	0x3f0457d1	0.516965
17	0xbf1e1e0d	-0.61764604
18	0x3da82d71	0.08211792
19	0x3d9a2b3b	0.07527777
20	0x3e85144a	0.25992042
21	0x3e7b5547	0.2454425
22	0xbe6a083c	-0.22854704
23	0x3f18f9f1	0.5975638
24	0x3e1b4197	0.1516174
25	0x3e96e970	0.29474974
26	0xbf253308	-0.6453099
27	0xbf074787	-0.5284352
28	0x3ebd9407	0.37026998
29	0xbc70eba6	-0.01470462
30	0xbbe1bd80	-0.0068890452
31	0x3d522672	0.051306196
32	0x3e2b6650	0.16738248
33	0x3e2dd69f	0.16976403
34	0x3e26acf6	0.16276917
35	0x3e85feaa	0.26170856
36	0x3f14a142	0.5805856
37	0xbf239e21	-0.6391316
38	0x3d65511a	0.055985548
39	0x3f26b2e8	0.6511674
40	0x3ee691c4	0.45033085
41	0xbdf59458	-0.11991185
42	0x3eb6ef67	0.35729524
43	0xbede9c2d	-0.43478528
44	0x3f0f4aa2	0.55973256
45	0xbde2c534	-0.1107277
46	0xbde63069	-0.11239702
47	0xbe7d272c	-0.24721974
48	0x3efdd224	0.49574387
49	0xbe077762	-0.13229135
50	0xbe296751	-0.16543318
51	0xbe81e3c1	-0.25369075
52	0x3f1b11f1	0.6057425
53	0x3f17aff0	0.59252834
54	0x3d37321c	0.044725522
55	0xbed00bcb	-0.40633997
56	0x3f261bf2	0.6488639
57	0xbf012c37	-0.5045809
58	0xbec2247d	-0.37918463
59	0xbf03a450	-0.51422596
60	0xbf057f42	-0.52147305
61	0x3e20ae12	0.15691403
62	0x3dfd1c6c	0.12358937
63	0x3e171d08	0.14757168

gat_layers.0.att_src f4 [1, 4, 16]
0	0xbdf0628d	-0.11737547
1	0x3dd25561	0.10270191
2	0x3d01d51e	0.031697385
3	0xbe7f6212	-0.24939755
4	0x3d2c8858	0.042122215
5	0x3db32960	0.08748126
6	0x3eaa265f	0.332324
7	0xbf06382c	-0.5242946
8	0x3e8cd63f	0.27507207
9	0x3e9b90f4	0.30384028
10	0x3f02efaa	0.5114695
11	0x3ede0350	0.43361902
12	0xbdfd8fee	-0.12380968
13	0x3e80a65e	0.25126928
14	0xbe9dfdba	-0.3085764
15	0x3efc6eeb	0.49303374
16	0x3eb628fb	0.3557814
17	0x3cddeb55	0.027089754
18	0x3f00d479	0.5032421
19	0xbee162d3	-0.4402071
20	0x3eda9439	0.4269121
21	0x3dccdd33	0.10003128
22	0xbd8de6d8	-0.069287956
23	0x3edc7fa1	0.43066123
24	0xbce12930	-0.02748546
25	0x3daac97f	0.083392136
26	0x3ebc0c27	0.36728022
27	0x3ea82326	0.32839316
28	0xbef90ab2	-0.48640972
29	0xbe87263e	-0.26396364
30	0xbe632e98	-0.22185743
31	0x3c9cccec	0.019140683
32	0xbe3a4757	-0.18191276
33	0xbd8d73e9	-0.06906874
34	0x3c6c4783	0.014421347
35	0x3ee69034	0.45031893
36	0x3e032dbb	0.12810414
37	0x3d7e88d2	0.0621422
38	0x3b4827f9	0.0030541404
39	0x3ed2d360	0.4117689
40	0x3e203af7	0.15647493
41	0xbe45103b	-0.19244473
42	0x3f08bdcc	0.5341461
43	0xbefb3d5b	-0.49070248
44	0x3f091a01	0.53555304
45	0x3e8b2f3a	0.27184469
46	0x3ee8e1d1	0.45484784
47	0x3e7b85cd	0.2456276
48	0xbef999f6	-0.48750275
49	0xbd841317	-0.064489536
50	0xbefeeed8	-0.49791598
51	0xbb2ab491	-0.0026047567
52	0x3e5f7651	0.21822478
53	0x3eb5ccc2	0.3550778
54	0x3eeedd81	0.4665337
55	0xbf052251	-0.5200549
56	0xbe021f20	-0.12707186
57	0x3e75146b	0.2393357
58	0xbf01d63a	-0.5071751
59	0xbf0c837d	-0.54888135
60	0xbe97c464	-0.29642022
61	0xbee6f02e	-0.45105118
62	0x3e6ec270	0.2331636
63	0x3e80646c	0.25076616

gat_layers.0.att_dst f4 [1, 4, 16]
0	0x3edd222b	0.4319013
1	0x3e1049fc	0.14090723
2	0xbc79fcd5	-0.015258034
3	0x3f095057	0.53638214
4	0x3f094323	0.5361807
5	0xbe17e8de	-0.14834926
6	0xbdf94c15	-0.121727146
7	0x3ef53b4a	0.47896796
8	0x3eac8717	0.33696815
9	0xbec6ca55	-0.38826242
10	0x3da1ffc5	0.07910112
11	0xbe380d6f	-0.17973875
12	0xbec027a2	-0.37530237
13	0x3f02ce97	0.5109648
14	0x3e34898b	0.17630593
15	0x3dfd9b83	0.12383177
16	0x3cd1de94	0.025618829
17	0x3ece0218	0.40235972
18	0xbf0a8820	-0.5411396
19	0x3dc53526	0.09629278
20	0xbe8ecc76	-0.27890366
21	0xbe57b636	-0.21065602
22	0xbe4a8a4a	-0.19779316
23	0x3d23ad94	0.03996046
24	0x3e92c2ce	0.2866425
25	0x3ef9a038	0.4875505
26	0xbea60794	-0.32427657
27	0x3f093918	0.53602743
28	0xbead59ca	-0.33857566
29	0xbd924780	-0.07142544
30	0xbe818253	-0.25294742
31	0x3e77ecba	0.24211398
32	0x3e91342c	0.28360116
33	0x3e364fa9	0.17803825
34	0xbee8ad83	-0.4544488
35	0xbf0a4fae	-0.5402783
36	0x3e8002c1	0.250021
37	0xbf062142	-0.523945
38	0x3d13ac41	0.036052946
39	0xbee87a8d	-0.45406
40	0xbc97b286	-0.018517744
41	0xbdedf9b5	-0.116198935
42	0x3ea74037	0.3266618
43	0xbe9e4692	-0.30913216
44	0xbc546efb	-0.012965913
45	0x3dd4d05d	0.10391305
46	0x3e3319b7	0.17490278
47	0x3d11817a	0.03552387
48	0xbe8a4140	-0.27002907
49	0x3e880178	0.2656362
50	0x3d4d22aa	0.050081886
51	0x3f049612	0.5179149
52	0x3ed2fd29	0.4120877
53	0xbe5e8787	-0.21731387
54	0x3ea8e107	0.32984182
55	0xbe7a04c4	-0.2441588
56	0xbe098c79	-0.13432492
57	0x3f064ca5	0.524607
58	0xbf096926	-0.5367607
59	0x3ec2daa6	0.3805744
60	0x3e8326f7	0.25615665
61	0xbe6d3613	-0.23165159
62	0x3e63f9d7	0.22263275
63	0x3e764569	0.24049915

gat_layers.0.att_edge f4 [1, 4, 16]
0	0x3e9e51d7	0.30921814
1	0x3ec2b427	0.3802807
2	0x3eb3d1db	0.35121045
3	0x3ed9108c	0.42395437
4	0x3d6de3a6	0.05807843
5	0x3efb100f	0.4903569
6	0x3eb038fd	0.3441848
7	0x3e9fd31f	0.3121576
8	0xbe96c8be	-0.2945003
9	0xbcb7b386	-0.02242447
10	0x3e9cd30c	0.30629766
11	0xbf0ade68	-0.54245615
12	0xbe5701de	-0.20996806
13	0x3ef4b357	0.47793075
14	0xbe9deeca	-0.30846244
15	0xbe8c448d	-0.2739605
16	0x3dffca0e	0.12489711
17	0x3eed3a14	0.46333373
18	0x3cc10bb9	0.02356516
19	0x3ea336f2	0.31877857
20	0xbea7ffa1	-0.32812217
21	0x3ef67ea0	0.48143482
22	0x3e9a81b6	0.30177087
23	0xbe35bf49	-0.17748751
24	0xbe89f074	-0.26941264
25	0xbd9aa03c	-0.075500935
26	0x3e732597	0.23744808
27	0x39b45c49	0.00034401033
28	0x3d8ef92c	0.069811195
29	0x3e92a572	0.2864185
30	0xbe8ff5d7	-0.28117248
31	0xbe9a510c	-0.3013996
32	0xbe2c47b7	-0.16824232
33	0xbe7b81d3	-0.24561243
34	0xbf0945e9	-0.536223
35	0x3ef7347e	0.48282236
36	0xbf03213c	-0.51222587
37	0x3e84f841	0.25970653
38	0x3f00e7ae	0.50353515
39	0x3d052928	0.032509953
40	0x3ed4e134	0.41578066
41	0xbdae575e	-0.08512758
42	0x3d268517	0.040654268
43	0x3ec2a66c	0.38017595
44	0x3e0d1d93	0.13780813
45	0x3e1114a5	0.14168032
46	0x3e6da90f	0.23209022
47	0x3ef835ba	0.4847849
48	0xbe9d3de4	-0.3071128
49	0x3ed32e36	0.41246194
50	0x3e01ce01	0.1267624
51	0xbf01a9aa	-0.5064951
52	0x3ec746f9	0.38921335
53	0x3efdeaaf	0.49593112
54	0xbebb988c	-0.36639822
55	0x3db36c12	0.08760847
56	0x3f01c5b1	0.5069228
57	0x3ef7e7fc	0.48419178
58	0xbee8500e	-0.45373577
59	0xbe2bf4df	-0.1679263
60	0x3bc6b50d	0.0060640634
61	0xbee1d445	-0.4410726
62	0x3d71c54c	0.059026048
63	0x3e377b2e	0.17918083

gat_layers.0.bias f4 [64]
0	0xbb937010	-0.004499443
1	0xbb924044	-0.0044632275
2	0xbb932d48	-0.004491482
3	0xbb92656f	-0.0044676582
4	0xbb94f690	-0.004545994
5	0xbb93e781	-0.0045136814
6	0xbb918de5	-0.004441964
7	0xbb8cabaa	-0.004292925
8	0xbb92a578	-0.004475292
9	0xbb943ed2	-0.0045240903
10	0xbb9338f3	-0.004492873
11	0xbb930132	-0.0044862265
12	0x3aae42dc	0.0013295072
13	0x3bce2dbf	0.0062920745
14	0xbb94afd5	-0.0045375624
15	0xbb96a9fd	-0.004597901
16	0xbb931375	-0.0044884034
17	0xbb921c0f	-0.0044589113
18	0xbb91f212	-0.004453906
19	0xbb8f70d7	-0.004377465
20	0xbb93613b	-0.0044976748
21	0xbb921372	-0.0044578845
22	0xbb91d839	-0.0044508246
23	0xbb939bc3	-0.004504652
24	0xbae4e584	-0.001746342
25	0xbb9245fa	-0.0044639083
26	0xbb921634	-0.004458213
27	0xbb950088	-0.0045471825
28	0xbb93cf7b	-0.0045108176
29	0x3b8303d5	0.0039982595
30	0xbb91ea9c	-0.0044530164
31	0xbb947bb4	-0.004531348
32	0xbb920755	-0.0044564405
33	0xbb92beda	-0.0044783177
34	0xbb916bbe	-0.0044378927
35	0x3bb55ebc	0.005534975
36	0x3be362f0	0.0069392845
37	0xbb8e03de	-0.004333957
38	0xbb817199	-0.0039503095
39	0x3bcdd619	0.006281626
40	0x3b81cdeb	0.003961315
41	0xbb959b79	-0.004565653
42	0x3b195032	0.0023393747
43	0xbb882775	-0.0041550943
44	0x3b8bec51	0.0042701145
45	0xbac354bf	-0.0014902576
46	0xba933876	-0.0011232037
47	0x3b8a35ce	0.00421784
48	0xbb872026	-0.0041237054
49	0xbb93c514	-0.0045095775
50	0xbb95a4e6	-0.0045667766
51	0xbb8d92c1	-0.004320473
52	0xbb93401e	-0.0044937273
53	0x3bb9e912	0.005673536
54	0xbb8c1dfc	-0.0042760354
55	0xbb957789	-0.004561369
56	0xb9f8a289	-0.00047423344
57	0xbb935951	-0.0044967313
58	0xbb94074c	-0.0045174714
59	0xbb952fde	-0.0045528254
60	0xbb948cbb	-0.004533378
61	0xbb92477d	-0.0044640885
62	0x3c000067	0.007812596
63	0xbb92e2e9	-0.004482616

gat_layers.0.lin.weight f4 [64, 64]
0	0xbe1fc640	-0.1560297
1	0x3d8b82f3	0.06812086
2	0xbc26c50d	-0.0101788165
3	0x3d611db4	0.054959968
4	0x3d9799c2	0.07402374
5	0x3db05e72	0.08611764
6	0xbd99bf85	-0.075072326
7	0xbcdf386b	-0.027248582
8	0x3e561ec1	0.20910169
9	0xbe40ad2f	-0.18816064
10	0xbd8d04ae	-0.06885658
11	0xbc3de2d4	-0.011589725
12	0x3df85cd7	0.12127083
13	0xbe434fc5	-0.19073398
14	0x3d02bb56	0.03191694
15	0x3e5cd582	0.21565822
16	0xbe4b2d89	-0.19841589
17	0x3d1fa5b1	0.038976375
18	0xbe04b660	-0.12960196
19	0x3e3cd50c	0.18440646
20	0xbe32d6e5	-0.17464788
21	0xbe204670	-0.1565187
22	0x3dc3f056	0.09567325
23	0xbdd88e00	-0.10573959
24	0x3d216bd8	0.03940949
25	0xbdf7a2fa	-0.12091632
26	0xbde5dbb0	-0.11223543
27	0x3c02d61f	0.007985621
28	0x3d8cc193	0.06872859
29	0x3e282191	0.16419055
30	0xbbd20ba0	-0.006410077
31	0xbdec7b0a	-0.11546905
32	0x3dcbeb03	0.09956934
33	0x3e0b1948	0.13583863
34	0x3ce4ca31	0.027928444
35	0x3dd49eb2	0.10381831
36	0xbcd9897d	-0.026554817
37	0x3e2deda3	0.16985182
38	0xbc3e8b4c	-0.011629891
39	0x3cc44094	0.023956574
40	0x3cd7ce94	0.026343621
41	0xbd882e32	-0.06649436
42	0x3d141c2b	0.036159676
43	0x3e03631c	0.12830776
44	0x3e284d96	0.16435847
45	0x3b53b20a	0.0032302164
46	0xbe0d6ef6	-0.1381186
47	0xbe5066ae	-0.20351669
48	0xbe479f78	-0.19494426
49	0x3de16aad	0.11006675
50	0xbe0af22f	-0.13568948
51	0x3e210eb4	0.15728265
52	0xbe245d96	-0.16051325
53	0xbdb018f0	-0.085985065
54	0xbe046b7c	-0.12931627
55	0xbe065bee	-0.13121006
56	0xbd45b427	-0.04826751
57	0x3ca73fe7	0.020416213
58	0xbe0ce6a7	-0.13759862
59	0x3de6eafd	0.11275289
60	0x3e044a4a	0.12918964
61	0x3e481c3c	0.1954202
62	0x3db4e8fa	0.08833499
63	0x3cd762d4	0.026292242
64	0xbd5e92dd	-0.05433928
65	0xbd2ca2df	-0.042147513
66	0xbe0a65c9	-0.1351539
67	0x3d3752f5	0.04475685
68	0xbe3ca72b	-0.18423145
69	0xbe1752c3	-0.14777665
70	0x3abb8be7	0.0014308662
71	0x3d9fc323	0.07800891
72	0xbc880480	-0.016603708
73	0xbde7d968	-0.11320764
74	0x3de8891c	0.113542765
75	0xbd532db7	-0.05155727
76	0xbd6b1221	-0.057390336
77	0x3df36618	0.11884707
78	0xbe0f5add	-0.13999505
79	0x3e5b0427	0.21388303
80	0xbdae219a	-0.08502503
81	0xbd13e413	-0.03610618
82	0x3d1a2cb2	0.03764028
83	0xbe290a4a	-0.16507831
84	0xbdecbc81	-0.11559392
85	0x3dde866f	0.10865485
86	0x3d944d3f	0.07241296
87	0xbe552b9f	-0.20817421
88	0xbc5c4fbd	-0.013446745
89	0x3e495934	0.19662935
90	0xbcb143a8	-0.021638706
91	0xbe368334	-0.17823488
92	0xbe009681	-0.12557413
93	0xbdf21597	-0.11820524
94	0xbc9382ed	-0.018006766
95	0x3e06e293	0.13172369
96	0x3e30bbf8	0.17259204
97	0x3cc26a0a	0.023732204
98	0xbb478ecf	-0.003045011
99	0x3e4141bb	0.1887273
100	0x3e4d6f3a	0.20061961
101	0x3e599286	0.212473
102	0xbcf7a3f1	-0.03022954
103	0xbc4cc286	-0.01249755
104	0x3db7338e	0.0894538
105	0xbe122b01	-0.14274217
106	0xbe17d41c	-0.14827007
107	0xbc462e1a	-0.012095952
108	0x3d4ce8b6	0.050026618
109	0xbdf77c19	-0.120842166
110	0x3e261937	0.16220556
111	0x3d855972	0.06511201
112	0xbe34d3e5	-0.17658956
113	0x3d3efefb	0.046629887
114	0x3da93e63	0.082638524
115	0xbd6cb059	-0.057785366
116	0x3db8bb8e	0.09020148
117	0x3e35c3d4	0.17750484
118	0x3e3a337d	0.18183704
119	0xbd0c3f07	-0.034239795
120	0x3e543e51	0.20726897
121	0xbe41cef0	-0.18926597
122	0xbd985ecc	-0.07439956
123	0x3e5a94bd	0.21345802
124	0x3e0cf533	0.13765411
125	0xbe199553	-0.14998369
126	0x3e3df242	0.18549445
127	0xbd92c377	-0.07166188
128	0x3e24ea09	0.16104902
129	0x3ba5d0e3	0.0050603016
130	0xbd2e7ad1	-0.042597596
131	0xbe49c7f1	-0.19705178
132	0x3e16ca4d	0.14725609
133	0xbc6b026f	-0.014343842
134	0xbe3c799f	-0.1840577
135	0xbde330bb	-0.11093279
136	0x3d6d3e2a	0.057920612
137	0xbd99aed3	-0.07504048
138	0x3e438b29	0.19096054
139	0xbdb1469b	-0.08656045
140	0x3ddb8adc	0.10719845
141	0x3e45783d	0.19284149
142	0xbd6bd272	-0.057573743
143	0x3e394a49	0.18094744
144	0xbcd87d51	-0.026426943
145	0x3e59240a	0.21205154
146	0x3e031f15	0.12804826
147	0x3dbaa5ee	0.0911368
148	0x3e35656b	0.17714469
149	0xbe38e087	-0.180544
150	0x3e10681d	0.14102216
151	0xbe507d9d	-0.20360418
152	0x3e52ee31	0.20598675
153	0xbe19194f	-0.1495106
154	0x3d991795	0.07475201
155	0x3e3033d7	0.17207275
156	0x3e1346d3	0.14382486
157	0x3de7e8f6	0.11323731
158	0xbe555472	-0.20832995
159	0xbdc9c383	-0.09851744
160	0xbe2e3538	-0.17012489
161	0xbd332d88	-0.043744594
162	0xbdb04eec	-0.08608803
163	0xbe558d0a	-0.20854583
164	0x3d983a2e	0.07432972
165	0x3e3610e2	0.17779878
166	0xbddf3e49	-0.10900552
167	0x3ddbdba9	0.10735256
168	0xbd1bb511	-0.038014475
169	0x3e516a84	0.20450789
170	0x3e4d5e72	0.2005556
171	0x3dd8f0d6	0.10592811
172	0xbdf28122	-0.118410364
173	0xbd17b0cf	-0.037033852
174	0xbd856b9f	-0.06514668
175	0x3e1a0fdd	0.15045114
176	0x3d47c0df	0.04876792
177	0x3df5fcf1	0.12011135
178	0x3e0c3e12	0.13695553
179	0x3c91fb9c	0.017820172
180	0xbce614ec	-0.028086148
181	0xbcec9766	-0.028880786
182	0xbdaa64ed	-0.08320031
183	0x3dd52a7d	0.104084946
184	0x3e46bb01	0.19407274
185	0xbe07cef8	-0.13262546
186	0xbe4fecd1	-0.20305182
187	0x3dbf12ed	0.09329782
188	0xbdcb2aec	-0.09920296
189	0xbe49d29c	-0.19709247
190	0xbe4a5609	-0.19759382
191	0x3deb666c	0.11494145
192	0xbe1734b6	-0.14766201
193	0x3d2071d6	0.039171062
194	0x3da327e4	0.07966593
195	0xbdb29ca0	-0.0872128
196	0xbe56f80f	-0.20993064
197	0xbdce69cb	-0.10078772
198	0xbd27d89a	-0.04097805
199	0x3d1a5e89	0.037687812
200	0xbbb9369c	-0.005652262
201	0x3d8e2851	0.069412835
202	0x3ca7473f	0.020419715
203	0xbcab1af2	-0.020886872
204	0xbd6d2d3e	-0.057904474
205	0x3da6a153	0.08136239
206	0xbe0965c2	-0.13417724
207	0xbdfdb679	-0.123883195
208	0x3df835be	0.121196255
209	0x3db49e33	0.088192366
210	0xbdfb1a1b	-0.122608386
211	0x3e0f3dee	0.13988468
212	0x3e497658	0.19674051
213	0x3d0a6772	0.03379006
214	0xbe028e57	-0.12749611
215	0xbdafce30	-0.08584249
216	0xbe4a9c39	-0.19786157
217	0x3c931a4e	0.017956879
218	0xbd940aa3	-0.07228591
219	0xbdfc6242	-0.12323429
220	0xbde2fd20	-0.11083436
221	0x3e04072d	0.12893362
222	0xbe3b9fa3	-0.18322615
223	0xbd99ac46	-0.07503562
224	0x3d23f6b9	0.040030215
225	0x3d15f647	0.03661182
226	0xbdb99149	-0.09060914
227	0x3e03e886	0.1288167
228	0x3e1a5e0d	0.1507494
229	0x3e1fb285	0.15595444
230	0xbcc2a46f	-0.023760049
231	0x3ded9159	0.115999885
232	0x3c1150b2	0.008869337
233	0x3d809fa8	0.06280452
234	0x3dd17739	0.10227818
235	0xbc42ccf5	-0.011889686
236	0x3e4ce4ec	0.20009202
237	0x3cf65343	0.030069
238	0xbca27695	-0.019831935
239	0xbdf767dd	-0.12080357
240	0xbe2adb2e	-0.16685173
241	0x3d3e6482	0.04648257
242	0xbdf87f8f	-0.12133705
243	0x3e237839	0.1596383
244	0x3d8624a7	0.0654996
245	0xbe4b398f	-0.19846176
246	0x3d4f9825	0.050682206
247	0x3de64e09	0.11245353
248	0xbe11367b	-0.14180939
249	0xbcae56f8	-0.021281704
250	0x3d823e6c	0.06359562
251	0xbe3add76	-0.18248543
252	0x3de36c05	0.111045875
253	0xbd2a05c6	-0.041509412
254	0x3c987458	0.018610165
255	0xbe10c2d7	-0.14136826

gat_layers.0.lin_edge.weight f4 [64, 64]
0	0x3c1fc11f	0.0097506335
1	0x3e3b7806	0.18307504
2	0x3e40d6f4	0.18831998
3	0x3a3f0e87	0.00072882365
4	0x3e54fb2b	0.20798938
5	0x3e50d7f9	0.20394887
6	0x3df468d0	0.11934054
7	0xbc940adc	-0.018071584
8	0xbe43d047	-0.1912242
9	0x3c5d89ea	0.013521651
10	0x3e268e3f	0.162652
11	0x3e5974e5	0.21235998
12	0xbe145480	-0.14485359
13	0xbe1388df	-0.14407681
14	0xbe43adfe	-0.19109342
15	0xbd03086a	-0.031990446
16	0x3aa065c0	0.0012237355
17	0x3dd61c98	0.104546726
18	0x3cbbb1b1	0.022911878
19	0xbe4315ec	-0.19051331
20	0x3d6f371e	0.058402173
21	0x3dd6f30d	0.10495577
22	0xbdb04868	-0.086075604
23	0x3cb828c4	0.022480376
24	0xbdd4d030	-0.10391271
25	0x3cd97539	0.026545154
26	0x3db9ec0a	0.09078224
27	0x3dac32b1	0.08408106
28	0x3ca5bb74	0.020230986
29	0x3c9cbad4	0.019132055
30	0xbe511d76	-0.20421395
31	0x3da88362	0.08228184
32	0xbe1a20b4	-0.15051538
33	0xbda03713	-0.078230046
34	0x3e59c15a	0.21265164
35	0x3e5b00ba	0.21386996
36	0x3a591c2c	0.0008282091
37	0xbdb8a3d7	-0.09015625
38	0x3dfc70f8	0.123262346
39	0xbe0da15c	-0.13831085
40	0xbd9ed734	-0.077558905
41	0x3e0cb2c0	0.13740063
42	0xbdac5cf3	-0.08416166
43	0x3e52ef0a	0.20598999
44	0x3cfbde42	0.03074563
45	0xbe21a3fa	-0.15785208
46	0xbe5249c5	-0.20535953
47	0xbe4ed691	-0.20199038
48	0x3e55260e	0.20815298
49	0xbd7ad847	-0.061241414
50	0x3d973beb	0.07384475
51	0x3d5707da	0.052497722
52	0x3e2c0a93	0.16800909
53	0x3dc620e0	0.09674239
54	0xbe226ba1	-0.1586137
55	0xbdc93886	-0.09825234
56	0x3e3cda2c	0.18442601
57	0x3dd51924	0.10405186
58	0xbd990b3c	-0.07472846
59	0xbddb1fcf	-0.106994264
60	0xbe29ef9c	-0.1659531
61	0x3ca8b7ca	0.02059545
62	0xbd10d709	-0.035361324
63	0xbda0d1f8	-0.07852548
64	0x3d9bd860	0.0760963
65	0xbe45293c	-0.19254011
66	0xbe5352ad	-0.20637007
67	0x3e27e7cd	0.16397019
68	0x3e3fd073	0.18731861
69	0x3e42ed6a	0.19035879
70	0x3dbac009	0.09118659
71	0x3ca4eb74	0.020131804
72	0xbe26b52d	-0.1628005
73	0xbca34baf	-0.01993355
74	0xbe211ada	-0.157329
75	0xbd653fbb	-0.05596898
76	0x3c6cf196	0.014461895
77	0x3dfd176a	0.123579815
78	0xbe2b849e	-0.16749808
79	0x3d1f3fb0	0.038879097
80	0x3d204af7	0.039133992
81	0xbe1e79de	-0.15476176
82	0x3e3ff4eb	0.18745773
83	0x3e4915c8	0.19637215
84	0x3e0701cb	0.13184278
85	0x3e001821	0.12509204
86	0xbe2a62ae	-0.16639206
87	0xbe10a570	-0.1412561
88	0x3d8a012f	0.06738507
89	0x3e5bbc98	0.21458662
90	0x3e0c2841	0.1368723
91	0x3e2dbcc0	0.16966534
92	0x3d12e15e	0.03585946
93	0xbb34df39	-0.0027598871
94	0x3e0df05a	0.13861218
95	0xbe23c2b2	-0.15992239
96	0x3caa388c	0.020778917
97	0xbdab1673	-0.08353891
98	0x3e39b1c0	0.18134212
99	0xbe302a00	-0.17203522
100	0xbd29a43f	-0.041416403
101	0xbcc7bfd2	-0.02438346
102	0x3c225ce2	0.00990984
103	0xbb538330	-0.0032274239
104	0x3e00c69f	0.12575768
105	0x3e456843	0.19278054
106	0x3e0ab6ef	0.13546346
107	0x3d175778	0.03694865
108	0xbd3983d2	-0.04529173
109	0x3e44c183	0.19214444
110	0x3da804af	0.08204018
111	0x3df24276	0.11829083
112	0x3d119cc0	0.03554988
113	0x3e473a80	0.1945591
114	0xbdefecb1	-0.11715067
115	0x3d640818	0.05567178
116	0x3dafdabf	0.085866444
117	0xbe1216ea	-0.14266554
118	0x3e4929ed	0.196449
119	0xbc9b9903	-0.01899386
120	0x3dc959d5	0.09831587
121	0x3de68346	0.11255507
122	0x3d80ba36	0.06285517
123	0xbdb34f86	-0.08755402
124	0xbb976484	-0.0046201367
125	0xbda6b89a	-0.08140679
126	0x3e16510d	0.14679356
127	0x3d0b1695	0.033957083
128	0xbda7fd0c	-0.08202562
129	0x3e533632	0.20626143
130	0x3e28d144	0.16486079
131	0x3cab9826	0.020946573
132	0xbdf08ce5	-0.117456235
133	0x3e1e4f79	0.15460004
134	0x3e458ecd	0.19292755
135	0xbe1acbdd	-0.1511683
136	0x3d77f7ea	0.060539164
137	0xbc8697f4	-0.016429879
138	0x3e5a00a3	0.21289305
139	0xbe1ff284	-0.15619856
140	0xbe5264be	-0.20546243
141	0x3e2bcf64	0.16778332
142	0x3e20391c	0.15646785
143	0x3e3d4ec8	0.18487084
144	0x3e2d1e78	0.16906154
145	0x3daeff43	0.08544781
146	0xbe359d10	-0.17735696
147	0x3c541a85	0.012945776
148	0xbe3796ce	-0.17928621
149	0xbdc80e28	-0.09768325
150	0x3df2dbd5	0.11858336
151	0xbcd6865a	-0.02618711
152	0xbe0dea34	-0.13858873
153	0x3c2351e3	0.009968254
154	0xbe5b7e20	-0.21434832
155	0xbda6250c	-0.08112535
156	0xbd2a0c41	-0.041515592
157	0xbe01d750	-0.12679791
158	0x3e0bc185	0.1364804
159	0x3d77c3bb	0.060489397
160	0xbdd5e7d8	-0.10444611
161	0xbe5ba42e	-0.21449348
162	0x3d7f5762	0.062339194
163	0x3e34b0a8	0.17645514
164	0x3e4a5ea3	0.19762664
165	0x3ceebe15	0.029143373
166	0xbe3f8a02	-0.1870499
167	0xbd57ded8	-0.052702755
168	0x3db1cbd9	0.08681459
169	0xbb8ff94e	-0.004393733
170	0xbe1b1aa1	-0.15146877
171	0xbd860c48	-0.06545311
172	0x3d4e143c	0.050312266
173	0x3e491953	0.19638567
174	0xbe34227d	-0.17591281
175	0x3e463f80	0.19360161
176	0x3e3c1bed	0.18370028
177	0x3c91445a	0.017732788
178	0x3dc49694	0.09599033
179	0xbd11d09f	-0.035599347
180	0x3e26361b	0.16231577
181	0x3cc9648c	0.024584077
182	0x3d998c1c	0.07497427
183	0xbe1bcb9e	-0.15214393
184	0xbd377ea8	-0.044798523
185	0x3e34931c	0.17634243
186	0x3e3d9ea0	0.18517542
187	0x3d80cc90	0.06289017
188	0xbe014871	-0.1262529
189	0xbd73190a	-0.05935005
190	0x3da26671	0.079296954
191	0x3e378d85	0.17925079
192	0x3c2c8b40	0.010531247
193	0xbc43f591	-0.011960403
194	0x3dbebbf6	0.093131945
195	0x3da447d8	0.080215156
196	0xbe57749a	-0.21040574
197	0xbd77ec90	-0.060528338
198	0xbe017519	-0.12642325
199	0xbe35932e	-0.17731926
200	0x3e3f5b50	0.18687177
201	0x3e508149	0.20361818
202	0xbdf151e0	-0.117831945
203	0x3d5c1991	0.05373532
204	0xbe30e235	-0.17273791
205	0xbe263832	-0.16232374
206	0x3dc421d5	0.095767654
207	0xbe3877cd	-0.1801445
208	0xbd8fc48d	-0.07019911
209	0x3e4c6da7	0.19963704
210	0xbe58ac9d	-0.21159597
211	0xbd667054	-0.05625947
212	0xbdde6f33	-0.10861053
213	0x3ddbbdb2	0.10729541
214	0xbdfef60e	-0.12449275
215	0x3db38fb2	0.08767642
216	0x3e3724a2	0.17885068
217	0x3e54380f	0.2072451
218	0x3d797cf5	0.060910184
219	0x3daea072	0.08526696
220	0xbe3efd53	-0.18651323
221	0x3c4d68b1	0.012537167
222	0x3b014c2f	0.0019729247
223	0x3e506e83	0.20354657
224	0xbc438c1f	-0.011935263
225	0x3e220bfb	0.15824883
226	0x3dec973a	0.11552282
227	0x3e0642a2	0.13111356
228	0x3e442c1f	0.19157456
229	0xbd2069f3	-0.03916354
230	0xbe4484ca	-0.1919128
231	0x3cafa47c	0.021440737
232	0x3e4247d6	0.18972716
233	0x3e5da18b	0.21643655
234	0x3e5909a5	0.21195085
235	0xbd6e55df	-0.05818736
236	0xbdc6d7f7	-0.09709161
237	0x3e16adf5	0.14714797
238	0x3e5be0b0	0.2147243
239	0x3e082f28	0.13299239
240	0x3e295e00	0.16539764
241	0x3cd37caf	0.02581629
242	0xbdbdf174	-0.09274569
243	0x3e231156	0.15924582
244	0xbdb2b944	-0.08726743
245	0xbe0f820f	-0.14014457
246	0x3c1c2621	0.009530575
247	0xbe21e84a	-0.15811267
248	0xbe5a9d6f	-0.21349119
249	0xbe0c7de9	-0.13719906
250	0x3db5094a	0.088396624
251	0x3d8abdf4	0.06774512
252	0x3e354371	0.17701508
253	0xba0eeb25	-0.00054519094
254	0xbdce2c25	-0.10067014
255	0x3e11dcb6	0.14244351

gat_layers.1.att_src f4 [1, 4, 16]
0	0x3f07fbf9	0.53118855
1	0xbeccc693	-0.3999525
2	0x3efe6ab5	0.49690786
3	0x3ee0e960	0.4392805
4	0xbea4eb64	-0.3221084
5	0x3e4f4fdb	0.20245306
6	0xbec97d60	-0.39353466
7	0x3cd29bcc	0.025709055
8	0xbefe98f3	-0.49726066
9	0x3d0e8fbe	0.034805052
10	0x3efbc47e	0.4917335
11	0xbef8881f	-0.48541352
12	0xbe3c60d4	-0.18396312
13	0xbf028bfd	-0.50994855
14	0xbec5443a	-0.38528615
15	0x3f0c7c14	0.5487683
16	0xbe3f6896	-0.1869224
17	0x3d66f81b	0.056388956
18	0x3ecdc593	0.401898
19	0xbe888c8d	-0.26669732
20	0xbdb74e5d	-0.089504935
21	0x3d93e110	0.07220662
22	0x3e47827a	0.19483367
23	0x3e101dfe	0.14073941
24	0x3df4455a	0.1192729
25	0x3ed07822	0.40716654
26	0xbd78893c	-0.060677752
27	0xbceae9ae	-0.02867588
28	0xbef9519d	-0.48695078
29	0x3efc9da9	0.49339035
30	0x3ecb3ce4	0.39694893
31	0x3e3f4fe9	0.18682827
32	0xbee634a2	-0.4496203
33	0xbf01a189	-0.5063711
34	0x3e0b0a33	0.1357811
35	0xbe933969	-0.28754738
36	0x3da65f10	0.081236005
37	0x3e93eb2f	0.28890368
38	0x3ecb6c03	0.39730844
39	0xbe65ef76	-0.22454628
40	0xbf017873	-0.50574416
41	0xbf036b56	-0.51335657
42	0x3ede9667	0.43474123
43	0xbec146f5	-0.37749448
44	0xbeeecfb8	-0.46642852
45	0xbed663b9	-0.41872957
46	0x3ecb5741	0.39715007
47	0xbea09b4b	-0.3136848
48	0xbdeb6c1e	-0.11495231
49	0x3d544fd0	0.051833928
50	0xbe516eed	-0.20452471
51	0x3e560dc5	0.2090369
52	0xbe47ccd3	-0.19511728
53	0xbeab6c3a	-0.33481008
54	0x3f0607a1	0.5235539
55	0x3ea2ce02	0.31797796
56	0x3ec5a09e	0.38599104
57	0xbea06c65	-0.31332698
58	0xbf04ba0b	-0.5184638
59	0x3e08a9a1	0.13345958
60	0x3bbcf299	0.0057662246
61	0x3e295d80	0.16539574
62	0x3edf02dc	0.4355687
63	0x3efc907a	0.49328977

gat_layers.1.att_dst f4 [1, 4, 16]
0	0xbe995061	-0.29944137
1	0xbf051eed	-0.52000314
2	0xbe4ef558	-0.20210779
3	0x3e39428e	0.18091795
4	0xbe617f47	-0.22021209
5	0xbeb05801	-0.34442142
6	0xbd32c881	-0.043648247
7	0x3e741a52	0.23838165
8	0xbeb27708	-0.3485644
9	0xbed4f710	-0.41594744
10	0x3f093c92	0.5360805
11	0x3eb3fd85	0.35154358
12	0x3e674afc	0.22587198
13	0x3eabbbf2	0.33541828
14	0xbe2488df	-0.16067837
15	0x3e25bddb	0.16185705
16	0x3eb75b9a	0.35812074
17	0x3eb20424	0.34768784
18	0x3f0ae024	0.5424826
19	0xbf067294	-0.5251858
20	0xbeb3f12d	-0.3514494
21	0x3dcc962c	0.099895805
22	0xb95e3b5d	-0.00021193684
23	0x3eaf471c	0.3423394
24	0xbded32dc	-0.11581966
25	0xbde29d56	-0.11065166
26	0x3ee50280	0.4472847
27	0xbe9682d0	-0.29396677
28	0x3e2aa694	0.16665107
29	0x3e59340b	0.21211259
30	0x3e4fd2c0	0.20295238
31	0x3eda53b8	0.42641997
32	0x3e647ecd	0.22313996
33	0xbf03b98c	-0.51455
34	0x3ee7158f	0.45133635
35	0xbebcdba6	-0.36886328
36	0xbf0357db	-0.5130593
37	0x3ea561f5	0.32301298
38	0x3eb20677	0.34770557
39	0xbf0637ec	-0.5242908
40	0x3ed5a358	0.41726184
41	0x3e5927c1	0.21206571
42	0x3e217b8e	0.15769789
43	0xbe406ea4	-0.18792206
44	0xbec27c56	-0.37985486
45	0x3eedae82	0.464222
46	0x3ec8e656	0.39238232
47	0xbe9ec5c2	-0.31010252
48	0x3c62d80c	0.013845455
49	0x3e51c841	0.20486547
50	0x3e6406f9	0.22268285
51	0x3eb72314	0.3576895
52	0xbe401f31	-0.18761899
53	0x3f017032	0.5056182
54	0xbf008c9a	-0.5021454
55	0xbea8125d	-0.3282651
56	0x3d045d0f	0.03231531
57	0xbed097f6	-0.40740937
58	0x3e6a6f98	0.22894132
59	0xbe8cccf3	-0.27500114
60	0xbe454cd0	-0.19267583
61	0xbdc62fa4	-0.096770555
62	0xbed3e1b1	-0.41383126
63	0xbb728194	-0.0037003504

gat_layers.1.att_edge f4 [1, 4, 16]
0	0xbee7a993	-0.45246562
1	0xbf0488c6	-0.517712
2	0xbe421162	-0.18951944
3	0x3befd3a3	0.0073189302
4	0x3f0b5f79	0.54442555
5	0xbe5afe66	-0.21386108
6	0xbe64562e	-0.222985
7	0x3e6fcf52	0.2341893
8	0xbf0615bf	-0.5237693
9	0x3e89d5f7	0.26921055
10	0xbeab121b	-0.3341225
11	0x3d3033ee	0.043018274
12	0xbecf0e47	-0.4044058
13	0xbe33c23a	-0.1755456
14	0xbe7a1d17	-0.2442516
15	0xbe88220c	-0.26588476
16	0x3f0acf5e	0.5422267
17	0xbecd206e	-0.40063804
18	0xbf084b4d	-0.532399
19	0x3eb86fd2	0.36022812
20	0x3f00b2aa	0.5027262
21	0xbec5ccac	-0.38632715
22	0xbd149981	-0.036279205
23	0xbe95ef20	-0.29284
24	0xbe9029c4	-0.28156865
25	0x3ee84591	0.45365575
26	0xbe77780e	-0.24166891
27	0x3e0742df	0.13209103
28	0xbedc3760	-0.43010998
29	0xbea1262f	-0.31474444
30	0xbd8d9de3	-0.0691488
31	0xbf0ad90c	-0.5423744
32	0xbf0a33ad	-0.539851
33	0xbeb42e7f	-0.35191724
34	0x3e26c8a5	0.16287477
35	0xbe93bd32	-0.28855282
36	0xbd80905d	-0.06277535
37	0x3e8b7a91	0.27241948
38	0xbef26eea	-0.47350246
39	0xbe9bffa5	-0.3046848
40	0x3e8aa828	0.27081418
41	0xbd8559d5	-0.06511275
42	0xbf0b9d96	-0.5453733
43	0xbec84e59	-0.39122275
44	0x3eac0c4a	0.33603126
45	0xbd4d870a	-0.05017761
46	0xbea30108	-0.31836724
47	0xbf08a09e	-0.5337008
48	0xbee9ca80	-0.45662308
49	0x3df54d47	0.1197763
50	0x3f06479d	0.52453023
51	0x3e058a8b	0.13041131
52	0xbeb53d9b	-0.35398564
53	0x3eefb7aa	0.46819812
54	0x3b89325b	0.004186911
55	0xbe3d8b92	-0.18510273
56	0xbe4d2375	-0.20033057
57	0x3eceaa11	0.40364125
58	0x3e6d792a	0.23190752
59	0x3e966a38	0.29377913
60	0x3ed87fd6	0.4228503
61	0x3f04b24b	0.51834553
62	0xbd31e835	-0.04343434
63	0xbe2fd4ab	-0.1717097

gat_layers.1.bias f4 [64]
0	0xbba5a4dd	-0.0050550536
1	0xbba47eb0	-0.005019985
2	0x3acbc9bf	0.0015547796
3	0xbba5c2d6	-0.0050586266
4	0xbbaabef3	-0.005210751
5	0xbba39401	-0.0049920087
6	0x3b8bcc14	0.0042662714
7	0xbb9bae5e	-0.004751011
8	0xbba4322e	-0.0050108647
9	0xbb94d48f	-0.0045419405
10	0xbba3fa27	-0.0050041857
11	0x3bb8bfd6	0.005638103
12	0xbba31353	-0.004976669
13	0x3bcf6bfe	0.0063300123
14	0xbb892dc4	-0.004186364
15	0xbbb57546	-0.0055376617
16	0xbbaa0595	-0.0051886537
17	0x3b98b723	0.0046605035
18	0xbb978b11	-0.0046247323
19	0xbbae8903	-0.0053263917
20	0xbba6e0b2	-0.0050927037
21	0xbb8e9eda	-0.0043524327
22	0xbba41a49	-0.0050080162
23	0xbbab9f65	-0.005237507
24	0xbba3f2f5	-0.005003328
25	0xbbacf6e5	-0.0052784556
26	0x3bd8d5e8	0.0066172965
27	0xbba44452	-0.005013027
28	0xbba7f836	-0.0051260246
29	0x3b547b2f	0.0032422056
30	0xbba5f5c3	-0.0050646975
31	0xbba55220	-0.0050451905
32	0x3bf76a53	0.0075505166
33	0xbb8ae5ae	-0.0042388057
34	0xbbaad732	-0.0052136416
35	0x3bbce6ac	0.005764803
36	0x3bc98f9d	0.0061511532
37	0xbb9f8924	-0.0048686434
38	0xbb8b46ba	-0.0042503746
39	0x3bc7108c	0.0060749706
40	0x3b7a0ccd	0.0038154603
41	0xbbae8210	-0.0053255633
42	0x3aed94fe	0.0018126068
43	0xbb97bcbd	-0.0046306537
44	0x3b8a98c7	0.0042296383
45	0xba9fd266	-0.0012193441
46	0xba5bf6ce	-0.0008390964
47	0x3b888a59	0.004166883
48	0xbb9a6c09	-0.004712586
49	0xbba78b0a	-0.0051130103
50	0xbbb9162c	-0.005648395
51	0xbb978a92	-0.004624673
52	0xbb972c6b	-0.0046134493
53	0x3bafea31	0.005368494
54	0xbba633ec	-0.0050721075
55	0xbbaf75fa	-0.00535464
56	0xbac6750d	-0.0015141085
57	0xbbaf43f7	-0.005348678
58	0xbbb1c68c	-0.00542528
59	0xbbb1d574	-0.005427057
60	0xbbb26834	-0.005444551
61	0xbba542d2	-0.005043366
62	0x3c05df41	0.008170904
63	0xbba61eda	-0.0050695958

gat_layers.1.lin.weight f4 [64, 64]
0	0x3d851117	0.064974
1	0xbdc17931	-0.094469436
2	0x3ca807f4	0.020511605
3	0xbe0a7893	-0.13522558
4	0x3e167512	0.14693096
5	0xbe16cd17	-0.14726673
6	0x3e060907	0.13089381
7	0x3d11569f	0.035483
8	0x3e1aef33	0.1513031
9	0x3e1b10ea	0.15143171
10	0x3e3a72d9	0.18207873
11	0x3e19211f	0.14954041
12	0xbe37f151	-0.17963149
13	0x3d7fc7ac	0.06244628
14	0x3dbef0b5	0.09323255
15	0x3e465668	0.19368899
16	0xbc74e702	-0.014947655
17	0x3e10b208	0.14130414
18	0xbde962b0	-0.11395776
19	0xbe216173	-0.1575983
20	0xbe371e4a	-0.17882648
21	0xbda05f1e	-0.07830642
22	0x3e0713cf	0.1319115
23	0xbe3072c7	-0.17231284
24	0xbe30d756	-0.17269644
25	0x3e25f3eb	0.16206329
26	0xbdd46d81	-0.10372449
27	0x3da91a61	0.082569845
28	0x3d0cc78b	0.034369987
29	0xbdda2369	-0.10651285
30	0x3ca7da49	0.020489829
31	0xbd92612e	-0.07147442
32	0xbe1b3810	-0.15158105
33	0x3e2097ef	0.15682958
34	0x3e559f73	0.20861606
35	0xbd9a0c99	-0.07521934
36	0x3e041e75	0.12902243
37	0xbe053a24	-0.1301046
38	0xbd978c27	-0.07399779
39	0x3e4756ca	0.19466701
40	0x3ba15ed4	0.0049246345
41	0xbde4197c	-0.11137673
42	0xbe4e90fc	-0.20172495
43	0xbe3c120a	-0.18366256
44	0xbcc6c65b	-0.024264505
45	0x3dca51a3	0.09878852
46	0x3e1e6908	0.15469754
47	0x3dea2bdb	0.11434146
48	0x3cd2e093	0.025741851
49	0x3dee7c4a	0.116448
50	0xbe467d1f	-0.19383667
51	0x3e3f1654	0.18660861
52	0x3e2245d7	0.15846954
53	0x3d54212e	0.051789455
54	0xbde39924	-0.11113194
55	0xbe04fff8	-0.1298827
56	0x3dad6057	0.08465641
57	0x3d6c9271	0.057756845
58	0xbcbdc6f2	-0.023166154
59	0x3dfac4b3	0.12244549
60	0x3e44cf64	0.19219738
61	0x3d742fe9	0.059616003
62	0x3e428495	0.18995889
63	0xbdf3fb21	-0.119131334
64	0xbd3202d3	-0.043459725
65	0x3e0db938	0.13840187
66	0xbde687d9	-0.1125638
67	0xbd996a3f	-0.07490968
68	0xbc35ebc5	-0.011103575
69	0x3d16d266	0.036821745
70	0xbe007abd	-0.12546821
71	0xbdd87bf1	-0.10570515
72	0x3d503a1b	0.050836664
73	0xbe547d45	-0.20750912
74	0xbd83da49	-0.06438119
75	0x3e350bf4	0.17680341
76	0x3df63b2f	0.12023007
77	0x3de17fb3	0.11010685
78	0x3de9d211	0.1141702
79	0x3e2fbb66	0.1716133
80	0x3de41a17	0.11137789
81	0xbe0689d2	-0.13138512
82	0x3e25d01d	0.1619267
83	0xbe535371	-0.20637299
84	0xbdde5885	-0.108567275
85	0xbe462e3c	-0.19353575
86	0x3d021dcd	0.0317667
87	0x3db915fc	0.09037396
88	0xbda7632c	-0.081732124
89	0xbe3526c8	-0.17690575
90	0xbe46f60f	-0.19429801
91	0xbe0207a0	-0.12698221
92	0x3df35eff	0.118833534
93	0xbe06cace	-0.13163301
94	0xbd90a5cb	-0.070628725
95	0xbded1338	-0.11575931
96	0x3e1b1198	0.1514343
97	0xbdda5bc6	-0.10662036
98	0xbe4bddc2	-0.19908813
99	0xbdbeaeee	-0.09310709
100	0x3d1aff41	0.037841085
101	0x3e018dba	0.1265172
102	0x3e157ad8	0.14597642
103	0xbe191757	-0.1495031
104	0xbe23fe0f	-0.16014884
105	0x3c98ce63	0.0186531
106	0x3e07feb7	0.1328076
107	0x3e50ceab	0.20391338
108	0xbb21a9e1	-0.0024667906
109	0xbd162f99	-0.036666486
110	0x3e0c5ae9	0.13706554
111	0xbd949eec	-0.072568744
112	0x3da8512e	0.08218609
113	0xbdc81b84	-0.09770873
114	0xbdc37420	-0.095436335
115	0xbe5797b6	-0.21053967
116	0x3df6233f	0.120184414
117	0xbdcadcf0	-0.09905422
118	0x3e049c57	0.12950264
119	0x3cc0bde1	0.023528041
120	0x3e4502dd	0.19239374
121	0xbcf973c6	-0.030450713
122	0xbc43fcd6	-0.011962136
123	0xbd0a6318	-0.03378591
124	0x3e4f6503	0.20253377
125	0x3dd35f67	0.10320931
126	0xbda82dff	-0.08211898
127	0xbe42ebc6	-0.19035253
128	0x3e4b756f	0.19869016
129	0xbe285342	-0.1643801
130	0x3de8113f	0.113314144
131	0xbde8e95e	-0.11372636
132	0xbddc4839	-0.10755963
133	0xbe058024	-0.13037163
134	0xbe33f01b	-0.17572062
135	0xbce596b4	-0.028025962
136	0x3ce3f216	0.027825397
137	0x3e47be79	0.19506253
138	0xbe3d1562	-0.18465188
139	0x3d305e0e	0.043058448
140	0xbdda173e	-0.10648964
141	0x3df1912a	0.11795266
142	0x3e10bde2	0.14134935
143	0xbdded972	-0.10881318
144	0xbc4d44bc	-0.012528595
145	0x3d83bf48	0.064329684
146	0xbaf3c84c	-0.0018599122
147	0xbce07956	-0.027401607
148	0x3d0d692e	0.034524135
149	0x3d0adfbb	0.033904772
150	0xbe2ae948	-0.16690552
151	0xbe25203e	-0.1612558
152	0x3d5e7504	0.054310814
153	0x3e2147c0	0.15750027
154	0x3e312a28	0.17301238
155	0xbe0ff2a4	-0.14057404
156	0x3e4b19c0	0.19834042
157	0x3d88f3b1	0.066871054
158	0xbdd6e987	-0.104937606
159	0x3dbb0c3b	0.09133192
160	0xbe58a4ad	-0.21156569
161	0x3d6f5a47	0.058435705
162	0xbe497c2f	-0.19676279
163	0xbe02c93b	-0.12772076
164	0x3e144609	0.14479841
165	0x3e2e1a48	0.17002213
166	0xbe357ddf	-0.17723797
167	0xbd9965bd	-0.07490108
168	0x3d1874e4	0.03722085
169	0x3c4ba52c	0.012429517
170	0xbd818ab3	-0.06325283
171	0xbe1e619b	-0.15466921
172	0x3dc8fb24	0.09813526
173	0xbca4f80e	-0.020137813
174	0xbad11f19	-0.0015954702
175	0x3dfb746f	0.12278067
176	0xbdd6928c	-0.1047717
177	0x3db31af4	0.08745375
178	0x3e2a5ce5	0.16636999
179	0x3cf0d223	0.029397076
180	0xbe4ba38d	-0.19886608
181	0xbe17b9a9	-0.14816917
182	0xbcc5da95	-0.02415208
183	0x3d3f81d1	0.046754662
184	0xbaf23fe0	-0.0018482171
185	0x3e1d402e	0.15356514
186	0x3ba628c5	0.005070778
187	0x3dd8de81	0.10589314
188	0xbe1f935d	-0.15583558
189	0x3e2c5ad5	0.16831525
190	0xbe1ae195	-0.15125115
191	0xbc5663e4	-0.013085339
192	0x3dc668e0	0.09687972
193	0x3d502ffe	0.05082702
194	0xbc6d6230	-0.014488742
195	0xbc7abafa	-0.015303368
196	0x3db7dc67	0.08977585
197	0x3d6dfb73	0.05810113
198	0xbd854db4	-0.06508961
199	0xbe06d67b	-0.13167755
200	0xbd83a101	-0.064271934
201	0xbc36b625	-0.011151825
202	0x3e1c14e2	0.15242341
203	0x3e0c1c83	0.13682751
204	0x3d7cbdf4	0.06170459
205	0x3ccd7106	0.025078308
206	0x3cf05659	0.029338049
207	0xbe3e3f8a	-0.18578926
208	0x3e153f5b	0.1457495
209	0xbdb7e4b4	-0.089791685
210	0xbe22cc27	-0.1589819
211	0xbe230483	-0.1591969
212	0xbe1bb46e	-0.15205547
213	0xbe4645a8	-0.19362509
214	0xbdee29b7	-0.1162905
215	0x3dfd31df	0.12363028
216	0xbdd1f021	-0.10250879
217	0xbe068468	-0.13136446
218	0xbdfdc734	-0.123915106
219	0x3e414ee8	0.18877757
220	0x3c146c25	0.009058987
221	0x3dde6d53	0.10860696
222	0xbe566bfb	-0.20939629
223	0xbe4fe984	-0.20303923
224	0xbe1b0fdd	-0.1514277
225	0xbdb7756b	-0.089579426
226	0xbe190706	-0.14944085
227	0xbd8a81c6	-0.067630336
228	0xbce04405	-0.027376184
229	0x3ad5edc2	0.0016321468
230	0xbd2e5999	-0.042565916
231	0x3c9e11e1	0.019295635
232	0x3dfd1405	0.12357334
233	0x3dd6e10b	0.10492142
234	0xbe288c84	-0.16459852
235	0xbe3d94fd	-0.18513866
236	0xbddf8b5d	-0.10915253
237	0x3cb3deee	0.021956887
238	0xbe31a041	-0.17346288
239	0xbdb25fc3	-0.08709671
240	0xbe3d58dd	-0.1849093
241	0x3d29d0a1	0.04145873
242	0xbbd22c94	-0.0064140055
243	0xbe201eff	-0.15636824
244	0x3da12cc0	0.078698635
245	0x3debf453	0.115212105
246	0xbe4aae2e	-0.19793007
247	0xbccca0da	-0.024979044
248	0xbc2d305a	-0.01057061
249	0x3e33c711	0.17556407
250	0xbbd151f1	-0.006387942
251	0x3e390d36	0.18071446
252	0xbda9fa9a	-0.082997516
253	0x3d3cdd88	0.046109706
254	0xbdd5a2d4	-0.104314476
255	0x3d3d6c78	0.046246022
