models/best_fraud_model_seed_1337.pth (torch, 378242 bytes, 45 tensors)

node_emb.weight f4 [64, 8]
000000 37 d8 5f 3e 6a 06 73 3e c2 aa 2d 3e d1 3d a6 be
       0.21859823 0.23732916 0.1695967 -0.32469037
000010 05 64 9d be c0 0e fa bd 3c be 1e 3e d1 7e 3c be
       -0.3074037 -0.122098446 0.15502256 -0.18407752
000020 79 a0 8c 3e f3 8e 8f be 18 3a 88 3e a6 97 a1 be
       0.2746618 -0.2803875 0.26606822 -0.3156101
000030 1d 90 2e be d4 22 2b 3e 79 9e ad 3e 2d 3c 6e be
       -0.17047162 0.16712505 0.33909968 -0.23265143
000040 0e 83 5a 3e 79 ed a4 3d dd e9 14 3e 06 38 b1 3e
       0.21339056 0.08053107 0.14542337 0.34613055
000050 0c e0 84 3e 26 4c ac be df 05 de 3d 7d a1 9d be
       0.25952184 -0.33651847 0.108409636 -0.30787268
000060 7e 35 a7 3d 1e 45 9b 3e f3 0e be 3d 2a 19 42 bd
       0.081645 0.3032617 0.09280195 -0.04738728
000070 c5 44 9d 3e 34 c5 fd bd 76 db 22 3d e5 50 88 3e
       0.3071653 -0.12391129 0.039760076 0.26624218
000080 9f b5 cd 3d 40 3d a7 be ae cc b1 3d 3b 2a 45 3e
       0.10044407 -0.32663918 0.08681618 0.19254391
000090 38 80 87 3e 76 f3 44 3e 3c 13 60 3e 56 66 67 bd
       0.2646501 0.19233498 0.21882337 -0.05649408
0000a0 f0 3d ad 3e c1 e9 04 3e 07 60 15 be 13 32 c1 bd
       0.33836317 0.12979795 -0.14587413 -0.09433379
0000b0 2c 99 37 3d d3 23 53 3e 4f 72 0d bd 07 8f a3 be
       0.04482381 0.20619135 -0.03453284 -0.3194506
0000c0 2b 11 07 bd 14 48 69 be bd e2 f2 bc ff 27 9b be
       -0.032975357 -0.22781402 -0.029649133 -0.30303952
0000d0 32 bf 61 bc 32 cb 17 bd 1a 34 72 be 5f 2b 9b be
       -0.013778495 -0.037059017 -0.23652688 -0.30306527
0000e0 ff 6f 13 3e 68 bc 87 3e f2 80 2b bd 0c e5 5e 3e
       0.14398192 0.2651093 -0.04187102 0.21767062
0000f0 96 75 6d 3d cd dd a7 3d 64 78 21 be 1b 1a a9 3e
       0.057973467 0.08196602 -0.15768582 0.3302773
000100 e3 96 d8 bd 23 e4 23 3e 25 97 8f 3e c6 7d 80 3e
       -0.10575654 0.16004996 0.28045002 0.25095958
000110 3c 77 c1 3d e1 91 f9 bd 92 47 ec bc 1b 44 89 3e
       0.0944657 -0.12186027 -0.028842721 0.26809773
000120 f6 e5 92 be 9a 61 90 3e 79 eb 7e bd e2 95 2a be
       -0.2869107 0.28199464 -0.062236283 -0.16658738
000130 b4 d4 9b 3e 70 1c 87 3e cc e0 2f 3e fb a6 25 be
       0.30435717 0.26388884 0.17175597 -0.16176979
000140 04 ff c8 bc c7 29 85 3e 64 cc b7 3d 2d 13 6e be
       -0.024535663 0.26008436 0.08974531 -0.23249502
000150 10 b8 ab 3e eb 62 9f 3e e0 2e ac 3e 93 c0 72 bd
       0.33538866 0.31130156 0.33629513 -0.059265684
000160 27 62 b4 3e 07 0c a1 3d 88 ae c5 bd 1a 2b 15 3e
       0.35231134 0.07863622 -0.0965243 0.14567223
000170 cf 3c 2b be f6 29 b1 3e 72 0c af be 22 37 0c bd
       -0.16722415 0.34602326 -0.34189183 -0.034232266
000180 84 d1 8e be 6d 3f c0 bd 03 df 28 be 34 3a de 3d
       -0.27894223 -0.093870975 -0.16491322 0.10850945
000190 3f 7e 8c be f7 17 04 3e 67 a8 ee 3d 5c 54 94 3e
       -0.27440068 0.12899767 0.11653214 0.2897061
0001a0 f9 5e 23 bd 10 d1 a6 3e 4c 50 5a 3e 56 7b 15 be
       -0.039885495 0.32581377 0.21319693 -0.1459783
0001b0 13 86 9a bd 2b 24 a2 3d ce 0f a7 3e 25 ec 84 3e
       -0.07545104 0.07917055 0.32629246 0.25961414
0001c0 25 e1 09 3d 8d f7 6a 3e bc 81 c6 bc b4 b2 36 be
       0.03366198 0.22945996 -0.024231784 -0.17841607
0001d0 01 dd a0 be 2f 1e 98 3e 25 1e 88 bc d4 f9 a7 be
       -0.31418613 0.29710528 -0.016615937 -0.3280779
0001e0 cd b8 f4 bd 11 96 82 3e f5 35 90 be bc 08 a6 be
       -0.119493105 0.25505117 -0.28166166 -0.3242854
0001f0 3d 1d 24 3e 82 f6 6a 3e bd 0b fa bb f7 1c 5b be
       0.16026779 0.22945598 -0.007630794 -0.21397768
000200 f8 90 4d be 35 af a9 bd ee 64 93 3e 9c 00 3f 3e
       -0.20074832 -0.08285371 0.2878794 0.18652576
000210 ce 81 86 be 9b 18 a4 3e 2c 34 78 be 34 a2 48 3e
       -0.26270908 0.32050022 -0.24238652 0.19593126
000220 a2 f8 19 bd 6d a3 47 3e 27 16 6b bd 66 46 8b 3e
       -0.03759063 0.19495936 -0.057394173 0.27202147
000230 5d 65 a8 bb 25 d1 51 be 90 eb cf bd 87 d7 5f 3e
       -0.0051390366 -0.20489939 -0.10152352 0.21859561
000240 ae c3 8f be 44 82 87 be ca 72 14 3e 8d 90 38 be
       -0.2807898 -0.26466572 0.14496914 -0.18023892
000250 0e 48 72 3e 18 c9 40 3e 9e 7e 4a bc 75 1a e7 bc
       0.23660299 0.18826711 -0.012359289 -0.028210858
000260 6e 76 8c be 39 7d 4d be b8 c1 98 be 3e 02 83 3e
       -0.27434105 -0.200673 -0.29835296 0.25587648
000270 d3 16 24 3e 06 b2 8e 3e b8 a1 b2 3e 27 d8 a7 be
       0.16024332 0.27870196 0.34889007 -0.327821
000280 8c 0f 94 3e 12 eb 22 3d a6 67 52 bd d3 84 3a be
       0.2891811 0.03977496 -0.051368378 -0.18214731
000290 3c 5c 23 3e 4a ff 85 3e 00 1b 1d be 24 67 d1 bd
       0.15953153 0.26171333 -0.15342331 -0.10224751
0002a0 fb 78 b7 3c 40 e3 b1 be 89 6d 8c be 33 dd 87 3e
       0.022396555 -0.3474369 -0.2742732 0.2653595
0002b0 f0 fc b0 3e ab 7a 27 3e fb 28 98 3e ba 4a 20 3e
       0.34567976 0.16355388 0.29718766 0.15653506
0002c0 25 43 44 bc 55 db 5e 3e 84 f4 83 3e ac a1 0a 3e
       -0.011978899 0.21763356 0.25772488 0.13538235
0002d0 21 58 01 3e 82 6d 81 bc 4c e2 83 3e dc fd c5 bd
       0.12631275 -0.015799288 0.25758588 -0.096675605
0002e0 82 53 76 be f9 d3 d4 bd 06 5a 91 3e e8 c1 cd 3a
       -0.24055293 -0.10391993 0.28388995 0.0015698047
0002f0 53 c4 44 3e 99 a7 4a 3e cb d6 96 3e 36 cd 92 be
       0.19215517 0.19790496 0.2946075 -0.2867219
000300 30 1a 89 3d 6a 07 69 3e 12 20 6e 3e c1 75 a6 be
       0.06694448 0.22756734 0.23254421 -0.32511714
000310 e2 15 f8 bd 2c 71 24 be e1 0c 2f be 73 38 cb bd
       -0.12113549 -0.16058797 -0.17094757 -0.09922876
000320 e0 ba 22 bd 3c 61 9a 3e e3 d7 0c 3e 78 87 85 3e
       -0.039729 0.3015231 0.13754229 0.26079917
000330 fa db 19 3d 2f 7d f9 3d 56 c9 92 be 1e 1a 47 be
       0.0375633 0.1218208 -0.28669232 -0.19443557
000340 e0 4e 50 3e 0e 27 c1 bc cb 6d 67 3e a2 29 8e 3e
       0.20342588 -0.023578193 0.22600476 0.27766138
000350 49 0f 32 bc 81 f2 eb bd 5f 44 00 3e e1 f8 a9 3d
       -0.010867902 -0.11520863 0.12526082 0.08299423
000360 15 56 92 3e fb b3 65 be 2a 82 f2 bd 2e 01 98 bc
       0.285813 -0.22431938 -0.11841233 -0.01855525
000370 08 62 54 be c7 d3 7d 3c 5b 8b 5b 3c 44 8b 03 3c
       -0.20740521 0.015492386 0.013399924 0.008028809
000380 10 0b 6f 3e 47 49 41 be db 79 f5 3d f4 9f e3 3a
       0.23344064 -0.1887561 0.11986133 0.0017366395
000390 0d 4e f3 bd ad f8 11 be 5a 22 7a 3e a7 b8 61 3e
       -0.118801214 -0.14255019 0.24427167 0.22043096
0003a0 31 87 63 3e 25 30 83 be d4 17 34 3e 37 64 74 3e
       0.2221954 -0.2562267 0.17587215 0.23866354
0003b0 7f 94 87 3e 40 b6 a6 be 72 04 8b 3e 06 b3 ff 3d
       0.2648048 -0.3256092 0.2715183 0.12485318
0003c0 e8 8c 90 3e 3d e9 a4 3e 47 d8 ac 3e aa c2 8c bd
       0.28232503 0.32209197 0.33758757 -0.06873067
0003d0 80 71 91 be a2 6e 00 3e b8 e5 01 be 77 78 a6 be
       -0.28406906 0.12542203 -0.12685287 -0.32513782
0003e0 aa c4 e0 3d 38 07 d3 bd 5e e1 5b 3c a2 38 45 bd
       0.10975011 -0.10304111 0.013420431 -0.048149712
0003f0 4e e9 7f 3b f6 93 60 3e 6a 91 ac bd d3 29 d4 3d
       0.0039048973 0.21931443 -0.08426173 0.1035954

node_emb.bias f4 [64]
000000 40 b8 63 3d 9a 50 06 bc 47 ea 46 3e 4b 1c 47 be
       0.055595636 -0.008197928 0.19425307 -0.19444387
000010 2d ef 0f 3e 6f 18 9b be 0c 0f 93 be 45 8f 34 3d
       0.14056082 -0.3029208 -0.28722417 0.044081945
000020 92 8b 16 bd c7 00 0c 3e 6a e6 18 be 64 97 84 3e
       -0.0367542 0.13672172 -0.14931646 0.25896752
000030 d4 7e 81 3e df 68 9b 3d a3 74 7d 3d cf 7a a2 3e
       0.25292075 0.07588362 0.06187881 0.3173432
000040 6e 26 3c 3e 15 39 c8 bc 69 38 56 3e 21 4f b7 3d
       0.18374035 -0.024441281 0.20919956 0.089506395
000050 fb 59 17 be 8c e3 a0 3e 31 8d b4 be 67 b2 76 be
       -0.14780419 0.31423604 -0.3526397 -0.24091493
000060 cd a7 87 be 1c 5f b1 be 25 aa 98 3e 34 a5 60 3b
       -0.2649521 -0.34642875 0.2981731 0.0034278156
000070 d5 e2 22 3e 78 4d 61 3e fa 41 b3 be bd 21 91 be
       0.15906842 0.22002208 -0.35011274 -0.28346053
000080 e5 58 6f 3e 93 5c 6d 3e 16 ef 35 be fa 7c cf 3d
       0.23373754 0.23179846 -0.17766985 0.10131259
000090 62 be 89 bd bc 57 1a 3b c0 71 83 3e 28 ab 61 be
       -0.06725766 0.002355083 0.25672722 -0.22037947
0000a0 19 4b d0 bd e7 ef 71 3e 7f dc f4 3d c3 e1 74 be
       -0.10170574 0.23626672 0.11956119 -0.23914246
0000b0 36 4b 3e bc 56 a8 61 bc ff a7 14 3e 3e f5 1b 3e
       -0.011614611 -0.013773045 0.1451721 0.15230271
0000c0 c1 2a 8d bd 23 be 81 be ee d9 88 be ab 4b b7 bd
       -0.0689292 -0.25340375 -0.26728767 -0.089499794
0000d0 ec 43 d7 bc 45 59 68 be bb ea ac 3e 03 0e 54 3e
       -0.026277505 -0.22690304 0.33772835 0.2070847
0000e0 c5 e2 78 be 67 fa 95 3e 12 ee 4b 3d f7 27 7b be
       -0.24305256 0.29292604 0.04978759 -0.24526964
0000f0 7a e4 13 be 3e 1a 91 3e fb b6 cf bd 73 5b 98 bc
       -0.14442626 0.28340334 -0.10142323 -0.018598294

edge_emb.weight f4 [64, 2]
000000 04 fd d5 be 87 4e be 3d d1 34 ab bc 76 c7 c5 be
       -0.41794598 0.09292322 -0.020899208 -0.3862874
000010 73 82 0b bf 71 67 f3 be ef ef 68 be e1 2b 19 bf
       -0.54495925 -0.47539857 -0.22747777 -0.5983258
000020 00 00 b8 be 06 8f 2c bf 7d 5e df 3e 92 df 18 bf
       -0.359375 -0.67405736 0.43626776 -0.5971614
000030 23 04 26 bf ee fb 26 3f 9c ab 8c 3e ca e1 e9 3d
       -0.6485006 0.65228164 0.27474678 0.11420019
000040 3c 38 25 3e f4 c6 8d 3d ea 99 31 3f 49 47 14 3f
       0.16134733 0.06922713 0.6937548 0.5792127
000050 c8 4c bb 3e 9e 96 ef 3e 74 56 71 3d 21 e8 f5 bd
       0.36582017 0.467946 0.05892034 -0.12007166
000060 e2 9b 22 bf 09 dd 50 3d 3b a6 ac 3e f3 4b 51 3e
       -0.6351911 0.050992046 0.33720574 0.20439129
000070 72 92 39 3e be cc 0e bf f1 ad 6b 3d 6b 02 df 3e
       0.1812227 -0.5578116 0.05753893 0.43556532
000080 63 2f 16 be 46 36 a2 3e f1 4a b1 bd 0b ca 32 3f
       -0.14666514 0.31682032 -0.08656872 0.69839543
000090 5d 9f 1d 3f 27 cf 55 be bd 09 a4 bd c1 5f 03 bf
       0.61571294 -0.20879804 -0.0800967 -0.51317984
0000a0 82 1f 0a bf cc b8 c0 be 5e 16 e6 3e 10 ce 09 bf
       -0.5395433 -0.3764099 0.4493894 -0.5383005
0000b0 59 fb c0 3d bb d6 e3 be f6 a1 08 be 27 93 1c 3f
       0.09422941 -0.44499764 -0.13343033 0.61162037
0000c0 71 cf a3 3e fa 42 bc bd ee f3 b0 be 4e 3f 01 bf
       0.31994203 -0.09192462 -0.34561104 -0.5048722
0000d0 b2 82 d7 be 7f 02 e9 3e f9 a9 ed bd 20 ac 1e bf
       -0.420919 0.45509717 -0.11604685 -0.6198139
0000e0 38 bd 91 bc 2c 9e 29 bf 47 6d b5 be be db dc 3c
       -0.017790422 -0.66256976 -0.35434934 0.02696025
0000f0 c8 d5 e2 3d 0b fd 43 be 13 a7 24 3f f1 a4 04 bd
       0.11075932 -0.19139497 0.64317435 -0.032383863
000100 b5 50 e3 be 33 46 af 3e c7 e7 a3 3e 53 d3 5e 3e
       -0.44397512 0.34233245 0.3201277 0.21760301
000110 d4 a7 00 3f c2 b3 0b bf 7c 72 f0 be a4 fe bb be
       0.50256085 -0.54571164 -0.46962345 -0.36717713
000120 a2 8a 9a 3e 6f bc 45 bd f8 5a d2 be 38 8d 24 3e
       0.30183893 -0.048275407 -0.4108503 0.16069496
000130 37 0f 85 3e 73 2a 18 bf 4b e1 d0 3c 9f f7 fe be
       0.2598817 -0.5943977 0.025498053 -0.49798295
000140 67 e7 c6 be 86 b6 50 be 1b 48 d2 3e f8 57 86 3e
       -0.3884842 -0.20382127 0.41070637 0.2623899
000150 1d cb e2 3e 9c e0 ed 3e ad 0f a4 3e c2 dd 83 be
       0.44295588 0.46460426 0.3204321 -0.25755125
000160 4f 12 70 3e 82 20 1e bf 3b 2c 38 be c1 99 1a bf
       0.23444484 -0.61768353 -0.17985623 -0.6039086
000170 bd a7 18 3d fc fe d6 be be 5f 0a 3f d3 7f fe 3e
       0.037269343 -0.41991413 0.5405234 0.49706897
000180 68 93 ac 3d 06 8c 1c bf 21 a5 99 be 7c 00 bd 3e
       0.08426553 -0.6115116 -0.30008796 0.36914432
000190 59 e3 0d bf 07 29 0a bf 98 a5 0c be a2 17 f6 3e
       -0.5542503 -0.5396885 -0.13735044 0.48064905
0001a0 7c 59 0a bf 9e 62 92 be a8 be 06 3f 24 6c 92 be
       -0.5404279 -0.28590864 0.5263467 -0.2859813
0001b0 f8 b7 33 bf 2b 25 b7 3e 81 36 01 be 31 5a 2e 3f
       -0.7020259 0.35770544 -0.12618448 0.6810637
0001c0 75 1e 26 3f 2a fc 00 3d 57 f9 b0 3e b2 f9 27 3f
       0.64890224 0.031490482 0.3456523 0.6561538
0001d0 33 be 18 be f8 b7 2a 3e 26 39 81 bd 9a f3 1a 3f
       -0.14916305 0.16671741 -0.06309728 0.60527956
0001e0 9a 5e 4b be 80 28 84 3d a3 c5 82 be 7f 18 0d bf
       -0.19860306 0.06453037 -0.2554141 -0.55115503
0001f0 f6 c9 2b bf 90 f8 70 bd 9e 70 0a bf 7a df 0a bf
       -0.6710504 -0.058830798 -0.5407809 -0.5424725

edge_emb.bias f4 [64]
000000 44 a4 24 3e 83 5f 33 3f 2e 26 8f be 4c f9 2c bf
       0.16078287 0.70067614 -0.27958816 -0.67567897
000010 5c 9a e9 3e c1 e0 85 3e aa 00 5f 3e 1d 0a a2 3e
       0.4562558 0.26148036 0.21777597 0.3164834
000020 64 21 3f be be 04 63 3e d4 74 31 3f 07 90 08 bf
       -0.18665081 0.22169778 0.6931889 -0.5334477
000030 e1 91 e9 be 86 e3 1f 3f 3c 03 ec bd ea 76 6d be
       -0.4561911 0.6245655 -0.115240544 -0.23189893
000040 dd e8 1d 3f ca c2 13 3f 6e 9c 53 bd 95 05 d0 3e
       0.61683446 0.577191 -0.051662855 0.4062926
000050 d7 64 2e 3f b8 da b0 3d 10 1c c8 be db 33 a5 3e
       0.6812262 0.08635467 -0.3908391 0.32266125
000060 d3 00 91 3d e2 07 09 3e b2 70 66 be d4 e0 a8 bd
       0.07080235 0.13381913 -0.22503927 -0.082460076
000070 f8 0c e7 bd e2 5c 77 3e 49 d7 6a 3d 5e 4d 20 3f
       -0.112817705 0.24156526 0.05733422 0.6261805
000080 42 df 97 3c 9a 52 d0 3e 8a d0 03 bf f1 79 01 bf
       0.018539075 0.4068802 -0.5149008 -0.5057669
000090 17 a1 95 be fc bd 2b 3f f0 12 31 be b1 99 43 be
       -0.29224464 0.6708677 -0.1729238 -0.19101597
0000a0 20 f3 b4 3e a1 47 88 3d c1 16 0a 3f 91 1a e4 3e
       0.3534174 0.06654287 0.5394097 0.4455152
0000b0 3e 57 5e be 86 9d 04 3f 66 6c d3 3e 56 77 c2 be
       -0.21712968 0.5180286 0.4129364 -0.3798167
0000c0 94 24 b6 3c fb cf 5c 3e 33 a6 e3 be 98 ca dc be
       0.022234239 0.21563713 -0.44462737 -0.43123317
0000d0 e6 fb d7 be f0 8a b8 3d 38 d4 14 bf 3b 88 18 bf
       -0.4218437 0.09010875 -0.5813632 -0.5958287
0000e0 59 af 8c 3e 32 d9 d1 3e 0e 81 68 be 41 fe bc be
       0.2747753 0.4098602 -0.2270548 -0.3691273
0000f0 62 96 ce be 85 07 30 bf f0 e5 d7 be e6 82 2d 3f
       -0.40349108 -0.68761474 -0.42167616 0.6777786

gat_layers.0.att_src f4 [1, 4, 16]
000000 b3 26 03 3e 60 e0 c0 3e f5 c1 20 be 1c 66 36 be
       0.12807731 0.37671185 -0.15698989 -0.17812389
000010 1a 96 c2 be f1 8a f3 3e 2f 0f d7 3e d1 72 01 3e
       -0.38005143 0.4756694 0.42003772 0.12641455
000020 1f 63 a3 3e 57 38 8c bd e8 ed 1d bc a0 dc ac be
       0.3191156 -0.068466835 -0.009639241 -0.33762074
000030 68 6a 4d be 9e f8 f8 bc 09 52 c3 be 8b cb b9 3e
       -0.20060122 -0.030391987 -0.38148525 0.36288103
000040 b7 cc 49 3e 9e 6f 61 be 9f 13 74 bd 2c 82 ba 3e
       0.19706999 -0.22015235 -0.059589025 0.36427438
000050 e8 77 8d bc 4d 13 8d 3e 09 f8 ae be 3f 1a 89 be
       -0.01726909 0.27553788 -0.3417361 -0.26777837
000060 e0 ac ff 3e c3 58 e6 be 6e 60 04 be b9 5d 1e 3e
       0.4993658 -0.44989595 -0.1292741 0.1546544
000070 e2 8e a6 3d aa 40 0b bf c5 2f 75 3d bb 4c b6 3d
       0.081327215 -0.54395545 0.05986001 0.08901354
000080 b0 16 cd 3e 2d b7 8e 3e 97 2e 1a 3e 49 96 8e 3e
       0.40056372 0.27874127 0.15056835 0.27849033
000090 97 9c f6 3e 04 d7 d4 be 2e 52 84 3e 87 9e 62 3b
       0.48166344 -0.41570294 0.25843948 0.0034579353
0000a0 e5 e9 8d 3e a5 eb 32 be a3 55 9f be 6b 24 71 3e
       0.2771751 -0.17472704 -0.31120023 0.23549049
0000b0 9c 76 95 3d 16 a4 ed be e8 3e a4 be d7 92 d0 3e
       0.072980136 -0.4641425 -0.32079244 0.4073703
0000c0 cc ca 85 3d 4d 8b 4d 3e 71 52 2a 3d 4e 7f c7 3e
       0.06532821 0.2007267 0.04158253 0.38964313
0000d0 ae 12 f8 3e f3 39 42 be 21 f9 51 be 77 61 bc 3c
       0.4845175 -0.18967418 -0.20505191 0.022995694
0000e0 d3 bb 93 be 3e 47 f1 be 6c 5b f8 3e 31 6a 1a bd
       -0.28854236 -0.47124666 0.4850725 -0.03769893
0000f0 e0 99 d2 be 07 d4 27 3e 08 09 cd 3d 30 b1 40 bd
       -0.41133022 0.16389476 0.10011488 -0.04704398

gat_layers.0.att_dst f4 [1, 4, 16]
000000 dc e7 81 3e 9e 21 c3 3e e2 d3 66 3e c0 f3 4c be
       0.25372207 0.38111585 0.22541764 -0.20014858
000010 e8 4b ff 3e 03 4e a1 bb b8 09 b5 be ec 37 7a 3e
       0.498626 -0.00492263 -0.35358977 0.24435395
000020 58 24 7a 3d 3e f1 10 be 30 aa 92 be 8e b1 ae bc
       0.061069816 -0.14154527 -0.28645468 -0.021324899
000030 98 55 74 3e 86 b3 d3 3e f6 97 48 be 80 01 71 3e
       0.23860776 0.41347903 -0.19589218 0.23535728
000040 a1 a9 3a 3e 03 ac 9d be 84 ca 40 be 34 bc 05 3f
       0.18228771 -0.30795297 -0.18827254 0.522403
000050 5e 62 95 3e e4 72 0a 3f 03 c5 11 be d5 de 0a be
       0.2917661 0.5408156 -0.1423531 -0.13561566
000060 40 bd ff bd 40 b5 82 be ce 8d 99 be 4d ad 45 be
       -0.124872684 -0.25528908 -0.29991 -0.1930439
000070 54 23 24 3e 38 8d ae 3e e4 ee d2 3e 96 08 51 ba
       0.16029102 0.34092116 0.41197884 -0.00079739967
000080 6f dc 8a 3c 40 9a f4 be 2b 6a 88 3e eb fe cc be
       0.016950814 -0.47773933 0.266435 -0.40038237
000090 ef 91 aa bd 23 c2 02 3f 35 1e 8e be 1b 0b b6 3d
       -0.08328616 0.5107748 -0.2775742 0.08888837
0000a0 cf 50 0b 3f b5 70 8a 3e 09 47 6f be 2a 0c 4f 3e
       0.5442018 0.27039114 -0.23366942 0.20219484
0000b0 ae 6c 51 be 7f 34 9e bd f5 13 3e 3e f4 ae ad be
       -0.20451614 -0.077248566 0.185623 -0.3392254
0000c0 88 ff db 3d e0 d9 a8 3e e8 3c ae be 02 c4 fd 3e
       0.10742098 0.32978725 -0.34030843 0.49563605
0000d0 74 88 62 be 18 2f d0 be e9 f5 e1 be 17 55 c2 be
       -0.22122365 -0.4066093 -0.44132927 -0.37955543
0000e0 d2 3e 2d be bc d7 bf be 5f 79 e4 be 8b de be be
       -0.16918495 -0.3746928 -0.4462385 -0.37279162
0000f0 18 b1 c0 3e e0 4b 5b 3d 68 a4 5d be 0a 0d fe be
       0.37635112 0.053539157 -0.21644747 -0.49619323

gat_layers.0.att_edge f4 [1, 4, 16]
000000 9d f9 35 bd 1b c6 b6 be 83 bc 00 bd b8 23 06 be
       -0.044427503 -0.35698017 -0.03142978 -0.13099563
000010 a7 2c 9e be 0f 29 04 bf 82 02 17 3e f9 51 34 3e
       -0.30893442 -0.5162515 0.1474705 0.17609395
000020 49 06 1b bd 8e 44 bd bd 03 01 c9 3e d6 62 c7 3e
       -0.03784779 -0.092415914 0.39258584 0.38942593
000030 fc 51 f6 be 80 2d e9 3e 3e 46 70 3e 26 de c6 be
       -0.48109424 0.45542526 0.23464295 -0.3884136
000040 af 22 cd 3b c8 a3 d7 bd 3f 4d d8 3e 6a 39 da 3e
       0.006260238 -0.10529286 0.42246434 0.42621928
000050 e6 dd de 3e 0e 0d e1 be eb ef e9 3d 01 22 5f bd
       0.4352867 -0.43955272 0.11422714 -0.054475788
000060 3e 7e 05 3d 48 fe bb bd 95 c0 fa 3e e0 55 4f 3e
       0.032591097 -0.0917936 0.48975053 0.20247602
000070 e4 b7 d3 3d 91 7f b7 bd 51 f5 06 3f 1f ff e9 be
       0.10337809 -0.08959878 0.52718073 -0.45702454
000080 43 17 87 be 2d 20 0a 3e aa 82 0b be f6 70 f8 3e
       -0.26384935 0.13488837 -0.13624063 0.48523682
000090 bd 67 88 bc bc ea 29 3e 45 ca 8b 3e 51 9b 4a be
       -0.016651029 0.1659345 0.27302757 -0.19785811
0000a0 f2 7f 1b bd ef b0 72 3d 67 3d ca be 19 32 50 3e
       -0.037963815 0.05925077 -0.3949997 0.2033161
0000b0 cb da a4 3e cb a8 c7 be e6 d1 9a be 79 78 3b 3e
       0.32198176 -0.38995966 -0.30238265 0.18307675
0000c0 63 d5 b2 be ae 61 08 3f 22 87 a6 bd f5 d3 2f 3e
       -0.34928426 0.5327405 -0.08131243 0.17170699
0000d0 58 da a4 3e 73 b4 f9 3e 5b b8 90 be 18 05 e4 3e
       0.32197833 0.48770484 -0.28265652 0.44535136
0000e0 8c 58 f7 3e 8a c0 0e 3e ae 4a 08 be 04 a5 d0 bd
       0.48309743 0.13940635 -0.13309738 -0.10187724
0000f0 d0 49 b9 3e b8 46 9c 3b 49 02 e1 be ea 52 4a bd
       0.36189127 0.0047691725 -0.43947056 -0.04939548

gat_layers.0.bias f4 [64]
000000 4e 9f 35 bb 47 62 3b bb da e8 56 3b 5b 16 36 bb
       -0.0027713361 -0.0028592513 0.00327926 -0.002778432
000010 6c 7b 5f bb fd a5 5f bb cd 7f 84 3b 9f 8f 5f bb
       -0.0034100665 -0.0034126036 0.0040435554 -0.0034112704
000020 94 b2 7e 3b 74 13 54 bb 35 59 59 bb e2 b4 7f 3b
       0.0038863765 -0.0032360228 -0.0033164744 0.0039017727
000030 67 f6 57 bb 0f a3 57 bb 96 f9 65 bb 06 f3 59 bb
       -0.0032953264 -0.0032903587 -0.0035091392 -0.0033256426
000040 cc 3e 5a bb 9d d6 84 3b 76 5f 5b bb 0c 1a 5c bb
       -0.003330159 0.004053904 -0.0033473647 -0.003358486
000050 89 e1 43 bb 28 57 5e bb af 0f 5d bb e4 be 46 3b
       -0.0029889068 -0.003392646 -0.0033731272 0.0030326182
000060 16 fc 57 bb 24 ad 7f 3b 74 9f 58 bb 3b 6a ca 3a
       -0.0032956651 0.0039013112 -0.0033054026 0.0015443036
000070 38 cc 72 3b ae 45 3b bb 15 35 5f bb 2e ac 5b 3b
       0.0037047993 -0.0028575468 -0.003405874 0.0033519375
000080 8e 11 72 3b 48 8c b8 ba fc 37 31 3b b7 80 5d bb
       0.0036936733 -0.0014079893 0.0027041426 -0.0033798644
000090 53 36 88 3b da b4 16 3b db f3 62 bb 43 f6 60 bb
       0.0041568666 0.002299598 -0.0034630212 -0.003432647
0000a0 31 b8 5d bb 29 26 5a bb 7c 4e 63 bb 8e 9a 59 bb
       -0.003383171 -0.0033286905 -0.0034684232 -0.0033203694
0000b0 4b d9 5a bb f8 7c 5b bb 41 68 8b 3b 16 96 61 bb
       -0.0033393677 -0.0033491235 0.0042543714 -0.0034421734
0000c0 7e 13 26 bb f4 1e 5b bb 00 86 5e bb b3 b9 87 39
       -0.0025341208 -0.0033435198 -0.0033954382 0.00025887563
0000d0 e8 47 55 3b 70 42 3e 3b 0c ba 58 bb 8e cf 5c bb
       0.003254408 0.00290313 -0.0033069877 -0.0033693048
0000e0 43 b5 41 bb 59 38 5f bb 23 f7 48 3b a9 6a 58 bb
       -0.0029557503 -0.0034060685 0.0030664883 -0.0033022559
0000f0 30 62 58 bb 7e 7e 58 bb e9 30 62 3b a1 f0 59 bb
       -0.0033017509 -0.003303438 0.0034514016 -0.0033254998

gat_layers.0.lin.weight f4 [64, 64]
000000 2b 1b 1a be 81 4c fe 3d 13 0a 28 be 82 8d cd 3c
       -0.15049426 0.12416936 -0.16410093 0.02509189
000010 cc 32 c7 bd cd 36 7e 3c 0a 7a 9a 3c dc 8e e5 3d
       -0.097264856 0.015515995 0.01885702 0.11208889
000020 25 04 37 3d 45 c6 cf bd 0a 25 61 3d f0 9c 17 3e
       0.044681687 -0.10145239 0.054966964 0.1480596
000030 9b 53 e1 bd 06 02 c0 bd d2 75 f3 bd cb 87 31 3e
       -0.110022746 -0.09375386 -0.11887707 0.17336957
000040 f2 5e c6 3d 95 e7 50 be 3b 52 0a 3d 5d cf ac bd
       0.09686078 -0.20400842 0.033769827 -0.08437989
000050 51 a3 d2 bd 55 ed a9 bd cd 75 b8 bd 3e 63 e2 bc
       -0.102850564 -0.082972206 -0.09006844 -0.027635213
000060 a2 be c7 bd b7 f3 57 be ca b1 57 bd 1d 1e 14 3e
       -0.09753157 -0.21089064 -0.052659787 0.14464612
000070 a8 85 05 bd 42 ac 18 3e f4 8b fe 3d 84 5d 3a 3e
       -0.032598168 0.14909461 0.12429038 0.18199736
000080 fa 32 65 3c 75 0a 5b bd 3c 3d ea 3d 5a 78 a7 3d
       0.013989205 -0.05347677 0.11437461 0.08177252
000090 14 b5 07 bb 55 82 29 3e c7 1c 3d 3d 90 dc 47 be
       -0.0020707296 0.16553624 0.046170022 -0.19517732
0000a0 46 3a c9 bd 6e 3e 00 be 7e a0 b9 3d 6b 82 c8 bd
       -0.09825568 -0.12523815 0.090638146 -0.097905
0000b0 3d 72 ff 3d 8b ff d0 bd 88 39 07 3e 3b ca 15 3e
       0.12472961 -0.10204991 0.1320554 0.14627926
0000c0 7a 51 a7 3d bf 8a 08 3e 7f c3 2c 3e 70 f9 41 3e
       0.08169837 0.13334177 0.16871451 0.18942809
0000d0 bf 20 42 be ea 49 af 3d a2 54 29 bc 35 b6 86 3d
       -0.18957804 0.0855902 -0.010335119 0.06577722
0000e0 8e 84 22 3e 2e 56 09 3c d6 f5 00 be 2d 52 d7 3b
       0.15870878 0.008382363 -0.12593779 0.0065710754
0000f0 68 09 d8 bd a8 60 8f bc 2d 87 02 3e 45 3a 47 3e
       -0.10548669 -0.017502144 0.12746878 0.19455822
000100 cf c1 21 bb 4c 6e 4b 3d 04 fb 17 3e 4c 07 06 bd
       -0.002468217 0.049665734 0.14841849 -0.032721803
000110 10 04 59 be 26 6b 07 3e de 74 d4 bc c4 9d 2e be
       -0.21192956 0.13224468 -0.025934633 -0.1705237
000120 88 08 68 bd 59 1f d2 3c 45 3c 15 3e c7 17 56 3d
       -0.05664876 0.025649713 0.14573772 0.05226877
000130 d7 f3 41 bd 54 cb ed bb a6 cf 0c bc db 89 1d 3e
       -0.047351684 -0.0072569046 -0.008594429 0.15384619
000140 94 21 e1 bd 9c 7a 5a bb 43 f1 a7 3d e3 d1 4c be
       -0.10992733 -0.003333724 0.08200314 -0.2000194
000150 e1 bc f2 bd 93 65 31 be 8b 2e 1d be a6 4b 4a 3e
       -0.11852432 -0.17323904 -0.15349786 0.1975542
000160 42 1f 16 3d e9 88 f8 3d 17 f8 09 be 32 e1 b9 3c
       0.036650904 0.121354885 -0.13473545 0.02269039
000170 a3 f0 43 be ff b8 3b be b4 b6 0e 3e 33 9c 77 bd
       -0.19134764 -0.18332289 0.13936883 -0.060451698
000180 25 76 cc bd e5 b7 56 be 87 fe 27 bd 73 fe 02 be
       -0.09983472 -0.20968588 -0.04101422 -0.12792377
000190 46 6b 01 be 90 1b bb bd 4b be 3b be 19 7e 9d bd
       -0.12638578 -0.091361165 -0.1833431 -0.07690067
0001a0 c4 ec 41 be d9 78 fe bd aa 60 11 bd 00 5e 6a bd
       -0.18937975 -0.124253936 -0.035492577 -0.05721855
0001b0 02 9c ea 3d 9d 94 3d 3e 05 91 33 3e f3 4e 37 3d
       0.114555374 0.18513723 0.1753579 0.044753026
0001c0 ff 5d 25 be 22 8a 2c 3e 5d 51 b4 bd 27 f9 15 bd
       -0.16149138 0.16849568 -0.08804581 -0.036614563
0001d0 b4 40 43 3e dd ef 23 be 44 36 d1 bd ce c8 82 3d
       0.19067651 -0.1600947 -0.102154285 0.06385957
0001e0 cc 87 04 bb e2 e1 01 bd 6d a1 50 3e 47 ad 19 be
       -0.0020222543 -0.03170956 0.20374079 -0.15007506
0001f0 21 75 18 bd 9b 67 5d 3d c8 88 a1 bd 70 8e 23 3e
       -0.037221078 0.054053884 -0.07887417 0.15972304
000200 61 18 81 bd 1c af 5e 3e 95 9b c2 bd 52 8e 5e be
       -0.06303478 0.21746486 -0.09502331 -0.21733978
000210 97 fe 17 3d 78 ad 1e 3e ad d7 d7 bd ae ca 04 3e
       0.03710803 0.1549586 -0.10539184 0.12967941
000220 d2 5c 2e be 50 f3 2e 3e 03 fb 15 be bf 41 22 3e
       -0.17027596 0.17085004 -0.14646535 0.15845393
000230 f8 13 7d 3c 6d 34 a4 bd 37 5e 3d be e6 33 3a be
       0.015446655 -0.08017812 -0.18492971 -0.1818386
000240 b8 2f 09 3e a3 3f 15 bc a9 2d 9f 3d f0 0b b7 bc
       0.1339711 -0.00910941 0.07772381 -0.02234456
000250 b1 9d a8 3c bf 11 43 be f4 8d b5 3d e6 aa bc 3d
       0.020583006 -0.19049738 0.08864966 0.09212284
000260 6c a1 92 bd 20 45 dd bd 82 23 de bd 6d 40 1d 3e
       -0.07159695 -0.108042 -0.10846616 0.15356608
000270 f3 65 29 3d ee 11 0c be fd 12 9c 3d f1 f7 1f be
       0.041356992 -0.13678715 0.07620809 -0.15621926
000280 27 5e 14 bd 85 18 3c 3d 33 ff 58 3e fa 8c 2a be
       -0.036222603 0.04592182 0.21191101 -0.16655341
000290 2c 51 44 be c6 61 c9 bd a6 f1 0d 3e e3 6f f8 3d
       -0.1917159 -0.09833102 0.13861713 0.12130716
0002a0 12 86 fa 3d 06 3a 3d 3d a3 d6 52 be de b6 c1 bd
       0.12232603 0.046197914 -0.2058969 -0.09458707
0002b0 6a ea 3b bd dd 5e 42 be 31 9f 5f 3d 25 27 15 3e
       -0.04587785 -0.189815 0.054595176 0.14565714
0002c0 46 36 73 3c d3 6a 42 3e de 27 f8 bc 8d 4f 20 3e
       0.014844483 0.18986063 -0.030292448 0.15655346
0002d0 c2 d3 5d be 52 79 bf bd 97 09 de bc f1 97 51 3d
       -0.2166281 -0.09349312 -0.027104182 0.051170293
0002e0 ad d5 41 3e 4b 7e a3 3d 78 5a 19 3e 70 77 58 3e
       0.18929167 0.07983073 0.14975917 0.21139312
0002f0 6c d4 31 3d 58 bf 29 3d b4 58 a8 bd 20 0c 6e 3c
       0.043415472 0.041442245 -0.08220044 0.014529258
000300 d7 f1 2c 3e b1 f9 02 3e d0 59 31 be ef 05 d3 bd
       0.1688913 0.12790562 -0.17319417 -0.10303866
000310 b7 37 04 3e 10 62 a6 bb 09 43 4a 3e f3 f7 23 3d
       0.12911879 -0.005077608 0.19752134 0.040031385
000320 4d fa 2f 3e 51 1c 2e be 87 da e8 bd 13 3c d1 3d
       0.17185326 -0.1700299 -0.11369806 0.102165364
000330 af 5e 5a bd 8b fa 55 3e b5 1e 5c 3d f6 21 31 bd
       -0.053312954 0.20896356 0.053740222 -0.04324528
000340 19 f2 58 3e f4 29 2e 3e b1 8d 10 3e 2b 7f 42 3e
       0.21186103 0.17008191 0.14116551 0.18993823
000350 59 de fc 3d c5 bb 0d be a9 1c 22 3e 6b 14 21 be
       0.12347097 -0.1384116 0.15831245 -0.15730445
000360 83 9d 25 bd 74 5d 19 be 62 37 ee 3d 62 7d 3a bc
       -0.040433418 -0.14977056 0.11631657 -0.011382433
000370 55 10 b4 bc da 6d 15 3e 27 ed fc bb fe 33 8f bd
       -0.021980444 0.14592686 -0.0077187004 -0.069923386
000380 02 dd 58 3d ad 10 29 be a4 76 3d bd 61 fc 11 be
       0.052945144 -0.16510268 -0.046255723 -0.14256431
000390 cd b4 d6 bd ba f5 ad 3c 25 79 3c bb c3 f5 0e be
       -0.10483704 0.021235336 -0.0028758731 -0.13960938
0003a0 2e 6f 0e 3e 03 43 25 be b9 12 26 3e 93 0b 0b be
       0.13909599 -0.16138844 0.1621808 -0.13578634
0003b0 e1 f8 01 3d 51 68 cc 3d 57 80 00 bd 0c 6e 58 be
       0.03173149 0.09980834 -0.031372394 -0.2113573
0003c0 b1 e2 0b 3e 5f 5a a2 3a 28 61 4c 3e 88 6e 5d 3d
       0.13660695 0.0012386552 0.19958937 0.05406049
0003d0 a6 b2 0c be d9 a9 28 3e be 08 82 3d f4 98 89 3d
       -0.13740024 0.16471042 0.06349324 0.067186266
0003e0 61 03 c3 bd 72 ed bd bd 90 a1 97 bd a5 6b 25 be
       -0.09522129 -0.09273805 -0.074038625 -0.16154344
0003f0 1b 44 05 be f6 6e bd bb 70 08 eb 3a bf eb 6a 3d
       -0.13014261 -0.00578105 0.0017931592 0.05735373

gat_layers.0.lin_edge.weight f4 [64, 64]
000000 05 3b 26 3e c7 a2 64 3c 7c f1 a3 bd f2 4b 56 3e
       0.16233452 0.013954825 -0.08005044 0.20927408
000010 0a a5 5b be 40 d9 41 3e bd 62 12 be da db 3f 3c
       -0.21449676 0.1893053 -0.14295478 0.011710132
000020 55 3c 3d bd c0 7c 36 3e 62 a3 20 be c3 08 db 3d
       -0.046200115 0.17821026 -0.15687326 0.106950305
000030 7e 80 54 3e 1d 42 17 3e 3a 55 ee bd c8 d7 7a bd
       0.20752141 0.14771314 -0.116373494 -0.06124094
000040 8c 7f 5a be 38 68 05 3c 77 a8 32 bd ef 79 d8 bd
       -0.21337718 0.0081425235 -0.04361769 -0.10570132
000050 86 71 42 bd 7b 00 19 3e 37 b0 0d bd 93 f7 0e 3d
       -0.047471546 0.1494159 -0.03459188 0.034904074
000060 08 b8 38 3e e3 27 2a be fb bf d3 3d dc a9 20 3d
       0.18038952 -0.16616778 0.10339352 0.03922449
000070 76 bf 92 3c b4 66 01 3c 5c 04 0e 3e b2 1e 04 bd
       0.017913561 0.0078980215 0.1386885 -0.032255836
000080 4e 47 59 be b7 e9 12 be 83 62 4c be 31 9b 11 3e
       -0.21218607 -0.14346968 -0.19959454 0.14219357
000090 59 13 d9 bd a6 bb 51 3e 94 73 b5 bd ef 44 5e bd
       -0.105993934 0.20481738 -0.088599354 -0.05426496
0000a0 07 00 36 3e 7e f3 53 3e 04 79 a0 bd 5e e1 54 3e
       0.17773448 0.20698354 -0.07835582 0.20789096
0000b0 ee 1f d9 bd aa 1e 7a 3d a3 36 c9 bc 04 d4 29 bc
       -0.10601793 0.0610644 -0.024562186 -0.01036549
0000c0 6d b3 2a bd 80 f5 32 bd 99 48 1c 3e de 67 44 bd
       -0.04167502 -0.04369116 0.15262069 -0.047950618
0000d0 e5 a9 4f 3e 67 da 44 3d 18 56 dc bc 58 41 a2 3c
       0.20279653 0.048059847 -0.026896521 0.019806549
0000e0 54 60 23 bd 26 a4 b9 3d 48 9b 24 bc 48 57 a6 3d
       -0.039886788 0.09064512 -0.010046788 0.08122116
0000f0 56 40 49 be 8f 00 d4 3d a9 33 13 be 1c 13 fb 3d
       -0.19653448 0.10351669 -0.14375176 0.12259504
000100 b1 8e dd 3d 02 23 33 3e c3 db 65 3c 10 90 b9 3c
       0.10818232 0.17493823 0.014029446 0.022651702
000110 b6 2f 3a be ae 65 04 bc c0 c9 c8 bd 85 93 0f 3e
       -0.18182263 -0.008080883 -0.09804106 0.14021118
000120 04 40 8c 3c 5f c1 c9 bd 0b 7d 14 be 8e 8c 39 bd
       0.017120369 -0.09851336 -0.14500825 -0.04530006
000130 40 a8 20 be 72 b6 f6 bd 0c df b9 3b 53 64 d6 3d
       -0.15689182 -0.120465174 0.005672341 0.10468354
000140 12 96 a6 3c ec aa a9 3d 3b c1 43 be 92 17 52 be
       0.020335231 0.08284554 -0.1911668 -0.20516804
000150 84 16 b3 3b 1a e8 21 be 86 19 32 3e 86 9b cd 3d
       0.0054653306 -0.15811196 0.17392549 0.10039429
000160 3b 81 49 3d 52 1c e6 3d 0f d7 7b bd 0c 47 a6 bd
       0.04919551 0.112358704 -0.061484393 -0.0811902
000170 5e 8e 1f bc 28 aa 11 3d 91 30 80 3d 1f e0 15 bd
       -0.009738533 0.035562664 0.06259263 -0.03659069
000180 9b f0 2b 3d 6a e8 ff 3d 91 3c 24 be c3 d4 dd bd
       0.041977506 0.12495501 -0.16038729 -0.10831597
000190 34 fa b0 3d cd 62 d0 bd 74 c5 07 3d b9 ca ed 3d
       0.086414725 -0.10175095 0.03314729 0.11610932
0001a0 10 16 0e 3e e5 de 4b be ca 51 ba 3d 93 43 5b 3e
       0.13875604 -0.19909246 0.09097631 0.21412496
0001b0 b3 ef 61 bd 19 62 8d 3d d5 3d 27 be 82 48 ee bd
       -0.055160236 0.06903476 -0.16332181 -0.116349235
0001c0 89 bb e0 3d c2 4c 54 bd 89 90 92 bd 24 b4 0e 3d
       0.109732695 -0.051831014 -0.07156474 0.034839764
0001d0 f0 1f e4 bd 61 97 d2 3c 2e 25 5e 3d 47 cb 38 be
       -0.11138904 0.025706949 0.054234676 -0.18046294
0001e0 84 c8 b6 bd c5 f3 2a be 9e b2 47 bd de 8d 9e 3d
       -0.08924964 -0.16694553 -0.048754327 0.07741903
0001f0 09 0c 42 bc 6b df b0 3c 7d 54 11 be 2a 94 47 3e
       -0.01184369 0.021590909 -0.14192386 0.19490114
000200 35 a8 21 3e 0f d3 24 3e f9 42 78 bc 57 31 22 3e
       0.15786822 0.16096137 -0.015152686 0.15839134
000210 fe c3 23 3e 11 27 a4 bd 09 54 8b bd 15 da 33 3e
       0.15992734 -0.08015264 -0.06803138 0.1756366
000220 e0 d1 09 3e 38 7e 5a 3e f6 c3 44 be ab 8b 36 be
       0.13458967 0.21337211 -0.19215378 -0.17826717
000230 f7 61 ad bd f4 f9 10 be c3 32 3d 3d d9 14 93 bd
       -0.08465951 -0.1415785 0.04619099 -0.07181711
000240 c1 82 bc bc d3 8e 1d 3e 48 8d 23 be f6 e1 cc bd
       -0.023011567 0.15386514 -0.15971863 -0.10004036
000250 d5 b4 e4 3d b8 c4 11 be a8 d7 07 3e 27 c8 5b bd
       0.111673035 -0.14235198 0.1326586 -0.053657677
000260 73 be 47 3b 93 95 fb bd 97 cd 9a bd 23 d9 db bd
       0.0030478507 -0.122843884 -0.075587444 -0.10734775
000270 39 f9 01 be 94 08 c2 bc c6 7d c9 3d 98 0d b1 3c
       -0.12692727 -0.023685731 0.098384425 0.021612927
000280 6b 90 38 be bd 73 cd 3d 2e d9 1a be cf 52 25 be
       -0.18023841 0.10031841 -0.1512191 -0.1614487
000290 a3 86 4a be 6a 65 a1 3d ab 0e bd 3d 0a ca bd 3b
       -0.19777922 0.07880671 0.09231313 0.005791907
0002a0 0f c3 26 be 48 3a 0f 3e 39 cf 18 bc cd 1a ca bd
       -0.16285346 0.13987076 -0.0093267495 -0.09868393
0002b0 b8 39 28 3e 5e 89 a3 bc 74 f4 5c be 06 af 5b be
       0.16428268 -0.019962963 -0.21577626 -0.21453485
0002c0 3c 0d 51 be 13 49 aa 3d 3e 67 5a 3e e9 c9 ed bd
       -0.20415205 0.08314719 0.21328446 -0.11610777
0002d0 6d 80 4d bd 2b 43 34 3e b4 d4 93 bd 03 50 cf 3c
       -0.050171304 0.17603748 -0.07218304 0.025306707
0002e0 d7 10 61 3d 74 a4 3e be cf 9f a9 3d 50 21 ad 3d
       0.0549477 -0.18617421 0.08282434 0.084536195
0002f0 ee a7 4b 3d 79 aa 1e 3e 7b ad 18 3d 0a cb d8 bd
       0.049720697 0.15494718 0.03727482 -0.10585602
000300 ea 3f f6 bd b4 ff 30 3e 2f a3 54 be 3b b9 0f 3e
       -0.120239094 0.17285043 -0.20765375 0.14035504
000310 59 06 0f 3e 3c 2f c6 bc 52 b6 ce bd 12 75 42 bd
       0.13967265 -0.024192445 -0.100933686 -0.04747493
000320 7a f1 d5 bd a3 a6 47 3d 52 b9 27 3e 4f 0d b8 3d
       -0.104464486 0.0487429 0.16379288 0.089869134
000330 be cc 7b 3d f4 45 51 3e a9 56 e0 3d 96 ca 07 be
       0.061474554 0.20436841 0.10954029 -0.13260874
000340 10 06 3a 3e 06 fc 24 3d cc 9f 9f bd 43 96 08 be
       0.18166375 0.04027941 -0.07794151 -0.1333857
000350 52 e9 93 3d c2 4c 8f 3d c7 a5 14 be fc bb ba bd
       0.07222237 0.06997062 -0.14516364 -0.091178864
000360 17 45 2e 3e ae 32 41 ba c6 2d cd 3c 8c 04 fd 3d
       0.17018543 -0.00073699176 0.02504624 0.12354383
000370 cb 53 ff bb f1 8c 71 3c de 98 1e 3e 65 91 19 bd
       -0.0077919713 0.014743076 0.15488002 -0.037492175
000380 5f 32 38 3e 48 58 26 be 8c af 83 3d ba aa 42 be
       0.17987965 -0.16244614 0.06429967 -0.1901044
000390 88 4f 4e be 8e a6 43 be 8c 09 39 3e 4f 6b 41 bd
       -0.20147526 -0.19106504 0.18070048 -0.047221478
0003a0 70 b5 19 be 65 01 54 3c 02 d2 c7 3d ab 36 6c bd
       -0.15010619 0.012939786 0.09756853 -0.057669323
0003b0 aa 58 3a 3d 3b 27 84 3d 6a 3d b4 3d 5b 44 e6 3c
       0.045494713 0.06452795 0.08800776 0.028108766
0003c0 65 7c e0 bd 35 b4 b6 bd b1 e9 e4 bd 92 11 c0 bd
       -0.109612264 -0.089210905 -0.111773856 -0.09378351
0003d0 ba 9a fb bc 40 77 c8 bc 32 dd 52 3e 75 71 55 be
       -0.030713428 -0.024470925 0.20592192 -0.20844062
0003e0 b5 e2 a8 3c f9 40 cd 3d 08 d4 39 3e 4c 7a ae 3d
       0.020615915 0.10022158 0.1814729 0.0851942
0003f0 26 e0 0d be 7a 6d ce 3d 4b da a7 bc e7 ef 8b bd
       -0.13855037 0.10079475 -0.020489832 -0.06832867

gat_layers.1.att_src f4 [1, 4, 16]
000000 e5 60 92 be 01 55 27 3e fd d5 01 3f 93 93 b8 3e
       -0.2858955 0.1634102 0.50717145 0.3605009
000010 5f 00 bb 3e 09 99 86 be 3d 40 f6 bd 0e 1c 66 be
       0.3652372 -0.26288632 -0.12023971 -0.2247164
000020 4f 81 1f be 11 04 a3 be 1e a9 82 be a6 13 d9 3e
       -0.15576671 -0.3183904 -0.2551965 0.42397803
000030 66 70 ae be c9 42 07 bf db c9 a8 3e 08 49 e0 3e
       -0.34070128 -0.5283628 0.32966504 0.43805718
000040 6f 56 96 3e 47 9b f5 3c c3 38 fa 3e 48 5d 77 be
       0.2936282 0.029981269 0.4887143 -0.24156678
000050 53 33 bc 3e 59 86 bb 3c 2a 48 af 3e 59 56 05 bf
       0.36757907 0.02289121 0.34234744 -0.5208488
000060 f7 1c 06 be 75 08 ae 3e 0a e4 f7 3c ce 99 8f 3e
       -0.13096987 0.33990827 0.030260105 0.2804703
000070 82 a3 35 3e b8 74 6c 3d 60 c7 5d be 0e c5 01 3e
       0.17738155 0.0577285 -0.21658087 0.12672827
000080 d1 15 9f 3e a3 ed 02 bf 88 4d ec be 59 14 f7 3e
       0.31071332 -0.51143855 -0.46152902 0.48257712
000090 7d 48 07 be 9f 96 f5 3e 47 42 a9 be 38 08 ba 3e
       -0.13211246 0.47966477 -0.33058378 0.36334395
0000a0 fe a2 dc be 04 f6 25 be c5 8c 65 be 7b 4f e1 bb
       -0.43093103 -0.16207129 -0.2241698 -0.00687593
0000b0 9e 59 28 3e cf b6 08 bf 90 72 01 3f 78 ba d2 3e
       0.16440436 -0.53403944 0.50565434 0.4115789
0000c0 7f c9 3b 3d 1e 1a 01 bf 26 7e f0 be b2 0d 7e be
       0.04584646 -0.50430477 -0.46971244 -0.24809912
0000d0 95 bb 07 be 6b fb 8d bd ad 9f 93 3e 30 33 9e be
       -0.1325515 -0.0693272 0.2883276 -0.30898428
0000e0 c6 03 2d be 78 e3 52 3e 08 29 af 3e 40 85 97 be
       -0.1689597 0.20594585 0.34210992 -0.2959385
0000f0 79 76 92 be d2 d7 8d bd f2 46 03 3e 5f 7d a6 be
       -0.28606012 -0.0692593 0.12820032 -0.32517526

gat_layers.1.att_dst f4 [1, 4, 16]
000000 71 bd c2 be 9e a0 e7 3d 89 a0 f8 be 19 a5 18 be
       -0.38035157 0.11309932 -0.4855998 -0.1490673
000010 32 6f 96 be e4 48 0a 3f b9 ad bc be f9 20 e2 3e
       -0.2938171 0.5401747 -0.3685129 0.4416578
000020 1e ff e7 3d 9d 18 aa bc 18 36 b6 bb cb f2 e1 bb
       0.113279566 -0.02076369 -0.0055606477 -0.0068953983
000030 8f 4e ea be 44 a1 29 3e 89 18 cc be 1b 67 e1 3c
       -0.4576306 0.16565424 -0.3986247 0.027514985
000040 92 4d cd 3d 83 bc 2c 3e 3b 7c ff 3e 44 5f 8d be
       0.10024561 0.16868787 0.49899468 -0.27611744
000050 38 41 c0 3e 8a f6 ea be 18 07 94 3e fa e3 14 3e
       0.37549758 -0.4589122 0.28911662 0.14540091
000060 7e 03 a8 be f9 5d b5 3d 32 81 e2 3e 52 58 ce 3e
       -0.32815164 0.088558145 0.44239193 0.40301758
000070 99 ca d3 3d 00 c6 62 3e 83 9c 2b be 04 d9 6d 3d
       0.10341377 0.22145844 -0.16758923 0.05806829
000080 3a 97 b2 bb 42 47 9f 3e 49 37 08 bf 95 b4 c2 be
       -0.0054501565 0.31109053 -0.5320936 -0.38028398
000090 64 0b a0 3e e8 b8 c3 be 78 7e d0 3e 41 26 55 bd
       0.3125869 -0.3822701 0.40721488 -0.052038435
0000a0 76 ee e6 3e de 53 75 3e aa df 2c be e5 24 06 bf
       0.45103806 0.23957774 -0.16882196 -0.52400047
0000b0 1c e2 57 3e f6 92 a6 be ea 15 2c be 1a e2 7c 3c
       0.21082348 -0.32533997 -0.16805235 0.015434766
0000c0 85 06 b4 bd 75 e2 e9 be 5b be 50 3e 44 24 04 3f
       -0.08790306 -0.45680586 0.20385115 0.51617837
0000d0 f0 b7 ed be 14 3f a6 be a5 ce 51 be 11 45 6d be
       -0.46429396 -0.3247 -0.20488985 -0.23170878
0000e0 49 f8 98 3e 20 dd 08 3f 62 a6 f5 be df 90 75 3e
       0.29876927 0.5346241 -0.47978503 0.23981045
0000f0 4f e4 b5 3d 45 dc 32 be 3d 66 d1 be bc 04 03 bf
       0.08881437 -0.17466839 -0.40898314 -0.511791

gat_layers.1.att_edge f4 [1, 4, 16]
000000 2b d1 5b be aa 46 da be e1 f9 d5 bd be d9 c1 be
       -0.2146651 -0.42632037 -0.10448051 -0.37861437
000010 bf 44 99 bc c1 9b 90 3d ef 74 2a be 81 1f ab 3e
       -0.018709539 0.07060958 -0.16646169 0.33422473
000020 da 71 23 39 b8 6c 40 3e d5 ed e7 be c8 4a 30 3d
       0.00015587304 0.18791473 -0.4529864 0.043040067
000030 33 75 ee 3e 32 43 35 be ad e7 8a 3e 62 b9 24 be
       0.4657379 -0.17701414 0.2712988 -0.16086343
000040 85 9f b8 be c9 7f 3c be 5b 1f f9 3e c1 af c5 be
       -0.36059204 -0.18408121 0.48656735 -0.38610652
000050 26 84 f8 3e a6 1e 03 3f d8 83 5c be f2 de b7 bd
       0.4853832 0.5121864 -0.2153467 -0.0897807
000060 94 b1 3a 3e 5f f7 95 3d f8 47 90 3e 73 54 01 bf
       0.18231803 0.07322573 0.28179908 -0.50519484
000070 2f f3 01 3f 80 b0 dd bd c7 ff 4e 3e bd 28 ab bd
       0.50761694 -0.1082468 0.20214759 -0.083573796
000080 cb 3b 85 3d b9 28 bf 3e 95 0e c8 3e 76 20 cd be
       0.06505545 0.37335756 0.39073625 -0.40063828
000090 6e 7d ff 3e 07 df 76 3c 8c ed 4c bd 77 cb 78 3d
       0.49900383 0.015067822 -0.05003123 0.060740914
0000a0 c0 78 02 bf 09 da 02 be fc 79 c0 bd 35 31 78 be
       -0.509655 -0.12778486 -0.09398267 -0.24237521
0000b0 b7 21 e6 be 82 91 6d be 0b 07 87 be e7 bc 2a be
       -0.44947597 -0.23200038 -0.2637256 -0.16673623
0000c0 f8 6e c6 be 1b 93 b9 be 9b e4 c8 be 86 77 05 3f
       -0.38756537 -0.36245045 -0.39236912 0.52135503
0000d0 06 55 d6 bc ab ec fb be 7e a3 fe 3e e7 fa d9 be
       -0.02616359 -0.49204 0.4973411 -0.42574236
0000e0 18 fe c5 be 00 0e d3 bc 91 2f 7f 3e ed a7 b8 3e
       -0.3867042 -0.025763512 0.24920489 0.36065617
0000f0 f8 92 f1 be 2a b9 eb bc 67 c4 f9 be 0e 9d ec 3d
       -0.4718244 -0.028774817 -0.48782656 0.11553393

gat_layers.1.bias f4 [64]
000000 96 4d 3a bb 39 d7 3f bb 05 10 5f 3b ad f3 5a bb
       -0.0028427592 -0.002927257 0.0034036648 -0.0033409402
000010 ea c4 5d bb dc 5e 64 bb 7e e1 66 bb c2 0c 65 bb
       -0.0033839294 -0.003484658 -0.0035229619 -0.0034950231
000020 32 a2 77 3b 5e 6e 3d bb a0 00 46 bb 43 fe 7d 3b
       0.0037785885 -0.0028904895 -0.0030212775 0.0038756288
000030 65 9e 4c bb 4a 02 5b bb 3a 52 72 bb d2 81 80 3b
       -0.003122234 -0.0033418112 -0.003697528 0.003921726
000040 a2 6a 9c 3a 41 c8 8d 3b ad 4b 62 bb 04 0d 66 bb
       0.0011933635 0.0043268506 -0.003452997 -0.0035102973
000050 dc 65 34 bb a4 c1 60 bb 95 98 6a bb 5f bf 6d 3b
       -0.0027526533 -0.0034295106 -0.0035796512 0.0036277396
000060 d2 60 41 3b 6a 95 5c bb c4 25 51 3b e7 a0 7d ba
       0.0029507172 -0.0033658394 0.003191338 -0.00096751604
000070 1c 4a 7d 3b 3c 5d 61 bb 70 69 63 bb 32 a6 3d 3b
       0.003864891 -0.0034387847 -0.0034700297 0.0028938171
000080 ae bf 58 bb 58 f9 58 bb c8 d5 39 3b 1c ce 69 bb
       -0.0033073234 -0.0033107605 0.0028356183 -0.003567583
000090 8f 5c 8f 3b 48 f1 58 bb 07 49 67 bb 64 ec 58 bb
       0.0043750475 -0.00331028 -0.003529133 -0.0033099884
0000a0 be 23 61 bb ac e6 58 bb 91 42 73 bb fb b8 58 bb
       -0.003435358 -0.0033096476 -0.0037118534 -0.0033069241
0000b0 5f ee 58 bb aa c8 58 bb 50 35 59 bb f0 e0 58 bb
       -0.0033101065 -0.003307859 -0.003314335 -0.0033093058
0000c0 b9 18 ee 3a 9e cb 68 bb 84 cd 66 bb d9 8e 6b bb
       0.0018165327 -0.0035521756 -0.0035217712 -0.0035943298
0000d0 7a 18 7d 3b 47 ff 5e 3b 46 e1 7f 3b 60 80 6e bb
       0.0038619325 0.003402667 0.0039044186 -0.0036392435
0000e0 13 84 67 bb 06 e5 6c bb ce 8e 6d 3b 16 50 56 bb
       -0.0035326525 -0.003614725 0.0036248448 -0.0032701544
0000f0 6b ed 56 bb 80 9b a9 3a 22 47 64 3b 7c 46 66 bb
       -0.003279532 0.0012940019 0.0034832438 -0.0035137227

gat_layers.1.lin.weight f4 [64, 64]
000000 ef ce 1a 3c e0 e8 1e be cd 35 a3 bd aa b4 d5 3d
       0.009448751 -0.15518522 -0.07969246 0.104348496
000010 38 5f 04 be 1b f0 97 3c 1e f4 c2 3d 26 3e e2 bd
       -0.12926948 0.018547108 0.09519218 -0.1104701
000020 0c 81 06 be 5a 85 ec bd e4 d8 1a be e9 c6 35 bc
       -0.13135165 -0.11548872 -0.151218 -0.011094787
000030 f2 32 cb bd 42 ec fb 3d 5f 1f 21 3e 9d d6 90 bd
       -0.099218264 0.12300922 0.15734623 -0.07072184
000040 75 75 07 be 45 1a 39 be 4c cc c8 bc 27 a0 2b 3e
       -0.132284 -0.18076427 -0.024511479 0.16760312
000050 95 4c 22 3d 0c 1d 8e 3d 89 ef a9 bd 01 28 90 bc
       0.039623816 0.06939134 -0.08297641 -0.0175972
000060 af 44 4a 3e 32 00 ec bd 76 09 9f bd 86 92 39 3e
       0.19752763 -0.11523475 -0.077654764 0.181223
000070 50 ce 9a 3d c5 12 18 3e 99 2b 04 be 36 bc 47 be
       0.07558882 0.1485091 -0.12907256 -0.1950539
000080 0e 10 48 bd fa a6 a1 bd 30 53 e4 bc d4 14 59 3d
       -0.048843436 -0.078931764 -0.027871698 0.05299838
000090 04 67 38 be a3 9c fe bd 45 68 71 3c 61 f0 9a 3b
       -0.18008047 -0.1243222 0.014734332 0.0047283624
0000a0 73 a0 28 3e fd 32 38 be 48 3a 11 be d8 1d 73 bd
       0.16467457 -0.179882 -0.14182389 -0.059354633
0000b0 94 a9 4c be 0a 0f 22 bd 88 04 15 be 1c e2 59 3e
       -0.19986564 -0.039565124 -0.1455251 0.2127766
0000c0 2e 6a bb 3d 26 cf 1c 3e a0 9b 04 3e d6 2d 20 3d
       0.091511115 0.15313396 0.12949991 0.039106213
0000d0 b6 1c 54 3d 5a 45 29 3e db 4c 8b 3d 3b 81 d5 bd
       0.051785193 0.16530362 0.068017684 -0.104250394
0000e0 7b e8 24 3e 2a 95 d6 bc 2e a4 70 bd c9 44 79 3d
       0.1610431 -0.026194174 -0.058750324 0.060856614
0000f0 2d 1e 07 bd 95 fd 45 3e 75 7d a2 3d 59 b1 00 3d
       -0.032987762 0.19335015 0.07934085 0.031419132
000100 d1 69 03 be f7 28 ba bd 0e 77 5a 3d 79 c9 17 3e
       -0.12833335 -0.09089845 0.053336196 0.1482295
000110 1a 46 d5 3d b8 5c b2 3c 87 64 f6 3d e7 63 0a be
       0.104137614 0.021772727 0.12030893 -0.13514672
000120 1c 1f 38 3d ef eb 24 3e e9 a7 68 3d ae a2 a9 3c
       0.044951543 0.16105627 0.056800757 0.020707455
000130 45 35 4e 3e b5 86 ba 3d ac cc d5 3d 1f 43 55 be
       0.20137508 0.091077246 0.10439429 -0.20826386
000140 da fc 5e bd 52 64 13 be c6 33 43 3e 88 1c 03 3e
       -0.054440357 -0.14393738 0.19062719 0.12803853
000150 b0 cb 22 bd 94 bb 0c 3d a7 a0 db bd aa e8 da 3d
       -0.039745033 0.034358576 -0.107240014 0.106889084
000160 71 97 56 3e 9b ad 7d 3d ab c1 fd bd 5f b5 d6 bc
       0.20956208 0.06193314 -0.12390455 -0.026209531
000170 84 a7 c4 bd c8 70 49 3e 96 ab 43 bd 79 78 f8 bb
       -0.096022636 0.19671929 -0.04777106 -0.007582721
000180 68 0b 55 be 0d bf 04 bd 7e a1 36 3d 3e 99 10 be
       -0.20805132 -0.032408763 0.044587605 -0.14120957
000190 2f 50 ca 3d cd bd f5 bd 6f b5 e5 3d 98 d5 c5 bd
       0.09878575 -0.11999092 0.11216246 -0.096598804
0001a0 47 1e ab bd 94 e9 29 3e da 8c 06 be d0 93 f7 bc
       -0.08355384 0.16593009 -0.13139668 -0.03022185
0001b0 47 4f f0 bd 57 ce 41 be 46 96 46 3d 4a 3f 4d 3e
       -0.11733871 -0.18926369 0.048483156 0.20043674
0001c0 1c 93 3a be 4e 9e e6 3d 78 39 b1 bb 5f 8b 5a be
       -0.1822018 0.11260663 -0.005408462 -0.21342228
0001d0 5e e3 1d 3d d8 04 40 bc 7e 16 d9 3c d5 e3 83 bd
       0.038546912 -0.011719905 0.026499983 -0.0643994
0001e0 27 03 93 3d 39 6c 2d be 87 63 12 bd 8f cd 01 be
       0.07178336 -0.16935815 -0.035739448 -0.1267607
0001f0 22 e3 aa 3c ef b4 01 be d8 f9 4f 3e 95 26 fa bd
       0.020860258 -0.12666677 0.20310152 -0.1221439
000200 d2 d5 fa 3c 73 72 c8 bc 55 7a 95 bd 2c 81 db b7
       0.030619536 -0.024468636 -0.072987236 -2.6166985e-05
000210 3e 7e e1 bd 11 86 17 3d 02 b9 ca 3b 2f 40 15 be
       -0.11010407 0.03699309 0.0061866054 -0.14575265
000220 76 32 13 3e ee 27 0c be e0 6e b9 3d 1c 19 8c bd
       0.14374718 -0.13687107 0.09054351 -0.06840727
000230 6e d0 a2 bc 4d 57 a5 3d 2b 91 2f 3e b9 61 ff 3c
       -0.019874778 0.08073292 0.17145221 0.031174527
000240 21 eb 93 3d b0 e3 83 bd 4e 68 1c 3e d8 0d 31 3e
       0.07222582 -0.06439912 0.15274164 0.17290437
000250 db ae d6 bc ec b6 11 3e 1b 83 a8 bd 9b cc 5c 3e
       -0.026206424 0.14229935 -0.082281314 0.21562426
000260 6b a8 8c bd 59 18 03 be 1e e1 f6 3d fa f7 ba 3d
       -0.06868061 -0.12802257 0.120546564 0.09129329
000270 f6 a4 53 bc 9a b4 9a 3d 5e 35 32 3d 37 22 0f 3d
       -0.012917748 0.07553978 0.043507926 0.03494474
000280 98 08 0c 3e 01 73 3c 3e a8 53 36 be 11 1c ca 3d
       0.13675153 0.18403246 -0.1780535 0.098686345
000290 da dc 8f bd 77 91 50 3e e8 7c 1f 3d 2c b6 cf bd
       -0.07024546 0.2036799 0.03893748 -0.101421684
0002a0 66 a8 4d be de ea 13 be 0f 78 3c be 75 d8 fd bd
       -0.2008377 -0.14445063 -0.18405174 -0.123948015
0002b0 3e 7d 32 be b4 5c 50 be 6c 80 e5 3d 14 4a 53 3d
       -0.17430589 -0.20347863 0.11206135 0.05158432
0002c0 47 c0 35 be 0c c3 4a 3e e9 a6 22 3e 11 cc 39 be
       -0.17749129 0.19800967 0.15883984 -0.18144251
0002d0 38 b3 23 be f3 a8 2e 3e f0 63 f0 3d 49 3d 5c be
       -0.15986335 0.17056637 0.117378116 -0.21507753
0002e0 82 8c 40 3e 98 dc 9a bd 76 d6 13 be 00 f9 37 be
       0.188036 -0.07561606 -0.14437279 -0.1796608
0002f0 ae 45 db 3d 69 69 b0 bd 07 80 6c 3d 38 b1 54 3e
       0.1070665 -0.086138554 0.057739284 0.20770729
000300 86 05 06 be 19 0b 12 be 8b 84 82 3d c8 dc 8a 3d
       -0.13088045 -0.14262046 0.06372937 0.06780392
000310 96 88 3f bd bd a7 f9 3c 83 8f ef 3d 96 4e 29 be
       -0.046761118 0.030475492 0.116972946 -0.16533884
000320 8c 5a 21 3e 47 05 7d bd 77 9b e6 3d 83 a7 00 3e
       0.15757197 -0.06177261 0.11260121 0.125639
000330 8b 3c 7a bd 7a 22 1e bc a4 44 d8 bd 0e 3e 13 3e
       -0.061092895 -0.009651775 -0.10559967 0.1437914
000340 42 6b 0d 3e 70 e4 27 3e ec cc 1c 3e 78 43 9e bd
       0.13810447 0.16395736 0.15312546 -0.077277124
000350 53 98 8a bd 49 6e bc bd c0 07 1e 3e 64 90 ed bd
       -0.06767335 -0.09200723 0.15432644 -0.11599806
000360 f4 69 10 be d3 ea 6d bd 45 5f 18 3c c7 83 12 3d
       -0.14102918 -0.058085274 0.009300058 0.035770204
000370 22 f2 db 3d a2 b7 43 bd 8d 1e a2 bc b5 75 0e 3e
       0.107395425 -0.047782548 -0.019789958 0.13912089
000380 52 bc c8 bc 06 2d 04 be b5 e8 1c 3e 3c 4d 9f bb
       -0.02450386 -0.129078 0.15323146 -0.004861502
000390 6d 2a 27 3c ae 00 09 be c0 4a c2 3d 48 d2 04 bd
       0.010202986 -0.13379166 0.09486914 -0.032427102
0003a0 f9 f6 48 3e 34 0f bb 3d f9 cc fa 3c 64 99 4a 3c
       0.19625463 0.09133759 0.030615317 0.012365673
0003b0 db 90 3c 3e a5 e2 18 3e 1e 01 55 3e 6e 1a 40 be
       0.18414633 0.14930208 0.20801207 -0.18760082
0003c0 a0 b9 44 be 79 af d4 bd eb c8 ae bd d8 15 93 bd
       -0.19211435 -0.10385031 -0.08534416 -0.07181901
0003d0 bf d8 f2 3d 7d e7 d7 3c 59 a9 d3 3d 09 88 5b 3e
       0.11857747 0.0263555 0.10335035 0.21438612
0003e0 4e 3c 64 bd 9c 77 39 3e bb 05 7b 3d c1 2e 5c 3d
       -0.055721574 0.18112034 0.061284762 0.053755525
0003f0 16 cc 22 3e 48 af 6c 3d 90 39 46 3d c3 70 f1 b9
       0.15898165 0.05778435 0.04839474 -0.00046051116
