models/best_fraud_model_seed_1337.pth (torch, 378242 bytes, 45 tensors)

node_emb.weight f4 [64, 8]
0.21971196 0.23753539 0.17330857 -0.32223436 -0.30464318 -0.120897844 0.15815097 -0.1876258
0.2750489 -0.286981 0.26001105 -0.31380293 -0.16891964 0.16789092 0.3402236 -0.23247962
0.21052809 0.07539878 0.14849912 0.34289688 0.256138 -0.33797497 0.10492423 -0.30305746
0.07653324 0.30386904 0.095433824 -0.05593669 0.29850337 -0.12686221 0.032184094 0.25992796
0.0979416 -0.332529 0.08227208 0.19245514 0.26405916 0.19228387 0.21899533 -0.062064435
0.33469152 0.13202803 -0.13940069 -0.097567655 0.04139094 0.20499456 -0.0370044 -0.31679243
-0.03722762 -0.22747184 -0.036578916 -0.3055338 -0.017370537 -0.03823639 -0.24135856 -0.29644316
0.14044656 0.26361975 -0.04644629 0.21240728 0.052587412 0.08060219 -0.16194785 0.32321823
-0.10470052 0.16352023 0.28009582 0.2528679 0.096709594 -0.121298224 -0.0267845 0.2714312
-0.27789262 0.27984208 -0.059555892 -0.15761936 0.31338423 0.26937854 0.18036458 -0.15873167
-0.01645292 0.2634602 0.08453924 -0.22395119 0.34396282 0.3160426 0.3443325 -0.051370118
0.35245314 0.081487335 -0.095179744 0.14830194 -0.1646498 0.34651002 -0.33967528 -0.028094165
-0.2708168 -0.093372576 -0.16689198 0.117339596 -0.26540512 0.13381839 0.1249586 0.29760647
-0.036663916 0.3190712 0.2068694 -0.13900073 -0.068511434 0.08142536 0.33213103 0.26020765
0.026239855 0.22631581 -0.027772123 -0.1864736 -0.32236493 0.29276896 -0.02426989 -0.33578613
-0.11194445 0.25725406 -0.28649953 -0.31602684 0.16861089 0.23317349 -0.00017569505 -0.20559005
-0.208498 -0.08543395 0.2888078 0.17842565 -0.2710531 0.31630933 -0.25025922 0.19407573
-0.028960887 0.19528584 -0.06108645 0.2805665 0.0035083333 -0.19985633 -0.09347579 0.22688864
-0.27479172 -0.26390326 0.14204493 -0.17258723 0.24421726 0.19198956 -0.0053343372 -0.022625864
-0.2693365 -0.20126045 -0.2942109 0.2552994 0.16066065 0.27944615 0.34987924 -0.33345097
0.29249638 0.039415315 -0.058092155 -0.17736933 0.16424043 0.2636672 -0.14904815 -0.10334041
0.016150331 -0.34282464 -0.27196226 0.25636438 0.33643335 0.16036205 0.28895172 0.14863233
-0.011886979 0.21610662 0.25009483 0.13000691 0.121001646 -0.016798317 0.25282413 -0.10454289
-0.23345724 -0.10151271 0.28378832 0.009520298 0.20015241 0.20166783 0.30211076 -0.27928823
0.07036235 0.22911982 0.22543055 -0.31905606 -0.1150472 -0.1582186 -0.16565184 -0.09634207
-0.03585181 0.3070185 0.13380328 0.26797742 0.0446087 0.12362275 -0.280826 -0.18508692
0.21094881 -0.021102939 0.22613685 0.28594828 -0.0025280823 -0.11087061 0.13310866 0.091088966
0.2910779 -0.22042076 -0.11584253 -0.011315927 -0.20008498 0.018876666 0.020166047 0.013197095
0.23731183 -0.18352288 0.119443245 0.006039075 -0.11452167 -0.14120214 0.2476264 0.22779925
0.21750543 -0.25510404 0.17651981 0.23217615 0.25826547 -0.32818702 0.26567352 0.11925481
0.273941 0.31629568 0.33566815 -0.07808414 -0.29356 0.12091647 -0.13578755 -0.3297416
0.116712935 -0.104965955 0.015964223 -0.040120512 0.012035365 0.22277789 -0.077013224 0.11217515
00000000: 2cfc 603e 7a3c 733e cd77 313e e7fb a4be
00000010: 31fa 9bbe 4a99 f7bd 54f2 213e fa20 40be
00000020: 36d3 8c3e 2cef 92be 2b20 853e c7aa a0be
00000030: 45f9 2cbe 99eb 2b3e ca31 ae3e 230f 6ebe
00000040: ad94 573e ad6a 9a3d 2710 183e 2e90 af3e
00000050: 8524 833e 0e0b adbe 84e2 d63d 592a 9bbe
00000060: 76bd 9c3d b994 9b3e cf72 c33d df1d 65bd
00000070: 6fd5 983e 2be8 01be 78d3 033d 4715 853e
00000080: 9b95 c83d 3e41 aabe 447e a83d f612 453e
00000090: c332 873e 10e6 443e 5040 603e 4737 7ebd
000000a0: b05c ab3e 5b32 073e 0ebf 0ebe 8dd1 c7bd
000000b0: 8c89 293d 18ea 513e ed91 17bd 9e32 a2be
000000c0: fd7b 18bd 61ee 68be c6d3 15bd ed6e 9cbe
000000d0: a84c 8ebc c39d 1cbd b326 77be 66c7 97be
000000e0: 39d1 0f3e 2bf9 863e 773e 3ebd 4b81 593e
000000f0: e665 573d c312 a53d a8d5 25be dc7c a53e
00000100: 3a6d d6bd d971 273e b868 8f3e e777 813e
00000110: ae0f c63d 346b f8bd 2b6b dbbc 08f9 8a3e
00000120: f147 8ebe 7647 8f3e e1f0 73bd f866 21be
00000130: e673 a03e fceb 893e 7eb1 383e 8e8a 22be
00000140: 46c8 86bc 41e4 863e e922 ad3d 7653 65be
00000150: e51b b03e 56d0 a13e 594c b03e 7969 52bd
00000160: bd74 b43e d5e2 a63d 99ed c2bd 77dc 173e
00000170: f599 28be c369 b13e ebe9 adbe bc25 e6bc
00000180: 80a8 8abe 1f3a bfbd bbe5 2abe be4f f03d
00000190: 2ee3 87be b007 093e 4bea ff3d e05f 983e
000001a0: e72c 16bd 4d5d a33e 92d5 533e 3556 0ebe
000001b0: b94f 8cbd 57c2 a63d 140d aa3e f039 853e
000001c0: f7f4 d63c 55bf 673e 5d82 e3bc eff2 3ebe
000001d0: 040d a5be d0e5 953e a6d1 c6bc 29ec abbe
000001e0: 2243 e5bd ceb6 833e 11b0 92be 45ce a1be
000001f0: 55a8 2c3e 08c5 6e3e c83a 38b9 3386 52be
00000200: 8080 55be fff7 aebd 9ede 933e 37b5 363e
00000210: 79c7 8abe 4cf3 a13e fa21 80be cabb 463e
00000220: 623f edbc 03f9 473e c935 7abd 6aa6 8f3e
00000230: 11ec 653b 23a7 4cbe 3c70 bfbd 7f55 683e
00000240: 80b1 8cbe 541e 87be 3a74 113e b5ba 30be
00000250: 1714 7a3e e998 443e aacb aebb e059 b9bc
00000260: 79e6 89be 3817 4ebe d0a2 96be 9ab6 823e
00000270: 3a84 243e 9113 8f3e 5f23 b33e 16ba aabe
00000280: 16c2 953e f471 213d 0af2 6dbd 4ea0 35be
00000290: a52e 283e 63ff 863e 14a0 18be 23a4 d3bd
000002a0: b34d 843c b686 afbe a33e 8bbe 3142 833e
000002b0: fe40 ac3e f335 243e 7bf1 933e 1333 183e
000002c0: 9bc1 42bc 0e4b 5d3e 6e0c 803e 8820 053e
000002d0: b6cf f73d a09c 89bc 2a72 813e 951a d6bd
000002e0: 6a0f 6fbe e5e5 cfbd b44c 913e 06fb 1b3c
000002f0: c1f4 4c3e 0382 4e3e 43ae 9a3e defe 8ebe
00000300: 231a 903d 639e 6a3e 44d7 663e 515b a3be
00000310: de9d ebbd 0f04 22be a3a0 29be fe4e c5bd
00000320: 59d9 12bd 8731 9d3e ba03 093e 5634 893e
00000330: 9db7 363d ed2d fd3d 6dc8 8fbe 6d87 3dbe
00000340: f702 583e 12e0 acbc 6b90 673e d067 923e
00000350: 2fae 25bb 2110 e3bd a34d 083e da8c ba3d
00000360: 2a08 953e fbb5 61be d93e edbd 7066 39bc
00000370: 14e3 4cbe 3da3 9a3c 4433 a53c a138 583c
00000380: df01 733e 6ced 3bbe a99e f43d 6fe3 c53b
00000390: 568a eabd 4b97 10be c691 7d3e 3544 693e
000003a0: beb9 5e3e ff9c 82be 9cc1 343e 96bf 6d3e
000003b0: 5f3b 843e 2108 a8be 5c06 883e de3b f43d
000003c0: ff41 8c3e 82f1 a13e b2dc ab3e 94ea 9fbd
000003d0: 7f4d 96be 0ea3 f73d e40b 0bbe e4d3 a8be
000003e0: 3107 ef3d 64f8 d6bd 67c7 823c 6855 24bd
000003f0: fb2f 453c e31f 643e 1cb9 9dbd 16bc e53d

node_emb.bias f4 [64]
0.052501906 -0.009295201 0.19863649 -0.2015741 0.1334773 -0.29968888 -0.28076664 0.036357716
-0.032655936 0.13945553 -0.1415181 0.26534203 0.26150116 0.07647611 0.053657353 0.3260207
0.17986684 -0.015901791 0.21501538 0.0830248 -0.15044822 0.30540836 -0.36121097 -0.23327468
-0.26064405 -0.3369332 0.30639175 0.010425249 0.16714044 0.21402977 -0.3564532 -0.2743483
0.2426236 0.22739017 -0.17166407 0.10489983 -0.059790622 0.010564902 0.24918428 -0.22871932
-0.11098053 0.24452823 0.11242384 -0.23321536 -0.014203738 -0.0071120886 0.15384825 0.14586273
-0.065971054 -0.25593674 -0.27657366 -0.09399749 -0.01839774 -0.2245121 0.34029448 0.21207306
-0.24808218 0.29958296 0.052321784 -0.23554346 -0.145569 0.28060627 -0.09865193 -0.025801552
00000000: 3d0c 573d e64a 18bc 5d67 4b3e 7169 4ebe
00000010: 46ae 083e d270 99be a5c0 8fbe d4eb 143d
00000020: 3bc2 05bd 6ecd 0e3e 1fea 10be e9da 873e
00000030: 7be3 853e 829f 9c3d d0c7 5b3d 2fec a63e
00000040: 032f 383e 7944 82bc fe2c 5c3e e808 aa3d
00000050: 190f 1abe 7c5e 9c3e a5f0 b8be 8fdf 6ebe
00000060: 2373 85be 8282 acbe 61df 9c3e aace 2a3c
00000070: dd26 2b3e 9f2a 5b3e 0981 b6be 6177 8cbe
00000080: 5272 783e f8d8 683e b5c8 2fbe b9d5 d63d
00000090: 03e7 74bd 6918 2d3c 2a2a 7f3e 6635 6abe
000000a0: c349 e3bd 9c65 7a3e 783e e63d 02d0 6ebe
000000b0: ccb6 68bc 860c e9bb 658a 1d3e 0a5d 153e
000000c0: d51b 87bd 240a 83be 109b 8dbe c281 c0bd
000000d0: dbb6 96bc 80e6 65be 143b ae3e ae29 593e
000000e0: 4109 7ebe f062 993e 5e4f 563d 4e32 71be
000000f0: 0a10 15be a0ab 8f3e 060a cabd c75d d3bc

edge_emb.weight f4 [64, 2]
-0.42142084 0.083970115 -0.02282398 -0.39528808 -0.5421596 -0.47495303 -0.2277671 -0.58956754
-0.36163518 -0.6658266 0.43536344 -0.5892526 -0.6421512 0.65959775 0.27437097 0.107493594
0.1570447 0.06250502 0.69376165 0.574759 0.36667383 0.4630994 0.062504224 -0.11534257
-0.63470954 0.043851644 0.3322781 0.2023282 0.17994721 -0.5563641 0.057156596 0.43090406
-0.14165005 0.30959386 -0.08355394 0.69259727 0.61165076 -0.20203513 -0.08244071 -0.5123047
-0.5405728 -0.383144 0.4544272 -0.5391933 0.096198946 -0.43886864 -0.13187218 0.6156632
0.3229304 -0.09311691 -0.3433741 -0.51186234 -0.42202023 0.4500664 -0.11740891 -0.62241215
-0.01631495 -0.6696571 -0.35255405 0.03323818 0.11575724 -0.18802215 0.6379938 -0.038222253
-0.441456 0.34557012 0.3202022 0.22354588 0.49496186 -0.53680545 -0.46651214 -0.36854222
0.29943734 -0.03910482 -0.40841448 0.17095739 0.25925556 -0.59262806 0.027520018 -0.5003857
-0.38897455 -0.20830333 0.40640947 0.25394145 0.44384736 0.46319774 0.31661218 -0.25907204
0.22909893 -0.61699265 -0.17662494 -0.5983779 0.03611429 -0.41085997 0.53851426 0.49418876
0.085826814 -0.6099334 -0.29506946 0.37141705 -0.5535585 -0.54733187 -0.13614975 0.475408
-0.535187 -0.28618425 0.52358484 -0.27918425 -0.7020829 0.36555353 -0.12652889 0.6854728
0.6404568 0.022470493 0.34259585 0.6559855 -0.14328098 0.17572834 -0.06490645 0.6002738
-0.19911212 0.060461555 -0.2561405 -0.5480743 -0.66703063 -0.05323738 -0.53754425 -0.5435371
00000000: 79c4 d7be 86f8 ab3d 5bf9 babc 3363 cabe
00000010: f9ca 0abf 0b2d f3be c73b 69be e6ed 16bf
00000020: 3f28 b9be 9d73 2abf f5e7 de3e 42d9 16bf
00000030: 0564 24bf 66db 283f 5a7a 8c3e 9a25 dc3d
00000040: 53d0 203e a202 803d 5d9a 313f 6823 133f
00000050: acbc bb3e 5d1b ed3e 3702 803d ba38 ecbd
00000060: 537c 22bf c89d 333d 5b20 aa3e 202f 4f3e
00000070: 1544 383e e16d 0ebf 091d 6a3d 759f dc3e
00000080: b60c 11be 1683 9e3e 541e abbd 0e4e 313f
00000090: 2595 1c3f 4ce2 4ebe add6 a8bd 6726 03bf
000000a0: fb62 0abf 732b c4be afaa e83e 9208 0abf
000000b0: f403 c53d 64b3 e0be 8009 07be 1a9c 1d3f
000000c0: 2257 a53e 14b4 bebd bbce afbe 6909 03bf
000000d0: 0913 d8be 1a6f e63e 1574 f0bd 6756 1fbf
000000e0: eea6 85bc a66e 2bbf f781 b4be c224 083d
000000f0: 2212 ed3d e188 40be 9053 233f f08e 1cbd
00000100: 8506 e2be 91ee b03e 8bf1 a33e 36e9 643e
00000110: a46b fd3e 156c 09bf aeda eebe 91b1 bcbe
00000120: da4f 993e 602c 20bd b41b d1be 740f 2f3e
00000130: 25bd 843e 79b6 17bf a971 e13c 4719 00bf
00000140: ac27 c7be 784d 55be e714 d03e 9d04 823e
00000150: f63f e33e 4128 ed3e fe1a a23e 17a5 84be
00000160: e998 6a3e 3bf3 1dbf 2bdd 34be 4b2f 19bf
00000170: 94ec 133d 3d5c d2be 12dc 093f 4f06 fd3e
00000180: f8c5 af3d 9824 1cbf 5813 97be 602a be3e
00000190: 03b6 0dbf f11d 0cbf d76a 0bbe ad68 f33e
000001a0: 0402 09bf be86 92be a809 063f 3df1 8ebe
000001b0: b4bb 33bf d529 bb3e ca90 01be 257b 2f3f
000001c0: faf4 233f 0a14 b83c b968 af3e aaee 273f
000001d0: 40b8 12be 21f2 333e aced 84bd 8bab 193f
000001e0: 0ce4 4bbe 89a6 773d d924 83be 994e 0cbf
000001f0: 85c2 2abf 700f 5abd 809c 09bf 3f25 0bbf

edge_emb.bias f4 [64]
0.15521474 0.70621413 -0.28791758 -0.66921866 0.45545757 0.26756042 0.22154377 0.30873108
-0.19458844 0.22587657 0.6948778 -0.52578044 -0.4608069 0.61603963 -0.11703096 -0.23862481
0.6247115 0.57160133 -0.059998535 0.40069124 0.6765381 0.094167575 -0.39316827 0.3282652
0.07990523 0.12421693 -0.22700433 -0.07880077 -0.10547415 0.2488258 0.06553634 0.6168031
0.022854328 0.40943533 -0.52374554 -0.49894586 -0.29478133 0.66693985 -0.16724995 -0.19410424
0.35589114 0.06154913 0.5311287 0.4412401 -0.22184913 0.52628034 0.42083964 -0.37596855
0.018021673 0.21711464 -0.4488696 -0.44077393 -0.4223518 0.093323775 -0.5834001 -0.5949177
0.26788765 0.41744938 -0.22050458 -0.3618904 -0.40949598 -0.68498343 -0.41606212 0.67601085
00000000: 9df0 1e3e 73ca 343f ef69 93be ea51 2bbf
00000010: bc31 e93e aefd 883e 5fdc 623e 0012 9e3e
00000020: 3142 47be 304c 673e 83e3 313f 8c99 06bf
00000030: e2ee ebbe c6b4 1d3f eead efbd 105a 74be
00000040: 18ed 1f3f 7754 123f 06c1 75bd 6727 cd3e
00000050: 9a31 2d3f eeda c03d 5a4d c9be 6012 a83e
00000060: 5aa5 a33d 7265 fe3d d373 68be 4c62 a1bd
00000070: d502 d8bd 31cc 7e3e eb37 863d cfe6 1d3f
00000080: 0039 bb3c 82a1 d13e 3014 06bf d575 ffbe
00000090: 94ed 96be 92bc 2a3f 9243 2bbe 43c3 46be
000000a0: 5d37 b63e f11a 7c3d 0df8 073f 39ea e13e
000000b0: 6b2c 63be 4fba 063f 4b78 d73e f37e c0be
000000c0: 30a2 933c 4d53 5e3e 3cd2 e5be 1fad e1be
000000d0: 7f3e d8be 8920 bf3d b559 15bf 874c 18bf
000000e0: 9228 893e edbb d53e f4cb 61be b349 b9be
000000f0: 75a9 d1be 135b 2fbf 1806 d5be 0c0f 2d3f

gat_layers.0.att_src f4 [1, 4, 16]
0.12837736 0.37632045 -0.1572209 -0.17788374 -0.37986866 0.47585973 0.41991946 0.12647839
0.31899625 -0.06795032 -0.009324465 -0.33732617 -0.20019178 -0.030649886 -0.38167274 0.36328506
0.19672428 -0.22058997 -0.060096163 0.36472222 -0.016735615 0.27478176 -0.3411913 -0.26711088
0.50004566 -0.45020574 -0.12919794 0.1549006 0.08075145 -0.54328245 0.06053256 0.08859237
0.40194803 0.2771839 0.15212724 0.27698857 0.4800471 -0.4147192 0.26001382 0.0051017003
0.2756843 -0.1758254 -0.3120998 0.23699503 0.07441631 -0.4626625 -0.32094684 0.4086038
0.06681224 0.19909777 0.04001414 0.38801265 0.4860722 -0.19115727 -0.20663893 0.021419045
-0.28996083 -0.47007468 0.4864361 -0.03914969 -0.4096812 0.16526112 0.09848846 -0.048526626
00000000: 5b75 033e 13ad c03e 84fe 20be 2827 36be
00000010: 257e c2be e3a3 f33e afff d63e 8d83 013e
00000020: 7a53 a33e 8a29 8bbd a4c5 18bc 04b6 acbe
00000030: 13ff 4cbe 7815 fbbc 9c6a c3be 8000 ba3e
00000040: 1772 493e 56e2 61be 6527 76bd dfbc ba3e
00000050: 2119 89bc 32b0 8c3e a0b0 aebe c2c2 88be
00000060: fe02 003f 5e81 e6be 774c 04be 439e 1e3e
00000070: 0461 a53d 8f14 0bbf fdf0 773d eb6f b53d
00000080: 22cc cd3e 0ceb 8d3e 3ec7 1b3e 72d1 8d3e
00000090: bcc8 f53e 1356 d4be 8820 853e 2a2c a73b
000000a0: 7e26 8d3e 930b 34be 8ccb 9fbe d3ae 723e
000000b0: 9467 983d 19e2 ecbe 2553 a4be 8434 d13e
000000c0: dbd4 883d 49e0 4b3e dee5 233d 98a9 c63e
000000d0: 75de f83e bbbe 43be 2899 53be fe76 af3c
000000e0: bf75 94be a1ad f0be 270e f93e 6d5b 20bd
000000f0: bcc1 d1be 363a 293e 51b4 c93d dbc3 46bd

gat_layers.0.att_dst f4 [1, 4, 16]
0.2536942 0.3810739 0.2253929 -0.20012662 0.49857092 -0.0049220854 -0.35355076 0.24432707
0.061063096 -0.1415297 -0.2864232 -0.021322543 0.23858154 0.41343346 -0.19587055 0.23533139
0.18226768 -0.3079192 -0.18825172 0.5223453 0.29173398 0.5407559 -0.14233734 -0.13560078
-0.124858946 -0.2552608 -0.2998769 -0.19302258 0.16027331 0.34088346 0.4119336 -0.0007972869
0.016949428 -0.47768733 0.26640654 -0.4003373 -0.08327767 0.5107179 -0.27754268 0.08887908
0.54414195 0.27036142 -0.2336432 0.20217319 -0.20449252 -0.077239394 0.1856016 -0.33918867
0.10740918 0.32975087 -0.34027106 0.4955813 -0.22119923 -0.40656438 -0.44128075 -0.37951347
-0.16916627 -0.3746515 -0.4461893 -0.37275064 0.3763098 0.053533256 -0.2164237 -0.49613848
00000000: 35e4 813e 1e1c c33e 65cd 663e feed 4cbe
00000010: b044 ff3e 7249 a1bb 9b04 b5be e030 7a3e
00000020: 4c1d 7a3d 29ed 10be 10a6 92be 9dac aebc
00000030: b84e 743e 8dad d33e 4a92 48be b6fa 703e
00000040: 61a4 3a3e 96a7 9dbe 0fc5 40be 6cb8 053f
00000050: 285e 953e fb6e 0a3f e1c0 11be eeda 0abe
00000060: 0cb6 ffbd 8bb1 82be 7789 99be b6a7 45be
00000070: b01e 243e 4788 ae3e f6e8 d23e 0501 51ba
00000080: 87d9 8a3c 6f93 f4be 7066 883e 03f9 ccbe
00000090: 7c8d aabd 69be 023f 131a 8ebe 3c06 b63d
000000a0: e34c 0b3f d06c 8a3e 2a40 6fbe 7d06 4f3e
000000b0: 7d66 51be b02f 9ebd 590e 3e3e 23aa adbe
000000c0: 58f9 db3d 1bd5 a83e 0238 aebe d5bc fd3e
000000d0: 0d82 62be 3529 d0be 8def e1be 974f c2be
000000e0: ec39 2dbe 52d2 bfbe ed72 e4be 2cd9 bebe
000000f0: aeab c03e b045 5b3d 2d9e 5dbe dd05 febe

gat_layers.0.att_edge f4 [1, 4, 16]
-0.04505331 -0.35768217 -0.03169565 -0.13094756 -0.30806702 -0.51629686 0.14682855 0.17458542
-0.037984304 -0.09228959 0.3929344 0.38852787 -0.48155576 0.45425025 0.23467588 -0.3886281
0.0065303477 -0.10480815 0.42330083 0.42643452 0.43523252 -0.439237 0.11368442 -0.054478355
0.03169798 -0.09129413 0.489253 0.20246752 0.1028123 -0.089464664 0.52733326 -0.45697787
-0.26513976 0.13585727 -0.13524133 0.48680785 -0.014418508 0.16657543 0.27448 -0.19839191
-0.03590164 0.05796796 -0.39542708 0.20340261 0.31954247 -0.3885225 -0.30451298 0.1831065
-0.3485903 0.5317148 -0.08105713 0.17291413 0.32064041 0.48669526 -0.28348666 0.44390276
0.484309 0.13826287 -0.13189955 -0.10066238 0.36064848 0.003571976 -0.44013315 -0.05065274
00000000: d289 38bd 1e22 b7be 4cd3 01bd 1e17 06be
00000010: f6ba 9dbe 082c 04bf 395a 163e 85c6 323e
00000020: 6e95 1bbd 5302 bdbd b32e c93e 20ed c63e
00000030: 7a8e f6be 7d93 e83e e04e 703e 43fa c6be
00000040: 87fc d53b a8a5 d6bd e3ba d83e a055 da3e
00000050: ccd6 de3e ace3 e0be 61d3 e83d b224 5fbd
00000060: bed5 013d 6bf8 babd 5f7f fa3e a553 4f3e
00000070: 418f d23d 4039 b7bd 50ff 063f 01f9 e9be
00000080: 66c0 87be 2b1e 0b3e b47c 0abe e13e f93e
00000090: 9b3b 6cbc c092 2a3e a488 8c3e 4027 4bbe
000000a0: 990d 13bd d06f 6d3d 6b75 cabe c648 503e
000000b0: 129b a33e 6cec c6be 20e9 9bbe 4580 3b3e
000000c0: 6e7a b2be 761e 083f 4801 a6bd 6710 313e
000000d0: fb2a a43e 1f30 f93e 2a25 91be 3947 e33e
000000e0: 59f7 f73e c894 0d3e ad10 07be 1428 cebd
000000f0: eba6 b83e d017 6a3b 2259 e1be 3f79 4fbd

gat_layers.0.bias f4 [64]
-0.005633578 -0.006184829 0.004433407 -0.0058003007 -0.00803688 -0.008030974 0.008595842 -0.008014629
0.0049530882 -0.00775927 -0.007993662 0.0075289938 -0.007991893 -0.008016625 -0.008049487 -0.008005066
-0.008014523 0.0107609015 -0.008019866 -0.007665463 -0.0063947467 -0.007971869 -0.008004749 0.0068472885
-0.008013483 0.012247747 -0.008022571 0.0033434154 0.008637937 -0.005975565 -0.008092793 0.011204574
0.010154433 -0.006690759 0.0073642354 -0.008026607 0.00935023 0.00960451 -0.008061085 -0.008059152
-0.008030027 -0.008025321 -0.008015718 -0.008018855 -0.008021505 -0.008023249 0.011040453 -0.008052184
-0.007952415 -0.008006269 -0.008008847 -0.0054658507 0.0074724425 0.002630146 -0.007993583 -0.008038783
-0.0063198665 -0.00802636 0.0022674692 -0.008015006 -0.007990912 -0.00800152 0.0022423912 -0.00800507
00000000: e199 b8bb 1baa cabb 1d46 913b 7310 bebb
00000010: 1ead 03bc 5994 03bc 93d5 0c3c ca4f 03bc
00000020: 844d a23b 7941 febb d9f7 02bc c7b5 f63b
00000030: 6ef0 02bc 2a58 03bc ffe1 03bc ae27 03bc
00000040: 594f 03bc 7e4e 303c c265 03bc 902e fbbb
00000050: 068b d1bb 719c 02bc 5a26 03bc 385f e03b
00000060: fc4a 03bc c6aa 483c 1a71 03bc 341d 5b3b
00000070: 2286 0d3c acce c3bb a297 04bc 6493 373c
00000080: c75e 263c 283e dbbb af4f f13b 0882 03bc
00000090: b531 193c 3c5c 1d3c a412 04bc 890a 04bc
000000a0: 6090 03bc a37c 03bc 5c54 03bc 8461 03bc
000000b0: a16c 03bc f273 03bc 04e3 343c 4fed 03bc
000000c0: d94a 02bc ba2c 03bc 8a37 03bc e11a b3bb
000000d0: 64db f43b 875e 2c3b 84f7 02bc 1ab5 03bc
000000e0: e216 cfbb fe80 03bc d299 143b 5f51 03bc
000000f0: 50ec 02bc cf18 03bc 15f5 123b b227 03bc

gat_layers.0.lin.weight f4 [64, 64]
-0.15231784 0.123824485 -0.16535558 0.02281054 -0.09628675 0.015910704 0.020959433 0.11083728
0.043168087 -0.10250442 0.052900616 0.14844961 -0.10867856 -0.09574766 -0.12023147 0.17382807
0.09593019 -0.20454516 0.033914637 -0.08277622 -0.1024269 -0.080992 -0.09170678 -0.028470337
-0.099226266 -0.21297094 -0.05364366 0.1464831 -0.03262835 0.14898364 0.12243549 0.18263282
0.014454754 -0.055002563 0.113452554 0.081245035 -0.0010622051 0.16434996 0.04654178 -0.19333106
-0.097070955 -0.12429331 0.09033384 -0.09772431 0.12450548 -0.103507034 0.13390502 0.14594474
0.08248102 0.13185012 0.1676747 0.19046946 -0.19115731 0.08408407 -0.0111887455 0.06615375
0.15628123 0.009096658 -0.12567091 0.006381534 -0.10509036 -0.016493862 0.12614109 0.19355099
-0.0049284548 0.05120298 0.14627934 -0.035073787 -0.20988207 0.13102323 -0.02380193 -0.17255278
-0.05930112 0.02362009 0.14341149 0.05134847 -0.045125958 -0.0098403655 -0.010616199 0.15239164
-0.10991129 -0.005160655 0.08378493 -0.1972952 -0.119178124 -0.17053533 -0.15611972 0.19794238
0.03406537 0.1189032 -0.13555084 0.025018865 -0.18969883 -0.18160485 0.13656504 -0.058897126
-0.10126668 -0.2117722 -0.04098484 -0.12647648 -0.12503985 -0.09302315 -0.18472219 -0.074280046
-0.18740706 -0.12219869 -0.037326284 -0.058150522 0.114328116 0.1822773 0.17808403 0.045841977
-0.15980546 0.16656345 -0.08958822 -0.034898773 0.18850844 -0.1628728 -0.1019777 0.065794624
-0.0042264895 -0.031544585 0.202077 -0.14867084 -0.03855581 0.05486768 -0.081577025 0.15763296
-0.06501946 0.21899694 -0.09607358 -0.21950859 0.0391397 0.15409513 -0.10360239 0.12780647
-0.17196739 0.16891894 -0.14846057 0.15790421 0.016609242 -0.08256709 -0.18662092 -0.18322821
0.13409942 -0.010566546 0.07939248 -0.0204134 0.020283673 -0.1879598 0.086649254 0.09246718
-0.073595114 -0.11025879 -0.10871749 0.15543017 0.04267465 -0.13518575 0.073727675 -0.15527329
-0.037670165 0.044539556 0.21203901 -0.16504903 -0.19128612 -0.09930579 0.13744195 0.12349174
0.12321419 0.048241675 -0.20756237 -0.09501031 -0.045936994 -0.19152011 0.05704667 0.14628796
0.015950924 0.18864307 -0.030955251 0.15761752 -0.2180978 -0.095268995 -0.02691401 0.053125225
0.18719043 0.07983884 0.14811349 0.2123282 0.042312674 0.04166505 -0.08348405 0.012443996
0.16296475 0.12586004 -0.17937982 -0.1079459 0.1313541 -0.0026425119 0.20155877 0.037270237
0.16477093 -0.1724615 -0.118605115 0.10462095 -0.04690808 0.20294015 0.050795197 -0.04040604
0.20508505 0.16819069 0.14161447 0.19693655 0.12536652 -0.13204932 0.15162641 -0.16351539
-0.04688629 -0.15514259 0.109432384 -0.0060066 -0.022035232 0.14549325 -0.014488337 -0.067641914
0.05590856 -0.17029904 -0.053135443 -0.1457273 -0.098299265 0.017531106 -0.00081418187 -0.13327621
0.14530088 -0.15921897 0.16120075 -0.13474014 0.030995047 0.09236 -0.024679597 -0.21294144
0.13885 -0.0032713925 0.19477199 0.05707719 -0.14235575 0.15735543 0.057149824 0.06839662
-0.09912911 -0.087921165 -0.07276406 -0.16213407 -0.12786038 0.0011024503 -0.005750377 0.0550362
00000000: 35f9 1bbe b197 fd3d f952 29be 2bdd ba3c
00000010: fd31 c5bd 2a57 823c 1eb3 ab3c a8fe e23d
00000020: 05d1 303d d6ed d1bd 51ae 583d 2d03 183e
00000030: dd92 debd 5917 c4bd eb3b f6bd fcff 313e
00000040: 0c77 c43d 4974 51be 13ea 0a3d 9486 a9bd
00000050: 32c5 d1bd 22df a5bd c4d0 bbbd a03a e9bc
00000060: 2437 cbbd 0e15 5abe 74b9 5bbd aaff 153e
00000070: 4ea5 05bd 2b8f 183e 75bf fa3d 1904 3b3e
00000080: a2d3 6c3c 5e4a 61bd d059 e83d cc63 a63d
00000090: b039 8bba 5b4b 283e 98a2 3e3d 94f8 45be
000000a0: 23cd c6bd 7e8d febd f300 b93d af23 c8bd
000000b0: bbfc fe3d 7ffb d3bd 661e 093e 8a72 153e
000000c0: cfeb a83d b803 073e ebb2 2b3e 6d0a 433e
000000d0: bebe 43be 4534 ac3d 0051 37bc 9e7b 873d
000000e0: 3008 203e 260a 153c e0af 00be 301c d13b
000000f0: 9d39 d7bd 231e 87bc 212b 013e 3b32 463e
00000100: e07e a1bb 37ba 513d 40ca 153e 88a9 0fbd
00000110: 53eb 56be f42a 063e 44fc c2bc adb1 30be
00000120: bbe5 72bd eb7e c13c 76da 123e c652 523d
00000130: ffd5 38bd 7c39 21bc 91ef 2dbc 8e0c 1c3e
00000140: 2c19 e1bd b61a a9bb 6f97 ab3d c107 4abe
00000150: a913 f4bd d0a0 2ebe d9dd 1fbe 68b1 4a3e
00000160: 2188 0b3d 8583 f33d d7cd 0abe 5df4 cc3c
00000170: 6940 42be 9ff6 39be b5d7 0b3e 1d3e 71bd
00000180: e864 cfbd d0da 58be b8df 27bd 0d83 01be
00000190: 720a 00be ec82 bebd d027 3dbe 2320 98bd
000001a0: a3e7 3fbe 4f43 fabd 72e3 18bd 3e2f 6ebd
000001b0: dc24 ea3d e7a6 3a3e a95b 363e ccc4 3b3d
000001c0: 0ba4 23be 9c8f 2a3e 077a b7bd 04f2 0ebd
000001d0: 5b08 413e 21c8 26be afd9 d0bd 55bf 863d
000001e0: 5d7e 8abb e534 01bd 46ed 4e3e 2b3d 18be
000001f0: b2ec 1dbd efbc 603d db11 a7bd 896a 213e
00000200: ec28 85bd bc40 603e 3ac2 c4bd dcc6 60be
00000210: f350 203d 1dcb 1d3e 7d2d d4bd b3df 023e
00000220: 3818 30be 16f9 2c3e 0c06 18be a4b1 213e
00000230: 1b10 883c ef18 a9bd 8e19 3fbe 2da0 3bbe
00000240: 5c51 093e 4e1f 2dbc 8698 a23d 013a a7bc
00000250: f229 a63c 8978 40be 2a75 b13d 6f5f bd3d
00000260: 09b9 96bd 5ccf e1bd 47a7 debd 1629 1f3e
00000270: 9dcb 2e3d 226e 0abe 89fe 963d f6ff 1ebe
00000280: 084c 1abd 1c6f 363d c120 593e 9d02 29be
00000290: 82e0 43be d660 cbbd 95bd 0c3e 3de9 fc3d
000002a0: b957 fc3d 1099 453d 3b8b 54be c494 c2bd
000002b0: 6e28 3cbd d91d 44be c5a9 693d 83cc 153e
000002c0: 83ab 823c a62b 413e de95 fdbc 7d66 213e
000002d0: 0855 5fbe 641c c3bd c57a dcbc d699 593d
000002e0: d9ae 3f3e 8c82 a33d 10ab 173e 906c 593e
000002f0: 0e50 2d3d f9a8 2a3d b0f9 aabd e7e1 4b3c
00000300: 3be0 263e 74e1 003e 58af 37be bd12 ddbd
00000310: b081 063e fe2d 2dbb 6c65 4e3e ada8 183d
00000320: b6b9 283e bf99 30be 3de7 f2bd 8243 d63d
00000330: b022 40bd 8bcf 4f3e a00e 503d ce80 25bd
00000340: d101 523e 2e3a 2c3e 6203 113e bca9 493e
00000350: 1560 003e f037 07be f443 1b3e 9470 27be
00000360: d70b 40bd b3dd 1ebe 161e e03d 03d3 c4bb
00000370: 3b83 b4bc 2ffc 143e 7d60 6dbc d887 8abd
00000380: 6000 653d df62 2ebe 8da4 59bd 8a39 15be
00000390: 2051 c9bd 659d 8f3c d26e 55ba 8f79 08be
000003a0: c1c9 143e 4c0a 23be cf11 253e 52f9 09be
000003b0: 53e9 fd3c 3d27 bd3d de2c cabc 520d 5abe
000003c0: b22e 0e3e dc64 56bb 4f72 473e c6c9 693d
000003d0: b5c5 11be c821 213e ef15 6a3d 8713 8c3d
000003e0: 3404 cbbd 0310 b4bd 5305 95bd 7906 26be
000003f0: d5ed 02be 1880 903a a96d bcbb a36d 613d

gat_layers.0.lin_edge.weight f4 [64, 64]
0.16232806 0.014022015 -0.079925545 0.20936924 -0.21433379 0.18935525 -0.1430053 0.011670935
-0.046217915 0.17804879 -0.15696089 0.10695537 0.20753029 0.1476395 -0.116278194 -0.06131366
-0.21339852 0.008028488 -0.043616842 -0.105595425 -0.047367144 0.14946027 -0.034518078 0.034805182
0.18036431 -0.16603947 0.1033336 0.03933468 0.018026076 0.007915369 0.13869905 -0.032286823
-0.21219172 -0.14351282 -0.19951403 0.14227112 -0.10599394 0.20479366 -0.08850642 -0.054174863
0.17777592 0.20688906 -0.07845531 0.20789115 -0.1059168 0.06117373 -0.024489466 -0.010483514
-0.04157165 -0.043729566 0.1527316 -0.048018463 0.2028574 0.048068676 -0.026909025 0.019696917
-0.039928153 0.09049937 -0.010065451 0.08111302 -0.19651103 0.103617616 -0.14368418 0.12270901
0.108224414 0.1753991 0.014726727 0.023436187 -0.18091099 -0.0076956074 -0.09836002 0.1399433
0.016954571 -0.09930457 -0.14567684 -0.045169808 -0.15672675 -0.1208275 0.006176997 0.10412026
0.02003507 0.08213958 -0.19114606 -0.2045047 0.00605669 -0.15776044 0.17436664 0.099796794
0.049165554 0.113068596 -0.06175411 -0.08042351 -0.009003323 0.035662968 0.06276781 -0.03675035
0.041799348 0.12455151 -0.16005412 -0.107725866 0.08633823 -0.101758584 0.03363104 0.11665592
0.13912597 -0.19952348 0.09028443 0.21424933 -0.054626152 0.069800735 -0.16282815 -0.11705619
0.11034304 -0.052089784 -0.07078872 0.03436867 -0.110887386 0.025795935 0.05413135 -0.18109708
-0.08946739 -0.16780153 -0.048887387 0.07677916 -0.011834722 0.022340128 -0.14165106 0.19565135
0.15785892 0.16099244 -0.01506818 0.15845804 0.16000897 -0.080092706 -0.06807206 0.17559043
0.13455875 0.21324714 -0.19220719 -0.17823555 -0.084627464 -0.14160366 0.046244968 -0.07186559
-0.023040945 0.15376735 -0.15970385 -0.09996239 0.11173154 -0.14229238 0.13269393 -0.053719766
0.003043783 -0.12275219 -0.07561407 -0.107254446 -0.12683168 -0.02367022 0.09839198 0.02158577
-0.18023954 0.10026556 -0.15116003 -0.16136454 -0.19776562 0.078797124 0.09236267 0.005851148
-0.1627923 0.13980435 -0.009402677 -0.09865637 0.16432887 -0.019878257 -0.21570268 -0.21459629
-0.20405902 0.083106965 0.21335225 -0.11614722 -0.050106406 0.17602839 -0.07218635 0.025227003
0.054908816 -0.18625036 0.08280114 0.084456034 0.049716417 0.15500993 0.037307814 -0.10575337
-0.12019624 0.17302608 -0.20731662 0.14067003 0.14004184 -0.024005683 -0.10108976 -0.047576174
-0.10451876 0.048361827 0.16348329 0.08990772 0.061547767 0.2041859 0.1097519 -0.13281895
0.18151914 0.039967682 -0.077940784 -0.13310613 0.07248245 0.07012163 -0.14495352 -0.09142708
0.17015254 -0.00043066766 0.024915317 0.123849295 -0.007475711 0.014790831 0.15493603 -0.037575636
0.17978215 -0.16259302 0.064444326 -0.18982808 -0.201485 -0.191048 0.1809026 -0.046981845
-0.14992146 0.012740727 0.09726049 -0.0575998 0.045729224 0.0648451 0.088194534 0.027782597
-0.10932986 -0.089318 -0.11141577 -0.09397423 -0.030486075 -0.024429834 0.20585738 -0.20870835
0.020496288 0.09983511 0.18139721 0.08491235 -0.13853015 0.1010981 -0.02035523 -0.06797532
00000000: 5439 263e 98bc 653c 01b0 a3bd e464 563e
00000010: 517a 5bbe 58e6 413e fb6f 12be 7337 3f3c
00000020: ff4e 3dbd 6c52 363e 5bba 20be 6b0b db3d
00000030: d282 543e cf2e 173e 4323 eebd 0824 7bbd
00000040: 2485 5abe eb89 033c 93a7 32bd 6a42 d8bd
00000050: 0d04 42bd 1d0c 193e d462 0dbd e18f 0e3d
00000060: 6cb1 383e 4006 2abe 91a0 d33d 671d 213d
00000070: 6cab 933c 77af 013c 2007 0e3e 303f 04bd
00000080: c948 59be 06f5 12be 684d 4cbe 85af 113e
00000090: 5a13 d9bd 6eb5 513e db42 b5bd 76e6 5dbd
000000a0: e40a 363e bada 533e 2dad a0bd 6be1 543e
000000b0: e8ea d8bd 4e91 7a3d 229e c8bc 0bc3 2bbc
000000c0: 0947 2abd c61d 33bd ac65 1c3e 02af 44bd
000000d0: dab9 4f3e a9e3 443d 5170 dcbc 6e5b a13c
000000e0: b48b 23bd bc57 b93d 90e9 24bc 951e a63d
000000f0: 303a 49be 7935 d43d f221 13be dd4e fb3d
00000100: c3a4 dd3d d29b 333e 5f48 713c 3ffd bf3c
00000110: bb40 39be 6f2b fcbb fa70 c9bd 4c4d 0f3e
00000120: 50e4 8a3c 3260 cbbd 4f2c 15be fa03 39bd
00000130: fa7c 20be 6974 f7bd 6868 ca3b 013d d53d
00000140: 9620 a43c cc38 a83d cbbb 43be ae69 51be
00000150: 3377 c63b f48b 21be 2b8d 323e 4362 cc3d
00000160: d261 493d 8290 e73d e1f1 7cbd 15b5 a4bd
00000170: ac82 13bc 5513 123d 698c 803d 8987 16bd
00000180: cb35 2b3d dd14 ff3d 3ae5 23be 619f dcbd
00000190: 19d2 b03d ce66 d0bd b4c0 093d 4de9 ee3d
000001a0: 0a77 0e3e e24f 4cbe 0be7 b83d 2d64 5b3e
000001b0: acbf 5fbd b0f3 8e3d 6cbc 26be 28bb efbd
000001c0: 88fb e13d 195c 55bd adf9 90bd 2ac6 0c3d
000001d0: ed18 e3bd ff51 d33c d6b8 5d3d 8371 39be
000001e0: ae3a b7bd 2ad4 2bbe 243e 48bd 643e 9d3d
000001f0: 6ce6 41bc a502 b73c fa0c 11be d458 483e
00000200: c5a5 213e 34db 243e 87e0 76bc d342 223e
00000210: 64d9 233e a507 a4bd 5d69 8bbd facd 333e
00000220: c5c9 093e 755d 5a3e f6d1 44be 6183 36be
00000230: 2a51 adbd 8d00 11be 5d6b 3d3d 442e 93bd
00000240: 5dc0 bcbc 3075 1d3e 6889 23be 15b9 ccbd
00000250: 81d3 e43d 18b5 11be ebe0 073e 4209 5cbd
00000260: 347a 473b 8065 fbbd 8ddb 9abd 38a8 dbbd
00000270: 2ae0 01be 0de8 c1bc bc81 c93d a4d4 b03c
00000280: b790 38be 0858 cd3d b2c9 1abe bf3c 25be
00000290: 1283 4abe 6360 a13d a428 bd3d fdba bf3b
000002a0: 06b3 26be df28 0f3e b00d 1abc 5a0c cabd
000002b0: d445 283e bad7 a2bc 2ae1 5cbe 21bf 5bbe
000002c0: d9f4 50be fc33 aa3d 0379 5a3e 98de edbd
000002d0: 603c 4dbd c940 343e 70d6 93bd dca8 ce3c
000002e0: 11e8 603d 6ab8 3ebe a593 a93d 49f7 ac3d
000002f0: 71a3 4b3d ecba 1e3e 14d0 183d 3995 d8bd
00000300: 7229 f6bd c02d 313e cf4a 54be ce0b 103e
00000310: 2167 0f3e 91a7 c4bc 2608 cfbd 3cdf 42bd
00000320: ef0d d6bd 0d17 463d 2a68 273e 8a21 b83d
00000330: 8319 7c3d 1c16 513e 9bc5 e03d b101 08be
00000340: 27e0 393e 27b5 233d 6b9f 9fbd f94c 08be
00000350: ae71 943d ee9b 8f3d b26e 14be 1f3e bbbd
00000360: 783c 2e3e 3ccb e1b9 351b cc3c b3a4 fd3d
00000370: cff6 f4bb 3e55 723c 8da7 1e3e e9e8 19bd
00000380: d018 383e c97e 26be 63fb 833d 4b62 42be
00000390: 1552 4ebe 16a2 43be 883e 393e 0970 40bd
000003a0: 0385 19be 7bbe 503c 8230 c73d c5ed 6bbd
000003b0: 914e 3b3d 82cd 843d 569f b43d 5498 e33c
000003c0: 55e8 dfbd 5bec b6bd f42d e4bd 9075 c0bd
000003d0: efbd f9bc 1321 c8bc 47cc 523e a4b7 55be
000003e0: d5e7 a73c 5a76 cc3d 31c0 393e 87e6 ad3d
000003f0: d9da 0dbe 850c cf3d 03c0 a6bc a536 8bbd

gat_layers.1.att_src f4 [1, 4, 16]
-0.2887035 0.1593565 0.5103369 0.35746 0.36097386 -0.2661563 -0.12442415 -0.22103138
-0.15275034 -0.3135272 -0.25936872 0.41979563 -0.3373702 -0.524261 0.33411363 0.43370137
0.29202664 0.030596985 0.48766413 -0.24003212 0.36896226 0.022073505 0.34067369 -0.51986307
-0.13130458 0.33843237 0.030252673 0.2791626 0.17609735 0.057341397 -0.21756607 0.12588528
0.31580156 -0.5066865 -0.45839888 0.47878587 -0.13467208 0.48427624 -0.3349947 0.35901028
-0.43581936 -0.15703143 -0.21925682 -0.0023472095 0.16964653 -0.528902 0.51001155 0.4115209
0.04456317 -0.5045475 -0.47073236 -0.2483028 -0.13360006 -0.06810461 0.28703597 -0.30924544
-0.16771074 0.20423071 0.34329268 -0.2970904 -0.2854142 -0.06820529 0.12910786 -0.32461688
00000000: f2d0 93be 5a2e 233e 70a5 023f ff04 b73e
00000010: 91d1 b83e a345 88be 17d2 febd 0d56 62be
00000020: 966a 1cbe a386 a0be facb 84be 74ef d63e
00000030: c9bb acbe f835 06bf f110 ab3e 1b0e de3e
00000040: 8484 953e 87a6 fa3c 1daf f93e fbca 75be
00000050: 9fe8 bc3e 7fd3 b43c c86c ae3e bf15 05bf
00000060: b574 06be 0247 ad3e 74d4 f73c 66ee 8e3e
00000070: dd52 343e d0de 6a3d a4c9 5ebe 12e8 003e
00000080: beb0 a13e 35b6 01bf 42b3 eabe 6c23 f53e
00000090: 7ae7 09be 0ef3 f73e 6d84 abbe 32d0 b73e
000000a0: b723 dfbe d9cc 20be dc84 60be a4d3 19bb
000000b0: d2b7 2d3e 1f66 07bf 1e90 023f deb2 d23e
000000c0: df87 363d 062a 01bf d503 f1be 1743 7ebe
000000d0: 74ce 08be 6e7a 8bbd 61f6 923e 6b55 9ebe
000000e0: 5dbc 2bbe db21 513e 0fc4 af3e 3c1c 98be
000000f0: cf21 92be 37af 8bbd da34 043e 2f34 a6be

gat_layers.1.att_dst f4 [1, 4, 16]
-0.38030994 0.11308661 -0.48554662 -0.1490504 -0.29378477 0.54011506 -0.3684727 0.44160977
0.11326717 -0.02076146 -0.005560284 -0.0068945317 -0.45757967 0.1656363 -0.39858073 0.027511958
0.10023358 0.16866967 0.49894112 -0.27608675 0.37545577 -0.458862 0.289086 0.14538485
-0.32811487 0.08854943 0.4423448 0.40297478 0.103401646 0.2214348 -0.16756985 0.058061898
-0.005449559 0.3110561 -0.53203523 -0.38024202 0.31255248 -0.38222814 0.40716997 -0.05203271
0.45098823 0.23955135 -0.16880344 -0.52394277 0.2108002 -0.32530424 -0.16803382 0.015433065
-0.087893404 -0.4567557 0.20382865 0.5161213 -0.46424282 -0.32466426 -0.20486721 -0.23168321
0.29873648 0.5345651 -0.47973225 0.23978406 0.08880463 -0.17464921 -0.40893823 -0.5117346
00000000: fcb7 c2be f499 e73d 9199 f8be aba0 18be
00000010: f56a 96be fb44 0a3f 74a8 bcbe ad1a e23e
00000020: 9ef8 e73d f013 aabc 0b33 b6bb 86eb e1bb
00000030: e247 eabe 909c 293e c612 ccbe c260 e13c
00000040: 4347 cd3d beb7 2c3e 3675 ff3e 3e5b 8dbe
00000050: bd3b c03e f6ef eabe 1503 943e c4df 143e
00000060: acfe a7be 6759 b53d 057b e23e b652 ce3e
00000070: 3ec4 d33d cebf 623e 6e97 2bbe 50d2 6d3d
00000080: 3792 b2bb bf42 9f3e 7633 08bf 15af c2be
00000090: e106 a03e 68b3 c3be 9578 d03e 4020 55bd
000000a0: eee7 e63e f34c 753e cfda 2cbe 1d21 06bf
000000b0: 02dc 573e 478e a6be 0f11 2cbe f7da 7c3c
000000c0: 7501 b4bd e2db e9be 75b8 503e 8720 043f
000000d0: 3cb1 edbe 653a a6be b6c8 51be 5d3e 6dbe
000000e0: fdf3 983e 42d9 083f 779f f5be f489 753e
000000f0: 34df b53d 3ed7 32be 5a60 d1be 0a01 03bf

gat_layers.1.att_edge f4 [1, 4, 16]
-0.21130456 -0.42201588 -0.10831763 -0.3830758 -0.014309753 0.07449025 -0.16919763 0.33246323
-0.0044128075 0.19204582 -0.45681623 0.04537467 0.46948892 -0.180729 0.2757354 -0.1585621
-0.3631174 -0.18609165 0.48590034 -0.3907985 0.48558927 0.51527613 -0.21607563 -0.08532251
0.17928512 0.07344537 0.27892694 -0.5066998 0.5067924 -0.10509289 0.2035708 -0.08832916
0.06676323 0.37466353 0.3890008 -0.40095034 0.50034946 0.015929598 -0.05130939 0.06233182
-0.5099751 -0.12900548 -0.092086844 -0.24045362 -0.44799933 -0.23369446 -0.2649851 -0.16815403
-0.38812718 -0.3618694 -0.39132145 0.5208727 -0.025750019 -0.49092758 0.49766597 -0.4264354
-0.38649788 -0.026324112 0.24921103 0.35959032 -0.47149715 -0.02845698 -0.4874304 0.11526859
00000000: 3960 58be 7712 d8be a2d5 ddbd 8322 c4be
00000010: 7473 6abc 588e 983d 2542 2dbe 9f38 aa3e
00000020: 5099 90bb a9a7 443e d1e3 e9be cada 393d
00000030: da60 f03e 0611 39be 312d 8d3e 1a5e 22be
00000040: 86ea b9be cf8e 3ebe eec7 f83e be16 c8be
00000050: 289f f83e 23e9 033f ee42 5dbe 91bd aebd
00000060: 8596 373e 876a 963d 83cf 8e3e 14b7 01bf
00000070: 26bd 013f f13a d7bd dd74 503e ebe5 b4bd
00000080: 29bb 883d e6d3 bf3e 1d2b c73e 5d49 cdbe
00000090: e716 003f ca7e 823c cc29 52bd a74f 7f3d
000000a0: ba8d 02bf 031a 04be 0798 bcbd 7939 76be
000000b0: 2b60 e5be 9a4d 6fbe 21ac 87be 9230 2cbe
000000c0: 9bb8 c6be f246 b9be 495b c8be ea57 053f
000000d0: b4f1 d2bc dc5a fbbe 13ce fe3e be55 dabe
000000e0: 0de3 c5be aaa5 d7bc 2d31 7f3e 391c b83e
000000f0: 1368 f1be 9d1e e9bc 7a90 f9be f011 ec3d

gat_layers.1.bias f4 [64]
-0.0056814114 -0.005981602 0.0051588034 -0.0074907118 -0.0074988417 -0.007543812 -0.0075641405 -0.007555179
0.003970084 -0.006593559 -0.006268737 0.009150273 -0.0073969546 -0.007494575 -0.007607581 0.0126294475
-0.004826558 0.011997242 -0.007548973 -0.00757663 -0.005703025 -0.0075220596 -0.0075858496 0.008522333
0.004291331 -0.007496138 0.010054025 -0.004872363 0.0112321135 -0.00751169 -0.0075413412 0.011100441
-0.0074746087 -0.0074802684 0.007026755 -0.0075736605 0.010361222 -0.007465383 -0.007561552 -0.007478605
-0.007536679 -0.0074695656 -0.007610649 -0.0074650133 -0.0074896067 -0.0074719638 -0.007487633 -0.0074787824
-0.0015800741 -0.0075491476 -0.0075549698 -0.0075911903 0.009617342 0.0048894365 0.0038799578 -0.0075923163
-0.0075546056 -0.007549389 0.0026114504 -0.0074491682 -0.0072047897 -0.004981263 0.0008172706 -0.0075686653
00000000: 222b babb 5001 c4bb 2e0b a93b a574 f5bb
00000010: d8b8 f5bb 1532 f7bb 9cdc f7bb 6f91 f7bb
00000020: 7a17 823b c80e d8bb fa69 cdbb 07eb 153c
00000030: 2762 f2bb 0d95 f5bb 0449 f9bb beeb 4e3c
00000040: 1a28 9ebb 1590 443c 605d f7bb 6145 f8bb
00000050: 71e0 babb 9c7b f6bb b892 f8bb 41a1 0b3c
00000060: 4b9e 8c3b 2aa2 f5bb a3b9 243c 58a8 9fbb
00000070: e606 383c 9f24 f6bb 5b1d f7bb a0de 353c
00000080: 90ed f4bb 0a1d f5bb b140 e63b 782c f8bb
00000090: 1dc2 293c 2ca0 f4bb e5c6 f7bb 160f f5bb
000000a0: 3ff6 f6bb 42c3 f4bb c062 f9bb 129d f4bb
000000b0: 606b f5bb 60d7 f4bb d15a f5bb 9310 f5bb
000000c0: 7d1a cfba d75e f7bb ae8f f7bb 85bf f8bb
000000d0: 0e92 1d3c 9137 a03b e446 7e3b f7c8 f8bb
000000e0: a08c f7bb dd60 f7bb de24 2b3b 2718 f4bb
000000f0: 2816 ecbb dd39 a3bb 1a3e 563a 9102 f8bb

gat_layers.1.lin.weight f4 [64, 64]
0.0053720004 -0.15224956 -0.08018423 0.1004782 -0.12587155 0.016081853 0.09858294 -0.11376516
-0.13264169 -0.118788354 -0.15490684 -0.013234734 -0.09852094 0.11855051 0.15409456 -0.0735281
-0.13029546 -0.18372497 -0.021438701 0.16960658 0.037838507 0.07422102 -0.086072 -0.015468881
0.1933685 -0.11924614 -0.07609234 0.18495655 0.078401126 0.1514844 -0.13417913 -0.19251372
-0.051673234 -0.0821565 -0.025863456 0.0558528 -0.18128946 -0.12689811 0.012054357 0.009245372
0.16473834 -0.17647627 -0.14489393 -0.061332665 -0.20047565 -0.040140886 -0.1405089 0.21498433
0.09421665 0.15022767 0.12854835 0.041791283 0.04850411 0.1642783 0.07000998 -0.1009647
0.15745218 -0.027655207 -0.061729982 0.06337218 -0.03561754 0.19175397 0.07969221 0.028004717
-0.12897915 -0.094269365 0.05057362 0.14886254 0.101445206 0.02491845 0.11897221 -0.13266833
0.041670375 0.1636119 0.057314806 0.023614012 0.2042262 0.09056442 0.106626965 -0.204764
-0.05806405 -0.14134425 0.18758087 0.13110277 -0.037213568 0.035272703 -0.10947608 0.10328402
0.20788501 0.062040012 -0.1274232 -0.02609485 -0.099032015 0.19350381 -0.049530204 -0.009418339
-0.20454453 -0.032823388 0.040932346 -0.14472774 0.10213369 -0.11924715 0.115441285 -0.095469445
-0.080619805 0.16318792 -0.12844133 -0.027828509 -0.11730945 -0.19284783 0.05004318 0.19757742
-0.18416555 0.1126911 -0.0070114834 -0.2149806 0.038549934 -0.015234455 0.022970293 -0.067375936
0.07355995 -0.16640675 -0.032402463 -0.12968008 0.024116939 -0.12309193 0.19940206 -0.11941854
0.034772933 -0.033918716 -0.07209693 0.006982775 -0.11889431 0.045641027 -0.0013570375 -0.1373421
0.14484642 -0.12826045 0.09715103 -0.06062868 -0.020855023 0.08535529 0.17959377 0.040600944
0.06610097 -0.05601255 0.14366381 0.17123984 -0.019822909 0.13852209 -0.0799735 0.20828283
-0.065954484 -0.1219601 0.11633137 0.08588637 -0.021738073 0.06635229 0.046269335 0.027719567
0.14624876 0.18843305 -0.18425529 0.08911636 -0.06729543 0.20968808 0.047989905 -0.10473228
-0.20115139 -0.15325665 -0.17510603 -0.11692687 -0.17272915 -0.20320342 0.10910962 0.043673676
-0.1852061 0.2035564 0.16032587 -0.18844745 -0.1544957 0.17121893 0.11094712 -0.22411406
0.19593866 -0.071189284 -0.13497414 -0.1880307 0.11605462 -0.08186838 0.05674234 0.21647589
-0.13172685 -0.14398687 0.060531404 0.0673455 -0.047132637 0.03208737 0.11702879 -0.16505763
0.15317501 -0.061447673 0.11216081 0.12737378 -0.057711627 -0.010629458 -0.10536287 0.14532804
0.13474573 0.16448103 0.1522875 -0.073558114 -0.06603643 -0.09081557 0.15256748 -0.11885286
-0.14223412 -0.058751523 0.005523268 0.03638873 0.10636602 -0.048774075 -0.021175941 0.13848576
-0.022890765 -0.12945862 0.14979412 -0.006481015 0.013937623 -0.13359149 0.09627962 -0.03133795
0.19986641 0.09098799 0.031322528 0.013760974 0.18474296 0.14395256 0.20932291 -0.18910179
-0.192688 -0.10389379 -0.086306915 -0.07218052 0.118214 0.021277735 0.10025204 0.21376285
-0.055788536 0.18376964 0.06246001 0.05252473 0.16048062 0.061573092 0.043046623 -0.00012844223
00000000: 9b07 b03b 4fe7 1bbe a137 a4bd 84c7 cd3d
00000010: 79e4 00be 17be 833c dae5 c93d b5fd e8bd
00000020: 39d3 07be 4f47 f3bd e69f 1ebe 7fd6 58bc
00000030: 59c5 c9bd 9cca f23d f7ca 1d3e e795 96bd
00000040: 2c6c 05be 6622 3cbe 37a0 afbc 59ad 2d3e
00000050: 8dfc 1a3d 3101 983d 8446 b0bd 3171 7dbc
00000060: 6402 463e 5237 f4bd 4dd6 9bbd 4065 3d3e
00000070: c590 a03d ba1e 1b3e 4166 09be 5122 45be
00000080: 50a7 53bd ab41 a8bd 99df d3bc e8c5 643d
00000090: f2a3 39be 94f1 01be a37f 453c e779 173c
000000a0: 2bb1 283e 32b6 34be 135f 14be f637 7bbd
000000b0: 7d49 4dbe c56a 24bd 91e1 0fbe da24 5c3e
000000c0: a9f4 c03d 48d5 193e 2ea2 033e 562d 2b3d
000000d0: 3fac 463d 9238 283e 6461 8f3d 95c6 cebd
000000e0: 253b 213e 2c8d e2bc 94d8 7cbd 46c9 813d
000000f0: b3e3 11bd 275b 443e ab35 a33d 266a e53c
00000100: 1c13 04be 4c10 c1bd 4926 4f3d 6c6f 183e
00000110: 81c2 cf3d c721 cc3c b4a7 f33d 35da 07be
00000120: 8eae 2a3d e189 273e eec2 6a3d 2c72 c13c
00000130: ac20 513e d779 b93d 3d5f da3d a7ad 51be
00000140: 92d4 6dbd 8cbc 10be 3315 403e ce3f 063e
00000150: 416d 18bd 1c7a 103d ff34 e0bd 9386 d33d
00000160: cfdf 543e ab1d 7e3d 3a7b 02be dec4 d5bc
00000170: 4cd1 cabd dd25 463e 2fe0 4abd 604f 1abc
00000180: 1f74 51be d171 06bd ada8 273d 8233 14be
00000190: 782b d13d da37 f4bd 7b6c ec3d 7c85 c3bd
000001a0: ff1b a5bd bc1a 273e 2086 03be 9df8 e3bc
000001b0: f03f f0bd e779 45be 14fa 4c3d bc51 4a3e
000001c0: e595 3cbe 97ca e63d 96c0 e5bb e023 5cbe
000001d0: 89e6 1d3d ef99 79bc 322c bc3c 65fc 89bd
000001e0: 99a6 963d 8866 2abe 72b8 04bd dbca 04be
000001f0: e390 c53c 9f17 fcbd 0e30 4c3e b591 f4bd
00000200: 106e 0e3d 5aee 0abd 8ea7 93bd c3cf e43b
00000210: dc7e f3bd 16f2 3a3d 9fde b1ba 68a3 0cbe
00000220: 9f52 143e b556 03be 1ff7 c63d c755 78bd
00000230: 27d8 aabc c1ce ae3d 6ee7 373e 2d4d 263d
00000240: f25f 873d 6a6d 65bd 9b1c 133e 7f59 2f3e
00000250: a763 a2bc bcd8 0d3e 25c9 a3bd 1848 553e
00000260: 2513 87bd 38c6 f9bd 243f ee3d 31e5 af3d
00000270: 0b14 b2bc b6e3 873d ea84 3d3d 2514 e33c
00000280: 3cc2 153e 98f4 403e 6bad 3cbe a382 b63d
00000290: 30d2 89bd 79b8 563e 1091 443d e17d d6bd
000002a0: a1fa 4dbe 50ef 1cbe ff4e 33be 5b77 efbd
000002b0: e9df 30be 8f14 50be dd74 df3d 2be3 323d
000002c0: aba6 3dbe 1771 503e 772c 243e 5ef8 40be
000002d0: 1f34 1ebe 0454 2f3e 3e38 e33d 287e 65be
000002e0: 25a4 483e b0cb 91bd a936 0abe 1f8b 40be
000002f0: 0bae ed3d 9caa a7bd a86a 683d dbab 5d3e
00000300: 67e3 06be 4b71 13be c7ef 773d 70ec 893d
00000310: 270e 41bd 0c6e 033d caac ef3d de04 29be
00000320: e9d9 1c3e 8eb0 7bbd 91b4 e53d 466e 023e
00000330: 0763 6cbd 2e27 2ebc 7dc8 d7bd e0d0 143e
00000340: c9fa 093e b76d 283e 41f1 1b3e a3a5 96bd
00000350: 1c3e 87bd 83fd b9bd a63a 1c3e 2169 f3bd
00000360: d2a5 11be 70a5 70bd 88fc b43b 590c 153d
00000370: 6ed6 d93d 53c7 47bd 2b79 adbc 36cf 0d3e
00000380: 6a85 bbbc cd90 04be a163 193e b25e d4bb
00000390: a15a 643c 35cc 08be 402e c53d 395c 00bd
000003a0: c8a9 4c3e e957 ba3d 0d4c 003d b575 613c
000003b0: 422d 3d3e 4d68 133e bf58 563e e6a3 41be
000003c0: 0150 45be 44c6 d4bd aec1 b0bd 61d3 93bd
000003d0: 2e1a f23d a54e ae3c f150 cd3d a6e4 5a3e
000003e0: 8582 64bd 1c2e 3c3e 11d6 7f3d 2c24 573d
000003f0: 0855 243e 1134 7c3d a851 303d 73ae 06b9

gat_layers.1.lin_edge.weight f4 [64, 64]
-0.106752135 0.020101182 -0.14426258 -0.060148098 -0.07507913 -0.19972125 0.078953296 -0.022003323
0.14701964 0.03992829 -0.16109991 -0.031663645 0.17486529 -0.20734388 0.08343101 -0.04263266
-0.008077349 -0.03309007 0.12844309 0.12523252 -0.030265762 -0.10088308 0.055262152 -0.0064068735
0.19011468 -0.014666029 -0.16090289 0.16839254 -0.13478798 -0.185711 0.20719047 -0.20787443
-0.09697494 0.109108 -0.21552318 -0.108086355 0.18176383 -0.046251893 -0.081485055 -0.09707318
0.15203848 -0.14005195 -0.039913133 -0.02479357 -0.19338353 0.13820468 -0.07926431 0.09813873
0.04383364 -0.06454258 -0.17453285 -0.08098893 0.060215827 0.051335085 0.18340936 0.19841166
0.17668663 -0.020226784 0.20394237 0.07172802 -0.05589575 0.111389846 -0.17987683 -0.06484991
0.13664822 -0.16701329 -0.022201242 -0.13412796 -0.18453458 -0.07846749 0.10556971 -0.015273415
-0.06365909 0.060250245 0.07281095 -0.12621309 -0.14775579 -0.10294639 -0.10306221 0.08465973
0.0740518 0.018285263 -0.06155202 0.011696428 -0.14722659 0.045014583 -0.18682945 0.20184529
0.17472531 0.0066744057 0.047134243 0.09223959 0.13906106 -0.05397909 0.14703879 0.104434885
0.21628495 -0.040917706 0.18619215 0.089077845 -0.19214816 -0.090268314 0.018692128 -0.061921906
0.21239217 0.03972156 0.08842931 0.20682548 -0.19540459 0.116328605 0.12877448 0.013749559
-0.024136508 -0.0043231146 0.107443966 -0.114617705 -0.13954529 -0.04958508 -0.10769367 0.078556195
-0.021963483 0.18486106 -0.13164546 0.14620042 0.01745602 0.0018001263 0.1045742 -0.13814005
-0.19356525 0.017742293 0.12779553 0.054917872 0.086614884 0.035436377 -0.03787604 -0.055411343
-0.13147976 -0.13171044 -0.024136147 -0.1168729 -0.113548145 -0.18767084 0.13711901 0.1967983
-0.10508889 -0.09848327 0.048572987 -0.20583288 0.12084468 -0.041496616 -0.0101003405 0.07653838
0.05507802 -0.13887164 -0.07808795 -0.059682753 -0.052334268 -0.21285611 0.13643122 -0.1652859
-0.08343706 0.03287655 0.15203914 -0.052053627 0.044600073 0.214071 -0.02014599 -0.048772946
-0.048201974 -0.2153474 -0.018341083 0.18250957 0.043433003 -0.11007935 0.12124767 -0.18533644
0.09380337 0.18662177 0.14293864 -0.06018965 0.15557572 -0.14493696 -0.18899463 0.0060276682
0.07284448 -0.07790687 0.047077686 0.12032737 0.1087944 0.07783192 -0.04566177 -0.017182438
-0.2104506 0.025582984 -0.03150665 -0.016132731 -0.18143718 -0.1571629 -0.075830966 0.050341237
-0.1824151 0.11695349 0.108409874 -0.20081697 0.18774626 -0.17708476 -0.20513618 -0.15334761
-0.11748723 -0.15724061 0.19160677 -0.004671954 0.13399312 -0.11372297 -0.20635977 0.12381499
0.08751171 0.15623023 0.17706706 -0.096581526 0.010746197 -0.084514804 0.09002829 -0.18974106
0.20775694 0.0142783765 0.18577982 0.15893127 -0.14739662 0.047521196 0.10274532 0.07768527
0.15114881 -0.13704363 -0.20209016 0.0023347463 0.04662762 0.00459628 0.17437653 -0.2156963
-0.017113743 -0.20704733 0.19222467 0.1267085 -0.0013926297 0.1943658 0.11165179 0.044190027
-0.13267061 0.13886467 -0.012205675 -0.071640596 0.1986504 -0.029191738 -0.036815234 0.07865445
00000000: dda0 dabd 3cab a43c 92b9 13be da5d 76bd
00000010: 16c3 99bd ba83 4cbe 44b2 a13d 5040 b4bc
00000020: 518c 163e d98b 233d 60f7 24be bdb1 01bd
00000030: e30f 333e f451 54be e1dd aa3d 969f 2ebd
00000040: db56 04bc 7489 07bd 9686 033e f43c 003e
00000050: e7ef f7bc ca9b cebd 915a 623d c0f0 d1bb
00000060: 6cad 423e c949 70bc bac3 24be 186f 2c3e
00000070: dc05 0abe 062b 3ebe bd29 543e 09dd 54be
00000080: cc9a c6bd 0474 df3d 1cb2 5cbe 615c ddbd
00000090: 4c20 3a3e a072 3dbd a3e1 a6bd 4ece c6bd
000000a0: faaf 1b3e c769 0fbe f47b 23bd e31b cbbc
000000b0: 5506 46be 8785 0d3e 5455 a2bd f5fc c83d
000000c0: e78a 333d e62e 84bd bdb8 32be 86dd a5bd
000000d0: dfa4 763d bd44 523d aacf 3b3e 6d2c 4b3e
000000e0: 57ed 343e a4b2 a5bc 45d6 503e 24e6 923d
000000f0: f1f2 64bd 5c20 e43d a231 38be 08d0 84bd
00000100: 83ed 0b3e 8805 2bbe 61df b5bc d758 09be
00000110: a2f6 3cbe 90b3 a0bd ef34 d83d 583d 7abc
00000120: b25f 82bd f6c8 763d e81d 953d 013e 01be
00000130: 4b4d 17be 8fd5 d2bd 4812 d3bd 1562 ad3d
00000140: 78a8 973d faca 953c f91d 7cbd 60a2 3f3c
00000150: 91c2 16be 3661 383d 3850 3fbe 88b0 4e3e
00000160: 31eb 323e f9b4 da3b d60f 413d 1ce8 bc3d
00000170: 0666 0e3e 2e19 5dbd 5691 163e f5e1 d53d
00000180: cd79 5d3e 5399 27bd 28a9 3e3e 726e b63d
00000190: 7dc2 44be 98de b8bd 3c20 993c d3a1 7dbd
000001a0: 557d 593e 13b3 223d 6d1a b53d 0fca 533e
000001b0: 2418 48be b13d ee3d 75dd 033e d545 613c
000001c0: edb9 c5bc eaa8 8dbb 950b dc3d b0bc eabd
000001d0: f6e4 0ebe ba19 4bbd 808e dcbd 12e2 a03d
000001e0: c3ec b3bc 384c 3d3e 11ce 06be 90b5 153e
000001f0: edff 8e3c 37f2 eb3a 002b d63d 9674 0dbe
00000200: f835 46be 4958 913c d5dc 023e 90f1 603d
00000210: 2563 b13d bc25 113d e823 1bbd 01f7 62bd
00000220: a1a2 06be 1adf 06be 2bb9 c5bc 0f5b efbd
00000230: ee8b e8bd c92c 40be ed68 0c3e 7e85 493e
00000240: d838 d7bd 99b1 c9bd 78f4 463d dbc5 52be
00000250: 6a7d f73d 5bf8 29bd e67b 25bc 27c0 9c3d
00000260: 7d99 613d 5e34 0ebe 93ec 9fbd e775 74bd
00000270: 755c 56bd f4f6 59be a0b4 0b3e b540 29be
00000280: 0de1 aabd 90a9 063d 26b0 1b3e 2f36 55bd
00000290: 91ae 363d 6e35 5b3e 3409 a5bc 24c6 47bd
000002a0: 6f6f 45bd 0784 5cbe 0a40 96bc cae3 3a3e
000002b0: cee6 313d 4871 e1bd b350 f83d d6c8 3dbe
000002c0: fb1b c03d c719 3f3e 825e 123e 6c89 76bd
000002d0: 3e4f 1f3e 5b6a 14be cf87 41be bf83 c53b
000002e0: 7d2f 953d a38d 9fbd 88d4 403d 326e f63d
000002f0: 99cf de3d 5766 9f3d d607 3bbd 2fc2 8cbc
00000300: 5d80 57be 6893 d13c 1e0d 01bd ca28 84bc
00000310: abca 39be 50ef 20be 444d 9bbd 9d32 4e3d
00000320: 06cb 3abe 5085 ef3d ff05 de3d f7a2 4dbe
00000330: 8e40 403e b555 35be 380f 52be 2807 1dbe
00000340: 259d f0bd af03 21be 9134 443e 3117 99bb
00000350: 7e35 093e 97e7 e8bd fa4f 53be b792 fd3d
00000360: 5739 b33d d1fa 1f3e 1151 353e 89cc c5bd
00000370: d110 303c 1916 adbd c160 b83d 7b4b 42be
00000380: 3cbe 543e daef 693c 113d 3e3e e1be 223e
00000390: 24ef 16be 96a5 423d 236c d23d 7419 9f3d
000003a0: c1c6 1a3e 2a55 0cbe b9f0 4ebe 8b02 193b
000003b0: 9afc 3e3d 649c 963b c38f 323e 7edf 5cbe
000003c0: 1f32 8cbc 3704 54be 8bd6 443e dfbf 013e
000003d0: e688 b6ba d407 473e b2a9 e43d 9a00 353d
000003e0: ceda 07be 8a32 0e3e 50fa 47bc 4eb8 92bd
000003f0: 036b 4b3e 8323 efbc 92cb 16bd 9615 a13d
