models/best_fraud_model_seed_888.pth (torch, 378192 bytes, 45 tensors)

node_emb.weight f4 [64, 8]
0	0x3e89e668	0.269336
1	0x3df75212	0.120762005
2	0x3e95d4c7	0.292639
3	0xbd0c8711	-0.034308497
4	0xbe9909bb	-0.29890236
5	0xbea00dcf	-0.31260535
6	0x3e5e6c85	0.21721084
7	0x3e276344	0.1634646
8	0xbd562b49	-0.052287374
9	0xbe52c5dd	-0.20583291
10	0xbe7bd648	-0.2459346
11	0xbe98571d	-0.29753962
12	0xbe3fee08	-0.18743145
13	0xbe328f62	-0.17437509
14	0x3e9915a4	0.29899323
15	0xb9c25f28	-0.0003707346
16	0x3c3866de	0.011254994
17	0x3e653f2e	0.22387382
18	0x3e51cbb5	0.20487864
19	0x3e2d2e7c	0.16912264
20	0xbd99e3f1	-0.075141795
21	0xbe04959c	-0.12947696
22	0x3ea52af2	0.32259327
23	0xbe1ef92c	-0.15524739
24	0x3e98673d	0.29766265
25	0x3e628248	0.22120011
26	0xbe6bb5ba	-0.23018542
27	0xbd92ea21	-0.07173563
28	0xbdf4b63a	-0.119488195
29	0x3e858a32	0.26081997
30	0xbd9803a8	-0.074225724
31	0xbe77575b	-0.24154417
32	0xbe5f000e	-0.21777365
33	0x3ddec113	0.1087667
34	0xbe618897	-0.22024761
35	0x3e864cbd	0.26230422
36	0x3dccc472	0.099984065
37	0x3e28073a	0.16409007
38	0xbe742785	-0.238432
39	0xbeb682de	-0.3564672
40	0xbccd324d	-0.0250484
41	0x3e3cac72	0.18425158
42	0xbe7ece1a	-0.24883309
43	0x3e139744	0.14413172
44	0xbceec66f	-0.029147355
45	0xbe3f6d59	-0.18694057
46	0x3df2d204	0.118564636
47	0xbe7e1ef8	-0.24816501
48	0xbd7af4dc	-0.061268672
49	0x3ea71a17	0.32637092
50	0xbead6e32	-0.33873135
51	0xbe924b4d	-0.28573075
52	0xbe8a01e7	-0.26954576
53	0x3e8a727d	0.27040473
54	0xbcc3cb45	-0.023900637
55	0xbe5e43a1	-0.21705486
56	0x3dfb8588	0.122813284
57	0x3e626672	0.22109392
58	0x3e9bdff1	0.3044429
59	0x3d364cc2	0.044506796
60	0xbe919062	-0.28430468
61	0x3eae92b2	0.34096295
62	0x3dc1db4b	0.09465655
63	0x3eb33de2	0.3500815
64	0x3e2f838d	0.17140026
65	0x3eb28732	0.3486877
66	0xbd075f0a	-0.03304962
67	0xbda467b6	-0.08027594
68	0x3c7470bd	0.014919457
69	0xbe90666c	-0.28203142
70	0xbe9ea328	-0.30983853
71	0xbe18c47b	-0.14918701
72	0x3e0fb3c8	0.14033425
73	0x3e5b7f83	0.2143536
74	0xbdc18d96	-0.094508335
75	0x3e617191	0.22015978
76	0x3d95fdc1	0.0732379
77	0x3ea06efb	0.3133467
78	0xbdab2850	-0.083572984
79	0xbb1006ef	-0.002197679
80	0x3e2c1420	0.16804552
81	0xbea63a18	-0.32466197
82	0x3dd97095	0.106171764
83	0xbe339080	-0.17535591
84	0x3e18a82a	0.149079
85	0xbd9611ea	-0.073276356
86	0x3de4b73c	0.11167762
87	0x3c7f08a4	0.015566025
88	0xbe59da81	-0.21274759
89	0x3e4fdcf0	0.20299125
90	0x3e31e7c8	0.17373574
91	0xbe9d92a2	-0.30775934
92	0xbe1a4df7	-0.15068804
93	0x3de23190	0.110446095
94	0x3da83082	0.08212377
95	0xbe3a5f84	-0.18200499
96	0x3c9d1f2a	0.0191799
97	0x3c61a99b	0.013773347
98	0x3e5bd2bf	0.21467112
99	0xbe348a46	-0.17630872
100	0x3ea20166	0.31641692
101	0x3e090f9c	0.13384861
102	0xbdefda9d	-0.11711619
103	0xbea88566	-0.32914275
104	0xbe72f5f8	-0.23726642
105	0x3e6d0ab2	0.23148611
106	0xbe62c5bf	-0.22145747
107	0xbe2d99ae	-0.16953155
108	0xbe60f380	-0.21967888
109	0xbde6ee31	-0.112759
110	0xbe856ad0	-0.26058054
111	0xbca501f2	-0.02014253
112	0x3c66df60	0.014091343
113	0xbdd65d17	-0.10466974
114	0xbd5bbd30	-0.05364722
115	0x3da62a4d	0.08113537
116	0xbe910e6d	-0.28331318
117	0xbcc96bdd	-0.024587566
118	0x3c78f74d	0.01519568
119	0x3db6ad0b	0.08919724
120	0x3da0b29d	0.07846568
121	0xbdeca53e	-0.11554955
122	0xbca991c3	-0.020699387
123	0xbeaaa718	-0.33330607
124	0x3dc17079	0.094452806
125	0x3c037144	0.00802261
126	0xbe617155	-0.22015889
127	0xbe65a497	-0.22426067
128	0x3d86381a	0.06553669
129	0x3e461a1f	0.19345902
130	0x3df58231	0.11987723
131	0xbe01ad65	-0.12663801
132	0x3e3ab02c	0.18231267
133	0x3d2e041e	0.042484395
134	0xbd753845	-0.059868116
135	0x3e3b3b5e	0.18284366
136	0x3e1ae448	0.15126145
137	0xbe63d38d	-0.22248669
138	0xbe2d6f82	-0.16937068
139	0x3e58cd68	0.21172106
140	0x3d48518c	0.048905894
141	0xbe594010	-0.21215844
142	0xbe8a4fe2	-0.2701407
143	0xbde9b1ee	-0.114108905
144	0x3db04a58	0.0860793
145	0xbe98dea6	-0.29857367
146	0x3dc06a06	0.09395222
147	0x3eb0e354	0.34548438
148	0xbe2c00dd	-0.16797204
149	0xbea569ce	-0.32307285
150	0xbc0d29a4	-0.008615885
151	0xbe513a1b	-0.20432322
152	0x3eaeb879	0.34125116
153	0x3e64d1fd	0.22345729
154	0x3e788798	0.24270475
155	0xbce03c1a	-0.027372409
156	0x3eae4cee	0.34043068
157	0x3dd84939	0.10560841
158	0xbe746c78	-0.23869503
159	0x3dd43267	0.10361176
160	0xbe93a129	-0.28833893
161	0x3e8be640	0.27324104
162	0x3d7aaec1	0.061201815
163	0x3e8cfe21	0.27537635
164	0x3e914ac6	0.2837736
165	0xbc78965b	-0.015172566
166	0x3ea1c711	0.31597188
167	0xbeae5304	-0.3404771
168	0x3d2ddff6	0.042449914
169	0x3dec3e6d	0.11535344
170	0x3e5aef17	0.21380268
171	0xbea37c05	-0.31930557
172	0xbe12f28e	-0.1435034
173	0xbeae7dcc	-0.3408035
174	0xbe120088	-0.14258015
175	0x3e489e0f	0.19591545
176	0x3e58f63f	0.21187685
177	0xbd077fb8	-0.033080786
178	0xbe925751	-0.28582242
179	0xbce2b176	-0.02767251
180	0xbd1fef1c	-0.03904639
181	0x3e988e21	0.29795936
182	0x3e42c18e	0.19019148
183	0x3e195f69	0.14977802
184	0x3d03d02b	0.032180946
185	0xbe8ea79c	-0.2786225
186	0xbeb19036	-0.34680337
187	0xbb0fb2d2	-0.0021926654
188	0xbe91d519	-0.28482893
189	0xbd04512e	-0.03230398
190	0x3e6cf82e	0.23141548
191	0x3eaf2a97	0.3421218
192	0x3e8f5f0c	0.28002203
193	0xbe43c1d3	-0.19116907
194	0xbde0b36d	-0.10971723
195	0xbd092ce4	-0.033490077
196	0xbdb8c5f1	-0.09022129
197	0x3ddab554	0.10679117
198	0xbe6c555a	-0.23079434
199	0x3dd034ff	0.10166358
200	0x3e4d956b	0.2007653
201	0xbe86da5c	-0.2633847
202	0x3e9aee1f	0.30259797
203	0x3e8267fe	0.25469965
204	0xbc3ad19f	-0.011402517
205	0x3e2b6056	0.16735968
206	0x3e805306	0.25063342
207	0xbe717f80	-0.23583794
208	0x3e85314c	0.26014173
209	0xbdea57ee	-0.114425525
210	0xbe30aa63	-0.17252497
211	0xbe99b9ee	-0.30024666
212	0x3e1471b5	0.14496501
213	0xbe4c0b2c	-0.19926137
214	0xbe4e2c4a	-0.20134082
215	0xbd666ce9	-0.05625621
216	0x3e6a8178	0.22900951
217	0xbe8de9e0	-0.27717495
218	0xbe102803	-0.14077763
219	0xbe022cd8	-0.12712419
220	0xbe494ca8	-0.19658148
221	0x3d68795f	0.056756373
222	0xbe488aa3	-0.19584136
223	0xbe2ef955	-0.170873
224	0x3e278900	0.16360855
225	0x3e96fc42	0.29489332
226	0x3e88ab6a	0.2669328
227	0x3e269124	0.16266304
228	0xbe7b4f6a	-0.24542013
229	0x3e091634	0.13387376
230	0xbeb46c8e	-0.3523907
231	0xbea96e58	-0.33091998
232	0x3ea2258d	0.31669274
233	0x3dce8949	0.10084779
234	0xbdef9c12	-0.1169969
235	0x3e6546ef	0.2239034
236	0x3e9cea18	0.3064735
237	0x3e99ca35	0.30037084
238	0x3eb3fbe9	0.3515313
239	0xbda5adf6	-0.08089821
240	0xbe3f4822	-0.1867986
241	0x3e8d21fb	0.27564988
242	0x3e6d3a18	0.23166692
243	0x3e6538e6	0.22384986
244	0xbd4ad343	-0.04951788
245	0xbe0cc87b	-0.13748352
246	0x3dd38406	0.10327916
247	0x3e86ca09	0.26326016
248	0x3e8b14b2	0.27164227
249	0x3e8f8836	0.28033608
250	0x3e90c189	0.28272656
251	0xbd19196e	-0.037377767
252	0x3e529a78	0.20566738
253	0x3d9c3802	0.0762787
254	0x3da2a94e	0.079424486
255	0xbea6609f	-0.3249559

node_emb.bias f4 [64]
0	0xbea6abd3	-0.32552966
1	0x3e9e032a	0.3086179
2	0x3ea524da	0.32254678
3	0xbe335cc3	-0.17515855
4	0x3e1d7ef0	0.15380454
5	0x3d80a9b8	0.06282371
6	0x3e1c357d	0.15254779
7	0xbdf0fd1e	-0.11767028
8	0x3e654150	0.22388196
9	0x3eafdda0	0.34348774
10	0x3d8bd64c	0.06827983
11	0xbdba6df9	-0.09103007
12	0x3e1ff477	0.156206
13	0xbe02b86d	-0.12765665
14	0x3e1ddec7	0.15417014
15	0xbeaa23a2	-0.3323031
16	0x3e9b5579	0.30338648
17	0xbd19cac4	-0.037546888
18	0x3e8e0b78	0.27743125
19	0xbbf97258	-0.007612508
20	0xbe527cd9	-0.20555438
21	0xbeb0e676	-0.34550828
22	0x3e35deeb	0.17760818
23	0xbeb2038a	-0.34768325
24	0xbd2483d8	-0.0401648
25	0x3e94e2a4	0.29079163
26	0xbe2e1517	-0.17000233
27	0x3e17ea1e	0.14835402
28	0x3e916681	0.28398517
29	0xbe0a9951	-0.13535048
30	0xbea5c955	-0.32380167
31	0x3daa82b0	0.08325708
32	0x3eb32421	0.34988502
33	0x3e85b077	0.26111194
34	0xbd63d391	-0.055621687
35	0xbd7756d0	-0.060385525
36	0xbd51bb8c	-0.05120425
37	0x3df8f69c	0.12156412
38	0x3e4ca6d5	0.19985516
39	0x3eb2c803	0.34918222
40	0x3e970179	0.2949331
41	0xbdde34d8	-0.10849923
42	0x3e1cb14a	0.15302005
43	0x3d93b29a	0.072118
44	0xbe9f0f00	-0.31066132
45	0x3d5f8c44	0.054577127
46	0x3d9d38e7	0.07676869
47	0xbdd65318	-0.104650676
48	0xbeafe730	-0.3435607
49	0xbe94a7a9	-0.29034165
50	0x3dd2f6fa	0.10301013
51	0xbcd9bb29	-0.026578503
52	0xbe1b1955	-0.15146382
53	0xbe433c29	-0.19065918
54	0x3e6bec66	0.23039398
55	0xbe957f68	-0.29198766
56	0xbe305ddf	-0.17223309
57	0x3d9e2f27	0.07723837
58	0x3ea7c105	0.3276445
59	0xbeaf0102	-0.34180456
60	0xbe6c9189	-0.23102392
61	0xbe81a3a5	-0.25320163
62	0x3e112d45	0.14177425
63	0x3e772743	0.24136071

edge_emb.weight f4 [64, 2]
0	0x3efd7efe	0.4951095
1	0xbe385d93	-0.18004446
2	0x3e42a22b	0.19007175
3	0xbec77069	-0.3895295
4	0xbe61fa70	-0.2206819
5	0x3ead7834	0.3388077
6	0x3f059900	0.52186584
7	0x3e5f3a87	0.2179967
8	0xbe83385b	-0.25628933
9	0xbcdb2ee5	-0.02675576
10	0x3f27bee1	0.65525633
11	0xbed14677	-0.40874073
12	0xbf137e12	-0.57614243
13	0xbf2e5269	-0.680945
14	0x3e2f4d08	0.17119229
15	0x3e1f08e6	0.15530738
16	0x3dc6e65e	0.09711908
17	0x3e3d18ac	0.18466443
18	0x3e7dd9ef	0.24790166
19	0xbe29cb81	-0.16581537
20	0xbf2c6b0a	-0.6735083
21	0x3f0b27c7	0.5435757
22	0xbcf28eb7	-0.029609067
23	0xbdfdacc8	-0.12386471
24	0xbe892ca0	-0.2679186
25	0xbea038fb	-0.31293473
26	0xbeccb669	-0.39982918
27	0xbecabb30	-0.39595938
28	0xbd88e3b7	-0.06684058
29	0xbf101ac0	-0.5629082
30	0xbe60047f	-0.21876715
31	0xbcd8e77b	-0.026477566
32	0xbe0cd068	-0.13751376
33	0x3e241069	0.16021885
34	0x3e965676	0.2936284
35	0x3f29440f	0.66119474
36	0xbda7aee5	-0.08187655
37	0xbf1aa830	-0.60412884
38	0xbebb770b	-0.3661426
39	0xbeba56d9	-0.36394385
40	0xbe9dc0bf	-0.30811116
41	0xbe6fcbc0	-0.23417568
42	0xbef275b5	-0.47355428
43	0xbf00b9a4	-0.50283265
44	0x3f24e33c	0.6440923
45	0xbf148111	-0.5800944
46	0xbed1e4b8	-0.4099481
47	0xbeea3c1a	-0.4574898
48	0xbed248a0	-0.41071033
49	0x3e1902ca	0.1494247
50	0xbe7c8bbd	-0.24662681
51	0xbf0d0d80	-0.55098724
52	0x3f001f65	0.50047904
53	0x3f21b39d	0.63164693
54	0x3e3cf031	0.18451001
55	0x3ea7504c	0.3267845
56	0xbf1aa3d3	-0.60406226
57	0xbec6b132	-0.38807064
58	0xbe93e2ca	-0.28883964
59	0x3d3f5be6	0.0467185
60	0x3ed8b608	0.4232638
61	0x3f192204	0.5981753
62	0xbe6303c7	-0.2216941
63	0xbebbbd14	-0.36667693
64	0x3ee98ad1	0.4561372
65	0x3e30cd27	0.1726576
66	0xbe9547da	-0.2915638
67	0x3d4d5d32	0.050137706
68	0x3ebce2d8	0.36891818
69	0xbf31789f	-0.6932468
70	0xbf0bedcd	-0.5465973
71	0x3e67818a	0.22608009
72	0x3e08fa07	0.13376628
73	0xbea4ff60	-0.32226086
74	0x3f31b9fd	0.6942442
75	0x3d189506	0.037251495
76	0x3f15b5d5	0.5848058
77	0xbefa17eb	-0.48846373
78	0xbe51c9fa	-0.20487204
79	0x3d6274db	0.055287223
80	0xbdf4da28	-0.119556725
81	0x3ef1162d	0.4708723
82	0xbe38ca39	-0.18045892
83	0x3f2404d9	0.64069897
84	0x3ee21104	0.44153607
85	0xbe0f4264	-0.1399017
86	0xbf0609b5	-0.5235856
87	0x3d454e26	0.04817023
88	0x3f27c38d	0.6553276
89	0x3ec5d30b	0.38637576
90	0xbe71e98d	-0.23624249
91	0x3e2c710e	0.16840002
92	0xbe2891d1	-0.16461875
93	0x3f22e428	0.6362939
94	0xbf119ac2	-0.56876767
95	0x3e68a8b9	0.22720613
96	0x3e658861	0.22415306
97	0xbf249407	-0.6428837
98	0x3e564fbd	0.20928855
99	0x3ef28691	0.4736829
100	0xbeef0e57	-0.46690628
101	0x3f06649b	0.5249726
102	0x3ebf0968	0.37311864
103	0x3eaa1de9	0.33225945
104	0xbdb7ba8d	-0.089711286
105	0xbf21321d	-0.6296709
106	0xbd8fbccd	-0.07018433
107	0xbef9f6ee	-0.48821205
108	0xbf0ae3eb	-0.54254025
109	0xbeb185c9	-0.34672382
110	0xbf0bda52	-0.54630005
111	0xbeed2eeb	-0.46324858
112	0xbf20c379	-0.6279827
113	0x3f05b184	0.5222399
114	0xbf180006	-0.59375036
115	0x3eb3046e	0.34964317
116	0xbf2157ea	-0.6302477
117	0x3f013c72	0.5048286
118	0xbd954f9a	-0.072905734
119	0x3e439a06	0.19101724
120	0x3eefc89c	0.4683274
121	0xbe0c53fb	-0.13703911
122	0x3ed68f71	0.41906312
123	0xbf229b9b	-0.63518685
124	0x3f0d2851	0.5513964
125	0x3dc8eb20	0.098104715
126	0x3f088211	0.53323466
127	0x3de00fa9	0.10940487

edge_emb.bias f4 [64]
0	0x3e783fda	0.24243107
1	0x3f1b8f3d	0.6076544
2	0x3ee2880c	0.4424442
3	0x3e841a41	0.2580128
4	0x3f201447	0.6253094
5	0xbf064c22	-0.5245992
6	0x3f3017a3	0.68786067
7	0xbefe5bde	-0.49679464
8	0x3e2825f1	0.16420723
9	0xbf2e6a95	-0.6813138
10	0x3ec4b19c	0.38416755
11	0x3f08f2c8	0.53495455
12	0xbdc72885	-0.09724525
13	0x3f33c374	0.7022011
14	0x3f33d792	0.7025081
15	0x3d458cd4	0.048230007
16	0xbf0b996d	-0.54530984
17	0xbdb30e20	-0.087429285
18	0xbed1d980	-0.40986252
19	0xbda10549	-0.07862336
20	0x3e1e4212	0.15454891
21	0xbef59652	-0.47966248
22	0xbdfc1b4b	-0.12309893
23	0xbf000ccc	-0.50019526
24	0x3f210b88	0.6290822
25	0xbf146d9f	-0.5797977
26	0xbf154fcf	-0.58324903
27	0x3eec4a9f	0.4615068
28	0xbc05ef83	-0.00817478
29	0xbdf924ee	-0.12165247
30	0x3f1ba564	0.6079924
31	0xbe08066d	-0.13283701
32	0x3cf4672c	0.029834352
33	0xbe6470cf	-0.22308658
34	0xbd464480	-0.04840517
35	0x3e798603	0.24367528
36	0x3f0468a6	0.5172218
37	0xbe610c96	-0.21977457
38	0xbe810944	-0.25202382
39	0xbecd6a9c	-0.401204
40	0x3f2c905f	0.6740779
41	0xbe15f55c	-0.14644378
42	0xbcf87f80	-0.030334234
43	0xbe9d8f8b	-0.30773577
44	0xbf245df8	-0.64205885
45	0x3f18bbd6	0.59661615
46	0xbf0a8e9a	-0.5412384
47	0x3bc0d455	0.005884687
48	0xbe3cca96	-0.18436655
49	0x3f0c78f4	0.5487206
50	0x3f29e6b3	0.66367644
51	0xbf12011b	-0.57032937
52	0x3e3c6649	0.18398394
53	0x3e24f6a1	0.16109706
54	0xbba58143	-0.0050508096
55	0x3e66f1ef	0.22553228
56	0x3f059fcf	0.52196974
57	0xbeee3a82	-0.46529013
58	0x3edf6f38	0.4363954
59	0xbe70a3dc	-0.23500007
60	0x3ea33c17	0.31881782
61	0xbf20a553	-0.62752265
62	0xbe3fba31	-0.1872337
63	0x3f2ad2ae	0.6672772

gat_layers.0.att_src f4 [1, 4, 16]
0	0x3de6498c	0.11244497
1	0xbd0d1975	-0.034448106
2	0x3e8d6e9d	0.27623454
3	0xbdb9fcc9	-0.09081418
4	0x3e1f73cc	0.15571517
5	0x3f003c5c	0.500921
6	0x3dc943c3	0.09827378
7	0x3eaaead7	0.33382294
8	0xbd32e294	-0.043673113
9	0x3d9f00db	0.07763835
10	0xbd68817f	-0.056764122
11	0xbdfb3442	-0.12265827
12	0x3e58ddb9	0.2117833
13	0xbe998228	-0.29982114
14	0x3ee1b2aa	0.44081622
15	0x3ee8a021	0.4543467
16	0xbf03fe0d	-0.51559526
17	0x3e1a3dbf	0.15062617
18	0xbef2c5d8	-0.47416568
19	0x3d4e6ba9	0.05039564
20	0x3e602645	0.21889599
21	0xbd8aff17	-0.06786936
22	0x3d71e2a2	0.059054025
23	0xbee32aa7	-0.4436848
24	0xbf03f17e	-0.5154036
25	0x3dc5326c	0.09628758
26	0xbe82a42a	-0.25515872
27	0x3eae9ec4	0.34105504
28	0x3ed4deee	0.41576332
29	0x3f045520	0.5169239
30	0xbf069e1a	-0.52584994
31	0x3f009a35	0.502353
32	0x3e6727a7	0.2257372
33	0x3ee8af36	0.45446175
34	0x3ee47a14	0.44624388
35	0xbf01923e	-0.5061377
36	0x3c8373e9	0.016046481
37	0xbe1637cd	-0.14669724
38	0xbe6c2961	-0.2306266
39	0xbe285cc5	-0.16441639
40	0x3ea0767b	0.31340393
41	0x3ef917a7	0.48650858
42	0x3def3246	0.11679511
43	0x3d1778d6	0.036980473
44	0xbd3c4c80	-0.045971394
45	0xbeb20905	-0.34772506
46	0x3ec3ac19	0.38217238
47	0x3eff1351	0.49819425
48	0x3e988ebf	0.29796407
49	0x3efd8e33	0.49522552
50	0x3e650501	0.2236519
51	0x3ea6f9d3	0.32612476
52	0xbf05164e	-0.5198716
53	0xbf08a0ac	-0.53370166
54	0x3ec7f100	0.39051056
55	0x3bad58fb	0.0052901483
56	0x3ea57419	0.32315138
57	0xbd836ee2	-0.064176336
58	0x3e9f515c	0.3111676
59	0x3f0b103a	0.54321635
60	0x3ecb896c	0.39753282
61	0xbeb79965	-0.35859218
62	0xbeaf95fe	-0.34294122
63	0xbea01c00	-0.31271362

gat_layers.0.att_dst f4 [1, 4, 16]
0	0xbcaf3087	-0.021385444
1	0xbde890d0	-0.11355746
2	0xbc9db5db	-0.019251755
3	0x3e836891	0.25665715
4	0xbe52cd2e	-0.20586082
5	0xbe47c565	-0.19508894
6	0x3de039e9	0.109485455
7	0x3ef4b23e	0.47792238
8	0x3ea9cdea	0.33164912
9	0x3d6b5bed	0.057460714
10	0xbe3dc0f7	-0.18530641
11	0x3e183a14	0.14865905
12	0xbec839fc	-0.3910674
13	0x3eb17990	0.34663057
14	0xbe89ff56	-0.26952618
15	0xbe9768d3	-0.29572162
16	0x3d8787fe	0.06617735
17	0x3f041478	0.5159373
18	0xbe6d12e6	-0.2315174
19	0xbeaaa428	-0.33328366
20	0x3ec7b4a9	0.3900502
21	0x3e6a6a0a	0.22892013
22	0xbc51a064	-0.012794588
23	0x3ccb867d	0.024844402
24	0xbe21064a	-0.15725055
25	0xbef57e8d	-0.47948113
26	0x3e35ff59	0.17773189
27	0xbeb01713	-0.34392604
28	0xbec2426c	-0.379413
29	0xbe0e4908	-0.13895047
30	0xbe9d4f5c	-0.3072461
31	0x3eda52a5	0.42641178
32	0xbefc00ac	-0.49219263
33	0x3e7378ba	0.23776522
34	0xbe236d9b	-0.1595978
35	0xbe050cee	-0.12993214
36	0xbedd9b9d	-0.43282786
37	0x3eb7c5ea	0.35893184
38	0xbebea4dc	-0.37235153
39	0xbea82f6c	-0.3284868
40	0xbca6b612	-0.02035049
41	0xbf05439b	-0.5205628
42	0xbdfab8f7	-0.122423105
43	0x3e1403f6	0.14454636
44	0x3e4b8c82	0.19877818
45	0x3ead3c7c	0.33835208
46	0x3d52cbce	0.051463895
47	0x3eae549d	0.3404893
48	0xbe98fdf9	-0.29881266
49	0x3ea65046	0.3248312
50	0x3f047a58	0.5174918
51	0x3f0874b8	0.533031
52	0x3f08e1dc	0.53469634
53	0x3e1563d8	0.14588869
54	0x3e94dfe8	0.29077077
55	0xbecdb851	-0.40179685
56	0x3ec93888	0.39300942
57	0x3ec54dae	0.38535827
58	0xbf002b79	-0.50066334
59	0x3f07a782	0.5298997
60	0xbebf42d2	-0.37355667
61	0xbde19e4c	-0.11016521
62	0xbd63ae1a	-0.055585958
63	0x3eefc866	0.4683258

gat_layers.0.att_edge f4 [1, 4, 16]
0	0xbe98e1eb	-0.29859862
1	0xbf0a6480	-0.540596
2	0xbe15e3aa	-0.14637628
3	0x3ea99b89	0.33126476
4	0x3e8d3c3d	0.2758502
5	0xbf07072f	-0.52745336
6	0xbc1b24ac	-0.0094691925
7	0xbf084469	-0.53229386
8	0x3de3490c	0.11097917
9	0x3c767373	0.015042174
10	0xbf0245ea	-0.5088793
11	0xbdb721ed	-0.08942018
12	0x3ed82975	0.4221913
13	0x3eb69868	0.35663152
14	0xbeac2b54	-0.33626807
15	0x3db232de	0.087011084
16	0xbf090eee	-0.53538406
17	0xbf010db5	-0.5041154
18	0xbee78767	-0.4522049
19	0x3e9b2fcd	0.30309907
20	0x3f00c4d6	0.5030035
21	0x3ec041d4	0.37550223
22	0xbeaea4be	-0.34110063
23	0x3e865e40	0.26243782
24	0x3ef13692	0.47111946
25	0x3e218e24	0.15776879
26	0xbed6b490	-0.41934633
27	0x3e7f2105	0.2491494
28	0xbeaa1a08	-0.33222985
29	0x3e572d05	0.21013267
30	0x3e0b9006	0.1362916
31	0xbd9095c1	-0.07059813
32	0xbecb1627	-0.39665338
33	0x3e04fe62	0.12987664
34	0x3e7557f2	0.2395933
35	0xbe175ad9	-0.1478075
36	0xbb4cd6ff	-0.0031256077
37	0x3e4e5c88	0.20152485
38	0x3e35a844	0.1773997
39	0xbc1f0fa6	-0.009708321
40	0x3eb20054	0.34765875
41	0xbe239457	-0.15974556
42	0xbe4db251	-0.20087554
43	0xbeb98745	-0.36236015
44	0xbe9dfa5e	-0.30855078
45	0x3ee46104	0.44605267
46	0xbefa57d1	-0.48895124
47	0xbec2bbf4	-0.38034022
48	0x3dcdf9cb	0.1005741
49	0xbedf8880	-0.4365883
50	0x3da1d7ba	0.07902475
51	0xbe2c720a	-0.16840377
52	0x3e1ef948	0.15524781
53	0x3ed95d8d	0.42454186
54	0x3e74a489	0.2389089
55	0x3cdb4d11	0.026770147
56	0x3e8f5615	0.27995363
57	0x3ed56755	0.416804
58	0x3ef130c0	0.47107506
59	0xbe8ea9c0	-0.27863884
60	0xbe97a3d0	-0.29617167
61	0x3ec98e79	0.3936651
62	0xbce4a1c4	-0.027909167
63	0xbdd91c45	-0.10601095

gat_layers.0.bias f4 [64]
0	0xbbd9f4db	-0.0066515035
1	0xbbda6185	-0.0066644573
2	0xbbe21097	-0.0068989503
3	0xbbc1e038	-0.0059166215
4	0xbbda4eb5	-0.0066622146
5	0xbbd98e17	-0.006639253
6	0xbbe2de64	-0.0069234837
7	0xbbda86d2	-0.006668904
8	0xbbda3ce9	-0.006660093
9	0x3c120772	0.008912908
10	0xbbe60a54	-0.007020274
11	0x3b0003c4	0.0019533494
12	0xbbd9e537	-0.006649639
13	0xbbda8de1	-0.0066697453
14	0xbba71b9b	-0.0050997264
15	0xbbda7e22	-0.0066678682
16	0xbbdfd75e	-0.0068310937
17	0x3c208af5	0.009798755
18	0xbbdef66a	-0.006804277
19	0xbbf9d748	-0.0076245405
20	0x3b687e32	0.003547561
21	0xbbe3c52a	-0.006950994
22	0x3c1fd191	0.009754554
23	0xbbf1e7df	-0.0073823775
24	0xbbb122c2	-0.005405755
25	0xbbf05da0	-0.0073353797
26	0x3b90d9fd	0.0044205175
27	0xbbdf6583	-0.006817521
28	0xbbf96e93	-0.0076120584
29	0xbbc796a3	-0.0060909553
30	0xbbb3f889	-0.005492274
31	0xbbe55d18	-0.006999623
32	0x3b478f3c	0.0030450365
33	0x3bcf2978	0.006322082
34	0x3bb548f2	0.0055323774
35	0xba9b5de5	-0.0011853544
36	0xbbb1f924	-0.005431311
37	0x3b40fccf	0.002944756
38	0xbba429a2	-0.005009846
39	0x3c2d1fa0	0.010566622
40	0xbbcee844	-0.0063143093
41	0x3c3194f3	0.010838735
42	0xbbdb1612	-0.0066859806
43	0xbbde9654	-0.006792823
44	0xbbe0dd15	-0.0068622925
45	0xbbe0afc8	-0.0068568923
46	0x3c0f5dbc	0.008750375
47	0xbbdc27d3	-0.0067186146
48	0xbbda41a5	-0.0066606575
49	0xbbcb48bd	-0.0062037394
50	0xbbe080ea	-0.0068513053
51	0x3aca123b	0.001541681
52	0xbbee9c73	-0.007281834
53	0xbbabb2b3	-0.0052398085
54	0xbba847a5	-0.005135494
55	0xbbd1f5fe	-0.0064074984
56	0xbb83127e	-0.004000007
57	0xbbe477ff	-0.0069723125
58	0x3bb13a9e	0.005408599
59	0xbbe0b7cf	-0.006857849
60	0x3c388c3e	0.011263905
61	0x3c1e3844	0.009656969
62	0x39bd625a	0.00036122167
63	0xbbde0296	-0.0067752106

gat_layers.0.lin.weight f4 [64, 64]
0	0x3b660ee9	0.0035104102
1	0x3e2fe96f	0.17178892
2	0xbe3da313	-0.18519239
3	0x3da720f3	0.081605814
4	0x3d9cf33c	0.07663581
5	0x3e214659	0.15749492
6	0x3df34524	0.11878422
7	0x3dc89688	0.097943366
8	0x3df9626b	0.12176975
9	0xbd92b2e0	-0.07163024
10	0xbe208ca5	-0.15678652
11	0xbdc43fae	-0.095824584
12	0x3de01172	0.109408274
13	0x3dd507ee	0.10401903
14	0x3e14b9b3	0.14523964
15	0xbd592955	-0.053017933
16	0xbd677080	-0.056503773
17	0x3e227e35	0.15868457
18	0xbcc07249	-0.023491995
19	0x3de101f9	0.109867044
20	0x3dc9983c	0.098434895
21	0xbde27381	-0.11057187
22	0x3e2ffa54	0.17185336
23	0xbdc22b2b	-0.0948089
24	0x3d6b4864	0.057442084
25	0x3e3d6be0	0.18498182
26	0xbe4f2e3e	-0.20232484
27	0x3e1a13c0	0.15046597
28	0xbc88b3c1	-0.016687276
29	0xbd433b76	-0.04766413
30	0xbd126618	-0.035741895
31	0xbd348a9d	-0.044077504
32	0x3c7a9f53	0.015296775
33	0xbe271ca6	-0.16319522
34	0x3de7c8ff	0.11317634
35	0xbe052715	-0.1300319
36	0xbd6aca13	-0.05732162
37	0xbc41a559	-0.011819207
38	0xba79be4b	-0.0009526952
39	0xbe44641a	-0.1917881
40	0x3dc05d5b	0.09392806
41	0xbdc3572d	-0.09538112
42	0xbe4e9838	-0.20175254
43	0xbdfab30e	-0.12241183
44	0x3d2dd104	0.04243566
45	0xbb570d66	-0.0032814383
46	0xbd57d467	-0.052692797
47	0xbe139cde	-0.14415309
48	0xbd26272a	-0.040564694
49	0xbdd370e1	-0.10324264
50	0xbe3fb747	-0.18722259
51	0xbe50776d	-0.20358057
52	0x3c94766d	0.018122876
53	0x3d5ed915	0.054406244
54	0x3dad79db	0.08470508
55	0xbda2a61f	-0.07941841
56	0x3ccac355	0.024751345
57	0xbe14351d	-0.14473386
58	0xbe0438a0	-0.12912226
59	0x3e0d69c2	0.13809875
60	0x3d249b0d	0.04018693
61	0xbe1d44eb	-0.15358321
62	0xbe0c7e88	-0.13720143
63	0x3d84ca4e	0.06483899
64	0x3e1ca632	0.15297773
65	0x3c9ee10c	0.01939442
66	0x3e2b4146	0.16724119
67	0x3d3f2134	0.046662524
68	0xbd778f89	-0.06043962
69	0x3e168e32	0.1470268
70	0xbe383b60	-0.179914
71	0xbd926fba	-0.071502164
72	0x3d464a22	0.048410542
73	0xbca25ddb	-0.019820144
74	0x3e0e856a	0.13918081
75	0x3e1922e3	0.14954714
76	0x3daacf32	0.083403006
77	0xbc1ca90a	-0.009561786
78	0x3dd07955	0.10179392
79	0x39298b78	0.00016169052
80	0xbe32a2ab	-0.17444865
81	0x3e55a27c	0.20862764
82	0xbe54c7dc	-0.20779365
83	0xbb105572	-0.0022023586
84	0xbd573cbd	-0.05254816
85	0x3dd4348c	0.10361585
86	0x3d7f49a0	0.062326074
87	0x3d920aa6	0.07130937
88	0x3e0dd210	0.13849664
89	0x3c9bae94	0.019004144
90	0x3d5f0b72	0.054454274
91	0xbd907b6e	-0.07054792
92	0x3d080485	0.033207435
93	0xbe222c47	-0.15837203
94	0x3b2aab4b	0.002604204
95	0xbe379838	-0.1792916
96	0x3e5d2c89	0.2159902
97	0x3d8a947b	0.06766602
98	0xbd7aa1b7	-0.06118938
99	0x3e505b08	0.20347226
100	0xba8b7160	-0.0010638647
101	0xbd14ce73	-0.036329698
102	0xbdc7e9f4	-0.0976142
103	0x3d15defc	0.036589608
104	0xbde346e0	-0.11097503
105	0xbe05dfb2	-0.13073614
106	0x3e207f68	0.15673602
107	0x3dd5e78a	0.10444553
108	0xbdba2d0d	-0.09090624
109	0xbc88047b	-0.016603699
110	0x3d95befa	0.073118165
111	0x3cadeac7	0.021230115
112	0x3c13ce6d	0.009021384
113	0xbd8fd638	-0.07023281
114	0xbd00cdd8	-0.031446308
115	0xbde813b6	-0.113318846
116	0xbc882bee	-0.01662251
117	0xbd87a738	-0.06623691
118	0xbe4d03fd	-0.20021053
119	0xbe4f33d1	-0.2023461
120	0xbe3f3575	-0.18672736
121	0x3e387912	0.18014935
122	0x3e4a2118	0.19739187
123	0x3d58ad0e	0.052899413
124	0x3c9badbf	0.019003747
125	0xbe45e11c	-0.19324154
126	0xbc8ec9d6	-0.017430227
127	0xbe45fec0	-0.1933546
128	0xbce7aabf	-0.02827966
129	0x3dd56e8e	0.10421477
130	0xbe470d1e	-0.19438598
131	0x3e47fc31	0.19529797
132	0xbda207cd	-0.07911644
133	0x3db727af	0.08943116
134	0x3e086fcd	0.13323899
135	0x3d429390	0.047504008
136	0x3e2fab0c	0.17155093
137	0xbd515a6c	-0.051111624
138	0xbcbba286	-0.022904646
139	0xbc6453f4	-0.013936032
140	0xbda06b7e	-0.078330025
141	0xbdf27562	-0.11838795
142	0xbe46277f	-0.19351004
143	0x3e1da870	0.15396285
144	0xbd9fbbe9	-0.07799513
145	0xbd83476f	-0.06410109
146	0x3d7cd056	0.061722122
147	0x3e55869a	0.20852128
148	0x3e0599d9	0.1304697
149	0x3c13215a	0.00898012
150	0xbde1d401	-0.11026765
151	0xbbb4863f	-0.0055091674
152	0xbd5041ae	-0.050843887
153	0x3e11ac27	0.14225827
154	0x3d9d3c6c	0.0767754
155	0x3d5cee69	0.053938303
156	0x3dadc9c4	0.08485749
157	0x3e4a8fa1	0.19781353
158	0xbe1a96d2	-0.15096596
159	0xbd2cb8d3	-0.04216845
160	0xbcc09a18	-0.023510978
161	0xbe330fea	-0.1748654
162	0x3dda8737	0.106703214
163	0x3d2ccfc5	0.042190332
164	0xbd1a80de	-0.037720554
165	0x3d0d555d	0.034505237
166	0x3e2310c1	0.1592436
167	0xbdcc7340	-0.0998292
168	0x3e45980b	0.19296281
169	0x3de740ad	0.11291633
170	0x3e2df274	0.1698702
171	0x3e0cfc98	0.13768232
172	0x3d28210d	0.041047145
173	0x3c3917a7	0.011297143
174	0x3e229dbb	0.15880482
175	0xbe4d4ce0	-0.20048857
176	0xbe5532d7	-0.20820175
177	0xbe55df50	-0.20885968
178	0x3c148f0d	0.009067309
179	0x3e3458c8	0.17611992
180	0x3bc4a98b	0.0060016564
181	0xbe2e0bfd	-0.1699676
182	0x3d419961	0.047265414
183	0xbe350c3f	-0.17680453
184	0x3d952f21	0.0728438
185	0x3e3322e0	0.17493773
186	0xbe24c10a	-0.16089264
187	0xbddbc4dd	-0.10730908
188	0x3e35fcd1	0.17772223
189	0xbe10539a	-0.14094391
190	0x3d2d924e	0.042375855
191	0x3c846770	0.016162604
192	0x3e27307b	0.16327088
193	0xbcd03bbc	-0.025419109
194	0x3de56ad7	0.11202019
195	0xbe16b028	-0.14715636
196	0x3cc05015	0.023475686
197	0x3e0bb9d9	0.13645114
198	0xbde8bb9f	-0.11363911
199	0xbdbe5485	-0.092934646
200	0xbe241a7c	-0.16025728
201	0xbe32257c	-0.17397112
202	0xbb6b2619	-0.0035880862
203	0x3ce49c7a	0.027906645
204	0x3e14a4ec	0.14516038
205	0x3e23f92b	0.16013019
206	0x3e1afc91	0.15135409
207	0x3e652ac0	0.22379589
208	0x3d7e3e45	0.062071104
209	0x3d3188e4	0.04334344
210	0xbd1a61b2	-0.037690826
211	0x3d3fbdb5	0.046811778
212	0xbd838c53	-0.06423249
213	0xbc9bbc2f	-0.019010631
214	0x3d68e0c7	0.05685499
215	0xbe411570	-0.18855834
216	0x3cc8f2ef	0.024529902
217	0xbdadf633	-0.084942244
218	0xbe4bca15	-0.19901307
219	0xbe5529b5	-0.20816691
220	0xbe25ca40	-0.16190434
221	0x3e51e48a	0.20497337
222	0x3dfd5f2d	0.12371669
223	0xbd5a7e11	-0.053342883
224	0x3dd5b6e5	0.10435275
225	0xbd2b7249	-0.041857038
226	0xbd9b63fe	-0.07587431
227	0xbe382dd7	-0.17986237
228	0x3e28a42d	0.16468878
229	0x3e204312	0.15650585
230	0xbe1d4521	-0.15358402
231	0x3d906240	0.0704999
232	0x3e34f4c9	0.17671503
233	0xbe5b0d84	-0.21391875
234	0x3d97a4a5	0.0740445
235	0x3d98c1de	0.07458852
236	0xbbee34a7	-0.0072694602
237	0xbdcb393a	-0.099230245
238	0x3d11f59d	0.035634626
239	0x3e460701	0.1933861
240	0xbe420faf	-0.18951295
241	0x3e1551ec	0.14582032
242	0x3d9e0c85	0.07717232
243	0xbcdc506b	-0.026893815
244	0x3e348ee5	0.17632635
245	0xbcbdc248	-0.02316393
246	0x3d7f18e8	0.06227961
247	0x3deff0dd	0.11715863
248	0xbd14ecbd	-0.036358584
249	0x3e15f392	0.14643696
250	0xbdc61165	-0.096712865
251	0x3e655ad7	0.22397934
252	0x3e1332b7	0.14374815
253	0xbdf52904	-0.11970714
254	0xbe338efc	-0.17535013
255	0xbe062e42	-0.13103583

gat_layers.0.lin_edge.weight f4 [64, 64]
0	0xbdc19507	-0.09452253
1	0x3cc6b5a4	0.024256535
2	0xbe53272d	-0.20620413
3	0x3d11e8e4	0.035622492
4	0xbdccccab	-0.09999975
5	0xbe244d87	-0.160452
6	0xbd94a079	-0.0725717
7	0x3d836c95	0.06417195
8	0xbe36213f	-0.1778612
9	0x3de469d9	0.11153001
10	0x3dec0d2d	0.115259506
11	0xbdac27a2	-0.08405997
12	0x3ded4465	0.11585311
13	0x3b6e0a38	0.0036322009
14	0x3bac7918	0.005263459
15	0x3d4b578b	0.049644034
16	0xbd2febb2	-0.042949386
17	0xbe02853e	-0.1274614
18	0xbe0ac22f	-0.13550638
19	0x3cdd35bc	0.027003162
20	0x3e501a9f	0.20322655
21	0x3e08a6ce	0.13344881
22	0xbd0d495e	-0.034493797
23	0xbe3e9d42	-0.18614677
24	0x3c37369e	0.011182455
25	0xbd22b135	-0.03971978
26	0xbe05f9f2	-0.13083628
27	0xbe456964	-0.19278485
28	0x3e07aeae	0.13250229
29	0xbd134a01	-0.035959247
30	0x3e1e72e3	0.15473513
31	0xbddbf30e	-0.107397184
32	0xbda9f3ba	-0.0829844
33	0x3df54617	0.11976259
34	0x3d99f70d	0.07517824
35	0x3e035c52	0.12828186
36	0xbcaa13f9	-0.020761477
37	0xbc396866	-0.011316394
38	0xbe20b777	-0.15694986
39	0x3ddb0017	0.106933765
40	0x3de2e5a8	0.1107896
41	0x3e1f3f3c	0.15551466
42	0x3cc15987	0.02360226
43	0x3e592642	0.21206
44	0xbe4087ce	-0.18801805
45	0xbd4edef9	-0.050505612
46	0x3e04061f	0.1289296
47	0xbe071d7c	-0.13194841
48	0x3d149491	0.036274496
49	0xbe2c50e3	-0.16827731
50	0xbe1fb0fe	-0.15594861
51	0x3e583a73	0.21116047
52	0xbe4257ed	-0.18978854
53	0xbe2a184c	-0.16610831
54	0xbd2a5529	-0.04158512
55	0xbd800d08	-0.062524855
56	0x3dd4c69c	0.10389444
57	0x3e46d53a	0.19417277
58	0xbd17b20a	-0.037035026
59	0x3be006af	0.0068367342
60	0x3d2bf673	0.04198308
61	0xbd839e04	-0.064266235
62	0x3e38b734	0.18038636
63	0x3e122d90	0.14275193
64	0xbdc6234e	-0.096747026
65	0x3e2cef23	0.16888098
66	0xbe529d98	-0.2056793
67	0xbe0d6c3a	-0.13810816
68	0x3e106861	0.14102317
69	0xbd814762	-0.06312443
70	0x3debaa96	0.11507146
71	0x3dca13a2	0.09867026
72	0xbe3521ae	-0.17688629
73	0x3e3f7b17	0.18699299
74	0x3d5deafb	0.054179173
75	0x3dfe7c92	0.12426104
76	0x3e0fb09a	0.14032212
77	0xbcd6066a	-0.026126105
78	0xbe56f134	-0.20990449
79	0x3ddd64be	0.10810231
80	0xbd0b75f1	-0.034048025
81	0xbdffa5a5	-0.12482766
82	0x3ded0557	0.11573284
83	0xbc5bed98	-0.013423346
84	0x3e32c38c	0.17457408
85	0x3d931669	0.07182009
86	0xbc269bb9	-0.010168963
87	0x3e13b6a8	0.14425147
88	0x3d829a22	0.06377055
89	0x3a0667c2	0.00051271555
90	0x3b9df0e8	0.004819978
91	0xbe335928	-0.17514479
92	0xbdd34a05	-0.103168525
93	0xbe27c4d7	-0.16383682
94	0xbdda442f	-0.10657536
95	0x3dca7738	0.098860204
96	0xbe1c6240	-0.15271854
97	0x3dcbd7f6	0.09953301
98	0x3ce918bd	0.028454179
99	0x3d8e0616	0.069347546
100	0x3d495ac2	0.04915882
101	0xbe44079d	-0.19143529
102	0xbde35d0c	-0.11101732
103	0xbde706b2	-0.11280574
104	0x3d9b1c32	0.07573737
105	0xbd92f41a	-0.07175465
106	0x3e1e0524	0.15431648
107	0xbe3b6913	-0.18301801
108	0xbdda4727	-0.106581025
109	0xbbdbd029	-0.0067081642
110	0xbb307f9c	-0.002693153
111	0xbdfc9b38	-0.12334293
112	0x3e2b02e3	0.1670032
113	0x3e41c364	0.18922192
114	0x3e18337a	0.14863387
115	0xbe3e2698	-0.1856941
116	0xbe210af8	-0.1572684
117	0xbe51ff34	-0.20507509
118	0xbdf63f0e	-0.120237455
119	0xbd6506e3	-0.05591477
120	0xbe47a5de	-0.19496867
121	0x3d8a7673	0.06760874
122	0xbe2b19f2	-0.16709116
123	0x3ce2e630	0.027697653
124	0x3e131909	0.14365019
125	0x3e315cca	0.17320552
126	0x3e5a9585	0.213461
127	0x3df13269	0.11777193
128	0xbdafa3f1	-0.08576191
129	0xbdaf7977	-0.085680895
130	0x3e060e7c	0.13091463
131	0x3d8ef999	0.06981201
132	0xbde24736	-0.11048739
133	0x3d9ea869	0.077469654
134	0xbdf09330	-0.11746824
135	0x3d2acf43	0.041701566
136	0x3dc1fa8f	0.094716184
137	0xbe4ab205	-0.19794472
138	0xbccc3568	-0.02492781
139	0xbdf73dc3	-0.12072327
140	0xbe264ef5	-0.16241057
141	0x3e4f3c76	0.20237908
142	0xbb4ca5b8	-0.0031226706
143	0xbde4a818	-0.11164874
144	0x3dcf3135	0.10116807
145	0xbd83b60d	-0.06431208
146	0xbdffe0e0	-0.124940634
147	0xbe3fa271	-0.1871431
148	0x3e326075	0.17419608
149	0x3d52b785	0.05144455
150	0xbe565ed7	-0.20934616
151	0x3c11cdfd	0.008899209
152	0xbdb2228c	-0.086979955
153	0xbdbf737b	-0.09348198
154	0x3e3517f2	0.17684916
155	0x3cd51d5d	0.026014978
156	0xbda9170e	-0.082563505
157	0xbdc92367	-0.098212056
158	0xbdd35d35	-0.10320512
159	0x3e321fce	0.17394945
160	0x3c113f06	0.008865124
161	0x3e17c54f	0.14821361
162	0xbe2c591a	-0.16830865
163	0x3e270a2e	0.16312477
164	0x3e027062	0.12738183
165	0xbd8b0d0c	-0.06789598
166	0x3e2df0ed	0.16986437
167	0xbe39425a	-0.18091717
168	0x3d448172	0.04797501
169	0x3e32ba1f	0.17453812
170	0xbc865ce4	-0.016401716
171	0x3d95d087	0.07315164
172	0xbd8fe040	-0.07025194
173	0xbc961fa6	-0.018325638
174	0xbdaf624b	-0.0856367
175	0xbe4535d2	-0.19258812
176	0xbe0c7d49	-0.13719667
177	0xbe109168	-0.14117968
178	0xbb7394b6	-0.0037167496
179	0x3cfe13b8	0.031015262
180	0x3e42e5a9	0.19032921
181	0x3d44f91c	0.04808913
182	0xbde104b9	-0.10987229
183	0x3d13a846	0.03604915
184	0xbe15e26f	-0.14637159
185	0x3e28b355	0.1647466
186	0xbdb536ea	-0.08848365
187	0xbe096e04	-0.13420874
188	0xbd02bd3c	-0.03191875
189	0xbe49da94	-0.19712287
190	0x3e0dd2db	0.13849966
191	0xbdf4c93a	-0.119524434
192	0x3e3ace46	0.1824275
193	0xbdb7f73d	-0.08982704
194	0x3e2a7d93	0.16649465
195	0x3cec3774	0.028835036
196	0x3e4a61ca	0.19763866
197	0xbd69aab4	-0.05704756
198	0xbc920d25	-0.017828533
199	0x3e51b6dc	0.20479912
200	0x3da92946	0.082598254
201	0x3d0c139c	0.03419839
202	0x3d82514c	0.063631624
203	0xbe01d5df	-0.12679242
204	0x3d85825c	0.06519005
205	0x3b22f25b	0.0024863693
206	0xbe002512	-0.12514141
207	0x3d6b7e66	0.05749359
208	0x3d8958d2	0.06706394
209	0xbe3c51c6	-0.18390569
210	0x3de46706	0.11152463
211	0xbe449576	-0.1919764
212	0xbde09384	-0.109656364
213	0x3e1611ee	0.14655277
214	0xbd11e02a	-0.03561417
215	0xbe2244f6	-0.15846619
216	0x3e34620b	0.17615525
217	0xbe54cb46	-0.20780668
218	0xbd804ef0	-0.06265056
219	0x3db4a92b	0.08821329
220	0x3df2b533	0.11850967
221	0x3d99433a	0.074835256
222	0x3e10c817	0.14138828
223	0x3e3e827a	0.1860446
224	0x3e0fde28	0.1404959
225	0xbdb794b2	-0.08963908
226	0x3c5d4711	0.013505713
227	0xbe1a9b36	-0.15098271
228	0x3dd7d396	0.10538404
229	0x3db7b0d1	0.08969272
230	0xbc08e8df	-0.008356302
231	0x3e349a69	0.17637028
232	0x3e419565	0.18904646
233	0xbd20a8a2	-0.03922332
234	0x3c219bb1	0.00986378
235	0x3e414e76	0.18877587
236	0xbddb3cfb	-0.107049905
237	0x3d4565c7	0.048192766
238	0x3dcbdb2e	0.099539146
239	0xbdf6db40	-0.12053537
240	0xbe04d062	-0.12970117
241	0xbe1921a9	-0.14954247
242	0x3dc39cb4	0.09551373
243	0xb9ed15fa	-0.00045220536
244	0x3e4929b8	0.1964482
245	0xbdbd91a8	-0.09256297
246	0x3db25908	0.087083876
247	0x3e21ac22	0.1578832
248	0x3ce254e6	0.027628373
249	0xbe1ee0a9	-0.15515389
250	0xbd401e59	-0.04690394
251	0xbe009481	-0.1255665
252	0xbe2953dc	-0.16535896
253	0xbe00c941	-0.12576772
254	0xbe0f6e82	-0.14006999
255	0x3dc928c3	0.09822228

gat_layers.1.att_src f4 [1, 4, 16]
0	0xbe99ce14	-0.30040038
1	0x3dd0a64b	0.10187968
2	0xbea32e6a	-0.3187135
3	0x3eb60981	0.35554126
4	0x3d895c82	0.067070976
5	0xbd92f679	-0.07175917
6	0x3e3a460e	0.18190786
7	0x3ed1825e	0.40919775
8	0x3d611475	0.05495115
9	0x3eb9b4ec	0.36270845
10	0xbe590a53	-0.21195345
11	0xbd12b3c0	-0.035815954
12	0xbf087192	-0.53298295
13	0x3ea27ccc	0.31735837
14	0xbf042639	-0.51620823
15	0x3c47ac96	0.012187144
16	0x3ef2b14e	0.47400898
17	0xbedf2487	-0.43582556
18	0x3eeb0851	0.45904782
19	0xbea6345f	-0.3246183
20	0xbec79a80	-0.38985062
21	0x3ea376b6	0.31926507
22	0x3ee2c361	0.44289687
23	0x3ec1dd53	0.3786417
24	0xbecc5f74	-0.39916575
25	0x3ded0d80	0.115748405
26	0x3ece2e9b	0.40269932
27	0x3e6d32a7	0.23163854
28	0x3f08617c	0.5327375
29	0x3d891595	0.066935696
30	0x3f08e0fe	0.5346831
31	0xbebaec40	-0.3650837
32	0xbd7d818c	-0.061891124
33	0xbf00b73c	-0.50279593
34	0x3d82ba55	0.06383196
35	0xbee572a1	-0.44814017
36	0xbe793782	-0.24337581
37	0x3eefc4cc	0.46829832
38	0x3f0952f5	0.5364221
39	0x3e63da60	0.22251272
40	0xbf01058a	-0.50399077
41	0xbe18a196	-0.1490539
42	0xbd12fb94	-0.035884455
43	0x3e14742a	0.14497438
44	0x3e8b8391	0.27248815
45	0xbeda5a14	-0.4264685
46	0x3ec83afd	0.39107504
47	0x3eed9b49	0.46407536
48	0xbe4bc9c6	-0.19901189
49	0xbf0907b1	-0.5352736
50	0x3c897108	0.01677753
51	0x3ece685e	0.40314
52	0x3ee8d6c3	0.4547635
53	0x3910881a	0.00013783612
54	0xbe8ea048	-0.2785666
55	0x3ee4131a	0.44545823
56	0x3f09eb69	0.5387483
57	0x3e851a26	0.25996512
58	0x3ea0582b	0.31317267
59	0x3e8c1060	0.27356243
60	0x3ea0c5dc	0.31400955
61	0xbf0628be	-0.5240592
62	0xbec60f85	-0.38683715
63	0x3ed4a759	0.41533926

gat_layers.1.att_dst f4 [1, 4, 16]
0	0xbf053958	-0.52040625
1	0x3e2eb3bd	0.17060752
2	0xbeedec07	-0.46469137
3	0xbea705a4	-0.3262149
4	0xbec6c398	-0.388211
5	0x3e32fd92	0.17479542
6	0x3ef8e81e	0.4861459
7	0xbe7a45b6	-0.24440655
8	0x3ec99928	0.3937466
9	0xbef207d7	-0.47271606
10	0x3eb7b2c0	0.35878563
11	0xbe1f04f3	-0.15529232
12	0x3ef584ca	0.47952873
13	0xbf07be23	-0.530245
14	0x3ec88e4e	0.3917107
15	0x3f0aec88	0.5426717
16	0x3ed37e67	0.41307375
17	0x3d7830e5	0.060593504
18	0xbe36e8af	-0.17862199
19	0xbde60477	-0.1123132
20	0xbea25064	-0.31701958
21	0xbe35f2c9	-0.17768396
22	0xbed084ba	-0.40726262
23	0x3d0224f9	0.03177354
24	0x3eb4464e	0.35209888
25	0x3cfabed2	0.030608568
26	0xbe3679cb	-0.17819898
27	0xbedf8e22	-0.43663126
28	0x3e2bfb96	0.16795191
29	0x3e9d2e0f	0.30699202
30	0x3e70a97f	0.23502158
31	0x3eae68ef	0.34064433
32	0x3e17d1e0	0.14826155
33	0x3ee522b3	0.44753036
34	0x3e861022	0.26184183
35	0x3ec74158	0.3891704
36	0x3e93e846	0.28888148
37	0xbe1bad1e	-0.15202758
38	0x3e23fd4c	0.16014594
39	0xbf051248	-0.5198102
40	0xbebd8ae0	-0.37020016
41	0x3dbfdb3c	0.093679875
42	0xbeeabb73	-0.45846137
43	0xbeff6f93	-0.49889812
44	0x3efe41d6	0.49659604
45	0x3e1c3fde	0.15258738
46	0xbe1f3903	-0.15549092
47	0x3e497f60	0.19677496
48	0xbd857f2a	-0.06518395
49	0x3b550a01	0.0032507183
50	0xbc8bac45	-0.017049918
51	0x3e5fb627	0.2184683
52	0x3ee81678	0.45329642
53	0xbf08b6b3	-0.53403777
54	0x3d967e5b	0.07348319
55	0xbdca3a33	-0.09874382
56	0xbeddbbef	-0.43307444
57	0x3e0aeb69	0.13566364
58	0xbe8f87a1	-0.28033164
59	0x3e1bf244	0.15229136
60	0x3e3a24af	0.18178056
61	0xbeb5e412	-0.35525566
62	0xbec468f9	-0.38361338
63	0x3e1f54f2	0.15559748

gat_layers.1.att_edge f4 [1, 4, 16]
0	0xbe929194	-0.28626692
1	0x3e3ac1ab	0.18237941
2	0xbe95c558	-0.29252124
3	0xbe951fe5	-0.29125896
4	0xbeebf989	-0.46088818
5	0x3d18271a	0.037146665
6	0x3e2ab57b	0.16670792
7	0xbf0a3b8f	-0.5399713
8	0xbc860659	-0.016360449
9	0x3eeca8f7	0.4622266
10	0xbe892967	-0.267894
11	0xbe5e4460	-0.2170577
12	0x3f0b428a	0.54398406
13	0xbf008e7d	-0.5021742
14	0xbe90a4a8	-0.28250623
15	0xbe9e0f1e	-0.30870908
16	0xbe4b49d0	-0.19852376
17	0x3f027fe2	0.50976384
18	0xbea354cf	-0.3190064
19	0x3e850cbe	0.25986284
20	0xbdb70207	-0.089359336
21	0xbedcc5aa	-0.43119556
22	0xbecbbb4c	-0.39791334
23	0xbeae4a44	-0.34041035
24	0x3e6cc53d	0.23122115
25	0x3f01da1e	0.50723445
26	0xbebd7190	-0.37000704
27	0x3efb1616	0.49040288
28	0x3eb151df	0.34632775
29	0xbf07d712	-0.53062546
30	0x3f0967a4	0.5367377
31	0x3e935115	0.28772798
32	0xbe8dc274	-0.27687418
33	0x3e9fce57	0.31212112
34	0x3e3947b5	0.1809376
35	0xbc3c46d9	-0.011491501
36	0x3eda100f	0.42590377
37	0x3ea07dfe	0.31346124
38	0xbea70aa7	-0.32625315
39	0xbe85358b	-0.26017413
40	0x3e32e5c8	0.17470467
41	0xbe5a25aa	-0.2130343
42	0x3f06fc86	0.5272907
43	0x3f002a5f	0.50064653
44	0x3ebd9d6d	0.3703417
45	0x3f06b8ba	0.5262562
46	0xbeb48729	-0.3525937
47	0x3ea2a2cb	0.31764826
48	0x3dab7ae6	0.083730504
49	0xbed14dc6	-0.4087965
50	0xbe809204	-0.251114
51	0xbd5efad9	-0.054438446
52	0xbed70296	-0.4199416
53	0x3eb7dd20	0.35910892
54	0x3e98d30c	0.29848516
55	0xbeaaa688	-0.33330178
56	0xbe3064d2	-0.1722596
57	0x3b0eb168	0.0021773223
58	0xbe9e2f91	-0.30895665
59	0xbee6aec9	-0.45055225
60	0x3e44db84	0.19224364
61	0xbeda30b7	-0.4261529
62	0xbd3aa510	-0.045567572
63	0xbe1a8a09	-0.15091719

gat_layers.1.bias f4 [64]
0	0xbbdd839b	-0.0067600734
1	0xbbded705	-0.0068005347
2	0x3befd5e4	0.007319199
3	0xbbb55026	-0.005533236
4	0xbbe3c317	-0.0069507468
5	0x3c0233f8	0.007946961
6	0xbbe4bfc3	-0.0069808676
7	0xbbe26198	-0.0069086067
8	0xbbdc85d5	-0.006729821
9	0x3c1e69c5	0.009668772
10	0xbbe4b3a5	-0.006979423
11	0x3a37e1a8	0.00070145214
12	0x3a978784	0.0011560773
13	0xbbe05df7	-0.006847139
14	0xbbdec7d4	-0.0067987237
15	0xbbdbdc6b	-0.0067096255
16	0xbbde165e	-0.0067775687
17	0x3c1e1394	0.0096482225
18	0xbbe27f88	-0.0069121756
19	0xbbe4265d	-0.006962581
20	0x3b8f5cad	0.0043750615
21	0xbbd99533	-0.0066401004
22	0x3c2aa6fc	0.010415789
23	0xbbdc2552	-0.006718316
24	0xbbb3cfc0	-0.005487412
25	0xbbe01372	-0.0068382556
26	0x3b942649	0.0045211655
27	0xbbdaea51	-0.0066807647
28	0xbbe48bc1	-0.006974668
29	0x3bf694f5	0.0075250813
30	0xbbba8ac4	-0.0056928117
31	0xbbdd1f71	-0.006748133
32	0x3b11cb75	0.0022246514
33	0xbbd8fc2a	-0.006621857
34	0x3bb37b1e	0.005477323
35	0xbbe22128	-0.006900925
36	0xbb9ab14f	-0.004720844
37	0x3b915e89	0.0044363183
38	0xbbd430a8	-0.006475527
39	0x3c2f9568	0.010716774
40	0xbbcb8a62	-0.006211565
41	0x3c403d6e	0.011733396
42	0xbbdd4aee	-0.006753317
43	0xbba62a22	-0.0050709406
44	0xbbbb1d58	-0.005710285
45	0xbbdda5ca	-0.0067641484
46	0xbbd2f7f8	-0.0064382516
47	0xbbd605db	-0.0065314597
48	0xbb92b69e	-0.004477336
49	0xbbdaafbd	-0.0066737817
50	0xbbe2fdf3	-0.0069272458
51	0xbbd26265	-0.006420421
52	0xbbeade7b	-0.007167635
53	0xbbbcea77	-0.005765255
54	0xbbd31c33	-0.0064425706
55	0xbbd143ad	-0.0063862414
56	0xbb9a8570	-0.004715614
57	0xbbd96dac	-0.0066353884
58	0xbbd1ffbf	-0.006408661
59	0xbbc524e6	-0.0060163615
60	0xbbd4aabb	-0.006490079
61	0x3c214159	0.00984224
62	0x3a70ccb4	0.00091857766
63	0xbbd32139	-0.0064431694

gat_layers.1.lin.weight f4 [64, 64]
0	0xbe51bed5	-0.20482953
1	0x3d696e15	0.056989748
2	0xbd5b1f85	-0.053496856
3	0x3d5b7b03	0.05358411
4	0x3e32cae0	0.17460203
5	0xbd7d7ecd	-0.061888505
6	0x3da53c76	0.08068173
7	0x3e2d285f	0.16909932
8	0xbdb5ba1d	-0.08873389
9	0xbe414b59	-0.18876399
10	0x3e20c130	0.15698695
11	0x3e08d93b	0.13364117
12	0xbdab8b33	-0.083761595
13	0x3d2a76c6	0.041617177
14	0xbe0fffdd	-0.14062448
15	0xbcd2d8ca	-0.025738139
16	0x3d6ce478	0.057835072
17	0x3d524dfa	0.051343895
18	0x3e1a3619	0.15059699
19	0xbe01709e	-0.12640616
20	0xbcfc4469	-0.03079434
21	0x3e22bbbe	0.1589193
22	0xbe15114d	-0.14557381
23	0x3e29742a	0.1654822
24	0x3da71171	0.081576236
25	0xbd1a62d8	-0.03769192
26	0x3e517577	0.20454966
27	0x3e41c69b	0.18923418
28	0x3d2c34b8	0.042042464
29	0xbe122f16	-0.14275774
30	0xbdc61439	-0.09671826
31	0xbe3d256d	-0.18471308
32	0x3e1b8f52	0.15191391
33	0x3e3e13b3	0.18562202
34	0x3da765ca	0.081737116
35	0xbacf4018	-0.0015811948
36	0xbd97ed47	-0.07418304
37	0x3d0b3058	0.03398165
38	0x3d5992cf	0.053118523
39	0xbddc6b2f	-0.10762631
40	0xbdfe53a3	-0.12418296
41	0xbbfcf3a9	-0.0077194762
42	0x3e3f39e0	0.18674421
43	0x3e2971ec	0.16547364
44	0xbe3594a0	-0.17732477
45	0xbe0f4fa6	-0.13995227
46	0x3cd1a230	0.025590032
47	0xbe0e4b1c	-0.1389584
48	0xbe255e4e	-0.16149256
49	0xbe5db75c	-0.21651977
50	0x3df6fc5d	0.12059853
51	0x3d88f05d	0.06686471
52	0x3db512fd	0.08841512
53	0x3d17b734	0.03703995
54	0xbe59554c	-0.21223944
55	0xbe58fd08	-0.21190274
56	0x3de20227	0.11035567
57	0x3e4b3fde	0.19848582
58	0x3e04e26e	0.12977001
59	0xbd1b46d2	-0.037909336
60	0xbd649b6f	-0.055812296
61	0x3df3410f	0.11877643
62	0x3c3310a4	0.01092926
63	0xbdb2f027	-0.08737212
64	0xbda41315	-0.08011452
65	0x3d3a8537	0.0455372
66	0x3c04594d	0.008077932
67	0xbe3737a0	-0.17892313
68	0x3e46f65f	0.1942992
69	0xbd520b9a	-0.051280595
70	0x3dafbe9a	0.08581276
71	0xbd26f822	-0.04076398
72	0xbe2eb167	-0.17059861
73	0xbdf99656	-0.121868774
74	0xbe2a3173	-0.16620426
75	0xbe52dac6	-0.20591268
76	0xb9d1f80a	-0.0004004839
77	0xbe3ee29b	-0.1864113
78	0xbd85a9f5	-0.06526557
79	0xba165d37	-0.0005735936
80	0x3dc3cb18	0.095602214
81	0x3d0677a6	0.03282895
82	0x3e403607	0.1877061
83	0x3dafb94d	0.08580265
84	0xbdf1d625	-0.11808423
85	0xbe54b753	-0.20773058
86	0xbe205841	-0.15658666
87	0x3c388d04	0.0112640895
88	0x3e5244bd	0.20534034
89	0xbe062904	-0.13101584
90	0x3dca3a76	0.09874432
91	0xbe251f70	-0.16125274
92	0x3da71c23	0.081596635
93	0xbe47d426	-0.19514522
94	0xbdaf9ba6	-0.085746095
95	0xbc993fbe	-0.018707152
96	0x3d8754e7	0.06607991
97	0xbe547541	-0.20747854
98	0xbe0135e3	-0.12618212
99	0xbdd26f65	-0.10275153
100	0x3e47570c	0.194668
101	0x3dad2933	0.08455124
102	0xbe241dcb	-0.1602699
103	0xbe0e2f26	-0.13885173
104	0x3e0c1a4d	0.13681908
105	0x3d9a1167	0.075228505
106	0x3db73715	0.08946053
107	0x3e3770e3	0.17914157
108	0xb700109c	-7.633262e-06
109	0x3c1ae314	0.009453554
110	0x3ddf1692	0.10892977
111	0x3e3ddd6a	0.18541494
112	0x3e00bd76	0.12572274
113	0x3e2b9705	0.16756828
114	0xbe1e028d	-0.1543066
115	0x3e4dc025	0.20092829
116	0xbd614149	-0.0549939
117	0x3e45fd25	0.19334848
118	0xbd4b9450	-0.04970199
119	0x3e021160	0.1270194
120	0x3e328a0f	0.17435478
121	0x3dd1e4b0	0.10248697
122	0x3d96e72c	0.07368311
123	0x3dac2a76	0.08406536
124	0x3e137589	0.14400305
125	0x3e5b057e	0.21388814
126	0xbd967296	-0.07346074
127	0x3e064a20	0.13114214
128	0x3bf1fbeb	0.0073847673
129	0x3dc84c2e	0.09780155
130	0xbd29e01d	-0.041473497
131	0x3d6a03f8	0.05713269
132	0x3d971ec2	0.073789135
133	0xbd7eebf8	-0.062236756
134	0xbcc287ad	-0.023746336
135	0x3e287092	0.16449192
136	0x3dd2e512	0.10297598
137	0x3e446022	0.19177297
138	0xbe57e2ad	-0.21082564
139	0xbdbadf35	-0.091246046
140	0xbcf35975	-0.029705742
141	0xbe164190	-0.14673448
142	0x3d8819b9	0.06645531
143	0xbd46ec67	-0.048565295
144	0xbdf9b3a2	-0.12192465
145	0xbde0cb2b	-0.10976251
146	0xbde7d349	-0.11319596
147	0xbd85e74c	-0.06538257
148	0xbe391ea6	-0.18078098
149	0x3dc6749a	0.09690209
150	0xbe57696c	-0.21036309
151	0x3d5f5a9b	0.054529767
152	0x3e4dc463	0.20094447
153	0x3e5cbdfa	0.21556845
154	0x3dcc76fd	0.09983633
155	0xbe3e878d	-0.18606396
156	0xbe0df93f	-0.13864611
157	0xbdd98712	-0.10621466
158	0xbe1697a1	-0.1470628
159	0x3d3476e7	0.044058707
160	0x3dd18445	0.102303065
161	0xbd603fcf	-0.054748353
162	0xbe44aa24	-0.19205528
163	0xbe386af5	-0.18009551
164	0xbd8dec3f	-0.06929826
165	0x3da74974	0.08168307
166	0x3da1d93a	0.07902761
167	0xbd7ec198	-0.062196344
168	0xbdfe6cd8	-0.12423104
169	0x3e027b83	0.12742428
170	0xbdbec05e	-0.09314035
171	0xbd55a9ae	-0.052163772
172	0x3e239437	0.15974508
173	0x3dcfbcca	0.101434305
174	0xbc910fb6	-0.017707687
175	0xbe1ba01d	-0.15197797
176	0xbe2a33c9	-0.16621317
177	0xbe028a8b	-0.12748162
178	0x3a53547b	0.00080616
179	0xbcae8b76	-0.021306735
180	0xbe3bbe79	-0.18334378
181	0xbcd8f258	-0.026482746
182	0x3e276c3d	0.16349883
183	0x3e2759d5	0.16342862
184	0x3d2d6469	0.042332087
185	0xbce9176e	-0.028453555
186	0x3dd3f223	0.10348918
187	0xbd950cf4	-0.07277861
188	0xbdf7e653	-0.12104478
189	0xbc1b02b7	-0.0094610965
190	0x3d0fae8e	0.035078578
191	0x3da0dccd	0.078546144
192	0xbe066b22	-0.13126805
193	0x3d5369c8	0.051614553
194	0x3e0c0445	0.13673504
195	0x3de6d6b7	0.11271422
196	0x3debec91	0.11519731
197	0x3d825b99	0.06365127
198	0x3dce2d0f	0.10067188
199	0x3e117dcf	0.14208148
200	0xbdecce11	-0.115627415
201	0xbdddf244	-0.10837224
202	0x3c98add8	0.018637583
203	0xbe0d70a7	-0.13812505
204	0x3e1e0daa	0.154349
205	0x3dc4ed0d	0.09615526
206	0xbe1698e3	-0.14706759
207	0x3e1424d6	0.14467177
208	0xbe20242c	-0.15638798
209	0x3e382737	0.1798371
210	0xbdaa1064	-0.083039075
211	0x3e31dff9	0.17370595
212	0x3d685dd2	0.0567301
213	0xbe3cdd34	-0.18443757
214	0xbdee4923	-0.116350435
215	0xbd5e4de4	-0.0542735
216	0xbe017e35	-0.126458
217	0xbe4b9dda	-0.19884434
218	0xbc93f42b	-0.018060764
219	0xbe42f722	-0.19039586
220	0x3d0a69c3	0.03379227
221	0xbdd0e394	-0.10199657
222	0x3d991ebe	0.07476567
223	0x3d234293	0.039858412
224	0xbb01c97a	-0.0019803927
225	0x3e49f835	0.1972359
226	0x3da81808	0.082077086
227	0xbe27d517	-0.16389881
228	0x3d929bd7	0.0715863
229	0xbe4bb6b3	-0.19893913
230	0x3d5b1ef5	0.05349632
231	0xbe0866b1	-0.13320424
232	0x3d9b1203	0.07571795
233	0xbe1dab41	-0.1539736
234	0xbdc5be50	-0.0965544
235	0xbe5b46b3	-0.21413688
236	0xbe4b950a	-0.19881073
237	0xbd8abb87	-0.06774049
238	0x3d7840d6	0.060608707
239	0x3df75d90	0.120783925
240	0x3e37aa0e	0.17935964
241	0x3e36cf57	0.17852531
242	0xbdcd78c4	-0.100328
243	0xbd1d203a	-0.03836081
244	0xbe042c0a	-0.12907425
245	0xbcb7b48f	-0.022424964
246	0x3cec19ca	0.028820891
247	0xbe1aed2c	-0.15129536
248	0x3b7f9ebd	0.0039004527
249	0xbe3e1421	-0.18562366
250	0xbe3e7557	-0.18599449
251	0xbd107f7e	-0.035277836
252	0x3e5ee634	0.21767503
253	0xbdd48c91	-0.103783734
254	0x3c11cfeb	0.008899669
255	0xbd8ea224	-0.069645196
