models/best_fraud_model_seed_777.pth (torch, 378192 bytes, 45 tensors)

node_emb.weight f4 [64, 8]
00000000: fca6 aebd 212d 79be 3fb6 833e 529c 7bbe
00000010: fb0f c5bd ed41 553e 5784 9fbc c7a9 583e
00000020: 0b3d 913c b891 80be 3b4d 833e 8642 5f3d
00000030: 6d19 903e b731 cfbd d500 713e f1ee 653e
00000040: 312d 36be 52ce 9fbe d34a e3bd d535 693e
00000050: 051f 52be 6207 0fbe 6fdb f7bb f2dd 4bbe
00000060: 503d 223e 1778 8dbd 2146 6abe 84b1 93b8
00000070: 40be a2be d42f b63e 0ca0 b93d cee6 d13c
00000080: 4dd6 813e 2ff9 a13e 9122 3ebe 071c 1ebd
00000090: f175 a0bd 0ecf 193e e6b5 893d e38b b13d
000000a0: 835b 76be 8212 98be 4c9f 863e bd40 33be
000000b0: a578 0bbd 0851 413e 5b6f 0dbd b112 a83e
000000c0: b73e 9a3b 7f47 9c3c c23b 8d3e 8d84 2bbe
000000d0: f0a3 283e 33c3 fbbd 8c7e e6b9 6759 33be
000000e0: ca0e 993e 7c0c 733b 3043 54be 2557 2cbe
000000f0: 59ce 02bd 7202 9f3c 822f 94be 7356 8cbe
00000100: 22f9 ab3d bfb8 df3c 988c 84bd c15c 53be
00000110: 5f33 b2be 9628 db3d 24bb f73c d9fc 60be
00000120: bfd6 d9bd 4361 91bc 9d16 a13e 5b22 313e
00000130: 9d46 89be 7edc c4bc fbbf 88be 1a4a 4a3e
00000140: 16a9 dfbd 1b2c 9bbe b38e 723e d537 773b
00000150: 960e b63e dd7a 863e 73da bfbd ce09 1e3e
00000160: bf22 863d 6376 08bd e5d5 32bd 8f90 11be
00000170: 66c6 b53b bab0 33be fc1e 90be b695 a2be
00000180: 7908 b83d 04ce cdbd fa65 9c3e 84a4 323e
00000190: 83b9 db3d 735b 6cbe b098 5b3d 398a ae3d
000001a0: 443e 733d c3e9 febd 83a9 a13e aa94 a4be
000001b0: 4b4e 3abe 3739 62be 54e6 813e 3eaa 9a3e
000001c0: 0718 a5be 5ef1 11be a034 69bd c939 a93e
000001d0: 06d5 4c3e 41da be3d b53d a63e a3ef a83d
000001e0: 3cd6 adbe ec46 c13d e9b3 6bbe c96b 953e
000001f0: fe22 6ebe 8063 45be 0cff a33e 537c 95be
00000200: b240 02be 2de3 bb3d 956b 7b3e ae1a 56be
00000210: 759f 333e 2e85 a2be 5d0d 0ebe fa07 5e3e
00000220: e09b 293e 26e7 6b3e 1815 68bd 2f03 893e
00000230: 5273 803e 6a22 953e 3e5b 9cbe e5e1 0e3e
00000240: 4844 89be f742 c43d 4b20 a33d bd2c 0f3e
00000250: 66d3 74be 0bd5 9d3d 9dfd 8dbd 9718 1abe
00000260: 3f6b 8abe ab86 76bd 8d59 5ebe f8b2 ae3e
00000270: 42d7 823e 01ad d33d 1ebc 32be 9ebd 83be
00000280: e396 8c3e a659 4f3e eec2 973e 7b37 a83b
00000290: 4426 9cbd 549f 91be 82b0 b6be d512 94bd
000002a0: 0d93 353e 1813 a53e 42cb 633d 027f 0b3e
000002b0: e434 99bc 4c05 b5be a7bb 2e3e abac 5ebe
000002c0: 5379 9cbe c776 403e 3071 433e a388 93be
000002d0: 1e7b 1a3d e968 ec3c 63f7 aa3b 7591 95be
000002e0: 2ae9 85be 3044 883c 93b2 9e3e bac4 e63c
000002f0: b8ca c93d 4c72 023e 54b2 d23d 1c0f 81be
00000300: 13b0 a3be 7caa a63e e310 b9bd 8f87 c63d
00000310: bf6c 61bd d403 013e 86f1 d3bd 8726 80be
00000320: f254 f7bd 7eb9 a0bd 227f 913e e0b7 953e
00000330: 1882 44be 2e5c 22bd 49f2 86be 69e3 0e3e
00000340: 879f 0dbe 021a 00bd b8e8 ad3e a64a 39be
00000350: d0dd bdbc 8af3 063e 4822 a03d c05f 86be
00000360: 42b7 59be cc2f a5be f628 00bd 223b 663e
00000370: 2e01 a2be f6c5 293e 29c6 7d3e 6bc5 35be
00000380: 8daa 09be 6153 babd dc3b 52bd 73b1 d3bd
00000390: 878c d7bd 22e4 86bc c738 933e 32bd b0be
000003a0: 8f6d 783e 9b93 0c3c a5ae 95be 69f3 4e3d
000003b0: 7695 9b3e fc5f 24be 1053 c5bc 042c 8b3e
000003c0: b9e4 143e 5c9d 2abe 782c 12be 7f50 2fbe
000003d0: 5684 c9bc 0e2e aa3e 3a8f 343e e736 58ba
000003e0: b1eb 90be 770c 983c 4b4c 49be edef ac3e
000003f0: 5039 803e de1e 0bbe 426e 23be ab92 ae3e
-0.085279435 -0.24333622 0.2572498 -0.2457135 -0.09622189 0.2082593 -0.019472284 0.21158515
0.017729303 -0.25111175 0.2564486 0.0545068 0.28144398 -0.10116904 0.23535474 0.2245443
-0.17790677 -0.31212097 -0.11098256 0.22774442 -0.20519646 -0.1396766 -0.0075640003 -0.19908884
0.15843701 -0.06907671 -0.22878315 -7.042571e-05 -0.31785774 0.35583365 0.0906373 0.025622752
0.2535881 0.31635424 -0.18567874 -0.038600948 -0.078349955 0.15020391 0.067241475 0.086692594
-0.24058346 -0.2970162 0.2629341 -0.17505164 -0.034050602 0.18878567 -0.034530025 0.3282676
0.004707183 0.01907706 0.27584654 -0.16749783 0.16468787 -0.12293091 -0.00043963303 -0.17514573
0.29894096 0.0037086299 -0.20728755 -0.16830118 -0.03193507 0.019410346 -0.28942496 -0.27409706
0.08397128 0.027309773 -0.06472129 -0.20640852 -0.34804818 0.107011005 0.030240603 -0.21971454
-0.10636663 -0.017746573 0.31462565 0.17298262 -0.26811686 -0.02403092 -0.2670897 0.1975483
-0.109209225 -0.30307087 0.23687248 0.0037722487 0.35558003 0.26265612 -0.09367838 0.15433428
0.06549596 -0.033316027 -0.043661017 -0.14215301 0.0055473326 -0.17547885 -0.2814864 -0.31754845
0.08985991 -0.1004906 0.30546552 0.1744557 0.10728743 -0.2308176 0.05361241 0.08522458
0.059385553 -0.1244693 0.3157464 -0.32144672 -0.18193929 -0.22092138 0.2537104 0.3020801
-0.32244894 -0.1425223 -0.056934953 0.330519 0.20003137 0.093189724 0.32468954 0.08248832
-0.3395251 0.094373554 -0.23017849 0.29183796 -0.23255536 -0.19276237 0.32030523 -0.29196414
-0.12719992 0.0917419 0.24552758 -0.20908615 0.17541297 -0.31742233 -0.13872285 0.2168273
0.16563368 0.23037395 -0.05666074 0.2676024 0.25087982 0.29127818 -0.30538362 0.1395336
-0.26809907 0.09583085 0.07965144 0.1398191 -0.23908767 0.0770665 -0.069331385 -0.15048443
-0.27034947 -0.060187023 -0.21713848 0.34120917 0.25554854 0.10335732 -0.17454574 -0.25730604
0.27458867 0.20249042 0.29640907 0.005133567 -0.07624486 -0.2844187 -0.3568154 -0.072301544
0.17731877 0.3224113 0.055613764 0.13622668 -0.018701978 -0.35355604 0.17063771 -0.21745555
-0.30561313 0.1879531 0.19086146 -0.28815183 0.03771507 0.028858619 0.005217479 -0.29212537
-0.26154453 0.016634077 0.30995616 0.028169978 0.09853119 0.12738913 0.1028792 -0.2520684
-0.3197027 0.32551944 -0.09036424 0.096938245 -0.05503535 0.12599117 -0.10348801 -0.25029394
-0.12076749 -0.0784788 0.28417307 0.29241848 -0.19190252 -0.03963869 -0.26356724 0.13953938
-0.13830386 -0.031274803 0.33966613 -0.18094882 -0.023177058 0.1317884 0.07819039 -0.26244926
-0.21261314 -0.3226303 -0.031289063 0.22483495 -0.31641525 0.16579422 0.24782623 -0.1775109
-0.13443966 -0.090979345 -0.051326618 -0.1033658 -0.1052485 -0.016466204 0.28754255 -0.34519345
0.24260543 0.008580114 -0.29234806 0.050525103 0.30387467 -0.1605224 -0.024087459 0.2718202
0.14540376 -0.1666159 -0.14274776 -0.1712055 -0.024599236 0.33238262 0.17632762 -0.0008247927
-0.28304818 0.018560631 -0.1965801 0.337768 0.25043726 -0.13585994 -0.15960029 0.34096274

node_emb.bias f4 [64]
00000000: b1a9 1abe 84ef 863d 0e64 243d f890 b73e
00000010: 2fde 1f3e 8f2c 563e 72d6 6fbe 0285 453d
00000020: 8eb1 343e 9208 e5bb 2310 af3e 2a6b 57be
00000030: 56e1 073d 88d2 adbe 68f8 473d a500 08be
00000040: 4235 2f3e b342 82be de41 2c3e 6c3f 36bd
00000050: e5b3 823e e65f 583e 48c9 a43e f2e7 053c
00000060: fffb 97be c1b1 69bd fc5c 06be 0ab8 5cbc
00000070: e103 acbe 4dee 6dbe 005d 483d 4e3d 8dbb
00000080: c510 9bbe 06e5 263d 8012 b33e 4580 0bbe
00000090: 1967 51be ad5d b1be 71b6 10be 9d6d 22be
000000a0: f2c0 18be 97da 9abd a0d0 503e 0a33 343c
000000b0: 9ae5 443e c5bf c53d 6523 a23e 09d7 22bd
000000c0: ec32 6bbe e855 83be 45ae 68be 24c0 c23d
000000d0: 140f d0bd 177d 55be 52e7 2d3e d5ea 69be
000000e0: e971 35be b05a babe 3ef3 a33e 28e3 b9be
000000f0: dbfa 5f3e 1d8d 843e 5740 91be e419 2dbe
-0.15103795 0.06588653 0.040134482 0.3585279 0.156121 0.20915435 -0.23421648 0.04822255
0.17645857 -0.006989547 0.34192 -0.21036974 0.03317388 -0.33949685 0.048820883 -0.13281496
0.1711016 -0.25441512 0.16822001 -0.044494078 0.25527874 0.21130332 0.32184815 0.008172976
-0.29684445 -0.057054285 -0.13121408 -0.013471613 -0.3359671 -0.23235436 0.048916817 -0.0043102866
-0.30286232 0.040745758 0.34975052 -0.1362315 -0.20449485 -0.3464178 -0.14132096 -0.15862127
-0.14917353 -0.07561224 0.20392084 0.010998497 0.19228211 0.09655718 0.3166763 -0.039755855
-0.22968644 -0.2565148 -0.22722729 0.09509304 -0.10159126 -0.20848499 0.16982773 -0.22843488
-0.17719235 -0.36397314 0.32021517 -0.3630612 0.21873038 0.2588891 -0.283694 -0.16904408

edge_emb.weight f4 [64, 2]
00000000: c395 b6be c1fc 723e cad6 d43e e348 1ebf
00000010: 684c 8d3e 86e6 b0be bb18 973e 84b2 0ebd
00000020: 1e7b 27bf f782 30bf 4452 d6be ea20 08bf
00000030: 14ba cfbe 0fe8 293f 7f45 52bd 7133 76bc
00000040: e3bc 063f 2aa8 de3e a759 c7be bf27 abbe
00000050: 4fff 0e3f f826 183f 0a25 8bbd cbd3 acbe
00000060: 12aa 1a3f 887a 013f d4b0 173f c010 eebe
00000070: 8aa0 e73e dcf3 c03e ebd1 893e e872 023f
00000080: 22c9 91be 2f6c 9d3d 8fdb dd3e bf45 90bd
00000090: 1788 e7be acc2 2ebf 5436 233f b10b 2f3f
000000a0: 224c 023f 9fe7 073f 612f 11bf f0e5 c4be
000000b0: 1d52 a33e e9d4 a03e 854b 2dbf 86a6 febe
000000c0: def2 ea3e 6811 e5be 5e01 11bf 3539 c53e
000000d0: 09bf 523e 1d44 a7be 0a2e d5be 84ba 013f
000000e0: 49ea 653e b694 cc3e 5ae2 1fbf 26b3 e0be
000000f0: 032c ee3e 8f16 e2bd ae73 10bf b724 0abf
00000100: 9ab3 bd3d 3a77 5cbe 2e27 f53e 3c4e 81be
00000110: 15d6 52be 1f7a 0fbf 3af4 d43e 423b 18bf
00000120: ccd8 ca3e f6dc 0abf cae1 c1be 9bc5 a33d
00000130: f724 d0bd f4b3 ce3d 3198 393e 0cd1 083f
00000140: 09d7 21bf 31b7 263f 7f75 f23e 2f45 a33e
00000150: 2b54 bf3d d8ac 733d 29e5 4cbe 087e 7bbe
00000160: 5270 e9be 3702 dcbe 1a83 aabe 4418 26bf
00000170: 0682 09bf 3eae 09bf da06 6c3d 855e 1d3f
00000180: f5c0 a1be c532 ebbd 39b2 013f 5a01 423d
00000190: aae2 20bf 8391 edbe eb04 d1be 20cd 6dbe
000001a0: 7430 24be dd5a d43e 492d 86be 8f85 2bbf
000001b0: 7ce9 22bf 6c29 173f 2e47 683e bb02 263f
000001c0: 0c0a 0fbf 6743 1d3f 8434 303e ae3b 1bbf
000001d0: 3d77 ffbd 14fd 2a3f b388 83be ec07 17be
000001e0: c8bd 19bf c0d3 77be f390 433e 0672 fbbd
000001f0: e4bf 26be ff31 a53e 2a37 bfbd ce36 acbd
-0.35661134 0.2372923 0.4157012 -0.61829966 0.27597356 -0.34550875 0.29511055 -0.034838215
-0.65422237 -0.68949836 -0.4185964 -0.5317522 -0.40571654 0.6636972 -0.051335808 -0.015026913
0.5263197 0.43487674 -0.38935587 -0.3342876 0.5585832 0.5943446 -0.06794174 -0.33755335
0.60415757 0.5057759 0.59254193 -0.46497154 0.4523967 0.3768605 0.26917967 0.50956583
-0.28473765 0.0768665 0.43331572 -0.07044553 -0.45221016 -0.68265796 0.63754773 0.68377215
0.5089742 0.530878 -0.5671292 -0.38456678 0.31898585 0.31412438 -0.6769336 -0.49736422
0.45888418 -0.44739842 -0.5664271 0.38520208 0.20580687 -0.32669154 -0.41636688 0.50675225
0.22452654 0.39957207 -0.6245476 -0.4388668 0.46517953 -0.11039459 -0.56426513 -0.5396227
0.09262772 -0.21529856 0.47881454 -0.25255 -0.20589478 -0.56045717 0.4159258 -0.5946542
0.39618528 -0.5424341 -0.37867576 0.079966746 -0.101633005 0.10092917 0.18124463 0.5344398
-0.6321874 0.6512328 0.47355267 0.3188872 0.09342226 0.05949101 -0.20009293 -0.24559796
-0.45593506 -0.4297044 -0.33303148 -0.64880776 -0.53714025 -0.537815 0.05762372 0.6147235
-0.31592527 -0.11484293 0.5066257 0.04736457 -0.6284586 -0.4640008 -0.40824065 -0.2322278
-0.16034108 0.41475573 -0.26206425 -0.6700067 -0.6363752 0.5904758 0.22683403 0.64847916
-0.55874705 0.6143097 0.17207533 -0.6063794 -0.12473915 0.66792417 -0.2569023 -0.14749116
-0.6005521 -0.2420187 0.19098262 -0.122776076 -0.16284138 0.32264706 -0.093366936 -0.08408891

edge_emb.bias f4 [64]
00000000: 3bd1 26bf a355 e73e bed3 c2be e585 d53e
00000010: 31f3 10be 9130 9a3e a833 de3e 4a30 42bd
00000020: b53d 583e 623e 243f 8186 123f d473 1c3f
00000030: abf3 f7be 7d10 003f 1381 bd3e ff95 00bd
00000040: 75ef c33e 7df3 d7be a8d2 0dbd 46c7 85be
00000050: 1e9e 5dbe 7021 e0be 746d 483d f57a c23e
00000060: 7fe2 793e 254f 0a3f f7a9 8f3e bea7 b3be
00000070: f2e4 0dbf 9082 7dbe 34ae eebd c3be b63e
00000080: 3c0c c83d c3f6 90bd 42a2 1ebf b8c5 283f
00000090: 3aa2 b1be 230d 283f 687e 19bf 654e eabe
000000a0: 4f02 fd3e d25c 40bd 26b1 5c3e ebe8 f3be
000000b0: 6b3d 17bf 6b1c 1bbf d9db 193f 091a a43e
000000c0: 819a 81be 9608 95be 88a2 9b3e 7ed6 5a3d
000000d0: 6187 853e 199a 4dbe f19f f3be 972d a3be
000000e0: 6422 ecbc 9fc6 583e 0d65 94be 9c6a 0ebd
000000f0: 0470 d3bd 6b2a e6be a2ca b8be de78 17bf
-0.6516301 0.45182523 -0.3805217 0.41703716 -0.1415527 0.30115178 0.43398786 -0.047409333
0.2111729 0.6415769 0.57236487 0.6111424 -0.4842809 0.5002516 0.37012538 -0.031393047
0.3826863 -0.42177954 -0.034624726 -0.26128596 -0.21642348 -0.4377551 0.048932508 0.37984434
0.24402808 0.54027015 0.2805936 -0.35088915 -0.5542747 -0.24756837 -0.1165432 0.35692415
0.097679585 -0.07078316 -0.61966336 0.65926695 -0.34694082 0.65645045 -0.59958506 -0.45762935
0.49415824 -0.04696352 0.21551952 -0.4763864 -0.5907809 -0.6059024 0.60101086 0.32051113
-0.2531319 -0.29108113 0.3039744 0.053427212 0.26079848 -0.20078315 -0.47582963 -0.3187072
-0.028824992 0.21169518 -0.28983346 -0.03476964 -0.103241 -0.44954237 -0.36092097 -0.59168804

gat_layers.0.att_src f4 [1, 4, 16]
00000000: 0a9f 9e3e d5bf 59be 02b8 bb3e 02a2 543e
00000010: 5c2b f7be f285 fd3e b36a ae3e c854 693e
00000020: c49e c3be 3c57 6a3e f9cb 553e 1867 a43c
00000030: 5067 ccbe 8a36 ae3e 7d5b 493d 9c64 29be
00000040: cae4 cc3e 40bd e9bc b70c 83be 5bb2 94be
00000050: c414 1e3e f2a2 59be 6d23 85bd 8dc1 eebc
00000060: 4b3a c8bc 7851 0ebe b554 9c3e b814 91be
00000070: 1aa1 09bf 8f93 b23e 76ef cf3d 4733 e7bc
00000080: ef5a aabe 620f 4bbe 057b d43e dfd7 2cbe
00000090: 9d8f 1cbe 5d3c d33e 1c8f 43bd 0b06 e63e
000000a0: 278c c0be fef6 a63e 1abd e7be fcef b2ba
000000b0: 7c6f eabe a542 203d e94c a6be 05c4 4f3e
000000c0: d323 fc3e df3a 05bf ea85 1cbe 500b 443e
000000d0: f934 afbe 4e63 99be 8985 e13e 209b ac3d
000000e0: 1899 b7be 36da bcbd d729 5c3e 775a 92be
000000f0: 11d6 c8be c650 21be 12ab efbe 59e6 45be
0.30980712 -0.21264584 0.36663824 0.20764926 -0.48275268 0.49516255 0.3406578 0.22786248
-0.38207066 0.2288484 0.2087859 0.02006869 -0.3992257 0.34025985 0.049159516 -0.16542286
0.40018302 -0.028532624 -0.25595638 -0.29042324 0.15437609 -0.21253565 -0.065008976 -0.029145027
-0.024441859 -0.13898265 0.30533376 -0.2833612 -0.53761446 0.34878203 0.101530954 -0.028222693
-0.33272502 -0.19830087 0.41500106 -0.16879223 -0.15289159 0.4125699 -0.0477439 0.44926485
-0.37606928 0.32610315 -0.4526146 -0.0013651843 -0.4578818 0.039126057 -0.32480553 0.2028962
0.49246082 -0.52042955 -0.15285459 0.1914494 -0.34220102 -0.29958576 0.44047192 0.08428025
-0.3585899 -0.09221308 0.21500336 -0.28584644 -0.3922582 -0.15753469 -0.46810204 -0.19326152

gat_layers.0.att_dst f4 [1, 4, 16]
00000000: c08d d0be 4e61 eebd 3355 733e 6bde ca3e
00000010: 9b2c 0abf 2f8f 603e 0c2c 19be 32b5 d2be
00000020: 7111 f73e 3f0f d0be 0237 c4be 7ef8 f33e
00000030: 4a31 6f3e 30cd 70bd 25a8 8a3e e964 99be
00000040: 130e b6be 2c0f 9f3e 2a43 eebe 892d ee3e
00000050: 05c0 cabd eaa4 ac3c eaa1 733e 1679 9c3e
00000060: 5ca9 afbe 3b27 3d3e 8c20 d03e 1a9d ea3d
00000070: 912f 953e 3a53 263c 174c 4d3e be93 713d
00000080: ce58 02bf a53b f83e ff1b b63c 2295 ee3e
00000090: f275 643e a4f2 d7be 0dbe 88be 90d3 043f
000000a0: e48d e23e b030 403e 87a0 30bd 4c51 563e
000000b0: 58e0 7d3c f031 8fbe 44b1 f9be e3c9 86be
000000c0: 3225 7dbe 37c1 e3be 2323 893d b9a4 d83e
000000d0: 06fe 9cbc da5d 093f f8a6 363e 576a 3abd
000000e0: e230 81be f297 603e 5b99 d1be 04ed 9a3d
000000f0: 6170 833e e06a 63bd ed51 edbe 8a64 853e
-0.40733147 -0.11639653 0.2376297 0.39622816 -0.5397431 0.2192962 -0.14958209 -0.41153866
0.48255494 -0.40636632 -0.38323218 0.47650522 0.23358646 -0.058789432 0.2708141 -0.299598
-0.35557613 0.31066263 -0.46535617 0.46519116 -0.09899906 0.02107473 0.23792234 0.3056113
-0.34308898 0.18471996 0.4064983 0.11455746 0.29137853 0.010151679 0.20048557 0.05897879
-0.50916755 0.48483005 0.022230146 0.46598154 0.22310618 -0.42177308 -0.26707497 0.5188532
0.4424888 0.18768573 -0.04312184 0.2092945 0.015495382 -0.27967787 -0.48768055 -0.26325902
-0.2472122 -0.4448335 0.06696155 0.42313173 -0.019164097 0.5365883 0.17837131 -0.04551157
-0.25232607 0.21932963 -0.40937313 0.075647384 0.25671676 -0.055521846 -0.46351567 0.26053268

gat_layers.0.att_edge f4 [1, 4, 16]
00000000: f86c 8ebd df49 efbd 70a8 9a3e dbde 6cbe
00000010: 8389 f4be 3020 8bbe 70af 8a3e 1985 2abd
00000020: 33a3 f23d 05b2 e23e b7c9 293b 6ab5 c0ba
00000030: 31b5 cb3e 349e d03e 683b febd 42a3 84be
00000040: 80aa 17be 4de4 d13e 922b 6a3e 89f5 80be
00000050: 1621 be3c fbaf dfbe 86a6 89be 5a4c cf3e
00000060: 528d 89be fe00 a13e 5608 503e 2c0a 003f
00000070: 7bd2 0fbe 0197 d8bd f505 023f a3f5 babd
00000080: edb9 5fbe b36d 8d3d 833c 88be c219 87be
00000090: b60b 4d3e aff6 b7be 8614 55bd 9d02 7bbd
000000a0: ac5d 38be 1411 653e 15bd 8b3e 4079 33bd
000000b0: bb7d e13d 52e8 d8bd a387 8fbd 16f0 053f
000000c0: 73ae 043f b651 913e ee3c 183e 7a47 0abf
000000d0: 32a2 f03e dbaf 3f3e a4fe febe 4ecd 983e
000000e0: da5f 04bf e21b e1be 5b5b 283e 85ea 933d
000000f0: af2b 01be 5e6e 853e 4442 f3be 3243 d63e
-0.06954378 -0.11684012 0.30206633 -0.23131888 -0.47761163 -0.27172995 0.27086973 -0.041630838
0.11847534 0.44276443 0.0025907585 -0.0014702503 0.39786676 0.407457 -0.124136746 -0.25905806
-0.14811134 0.40994492 0.22868183 -0.25187328 0.023209136 -0.4368895 -0.2688486 0.4048794
-0.2686563 0.3144607 0.2031568 0.5001552 -0.14045136 -0.10575677 0.5079034 -0.09128883
-0.21848269 0.06905689 -0.26608667 -0.2638684 0.20023999 -0.35930392 -0.052021526 -0.06128179
-0.18004483 0.22369796 0.27292696 -0.043816805 0.11010309 -0.105911866 -0.070082925 0.5231947
0.5182869 0.28382653 0.14866993 -0.54015315 0.46998745 0.18719427 -0.4980365 0.29844135
-0.5170876 -0.43966585 0.164411 0.072224654 -0.1261432 0.26060766 -0.47511494 0.4184814

gat_layers.0.bias f4 [64]
00000000: 6dbb 99bb ec97 233c 1ba7 9fbb c694 8dbb
00000010: 2ef4 6e3c 6236 9cbb a697 a3ba 2cd2 ba39
00000020: df23 223c c45e a1bb 394e 6a3c 2ffc 99bb
00000030: 9c2a 98bb 5a65 9dbb b4e1 9bbb b82b 273c
00000040: 0c98 9bbb bc7c b1bb 6e79 9abb a472 9abb
00000050: 90a3 9dbb ea3f b0bb 77b4 9fbb a855 bfbb
00000060: 5736 b1bb d47b a3bb 686e abbb c3e3 a6bb
00000070: c569 acbb 6105 9abb 29a2 9bbb c5e2 9abb
00000080: 0ffc 1c3c 2602 6c3c 7af6 01ba cb75 263c
00000090: 0bd7 a6bb 852a b6bb d326 9abb 32e1 9abb
000000a0: 82ef 9dbb 85c7 99bb c511 9abb 7820 423c
000000b0: 1f5d a6bb 6020 9bbb c0b9 9cbb 9c60 9cbb
000000c0: 76f6 b7bb ea32 9abb d481 9abb 1aa1 9dbb
000000d0: 6469 a4bb 7b78 c7bb 9acb 9bbb 45d6 99bb
000000e0: d756 9bbb ea7e 99bb ce8b 9bbb 9eee 9bbb
000000f0: 83c2 a2bb 3fe9 9cbb a5e1 a1bb 302b a6bb
-0.0046915323 0.0099849515 -0.0048722154 -0.0043207137 0.014584584 -0.004767225 -0.0012481108 0.00035633275
0.009896248 -0.004924627 0.014300876 -0.004699252 -0.0046437513 -0.004803342 -0.0047571305 0.010203294
-0.00474835 -0.005416481 -0.0047141826 -0.0047133733 -0.004810758 -0.005378713 -0.004873808 -0.0058390684
-0.005408089 -0.0049891267 -0.0052316673 -0.0050930693 -0.005261632 -0.0047003482 -0.0047495556 -0.00472674
0.00958158 0.014404809 -0.00049576873 0.01015992 -0.005091553 -0.005559268 -0.0047043352 -0.0047265524
-0.0048198113 -0.004692974 -0.0047018253 0.0118485615 -0.005077019 -0.004734084 -0.0047828853 -0.004772259
-0.005614097 -0.0047057765 -0.0047151837 -0.0048104646 -0.0050174464 -0.0060873604 -0.004754496 -0.0046947324
-0.0047405767 -0.004684319 -0.0047468906 -0.00475867 -0.0049670353 -0.0047885473 -0.004940229 -0.0050710663

gat_layers.0.lin.weight f4 [64, 64]
00000000: 425d 4e3e fccb a13b 46c6 223e eb87 04be
00000010: 18de 133e 7892 eabc 25ca d53d 0af9 dabd
00000020: e8ba 83bd a8d4 a4bd 792b 38bd 8693 243e
00000030: f53f eb3c 9478 49be 39fb 62bc 92d1 4f3d
00000040: df87 213d 5f3d 8abc 58fa 083e a2aa e5bd
00000050: 1c07 4c3c 8d18 97bd 6769 e53d 3e7f 0a3e
00000060: 13b5 be3d c98d 42bd c104 163e 9c5a 3d3e
00000070: b6c4 b3bb a479 283e c9ed 5bbd 9bbc 3d3e
00000080: 0aef 443d f3a1 163d 51ca 94bc 5804 c43d
00000090: d283 483e 05b4 02be e79f 00be a12b 523d
000000a0: a186 533d 6fef 19be a518 09be 3611 6a3d
000000b0: cc14 a13d 6fad a93d dd85 29be 6647 183e
000000c0: 83ce 7bbd 7c62 223b 9daf 03be 2512 573e
000000d0: f189 c43d 3b74 22be d0a6 bbbd 8354 0fbe
000000e0: 6178 ac3b 3075 683c db26 61bd 77cb 553e
000000f0: bcde 0d3d f287 b03d 893a 48be 7685 33be
00000100: ece2 2d3e 00cb 3e3c 5b0b 55bd da9a be3c
00000110: dd17 a93d 4c5c 20bd d310 c0bd b96e dd3d
00000120: 88fe 39be 0324 4a3e 42a2 4f3e 112a 063d
00000130: d417 0abe 4ae6 43bd 9326 cd3d c6d6 4bbe
00000140: df03 42be 249e 113e 3a94 2ebd 5db4 1dbe
00000150: 85a7 503e 7e1b 31be cd0f c23c 3c77 16be
00000160: 3e4c 6dbd 0c88 0dbe 61b3 473e 74e6 6dbd
00000170: f69d 153e a5db 3bbe 3f2c d63c 54cc 3dbe
00000180: f80d bc3c 1df2 243e 5f8d 033e 2b74 d4bc
00000190: c816 4ebe eaad 423e c5c4 423e b7a6 d9bc
000001a0: dc0a 3a3e 6a38 7ebd d363 0cbe ab7a e23d
000001b0: a373 7dbc be73 02be 0a2b 313e d9e4 fe3d
000001c0: d50b 1c3e aa5b b3bc 51ef 323e a875 2ebd
000001d0: f116 f13c a646 633d bc9e 2cbe 98b7 fcbd
000001e0: f3a7 07be 3dbd 9dbd 69bb 4fbe a8d8 fa3c
000001f0: e8d3 04be 9c8f 2d3e 759f 2cbd cb8d 393e
00000200: 124e babd 2cda 3dbb c82d 67bc e943 bc3d
00000210: 2e4b d0bd 51ab 3c3e 81d1 96bc 8f0a ffbd
00000220: d693 89bd cb50 0cbe 1b5d 223e 887e d83d
00000230: 77ed b1bd a721 183e 5b30 1c3e 9efc 593e
00000240: e1b7 90bd bbcf 923d 2dfb c4bd 3a01 3cbe
00000250: 34d3 083e 374a dd3d 4866 eebc ecb9 20bd
00000260: a918 78bd 8272 c23d fb0f 82bd 532e a73d
00000270: ec81 c43d e735 ad3d 4589 773d b446 d53d
00000280: c8c0 5cbc 614b 3f3e 694d d3bd 41fa 343e
00000290: c18f acbd a0b2 9b3c 15b4 3ebe 5767 18be
000002a0: da78 3fbe be1d 05be 0fe9 ffbd b7a9 04be
000002b0: e3e7 3c3e 18ca 52be 8922 243e aa80 4cbe
000002c0: 4ff7 063e 407e bf3c d5c4 533e a34a b53d
000002d0: 0f89 a03d f44c 5b3e 2312 e13c 5d28 06be
000002e0: 507c 013e ec49 2f3e e9df f6bd ebdf 1bbe
000002f0: 2498 38bd a0b9 c43b b8b2 4cbc ab55 51be
00000300: c598 e83c 3c9a 6bbd 9085 10be 6cf4 1d3e
00000310: 7ba6 8f3d 417b 933d 3e93 20bd 302c 30be
00000320: 3ec5 7e3d e19d 27be 4c19 183d 8f0d 04be
00000330: 34cb 8c3d f493 50be 33f8 07be c2ab 59bd
00000340: 1cad 323e 42bd 043d cef8 df3d 5fe2 3f3e
00000350: f19f 4dbe 18b5 e53d 5f1a 2abe b757 463e
00000360: 1596 083e 7d7b e8bd 4f50 363e e06d 9dbd
00000370: 0431 a73c bd87 3f3d cee1 253e b104 13be
00000380: ec44 593d 74c4 ea3d 3d85 963b 0200 4ebe
00000390: 28c3 04bd 8f27 4a3d a634 65be 9b86 4abe
000003a0: a1f4 d93d f987 0d3d 1b6b 363e 282a 2fbe
000003b0: 8424 1f3e 4242 afbd e2f1 5cbe c7af f73d
000003c0: 064d 3a3b 5348 2c3e db49 c73d 7e08 08be
000003d0: 9625 17bd 58e9 cc3d 3d6e 4e3e 5acc 763d
000003e0: 2139 c4bd 0b87 dd3d b87d 483e 0208 c53d
000003f0: f7de 0abc d6fe a3bd 8add 123e 4e1e 65bd
0.20152763 0.004937647 0.15895948 -0.12942474 0.14440191 -0.028634295 0.10438947 -0.10692032
-0.06432134 -0.080483735 -0.044963334 0.160719 0.02871702 -0.19674903 -0.013853841 0.05073697
0.039436217 -0.016874967 0.13376749 -0.11214186 0.012452867 -0.073777296 0.112017445 0.13525102
0.09311881 -0.047498498 0.14650251 0.18491596 -0.0054860963 0.16452652 -0.053693566 0.18528979
0.048079528 0.03677554 -0.018162878 0.09571141 0.19581535 -0.12763985 -0.12560998 0.05131114
0.051642064 -0.15032743 -0.13388307 0.05714532 0.07865295 0.08285033 -0.16554971 0.14870986
-0.06147624 0.002477794 -0.1285996 0.21003015 0.09596623 -0.15864651 -0.09162676 -0.13997082
0.0052633737 0.014188096 -0.054968696 0.20878397 0.034636244 0.086196795 -0.1955358 -0.1753138
0.16981095 0.011645079 -0.052012783 0.023267198 0.08256505 -0.03915052 -0.09378209 0.10812134
-0.18163502 0.197403 0.2027674 0.03275496 -0.13485652 -0.047827043 0.10017123 -0.19906148
-0.18946789 0.14220482 -0.04262183 -0.15400834 0.20376404 -0.17295644 0.023689175 -0.14693922
-0.05793404 -0.13821429 0.19502021 -0.058081105 0.14611039 -0.18345506 0.026144145 -0.18534976
0.02295588 0.16107984 0.12846898 -0.0259343 -0.20125878 0.19011655 0.19020374 -0.026568754
0.18168205 -0.06206552 -0.13709955 0.11058553 -0.0154694645 -0.12739465 0.17301574 0.12445993
0.15238889 -0.021894295 0.17474104 -0.042592674 0.029429885 0.055487297 -0.16857427 -0.12339705
-0.13247661 -0.0770211 -0.20286335 0.030620888 -0.12971461 0.16949314 -0.042144258 0.18120496
-0.09096922 -0.0028969152 -0.014110036 0.0919264 -0.101705894 0.18424727 -0.018410446 -0.12453186
-0.067176506 -0.13702695 0.1585583 0.10571009 -0.08687871 0.14856587 0.15252821 0.21287772
-0.07066322 0.07168528 -0.096182205 -0.18359843 0.13361818 0.10805171 -0.029101506 -0.03923981
-0.060570393 0.09494497 -0.06350704 0.081631325 0.09595093 0.08457547 0.060433645 0.10413876
-0.013473697 0.18681099 -0.10317499 0.1767359 -0.084258564 0.019006073 -0.18623383 -0.14883171
-0.18698445 -0.12999627 -0.12495624 -0.12955366 0.18447833 -0.20584905 0.16028799 -0.19970956
0.13180278 0.02337563 0.20680554 0.088521264 0.07838642 0.21416074 0.027474469 -0.13101335
0.12645078 0.17118043 -0.12054426 -0.15222137 -0.045066968 0.0060035735 -0.012493782 -0.20442836
0.028393159 -0.057520136 -0.1411345 0.15425271 0.070141755 0.07201243 -0.03920292 -0.17204356
0.062199824 -0.1636882 0.0371335 -0.12895797 0.068746954 -0.2036894 -0.13278274 -0.053142317
0.17448848 0.032407053 0.109361276 0.18738697 -0.20080544 0.112161815 -0.16611622 0.19369398
0.13338502 -0.113516785 0.17804073 -0.076869726 0.020409115 0.04676031 0.16199419 -0.14357258
0.053044245 0.11463252 0.00459352 -0.2011719 -0.032412678 0.049354132 -0.22383365 -0.1977791
0.106423624 0.0345535 0.17814295 -0.17105925 0.15541273 -0.085575595 -0.21576646 0.12094074
0.0028427257 0.16824464 0.09730884 -0.1328449 -0.03690108 0.10005444 0.2015924 0.06025348
-0.09581209 0.10816773 0.19579208 0.09620668 -0.0084760105 -0.080075905 0.14342323 -0.055937104

gat_layers.0.lin_edge.weight f4 [64, 64]
00000000: e243 4e3d 1b1d a03d 3e9b 27be 40d2 13be
00000010: f320 48be 711f 393e 236d 473e 1f58 54bd
00000020: 6ad1 58be 29c2 a43d e9b9 2ebd 1b92 2fbe
00000030: 3e5a 36be 8898 563e ffa9 363e 28d9 86bd
00000040: 37bd 38be 50dc 01bd 76ee 5b3e 214d cbbd
00000050: 0d70 36be d025 f13d 9510 31bd 5d89 c43c
00000060: e0ea fc3c 5cdc edbb 9bd2 fabd c3fa e5bd
00000070: 407b 953d c612 133e bbf5 81bd 2db1 5d3e
00000080: f8e8 353c 290a f53c ec4b 853d 075b bcbd
00000090: a181 573d 43ca 15be 303e 9ebd cea1 043e
000000a0: 25c1 103e 3577 38be df3d 173e 6db5 f83c
000000b0: 8ff3 3abe 569e b13d a121 e9bd f7ed 203d
000000c0: 9e0a 0f3e 2a8f 22bd bdae 083e 8e54 2bbe
000000d0: ebc7 9fbd bab0 d73d 6d17 313e 3fc0 59be
000000e0: 6477 4d3d 0c53 d93d 8b53 183d a9f1 483d
000000f0: 2b4e 133e 4ac0 17be 9160 19be 0c2d 8dbd
00000100: b1d1 123e 3af2 503e cece 08bd 678c 26bc
00000110: c0c6 b7bd 568a a4bc 0478 d3bd f3c2 343e
00000120: f48b 0f3d d915 7dbd c425 393e 294a 30bd
00000130: 8d9f a2bd 6c9d c5bd fa39 22be 318a d3bb
00000140: 2e54 73bd 5fac c1bd 407a f7bc 8ee2 05be
00000150: 855d 60bd 25fa 89bc bb3b 473e 7f08 d6bd
00000160: db50 823c 37c5 bdbd 48a0 ce3d 0c98 263e
00000170: 80c9 0e3d bc50 933d 74f9 c5bd d6a3 04be
00000180: b969 febd 97ab b4bc f97a 43be 6d25 8c3c
00000190: 66ef 553e 0dc0 453e b9b8 453e 1df3 343d
000001a0: 3faa 353e 5113 083e 3142 6b3d 141f 5dbc
000001b0: ee90 2f3d d69d 253e da95 bcbd 0ecb 9abd
000001c0: f200 813d 3ae9 263e 2c1e 343a f99f b93d
000001d0: 18d2 303e 283e f8bc 0c11 3ebe 5177 943d
000001e0: e6ab 75bd 1509 18be 6519 433d 960d 8d3d
000001f0: f8c7 8d3c 6c17 50bd 41ff 48be f924 b13d
00000200: df4b fb3d 7bcc da3c acf6 073e 8575 81bd
00000210: e55a 333e f100 723c 5976 483e a853 83bd
00000220: 2442 f63a fea0 12bd 406e 5a3e 548d 08be
00000230: 8b45 24bd 19bd e2ba 8c98 03be aa78 153e
00000240: 7b5c 07be e6c2 fe3d 8baf 543e bd01 413d
00000250: 6513 a13d f986 e23c 19a3 2abe d3f8 84bd
00000260: 58d3 483d c34c 523e 4a12 213e 7682 84bd
00000270: 3351 88bd 8bfd 31be 5522 3cbe 68e8 95bc
00000280: 0dd8 88bd fb62 4b3e 925f 883d 746d 143e
00000290: ccb2 033d baca 1e3e 0068 323e 7095 cc3d
000002a0: 774e a53c 5388 643d 8e6b 443e 05ce d7bd
000002b0: 270f 2cbe 260f e8bd 199a e73d 22d9 21be
000002c0: f5bb 0e3d b3aa 41be 2a8b 443e f807 3f3e
000002d0: bf1d 23be e272 0abe 46d2 b6bd 9a3c 79bc
000002e0: 085f bebd 0974 edbb 5a0b c93d 7c2f 1dbe
000002f0: 7bbb 4bbe 4b38 8ebd 7671 e7bd 1963 0f3d
00000300: a5bd 1c3d b635 133e 90fb 0d3d c389 973d
00000310: 4a0f 23be f6c5 253d 847f 61bd a016 113e
00000320: e36f 14be eaad bb3d 1e3d f7bd 5a3b 82bd
00000330: 0cd6 9e3b e63d 403d c493 58be 6d6a 313d
00000340: e08d e03d 6e28 8bbd b860 83bc c474 0ebe
00000350: 8316 9dbd dd9f 16be 2e14 f33c 24bd 46be
00000360: 719a 973d 13d9 4d3d 964a 513e 15ea 56be
00000370: 317e 19be 9b0d 833d 168d 45bd d459 393e
00000380: 6cee 4dbe 40f1 ebbd 250f b13c f0b8 1bbe
00000390: 4ec0 a03d 9ef3 34be fcf1 0ebd 62d1 993c
000003a0: 7ff3 993d fa7a f2bd b207 1c3e 9cd8 2c3c
000003b0: d142 233e 5cd2 25bc e145 1cbe da5d 8ebd
000003c0: a51e c9bd fa12 833b f739 37be c18c d43d
000003d0: d1c2 543e e640 b43d ff82 0b3d 452b 76bd
000003e0: f7a1 043e 5a10 953d 68f5 30be 0c62 dabc
000003f0: a61f 08bc 0faa cfbd 9981 21be 9c82 ea3d
0.050357707 0.078180514 -0.16367814 -0.14435673 -0.19543819 0.180784 0.19475226 -0.05184185
-0.21173635 0.080448456 -0.042657766 -0.17145579 -0.17807862 0.20956624 0.17838286 -0.06584388
-0.1804093 -0.031704247 0.21477684 -0.099268205 -0.17816181 0.1177479 -0.043228704 0.023991281
0.030873716 -0.007258935 -0.12247201 -0.112294696 0.07298899 0.1436263 -0.063456975 0.21649618
0.011102907 0.029912071 0.065086216 -0.091970496 0.052613858 -0.14627938 -0.07726705 0.12952349
0.14136179 -0.18014224 0.14769696 0.030359948 -0.18256973 0.08672778 -0.11383367 0.03928944
0.13968894 -0.039687313 0.13347907 -0.16731474 -0.07801803 0.10531755 0.17294092 -0.21264742
0.050162688 0.10611543 0.037189048 0.04905859 0.14385287 -0.14819446 -0.14978243 -0.06893358
0.14337803 0.20404902 -0.03340035 -0.01016531 -0.089734554 -0.020085495 -0.103256255 0.17652492
0.03504558 -0.061788414 0.18080813 -0.043039475 -0.07940588 -0.096491665 -0.15842429 -0.0064556827
-0.059406452 -0.09456705 -0.03020966 -0.13074705 -0.054776687 -0.016842911 0.19456379 -0.10450839
0.015907696 -0.09266131 0.10089165 0.16268939 0.034860134 0.07193133 -0.0966672 -0.12953123
-0.12422509 -0.022054477 -0.19089879 0.01710769 0.20892105 0.19311543 0.19308747 0.044177163
0.17740725 0.13288619 0.057436172 -0.013496179 0.042862825 0.16173491 -0.092082694 -0.07558261
0.062990084 0.16299906 0.0006870951 0.090637155 0.17267644 -0.030303076 -0.1856119 0.0724932
-0.05997839 -0.14847215 0.04763164 0.06887357 0.017307267 -0.050803587 -0.19628622 0.0864963
0.12270331 0.026708832 0.13277692 -0.06321243 0.17515142 0.014770732 0.19576396 -0.064124405
0.0018788022 -0.035798065 0.2133112 -0.13335162 -0.040105384 -0.0017298787 -0.12851161 0.14596811
-0.13218872 0.12439518 0.2077009 0.0471208 0.07865027 0.02765225 -0.1666378 -0.06492772
0.049029678 0.20537095 0.15729633 -0.06470196 -0.066561125 -0.17381875 -0.18372472 -0.018299296
-0.066818334 0.19861977 0.066588536 0.14494878 0.032152936 0.15507022 0.17422485 0.099894404
0.020179017 0.05579407 0.19181654 -0.10537342 -0.16802655 -0.11331014 0.11308689 -0.15805486
0.03484722 -0.18912773 0.19193712 0.18655384 -0.15929316 -0.13520387 -0.08926825 -0.015212202
-0.092954695 -0.0072464985 0.09816618 -0.15350145 -0.19895737 -0.06944331 -0.11300938 0.035006616
0.038266797 0.14375958 0.034663737 0.07399323 -0.15923801 0.040471993 -0.05505325 0.14168787
-0.14495806 0.09164031 -0.12072204 -0.06358977 0.0048472937 0.04693403 -0.21150118 0.043314386
0.109645605 -0.06794821 -0.01603733 -0.1391173 -0.076703094 -0.1470942 0.029672708 -0.19408089
0.07402504 0.050255846 0.20438609 -0.20987733 -0.14989544 0.063990794 -0.048230253 0.18100673
-0.20110482 -0.11520624 0.021613667 -0.15207267 0.07849179 -0.17671058 -0.034898743 0.0187766
0.07517146 -0.11839862 0.1523731 0.010549691 0.15943457 -0.010120954 -0.15261032 -0.069514945
-0.09820298 0.004000065 -0.17893206 0.10378409 0.20777442 0.08801441 0.034060474 -0.06009986
0.1295241 0.072785094 -0.17281115 -0.02665808 -0.008308327 -0.10139858 -0.15772094 0.11450693

gat_layers.1.att_src f4 [1, 4, 16]
00000000: 80e8 04bd 87a8 313e 94a3 943e 75d7 8e3e
00000010: 1484 023d 17a5 663e ee63 cb3e e0f8 5c3e
00000020: a48c c63e 77d8 c6bd 3311 9bbd 9515 c5be
00000030: 0d05 bbbd 20a7 c23d 9284 b03d d955 923e
00000040: 0404 90be 80ae 05bc 1f4e c3bd 2b82 223c
00000050: 056a d33e a380 bdbd c0a8 65be aae2 8c3e
00000060: 6247 ff3e f9a0 82bc 4973 12be 3051 0abf
00000070: f395 57be 3ce9 bdbc 1137 eabc 56c9 5dbe
00000080: 4f10 08be 0a24 57be bf6f b6bd 9962 e8be
00000090: ad87 8c3c a9de 103e 9955 7a3e 188e 09bf
000000a0: 4142 b33e 73d7 8bbe 91da 0ebe 2d99 b3bd
000000b0: 2d88 ec3d c5f2 01bf eab9 81bc c60f 0abc
000000c0: f8e3 b7be 6dc5 f5be cffa 2e3e f1ca 72bd
000000d0: 1e71 eebe 0bf4 d7be a3ab c43e 60a1 913e
000000e0: 3514 c43e 52af 57be 9f11 4bbe b2cf c43e
000000f0: 1da0 b2be ff9d 54be c477 053f 212c f6be
-0.03244829 0.17349444 0.2903105 0.27898756 0.03186424 0.22523914 0.39724678 0.21579313
0.38779175 -0.09709256 -0.0757164 -0.38493028 -0.09131823 0.09504533 0.08619036 0.28581122
-0.28128064 -0.00815928 -0.09536385 0.00991873 0.41291824 -0.09253051 -0.22427654 0.2751668
0.49859148 -0.015945898 -0.1430179 -0.5403013 -0.21053295 -0.023182504 -0.02859071 -0.21658835
-0.13287471 -0.21009842 -0.089080326 -0.45387724 0.017154539 0.14147438 0.24446715 -0.5373244
0.35011485 -0.27312812 -0.13950564 -0.0876945 0.11549411 -0.5076106 -0.015835721 -0.008426612
-0.35916114 -0.48002186 0.17087863 -0.05927557 -0.46570677 -0.42178378 0.38412198 0.28443432
0.38296667 -0.21062973 -0.1983094 0.3843971 -0.34887782 -0.20763396 0.5213587 -0.48080543

gat_layers.1.att_dst f4 [1, 4, 16]
00000000: 8e2a 00bf 5647 cdbe d56b 18bd 20f6 2c3c
00000010: b078 ba3e 947a 3a3d f689 58be f55d 04bf
00000020: 0fb8 c1bd b083 b7be 5974 923c faad cdbe
00000030: 1217 723e 708f c4be 968e 7b3e e048 b53e
00000040: 76da f83e f35c d0be 00bd d33e e69f 6dbe
00000050: ced7 d33e 2034 c5be d372 59bd 2c44 b63e
00000060: b40b d5bd f218 c13e 5c37 1dbe 415b d3be
00000070: f45b 82be 6e8e dc3d c820 b1bd 6bfd 06bf
00000080: 3fbb 8e3e 6412 a73e 92fc d73e c613 463e
00000090: 4298 98bd 0dd3 05bf 2826 7a3c f81d 083f
000000a0: cc32 153e d41d 5bbe 64c9 dd3e 4d1f 95be
000000b0: 9275 36be 9192 b5be cdd4 823d 8b91 04bf
000000c0: 0ea5 93be a798 963d 9309 773e f84c 033f
000000d0: b052 fa3d 4b0d ae3e 0068 fbbd 2ac9 00bf
000000e0: 932c 73be 89bd 09bf d802 2dbe 832b a4be
000000f0: d3ce d6be 0519 433e f6f8 93bd 993c 72be
-0.50064933 -0.40093488 -0.03721221 0.010556728 0.36420202 0.045527056 -0.21146378 -0.5170587
-0.094589345 -0.35842657 0.017877745 -0.40171796 0.23641613 -0.38390684 0.24566111 0.35407162
0.48604172 -0.40695915 0.41355133 -0.23205528 0.41375583 -0.3851633 -0.05308802 0.35598886
-0.10402623 0.37714344 -0.15353149 -0.4128056 -0.2546078 0.10769354 -0.08648831 -0.52730435
0.27877232 0.32631218 0.42184883 0.1934348 -0.07450916 -0.5227516 0.015267886 0.5317073
0.14570159 -0.21398097 0.4331771 -0.29125443 -0.17818287 -0.35463384 0.06388245 -0.5178458
-0.28836864 0.07353335 0.24124746 0.5128932 0.12222803 0.33994517 -0.12275696 -0.5030695
-0.23747472 -0.5380483 -0.16895616 -0.32064447 -0.4195467 0.19052513 -0.0722522 -0.23655929

gat_layers.1.att_edge f4 [1, 4, 16]
00000000: 4c23 8cbe 4552 d03e 73be b73e 7762 e4be
00000010: caae b4bc e8c1 6dbe 0154 bb3e 6ad5 c7be
00000020: 997b edbe 98c2 873e d6fb aabd fc1c 073f
00000030: 0f2d 9abe 65b7 933e 7dac 1dbe d0a2 863e
00000040: e314 083f c222 893e 404d f3be d3bc c53d
00000050: 6f54 1dbe 1aef 92bc aaef f23e 0820 19be
00000060: 9d21 0dba 0c09 b1bc b362 05bf a145 0dbf
00000070: 29db 0b3e a0d2 34be e520 40be 03a5 9c3e
00000080: 149e e63e 6c42 d5be f68e 013f 1050 873e
00000090: ade1 943c 0d55 02be 9684 7a3e 36b7 a93d
000000a0: 9043 703e 52f5 963d 4869 8abe 9c72 c43e
000000b0: 0b48 b7be c84f 9b3e dd53 4dbe 7e60 553e
000000c0: 9f2d 623e b456 a33e 8f9d aebd c136 d4bd
000000d0: 4e2e f6be c315 f33e a06f 8f3d 90fc 8f3d
000000e0: 4318 b83d d16e a63e 684e 493d 08fa 9e3d
000000f0: e3ec ffbe ba43 3cbd 130b 0cbd ced1 b33e
-0.2737068 0.40687767 0.3588749 -0.44606373 -0.022056002 -0.232185 0.36587527 -0.3903001
-0.4638336 0.2651565 -0.08348815 0.527786 -0.30112502 0.28850856 -0.1539783 0.2629609
0.5315687 0.2678433 -0.47519875 0.09655156 -0.1536424 -0.017936278 0.47448474 -0.14953625
-0.0005383732 -0.02161076 -0.5210373 -0.5518437 0.13657822 -0.17658472 -0.18762548 0.30594644
0.4504248 -0.41652238 0.50608766 0.2642827 0.018174017 -0.12727757 0.2446464 0.08286898
0.23463273 0.0737101 -0.27033448 0.3836869 -0.35797152 0.30334306 -0.20051523 0.2083759
0.22087716 0.31902087 -0.08526146 -0.10362006 -0.48082203 0.4747754 0.07003713 0.07030594
0.089890026 0.3250642 0.04914704 0.077625334 -0.49985418 -0.045963027 -0.03419025 0.35121006

gat_layers.1.bias f4 [64]
00000000: d548 17bb 8f91 0b3c e023 debb bd49 423c
00000010: 012b debb 152b ddbb ceb6 ddbb 0415 83bb
00000020: bcf0 f43b 090b b2bb c39a dfbb d69f dcbb
00000030: bf60 bfbb 0ced cfbb dbcc dcbb 4bc0 d53b
00000040: f13d bfbb dcd6 e1bb 0796 b9bb 6cba dcbb
00000050: cd1f e0bb 709f d8bb c0f0 debb 9139 e4bb
00000060: 33d4 d9bb 32bc e1bb 8e6e dabb 4d9e e0bb
00000070: 1377 c9bb 1e8b debb 73bd b4bb 7ebf 893b
00000080: 2215 debb cbd4 713c 2cf0 46bb 0018 e43b
00000090: ea4a debb 13fc c3bb b961 dfbb c60d 333c
000000a0: 608d ddbb 53b7 ddbb 7ff2 5f3c f9b9 1f3c
000000b0: ca66 dbbb f765 dcbb 1b31 e0bb 3693 2d3c
000000c0: 58a9 e4bb 7fec d83b 5a77 e0bb 00af dcbb
000000d0: aceb d6bb 545d e0bb ced0 d1bb c806 0d3c
000000e0: d706 e0bb f3df d3bb 88d0 b8bb 63b8 dfbb
000000f0: b292 dfbb 217d dabb 535c d1bb 53b9 dfbb
-0.0023084183 0.008518591 -0.006779179 0.011858401 -0.006780029 -0.0067495205 -0.006766177 -0.004000308
0.007474987 -0.0054334444 -0.006823869 -0.006732921 -0.0058403905 -0.006345397 -0.006738288 0.0065231672
-0.0058362414 -0.0068920683 -0.0056636366 -0.0067360904 -0.0068397284 -0.0066108033 -0.006803602 -0.0069648703
-0.0066476106 -0.0068888897 -0.006666011 -0.0068548084 -0.006148228 -0.0067914864 -0.005515748 0.004203736
-0.0067774216 0.014760206 -0.0030355556 0.006960869 -0.006783833 -0.0059809773 -0.0068170694 0.010928577
-0.006761238 -0.0067662387 0.013668655 0.009748929 -0.006695603 -0.0067260223 -0.0068417913 0.01059418
-0.006978195 0.0066199894 -0.0068501653 -0.006734729 -0.006558856 -0.006847063 -0.0064030653 0.008607574
-0.006836753 -0.006465906 -0.0056400932 -0.0068274005 -0.0068229074 -0.0066677486 -0.0063891797 -0.0068275123

gat_layers.1.lin.weight f4 [64, 64]
00000000: f04f 3a3e 8f2f 3ebe 57b1 14bc 65fb d4bd
00000010: 6cc5 24be 23d8 37bd 5bcd 12be 3c7c 373e
00000020: 3596 843d f940 ce3d d976 16be 917c 0a3e
00000030: 94ad 243d 1077 ec3d a218 993c e68c a63d
00000040: 1f0f 053d 8a68 a9bd f135 a8bd 2b37 c33d
00000050: 8ecd 993c 4820 413e 2bfd 523e a1b4 5a3d
00000060: a10a 963d 01b7 363d ecf8 02be 2c6c 563e
00000070: d323 69bd dd9b af3d 053e f4bd ff92 05be
00000080: 1bc3 59be 073d 59be ad5e dcbd c783 5b3c
00000090: 5f59 2bbd 4ba0 0dbe ef31 15be 1826 e0bd
000000a0: 0a4f 2d3e 061d afbd 588b 46be 425a 133c
000000b0: ae51 013d 74cf 093e 346c 553e bdf6 49bd
000000c0: 9144 1bbe 905a 0cbe 3b23 c63c e21c 573e
000000d0: ca87 23bb 28d8 25be a9cc 99bd d50f 4bbd
000000e0: 6850 2abd 3385 52be dbca 0e3e 8aec fabd
000000f0: 03be 8bbd 192b 94bd 4917 dfbc a6a5 163e
00000100: e0c9 4c3d e018 babd 75dc 27be 96c3 fa3d
00000110: 1bdb 583e d7e1 eebd 4e78 0ebe e570 36bd
00000120: 4c26 2b3e 7dde 723d deb7 4f3e a313 d43d
00000130: c508 3ebe 28d9 463e 8b35 58be 081b 0e3e
00000140: 93f4 ebbd 4b38 72bd f4b0 613e 2d88 08be
00000150: e976 3a3e 0880 1e3e b73c 123e fd1a e23c
00000160: b15d ac3d 7909 cd3d 2dc4 413e a1aa cebd
00000170: 69b8 0bbe d107 62bd 0e44 1cbe 92a4 253e
00000180: edb9 2b3d dda2 0fbe 66d7 6d3d 652e 263d
00000190: 23d2 3ebc 3cb3 c8bd 38d8 2a3e 74db 0cbe
000001a0: 4e81 18be 4edc 4abe 9108 e53c 4ebe 80bd
000001b0: 088f 0abe 94d2 223e e277 38be 53b3 08be
000001c0: 4f18 06be c819 49be 147d b5bd 811d eebd
000001d0: c60a df3c 74b6 d73d 4dbc bdbd 60b1 a63c
000001e0: 1131 e7bb 4cd8 8ebd bf2d c93c 1ed3 4cbe
000001f0: cbec eb3d 7b91 f63d e344 453e 9e88 8b3d
00000200: 8586 2c3e 7f3c 4b3e 0276 633e 23e8 eb3c
00000210: 932a 58bd 7567 343e 2eda 653d 3d43 31be
00000220: 83ae dabb 26cc 6abd 69e8 54be 40b1 333e
00000230: 406b 543b 7a93 86bd 5659 143e 94ac 0bbe
00000240: c2d0 4c3e d4dc 1f3e 9b0a c93d 54df 2c3e
00000250: 95c9 81bc 354e d5bd 03aa 47be 40cd 2e3c
00000260: eb60 2d3e 8ed2 5f3c 786f 483e 45aa c93a
00000270: b6fa 1c3e 834f 49bd 9875 8fbd a1a9 7fbd
00000280: f03c f6bb 10f3 10be 76f9 4cbe b0d0 2c3e
00000290: b890 0a3e 97b9 d13d 0b8e 2fbe aa86 423e
000002a0: 4b39 eebb 2eec 1e3e d7d3 cbbc 80ed 6e3d
000002b0: 251a 1ebe 72d8 60bc d7b9 bdbd ce7d 99bd
000002c0: ddcb 51be eac6 e0bd 6c44 9f3d aa42 3c3e
000002d0: 0a90 4dbd 7b03 26be 8c82 033d 80a7 c53d
000002e0: 055d b73d fc38 583e 01ae 02be ac28 94bd
000002f0: e5cf 91bd 1a6d 8b3a e60a d5bd 2ca6 893d
00000300: efa8 42bd 2645 1fbd 1e65 233e 2b9d 45be
00000310: 587c 513e 1afe 3b3e 5755 8e3d 15e9 8d3d
00000320: 71fc cc3d b9ce 603e fc15 2ebe 8d15 563b
00000330: ccb1 c03d f44a 52bd 5c34 183d 561c d4bd
00000340: f934 fe3d 9abe 1cbd 7bdc f8bd c12b 72b9
00000350: c363 d83d 3a96 ea3d e931 573e 5d3c 2e3d
00000360: 2b16 02be c396 e13d 8216 55be ce7c 3f3d
00000370: 59ef aabc 995e 9e3d 9654 f3bd f935 c73d
00000380: 03f7 3e3e 4c48 2bbe 2cbe 9a3d 9575 2b3e
00000390: 7ab4 02be 4e63 2dbd c872 023e 9f1c 0a3d
000003a0: f317 a3bd 3564 7a3d 6c6e 3d3e 9cb5 84bd
000003b0: 31b2 8c3d 4366 933d f17f 55bd 8870 0d3e
000003c0: 90e4 b2bd 36cb a9bc 1b3c de3d 2c48 4bba
000003d0: 3c04 a2bb f205 2a3d c557 c03d 3b65 56be
000003e0: e785 013e 5c8e 07be 1559 18be 080f a9bd
000003f0: 46ed 0dbe 6ca9 3b3d 57a1 a23c c91c 803d
0.18194556 -0.1857283 -0.009075484 -0.10399512 -0.16090935 -0.04488386 -0.1433615 0.17918485
0.06473962 0.10070986 -0.14693774 0.13524081 0.0402046 0.11546147 0.018688504 0.08132343
0.032485124 -0.08271892 -0.082134135 0.09532007 0.018774774 0.1885997 0.20604388 0.053394917
0.07326246 0.04460812 -0.12790269 0.20939702 -0.05691893 0.085746504 -0.11925892 -0.13044356
-0.21265833 -0.21214686 -0.107602455 0.013398117 -0.041833278 -0.13830678 -0.1456983 -0.10944766
0.16924682 -0.08550458 -0.19389093 0.008993687 0.031572036 0.13458043 0.20842057 -0.049307574
-0.15162875 -0.13706422 0.024186721 0.21007112 -0.0024952763 -0.16195738 -0.07509739 -0.049575645
-0.041580588 -0.20558624 0.1394457 -0.122521475 -0.06823351 -0.07234783 -0.027232783 0.14711627
0.04999721 -0.09086776 -0.16392691 0.12244336 0.21177332 -0.11664169 -0.1391308 -0.04454126
0.16713828 0.059294213 0.20284984 0.10355308 -0.18558033 0.19418776 -0.21114175 0.13877499
-0.11521258 -0.059135716 0.22040159 -0.13333197 0.18209423 0.15478528 0.14280973 0.02760076
0.08416308 0.100115724 0.18922491 -0.10091139 -0.13644566 -0.055183236 -0.15260336 0.1617606
0.04192536 -0.14026971 0.058066748 0.04057159 -0.01164678 -0.09799811 0.16684043 -0.1375559
-0.14893076 -0.19810602 0.027958186 -0.06286298 -0.13531125 0.15900642 -0.18014482 -0.13349657
-0.1309521 -0.19638741 -0.088617474 -0.11626721 0.027226817 0.10532847 -0.09264431 0.02034825
-0.0070554097 -0.06974849 0.024557946 -0.2000241 0.11519774 0.12039467 0.1926456 0.06813167
0.1684819 0.19847296 0.22212985 0.028797215 -0.052774977 0.1761759 0.056116275 -0.17310806
-0.0066736354 -0.057323597 -0.20791782 0.17548084 0.0032412559 -0.06571098 0.14487204 -0.13640052
0.2000151 0.15611583 0.09816476 0.16882068 -0.015843192 -0.104153074 -0.19498448 0.010669053
0.16931503 0.01366104 0.19573772 0.0015385827 0.15330014 -0.049148094 -0.07004851 -0.06241763
-0.0075145885 -0.14155221 -0.20017037 0.16876483 0.13531768 0.102404766 -0.17144029 0.18996683
-0.0072700134 0.15519783 -0.024881287 0.058331966 -0.15439661 -0.01372348 -0.09263962 -0.074946985
-0.20487924 -0.1097544 0.07776722 0.18384805 -0.050186194 -0.16212265 0.03210692 0.09651089
0.08953289 0.21115488 -0.1276169 -0.0723432 -0.07119731 0.0010637373 -0.10402469 0.06721148
-0.04752439 -0.038884304 0.15956542 -0.19298236 0.2045759 0.18358651 0.06949871 0.069292225
0.10009087 0.21953858 -0.17000574 0.0032666654 0.09408912 -0.051341012 0.03715931 -0.10356967
0.124124475 -0.03826771 -0.12151428 -0.00023095218 0.10565903 0.11454435 0.21015133 0.042538036
-0.12703769 0.11015084 -0.20809367 0.046749882 -0.020866083 0.07732887 -0.11881368 0.09727091
0.18648915 -0.16726798 0.07555804 0.16744073 -0.12764159 -0.042331032 0.12739098 0.0337187
-0.07963552 0.06113072 0.18499154 -0.06479952 0.06869925 0.07197239 -0.052123968 0.13812459
-0.08735001 -0.020726781 0.10851308 -0.000775459 -0.0049443524 0.041509576 0.09391741 -0.20937054
0.12648736 -0.132379 -0.14877732 -0.0825482 -0.13860044 0.04581587 0.019852323 0.0625549

gat_layers.1.lin_edge.weight f4 [64, 64]
00000000: 917f 0e3e 95f0 043d 3ffd 11be 273a 393e
00000010: d34b 4fbe 1e07 38be 6114 f53d e132 70bd
00000020: e316 103e b360 3c3d fd79 903c 047b 5e3c
00000030: f603 173e b390 433d f224 5abe 0e96 193e
00000040: f6ee 1d3e 42a2 2abc 3dbb a63d f4e7 e3bd
00000050: 5b57 0b3e 4fbf 3fbe 5db1 bfbd cd4a e3bd
00000060: 8ced 273e 4e02 23be d927 0b3e dfe8 01be
00000070: f1b5 073e 81da 07bd abea f83d f290 a33d
00000080: a6df 1d3d e884 703d c118 dabd 2187 8f3d
00000090: 783d 0c3e b0c7 eabd 2654 d6bd 1ca7 73bc
000000a0: 5419 4e3d 48ab 27bd 6e15 293e eb32 9cbd
000000b0: e8ff 2cbe db8a dd3d c0ef 09be 67cd c0bd
000000c0: e264 adbd 74d5 b73d c3d4 36be d1e7 fb3d
000000d0: 4a27 2f3e 0467 2e3e 41ab 41bd 6cbd 043e
000000e0: 2ba9 8dbd 991d 133d 8180 013e 8991 09be
000000f0: 76a3 5b3e 044f fe3d d3b4 6c3d 4f4e b93d
00000100: 00ba d13d 8694 fabd 9add 4ebe 0f94 1d3e
00000110: 2ef8 b9bd a88b 54be 6059 513e bdcb c5bc
00000120: 67a0 073c d81b bf3d 6bc0 fa3d 8903 f8bd
00000130: 8f73 0c3e 10e9 b23c 4c59 5bbe 28b0 a9bc
00000140: 5ef1 0f3e ad96 493e 6e1a 3e3d 6fa0 17be
00000150: 23dc 143e f881 203e a946 33bd e562 423e
00000160: 5a61 fc3c 12fd 2d3e 2e22 053d ef63 fdbd
00000170: c050 21be 3e19 c9bd de05 c4bd bceb d6bd
00000180: 636a 8f3d 2e3b 043e 2463 cebd 0e4c 1d3e
00000190: 7b51 043e da51 1abe 4259 8abd e62f 6a3d
000001a0: 0499 6cbd 0410 2b3e 9b4e 303e d8fa 1dbe
000001b0: 593b d2bd c103 b1bd f4b8 e1bd 2ffd b9bd
000001c0: d731 b2bd 096e d93d 68f3 713d 1f92 32be
000001d0: d2a9 c4bc 9437 a0bd f81e 903c 40fd 143e
000001e0: 4ada ce3d e11b 2a3e accf cb3d 673c e83d
000001f0: e0bb 8c3c 5b6d c93d ad3a 73bd 79e6 d43d
00000200: 6c11 573d cde3 b63d 5c2c 533e c572 c8bd
00000210: 9964 333e fd6c 2fbe 937c 003e 42af bbbc
00000220: c735 a03c 45e1 473e 50bc 6ebb a994 0b3d
00000230: e879 23be 925c 193e 3df3 5b3e 0cc3 233e
00000240: af11 46be 585b ff3d bef0 dabd d378 afbd
00000250: 173b 423b 36fc 923d 0b95 e2bd 9b92 6b3d
00000260: 8437 d53b 377e a0bd 80dd 27be f4ee 0bbc
00000270: 1abb c23d 60bc bd3d 59d8 373e 827d d7bd
00000280: 3ba4 773d 0f32 0bbe 9e70 0bbe cdf8 d03b
00000290: cafe ef3d 8f6c 45be 0201 fd3d a22b f5bd
000002a0: e6c3 b43d b8f7 003e 06f6 3a3e 4990 193e
000002b0: fdb7 e73c 5cd0 daba 5fe7 273e d1b9 edbd
000002c0: 92b6 e4bd 04b7 423e 1df5 113e f9b4 0bbe
000002d0: 90d3 4dbe 78cf e53d ba39 18be 9a6f 53bd
000002e0: 4a71 4abe d672 dc3d b93f 4b3e 1f2d 25bc
000002f0: b03f be3d ff39 3bbb b0a6 1fbd ce1b 473e
00000300: 71f9 e5bd a7ad dc3c 7107 b6bd fd5a 183e
00000310: 9014 3f3e 7e9e f1bd 0800 493e 222a 4bbe
00000320: ee08 333e 7a53 43bd 53e8 dbbd 259c 6dbd
00000330: bee3 193e 63f4 023e c799 e6bd e997 05be
00000340: 5fc0 523b 7adf 41bd 0ef5 ff3d 3679 27bd
00000350: 70ab bd3d 3ce4 3fbe 0711 87bc 3841 e23d
00000360: 7c56 79bd 787e 4fbe 890b 45be eaa9 f9bc
00000370: f061 363e f7e8 d2bd 27a2 89bd c379 433e
00000380: c1d9 5b3e 99b5 55be 6045 96bd e500 3f3d
00000390: bc0c e73d dee9 243e 507b 57be 70c2 49bc
000003a0: 8d2e 2f3e 49a6 c4bd 2cde 553e 91a7 553e
000003b0: a6a2 02be 0a75 543d f2fe f63d 1b81 d93d
000003c0: 8b43 303e 6b5d c33d c775 4a3e 754f 02be
000003d0: 2a14 083e ee74 d7bd b8a7 08be db17 d23d
000003e0: 7baf c3b9 ecc9 043d 3929 86bd abc3 28be
000003f0: ec69 253e 6997 36be f33c 77bd 4e9d 0b3e
0.1391585 0.032456 -0.14256762 0.1808859 -0.20243768 -0.17971465 0.119667776 -0.058642272
0.1407123 0.045990657 0.017636294 0.013579134 0.14747605 0.047745418 -0.21303156 0.14998648
0.15423188 -0.010414662 0.081411816 -0.11128226 0.13607542 -0.18725322 -0.09360001 -0.110982515
0.1639921 -0.15918848 0.1358942 -0.1268649 0.13252999 -0.033167366 0.12154134 0.079866305
0.038543366 0.0587205 -0.10649253 0.07008196 0.13695323 -0.114638686 -0.10465269 -0.014871385
0.050317124 -0.04093483 0.16512081 -0.07626899 -0.16894495 0.108175 -0.13470364 -0.094141774
-0.084665075 0.0897626 -0.178546 0.12300075 0.17104831 0.17031485 -0.04728246 0.12962884
-0.06917032 0.0359169 0.12646677 -0.13434424 0.21449074 0.12417415 0.057789635 0.09048139
0.10240555 -0.1223536 -0.20201722 0.15388511 -0.0908054 -0.207564 0.2044425 -0.024145002
0.008277989 0.09331483 0.12243732 -0.12110049 0.13715957 0.021839648 -0.21420783 -0.02071388
0.14056918 0.19686384 0.046411924 -0.14807294 0.145371 0.15674579 -0.04376856 0.18983038
0.03080814 0.1699107 0.0325033 -0.123725764 -0.1575346 -0.09819268 -0.095714316 -0.104941815
0.070027135 0.129132 -0.10077503 0.15361044 0.12921707 -0.15070286 -0.06755306 0.057174586
-0.057763115 0.16705328 0.17217486 -0.1542772 -0.10265226 -0.08643294 -0.11021605 -0.09081494
-0.087009124 0.10616691 0.05907002 -0.17438553 -0.024006758 -0.07823101 0.017592892 0.14549732
0.10100229 0.16612197 0.0995172 0.11339646 0.01717943 0.09835311 -0.05938213 0.10395522
0.05250685 0.08930168 0.2062239 -0.097875156 0.17518844 -0.1713142 0.12547521 -0.022910718
0.019556893 0.19519527 -0.003642816 0.03407732 -0.15964472 0.14976719 0.21479507 0.15992373
-0.19342683 0.12468594 -0.10690449 -0.08567967 0.002963727 0.07177012 -0.11063584 0.05751286
0.006506862 -0.078365736 -0.1639309 -0.008540858 0.09508343 0.09264445 0.17953624 -0.105219856
0.060459357 -0.13593315 -0.13617179 0.0063773156 0.11718519 -0.19279693 0.12353708 -0.11971213
0.08826427 0.12594497 0.18257913 0.14996447 0.028285975 -0.0016694176 0.16396855 -0.11607707
-0.11167635 0.19015127 0.1425366 -0.13643254 -0.20100236 0.11221212 -0.14865771 -0.051620103
-0.19769779 0.10764091 0.19848527 -0.0100815585 0.09289491 -0.0028568504 -0.038977325 0.194442
-0.11229218 0.026938273 -0.08888138 0.1487846 0.18660188 -0.11797808 0.19628918 -0.19840291
0.17483875 -0.04768703 -0.10737672 -0.05801024 0.15028283 0.12788539 -0.112597995 -0.1304623
0.003215812 -0.047332264 0.12497912 -0.04088708 0.09261215 -0.18739408 -0.016487611 0.11047596
-0.060873494 -0.20263088 -0.19242682 -0.03047653 0.17810798 -0.10298341 -0.06720381 0.19089417
0.21469785 -0.20870055 -0.07337451 0.046631712 0.11281726 0.16104838 -0.21043134 -0.012314424
0.17107601 -0.09602029 0.20885533 0.20864703 -0.12757358 0.05186943 0.12060346 0.10620328
0.17213266 0.095393024 0.19771491 -0.12725623 0.13288942 -0.105203494 -0.1334523 0.10258456
-0.00037324041 0.03241913 -0.06550831 -0.16480891 0.16153687 -0.17831196 -0.06036086 0.13634226
