models/best_fraud_model_seed_3141.pth (torch, 378242 bytes, 45 tensors)

node_emb.weight f4 [64, 8]
0	0x3e87e361	0.26540664
1	0xbe961ccc	-0.29318845
2	0x3d166975	0.036721665
3	0x3e58d37c	0.21174425
4	0xbea23f37	-0.31688854
5	0x3ca40a10	0.02002433
6	0x3eb621cb	0.35572657
7	0x3eb70525	0.35746112
8	0xbdfe5640	-0.12418795
9	0x3ea9d84c	0.33172834
10	0x3d479862	0.048729308
11	0x3c95773b	0.01824533
12	0x3da260bd	0.079286076
13	0xbe9662d4	-0.29372275
14	0xbc43b6c9	-0.011945435
15	0xbdc34556	-0.09534709
16	0xbd870daa	-0.06594403
17	0xbc54ec19	-0.012995743
18	0x3d566132	0.052338786
19	0x3da2ed46	0.079554126
20	0xbd870e9c	-0.065945834
21	0x3d8a190e	0.0674306
22	0xbde541ab	-0.11194166
23	0xbcd34c7a	-0.025793303
24	0xbce3baf0	-0.0277991
25	0x3e92e734	0.2869202
26	0x3e4b459f	0.19850777
27	0xbd4b8fe5	-0.049697775
28	0xbe730cb7	-0.23735319
29	0xbd137b08	-0.036006004
30	0xbe98fb3d	-0.2987918
31	0xbe9823dd	-0.29714862
32	0x3dfe796f	0.12425505
33	0xbe3d05fc	-0.18459314
34	0x3eae99d2	0.3410173
35	0xbe9b3adb	-0.3031834
36	0xbcdd7211	-0.02703193
37	0xbe6cce3d	-0.23125549
38	0xbeae266a	-0.34013683
39	0x3e896344	0.26833546
40	0xbe701a5e	-0.23447558
41	0x3e90197b	0.2814444
42	0xbe1867da	-0.14883366
43	0xbd8fef31	-0.07028044
44	0xbd24a779	-0.040198777
45	0x3e0e0aa1	0.13871242
46	0xbe878d14	-0.26474822
47	0x3e8e9995	0.2785155
48	0xbdf96cbe	-0.12178944
49	0x3ea65792	0.32488686
50	0xbe652f38	-0.22381294
51	0x3e7f70fc	0.24945444
52	0x3d34fe48	0.044187814
53	0xbcade4da	-0.021227289
54	0x3e4f696f	0.20255063
55	0x3e9f0922	0.31061655
56	0x3cfe5501	0.031046392
57	0x3d63c7dc	0.055610523
58	0x3de5ab26	0.112142846
59	0xbe101442	-0.14070228
60	0xbd8b0430	-0.06787908
61	0x3eadb969	0.3393052
62	0xbe372829	-0.17886414
63	0xbe7276dd	-0.23678155
64	0xbe9690d8	-0.29407382
65	0xbdef5aee	-0.11687265
66	0x3e7d7cab	0.24754588
67	0xbd55190e	-0.052025847
68	0x3e151810	0.1455996
69	0x3e5aefcf	0.21380542
70	0xbe3e1697	-0.18563305
71	0x3e954175	0.29151502
72	0xbcde64a1	-0.027147593
73	0xbc5af765	-0.0133646475
74	0xbe062577	-0.13100229
75	0xbe8aa664	-0.2708007
76	0x3cc13dfe	0.02358913
77	0xbe6145e7	-0.21999322
78	0xbda06997	-0.0783264
79	0x3e6c2432	0.23060682
80	0x3ce52473	0.027971482
81	0xbd235bb5	-0.03988238
82	0x3d2a5d5e	0.04159295
83	0x3e96c3c5	0.29446235
84	0xbbe562d4	-0.0070003066
85	0xbd382df5	-0.044965703
86	0x3dd3389a	0.1031353
87	0x3d85d20f	0.06534206
88	0x3e3f5857	0.18686043
89	0x3e6d2196	0.23157343
90	0xbd6100d5	-0.054932434
91	0x3bc4a4d4	0.0060010944
92	0xbe3eaa7f	-0.18619727
93	0xbeaaf743	-0.3339177
94	0x3dbb3d90	0.091426015
95	0x3e711564	0.23543316
96	0xbcd0140e	-0.025400188
97	0x3eafa01e	0.34301847
98	0xbd89b3d9	-0.06723756
99	0xbe97131d	-0.2950677
100	0xbe6c09f9	-0.2305068
101	0x3e7d0c59	0.24711742
102	0xbe4a950c	-0.1978342
103	0x3e6914cf	0.22761844
104	0xbe0913ec	-0.13386506
105	0xbe995dd5	-0.299544
106	0xbe844be3	-0.25839147
107	0xbeb16d05	-0.34653488
108	0xbe8b8891	-0.2725263
109	0xbeaa384d	-0.3324608
110	0xbe3a1697	-0.1817268
111	0x3e725b52	0.23667648
112	0xbe02fc09	-0.12791456
113	0xbd2116cd	-0.039328385
114	0x3eaac0c8	0.33350205
115	0x3e00a3e9	0.12562527
116	0x3e661885	0.22470291
117	0xbe14a47d	-0.14515872
118	0x3d433651	0.047659222
119	0x3e94ff11	0.2910085
120	0x3e836988	0.2566645
121	0x3e8f8a54	0.28035223
122	0x3e08632a	0.13319078
123	0x3e41297a	0.18863478
124	0x3e065175	0.13117011
125	0xbeb14a90	-0.346272
126	0x3e7ce30f	0.24695991
127	0x3e87002a	0.26367313
128	0xbe199a5a	-0.15000287
129	0xbe5ba4a4	-0.21449524
130	0xbe9dfc4d	-0.30856553
131	0xbe483c4b	-0.1955425
132	0xbeb18db2	-0.34678417
133	0x3dec924f	0.11551344
134	0xbe20c42b	-0.15699832
135	0x3e845807	0.2584841
136	0x3d2149cc	0.03937702
137	0xbdece76e	-0.11567579
138	0x3ea13fe7	0.31494066
139	0xbe4534fc	-0.19258493
140	0x3e3175dc	0.17330116
141	0x3e6c73bb	0.23091023
142	0xbe0fed15	-0.14055283
143	0x3e9c54f2	0.30533558
144	0x3e2a8001	0.16650392
145	0x3d4ce67a	0.050024487
146	0x3e2ff965	0.1718498
147	0xbeb2a73e	-0.3489322
148	0xbe7cf9f0	-0.24704719
149	0xbe82fc75	-0.25583234
150	0xbdfd9e49	-0.12383706
151	0xbdc9f9cc	-0.09862098
152	0x3e9cef9e	0.30651563
153	0x3e57a387	0.21058474
154	0x3e95b3bb	0.29238686
155	0xbe24981b	-0.16073649
156	0xbe0f88c3	-0.14017014
157	0x3e42b567	0.19014512
158	0xbe7b8717	-0.24563251
159	0xbd2b478c	-0.04181628
160	0x3e80160b	0.25016817
161	0x3e098b7b	0.13432114
162	0xbea11134	-0.31458437
163	0x3dad4c19	0.0846178
164	0xbe2bb6d9	-0.1676897
165	0x3e37389e	0.17892691
166	0x3e3ccccb	0.18437497
167	0xbe977087	-0.2957804
168	0x3e878252	0.26466614
169	0xbea52000	-0.32250977
170	0xbe587a6c	-0.2114045
171	0xbe4f8b3f	-0.20267962
172	0xbe7b4a74	-0.2454012
173	0x3eb28a2f	0.3487105
174	0xbd83d58a	-0.06437214
175	0x3e93522b	0.28773627
176	0x3d92c801	0.07167054
177	0x3e4fa3c3	0.20277314
178	0x3e81cc8f	0.25351378
179	0xbc83a431	-0.016069504
180	0x3e217a2c	0.15769261
181	0xbe805911	-0.25067952
182	0xbe8e7e13	-0.27830562
183	0xbea81d8b	-0.3283504
184	0x3e9cdd5d	0.30637637
185	0x3e7b0743	0.24514489
186	0x3b40c073	0.0029411584
187	0xbea861e0	-0.32887173
188	0xbe733544	-0.23750788
189	0x3dba4853	0.09095826
190	0xbd9590c4	-0.073030025
191	0xbdaa2050	-0.08306944
192	0xbe59d026	-0.21270809
193	0x3e859cd3	0.2609621
194	0xbce0b427	-0.027429653
195	0x3e900f13	0.281365
196	0x3e7a5cb0	0.2444942
197	0x3ea4c8fb	0.32184586
198	0x3dd440cf	0.10363924
199	0xbdf34ec3	-0.11880257
200	0x3e1c46a3	0.15261321
201	0xbd983bdf	-0.074332945
202	0xbcd6803c	-0.026184194
203	0x3de4127f	0.1113634
204	0xbe845c58	-0.25851703
205	0x3eb27caf	0.3486075
206	0x3ea733bf	0.32656667
207	0xbead8005	-0.33886734
208	0x3dd9b437	0.106300764
209	0xbe5c82df	-0.21534298
210	0x3dd2d697	0.10294836
211	0x3e321813	0.17391996
212	0x3e34d5a6	0.17659625
213	0x3e29e2a0	0.16590357
214	0x3e8ac1ed	0.2710108
215	0xbe9a3866	-0.30121154
216	0xbcd1aecb	-0.025596043
217	0x3e94e93f	0.29084203
218	0xbe9eeca7	-0.31039926
219	0x3de97fbc	0.114013165
220	0xbe9fb9f3	-0.31196555
221	0xbd821d27	-0.063532166
222	0xbdf31d27	-0.11870795
223	0xbda25c53	-0.07927766
224	0xbe329419	-0.17439307
225	0x3db5bd70	0.08874023
226	0x3e9eaee4	0.30992806
227	0x3cd8a10c	0.02644398
228	0x3eb25c94	0.34836257
229	0xbda3cd2e	-0.07998119
230	0x3de2b3e7	0.1106947
231	0x3e627de9	0.22118343
232	0xbe09999f	-0.13437508
233	0x3d56dcac	0.052456543
234	0x3bd5266e	0.0065048253
235	0x3eaf8757	0.34282944
236	0xbea2d229	-0.31800964
237	0xbde505cb	-0.111827455
238	0xbe0ab407	-0.13545237
239	0xbe0cf7a9	-0.1376635
240	0xbcb8a9d2	-0.022541914
241	0xbe5b3401	-0.21406557
242	0x3d1999fe	0.037500374
243	0xbe05c3f8	-0.13063037
244	0x3d408bc0	0.047008276
245	0xbe846bf3	-0.2586361
246	0x3e78ccfc	0.24296945
247	0x3d4422f3	0.047884893
248	0x3e6410a9	0.2227198
249	0x3ddb98c2	0.107224956
250	0x3cda3bb2	0.026639793
251	0x3dbba42d	0.091621734
252	0x3df6e942	0.12056209
253	0xbdf18f64	-0.11794928
254	0x3e46eb6b	0.19425742
255	0x3daf15e8	0.085491

node_emb.bias f4 [64]
0	0xbdbc7e13	-0.09203734
1	0x3e4205b4	0.18947488
2	0xbb2b3bab	-0.0026128094
3	0xbe8ade25	-0.27122608
4	0x3e298b7d	0.16557117
5	0x3e12b6cd	0.14327545
6	0xbe9ecf2a	-0.3101743
7	0xbeb2dcd8	-0.34934115
8	0xbeaaa609	-0.333298
9	0xbe108e40	-0.14116764
10	0xbe356bdc	-0.17716926
11	0x3e87e11d	0.26538935
12	0xbe1b959a	-0.15193787
13	0x3e0e848f	0.13917755
14	0xbe5fbae8	-0.21848643
15	0x3cc94c39	0.024572479
16	0xbd31330a	-0.043261565
17	0xbe1a984f	-0.15097164
18	0x3c628f18	0.0138280615
19	0xbd4486ba	-0.047980048
20	0x3db29977	0.08720677
21	0xbd16fe38	-0.036863536
22	0x3e50d37f	0.2039318
23	0x3e503474	0.2033251
24	0xbeb56f23	-0.35436353
25	0x3e80e48b	0.25174364
26	0x3e86d2c5	0.2633268
27	0xbdea700f	-0.11447155
28	0x3e84f7dc	0.25970352
29	0xbe1a3f37	-0.15063177
30	0xbde928f3	-0.113847636
31	0xbd0a105e	-0.033707015
32	0x3e63f6a4	0.22262055
33	0xbc08a4d6	-0.008340081
34	0xbe98500e	-0.29748577
35	0x3e913b86	0.28365725
36	0xbeac3e96	-0.336415
37	0xbe72e7c2	-0.23721221
38	0x3d7b5934	0.061364368
39	0xbdf1d286	-0.11807732
40	0xbe464e7a	-0.19365874
41	0xbeb20b55	-0.3477427
42	0xbd7e1acb	-0.06203727
43	0x3dc429e0	0.095782995
44	0x3e8a9f3a	0.27074605
45	0x3ea64789	0.32476452
46	0xbe6e165a	-0.23250714
47	0x3c707b7e	0.01467788
48	0xbd84e800	-0.06489563
49	0x3c5f4017	0.01362612
50	0xbe88f4c5	-0.26749244
51	0xbe7abdc9	-0.2448646
52	0x3e34825e	0.17627856
53	0x3e1b7f17	0.151852
54	0xbe5c04eb	-0.21486251
55	0xbe623fca	-0.22094646
56	0xbd9ebb45	-0.077505626
57	0x3ea8a3ff	0.3293762
58	0x3e96c9ca	0.29450828
59	0xbc1efe28	-0.00970415
60	0xbe8feb1a	-0.28109056
61	0xbd00664d	-0.03134756
62	0xbe803bb6	-0.25045556
63	0x3db5eb70	0.08882797

edge_emb.weight f4 [64, 2]
0	0x3c48fe7d	0.012267706
1	0x3e8f8f6e	0.28039116
2	0x3ea788d4	0.3272158
3	0xbe1c6282	-0.15271953
4	0x3da8fa5c	0.08250877
5	0xbf132c73	-0.574897
6	0xbe4f6db5	-0.20256694
7	0x3ed1808f	0.40918395
8	0x3ea9371c	0.33049858
9	0x3d287a4d	0.04113226
10	0x3e63f387	0.22260867
11	0x3ec48e8e	0.3839001
12	0x3ed14aae	0.4087729
13	0x3f24dd99	0.6440063
14	0x3f0a0d96	0.5392698
15	0x3f059e74	0.52194905
16	0xbeee98aa	-0.46600848
17	0xbea8ebb5	-0.3299233
18	0xbee7b49b	-0.4525498
19	0x3f1c61dc	0.6108682
20	0xbeb3125e	-0.3497495
21	0xbf1a3b3e	-0.60246646
22	0x3f2abe83	0.6669695
23	0xbdc787fc	-0.09742734
24	0xbf24e2c9	-0.64408547
25	0x3f2da947	0.6783642
26	0x3ec98ff4	0.3936764
27	0xbf1c6131	-0.610858
28	0x3eb7b6ea	0.3588174
29	0xbeefe63f	-0.4685535
30	0x3f2a63c9	0.6655851
31	0xbeeb01dd	-0.4589986
32	0x3ef8742f	0.4852614
33	0xbee29ae0	-0.44258785
34	0x3ce9e680	0.028552294
35	0x3ee868f0	0.4539256
36	0x3d8e6632	0.06953086
37	0xbdda5e12	-0.10662474
38	0xbee53a03	-0.44770822
39	0xbf0d8991	-0.55288035
40	0xbe1c4c80	-0.15263557
41	0x3da9d831	0.08293188
42	0xbe271c15	-0.16319306
43	0xbde1a049	-0.110169
44	0x3d414bea	0.047191538
45	0xbef78b59	-0.483485
46	0x3d0d71ce	0.03453236
47	0x3ed2188a	0.41034347
48	0x3e67dc68	0.22642672
49	0xbb948580	-0.004532516
50	0xbf20666c	-0.62656283
51	0xbe5ff750	-0.21871686
52	0x3efa1f1a	0.48851854
53	0x3e39d6b7	0.18148313
54	0xbf0d1421	-0.5510884
55	0xbf080bfe	-0.531433
56	0x3f09d5c7	0.53841823
57	0x3e4c74f3	0.19966488
58	0x3e05f516	0.13081774
59	0x3e356c9e	0.17717215
60	0x3e3fe879	0.18741025
61	0xbe97c28b	-0.29640612
62	0xbc31aabe	-0.010843931
63	0x3f012657	0.50449127
64	0x3f0e1401	0.55499274
65	0x3ed16fbe	0.40905565
66	0xbdc4b458	-0.0960471
67	0x3e917be3	0.2841483
68	0x3efe938d	0.49721947
69	0xbeb5887b	-0.3545569
70	0xbeac0728	-0.3359921
71	0x3c7bf407	0.015378005
72	0xbf08bb93	-0.53411216
73	0xbdf7b002	-0.12094118
74	0x3ee7f0bf	0.45300862
75	0x3e1bdd93	0.15221243
76	0x3d4a5149	0.049393926
77	0x3ec61aba	0.38692266
78	0x3e803a67	0.25044557
79	0x3e5223c7	0.2052146
80	0x3dfb8fb3	0.12283268
81	0x3d54dae7	0.051966574
82	0xbf1fa58a	-0.6236197
83	0xbf273078	-0.6530833
84	0xbf25da0a	-0.64785826
85	0x3ea5342c	0.32266366
86	0x3cc6a0ac	0.024246536
87	0xbd65b8ac	-0.05608432
88	0x3f287cad	0.6581524
89	0x3e507000	0.20355225
90	0x3f30fc07	0.69134563
91	0x3e8f0895	0.27936235
92	0xbed9b3e5	-0.4252006
93	0x3f14906c	0.5803287
94	0xbee57405	-0.44815078
95	0xbde598f1	-0.11210812
96	0xbc174c0c	-0.00923444
97	0xbd27f19d	-0.041001905
98	0xbd262664	-0.040563956
99	0x3e91e46e	0.2849459
100	0xbe824f61	-0.25451186
101	0xbf21cad3	-0.6320011
102	0xbd46b78f	-0.0485149
103	0x3ee2afa5	0.4427463
104	0x3eaf749e	0.3426866
105	0xbdc24537	-0.09485858
106	0x3eef527a	0.46742612
107	0x3e268e53	0.1626523
108	0x3eac2483	0.33621606
109	0x3dd1c7a4	0.102431566
110	0x3ed28620	0.41117954
111	0xbf29cdf6	-0.66329896
112	0xbcf09e38	-0.02937232
113	0xbeb37db1	-0.35056832
114	0x3ee328ac	0.44366968
115	0x3f1a6f32	0.6032592
116	0x3eb2f06c	0.34949052
117	0x3dab0177	0.08349889
118	0xbf2eb8ee	-0.6825093
119	0xbf07cd69	-0.53047806
120	0x3d283877	0.041069474
121	0xbf30c935	-0.6905702
122	0xbd15caa6	-0.036570214
123	0x3ee38caf	0.4444327
124	0x3f0c5b90	0.54827213
125	0xbe1b8801	-0.151886
126	0x3e95617a	0.2917593
127	0xbe5f523a	-0.2180871

edge_emb.bias f4 [64]
0	0xbf01c4c4	-0.50690866
1	0x3edfc06a	0.43701488
2	0x3ef8af45	0.4857122
3	0xbf1944ae	-0.5987042
4	0x3ecf91ec	0.40541017
5	0x3ebbd8cd	0.36688843
6	0x3d8ef608	0.069805205
7	0x3eb2a1ec	0.34889162
8	0xbf1dd7c7	-0.61657375
9	0xbe83ad07	-0.25717947
10	0x3e2c409a	0.16821519
11	0xbe57885e	-0.21048114
12	0x3f1d9d17	0.61567825
13	0x3eacce0e	0.33750957
14	0xbf0d0876	-0.55091035
15	0xbf138041	-0.57617575
16	0xbe55727a	-0.2084445
17	0xbf14c69e	-0.58115566
18	0x3d0000d4	0.03125079
19	0xbf189c75	-0.59613734
20	0x3f0c5947	0.54823726
21	0x3f0a845e	0.54108226
22	0xbea926aa	-0.3303731
23	0xbee37680	-0.44426346
24	0xbdf37c34	-0.11888924
25	0xbf35076d	-0.70714456
26	0x3e5bd984	0.21469694
27	0xbda24b57	-0.07924526
28	0xbf259d88	-0.646935
29	0x3f0b8623	0.5450155
30	0x3c8e1d99	0.017348098
31	0xbe46656c	-0.19374627
32	0xbf262d74	-0.64913106
33	0x3daeb6ec	0.08530983
34	0xbda7339d	-0.08164141
35	0x3ee5f999	0.4491699
36	0x3f323ea7	0.6962685
37	0xbe925fcf	-0.2858872
38	0x3f20a4c2	0.627514
39	0x3ef5842e	0.47952408
40	0xbee4352a	-0.4457181
41	0xbf2e917c	-0.6819074
42	0x3e4d7146	0.20062742
43	0xbe647e7b	-0.22313873
44	0xbe33132c	-0.17487782
45	0xbe8eba32	-0.2787643
46	0xbf2d998c	-0.6781242
47	0x3ed64e5d	0.4185666
48	0x3de1581c	0.11003134
49	0x3e38f69f	0.18062828
50	0xbd59b80a	-0.05315403
51	0xbf10563d	-0.5638159
52	0x3ec05569	0.37565163
53	0xbe7a2526	-0.24428234
54	0xbdc4b6c1	-0.0960517
55	0x3e211db8	0.15733993
56	0xbf1fa588	-0.62361956
57	0x3dd51a6c	0.1040543
58	0x3e3d57dc	0.18490547
59	0x3f0384b2	0.5137435
60	0x3f09f2ac	0.5388591
61	0x3ef016fc	0.46892536
62	0xbeddb708	-0.43303704
63	0xbe04c3ed	-0.12965365

gat_layers.0.att_src f4 [1, 4, 16]
0	0xbe7b5c2f	-0.24546884
1	0x3e9a92bf	0.30190083
2	0x3e800ffd	0.25012198
3	0x3ed630e3	0.41834173
4	0xbb692e78	-0.0035580676
5	0x3b02f2fc	0.0019981256
6	0xbf01e7e8	-0.50744486
7	0x3e9aaced	0.30210057
8	0xbe138a64	-0.1440826
9	0xbe89ee82	-0.2693978
10	0xbe8bec88	-0.27328897
11	0x3e06b566	0.13155136
12	0x3d181999	0.037133787
13	0x3ef45b09	0.47725704
14	0xbe6d7e48	-0.23192704
15	0xbda92534	-0.08259049
16	0xbeeeaba7	-0.46615335
17	0x3d8e49f6	0.06947701
18	0x3e22df14	0.1590541
19	0xbe5c6d2e	-0.21526024
20	0xbf07f44a	-0.5310713
21	0xbea1690a	-0.3152545
22	0xbf02563c	-0.50912833
23	0xbed651b8	-0.4185922
24	0xbed898f3	-0.4230419
25	0xbdb6c6e0	-0.08924651
26	0x3ee47ca7	0.44626352
27	0x3e0575c2	0.13033202
28	0x3e812bd7	0.2522876
29	0xbf0aa307	-0.5415501
30	0xbeb184c7	-0.34671614
31	0xbef6175e	-0.48064703
32	0x3c940a2e	0.01807126
33	0xbe1dc80d	-0.15408345
34	0x3efc4133	0.49268493
35	0x3eaa6470	0.33279753
36	0xbd915ec9	-0.07098157
37	0xbecdf5da	-0.40226632
38	0xbef4f55f	-0.47843453
39	0x3eeec6f2	0.46636158
40	0xbf0182e0	-0.50590324
41	0x3e8053aa	0.2506383
42	0x3e71eaed	0.23624773
43	0xbe420962	-0.18948892
44	0xbea78329	-0.32717255
45	0x3f0634ec	0.524245
46	0xbe8d8612	-0.2764135
47	0xbe093105	-0.13397606
48	0xbe77e223	-0.24207358
49	0x3ed40da1	0.41416648
50	0xbe3c9c24	-0.18418938
51	0xbe89b19b	-0.26893315
52	0x3e08b556	0.13350424
53	0xbe18763e	-0.14888856
54	0xbdc2638e	-0.09491645
55	0x3d9ad062	0.07559277
56	0xbe95b804	-0.29241955
57	0xbe81e47a	-0.25369626
58	0x3e7787d8	0.24172914
59	0x3e3a5e0b	0.18199937
60	0xbe5d9262	-0.21637872
61	0xbef07c40	-0.46969795
62	0xbf044070	-0.51660824
63	0x3e8d6aee	0.27620643

gat_layers.0.att_dst f4 [1, 4, 16]
0	0x3eaa7ece	0.3329987
1	0xbda68581	-0.081309326
2	0x3f05280f	0.5201425
3	0xbe843b94	-0.25826705
4	0xbe5b1238	-0.21393669
5	0xbe3754f8	-0.17903507
6	0x3ee18490	0.4404645
7	0xbdf4df29	-0.11956627
8	0xbe9c8444	-0.3056966
9	0x3da609a1	0.08107305
10	0x3f0a6339	0.5405765
11	0x3d7227b5	0.0591199
12	0xbea095f3	-0.31364402
13	0x3e3a4a1a	0.1819233
14	0x3f05e2ca	0.5229918
15	0xbea7f178	-0.32801414
16	0xbefe13cf	-0.49624488
17	0x3e64564e	0.22298548
18	0xbd85ed16	-0.06539361
19	0x3f07d4f1	0.530593
20	0xbe5cb99c	-0.2155518
21	0xbe470b48	-0.19437897
22	0xbec7745e	-0.3895597
23	0xbdef92fe	-0.116979584
24	0xbebdbd65	-0.3705856
25	0xbdfe09a6	-0.12404184
26	0xbec1560b	-0.37760958
27	0x3effea53	0.49983463
28	0xbec9a4c0	-0.39383507
29	0x3e2e4e3c	0.17022032
30	0xbe90c39c	-0.28274238
31	0xbe9b22c1	-0.30299953
32	0xbe779c31	-0.24180676
33	0x3dda1f48	0.10650498
34	0x3ee3a8ee	0.4446482
35	0xbe7eb88c	-0.24875087
36	0x3f08a5b9	0.5337787
37	0x3e09f5db	0.13472693
38	0xbeaffbb1	-0.34371713
39	0xbe8354a9	-0.25650528
40	0x3ee32f42	0.44371992
41	0xbef27bce	-0.4736008
42	0xbe46c570	-0.19411254
43	0x3ee220bc	0.441656
44	0x3caad790	0.020854741
45	0xbdd6b838	-0.10484356
46	0x3e751e3d	0.23937316
47	0xbe962a41	-0.29329112
48	0x3ee8aefa	0.45445997
49	0x3d6aff64	0.057372466
50	0x3d88dfa3	0.0668328
51	0xbe9efd49	-0.31052616
52	0x3e9f4b5e	0.31112188
53	0xbd94bd4b	-0.07262667
54	0x3e4b5cea	0.19859663
55	0xbd9357d6	-0.07194488
56	0xbeba0ea4	-0.36339295
57	0xbe0446cb	-0.1291763
58	0xbe216f3e	-0.15765092
59	0x3ec642d7	0.3872287
60	0x3ea62640	0.32451057
61	0x3dc549b0	0.096331954
62	0xbeadf832	-0.3397842
63	0x3ca50f40	0.020148873

gat_layers.0.att_edge f4 [1, 4, 16]
0	0xbee39000	-0.444458
1	0x3e7f9b52	0.24961594
2	0x3e871899	0.26385954
3	0x3ecf4692	0.40483528
4	0xbee85d06	-0.4538347
5	0x3d281f0e	0.04104524
6	0xbcd1b229	-0.025597649
7	0x3e305eb4	0.17223626
8	0xbd312115	-0.04324444
9	0x3e4d8e66	0.20073852
10	0xbf0583c8	-0.5215421
11	0x3ddff9a3	0.10936286
12	0xbef0cd39	-0.47031572
13	0x3dbf5e30	0.09344137
14	0xbe849873	-0.2589756
15	0x3db5940e	0.0886613
16	0x3d854e04	0.06509021
17	0x3eddb9cd	0.43305817
18	0xbcd404e0	-0.02588123
19	0xbf024bed	-0.50897104
20	0xbf084bae	-0.5324048
21	0xbe6e9c66	-0.23301849
22	0x3ec2a1eb	0.3801416
23	0x3dc10180	0.09424114
24	0xbe79b6d3	-0.24386148
25	0x3ef5355b	0.4789227
26	0x3d75f8e4	0.060051814
27	0x3e892e00	0.26792908
28	0x3edef5d6	0.43546933
29	0xbe3431d5	-0.17597134
30	0x3e51a024	0.20471245
31	0x3d848d10	0.06472218
32	0x3e547847	0.20749007
33	0xbeb5f2ea	-0.3553689
34	0x3e489ba2	0.19590619
35	0xbee9f339	-0.45693377
36	0xbdcdf707	-0.10056882
37	0xbc3acd3f	-0.011401474
38	0xbecebc8e	-0.4037823
39	0x3d9b73e4	0.07590464
40	0xbe797640	-0.24361515
41	0xbecbcfa8	-0.39806867
42	0xbe2ffbce	-0.171859
43	0xbe08b5c2	-0.13350585
44	0xbdf7aa4a	-0.12093027
45	0x3ea7b1e5	0.3275291
46	0x3d1dce46	0.038526796
47	0x3ef3604f	0.47534415
48	0x3ed241a9	0.4106572
49	0xbec91dc4	-0.39280522
50	0x3e811442	0.25210768
51	0xbeaed14b	-0.34144053
52	0xbed7267a	-0.42021543
53	0x3e81b4dc	0.25333297
54	0x3e8a7a13	0.2704626
55	0xbe57bee1	-0.21068908
56	0x3d4ee019	0.050506685
57	0x3ef707c7	0.4824812
58	0x3e5707d7	0.20999084
59	0x3dd24bf7	0.102683954
60	0xbefa51d5	-0.48890558
61	0x3e27808f	0.16357635
62	0x3dc481ee	0.095950946
63	0xbee43496	-0.4457137

gat_layers.0.bias f4 [64]
0	0xbb880f6c	-0.004152229
1	0xbb9bb476	-0.004751737
2	0xbb90eb29	-0.0044225645
3	0xbb95c6cc	-0.0045708176
4	0xbb99d19d	-0.0046941773
5	0x3c2e9d85	0.010657673
6	0xbb8b0f67	-0.0042437795
7	0xbb98e02f	-0.0046653966
8	0x3bd53fa4	0.0065078307
9	0xbb8a4591	-0.0042197187
10	0x3c26759d	0.010159877
11	0xbb8deab1	-0.004330956
12	0xbb9c5867	-0.0047712806
13	0xbb8edefd	-0.0043600784
14	0xbba5b814	-0.005057344
15	0xbb895122	-0.00419058
16	0xbb95403d	-0.004554777
17	0xbba78710	-0.0051125363
18	0xbb999a61	-0.004687593
19	0xbb88d821	-0.004176155
20	0xbb9cd49c	-0.004786087
21	0xbb99da48	-0.0046952106
22	0xbb993e8a	-0.0046766447
23	0x3c2dfb50	0.010619
24	0xbb8f0ebf	-0.0043657715
25	0xba1f44df	-0.0006075631
26	0xbb94d03e	-0.004541426
27	0xbb974b97	-0.0046171653
28	0xbb919e16	-0.004443894
29	0x3c27b539	0.010236078
30	0xbb8b41eb	-0.0042498014
31	0xbb8a58fb	-0.004222033
32	0x3c2c0a0f	0.010500445
33	0xbb8b07ae	-0.004242859
34	0x3b82d295	0.0039923885
35	0xbb68a9dc	-0.0035501635
36	0xbb945dd0	-0.004527785
37	0xbb74c0db	-0.0037346396
38	0x3bff9920	0.0078002363
39	0xbb89be9e	-0.0042036315
40	0xbb8c91ce	-0.004289842
41	0xbb8f074a	-0.0043648826
42	0xbba4f6c0	-0.0050342977
43	0xbb8cb432	-0.004293942
44	0xbb8d1db8	-0.0043065213
45	0xbba36eaa	-0.0049875574
46	0xbb8cea31	-0.0043003787
47	0xbb987c7f	-0.004653513
48	0xbbae0c3f	-0.0053115184
49	0xbba1fc0e	-0.0049433773
50	0xbb90987a	-0.004412708
51	0xbb960ad3	-0.004578927
52	0xbb938831	-0.0045023193
53	0xbb8b5398	-0.0042519085
54	0xbaf78cea	-0.00188866
55	0x3c1b84b6	0.00949209
56	0xbb952ae0	-0.0045522302
57	0xbb9d7d64	-0.0048062075
58	0xbb8e019b	-0.0043336875
59	0xbb968d9d	-0.0045945183
60	0xbaf5aaf4	-0.0018742965
61	0x3bd35130	0.0064488873
62	0xbba5af25	-0.0050562792
63	0xbba1c49d	-0.004936768

gat_layers.0.lin.weight f4 [64, 64]
0	0x3d6254cd	0.055256654
1	0x3db7281d	0.08943198
2	0xbe26697f	-0.16251181
3	0x3d70bfbe	0.05877661
4	0xbe526082	-0.20544627
5	0xbdd8d324	-0.10587147
6	0x3e44e43e	0.19227692
7	0x3e07bd74	0.13255864
8	0xbe2730ed	-0.16327257
9	0xbe19e511	-0.15028788
10	0x3d87aeff	0.06625175
11	0xbce93b10	-0.028470546
12	0x3ca3574c	0.019939087
13	0xbe432487	-0.19056903
14	0xbe377794	-0.17916709
15	0xbe3be712	-0.18349865
16	0xbd0cf8d6	-0.034416996
17	0xbe073cd4	-0.13206798
18	0x3d8b35e7	0.067973904
19	0xbe381773	-0.17977695
20	0x3e09f7f6	0.13473496
21	0x3e4c0435	0.1992348
22	0x3cb4b3b3	0.022058344
23	0x3cebd7f7	0.028789503
24	0xbdd6c3c5	-0.10486559
25	0xbe1689e4	-0.14701039
26	0xbe3dae6c	-0.18523568
27	0x3e5d1f9f	0.21594094
28	0xbdda1642	-0.106487766
29	0x3d0d95dc	0.034566745
30	0xbe5ed213	-0.21759824
31	0xbe0fd5cc	-0.14046401
32	0x3d5369a0	0.051614404
33	0xbe263da0	-0.16234446
34	0x3e47d779	0.1951579
35	0xbcc8b4fc	-0.024500363
36	0xbe60d606	-0.21956643
37	0x3e6124d9	0.21986713
38	0xbdf1f493	-0.11814227
39	0x3de29ee4	0.11065462
40	0x3e311234	0.172921
41	0x3d4dd815	0.0502549
42	0x3dd29516	0.10282342
43	0xbe4327a8	-0.19058096
44	0xbe14b1c4	-0.14520937
45	0xbe4dfeba	-0.20116702
46	0xbd9144bf	-0.070931904
47	0xbc0fb398	-0.008770846
48	0x3e489e48	0.1959163
49	0xbda1b518	-0.07895869
50	0x3b9dc55a	0.004814786
51	0x3e617a6c	0.22019356
52	0xbdc8c1e7	-0.09802609
53	0x3e309bee	0.17246982
54	0x3d3bb461	0.04582632
55	0x3dcf4079	0.10119719
56	0xbd08002d	-0.033203293
57	0xbd98f7da	-0.07469149
58	0xbcbe7208	-0.023247734
59	0x3e110ac2	0.1416426
60	0xbe3cc12c	-0.18433064
61	0xbe50a6e6	-0.20376167
62	0xbde7a634	-0.113109976
63	0xbde506d2	-0.111829415
64	0x3e236cf8	0.15959537
65	0xbe39b601	-0.18135835
66	0xbca49c88	-0.020094171
67	0xbdd7a877	-0.10530179
68	0xbe1573bd	-0.14594932
69	0x3dc03e30	0.09386861
70	0x3bd833d4	0.0065979753
71	0x3cb1e295	0.021714488
72	0xbe543cba	-0.2072629
73	0x3e4b23d3	0.19837885
74	0xbe1921b1	-0.14954259
75	0x3e100843	0.14065652
76	0xbd921801	-0.07133485
77	0xbdb90904	-0.09034923
78	0xbda0fb02	-0.07860376
79	0xbe4d1b8d	-0.20030041
80	0x3d0aed65	0.033917803
81	0xbe543c35	-0.20726092
82	0x3e532bfd	0.20622249
83	0x3e39611d	0.18103452
84	0x3dd5d5ec	0.10441193
85	0xbd20be4a	-0.039243974
86	0x3e348d1d	0.17631955
87	0xbe50c04d	-0.20385857
88	0x3e5a3def	0.21312688
89	0xbe3b3c08	-0.18284619
90	0xbde1f959	-0.110338874
91	0xbe133864	-0.1437698
92	0x3c97782a	0.018489916
93	0xbe4f4afe	-0.20243451
94	0x3e2f389f	0.17111443
95	0xbdf4085e	-0.119156584
96	0x3d8ceefa	0.06881519
97	0xbe38cd08	-0.18046963
98	0x3d85397c	0.06505105
99	0x3cf1089d	0.029423052
100	0x3df7dd84	0.121027976
101	0x3da48580	0.080332756
102	0xbc541c51	-0.012946204
103	0x3bde5dae	0.00678607
104	0x3e57ddfc	0.21080774
105	0xbdf3bda0	-0.119014025
106	0x3e3411f0	0.17584968
107	0x3e1f74a1	0.15571834
108	0xbb167916	-0.0022960356
109	0x3b34de02	0.0027598147
110	0x3df56484	0.119820625
111	0xbd7cdcf4	-0.061734155
112	0x3e176e96	0.14788279
113	0x3d8e9404	0.069618255
114	0x3e3846eb	0.17995803
115	0x3d822411	0.06354535
116	0x3e1ae967	0.15128098
117	0xbd3fa0e6	-0.046784304
118	0xbd91a9d6	-0.07112472
119	0xbd23e7e9	-0.04001609
120	0x3e3807cc	0.17971724
121	0x3e1d74b9	0.15376557
122	0xbe020243	-0.12696175
123	0xbdbdf6d1	-0.09275592
124	0x3ce05f39	0.027389156
125	0xbc1efd3c	-0.0097039305
126	0xbe537e29	-0.20653595
127	0x3df494b7	0.119424276
128	0x3c8356a0	0.016032517
129	0x3e310c8e	0.17289945
130	0xbe584c23	-0.21122794
131	0xbd988004	-0.07446292
132	0xbba8f61e	-0.0051562926
133	0xbd98c56e	-0.07459532
134	0x3e4ce422	0.20008901
135	0xbdb4fc66	-0.08837204
136	0x3da74ace	0.08168565
137	0xbc01914d	-0.007908178
138	0xbddc1a00	-0.107471466
139	0x3db8dc82	0.090264335
140	0xbe59ba90	-0.21262574
141	0xbe121357	-0.1426519
142	0xbd5b8cc4	-0.05360104
143	0xbcb67412	-0.022272144
144	0xbe48ef17	-0.19622456
145	0x3e15acf6	0.1461676
146	0xbe5843ee	-0.21119663
147	0x3d27f790	0.04100758
148	0x3e2a20ca	0.1661407
149	0x3b919f61	0.0044440483
150	0xbe384ee7	-0.17998849
151	0x3dbe9e31	0.09307516
152	0x3e1e275a	0.15444699
153	0x3e408b93	0.18803243
154	0xbd9ee263	-0.077580236
155	0x3d540fd5	0.05177291
156	0x3dfa255c	0.12214157
157	0xbe496ecd	-0.19671173
158	0xbe084f5d	-0.13311525
159	0xbe577e14	-0.21044189
160	0xbe06190b	-0.1309549
161	0x3e005fb6	0.12536511
162	0x3dceb8d9	0.10093851
163	0xbe5d6ee6	-0.21624336
164	0x3c98958f	0.018626003
165	0x3e54b6bc	0.20772833
166	0xbe29defc	-0.16588968
167	0xbdf25eae	-0.11834465
168	0x3ddbe1b5	0.107364096
169	0x3d2671bf	0.04063582
170	0xbe1c6e71	-0.15276505
171	0xbd86a5fd	-0.065746285
172	0xbc732e2e	-0.014842553
173	0xbe2069d8	-0.15665376
174	0xbe22f475	-0.15913565
175	0x3df33ffd	0.11877439
176	0xbe47a46c	-0.19496316
177	0xbd1e5f3a	-0.038665034
178	0x3d89c9ab	0.06727918
179	0x3bad3f95	0.0052871206
180	0xbd63384b	-0.055473607
181	0xbd210956	-0.039315544
182	0xbd43e1bb	-0.047822695
183	0x3dafdb74	0.08586779
184	0x3db012ea	0.085973576
185	0x3df45dd5	0.119319595
186	0x3dbcdd0e	0.0922185
187	0xbe164cbc	-0.1467771
188	0xbdb99389	-0.09061343
189	0xbe5aa0a2	-0.21350339
190	0xbe1490c1	-0.14508344
191	0xbde20041	-0.11035205
192	0x3dfe90c1	0.12429953
193	0x3d93981b	0.07206746
194	0x3defc7cd	0.11708031
195	0x3d96f60b	0.07371148
196	0xbe3e79cd	-0.18601151
197	0xbe0b9b04	-0.13633353
198	0xbca1dfdb	-0.019760063
199	0x3e158df3	0.1460493
200	0x3bbafe4d	0.0057065845
201	0xbc7f9d5f	-0.015601485
202	0xbe1c5a16	-0.1526874
203	0x3ded96b3	0.11601009
204	0x3c5ea8bd	0.013590035
205	0xbe1f2395	-0.15540917
206	0x3e33e11d	0.17566343
207	0x3dd4f8ee	0.10399042
208	0x3e03f54e	0.12886545
209	0x3e4366c4	0.1908217
210	0x3dc7e2f2	0.09760083
211	0xbd28e856	-0.041237198
212	0xbd1609fe	-0.036630623
213	0x3e1bd8c5	0.1521941
214	0x3d505b3b	0.050868254
215	0x3d4e7e60	0.05041349
216	0xbe0f1ae4	-0.13975102
217	0xbd7c9e7d	-0.061674584
218	0x3b9e03c8	0.004822228
219	0xbe35876d	-0.17727442
220	0x3d438342	0.0477326
221	0xbe30ce8b	-0.1726629
222	0xbd17f20b	-0.037096065
223	0xbc4a3526	-0.012341773
224	0x3cce751c	0.025202326
225	0xbe5a1bea	-0.21299711
226	0xbc8c3371	-0.017114373
227	0xbc77cc45	-0.015124385
228	0x3e47af81	0.19500543
229	0xbe3cc681	-0.18435098
230	0xbe107818	-0.14108312
231	0x3e5da0b6	0.21643338
232	0x3d80051b	0.06250974
233	0xbdba0caf	-0.090844505
234	0x3e15d735	0.14632876
235	0x3e131884	0.1436482
236	0x3cb5c457	0.022188349
237	0xbe115396	-0.14192042
238	0xbd874148	-0.06604248
239	0x3db24455	0.087044396
240	0x3dd95f2b	0.10613855
241	0xbdb6dddf	-0.08929037
242	0x3daac120	0.08337617
243	0x3e4fdd2c	0.20299214
244	0xbdf2c805	-0.11854557
245	0x3e45fc72	0.19334581
246	0xbe15df44	-0.1463595
247	0x3e583e57	0.21117531
248	0xbe3aebb6	-0.18253979
249	0xbe404047	-0.1877452
250	0x3def1d89	0.11675555
251	0x3de308da	0.11085673
252	0xbd2c1635	-0.042013366
253	0xbe11ce6c	-0.142389
254	0xbda7c4fa	-0.08191867
255	0xbe210318	-0.15723836

gat_layers.0.lin_edge.weight f4 [64, 64]
0	0xbdbcfdb8	-0.092280805
1	0xbce2f296	-0.027703565
2	0xbe2c6d86	-0.16838655
3	0xbdcb8407	-0.099372916
4	0x3e31613a	0.17322245
5	0xbe574657	-0.21022926
6	0x3e3de180	0.18543053
7	0xbe2ae4a6	-0.16688785
8	0x3e128ed7	0.14312302
9	0x3e0f34f7	0.13985048
10	0xbd7690d0	-0.060196698
11	0xbe392d54	-0.18083698
12	0xbd3b454a	-0.045720376
13	0xbe2d4a6f	-0.16922925
14	0xbd0b2447	-0.033970144
15	0xbde3e70e	-0.111280546
16	0x3d007fad	0.03137176
17	0x3de6e31b	0.11273786
18	0x3c1736e4	0.009229396
19	0x3d96db85	0.07366089
20	0xbb9691d6	-0.0045950217
21	0xbe073f87	-0.13207828
22	0x3c1701a8	0.0092167035
23	0xbd8c807a	-0.068604425
24	0x3de5edb4	0.11226979
25	0xbe185215	-0.14875062
26	0x3e0d7cac	0.1381709
27	0xbe3f2608	-0.18666852
28	0x3d4c3d95	0.049863417
29	0xbdcf2a1f	-0.10115456
30	0x3e3da301	0.18519212
31	0xbe1e783c	-0.15475553
32	0x3dfe5a6c	0.1241959
33	0x3c98873c	0.018619172
34	0x3c1e0632	0.009645032
35	0xbd520851	-0.051277462
36	0x3e1746d1	0.14773108
37	0x3d47b297	0.0487543
38	0xbe5a7a8e	-0.21335813
39	0x3e552549	0.20815004
40	0xbd86f836	-0.06590311
41	0x3db24b7d	0.087058045
42	0xbe02bfa1	-0.12768413
43	0x3e3e816f	0.18604062
44	0x3d1c3e65	0.03814544
45	0x3e5de2a8	0.21668494
46	0xbe34d3eb	-0.17658965
47	0xbe3ebfc5	-0.18627842
48	0x3dc518d7	0.096238784
49	0xbd5dd9b4	-0.054162696
50	0xbd730c71	-0.059338037
51	0x3e1a048a	0.15040794
52	0xbdd13c9a	-0.10216637
53	0x3e312a19	0.17301215
54	0x3df4bbbc	0.1194987
55	0x3d65510d	0.0559855
56	0xbe59e3bd	-0.21278282
57	0x3dcb9113	0.0993978
58	0x3d6fbe03	0.05853082
59	0x3d22b611	0.039724413
60	0xbdfa8e8b	-0.12234219
61	0x3dde5b1c	0.108572215
62	0xbe3dca64	-0.18534237
63	0xbe3f4316	-0.18677935
64	0xbe0a063d	-0.13478942
65	0x3db7bd7e	0.0897169
66	0xbde3aa3d	-0.11116455
67	0xbe0aa3f2	-0.13539103
68	0x3dab0fc4	0.083526164
69	0x3df7ca9b	0.12099191
70	0xbe34dd31	-0.17662503
71	0x3b450262	0.0030061235
72	0x3dd89bb7	0.10576575
73	0x3e4ba4fe	0.19887158
74	0xbde0f2bd	-0.10983799
75	0xbe0cfd2c	-0.13768452
76	0xbdd47404	-0.10373691
77	0xbdacc477	-0.0843591
78	0x3e4f90d5	0.20270093
79	0x3e401048	0.18756211
80	0xbce3162a	-0.02772053
81	0xbe2f99e0	-0.17148542
82	0xbdc3ff06	-0.09570126
83	0x3e057319	0.13032188
84	0x3d8b8f7a	0.06814475
85	0xbe551f70	-0.20812774
86	0x3e2c20ec	0.16809434
87	0xbded2324	-0.11578968
88	0xbdeba039	-0.115051694
89	0x3dae187b	0.08500763
90	0x3e022fef	0.12713598
91	0x3e266add	0.16251703
92	0x3dbe70ef	0.09298884
93	0xbe553404	-0.20820624
94	0x3db6abba	0.08919473
95	0xbbd19380	-0.006395757
96	0x3c4096b3	0.0117546795
97	0xbdc45fc8	-0.09588581
98	0xbe41089a	-0.18850937
99	0xbd30adf5	-0.04313465
100	0x3df22e1b	0.118252
101	0x3d2989b0	0.041391075
102	0xbe4da0e6	-0.20080909
103	0xbdaf4162	-0.08557393
104	0x3e37624b	0.1790859
105	0x3e4d5b7c	0.2005443
106	0x3e205d1b	0.15660517
107	0xbc3e128a	-0.0116011
108	0xbc1fcae6	-0.009752965
109	0x3e3e08bf	0.18558024
110	0x3dd0f1d6	0.102023765
111	0xbe06a8f3	-0.13150387
112	0xbdf563d2	-0.1198193
113	0xbce2470f	-0.027621774
114	0xbe35e153	-0.17761736
115	0x3d883d84	0.06652358
116	0x3e0536a1	0.1300912
117	0x3d57cabc	0.052683577
118	0xbe55dd1d	-0.2088513
119	0x3deba324	0.11505726
120	0xbd88ad0a	-0.066736296
121	0x3e3d4c1b	0.18486063
122	0xbe361215	-0.17780335
123	0xbd2d9f13	-0.042388033
124	0xbe00a97c	-0.12564653
125	0xbb7048e8	-0.003666455
126	0x3da82d5d	0.08211777
127	0x3e075e52	0.13219574
128	0x3da3a8e0	0.07991195
129	0xbbba0b7c	-0.0056776386
130	0x3e44db1d	0.1922421
131	0xbd619e47	-0.055082586
132	0x3e241948	0.16025269
133	0xbda94bc5	-0.08266405
134	0xbe3f3439	-0.18672265
135	0x3b2d8b5e	0.0026480774
136	0x3e5cf8bd	0.21579261
137	0x3dbd05a5	0.09229592
138	0xbdc2b3ff	-0.09506988
139	0x3e1f6838	0.155671
140	0x3b776671	0.0037750269
141	0xbe3798fd	-0.17929454
142	0x3e2c822a	0.16846529
143	0x3dcb8155	0.099367775
144	0x3dd7bd8b	0.10534199
145	0x3dd3e2bc	0.103459805
146	0x3e5ba55d	0.214498
147	0x3d2db00e	0.042404227
148	0xbdadcb8f	-0.08486091
149	0xbe1fcc58	-0.15605295
150	0x3e0b435d	0.13599916
151	0xbe4d00b1	-0.20019795
152	0xbe051ea8	-0.12999976
153	0x3e0e83c7	0.13917457
154	0x3e3e5ba9	0.18589653
155	0x3e3b84df	0.18312405
156	0x3c761bec	0.0150213055
157	0xbd25a4e6	-0.040440463
158	0xbdccd3ce	-0.10001336
159	0xbe066c43	-0.13127236
160	0x3e22386b	0.15841834
161	0xbdad79c5	-0.08470491
162	0xbdfc4a61	-0.12318874
163	0x3d58769c	0.05284749
164	0xbdfd4608	-0.12366873
165	0x3de5c52a	0.11219247
166	0x3e41fb1e	0.1894345
167	0xbe127713	-0.14303236
168	0x3df14b1a	0.117819026
169	0xbe3276d0	-0.17428136
170	0xbc792d90	-0.015208617
171	0x3cd5ffb6	0.026122909
172	0xbdacc578	-0.08436102
173	0x3bdc600b	0.0067253164
174	0x3e13632a	0.14393297
175	0xbe0892ff	-0.13337325
176	0x3e389aac	0.18027753
177	0x3e04e7c7	0.12979041
178	0x3daf5779	0.08561606
179	0xbbb5dec3	-0.005550237
180	0xbd9b3977	-0.0757932
181	0x3e437b52	0.19090012
182	0xbb183fb8	-0.0023231339
183	0xbd831b5e	-0.06401704
184	0xbd5b167b	-0.053488236
185	0xbe26007a	-0.1621112
186	0x3e374038	0.17895591
187	0x3dfab8c6	0.12242274
188	0x3d663bdb	0.056209426
189	0x3dfff7a6	0.12498407
190	0x3e2a9586	0.16658601
191	0x3c2264fa	0.00991177
192	0xbb8f7a2a	-0.0043785768
193	0xbd405aaa	-0.046961464
194	0xbca03501	-0.019556524
195	0x3de49d3a	0.11162801
196	0xbdc92d66	-0.09823112
197	0xbd800ace	-0.06252061
198	0xbe1a65cc	-0.15077895
199	0xbe50c2bc	-0.20386785
200	0x3d25e874	0.040504888
201	0xbd89ffdf	-0.06738257
202	0xbe47f16c	-0.19525689
203	0xbe5b55ac	-0.214194
204	0xbccc790d	-0.024960065
205	0x3bdd539d	0.0067543522
206	0x3e3ab0a4	0.18231446
207	0x3e25ce8f	0.16192077
208	0xbd44b971	-0.048028413
209	0xbde1d16f	-0.110262744
210	0xbe51f6e2	-0.20504335
211	0xbdbdf591	-0.09275354
212	0xbe188b5a	-0.14896908
213	0xbe360db1	-0.1777866
214	0x3e17a41c	0.14808697
215	0x3e1713e7	0.14753686
216	0x3cd89773	0.026439404
217	0x3e0d4ca7	0.13798772
218	0x3d8e03d6	0.069343254
219	0x3d8528b1	0.06501902
220	0x3d174b42	0.036937006
221	0x3df305bc	0.11866328
222	0x3e57b51b	0.2106518
223	0x3e2963a9	0.16541924
224	0xbe4c5edd	-0.19958062
225	0xbdbdcd7c	-0.09267709
226	0x3d5ef8d3	0.054436516
227	0x3d43ef03	0.04783536
228	0x3e43df7c	0.19128221
229	0x3e1876c0	0.1488905
230	0x3d42495d	0.047433246
231	0x3cdece5e	0.027198013
232	0x3d338a8b	0.043833297
233	0xbe2bb5ac	-0.16768521
234	0xbe3f2c99	-0.18669356
235	0x3dfe17a8	0.12406856
236	0xbdc2ec39	-0.09517712
237	0xbe0bc941	-0.13650991
238	0xbe43bd03	-0.19115071
239	0xbd828c45	-0.063744105
240	0x3e0f919e	0.14020392
241	0xbe0966e5	-0.13418157
242	0x3dc0b724	0.09409931
243	0x3d4369b3	0.047708225
244	0xbdce4fdb	-0.10073825
245	0x3de746f7	0.11292832
246	0xbd84c500	-0.06482887
247	0xbe283b16	-0.1642879
248	0x3d832005	0.064025916
249	0xbdbadf95	-0.09124676
250	0x3dabc5b7	0.083873205
251	0xbe364221	-0.17798664
252	0x3e381bd7	0.1797937
253	0x3d279a86	0.04091885
254	0xbdc28e8c	-0.09499845
255	0x3e324c81	0.17411996

gat_layers.1.att_src f4 [1, 4, 16]
0	0xbdac0bfd	-0.08400724
1	0xbec83023	-0.39099225
2	0xbdbde134	-0.0927147
3	0xbd93f833	-0.072250746
4	0x3ca98707	0.020694269
5	0xbf06df57	-0.5268454
6	0xbd66f35e	-0.056384437
7	0x3deba0a9	0.11505253
8	0xbf082f50	-0.53197193
9	0x3eb702a7	0.3574421
10	0xbef048d1	-0.46930555
11	0x3e476251	0.19471098
12	0xbe6f8fa4	-0.23394638
13	0x3e066fd7	0.13128601
14	0xbdb81276	-0.08987896
15	0xbe36da5f	-0.1785674
16	0x3d96e452	0.073677674
17	0x3f0924c9	0.53571755
18	0x3df4f6e4	0.11961153
19	0xbece4f4b	-0.4029487
20	0x3ed243b8	0.4106729
21	0xbdea64ef	-0.11445033
22	0xbeca848d	-0.39554253
23	0x3ed0c08e	0.40771908
24	0xbf07fed3	-0.53123206
25	0xbd93aa14	-0.07210174
26	0x3cd4a1b9	0.025956022
27	0x3e8c31c4	0.27381718
28	0x3dccdeba	0.10003419
29	0x3bed4bec	0.0072417166
30	0x3cedbfba	0.029022086
31	0xbf057370	-0.5212927
32	0xbdc20813	-0.09474196
33	0x3e4cf7d7	0.20016418
34	0xbe92b5af	-0.2865424
35	0x3e06651b	0.13124506
36	0xbdc15bed	-0.094413616
37	0x3d5d1f9e	0.05398523
38	0x3eaca07e	0.33716196
39	0xbdea9b7d	-0.11455438
40	0xbea637ba	-0.3246439
41	0xbe1d89b2	-0.15384558
42	0x3e0cb64f	0.1374142
43	0xbf0a3d1c	-0.53999496
44	0x3ec2dcdf	0.38059136
45	0xbde5d292	-0.11221804
46	0xbeed35ee	-0.46330208
47	0x3e0d6e62	0.13811639
48	0xbc3960d0	-0.011314586
49	0x3ed72050	0.4201684
50	0xbf013e4b	-0.50485677
51	0xbf01ca63	-0.5069944
52	0x3eb371c6	0.3504774
53	0xbefa1a29	-0.48848084
54	0x3ec3fdd7	0.38279602
55	0x3e782b1f	0.242352
56	0xbd671e14	-0.05642517
57	0xbed2e76f	-0.41192195
58	0x3eb31839	0.34979418
59	0x3f03eb8c	0.5153129
60	0x3ef18356	0.47170514
61	0x3d944874	0.07240382
62	0xbe66bcd8	-0.22532976
63	0xbe3986c8	-0.18117821

gat_layers.1.att_dst f4 [1, 4, 16]
0	0x3f00b183	0.5027086
1	0xbdf17f63	-0.11791875
2	0x3e87f4a3	0.2655383
3	0xbdfd7e94	-0.123776585
4	0xbd437d8a	-0.047727145
5	0x3e754524	0.23952156
6	0x3ec9e824	0.39434922
7	0x3eb7b65d	0.3588132
8	0x3e073285	0.13202865
9	0x3f0acc48	0.5421796
10	0xbe10c0ec	-0.14136094
11	0x3ee2fd7d	0.4433402
12	0x3dc97bf2	0.09838094
13	0x3cb15188	0.021645322
14	0x3db5bc70	0.08873832
15	0xbea5b985	-0.32368103
16	0xbe963853	-0.29339847
17	0x3e829fd4	0.25512564
18	0x3bc46aeb	0.005994191
19	0xbeb0de02	-0.3454438
20	0x3ef9bea0	0.48778248
21	0x3f00dd71	0.5033789
22	0xbefbfde7	-0.4921715
23	0xbe706738	-0.23476875
24	0xbe1f6d3d	-0.15569015
25	0x3e9f8df3	0.31162986
26	0x3cc08506	0.02350093
27	0x3e758205	0.2397538
28	0xbe9c8749	-0.30571964
29	0xbbcd7efa	-0.0062712403
30	0x3eb15ef8	0.34642768
31	0xbee4bfe4	-0.4467765
32	0x3bcf0b6f	0.0063185017
33	0x3e8c0b38	0.2735231
34	0x3debb9e6	0.11510067
35	0xbf0a1bed	-0.5394886
36	0x3e956219	0.29176405
37	0xbedeae38	-0.43492293
38	0xbe0c1670	-0.13680434
39	0x3ed694f1	0.41910508
40	0x3e7c6de2	0.24651292
41	0x3ed1337a	0.40859586
42	0x3ec7138f	0.3888211
43	0x3e64a6bf	0.22329234
44	0xbdd1c930	-0.102434516
45	0xbe396bc6	-0.18107519
46	0xbec18893	-0.3779951
47	0x3e013719	0.12618674
48	0x3ed46173	0.41480598
49	0xbea8dd63	-0.32981405
50	0x3e198975	0.14993842
51	0x3d7f1652	0.062277146
52	0x3e96cd7f	0.29453656
53	0x3ee5582d	0.44793835
54	0x3cea8186	0.028626215
55	0xbdea9d2c	-0.114557594
56	0x3ec65dc1	0.38743404
57	0x3f04dc31	0.51898485
58	0x3ec9c2c3	0.39406404
59	0x3eb57681	0.35441974
60	0x3ed437e1	0.41448882
61	0xbe59f782	-0.21285823
62	0xbe9bf61a	-0.30461198
63	0x3eee43f8	0.4653623

gat_layers.1.att_edge f4 [1, 4, 16]
0	0x3e9102f0	0.28322554
1	0xbeaf7e98	-0.3427627
2	0xbedc4988	-0.4302485
3	0x3e86d320	0.2633295
4	0xbe07f30a	-0.13276306
5	0x3ed3158a	0.4122737
6	0xbe330115	-0.17480882
7	0xbee96635	-0.4558579
8	0x3ed1d88a	0.4098552
9	0x3f041f1c	0.5160997
10	0xbf09767e	-0.5369643
11	0x3e3ef133	0.18646698
12	0xbe98c8a1	-0.29840568
13	0x3eafdea8	0.3434956
14	0xbe414b5f	-0.18876408
15	0xbeb289de	-0.3487081
16	0xbf071a62	-0.5277463
17	0xbd75c991	-0.06000668
18	0xbec4059f	-0.3828554
19	0xbe71ea34	-0.23624498
20	0xbf08191d	-0.5316332
21	0xbd45c2b9	-0.048281405
22	0xbe7422ef	-0.23841451
23	0x3dae96f7	0.08524888
24	0x3f088c0d	0.533387
25	0x3efc14b4	0.49234545
26	0xbe296df1	-0.16545846
27	0x3f04132a	0.5159174
28	0xbf01e237	-0.507358
29	0xbe5ddac6	-0.21665487
30	0x3ef6164e	0.48063892
31	0xbf06c247	-0.52640194
32	0xbea2cfcb	-0.31799158
33	0x3e97ac71	0.2962375
34	0x3d69260d	0.056921054
35	0x3ddf2ea4	0.10897568
36	0x3e8f9158	0.28040576
37	0x3e80a6e1	0.25127319
38	0x3ed8f04e	0.42370838
39	0xbe25c1ee	-0.1618726
40	0xbd97c9ac	-0.07411513
41	0xbe0115ec	-0.12606019
42	0xbc6aa7d4	-0.01432224
43	0x3e9214b6	0.28531426
44	0x3e841ebe	0.25804704
45	0x3eecc9c5	0.46247688
46	0x3eb6f123	0.35730848
47	0xbe9dc6c1	-0.308157
48	0xbeeec70a	-0.4663623
49	0xbe9dd057	-0.30823013
50	0xbeb6ac9b	-0.35678563
51	0x3e0e13e1	0.1387477
52	0xbd5ab3d7	-0.053394165
53	0xbe905e14	-0.28196776
54	0xbda02712	-0.07819952
55	0xbe9864b6	-0.29764336
56	0x3e5528c1	0.20816328
57	0x3e32a1d7	0.1744455
58	0x3cd46284	0.025925882
59	0x3e3d6b2d	0.18497916
60	0x3effeff1	0.49987748
61	0xbedb0dcf	-0.42783973
62	0x3d8c9233	0.06863823
63	0xbc0c219c	-0.008552935

gat_layers.1.bias f4 [64]
0	0xbb89463a	-0.00418928
1	0xbb8d7f02	-0.004318119
2	0xbb8cb65b	-0.0042941994
3	0xbb859692	-0.0040767873
4	0xbb8d4826	-0.0043115793
5	0xbb8ee60b	-0.0043609194
6	0xbb8eba2e	-0.0043556904
7	0xbba335f3	-0.0049807965
8	0x3c041a2f	0.008062883
9	0xbb8f1c1b	-0.004367364
10	0xbb8b3ddc	-0.0042493176
11	0xbb9141ff	-0.004432916
12	0xbb8f1f71	-0.004367762
13	0xbb9e5f0c	-0.004833108
14	0xbba48021	-0.005020157
15	0xbba1e8fb	-0.0049411035
16	0xbb9f631a	-0.0048641087
17	0xbbbbc990	-0.005730815
18	0xbb9ee8ac	-0.004849514
19	0x3aa4158a	0.0012518626
20	0x3bab4268	0.005226422
21	0xbb97fe46	-0.004638466
22	0xbbbbf42e	-0.0057358956
23	0x3c388943	0.0112631945
24	0xbb8c349a	-0.0042787315
25	0x3b46eed7	0.0030354762
26	0xbba08cb9	-0.004899588
27	0xbb9df578	-0.004820522
28	0xbba0bafd	-0.0049051032
29	0xbb9a1c64	-0.0047030915
30	0xbb9e85a8	-0.0048377104
31	0x3b7326d1	0.0037101994
32	0x3c418444	0.01181132
33	0xbbb03cf7	-0.0053783613
34	0x3b72695e	0.0036989073
35	0xbaefa222	-0.0018282572
36	0xbb9bd09e	-0.0047550937
37	0xbabbb65a	-0.0014321313
38	0x3c223e9b	0.009902622
39	0xbb9e4561	-0.004830048
40	0x3c151778	0.009099834
41	0xbbbcf3eb	-0.005766382
42	0xbb2c837e	-0.0026323493
43	0xbb929463	-0.0044732555
44	0xbb9ee8f6	-0.0048495485
45	0xbbaac24d	-0.0052111507
46	0xbb9e6d14	-0.0048347805
47	0xbb8a7a04	-0.004225971
48	0xbba0c46f	-0.004906229
49	0xbba19e79	-0.0049322215
50	0xbb9c88be	-0.004777043
51	0xbb9e541c	-0.004831804
52	0x3c5263e5	0.0128411995
53	0xbb9714ed	-0.004610649
54	0x3a34fb17	0.00069038704
55	0x3c316d5a	0.010829294
56	0x3bd693cc	0.0065483805
57	0xbba22c3a	-0.00494912
58	0x3c311a3f	0.01080948
59	0xbb981e54	-0.0046422873
60	0xba8858eb	-0.0010402476
61	0x3c05f83e	0.008176861
62	0xbb9f8406	-0.0048680333
63	0xbba00966	-0.004883933

gat_layers.1.lin.weight f4 [64, 64]
0	0x3e24ec72	0.16105822
1	0x3c95955b	0.018259695
2	0xbe2fc1c0	-0.17163754
3	0xbe506a32	-0.2035301
4	0x3e571b79	0.21006574
5	0x3d74daf1	0.05977911
6	0x3e313e5f	0.17308949
7	0x3b9a0734	0.0047005657
8	0xbe10ac13	-0.14128141
9	0x3db2dfa0	0.08734059
10	0x3e1afb3a	0.15134898
11	0xbdd0cb31	-0.10195006
12	0xbcaa5164	-0.020790763
13	0x3dc19e44	0.09454015
14	0xbe00f5f5	-0.12593825
15	0xbdaa1edd	-0.08306668
16	0x3e4aa687	0.19790088
17	0x3cfd29a9	0.030903654
18	0xbdebe329	-0.11517937
19	0xbe43645e	-0.19081256
20	0x3daa4ea4	0.08315781
21	0x3d52a1c8	0.051423818
22	0x3e563c37	0.20921408
23	0x3e3dcbfa	0.18534842
24	0x3db610fb	0.088899575
25	0xbe176528	-0.14784682
26	0x3c0421d9	0.008064711
27	0x3ce2eb8d	0.02770021
28	0x3d6347ae	0.05548828
29	0xbd430ab8	-0.047617644
30	0x3e2d5ab1	0.16929127
31	0x3d8f5341	0.06998301
32	0x3b819fa1	0.003955797
33	0x3e18f2b3	0.14936332
34	0xbd5d3a12	-0.05401046
35	0xbd739efd	-0.059477795
36	0xbcc33279	-0.023827778
37	0x3e5641e6	0.20923576
38	0xbcdb6ea4	-0.026786156
39	0xbd21d30a	-0.039507903
40	0xbe08bfb5	-0.1335438
41	0xbdcbc0e6	-0.09948902
42	0x3e32a175	0.17444403
43	0x3e23e556	0.16005453
44	0x3bcafa01	0.0061943536
45	0x3e5daea2	0.21648648
46	0x3e2e60d3	0.17029123
47	0x3cb07c0c	0.021543525
48	0xbd3aa2d7	-0.045565452
49	0x3b8d2e0d	0.004308468
50	0xbdd3d1b3	-0.10342731
51	0x3e32166b	0.17391364
52	0x3d9e0a96	0.07716863
53	0x3dcf03a0	0.10108113
54	0x3d86d1bf	0.06582975
55	0x3e4134e4	0.18867832
56	0x3bb524c7	0.005528066
57	0x3e2005a5	0.15627153
58	0xbddcccaf	-0.10781228
59	0xbda40480	-0.08008671
60	0xbbb89491	-0.005632945
61	0x3e4ddfa9	0.20104851
62	0xbe2c8995	-0.16849358
63	0x3e4aec20	0.19816637
64	0xbc2058c3	-0.009786787
65	0x3d80b373	0.06284227
66	0x3dbf67b3	0.09345951
67	0x3d7342cf	0.059389886
68	0xbc32e9d9	-0.010920011
69	0x3e3ea6e2	0.18618348
70	0xbc054f0c	-0.008136522
71	0x3d8d1505	0.06888775
72	0x3e578cc0	0.21049786
73	0x3dd9c0fc	0.10632512
74	0x3dbb57b5	0.09147588
75	0x3d16ca75	0.03681417
76	0x3d7c58d6	0.061608158
77	0x3d3b0e24	0.045667782
78	0x3d8737a8	0.066024125
79	0xbe14b628	-0.14522612
80	0x3e1598d1	0.14609076
81	0xbdc218de	-0.09477399
82	0x3d8c68b4	0.06855908
83	0x3aa4ae70	0.0012564193
84	0xbe1151f6	-0.14191422
85	0x3e027d58	0.12743127
86	0xbdbd3fe7	-0.09240704
87	0xbe1d433e	-0.15357682
88	0xbd44aa6e	-0.048014097
89	0xbe4fff0b	-0.20312135
90	0xbe2b4470	-0.16725326
91	0x3dd2ac21	0.10286737
92	0x3b4ec554	0.0031550722
93	0x3e326e07	0.17424785
94	0xbe41b0c0	-0.18915081
95	0x3e0da537	0.13832556
96	0x3e3a1ac8	0.18174279
97	0x3cad4acc	0.02115383
98	0xbd051b43	-0.032496702
99	0x3d810ad2	0.06300892
100	0x3c239a06	0.0099854525
101	0x3d73ac75	0.05949064
102	0x3db39d60	0.08770251
103	0xbdcb971e	-0.09940933
104	0x3dc9c985	0.0985289
105	0x3dc401db	0.095706664
106	0x3d1900e5	0.03735437
107	0xbe40886b	-0.1880204
108	0x3e1a6fde	0.15081736
109	0x3e22e769	0.15908588
110	0x3d296123	0.041352402
111	0xbe0eed40	-0.13957691
112	0x3dfe5bf4	0.124198824
113	0x3e5a7df2	0.21337107
114	0x3e50f384	0.20405394
115	0x3da9ccec	0.08291039
116	0x3c8ab088	0.01692988
117	0x3e566080	0.2093525
118	0xbca88fea	-0.020576436
119	0x3dfb3ff4	0.122680575
120	0xbd3efa4c	-0.04662542
121	0x3e1015ae	0.1407077
122	0xbd49934d	-0.049212743
123	0x3db453f9	0.08805079
124	0x3e3fa93d	0.18716903
125	0x3dde07cd	0.10841332
126	0x3e0162ea	0.12635389
127	0x3dffad9c	0.12484285
128	0xbe047ac5	-0.12937458
129	0x3e5b2d4b	0.21403997
130	0xbdc3b62c	-0.09556231
131	0xbdce92ed	-0.100866176
132	0x3dfb754a	0.122782305
133	0x3d7f1673	0.06227727
134	0xbe177070	-0.14788985
135	0xbe36e43d	-0.17860503
136	0x3e0939a0	0.13400888
137	0xbe4773c9	-0.19477762
138	0x3df51af1	0.11968029
139	0x3d20608a	0.039154567
140	0x3dc9a7fd	0.09846494
141	0x3de89028	0.113556206
142	0x3d00fcc5	0.03149106
143	0xbd91c85d	-0.071182944
144	0x3e307843	0.17233376
145	0x3e393d75	0.1808985
146	0xbaddc6c5	-0.00169202
147	0x3e4d8f98	0.20074308
148	0xbc83b970	-0.016079634
149	0x3dfaeb26	0.12251882
150	0x3e5d7285	0.21625717
151	0xbe1b11b7	-0.15143476
152	0xbe22f333	-0.15913086
153	0xbe1ebeda	-0.15502492
154	0x3d04bb2f	0.032405075
155	0x3e056ae4	0.13029057
156	0x3ddd04b1	0.107919104
157	0xbe572185	-0.2100888
158	0xbb546d66	-0.003241384
159	0x3e04821c	0.12940258
160	0xbd2acd96	-0.04169997
161	0x3e4ca1f9	0.19983663
162	0x3e3d5160	0.18488073
163	0xbe59e5ca	-0.21279064
164	0xbe05fea4	-0.13085419
165	0xbe59d6ec	-0.21273392
166	0x3e52af3f	0.20574664
167	0xbe05816b	-0.1303765
168	0x3e4c0106	0.19922265
169	0x3e53476a	0.20632711
170	0xbda38de3	-0.07986047
171	0xbe21f83e	-0.15817353
172	0x3e4eb533	0.2018631
173	0x3e166c73	0.14689808
174	0x3cf63f43	0.030059462
175	0xbe4d9547	-0.20076476
176	0xbe439d97	-0.19103085
177	0xbcfc409a	-0.030792523
178	0xbe0acdd5	-0.13555081
179	0xbd44233a	-0.047885157
180	0xbe5b495f	-0.21414708
181	0x3e06df54	0.1317113
182	0xbc041320	-0.0080612
183	0x3d905622	0.070476785
184	0x3db6ff38	0.08935398
185	0xbe24f75f	-0.1610999
186	0xbdc8d269	-0.098057576
187	0x3dcc6b93	0.09981456
188	0xbc6c474a	-0.0144212935
189	0x3e1f4e68	0.15557253
190	0xbc4316dc	-0.011907306
191	0xbd74a585	-0.059728164
192	0xbd958cbc	-0.073022336
193	0xbe0362aa	-0.12830606
194	0xbdb0e4a9	-0.086373635
195	0x3e11f8ec	0.14255112
196	0x3e457b39	0.19285287
197	0xbe531c38	-0.20616233
198	0x3e43f2af	0.19135545
199	0xbdd0e684	-0.10200217
200	0xbb918e64	-0.004442023
201	0x3e0aef92	0.13567951
202	0x3d3a9862	0.04555548
203	0x3da6a043	0.08136036
204	0xbb65b335	-0.0035049443
205	0x3e3ae1d1	0.18250205
206	0x3d21d7e9	0.03951255
207	0xbd9d2778	-0.07673544
208	0x3e2410bd	0.1602201
209	0x3dd300d3	0.103028916
210	0xbe4430b7	-0.19159208
211	0xbd593ffa	-0.05303953
212	0xbe4353ce	-0.19074938
213	0x3d0ffd03	0.0351534
214	0xbd9e9841	-0.07743884
215	0x3d86868f	0.06568634
216	0x3e5b0b63	0.21391062
217	0xbd48bb3e	-0.049006693
218	0xbe36c2e0	-0.17847776
219	0xbe16c2f4	-0.14722806
220	0xbe4805d8	-0.19533479
221	0xbe0b6b9d	-0.1361527
222	0x3c2c2541	0.010506929
223	0x3e383a32	0.1799095
224	0x3d1c9a54	0.038233116
225	0xbb5ecb0f	-0.0033995544
226	0x3e151b45	0.14561184
227	0x3dcb54de	0.099282965
228	0xbd8a621d	-0.06756995
229	0xbdc9a0c3	-0.09845116
230	0xbc03f834	-0.008054782
231	0x3d3539a2	0.044244416
232	0xbe0204eb	-0.12697189
233	0x3d4f76a1	0.050650243
234	0x3e419c5c	0.18907303
235	0xbb3de757	-0.0028977
236	0xbde7c8a6	-0.113175675
237	0xbddcfc09	-0.107902594
238	0xbd77fe6e	-0.060545377
239	0xbdfc1b92	-0.12309946
240	0xbda09b4d	-0.07842121
241	0x3c862448	0.016374722
242	0xbe06e35e	-0.13172671
243	0x3e47cf49	0.19512667
244	0x3c57a434	0.013161708
245	0x3e3f812a	0.18701616
246	0x3d080c8f	0.0332151
247	0x3e361948	0.17783082
248	0xbd9fae88	-0.07796961
249	0x3c3ba759	0.011453473
250	0x3e318ac2	0.17338088
251	0xbe07391e	-0.13205382
252	0x3dcbdcb7	0.099542074
253	0xbd54b31b	-0.05192862
254	0xbd9d9afa	-0.07695575
255	0xbdcfbdbb	-0.1014361
