models/best_fraud_model_seed_9876.pth (torch, 378242 bytes, 45 tensors)

node_emb.weight f4 [64, 8]
000000 c0 39 1b be e9 4f d0 bd 7b e0 28 be 1f c7 e7 3c
       -0.15158749 -0.10171492 -0.16491883 0.02829319
000010 d3 a1 a9 3e 6d 77 3b 3d 34 a3 42 be bf d2 e4 bd
       0.33131275 0.04576819 -0.1900757 -0.11173009
000020 08 d8 08 be 6a b3 07 3e e9 5b 00 3e 53 71 72 3e
       -0.1336366 0.13252035 0.12535061 0.23676042
000030 56 57 8d bd 36 08 88 be 22 c7 59 3d ff e0 8d be
       -0.06901424 -0.26568764 0.053168423 -0.2771072
000040 35 7a d0 bd 66 32 34 3e 65 be 8a 3e 5c 4c 9d 3e
       -0.10179559 0.1759735 0.27098384 0.3072232
000050 b2 17 1f 3e f4 d7 53 3e 04 04 3b bd c3 56 3a be
       0.15536383 0.20687848 -0.045658126 -0.1819716
000060 0f 1e 4b 3e 37 35 8f bd b5 13 d7 bc 33 0e 2f bd
       0.19835685 -0.06992572 -0.026254514 -0.04273815
000070 9c 23 5f be 88 8f f8 bc fd 0e 16 3d 83 91 83 3e
       -0.21790928 -0.030341879 0.036635388 0.25696954
000080 65 79 e3 bd cb 88 29 3e da f7 ac 3e cd d0 37 3e
       -0.111071385 0.16556089 0.33782846 0.17950745
000090 55 a1 8f be d1 e6 9c 3e 41 38 11 bd da 77 90 3e
       -0.28052774 0.3064485 -0.03545404 0.2821644
0000a0 dc 58 22 be 10 f0 9f bb 80 61 99 3c 2b c2 18 3e
       -0.1585421 -0.0048809126 0.01872325 0.14917819
0000b0 46 73 c3 3d e3 d3 b5 bb 56 9b f5 3d c0 f9 8d 3e
       0.09543471 -0.0055489405 0.119925186 0.27729607
0000c0 32 77 7e 3e a6 bf ae 3e 2f e0 80 be 8a f6 83 3e
       0.24850157 0.3413059 -0.25171039 0.25774032
0000d0 e2 db ef 3d ea 78 19 3d ee 75 43 3e 08 04 ee 3c
       0.11711861 0.03746883 0.19087955 0.029054657
0000e0 44 2c 2a be 5e 31 e4 bd 7f 5a 70 3e c3 d3 0f 3e
       -0.16618448 -0.111422285 0.23472022 0.14045624
0000f0 6b 6c 7e be 64 84 8d be 35 64 7a 3e 23 1f 78 be
       -0.24846046 -0.2764007 0.24452288 -0.24230628
000100 e6 62 77 bd a8 da 02 3e 87 e1 65 3c f5 8c 0f be
       -0.06039705 0.12778723 0.014030821 -0.14018615
000110 46 82 5c be ac 34 96 be 19 9f 93 bd 58 5f e7 bd
       -0.2153407 -0.2933706 -0.0720808 -0.11297482
000120 0d bc 93 be 41 ec a3 be a1 23 68 3e 49 14 e7 bc
       -0.2885441 -0.32016185 0.22669841 -0.028207915
000130 4c de 6a 3e e0 72 66 3d 94 16 f4 bd 8a 7b 7b 3e
       0.22936362 0.056261897 -0.11918369 0.24558845
000140 52 1f f4 3c 52 9e 70 be a7 c3 53 be a4 5b 25 3d
       0.029800091 -0.23497894 -0.20680104 0.0403706
000150 35 d5 9e 3d 65 0a a7 bd bd 16 41 3e c8 b4 c9 3d
       0.0775551 -0.081562795 0.1885633 0.098489344
000160 df af 52 be 9f a5 b1 be 71 a7 f9 bd ae e9 15 3e
       -0.20574902 -0.3469667 -0.1219014 0.14639923
000170 99 85 98 3e aa d2 93 3e 1a de 35 be 57 b0 36 be
       0.29789427 0.2887166 -0.17760506 -0.17840706
000180 a2 9e b2 3e 20 f8 03 3e 66 ea 90 3d 8f a4 fb 3d
       0.34886652 0.12887621 0.07075958 0.122872464
000190 64 a0 81 be 71 d7 0a be bc a7 bb bd fb f9 a0 3e
       -0.2531768 -0.13558747 -0.09162852 0.3144072
0001a0 f6 66 be 3d 19 d6 2d 3e d6 ce 37 be 77 52 b5 be
       0.09296982 0.16976203 -0.17949995 -0.35414478
0001b0 2c 67 9b be 83 eb 60 be d0 4a 87 be d6 d0 50 3e
       -0.3035215 -0.2196484 -0.26424265 0.20392165
0001c0 dd 72 b0 3d 78 f7 87 be 09 c5 e1 3d 0f 0f 28 3e
       0.086156584 -0.2655599 0.110239096 0.16411994
0001d0 86 5d 60 bd e6 f9 2a be 77 92 b1 be 9f d0 8b 3e
       -0.05477669 -0.16696891 -0.34682056 0.27307603
0001e0 6b 47 94 3e 60 f1 89 be 21 19 53 bd ab 33 92 bd
       0.28960738 -0.26941967 -0.051537637 -0.07138761
0001f0 6d 42 44 bd cc fb 2f 3e 1b 46 14 3d dc b5 19 be
       -0.04791491 0.17185897 0.03619967 -0.1501078
000200 2f 14 93 bd a8 aa 58 3e 72 d1 72 3e 7d 19 e3 3d
       -0.07181584 0.2115885 0.2371271 0.11088846
000210 cd 08 b4 3e 63 8a 29 3e 21 04 11 3e 87 33 11 be
       0.35162964 0.16556697 0.14161731 -0.14179812
000220 c8 8c db bd 24 32 01 3c 2b 99 0d 3e a8 31 be bc
       -0.10720211 0.00788549 0.1382796 -0.023217037
000230 1d 9b df 3c d1 c2 26 3d cf 07 81 3e c3 96 36 3d
       0.027295643 0.040713135 0.2520127 0.04457737
000240 6f eb 89 bc 79 f3 f0 bd a9 6c 36 3e e7 4d bc bd
       -0.016835896 -0.11765189 0.17814888 -0.09194546
000250 a5 05 18 3e b5 69 91 bd ad 9b 82 bc 64 f7 a3 3e
       0.14845903 -0.0710024 -0.015943373 0.32024682
000260 28 bb 92 bd ec a2 0c be 83 93 75 3e f9 6e f3 3d
       -0.071646035 -0.13734025 0.23982053 0.11886401
000270 b2 af 4e be 6e d4 77 3e 44 e7 6a be 7f 65 91 be
       -0.2018421 0.24202129 -0.22939783 -0.28397748
000280 90 7c 5f 3e 27 be 8a 3e 88 71 8e be d2 2b 98 bc
       0.2182486 0.270982 -0.27820992 -0.018575583
000290 f9 4c 32 3e ec e0 ff 3d 01 1a 5c be 89 0a 29 3e
       0.17412175 0.12494072 -0.21494295 0.16507925
0002a0 95 25 17 3e 01 df c7 3d ca 57 8f 3a c6 c7 6f 3e
       0.1476043 0.097593315 0.0010936197 0.23416051
0002b0 a4 0a 3d be e7 98 3a bd 1d 8b 19 be d3 1e c7 3d
       -0.1846109 -0.045555975 -0.14994474 0.09722676
0002c0 11 ad 38 3e b6 c0 19 3e 9b 8f 5a be cc 77 a7 be
       0.1803477 0.1501492 -0.21343844 -0.32708585
0002d0 a9 de 68 bd 1b 99 8a be 93 90 23 3d 10 d2 a8 bc
       -0.05685297 -0.27069935 0.0399328 -0.020607978
0002e0 7d ab a8 be 0b c3 3c 3e 3a b5 b4 bd 1b 6a ee bd
       -0.32943335 0.18433778 -0.08823629 -0.11641332
0002f0 93 30 b4 3e a1 5f fc 3d ae 3a 33 be f3 db 15 be
       0.3519331 0.12322927 -0.17502853 -0.14634685
000300 9f 06 29 3d 07 20 48 be 5b 1b 7e 3e aa ef 5b 3e
       0.04126608 -0.19543467 0.24815123 0.21478143
000310 82 04 96 3e 67 95 65 3e e4 86 a0 be 77 fe 3e 3e
       0.29300314 0.22420274 -0.31352913 0.18651758
000320 30 d3 84 3d 66 c4 9a be 68 c3 0c bd 73 f9 66 be
       0.06485593 -0.30227965 -0.03436604 -0.22556095
000330 d2 b8 5b 3e 62 e6 2f 3e f6 68 89 3e 6f 49 61 3c
       0.21457222 0.17177728 0.2683789 0.013750418
000340 ea 85 81 3e 72 bf ac 3e b7 51 74 3e e5 b6 98 be
       0.2529748 0.3373981 0.23859297 -0.29827037
000350 ff 8e 6c 3e 09 fb 03 bd 3b d9 5e be 90 d8 ea bc
       0.23101424 -0.032221828 -0.21762554 -0.028667718
000360 a5 20 18 3e be 20 92 bd af 02 74 be 30 26 2c be
       0.14856203 -0.07135151 -0.23829149 -0.16811442
000370 83 9c 59 3e b4 16 04 3e 1f 3e 8a be 70 ae 98 be
       0.2125111 0.12899286 -0.2700052 -0.29820585
000380 84 72 6e 3e 75 26 f0 bd 5f dc 98 3e 27 2e a9 be
       0.23285872 -0.11726085 0.2985563 -0.33043024
000390 f8 9c 99 be b5 5a 23 3e da e2 68 3e 93 ee 4e be
       -0.3000257 0.1595257 0.22742787 -0.20208196
0003a0 2c c8 9f bd aa 93 aa be 92 04 e3 bb d4 08 60 be
       -0.07801852 -0.33315784 -0.006928035 -0.21878368
0003b0 21 fe ac 3e 04 f0 71 3e b4 99 3d bd 8f 14 ad be
       0.33787635 0.23626715 -0.04628916 -0.33804747
0003c0 9c 53 09 3e 99 ca 94 3e c6 0d a4 3e 33 d9 2f be
       0.134108 0.2906082 0.32041758 -0.17172699
0003d0 e2 88 0e 3e bb d8 a1 bc 36 a8 01 3d c1 74 97 3e
       0.13919404 -0.019756665 0.03165456 0.29581264
0003e0 f7 b6 67 3e 5e 9a 2c 3e c6 d0 ad 3e 09 3e 2b 3e
       0.2262839 0.16855761 0.33948344 0.16722883
0003f0 2c ed 3c bc 89 f4 aa 3d a0 0a 92 3e 30 7f 4f be
       -0.011531156 0.08347423 0.2852373 -0.20263362

node_emb.bias f4 [64]
000000 0c 19 b0 3e ce d7 88 3e 36 89 70 bd 92 bb 93 3e
       0.3439411 0.26727146 -0.058724605 0.28854042
000010 c8 35 91 bd 12 ff 8a 3e 3c fe 00 bd 4b 60 9f bd
       -0.07090336 0.27147728 -0.031492457 -0.07782038
000020 89 b0 4f 3e 35 b8 6e be 75 be 89 3e 95 49 16 be
       0.20282187 -0.23312457 0.2690312 -0.14676507
000030 36 a2 31 3e 16 3e b0 be 63 7f 41 be b3 9b a0 bd
       0.17347035 -0.34422368 -0.1889625 -0.07842197
000040 c4 d3 98 3e 71 5a 01 3e 10 a3 44 3e 37 2b ac 3e
       0.29849064 0.12632157 0.19202828 0.3362672
000050 16 3c 37 be eb ce d4 3d cf ec 4c 3e c5 b9 17 3e
       -0.17894015 0.10391029 0.2001221 0.14816959
000060 0c 7d b7 bb 3d e4 68 be b2 90 c3 3d 63 bc 22 bc
       -0.0055996235 -0.22743316 0.09549083 -0.00993261
000070 fb 6a b0 3d 49 8a 4a bd 91 46 85 bd a9 d4 54 bd
       0.08614155 -0.049448285 -0.065076 -0.05196062
000080 7b cd 01 be ee 1b 8f 3e 80 f1 f9 bd 59 ca f1 bd
       -0.12676041 0.27950996 -0.122042656 -0.11806173
000090 8a 6b 4a bc 40 f4 a6 3e 44 26 88 be 70 14 96 be
       -0.012354741 0.32608223 -0.26591694 -0.29312468
0000a0 ab c9 05 be c3 e4 31 3d cc 3e 81 3d 65 e8 8f 3d
       -0.13065211 0.043431055 0.06310806 0.070267476
0000b0 3e 8a 38 be 71 36 9e be e3 da a6 be 15 d9 65 bc
       -0.18021485 -0.3090091 -0.32588872 -0.014028807
0000c0 11 dd a2 3e 47 b7 6e be 73 bf 2b be 67 59 04 3e
       0.31809285 -0.23312102 -0.16772251 0.1292473
0000d0 65 5b 70 be f0 cf d7 3d d0 87 9a be b2 19 7a 3c
       -0.23472364 0.10537708 -0.30181742 0.015264915
0000e0 07 e7 a9 be af f8 4c 3e f2 7e ae bd 57 48 a6 3d
       -0.33184072 0.2001674 -0.08520307 0.081192665
0000f0 93 37 a4 3e a8 c4 a9 3e 2d e3 a1 bd a8 dd 85 be
       0.3207365 0.3315785 -0.079046585 -0.26145673

edge_emb.weight f4 [64, 2]
000000 b9 80 e4 be f0 56 b6 3e d0 38 b3 bc 52 ef 96 bd
       -0.44629458 0.35613203 -0.021877676 -0.073698655
000010 cc a8 17 3f 19 b4 82 be 91 52 a9 3e 60 32 04 bf
       0.5924194 -0.2552803 0.33070806 -0.51639366
000020 7e 90 db 3e 27 5b 91 3d e9 3d f5 be bd d8 30 3f
       0.42883676 0.07097464 -0.47898796 0.69080716
000030 69 a2 ed 3d 7e c5 0b 3f eb 53 a5 be 4a af 25 3f
       0.11603243 0.54598224 -0.32290587 0.64720595
000040 39 49 d9 3d 64 9b b0 be 81 0d d5 be 1a 1b cc 3e
       0.10609669 -0.34493554 -0.41611865 0.39864427
000050 cb 05 5d 3d 60 d8 f6 be 79 49 4b be 4c 0d 40 be
       0.053960603 -0.48211956 -0.19852246 -0.18755072
000060 02 0d 22 bf cb 51 ae 3e a3 5c c0 3d 0b 0a 0a 3f
       -0.633011 0.34046778 0.09392669 0.53921574
000070 d9 84 19 3f f8 25 1f bf 21 4b 35 be e6 00 bd 3e
       0.59968334 -0.6216731 -0.1770444 0.36914748
000080 c6 bb cd be bb fe 0f bf d4 5c db be e6 7b c3 3e
       -0.40182322 -0.5624806 -0.4284426 0.38180465
000090 2c bc a5 3e 03 08 8b 3e 41 99 3a be 68 d9 c0 bc
       0.32370126 0.2715455 -0.18222524 -0.023541167
0000a0 91 8a 20 bf 85 e2 1d 3f 69 a6 19 3f 68 67 1b bf
       -0.62711436 0.61673766 0.60019547 -0.6070466
0000b0 9b 0f fa 3e f2 10 dd 3e 34 0d 24 3f 78 a9 c8 3e
       0.4884003 0.4317699 0.64082646 0.39191794
0000c0 fa ad 34 bf 05 1f 6b 3e d3 a4 bd bd 47 c1 bc 3e
       -0.7057797 0.22961052 -0.09259953 0.3686621
0000d0 a7 b1 27 3f e8 67 ea be b7 37 8c 3e 15 17 2f 3f
       0.6550545 -0.457824 0.27386257 0.68394595
0000e0 18 7d ff 3e c0 f8 8a 3e 79 46 cd 3e 34 c9 c6 3e
       0.49900126 0.27142906 0.4009283 0.3882538
0000f0 68 ea d5 be 20 b3 60 bd 89 e7 0e 3f 0a 3a a8 3e
       -0.417804 -0.054858327 0.55822045 0.3285678
000100 11 ed b0 be b9 44 0c 3f 2c 6e b4 be 17 ec e4 bd
       -0.34555867 0.5479236 -0.35240304 -0.11177843
000110 e5 bc 43 3e 40 37 09 3e 68 41 c4 3e 73 bf 31 3f
       0.19115026 0.13399982 0.3833115 0.69432753
000120 d2 0b c4 be 9b 6c c5 3d c0 18 85 3e 70 d3 53 3e
       -0.38290268 0.096398555 0.25995445 0.20686126
000130 1b 0a 03 bf 4f f5 4b bd 36 99 9d be da b3 7f be
       -0.51187295 -0.04979449 -0.30780953 -0.24970952
000140 2e b6 56 bd bf be 07 3f 4e 5c 84 3e c0 d8 ab be
       -0.052419834 0.5302543 0.25851673 -0.33563805
000150 0e fc 22 3f 8b ca bc be ed 56 d2 be 5e ef 2b bf
       0.63665855 -0.36873278 -0.41081944 -0.6716212
000160 b3 4f 18 3f c3 0b bc 3c 5b 5c 99 bd d0 41 d9 3e
       0.5949661 0.022954827 -0.074883185 0.42433023
000170 c9 20 2e bf 61 dc b0 3e f9 68 31 3f ec bd 8c be
       -0.68018776 0.34543136 0.693008 -0.2748865
000180 40 9e 2b bf d4 0d 0c be c7 0a b6 be 30 eb ed be
       -0.67038345 -0.1367715 -0.35555097 -0.46468496
000190 35 20 9e 3e a5 b6 2c 3f a2 0f 0d bf 54 91 28 bf
       0.30883947 0.67466193 -0.5510198 -0.65846753
0001a0 5a 3e 1c 3f 9e a1 34 bf df fe 32 3b 20 30 13 be
       0.6103264 -0.7055911 0.002731256 -0.14373827
0001b0 b2 e5 a8 bd ce dc 0a 3e a0 93 0b be 73 b5 a6 3e
       -0.08246936 0.13560793 -0.13630533 0.3256031
0001c0 a0 ca 1a 3f 46 a5 1d bf 5b cc ac be a8 b5 ba bd
       0.6046543 -0.6158031 -0.3374966 -0.091166794
0001d0 77 6f bb bd c3 f6 fd be 6e b1 6d 3e 2a 58 01 3f
       -0.091521196 -0.49602327 0.23212215 0.5052515
0001e0 fc ee 11 3f 0c 0b a9 3e 86 18 21 3b 77 35 37 3e
       0.57005286 0.3301624 0.0024581267 0.17891489
0001f0 4d 93 9c be c5 1c 73 3e 56 d5 3d be 97 d1 14 3f
       -0.30581132 0.23741443 -0.18538412 0.5813231

edge_emb.bias f4 [64]
000000 2e 7e 97 3e 49 94 bc 3e 1a f7 95 be 88 02 8e be
       0.29588455 0.36831883 -0.29290086 -0.27736306
000010 27 bd 0c 3e 3e a8 7b 3e 27 56 02 bf 53 15 e7 be
       0.13744031 0.24575898 -0.5091271 -0.45133457
000020 b3 ff 06 bf 24 14 91 be 5b 3d eb 3e 1f 02 91 bd
       -0.52733916 -0.2833568 0.45945248 -0.07080483
000030 ec b2 1c bf fa 48 df 3d b7 8d 30 3c 92 eb fa 3e
       -0.61210513 0.10902591 0.010775975 0.4900785
000040 d0 9f 03 bf 91 b0 79 3e 88 bd 31 bf af fe df 3e
       -0.5141573 0.24383761 -0.69429827 0.43748996
000050 5c f5 03 3f 59 c3 69 bd a5 a4 05 3f aa 62 03 3f
       0.51546264 -0.057071064 0.5220435 0.51322424
000060 c2 c6 17 bf b1 d2 ce 3e bb 27 15 bf 11 89 5e be
       -0.59287655 0.4039512 -0.5826375 -0.21731974
000070 18 57 e5 be 95 6e d9 be 9d 82 0b be 89 03 1c be
       -0.4479301 -0.4246718 -0.13624044 -0.15235724
000080 c5 d7 81 be 84 ec 0b bf e8 c2 82 be 33 57 d0 be
       -0.25359932 -0.5465777 -0.25539327 -0.40691528
000090 b4 45 07 3f 80 72 72 be c9 66 1c 3e 54 82 02 bf
       0.52840734 -0.23676491 0.15273584 -0.50980115
0000a0 04 10 b1 3e 83 06 0e bf c4 d7 bd 3e 95 a7 14 bf
       0.3458253 -0.55478686 0.3707868 -0.5806821
0000b0 36 bd c7 3e f8 df f8 3e 6b 54 2c 3f 15 bc 1f bf
       0.39011544 0.48608375 0.6731631 -0.62396365
0000c0 7a 02 1b 3f 56 bb cb 3e 37 ee 23 3f 95 3f de be
       0.60550654 0.39791363 0.6403536 -0.43407884
0000d0 24 8e c5 be 40 9d 1f 3f 11 96 80 be 7b c2 d5 3d
       -0.38585007 0.6234932 -0.25114492 0.10437485
0000e0 ba 12 04 3f 7b 04 d7 be 6f 7f db be 28 dd 09 bf
       0.51591074 -0.41995606 -0.42870662 -0.5385308
0000f0 f8 0d 7e be bb 6c 4f 3e 27 f0 68 be 7d df 89 3e
       -0.24810016 0.20256321 -0.22747861 0.2692832

gat_layers.0.att_src f4 [1, 4, 16]
000000 68 e5 52 be 29 4a e5 bd 20 a0 c2 be b2 98 91 3d
       -0.20595324 -0.111957856 -0.3801279 0.071092024
000010 69 9a 17 3e 97 71 f9 bd 07 22 00 3f 7d b3 a6 be
       0.14804997 -0.12179869 0.5005192 -0.32558814
000020 28 a3 0a 3f e7 3c 9f be 46 ce 7d bd 30 b4 4f bd
       0.54155207 -0.31101152 -0.061964296 -0.05070895
000030 0e 4b 47 3e d2 2b 4c 3d 94 58 19 be d2 cf 31 be
       0.19462225 0.049846478 -0.14975196 -0.17364433
000040 e5 5f b8 3e 86 74 a7 3e 3b 61 a1 bd c5 30 a0 bd
       0.36010662 0.32706088 -0.07879873 -0.07821802
000050 76 c4 92 3d 08 42 5e bd 19 c4 0a 3f 3e 1f 30 3e
       0.07166378 -0.05426219 0.5420547 0.17199418
000060 c3 dc 98 3d ff e7 04 bf 0a 10 bd 3d 00 82 6a be
       0.07463982 -0.519165 0.09231575 -0.22901154
000070 2f f7 3a bc b3 8a 9d be 4c 75 95 3e 2a b0 e9 be
       -0.011411472 -0.30769882 0.29191053 -0.45642215
000080 5c e9 4b be 32 b5 31 be a1 97 8c 3e 83 a4 06 bf
       -0.19913238 -0.17354277 0.27459434 -0.52594775
000090 7a 7c 21 be 0d 80 c8 3e 74 0d 07 3f fe 59 ed 3e
       -0.1577014 0.39160195 0.527549 0.4635772
0000a0 97 e8 9c be b3 cb 75 be 3b 3a dd 3e fb ef 82 be
       -0.30646202 -0.24003486 0.4320849 -0.25573716
0000b0 21 db 6c 3e 65 28 c3 3e d4 92 8f bb 80 3f 07 bf
       0.23130466 0.38116756 -0.004381517 -0.5283127
0000c0 ef 84 f3 3e c5 f8 54 3e f7 70 c3 3d 35 87 cc 3e
       0.47562358 0.20798023 0.09543031 0.39946905
0000d0 6a b8 f9 3e 0f 44 94 3e bb 7e a7 3e 83 e0 fd 3e
       0.4877351 0.28958175 0.32713875 0.4958535
0000e0 15 46 db be 64 d7 1e be b6 93 b5 be dc 23 3b be
       -0.42826906 -0.15511853 -0.35464257 -0.18275398
0000f0 2c ba af be d1 32 02 3f 44 9b 49 be 11 f7 b5 be
       -0.34321725 0.5085879 -0.19688135 -0.3554006

gat_layers.0.att_dst f4 [1, 4, 16]
000000 e9 03 0e be c4 0c dd be 2f e4 fb bd c1 60 4c 3e
       -0.13868679 -0.43173802 -0.12299382 0.19958784
000010 d4 f3 a0 be e8 a2 bb be 12 47 91 3e a2 70 8a 3e
       -0.31436026 -0.36647725 0.28374535 0.27039057
000020 dc fd 49 bc 0a 1e 4c 3e 02 11 e4 3e 8e 19 a1 be
       -0.012328591 0.19933334 0.44544226 -0.3146481
000030 1d 7c ca 3d 0d 28 f3 3e 46 2d 4c bd 74 38 2d be
       0.09886954 0.47491494 -0.049847864 -0.16916066
000040 fd a2 e6 3e c8 ca 51 be 47 c2 e8 3d 9e 3a 48 be
       0.45046225 -0.20487511 0.113651805 -0.1955361
000050 4e ab cc 3e bb d7 ec be cc ea cc be 8c ae 4c be
       0.39974445 -0.4625834 -0.40022886 -0.1998846
000060 f8 ea 1a be 1a 06 2d be 18 24 5e 3e 19 a4 91 be
       -0.15128696 -0.16896859 0.21693456 -0.2844551
000070 ee ba b5 3e 8d ac 31 3e a1 d3 95 be 3d dc 03 3f
       0.3549418 0.17350979 -0.29263023 0.5150793
000080 59 1e d9 3e 8f 1a 26 bd 82 61 14 3e 3d 1f 0a bf
       0.42405966 -0.040552672 0.14490321 -0.53953916
000090 83 4b 0a bf 36 99 8b 3e 79 3b c3 be 15 94 ac be
       -0.5402147 0.27265328 -0.38131312 -0.33706728
0000a0 38 36 c8 3d 47 f7 3c be 0a 7d 01 3f 66 5f f0 bd
       0.097759664 -0.18453704 0.5058142 -0.11736946
0000b0 29 92 86 3d e9 4e 00 bf bb 26 c4 be dc f8 43 3d
       0.065708466 -0.5012041 -0.383108 0.047844753
0000c0 c7 6b fa be 70 01 8d be cf 0f 0a bf f9 4c 07 3e
       -0.48910353 -0.2754016 -0.5393037 0.13212956
0000d0 a1 ef 13 3e 10 ff f2 bd 35 4a d9 be 12 f5 6c 3e
       0.1444688 -0.118650556 -0.42439428 0.23140362
0000e0 d3 34 b4 be 03 92 63 3e 57 1a b6 bd 2d 39 b5 be
       -0.35196552 0.22223668 -0.08891743 -0.35395184
0000f0 84 9f 9b 3d 47 96 00 bf c3 f0 04 3f 8c 11 3e 3e
       0.075987846 -0.50229305 0.51929873 0.18561381

gat_layers.0.att_edge f4 [1, 4, 16]
000000 c9 e3 dd 3e cc bb c6 3e 4b 11 94 3d 90 3a e3 3e
       0.4333785 0.38815153 0.07229861 0.44380617
000010 32 71 c0 bc ff 5b f1 3d ee 60 6b 3e 25 12 fe 3e
       -0.023491476 0.11785125 0.22986194 0.49623218
000020 66 fb 86 be d2 f6 d5 be 5e e1 07 3f 8f 9d 6e 3e
       -0.26363677 -0.4178987 0.5307826 0.23302291
000030 3b e7 b9 be 08 4c a5 bd d0 70 e9 3d 6f 34 a0 3e
       -0.36309227 -0.080711424 0.113984704 0.31290004
000040 0b bf 88 3d 95 b1 ef 3d d5 50 37 bd 0e c5 72 be
       0.066770636 0.11703793 -0.04475482 -0.23707983
000050 cd fd c3 be 8b a4 b0 3e f9 79 74 3d ff 68 a5 3d
       -0.38279572 0.34500536 0.059686635 0.08076667
000060 ba 27 04 bf 2e 3a 53 bc 27 2e 1c be f5 07 b9 be
       -0.5162312 -0.012892289 -0.1525198 -0.36138883
000070 bd 86 fe 3d f7 42 09 be 31 de 52 bd 59 57 c7 3e
       0.12428043 -0.13404451 -0.05148143 0.38933828
000080 3f 29 29 be f9 28 d8 3e 17 b9 09 bf 8e 97 d4 3e
       -0.1651964 0.4221876 -0.5379805 0.41521877
000090 f1 a2 dc be b8 04 53 3e f1 d5 7c 3e 0a 9c ce be
       -0.43093064 0.20607269 0.24690987 -0.40353423
0000a0 93 89 af 3e ae bc 16 3c d7 6c ed be ac 05 e1 be
       0.34284648 0.009200258 -0.463721 -0.4394964
0000b0 ff 04 cc 3b aa 48 fc be 49 76 f1 3e e7 97 0c 3e
       0.0062261815 -0.49274188 0.47160557 0.13729821
0000c0 ee 01 4b bd f5 4b 5f be f3 91 9a 3e 9b ce e1 bd
       -0.049562387 -0.21806319 0.30189475 -0.11025735
0000d0 99 33 bc 3e 3d 81 f1 3e ef d5 02 3f 06 e2 78 be
       0.36758116 0.47168913 0.51107687 -0.24304971
0000e0 27 e3 ca 3e b0 dc b9 be 89 29 5f 3e 63 07 38 3c
       0.39626428 -0.36301184 0.21793188 0.01123223
0000f0 26 a8 a3 bd 34 4a 2a be ca 29 7c 3e 4f ca 04 3f
       -0.07991056 -0.16629869 0.24625316 0.518712

gat_layers.0.bias f4 [64]
000000 a2 56 91 3b b5 8c e4 b9 2b 03 66 3b 8b 0a ac 3b
       0.0044353763 -0.00043592384 0.0035097103 0.0052502803
000010 e9 de fe 3b b1 d4 05 3c 66 1d de 3a 57 2d c7 bb
       0.007778038 0.008168385 0.0016946017 -0.006078403
000020 f3 f9 ce bb f6 02 a2 3b 9a 36 ce bb 23 08 e4 3b
       -0.0063164174 0.0049442006 -0.00629313 0.006958978
000030 40 2e d4 3b bd 61 cf bb 5e 40 35 bb b1 1a 0c 3c
       0.00647524 -0.00632879 -0.0027656774 0.008551286
000040 ba 11 13 3c 1e d4 97 bb 5d 5a be bb 84 1c cc bb
       0.008976394 -0.0046334406 -0.005809112 -0.0062289853
000050 d2 8c b2 bb dd 3c 17 3c 2d fc cd bb 8d 97 cd bb
       -0.005448916 0.0092308195 -0.006286165 -0.00627417
000060 64 d6 c9 bb 60 91 01 3c eb 48 93 bb 69 21 fd 3b
       -0.0061595906 0.007908195 -0.0044947765 0.00772493
000070 8b 68 c8 bb 27 65 c5 bb 00 43 9a ba 1a 49 cf bb
       -0.006115978 -0.006024021 -0.0011769235 -0.006325853
000080 2e b9 1c 3c fa 81 94 bb 22 6a 5a bb 6b bb cd bb
       0.009565635 -0.004532096 -0.003332742 -0.0062784455
000090 43 6c cd bb 95 6c ce bb 51 2a c7 bb 93 63 cc bb
       -0.0062690093 -0.006299565 -0.0060780426 -0.006237456
0000a0 55 88 cc bb 82 73 2e bb fb 91 cd bb a2 32 9a bb
       -0.006241838 -0.002661914 -0.0062735057 -0.004705743
0000b0 92 aa 77 3a bc 67 c6 bb 1d 94 c7 bb d8 6f cd bb
       0.0009447719 -0.0060548466 -0.0060906545 -0.0062694363
0000c0 67 72 d0 bb 28 8c c0 bb 4a ab c0 bb 02 3e c0 bb
       -0.006361294 -0.005876083 -0.0058797942 -0.005866767
0000d0 3a 2a c1 bb 95 8a c0 bb 7e ab c0 bb 38 02 c3 bb
       -0.0058949264 -0.0058758953 -0.0058798185 -0.005951192
0000e0 b3 b1 9a bb 83 f5 d1 bb 27 d3 be bb e3 fe 61 bb
       -0.0047208904 -0.006407441 -0.005823511 -0.00344842
0000f0 08 13 bf bb 71 0a 86 ba fb 76 be bb ce 67 60 ba
       -0.005831126 -0.00102265 -0.0058125234 -0.000856039

gat_layers.0.lin.weight f4 [64, 64]
000000 9b 85 1b 3e 7a 4e cc bd 55 4b 33 3b b8 0e f0 bc
       0.15187685 -0.09975906 0.0027358134 -0.029303893
000010 f3 e2 6e 3d df 14 12 3e 1e 41 ff 3d d8 f7 45 be
       0.058321904 0.14265774 0.12463592 -0.19332826
000020 da 0f 31 be 5d b2 bd bc 6b ff 55 3d ac d6 26 be
       -0.17291203 -0.02315634 0.05224554 -0.16292828
000030 7f 77 36 bd ee 0f 5c be 81 73 b2 3d e6 39 ac bd
       -0.044547554 -0.21490452 0.08713437 -0.08409481
000040 ae 4b 40 be d1 d1 5c 3e 22 af 19 3e 78 9c 2a be
       -0.1877887 0.21564414 0.15008214 -0.1666125
000050 4f 8d cd bd da 7e a1 3c ad 94 89 3d be c5 4c 3e
       -0.10036718 0.019713808 0.06717811 0.19997308
000060 76 e1 24 3d 48 00 48 bd f1 ad ad 3c 47 67 8a 3d
       0.04025408 -0.048828393 0.021201106 0.0675798
000070 05 84 44 3e e5 37 90 3d 59 51 27 be d0 8f 3e 3e
       0.19190986 0.07041911 -0.16339625 0.18609548
000080 ca b3 16 3e 65 52 b3 3d 69 d4 9a 3c e3 e3 d1 3d
       0.14717022 0.0875595 0.018900113 0.10248544
000090 5c 9d ac bc 52 5e 27 3e 34 7c ff 3d d5 7a 0d be
       -0.021071129 0.16344574 0.12474862 -0.13816388
0000a0 0b c8 9b b8 59 e3 7f bc 00 65 f8 bd c3 44 d2 3c
       -7.428237e-05 -0.015618169 -0.12128639 0.025667554
0000b0 98 9f 2a be 6a 2b c4 bd 65 73 f5 bd 04 1b 1e be
       -0.16662443 -0.09578593 -0.119849004 -0.15439993
0000c0 08 a4 ca 3d c0 90 b8 3d 16 cb 01 bd 69 d4 22 be
       0.09894568 0.09011984 -0.03168782 -0.1590134
0000d0 55 60 e1 bd 60 e6 41 3e 46 46 30 be 59 3c 10 be
       -0.11004702 0.18935537 -0.17214307 -0.14085521
0000e0 fe 9d 52 3e 8b 3b 0f 3e c0 d4 3b bd 0c a0 3c be
       0.20568082 0.13987558 -0.04585719 -0.18420428
0000f0 aa 98 fd bd 6c 44 5d 3e a4 e0 94 bd 97 72 3b bc
       -0.12382634 0.21608132 -0.07269409 -0.011440895
000100 ec 92 22 3e e0 fa 4d 3e 7c f1 0f be c7 c9 d6 3c
       0.15876359 0.20115232 -0.14056963 0.026219262
000110 c9 e1 e1 bc 93 1c 03 bd 0a 87 37 be 58 3a 3c 3e
       -0.027573483 -0.032009672 -0.17922607 0.18381631
000120 16 26 34 be 8a 77 57 be 5c 1e d8 bd 7f 4b 25 3e
       -0.17592654 -0.21041694 -0.105526656 0.1614208
000130 fd 09 5d bd 0f fe 00 3c 8d d6 8a bd 69 d6 0f 3e
       -0.053964604 0.007873072 -0.067792036 0.14046635
000140 72 07 0d 3e 68 10 40 3e 2a 82 20 3d db 28 fc 3c
       0.13772371 0.18756258 0.039186634 0.0307812
000150 64 3c 06 3d 5b 6f ba bd e3 85 0e 3e 5e b9 f8 bd
       0.032772437 -0.091032706 0.13918261 -0.12144731
000160 82 32 bd bc e9 62 43 3e 28 26 48 bd fb a9 89 3c
       -0.023095373 0.190807 -0.048864514 0.016804686
000170 b7 08 40 3e d1 12 dd bd 35 cc 91 3d 1a a3 2c 3e
       0.18753324 -0.107946046 0.071190275 0.16859093
000180 26 00 91 3d 5c e3 0c 3e 78 53 1e bd 6a ce 20 be
       0.070801064 0.13758606 -0.03865382 -0.1570374
000190 82 a2 9e 3d c0 ea 42 bc 86 69 0b be 7d 21 ec 3d
       0.0774584 -0.011896789 -0.13614473 0.11529825
0001a0 7c 6a 53 be 46 29 02 3e c0 0f 48 be d3 1a 2b 3e
       -0.2064609 0.12711057 -0.19537258 0.16709451
0001b0 e3 40 41 bd 8f d0 bc bd a1 9b 35 be 29 fe 2d 3d
       -0.04718102 -0.09219467 -0.17735149 0.042478714
0001c0 79 ef 89 3d 2b 2a 1f be 00 10 47 3e 56 64 0f 3e
       0.06735129 -0.1554343 0.19439697 0.14003119
0001d0 41 76 6f bd 91 d9 27 3e 6b cd 03 bd b3 d9 d7 3d
       -0.058462385 0.16391589 -0.032178324 0.1053957
0001e0 24 db 5a be a2 cb aa 3d 29 ce 37 bc 0a 85 27 3e
       -0.21372658 0.08339621 -0.011218586 0.16359344
0001f0 c3 76 fd 3d 98 63 f9 3d 3a 84 3c be ac 58 36 3e
       0.123761676 0.12177199 -0.18409815 0.17807263
000200 25 9e 9d bd 05 60 1d 3e aa ca d9 bd 98 7d 82 bb
       -0.07696179 0.1536866 -0.10634358 -0.003982257
000210 61 88 0e 3e 3e 83 0a 3e c3 67 a3 bd 6d 3f 65 3d
       0.13919212 0.13526627 -0.07978775 0.05596869
000220 ee 47 02 be b8 3d ef bd 31 fb 92 bd 7b e1 1c be
       -0.12722751 -0.11681694 -0.07176817 -0.15320389
000230 b7 ab 5c 3e 22 9f ed bd 55 8c 57 bd bd 4e 06 3d
       0.21549879 -0.11602618 -0.052624065 0.032789934
000240 7c 99 57 be 5e dc 99 3d c0 6c 89 3d 1f 98 64 3d
       -0.21054643 0.07512735 0.067101955 0.055809136
000250 41 f5 0c be aa a6 5a 3e c5 5a cf 3d 4b 7b d0 3d
       -0.13765432 0.2135264 0.10124735 0.10179766
000260 5b 68 bc 3d 94 10 1a be bd cf 45 3e de 05 4c 3e
       0.09199592 -0.15045387 0.19317527 0.19924113
000270 af aa fe bd 17 32 44 3e 7a 9a d8 3d bf 41 21 be
       -0.12434899 0.19159733 0.10576339 -0.15747736
000280 a0 f5 78 bd 50 af 4e 3d 00 a0 4f be 78 16 49 be
       -0.06078112 0.05046016 -0.20275879 -0.19637477
000290 57 0c 23 3d 18 30 dd 3d 08 ce 3a bd de 0f 6a 3c
       0.03980669 0.10800189 -0.045606643 0.01428601
0002a0 40 7c 2b bd e0 fd 0c 3e 51 0b f1 bd 3f a8 1e 3d
       -0.04186654 0.1376872 -0.117697366 0.03873467
0002b0 4e dc bc 3d 0a 2b 32 be 19 90 22 be a6 13 58 be
       0.09221707 -0.1739923 -0.15875281 -0.21101245
0002c0 68 72 2e 3e 74 f4 54 be d2 1c b1 bc 9e 89 50 3e
       0.1703583 -0.20796376 -0.021620188 0.20364997
0002d0 d0 4b e9 3d 9f 91 2f be 29 e2 b3 bd 4e e8 0b 3d
       0.11391413 -0.17145394 -0.08783371 0.03415709
0002e0 f7 0e 3a bd 4c dc 32 3e 2d 99 b0 bd 6e 47 c7 bc
       -0.045424428 0.17466849 -0.08622966 -0.024326053
0002f0 5d 79 bc 3d 53 6a 33 3e 31 e2 e8 bd 88 31 3e 3e
       0.09202836 0.17521028 -0.113712676 0.18573582
000300 cc 2d 38 3e 93 1d a1 bd 5f cc 5e bc 55 9a a3 3d
       0.1798622 -0.07866969 -0.013598531 0.07988421
000310 a1 78 52 3e 0a 86 88 3d 5f 81 fb bd 28 ec 38 bd
       0.20553829 0.06666191 -0.12280535 -0.04514709
000320 8b e5 23 3e 64 c7 4b 3d b3 57 ac 3d fd 9a 3d be
       0.16005532 0.0497507 0.08415165 -0.18516155
000330 4e bf cf bc 12 84 15 3e dd 35 2f bd ab ad 01 3e
       -0.025359776 0.14601162 -0.042775977 0.12663905
000340 9c b3 58 be 25 2f 36 3e 3e d6 85 3d ad 63 57 bd
       -0.21162266 0.17791422 0.06535004 -0.052585293
000350 a1 b4 38 bd bd a8 46 be 45 f6 2a be 9d 91 be 3c
       -0.045094136 -0.19400306 -0.16695507 0.023262793
000360 4d 44 ef bd dd cb fc 3c 77 a2 3e 3e b4 62 4c be
       -0.11682949 0.030858928 0.18616663 -0.19959527
000370 c2 75 09 be 9e 59 48 3e b6 66 17 3e 42 65 85 3d
       -0.13423827 0.19565436 0.14785275 0.06513454
000380 7a 6a f2 3d 73 77 f7 bd bf 93 eb bd 27 27 45 be
       0.11836715 -0.1208333 -0.1150279 -0.19253217
000390 2f 72 ec 3b 90 ed 5b be 08 31 d0 3c 87 6f 76 bd
       0.00721576 -0.21477342 0.025414005 -0.060164955
0003a0 28 5a ab 3c 47 0c bf 3c 71 9c 26 3e 69 6a da bd
       0.020917013 0.023321284 0.16270615 -0.106648274
0003b0 98 08 fe 3a e3 39 50 3d 77 d7 35 be b8 4d b1 bd
       0.0019381223 0.050836455 -0.17757975 -0.08657402
0003c0 06 f7 69 3d 55 3f 30 be ac d8 35 3a 9a d5 78 bd
       0.057120346 -0.17211659 0.00069368887 -0.06075058
0003d0 d7 dc de 3b ac 93 fe bd af 98 98 bc 0c e3 6c bd
       0.0068012285 -0.1243051 -0.018627493 -0.057833716
0003e0 11 20 e1 3c 7b 41 fd 3d 68 ed a8 bc a9 cf 0d 3d
       0.02748111 0.12366005 -0.020621017 0.03462187
0003f0 f1 1c 3e 3e 71 18 72 3c 0f c5 30 be c3 a0 ad bd
       0.18565728 0.014776335 -0.17262672 -0.084779285

gat_layers.0.lin_edge.weight f4 [64, 64]
000000 dc 7b db 3c 1a 18 19 3d 53 39 28 be 25 f5 19 be
       0.02679246 0.0373765 -0.16428117 -0.15034921
000010 a7 90 41 3e 9a 2b e5 bc 02 d9 2a 3e be 12 04 3e
       0.18902837 -0.027974892 0.16684344 0.12897775
000020 51 71 96 bd 57 8e cf bd 1a d4 f3 bd 5f d9 7b bc
       -0.07345832 -0.10134571 -0.119056895 -0.0153716495
000030 02 fc 1f 3d c0 35 bb 3d f3 c8 2f be d0 05 99 bd
       0.039058693 0.091411114 -0.171665 -0.07471812
000040 89 26 e1 bd 02 62 9f bd bd c2 07 be fd 9c 4a be
       -0.10993678 -0.077823654 -0.1325788 -0.19786449
000050 5c fe ba bd e4 15 de 3d 15 2c 35 3d b7 ac 2c bc
       -0.091305465 0.10844019 0.044231493 -0.010539225
000060 6b 81 92 3d d5 fc f7 bc 03 ae 20 3e 17 1e 32 3e
       0.07153591 -0.030271927 0.1569138 0.17394291
000070 10 70 83 bd 98 e7 51 3e 75 3e e0 bd 83 a2 11 be
       -0.064178586 0.20498502 -0.10949413 -0.1422215
000080 34 12 09 be 0d 4a 66 bd 0a 57 91 3d 3e c7 52 3d
       -0.1338585 -0.056222964 0.070966795 0.051459543
000090 f1 44 6f bc 32 42 30 3e cd b1 00 3e 7f db 4c 3e
       -0.014603839 0.17212752 0.12567826 0.20005606
0000a0 03 bc 48 3e d1 60 31 bd ce 68 88 bc fb f0 40 bd
       0.19602971 -0.043305222 -0.016651537 -0.047104817
0000b0 c8 8b 02 3e 37 89 2b 3d b5 59 23 3e de 5e 9f 3d
       0.12748635 0.041878905 0.1595219 0.07781766
0000c0 b3 29 8f 3d fb ed 22 3e 20 1a 06 bd c6 dc 8e bd
       0.06990375 0.15911095 -0.03273976 -0.06975703
0000d0 ac 72 69 bc b2 00 4c 3e 67 4e 00 3e 80 f9 f5 3d
       -0.014248531 0.1992214 0.12529908 0.12010479
0000e0 dd fa 55 bc a7 cd 9b 3c 0d 8b 29 bd 28 2c 1f 3e
       -0.013060299 0.019018961 -0.041392375 0.15544188
0000f0 94 15 19 be e6 49 45 3e 61 b6 88 bc b6 16 eb 3c
       -0.14949638 0.19266471 -0.016688528 0.028697353
000100 68 f5 95 3c f1 ec 8e bd 70 6f ba 3d de f8 04 3e
       0.018305495 -0.06978787 0.09103286 0.1298556
000110 ac 3d a4 bd 12 13 c1 3d ed e2 07 3d 9c 55 f6 3d
       -0.080195755 0.094274655 0.033175398 0.120280474
000120 e2 40 5d 3c aa 2b 3f bc 2e d9 00 be a0 e3 ac bd
       0.013504239 -0.011668125 -0.12582847 -0.084418535
000130 6d 5d 39 3e 26 f7 00 be fb 2c 58 be 0c 3e 27 3d
       0.18102045 -0.1259428 -0.21110909 0.040830657
000140 b5 73 20 3d aa 06 3e 3e a4 7c 01 be 32 af 45 bd
       0.039172847 0.1855723 -0.12645203 -0.048262782
000150 2a bb 0d be 50 6b 22 3e 9d 95 8d 3d 01 e9 f6 bd
       -0.13840929 0.15861249 0.06913302 -0.12056161
000160 8d f1 f8 3d 10 ab 49 3e 13 ce 36 be fe ca f8 3d
       0.12155447 0.19694161 -0.17852049 0.12148093
000170 74 90 d1 3d c7 5f 28 be 4d d6 3e 3c 2f 7d 32 be
       0.1023263 -0.16442786 0.011647773 -0.17430566
000180 27 56 07 be 10 70 66 3d 1c 9d ab bd 5c a9 8e 3d
       -0.13216458 0.056259215 -0.083795756 0.069658965
000190 48 35 b1 bd 80 bd ef bc ad 4f ca 3b 04 88 ac bd
       -0.08652741 -0.029265165 0.006174049 -0.084243804
0001a0 20 12 86 3d 4f c7 32 3e 22 e3 3f 3d 1f 44 ab 3c
       0.06546426 0.17458843 0.04684747 0.020906506
0001b0 a7 f7 4d 3e b5 a7 8b bb b7 4a 3b be 62 a1 20 3e
       0.20114003 -0.0042619356 -0.1829022 0.15686563
0001c0 b1 12 26 3e f0 53 32 be c1 51 0d be 3c d3 84 3d
       0.16218068 -0.17414832 -0.13800718 0.06485602
0001d0 01 1a 44 be 60 7f 52 be d1 30 53 be f7 a6 ac 3b
       -0.19150545 -0.20556402 -0.2062409 0.005268927
0001e0 eb 99 27 be 1c 6d 4f be cb 48 92 bd 52 43 1c 3e
       -0.16367309 -0.20256466 -0.071427904 0.15260056
0001f0 ef e2 d1 bd b1 00 be 3d c4 86 d3 3c 99 2e 43 be
       -0.10248362 0.092774756 0.025821097 -0.19060744
000200 b5 83 14 be 75 46 ee bd ba a2 12 3e 30 cd 1d be
       -0.14503367 -0.11634532 0.14319888 -0.15410304
000210 26 aa 35 3e a7 07 ec 3c be 36 9a 3d c4 61 27 bd
       0.17740688 0.028812243 0.075299725 -0.04086472
000220 78 52 15 bd c9 22 ea 3c 3b d9 e8 bd 4b 5e 8c 3d
       -0.0364556 0.02858104 -0.113695584 0.068539225
000230 9a 04 30 be 33 14 ac 3d fc c7 12 bc 65 3a 2b be
       -0.17189255 0.0840229 -0.008958813 -0.16721494
000240 2a d0 22 3d 7c 11 98 3c fb ae bb bd c4 92 e8 bd
       0.039749302 0.018563025 -0.09164234 -0.11356118
000250 bd 1c eb bd 52 f6 4b 3e 21 ce 00 bd a6 27 99 bd
       -0.11480091 0.19918182 -0.03144658 -0.074782655
000260 31 68 85 bd 78 93 26 3e 6e f1 c6 bd 70 a6 87 3d
       -0.065140136 0.16267192 -0.09714018 0.06623542
000270 5d 72 54 be 73 56 96 3d b7 6b 13 3d b9 fa 70 3d
       -0.20746751 0.07340708 0.035991397 0.058832858
000280 0a 87 28 bd e4 ee a8 bd 3d a2 55 3d 99 92 ba 3b
       -0.04114441 -0.0824869 0.052156676 0.0056937453
000290 c4 c1 bb bd ba 04 5a 3e 8e 2b 8e 3c 00 54 3c 3e
       -0.09167817 0.21290866 0.017354753 0.18391418
0002a0 3e 01 23 3e f6 e3 3e 3e f2 04 54 bc 76 47 37 be
       0.15918443 0.18641648 -0.012940632 -0.17898354
0002b0 58 a1 59 bc 3b 5f e4 bd 31 70 88 3d c6 44 07 3e
       -0.013283096 -0.11150976 0.06662024 0.13209829
0002c0 ce 39 5c 3d d7 54 84 bd 78 56 32 be f4 0a a3 3d
       0.053766064 -0.064614944 -0.17415798 0.079610735
0002d0 1e 55 f3 3d 57 65 16 3e 0a 6b 11 3e 3b d6 1d be
       0.11881469 0.14687096 0.14200988 -0.15413754
0002e0 67 13 6e 3d 14 1b 09 3e 7c 5b ac bd 23 16 97 bd
       0.058123972 0.13389236 -0.08415887 -0.07377269
0002f0 73 4f a0 bd 4e 7a 36 be 77 7e ff bd 9d 31 36 be
       -0.07827654 -0.17820093 -0.12475293 -0.17792363
000300 5c d4 0d 3d b0 9e b8 3d b9 e7 34 bc 15 ac 89 bd
       0.03462635 0.09014642 -0.011041575 -0.06722275
000310 7f dc 31 be 67 92 5a bd 46 0a 04 3d 2d 06 2c be
       -0.17369269 -0.053362276 0.03223636 -0.16799231
000320 3d 3c 38 3d b8 bf b9 3d 4c 07 53 3e e4 6c 4f 3e
       0.044979323 0.090697706 0.20608252 0.20256382
000330 1f 2c aa bd 19 95 2a 3e d1 f6 7b 3d 9f ab 5d be
       -0.08309197 0.16658439 0.06151468 -0.216475
000340 15 4d 46 3e 56 3c 0b be 31 4e 87 3d 7e e3 1b be
       0.19365342 -0.13597235 0.06606711 -0.152235
000350 29 63 32 3d e7 93 21 be 94 a0 b2 3d cc 39 53 3e
       0.043551598 -0.15779077 0.08722034 0.20627517
000360 77 77 52 be 75 c2 1f bd 43 f2 39 3e 36 b8 24 3e
       -0.20553385 -0.039003808 0.18158822 0.16085896
000370 79 37 4c 3e c6 c2 04 3e f7 f6 fc bd bb 42 13 be
       0.19943036 0.12964925 -0.12351792 -0.14380924
000380 55 43 0f 3e 19 57 1b 3e 63 01 2d be 6f 5d 5b bd
       0.13990529 0.15169944 -0.1689506 -0.053555902
000390 8c b3 1c be 34 fc 74 3d d1 96 85 bd 3f f5 37 be
       -0.15302867 0.059810832 -0.065229066 -0.17964648
0003a0 6b fd 50 be ba 6a 01 bd 7e 0c 0b 3e 35 5e c7 bb
       -0.20409171 -0.031595923 0.13578984 -0.0060842284
0003b0 cc c2 4c be 19 9e e4 bd d5 22 3a be ae d5 58 bc
       -0.19996184 -0.11162967 -0.1817735 -0.013234539
0003c0 f2 cf 9d 3d 36 81 16 3e 05 52 93 3d d2 7d 82 bd
       0.07705678 0.14697728 0.07193378 -0.063716546
0003d0 51 f4 51 be 41 ae e1 3d 34 79 5d be 1f 28 46 be
       -0.20503356 0.110195644 -0.21628267 -0.19351242
0003e0 7c f6 be bc 8a 3f b0 ba c4 aa 99 3d 36 e8 01 be
       -0.023310892 -0.001344667 0.07503274 -0.12686238
0003f0 3b 31 1a 3e 80 47 31 be 00 65 7c 3d b5 b6 1a 3e
       0.15057842 -0.17312431 0.06161976 0.1510876

gat_layers.1.att_src f4 [1, 4, 16]
000000 be 3f cf 3e 2a 98 b4 3e 33 f4 bd 3e 1a 14 03 3e
       0.4047832 0.35272342 0.37100372 0.12800637
000010 8a f2 62 be e6 8f 2f be 84 21 dc 3d e0 21 c8 be
       -0.22162834 -0.17144737 0.1074858 -0.39088345
000020 78 73 59 3e da 78 b6 be 70 1b e3 3e 49 7d ba 3e
       0.21235454 -0.35639077 0.4435687 0.3642371
000030 ce e3 58 3d 85 34 3f 3e a5 32 69 be 30 a8 08 3f
       0.052951626 0.18672378 -0.22773226 0.53381634
000040 c2 68 b9 3d 13 41 59 3e 9c 6e 38 3e 25 ac 55 be
       0.09053184 0.2121623 0.18010944 -0.20866449
000050 8f b8 d4 3d 07 a9 cb be eb 0d d8 3e 1a 33 24 3e
       0.10386764 -0.39777395 0.4219812 0.16035119
000060 a8 79 92 be 13 d3 b0 3e 49 d7 b9 3c ed 35 86 bd
       -0.2860844 0.34536037 0.022685664 -0.06553254
000070 df 52 30 3e 44 12 b0 be a0 05 81 be 66 99 a0 3b
       0.17219113 -0.34388936 -0.25199604 0.004901099
000080 82 7d a1 3e 27 29 0f 3e 75 fe d8 3e d1 94 e9 3e
       0.31541067 0.13980542 0.42381635 0.4562135
000090 f1 d8 86 3e f7 ac 9a be 59 ad d8 bd 60 6e a5 3e
       0.26337388 -0.30210087 -0.105799384 0.32310772
0000a0 da be 2f 3e b4 db bf be e2 a1 d6 3e ad 7a 07 be
       0.17162648 -0.37472308 0.41920382 -0.13230391
0000b0 16 be c6 be ee 30 52 be 1e 3f 08 3f c2 0e 3e 3e
       -0.388169 -0.20526478 0.5322131 0.18560317
0000c0 9f 2a ee be 3e aa 2e 3e 03 93 f5 be 99 cd 51 be
       -0.46516892 0.1705713 -0.47963724 -0.20488586
0000d0 ff d0 c5 3e 73 0c 49 be cc b9 92 be 2c 58 c0 3e
       0.38636014 -0.19633655 -0.28657377 0.3756727
0000e0 77 37 54 be 4f 76 2c 3d a6 e5 c9 3d 94 79 dd 3e
       -0.20724283 0.042105015 0.09858255 0.4325682
0000f0 b6 ed c9 3e 9d 9d f0 3e 9b be dd 3d f1 2f e4 bc
       0.39439172 0.4699525 0.10827371 -0.027854891

gat_layers.1.att_dst f4 [1, 4, 16]
000000 98 1e 22 be 18 5e 07 3f 45 b7 01 be ca e5 54 3e
       -0.15831983 0.5287795 -0.12667568 0.20790783
000010 df c7 1e 3d 5d 77 b0 3c d1 c0 b7 3e 4e 6b 89 be
       0.03876483 0.021541292 0.35889295 -0.2683968
000020 21 bf 47 3e 58 78 47 3e f7 5c 1e 3e fe ff c6 be
       0.19506504 0.19479501 0.15465151 -0.38867182
000030 a9 3a 80 3d 2f 3b 00 be e9 d1 ec be 6c bb b7 be
       0.062611885 -0.12522577 -0.462539 -0.3588518
000040 72 b4 07 3f d4 3c 52 3e e8 94 90 3e 40 20 d0 bd
       0.5300971 0.20531017 0.28238606 -0.10162401
000050 a4 32 9f 3e d2 4f f0 be 0a 84 03 bf cb ab 49 bd
       0.31093323 -0.46935898 -0.5137335 -0.0492361
000060 93 69 fe 3e a2 ca 3f bc 04 9b 74 3d de 38 7e 3e
       0.49689922 -0.011706026 0.059718147 0.2482638
000070 97 a7 0b be 51 32 80 3e 99 16 28 be 1f 32 c3 be
       -0.13638149 0.25038388 -0.1641487 -0.38124177
000080 c4 1d 82 3e 50 ec ac 3e 92 62 87 be 8c 29 e0 3e
       0.25413334 0.33774042 -0.2644239 0.43781698
000090 53 b0 f0 bc 8d 3b 78 3d 6a 4e be be 21 3a 7e bc
       -0.029380953 0.060603667 -0.371692 -0.015516789
0000a0 f9 80 8a be 82 12 a2 3e c0 a9 e2 3e d9 6b 64 3e
       -0.27051523 0.31654745 0.44270134 0.22306766
0000b0 4d 0c be bd bb 8f ad be bf cc 5a 3e 5b fb 04 bf
       -0.0927969 -0.3389872 0.21367167 -0.5194604
0000c0 d9 33 ca 3e 58 a4 fa 3c 95 3f 07 be 51 1c 0e be
       0.39492682 0.030595943 -0.13207848 -0.1387799
0000d0 14 76 cd 3e 94 28 f2 be 9b 0e 9f bd 06 2d 87 be
       0.4012915 -0.47296584 -0.07766458 -0.26401538
0000e0 8a f2 8c 3c 91 14 eb 3e b0 b8 a8 be 48 23 09 be
       0.017205495 0.45914128 -0.32953405 -0.13392365
0000f0 bd 20 01 3f 29 55 92 bb 47 cb 00 be f6 ba d2 be
       0.5044058 -0.0044657183 -0.12577544 -0.41158265

gat_layers.1.att_edge f4 [1, 4, 16]
000000 3e 3b e6 be 19 da 55 bc f1 b8 52 3e 51 53 08 3f
       -0.44967073 -0.013052487 0.20578362 0.5325213
000010 ff 3d e5 3d 9d 6f d2 3e a3 1b 8c be 2b d6 bd bd
       0.111934654 0.4110078 -0.27364835 -0.09269365
000020 82 65 eb 3e f2 cf 0c be 7f 32 4b 3e 8c ba 12 be
       0.45975882 -0.137512 0.19843481 -0.14328974
000030 5b a1 72 3c 96 4f 45 bd 0a 30 a6 3d 99 58 ac 3c
       0.014808978 -0.048171602 0.081146315 0.02103834
000040 52 e8 3e 3e 00 15 08 3e 9c a8 ff 3e 8b a8 de 3e
       0.1864331 0.13289261 0.49933326 0.43487963
000050 40 bd dc be 29 7d cc bd 16 ea 07 3f 7e 09 ab be
       -0.43113136 -0.0998481 0.5309156 -0.3340568
000060 72 7a dd be be d3 03 3f fb cb 44 be f8 90 98 3e
       -0.4325748 0.5149497 -0.19218437 0.29798102
000070 33 98 c7 bb 11 79 d2 3e a4 16 68 3d bb 28 ed 3e
       -0.0060911416 0.4110799 0.056662217 0.46320137
000080 ad d4 1f 3e 58 c8 a1 3d 8c db f0 3e ba 3f 9d 3e
       0.15608473 0.07899541 0.470425 0.30712682
000090 f5 90 bc 3e e8 da 96 3e f2 5c 0a bf b2 53 16 be
       0.36829343 0.29463887 -0.54048073 -0.14680365
0000a0 67 71 86 bd d7 56 ce 3e e5 59 c7 be bf c4 75 3e
       -0.065645985 0.4030063 -0.38935772 0.24000834
0000b0 a4 6b 77 3e 05 1f 0b be 66 21 d7 3e 6c 46 ae be
       0.24162155 -0.13586052 0.42017668 -0.34038103
0000c0 60 91 cf 3e ff 7a a3 3d a9 c8 05 bf 8c a3 ee 3d
       0.405406 0.07982444 -0.5225931 0.11652288
0000d0 88 16 03 3e 0a 2c 05 bf b1 30 d2 3e ad 2d 5b be
       0.12801564 -0.52020323 0.41052774 -0.21404143
0000e0 a3 ef b8 3d bf 63 fa be d4 54 ce 3e bf 2a b2 be
       0.09030082 -0.48904225 0.40299094 -0.34798238
0000f0 02 4b 85 be 4b b7 ed 3d 3a 40 b5 3d 20 48 dc 3e
       -0.2603379 0.11607226 0.08850141 0.43023777

gat_layers.1.bias f4 [64]
000000 3b fc 40 3b 70 ae 91 38 f3 c9 aa 3a c4 db 44 3b
       0.0029447216 6.94663e-05 0.0013030156 0.0030038217
000010 93 d3 bb bb cd 99 e2 3b 80 ea d9 3a 9e 09 c0 bb
       -0.0057320087 0.006915307 0.0016625673 -0.0058605215
000020 93 c1 c2 bb 16 63 c6 3b 5d e8 be bb ce db df 3b
       -0.005943486 0.0060542924 -0.0058260397 0.0068316227
000030 40 27 af 3b 1f 26 c9 bb a5 66 bb bb 30 30 01 3c
       0.005345255 -0.0061385776 -0.0057190233 0.007885024
000040 9f dd 00 3c cc d2 c1 bb eb b8 92 bb d9 25 b1 3b
       0.007865339 -0.0059150215 -0.0044776103 0.005406123
000050 45 f7 c2 bb 82 84 05 3c 68 f9 9a bb d6 70 bf bb
       -0.005949887 0.008149268 -0.0047294386 -0.0058423085
000060 f2 24 c1 bb 2f d7 a2 3b 99 fb c1 bb e6 14 e9 3b
       -0.005894297 0.0049694995 -0.0059198854 0.007113087
000070 f0 a8 b8 bb 93 1f 74 bb 9d ab 97 bb 99 ca c9 bb
       -0.0056353733 -0.0037250265 -0.004628612 -0.0061581847
000080 0f 02 0b 3c ec 6a b1 bb 71 47 a5 bb 1d 5e c8 bb
       0.0084843775 -0.0054143574 -0.005043917 -0.006114735
000090 26 4f bb bb a2 8f c4 bb 84 a6 be bb 98 9b ba bb
       -0.0057162223 -0.0059985677 -0.00581819 -0.0056948178
0000a0 50 ac c0 3b 7e f4 c0 bb e1 ab ba 3b 19 27 c2 bb
       0.0058799163 -0.0058885207 0.005696759 -0.005925071
0000b0 f7 7d c3 bb 43 d8 a5 bb 5c 99 c5 bb 39 7a b4 bb
       -0.005965944 -0.005061181 -0.0060302448 -0.005507734
0000c0 d0 aa ba bb 35 ed ac bb d6 4e a0 3b 42 93 04 3c
       -0.005696632 -0.0052773007 0.0048922105 0.00809175
0000d0 57 a3 d6 bb 13 7f de bb 41 c3 db bb 4d 3d ba bb
       -0.0065502333 -0.006790051 -0.0067066257 -0.005683577
0000e0 d2 b9 9c bb af de d7 bb 60 10 d4 bb 6b a9 99 bb
       -0.0047828937 -0.0065878252 -0.0064716786 -0.0046893856
0000f0 d5 20 df bb 48 94 8e bb a8 4e de bb 8f 2f c5 bb
       -0.006809334 -0.0043511726 -0.006784279 -0.0060176323

gat_layers.1.lin.weight f4 [64, 64]
000000 0b 02 42 3e cf 85 95 bd 38 34 13 3e 56 f3 f0 bc
       0.18946092 -0.073009126 0.14375389 -0.029412907
000010 10 81 ea bd 08 46 fe bd 9f f9 4b 3e 2e 6d f4 bc
       -0.11450398 -0.12415701 0.19919442 -0.029837217
000020 ca 6d 4a 3e e4 6b f8 3d 18 68 29 3e 91 d9 4f 3e
       0.19768444 0.121299535 0.16543615 0.20297839
000030 72 79 12 be c6 7a 0b 3e 53 82 8f bd fc e3 4d 3e
       -0.1430414 0.13621053 -0.07007279 0.201065
000040 80 4e b6 3c 5b d7 2d 3e 90 8d 22 3c 0a 8f 8a bd
       0.022254229 0.16976683 0.009921446 -0.06765564
000050 3d d6 88 3c 8f 60 e5 bd 36 e9 2d 3d 62 e3 09 be
       0.01670372 -0.11200058 0.042458735 -0.13465646
000060 98 a0 b4 bd 0d 3e 09 be b8 1f 49 be 4d 31 03 3d
       -0.08819693 -0.13402577 -0.19641006 0.03202944
000070 5b 0b 11 3e 9d 95 20 3e f2 aa 13 bc f3 51 42 bd
       0.14164488 0.15682073 -0.0090129245 -0.047441434
000080 7b 45 6a bd 03 fe 80 3d 56 57 5e 3c ef d1 b3 3d
       -0.057195168 0.06298449 0.013570627 0.08780276
000090 ee 8c 16 3e a7 0a cf 3b 9e 42 40 3b 98 d0 b7 3b
       0.14702198 0.0063184085 0.0029336582 0.005609583
0000a0 32 37 9a bc 71 f1 f7 bb 38 64 91 bd 0c 67 1d bd
       -0.018825147 -0.007566624 -0.07099193 -0.03842835
0000b0 b1 84 e4 bb 0b 59 22 3e 3d 90 26 3d 61 41 32 be
       -0.006973826 0.1585428 0.0406649 -0.17407753
0000c0 93 0e d6 bd 1e 14 2f 3d 0e 4d ec bd a9 89 51 be
       -0.104519986 0.042743795 -0.115381345 -0.2046267
0000d0 4c 50 bd bd fc 71 db 3d 57 40 71 bd 29 9e 57 be
       -0.09243831 0.107151 -0.05889925 -0.21056427
0000e0 46 2a 8a bd 5e e9 fa bd 4e e6 15 be c0 43 13 3d
       -0.06746344 -0.122515425 -0.14638636 0.035953283
0000f0 0d 8e 4f 3e bd 35 e5 3d 0a a9 35 3e d0 4b 27 3d
       0.20269032 0.111918904 0.17740265 0.040843785
000100 49 e7 21 be 85 f5 93 3d fa b2 20 bd cc e7 90 3d
       -0.15810885 0.072245635 -0.039233185 0.07075462
000110 6c 96 19 3d 3b d2 31 be 5e 82 b8 bd ad e2 8b bd
       0.03749697 -0.17365353 -0.090092406 -0.06830344
000120 bd fe 53 3e 22 1d 1a be 15 6a 13 be 09 cc fe bd
       0.20702644 -0.15050176 -0.14395936 -0.1244126
000130 95 77 12 3e 00 09 0d 3e 56 b6 62 bd 5c e5 a7 bd
       0.1430343 0.13772964 -0.05534967 -0.08198044
000140 f6 5c 95 bd af 46 e9 bd 82 3f 3c be a5 c7 ed 3c
       -0.072931215 -0.11390435 -0.18383601 0.029025862
000150 42 a2 8c bd d2 41 34 be 23 1e 97 3c 1f 95 36 3e
       -0.06866886 -0.17603233 0.018446987 0.17830323
000160 35 f5 e6 3d a1 2c a9 3d e4 b3 3f 3a 37 5e b6 3d
       0.11277238 0.082604654 0.00073128776 0.08904689
000170 30 2e 88 3d 36 bb 9f 3d 29 10 9e bd 02 75 33 3d
       0.066494346 0.077993795 -0.07717926 0.04381276
000180 3e bd e6 bd 62 72 15 3b 92 98 07 3e 00 a8 85 bd
       -0.11266564 0.0022803773 0.13241795 -0.06526184
000190 f5 8f b9 3d 0b cf 00 3e 48 35 3f 3e 07 fe ed 3d
       0.09060661 0.1257898 0.18672669 0.116207175
0001a0 0d e7 ef 3d 52 0d df 3d 7f 12 1e 3e 71 c0 c0 3d
       0.11713991 0.108912125 0.15436743 0.09411705
0001b0 cf df 5a bd 29 09 64 3d df 84 58 be 2c 24 0f be
       -0.053436097 0.0556728 -0.21144436 -0.13978642
0001c0 34 da 31 3e 33 10 17 be 30 69 e1 bd 11 fe 4a 3e
       0.17368394 -0.14752273 -0.11006391 0.19823481
0001d0 2a c7 b9 3d 28 8a f5 3d 40 24 f2 bd 1a 28 21 be
       0.09071191 0.11989242 -0.118233204 -0.15737954
0001e0 d2 99 16 3e 40 01 7c bc b9 37 78 3b a9 9a 10 3e
       0.14707115 -0.015381157 0.003787501 0.14121498
0001f0 5e 68 4e 3e 0f 6d 24 be ea 5b 48 bd d6 24 24 3e
       0.20157 -0.16057228 -0.04891578 0.16029677
000200 14 e0 3c be af b1 1b be 4b 6b 4a 3e 91 54 2c be
       -0.18444854 -0.152045 0.19767492 -0.16829135
000210 17 32 3a 3e ce 51 4b be 90 24 21 be 51 74 01 3e
       0.1818317 -0.19855425 -0.15736604 0.12642027
000220 f6 3e 29 be 49 35 39 3e 3a 7c 85 3d 91 b9 3b bd
       -0.16527924 0.18086733 0.06517835 -0.045831267
000230 14 ce b4 bd f6 e2 02 be 8b 37 2e 3e dd f2 8a bd
       -0.08828369 -0.12781891 0.17013375 -0.06784604
000240 9b 39 86 3d a0 bb 51 be 19 33 45 be e2 ab 4e 3e
       0.06553956 -0.2048173 -0.19257773 0.20182756
000250 09 80 c9 3d 37 89 27 be e1 5f 41 3d ba f4 51 be
       0.09838874 -0.16360937 0.047210578 -0.20503512
000260 a8 f3 5f 3d fc 3c 21 bd de 06 2c be 36 9a da bd
       0.054675728 -0.0393648 -0.16799495 -0.10673945
000270 36 84 2b be 55 a5 53 3e a4 0d cb 3d a6 79 26 be
       -0.16749653 0.20668538 0.09914711 -0.16257343
000280 4b 1b 4a 3e 8c 04 0c be 26 ce fc 3d 77 e5 cc 3d
       0.19736974 -0.1367361 0.12344007 0.100047044
000290 94 37 59 3e bf 00 02 be cc bd 25 be ad f8 be bd
       0.21212608 -0.12695597 -0.16185683 -0.09324775
0002a0 95 b6 b8 bd 77 18 5b bd b4 4d d2 3d f1 5a 5f bd
       -0.090192 -0.05349013 0.10268727 -0.054530088
0002b0 c5 ea f6 3d ec e9 5b be b2 a3 5f 3c 57 73 b6 bd
       0.120564975 -0.21475953 0.013649868 -0.08908718
0002c0 81 9f 02 3e fa de 2c 3e 7f c5 08 3e 42 79 1d bd
       0.12756158 0.16881934 0.13356589 -0.03844572
0002d0 8c f9 8f bd 6c c3 68 bd 6c aa a5 3d b5 05 81 bd
       -0.07030019 -0.056826994 0.08089146 -0.06299917
0002e0 56 61 76 bd 5c 6c df 3d ac c0 08 be 06 e8 0a be
       -0.06015142 0.1090934 -0.13354748 -0.13565072
0002f0 e3 fc 27 be 4b dc bd 3b f7 2b 07 3e 88 df e1 3d
       -0.16405062 0.0057940832 0.13200365 0.11028963
000300 a8 d2 c6 bd 50 7b 5d 3e 01 df f0 3c 92 b1 ef 3d
       -0.09708148 0.21629071 0.029403212 0.11703791
000310 01 49 96 3d ef 95 66 bd d9 9c 5e 3e 63 10 f4 bd
       0.07338143 -0.05629533 0.2173952 -0.11917188
000320 b6 50 91 bd 1f 43 e0 3d 7f 51 12 be 5f 10 6a 3d
       -0.070954725 0.10950302 -0.14288901 0.05714452
000330 14 48 34 be 78 b6 03 be ff e0 0e 3e 50 ff 55 3e
       -0.1760562 -0.12862575 0.13953017 0.20898175
000340 89 6a fc bc 13 9c 31 3e d3 11 f2 bd df 62 dd bd
       -0.030812519 0.17344694 -0.11819806 -0.10809874
000350 74 cc 84 3c a5 96 c2 3d ea ad 21 be 5a 41 39 bc
       0.016210772 0.095013894 -0.15788999 -0.011307085
000360 70 2c f5 3d c9 db 4f be b5 04 1d 3e c5 b4 43 3e
       0.119713664 -0.20298685 0.15333827 0.19111927
000370 3c 16 05 be 52 ca d0 3d f1 3f 81 3d 9e 6a 2d be
       -0.12996763 0.101948395 0.06311024 -0.16935202
000380 3e ae 30 be 2f ed 30 be dc 89 61 3e c7 88 85 3d
       -0.17253968 -0.17277978 0.22025245 0.06520229
000390 7c 1e 4b 3e d9 a2 56 be 1d 10 51 3e 94 1f a3 bb
       0.19835848 -0.20960559 0.20416303 -0.0049781296
0003a0 d0 1e 2c 3e 8e 3b 56 be 25 41 3d be 0b 31 36 3d
       0.16808629 -0.20921156 -0.18481882 0.044480365
0003b0 ed eb 28 bd cb a8 d9 bc a9 47 45 be c2 7e 7c bd
       -0.04124062 -0.026569745 -0.19265617 -0.061644323
0003c0 39 05 0f 3e 64 4d 05 be fd ab b7 bd 0d aa 1d be
       0.13966836 -0.13017803 -0.08968351 -0.153969
0003d0 ce d8 80 bc 4e f4 26 bc 92 89 24 be b1 ee d3 3d
       -0.01572838 -0.010190083 -0.16068104 0.10348261
0003e0 53 b9 59 bc eb b0 e4 bd eb 38 15 be d9 ff 08 3e
       -0.013288814 -0.11166557 -0.14572494 0.13378848
0003f0 e0 0c bb bc 8d a2 28 be 72 31 08 3e 83 63 b7 bd
       -0.022833288 -0.16468258 0.13300112 -0.08954527
