models/best_fraud_model_seed_42.pth (torch, 378142 bytes, 45 tensors)

node_emb.weight f4 [64, 8]
0	0xbea17a46	-0.315386
1	0xbdbf2020	-0.09332299
2	0xbea2147e	-0.3165626
3	0x3e291026	0.16510066
4	0xbe6d2739	-0.23159494
5	0xbe60b8ab	-0.21945445
6	0x3e79d2c7	0.24396811
7	0xbde38ef5	-0.11111251
8	0xbe818ec5	-0.25304237
9	0x3d8e3788	0.069441855
10	0xbe58a965	-0.21158369
11	0xbd818d04	-0.06325725
12	0x3d573a69	0.05254594
13	0xbdbc7f80	-0.09204006
14	0x3e939dc0	0.2883129
15	0xbe8d1062	-0.27551562
16	0xbe966183	-0.2937127
17	0x3c98a773	0.018634534
18	0x3e940534	0.2891022
19	0x3e000d42	0.12505057
20	0x3d75cbd5	0.060008842
21	0xbd14f39f	-0.036365148
22	0x3e52b54e	0.20576975
23	0x3e4b1e43	0.19835763
24	0xbe24b98b	-0.16086404
25	0xbe7a1fa0	-0.24426126
26	0xbe34a143	-0.17639641
27	0x3e9bbe36	0.30418557
28	0xbe3a60cc	-0.18200988
29	0xbe84fff0	-0.25976515
30	0x3be349a4	0.006936269
31	0x3d2c0d34	0.04200478
32	0xbe7464e1	-0.23866607
33	0x3db600f2	0.08886899
34	0x3e497dd7	0.1967691
35	0x3e37e491	0.17958285
36	0x3dd2e42b	0.10297426
37	0xbe9798ac	-0.29608667
38	0x3e07bfc0	0.1325674
39	0xbc831147	-0.01599945
40	0x3e95d039	0.29260424
41	0xbe9bbf14	-0.3041922
42	0x3e2b108d	0.16705532
43	0x3e91b77d	0.28460303
44	0xbdc36c02	-0.09542085
45	0x3d7df0fc	0.0619974
46	0x3dd4277d	0.10359094
47	0x3d102d2c	0.03519933
48	0x3e222b95	0.15836938
49	0xbe194b33	-0.14970092
50	0xbe88143d	-0.2657794
51	0x3e8df95d	0.27729312
52	0x3d88ffec	0.06689438
53	0x3d874ad1	0.06606067
54	0xbe93bc24	-0.28854477
55	0xbddf940f	-0.10916912
56	0x3c0b7e8c	0.008514058
57	0xbe970dcd	-0.29502717
58	0xbe9d5772	-0.30730778
59	0x3e9896c0	0.29802513
60	0xbe1f55ca	-0.1556007
61	0xbe365659	-0.17806377
62	0xbe9544e4	-0.29154122
63	0x3e9eb4e2	0.30997378
64	0x3e7c98e2	0.24667695
65	0xbea76003	-0.3269044
66	0xbe27e0a5	-0.16394289
67	0x3e9bcae9	0.30428246
68	0xbe94c822	-0.2905894
69	0xbd888893	-0.066666745
70	0xbdee2a11	-0.11629117
71	0xbe562128	-0.20911086
72	0xbce6dc58	-0.02818124
73	0xbe54d6ff	-0.2078514
74	0xbdf01a94	-0.117238194
75	0x3d220de3	0.039564025
76	0xbe1af721	-0.15133335
77	0x3d9e68c0	0.07734823
78	0xbe6a9851	-0.22909667
79	0x3dd235f0	0.10264194
80	0xbe60ca61	-0.21952201
81	0xbe4c400e	-0.1994631
82	0x3d203bb5	0.03911944
83	0x3d3509e6	0.044198893
84	0x3e15e21e	0.14637038
85	0xbdabd633	-0.08390465
86	0xbdd9ecd8	-0.106408775
87	0x3e4104f4	0.18849546
88	0x3e29c220	0.16577959
89	0xbe036202	-0.12830356
90	0xbe06a88b	-0.13150232
91	0xbcbbe8a0	-0.022938073
92	0xbe436679	-0.19082059
93	0xbd3a0412	-0.045414038
94	0xbe0d9831	-0.13827588
95	0xbe4a8493	-0.19777136
96	0xbe6693c5	-0.22517307
97	0xbe5942c2	-0.21216872
98	0xbe65412a	-0.2238814
99	0x3de7a3e6	0.11310558
100	0xbe5c8c9a	-0.2153801
101	0x3eadedd1	0.33970502
102	0xbd42a5bf	-0.04752135
103	0xbdbf609d	-0.093445994
104	0x3e6e5f6f	0.23278593
105	0xbe9ee689	-0.3103526
106	0x3e8588ef	0.26081035
107	0xbdd294ad	-0.10282264
108	0xbe273147	-0.16327392
109	0xbe908aed	-0.28230992
110	0x3e8db426	0.27676505
111	0x3ea12ec1	0.31480983
112	0xbdae999e	-0.08525394
113	0x3e96b0f1	0.2943187
114	0xbe50f303	-0.20405202
115	0x3e3145ea	0.17311826
116	0xbdc52c04	-0.09627536
117	0xbe8034d5	-0.25040308
118	0x3e3acb2e	0.1824157
119	0x3dedc3c0	0.11609602
120	0x3e87583c	0.26434505
121	0xbdd9426c	-0.10608372
122	0xbdf8b01e	-0.12142967
123	0xbe9a99bb	-0.30195412
124	0x3daa6318	0.08319682
125	0xbe6f0422	-0.2334142
126	0x3d423857	0.04741701
127	0xbe9ec2c7	-0.31007978
128	0x3e92ef9a	0.28698426
129	0x3df1b00d	0.11801157
130	0xbd9af5f3	-0.07566442
131	0x3d118196	0.035523973
132	0x3ea38fe2	0.3194571
133	0xbe341209	-0.17585005
134	0x3e13ae37	0.14421926
135	0x3ce20f13	0.027595079
136	0x3b82de9e	0.003993823
137	0xbe2f18dc	-0.17099327
138	0xbe1949bd	-0.14969535
139	0x3eabd11a	0.3355797
140	0xbe377354	-0.17915088
141	0x3d8539c4	0.065051585
142	0x3e06bbb8	0.13157547
143	0x3da60d45	0.08108
144	0xbdcaa926	-0.09895544
145	0x3e2aa264	0.1666351
146	0xbd920eb2	-0.07131709
147	0xbdae4e73	-0.08511057
148	0x3e6224b6	0.22084317
149	0xbd88c554	-0.06678262
150	0xbe09bb68	-0.13450396
151	0x3bb3fd0b	0.0054928116
152	0xbe92fbc3	-0.28707704
153	0xbe4f1208	-0.20221722
154	0xbea1e9ad	-0.31623593
155	0x3eacdc34	0.33761752
156	0x3eb4bc73	0.35300025
157	0xba59d516	-0.00083096453
158	0x3e28861c	0.16457409
159	0xbe95e8b1	-0.29279092
160	0x3e9159cb	0.2838882
161	0xbdf3c53c	-0.11902854
162	0x3ea91391	0.3302274
163	0x3e90b152	0.28260285
164	0x3e9c733c	0.30556667
165	0xbd0712f6	-0.032977067
166	0x3e77303a	0.2413949
167	0x3e8728c0	0.26398277
168	0x3de7894e	0.11305486
169	0xbea84b3b	-0.32869896
170	0x3e3ffa76	0.18747887
171	0x3ea29db1	0.31760934
172	0x3ea168d7	0.315253
173	0x3ea8218f	0.32838103
174	0xbe852d58	-0.26011157
175	0xbc711e81	-0.014716745
176	0x3e337a73	0.1752718
177	0xbd692f53	-0.056929898
178	0xbeac137e	-0.3360862
179	0xbe89ee6f	-0.26939723
180	0x3e813841	0.2523823
181	0x3e904bfb	0.28182968
182	0xbdb863f7	-0.09003442
183	0xbe25ee71	-0.1620424
184	0x3ea1b268	0.31581426
185	0x3c71b157	0.014751754
186	0xbe4a761a	-0.19771615
187	0x3cd0cf5f	0.025489507
188	0x3ddb7779	0.10716147
189	0xbe4b29d5	-0.19840176
190	0x3e97d072	0.2965122
191	0x3e0a20da	0.13489094
192	0x3e0aa2a2	0.13538602
193	0xbde62124	-0.1123679
194	0xbdd8f37a	-0.105933145
195	0xbdf0b02b	-0.117523514
196	0xbea0fedb	-0.3144444
197	0x3e9fb800	0.31195068
198	0xbe3d2229	-0.18470062
199	0x3ce42b04	0.027852543
200	0x3e8f4ebb	0.27989754
201	0x3dfe1748	0.12406784
202	0xbddc323e	-0.107517704
203	0x3e770af2	0.24125269
204	0x3eb7a5cb	0.35868677
205	0x3dd7d2e1	0.10538269
206	0xbe998b15	-0.29988924
207	0x3d73077e	0.059333317
208	0xbe5487d6	-0.20754942
209	0x3e3dff7a	0.18554488
210	0x3e96177b	0.2931479
211	0xbeaf97f7	-0.34295627
212	0x3e8defcc	0.27722013
213	0x3e08a371	0.13343598
214	0x3d37b4c3	0.044850122
215	0xbe79164e	-0.24324915
216	0xbe15e038	-0.14636314
217	0x3dbf8625	0.09351758
218	0x3e909ef9	0.28246287
219	0xbcb2e8c3	-0.021839505
220	0x3e5d98c4	0.21640307
221	0xbe936041	-0.28784373
222	0xbe905361	-0.28188613
223	0x3e44d2b8	0.19221008
224	0xbeb2aa17	-0.34895393
225	0xbd7cb5f3	-0.061696958
226	0x3eb227cc	0.34795988
227	0xbe83d7e2	-0.25750643
228	0x3e95bbe3	0.2924491
229	0xbe225894	-0.15854102
230	0x3e39dea9	0.18151344
231	0x3e1651cc	0.1467964
232	0xbe8d1797	-0.2755706
233	0xbe9f299f	-0.31086442
234	0xbe37e5a1	-0.1795869
235	0x3e96d077	0.2945592
236	0x3eabf220	0.33583164
237	0x3eb5c802	0.35504156
238	0x3d7b6686	0.06137707
239	0x3eb3a34b	0.3508552
240	0xbe9fc93f	-0.31208226
241	0x3eb4d7c1	0.35320857
242	0xbe0b9b01	-0.13633348
243	0xbc5c0c49	-0.013430663
244	0x3e25cca9	0.16191353
245	0x3e5a5252	0.21320465
246	0x3e006fd4	0.12542659
247	0x3ea6198e	0.32441372
248	0xbe71115d	-0.2354178
249	0xbe916cc5	-0.28403297
250	0xbd83ef92	-0.06442179
251	0x3d5f0c19	0.054454897
252	0x3e11751b	0.14204828
253	0xbe39b290	-0.18134522
254	0x3e4ff2d7	0.2030748
255	0x3d3775c9	0.044790063

node_emb.bias f4 [64]
0	0xbb91a1cb	-0.004444336
1	0xbe0a54a9	-0.13508858
2	0x3e31972a	0.17342821
3	0xbe3e0dbe	-0.1855993
4	0xbe438990	-0.19095445
5	0xbeac66d3	-0.336722
6	0xbd864fb8	-0.06558174
7	0xbe9e7877	-0.30951282
8	0xbe3fcba2	-0.18730024
9	0x3e361d9d	0.17784734
10	0x3eac41f8	0.3364408
11	0xbe01b5e5	-0.12667044
12	0x3da5ccc9	0.080957
13	0x3e8941cb	0.2680801
14	0xbe175a8a	-0.14780632
15	0xbd579b8e	-0.052638583
16	0xbd6d05f2	-0.057866998
17	0x3d8756dd	0.06608365
18	0xbcaf099a	-0.021366883
19	0x3eae9026	0.34094352
20	0xbe830684	-0.2559091
21	0x3e02de15	0.1278003
22	0xbe1359a1	-0.1438966
23	0xbe72b6d3	-0.23702554
24	0xbdb5fbe9	-0.08885939
25	0x3e10246b	0.14076392
26	0xbe986f2f	-0.29772326
27	0xbc437f8e	-0.011932267
28	0xbe88b81d	-0.26702967
29	0x3e4e1321	0.20124485
30	0xbd92f8e8	-0.07176381
31	0x3d8a16a7	0.06742602
32	0xbd59886a	-0.05310861
33	0xbe22053a	-0.15822306
34	0x3d0a5085	0.033768196
35	0xbe707330	-0.2348144
36	0x3e8b9474	0.27261698
37	0x3e81d7a5	0.25359836
38	0xbe87ab5c	-0.26497924
39	0x3e9c0298	0.3047073
40	0x3e94b62c	0.29045236
41	0xbe779030	-0.24176097
42	0x3dfc7236	0.123264715
43	0x3e0b5d7d	0.13609882
44	0x3e2e494c	0.17020148
45	0x3dc1258b	0.09430989
46	0xbe856ea1	-0.26060966
47	0xbdc27c9d	-0.09496424
48	0xbe872cdc	-0.26401412
49	0xbe99d2bd	-0.30043593
50	0xbe804a81	-0.25056842
51	0xbdc9a38c	-0.09845647
52	0x3d20b79d	0.039237607
53	0xbe4d0b5b	-0.20023863
54	0x3ea2d326	0.31801718
55	0x3e8e99a6	0.278516
56	0x3e97a46e	0.29617637
57	0xbe692b60	-0.22770452
58	0x3e4ab8a0	0.19796991
59	0x3e8c9a41	0.27461436
60	0x3c62ed64	0.013850544
61	0x3ea7e7a4	0.32793915
62	0x3e8a45df	0.27006432
63	0xbd2d8b47	-0.042369153

edge_emb.weight f4 [64, 2]
0	0x3ef5608d	0.47925225
1	0x3f2dc3ec	0.6787708
2	0xbef775cb	-0.48332056
3	0x3e9de551	0.30839017
4	0xbeed02d1	-0.4629121
5	0x3f23b14d	0.63942415
6	0x3e467647	0.19381057
7	0xbdca46d7	-0.09876793
8	0xbf1b8bc5	-0.60760146
9	0xbef95ab4	-0.48702013
10	0x3eab37a0	0.33440876
11	0xbd1a9ab9	-0.03774521
12	0xbf17dd59	-0.59322125
13	0xbc1a13a0	-0.009404093
14	0xbe936e97	-0.2879531
15	0x3f0c9f51	0.549306
16	0xbf298725	-0.6622184
17	0x3efabfa0	0.48974323
18	0xbe5d4fdf	-0.216125
19	0x3efd012c	0.49414957
20	0x3e9e45b1	0.30912545
21	0x3f04ec7b	0.5192334
22	0x3e6900cf	0.22754215
23	0xbe7aea33	-0.24503402
24	0xbf12efe0	-0.5739727
25	0xbe23b583	-0.1598721
26	0x3d2ee0e0	0.042694926
27	0xbd1306ec	-0.035895273
28	0x3e51853e	0.20460984
29	0xbf07ce5b	-0.5304925
30	0x3f1af5b0	0.6053114
31	0xbe2f91bd	-0.17145438
32	0x3f23bcbd	0.63959867
33	0xbe9e53c1	-0.30923274
34	0x3e0804e4	0.13283116
35	0x3d8d7f8b	0.069090925
36	0xbf0e4c0d	-0.55584794
37	0xbf0b857f	-0.54500574
38	0xbe9e6dfb	-0.30943283
39	0xbeae7b6d	-0.3407854
40	0xbe4add09	-0.1981088
41	0xbe9f88f9	-0.3115919
42	0xbc060381	-0.008179546
43	0xbdbf01ed	-0.09326539
44	0xbdbace13	-0.09121337
45	0xbeb79216	-0.35853642
46	0xbe2d8f0b	-0.16949098
47	0xbf265213	-0.64968985
48	0x3f00cfe9	0.50317246
49	0x3d5f068d	0.054449607
50	0x3f0c95fc	0.5491636
51	0x3edae6da	0.4275425
52	0x3eb28522	0.34867197
53	0x3f1627d1	0.58654505
54	0xbdecf493	-0.11570086
55	0xbe148612	-0.14504269
56	0xbf1e9e17	-0.61959976
57	0xbe44cd71	-0.19218995
58	0xbedd21b1	-0.43189767
59	0xbf2c2696	-0.6724638
60	0xbf203b83	-0.6259081
61	0xbf1a8925	-0.60365516
62	0xbe5e94ca	-0.21736446
63	0xbe97ea7e	-0.2967109
64	0xbe5edcd7	-0.21763931
65	0xbf184120	-0.5947437
66	0xbe11cac9	-0.14237513
67	0xbf148b1b	-0.5802476
68	0x3e8b07f3	0.27154502
69	0x3f20b544	0.6277659
70	0x3ecb5ca3	0.39719114
71	0x3f2cd9cc	0.6751983
72	0xbeeb9f7e	-0.4602012
73	0xbf0ec68c	-0.5577171
74	0xbdfd56e7	-0.12370091
75	0x3e8aa543	0.2707921
76	0xbe80cecc	-0.25157773
77	0x3ec8ad26	0.39194602
78	0x3ef3528b	0.47523913
79	0xbf28dcb8	-0.6596179
80	0xbdb16702	-0.08662225
81	0x3eca0a9e	0.39461225
82	0x3ea7d743	0.3278142
83	0x3f2cbd18	0.67476034
84	0xbe60be35	-0.21947558
85	0x3ec389eb	0.3819116
86	0x3e94de0c	0.29075658
87	0x3f074765	0.52843314
88	0x3e04cd32	0.12968901
89	0xbef6e4b2	-0.48221356
90	0xbe262822	-0.16226247
91	0xbe61a296	-0.22034678
92	0xbf1a32b3	-0.6023361
93	0x3e84a93a	0.2591036
94	0x3e2232a2	0.15839627
95	0xbed0f2d9	-0.40810278
96	0xbeaf5d8a	-0.34251052
97	0xbf0a2dd3	-0.5397617
98	0x3da03247	0.0782209
99	0xbe3962ef	-0.18104146
100	0xbf1e28ef	-0.6178121
101	0xbe11ebb7	-0.14250074
102	0x3e9731f9	0.29530314
103	0x3ea1bec8	0.31590867
104	0xbf090016	-0.53515756
105	0x3ed2d046	0.41174525
106	0x3e230596	0.159201
107	0x3efdbe46	0.4955923
108	0xbf05d87e	-0.52283466
109	0x3cbd0c32	0.023077104
110	0x3cc06236	0.02348433
111	0xbefa1fbf	-0.48852345
112	0xbee27337	-0.44228527
113	0xbdb7f9ab	-0.08983167
114	0xbeab7017	-0.33483955
115	0x3e2175aa	0.15767542
116	0xbedd7de7	-0.43260118
117	0xbe422b52	-0.18961838
118	0xbe0cf911	-0.13766886
119	0xbe23f565	-0.1601158
120	0xbe0af85a	-0.13571301
121	0x3ec4defc	0.38451374
122	0xbf235dfb	-0.6381528
123	0xbeed6003	-0.46362314
124	0xbf155016	-0.58325326
125	0xbef8d13d	-0.48597136
126	0x3eb1087c	0.34576786
127	0x3e8700ba	0.26367742

edge_emb.bias f4 [64]
0	0x3e661e2b	0.22472446
1	0x3f0b0a5c	0.5431268
2	0x3e415f09	0.1888391
3	0x3f188261	0.5957394
4	0x3f0c02f8	0.5469203
5	0x3d0e9862	0.034813292
6	0xbebbf021	-0.3670664
7	0xbec117dd	-0.3771352
8	0xbea8b7cc	-0.32952726
9	0xbe9cba45	-0.30610862
10	0xbea84056	-0.32861584
11	0x3f35cb06	0.71012914
12	0x3d0c6a9d	0.03428136
13	0xbe9211b9	-0.28529146
14	0xbec8606a	-0.39136058
15	0x3f34b18a	0.70583403
16	0x3e640ff6	0.22271714
17	0x3e9e19a9	0.30878952
18	0x3ee690d3	0.45032367
19	0x3ed80ecc	0.4219879
20	0xbec2b7d5	-0.38030878
21	0x3f016b0f	0.50553983
22	0xbf16f97d	-0.5897444
23	0xbde41edc	-0.111386985
24	0x3f1c1d24	0.60981965
25	0xbe836afd	-0.25667563
26	0x3eb15bd3	0.3464037
27	0x3e0e650b	0.13905732
28	0xbe9aa2c2	-0.302023
29	0x3ebf9dba	0.37425023
30	0x3edfa47d	0.43680182
31	0xbf1fcb5a	-0.62419665
32	0x3d82d690	0.06388581
33	0x3ef55a36	0.47920388
34	0xbeda883b	-0.4268206
35	0xbec000f0	-0.37500715
36	0x3eb28eb3	0.34874496
37	0xbec31a88	-0.3810618
38	0xbf022485	-0.50836974
39	0xbd1d3f00	-0.03839016
40	0x3f2b4787	0.6690602
41	0x3e90e07b	0.28296265
42	0xbf2cf0d5	-0.6755498
43	0xbf3289ea	-0.6974169
44	0xbd920f0d	-0.07131777
45	0xbecd2308	-0.4006579
46	0xbdba8aef	-0.09108531
47	0xbe98e751	-0.2986398
48	0x3f138ff4	0.5764153
49	0x3eea5425	0.45767322
50	0xbd97830e	-0.073980436
51	0x3e74b7cc	0.23898238
52	0xbf2b649d	-0.669504
53	0xbe354f4f	-0.17706035
54	0x3f14439e	0.57915676
55	0xbd4a0653	-0.049322437
56	0xbeea2eb3	-0.45738754
57	0x3ece24e1	0.4026251
58	0x3f29508c	0.6613853
59	0x3dc6948f	0.09696304
60	0xbe53fc81	-0.20701791
61	0x3e982267	0.29713747
62	0xbf1b8d14	-0.60762143
63	0x3d4ef704	0.05052854

gat_layers.0.att_src f4 [1, 4, 16]
0	0x3e4f46cb	0.20241849
1	0xbeea47b4	-0.4575783
2	0xbf0a6a7c	-0.5406873
3	0x3ed8873d	0.4229068
4	0xbe4cd679	-0.2000369
5	0x3ebc57af	0.36785647
6	0x3e5b1543	0.2139483
7	0xbe13706e	-0.14398357
8	0xbf06d8fe	-0.52674854
9	0xbac73247	-0.0015197479
10	0x3f07f7e9	0.53112656
11	0xbed16519	-0.40897444
12	0x3efd4345	0.49465385
13	0x3ec5bbfc	0.38619983
14	0xbecda1ff	-0.40162656
15	0xbf0855d4	-0.53255963
16	0x3d4b5897	0.049645033
17	0xbe8361a0	-0.2566042
18	0xbed54dab	-0.41660818
19	0x3ee08089	0.43848065
20	0xbe3b1efa	-0.18273535
21	0x3e1fe02c	0.15612859
22	0xbed2ee91	-0.41197637
23	0xbe3063b0	-0.17225528
24	0x3ec05c4b	0.37570414
25	0x3e4d925d	0.20075364
26	0x3f0a4c64	0.5402281
27	0xbd6efc45	-0.05834605
28	0x3ecc3930	0.3988738
29	0xbedfae8b	-0.43687853
30	0x3e8a404c	0.2700218
31	0xbec48b6e	-0.38387626
32	0x3e5a5ec9	0.2132522
33	0xbe27b4bc	-0.16377538
34	0xbe22a404	-0.1588288
35	0x3e24243b	0.16029446
36	0xbe671d83	-0.22569852
37	0xbf082302	-0.5317842
38	0xbe8f4274	-0.27980387
39	0x3ed130dc	0.4085759
40	0xbd87207c	-0.06597993
41	0x3e005799	0.12533416
42	0xbdb4379e	-0.08799671
43	0xbd37c49c	-0.044865236
44	0xbef846c3	-0.48491487
45	0xbebe0556	-0.37113446
46	0x3e4c4a30	0.19950175
47	0xbee39fd4	-0.44457877
48	0xbe4beaf8	-0.19913852
49	0xbe2e15af	-0.17000459
50	0x3ea2b9f8	0.31782508
51	0x3e195c32	0.14976576
52	0xbed1b052	-0.40954834
53	0x3d3f0509	0.04663566
54	0x3e88e3d0	0.26736307
55	0xbe8cbe5f	-0.27488992
56	0x3d82b26a	0.06381686
57	0x3aed610d	0.0018110588
58	0xbef921b6	-0.48658532
59	0xbe24a31b	-0.16077845
60	0xbe0b3a09	-0.13596357
61	0x3e3de603	0.18544774
62	0x3ef14e33	0.47129974
63	0xbedb90f7	-0.42884037

gat_layers.0.att_dst f4 [1, 4, 16]
0	0x3eb76b5b	0.35824093
1	0xbf028ec1	-0.50999075
2	0x3e84e0bc	0.2595271
3	0x3ee81b47	0.4533331
4	0x3f0abf8b	0.5419852
5	0xbe244b03	-0.1604424
6	0xbe9b30b7	-0.30310604
7	0xbedb66df	-0.42851922
8	0xbe1abb7f	-0.15110587
9	0x3ecb09ec	0.39656007
10	0x3d433e1a	0.047666647
11	0x3de8309b	0.11337396
12	0xbefaf9b0	-0.4901862
13	0xbe697fc8	-0.22802651
14	0x3e2b7231	0.1674278
15	0xbf0a1a8b	-0.5394675
16	0x3ee539d1	0.44770673
17	0x3e2ce5ea	0.1688458
18	0xbe39f151	-0.18158461
19	0xbdb46334	-0.08807984
20	0x3e747899	0.2387413
21	0x3ee5c5e6	0.44877547
22	0x3ea42158	0.3205669
23	0xbf0553fb	-0.5208127
24	0x3eaf5d4f	0.34250876
25	0xbc2a0097	-0.010376117
26	0xbeda9672	-0.42692906
27	0xbd89ab02	-0.0672207
28	0xbe42747a	-0.18989745
29	0xbe9c1061	-0.30481246
30	0xbdb6b46d	-0.08921132
31	0xbd457610	-0.048208296
32	0xbec402de	-0.38283437
33	0x3ea7d566	0.32779998
34	0x3e7d7164	0.24750286
35	0xbe76b574	-0.24092656
36	0x3ea26e10	0.31724596
37	0xbea40a8a	-0.3203929
38	0x3ebf0948	0.3731177
39	0xbe79a28a	-0.2437841
40	0xbea18ea0	-0.31554127
41	0xbd008f78	-0.031386822
42	0xbec8d2d6	-0.39223355
43	0x3e03e0a6	0.12878665
44	0x3ee4df2e	0.44701523
45	0xbe393f80	-0.1809063
46	0x3dc7343e	0.09726761
47	0xbdc531ea	-0.09628661
48	0x3d90c1d8	0.07068223
49	0x3df3cd86	0.11904435
50	0x3c3a892d	0.011385244
51	0x3e802a08	0.25032067
52	0xbf09b8eb	-0.5379779
53	0x3e1332d6	0.14374861
54	0x3df0f7b4	0.117659956
55	0xbe18ad96	-0.14909968
56	0xbef087e6	-0.46978682
57	0xbecda518	-0.4016502
58	0xbe8e8d66	-0.27842253
59	0x3ea8c6e8	0.32964253
60	0xbe3f0db8	-0.18657577
61	0xbe3364dc	-0.17518944
62	0x3e8146a2	0.252492
63	0x3e9b767a	0.30363828

gat_layers.0.att_edge f4 [1, 4, 16]
0	0x3e0190bd	0.1265287
1	0xbe157c90	-0.14598298
2	0xbe4b80c5	-0.1987334
3	0x3ee1a3d2	0.44070297
4	0x3ed0e323	0.40798292
5	0xbe4927e0	-0.19644117
6	0xbe9069be	-0.28205675
7	0xbdb1b789	-0.08677585
8	0x3f06b59b	0.5262086
9	0x3ed31754	0.41228735
10	0x3d9bd7c7	0.07609516
11	0xbcd3071d	-0.025760228
12	0x3ee0f60e	0.43937725
13	0x3eefeeef	0.4686198
14	0xbe79348e	-0.24336454
15	0x3e0cf8c8	0.13766778
16	0xbeca3450	-0.39493036
17	0x3f0354ea	0.51301444
18	0xbe788939	-0.24271096
19	0x3d7fee5c	0.062483177
20	0xbf049940	-0.5179634
21	0x3f0bf6a0	0.54673195
22	0x3ea47734	0.32122195
23	0xbd20cab7	-0.039255824
24	0x3f01e65b	0.5074212
25	0x3edaf060	0.42761517
26	0x3daa3556	0.08310954
27	0xbc2c6f14	-0.01052453
28	0xbec5776a	-0.38567668
29	0x3eaa85c9	0.33305195
30	0xbe0e779f	-0.1391282
31	0xbf028837	-0.509891
32	0x3efc5033	0.49279937
33	0xbedbc83e	-0.4292621
34	0x3e0b5a26	0.13608608
35	0x3e1631d7	0.1466745
36	0xbeab1256	-0.33412427
37	0xbef5f1e5	-0.48036113
38	0x3e7ba4f2	0.2457464
39	0x3eb63999	0.3559082
40	0xbeebaaa8	-0.46028638
41	0x3d9b7d43	0.07592251
42	0x3df3c783	0.11903288
43	0xbee1906b	-0.44055495
44	0x3efa2da6	0.48862952
45	0x3db8ce4f	0.09023725
46	0x3f096421	0.5366841
47	0x3e93ecb5	0.2889153
48	0xbd43ddea	-0.047819056
49	0xbe69c1c1	-0.22827817
50	0xbeeb1081	-0.4591103
51	0x3e9e338d	0.30898705
52	0x3e8dfe61	0.27733138
53	0x3f0494cc	0.51789546
54	0xbef61e15	-0.48069826
55	0x3ed9fb12	0.42574364
56	0xbcda1d91	-0.026625426
57	0x3eecce93	0.46251354
58	0x3de35921	0.11100984
59	0x3e3658e0	0.1780734
60	0x3da51f1c	0.08062574
61	0xbe5f37d3	-0.21798639
62	0xbd8f9768	-0.070113
63	0xbf06484e	-0.5245408

gat_layers.0.bias f4 [64]
0	0xbab91ccc	-0.0014122962
1	0xbbd941d1	-0.0066301604
2	0xbbe8c998	-0.00710411
3	0xba937d46	-0.0011252544
4	0xbbcb9069	-0.0062122834
5	0xbbe23d9a	-0.006904316
6	0x3bf989e0	0.007615313
7	0xbbea48b4	-0.00714978
8	0x3c1aaa91	0.00944008
9	0x398764ff	0.00025824454
10	0x3bc472f5	0.0059951493
11	0x3c068efa	0.008212799
12	0xbb8b1c52	-0.0042453194
13	0xbbcda960	-0.0062762946
14	0xbbe770ec	-0.007063022
15	0xbbd5cd38	-0.006524708
16	0xbba367bf	-0.0049867327
17	0xbbdfe2a6	-0.0068324385
18	0xbbdbc023	-0.006706254
19	0xbbcd53b8	-0.0062660836
20	0xbb9f77bd	-0.004866569
21	0xbbcdb647	-0.0062778327
22	0xbbe63ca2	-0.007026271
23	0xb9b4c12c	-0.000344762
24	0xbbeac6ea	-0.0071648257
25	0x3c31cf76	0.010852685
26	0x3b7c7efb	0.0038527835
27	0xbbe39413	-0.006945142
28	0x3bb159f1	0.005412333
29	0xbbcdd6b1	-0.0062816967
30	0xbbde56d7	-0.0067852545
31	0xbbba2cd7	-0.005681615
32	0x3b51c764	0.0032009715
33	0xbbda84dd	-0.0066686706
34	0xbbe9d8de	-0.0071364483
35	0x3b8d50c9	0.004312609
36	0x3bb687b3	0.005570376
37	0xbbec3802	-0.007208825
38	0xbbe23a26	-0.0069039045
39	0xbbd1f195	-0.0064069727
40	0xbbd88f22	-0.0066088596
41	0xbb9c5856	-0.0047712727
42	0xbbea01ed	-0.007141343
43	0xbba89da0	-0.0051457435
44	0xbbd08883	-0.0063639297
45	0x3bc9b510	0.0061556175
46	0xbbe10e0a	-0.0068681287
47	0xbbded6f0	-0.006800525
48	0xbbeb4777	-0.00718015
49	0xbbd37f77	-0.006454404
50	0x3b9d95c5	0.0048091137
51	0x3bbfb80f	0.005850799
52	0xbbcde2e6	-0.006283152
53	0xbbcf1165	-0.0063192123
54	0xbbcb239c	-0.0061993133
55	0xbbcb5dba	-0.0062062414
56	0xba06053c	-0.00051124743
57	0xbbcf4b3c	-0.0063261073
58	0x3b186331	0.0023252482
59	0xbbd4c3fc	-0.0064930897
60	0xbbabedd0	-0.0052468553
61	0xbbce906d	-0.006303838
62	0x3c0009c1	0.0078148255
63	0xbbcc5ed7	-0.0062368917

gat_layers.0.lin.weight f4 [64, 64]
0	0xbe571e37	-0.2100762
1	0x3e5f7797	0.21822964
2	0xbe3144a7	-0.17311345
3	0xbde35fdf	-0.1110227
4	0xbdddbae1	-0.1082666
5	0xbe457200	-0.19281769
6	0x3e22bfc3	0.15893464
7	0x3e23be87	0.15990649
8	0xbe4acb90	-0.19804215
9	0x3dd2b1f0	0.10287845
10	0xbe49f46e	-0.19722149
11	0x3d63de23	0.055631768
12	0x3d938972	0.0720395
13	0xbe08bf1c	-0.13354152
14	0x3b3d1c4a	0.0028855973
15	0x3dc07c33	0.09398689
16	0xbc303db3	-0.010756898
17	0xbceccfa9	-0.028907614
18	0xbdf342a5	-0.11877946
19	0x3cd539e2	0.026028577
20	0xbe0af60c	-0.13570422
21	0x3d9f91b8	0.077914655
22	0xbe095a41	-0.13413335
23	0xbe0d9214	-0.13825256
24	0x3e5778ca	0.21042171
25	0x3e61ca0a	0.22049728
26	0x3e52511b	0.20538752
27	0xbd462174	-0.048371747
28	0x3dbcad30	0.092127204
29	0xbe54c0b8	-0.20776641
30	0xbdf256b9	-0.11832947
31	0x3e257f06	0.16161737
32	0xbcd6f140	-0.026238084
33	0x3d87130f	0.06595432
34	0xbd386c4f	-0.045025166
35	0xbd144db1	-0.036206905
36	0x3c676225	0.014122521
37	0xbdf1b5e0	-0.11802268
38	0xbd521435	-0.051288802
39	0x3e43ba93	0.19114141
40	0xbd377d94	-0.044797495
41	0xbdeb9439	-0.115028806
42	0xbd817402	-0.06320955
43	0xbe498b49	-0.1968204
44	0xbe4047a2	-0.18777326
45	0xbe43566e	-0.19075939
46	0x3e190a93	0.1494544
47	0x380f767c	3.4204204e-05
48	0xbdc5a885	-0.09651283
49	0xbe0da8be	-0.13833901
50	0x3e3ffeb5	0.18749507
51	0x3da292b8	0.07938141
52	0x3deaa42a	0.11457093
53	0xbe008c2d	-0.12553473
54	0x3c5c23f9	0.013436311
55	0xbd8bce57	-0.068264656
56	0xbe0baeb2	-0.1364086
57	0xbdedabe2	-0.1160505
58	0x3e0ec221	0.13941242
59	0x3d7a8855	0.061165173
60	0x3af7831d	0.0018883679
61	0xbd5629e2	-0.052286036
62	0xbe33855a	-0.17531338
63	0xbcbe4dc4	-0.02323044
64	0xbb039fa4	-0.0020084167
65	0x3e30b1dd	0.1725535
66	0x3dc89b7d	0.09795282
67	0x3de339e1	0.11095024
68	0x3e13f4bf	0.14448832
69	0xbdb6be02	-0.0892296
70	0x3e2edf9e	0.1707749
71	0x3e06e760	0.131742
72	0x3d4289b5	0.04749461
73	0xbe2bbb2c	-0.16770619
74	0xbd190846	-0.037361406
75	0xbe3c736a	-0.18403402
76	0x3e28b6e2	0.16476014
77	0xbe4c593d	-0.19955917
78	0xbe594027	-0.21215878
79	0xbe133aaa	-0.14377847
80	0x3e217680	0.1576786
81	0x3e28ae1f	0.16472672
82	0x3d96c0df	0.07361006
83	0x3e22861a	0.15871468
84	0x3cc92b20	0.024556696
85	0xbdac10fd	-0.08401678
86	0xbd39ba7d	-0.045343865
87	0xbdb6fdd6	-0.08935134
88	0x3e16d392	0.14729145
89	0xbe17bb17	-0.14817463
90	0xbd386940	-0.04502225
91	0xbe371cb2	-0.1788204
92	0xbd109180	-0.03529501
93	0x3e449058	0.19195688
94	0xbe053805	-0.13009651
95	0x3da66f38	0.08126682
96	0xbe17d5d1	-0.14827658
97	0x3c047602	0.008084776
98	0x3e2c60c0	0.16833782
99	0xbdea0aeb	-0.11427864
100	0xbbfc6fae	-0.007703743
101	0x3d5f3dc2	0.054502256
102	0xbe2721c9	-0.16321482
103	0xbd2474e3	-0.040150534
104	0x3dd089e3	0.1018255
105	0xbd915f3a	-0.07098241
106	0xbc94c92d	-0.018162334
107	0xbdda5e57	-0.10662525
108	0x3cc4bdb4	0.024016239
109	0xbc5fa422	-0.013649972
110	0x3e2931c9	0.16522898
111	0x3e389be5	0.18028219
112	0x3d32f015	0.04368599
113	0x3ddfca03	0.109272026
114	0x3dd4564d	0.10368023
115	0xbe0b7b91	-0.13621356
116	0x3a4e2a57	0.00078645855
117	0x3d799ab7	0.060938563
118	0x3d8758af	0.06608712
119	0x3ddbabf9	0.107261606
120	0xbdc900e5	-0.09814624
121	0xbba8bc9a	-0.005149436
122	0x3d372a20	0.044717908
123	0xbd95fe65	-0.073239125
124	0xbe42eb28	-0.19035017
125	0xbe487df3	-0.19579296
126	0xbe578f15	-0.21050675
127	0x3d9039fa	0.07042308
128	0xbdf0bde1	-0.117549665
129	0xbe03b12c	-0.12860554
130	0xbd228124	-0.03967394
131	0xbc003d13	-0.007827061
132	0x3e1a5cd0	0.15074468
133	0x3d757434	0.059925273
134	0x3e1bf0cd	0.15228577
135	0xbdb825ab	-0.089915596
136	0x3e20a36d	0.15687342
137	0xbdfee6e3	-0.12446382
138	0x3d0c8e05	0.034315128
139	0x3e3ab8cd	0.18234558
140	0x3e06355e	0.13106295
141	0x3e4d68c2	0.20059493
142	0xbdae2178	-0.085024774
143	0xbe4a65c2	-0.1976538
144	0xbdf0f223	-0.11764934
145	0xbd46b6dd	-0.048514236
146	0x3e2579b9	0.16159715
147	0xbdaf86d6	-0.0857064
148	0xbdaf2c33	-0.08553352
149	0x3d6cda35	0.057825286
150	0x3cd59871	0.026073666
151	0xbda0eead	-0.07858024
152	0x3e55dfad	0.20886107
153	0x3d003bb1	0.031306926
154	0x3d56ef29	0.052474175
155	0xbe479b95	-0.19492944
156	0x3c81f5ef	0.01586434
157	0x3dfba97d	0.12288187
158	0x3d7e73f5	0.062122304
159	0x3e500e43	0.2031794
160	0xbe582248	-0.21106827
161	0xbe0fcee5	-0.14043768
162	0xbc2031ef	-0.00977753
163	0x3e034afd	0.12821575
164	0xbe0d871c	-0.13821071
165	0x3d08c8a8	0.033394486
166	0x3dcd2e9e	0.10018657
167	0xbdc417c6	-0.09574847
168	0xbd8c21b7	-0.06842368
169	0x3df569a4	0.1198304
170	0xbde1e468	-0.11029893
171	0x3e5dd360	0.21662664
172	0xbdc1787c	-0.09446809
173	0xbd844680	-0.06458759
174	0xbe1a07d9	-0.15042056
175	0xbdbad0a9	-0.0912183
176	0xbd8fd795	-0.07023541
177	0xbe452a7e	-0.1925449
178	0x3df27eef	0.11840617
179	0x3db6b2f9	0.08920855
180	0xbbefbc6d	-0.0073161633
181	0xbdcd00cb	-0.10009917
182	0xbdd24fd9	-0.10269136
183	0x3e47afac	0.19500607
184	0xbe5d0ae1	-0.21586181
185	0x3df1708b	0.11789044
186	0x3e0cc715	0.13747819
187	0xbe467581	-0.19380762
188	0xbe115bf9	-0.14195241
189	0xbdfa138d	-0.1221076
190	0xbd8c314f	-0.06845342
191	0x3e1e644b	0.15467946
192	0xbe4b0cda	-0.19829121
193	0x3e598f09	0.2124597
194	0xbd02bed9	-0.031920288
195	0x3e038e1b	0.12847178
196	0xbccd43b6	-0.025056701
197	0x3ddb0326	0.1069396
198	0x3e32c39a	0.17457429
199	0xbe3aaf14	-0.1823085
200	0xbc8d8796	-0.017276566
201	0x3d0c2393	0.034213614
202	0x3e336852	0.17520264
203	0xbd6a3d01	-0.057187084
204	0xbe2bdee1	-0.1678424
205	0xbe2de839	-0.16983117
206	0xbde44843	-0.11146595
207	0x3dbee3d8	0.093208015
208	0x3cbb9496	0.022898
209	0xbe20fafb	-0.15720741
210	0x3d354e93	0.044264387
211	0x3e243d65	0.16039045
212	0xbe182313	-0.1485713
213	0xbdb312b0	-0.08743799
214	0x3d2f2fa4	0.042770043
215	0x3e16759a	0.14693299
216	0x3e0c34bf	0.13691996
217	0x3defc00b	0.11706551
218	0x3d63aa6d	0.055582453
219	0xbe5c936c	-0.21540612
220	0xbd48e6d2	-0.049048252
221	0xbdcdfbff	-0.1005783
222	0xbe15b235	-0.14618762
223	0x3d0d6ce5	0.034527678
224	0xbe2b63fb	-0.16737358
225	0xbdf8598b	-0.12126454
226	0xbd5789f4	-0.052621797
227	0x3d970ce5	0.07375506
228	0x3dd65d6f	0.1046704
229	0x3e261deb	0.1622235
230	0x3e5b4701	0.21413805
231	0x3c91660e	0.017748859
232	0xbdfa02cf	-0.12207567
233	0x3df64044	0.120239764
234	0x3dae3738	0.08506626
235	0x3e4f388a	0.20236412
236	0xbd818b0b	-0.063253485
237	0x3de5a5c3	0.11213257
238	0xbe3f6024	-0.18689018
239	0xbe5bb52c	-0.2145583
240	0xbdab20d2	-0.08355869
241	0xbe4748a4	-0.19461304
242	0x3b94687e	0.004529058
243	0x3c9b5e57	0.018965883
244	0x3e20448b	0.15651147
245	0x3e427b65	0.18992384
246	0x3de52487	0.11188608
247	0xbe2389cb	-0.15970533
248	0x3d547349	0.051867757
249	0x3e12353f	0.14278124
250	0x3d9b3b2e	0.07579647
251	0xbd97de9a	-0.07415505
252	0x3e5403e5	0.2070461
253	0x3d517ba0	0.05114329
254	0x3e4b1fec	0.19836396
255	0x3db8c325	0.09021596

gat_layers.0.lin_edge.weight f4 [64, 64]
0	0xbde06c51	-0.1095816
1	0xbd7a60a2	-0.061127312
2	0x3e2b0213	0.1670001
3	0x3d8a768e	0.06760894
4	0x3e34f265	0.17670591
5	0xbe0d370d	-0.13790531
6	0x3de3d21c	0.111240596
7	0xbd881d54	-0.06646219
8	0xbd880a21	-0.06642557
9	0x3e4aa4b3	0.1978939
10	0x3e24a60b	0.16078965
11	0xbd67bcb0	-0.05657643
12	0x3da7ce68	0.08193666
13	0x3dd3bdd6	0.10338943
14	0xbe0ba842	-0.13638404
15	0xbe0b2883	-0.13589673
16	0x3db397e2	0.08769204
17	0xbd4f058c	-0.0505424
18	0x3dffea58	0.124958694
19	0x3da05078	0.07827848
20	0x3d7ea6b0	0.062170684
21	0x3e4c27cb	0.19937055
22	0xbe3862d1	-0.18006445
23	0xbcf1676d	-0.029468263
24	0x3e072509	0.13197722
25	0xbd2b494c	-0.04181795
26	0x3e33e9d0	0.17569661
27	0xbd70a4c0	-0.058750868
28	0xbcb4683d	-0.022022361
29	0x3e24cac1	0.1609297
30	0xbe16563e	-0.14681336
31	0x3e334c03	0.17509465
32	0xbdb5e0e3	-0.08880784
33	0xbe4b4825	-0.1985174
34	0xbd98e67d	-0.07465837
35	0xbc3b53c3	-0.011433545
36	0x3e0c855c	0.13722748
37	0x3dfb7a17	0.12279146
38	0xbc3ecb35	-0.011645128
39	0x3e20f36b	0.15717857
40	0xbddf53ba	-0.109046414
41	0x3e2ffd7b	0.17186539
42	0x3e154029	0.14575256
43	0x3dbe0cd8	0.092797935
44	0xbccfad14	-0.025351085
45	0xbd184671	-0.037176553
46	0x3e049245	0.12946422
47	0x3e4ee2c1	0.20203687
48	0xbe52e8c8	-0.20596611
49	0xbe11c17e	-0.14233968
50	0xbd96c327	-0.07361441
51	0x3e33ae9f	0.17547081
52	0x3e1d5e83	0.15368085
53	0xbd91976f	-0.07108962
54	0x3e4731b2	0.19452551
55	0xbe1a722e	-0.15082619
56	0x3e5a4e34	0.21318895
57	0x3dbe464c	0.09290752
58	0x3d1078f3	0.035271596
59	0x3dc6d9a2	0.09709479
60	0xbb4bf5c6	-0.0031121834
61	0x3d2bae46	0.041914247
62	0x3e41f0bb	0.18939488
63	0x3e51dd3a	0.20494547
64	0x3de5c1a9	0.11218578
65	0x3df7ac01	0.12093354
66	0x3e245c8c	0.16050929
67	0x3df18532	0.11792983
68	0x3e12a803	0.14321904
69	0x3d0e7dbf	0.03478789
70	0xbe1663da	-0.14686528
71	0x3e3548f9	0.17703618
72	0x3e1e45cd	0.15456314
73	0xbdf3e6ea	-0.11909278
74	0x3dfc44e3	0.123178266
75	0xbe580ba8	-0.21098197
76	0xbe2aa9be	-0.16666314
77	0x3db8c118	0.09021205
78	0xbe4cc242	-0.19995978
79	0x3d9a581d	0.075363375
80	0x3e1fe2f7	0.15613924
81	0xbe269a7b	-0.16269867
82	0xbd7f309f	-0.062302228
83	0xbe29c9ec	-0.16580933
84	0xbe2b5705	-0.16732414
85	0x3e1f98f0	0.15585685
86	0xbdb73062	-0.08944775
87	0x3d1dede8	0.038556963
88	0xbd1d8983	-0.03846122
89	0xbe31ee8f	-0.17376159
90	0xbdaac0fb	-0.08337589
91	0x3df73305	0.12070278
92	0x3e05fa98	0.13083875
93	0xbd6ecb60	-0.058299422
94	0x3d65187a	0.055931546
95	0x3e4ed3d5	0.20197995
96	0x3dee7363	0.11643102
97	0xbc99628f	-0.018723754
98	0x3d03a5cd	0.03214054
99	0x3e3a0365	0.18165357
100	0xbd9c8446	-0.07642417
101	0x3e204690	0.15651917
102	0xbe34c796	-0.17654261
103	0xbda8c983	-0.0824156
104	0x3e4928b6	0.19644436
105	0x3d310c13	0.043224405
106	0xbe4df2ae	-0.20112106
107	0x3da19d38	0.07891315
108	0xbd5f47b1	-0.05451173
109	0x3c1d984c	0.00961883
110	0xbe2224c5	-0.15834339
111	0x3e4ec01a	0.20190468
112	0x3e52ed61	0.20598365
113	0x3e19fad8	0.15037096
114	0x3e3114c9	0.17293085
115	0xbe2cd893	-0.16879492
116	0xbc989e88	-0.018630281
117	0x3e512807	0.20425425
118	0xbd35ebe9	-0.044414435
119	0xbe1b66cc	-0.15175933
120	0xbc32a070	-0.010902509
121	0x3e5cad7a	0.21550551
122	0xbcc66633	-0.024218654
123	0x3e519a7b	0.20469086
124	0x3c0b9ab0	0.008520767
125	0x3c73deaa	0.01488463
126	0x3db64532	0.08899917
127	0xbd919d3f	-0.071100704
128	0x3dffcdb7	0.12490409
129	0xbe1243a8	-0.14283621
130	0xbe0d8789	-0.13821234
131	0x3dc0b2c3	0.09409096
132	0x3db0e951	0.086382516
133	0x3cb2dcfa	0.021833885
134	0xbdde488f	-0.10853683
135	0x3e1c3140	0.15253162
136	0xbe329a8d	-0.17441769
137	0xbe222b28	-0.15836775
138	0xbdc8b529	-0.098001786
139	0x3d49ba4d	0.049249936
140	0x3e307d32	0.17235258
141	0xbd734f6c	-0.059401914
142	0xbe105fd9	-0.14099063
143	0xbde72bf0	-0.11287677
144	0x3c9f2245	0.01942552
145	0x3dcbfb54	0.099600464
146	0x3c42c85f	0.0118885925
147	0x3d96a76a	0.073561504
148	0xbd9e2eb1	-0.077237494
149	0xbd2fd732	-0.042929836
150	0xbdbad25c	-0.09122154
151	0x3e5cc0ad	0.21557875
152	0x3d919ac8	0.071096
153	0x3ce2a75c	0.027667694
154	0x3e3f6c5d	0.18693681
155	0xbc858f6c	-0.01630374
156	0xbd2b1317	-0.041766252
157	0xbe12eff1	-0.14349343
158	0xbe2978de	-0.16550013
159	0x3b3d17ad	0.0028853223
160	0x3d3cba7e	0.04607629
161	0x3bcad8fc	0.0061904173
162	0xbe094b39	-0.13407601
163	0xbe4a29c1	-0.1974249
164	0x3c98f1a4	0.01866991
165	0x3e4b2990	0.19840074
166	0x3e5c68b6	0.21524319
167	0x3d79f439	0.061023924
168	0xbe385eb5	-0.18004878
169	0xbe3bf7e0	-0.18356276
170	0x3d22789d	0.039665807
171	0x3e2c61bc	0.16834158
172	0xbd0557cb	-0.03255443
173	0x3e2435b7	0.16036116
174	0xbe1c07a8	-0.15237296
175	0x3daf504d	0.08560238
176	0xbaae4307	-0.0013295122
177	0xbe4cde21	-0.2000661
178	0x3e1a4f24	0.15069252
179	0xbcc4f1d2	-0.02404109
180	0xbe3b2ecc	-0.1827957
181	0xbc85742a	-0.016290743
182	0x3e00e0ef	0.12585805
183	0xbddf4868	-0.10902482
184	0x3e0c62c8	0.13709557
185	0xbe299fb9	-0.16564836
186	0x3e38a1e2	0.18030503
187	0x3e363385	0.1779309
188	0x3e2ce60c	0.16884631
189	0x3be74730	0.0070580468
190	0x3b52750f	0.003211323
191	0x3df6b393	0.1204597
192	0x3e4b048c	0.19825953
193	0xbdd09ebb	-0.101865254
194	0x3d951c9d	0.07280848
195	0x3e010678	0.12600124
196	0xbe1ec3a6	-0.15504321
197	0xbdd45ce4	-0.1036928
198	0xbd8565b1	-0.06513537
199	0x3d945ea6	0.07244615
200	0xbc91941a	-0.017770816
201	0x3e4924c9	0.19642939
202	0xbe0782e8	-0.1323353
203	0x3e0e2434	0.13880998
204	0xbd5f479b	-0.054511648
205	0x3d60075e	0.054694526
206	0x3d81c61e	0.06336616
207	0xbe1f187f	-0.15536688
208	0x3e0f1619	0.13973273
209	0x3d9487dd	0.07252476
210	0xbe2a5f51	-0.16637923
211	0xbd7ee144	-0.06222655
212	0x3c86debe	0.016463634
213	0xbdcf4e8e	-0.10122405
214	0xbe21c6e8	-0.15798533
215	0xbe14186e	-0.14462444
216	0x3cdf8f50	0.027290016
217	0xbd928c1c	-0.0715563
218	0xbdad9ec7	-0.0847755
219	0x3d374082	0.044739254
220	0xbe1dc85a	-0.1540846
221	0x3e2edfd7	0.17077576
222	0xbcd7a684	-0.026324518
223	0x3dfb11bc	0.12259242
224	0xbe01474a	-0.12624851
225	0xbe07b02d	-0.132508
226	0x3de8f17c	0.113741845
227	0xbcb11e5b	-0.02162092
228	0x3e377604	0.17916113
229	0xbcef38dc	-0.029201917
230	0x3df6b58d	0.12046347
231	0xbe23ffff	-0.16015624
232	0xbd315358	-0.043292373
233	0xbd9a8a2d	-0.07545886
234	0xbe1bf793	-0.15231161
235	0x3d97f164	0.074190885
236	0x3e54c72f	0.20779108
237	0xbd98b7ef	-0.074569575
238	0xbd8e9966	-0.06962852
239	0x3dac32f5	0.08408157
240	0xbe37c1bc	-0.17944998
241	0xbe38ed5a	-0.18059292
242	0xbdeea77a	-0.11653037
243	0xbde7d125	-0.11319188
244	0xbdf8c63b	-0.121471845
245	0xbd236b6c	-0.039897367
246	0x3e33653b	0.17519085
247	0xbcb3da47	-0.021954669
248	0x3d84f0f4	0.06491271
249	0x3db47ad3	0.08812489
250	0x3c91c9c3	0.017796403
251	0xbe5175d6	-0.20455107
252	0xbd21274b	-0.039344113
253	0xbdd67adf	-0.104726546
254	0x3dac1d73	0.084040545
255	0x3dbafcbd	0.09130237

gat_layers.1.att_src f4 [1, 4, 16]
0	0x3ecc1d3f	0.39866063
1	0x3e8a67f2	0.2703243
2	0xbb6394f7	-0.003472624
3	0xbe5d8591	-0.21632983
4	0x3e9b06aa	0.30278522
5	0xbea7f5af	-0.3280463
6	0xbed11c2e	-0.40841812
7	0xbc8adbbd	-0.016950483
8	0x3e97e771	0.29668763
9	0x3f05c810	0.52258396
10	0x3e7d6522	0.2474561
11	0xbd744da8	-0.05964437
12	0x3e37d7de	0.1795344
13	0x3f09a4d7	0.5376715
14	0x3ee2652a	0.44217807
15	0x3d82ca91	0.06386293
16	0xbcd53ae3	-0.026029056
17	0x3f00d481	0.50324255
18	0x3efd83ef	0.4951472
19	0xbe8d61f7	-0.27613804
20	0xbe704106	-0.23462304
21	0x3e3ef844	0.18649393
22	0x3ec85597	0.391278
23	0xbc8d676d	-0.017261231
24	0xbea23b07	-0.3168566
25	0xbed5a1d4	-0.41725028
26	0x3ed80031	0.42187646
27	0xbde558cd	-0.11198578
28	0xbf06eb28	-0.5270257
29	0x3ed244ee	0.41068214
30	0x3e934e19	0.2877052
31	0xbec52b51	-0.3850961
32	0x3e3bc3d1	0.18336417
33	0xbefee136	-0.49781197
34	0xbee26ea9	-0.44225052
35	0x3ed39fd0	0.41332865
36	0x3e753499	0.23945846
37	0xbc3dd8ff	-0.01158738
38	0xbd0b48e5	-0.034005065
39	0x3e5744cb	0.21022336
40	0xbd7934d0	-0.06084138
41	0x3e2b5151	0.16730238
42	0x3ecc80da	0.39942056
43	0xbe2cb00b	-0.1686403
44	0xbe23382e	-0.159394
45	0xbe0a5854	-0.13510257
46	0x3ea53c1b	0.3227242
47	0xbef21c48	-0.47287202
48	0xbef4a3d9	-0.47781256
49	0x3c83f339	0.016107189
50	0xbebdcd51	-0.37070706
51	0x3eeaaf73	0.45836982
52	0x3e9fabe8	0.31185842
53	0x3e9e2be7	0.3089287
54	0xbec6f9a8	-0.38862348
55	0xbe08495d	-0.13309236
56	0x3f01108f	0.5041589
57	0x3e922603	0.28544626
58	0xbe3f93e1	-0.18708755
59	0xbd79bf46	-0.06097343
60	0xbd9e68ea	-0.077348545
61	0xbe8bdb53	-0.2731577
62	0xbee414e8	-0.445472
63	0x3ee9c663	0.4565917

gat_layers.1.att_dst f4 [1, 4, 16]
0	0x3e0b645f	0.13612507
1	0x3e11624c	0.14197654
2	0xbe76d9ed	-0.2410657
3	0xbe532c2b	-0.20622317
4	0x3ed02c26	0.40658683
5	0xbe944659	-0.2895992
6	0xbf055596	-0.5208372
7	0x3f004f5f	0.5012111
8	0xbf080b95	-0.5314267
9	0x3ef09ace	0.46993107
10	0xbef1434a	-0.4712165
11	0x3e97fb7c	0.29684055
12	0xbf090116	-0.5351728
13	0xbeeea542	-0.46610457
14	0x3ed189da	0.40925485
15	0x3e64f744	0.2235995
16	0xbd931dca	-0.07183416
17	0xbe997d67	-0.29978487
18	0xbe96e435	-0.29470983
19	0xbf0957d3	-0.53649634
20	0xbe1467fa	-0.14492789
21	0xbdf85a5e	-0.12126611
22	0x3ed505b0	0.41605902
23	0xbd1e4059	-0.038635585
24	0x3ec90259	0.39259604
25	0xbef1aeb6	-0.47203606
26	0x3ee19797	0.44060966
27	0xbe3f0cc5	-0.18657215
28	0xbe36525a	-0.17804852
29	0x3e69ce81	0.22832681
30	0x3da91afa	0.082570985
31	0x3ef70bd5	0.48251215
32	0xbf021c7e	-0.50824726
33	0x3ea62f3c	0.32457912
34	0x3d7f5128	0.062333256
35	0x3e2bcdba	0.16777697
36	0x3e971b91	0.2951322
37	0xbe061b47	-0.13096343
38	0xbe8a23dc	-0.26980484
39	0x3e95833c	0.29201686
40	0xbe85f57d	-0.26163855
41	0x3efee7ca	0.49786216
42	0x3e96cfef	0.29455516
43	0x3c410e85	0.011783247
44	0xbdb65f29	-0.08904869
45	0x3e34858a	0.17629066
46	0xbf005ce2	-0.5014173
47	0xbec916a4	-0.39275086
48	0x3db5602f	0.08856236
49	0xbe969598	-0.29411006
50	0xbe4b9a83	-0.1988316
51	0xbd3c6a4e	-0.045999818
52	0xbeb8bca5	-0.36081424
53	0xbe431d03	-0.19054036
54	0xbe0fd1a6	-0.14044818
55	0xbebe6dc6	-0.37193125
56	0x3e499bfd	0.19688411
57	0x3e02da00	0.12778473
58	0xbe687deb	-0.22704284
59	0xbdb296b3	-0.0872015
60	0x3e92db99	0.28683165
61	0x3ecb9374	0.39760935
62	0xbede058c	-0.43363607
63	0x3ec2798e	0.37983364

gat_layers.1.att_edge f4 [1, 4, 16]
0	0x3eba3e46	0.36375636
1	0xbe92f6e6	-0.28703994
2	0x3edad1a4	0.42738068
3	0xbdeec259	-0.116581626
4	0xbeed875b	-0.4639233
5	0xbee69f1f	-0.45043275
6	0x3d1e23da	0.03860841
7	0xbee6917a	-0.45032865
8	0xbed12e2f	-0.40855548
9	0xbeb9bfba	-0.36279088
10	0xbdaa002c	-0.08300814
11	0x3efd3cb3	0.49460372
12	0xbde398d2	-0.111131325
13	0x3e26710b	0.1625406
14	0xbeff1242	-0.49818617
15	0x3e5d928f	0.21637939
16	0xbea4cae5	-0.32186046
17	0xbe282cb4	-0.16423303
18	0x3da9493f	0.08265924
19	0x3e2d3c35	0.16917498
20	0x3ea9d822	0.3317271
21	0x3ef4db88	0.4782374
22	0xbec2830b	-0.37990603
23	0x3e17665b	0.1478514
24	0x3f0b48ab	0.5440776
25	0x3e09ccc9	0.13457026
26	0xbe9a5b4b	-0.30147776
27	0xbef20e7a	-0.4727667
28	0xbdd5abdf	-0.104331724
29	0x3f02117c	0.5080793
30	0x3e5fdc77	0.21861444
31	0x3ef34831	0.47516015
32	0xbe3e50b6	-0.18585476
33	0xbdc41754	-0.09574762
34	0x3e35894b	0.17728154
35	0x3e3af67f	0.18258093
36	0xbe9fb832	-0.31195217
37	0x3ec9a524	0.39383805
38	0x3e0ff6e6	0.14059028
39	0x3e2fff11	0.17187144
40	0x3e92632f	0.28591296
41	0xbe50d432	-0.20393446
42	0xbe2d4de7	-0.16924249
43	0xbb30c70d	-0.0026974112
44	0xbdd7f7fd	-0.10545347
45	0x3eacfa74	0.3378483
46	0xbe8b12d2	-0.27162796
47	0x3e96c7fb	0.29449448
48	0x3c233e0f	0.009963526
49	0x3e3b30be	0.18280312
50	0x3e816561	0.25272658
51	0x3e8f4b17	0.27986977
52	0x3ec8dfb8	0.39233184
53	0x3ed8242d	0.422151
54	0xbec008ce	-0.37506717
55	0x3e2e0769	0.16995014
56	0x3db466ad	0.08808646
57	0xbe9df568	-0.30851293
58	0xbee74224	-0.4516765
59	0x3d996561	0.074900396
60	0xbee559f7	-0.447952
61	0x3e5873f3	0.21137981
62	0x3ec9d793	0.39422283
63	0xbeb3b9a2	-0.35102564

gat_layers.1.bias f4 [64]
0	0xba3b04a4	-0.00071341754
1	0xbbb713e8	-0.00558709
2	0xbbe9cc1b	-0.007134927
3	0xbaabd146	-0.0013108633
4	0xbbd69176	-0.006548102
5	0xbbd68e69	-0.0065477383
6	0xbbcedcc5	-0.006312939
7	0xbbe38451	-0.0069432636
8	0x3c139012	0.009006517
9	0x3aaf2517	0.0013362494
10	0x3bd9efc3	0.0066508963
11	0x3c0093a5	0.007847701
12	0xba62e445	-0.00086552306
13	0xbbd9b411	-0.00664378
14	0xbbe64588	-0.0070273317
15	0x3bcbde89	0.0062215966
16	0xbbac5331	-0.0052589406
17	0xbbd9c4ff	-0.006645798
18	0xbbe3f2bb	-0.006956426
19	0xbb89c181	-0.0042039757
20	0xbba37ee8	-0.0049894936
21	0xbbc953af	-0.006144009
22	0xbbdb02da	-0.0066836895
23	0xb9a3a49d	-0.0003121243
24	0xbbe70d42	-0.007051141
25	0x3c335ddc	0.010947671
26	0x3ad8e488	0.00165476
27	0xbbded745	-0.0068005645
28	0x3b5b056b	0.0033419977
29	0xbbd92906	-0.006627205
30	0xbbe2a002	-0.006916047
31	0xbba50cf6	-0.0050369455
32	0x3b97b54a	0.0046297656
33	0xbbcd5de5	-0.0062672966
34	0xbbe00138	-0.006836083
35	0x3bc63453	0.006048718
36	0x3bd639d6	0.0065376563
37	0xbbdbd6fa	-0.006708977
38	0xbbdcff30	-0.006744288
39	0xbbd75de4	-0.006572472
40	0xbbd9ae55	-0.0066430965
41	0xbbcf4c87	-0.0063262614
42	0xbbd02aee	-0.006352774
43	0xbbac8322	-0.0052646557
44	0xbbd37c90	-0.006454058
45	0x3bb2e79a	0.005459738
46	0x3bd4bd2f	0.006492279
47	0xbbe38cca	-0.0069442736
48	0xbbdd5dbb	-0.0067555583
49	0xbbdb9b5a	-0.006701869
50	0x3ba823e7	0.005131233
51	0x3ba1f214	0.004942188
52	0xbbd2bbe6	-0.0064310906
53	0xbbde45e8	-0.006783236
54	0xbbda695f	-0.0066653932
55	0xbbcfc484	-0.006340565
56	0xbbdb2d01	-0.0066887145
57	0xbbdd8414	-0.0067601297
58	0x3b8ab02a	0.004232426
59	0xbbcc85f0	-0.0062415525
60	0xbba4e6aa	-0.00503238
61	0xbbea8196	-0.007156561
62	0x3c003365	0.007824753
63	0xbbacbc9a	-0.0052715065

gat_layers.1.lin.weight f4 [64, 64]
0	0x3cd46b95	0.025930205
1	0xbe27b315	-0.16376908
2	0xbcc81c6b	-0.024427613
3	0xbe2ab441	-0.16670324
4	0x3e1a38dd	0.15060754
5	0xbd40ad80	-0.047040462
6	0xbe4bf887	-0.19919024
7	0xbda6b1ba	-0.081393674
8	0x3de60352	0.11231102
9	0xbdad469e	-0.08460735
10	0x3e42fdd5	0.19042142
11	0xbd12a180	-0.03579855
12	0xbe397a68	-0.181131
13	0xbe25d65f	-0.16195057
14	0xbdd4bd31	-0.10387648
15	0x3e421957	0.18954979
16	0x3d73c7f3	0.05951686
17	0xbdb17044	-0.08663991
18	0x3e343167	0.1759697
19	0x3e58571c	0.2112698
20	0xbdfb6bcd	-0.12276421
21	0x3d0f46df	0.034979697
22	0xbe305a5a	-0.17221966
23	0x3dc302b6	0.095220014
24	0xbde48533	-0.11158218
25	0x3c44fc18	0.012022994
26	0x3e308c48	0.17241013
27	0xbcecf0a8	-0.028923348
28	0xbdcaae7b	-0.09896561
29	0xbe22fecb	-0.15917508
30	0x3df96806	0.12178044
31	0x3c1263a9	0.008934894
32	0xbe552329	-0.20814194
33	0xbe5a1574	-0.21297246
34	0xbe3fd088	-0.18731892
35	0xbe5a8102	-0.21338275
36	0x3e5bc505	0.21461876
37	0xbe3f6644	-0.18691355
38	0x3e3ab2a8	0.18232214
39	0x3e00aae3	0.12565188
40	0xbdcc5ad2	-0.0997826
41	0xbdd08158	-0.1018092
42	0x3e5f98a7	0.21835576
43	0x3db7104d	0.08938656
44	0xba9601ef	-0.0011444668
45	0x3e2dcbfe	0.16972348
46	0xbe0988c3	-0.13431077
47	0xbe28d20e	-0.1648638
48	0x3e3f1f69	0.18664326
49	0x3d40aeec	0.04704182
50	0xbe419b4e	-0.189069
51	0x3e51b82d	0.20480414
52	0xbe389d3e	-0.18028733
53	0x3e0b1f53	0.13586168
54	0xbe121d8e	-0.14269087
55	0xbe06945a	-0.13142529
56	0xbdc99acc	-0.09843978
57	0x3d453e8a	0.048155345
58	0x3e0e07dc	0.13870186
59	0xbe25004d	-0.16113396
60	0x3db478cf	0.08812105
61	0xbd012316	-0.0315276
62	0xbe2cb7c8	-0.16866982
63	0x3ab7486b	0.0013983374
64	0x3e1a11e9	0.15045895
65	0xbdf9de2f	-0.12200581
66	0x3e06f4e1	0.13179351
67	0x3dfee74a	0.12446459
68	0x3e3ed353	0.18635301
69	0xbdbfdce8	-0.093683064
70	0x3d05add6	0.032636486
71	0xbdfbbeba	-0.122922376
72	0xbdcf464c	-0.1012083
73	0x3e3b24ba	0.18275729
74	0x3e011735	0.12606509
75	0xbe4bf988	-0.19919407
76	0xbdc8afed	-0.0979918
77	0x3da0278a	0.078200415
78	0x3e2b4438	0.16725242
79	0x3c5b3acc	0.0133807175
80	0x382f32f0	4.177069e-05
81	0xbd9fb2c1	-0.077977665
82	0x3d6354fd	0.055500973
83	0x3d5e4947	0.0542691
84	0x3e151269	0.14557804
85	0x3d8b90eb	0.0681475
86	0x3dd352a0	0.10318494
87	0xbe10937d	-0.14118762
88	0x3e0c4e1f	0.13701676
89	0xbde820a1	-0.113343485
90	0xbda29b5a	-0.07939787
91	0xbe41e3bd	-0.18934532
92	0xba3cc9a2	-0.00072016765
93	0x3c34c8de	0.011034219
94	0x3e41a8e3	0.18912081
95	0x3dfdfc6b	0.124016605
96	0x3e4dd84f	0.20102046
97	0xbe3fbadc	-0.18723625
98	0xbe00be56	-0.12572607
99	0xbe58f0af	-0.21185564
100	0x3e304f92	0.17217854
101	0xbc929a3d	-0.017895812
102	0xbc4f606c	-0.012657266
103	0xbd15094c	-0.03638582
104	0xbccf2d60	-0.025290191
105	0xbd5cb1d5	-0.05388053
106	0xbdbc4522	-0.091928735
107	0x3d79abcf	0.060954865
108	0xbdacd648	-0.084393084
109	0xbd9b3033	-0.07577553
110	0xbd1d5965	-0.03841533
111	0xbe1083e8	-0.14112818
112	0xbc5f0cc7	-0.013613886
113	0x3d73d07a	0.05952499
114	0xbe2d9dec	-0.16954774
115	0x3e3386f8	0.17531955
116	0xbe0172e0	-0.12641478
117	0x3db52d69	0.08846552
118	0xbe41e228	-0.18933928
119	0x3e5b141a	0.21394387
120	0xbcfdcbeb	-0.030981025
121	0x3da8e219	0.0824625
122	0x3d21a5a2	0.0394646
123	0x3d104926	0.03522601
124	0xbe1b846d	-0.15187235
125	0x3e46f4b5	0.19429286
126	0xbd6d830c	-0.057986304
127	0xbe21d8a6	-0.15805301
128	0x3e548c7c	0.20756716
129	0x3d3f67ec	0.046729967
130	0x3e1eedb7	0.15520369
131	0x3d84841c	0.0647051
132	0xbd51989e	-0.051170938
133	0x3d8f841a	0.07007618
134	0xbd3c1658	-0.045919746
135	0xbde662b4	-0.11249295
136	0x3e2406d2	0.16018227
137	0x3d30c777	0.043158974
138	0xbd173a6f	-0.03692096
139	0x3dfbb196	0.12289731
140	0xbddcf468	-0.10788804
141	0x3a4a00eb	0.0007705825
142	0x3e057819	0.13034095
143	0x3dfccf62	0.12344243
144	0x3e04f80e	0.1298525
145	0xbd3e5426	-0.04646697
146	0xbe2ed70d	-0.17074223
147	0x3e16de05	0.14733131
148	0xbd3c2fa8	-0.045943886
149	0xbe2863b3	-0.16444282
150	0x3c6a77d9	0.0143108005
151	0xbe1a1c4b	-0.15049855
152	0xbdfe09a8	-0.124041855
153	0xbd48a5f7	-0.0489864
154	0x3db97253	0.09055009
155	0xbd7ea240	-0.062166452
156	0x3b307de5	0.0026930508
157	0xbe54407a	-0.20727721
158	0x3dd904d1	0.10596622
159	0xbde83abb	-0.11339327
160	0x3d1c63e1	0.03818119
161	0x3cd508c4	0.026005156
162	0xbe41d037	-0.18927084
163	0x3e4f6dac	0.2025668
164	0xbe10211c	-0.1407513
165	0xbdb0eb56	-0.08638637
166	0xbd59cde4	-0.05317487
167	0x3d0b4d5f	0.034009334
168	0x3d2bb4f7	0.04192063
169	0xbd8c14a9	-0.06839878
170	0xbcb8946f	-0.022531716
171	0x3e2a34a7	0.16621648
172	0x3e3a7b8d	0.18211193
173	0x3d8764f4	0.06611052
174	0xbded5a6b	-0.115895115
175	0x3e01aac3	0.12662797
176	0xbd9bab9e	-0.07601093
177	0xbd5d8ee8	-0.054091364
178	0x3dae855b	0.08521529
179	0xbe46c490	-0.1941092
180	0xbe1efbd5	-0.15525754
181	0x3d6375b0	0.055532157
182	0x3d95b1eb	0.07309326
183	0x3e1ef3c3	0.15522675
184	0xbdf94512	-0.12171377
185	0xbbe383f0	-0.0069432184
186	0xbe3fabc7	-0.18717872
187	0xbd55ddfe	-0.05221366
188	0x3e0316f3	0.12801723
189	0xbe18a94d	-0.14908333
190	0xbe396fcf	-0.18109058
191	0xbe17a0df	-0.14807461
192	0xbdd4237a	-0.10358329
193	0xbe58333b	-0.21113293
194	0xbcdf29b5	-0.027241567
195	0x3befb488	0.007315222
196	0x3d08109f	0.033218976
197	0x3df31c44	0.118706256
198	0x3d64b718	0.055838674
199	0x3da11374	0.078650385
200	0x3ce9cdd5	0.028540531
201	0x3cbebc04	0.023283012
202	0x3d757352	0.05992443
203	0x3e2aed98	0.16692197
204	0xbe1feb1c	-0.15617031
205	0x3e33675e	0.175199
206	0xbd48c959	-0.049020145
207	0x3e14e698	0.1454109
208	0x3dbbddf5	0.09173194
209	0x3cca1c5d	0.024671728
210	0x3e559243	0.20856576
211	0x3e0e2a4a	0.1388332
212	0x3de1a89d	0.110184886
213	0xbd95943f	-0.07303666
214	0x3d9ff75d	0.07810853
215	0x3d2c30e8	0.042038828
216	0x3d7b8752	0.06140835
217	0x3e4cc6a7	0.19997655
218	0x3e5129f0	0.20426154
219	0xba055954	-0.00050868583
220	0x3e293648	0.16524613
221	0x3e24168c	0.16024226
222	0x3e428758	0.18996942
223	0x3e058efb	0.13042824
224	0x3d87ccc1	0.066308506
225	0x3d8b1945	0.06791929
226	0xbdab66b5	-0.08369199
227	0xbd171af1	-0.036890928
228	0x3e4db5c0	0.20088863
229	0xbd1ddaf3	-0.038538884
230	0x3e3c9d43	0.18419366
231	0xbc5de4d6	-0.013543328
232	0x3e0c12c7	0.13679038
233	0x3dd00587	0.10157304
234	0x3cec6939	0.028858768
235	0xbd8f0be9	-0.069846936
236	0xbd51c139	-0.051209662
237	0xbe183cd5	-0.14866956
238	0xbe005425	-0.12532099
239	0x3d39973b	0.04531024
240	0x3e1095a0	0.14119577
241	0x3e40c6f7	0.18825899
242	0x3e42475c	0.18972534
243	0xbd91fd82	-0.07128431
244	0x3e0cfc67	0.13768159
245	0x3dbaf1bc	0.091281384
246	0xbe404cc1	-0.1877928
247	0x3ca8aa70	0.020589083
248	0x3dd7fc78	0.105462015
249	0x3e0de891	0.13858248
250	0x3cc859c0	0.024456859
251	0xbe188120	-0.14893007
252	0xbbe99446	-0.0071282713
253	0xbb4b2fcb	-0.0031003829
254	0x3e1bcefe	0.1521568
255	0xbe3b83f2	-0.18312052
