models/best_fraud_model_seed_999.pth (torch, 378192 bytes, 45 tensors)

node_emb.weight f4 [64, 8]
000000 44 7f 19 be 51 64 5f be e4 55 fe bd b9 0f 19 3e
       -0.14989954 -0.21815611 -0.12418726 0.14947404
000010 36 30 06 be c1 2f b2 be b1 81 88 3e 4a 78 8b be
       -0.13104329 -0.34802058 0.26661447 -0.2724021
000020 47 b1 3a bd 63 26 88 3e 8e 64 38 3e 52 5f 04 3e
       -0.04557922 0.26591787 0.18007109 0.12926987
000030 22 87 17 be 5e 6e 6d bc 1a 6e a2 3e 2b 5d b0 be
       -0.14797643 -0.014491646 0.31724626 -0.34446082
000040 8e c4 75 3e 7b 2e ef 3c 22 e4 be bd eb e3 be bc
       0.24000761 0.029196968 -0.09320857 -0.02330204
000050 3b 60 8f 3e fe f9 2b be 4e cc 98 3d fe d0 0a 3e
       0.28003106 -0.16794583 0.07460843 0.13556287
000060 cc c3 aa be b8 85 2d be 01 2b bc bd 6a 59 92 3e
       -0.33352506 -0.16945541 -0.0918789 0.28583843
000070 59 31 6d bd 86 a9 47 bd 4e 0c d3 bd 58 18 9d be
       -0.05790839 -0.048745655 -0.10305081 -0.30682635
000080 de 78 8f 3e 97 87 5c 3e 02 df 98 3b 0d 1d 28 be
       0.28021902 0.21536098 0.0046652565 -0.16417332
000090 12 04 e3 3c 68 e0 7c 3d d1 bc 8f 3e b4 f7 b2 bd
       0.027711902 0.061737448 0.28073743 -0.08738652
0000a0 e0 70 a0 3e e5 15 42 be a4 8d 15 be 37 c7 46 be
       0.31336117 -0.18953665 -0.14604813 -0.19411932
0000b0 51 68 8e be b5 7f 42 be a6 4f ca bd ee 0b ad 3e
       -0.27813962 -0.18994029 -0.09878473 0.33798164
0000c0 e0 f8 b8 3e b6 57 a3 be 2a 5e 4d bd 65 52 ba 3e
       0.36127377 -0.31902856 -0.05013863 0.36390987
0000d0 e0 25 20 3e 2e 22 20 bd 68 dc 22 be d2 86 7f be
       0.15639448 -0.039095096 -0.15904391 -0.24953774
0000e0 d4 d7 3a bd fc f9 6e 3d 7a 9e 96 3e 6a 38 82 3e
       -0.045615986 0.058343872 0.29417783 0.25433666
0000f0 29 a6 90 3e 7e 64 c8 3d 55 5a 96 be 30 72 b1 be
       0.2825177 0.09784792 -0.29365793 -0.3465743
000100 1a 1d 2d be 0c c0 3b 3e af 26 cf bd 31 e1 27 3e
       -0.16905633 0.18334979 -0.101148 0.16394497
000110 2a c5 3e 3e 03 f0 b4 3d 37 bf bb bd 9f c3 ed bd
       0.186299 0.08834841 -0.09167331 -0.116095774
000120 63 2c 19 3e ba 42 ec bd 9a 7d 12 be 60 29 8c 3e
       0.14958338 -0.115361646 -0.14305726 0.27375317
000130 d8 e8 e8 bd b7 24 21 be c4 63 20 bd 9c 58 94 bd
       -0.113725364 -0.15736662 -0.039157644 -0.072434634
000140 77 4c 45 be 0e 81 6e 3e 23 d2 a7 3d 1f 7f b5 bc
       -0.1926745 0.23291418 0.08194377 -0.022155343
000150 2d 84 52 be 93 17 b0 3e 6b 4c 8c 3e f1 25 1c 3d
       -0.20558234 0.34392986 0.27402052 0.03812212
000160 88 b3 2f 3e f6 42 96 bd 3f 02 d9 bd da 3b 00 be
       0.1715833 -0.073369905 -0.105961315 -0.12522832
000170 d9 39 de bd 36 17 3d 3d cc 4d c5 3c 41 0a 90 3d
       -0.10850877 0.046164714 0.024084948 0.07033206
000180 14 27 a2 3e d5 7b 07 3e ab f1 38 be e3 69 86 3e
       0.3167044 0.13230832 -0.18060939 0.2625266
000190 9a 35 34 be a3 3a 59 be 4e 56 a9 3d b9 f9 9f be
       -0.17598572 -0.21213774 0.082684144 -0.3124521
0001a0 f8 bf a8 3d 3b 47 84 3e 6e 13 47 3e 51 9c 24 3e
       0.0823974 0.25835595 0.19441006 0.16075255
0001b0 41 76 17 3d bb b4 3c bb 7f 05 a4 3e b7 4d a7 be
       0.03697801 -0.0028794247 0.32035443 -0.3267648
0001c0 3d f7 4e 3e 25 d4 ac bb 1d 3f a7 be 62 22 62 be
       0.20211501 -0.005274313 -0.3266534 -0.22083429
0001d0 5b 01 13 be c8 c6 eb 3d 7d b3 50 3e 87 33 2e 3e
       -0.14355986 0.11512524 0.2038097 0.17011844
0001e0 02 98 a9 3e 65 ad 78 bd 33 0e c8 3d 7d 3a 31 3e
       0.33123785 -0.060712237 0.09768333 0.17307468
0001f0 f4 22 4d be e4 98 d9 3c cc 0b 60 be 22 0a 85 3e
       -0.20032865 0.026562162 -0.218795 0.25984293
000200 9e 4f 17 3d 0e 0b 47 3e 00 4d 47 be be 18 a7 be
       0.036941163 0.19437811 -0.19462967 -0.32636064
000210 32 52 3d bd 88 8e 9f 3e 47 eb 84 be c2 d1 59 3e
       -0.046220966 0.3116343 -0.25960752 0.21271423
000220 ae 4a 2e 3c 0f ae ab 3e ba 90 65 3e 88 00 b4 bd
       0.010637922 0.33531234 0.2241849 -0.08789164
000230 fa da df 3d b3 ce 94 3e 78 00 ab bd a2 79 b7 3d
       0.10930438 0.2906395 -0.08349699 0.089587465
000240 db bb 96 3e 7d 80 94 bc 0e c3 a9 be 6a e9 7c 3e
       0.29440197 -0.018127674 -0.33156627 0.24698415
000250 ec b2 a6 3d 96 9e 5e be 45 56 43 3d bd f1 47 be
       0.081395954 -0.21740183 0.047689695 -0.1952581
000260 16 dd a2 bd 41 19 67 bd 56 8f 95 3e 20 6a 00 be
       -0.07952325 -0.05642057 0.2921092 -0.12540483
000270 e5 33 80 3e 3c cf a4 3e b0 d1 02 be a7 70 0c 3e
       0.25039592 0.32189357 -0.12775302 0.13714848
000280 32 f3 ae 3e 0a 72 38 3e 5f d8 28 bd 93 fd ab 3e
       0.34169918 0.18012252 -0.041221973 0.335919
000290 34 16 5c be 6b 50 94 3e 07 14 2f 3e 54 5e 55 be
       -0.21492845 0.28967604 0.17097484 -0.20836765
0002a0 fd 22 5a 3e 35 b0 72 b9 ec 23 9d 3e fd f6 44 3e
       0.2130241 -0.0002314456 0.3069147 0.19234844
0002b0 6f c9 9b 3e b1 b7 5c be 73 1f a5 3d 1d a9 92 be
       0.3042712 -0.21554448 0.08062639 -0.28644648
0002c0 bf 6d 95 3e 2f af 58 3e 5a 47 a4 bd 8a ca ec bd
       0.29185292 0.21160577 -0.08021422 -0.11562069
0002d0 e5 af 6c be c3 42 e9 3d dc bb a7 3e 59 04 60 3e
       -0.23113973 0.11389687 0.32760513 0.21876658
0002e0 e0 09 87 3e e2 d8 fb bd 12 d7 1b bd 67 34 df 3d
       0.26374722 -0.122972265 -0.038046904 0.10898667
0002f0 01 e2 4b 3e 83 ce 82 3d 8c 02 b0 be 7b 7d 7f 3d
       0.19910432 0.06387045 -0.34376943 0.062375527
000300 de 1d 06 be 36 49 06 3e a1 1b 0a be b1 10 82 3e
       -0.13097331 0.13113865 -0.13487102 0.2540336
000310 29 4f 3a 3d 0d a8 14 be ce ae 81 bc 28 a5 36 3d
       0.04548565 -0.14517231 -0.015830424 0.0445911
000320 3e ca a2 3d 30 6d da bd 8a 5d b4 3c a4 d1 65 bd
       0.07948731 -0.10665357 0.02201726 -0.056108132
000330 a5 e3 04 bd 9c f3 22 3e ed 2d a8 be 70 99 65 bc
       -0.03244366 0.15913242 -0.3284754 -0.014013633
000340 16 c8 af 3d 61 e9 0c 3e dc 9d 8b 3e 8c a6 b1 3e
       0.08583085 0.13760902 0.27268875 0.34697378
000350 d4 90 71 3e 71 32 88 3e 29 1d a1 be 1e 06 b1 3e
       0.23590404 0.26600984 -0.3146756 0.3457498
000360 c5 6d af bd b5 f9 23 3e 4e e7 a8 be 2d 6f 1f be
       -0.08565859 0.16013224 -0.3298897 -0.15569754
000370 70 a6 52 3e d1 dd 42 bd 7b 8c 84 3e d3 1a 58 3e
       0.20571303 -0.04757482 0.25888428 0.21103983
000380 28 0f 8b bc c3 57 4f bd 04 f0 d7 bd e6 55 8c be
       -0.016975 -0.050620805 -0.10543826 -0.27409285
000390 9c df 54 be 1a 10 5d 3e 82 f7 7a 3e 0b 17 48 be
       -0.20788425 0.21588174 0.24508479 -0.1954004
0003a0 68 f8 8f bd b3 5f 18 bc 63 e4 7e 3e 2b b2 83 be
       -0.070298016 -0.00930016 0.2489181 -0.2572187
0003b0 a9 b3 2c be c8 6f 02 3e 50 29 9c be a5 11 5e be
       -0.1686541 0.12737954 -0.3050027 -0.21686418
0003c0 f5 22 d0 3d 99 79 85 be 48 d8 fb bd c9 cf 6f 3e
       0.101629175 -0.26069334 -0.12297112 0.23419107
0003d0 93 ee 08 3d 91 24 92 be 65 06 88 be 3f 99 cb bc
       0.033430647 -0.28543523 -0.2656738 -0.024853347
0003e0 bf 97 83 3e 20 e1 a7 be 81 e1 22 3e 45 90 99 3d
       0.2570171 -0.32788944 0.15906335 0.0749822
0003f0 e7 83 55 3e 34 6f 87 3e 7c be e7 3d ba b3 11 be
       0.20851098 0.2645203 0.11315629 -0.14228716

node_emb.bias f4 [64]
000000 83 38 5f be 30 d3 4b 3e c5 45 e2 bc ef 1f ca bd
       -0.21798901 0.1990478 -0.02762116 -0.09869372
000010 0e 5e a9 be e0 53 5d bd 6e 9f 4e 3e da 6a 80 3d
       -0.3307957 -0.054035068 0.20178005 0.0627038
000020 2f 62 ad be db 7d 43 3e a9 55 ac be f2 85 8f be
       -0.3386397 0.19090979 -0.33659104 -0.2803188
000030 5c 02 b4 3c 08 d9 50 3d f1 43 6a be b1 04 fc bd
       0.021973781 0.050988227 -0.2287748 -0.12305582
000040 76 fd 68 be 38 23 98 3d c7 04 10 be 53 e5 36 3d
       -0.22752938 0.074285924 -0.14064322 0.044652294
000050 a5 88 1d be e5 eb 73 3e db 7f 79 be 6d 67 ff 3c
       -0.15384157 0.23820455 -0.24365179 0.031177247
000060 d8 f0 15 3e 98 ca 1a be c4 5d 4c be ed 59 4d 3e
       0.14642656 -0.15116346 -0.19957644 0.20053835
000070 82 c7 87 3e 72 0d a0 bc 95 40 b2 3e b9 a0 83 be
       0.265194 -0.019537661 0.34814897 -0.2570856
000080 d4 ff 6b bd ac 42 83 3e f3 00 8e 3e 7c 6f 8e 3e
       -0.057617024 0.25636804 0.277351 0.2781943
000090 3a a3 94 3e c2 39 f6 3d 91 9b 0d 3e 81 bb ac 3e
       0.29030782 0.12022735 0.13828875 0.33736804
0000a0 81 11 52 3e 61 3f 0c 3e ab ff 2e be 11 73 af 3e
       0.2051449 0.13696052 -0.17089717 0.34267476
0000b0 c4 ae af 3d 1f fb a9 bd 66 fd 46 be f6 77 e0 ba
       0.08578256 -0.08299851 -0.19432601 -0.0017125595
0000c0 50 03 72 3e b0 9a 8c be 3d 58 06 be 7f 1e bd bd
       0.23634076 -0.27461767 -0.13119598 -0.09234332
0000d0 80 75 54 3d ef b2 79 3e 21 b7 42 3e 04 54 80 3e
       0.05186987 0.24384664 0.1901517 0.250641
0000e0 4f 5c 29 bd 84 c1 0d be 0d 64 b3 be da f9 55 be
       -0.041347798 -0.13843352 -0.3503727 -0.20896092
0000f0 e9 ee 35 bd 25 ae ad 3d d2 af 9d 3e 98 49 5a bc
       -0.044417296 0.08480481 0.30798203 -0.01332321

edge_emb.weight f4 [64, 2]
000000 7b 6c 7c be 57 ff e5 3e f1 00 d6 be c0 32 b3 be
       -0.24650757 0.4492137 -0.41797593 -0.34999657
000010 6b 43 c7 be b9 ac 92 3e b8 62 ac be 11 f8 8f 3c
       -0.38918623 0.28647402 -0.33669066 0.017574342
000020 72 70 2c 3d 3f d6 21 bf 60 14 a5 3e 14 1f ce 3d
       0.042099424 -0.6321754 0.32242107 0.100645214
000030 0e 63 ac be cf 3c d1 be e4 dc 2e bf 1a 99 8c 3e
       -0.33669323 -0.40866706 -0.683058 0.27460557
000040 f2 92 27 bf 19 89 f6 3e f9 76 9c 3d 6d a7 e7 3e
       -0.65458596 0.48151472 0.0763988 0.45244923
000050 9d d1 20 3e e5 45 1c bf ba 7a 0f bf 83 4a ed 3d
       0.15704961 -0.6104415 -0.5604664 0.115864776
000060 f2 e5 ee 3d 95 08 26 3e 58 22 da 3e c4 21 a9 3e
       0.11664952 0.16214211 0.42604327 0.33033574
000070 d5 c0 a5 3e 8a aa a9 be b1 f8 f6 3e 1d 89 12 3f
       0.32373682 -0.33137923 0.4823661 0.5724047
000080 07 cc 86 3e f3 6b f6 bc b8 2e 6d 3e 62 01 29 bf
       0.26327536 -0.030080771 0.23162353 -0.66017735
000090 af 61 02 bf 8b 24 bb 3e 24 a6 98 bd 3c 1e 38 be
       -0.50930303 0.36551318 -0.07453564 -0.17980283
0000a0 03 6c 83 3c 49 bf e5 3e fb 80 aa bd c1 47 15 3f
       0.016042715 0.44872501 -0.08325382 0.5831261
0000b0 72 bb cc be 6e 7b 31 bf 2c 98 31 bf a6 4a f0 3d
       -0.3998676 -0.69328964 -0.6937282 0.11732988
0000c0 f7 ff fe 3e 51 96 2e 3f 2c c8 2c 3d 57 cb f8 3e
       0.4980466 0.68198115 0.042183086 0.48592636
0000d0 59 8e 1f bf 41 67 4e be 12 0e e2 be 2f 6e 0d 3f
       -0.6232658 -0.20156576 -0.4415136 0.5524625
0000e0 f4 6f d7 3e 62 8b 45 bd f4 d6 ac be 2b f9 b3 3e
       0.420776 -0.04822863 -0.33757746 0.35151038
0000f0 4e 56 1f 3c f1 c6 bf be 8b 15 ce 3e 03 6f be 3e
       0.0097251665 -0.37456468 0.4025081 0.3719407
000100 06 3b c4 be 4e 5b 01 bf 18 d2 26 bd f4 52 ae be
       -0.3832628 -0.50529945 -0.040727705 -0.34047663
000110 ce 23 5a be 26 7a b8 3e 93 00 5f 3e 6a ca 2d 3f
       -0.21302721 0.36030692 0.21777563 0.67886984
000120 48 b2 b3 be 25 08 9a be c4 7a 12 bf 6a 80 81 be
       -0.35096955 -0.3008434 -0.57218575 -0.25293285
000130 35 4c b7 3d ba bf 90 3e ea 0c a0 bb 1d eb 38 be
       0.08950082 0.28271276 -0.004884352 -0.18058439
000140 0c ee c6 3e b9 23 96 be 9d 37 cc be 09 4a a4 bb
       0.3885349 -0.2932413 -0.3988618 -0.0050137085
000150 b5 71 aa 3e 50 6a b1 be 64 f2 2b 3f ce 00 8e bd
       0.33289877 -0.34651423 0.67166734 -0.06933747
000160 e9 40 04 3f 2e 47 34 be b9 d1 ca 3e 92 b1 9d be
       0.51661545 -0.17605278 0.3961313 -0.30799538
000170 73 8b fe 3d 40 22 33 be 0a a8 ba 3e c6 77 0e 3e
       0.124289416 -0.17493534 0.3645633 0.13912877
000180 da 92 b9 be b1 ea ee 3e 5f 2f 3e bd a3 55 43 be
       -0.3624485 0.4666343 -0.046431895 -0.19075637
000190 26 de 09 bf 21 ec b9 3b ab 61 9e 3e 6e 36 0c 3e
       -0.53854597 0.0056739007 0.3093389 0.13692638
0001a0 e5 60 6c 3e d4 ad c1 3b 74 1f 73 be 5a bf aa be
       0.23083837 0.0059106145 -0.23742467 -0.33349115
0001b0 3c 09 2e 3f 43 40 15 3f 2a 50 e8 bb 3d 01 1a bf
       0.6798284 0.5830118 -0.0070896344 -0.6015814
0001c0 1a c9 92 be 92 8a 23 3f 48 25 92 3e ba 35 17 bf
       -0.28669053 0.63883317 0.28544068 -0.59066355
0001d0 02 b8 8e 3c d5 b1 d4 be 1c b3 0a bf a1 f1 38 3e
       0.017421726 -0.41541925 -0.5417955 0.18060924
0001e0 2e 54 43 3e 1a 69 92 be 44 e5 8f 3e 97 62 e8 be
       0.19075081 -0.2859581 0.28104603 -0.45387718
0001f0 b8 bb cb 3e 7b b2 d7 3e eb e8 f0 bc 17 9f 2c 3f
       0.39791656 0.42128357 -0.029407939 0.6743025

edge_emb.bias f4 [64]
000000 54 b4 bf 3b 15 fa 2e bf 45 c8 d7 3e a7 3e 5a 3e
       0.005850354 -0.68350345 0.4214498 0.21312962
000010 7a c6 2c 3e 34 32 ac 3e 12 aa ae be af 95 1c 3f
       0.16872588 0.33632052 -0.34114128 0.611659
000020 39 16 18 bf 45 20 03 bf 3e 22 17 bf 65 68 19 3f
       -0.5940891 -0.51221114 -0.59036624 0.5992492
000030 d3 47 38 be 57 cd e8 bc de cf 17 bf ed ba 92 3e
       -0.17996149 -0.028418226 -0.59301555 0.28658238
000040 94 2d ae 3e 91 ce 7d be ac 4b d8 3d 4c e6 46 bd
       0.34019148 -0.2478583 0.10561308 -0.048559472
000050 00 f5 35 bf f2 ec ef 3e 4a cc b3 be f3 e1 82 3d
       -0.71076965 0.46860462 -0.35116798 0.06390753
000060 fb b4 a1 3e 8f c4 52 3c de d7 14 bf 81 2c 70 3e
       0.3158339 0.012864246 -0.5814189 0.23454477
000070 fa 66 e1 3e 2f 6c 2f bf 23 f9 b0 bc f7 fd a7 3d
       0.44023877 -0.6852445 -0.021603173 0.08202737
000080 02 24 52 3e c8 61 b9 be fd dc 13 3f eb 8b 18 bf
       0.20521548 -0.36207414 0.57759076 -0.595885
000090 19 88 dc 3e 8f 06 f5 3e 9a 7e 39 be 2a ef a8 3e
       0.43072584 0.47856566 -0.18114701 0.32994968
0000a0 27 86 5a bd 0f f9 11 3f 47 b0 15 3f bc b0 4a bd
       -0.053350594 0.5702066 0.584721 -0.049484953
0000b0 dc 55 90 3e 00 a6 92 3e c5 77 c2 3c 9f 05 cd be
       0.28190506 0.28642273 0.023738751 -0.4004335
0000c0 81 29 34 3e c1 84 a5 3d 32 6a ab 3d 97 d5 dd 3e
       0.17593957 0.080819614 0.083698645 0.4332702
0000d0 6a c0 55 3d af bf ff 3d b7 de ef 3e 46 52 a5 be
       0.052185453 0.124877326 0.46849605 -0.32289332
0000e0 68 e7 dd be 02 de 67 be 45 88 dc be 59 3f 05 3f
       -0.4334061 -0.22643283 -0.43072715 0.52049786
0000f0 d0 d1 ae be c7 e5 9c bd cd 3f f6 bc b3 17 36 3e
       -0.3414445 -0.07661014 -0.03005972 0.17782478

gat_layers.0.att_src f4 [1, 4, 16]
000000 3b a9 60 be e6 cf f9 3e a9 c5 5e 3e f5 48 29 bd
       -0.21939556 0.48791426 0.21755089 -0.041329343
000010 e5 b6 10 3d 66 ff da bd 30 bd a3 3c 1b 26 ed 3e
       0.03533067 -0.10693245 0.019987673 0.46318135
000020 9f 8b c6 be 43 e8 f1 be 18 06 81 3e be ee 3e be
       -0.38778397 -0.47247514 0.25199962 -0.1864576
000030 d8 f1 77 be 71 ef 58 3e 0e cd 35 3e ff 3e 07 3e
       -0.2421335 0.2118509 0.17754003 0.13207625
000040 1d 00 39 3d a9 44 85 3e 3f 98 98 3c 13 3c bc be
       0.045166124 0.26028946 0.018627284 -0.36764583
000050 56 db 98 3e a9 72 99 3e 52 c9 b1 3d 54 49 ec bd
       0.2985484 0.2997029 0.08680977 -0.11537424
000060 70 b9 a6 be a1 d2 be be 10 8e 34 3b 5a 47 d9 3e
       -0.32563353 -0.37270072 0.0027550496 0.4243725
000070 3e ed e0 3e 08 e7 99 3e 26 63 3f 3e d0 4f 94 be
       0.43931 0.30059075 0.18690166 -0.28967142
000080 a5 93 e2 be 2f d0 cd 3e 4b 8d 8b be f6 e4 9d be
       -0.4425327 0.40197894 -0.27256235 -0.30838746
000090 cf a0 92 be 58 0e 16 be da b5 c9 bd 69 a4 c2 be
       -0.28638312 -0.14653909 -0.098491386 -0.3801606
0000a0 08 df c6 bd ab b3 51 3e b8 1e 09 3c 78 31 d4 3e
       -0.097105086 0.20478694 0.00836914 0.41443992
0000b0 09 99 15 bd 2f 0d cd 3e 05 b9 e4 3e c7 db f9 3e
       -0.0365229 0.4004912 0.4467241 0.4880049
0000c0 3a 20 b8 be 54 d8 bc be e4 bb ed be 3d 88 b2 be
       -0.35962087 -0.36883795 -0.46432412 -0.34869567
0000d0 95 eb 5d 3e 49 2b 08 3f d8 d2 05 bf 97 12 b2 bd
       0.21671899 0.5319105 -0.5227485 -0.08694952
0000e0 78 50 b8 3e 35 8a e6 3e 88 ae bf 3e e4 5a f2 be
       0.35998893 0.4502732 0.37437844 -0.4733497
0000f0 4b 0e 8d 3e 4f af a8 3e cc 29 9b 3e e3 20 e9 be
       0.27549967 0.3294625 0.30305326 -0.45532903

gat_layers.0.att_dst f4 [1, 4, 16]
000000 7a fb 8a 3e 1b 12 05 3f bc eb c8 3e 72 93 36 be
       0.27144986 0.5198075 0.3924235 -0.17829683
000010 d5 6f 74 be 6d 38 f0 bd 55 df 05 3f 78 e2 88 3e
       -0.23870786 -0.11729512 0.522939 0.26735282
000020 14 0e 4a 3e 79 fe 51 bc 36 76 f4 3e 7e 60 98 3e
       0.19731933 -0.012817019 0.47746438 0.29761118
000030 a4 2a 81 be f6 61 03 3f 64 0c cf be 9d 87 0b bf
       -0.25227845 0.5132135 -0.4043914 -0.54503804
000040 51 19 89 be 6c ef bc 3e 37 a3 ac bd 0a 89 dd 3d
       -0.26777127 0.36901414 -0.08429568 0.10817154
000050 70 80 09 3f a2 27 fc 3c ad 7c 0c 3e 7d 93 fd be
       0.53711605 0.030780617 0.13719435 -0.49526587
000060 63 d4 cf bc a9 70 b8 be a8 ca 98 3e 6a 2f 62 be
       -0.025369829 -0.36023453 0.29842114 -0.220884
000070 9f 3d dc be d0 d0 de bd 4f 9a fc be aa e7 0b 3f
       -0.43015763 -0.108796716 -0.49336478 0.54650366
000080 52 bb e9 3d 19 9c 13 3e 16 2b 71 bd 80 65 e0 be
       0.11412682 0.14415015 -0.05887898 -0.43827438
000090 91 fe 65 3e e1 e1 da 3b ab 6d ab 3e f5 80 02 bf
       0.2246039 0.006679759 0.33482108 -0.5097802
0000a0 93 65 04 3e ff 1e c4 3e 8b 2f 9f 3e b9 95 f4 3e
       0.12929372 0.38304898 0.3109096 0.4777048
0000b0 36 0d cf be e4 6c 01 3e b5 53 97 3c 10 fb f6 3d
       -0.40439767 0.12639195 0.018472532 0.12059605
0000c0 17 76 90 3e d7 64 44 be a2 38 21 3e d9 67 e6 3e
       0.28215095 -0.19179092 0.1574426 0.45001104
0000d0 d4 a9 bf 3e 0d 31 3f be e3 29 b2 3e 5e 13 0f bd
       0.37434256 -0.18671055 0.34797582 -0.03493058
0000e0 0c 31 f0 be 0b aa 97 3d a3 f2 86 bd 43 62 e3 3e
       -0.4691242 0.0740548 -0.06589248 0.44410905
0000f0 6d 11 02 3d 4c a3 75 3d e7 d4 7b be 0a 7a da 3d
       0.0317549 0.059970185 -0.24592935 0.10667808

gat_layers.0.att_edge f4 [1, 4, 16]
000000 fe 7d ad be 76 f2 95 3e 7f fc 31 3e fb 8b 64 be
       -0.33885187 0.29286546 0.17381476 -0.22319023
000010 a8 65 69 3d f7 e2 01 3f 5e c6 d7 be 4b d3 83 be
       0.056981713 0.50736946 -0.4214353 -0.2574714
000020 30 bc 0a 3d a2 14 9c be 99 66 45 be 9b 97 81 be
       0.033870876 -0.30484492 -0.19277419 -0.25310978
000030 83 ce c5 3e c0 ea 8c 3e 44 15 43 3e 7a 2c 9f 3e
       0.38634118 0.2752285 0.19051081 0.3108862
000040 67 de b4 3e 3a 43 06 3f 23 78 8a be cc b5 d6 be
       0.3532593 0.5244633 -0.27044782 -0.41935575
000050 78 bc dc 3b c7 bb e8 bc 4c cf 74 3e b8 95 f3 be
       0.0067363344 -0.028409852 0.23907202 -0.47575164
000060 ca 62 b6 be 27 00 0c be f2 6e fb be 38 53 7a 3e
       -0.35622245 -0.13671933 -0.49108082 0.24445808
000070 21 6f 8d 3d 59 4c 1e 3d e6 6b 5c be 55 f5 5c be
       0.06905962 0.03864703 -0.21525535 -0.21577962
000080 5b e4 f9 be c8 3b e5 3e c0 43 8f be e8 cd 0a 3e
       -0.48807034 0.44772172 -0.27981377 0.1355511
000090 99 02 3a bd 4d 2f e0 be 21 3d 04 bf de 20 e3 3e
       -0.045412634 -0.43786088 -0.51655775 0.44361013
0000a0 5f 4b e5 be cc 59 22 3e 2a 41 2b be ec 19 1f 3e
       -0.44784066 0.15854567 -0.16724077 0.15537232
0000b0 09 0e 09 3d 93 ac c0 bd 94 bb af bc 1f d4 b8 3e
       0.03346065 -0.09407916 -0.021451749 0.36099336
0000c0 cd 40 12 3e 36 06 6d bc 8a d4 0c 3d 58 c9 03 3f
       0.14282532 -0.014466813 0.03438238 0.514791
0000d0 d2 87 96 be 0d 0e 39 be 79 42 b8 be 87 00 08 bf
       -0.29400498 -0.18071766 -0.35988215 -0.53125805
0000e0 85 1e a9 3e 8a 81 45 3d 21 ea fd 3e 97 28 e5 3e
       0.33031097 0.04821924 0.4959269 0.4475753
0000f0 c4 31 eb 3e 14 1f c7 be 58 07 76 bd 99 80 d3 3e
       0.45936406 -0.38890898 -0.060065597 0.4130905

gat_layers.0.bias f4 [64]
000000 04 09 e1 bb e0 bb bb bb 13 ae 1a 3c 64 f7 f7 bb
       -0.00686753 -0.0057291836 0.009440917 -0.007567333
000010 a0 60 00 bc 27 e6 00 bc 23 81 e4 3b 05 6a 01 bc
       -0.007835537 -0.007867373 0.006973402 -0.007898812
000020 df 2c ff bb 2a df ff bb 8e 26 00 bc c7 28 01 bc
       -0.0077873315 -0.0078085857 -0.007821692 -0.007883257
000030 b4 d2 e4 3b 66 8c cd bb 7e 99 ea bb 6b a4 e4 bb
       0.0069831256 -0.0062728403 -0.007159411 -0.006977608
000040 6b 02 ba 3b 0c b2 bd bb 74 81 32 3c 65 89 df 3b
       0.005676558 -0.005789047 0.010895122 0.0068217986
000050 18 2b e1 bb 91 ee 52 3b de fd 43 3c d9 bb ea bb
       -0.0068715923 0.0032185654 0.011962382 -0.0071635065
000060 f8 c7 e5 bb b9 ec dd bb a6 cf 00 bc 54 02 c2 bb
       -0.0070123635 -0.0067726043 -0.007862007 -0.0059206877
000070 5e a6 f4 bb 01 57 c7 bb dd ed ea bb aa bf ae 3b
       -0.0074661216 -0.0060833697 -0.007169469 0.0053329067
000080 ab f2 c7 bb dc 61 fc bb d1 b2 0b bb 08 3d eb bb
       -0.0061019263 -0.0077020954 -0.00213163 -0.0071789064
000090 06 14 ff bb 95 d4 c3 bb 35 9c e1 bb 19 2d fd bb
       -0.0077843694 -0.0059762695 -0.0068850764 -0.0077263233
0000a0 d5 1e 38 3c 57 f8 fe bb af 22 16 3b 2b 05 5b 3c
       0.01123782 -0.0077810693 0.0022908857 0.013367931
0000b0 7e 86 2e 3c e9 e5 ff bb b7 70 ff bb f6 72 36 3c
       0.010652183 -0.00780939 -0.007795419 0.011135807
0000c0 1d d7 00 bc fe 6a e6 bb f2 55 f6 3b 19 0c eb bb
       -0.007863787 -0.0070317974 0.0075175697 -0.007173073
0000d0 d0 e6 41 3c b7 4c bd 3b b7 ee e5 bb 12 44 fd bb
       0.011834815 0.0057769674 -0.0070169824 -0.007729062
0000e0 e7 39 e4 3b dc bb fb bb 11 14 e2 bb 37 25 e6 bb
       0.0069649103 -0.0076823067 -0.0068993648 -0.0070234793
0000f0 d0 a5 3d 3a 4e 13 03 3c e4 e2 eb bb f9 3f d4 bb
       0.0007234486 0.008000208 -0.0071986783 -0.0064773527

gat_layers.0.lin.weight f4 [64, 64]
000000 f8 5d d5 3d af 94 d1 bd f2 d4 85 3d 84 f3 a8 3d
       0.10418314 -0.10233437 0.06534757 0.08249572
000010 15 83 54 be 02 21 67 3d af 21 36 3e 1d f5 f0 bd
       -0.20753129 0.056427963 0.17786287 -0.11765502
000020 d9 09 39 be 15 ad c1 bc 9a 34 80 bd 7b 96 36 be
       -0.18070163 -0.023642102 -0.06260033 -0.17830841
000030 3a c7 13 3c 92 1f 91 bd aa 25 80 bd 64 1c 4c 3e
       0.009019667 -0.070861 -0.06257184 0.19932705
000040 ff 86 5e 3d d2 c8 9e 3c 9a 28 31 be b6 b6 d3 bd
       0.05432796 0.019382868 -0.17300645 -0.10337584
000050 20 31 41 3e 14 f6 87 bd 9c a8 34 be c2 b8 83 bd
       0.18866396 -0.066387326 -0.17642444 -0.06431724
000060 c2 f0 ff 3d b8 01 81 3d de ea f7 bd 9c 99 54 3d
       0.12497093 0.06299156 -0.12105344 0.051904306
000070 12 f9 45 be 8c d2 09 be ec c7 a3 bc 88 f8 f1 bd
       -0.19333294 -0.13459224 -0.019992791 -0.11814982
000080 bf fa 4a 3e 43 28 34 be ee 72 88 3d 16 45 4f be
       0.19822215 -0.17593484 0.06662546 -0.20241198
000090 8d 08 15 3e fc ef 06 be 37 62 0a 3e 37 8c 1e 3e
       0.14554043 -0.13177484 0.13514028 0.15483175
0000a0 cd 11 07 3d 00 20 44 be ab 2a a4 bc c9 34 8a bb
       0.03297596 -0.19152832 -0.020039877 -0.0042177183
0000b0 20 09 a5 3d 85 e0 40 3e 8e 67 a3 bd a9 5d ce 3d
       0.08058381 0.18835647 -0.07978736 0.10076458
0000c0 59 72 d8 3d a7 c7 3d be 23 25 4c be bc f7 52 3e
       0.10568685 -0.18533193 -0.19936042 0.20602316
0000d0 a2 3f 48 39 b9 03 06 be f2 0f 58 3e ed 2b 00 3e
       0.00019097191 -0.13087358 0.21099833 0.12516756
0000e0 05 f4 21 3e d8 df ce bd 71 0f 29 bd 62 66 94 3c
       0.15815742 -0.101012886 -0.04127449 0.018115226
0000f0 1c 28 3f bd ca 63 2f be a9 4e 0a be 0f 02 ee 3d
       -0.04666911 -0.1712791 -0.13506569 0.116214864
000100 21 c1 2b 3e d5 e5 cf bd b5 97 f0 3d ff e5 43 3e
       0.16772892 -0.10151259 0.11747686 0.19130705
000110 3f a2 40 3d 98 9f df 3c 22 18 b3 bd c3 36 e8 3d
       0.04702973 0.02729778 -0.08744837 0.1133857
000120 37 b1 80 bd fb 36 06 3e 72 70 4f 3e 54 f7 42 3e
       -0.06283801 0.13106911 0.20257738 0.1903966
000130 c0 4c 8d 3b 65 4f 56 3d b6 1c 50 be 3f 85 fe bc
       0.004312128 0.05232181 -0.20323452 -0.031069396
000140 a0 37 5b be 0e 5d 01 3e a6 11 0d be 71 f6 a7 3c
       -0.21407938 0.12633154 -0.13776264 0.020503255
000150 63 f5 14 3e 63 89 39 3e 07 f5 fe 3d b9 22 fe 3d
       0.14546733 0.18118815 0.12449079 0.124089666
000160 ef 41 03 be 35 34 35 be 93 ed 3d be 34 18 12 3e
       -0.1281812 -0.17695697 -0.18547659 0.14267045
000170 3d 77 44 bd 64 76 4a 3d 65 ba 60 3e cc f7 47 be
       -0.047965277 0.049429312 0.21946104 -0.19528121
000180 ee bd 4b 3d b8 a9 86 bc 76 92 07 be 15 26 12 be
       0.049741678 -0.01643835 -0.13239464 -0.1427234
000190 99 c4 32 be b2 38 fb 3c 21 8a 83 bc 6e de 08 3e
       -0.17457809 0.030666683 -0.016057076 0.133661
0001a0 a8 b6 50 be dd 6f d9 3c 68 31 2c 3e 68 77 04 bd
       -0.20382178 0.026542598 0.16815722 -0.032340437
0001b0 0b 3f 32 bd 5c da 03 be be b2 49 be 05 0f 34 be
       -0.043517154 -0.12876266 -0.19697091 -0.17583854
0001c0 26 a4 f5 bd 08 cb 77 3d 6c 74 a7 3d cf 13 84 3d
       -0.119941995 0.06049636 0.081765026 0.06449091
0001d0 c9 32 5d 3e c3 e9 9a bd cf 36 82 bc be af 28 bd
       0.21601404 -0.07564118 -0.015895275 -0.041183226
0001e0 53 fe 44 3e c4 79 35 be c7 10 28 3c ca df 87 bd
       0.19237642 -0.17722231 0.010257906 -0.06634481
0001f0 0e 94 21 3e 83 14 e1 3d 4e b6 cc 3c 67 d8 48 3e
       0.15779135 0.109902404 0.024989273 0.19613801
000200 ae f5 9c 3d 4a 40 28 3e 7c d5 23 bd 03 39 5b 3e
       0.07664047 0.16430774 -0.039998516 0.21408467
000210 0a 76 95 bd bb 69 6a bd a5 6b 81 3d 09 d5 0e be
       -0.07297905 -0.05722974 0.0631936 -0.13948454
000220 36 49 7f bb ac 33 db 3d 61 27 e5 3d d2 45 83 bd
       -0.003895355 0.10703215 0.111891516 -0.064098015
000230 b7 53 0a 3e 69 99 4c be 32 e0 6a 3d 00 dd b8 bd
       0.13508497 -0.19980396 0.057342716 -0.090265274
000240 83 95 ea bd 27 15 2c 3e 99 6e 35 be a6 0b 33 be
       -0.11454298 0.16804944 -0.17717971 -0.17484912
000250 3b 8f 89 bd 29 c6 1e 3e 05 94 17 be 37 bd 6c bd
       -0.06716772 0.1550528 -0.14802559 -0.057797637
000260 ee 35 34 be 4a c1 04 3e e3 75 08 be 1e 1d b5 bd
       -0.17598698 0.12964359 -0.1332622 -0.08843444
000270 a1 b7 07 be c0 2c 9d 3d 70 43 ad 3c b6 f1 05 be
       -0.13253643 0.07674551 0.02115032 -0.13080487
000280 a1 30 c7 3d 44 36 0a be a1 b3 bf 3d 9d c3 19 be
       0.09726072 -0.13497263 0.09360433 -0.15016027
000290 4b e4 59 3e 2e c9 9d 3d 33 9e c8 3d 0f 3e b5 bd
       0.21278493 0.077043876 0.09795799 -0.08849727
0002a0 3c 07 5b 3d b8 97 34 bd df 52 d5 3d 7c 08 f5 3d
       0.053473696 -0.044090003 0.10416197 0.11964509
0002b0 14 ae 74 3b ca 85 a7 bc 6c 8b 84 3d 00 92 97 bd
       0.0037335204 -0.020449538 0.06471905 -0.07400894
0002c0 a6 26 21 bd 2b 6f d6 3c 5a b7 8d bc de 06 09 be
       -0.0393435 0.026176056 -0.017299343 -0.13381526
0002d0 67 73 21 3e 5d e6 3e be 47 7b 04 3e be 75 85 3d
       0.15766679 -0.18642564 0.12937652 0.06516598
0002e0 58 c8 fc bd 0f ab 22 3d 16 b6 c2 bd f8 35 36 3e
       -0.123429 0.039713915 -0.095073864 0.17794025
0002f0 3d e1 34 b9 18 d0 d3 bd bb ff 17 be a8 a5 1e be
       -0.00017250045 -0.10342425 -0.14843647 -0.1549288
000300 ce 39 0e 3d 82 fc 93 3d ca 1d 45 3e 3c 1b dd bd
       0.034723096 0.072258964 0.19249645 -0.1079621
000310 63 54 1d 3e aa 23 43 bc 7c 87 b3 3d bf 5d 5a 3e
       0.15364222 -0.011910358 0.08766076 0.21324824
000320 53 b6 89 3d 91 1c bb 3c d2 a3 aa 3d 13 91 2d 3d
       0.06724229 0.02284077 0.083320275 0.04237468
000330 a2 91 f6 3d 17 13 3f 3e ea ea e0 bc 76 63 47 be
       0.12039496 0.18659626 -0.027455766 -0.19471535
000340 f4 11 19 be 48 8f 2a bd 74 ec 11 bd ec 31 1e 3e
       -0.14948255 -0.04164055 -0.03562589 0.15448731
000350 38 24 45 3e 4c bb a3 bd 9e ad 59 be 88 ef 3d 3e
       0.19252098 -0.079947084 -0.21257636 0.18548405
000360 b4 40 1c be 7d 10 3a 3e ae 4e 09 3e c7 c3 39 be
       -0.15259057 0.18170352 0.1340892 -0.1814109
000370 d9 2f 2d 3e f4 b7 43 bd 33 31 d3 3d 89 d9 4b 3d
       0.16912784 -0.047782853 0.103121184 0.049768005
000380 2e c0 bf bd 5a 12 56 be f3 f5 39 3e 95 3b cb 3d
       -0.09362827 -0.20905438 0.18160228 0.09923474
000390 bb 43 15 bd 82 75 4a bc 89 f3 16 be 66 33 1b be
       -0.036441546 -0.012357118 -0.14741339 -0.15156326
0003a0 13 18 d8 bd ef e9 4e 3e 4d 2e 5d 3e 78 93 3c 3d
       -0.10551467 0.20206426 0.21599694 0.046039075
0003b0 04 da 42 be 3b 6c 00 3e 05 f2 24 3c 3e 22 17 3e
       -0.19028479 0.12541287 0.010067468 0.14759156
0003c0 79 d9 57 3e 56 e0 e0 bd 3b f6 ee bd f7 de 05 be
       0.21079053 -0.10980289 -0.116680585 -0.13073336
0003d0 ba 72 ba 3d 5f a7 4e 3e 2b 8d 2d be af 85 d9 3d
       0.091039136 0.20181035 -0.16948383 0.10621201
0003e0 33 77 dc 3d 92 f6 59 bd d8 9d 25 3e 52 81 56 3e
       0.10764923 -0.053213663 0.16173494 0.2094777
0003f0 a2 9b 12 be 60 09 f6 3c 43 6b c1 bb 38 58 4a 3d
       -0.14317182 0.030033767 -0.005902679 0.04940054

gat_layers.0.lin_edge.weight f4 [64, 64]
000000 6c 71 26 3e 40 e7 12 3e a9 66 e6 bc 04 f3 28 3e
       0.16254205 0.14346027 -0.028125124 0.16498953
000010 5c 26 bc 3d 57 77 e3 3d 60 0a b5 3d 3d 3e 05 be
       0.09187004 0.11106747 0.088398695 -0.13012023
000020 65 73 32 be d4 e3 2f 3c 9f 56 9c 3d c6 7d 5e 3e
       -0.17426832 0.010735471 0.07633709 0.21727666
000030 c3 5e 53 be c1 18 13 3e 7d c3 3d be 4c ba 88 bc
       -0.20641617 0.14364912 -0.18531604 -0.016690396
000040 86 73 a4 bd 31 2d 10 3e ad 3f 44 3e b0 6e 50 3b
       -0.08029847 0.14079739 0.19164915 0.0031804256
000050 7f ea b0 bd 7e 89 13 be 89 6f 92 bd 5b 37 ce bd
       -0.086384766 -0.14407918 -0.0715018 -0.10069152
000060 64 c9 a9 bb b6 4d 20 3c b5 24 4a bd 8b 96 79 3c
       -0.0051814783 0.009784153 -0.049351413 0.015233646
000070 92 49 4a bd a7 a8 19 3e 5d ec 03 3e 25 68 12 be
       -0.04938657 0.15005742 0.12883134 -0.1429754
000080 21 f1 3e be bb c6 56 3e e4 4c 47 3c 4d e2 d5 bc
       -0.18646671 0.20974247 0.012164328 -0.026108885
000090 98 d4 09 3e b3 18 56 3e 9c 7b d4 bd 58 eb d2 3d
       0.13460004 0.2090786 -0.10375139 0.102987945
0000a0 f0 9c c2 bd da 6d 53 be d5 8d 5c be f7 54 f0 3d
       -0.0950259 -0.20647374 -0.2153848 0.11734956
0000b0 fb 68 8c 3d eb 66 e2 3d 64 a9 89 3d de f2 ee 3d
       0.06855961 0.11054786 0.06721762 0.11667417
0000c0 dd f5 eb 3d 82 79 39 3e 85 88 49 3e 13 99 8c bd
       0.11521504 0.18112758 0.19680984 -0.06865134
0000d0 a4 89 09 3e 6e 61 a3 bd 2e 28 66 bd fd fd ec bd
       0.13431412 -0.079775676 -0.056190662 -0.11571882
0000e0 69 6c de bc 0c 95 2a be 02 10 9b bd 98 08 39 3e
       -0.027151303 -0.1665842 -0.075714126 0.18069685
0000f0 57 b9 0f be 1b 31 b9 bd c3 dd cd bd 15 ac 33 be
       -0.14035545 -0.09042569 -0.10052063 -0.17546113
000100 b8 6e a2 bd 0c 1a 5f be 18 c7 19 3e 0a a3 4d 3e
       -0.07931274 -0.2178728 0.15017354 0.20081726
000110 b8 14 0b bd 2e b2 0e be 39 8c 40 3e 2c 61 37 3e
       -0.033955306 -0.13935158 0.1880349 0.17908162
000120 c0 fe b8 3d 64 b1 5b be 43 56 49 3e 58 06 59 be
       0.09032965 -0.21454388 0.19661812 -0.21193826
000130 ee 78 db 3c bf 81 c9 bd af 1a 1b be 25 21 13 be
       0.026791062 -0.098392 -0.15146898 -0.14368112
000140 8f 15 00 3e c2 39 1b bc c8 12 2e 3e 31 77 db bd
       0.12508224 -0.00947422 0.16999352 -0.10716093
000150 cd 98 df 3d f4 4f 9d bc 75 82 ae bd 12 3e 24 3d
       0.10917816 -0.019203164 -0.085209765 0.040098257
000160 db 0e a5 bd 17 9d 25 3e 3a 2c da 3d cc 40 82 bd
       -0.08059474 0.16173206 0.10652967 -0.06360015
000170 33 b9 5f bd 87 51 4b be e6 54 e8 bd 80 00 17 be
       -0.05461998 -0.19855319 -0.11344318 -0.14746284
000180 4c 60 48 be 42 17 01 3e 71 a6 29 be 7f 9b de 3d
       -0.19567984 0.12606528 -0.16567399 0.10869502
000190 04 b6 e5 3c 01 98 1e be 81 c7 60 bd 13 ea 64 3d
       0.028040893 -0.15487672 -0.05487776 0.055887293
0001a0 db b1 80 3d e7 b6 b9 3d e4 34 4c 3e 24 0c 32 3e
       0.06283923 0.09068089 0.19942051 0.17387444
0001b0 a9 ea 4d be 86 f3 48 be 7e e7 52 3e 9e 2d 9b 3d
       -0.20109047 -0.19624147 0.2059612 0.0757706
0001c0 6c 51 29 3e 0b 92 d9 3d 0c 90 e1 bc 0f 66 2d be
       0.16534966 0.106235586 -0.027534507 -0.16933464
0001d0 20 84 1d 3e 68 e3 00 be bd e9 89 3d f0 cf 1e be
       0.15382433 -0.12586749 0.06734035 -0.1550901
0001e0 ea d4 25 be d6 32 dd bd 27 06 f7 bd 09 91 04 3d
       -0.16194502 -0.10800712 -0.1206172 0.03236488
0001f0 b1 f3 c5 bd 11 85 a2 bd a1 04 41 be a4 70 23 bd
       -0.09665621 -0.07935537 -0.18849422 -0.039902344
000200 4d b0 02 3e a6 b2 09 be 9b dd 1f be c0 52 a8 3d
       0.12762566 -0.13447055 -0.1561188 0.08218908
000210 12 49 d2 3d b5 e2 0a 3e d6 9b e6 bd 4b 58 24 be
       0.10267843 0.13563044 -0.11260192 -0.16049306
000220 2b 3e 2f 3e 32 e5 97 bc dc 10 ae bd bb cd 23 3e
       0.17113559 -0.018541906 -0.084993094 0.15996449
000230 4a 05 38 3e f1 4e 98 3d c6 ab 8c 3d 36 0f 31 3e
       0.17970768 0.07436932 0.06868701 0.17290959
000240 05 83 f4 bd ea 3a f6 3c 94 61 11 be ab a9 0a be
       -0.119390525 0.03005739 -0.1419738 -0.13541286
000250 9a bf f8 bb c8 1c af ba b8 1c 1c be 2d 7b 18 3d
       -0.0075912 -0.0013360018 -0.1524533 0.037226845
000260 97 56 a7 3d d6 bb ff bb 8e 0b 59 3d 19 0f 11 3e
       0.081708126 -0.007804374 0.052989535 0.14165916
000270 80 8c 97 bd c5 a2 3b bd 63 94 31 3e 98 ad 28 3e
       -0.07399845 -0.045809526 0.17341761 0.16472471
000280 b8 46 00 bd 34 eb d8 3d 8d 46 28 3e df 16 05 3e
       -0.031317443 0.105917364 0.16433163 0.12997006
000290 a1 21 fb 3d 91 b0 2c 3e 58 71 8a 3d 61 17 36 be
       0.122622736 0.1686423 0.067599 -0.17782356
0002a0 a9 18 37 3e 31 2f 00 3e 43 be a4 3d 3a da 08 3e
       0.17880501 0.12518002 0.08044102 0.13364497
0002b0 12 5d 2f be 91 47 27 3e e7 04 68 bb 1f 73 3d 3d
       -0.17125347 0.16335894 -0.0035403313 0.046252366
0002c0 a8 04 49 3e bb a6 3f bd 2e 17 0b 3e ab 36 bf 3b
       0.19630682 -0.046789866 0.13583061 0.0058353744
0002d0 d3 ac c3 bc 27 80 1d 3e 59 0a a6 bd 74 85 31 3e
       -0.02388612 0.15380917 -0.081074424 0.17336065
0002e0 fe 6e d8 3d a3 61 d9 3c 0c 50 d7 3d eb 4a 14 3e
       0.10568045 0.026535815 0.105133146 0.14481704
0002f0 ad d4 06 3e f4 39 44 3e 01 63 11 3e 91 4a 59 bd
       0.13167067 0.19162732 0.14197923 -0.053049628
000300 73 67 36 be cd 14 3d be 44 65 bc bc 1c b8 8f bd
       -0.178129 -0.18464966 -0.022997506 -0.07017538
000310 0c 84 77 bd 77 72 c1 bd 63 f2 09 be b4 a3 c7 3d
       -0.060428664 -0.094456606 -0.1347137 0.09748021
000320 f7 a1 4d be 37 98 07 3e 17 f0 ef 3d 46 1e b3 3c
       -0.20081316 0.13241659 0.117157154 0.021865021
000330 7d c5 c9 3b a4 8e 69 bd 36 cb d9 3d 21 e5 7d bd
       0.0061575756 -0.0570208 0.106344625 -0.061986092
000340 7f 8b b7 bd 94 81 74 bd ef 56 55 3e b1 51 fd bd
       -0.08962154 -0.059693888 0.20833944 -0.12369097
000350 48 e4 1e 3e f5 92 80 3d 82 48 cb bd da 15 0b be
       0.1551677 0.0627803 -0.09925939 -0.13582554
000360 8e 5e 36 be 8a 0a 56 3e 5e 7e 1f 3e 92 16 3d be
       -0.17809507 0.20902458 0.15575549 -0.18465641
000370 5a 70 e5 bd 73 ae 12 3d 30 73 1a 3e a9 92 f7 3d
       -0.1120307 0.0358109 0.15083003 0.1208852
000380 d8 f7 d3 bc f0 79 bf 3d 6a f1 84 bc 06 b0 34 be
       -0.025875017 0.093494296 -0.016228396 -0.17645273
000390 88 c6 52 3e 1c 82 35 3d 7d d5 8d 3d ff f7 19 be
       0.20583546 0.044313535 0.06925485 -0.15036009
0003a0 35 d4 a0 bc ea f2 ac bd 81 5b 59 3e 5b 98 34 be
       -0.019632438 -0.0844477 0.21226312 -0.17636244
0003b0 c3 96 08 be b2 d1 a1 3d 8c 57 4f 3e 98 91 e4 3d
       -0.13338761 0.07901324 0.2024824 0.11160582
0003c0 b7 48 2c be 6d e8 5b 3e e9 99 5b 3e 43 6f 2e 3e
       -0.16824614 0.21475382 0.21445431 0.1703463
0003d0 50 6f 8d 3d 38 90 12 bd bc 61 ba bd b9 47 8a 3d
       0.06905997 -0.03578207 -0.091006726 0.06751961
0003e0 2f 9f d1 3d 4e be 49 3b db 71 90 bd 4d a3 a8 3c
       0.1023544 0.0030783596 -0.07052966 0.02058568
0003f0 62 d5 ad bc db 2e 4a be 6c c0 5c be 47 41 45 be
       -0.021219913 -0.19744436 -0.21557778 -0.19263183

gat_layers.1.att_src f4 [1, 4, 16]
000000 2b e7 28 3e 12 f0 f3 3e 56 ab ef bd 38 f8 04 bc
       0.16494434 0.47644097 -0.117026016 -0.008115821
000010 7c 4c 47 be 10 e1 88 be e5 e5 d2 be 83 b3 d6 3e
       -0.1946277 -0.2673421 -0.4119102 0.41933832
000020 8f 87 05 3f 82 05 64 3e 80 df 5f 3e a5 a2 9f 3e
       0.5215997 0.22267726 0.21862602 0.31178775
000030 8b 92 2c be fc 08 d5 3e b5 ab bc be 16 e6 0b bf
       -0.16852777 0.41608417 -0.36849752 -0.5464796
000040 43 92 1d be b3 42 c1 be ea 41 2d be 2a 4b cf 3d
       -0.15387826 -0.377462 -0.16919675 0.10121758
000050 76 fe 0a 3f 93 14 c4 3e 1f 29 bd 3e ef ce 04 bf
       0.54294527 0.38296947 0.36945435 -0.51878256
000060 7f 09 fe bd fd d8 91 3e 49 ab cb be 1a 8f d5 3d
       -0.12404155 0.2848586 -0.39779118 0.10427685
000070 5b 80 7c 3e b4 a5 41 3e 54 ed 0b bf 90 b1 56 be
       0.24658339 0.18910867 -0.5465901 -0.20966172
000080 f1 fb 86 3d 06 f6 e8 3e 2d e8 2e 3d 0d 9e a2 3e
       0.06591023 0.455002 0.04270189 0.31761208
000090 5c 26 35 be c1 f1 38 be aa f9 de 3d 63 ab 90 be
       -0.17690414 -0.18060972 0.108874634 -0.28255758
0000a0 ce 1d 9b be 18 74 5d 3e 88 4f 8c be bb 54 04 3f
       -0.30296177 0.21626318 -0.27404428 0.5169179
0000b0 49 24 a7 3e 94 2e 04 3e d8 54 a1 3e af 5b d2 bd
       0.3264487 0.12908393 0.31510043 -0.102713935
0000c0 86 46 21 3e 04 41 f9 be 04 3b 55 be 5e 62 58 be
       0.15749559 -0.48682415 -0.20823294 -0.21131274
0000d0 ec b9 96 3e 9e c1 de be 56 51 e5 3e 87 db 0f be
       0.29438722 -0.43507093 0.44788617 -0.14048587
0000e0 6d c4 ce be 1b 5c 03 bf c0 85 75 be ad 5b 86 3e
       -0.40384236 -0.51312417 -0.23976803 0.26241818
0000f0 76 27 51 be 83 5b 05 bf ce d1 da 3c f7 24 33 be
       -0.2042521 -0.5209276 0.02671137 -0.1749457

gat_layers.1.att_dst f4 [1, 4, 16]
000000 c2 de 89 be 74 ed 12 3b e0 10 24 3e f7 76 cc 3d
       -0.26927763 0.0022419365 0.16022062 0.09983628
000010 4b c3 f4 3c f3 22 6d be d7 a9 15 3e 78 a4 3e 3d
       0.02987828 -0.23157863 0.1461557 0.04654357
000020 7b 5e fe 3d 40 e2 f6 3e e4 16 df 3d 28 12 88 be
       0.124203645 0.4821949 0.10893038 -0.26576352
000030 51 54 79 3e d6 7c 7c bd 78 62 9b 3e f3 8b 07 3f
       0.2434857 -0.06164249 0.30348563 0.5294792
000040 73 a5 16 bd 1e 79 31 bd 25 7e da 3d e3 f0 93 be
       -0.03677888 -0.043328397 0.106685914 -0.2889472
000050 e5 d7 0a 3d bb d1 07 3e 76 cb 93 bd 67 e2 91 3e
       0.0338973 0.132636 -0.072165415 0.28493044
000060 1b 99 f6 bd 96 3a 06 3f b0 d4 57 3e fa 31 97 3e
       -0.12040921 0.52433145 0.21077228 0.29530317
000070 0b 56 4b be 5c fb 4c 3d 19 9a de be d2 fa 6e be
       -0.19857042 0.050044402 -0.43476942 -0.23337868
000080 14 c5 58 3e 57 af 40 bd 21 d4 ed 3e 13 3f d6 be
       0.2116893 -0.047042217 0.46450904 -0.41844997
000090 b0 05 38 be 26 4d a3 3e 75 27 d2 3e 46 e2 d9 be
       -0.1797092 0.31894797 0.41045728 -0.42555445
0000a0 ef b4 a2 be 37 50 a7 be eb fa fa be 52 ee c8 3e
       -0.31778666 -0.32678387 -0.4901956 0.39244324
0000b0 51 fc 04 bf a3 56 c3 bd b2 df 99 3e 17 d1 3d 3e
       -0.51947504 -0.09538009 0.30053478 0.18536793
0000c0 9b b5 21 be 54 0a dc 3e 84 90 4f be f8 bb 32 3e
       -0.15791933 0.4297663 -0.20269972 0.17454517
0000d0 20 62 aa 3e d5 d7 8a be 22 0a 0c 3f a3 fa 5a be
       0.33277988 -0.27117792 0.5470296 -0.21384673
0000e0 7f d0 ad be ad 0b 07 3e e2 8a 1e be ad 2e ce 3e
       -0.33948132 0.13188048 -0.15482667 0.40269986
0000f0 c9 20 b8 3e bb 33 40 be df c2 a3 be 66 9d 27 bd
       0.35962513 -0.18769734 -0.31984612 -0.04092159

gat_layers.1.att_edge f4 [1, 4, 16]
000000 bf 7b d9 be f2 ef f8 3e 49 dc 0d bc 30 7d f7 3e
       -0.42477223 0.48620564 -0.008658477 0.48337698
000010 14 81 b6 be 5d ec 09 3f 59 ff 04 3d e2 9f 86 3e
       -0.35645354 0.53876287 0.03247008 0.26293856
000020 98 1c ea bd 6a b1 51 be 8a 39 cf be cb 6d 29 3e
       -0.11431235 -0.20477834 -0.40473586 0.16545789
000030 89 0d c3 bc 97 17 c8 3d 82 01 a8 be 06 f3 ca bd
       -0.023810165 0.097701244 -0.3281365 -0.09909634
000040 f1 d9 ce be 3a b7 7f bd b4 34 01 3e bf df 9b bd
       -0.4040065 -0.062430598 0.12617761 -0.076110356
000050 5f f3 08 be d8 40 86 3c fb 84 35 be c6 0a c3 be
       -0.13374089 0.016388342 -0.1772651 -0.38094157
000060 0b b1 59 be 80 1b 63 3e 70 61 f1 3e 43 be bc be
       -0.21258943 0.22178459 0.4714465 -0.36863908
000070 77 ef e5 be f4 1c dc be 37 6a e3 3e f0 24 08 be
       -0.4490926 -0.4299084 0.44416973 -0.1329534
000080 25 7f 00 bf d1 6e b5 3d f1 a1 a4 bd 9b 72 b8 be
       -0.5019401 0.08859027 -0.080387 -0.36024937
000090 4a ad e8 3e ec 0f f0 3d 82 e9 cf 3b f1 12 00 bf
       0.4544471 0.11721787 0.006344975 -0.500289
0000a0 93 f3 7f be 79 0c 87 3c d0 ee dd 3e 50 19 a0 be
       -0.2499526 0.01648544 0.43346262 -0.31269312
0000b0 8e 9c a2 3b ef 0f c4 3e 3d fc 07 be b6 37 ad bd
       0.0049625104 0.38293406 -0.13279815 -0.08457892
0000c0 be 2c 8a bb 85 14 f3 3e c8 69 a6 3e dd 0e e8 3d
       -0.0042167595 0.47476593 0.3250258 0.1133096
0000d0 5a f6 a8 3e fd 6f 06 be 48 a5 e2 3e c7 87 81 3b
       0.3300045 -0.13128658 0.44266725 0.0039529535
0000e0 6c 19 96 3e 95 6d f5 3e 8a e7 fa 3e 15 ab 0a be
       0.2931627 0.47935167 0.49004775 -0.13541825
0000f0 83 22 8d 3e 9e fc a9 be 80 4b c2 3b 05 a0 00 bf
       0.27565393 -0.33200544 0.0059294105 -0.5024417

gat_layers.1.bias f4 [64]
000000 28 e3 f4 bb 8e c6 f5 bb b8 23 15 3c bd dd f9 bb
       -0.007473368 -0.007500476 0.009102754 -0.00762531
000010 53 d5 fa bb a7 4b f5 bb 4e 80 fa 3b a8 6f f5 bb
       -0.0076548248 -0.007485825 0.0076446896 -0.007490117
000020 2a ae f4 bb 10 74 fa bb 65 4f f9 bb 37 73 f5 bb
       -0.007467051 -0.0076432303 -0.0076083415 -0.0074905413
000030 b2 c8 f8 3b 47 a2 f4 bb b2 f0 f4 bb 6a c7 f5 bb
       0.007592284 -0.007465634 -0.007474982 -0.0075005786
000040 4f a3 f6 bb 03 ad f4 bb 48 a2 f4 bb 40 e1 f4 bb
       -0.007526792 -0.0074669137 -0.0074656345 -0.007473141
000050 15 d1 f4 bb bd ff f4 bb 55 64 48 3c 17 f4 f4 bb
       -0.0074712136 -0.0074767754 0.012230952 -0.007475387
000060 db ee f4 bb ce 1d f5 bb 0b d5 f4 bb a8 ef f4 bb
       -0.007474763 -0.0074803596 -0.0074716858 -0.0074748583
000070 4f ea f4 bb 4c 88 f3 bb d7 b8 ee bb fb 21 f5 bb
       -0.007474221 -0.0074320193 -0.007285218 -0.0074808574
000080 d1 24 f5 bb 8f 22 f5 bb d5 e3 50 bb b3 b8 e6 bb
       -0.0074811955 -0.0074809263 -0.003187408 -0.007041061
000090 5a eb eb bb 4a 21 bf bb 96 ae f5 bb 18 6c f5 bb
       -0.007199687 -0.005832826 -0.007497619 -0.0074896924
0000a0 8c bc f4 bb dd e6 f4 bb 5c d7 90 3b 11 12 f5 bb
       -0.0074687656 -0.00747381 0.004420204 -0.0074789603
0000b0 32 5e 13 3c 46 93 f5 bb 3f b5 f5 bb 80 2f 34 3c
       0.008994626 -0.007494363 -0.007498413 0.010997653
0000c0 99 79 f5 bb 6b ea f4 bb a1 aa 0f 3c c7 bb f4 bb
       -0.007491302 -0.007474234 0.008768708 -0.007468674
0000d0 ec c0 3e 3c 9d db bd 3b a4 83 5a bb 39 a2 f5 bb
       0.011642676 0.005794002 -0.0033342624 -0.007496145
0000e0 1a c4 14 3c a7 01 f5 bb d4 0d f5 bb cb 28 e2 bb
       0.009079957 -0.0074770036 -0.007478455 -0.0069018356
0000f0 58 5b f8 ba d6 2e 00 3c f2 b2 eb bb c3 e1 f4 bb
       -0.0018948121 0.007823667 -0.007192963 -0.007473202

gat_layers.1.lin.weight f4 [64, 64]
000000 71 10 f4 3d 2e e5 e8 bb 37 b1 15 bd a2 86 bf bc
       0.119171984 -0.0071073985 -0.03654596 -0.023379628
000010 0b 3a 1d bb e3 54 33 3e b6 68 e8 bd f6 d3 33 be
       -0.0023990895 0.1751285 -0.11348097 -0.17561325
000020 ed ec b7 3c 08 22 bb bd 8c f4 56 be 4b 08 20 be
       0.022451842 -0.0913735 -0.20991725 -0.15628164
000030 5e a1 55 be ca b5 0f 3c 6f 09 1e be 72 ad 2a 3e
       -0.20862338 0.008771369 -0.15433286 0.16667727
000040 ef 6d 10 bd e2 75 36 3e 0b 6d e1 bd 5c 09 c1 3c
       -0.03526109 0.17818406 -0.110071264 0.023564033
000050 17 26 52 be c2 ae 0f be 49 a9 1d be c8 77 42 3e
       -0.20522343 -0.14031509 -0.15396608 0.18991005
000060 6d cc e4 3d 6d 74 28 3e 6f e7 d2 3d b0 3a 10 3e
       0.111718036 0.16450663 0.10298049 0.14084888
000070 33 43 bc 3d 7b 14 21 be 0c b3 2c be 73 42 13 be
       0.09192505 -0.15730469 -0.16865176 -0.14380817
000080 88 12 48 3d 87 ce 24 bd a1 55 ce 3d 3d 17 64 bc
       0.048845798 -0.040236022 0.10074926 -0.013921556
000090 cd 25 d7 bc 28 79 6d bd 43 e8 29 be 2d fc c7 3c
       -0.026263142 -0.05797687 -0.16592507 0.024412239
0000a0 b0 54 09 be f9 44 a1 3d a0 0c 31 bd 7b 28 42 3e
       -0.13411212 0.078744836 -0.04322493 0.18960755
0000b0 ed ff 2a 3e 68 05 88 bd b6 23 05 3d de a0 f7 bd
       0.1669919 -0.06641656 0.03250476 -0.1209123
0000c0 a5 ad fd 3c 0f c6 2a be ed 41 45 3e f9 28 87 bd
       0.03096659 -0.16677116 0.1926343 -0.06599612
0000d0 ca 6c f6 bd 40 dc c5 39 0b 8e 1c 3e 7f e0 51 3e
       -0.120324686 0.00037738867 0.1528856 0.20495795
0000e0 f9 56 28 be 4d d0 3e be fe 2f 14 bc 25 d3 0e 3e
       -0.16439427 -0.18634148 -0.009044645 0.13947733
0000f0 d0 fa 31 3c 01 3d 39 3e 2f 5b 9f 3d 00 a3 56 be
       0.010863021 0.18089677 0.07781064 -0.20960617
000100 1a 16 5f 3e b7 6a 4c be d8 86 09 be 64 f3 19 3e
       0.21785775 -0.19962583 -0.13430345 0.15034252
000110 64 4a bc 3b ee 46 0c be 70 04 4e bd bf 80 42 be
       0.0057461727 -0.13698933 -0.0502972 -0.18994425
000120 39 b0 40 3e 07 42 bf bd 3d b8 33 bd 1d 9b 1c be
       0.18817224 -0.093387656 -0.043876875 -0.15293546
000130 7f a8 12 3e 19 8b cc 3d ff 0d 9d 3d 87 11 9a 3d
       0.14322089 0.09987468 0.07668685 0.07522874
000140 ed 27 8d bd 66 ae 0c be 4a 6a fc bc 40 ed 07 be
       -0.06892381 -0.13738403 -0.030812401 -0.13274097
000150 f1 11 89 3c 67 93 96 bd e8 ba 2a 3e 60 e5 48 bd
       0.016732188 -0.073523335 0.16672862 -0.049046874
000160 19 a8 a2 bd 85 14 39 be 63 bf 02 3e bd f1 ea 3c
       -0.07942218 -0.18074234 0.1276832 0.028679723
000170 28 07 43 3e 85 73 e3 3d a6 13 3e bc b6 05 37 3b
       0.19045699 0.11106018 -0.011601364 0.0027926988
000180 92 b1 31 be d9 fe a3 bd 11 c0 1d be 0d 59 27 be
       -0.17352894 -0.08007593 -0.15405299 -0.16342564
000190 30 f2 11 be d5 8b 81 bd f0 2b 48 be be 2a dc bc
       -0.14252543 -0.06325499 -0.19548011 -0.02687585
0001a0 0f 88 5a be 1d 0a 34 3e 3c 26 4a be 76 f9 12 3e
       -0.21340965 0.17581983 -0.19741148 0.14352974
0001b0 28 f5 5d 3c 86 02 50 be d7 4e 41 be cc c5 61 bd
       0.013547219 -0.20313463 -0.18877731 -0.055120274
0001c0 35 65 13 3e 43 42 25 3e a2 fd 35 3e 6f f3 19 be
       0.14394076 0.16138558 0.17772534 -0.15034269
0001d0 9a 08 a0 bc 4c 23 3e be da 6e c9 3d b1 f0 39 3e
       -0.019535352 -0.18568152 0.098355964 0.18158223
0001e0 a2 f9 15 be a8 90 4c 3e c9 3a 2e 3e 08 29 41 be
       -0.14646009 0.19977057 0.17014612 -0.18863308
0001f0 dd 41 16 3d 72 66 85 bd 02 a0 fb bd fb 74 20 3d
       0.036683906 -0.065136805 -0.122863784 0.03917406
000200 a9 d2 13 be 29 12 c4 3d 35 ec 95 3d 92 f8 a4 3d
       -0.14435829 0.09573776 0.073204435 0.080552235
000210 a1 66 61 3c de fb 4f 3c db 62 57 be ca ac 97 bd
       0.013757379 0.012694327 -0.21033804 -0.07406004
000220 37 2b 2b be f0 a9 62 be b5 18 c7 3d bf 64 45 be
       -0.16715704 -0.22135139 0.09721509 -0.19276713
000230 19 39 e1 bd 42 6f cb 3c a4 1c bc 3d 7a 0c 8a bd
       -0.10997219 0.024833325 0.0918515 -0.06740661
000240 c7 2c e2 bd 9d 06 26 be c6 6d d1 bc 0a e7 2a 3e
       -0.11043697 -0.1621346 -0.02556504 0.16689697
000250 af 85 2c 3e eb 24 cb 3d f0 51 5a bd f2 db 58 be
       0.16847871 0.09919151 -0.053300798 -0.21177652
000260 92 c4 d1 3d 2a 65 c0 3d 84 4e e4 bc 04 5c f8 bd
       0.10242571 0.093942955 -0.02786947 -0.121269256
000270 86 80 97 bd ff e9 21 3e 4a 8e f9 3c 85 19 27 be
       -0.07397561 0.15811919 0.030463357 -0.16318329
000280 3f 84 17 3e ab d8 40 3e c8 eb ee bd c6 49 a5 3d
       0.14796542 0.18832652 -0.116660655 0.08070712
000290 4b a5 b4 3d 02 9e 13 be e2 82 4f 3e 38 48 6a bd
       0.0882059 -0.14415744 0.20264772 -0.05719778
0002a0 ac 55 fa 3d 9b 94 86 3c 51 9f 27 3e 5f c0 99 bd
       0.12223372 0.016428282 0.16369368 -0.07507395
0002b0 e6 85 98 bc d3 1a 87 3d 01 a6 0a 3e 5e 00 bf 3d
       -0.018618535 0.06596913 0.13539888 0.09326242
0002c0 8c 6c 02 3e e0 9c 47 3e 3e e2 03 3d 5f ed 9f bc
       0.1273672 0.19493437 0.032198183 -0.019522367
0002d0 d5 00 66 be e6 cf 29 be 36 f9 84 bc dd 4e 7d 3d
       -0.22461255 -0.16583213 -0.016232114 0.061842788
0002e0 67 96 d4 bc 9f b1 49 3e cf 2a 98 3d 4e ea 9d bd
       -0.025950624 0.19696663 0.0743004 -0.07710706
0002f0 78 82 93 bd 9b 2b d2 3c 8b a6 cf bd d3 11 11 3e
       -0.07202619 0.025655558 -0.101391874 0.14166956
000300 39 6c 58 be 84 0d 10 3d 90 9d 06 3c b2 12 10 3e
       -0.21135034 0.03516914 0.008216277 0.14069632
000310 d9 33 b4 3d 32 91 5d 3c 50 37 0a 3e 47 d5 0d be
       0.08798952 0.013523387 0.13497663 -0.1385089
000320 fd a4 47 3e 98 6a 28 3e 87 f1 24 3e 23 c2 72 3d
       0.19496532 0.16446912 0.1610776 0.059267174
000330 e3 22 15 bd c9 10 de bc 48 14 a0 bd 00 80 ac bd
       -0.036410224 -0.027107613 -0.07816368 -0.084228516
000340 f1 5f 13 be ca 4b 58 be 8c 0c 07 3e d1 32 7e 3d
       -0.14392067 -0.21122661 0.1318838 0.06206018
000350 50 b3 15 3e 6d 19 4a 3e 54 cb 53 3e 91 db 31 be
       0.14619184 0.19736262 0.20683032 -0.17368914
000360 52 74 18 be 16 fe 33 be 56 79 d3 3d 71 06 51 3e
       -0.14888123 -0.17577395 0.10325877 0.20412613
000370 79 4a 1b 3e 5c 25 18 3e e9 fd 35 be bc 50 67 bd
       0.15165128 0.14858001 -0.1777264 -0.05647348
000380 8c a3 a4 3d f6 80 01 be ba 68 79 3d fd bd 34 3e
       0.080390066 -0.12646851 0.06089089 0.176506
000390 8f 90 0b be fc 63 29 be cd 94 3e be 55 ff 66 3a
       -0.13629363 -0.16542047 -0.1861145 0.0008811851
0003a0 26 7d df 3d 68 94 8e bd cf 65 f5 bd 4c 45 69 bd
       0.10912542 -0.069619 -0.11982309 -0.056950852
0003b0 47 f1 29 3e 48 51 dd bd 49 ed 39 be 3b 40 17 3e
       0.16595946 -0.10806519 -0.18156923 0.14770596
0003c0 08 ea a5 bd dc 51 15 bd 6f de 9d bd 48 d5 5a 3d
       -0.081012785 -0.03645502 -0.077084415 0.053426057
0003d0 95 4f 2f be af 63 2e bc a4 b9 24 bc 5e 46 7e bd
       -0.17120202 -0.010643884 -0.010054026 -0.062078826
0003e0 b5 86 bc 3d b2 6a 4e 3e b3 e4 e4 3d be 33 31 3e
       0.09205381 0.20157889 0.111764334 0.17304894
0003f0 f5 cb 21 3e b1 73 19 bd 3d cd d0 bd 17 71 35 bd
       0.1580046 -0.037463848 -0.10195396 -0.044297304
