models/best_fraud_model_seed_456.pth (torch, 378192 bytes, 45 tensors)

node_emb.weight f4 [64, 8]
000000 9e dc 29 be 51 22 6d bd 50 77 2b bd 19 b8 8f 3e
       -0.16588065 -0.057894055 -0.041861832 0.28070143
000010 ed 79 ac be 83 2f 9e 3e bf c5 ac be 38 fe fb 3d
       -0.33686772 0.30895624 -0.33744618 0.12304348
000020 1c 11 f2 bd 3f 5f 98 be 3b 13 48 3e 4e 2f 80 3e
       -0.118196696 -0.29760167 0.19538586 0.2503609
000030 5e c5 83 3e 89 2f 7b be ab bf 12 3d 0b 0a 93 3e
       0.25736517 -0.24529852 0.03582732 0.287186
000040 1b b4 2a 3c d5 43 18 3e 4d 5b a8 3e 4e a5 c4 3d
       0.010418917 0.14869626 0.32882157 0.09601842
000050 4f 8c 94 be e7 7b 69 be ac 8a 16 3d 3f 85 a3 3e
       -0.29013297 -0.22801171 0.03675334 0.31937596
000060 15 a9 84 3e f5 bc 74 3d 79 f4 9e 3e 3d 4f 6e 3e
       0.2591025 0.059750516 0.31045893 0.23272415
000070 10 36 84 be b4 f6 5c 3e ad 1a 01 3e df eb 9f 3e
       -0.25822496 0.21578485 0.12607832 0.31234643
000080 ef ab 8d be 7b 06 50 be 2d cf 2e 3d 60 6e be 3d
       -0.27670237 -0.20314972 0.042678047 0.09298396
000090 1c 83 52 3e d5 3e a7 bd e1 a9 09 3e 44 4f 1e be
       0.20557827 -0.08166281 0.1344371 -0.15459925
0000a0 a5 3d a9 3e b8 88 44 be 9b f9 82 be cd b4 78 3e
       0.33054844 -0.19192779 -0.2558106 0.2428772
0000b0 aa 48 eb 3c ea 8d 2c be 0b 2b 8f be 7c 9b 68 be
       0.028721172 -0.16851011 -0.27962527 -0.22715563
0000c0 21 37 e8 bc 41 5a 98 3e 91 d9 96 3e b8 8f 7f bc
       -0.0283466 0.29756358 0.29462865 -0.01559823
0000d0 db 02 80 be fd 8a 92 be 9f 00 ad be fe fd 6e be
       -0.2500218 -0.28621665 -0.33789536 -0.23339078
0000e0 eb 2e ea bd 47 d9 71 3c c9 e8 c9 3d a7 ad 72 3d
       -0.1143473 0.014761276 0.09858853 0.05924764
0000f0 8d b2 8a 3a b3 d6 ab 3e e2 c7 38 3d 20 c8 9a be
       0.0010581777 0.3356224 0.045112498 -0.30230808
000100 3d 51 05 be 91 b9 5f be b3 0e 8d 3d b6 0f a1 3c
       -0.13019271 -0.21848132 0.06887569 0.019660812
000110 b1 aa 95 bd 06 83 8b 3e 54 f3 20 3d 5b 7c a6 bd
       -0.073079474 0.272484 0.039294556 -0.08129188
000120 d1 04 6f be b2 c9 a3 3e f9 d6 ec 3c e9 1b 1b 3d
       -0.23341681 0.3198982 0.0289111 0.037868414
000130 52 a7 8a bd 5c 73 44 3c bc 86 99 3e 2b d1 24 be
       -0.06770195 0.011990394 0.29985607 -0.16095416
000140 cf 96 70 be 0f 11 04 bc 51 7d 10 3e 1a 52 5a 3e
       -0.23495029 -0.008060708 0.14110304 0.21320382
000150 ea 6e 71 3b 6e 0a 87 3e fd 88 63 3e fa 0d 9a 3e
       0.0036839792 0.26375145 0.22220226 0.30088788
000160 0a ee ae be bc 85 cb 3d 45 d4 ca 3c 67 b9 96 3e
       -0.34165984 0.09937617 0.024759421 0.29438326
000170 83 2e f7 bd 07 3e 6e 3e b6 35 7a 3d 0e 30 9f be
       -0.12069418 0.23265849 0.06108638 -0.3109135
000180 f0 a7 a6 be aa 84 b9 3d 48 de e4 3d 71 af 4c be
       -0.3255 0.09058507 0.11175209 -0.199888
000190 56 ec 92 be 1b eb a8 3e 13 85 75 3e 6c d7 1c bd
       -0.28695935 0.3299187 0.23976545 -0.03829138
0001a0 36 8b 16 3e 50 fc ea bd 68 13 e6 3c 1b 46 c2 bd
       0.14701542 -0.11473906 0.028085425 -0.09486028
0001b0 c3 59 bf bd 6d de 67 3d ba 55 54 be 1c 57 af 3e
       -0.093432926 0.056608606 -0.20735827 0.34246147
0001c0 6b 32 8e be e7 96 59 bd a0 f5 1e 3d bb dd 48 3e
       -0.2777284 -0.053122427 0.038808465 0.19615833
0001d0 0c 34 7a 3e 4e b4 84 3d 9b d5 93 be 6c 4d 96 3e
       0.24433917 0.06479703 -0.28873906 0.29355943
0001e0 aa 95 6e be 04 23 e7 bd c4 d0 05 bd 3b 01 97 3d
       -0.2329928 -0.112859756 -0.032669798 0.073732816
0001f0 fc cb 44 3d af 57 6c be ce bf 8b be 17 0f ee bc
       0.048046097 -0.23080324 -0.27294773 -0.02905993
000200 52 7a 67 be d0 38 c3 bc 29 77 b3 3e 4f 0c c0 bd
       -0.22605255 -0.023830801 0.3505185 -0.09377348
000210 21 0b 57 be a1 ff 17 3e 0f 91 8d be 02 5c 55 3e
       -0.21000339 0.14843608 -0.27649733 0.2083588
000220 6d db 71 3e 77 88 01 bc 43 d5 70 3d b2 9f 2e be
       0.2361886 -0.007906071 0.058797132 -0.17053106
000230 94 2c a8 be 15 b7 78 3e 16 82 0b 3e 05 a9 ae 3e
       -0.3284651 0.2428859 0.13623843 0.34113327
000240 31 bf 46 bd 3a 87 57 3e f4 5b 48 3e 8d bf 30 3e
       -0.048522178 0.21047679 0.19566327 0.17260571
000250 2a 33 7d be 27 c8 22 be a6 6e 72 3d d3 03 30 be
       -0.24726549 -0.15896665 0.059187554 -0.17188959
000260 5c 57 4b 3e a3 88 59 3d f0 c4 55 3d 14 08 91 3e
       0.19857544 0.053108823 0.052189767 0.28326476
000270 54 ee 9d 3e 0c 3e 94 3e 0e 5d 84 bc 7a 26 3d be
       0.30845892 0.28953588 -0.016157653 -0.18471709
000280 9a 4e b4 be 17 37 0a 3e a4 0a b5 bc bc 79 94 3e
       -0.35216218 0.13497578 -0.0220998 0.28999126
000290 b5 ec 6b 3d 2a 35 45 be 6b e1 6d be 1e 50 a0 3e
       0.05759879 -0.19258562 -0.23230521 0.31311125
0002a0 fb 94 98 be e8 ee aa 3e c5 0b de 3d 3a 41 a2 3e
       -0.29801163 0.33385396 0.108420886 0.3169039
0002b0 39 c1 7a 3e d6 7a 85 3e 11 02 2d be 4d cb 8f 3d
       0.24487771 0.2607028 -0.1689532 0.070211984
0002c0 f1 05 3b be de 37 77 3e d3 86 54 bd 2a c1 96 3e
       -0.18263985 0.24142405 -0.05188639 0.29444247
0002d0 20 e4 9b bd 0f d5 e2 3d 86 b0 ed 3d 84 62 3d 3e
       -0.07611871 0.11075794 0.11605935 0.18494612
0002e0 d4 f5 f0 3d 7f 18 ba bd f3 d8 84 3e f3 60 ab 3e
       0.11765638 -0.090867035 0.2594677 0.33472404
0002f0 a5 c7 2f be 60 01 a3 be da f8 1b 3e 8f b1 a2 3e
       -0.17166002 -0.31836987 0.15231648 0.3177609
000300 0f 6a 5b be ad 3f 94 be 72 f2 a1 be 7c 46 47 be
       -0.21427177 -0.2895483 -0.31630284 -0.19460481
000310 50 4b 84 3e 00 2e 23 3e 2e 83 90 bd 36 e0 a2 be
       0.2583871 0.15935516 -0.070562705 -0.31811684
000320 be 4f 7d bc ee 05 6c 3e 16 45 a0 bc c8 f7 fb 3d
       -0.015460907 0.23049137 -0.019564193 0.1230312
000330 d5 a6 55 be c9 30 9f 3d 6c 25 50 bd e2 32 b1 3e
       -0.20864423 0.07772977 -0.05081694 0.34609133
000340 e5 de 19 3e ba f8 fb 3d 2f 1a f9 bd 30 d6 89 be
       0.15026434 0.123033 -0.12163197 -0.26921225
000350 46 e2 90 3e e8 6e 8e 3d 7d e6 18 3e 12 15 99 3c
       0.28297633 0.069547474 0.14931674 0.018686805
000360 37 d8 44 3d bd 09 26 3e 11 b5 96 3e bb a1 95 3e
       0.04805776 0.16214652 0.29435018 0.29224953
000370 61 23 01 be 4c 0c 90 3e 2f 43 b3 be f2 1f a3 be
       -0.12611152 0.28134382 -0.35012195 -0.3186031
000380 f1 f6 f5 bc aa f6 8d 3e ab d5 d9 3d 93 0a 35 be
       -0.030024977 0.27727252 0.10636457 -0.17679815
000390 48 6a 75 bd d6 45 8f be 67 da d4 bd d4 7e 49 be
       -0.05991581 -0.27982968 -0.103932194 -0.19677287
0003a0 23 47 44 3d f8 52 31 be f2 35 d0 bd 10 6a 6c 3d
       0.047919404 -0.17316806 -0.10166539 0.057718337
0003b0 c5 ea af 3e 22 50 d5 bb a8 05 85 3d d6 f7 62 3e
       0.34358802 -0.0065097967 0.064952195 0.22164854
0003c0 42 f3 d8 bd 2c e0 18 bd c4 6a 1f be 46 7b 61 be
       -0.10593273 -0.037323162 -0.15568072 -0.22019681
0003d0 b4 04 42 bb c7 26 53 be 09 e3 17 be 24 d1 05 3e
       -0.0029604854 -0.20620261 -0.14832701 0.13068062
0003e0 0d 7f 3b 3e ee b0 7b be aa d5 8c 3e c5 d9 8d be
       0.18310185 -0.24579212 0.27506763 -0.27705207
0003f0 d7 3e 59 3e 26 83 ac 3e 3c 81 5d 3e 73 cf 43 be
       0.21215378 0.33693808 0.2163133 -0.19122104

node_emb.bias f4 [64]
000000 06 25 be 3c 4b f3 f2 3c 4f 9d a2 3d 93 ba e1 3d
       0.023211014 0.029657027 0.079401605 0.11021914
000010 c1 e8 97 3d 69 4b 1a be 88 0a 9c be 32 9e 96 3e
       0.07417441 -0.15067829 -0.30476785 0.29417568
000020 11 4a 56 3e c8 f7 11 be b2 f8 97 be 79 2e dc bc
       0.20926692 -0.14254677 -0.29681927 -0.026877629
000030 af 4b 09 bd 11 a7 b5 3e 8c 29 89 3e 2d 83 8d 3e
       -0.033519443 0.35479024 0.2678951 0.27639142
000040 48 70 1f be 8a 4c 41 3d 6a 53 7f 3e d9 bf 78 be
       -0.15570176 0.047192134 0.24934164 -0.24291934
000050 54 9c cd bd 13 71 2d be e0 3c 53 be 23 a1 ed 3d
       -0.10039583 -0.16937666 -0.2062869 0.11603
000060 57 77 4a bd 93 50 88 be 3a 80 a0 be 66 5b 40 3e
       -0.049430218 -0.26623973 -0.3134783 0.18784866
000070 87 cd 96 3e 1d 10 ae 3e 20 21 d7 3d 19 e0 93 be
       0.2945368 0.33996668 0.10504365 -0.2888191
000080 3e ec 6b be 7a 96 81 be cc 89 6a be 59 60 61 bd
       -0.23039338 -0.25310117 -0.22904128 -0.055023525
000090 e8 5e 3e bc 8f be 0c be 3a 66 99 be 6c 7d 2e be
       -0.011619307 -0.13744567 -0.29960805 -0.17040032
0000a0 a8 04 d9 bc 90 28 82 3e 47 18 fe bd 83 6b 58 3e
       -0.026491478 0.25421572 -0.12406974 0.21134762
0000b0 78 81 88 be 62 f5 54 3e 23 9c 95 3e f4 65 14 be
       -0.26661277 0.20796731 0.29220685 -0.14492017
0000c0 e1 dc 33 3e 7f c4 c1 3d a0 13 f1 bd 23 bc 97 3e
       0.17564727 0.09461307 -0.11771321 0.29635724
0000d0 2c 08 a2 3e a5 41 a7 3e 15 33 55 be 83 9c 1b be
       0.3164686 0.3266727 -0.20820267 -0.15196423
0000e0 1d 2e b2 bd a2 30 74 3e 9a 00 9b 3e 92 65 80 3c
       -0.08700202 0.23846677 0.30273896 0.015673432
0000f0 a7 ff dd bd e8 53 48 be a8 93 9a 3d a2 4b 31 3d
       -0.108397774 -0.19563258 0.075476944 0.04328502

edge_emb.weight f4 [64, 2]
000000 1f 73 fd be 81 04 c1 be 62 fc 27 bf af fd ba be
       -0.49501893 -0.3769875 -0.6561948 -0.3652167
000010 1e b1 ea 3d ff 40 a8 3e fb fa 98 be 07 6c 85 bd
       0.11459564 0.32862088 -0.29878983 -0.06514745
000020 f7 17 11 3f 79 63 28 3f 78 5a 0d bf a5 55 e1 be
       0.5667719 0.65776783 -0.5521617 -0.44010654
000030 44 9b 30 3f 53 f2 13 3f 32 52 a1 be 9e d2 ae 3e
       0.68986917 0.5779163 -0.31508023 0.34145063
000040 31 92 32 3e 4c e7 e4 be e7 da 1b 3f 38 29 15 3f
       0.1743858 -0.44707716 0.60880893 0.5826602
000050 a1 83 3f be 4a 2b 27 3f 00 d8 c5 be 02 83 e4 3e
       -0.18702556 0.6530043 -0.38641357 0.446312
000060 0e 8b 24 3f 41 67 3d be 72 f1 c3 3e f8 3b 0f be
       0.6427468 -0.1849642 0.38270146 -0.1398772
000070 f4 f2 f0 be 92 3f dc 3d db d8 2f 3f 44 99 38 3f
       -0.4706036 0.107543126 0.6869027 0.72108865
000080 a9 e9 39 3e db 47 94 3e 08 ad fd be b1 23 c7 be
       0.1815554 0.2896107 -0.49546075 -0.38894418
000090 b4 7e ab 3e 0e 19 57 be 47 c7 1c 3f 37 20 29 be
       0.33495104 -0.21005651 0.61241573 -0.16516195
0000a0 c9 4d b7 3e 7e ad 1e 3f f7 d3 a6 bc ae 15 db 3d
       0.35801533 0.6198348 -0.020364745 0.106974944
0000b0 0f 7c 1b 3f 3f 92 a1 be c4 42 0d 3f 4c 2d d7 3e
       0.60736173 -0.3155689 0.5518 0.42026746
0000c0 6f fe 32 bc 21 3a bc be 79 01 32 3d c0 91 8d be
       -0.0109249195 -0.367631 0.043458436 -0.2765026
0000d0 6e d0 0e 3f 51 7f f6 3e c8 95 02 3e 3e b8 ba be
       0.5578679 0.4814401 0.1275245 -0.3646869
0000e0 37 dd 94 3d d3 a9 0d bf 8c 86 0d 3f c5 68 50 3e
       0.07268756 -0.55337256 0.5528343 0.20352466
0000f0 c7 b0 2f bf 97 8a 05 3e 5b a0 26 3f af 6e 97 3e
       -0.68629116 0.13041149 0.65088433 0.29576632
000100 58 65 6c 3e 86 eb 1d bd 48 54 29 be 36 a2 b5 3e
       0.23085535 -0.03855469 -0.16536057 0.3547532
000110 d2 71 2c bf 4c f8 53 bd 98 b2 ac 3d 3c 46 28 3e
       -0.67361176 -0.051750466 0.084325016 0.16433042
000120 48 83 d5 3e 37 23 20 3f 7f 50 f1 be f3 2e 71 bd
       0.41701722 0.62553734 -0.47131726 -0.058882665
000130 aa bf d8 bd 39 75 09 bf 75 73 00 3f 45 a6 d8 3e
       -0.10583432 -0.5369449 0.50176173 0.42314354
000140 a5 a2 22 3f b8 41 20 3f 22 74 c1 3e 89 45 b2 be
       0.63529426 0.6260028 0.37783915 -0.34818676
000150 33 ca 14 bf 90 ba 71 be 09 cc bb 3e b0 80 17 be
       -0.5812103 -0.23606324 0.36679104 -0.14795184
000160 7a d7 b8 be 1e 98 3e 3e b8 4d f1 3d b1 61 2e 3f
       -0.36101896 0.18612716 0.11782402 0.68117815
000170 2d 45 01 3e be d3 c2 3d 63 db 26 bf 29 c5 4a be
       0.12624045 0.09513043 -0.6517851 -0.19801773
000180 ba cf 94 be 7f f8 84 be 00 88 30 3e 81 6b 2a 3f
       -0.29064733 -0.25970837 0.1723938 0.6657029
000190 3e 0c 65 be f2 96 f0 bd 7a 89 2d 3d 4b b8 19 3f
       -0.22367951 -0.117475405 0.042367436 0.60046834
0001a0 ab e7 24 3f b6 b8 67 be 35 eb ab be aa 2e cf bd
       0.64416 -0.22629055 -0.33577886 -0.10116322
0001b0 48 b3 85 be f7 5a 09 3f 05 86 19 bf 4b f4 93 be
       -0.26113343 0.53654426 -0.5997012 -0.28897318
0001c0 41 ac ed be 4d cb d3 bd 96 5c 4f be e7 c7 f8 bd
       -0.46420482 -0.10341511 -0.20250162 -0.12147503
0001d0 bd 37 fd 3e 59 46 34 3e e9 84 7e be a1 38 82 3e
       0.49456587 0.1760496 -0.24855389 0.2543383
0001e0 26 b6 2d 3f 9a 24 da bd 64 0f 9f be 3c ba 31 be
       0.6785606 -0.106515124 -0.3106643 -0.17356199
0001f0 66 c1 0a bf ef ba 31 3f 71 2b 68 3e 1c 43 b0 3e
       -0.5420135 0.69425863 0.22672822 0.344262

edge_emb.bias f4 [64]
000000 8c ca 20 bf d0 ed e4 3d 2e 79 c7 be 9f 91 fe 3e
       -0.6280906 0.11178172 -0.3895964 0.49720475
000010 4e 2e 20 be 29 36 85 3e 29 68 ec be 37 f2 d3 3e
       -0.15642664 0.26017883 -0.46173218 0.41395733
000020 52 22 de bc dc 46 9e 3d 6e 93 17 bf e7 bc 16 be
       -0.027115975 0.07728359 -0.59209335 -0.14720498
000030 eb eb 2e 3f 9e 8d 31 bf 5a ac aa be 3d e4 e0 be
       0.6832873 -0.69356716 -0.3333462 -0.43924132
000040 63 5b 7b be ae 1f 20 3f 99 9b 0b bf 46 ca 5b be
       -0.2454658 0.6254834 -0.545343 -0.2146388
000050 da b2 ae 3c 95 87 7f bd 1b 24 a7 be e0 55 0d bf
       0.021325517 -0.06238516 -0.32644734 -0.5520916
000060 7f 69 e3 3d fc c2 0e 3e 54 a8 d2 3e ea 06 02 be
       0.11104106 0.13941568 0.4114405 -0.1269795
000070 4f a6 e2 be 98 4c a0 be 61 aa d7 3e fa 9e 27 bf
       -0.44267508 -0.31308436 0.42122176 -0.65476954
000080 6a 7d 18 bf e2 64 b1 3e dc 63 94 be c8 78 c2 be
       -0.59566367 0.3464728 -0.28982437 -0.37982774
000090 7c 05 6f 3e e7 c2 25 3f 0a f1 28 3f b4 b5 2d 3f
       0.23341936 0.6475052 0.65992796 0.6785538
0000a0 25 e1 2b 3f 1b 7d 26 bf 59 cc ae be 48 8f 2b 3e
       0.6714042 -0.65034646 -0.3414028 0.16753876
0000b0 b6 d5 13 bf 95 21 43 bc 04 6d 4d be 0f 04 ab bd
       -0.5774797 -0.011909862 -0.20061117 -0.083503835
0000c0 4f c9 f1 3e b5 42 fc bc 3b 97 10 3f a6 dd 84 3e
       0.472239 -0.030793527 0.5648076 0.25950354
0000d0 17 8c 8e 3e ac 0d c3 be 9e a0 67 3e 6e 68 2e 3f
       0.27841255 -0.38096368 0.22619864 0.681281
0000e0 cf ed 05 3f d7 c1 22 bf 4e 42 32 bf 21 d0 30 3e
       0.5231599 -0.63577026 -0.6963242 0.17266895
0000f0 f9 6c e5 be 49 9c 01 3f e4 ac 2f 3f fd 2f ec bd
       -0.44809702 0.506291 0.68623185 -0.115325905

gat_layers.0.att_src f4 [1, 4, 16]
000000 71 2e 1a 3c c4 03 09 bf 38 37 8f be d6 26 3d 3e
       0.009410487 -0.5352137 -0.27971816 0.18471846
000010 0c 04 f8 be 5a 69 a2 3e 0d f8 d3 be 25 d7 04 3d
       -0.48440588 0.31721002 -0.41400185 0.03243174
000020 d8 83 29 be 4f d0 1b 3c 8d be d5 3e 46 9c ae 3e
       -0.165542 0.009510114 0.4174694 0.34103602
000030 7a b5 bf 3a 9c f3 57 be b9 43 50 3d 3e c7 96 bd
       0.0014626228 -0.21089023 0.050845835 -0.07362221
000040 ec b3 bd bd 09 ba 09 bf 83 1d da 3e e0 b9 f4 3e
       -0.09262833 -0.5379949 0.4260064 0.4779806
000050 4b 7a e4 be c7 da fd be 18 a9 24 be 43 a8 8d be
       -0.44624552 -0.49580976 -0.16080129 -0.27667436
000060 db 11 57 be 9b 4a e3 bd b3 4f 0a be fb 9f e4 be
       -0.21002905 -0.11098214 -0.13506965 -0.44653305
000070 81 99 8a be 5a 43 c6 be 5e 78 8f 3e e8 f9 ee be
       -0.2707024 -0.3872326 0.2802152 -0.46675038
000080 79 35 2a 3d db 79 93 be 1f 5f 66 be 19 7d 60 3e
       0.0415549 -0.28803906 -0.22497223 0.21922721
000090 77 c3 d6 be 12 86 ec be e0 22 de 3e d6 d9 e2 3d
       -0.41946003 -0.46196038 0.43385983 0.11076705
0000a0 99 0a ea be eb 35 a3 3e 03 f3 2c 3e 3a 22 a6 be
       -0.4571121 0.31877074 0.16889577 -0.32447988
0000b0 eb 07 db 3e 6d fb 0b bf 00 0d 50 3e 0b df eb be
       0.42779478 -0.5468052 0.20317459 -0.46068606
0000c0 85 ab f5 3d b9 ed b0 be c5 82 9b be ed 02 9e 3d
       0.119956054 -0.34556368 -0.30373207 0.07715402
0000d0 d5 e2 22 be fb 0b a3 3d b4 3f 1d be 4f 78 0c 3f
       -0.15906842 0.079612695 -0.15356332 0.54871076
0000e0 1e ba 07 3f 0b c7 64 be 7a a8 bb 3e 1e 46 d3 3d
       0.5301837 -0.22341554 0.36651975 0.10316108
0000f0 ae ba 63 bc 56 e6 08 3f 02 40 f3 3e 9a f9 8c be
       -0.013899488 0.53476465 0.47509772 -0.2753418

gat_layers.0.att_dst f4 [1, 4, 16]
000000 7f f8 81 3d 2b 62 cd 3e 91 7b 6f be 8e aa 08 bf
       0.06346225 0.4011396 -0.2338698 -0.53385246
000010 99 78 99 be 28 07 86 bc b7 c3 0a 3f 7f 82 be 3e
       -0.2997482 -0.016360834 0.5420489 0.37208936
000020 9f bd 26 3d 67 7c 9a 3d 2d 56 55 bd e5 da ca be
       0.04070818 0.07543259 -0.052084137 -0.39620128
000030 c8 b0 76 be 2e 45 06 bf 08 18 e0 be ae cd 00 bf
       -0.24090874 -0.5244931 -0.43768334 -0.5031384
000040 d4 e0 99 be a4 83 b0 be ef 2b a0 bd d4 cd b6 be
       -0.30054343 -0.34475434 -0.0782088 -0.3570391
000050 03 24 c5 be 88 ed c0 be ad 8d 0a 3f 9c 6e d1 3a
       -0.38504037 -0.37681222 0.5412243 0.0015978399
000060 b5 ea 92 bd 0b 90 8b be a0 4d b7 bd 75 58 44 be
       -0.07173673 -0.27258334 -0.08950353 -0.19174369
000070 da 3a a4 3e 97 49 b4 3c de 5e e5 3e ef 7a 96 bd
       0.3207615 0.022007747 0.4479894 -0.073476665
000080 2a 1a ea bd a4 5e 8c bc f4 c4 a4 3e 06 9e b9 be
       -0.11430772 -0.017134972 0.32181513 -0.36253375
000090 d3 b1 7b be ba 20 fd 3d d8 4c aa 3e cb 7d 03 bf
       -0.24579553 0.12359758 0.33261752 -0.5136382
0000a0 f3 e9 0a be 24 54 ff 3e 5d e1 b5 3e f5 ca b4 3e
       -0.13565807 0.49868882 0.355235 0.35311094
0000b0 33 b6 75 be 83 d1 6e 3e 0e 98 ad 3c 6c 9f 08 bf
       -0.23995285 0.2332211 0.02119067 -0.5336826
0000c0 22 4a 8e be 16 63 bf 3e d2 e1 70 bd da be 94 3e
       -0.27790934 0.37380284 -0.05880911 0.29051858
0000d0 29 c8 8a 3e 50 04 00 3f a6 a3 cb bd 04 a7 b0 3e
       0.27105835 0.5000658 -0.09943323 0.34502423
0000e0 f8 3d 73 be 1a 49 aa be 8c b7 3c be cb 86 9f bc
       -0.23754108 -0.33258897 -0.18429393 -0.019473454
0000f0 fc 49 86 bd 2a db 04 bf 8f dc f5 3e 9d 51 c0 be
       -0.0655708 -0.5189692 0.48019835 -0.37562266

gat_layers.0.att_edge f4 [1, 4, 16]
000000 19 31 29 3e 2c 72 ee 3e 12 4f 34 3e 02 73 0f 3d
       0.16522636 0.4657148 0.17608288 0.03502179
000010 94 8f ad 3e 1b 6a ee bc 06 f2 aa bd 73 cc 61 3e
       0.33898604 -0.02910333 -0.083469436 0.22050647
000020 53 bb 92 be 95 1f a2 bc b8 1e b7 3e 5f 22 b8 bd
       -0.28658542 -0.01979045 0.35765624 -0.08990931
000030 37 ff 91 bc af 67 22 be f1 63 d5 3e de 89 05 bf
       -0.017821891 -0.15859865 0.41677812 -0.52163494
000040 b1 b7 25 be a4 a9 08 bf 53 bd d7 3e 08 1a a7 be
       -0.16183354 -0.5338385 0.4213663 -0.32637048
000050 29 c3 e0 3a d3 ab 7f 3e 3f 32 b7 bd ee de 56 be
       0.0017148006 0.2496789 -0.089451306 -0.20983478
000060 41 3f 9c 3d e5 2a 51 be 6d f4 fb be 6e 41 6b 3e
       0.07629252 -0.20426519 -0.4920992 0.22974178
000070 56 25 5f be a8 83 eb be cb c3 07 bc 24 a1 4b be
       -0.21791586 -0.45998883 -0.008286427 -0.19885689
000080 2c b4 81 bd ac 59 e7 be c6 c8 e5 bd 18 3b 59 3e
       -0.06333193 -0.45185602 -0.11219935 0.21213949
000090 d3 56 d8 3e 85 c6 50 3e 7c 34 1a be 14 41 43 be
       0.42253742 0.20388229 -0.15059084 -0.19067794
0000a0 9c 62 b2 3e 74 67 77 be ad 5d 5c bb 5b 0c 63 3e
       0.34840858 -0.24160558 -0.003362517 0.22172682
0000b0 ad a9 ef be 73 b7 d1 be b8 65 07 3f 79 fb e9 3e
       -0.4680914 -0.40960273 0.52889585 0.4569967
0000c0 42 77 c5 3e 0a a0 90 3d 65 6b 90 3e 2f ff 53 bc
       0.3856755 0.07061775 0.28206936 -0.0129392585
0000d0 2a 98 08 bf d3 e1 55 bd fd e4 45 be f6 5d 94 be
       -0.53357184 -0.052217316 -0.19325633 -0.28977937
0000e0 6b 1e 85 bd f8 0f 61 be 97 64 b7 3e 09 c9 40 3d
       -0.064999424 -0.21978748 0.3581893 0.047066722
0000f0 32 08 b2 3e fd 56 42 3e 4b 70 fc be 29 86 81 3e
       0.34771878 0.18978496 -0.49304423 0.2529767

gat_layers.0.bias f4 [64]
000000 5b aa d8 bb ef 47 e5 bb 7e 39 e4 bb de 06 d7 bb
       -0.006612105 -0.0069971005 -0.0069648614 -0.006562098
000010 23 31 e5 bb ac 1d 83 bb 1d 2a 3f 3c 7a cd e4 bb
       -0.006994383 -0.00400134 0.011667755 -0.0069825025
000020 26 f0 e5 bb 8c 48 36 3c 9b 3d c0 bb 89 3d e5 bb
       -0.0070171533 0.011125695 -0.005866719 -0.006995861
000030 a6 c6 e4 bb 7f df 15 3c 2a 13 41 3c 26 f4 90 bb
       -0.0069816886 0.009147524 0.011784354 -0.004423636
000040 81 a4 db bb cf 0d e6 bb 8b 30 e5 bb 88 3b e4 bb
       -0.00670296 -0.007020689 -0.006994312 -0.0069651045
000050 73 d3 e4 bb 1a 5b e6 bb e7 07 df bb 89 06 e5 bb
       -0.0069832145 -0.007029903 -0.006806362 -0.0069893044
000060 ce 90 19 3c 59 ff e4 bb 47 02 e4 bb a9 2a e5 bb
       0.009372903 -0.0069884476 -0.0069582793 -0.006993611
000070 25 b3 e4 bb 46 85 98 39 86 e3 e4 bb d4 3f e4 bb
       -0.0069793635 0.00029090996 -0.0069851307 -0.0069656167
000080 80 f7 e3 bb 12 20 e5 bb ce dc fb 3b c0 31 e5 bb
       -0.0069569945 -0.0069923485 0.007686234 -0.006994456
000090 1b 7e db bb 87 8c db bb 04 80 44 3c 21 1d 06 3b
       -0.0066983826 -0.006700102 0.011993412 0.002046414
0000a0 07 b5 e0 bb 98 51 e8 ba a3 9c 55 3c 10 f2 e4 bb
       -0.0068575176 -0.0017724512 0.013037833 -0.006986864
0000b0 1d 7e e5 bb b0 17 4a bb 24 76 c3 bb f0 e0 e4 bb
       -0.0070035593 -0.0030836873 -0.005965011 -0.0069848225
0000c0 19 ae e0 bb 8b 07 e4 bb 8f ab e5 bb 67 4e e2 bb
       -0.0068566916 -0.006958907 -0.007008977 -0.006906319
0000d0 dd d7 e4 bb 33 da e5 bb 8a 58 1a 3b 1b fa e4 bb
       -0.0069837407 -0.0070145368 0.0023551309 -0.0069878227
0000e0 5d e1 2b 3b d9 41 c7 3a 3a 4a f6 39 f0 9c e5 bb
       0.0026226856 0.0015202119 0.0004697608 -0.007007234
0000f0 a1 18 61 3c b0 78 e4 bb 8e ef e4 bb 7e ba b6 bb
       0.013738782 -0.006972395 -0.006986565 -0.005576431

gat_layers.0.lin.weight f4 [64, 64]
000000 a0 41 9d bd ef b9 22 3e 78 7b b4 3d 2d bb 51 be
       -0.076785326 0.1589124 0.08812612 -0.20481558
000010 d5 0e 8e bd 3b 27 0c 3e dd 23 38 3e fc 32 89 bd
       -0.06936423 0.1368684 0.17982431 -0.066991776
000020 89 dd c9 bd a6 22 09 be 7e 90 de bd cd b8 ac 3c
       -0.098567076 -0.13392124 -0.108674034 0.021084214
000030 31 2e 3c 3e b0 38 46 be 15 c5 56 be 39 be b5 bd
       0.18376996 -0.19357562 -0.20973618 -0.08874173
000040 19 b9 f2 bd bd 66 47 3e 20 08 88 3d 24 e1 de bc
       -0.11851711 0.19472785 0.06642175 -0.027206965
000050 4a 83 2b be cf 1a da 3d 1d dc 4b be fc 67 1a 3e
       -0.16749302 0.106496446 -0.19908185 0.1507873
000060 aa 08 a2 3d 7f 61 f3 3d e6 31 11 3e fa 21 90 bd
       0.07911809 0.1188383 0.14179191 -0.070377305
000070 5a 06 8c 3d fb 8d e4 bd 8e df d5 3d 22 24 9c bc
       0.06837149 -0.11159893 0.1044303 -0.019060198
000080 92 bd a1 bc fa 69 fe bc fd 09 52 be 1d b0 ff bd
       -0.019743714 -0.031056393 -0.20511623 -0.12484763
000090 5a 88 03 be 0f 16 07 be c6 64 68 3c 06 09 db 3d
       -0.12844983 -0.13192008 0.0141841825 0.106950805
0000a0 c6 ef ac 3d df 33 a0 bd 59 72 ee bc c4 21 85 bd
       0.08444171 -0.078223936 -0.02910726 -0.06500581
0000b0 bb dd fc 3d b2 76 31 3e 3a 88 48 be d9 5d 2e bd
       0.12346979 0.17330435 -0.19583216 -0.04256997
0000c0 86 32 0e be 0b 88 4d 3e 2d 3b 64 3d 9a 71 a4 bd
       -0.1388646 0.20071428 0.055720497 -0.0802948
0000d0 61 f9 c4 3d 13 0f ba bc 33 a8 fe bd 39 6d b3 bd
       0.09617878 -0.022712266 -0.12434425 -0.08761067
0000e0 10 2d 08 be 4a d1 71 3d 11 6f e6 3d f8 ea 17 be
       -0.1329844 0.059037484 0.11251653 -0.14835727
0000f0 5a 9c 46 3e b5 12 1c 3d fa 53 33 3d 59 3e 32 be
       0.19395581 0.038103778 0.04378126 -0.17406596
000100 7c ef 8c 3c 95 d9 d4 bd bd a9 51 be 3b f4 55 be
       0.017204039 -0.10393063 -0.20474906 -0.20893948
000110 f5 30 07 bd 46 d3 ec 3d 41 95 58 3e 07 9e 5a be
       -0.033005673 0.11563735 0.21150686 -0.21349345
000120 c5 cb e5 3d 8b 37 41 be 65 04 ed 3d d9 43 27 be
       0.112205066 -0.18868844 0.11573104 -0.16334476
000130 e6 d5 e9 3d 3b 1f 04 be 3b 56 f9 bb 20 ef 37 bc
       0.11417751 -0.12902538 -0.0076091564 -0.011226445
000140 8a d4 4a 3d 45 3f 38 3e e1 dc 4a 3e bd c1 48 be
       0.0495191 0.17992885 0.19810821 -0.19605155
000150 00 50 fe 3d 61 a5 c3 3d ba 71 36 bd 06 2f e2 bd
       0.124176025 0.09553028 -0.04454205 -0.11044125
000160 f1 dd 14 3e 02 aa 33 be e5 7b 32 3e 1e c9 4e be
       0.14537789 -0.17545322 0.17430075 -0.20193908
000170 21 35 2c be 5d 28 04 bd 97 d2 3e bd 3f cb e3 3d
       -0.16817142 -0.032265056 -0.046587553 0.111227505
000180 95 55 4a be 22 b4 dd bd 86 f7 29 3d d7 92 93 3d
       -0.1975921 -0.10825373 0.041495822 0.07205742
000190 28 05 35 3e 0e 5d 27 3e a6 d1 40 bd fb 84 19 3e
       0.17677748 0.16344091 -0.047074936 0.14992134
0001a0 c1 6f 39 3d 51 c8 f8 bd 7e bd 4f be 3b 39 24 3e
       0.045272592 -0.12147582 -0.2028713 0.16037457
0001b0 cf 0d 3e 3e 16 3a b9 bc 81 a9 33 be ee 3d 40 bd
       0.18559955 -0.022610705 -0.1754513 -0.04693406
0001c0 90 82 cd 3c 69 bb d1 bd b7 30 79 3d 66 36 14 3d
       0.025086671 -0.10240824 0.060837474 0.03618469
0001d0 05 f3 61 bd fe 8d 21 3e 09 d4 36 be 5a 01 81 3d
       -0.055163402 0.15776822 -0.17854322 0.06299086
0001e0 ac 39 16 bd 67 e3 1d be 0c c2 c8 bd f6 59 e4 3b
       -0.036676094 -0.15418778 -0.098026365 0.006968732
0001f0 4d fa 42 3e 80 02 44 bd 22 b5 ae 3d 78 64 87 bd
       0.19040795 -0.047853947 0.08530642 -0.0661096
000200 4d 86 1c bd a1 10 78 bd 5f 38 5b 3e 19 07 d2 bd
       -0.038214017 -0.060562734 0.21408223 -0.1025526
000210 26 55 ac bd d4 15 c7 bc 99 8a 12 be 09 14 6f 3b
       -0.08414678 -0.0243024 -0.14310683 0.0036480448
000220 69 4e 41 3d 4b 00 0a 3e ed 75 c0 3d ec 5a 21 be
       0.04719392 0.13476674 0.093974926 -0.1575734
000230 ac 9e 66 3e 0d 8b 7c bd ca 3e 43 3e 97 be 34 be
       0.22521466 -0.061656047 0.19066921 -0.1765083
000240 ef a5 5c bc af 42 1d be ad f4 87 3d 9a 52 36 3e
       -0.013467296 -0.15357469 0.06638465 0.17804947
000250 f8 00 90 3d c4 86 cd 3d 21 af ff 3b cf f4 3f be
       0.07031435 0.1003547 0.0078028594 -0.18745731
000260 cd d0 82 bd 46 fc 29 be ff a9 53 be 0f aa 5d 3d
       -0.06387482 -0.16600141 -0.20670317 0.05411726
000270 ba 2e dd 3d 8a 2a c0 bb 07 0c c7 3b 0c 67 0a bd
       0.10799928 -0.005864446 0.006074432 -0.03378968
000280 49 f7 af 3d cd 7e 3f be 7b be 3c be c9 12 48 be
       0.08592088 -0.18700714 -0.18432038 -0.19538416
000290 56 6b 10 be 66 0d d9 bd a6 16 65 3d 0b bf 2b be
       -0.14103445 -0.10598259 0.055929802 -0.16772096
0002a0 6f 96 43 3b b8 76 d6 bd b4 53 3c be 43 23 ab bd
       0.0029844304 -0.104718626 -0.18391305 -0.08356335
0002b0 d3 42 21 3e 9f e6 94 bc 6d a1 20 3e 3b f8 a2 3d
       0.15748148 -0.018176375 0.15686579 0.079575025
0002c0 9d 17 4c 3e c0 0e 97 bc 55 a5 fa bd cc cb 06 be
       0.19930883 -0.01843965 -0.12238566 -0.1316368
0002d0 de dd 1e 3e 9c cf a7 bd 5f 08 c8 3c 77 22 0c be
       0.15514323 -0.08193895 0.024418054 -0.13685022
0002e0 c1 a2 12 3e 46 0e 23 3e 5d cb fb 3c 85 d4 dc bd
       0.14319898 0.15923414 0.03073662 -0.107827224
0002f0 03 ee 88 3d a3 13 f4 bd 98 da 99 3d 84 d9 ba 3d
       0.06686022 -0.11917808 0.075123966 0.09123519
000300 5a 44 86 3d 1a 6a a3 bc ca cd f5 3d d2 83 41 bd
       0.06556006 -0.019948054 0.12002142 -0.047244854
000310 e0 5a 0b be 01 71 07 bd 2a aa 22 3e 63 5e 95 3d
       -0.13608885 -0.033066753 0.15885225 0.072933935
000320 63 4f 17 be ee 07 09 bc 52 95 3d 3e e9 03 5a be
       -0.14776377 -0.008363707 0.18513992 -0.21290554
000330 b7 6c 8d bd 13 69 36 3e cf 91 1f be 34 4d 28 be
       -0.06905501 0.1781352 -0.15582965 -0.164357
000340 d8 85 a3 bd 1c 10 f9 3d 27 9f d8 3d 62 56 ab 3d
       -0.07984513 0.12161276 0.10577231 0.083660856
000350 f4 bb 4a be 40 91 08 be 09 1f 61 be d1 1c 3d bd
       -0.19798261 -0.13336658 -0.21984495 -0.04617006
000360 9f 4f 33 3e 6a c2 f9 3b 87 59 34 be 4a 31 ff 3c
       0.17510842 0.007622053 -0.17612277 0.031151433
000370 78 3a 95 bd 47 0d 4b 3e 8d 9d a9 3d 01 bd 16 3e
       -0.07286543 0.19829284 0.082820036 0.14720537
000380 e5 c9 dc bd 5e 03 06 3e 02 21 56 be 2d df 43 be
       -0.10780696 0.13087222 -0.20911029 -0.19128104
000390 33 90 2d 3e ba 20 2b 3e 45 07 25 3e 2f 38 53 be
       0.16949539 0.16711703 0.16116054 -0.20626901
0003a0 0f d3 66 3d de 0b a2 bd e6 ad 78 3c 81 6e 2d 3e
       0.056353625 -0.0791242 0.015178179 0.16936685
0003b0 0c 8d 54 3d 49 47 30 3e 28 6c 47 3e 4e 92 67 3d
       0.051892325 0.17214693 0.19474852 0.05653601
0003c0 83 40 d1 3d b4 5d 20 be a5 f9 27 be e8 c5 34 bd
       0.10217383 -0.15660745 -0.16403826 -0.04413405
0003d0 53 5e 50 be e4 0a 29 3e 52 d2 5f bd 51 42 25 3e
       -0.20348482 0.1650806 -0.054643936 0.16138579
0003e0 e4 8c 2a be 9e e7 5a be 28 79 1e be b5 eb 39 be
       -0.16655308 -0.21377417 -0.15475905 -0.18156321
0003f0 b4 96 c7 3d 2f 19 e9 bd 15 fe 0a be 15 1b b7 3d
       0.09745541 -0.113817565 -0.13573487 0.08940712

gat_layers.0.lin_edge.weight f4 [64, 64]
000000 ef 90 a0 bd b9 b1 d1 bd fa cf 45 3e b7 8b 45 be
       -0.07840144 -0.10238976 0.19317618 -0.19291578
000010 a2 88 f1 3d e9 e0 a4 3c 3d d4 27 3d e1 05 4a bd
       0.11793639 0.020126777 0.04097389 -0.049322013
000020 b3 7a 32 3c fc 82 23 3e ad e3 f2 3d 40 11 d4 bd
       0.010893512 0.15967935 0.11859832 -0.10354853
000030 a5 3f 95 3d 85 ab dd bd ad e8 73 3d 14 7a 8e 3d
       0.0728753 -0.108237304 0.05954807 0.06956878
000040 9d 3e 37 3d e7 6c d4 3d c8 5c b7 bd ef 09 48 3e
       0.044737447 0.10372334 -0.089532435 0.1953504
000050 04 dd 98 3d 4c 29 2d 3e 4e 87 aa bd f0 e1 3c bd
       0.074640304 0.16910285 -0.083265886 -0.04611391
000060 2f 2b 9f 3d ec 5a 49 3e fa 07 43 3e ba d7 2d be
       0.077719085 0.1966359 0.19046012 -0.16976824
000070 0d de 0f bd ea 10 d1 3d c0 fb 59 bd de 1b 89 3d
       -0.035123874 0.10208304 -0.053218603 0.06694768
000080 08 ae 0c be 4c 44 0c be 02 42 f6 bd be c1 94 3d
       -0.13738263 -0.13697928 -0.12024309 0.07263516
000090 52 27 44 3e dc f0 b1 3d d7 34 c0 3d 1f 36 d7 bd
       0.19155625 0.086885184 0.093850784 -0.1050837
0000a0 a4 0f e9 3c e7 86 0b be 0d cc f3 bd 03 35 37 3e
       0.02844984 -0.1362568 -0.11904154 0.17891316
0000b0 5b ca 95 3d 8c fc fe bc 0c e8 5a 3e 34 1b 38 3d
       0.07313987 -0.031126283 0.21377581 0.044947818
0000c0 9e e5 46 3e 99 58 50 3d f1 b3 39 3e 9b 94 50 3e
       0.1942353 0.050865743 0.18135048 0.20369188
0000d0 95 52 03 bc 49 33 26 3d 52 5b 54 be a6 5d 21 3e
       -0.008015295 0.040576253 -0.20737961 0.1575838
0000e0 0f b7 b6 bc 5f f4 9d 3d 01 1c a4 bd 20 fb 16 3e
       -0.022304086 0.07712626 -0.08013154 0.14744234
0000f0 7e 6a 7a 3d eb 1a 34 be ab 40 58 be 06 96 1a be
       0.061136715 -0.17588393 -0.21118419 -0.15096292
000100 74 d2 12 3c 21 22 34 be ff f2 92 3d 7d 42 38 3c
       0.008961309 -0.17591144 0.07175254 0.011246321
000110 09 ab 3a be 8b 1d 04 be cf 69 55 3d ee a2 11 3e
       -0.18229307 -0.12901895 0.05210286 0.14222309
000120 98 a2 8f 3d a9 fc 23 be 39 83 15 3d aa d4 a2 3d
       0.07013434 -0.16014351 0.036502097 0.07950719
000130 21 87 50 3e 40 38 29 3e a6 0f cb 3c c1 22 0b be
       0.20364048 0.16525364 0.024787735 -0.13587476
000140 bc 3f 83 bb e2 9c 16 bd 44 eb 19 be b8 a3 00 3e
       -0.0040054005 -0.03677071 -0.15031153 0.12562454
000150 2a 05 09 3e bb db 38 3d 56 62 c0 3d 1a 80 24 3e
       0.13380876 0.045131426 0.09393756 0.16064492
000160 ee ab 2c 3e 16 65 68 3d 0c bf 4f 3c 50 73 36 be
       0.16862461 0.056737028 0.0126798265 -0.17817426
000170 b5 aa 9a 3d 0a d0 c5 3d 27 c8 4c 3e 77 21 45 3e
       0.07552091 0.09658821 0.19998227 0.19251047
000180 26 b2 39 bd 1d 34 35 be ab ce 4e be ab 8f 9f bc
       -0.04533591 -0.17695661 -0.20196025 -0.019477686
000190 4c 87 ac bd b4 c7 0c 3e 91 8f cc bb 08 e8 2c bd
       -0.08424243 0.13748056 -0.0062427004 -0.04221347
0001a0 90 33 98 3d de 00 58 3e b7 7d 21 bd 85 71 5a 3e
       0.0743171 0.21094081 -0.03942653 0.21332367
0001b0 56 2e 9b bd e5 9b cf 3d a4 00 de 3b a4 88 12 be
       -0.07577197 0.101371564 0.0067749787 -0.14309937
0001c0 39 1c 38 3e 6c 5e 34 3e 96 42 20 3e 0d ee e0 bd
       0.17979516 0.17614144 0.156504 -0.109829046
0001d0 31 a2 e2 bd ae 77 4a 3e 7f c8 17 be 65 17 57 be
       -0.11066092 0.19772217 -0.14822577 -0.21005018
0001e0 60 03 48 3e 39 e5 5c be 25 fb de 3c 0a 3e 35 3e
       0.19532537 -0.21571817 0.027219364 0.17699447
0001f0 ba f4 43 bd d4 57 21 be 62 78 a1 3d bb 96 73 bd
       -0.04784081 -0.1575616 0.07884289 -0.05946992
000200 61 1f 75 3d 81 45 5b be 13 f8 01 be 7d bd 41 bd
       0.05984438 -0.21413232 -0.12692289 -0.04729985
000210 de 3f b6 3d c2 02 57 be 21 b3 4b be 4f b5 c3 bd
       0.088989004 -0.20997146 -0.19892551 -0.09556066
000220 d2 fc 56 3d d0 ff 22 3e 65 23 fe bc 30 4e 56 be
       0.052487202 0.15917897 -0.031022737 -0.20928264
000230 91 48 59 be 9c 27 58 3e c7 2a 1a be d9 93 1e 3e
       -0.21219088 0.2110886 -0.15055381 0.15486087
000240 4c 4e 88 3d 86 d5 57 3e b9 27 5b be 16 0b 52 be
       0.06655559 0.21077546 -0.21401872 -0.20512041
000250 0f 67 4b bd 51 cd 94 3b 44 4f ca bc d7 d8 08 be
       -0.04965883 0.004541077 -0.024696 -0.13363968
000260 57 bc 8d 3d ce ff 09 be fb 16 20 3e 93 b2 9c bd
       0.069206886 -0.13476488 0.15633766 -0.07651248
000270 d4 8d 80 bd 43 d1 34 3e 39 59 82 bd cb da 10 3d
       -0.062770516 0.17657952 -0.06364674 0.035364907
000280 4b 72 38 3e c3 fd 9d 3d 7f 49 4e be da db 1e bd
       0.1801235 0.07714417 -0.20145224 -0.038783886
000290 6c d9 e7 3d 0e d0 f8 bd f6 92 07 3e 16 95 54 3e
       0.11320767 -0.12149058 0.13239655 0.20759997
0002a0 f3 da 1e be 84 ec 87 bd 13 53 78 3d 37 15 66 bd
       -0.1551321 -0.06636909 0.0606261 -0.056172576
0002b0 85 d0 1e 3d 38 cc 11 bd 1c 7f 0b 3e 59 01 cc 3c
       0.03877308 -0.03559515 0.13622707 0.024902986
0002c0 ae e5 1c be 01 b2 31 3d 05 fb 0f be 62 52 f0 3d
       -0.15321991 0.04338265 -0.140606 0.11734463
0002d0 03 53 49 be 1e fe cc bd 8a 70 17 bd 79 77 cd 3c
       -0.19660573 -0.100094065 -0.03697256 0.025081383
0002e0 3c 86 43 be cc c5 97 3c 86 4f 17 bd 20 d6 45 3d
       -0.19094175 0.018526934 -0.036941074 0.04829991
0002f0 e4 fc 29 be ac 60 83 bd 26 c2 3d 3e 00 29 47 3e
       -0.16600376 -0.06414923 0.18531093 0.19449234
000300 50 b8 31 3d 11 ea 44 3e ed 7d 07 3c 58 b0 f6 3d
       0.043388665 0.19229914 0.008269769 0.12045354
000310 2c ca 9a 3d 90 01 3c bd b4 55 33 3e 0a 46 32 3e
       0.075580925 -0.045899928 0.17513162 0.1740953
000320 13 42 00 be 4b f8 4a 3e e2 f0 ff bd db fe 2d be
       -0.12525205 0.19821279 -0.124971166 -0.16991751
000330 4e e9 14 bd c5 fc f7 3c 6c 90 11 3e 49 ae 52 3e
       -0.03635531 0.030271897 0.14215249 0.20574297
000340 f0 40 23 be 1d 55 5d be cf 39 f1 3d 71 f2 0a bd
       -0.1594274 -0.216145 0.11778604 -0.033922616
000350 d2 e7 3e be 63 ba 04 3e e0 1c 48 3e 37 d5 ac bd
       -0.1864312 0.12961726 0.19542265 -0.08439105
000360 4d 18 be 3d d6 a4 65 bc 32 57 dc bd df 56 fe bd
       0.09281979 -0.014016351 -0.10758819 -0.12418913
000370 c9 ac 94 bc 01 5c 0b 3e 47 9f 4e be e7 08 43 be
       -0.018148797 0.13609315 -0.20177947 -0.19046365
000380 81 0e 24 3e 7c 46 5b bc a3 87 16 3e 3b 83 5d be
       0.16021158 -0.013383504 0.14700179 -0.21632092
000390 07 d3 3c 3e d0 44 71 bd 44 57 3b 3d 63 f5 36 3e
       0.18439876 -0.058903515 0.04573752 0.17867045
0003a0 6e cd 9d 3d 4d e1 5d bd a3 3e e0 3d 1f 38 64 bd
       0.07705198 -0.05416994 0.10949447 -0.055717584
0003b0 2d 48 3a be 3d 31 19 3e dc fc 40 bd bc 18 31 be
       -0.18191595 0.14960189 -0.047116145 -0.17294592
0003c0 c0 22 37 3e f1 c4 3a 3e d2 52 ec bd d7 99 1c be
       0.1788435 0.1823919 -0.11539234 -0.1529306
0003d0 cc 64 b5 bd b4 de 42 39 90 70 e4 3c c3 a9 29 bd
       -0.08857116 0.00018584245 0.027885705 -0.041421663
0003e0 bb 8d a8 3d 93 9e 54 be 35 ed 4c 3d c2 66 2f 3e
       0.08230158 -0.20763616 0.050030906 0.17129043
0003f0 55 87 bd 3d 77 af 21 be 3d f1 07 be 2e 1b 9c 3d
       0.09254328 -0.15789591 -0.13275619 0.076223716

gat_layers.1.att_src f4 [1, 4, 16]
000000 83 a1 0d 3e d1 63 11 3c 56 39 c6 be 8b aa a8 3e
       0.13831143 0.008873896 -0.3871562 0.32942614
000010 67 4c 8a be 23 ae 70 be 08 02 02 3f 55 ff 80 be
       -0.27011415 -0.23503928 0.5078435 -0.25194803
000020 04 72 ed be d2 b2 9b 3d d9 bd cb be 93 97 ec 3e
       -0.4637605 0.07602467 -0.3979328 0.46209392
000030 11 7d cc be 4c 63 e5 3e 96 ef ca be 5e 0b e2 3e
       -0.39939168 0.4480232 -0.39635915 0.44149297
000040 77 37 03 bf b7 9a 18 3e d3 96 27 be 43 34 84 3e
       -0.5125651 0.14902769 -0.16366129 0.25821123
000050 cc dd 4f be 79 d7 e2 be e2 b3 da bd 47 d3 81 be
       -0.20299453 -0.44305018 -0.10678841 -0.25356504
000060 52 1b ff bd 33 23 9d bc df 8d f3 be 6a 39 f4 be
       -0.12456383 -0.019181823 -0.47569177 -0.47700053
000070 52 fd b9 be 03 e3 c7 be 84 0f ce be 34 2f 0a 3f
       -0.3632608 -0.39040384 -0.40246212 0.53978276
000080 1f ae 39 be 63 ea f2 bd 12 0c 7c be 54 2a f0 be
       -0.18132828 -0.11861112 -0.2461398 -0.46907294
000090 e5 a0 cb 3e 13 e0 fb 3e e5 53 bd 3e 15 4f a0 be
       0.3977119 0.49194393 0.3697807 -0.31310335
0000a0 e5 da e9 be 4b 23 03 bb e5 79 d6 3d fb 1e 3b 3e
       -0.45674816 -0.002001005 0.10472468 0.18273537
0000b0 33 6b af 3e c8 4a 3b bd 9b a6 9c 3e 93 49 0b 3e
       0.34261474 -0.045725614 0.3059586 0.13602285
0000c0 6d 14 99 be 5d a1 46 bc 6c ec 27 be ea 77 ea be
       -0.29898396 -0.012123433 -0.16398782 -0.45794612
0000d0 04 d7 09 3f df 41 89 3e 24 8b eb 3d 31 75 cf 3d
       0.5384371 0.26808068 0.11501148 0.10129774
0000e0 a2 9f f5 bd 07 bd f1 be cb 49 a5 be 81 48 f2 3e
       -0.11993338 -0.4721453 -0.32282862 0.4732094
0000f0 87 03 d0 be 83 d7 00 3f be d7 d2 be a5 8a 2d 3e
       -0.4062769 0.50328845 -0.41180223 0.1694742

gat_layers.1.att_dst f4 [1, 4, 16]
000000 90 03 17 be a1 90 85 be 09 88 19 be 59 15 f5 be
       -0.14747453 -0.26086906 -0.149933 -0.4786785
000010 0a 58 db be 25 42 08 be 3b 97 89 be 68 e8 68 be
       -0.42840606 -0.13306482 -0.26873192 -0.22744906
000020 46 47 04 be 88 03 03 be b2 69 08 bf 62 18 f4 be
       -0.12917814 -0.12794316 -0.5328628 -0.47674853
000030 cd 64 a4 be 95 31 e3 bd 8f e2 df 3e ef 18 08 3f
       -0.32108155 -0.110934414 0.43727538 0.53163046
000040 b1 d3 62 3e 5d b0 c9 be 2f 1c 19 be da 81 03 bf
       0.22151066 -0.39392367 -0.14952157 -0.5137001
000050 bc ac c9 3e d7 ec 76 3e 58 36 09 bc ea 22 f3 bd
       0.39389598 0.24113785 -0.008374773 -0.11871894
000060 25 d1 7d 3e af 89 a7 3c 45 10 08 bf bf 09 7d be
       0.24786814 0.020451395 -0.53149825 -0.24710749
000070 76 69 0b 3f 19 8f c7 3e 73 9c 98 be f4 c6 98 3e
       0.54457796 0.38976362 -0.2980686 0.2983929
000080 22 0c 9b 3e 7f b3 a0 be da 2d 15 be 1f 4a 4a 3d
       0.30282694 -0.31386945 -0.14568272 0.049387094
000090 dc ac 85 be 52 d1 f6 3e 93 1e 32 be c1 3f a3 3d
       -0.26108444 0.48206574 -0.17394476 0.079711445
0000a0 f3 32 d0 bd b2 c2 da be 70 a3 24 3e 70 9c 06 3f
       -0.10165968 -0.42726666 0.16077971 0.52582455
0000b0 e1 c7 d3 be be 31 fc bd 69 66 23 be 42 4a bd 3e
       -0.41363433 -0.12314175 -0.15957035 0.36970717
0000c0 3e ca 8c 3c 20 55 9d be 08 49 c9 bc 14 d3 63 3d
       0.01718628 -0.30729008 -0.024570957 0.05562122
0000d0 62 8f ea 3e 16 c6 c9 3e 0b e9 b4 be 98 71 78 be
       0.45812517 0.3940894 -0.35334048 -0.24262083
0000e0 a3 f6 ab be e3 77 db be bd 92 d9 3e 14 cf 9c be
       -0.33586606 -0.42864904 0.42494765 -0.30626738
0000f0 9a 82 df be 42 0f 0b 3f 66 38 39 3e cb dd 0f be
       -0.4365433 0.54320157 0.1808792 -0.14049451

gat_layers.1.att_edge f4 [1, 4, 16]
000000 79 d6 08 bf 23 e2 80 be 57 9b 3c 3d 24 1a f2 be
       -0.5345226 -0.2517253 0.04604658 -0.4728557
000010 7f ca c7 be b6 c0 53 be 1c 0a 1f 3e 15 82 06 3f
       -0.3902168 -0.20678982 0.155312 0.5254224
000020 ae d6 f7 be b4 25 eb 3e a7 f4 3c 3e 72 30 cf 3e
       -0.48405975 0.45927203 0.18452702 0.40466648
000030 a8 f9 cf 3e a2 1f af 3e d3 f5 cf 3e a8 2f b7 3e
       0.4062016 0.3420382 0.40617236 0.35778546
000040 67 a8 0a be e3 56 3b be 55 82 de be 35 98 bf 3e
       -0.13540803 -0.18294863 -0.4345881 0.37420812
000050 3d fd 22 3e a7 7d be be d8 2d 10 be 95 a6 da 3e
       0.15916915 -0.3720524 -0.14079988 0.42705217
000060 41 78 97 be fe 36 7a 3e 49 49 29 be d9 91 8e 3d
       -0.29583934 0.2443504 -0.16531862 0.06961412
000070 02 b6 2f bc 53 4b a4 3e 59 30 2f 3e 34 f5 66 bc
       -0.010724546 0.32088718 0.17108287 -0.014096547
000080 3a cd 0f 3e 8f 6c f6 3d 7d 0d 57 3d 56 6a 8b bd
       0.14043131 0.12032425 0.052503098 -0.06807391
000090 b5 9a 8a 3e 0e 54 d7 3e fb ff cc 3e ab c5 05 3f
       0.27071157 0.42056316 0.40039048 0.5225474
0000a0 11 22 b5 3e 77 ff 80 3e 82 da db bd 98 0d d0 be
       0.35377553 0.25194904 -0.107350364 -0.4063537
0000b0 26 d2 91 bd 52 e2 ff 3e b4 b8 58 3e ca cb 00 bf
       -0.07120161 0.49977356 0.21164209 -0.5031096
0000c0 70 46 c3 3d c6 91 df 3e 17 1f 49 3e 97 d3 db 3e
       0.09534919 0.43665904 0.19640766 0.42934868
0000d0 41 67 b2 bb fb 41 fc 3e 70 ec bf be d8 68 9e be
       -0.0054444377 0.4926909 -0.37485075 -0.30939364
0000e0 0e 94 4b 3e c6 e6 53 bd 36 23 45 be f4 66 14 bd
       0.19880697 -0.051733755 -0.19251713 -0.036230996
0000f0 d1 a7 d4 bc 16 90 e5 3e 2f 04 83 bc cb 61 84 bd
       -0.025958927 0.4483649 -0.015993206 -0.06463965

gat_layers.1.bias f4 [64]
000000 f9 89 f4 bb be f7 f3 bb c2 40 f3 bb 4a c0 f3 bb
       -0.0074627367 -0.0074453047 -0.007423491 -0.007438694
000010 0c 46 f3 bb 7d 21 8a bb f7 a6 31 3c 06 0f f3 bb
       -0.0074241217 -0.004215418 0.01084303 -0.0074175624
000020 de c1 f5 bb f6 9f f2 bb 34 73 bb bb 70 a2 f3 bb
       -0.0074999174 -0.0074043227 -0.0057205204 -0.0074351355
000030 93 f8 43 3c e2 6d f3 bb 29 c8 4a 3c 85 80 f3 bb
       0.01196112 -0.0074288705 0.012376823 -0.007431092
000040 ff 46 d6 bb e7 e0 f2 bb 68 ec f3 bb 76 2f ef bb
       -0.006539225 -0.0074120644 -0.0074439533 -0.007299359
000050 6f 59 f3 bb 34 ba f3 bb 91 32 e9 bb f3 55 f3 bb
       -0.007426433 -0.0074379686 -0.0071166237 -0.0074260174
000060 8c 49 f3 3b a9 c9 f3 bb bf 66 f3 bb ae 5d f3 bb
       0.007424539 -0.0074398112 -0.00742802 -0.007426939
000070 c7 0b f3 bb 3b c7 91 ba a1 86 f3 bb b1 d7 f2 bb
       -0.0074171755 -0.0011121997 -0.0074318205 -0.0074109663
000080 a2 9b f2 bb 10 c4 f3 bb 8c fb 16 3c 79 6d f3 bb
       -0.007403807 -0.007439144 0.009215247 -0.0074288216
000090 0e 9f e6 bb 85 db e5 bb 42 16 44 3c 4b 5f 05 3b
       -0.0070380038 -0.007014694 0.011968197 0.0020350988
0000a0 63 b9 e2 bb 9f a2 23 3a 38 52 5a 3c 5d e9 f3 bb
       -0.0069190725 0.0006242189 0.013325267 -0.0074435906
0000b0 b8 f0 f3 bb f7 da f3 bb 80 99 f3 bb a2 bb f3 bb
       -0.0074444674 -0.007441874 -0.00743407 -0.007438139
0000c0 25 dc f3 bb 5b 9f db bb 9c d4 f3 bb 56 7e f3 bb
       -0.0074420148 -0.0067023463 -0.0074411165 -0.007430832
0000d0 73 b2 f3 bb bc 3e f4 bb 74 cb f3 bb 8b b4 ed 3b
       -0.0074370443 -0.0074537676 -0.007440025 0.0072541884
0000e0 98 ad 54 3b 3b 91 f3 bb b0 40 76 bb 5e d1 b8 bb
       0.0032452103 -0.0074330843 -0.0037575178 -0.005640193
0000f0 50 26 64 3c 7d af f3 bb 29 7d 01 3a 39 3a 31 bb
       0.01392515 -0.0074366913 0.000493961 -0.002704276

gat_layers.1.lin.weight f4 [64, 64]
000000 e6 9e d3 bc ef c4 61 3e 4b a1 1b 3e d3 6f c9 3d
       -0.025832605 0.2204778 0.15198247 0.09835782
000010 01 06 ce 3d 95 6d cf bd 3e f0 42 3c 12 23 15 3e
       0.10059739 -0.10128323 0.0118980985 0.1456416
000020 9e 80 3c bd d7 c9 50 3e fe 41 6c bd 19 ec 99 bd
       -0.046021096 0.20389496 -0.057680123 -0.07515735
000030 f7 22 20 be f4 fc 01 bd d3 06 26 3e 28 fd 57 be
       -0.15638338 -0.031735376 0.1621354 -0.21092665
000040 cf 3c a5 bd 9a 1c 22 3e 5b 12 25 3e f8 c0 13 3e
       -0.08068239 0.15831223 0.16120283 0.1442908
000050 58 43 fd bd 13 ea 46 3e fe 4f 36 3e 79 87 19 be
       -0.123663604 0.1942523 0.17803952 -0.14993085
000060 6f 77 9d bd f9 bb 09 3e 0e 50 db bc 59 03 b3 3d
       -0.07688796 0.13450612 -0.026771571 0.08740873
000070 42 64 bf bd e5 86 24 be b7 3a 0a be aa 73 ce bd
       -0.093452945 -0.16067083 -0.1349896 -0.10080655
000080 43 cd 18 3e 73 1f c9 bc ff 63 5c 3d d1 41 a4 3d
       0.14922051 -0.024551129 0.0538063 0.08020366
000090 e5 e7 69 bd de 35 4b bc 6a a0 e1 3c a6 4c 95 3d
       -0.057105917 -0.01240298 0.027542312 0.0729001
0000a0 4b 06 1b be 71 0e d7 3a dd b9 1d 3d fc c1 00 3c
       -0.1513912 0.0016407502 0.03850733 0.0078587495
0000b0 8e 2a bc 3d 5b 48 4f be 8b 51 52 bd 6b ff 53 3e
       0.09187804 -0.20242445 -0.051347297 0.20702903
0000c0 46 1e 1b 3d 99 a4 5d 3d 1a 58 8e bd 83 b2 39 be
       0.037870668 0.05411205 -0.06950398 -0.18134503
0000d0 92 01 89 3d ea 1e 29 3c d4 bb 20 be 68 50 90 bd
       0.06689753 0.010322312 -0.1569665 -0.07046586
0000e0 bc d2 3e be 10 44 2b 3e 26 2d f7 3d 92 17 52 3e
       -0.18635076 0.16725183 0.12069158 0.20516804
0000f0 c7 ed 42 3e c9 7c 3f be 95 f5 94 bb 30 8e 4c bd
       0.19036017 -0.18699946 -0.004545877 -0.049940288
000100 9e 99 53 3e 84 18 57 3e f7 42 c4 3d 38 da 20 3e
       0.20664069 0.21005446 0.09583085 0.15708244
000110 d0 6d 1e 3e 76 da 1e be 49 e7 86 bd 41 6f 90 bd
       0.15471578 -0.15513024 -0.06587083 -0.0705247
000120 1f 46 e3 bd 01 09 49 be 98 53 49 3e b2 8f 42 be
       -0.11097359 -0.19632341 0.19660795 -0.19000128
000130 f5 e1 38 be ad 1b 00 3d c9 3c ed 3d bd 71 9e 3d
       -0.18054946 0.031276394 0.115838595 0.077365376
000140 b3 b6 92 bc 23 ce f6 3d 87 9f 23 3e 47 43 50 3e
       -0.017909383 0.12051036 0.15978824 0.20338164
000150 aa b0 68 bc f8 26 10 3d c4 ba cb 3d 4f c5 1c 3e
       -0.014202276 0.035193413 0.09947732 0.15309642
000160 d5 97 da bd 67 95 25 be 01 4b 01 bd 4f 71 4e 3e
       -0.10673491 -0.16170274 -0.03156567 0.20160411
000170 14 2c 2b 3e 41 b3 09 be e9 58 2a be 91 6d ed bb
       0.16716033 -0.13447286 -0.16635479 -0.0072457273
000180 7e 7e e7 bc 53 5d f4 bd cd 90 09 3e 18 c1 20 3e
       -0.028258558 -0.11931863 0.13434143 0.1569866
000190 4f 4d 25 be 4e 2f 1c be 49 f1 14 be 46 ce 32 be
       -0.16142772 -0.1525242 -0.14545168 -0.174615
0001a0 03 71 b3 3d ea 12 8c 3c cf 0f ff bd eb a3 8e bd
       0.0876179 0.017098863 -0.12454187 -0.069648586
0001b0 e1 d4 35 3e 3c 62 0b be 2c 55 e0 bd fa 1b 52 be
       0.17756988 -0.13611692 -0.10953745 -0.20518485
0001c0 89 b5 99 39 cf ef b7 3d 33 b8 66 3d 42 e3 30 bd
       0.00029317688 0.08981287 0.05632801 -0.04318548
0001d0 28 53 23 be 81 dd 10 bd c3 a0 35 3e e8 23 ff 3d
       -0.1594969 -0.035367493 0.17737107 0.124580204
0001e0 be 1a 0f be f2 f5 f9 3d 08 88 aa bb 85 3a 41 3e
       -0.13975045 0.122051135 -0.0052042045 0.1886998
0001f0 a5 8d 1e 3e cf 8d 52 3e 5f 64 ef bd bc 9d 6e 3d
       0.1548372 0.20561908 -0.11689066 0.058255896
000200 fa 43 49 be d2 86 cb 3d 4d 51 54 3d 51 82 02 be
       -0.19654837 0.09937824 0.051835347 -0.12745024
000210 35 dd fa 3d 63 42 24 be 00 e1 c4 3d ba 6b 8a ba
       0.12249223 -0.1604095 0.09613228 -0.001056067
000220 38 6b 56 be b4 a0 d1 bd be 33 ed bc 02 03 7b 3d
       -0.20939338 -0.1023573 -0.028955337 0.061282165
000230 91 9e 5d 3e 94 59 33 be 2f c5 5a 3e 26 c2 97 3d
       0.2164252 -0.1751464 0.21364282 0.07410078
000240 7a 7a 11 be a5 34 76 bc 8b d0 ea bd fd d9 01 3e
       -0.14206877 -0.0150272 -0.11465558 0.12680812
000250 30 5a 3a bd 83 06 ab 3d 84 22 32 be 77 35 a8 bd
       -0.045496166 0.083508514 -0.17395979 -0.082133226
000260 32 d0 b0 bd 60 47 97 3d fc 1c 30 3e 12 7e 9f 3d
       -0.0863346 0.073866606 0.17198557 0.07787718
000270 56 cc 4f be 40 01 14 3c b6 08 f3 bd c4 fb 19 be
       -0.20292792 0.009033501 -0.11866896 -0.15037447
000280 f3 e1 b7 3d ba 7a 5e 3b e0 60 cd bd 19 0d 13 be
       0.08978643 0.0033947662 -0.10028243 -0.14360465
000290 3e 45 92 3c 3a 13 85 bc 21 83 04 3c dc a7 2c be
       0.017855283 -0.01624452 0.008087904 -0.16860908
0002a0 75 0c 1a be 56 10 19 be 51 38 e2 3d 4c b6 77 bc
       -0.15043814 -0.14947638 0.11045898 -0.015119147
0002b0 18 82 08 3d a6 d1 42 3e 5a 4e 78 3c d2 38 06 be
       0.033327192 0.19025287 0.015155399 -0.13107613
0002c0 fc dd 4b 3e 6c b0 b7 3d 4e 88 0c be c7 71 50 3e
       0.19908899 0.08969197 -0.13723871 0.20355903
0002d0 c1 d8 40 3e 10 5d 33 be a7 02 1d 3c 47 29 0e be
       0.18832685 -0.1751597 0.009583152 -0.13882934
0002e0 57 00 53 be d9 e3 43 3e d4 00 0f 3d 18 be b6 3d
       -0.20605598 0.19129886 0.0349129 0.08922976
0002f0 82 ab 45 3e 9f 05 18 be eb 59 9b 3d e1 24 00 3e
       0.19303706 -0.14845894 0.0758551 0.12514068
000300 05 04 2c 3e 41 b6 ee bc 2c 9b 49 bd dd e3 4e 3e
       0.16798408 -0.02913964 -0.04922025 0.2020411
000310 0a 2e 29 3e cb 9e 24 3d 54 3a 96 3c 32 74 c7 3c
       0.16521469 0.0401905 0.01833836 0.024347398
000320 32 24 30 3e 5a 41 24 3e 18 e8 ab 3c 56 62 0b be
       0.17201307 0.16040555 0.020984694 -0.13611731
000330 79 c5 c4 3d 29 8a 25 be 7c fb 5f 3e c5 a7 0b 3e
       0.096079774 -0.16165985 0.21873277 0.13638218
000340 e0 14 40 be 0b 0d 0b 3e 7e e2 9f bd 7e ee 58 be
       -0.18757963 0.13579194 -0.07806872 -0.21184728
000350 66 f3 45 3e b3 8c 19 3e b7 44 13 3e 10 d7 7a bd
       0.1933113 0.14995079 0.14381681 -0.061240256
000360 fa 04 4a be f8 5d 26 3e b1 75 11 be f5 8b 05 3e
       -0.19728461 0.16246784 -0.14205052 0.1304167
000370 aa ae 13 bd ab f0 2c 3e b8 7a 29 be 75 01 03 3d
       -0.036055245 0.16888683 -0.1655072 0.03198381
000380 3f 00 1c 3e 7c 5a f6 bc f1 11 3d bd 7c 76 c5 bc
       0.15234469 -0.030072443 -0.04615969 -0.02410435
000390 88 30 5c bd 76 b3 1b 3d 35 a1 af 3d 37 0f 37 3d
       -0.05375722 0.038012944 0.0857567 0.044692244
0003a0 a7 94 c5 3d 25 53 f9 3d a8 c5 3c 3d 8c d5 a5 3d
       0.09647494 0.12174062 0.046086937 0.080973715
0003b0 6e 40 b9 bd 0f 05 b6 3d 14 09 3a be 0f e3 57 be
       -0.09045492 0.088876836 -0.18167526 -0.2108271
0003c0 6a 55 20 3e 7b 45 ab bd 6d a4 b8 bd 1f 23 29 3e
       0.15657583 -0.08362862 -0.09015737 0.16517304
0003d0 12 c8 1c 3e f2 39 73 bc 3f 10 89 bc de 59 61 be
       0.15310696 -0.014845358 -0.01673138 -0.22006938
0003e0 3d ee 8f 3c 4b e8 05 be ae fc ed 3c 9e 02 39 3e
       0.017569656 -0.13076894 0.029051151 0.18067405
0003f0 09 f4 48 be 09 24 15 bd 07 62 57 be 65 58 60 3e
       -0.19624342 -0.03641132 -0.21033488 0.2190872
